…
I0624 20:13:49.806560 23171 net.cpp:313] The NetState phase (0) differed from the phase (1) specified by a rule in layer data
I0624 20:13:49.806802 23171 net.cpp:49] Initializing net from parameters: 
name: "BPnet"
state {
  phase: TRAIN
}
layer {
  name: "data"
  type: "Data"
  top: "data"
  top: "label"
  include {
    phase: TRAIN
  }
  transform_param {
    mirror: false
    crop_size: 224
    mean_value: 100
    scale_jitter_range: 0.1
    contrast_jitter_range: 0.1
  }
  data_param {
    source: "data/train_lmdb"
    batch_size: 32
    backend: LMDB
  }
}
layer {
  name: "conv1_1"
  type: "Convolution"
  bottom: "data"
  top: "conv1_1"
  param {
    lr_mult: 1
    decay_mult: 1
  }
  convolution_param {
    num_output: 32
    bias_term: false
    pad: 3
    kernel_size: 7
    stride: 2
    weight_filler {
      type: "xavier"
    }
  }
}
layer {
  name: "bn1_1"
  type: "BatchNorm"
  bottom: "conv1_1"
  top: "conv1_1"
  param {
    lr_mult: 0
  }
  param {
    lr_mult: 0
  }
  param {
    lr_mult: 0
  }
  batch_norm_param {
    use_global_stats: false
  }
}
layer {
  name: "scale1_1"
  type: "Scale"
  bottom: "conv1_1"
  top: "conv1_1"
  param {
    lr_mult: 1
    decay_mult: 1
  }
  param {
    lr_mult: 1
    decay_mult: 1
  }
  scale_param {
    bias_term: true
    bias_filler {
      type: "constant"
      value: 0
    }
  }
}
layer {
  name: "relu1_1"
  type: "ReLU"
  bottom: "conv1_1"
  top: "conv1_1"
}
layer {
  name: "conv1_2"
  type: "Convolution"
  bottom: "conv1_1"
  top: "conv1_2"
  param {
    lr_mult: 1
    decay_mult: 1
  }
  convolution_param {
    num_output: 32
    bias_term: false
    pad: 1
    kernel_size: 3
    weight_filler {
      type: "xavier"
    }
  }
}
layer {
  name: "bn1_2"
  type: "BatchNorm"
  bottom: "conv1_2"
  top: "conv1_2"
  param {
    lr_mult: 0
  }
  param {
    lr_mult: 0
  }
  param {
    lr_mult: 0
  }
  batch_norm_param {
    use_global_stats: false
  }
}
layer {
  name: "scale1_2"
  type: "Scale"
  bottom: "conv1_2"
  top: "conv1_2"
  param {
    lr_mult: 1
    decay_mult: 1
  }
  param {
    lr_mult: 1
    decay_mult: 1
  }
  scale_param {
    bias_term: true
    bias_filler {
      type: "constant"
      value: 0
    }
  }
}
layer {
  name: "relu1_2"
  type: "ReLU"
  bottom: "conv1_2"
  top: "conv1_2"
}
layer {
  name: "pool1"
  type: "Pooling"
  bottom: "conv1_2"
  top: "pool1"
  pooling_param {
    pool: MAX
    kernel_size: 2
    stride: 2
  }
}
layer {
  name: "conv2_1"
  type: "Convolution"
  bottom: "pool1"
  top: "conv2_1"
  param {
    lr_mult: 1
    decay_mult: 1
  }
  convolution_param {
    num_output: 64
    bias_term: false
    pad: 1
    kernel_size: 3
    weight_filler {
      type: "xavier"
    }
  }
}
layer {
  name: "bn2_1"
  type: "BatchNorm"
  bottom: "conv2_1"
  top: "conv2_1"
  param {
    lr_mult: 0
  }
  param {
    lr_mult: 0
  }
  param {
    lr_mult: 0
  }
  batch_norm_param {
    use_global_stats: false
  }
}
layer {
  name: "scale2_1"
  type: "Scale"
  bottom: "conv2_1"
  top: "conv2_1"
  param {
    lr_mult: 1
    decay_mult: 1
  }
  param {
    lr_mult: 1
    decay_mult: 1
  }
  scale_param {
    bias_term: true
    bias_filler {
      type: "constant"
      value: 0
    }
  }
}
layer {
  name: "relu2_1"
  type: "ReLU"
  bottom: "conv2_1"
  top: "conv2_1"
}
layer {
  name: "conv2_2"
  type: "Convolution"
  bottom: "conv2_1"
  top: "conv2_2"
  param {
    lr_mult: 1
    decay_mult: 1
  }
  convolution_param {
    num_output: 64
    bias_term: false
    pad: 1
    kernel_size: 3
    weight_filler {
      type: "xavier"
    }
  }
}
layer {
  name: "bn2_2"
  type: "BatchNorm"
  bottom: "conv2_2"
  top: "conv2_2"
  param {
    lr_mult: 0
  }
  param {
    lr_mult: 0
  }
  param {
    lr_mult: 0
  }
  batch_norm_param {
    use_global_stats: false
  }
}
layer {
  name: "scale2_2"
  type: "Scale"
  bottom: "conv2_2"
  top: "conv2_2"
  param {
    lr_mult: 1
    decay_mult: 1
  }
  param {
    lr_mult: 1
    decay_mult: 1
  }
  scale_param {
    bias_term: true
    bias_filler {
      type: "constant"
      value: 0
    }
  }
}
layer {
  name: "relu2_2"
  type: "ReLU"
  bottom: "conv2_2"
  top: "conv2_2"
}
layer {
  name: "pool2"
  type: "Pooling"
  bottom: "conv2_2"
  top: "pool2"
  pooling_param {
    pool: MAX
    kernel_size: 2
    stride: 2
  }
}
layer {
  name: "conv3_1"
  type: "Convolution"
  bottom: "pool2"
  top: "conv3_1"
  param {
    lr_mult: 1
    decay_mult: 1
  }
  convolution_param {
    num_output: 128
    bias_term: false
    pad: 1
    kernel_size: 3
    weight_filler {
      type: "xavier"
    }
  }
}
layer {
  name: "bn3_1"
  type: "BatchNorm"
  bottom: "conv3_1"
  top: "conv3_1"
  param {
    lr_mult: 0
  }
  param {
    lr_mult: 0
  }
  param {
    lr_mult: 0
  }
  batch_norm_param {
    use_global_stats: false
  }
}
layer {
  name: "scale3_1"
  type: "Scale"
  bottom: "conv3_1"
  top: "conv3_1"
  param {
    lr_mult: 1
    decay_mult: 1
  }
  param {
    lr_mult: 1
    decay_mult: 1
  }
  scale_param {
    bias_term: true
    bias_filler {
      type: "constant"
      value: 0
    }
  }
}
layer {
  name: "relu3_1"
  type: "ReLU"
  bottom: "conv3_1"
  top: "conv3_1"
}
layer {
  name: "conv3_2"
  type: "Convolution"
  bottom: "conv3_1"
  top: "conv3_2"
  param {
    lr_mult: 1
    decay_mult: 1
  }
  convolution_param {
    num_output: 128
    bias_term: false
    pad: 1
    kernel_size: 3
    weight_filler {
      type: "xavier"
    }
  }
}
layer {
  name: "bn3_2"
  type: "BatchNorm"
  bottom: "conv3_2"
  top: "conv3_2"
  param {
    lr_mult: 0
  }
  param {
    lr_mult: 0
  }
  param {
    lr_mult: 0
  }
  batch_norm_param {
    use_global_stats: false
  }
}
layer {
  name: "scale3_2"
  type: "Scale"
  bottom: "conv3_2"
  top: "conv3_2"
  param {
    lr_mult: 1
    decay_mult: 1
  }
  param {
    lr_mult: 1
    decay_mult: 1
  }
  scale_param {
    bias_term: true
    bias_filler {
      type: "constant"
      value: 0
    }
  }
}
layer {
  name: "relu3_2"
  type: "ReLU"
  bottom: "conv3_2"
  top: "conv3_2"
}
layer {
  name: "pool3"
  type: "Pooling"
  bottom: "conv3_2"
  top: "pool3"
  pooling_param {
    pool: MAX
    kernel_size: 2
    stride: 2
  }
}
layer {
  name: "conv4_1"
  type: "Convolution"
  bottom: "pool3"
  top: "conv4_1"
  param {
    lr_mult: 1
    decay_mult: 1
  }
  convolution_param {
    num_output: 256
    bias_term: false
    pad: 1
    kernel_size: 3
    weight_filler {
      type: "xavier"
    }
  }
}
layer {
  name: "bn4_1"
  type: "BatchNorm"
  bottom: "conv4_1"
  top: "conv4_1"
  param {
    lr_mult: 0
  }
  param {
    lr_mult: 0
  }
  param {
    lr_mult: 0
  }
  batch_norm_param {
    use_global_stats: false
  }
}
layer {
  name: "scale4_1"
  type: "Scale"
  bottom: "conv4_1"
  top: "conv4_1"
  param {
    lr_mult: 1
    decay_mult: 1
  }
  param {
    lr_mult: 1
    decay_mult: 1
  }
  scale_param {
    bias_term: true
    bias_filler {
      type: "constant"
      value: 0
    }
  }
}
layer {
  name: "relu4_1"
  type: "ReLU"
  bottom: "conv4_1"
  top: "conv4_1"
}
layer {
  name: "conv4_2"
  type: "Convolution"
  bottom: "conv4_1"
  top: "conv4_2"
  param {
    lr_mult: 1
    decay_mult: 1
  }
  convolution_param {
    num_output: 256
    bias_term: false
    pad: 1
    kernel_size: 3
    weight_filler {
      type: "xavier"
    }
  }
}
layer {
  name: "bn4_2"
  type: "BatchNorm"
  bottom: "conv4_2"
  top: "conv4_2"
  param {
    lr_mult: 0
  }
  param {
    lr_mult: 0
  }
  param {
    lr_mult: 0
  }
  batch_norm_param {
    use_global_stats: false
  }
}
layer {
  name: "scale4_2"
  type: "Scale"
  bottom: "conv4_2"
  top: "conv4_2"
  param {
    lr_mult: 1
    decay_mult: 1
  }
  param {
    lr_mult: 1
    decay_mult: 1
  }
  scale_param {
    bias_term: true
    bias_filler {
      type: "constant"
      value: 0
    }
  }
}
layer {
  name: "relu4_2"
  type: "ReLU"
  bottom: "conv4_2"
  top: "conv4_2"
}
layer {
  name: "pool4"
  type: "Pooling"
  bottom: "conv4_2"
  top: "pool4"
  pooling_param {
    pool: MAX
    kernel_size: 2
    stride: 2
  }
}
layer {
  name: "conv5_1"
  type: "Convolution"
  bottom: "pool4"
  top: "conv5_1"
  param {
    lr_mult: 1
    decay_mult: 1
  }
  convolution_param {
    num_output: 256
    bias_term: false
    pad: 1
    kernel_size: 3
    weight_filler {
      type: "xavier"
    }
  }
}
layer {
  name: "bn5_1"
  type: "BatchNorm"
  bottom: "conv5_1"
  top: "conv5_1"
  param {
    lr_mult: 0
  }
  param {
    lr_mult: 0
  }
  param {
    lr_mult: 0
  }
  batch_norm_param {
    use_global_stats: false
  }
}
layer {
  name: "scale5_1"
  type: "Scale"
  bottom: "conv5_1"
  top: "conv5_1"
  param {
    lr_mult: 1
    decay_mult: 1
  }
  param {
    lr_mult: 1
    decay_mult: 1
  }
  scale_param {
    bias_term: true
    bias_filler {
      type: "constant"
      value: 0
    }
  }
}
layer {
  name: "relu5_1"
  type: "ReLU"
  bottom: "conv5_1"
  top: "conv5_1"
}
layer {
  name: "conv5_2"
  type: "Convolution"
  bottom: "conv5_1"
  top: "conv5_2"
  param {
    lr_mult: 1
    decay_mult: 1
  }
  convolution_param {
    num_output: 256
    bias_term: false
    pad: 1
    kernel_size: 3
    weight_filler {
      type: "xavier"
    }
  }
}
layer {
  name: "bn5_2"
  type: "BatchNorm"
  bottom: "conv5_2"
  top: "conv5_2"
  param {
    lr_mult: 0
  }
  param {
    lr_mult: 0
  }
  param {
    lr_mult: 0
  }
  batch_norm_param {
    use_global_stats: false
  }
}
layer {
  name: "scale5_2"
  type: "Scale"
  bottom: "conv5_2"
  top: "conv5_2"
  param {
    lr_mult: 1
    decay_mult: 1
  }
  param {
    lr_mult: 1
    decay_mult: 1
  }
  scale_param {
    bias_term: true
    bias_filler {
      type: "constant"
      value: 0
    }
  }
}
layer {
  name: "relu5_2"
  type: "ReLU"
  bottom: "conv5_2"
  top: "conv5_2"
}
layer {
  name: "pool5"
  type: "Pooling"
  bottom: "conv5_2"
  top: "pool5"
  pooling_param {
    pool: AVE
    kernel_size: 7
    stride: 1
  }
}
layer {
  name: "fc2"
  type: "InnerProduct"
  bottom: "pool5"
  top: "fc2"
  inner_product_param {
    num_output: 2
  }
}
layer {
  name: "loss"
  type: "SoftmaxWithLoss"
  bottom: "fc2"
  bottom: "label"
  top: "loss"
}
layer {
  name: "accuracy"
  type: "Accuracy"
  bottom: "fc2"
  bottom: "label"
  top: "accuracy"
}
I0624 20:13:49.806982 23171 layer_factory.hpp:77] Creating layer data
I0624 20:13:49.807394 23171 net.cpp:91] Creating Layer data
I0624 20:13:49.807406 23171 net.cpp:399] data -> data
I0624 20:13:49.807428 23171 net.cpp:399] data -> label
I0624 20:13:49.808621 23175 db_lmdb.cpp:35] Opened lmdb data/train_lmdb
I0624 20:13:49.833968 23171 data_layer.cpp:42] output data size: 32,3,224,224
I0624 20:13:49.874547 23171 net.cpp:141] Setting up data
I0624 20:13:49.874574 23171 net.cpp:148] Top shape: 32 3 224 224 (4816896)
I0624 20:13:49.874579 23171 net.cpp:148] Top shape: 32 (32)
I0624 20:13:49.874582 23171 net.cpp:156] Memory required for data: 19267712
I0624 20:13:49.874590 23171 layer_factory.hpp:77] Creating layer label_data_1_split
I0624 20:13:49.874606 23171 net.cpp:91] Creating Layer label_data_1_split
I0624 20:13:49.874611 23171 net.cpp:425] label_data_1_split <- label
I0624 20:13:49.874620 23171 net.cpp:399] label_data_1_split -> label_data_1_split_0
I0624 20:13:49.874629 23171 net.cpp:399] label_data_1_split -> label_data_1_split_1
I0624 20:13:49.874692 23171 net.cpp:141] Setting up label_data_1_split
I0624 20:13:49.874704 23171 net.cpp:148] Top shape: 32 (32)
I0624 20:13:49.874709 23171 net.cpp:148] Top shape: 32 (32)
I0624 20:13:49.874713 23171 net.cpp:156] Memory required for data: 19267968
I0624 20:13:49.874717 23171 layer_factory.hpp:77] Creating layer conv1_1
I0624 20:13:49.874737 23171 net.cpp:91] Creating Layer conv1_1
I0624 20:13:49.874744 23171 net.cpp:425] conv1_1 <- data
I0624 20:13:49.874769 23171 net.cpp:399] conv1_1 -> conv1_1
I0624 20:13:50.210218 23171 net.cpp:141] Setting up conv1_1
I0624 20:13:50.210243 23171 net.cpp:148] Top shape: 32 32 112 112 (12845056)
I0624 20:13:50.210247 23171 net.cpp:156] Memory required for data: 70648192
I0624 20:13:50.210258 23171 layer_factory.hpp:77] Creating layer bn1_1
I0624 20:13:50.210274 23171 net.cpp:91] Creating Layer bn1_1
I0624 20:13:50.210278 23171 net.cpp:425] bn1_1 <- conv1_1
I0624 20:13:50.210283 23171 net.cpp:386] bn1_1 -> conv1_1 (in-place)
I0624 20:13:50.210438 23171 net.cpp:141] Setting up bn1_1
I0624 20:13:50.210448 23171 net.cpp:148] Top shape: 32 32 112 112 (12845056)
I0624 20:13:50.210449 23171 net.cpp:156] Memory required for data: 122028416
I0624 20:13:50.210458 23171 layer_factory.hpp:77] Creating layer scale1_1
I0624 20:13:50.210467 23171 net.cpp:91] Creating Layer scale1_1
I0624 20:13:50.210470 23171 net.cpp:425] scale1_1 <- conv1_1
I0624 20:13:50.210474 23171 net.cpp:386] scale1_1 -> conv1_1 (in-place)
I0624 20:13:50.210510 23171 layer_factory.hpp:77] Creating layer scale1_1
I0624 20:13:50.210605 23171 net.cpp:141] Setting up scale1_1
I0624 20:13:50.210613 23171 net.cpp:148] Top shape: 32 32 112 112 (12845056)
I0624 20:13:50.210615 23171 net.cpp:156] Memory required for data: 173408640
I0624 20:13:50.210621 23171 layer_factory.hpp:77] Creating layer relu1_1
I0624 20:13:50.210626 23171 net.cpp:91] Creating Layer relu1_1
I0624 20:13:50.210629 23171 net.cpp:425] relu1_1 <- conv1_1
I0624 20:13:50.210633 23171 net.cpp:386] relu1_1 -> conv1_1 (in-place)
I0624 20:13:50.210768 23171 net.cpp:141] Setting up relu1_1
I0624 20:13:50.210777 23171 net.cpp:148] Top shape: 32 32 112 112 (12845056)
I0624 20:13:50.210779 23171 net.cpp:156] Memory required for data: 224788864
I0624 20:13:50.210783 23171 layer_factory.hpp:77] Creating layer conv1_2
I0624 20:13:50.210790 23171 net.cpp:91] Creating Layer conv1_2
I0624 20:13:50.210793 23171 net.cpp:425] conv1_2 <- conv1_1
I0624 20:13:50.210798 23171 net.cpp:399] conv1_2 -> conv1_2
I0624 20:13:50.211632 23171 net.cpp:141] Setting up conv1_2
I0624 20:13:50.211644 23171 net.cpp:148] Top shape: 32 32 112 112 (12845056)
I0624 20:13:50.211647 23171 net.cpp:156] Memory required for data: 276169088
I0624 20:13:50.211652 23171 layer_factory.hpp:77] Creating layer bn1_2
I0624 20:13:50.211658 23171 net.cpp:91] Creating Layer bn1_2
I0624 20:13:50.211660 23171 net.cpp:425] bn1_2 <- conv1_2
I0624 20:13:50.211664 23171 net.cpp:386] bn1_2 -> conv1_2 (in-place)
I0624 20:13:50.211812 23171 net.cpp:141] Setting up bn1_2
I0624 20:13:50.211819 23171 net.cpp:148] Top shape: 32 32 112 112 (12845056)
I0624 20:13:50.211822 23171 net.cpp:156] Memory required for data: 327549312
I0624 20:13:50.211829 23171 layer_factory.hpp:77] Creating layer scale1_2
I0624 20:13:50.211838 23171 net.cpp:91] Creating Layer scale1_2
I0624 20:13:50.211839 23171 net.cpp:425] scale1_2 <- conv1_2
I0624 20:13:50.211843 23171 net.cpp:386] scale1_2 -> conv1_2 (in-place)
I0624 20:13:50.211872 23171 layer_factory.hpp:77] Creating layer scale1_2
I0624 20:13:50.211974 23171 net.cpp:141] Setting up scale1_2
I0624 20:13:50.211982 23171 net.cpp:148] Top shape: 32 32 112 112 (12845056)
I0624 20:13:50.211984 23171 net.cpp:156] Memory required for data: 378929536
I0624 20:13:50.211988 23171 layer_factory.hpp:77] Creating layer relu1_2
I0624 20:13:50.211992 23171 net.cpp:91] Creating Layer relu1_2
I0624 20:13:50.211995 23171 net.cpp:425] relu1_2 <- conv1_2
I0624 20:13:50.211999 23171 net.cpp:386] relu1_2 -> conv1_2 (in-place)
I0624 20:13:50.212127 23171 net.cpp:141] Setting up relu1_2
I0624 20:13:50.212136 23171 net.cpp:148] Top shape: 32 32 112 112 (12845056)
I0624 20:13:50.212137 23171 net.cpp:156] Memory required for data: 430309760
I0624 20:13:50.212141 23171 layer_factory.hpp:77] Creating layer pool1
I0624 20:13:50.212146 23171 net.cpp:91] Creating Layer pool1
I0624 20:13:50.212149 23171 net.cpp:425] pool1 <- conv1_2
I0624 20:13:50.212153 23171 net.cpp:399] pool1 -> pool1
I0624 20:13:50.212198 23171 net.cpp:141] Setting up pool1
I0624 20:13:50.212204 23171 net.cpp:148] Top shape: 32 32 56 56 (3211264)
I0624 20:13:50.212221 23171 net.cpp:156] Memory required for data: 443154816
I0624 20:13:50.212224 23171 layer_factory.hpp:77] Creating layer conv2_1
I0624 20:13:50.212232 23171 net.cpp:91] Creating Layer conv2_1
I0624 20:13:50.212235 23171 net.cpp:425] conv2_1 <- pool1
I0624 20:13:50.212240 23171 net.cpp:399] conv2_1 -> conv2_1
I0624 20:13:50.216977 23171 net.cpp:141] Setting up conv2_1
I0624 20:13:50.216990 23171 net.cpp:148] Top shape: 32 64 56 56 (6422528)
I0624 20:13:50.216994 23171 net.cpp:156] Memory required for data: 468844928
I0624 20:13:50.216998 23171 layer_factory.hpp:77] Creating layer bn2_1
I0624 20:13:50.217005 23171 net.cpp:91] Creating Layer bn2_1
I0624 20:13:50.217008 23171 net.cpp:425] bn2_1 <- conv2_1
I0624 20:13:50.217015 23171 net.cpp:386] bn2_1 -> conv2_1 (in-place)
I0624 20:13:50.218211 23171 net.cpp:141] Setting up bn2_1
I0624 20:13:50.218222 23171 net.cpp:148] Top shape: 32 64 56 56 (6422528)
I0624 20:13:50.218225 23171 net.cpp:156] Memory required for data: 494535040
I0624 20:13:50.218231 23171 layer_factory.hpp:77] Creating layer scale2_1
I0624 20:13:50.218238 23171 net.cpp:91] Creating Layer scale2_1
I0624 20:13:50.218241 23171 net.cpp:425] scale2_1 <- conv2_1
I0624 20:13:50.218245 23171 net.cpp:386] scale2_1 -> conv2_1 (in-place)
I0624 20:13:50.218279 23171 layer_factory.hpp:77] Creating layer scale2_1
I0624 20:13:50.218371 23171 net.cpp:141] Setting up scale2_1
I0624 20:13:50.218377 23171 net.cpp:148] Top shape: 32 64 56 56 (6422528)
I0624 20:13:50.218380 23171 net.cpp:156] Memory required for data: 520225152
I0624 20:13:50.218389 23171 layer_factory.hpp:77] Creating layer relu2_1
I0624 20:13:50.218394 23171 net.cpp:91] Creating Layer relu2_1
I0624 20:13:50.218395 23171 net.cpp:425] relu2_1 <- conv2_1
I0624 20:13:50.218399 23171 net.cpp:386] relu2_1 -> conv2_1 (in-place)
I0624 20:13:50.219059 23171 net.cpp:141] Setting up relu2_1
I0624 20:13:50.219076 23171 net.cpp:148] Top shape: 32 64 56 56 (6422528)
I0624 20:13:50.219080 23171 net.cpp:156] Memory required for data: 545915264
I0624 20:13:50.219084 23171 layer_factory.hpp:77] Creating layer conv2_2
I0624 20:13:50.219096 23171 net.cpp:91] Creating Layer conv2_2
I0624 20:13:50.219100 23171 net.cpp:425] conv2_2 <- conv2_1
I0624 20:13:50.219108 23171 net.cpp:399] conv2_2 -> conv2_2
I0624 20:13:50.220211 23171 net.cpp:141] Setting up conv2_2
I0624 20:13:50.220226 23171 net.cpp:148] Top shape: 32 64 56 56 (6422528)
I0624 20:13:50.220229 23171 net.cpp:156] Memory required for data: 571605376
I0624 20:13:50.220234 23171 layer_factory.hpp:77] Creating layer bn2_2
I0624 20:13:50.220247 23171 net.cpp:91] Creating Layer bn2_2
I0624 20:13:50.220252 23171 net.cpp:425] bn2_2 <- conv2_2
I0624 20:13:50.220257 23171 net.cpp:386] bn2_2 -> conv2_2 (in-place)
I0624 20:13:50.220525 23171 net.cpp:141] Setting up bn2_2
I0624 20:13:50.220536 23171 net.cpp:148] Top shape: 32 64 56 56 (6422528)
I0624 20:13:50.220540 23171 net.cpp:156] Memory required for data: 597295488
I0624 20:13:50.220548 23171 layer_factory.hpp:77] Creating layer scale2_2
I0624 20:13:50.220556 23171 net.cpp:91] Creating Layer scale2_2
I0624 20:13:50.220561 23171 net.cpp:425] scale2_2 <- conv2_2
I0624 20:13:50.220566 23171 net.cpp:386] scale2_2 -> conv2_2 (in-place)
I0624 20:13:50.220614 23171 layer_factory.hpp:77] Creating layer scale2_2
I0624 20:13:50.220737 23171 net.cpp:141] Setting up scale2_2
I0624 20:13:50.220746 23171 net.cpp:148] Top shape: 32 64 56 56 (6422528)
I0624 20:13:50.220749 23171 net.cpp:156] Memory required for data: 622985600
I0624 20:13:50.220755 23171 layer_factory.hpp:77] Creating layer relu2_2
I0624 20:13:50.220762 23171 net.cpp:91] Creating Layer relu2_2
I0624 20:13:50.220764 23171 net.cpp:425] relu2_2 <- conv2_2
I0624 20:13:50.220769 23171 net.cpp:386] relu2_2 -> conv2_2 (in-place)
I0624 20:13:50.221320 23171 net.cpp:141] Setting up relu2_2
I0624 20:13:50.221338 23171 net.cpp:148] Top shape: 32 64 56 56 (6422528)
I0624 20:13:50.221344 23171 net.cpp:156] Memory required for data: 648675712
I0624 20:13:50.221350 23171 layer_factory.hpp:77] Creating layer pool2
I0624 20:13:50.221379 23171 net.cpp:91] Creating Layer pool2
I0624 20:13:50.221385 23171 net.cpp:425] pool2 <- conv2_2
I0624 20:13:50.221400 23171 net.cpp:399] pool2 -> pool2
I0624 20:13:50.221465 23171 net.cpp:141] Setting up pool2
I0624 20:13:50.221477 23171 net.cpp:148] Top shape: 32 64 28 28 (1605632)
I0624 20:13:50.221483 23171 net.cpp:156] Memory required for data: 655098240
I0624 20:13:50.221488 23171 layer_factory.hpp:77] Creating layer conv3_1
I0624 20:13:50.221504 23171 net.cpp:91] Creating Layer conv3_1
I0624 20:13:50.221513 23171 net.cpp:425] conv3_1 <- pool2
I0624 20:13:50.221521 23171 net.cpp:399] conv3_1 -> conv3_1
I0624 20:13:50.225190 23171 net.cpp:141] Setting up conv3_1
I0624 20:13:50.225214 23171 net.cpp:148] Top shape: 32 128 28 28 (3211264)
I0624 20:13:50.225217 23171 net.cpp:156] Memory required for data: 667943296
I0624 20:13:50.225224 23171 layer_factory.hpp:77] Creating layer bn3_1
I0624 20:13:50.225234 23171 net.cpp:91] Creating Layer bn3_1
I0624 20:13:50.225239 23171 net.cpp:425] bn3_1 <- conv3_1
I0624 20:13:50.225246 23171 net.cpp:386] bn3_1 -> conv3_1 (in-place)
I0624 20:13:50.226687 23171 net.cpp:141] Setting up bn3_1
I0624 20:13:50.226704 23171 net.cpp:148] Top shape: 32 128 28 28 (3211264)
I0624 20:13:50.226707 23171 net.cpp:156] Memory required for data: 680788352
I0624 20:13:50.226716 23171 layer_factory.hpp:77] Creating layer scale3_1
I0624 20:13:50.226727 23171 net.cpp:91] Creating Layer scale3_1
I0624 20:13:50.226729 23171 net.cpp:425] scale3_1 <- conv3_1
I0624 20:13:50.226735 23171 net.cpp:386] scale3_1 -> conv3_1 (in-place)
I0624 20:13:50.226814 23171 layer_factory.hpp:77] Creating layer scale3_1
I0624 20:13:50.226960 23171 net.cpp:141] Setting up scale3_1
I0624 20:13:50.226972 23171 net.cpp:148] Top shape: 32 128 28 28 (3211264)
I0624 20:13:50.226975 23171 net.cpp:156] Memory required for data: 693633408
I0624 20:13:50.226984 23171 layer_factory.hpp:77] Creating layer relu3_1
I0624 20:13:50.227010 23171 net.cpp:91] Creating Layer relu3_1
I0624 20:13:50.227016 23171 net.cpp:425] relu3_1 <- conv3_1
I0624 20:13:50.227027 23171 net.cpp:386] relu3_1 -> conv3_1 (in-place)
I0624 20:13:50.227249 23171 net.cpp:141] Setting up relu3_1
I0624 20:13:50.227262 23171 net.cpp:148] Top shape: 32 128 28 28 (3211264)
I0624 20:13:50.227267 23171 net.cpp:156] Memory required for data: 706478464
I0624 20:13:50.227272 23171 layer_factory.hpp:77] Creating layer conv3_2
I0624 20:13:50.227288 23171 net.cpp:91] Creating Layer conv3_2
I0624 20:13:50.227294 23171 net.cpp:425] conv3_2 <- conv3_1
I0624 20:13:50.227308 23171 net.cpp:399] conv3_2 -> conv3_2
I0624 20:13:50.230085 23171 net.cpp:141] Setting up conv3_2
I0624 20:13:50.230103 23171 net.cpp:148] Top shape: 32 128 28 28 (3211264)
I0624 20:13:50.230106 23171 net.cpp:156] Memory required for data: 719323520
I0624 20:13:50.230113 23171 layer_factory.hpp:77] Creating layer bn3_2
I0624 20:13:50.230130 23171 net.cpp:91] Creating Layer bn3_2
I0624 20:13:50.230134 23171 net.cpp:425] bn3_2 <- conv3_2
I0624 20:13:50.230141 23171 net.cpp:386] bn3_2 -> conv3_2 (in-place)
I0624 20:13:50.230383 23171 net.cpp:141] Setting up bn3_2
I0624 20:13:50.230396 23171 net.cpp:148] Top shape: 32 128 28 28 (3211264)
I0624 20:13:50.230399 23171 net.cpp:156] Memory required for data: 732168576
I0624 20:13:50.230422 23171 layer_factory.hpp:77] Creating layer scale3_2
I0624 20:13:50.230434 23171 net.cpp:91] Creating Layer scale3_2
I0624 20:13:50.230442 23171 net.cpp:425] scale3_2 <- conv3_2
I0624 20:13:50.230453 23171 net.cpp:386] scale3_2 -> conv3_2 (in-place)
I0624 20:13:50.230515 23171 layer_factory.hpp:77] Creating layer scale3_2
I0624 20:13:50.230654 23171 net.cpp:141] Setting up scale3_2
I0624 20:13:50.230665 23171 net.cpp:148] Top shape: 32 128 28 28 (3211264)
I0624 20:13:50.230669 23171 net.cpp:156] Memory required for data: 745013632
I0624 20:13:50.230679 23171 layer_factory.hpp:77] Creating layer relu3_2
I0624 20:13:50.230689 23171 net.cpp:91] Creating Layer relu3_2
I0624 20:13:50.230695 23171 net.cpp:425] relu3_2 <- conv3_2
I0624 20:13:50.230725 23171 net.cpp:386] relu3_2 -> conv3_2 (in-place)
I0624 20:13:50.230933 23171 net.cpp:141] Setting up relu3_2
I0624 20:13:50.230945 23171 net.cpp:148] Top shape: 32 128 28 28 (3211264)
I0624 20:13:50.230948 23171 net.cpp:156] Memory required for data: 757858688
I0624 20:13:50.230952 23171 layer_factory.hpp:77] Creating layer pool3
I0624 20:13:50.230962 23171 net.cpp:91] Creating Layer pool3
I0624 20:13:50.230965 23171 net.cpp:425] pool3 <- conv3_2
I0624 20:13:50.230970 23171 net.cpp:399] pool3 -> pool3
I0624 20:13:50.231019 23171 net.cpp:141] Setting up pool3
I0624 20:13:50.231026 23171 net.cpp:148] Top shape: 32 128 14 14 (802816)
I0624 20:13:50.231029 23171 net.cpp:156] Memory required for data: 761069952
I0624 20:13:50.231032 23171 layer_factory.hpp:77] Creating layer conv4_1
I0624 20:13:50.231043 23171 net.cpp:91] Creating Layer conv4_1
I0624 20:13:50.231046 23171 net.cpp:425] conv4_1 <- pool3
I0624 20:13:50.231052 23171 net.cpp:399] conv4_1 -> conv4_1
I0624 20:13:50.234905 23171 net.cpp:141] Setting up conv4_1
I0624 20:13:50.234921 23171 net.cpp:148] Top shape: 32 256 14 14 (1605632)
I0624 20:13:50.234925 23171 net.cpp:156] Memory required for data: 767492480
I0624 20:13:50.234931 23171 layer_factory.hpp:77] Creating layer bn4_1
I0624 20:13:50.234941 23171 net.cpp:91] Creating Layer bn4_1
I0624 20:13:50.234946 23171 net.cpp:425] bn4_1 <- conv4_1
I0624 20:13:50.234952 23171 net.cpp:386] bn4_1 -> conv4_1 (in-place)
I0624 20:13:50.235169 23171 net.cpp:141] Setting up bn4_1
I0624 20:13:50.235184 23171 net.cpp:148] Top shape: 32 256 14 14 (1605632)
I0624 20:13:50.235188 23171 net.cpp:156] Memory required for data: 773915008
I0624 20:13:50.235198 23171 layer_factory.hpp:77] Creating layer scale4_1
I0624 20:13:50.235204 23171 net.cpp:91] Creating Layer scale4_1
I0624 20:13:50.235208 23171 net.cpp:425] scale4_1 <- conv4_1
I0624 20:13:50.235213 23171 net.cpp:386] scale4_1 -> conv4_1 (in-place)
I0624 20:13:50.235256 23171 layer_factory.hpp:77] Creating layer scale4_1
I0624 20:13:50.235368 23171 net.cpp:141] Setting up scale4_1
I0624 20:13:50.235378 23171 net.cpp:148] Top shape: 32 256 14 14 (1605632)
I0624 20:13:50.235380 23171 net.cpp:156] Memory required for data: 780337536
I0624 20:13:50.235388 23171 layer_factory.hpp:77] Creating layer relu4_1
I0624 20:13:50.235397 23171 net.cpp:91] Creating Layer relu4_1
I0624 20:13:50.235401 23171 net.cpp:425] relu4_1 <- conv4_1
I0624 20:13:50.235406 23171 net.cpp:386] relu4_1 -> conv4_1 (in-place)
I0624 20:13:50.235599 23171 net.cpp:141] Setting up relu4_1
I0624 20:13:50.235608 23171 net.cpp:148] Top shape: 32 256 14 14 (1605632)
I0624 20:13:50.235612 23171 net.cpp:156] Memory required for data: 786760064
I0624 20:13:50.235615 23171 layer_factory.hpp:77] Creating layer conv4_2
I0624 20:13:50.235627 23171 net.cpp:91] Creating Layer conv4_2
I0624 20:13:50.235635 23171 net.cpp:425] conv4_2 <- conv4_1
I0624 20:13:50.235644 23171 net.cpp:399] conv4_2 -> conv4_2
I0624 20:13:50.243114 23171 net.cpp:141] Setting up conv4_2
I0624 20:13:50.243137 23171 net.cpp:148] Top shape: 32 256 14 14 (1605632)
I0624 20:13:50.243142 23171 net.cpp:156] Memory required for data: 793182592
I0624 20:13:50.243157 23171 layer_factory.hpp:77] Creating layer bn4_2
I0624 20:13:50.243175 23171 net.cpp:91] Creating Layer bn4_2
I0624 20:13:50.243185 23171 net.cpp:425] bn4_2 <- conv4_2
I0624 20:13:50.243192 23171 net.cpp:386] bn4_2 -> conv4_2 (in-place)
I0624 20:13:50.243363 23171 net.cpp:141] Setting up bn4_2
I0624 20:13:50.243372 23171 net.cpp:148] Top shape: 32 256 14 14 (1605632)
I0624 20:13:50.243374 23171 net.cpp:156] Memory required for data: 799605120
I0624 20:13:50.243388 23171 layer_factory.hpp:77] Creating layer scale4_2
I0624 20:13:50.243396 23171 net.cpp:91] Creating Layer scale4_2
I0624 20:13:50.243398 23171 net.cpp:425] scale4_2 <- conv4_2
I0624 20:13:50.243403 23171 net.cpp:386] scale4_2 -> conv4_2 (in-place)
I0624 20:13:50.243448 23171 layer_factory.hpp:77] Creating layer scale4_2
I0624 20:13:50.243535 23171 net.cpp:141] Setting up scale4_2
I0624 20:13:50.243542 23171 net.cpp:148] Top shape: 32 256 14 14 (1605632)
I0624 20:13:50.243556 23171 net.cpp:156] Memory required for data: 806027648
I0624 20:13:50.243561 23171 layer_factory.hpp:77] Creating layer relu4_2
I0624 20:13:50.243567 23171 net.cpp:91] Creating Layer relu4_2
I0624 20:13:50.243569 23171 net.cpp:425] relu4_2 <- conv4_2
I0624 20:13:50.243574 23171 net.cpp:386] relu4_2 -> conv4_2 (in-place)
I0624 20:13:50.243726 23171 net.cpp:141] Setting up relu4_2
I0624 20:13:50.243736 23171 net.cpp:148] Top shape: 32 256 14 14 (1605632)
I0624 20:13:50.243737 23171 net.cpp:156] Memory required for data: 812450176
I0624 20:13:50.243741 23171 layer_factory.hpp:77] Creating layer pool4
I0624 20:13:50.243746 23171 net.cpp:91] Creating Layer pool4
I0624 20:13:50.243749 23171 net.cpp:425] pool4 <- conv4_2
I0624 20:13:50.243755 23171 net.cpp:399] pool4 -> pool4
I0624 20:13:50.243794 23171 net.cpp:141] Setting up pool4
I0624 20:13:50.243799 23171 net.cpp:148] Top shape: 32 256 7 7 (401408)
I0624 20:13:50.243803 23171 net.cpp:156] Memory required for data: 814055808
I0624 20:13:50.243804 23171 layer_factory.hpp:77] Creating layer conv5_1
I0624 20:13:50.243813 23171 net.cpp:91] Creating Layer conv5_1
I0624 20:13:50.243815 23171 net.cpp:425] conv5_1 <- pool4
I0624 20:13:50.243819 23171 net.cpp:399] conv5_1 -> conv5_1
I0624 20:13:50.249795 23171 net.cpp:141] Setting up conv5_1
I0624 20:13:50.249812 23171 net.cpp:148] Top shape: 32 256 7 7 (401408)
I0624 20:13:50.249815 23171 net.cpp:156] Memory required for data: 815661440
I0624 20:13:50.249820 23171 layer_factory.hpp:77] Creating layer bn5_1
I0624 20:13:50.249828 23171 net.cpp:91] Creating Layer bn5_1
I0624 20:13:50.249832 23171 net.cpp:425] bn5_1 <- conv5_1
I0624 20:13:50.249836 23171 net.cpp:386] bn5_1 -> conv5_1 (in-place)
I0624 20:13:50.250002 23171 net.cpp:141] Setting up bn5_1
I0624 20:13:50.250010 23171 net.cpp:148] Top shape: 32 256 7 7 (401408)
I0624 20:13:50.250013 23171 net.cpp:156] Memory required for data: 817267072
I0624 20:13:50.250020 23171 layer_factory.hpp:77] Creating layer scale5_1
I0624 20:13:50.250027 23171 net.cpp:91] Creating Layer scale5_1
I0624 20:13:50.250030 23171 net.cpp:425] scale5_1 <- conv5_1
I0624 20:13:50.250033 23171 net.cpp:386] scale5_1 -> conv5_1 (in-place)
I0624 20:13:50.250069 23171 layer_factory.hpp:77] Creating layer scale5_1
I0624 20:13:50.250156 23171 net.cpp:141] Setting up scale5_1
I0624 20:13:50.250164 23171 net.cpp:148] Top shape: 32 256 7 7 (401408)
I0624 20:13:50.250165 23171 net.cpp:156] Memory required for data: 818872704
I0624 20:13:50.250170 23171 layer_factory.hpp:77] Creating layer relu5_1
I0624 20:13:50.250175 23171 net.cpp:91] Creating Layer relu5_1
I0624 20:13:50.250177 23171 net.cpp:425] relu5_1 <- conv5_1
I0624 20:13:50.250183 23171 net.cpp:386] relu5_1 -> conv5_1 (in-place)
I0624 20:13:50.250630 23171 net.cpp:141] Setting up relu5_1
I0624 20:13:50.250643 23171 net.cpp:148] Top shape: 32 256 7 7 (401408)
I0624 20:13:50.250645 23171 net.cpp:156] Memory required for data: 820478336
I0624 20:13:50.250648 23171 layer_factory.hpp:77] Creating layer conv5_2
I0624 20:13:50.250658 23171 net.cpp:91] Creating Layer conv5_2
I0624 20:13:50.250661 23171 net.cpp:425] conv5_2 <- conv5_1
I0624 20:13:50.250668 23171 net.cpp:399] conv5_2 -> conv5_2
I0624 20:13:50.256633 23171 net.cpp:141] Setting up conv5_2
I0624 20:13:50.256652 23171 net.cpp:148] Top shape: 32 256 7 7 (401408)
I0624 20:13:50.256655 23171 net.cpp:156] Memory required for data: 822083968
I0624 20:13:50.256662 23171 layer_factory.hpp:77] Creating layer bn5_2
I0624 20:13:50.256672 23171 net.cpp:91] Creating Layer bn5_2
I0624 20:13:50.256676 23171 net.cpp:425] bn5_2 <- conv5_2
I0624 20:13:50.256682 23171 net.cpp:386] bn5_2 -> conv5_2 (in-place)
I0624 20:13:50.256851 23171 net.cpp:141] Setting up bn5_2
I0624 20:13:50.256860 23171 net.cpp:148] Top shape: 32 256 7 7 (401408)
I0624 20:13:50.256862 23171 net.cpp:156] Memory required for data: 823689600
I0624 20:13:50.256868 23171 layer_factory.hpp:77] Creating layer scale5_2
I0624 20:13:50.256877 23171 net.cpp:91] Creating Layer scale5_2
I0624 20:13:50.256880 23171 net.cpp:425] scale5_2 <- conv5_2
I0624 20:13:50.256897 23171 net.cpp:386] scale5_2 -> conv5_2 (in-place)
I0624 20:13:50.256940 23171 layer_factory.hpp:77] Creating layer scale5_2
I0624 20:13:50.257050 23171 net.cpp:141] Setting up scale5_2
I0624 20:13:50.257058 23171 net.cpp:148] Top shape: 32 256 7 7 (401408)
I0624 20:13:50.257061 23171 net.cpp:156] Memory required for data: 825295232
I0624 20:13:50.257066 23171 layer_factory.hpp:77] Creating layer relu5_2
I0624 20:13:50.257071 23171 net.cpp:91] Creating Layer relu5_2
I0624 20:13:50.257074 23171 net.cpp:425] relu5_2 <- conv5_2
I0624 20:13:50.257077 23171 net.cpp:386] relu5_2 -> conv5_2 (in-place)
I0624 20:13:50.257647 23171 net.cpp:141] Setting up relu5_2
I0624 20:13:50.257659 23171 net.cpp:148] Top shape: 32 256 7 7 (401408)
I0624 20:13:50.257661 23171 net.cpp:156] Memory required for data: 826900864
I0624 20:13:50.257664 23171 layer_factory.hpp:77] Creating layer pool5
I0624 20:13:50.257673 23171 net.cpp:91] Creating Layer pool5
I0624 20:13:50.257676 23171 net.cpp:425] pool5 <- conv5_2
I0624 20:13:50.257683 23171 net.cpp:399] pool5 -> pool5
I0624 20:13:50.257856 23171 net.cpp:141] Setting up pool5
I0624 20:13:50.257866 23171 net.cpp:148] Top shape: 32 256 1 1 (8192)
I0624 20:13:50.257869 23171 net.cpp:156] Memory required for data: 826933632
I0624 20:13:50.257872 23171 layer_factory.hpp:77] Creating layer fc2
I0624 20:13:50.257885 23171 net.cpp:91] Creating Layer fc2
I0624 20:13:50.257889 23171 net.cpp:425] fc2 <- pool5
I0624 20:13:50.257892 23171 net.cpp:399] fc2 -> fc2
I0624 20:13:50.258009 23171 net.cpp:141] Setting up fc2
I0624 20:13:50.258018 23171 net.cpp:148] Top shape: 32 2 (64)
I0624 20:13:50.258019 23171 net.cpp:156] Memory required for data: 826933888
I0624 20:13:50.258025 23171 layer_factory.hpp:77] Creating layer fc2_fc2_0_split
I0624 20:13:50.258030 23171 net.cpp:91] Creating Layer fc2_fc2_0_split
I0624 20:13:50.258033 23171 net.cpp:425] fc2_fc2_0_split <- fc2
I0624 20:13:50.258038 23171 net.cpp:399] fc2_fc2_0_split -> fc2_fc2_0_split_0
I0624 20:13:50.258044 23171 net.cpp:399] fc2_fc2_0_split -> fc2_fc2_0_split_1
I0624 20:13:50.258076 23171 net.cpp:141] Setting up fc2_fc2_0_split
I0624 20:13:50.258081 23171 net.cpp:148] Top shape: 32 2 (64)
I0624 20:13:50.258083 23171 net.cpp:148] Top shape: 32 2 (64)
I0624 20:13:50.258086 23171 net.cpp:156] Memory required for data: 826934400
I0624 20:13:50.258088 23171 layer_factory.hpp:77] Creating layer loss
I0624 20:13:50.258093 23171 net.cpp:91] Creating Layer loss
I0624 20:13:50.258095 23171 net.cpp:425] loss <- fc2_fc2_0_split_0
I0624 20:13:50.258098 23171 net.cpp:425] loss <- label_data_1_split_0
I0624 20:13:50.258103 23171 net.cpp:399] loss -> loss
…
I0624 20:13:50.259471 23171 solver.cpp:181] Creating test net (#0) specified by net file: models/bpnet/train_val.prototxt
I0624 20:13:50.259528 23171 net.cpp:313] The NetState phase (1) differed from the phase (0) specified by a rule in layer data
I0624 20:13:50.259773 23171 net.cpp:49] Initializing net from parameters: 
name: "BPnet"
state {
  phase: TEST
}
layer {
  name: "data"
  type: "Data"
  top: "data"
  top: "label"
  include {
    phase: TEST
  }
  transform_param {
    mirror: false
    crop_size: 224
    mean_value: 100
    contrast_jitter_range: 0.1
  }
  data_param {
    source: "data/val_lmdb"
    batch_size: 64
    backend: LMDB
  }
}
layer {
  name: "conv1_1"
  type: "Convolution"
  bottom: "data"
  top: "conv1_1"
  param {
    lr_mult: 1
    decay_mult: 1
  }
  convolution_param {
    num_output: 32
    bias_term: false
    pad: 3
    kernel_size: 7
    stride: 2
    weight_filler {
      type: "xavier"
    }
  }
}
layer {
  name: "bn1_1"
  type: "BatchNorm"
  bottom: "conv1_1"
  top: "conv1_1"
  param {
    lr_mult: 0
  }
  param {
    lr_mult: 0
  }
  param {
    lr_mult: 0
  }
  batch_norm_param {
    use_global_stats: false
  }
}
layer {
  name: "scale1_1"
  type: "Scale"
  bottom: "conv1_1"
  top: "conv1_1"
  param {
    lr_mult: 1
    decay_mult: 1
  }
  param {
    lr_mult: 1
    decay_mult: 1
  }
  scale_param {
    bias_term: true
    bias_filler {
      type: "constant"
      value: 0
    }
  }
}
layer {
  name: "relu1_1"
  type: "ReLU"
  bottom: "conv1_1"
  top: "conv1_1"
}
layer {
  name: "conv1_2"
  type: "Convolution"
  bottom: "conv1_1"
  top: "conv1_2"
  param {
    lr_mult: 1
    decay_mult: 1
  }
  convolution_param {
    num_output: 32
    bias_term: false
    pad: 1
    kernel_size: 3
    weight_filler {
      type: "xavier"
    }
  }
}
layer {
  name: "bn1_2"
  type: "BatchNorm"
  bottom: "conv1_2"
  top: "conv1_2"
  param {
    lr_mult: 0
  }
  param {
    lr_mult: 0
  }
  param {
    lr_mult: 0
  }
  batch_norm_param {
    use_global_stats: false
  }
}
layer {
  name: "scale1_2"
  type: "Scale"
  bottom: "conv1_2"
  top: "conv1_2"
  param {
    lr_mult: 1
    decay_mult: 1
  }
  param {
    lr_mult: 1
    decay_mult: 1
  }
  scale_param {
    bias_term: true
    bias_filler {
      type: "constant"
      value: 0
    }
  }
}
layer {
  name: "relu1_2"
  type: "ReLU"
  bottom: "conv1_2"
  top: "conv1_2"
}
layer {
  name: "pool1"
  type: "Pooling"
  bottom: "conv1_2"
  top: "pool1"
  pooling_param {
    pool: MAX
    kernel_size: 2
    stride: 2
  }
}
layer {
  name: "conv2_1"
  type: "Convolution"
  bottom: "pool1"
  top: "conv2_1"
  param {
    lr_mult: 1
    decay_mult: 1
  }
  convolution_param {
    num_output: 64
    bias_term: false
    pad: 1
    kernel_size: 3
    weight_filler {
      type: "xavier"
    }
  }
}
layer {
  name: "bn2_1"
  type: "BatchNorm"
  bottom: "conv2_1"
  top: "conv2_1"
  param {
    lr_mult: 0
  }
  param {
    lr_mult: 0
  }
  param {
    lr_mult: 0
  }
  batch_norm_param {
    use_global_stats: false
  }
}
layer {
  name: "scale2_1"
  type: "Scale"
  bottom: "conv2_1"
  top: "conv2_1"
  param {
    lr_mult: 1
    decay_mult: 1
  }
  param {
    lr_mult: 1
    decay_mult: 1
  }
  scale_param {
    bias_term: true
    bias_filler {
      type: "constant"
      value: 0
    }
  }
}
layer {
  name: "relu2_1"
  type: "ReLU"
  bottom: "conv2_1"
  top: "conv2_1"
}
layer {
  name: "conv2_2"
  type: "Convolution"
  bottom: "conv2_1"
  top: "conv2_2"
  param {
    lr_mult: 1
    decay_mult: 1
  }
  convolution_param {
    num_output: 64
    bias_term: false
    pad: 1
    kernel_size: 3
    weight_filler {
      type: "xavier"
    }
  }
}
layer {
  name: "bn2_2"
  type: "BatchNorm"
  bottom: "conv2_2"
  top: "conv2_2"
  param {
    lr_mult: 0
  }
  param {
    lr_mult: 0
  }
  param {
    lr_mult: 0
  }
  batch_norm_param {
    use_global_stats: false
  }
}
layer {
  name: "scale2_2"
  type: "Scale"
  bottom: "conv2_2"
  top: "conv2_2"
  param {
    lr_mult: 1
    decay_mult: 1
  }
  param {
    lr_mult: 1
    decay_mult: 1
  }
  scale_param {
    bias_term: true
    bias_filler {
      type: "constant"
      value: 0
    }
  }
}
layer {
  name: "relu2_2"
  type: "ReLU"
  bottom: "conv2_2"
  top: "conv2_2"
}
layer {
  name: "pool2"
  type: "Pooling"
  bottom: "conv2_2"
  top: "pool2"
  pooling_param {
    pool: MAX
    kernel_size: 2
    stride: 2
  }
}
layer {
  name: "conv3_1"
  type: "Convolution"
  bottom: "pool2"
  top: "conv3_1"
  param {
    lr_mult: 1
    decay_mult: 1
  }
  convolution_param {
    num_output: 128
    bias_term: false
    pad: 1
    kernel_size: 3
    weight_filler {
      type: "xavier"
    }
  }
}
layer {
  name: "bn3_1"
  type: "BatchNorm"
  bottom: "conv3_1"
  top: "conv3_1"
  param {
    lr_mult: 0
  }
  param {
    lr_mult: 0
  }
  param {
    lr_mult: 0
  }
  batch_norm_param {
    use_global_stats: false
  }
}
layer {
  name: "scale3_1"
  type: "Scale"
  bottom: "conv3_1"
  top: "conv3_1"
  param {
    lr_mult: 1
    decay_mult: 1
  }
  param {
    lr_mult: 1
    decay_mult: 1
  }
  scale_param {
    bias_term: true
    bias_filler {
      type: "constant"
      value: 0
    }
  }
}
layer {
  name: "relu3_1"
  type: "ReLU"
  bottom: "conv3_1"
  top: "conv3_1"
}
layer {
  name: "conv3_2"
  type: "Convolution"
  bottom: "conv3_1"
  top: "conv3_2"
  param {
    lr_mult: 1
    decay_mult: 1
  }
  convolution_param {
    num_output: 128
    bias_term: false
    pad: 1
    kernel_size: 3
    weight_filler {
      type: "xavier"
    }
  }
}
layer {
  name: "bn3_2"
  type: "BatchNorm"
  bottom: "conv3_2"
  top: "conv3_2"
  param {
    lr_mult: 0
  }
  param {
    lr_mult: 0
  }
  param {
    lr_mult: 0
  }
  batch_norm_param {
    use_global_stats: false
  }
}
layer {
  name: "scale3_2"
  type: "Scale"
  bottom: "conv3_2"
  top: "conv3_2"
  param {
    lr_mult: 1
    decay_mult: 1
  }
  param {
    lr_mult: 1
    decay_mult: 1
  }
  scale_param {
    bias_term: true
    bias_filler {
      type: "constant"
      value: 0
    }
  }
}
layer {
  name: "relu3_2"
  type: "ReLU"
  bottom: "conv3_2"
  top: "conv3_2"
}
layer {
  name: "pool3"
  type: "Pooling"
  bottom: "conv3_2"
  top: "pool3"
  pooling_param {
    pool: MAX
    kernel_size: 2
    stride: 2
  }
}
layer {
  name: "conv4_1"
  type: "Convolution"
  bottom: "pool3"
  top: "conv4_1"
  param {
    lr_mult: 1
    decay_mult: 1
  }
  convolution_param {
    num_output: 256
    bias_term: false
    pad: 1
    kernel_size: 3
    weight_filler {
      type: "xavier"
    }
  }
}
layer {
  name: "bn4_1"
  type: "BatchNorm"
  bottom: "conv4_1"
  top: "conv4_1"
  param {
    lr_mult: 0
  }
  param {
    lr_mult: 0
  }
  param {
    lr_mult: 0
  }
  batch_norm_param {
    use_global_stats: false
  }
}
layer {
  name: "scale4_1"
  type: "Scale"
  bottom: "conv4_1"
  top: "conv4_1"
  param {
    lr_mult: 1
    decay_mult: 1
  }
  param {
    lr_mult: 1
    decay_mult: 1
  }
  scale_param {
    bias_term: true
    bias_filler {
      type: "constant"
      value: 0
    }
  }
}
layer {
  name: "relu4_1"
  type: "ReLU"
  bottom: "conv4_1"
  top: "conv4_1"
}
layer {
  name: "conv4_2"
  type: "Convolution"
  bottom: "conv4_1"
  top: "conv4_2"
  param {
    lr_mult: 1
    decay_mult: 1
  }
  convolution_param {
    num_output: 256
    bias_term: false
    pad: 1
    kernel_size: 3
    weight_filler {
      type: "xavier"
    }
  }
}
layer {
  name: "bn4_2"
  type: "BatchNorm"
  bottom: "conv4_2"
  top: "conv4_2"
  param {
    lr_mult: 0
  }
  param {
    lr_mult: 0
  }
  param {
    lr_mult: 0
  }
  batch_norm_param {
    use_global_stats: false
  }
}
layer {
  name: "scale4_2"
  type: "Scale"
  bottom: "conv4_2"
  top: "conv4_2"
  param {
    lr_mult: 1
    decay_mult: 1
  }
  param {
    lr_mult: 1
    decay_mult: 1
  }
  scale_param {
    bias_term: true
    bias_filler {
      type: "constant"
      value: 0
    }
  }
}
layer {
  name: "relu4_2"
  type: "ReLU"
  bottom: "conv4_2"
  top: "conv4_2"
}
layer {
  name: "pool4"
  type: "Pooling"
  bottom: "conv4_2"
  top: "pool4"
  pooling_param {
    pool: MAX
    kernel_size: 2
    stride: 2
  }
}
layer {
  name: "conv5_1"
  type: "Convolution"
  bottom: "pool4"
  top: "conv5_1"
  param {
    lr_mult: 1
    decay_mult: 1
  }
  convolution_param {
    num_output: 256
    bias_term: false
    pad: 1
    kernel_size: 3
    weight_filler {
      type: "xavier"
    }
  }
}
layer {
  name: "bn5_1"
  type: "BatchNorm"
  bottom: "conv5_1"
  top: "conv5_1"
  param {
    lr_mult: 0
  }
  param {
    lr_mult: 0
  }
  param {
    lr_mult: 0
  }
  batch_norm_param {
    use_global_stats: false
  }
}
layer {
  name: "scale5_1"
  type: "Scale"
  bottom: "conv5_1"
  top: "conv5_1"
  param {
    lr_mult: 1
    decay_mult: 1
  }
  param {
    lr_mult: 1
    decay_mult: 1
  }
  scale_param {
    bias_term: true
    bias_filler {
      type: "constant"
      value: 0
    }
  }
}
layer {
  name: "relu5_1"
  type: "ReLU"
  bottom: "conv5_1"
  top: "conv5_1"
}
layer {
  name: "conv5_2"
  type: "Convolution"
  bottom: "conv5_1"
  top: "conv5_2"
  param {
    lr_mult: 1
    decay_mult: 1
  }
  convolution_param {
    num_output: 256
    bias_term: false
    pad: 1
    kernel_size: 3
    weight_filler {
      type: "xavier"
    }
  }
}
layer {
  name: "bn5_2"
  type: "BatchNorm"
  bottom: "conv5_2"
  top: "conv5_2"
  param {
    lr_mult: 0
  }
  param {
    lr_mult: 0
  }
  param {
    lr_mult: 0
  }
  batch_norm_param {
    use_global_stats: false
  }
}
layer {
  name: "scale5_2"
  type: "Scale"
  bottom: "conv5_2"
  top: "conv5_2"
  param {
    lr_mult: 1
    decay_mult: 1
  }
  param {
    lr_mult: 1
    decay_mult: 1
  }
  scale_param {
    bias_term: true
    bias_filler {
      type: "constant"
      value: 0
    }
  }
}
layer {
  name: "relu5_2"
  type: "ReLU"
  bottom: "conv5_2"
  top: "conv5_2"
}
layer {
  name: "pool5"
  type: "Pooling"
  bottom: "conv5_2"
  top: "pool5"
  pooling_param {
    pool: AVE
    kernel_size: 7
    stride: 1
  }
}
layer {
  name: "fc2"
  type: "InnerProduct"
  bottom: "pool5"
  top: "fc2"
  inner_product_param {
    num_output: 2
  }
}
layer {
  name: "loss"
  type: "SoftmaxWithLoss"
  bottom: "fc2"
  bottom: "label"
  top: "loss"
}
layer {
  name: "accuracy"
  type: "Accuracy"
  bottom: "fc2"
  bottom: "label"
  top: "accuracy"
}
I0624 20:13:50.259927 23171 layer_factory.hpp:77] Creating layer data
I0624 20:13:50.260012 23171 net.cpp:91] Creating Layer data
I0624 20:13:50.260020 23171 net.cpp:399] data -> data
I0624 20:13:50.260027 23171 net.cpp:399] data -> label
I0624 20:13:50.261299 23185 db_lmdb.cpp:35] Opened lmdb data/val_lmdb
I0624 20:13:50.261711 23171 data_layer.cpp:42] output data size: 64,3,224,224
I0624 20:13:50.345784 23171 net.cpp:141] Setting up data
I0624 20:13:50.345808 23171 net.cpp:148] Top shape: 64 3 224 224 (9633792)
I0624 20:13:50.345811 23171 net.cpp:148] Top shape: 64 (64)
I0624 20:13:50.345813 23171 net.cpp:156] Memory required for data: 38535424
I0624 20:13:50.345818 23171 layer_factory.hpp:77] Creating layer label_data_1_split
I0624 20:13:50.345829 23171 net.cpp:91] Creating Layer label_data_1_split
I0624 20:13:50.345832 23171 net.cpp:425] label_data_1_split <- label
I0624 20:13:50.345839 23171 net.cpp:399] label_data_1_split -> label_data_1_split_0
I0624 20:13:50.345846 23171 net.cpp:399] label_data_1_split -> label_data_1_split_1
I0624 20:13:50.345906 23171 net.cpp:141] Setting up label_data_1_split
I0624 20:13:50.345911 23171 net.cpp:148] Top shape: 64 (64)
I0624 20:13:50.345914 23171 net.cpp:148] Top shape: 64 (64)
I0624 20:13:50.345916 23171 net.cpp:156] Memory required for data: 38535936
I0624 20:13:50.345918 23171 layer_factory.hpp:77] Creating layer conv1_1
I0624 20:13:50.345929 23171 net.cpp:91] Creating Layer conv1_1
I0624 20:13:50.345932 23171 net.cpp:425] conv1_1 <- data
I0624 20:13:50.345937 23171 net.cpp:399] conv1_1 -> conv1_1
I0624 20:13:50.347087 23171 net.cpp:141] Setting up conv1_1
I0624 20:13:50.347101 23171 net.cpp:148] Top shape: 64 32 112 112 (25690112)
I0624 20:13:50.347105 23171 net.cpp:156] Memory required for data: 141296384
I0624 20:13:50.347111 23171 layer_factory.hpp:77] Creating layer bn1_1
I0624 20:13:50.347118 23171 net.cpp:91] Creating Layer bn1_1
I0624 20:13:50.347121 23171 net.cpp:425] bn1_1 <- conv1_1
I0624 20:13:50.347126 23171 net.cpp:386] bn1_1 -> conv1_1 (in-place)
I0624 20:13:50.350333 23171 net.cpp:141] Setting up bn1_1
I0624 20:13:50.350343 23171 net.cpp:148] Top shape: 64 32 112 112 (25690112)
I0624 20:13:50.350347 23171 net.cpp:156] Memory required for data: 244056832
I0624 20:13:50.350355 23171 layer_factory.hpp:77] Creating layer scale1_1
I0624 20:13:50.350365 23171 net.cpp:91] Creating Layer scale1_1
I0624 20:13:50.350368 23171 net.cpp:425] scale1_1 <- conv1_1
I0624 20:13:50.350388 23171 net.cpp:386] scale1_1 -> conv1_1 (in-place)
I0624 20:13:50.350426 23171 layer_factory.hpp:77] Creating layer scale1_1
I0624 20:13:50.350538 23171 net.cpp:141] Setting up scale1_1
I0624 20:13:50.350545 23171 net.cpp:148] Top shape: 64 32 112 112 (25690112)
I0624 20:13:50.350548 23171 net.cpp:156] Memory required for data: 346817280
I0624 20:13:50.350554 23171 layer_factory.hpp:77] Creating layer relu1_1
I0624 20:13:50.350559 23171 net.cpp:91] Creating Layer relu1_1
I0624 20:13:50.350563 23171 net.cpp:425] relu1_1 <- conv1_1
I0624 20:13:50.350567 23171 net.cpp:386] relu1_1 -> conv1_1 (in-place)
I0624 20:13:50.350776 23171 net.cpp:141] Setting up relu1_1
I0624 20:13:50.350787 23171 net.cpp:148] Top shape: 64 32 112 112 (25690112)
I0624 20:13:50.350790 23171 net.cpp:156] Memory required for data: 449577728
I0624 20:13:50.350792 23171 layer_factory.hpp:77] Creating layer conv1_2
I0624 20:13:50.350800 23171 net.cpp:91] Creating Layer conv1_2
I0624 20:13:50.350801 23171 net.cpp:425] conv1_2 <- conv1_1
I0624 20:13:50.350807 23171 net.cpp:399] conv1_2 -> conv1_2
I0624 20:13:50.351724 23171 net.cpp:141] Setting up conv1_2
I0624 20:13:50.351737 23171 net.cpp:148] Top shape: 64 32 112 112 (25690112)
I0624 20:13:50.351739 23171 net.cpp:156] Memory required for data: 552338176
I0624 20:13:50.351744 23171 layer_factory.hpp:77] Creating layer bn1_2
I0624 20:13:50.351752 23171 net.cpp:91] Creating Layer bn1_2
I0624 20:13:50.351754 23171 net.cpp:425] bn1_2 <- conv1_2
I0624 20:13:50.351758 23171 net.cpp:386] bn1_2 -> conv1_2 (in-place)
I0624 20:13:50.352008 23171 net.cpp:141] Setting up bn1_2
I0624 20:13:50.352018 23171 net.cpp:148] Top shape: 64 32 112 112 (25690112)
I0624 20:13:50.352021 23171 net.cpp:156] Memory required for data: 655098624
I0624 20:13:50.352030 23171 layer_factory.hpp:77] Creating layer scale1_2
I0624 20:13:50.352037 23171 net.cpp:91] Creating Layer scale1_2
I0624 20:13:50.352041 23171 net.cpp:425] scale1_2 <- conv1_2
I0624 20:13:50.352043 23171 net.cpp:386] scale1_2 -> conv1_2 (in-place)
I0624 20:13:50.352159 23171 layer_factory.hpp:77] Creating layer scale1_2
I0624 20:13:50.352280 23171 net.cpp:141] Setting up scale1_2
I0624 20:13:50.352288 23171 net.cpp:148] Top shape: 64 32 112 112 (25690112)
I0624 20:13:50.352290 23171 net.cpp:156] Memory required for data: 757859072
I0624 20:13:50.352294 23171 layer_factory.hpp:77] Creating layer relu1_2
I0624 20:13:50.352299 23171 net.cpp:91] Creating Layer relu1_2
I0624 20:13:50.352301 23171 net.cpp:425] relu1_2 <- conv1_2
I0624 20:13:50.352306 23171 net.cpp:386] relu1_2 -> conv1_2 (in-place)
I0624 20:13:50.352726 23171 net.cpp:141] Setting up relu1_2
I0624 20:13:50.352737 23171 net.cpp:148] Top shape: 64 32 112 112 (25690112)
I0624 20:13:50.352741 23171 net.cpp:156] Memory required for data: 860619520
I0624 20:13:50.352743 23171 layer_factory.hpp:77] Creating layer pool1
I0624 20:13:50.352751 23171 net.cpp:91] Creating Layer pool1
I0624 20:13:50.352753 23171 net.cpp:425] pool1 <- conv1_2
I0624 20:13:50.352758 23171 net.cpp:399] pool1 -> pool1
I0624 20:13:50.352797 23171 net.cpp:141] Setting up pool1
I0624 20:13:50.352802 23171 net.cpp:148] Top shape: 64 32 56 56 (6422528)
I0624 20:13:50.352804 23171 net.cpp:156] Memory required for data: 886309632
I0624 20:13:50.352807 23171 layer_factory.hpp:77] Creating layer conv2_1
I0624 20:13:50.352818 23171 net.cpp:91] Creating Layer conv2_1
I0624 20:13:50.352820 23171 net.cpp:425] conv2_1 <- pool1
I0624 20:13:50.352825 23171 net.cpp:399] conv2_1 -> conv2_1
I0624 20:13:50.353821 23171 net.cpp:141] Setting up conv2_1
I0624 20:13:50.353835 23171 net.cpp:148] Top shape: 64 64 56 56 (12845056)
I0624 20:13:50.353838 23171 net.cpp:156] Memory required for data: 937689856
I0624 20:13:50.353842 23171 layer_factory.hpp:77] Creating layer bn2_1
I0624 20:13:50.353848 23171 net.cpp:91] Creating Layer bn2_1
I0624 20:13:50.353852 23171 net.cpp:425] bn2_1 <- conv2_1
I0624 20:13:50.353857 23171 net.cpp:386] bn2_1 -> conv2_1 (in-place)
I0624 20:13:50.354018 23171 net.cpp:141] Setting up bn2_1
I0624 20:13:50.354025 23171 net.cpp:148] Top shape: 64 64 56 56 (12845056)
I0624 20:13:50.354038 23171 net.cpp:156] Memory required for data: 989070080
I0624 20:13:50.354044 23171 layer_factory.hpp:77] Creating layer scale2_1
I0624 20:13:50.354049 23171 net.cpp:91] Creating Layer scale2_1
I0624 20:13:50.354053 23171 net.cpp:425] scale2_1 <- conv2_1
I0624 20:13:50.354056 23171 net.cpp:386] scale2_1 -> conv2_1 (in-place)
I0624 20:13:50.354090 23171 layer_factory.hpp:77] Creating layer scale2_1
I0624 20:13:50.354189 23171 net.cpp:141] Setting up scale2_1
I0624 20:13:50.354195 23171 net.cpp:148] Top shape: 64 64 56 56 (12845056)
I0624 20:13:50.354197 23171 net.cpp:156] Memory required for data: 1040450304
I0624 20:13:50.354205 23171 layer_factory.hpp:77] Creating layer relu2_1
I0624 20:13:50.354210 23171 net.cpp:91] Creating Layer relu2_1
I0624 20:13:50.354212 23171 net.cpp:425] relu2_1 <- conv2_1
I0624 20:13:50.354215 23171 net.cpp:386] relu2_1 -> conv2_1 (in-place)
I0624 20:13:50.354357 23171 net.cpp:141] Setting up relu2_1
I0624 20:13:50.354364 23171 net.cpp:148] Top shape: 64 64 56 56 (12845056)
I0624 20:13:50.354367 23171 net.cpp:156] Memory required for data: 1091830528
I0624 20:13:50.354369 23171 layer_factory.hpp:77] Creating layer conv2_2
I0624 20:13:50.354377 23171 net.cpp:91] Creating Layer conv2_2
I0624 20:13:50.354380 23171 net.cpp:425] conv2_2 <- conv2_1
I0624 20:13:50.354385 23171 net.cpp:399] conv2_2 -> conv2_2
I0624 20:13:50.355458 23171 net.cpp:141] Setting up conv2_2
I0624 20:13:50.355469 23171 net.cpp:148] Top shape: 64 64 56 56 (12845056)
I0624 20:13:50.355473 23171 net.cpp:156] Memory required for data: 1143210752
I0624 20:13:50.355476 23171 layer_factory.hpp:77] Creating layer bn2_2
I0624 20:13:50.355484 23171 net.cpp:91] Creating Layer bn2_2
I0624 20:13:50.355487 23171 net.cpp:425] bn2_2 <- conv2_2
I0624 20:13:50.355492 23171 net.cpp:386] bn2_2 -> conv2_2 (in-place)
I0624 20:13:50.355651 23171 net.cpp:141] Setting up bn2_2
I0624 20:13:50.355659 23171 net.cpp:148] Top shape: 64 64 56 56 (12845056)
I0624 20:13:50.355661 23171 net.cpp:156] Memory required for data: 1194590976
I0624 20:13:50.355666 23171 layer_factory.hpp:77] Creating layer scale2_2
I0624 20:13:50.355674 23171 net.cpp:91] Creating Layer scale2_2
I0624 20:13:50.355675 23171 net.cpp:425] scale2_2 <- conv2_2
I0624 20:13:50.355679 23171 net.cpp:386] scale2_2 -> conv2_2 (in-place)
I0624 20:13:50.355710 23171 layer_factory.hpp:77] Creating layer scale2_2
I0624 20:13:50.355808 23171 net.cpp:141] Setting up scale2_2
I0624 20:13:50.355814 23171 net.cpp:148] Top shape: 64 64 56 56 (12845056)
I0624 20:13:50.355816 23171 net.cpp:156] Memory required for data: 1245971200
I0624 20:13:50.355820 23171 layer_factory.hpp:77] Creating layer relu2_2
I0624 20:13:50.355825 23171 net.cpp:91] Creating Layer relu2_2
I0624 20:13:50.355828 23171 net.cpp:425] relu2_2 <- conv2_2
I0624 20:13:50.355831 23171 net.cpp:386] relu2_2 -> conv2_2 (in-place)
I0624 20:13:50.355981 23171 net.cpp:141] Setting up relu2_2
I0624 20:13:50.355989 23171 net.cpp:148] Top shape: 64 64 56 56 (12845056)
I0624 20:13:50.355993 23171 net.cpp:156] Memory required for data: 1297351424
I0624 20:13:50.355995 23171 layer_factory.hpp:77] Creating layer pool2
I0624 20:13:50.356000 23171 net.cpp:91] Creating Layer pool2
I0624 20:13:50.356003 23171 net.cpp:425] pool2 <- conv2_2
I0624 20:13:50.356006 23171 net.cpp:399] pool2 -> pool2
I0624 20:13:50.356043 23171 net.cpp:141] Setting up pool2
I0624 20:13:50.356050 23171 net.cpp:148] Top shape: 64 64 28 28 (3211264)
I0624 20:13:50.356051 23171 net.cpp:156] Memory required for data: 1310196480
I0624 20:13:50.356055 23171 layer_factory.hpp:77] Creating layer conv3_1
I0624 20:13:50.356061 23171 net.cpp:91] Creating Layer conv3_1
I0624 20:13:50.356063 23171 net.cpp:425] conv3_1 <- pool2
I0624 20:13:50.356106 23171 net.cpp:399] conv3_1 -> conv3_1
I0624 20:13:50.358705 23171 net.cpp:141] Setting up conv3_1
I0624 20:13:50.358718 23171 net.cpp:148] Top shape: 64 128 28 28 (6422528)
I0624 20:13:50.358721 23171 net.cpp:156] Memory required for data: 1335886592
I0624 20:13:50.358726 23171 layer_factory.hpp:77] Creating layer bn3_1
I0624 20:13:50.358744 23171 net.cpp:91] Creating Layer bn3_1
I0624 20:13:50.358747 23171 net.cpp:425] bn3_1 <- conv3_1
I0624 20:13:50.358752 23171 net.cpp:386] bn3_1 -> conv3_1 (in-place)
I0624 20:13:50.358909 23171 net.cpp:141] Setting up bn3_1
I0624 20:13:50.358916 23171 net.cpp:148] Top shape: 64 128 28 28 (6422528)
I0624 20:13:50.358918 23171 net.cpp:156] Memory required for data: 1361576704
I0624 20:13:50.358924 23171 layer_factory.hpp:77] Creating layer scale3_1
I0624 20:13:50.358930 23171 net.cpp:91] Creating Layer scale3_1
I0624 20:13:50.358932 23171 net.cpp:425] scale3_1 <- conv3_1
I0624 20:13:50.358937 23171 net.cpp:386] scale3_1 -> conv3_1 (in-place)
I0624 20:13:50.358969 23171 layer_factory.hpp:77] Creating layer scale3_1
I0624 20:13:50.359060 23171 net.cpp:141] Setting up scale3_1
I0624 20:13:50.359066 23171 net.cpp:148] Top shape: 64 128 28 28 (6422528)
I0624 20:13:50.359067 23171 net.cpp:156] Memory required for data: 1387266816
I0624 20:13:50.359071 23171 layer_factory.hpp:77] Creating layer relu3_1
I0624 20:13:50.359076 23171 net.cpp:91] Creating Layer relu3_1
I0624 20:13:50.359078 23171 net.cpp:425] relu3_1 <- conv3_1
I0624 20:13:50.359082 23171 net.cpp:386] relu3_1 -> conv3_1 (in-place)
I0624 20:13:50.359233 23171 net.cpp:141] Setting up relu3_1
I0624 20:13:50.359241 23171 net.cpp:148] Top shape: 64 128 28 28 (6422528)
I0624 20:13:50.359244 23171 net.cpp:156] Memory required for data: 1412956928
I0624 20:13:50.359246 23171 layer_factory.hpp:77] Creating layer conv3_2
I0624 20:13:50.359256 23171 net.cpp:91] Creating Layer conv3_2
I0624 20:13:50.359257 23171 net.cpp:425] conv3_2 <- conv3_1
I0624 20:13:50.359262 23171 net.cpp:399] conv3_2 -> conv3_2
I0624 20:13:50.361208 23171 net.cpp:141] Setting up conv3_2
I0624 20:13:50.361222 23171 net.cpp:148] Top shape: 64 128 28 28 (6422528)
I0624 20:13:50.361224 23171 net.cpp:156] Memory required for data: 1438647040
I0624 20:13:50.361228 23171 layer_factory.hpp:77] Creating layer bn3_2
I0624 20:13:50.361234 23171 net.cpp:91] Creating Layer bn3_2
I0624 20:13:50.361238 23171 net.cpp:425] bn3_2 <- conv3_2
I0624 20:13:50.361241 23171 net.cpp:386] bn3_2 -> conv3_2 (in-place)
I0624 20:13:50.361402 23171 net.cpp:141] Setting up bn3_2
I0624 20:13:50.361409 23171 net.cpp:148] Top shape: 64 128 28 28 (6422528)
I0624 20:13:50.361413 23171 net.cpp:156] Memory required for data: 1464337152
I0624 20:13:50.361423 23171 layer_factory.hpp:77] Creating layer scale3_2
I0624 20:13:50.361430 23171 net.cpp:91] Creating Layer scale3_2
I0624 20:13:50.361433 23171 net.cpp:425] scale3_2 <- conv3_2
I0624 20:13:50.361436 23171 net.cpp:386] scale3_2 -> conv3_2 (in-place)
I0624 20:13:50.361469 23171 layer_factory.hpp:77] Creating layer scale3_2
I0624 20:13:50.361562 23171 net.cpp:141] Setting up scale3_2
I0624 20:13:50.361567 23171 net.cpp:148] Top shape: 64 128 28 28 (6422528)
I0624 20:13:50.361569 23171 net.cpp:156] Memory required for data: 1490027264
I0624 20:13:50.361573 23171 layer_factory.hpp:77] Creating layer relu3_2
I0624 20:13:50.361579 23171 net.cpp:91] Creating Layer relu3_2
I0624 20:13:50.361582 23171 net.cpp:425] relu3_2 <- conv3_2
I0624 20:13:50.361584 23171 net.cpp:386] relu3_2 -> conv3_2 (in-place)
I0624 20:13:50.361726 23171 net.cpp:141] Setting up relu3_2
I0624 20:13:50.361734 23171 net.cpp:148] Top shape: 64 128 28 28 (6422528)
I0624 20:13:50.361737 23171 net.cpp:156] Memory required for data: 1515717376
I0624 20:13:50.361739 23171 layer_factory.hpp:77] Creating layer pool3
I0624 20:13:50.361745 23171 net.cpp:91] Creating Layer pool3
I0624 20:13:50.361747 23171 net.cpp:425] pool3 <- conv3_2
I0624 20:13:50.361752 23171 net.cpp:399] pool3 -> pool3
I0624 20:13:50.361789 23171 net.cpp:141] Setting up pool3
I0624 20:13:50.361795 23171 net.cpp:148] Top shape: 64 128 14 14 (1605632)
I0624 20:13:50.361798 23171 net.cpp:156] Memory required for data: 1522139904
I0624 20:13:50.361799 23171 layer_factory.hpp:77] Creating layer conv4_1
I0624 20:13:50.361809 23171 net.cpp:91] Creating Layer conv4_1
I0624 20:13:50.361811 23171 net.cpp:425] conv4_1 <- pool3
I0624 20:13:50.361827 23171 net.cpp:399] conv4_1 -> conv4_1
I0624 20:13:50.364610 23171 net.cpp:141] Setting up conv4_1
I0624 20:13:50.364625 23171 net.cpp:148] Top shape: 64 256 14 14 (3211264)
I0624 20:13:50.364629 23171 net.cpp:156] Memory required for data: 1534984960
I0624 20:13:50.364634 23171 layer_factory.hpp:77] Creating layer bn4_1
I0624 20:13:50.364641 23171 net.cpp:91] Creating Layer bn4_1
I0624 20:13:50.364645 23171 net.cpp:425] bn4_1 <- conv4_1
I0624 20:13:50.364648 23171 net.cpp:386] bn4_1 -> conv4_1 (in-place)
I0624 20:13:50.364821 23171 net.cpp:141] Setting up bn4_1
I0624 20:13:50.364828 23171 net.cpp:148] Top shape: 64 256 14 14 (3211264)
I0624 20:13:50.364830 23171 net.cpp:156] Memory required for data: 1547830016
I0624 20:13:50.364836 23171 layer_factory.hpp:77] Creating layer scale4_1
I0624 20:13:50.364842 23171 net.cpp:91] Creating Layer scale4_1
I0624 20:13:50.364845 23171 net.cpp:425] scale4_1 <- conv4_1
I0624 20:13:50.364848 23171 net.cpp:386] scale4_1 -> conv4_1 (in-place)
I0624 20:13:50.364882 23171 layer_factory.hpp:77] Creating layer scale4_1
I0624 20:13:50.364971 23171 net.cpp:141] Setting up scale4_1
I0624 20:13:50.364977 23171 net.cpp:148] Top shape: 64 256 14 14 (3211264)
I0624 20:13:50.364980 23171 net.cpp:156] Memory required for data: 1560675072
I0624 20:13:50.364984 23171 layer_factory.hpp:77] Creating layer relu4_1
I0624 20:13:50.364992 23171 net.cpp:91] Creating Layer relu4_1
I0624 20:13:50.364995 23171 net.cpp:425] relu4_1 <- conv4_1
I0624 20:13:50.364998 23171 net.cpp:386] relu4_1 -> conv4_1 (in-place)
I0624 20:13:50.365140 23171 net.cpp:141] Setting up relu4_1
I0624 20:13:50.365149 23171 net.cpp:148] Top shape: 64 256 14 14 (3211264)
I0624 20:13:50.365151 23171 net.cpp:156] Memory required for data: 1573520128
I0624 20:13:50.365154 23171 layer_factory.hpp:77] Creating layer conv4_2
I0624 20:13:50.365162 23171 net.cpp:91] Creating Layer conv4_2
I0624 20:13:50.365165 23171 net.cpp:425] conv4_2 <- conv4_1
I0624 20:13:50.365170 23171 net.cpp:399] conv4_2 -> conv4_2
I0624 20:13:50.371183 23171 net.cpp:141] Setting up conv4_2
I0624 20:13:50.371206 23171 net.cpp:148] Top shape: 64 256 14 14 (3211264)
I0624 20:13:50.371209 23171 net.cpp:156] Memory required for data: 1586365184
I0624 20:13:50.371215 23171 layer_factory.hpp:77] Creating layer bn4_2
I0624 20:13:50.371225 23171 net.cpp:91] Creating Layer bn4_2
I0624 20:13:50.371229 23171 net.cpp:425] bn4_2 <- conv4_2
I0624 20:13:50.371235 23171 net.cpp:386] bn4_2 -> conv4_2 (in-place)
I0624 20:13:50.371412 23171 net.cpp:141] Setting up bn4_2
I0624 20:13:50.371419 23171 net.cpp:148] Top shape: 64 256 14 14 (3211264)
I0624 20:13:50.371422 23171 net.cpp:156] Memory required for data: 1599210240
I0624 20:13:50.371428 23171 layer_factory.hpp:77] Creating layer scale4_2
I0624 20:13:50.371434 23171 net.cpp:91] Creating Layer scale4_2
I0624 20:13:50.371439 23171 net.cpp:425] scale4_2 <- conv4_2
I0624 20:13:50.371443 23171 net.cpp:386] scale4_2 -> conv4_2 (in-place)
I0624 20:13:50.371482 23171 layer_factory.hpp:77] Creating layer scale4_2
I0624 20:13:50.371574 23171 net.cpp:141] Setting up scale4_2
I0624 20:13:50.371582 23171 net.cpp:148] Top shape: 64 256 14 14 (3211264)
I0624 20:13:50.371584 23171 net.cpp:156] Memory required for data: 1612055296
I0624 20:13:50.371588 23171 layer_factory.hpp:77] Creating layer relu4_2
I0624 20:13:50.371593 23171 net.cpp:91] Creating Layer relu4_2
I0624 20:13:50.371595 23171 net.cpp:425] relu4_2 <- conv4_2
I0624 20:13:50.371603 23171 net.cpp:386] relu4_2 -> conv4_2 (in-place)
I0624 20:13:50.372158 23171 net.cpp:141] Setting up relu4_2
I0624 20:13:50.372169 23171 net.cpp:148] Top shape: 64 256 14 14 (3211264)
I0624 20:13:50.372172 23171 net.cpp:156] Memory required for data: 1624900352
I0624 20:13:50.372175 23171 layer_factory.hpp:77] Creating layer pool4
I0624 20:13:50.372182 23171 net.cpp:91] Creating Layer pool4
I0624 20:13:50.372185 23171 net.cpp:425] pool4 <- conv4_2
I0624 20:13:50.372190 23171 net.cpp:399] pool4 -> pool4
I0624 20:13:50.372236 23171 net.cpp:141] Setting up pool4
I0624 20:13:50.372241 23171 net.cpp:148] Top shape: 64 256 7 7 (802816)
I0624 20:13:50.372257 23171 net.cpp:156] Memory required for data: 1628111616
I0624 20:13:50.372261 23171 layer_factory.hpp:77] Creating layer conv5_1
I0624 20:13:50.372269 23171 net.cpp:91] Creating Layer conv5_1
I0624 20:13:50.372272 23171 net.cpp:425] conv5_1 <- pool4
I0624 20:13:50.372277 23171 net.cpp:399] conv5_1 -> conv5_1
I0624 20:13:50.378062 23171 net.cpp:141] Setting up conv5_1
I0624 20:13:50.378083 23171 net.cpp:148] Top shape: 64 256 7 7 (802816)
I0624 20:13:50.378087 23171 net.cpp:156] Memory required for data: 1631322880
I0624 20:13:50.378093 23171 layer_factory.hpp:77] Creating layer bn5_1
I0624 20:13:50.378103 23171 net.cpp:91] Creating Layer bn5_1
I0624 20:13:50.378106 23171 net.cpp:425] bn5_1 <- conv5_1
I0624 20:13:50.378113 23171 net.cpp:386] bn5_1 -> conv5_1 (in-place)
I0624 20:13:50.378309 23171 net.cpp:141] Setting up bn5_1
I0624 20:13:50.378319 23171 net.cpp:148] Top shape: 64 256 7 7 (802816)
I0624 20:13:50.378321 23171 net.cpp:156] Memory required for data: 1634534144
I0624 20:13:50.378329 23171 layer_factory.hpp:77] Creating layer scale5_1
I0624 20:13:50.378335 23171 net.cpp:91] Creating Layer scale5_1
I0624 20:13:50.378337 23171 net.cpp:425] scale5_1 <- conv5_1
I0624 20:13:50.378342 23171 net.cpp:386] scale5_1 -> conv5_1 (in-place)
I0624 20:13:50.378379 23171 layer_factory.hpp:77] Creating layer scale5_1
I0624 20:13:50.378471 23171 net.cpp:141] Setting up scale5_1
I0624 20:13:50.378479 23171 net.cpp:148] Top shape: 64 256 7 7 (802816)
I0624 20:13:50.378480 23171 net.cpp:156] Memory required for data: 1637745408
I0624 20:13:50.378484 23171 layer_factory.hpp:77] Creating layer relu5_1
I0624 20:13:50.378490 23171 net.cpp:91] Creating Layer relu5_1
I0624 20:13:50.378492 23171 net.cpp:425] relu5_1 <- conv5_1
I0624 20:13:50.378497 23171 net.cpp:386] relu5_1 -> conv5_1 (in-place)
I0624 20:13:50.378648 23171 net.cpp:141] Setting up relu5_1
I0624 20:13:50.378655 23171 net.cpp:148] Top shape: 64 256 7 7 (802816)
I0624 20:13:50.378659 23171 net.cpp:156] Memory required for data: 1640956672
I0624 20:13:50.378661 23171 layer_factory.hpp:77] Creating layer conv5_2
I0624 20:13:50.378669 23171 net.cpp:91] Creating Layer conv5_2
I0624 20:13:50.378672 23171 net.cpp:425] conv5_2 <- conv5_1
I0624 20:13:50.378677 23171 net.cpp:399] conv5_2 -> conv5_2
I0624 20:13:50.384553 23171 net.cpp:141] Setting up conv5_2
I0624 20:13:50.384577 23171 net.cpp:148] Top shape: 64 256 7 7 (802816)
I0624 20:13:50.384579 23171 net.cpp:156] Memory required for data: 1644167936
I0624 20:13:50.384587 23171 layer_factory.hpp:77] Creating layer bn5_2
I0624 20:13:50.384595 23171 net.cpp:91] Creating Layer bn5_2
I0624 20:13:50.384599 23171 net.cpp:425] bn5_2 <- conv5_2
I0624 20:13:50.384605 23171 net.cpp:386] bn5_2 -> conv5_2 (in-place)
I0624 20:13:50.384804 23171 net.cpp:141] Setting up bn5_2
I0624 20:13:50.384812 23171 net.cpp:148] Top shape: 64 256 7 7 (802816)
I0624 20:13:50.384815 23171 net.cpp:156] Memory required for data: 1647379200
I0624 20:13:50.384821 23171 layer_factory.hpp:77] Creating layer scale5_2
I0624 20:13:50.384829 23171 net.cpp:91] Creating Layer scale5_2
I0624 20:13:50.384831 23171 net.cpp:425] scale5_2 <- conv5_2
I0624 20:13:50.384835 23171 net.cpp:386] scale5_2 -> conv5_2 (in-place)
I0624 20:13:50.384872 23171 layer_factory.hpp:77] Creating layer scale5_2
I0624 20:13:50.384964 23171 net.cpp:141] Setting up scale5_2
I0624 20:13:50.384973 23171 net.cpp:148] Top shape: 64 256 7 7 (802816)
I0624 20:13:50.384974 23171 net.cpp:156] Memory required for data: 1650590464
I0624 20:13:50.384979 23171 layer_factory.hpp:77] Creating layer relu5_2
I0624 20:13:50.384985 23171 net.cpp:91] Creating Layer relu5_2
I0624 20:13:50.384987 23171 net.cpp:425] relu5_2 <- conv5_2
I0624 20:13:50.384991 23171 net.cpp:386] relu5_2 -> conv5_2 (in-place)
I0624 20:13:50.385148 23171 net.cpp:141] Setting up relu5_2
I0624 20:13:50.385156 23171 net.cpp:148] Top shape: 64 256 7 7 (802816)
I0624 20:13:50.385159 23171 net.cpp:156] Memory required for data: 1653801728
I0624 20:13:50.385161 23171 layer_factory.hpp:77] Creating layer pool5
I0624 20:13:50.385182 23171 net.cpp:91] Creating Layer pool5
I0624 20:13:50.385185 23171 net.cpp:425] pool5 <- conv5_2
I0624 20:13:50.385190 23171 net.cpp:399] pool5 -> pool5
I0624 20:13:50.385637 23171 net.cpp:141] Setting up pool5
I0624 20:13:50.385649 23171 net.cpp:148] Top shape: 64 256 1 1 (16384)
I0624 20:13:50.385653 23171 net.cpp:156] Memory required for data: 1653867264
I0624 20:13:50.385655 23171 layer_factory.hpp:77] Creating layer fc2
I0624 20:13:50.385663 23171 net.cpp:91] Creating Layer fc2
I0624 20:13:50.385665 23171 net.cpp:425] fc2 <- pool5
I0624 20:13:50.385670 23171 net.cpp:399] fc2 -> fc2
I0624 20:13:50.385784 23171 net.cpp:141] Setting up fc2
I0624 20:13:50.385792 23171 net.cpp:148] Top shape: 64 2 (128)
I0624 20:13:50.385794 23171 net.cpp:156] Memory required for data: 1653867776
I0624 20:13:50.385798 23171 layer_factory.hpp:77] Creating layer fc2_fc2_0_split
I0624 20:13:50.385804 23171 net.cpp:91] Creating Layer fc2_fc2_0_split
I0624 20:13:50.385807 23171 net.cpp:425] fc2_fc2_0_split <- fc2
I0624 20:13:50.385809 23171 net.cpp:399] fc2_fc2_0_split -> fc2_fc2_0_split_0
I0624 20:13:50.385815 23171 net.cpp:399] fc2_fc2_0_split -> fc2_fc2_0_split_1
I0624 20:13:50.385848 23171 net.cpp:141] Setting up fc2_fc2_0_split
I0624 20:13:50.385854 23171 net.cpp:148] Top shape: 64 2 (128)
I0624 20:13:50.385856 23171 net.cpp:148] Top shape: 64 2 (128)
I0624 20:13:50.385859 23171 net.cpp:156] Memory required for data: 1653868800
I0624 20:13:50.385860 23171 layer_factory.hpp:77] Creating layer loss
I0624 20:13:50.385866 23171 net.cpp:91] Creating Layer loss
I0624 20:13:50.385869 23171 net.cpp:425] loss <- fc2_fc2_0_split_0
I0624 20:13:50.385872 23171 net.cpp:425] loss <- label_data_1_split_0
I0624 20:13:50.385875 23171 net.cpp:399] loss -> loss
…
