…
I0624 20:20:33.190296 23251 net.cpp:313] The NetState phase (0) differed from the phase (1) specified by a rule in layer data
I0624 20:20:33.190521 23251 net.cpp:49] Initializing net from parameters: 
name: "BPnet"
state {
  phase: TRAIN
}
layer {
  name: "data"
  type: "Data"
  top: "data"
  top: "label"
  include {
    phase: TRAIN
  }
  transform_param {
    mirror: false
    crop_size: 224
    mean_value: 100
    scale_jitter_range: 0.1
    contrast_jitter_range: 0.1
  }
  data_param {
    source: "data/train_lmdb"
    batch_size: 32
    backend: LMDB
  }
}
layer {
  name: "conv1_1"
  type: "Convolution"
  bottom: "data"
  top: "conv1_1"
  param {
    lr_mult: 1
    decay_mult: 1
  }
  convolution_param {
    num_output: 32
    bias_term: false
    pad: 3
    kernel_size: 7
    stride: 2
    weight_filler {
      type: "xavier"
    }
  }
}
layer {
  name: "bn1_1"
  type: "BatchNorm"
  bottom: "conv1_1"
  top: "conv1_1"
  param {
    lr_mult: 0
  }
  param {
    lr_mult: 0
  }
  param {
    lr_mult: 0
  }
  batch_norm_param {
    use_global_stats: false
  }
}
layer {
  name: "scale1_1"
  type: "Scale"
  bottom: "conv1_1"
  top: "conv1_1"
  param {
    lr_mult: 1
    decay_mult: 1
  }
  param {
    lr_mult: 1
    decay_mult: 1
  }
  scale_param {
    bias_term: true
    bias_filler {
      type: "constant"
      value: 0
    }
  }
}
layer {
  name: "relu1_1"
  type: "ReLU"
  bottom: "conv1_1"
  top: "conv1_1"
}
layer {
  name: "conv1_2"
  type: "Convolution"
  bottom: "conv1_1"
  top: "conv1_2"
  param {
    lr_mult: 1
    decay_mult: 1
  }
  convolution_param {
    num_output: 32
    bias_term: false
    pad: 1
    kernel_size: 3
    weight_filler {
      type: "xavier"
    }
  }
}
layer {
  name: "bn1_2"
  type: "BatchNorm"
  bottom: "conv1_2"
  top: "conv1_2"
  param {
    lr_mult: 0
  }
  param {
    lr_mult: 0
  }
  param {
    lr_mult: 0
  }
  batch_norm_param {
    use_global_stats: false
  }
}
layer {
  name: "scale1_2"
  type: "Scale"
  bottom: "conv1_2"
  top: "conv1_2"
  param {
    lr_mult: 1
    decay_mult: 1
  }
  param {
    lr_mult: 1
    decay_mult: 1
  }
  scale_param {
    bias_term: true
    bias_filler {
      type: "constant"
      value: 0
    }
  }
}
layer {
  name: "relu1_2"
  type: "ReLU"
  bottom: "conv1_2"
  top: "conv1_2"
}
layer {
  name: "pool1"
  type: "Pooling"
  bottom: "conv1_2"
  top: "pool1"
  pooling_param {
    pool: MAX
    kernel_size: 2
    stride: 2
  }
}
layer {
  name: "conv2_1"
  type: "Convolution"
  bottom: "pool1"
  top: "conv2_1"
  param {
    lr_mult: 1
    decay_mult: 1
  }
  convolution_param {
    num_output: 64
    bias_term: false
    pad: 1
    kernel_size: 3
    weight_filler {
      type: "xavier"
    }
  }
}
layer {
  name: "bn2_1"
  type: "BatchNorm"
  bottom: "conv2_1"
  top: "conv2_1"
  param {
    lr_mult: 0
  }
  param {
    lr_mult: 0
  }
  param {
    lr_mult: 0
  }
  batch_norm_param {
    use_global_stats: false
  }
}
layer {
  name: "scale2_1"
  type: "Scale"
  bottom: "conv2_1"
  top: "conv2_1"
  param {
    lr_mult: 1
    decay_mult: 1
  }
  param {
    lr_mult: 1
    decay_mult: 1
  }
  scale_param {
    bias_term: true
    bias_filler {
      type: "constant"
      value: 0
    }
  }
}
layer {
  name: "relu2_1"
  type: "ReLU"
  bottom: "conv2_1"
  top: "conv2_1"
}
layer {
  name: "conv2_2"
  type: "Convolution"
  bottom: "conv2_1"
  top: "conv2_2"
  param {
    lr_mult: 1
    decay_mult: 1
  }
  convolution_param {
    num_output: 64
    bias_term: false
    pad: 1
    kernel_size: 3
    weight_filler {
      type: "xavier"
    }
  }
}
layer {
  name: "bn2_2"
  type: "BatchNorm"
  bottom: "conv2_2"
  top: "conv2_2"
  param {
    lr_mult: 0
  }
  param {
    lr_mult: 0
  }
  param {
    lr_mult: 0
  }
  batch_norm_param {
    use_global_stats: false
  }
}
layer {
  name: "scale2_2"
  type: "Scale"
  bottom: "conv2_2"
  top: "conv2_2"
  param {
    lr_mult: 1
    decay_mult: 1
  }
  param {
    lr_mult: 1
    decay_mult: 1
  }
  scale_param {
    bias_term: true
    bias_filler {
      type: "constant"
      value: 0
    }
  }
}
layer {
  name: "relu2_2"
  type: "ReLU"
  bottom: "conv2_2"
  top: "conv2_2"
}
layer {
  name: "pool2"
  type: "Pooling"
  bottom: "conv2_2"
  top: "pool2"
  pooling_param {
    pool: MAX
    kernel_size: 2
    stride: 2
  }
}
layer {
  name: "conv3_1"
  type: "Convolution"
  bottom: "pool2"
  top: "conv3_1"
  param {
    lr_mult: 1
    decay_mult: 1
  }
  convolution_param {
    num_output: 128
    bias_term: false
    pad: 1
    kernel_size: 3
    weight_filler {
      type: "xavier"
    }
  }
}
layer {
  name: "bn3_1"
  type: "BatchNorm"
  bottom: "conv3_1"
  top: "conv3_1"
  param {
    lr_mult: 0
  }
  param {
    lr_mult: 0
  }
  param {
    lr_mult: 0
  }
  batch_norm_param {
    use_global_stats: false
  }
}
layer {
  name: "scale3_1"
  type: "Scale"
  bottom: "conv3_1"
  top: "conv3_1"
  param {
    lr_mult: 1
    decay_mult: 1
  }
  param {
    lr_mult: 1
    decay_mult: 1
  }
  scale_param {
    bias_term: true
    bias_filler {
      type: "constant"
      value: 0
    }
  }
}
layer {
  name: "relu3_1"
  type: "ReLU"
  bottom: "conv3_1"
  top: "conv3_1"
}
layer {
  name: "conv3_2"
  type: "Convolution"
  bottom: "conv3_1"
  top: "conv3_2"
  param {
    lr_mult: 1
    decay_mult: 1
  }
  convolution_param {
    num_output: 128
    bias_term: false
    pad: 1
    kernel_size: 3
    weight_filler {
      type: "xavier"
    }
  }
}
layer {
  name: "bn3_2"
  type: "BatchNorm"
  bottom: "conv3_2"
  top: "conv3_2"
  param {
    lr_mult: 0
  }
  param {
    lr_mult: 0
  }
  param {
    lr_mult: 0
  }
  batch_norm_param {
    use_global_stats: false
  }
}
layer {
  name: "scale3_2"
  type: "Scale"
  bottom: "conv3_2"
  top: "conv3_2"
  param {
    lr_mult: 1
    decay_mult: 1
  }
  param {
    lr_mult: 1
    decay_mult: 1
  }
  scale_param {
    bias_term: true
    bias_filler {
      type: "constant"
      value: 0
    }
  }
}
layer {
  name: "relu3_2"
  type: "ReLU"
  bottom: "conv3_2"
  top: "conv3_2"
}
layer {
  name: "pool3"
  type: "Pooling"
  bottom: "conv3_2"
  top: "pool3"
  pooling_param {
    pool: MAX
    kernel_size: 2
    stride: 2
  }
}
layer {
  name: "conv4_1"
  type: "Convolution"
  bottom: "pool3"
  top: "conv4_1"
  param {
    lr_mult: 1
    decay_mult: 1
  }
  convolution_param {
    num_output: 256
    bias_term: false
    pad: 1
    kernel_size: 3
    weight_filler {
      type: "xavier"
    }
  }
}
layer {
  name: "bn4_1"
  type: "BatchNorm"
  bottom: "conv4_1"
  top: "conv4_1"
  param {
    lr_mult: 0
  }
  param {
    lr_mult: 0
  }
  param {
    lr_mult: 0
  }
  batch_norm_param {
    use_global_stats: false
  }
}
layer {
  name: "scale4_1"
  type: "Scale"
  bottom: "conv4_1"
  top: "conv4_1"
  param {
    lr_mult: 1
    decay_mult: 1
  }
  param {
    lr_mult: 1
    decay_mult: 1
  }
  scale_param {
    bias_term: true
    bias_filler {
      type: "constant"
      value: 0
    }
  }
}
layer {
  name: "relu4_1"
  type: "ReLU"
  bottom: "conv4_1"
  top: "conv4_1"
}
layer {
  name: "conv4_2"
  type: "Convolution"
  bottom: "conv4_1"
  top: "conv4_2"
  param {
    lr_mult: 1
    decay_mult: 1
  }
  convolution_param {
    num_output: 256
    bias_term: false
    pad: 1
    kernel_size: 3
    weight_filler {
      type: "xavier"
    }
  }
}
layer {
  name: "bn4_2"
  type: "BatchNorm"
  bottom: "conv4_2"
  top: "conv4_2"
  param {
    lr_mult: 0
  }
  param {
    lr_mult: 0
  }
  param {
    lr_mult: 0
  }
  batch_norm_param {
    use_global_stats: false
  }
}
layer {
  name: "scale4_2"
  type: "Scale"
  bottom: "conv4_2"
  top: "conv4_2"
  param {
    lr_mult: 1
    decay_mult: 1
  }
  param {
    lr_mult: 1
    decay_mult: 1
  }
  scale_param {
    bias_term: true
    bias_filler {
      type: "constant"
      value: 0
    }
  }
}
layer {
  name: "relu4_2"
  type: "ReLU"
  bottom: "conv4_2"
  top: "conv4_2"
}
layer {
  name: "pool4"
  type: "Pooling"
  bottom: "conv4_2"
  top: "pool4"
  pooling_param {
    pool: MAX
    kernel_size: 2
    stride: 2
  }
}
layer {
  name: "conv5_1"
  type: "Convolution"
  bottom: "pool4"
  top: "conv5_1"
  param {
    lr_mult: 1
    decay_mult: 1
  }
  convolution_param {
    num_output: 256
    bias_term: false
    pad: 1
    kernel_size: 3
    weight_filler {
      type: "xavier"
    }
  }
}
layer {
  name: "bn5_1"
  type: "BatchNorm"
  bottom: "conv5_1"
  top: "conv5_1"
  param {
    lr_mult: 0
  }
  param {
    lr_mult: 0
  }
  param {
    lr_mult: 0
  }
  batch_norm_param {
    use_global_stats: false
  }
}
layer {
  name: "scale5_1"
  type: "Scale"
  bottom: "conv5_1"
  top: "conv5_1"
  param {
    lr_mult: 1
    decay_mult: 1
  }
  param {
    lr_mult: 1
    decay_mult: 1
  }
  scale_param {
    bias_term: true
    bias_filler {
      type: "constant"
      value: 0
    }
  }
}
layer {
  name: "relu5_1"
  type: "ReLU"
  bottom: "conv5_1"
  top: "conv5_1"
}
layer {
  name: "conv5_2"
  type: "Convolution"
  bottom: "conv5_1"
  top: "conv5_2"
  param {
    lr_mult: 1
    decay_mult: 1
  }
  convolution_param {
    num_output: 256
    bias_term: false
    pad: 1
    kernel_size: 3
    weight_filler {
      type: "xavier"
    }
  }
}
layer {
  name: "bn5_2"
  type: "BatchNorm"
  bottom: "conv5_2"
  top: "conv5_2"
  param {
    lr_mult: 0
  }
  param {
    lr_mult: 0
  }
  param {
    lr_mult: 0
  }
  batch_norm_param {
    use_global_stats: false
  }
}
layer {
  name: "scale5_2"
  type: "Scale"
  bottom: "conv5_2"
  top: "conv5_2"
  param {
    lr_mult: 1
    decay_mult: 1
  }
  param {
    lr_mult: 1
    decay_mult: 1
  }
  scale_param {
    bias_term: true
    bias_filler {
      type: "constant"
      value: 0
    }
  }
}
layer {
  name: "relu5_2"
  type: "ReLU"
  bottom: "conv5_2"
  top: "conv5_2"
}
layer {
  name: "pool5"
  type: "Pooling"
  bottom: "conv5_2"
  top: "pool5"
  pooling_param {
    pool: AVE
    kernel_size: 7
    stride: 1
  }
}
layer {
  name: "fc2"
  type: "InnerProduct"
  bottom: "pool5"
  top: "fc2"
  inner_product_param {
    num_output: 2
  }
}
layer {
  name: "loss"
  type: "SoftmaxWithLoss"
  bottom: "fc2"
  bottom: "label"
  top: "loss"
}
layer {
  name: "accuracy"
  type: "Accuracy"
  bottom: "fc2"
  bottom: "label"
  top: "accuracy"
}
I0624 20:20:33.190685 23251 layer_factory.hpp:77] Creating layer data
I0624 20:20:33.191076 23251 net.cpp:91] Creating Layer data
I0624 20:20:33.191087 23251 net.cpp:399] data -> data
I0624 20:20:33.191107 23251 net.cpp:399] data -> label
I0624 20:20:33.192353 23256 db_lmdb.cpp:35] Opened lmdb data/train_lmdb
I0624 20:20:33.217247 23251 data_layer.cpp:42] output data size: 32,3,224,224
I0624 20:20:33.261723 23251 net.cpp:141] Setting up data
I0624 20:20:33.261752 23251 net.cpp:148] Top shape: 32 3 224 224 (4816896)
I0624 20:20:33.261757 23251 net.cpp:148] Top shape: 32 (32)
I0624 20:20:33.261759 23251 net.cpp:156] Memory required for data: 19267712
I0624 20:20:33.261768 23251 layer_factory.hpp:77] Creating layer label_data_1_split
I0624 20:20:33.261782 23251 net.cpp:91] Creating Layer label_data_1_split
I0624 20:20:33.261787 23251 net.cpp:425] label_data_1_split <- label
I0624 20:20:33.261796 23251 net.cpp:399] label_data_1_split -> label_data_1_split_0
I0624 20:20:33.261808 23251 net.cpp:399] label_data_1_split -> label_data_1_split_1
I0624 20:20:33.261878 23251 net.cpp:141] Setting up label_data_1_split
I0624 20:20:33.261886 23251 net.cpp:148] Top shape: 32 (32)
I0624 20:20:33.261889 23251 net.cpp:148] Top shape: 32 (32)
I0624 20:20:33.261891 23251 net.cpp:156] Memory required for data: 19267968
I0624 20:20:33.261893 23251 layer_factory.hpp:77] Creating layer conv1_1
I0624 20:20:33.261909 23251 net.cpp:91] Creating Layer conv1_1
I0624 20:20:33.261911 23251 net.cpp:425] conv1_1 <- data
I0624 20:20:33.261934 23251 net.cpp:399] conv1_1 -> conv1_1
I0624 20:20:33.600656 23251 net.cpp:141] Setting up conv1_1
I0624 20:20:33.600680 23251 net.cpp:148] Top shape: 32 32 112 112 (12845056)
I0624 20:20:33.600683 23251 net.cpp:156] Memory required for data: 70648192
I0624 20:20:33.600694 23251 layer_factory.hpp:77] Creating layer bn1_1
I0624 20:20:33.600709 23251 net.cpp:91] Creating Layer bn1_1
I0624 20:20:33.600713 23251 net.cpp:425] bn1_1 <- conv1_1
I0624 20:20:33.600718 23251 net.cpp:386] bn1_1 -> conv1_1 (in-place)
I0624 20:20:33.600899 23251 net.cpp:141] Setting up bn1_1
I0624 20:20:33.600909 23251 net.cpp:148] Top shape: 32 32 112 112 (12845056)
I0624 20:20:33.600913 23251 net.cpp:156] Memory required for data: 122028416
I0624 20:20:33.600921 23251 layer_factory.hpp:77] Creating layer scale1_1
I0624 20:20:33.600929 23251 net.cpp:91] Creating Layer scale1_1
I0624 20:20:33.600932 23251 net.cpp:425] scale1_1 <- conv1_1
I0624 20:20:33.600937 23251 net.cpp:386] scale1_1 -> conv1_1 (in-place)
I0624 20:20:33.600989 23251 layer_factory.hpp:77] Creating layer scale1_1
I0624 20:20:33.601107 23251 net.cpp:141] Setting up scale1_1
I0624 20:20:33.601116 23251 net.cpp:148] Top shape: 32 32 112 112 (12845056)
I0624 20:20:33.601119 23251 net.cpp:156] Memory required for data: 173408640
I0624 20:20:33.601125 23251 layer_factory.hpp:77] Creating layer relu1_1
I0624 20:20:33.601130 23251 net.cpp:91] Creating Layer relu1_1
I0624 20:20:33.601133 23251 net.cpp:425] relu1_1 <- conv1_1
I0624 20:20:33.601136 23251 net.cpp:386] relu1_1 -> conv1_1 (in-place)
I0624 20:20:33.601285 23251 net.cpp:141] Setting up relu1_1
I0624 20:20:33.601295 23251 net.cpp:148] Top shape: 32 32 112 112 (12845056)
I0624 20:20:33.601299 23251 net.cpp:156] Memory required for data: 224788864
I0624 20:20:33.601301 23251 layer_factory.hpp:77] Creating layer conv1_2
I0624 20:20:33.601310 23251 net.cpp:91] Creating Layer conv1_2
I0624 20:20:33.601312 23251 net.cpp:425] conv1_2 <- conv1_1
I0624 20:20:33.601316 23251 net.cpp:399] conv1_2 -> conv1_2
I0624 20:20:33.602144 23251 net.cpp:141] Setting up conv1_2
I0624 20:20:33.602157 23251 net.cpp:148] Top shape: 32 32 112 112 (12845056)
I0624 20:20:33.602160 23251 net.cpp:156] Memory required for data: 276169088
I0624 20:20:33.602164 23251 layer_factory.hpp:77] Creating layer bn1_2
I0624 20:20:33.602170 23251 net.cpp:91] Creating Layer bn1_2
I0624 20:20:33.602172 23251 net.cpp:425] bn1_2 <- conv1_2
I0624 20:20:33.602176 23251 net.cpp:386] bn1_2 -> conv1_2 (in-place)
I0624 20:20:33.602322 23251 net.cpp:141] Setting up bn1_2
I0624 20:20:33.602331 23251 net.cpp:148] Top shape: 32 32 112 112 (12845056)
I0624 20:20:33.602334 23251 net.cpp:156] Memory required for data: 327549312
I0624 20:20:33.602344 23251 layer_factory.hpp:77] Creating layer scale1_2
I0624 20:20:33.602350 23251 net.cpp:91] Creating Layer scale1_2
I0624 20:20:33.602352 23251 net.cpp:425] scale1_2 <- conv1_2
I0624 20:20:33.602356 23251 net.cpp:386] scale1_2 -> conv1_2 (in-place)
I0624 20:20:33.602396 23251 layer_factory.hpp:77] Creating layer scale1_2
I0624 20:20:33.602509 23251 net.cpp:141] Setting up scale1_2
I0624 20:20:33.602516 23251 net.cpp:148] Top shape: 32 32 112 112 (12845056)
I0624 20:20:33.602519 23251 net.cpp:156] Memory required for data: 378929536
I0624 20:20:33.602524 23251 layer_factory.hpp:77] Creating layer relu1_2
I0624 20:20:33.602529 23251 net.cpp:91] Creating Layer relu1_2
I0624 20:20:33.602531 23251 net.cpp:425] relu1_2 <- conv1_2
I0624 20:20:33.602535 23251 net.cpp:386] relu1_2 -> conv1_2 (in-place)
I0624 20:20:33.602677 23251 net.cpp:141] Setting up relu1_2
I0624 20:20:33.602687 23251 net.cpp:148] Top shape: 32 32 112 112 (12845056)
I0624 20:20:33.602690 23251 net.cpp:156] Memory required for data: 430309760
I0624 20:20:33.602692 23251 layer_factory.hpp:77] Creating layer pool1
I0624 20:20:33.602699 23251 net.cpp:91] Creating Layer pool1
I0624 20:20:33.602701 23251 net.cpp:425] pool1 <- conv1_2
I0624 20:20:33.602705 23251 net.cpp:399] pool1 -> pool1
I0624 20:20:33.602757 23251 net.cpp:141] Setting up pool1
I0624 20:20:33.602763 23251 net.cpp:148] Top shape: 32 32 56 56 (3211264)
I0624 20:20:33.602782 23251 net.cpp:156] Memory required for data: 443154816
I0624 20:20:33.602784 23251 layer_factory.hpp:77] Creating layer conv2_1
I0624 20:20:33.602794 23251 net.cpp:91] Creating Layer conv2_1
I0624 20:20:33.602799 23251 net.cpp:425] conv2_1 <- pool1
I0624 20:20:33.602807 23251 net.cpp:399] conv2_1 -> conv2_1
I0624 20:20:33.604825 23251 net.cpp:141] Setting up conv2_1
I0624 20:20:33.604837 23251 net.cpp:148] Top shape: 32 64 56 56 (6422528)
I0624 20:20:33.604840 23251 net.cpp:156] Memory required for data: 468844928
I0624 20:20:33.604846 23251 layer_factory.hpp:77] Creating layer bn2_1
I0624 20:20:33.604851 23251 net.cpp:91] Creating Layer bn2_1
I0624 20:20:33.604854 23251 net.cpp:425] bn2_1 <- conv2_1
I0624 20:20:33.604861 23251 net.cpp:386] bn2_1 -> conv2_1 (in-place)
I0624 20:20:33.606719 23251 net.cpp:141] Setting up bn2_1
I0624 20:20:33.606731 23251 net.cpp:148] Top shape: 32 64 56 56 (6422528)
I0624 20:20:33.606734 23251 net.cpp:156] Memory required for data: 494535040
I0624 20:20:33.606741 23251 layer_factory.hpp:77] Creating layer scale2_1
I0624 20:20:33.606748 23251 net.cpp:91] Creating Layer scale2_1
I0624 20:20:33.606753 23251 net.cpp:425] scale2_1 <- conv2_1
I0624 20:20:33.606760 23251 net.cpp:386] scale2_1 -> conv2_1 (in-place)
I0624 20:20:33.606808 23251 layer_factory.hpp:77] Creating layer scale2_1
I0624 20:20:33.606909 23251 net.cpp:141] Setting up scale2_1
I0624 20:20:33.606917 23251 net.cpp:148] Top shape: 32 64 56 56 (6422528)
I0624 20:20:33.606920 23251 net.cpp:156] Memory required for data: 520225152
I0624 20:20:33.606927 23251 layer_factory.hpp:77] Creating layer relu2_1
I0624 20:20:33.606932 23251 net.cpp:91] Creating Layer relu2_1
I0624 20:20:33.606936 23251 net.cpp:425] relu2_1 <- conv2_1
I0624 20:20:33.606941 23251 net.cpp:386] relu2_1 -> conv2_1 (in-place)
I0624 20:20:33.607403 23251 net.cpp:141] Setting up relu2_1
I0624 20:20:33.607417 23251 net.cpp:148] Top shape: 32 64 56 56 (6422528)
I0624 20:20:33.607420 23251 net.cpp:156] Memory required for data: 545915264
I0624 20:20:33.607424 23251 layer_factory.hpp:77] Creating layer conv2_2
I0624 20:20:33.607434 23251 net.cpp:91] Creating Layer conv2_2
I0624 20:20:33.607436 23251 net.cpp:425] conv2_2 <- conv2_1
I0624 20:20:33.607441 23251 net.cpp:399] conv2_2 -> conv2_2
I0624 20:20:33.608150 23251 net.cpp:141] Setting up conv2_2
I0624 20:20:33.608162 23251 net.cpp:148] Top shape: 32 64 56 56 (6422528)
I0624 20:20:33.608165 23251 net.cpp:156] Memory required for data: 571605376
I0624 20:20:33.608170 23251 layer_factory.hpp:77] Creating layer bn2_2
I0624 20:20:33.608177 23251 net.cpp:91] Creating Layer bn2_2
I0624 20:20:33.608180 23251 net.cpp:425] bn2_2 <- conv2_2
I0624 20:20:33.608184 23251 net.cpp:386] bn2_2 -> conv2_2 (in-place)
I0624 20:20:33.608317 23251 net.cpp:141] Setting up bn2_2
I0624 20:20:33.608325 23251 net.cpp:148] Top shape: 32 64 56 56 (6422528)
I0624 20:20:33.608326 23251 net.cpp:156] Memory required for data: 597295488
I0624 20:20:33.608332 23251 layer_factory.hpp:77] Creating layer scale2_2
I0624 20:20:33.608338 23251 net.cpp:91] Creating Layer scale2_2
I0624 20:20:33.608342 23251 net.cpp:425] scale2_2 <- conv2_2
I0624 20:20:33.608345 23251 net.cpp:386] scale2_2 -> conv2_2 (in-place)
I0624 20:20:33.608374 23251 layer_factory.hpp:77] Creating layer scale2_2
I0624 20:20:33.608454 23251 net.cpp:141] Setting up scale2_2
I0624 20:20:33.608461 23251 net.cpp:148] Top shape: 32 64 56 56 (6422528)
I0624 20:20:33.608464 23251 net.cpp:156] Memory required for data: 622985600
I0624 20:20:33.608467 23251 layer_factory.hpp:77] Creating layer relu2_2
I0624 20:20:33.608472 23251 net.cpp:91] Creating Layer relu2_2
I0624 20:20:33.608474 23251 net.cpp:425] relu2_2 <- conv2_2
I0624 20:20:33.608477 23251 net.cpp:386] relu2_2 -> conv2_2 (in-place)
I0624 20:20:33.608877 23251 net.cpp:141] Setting up relu2_2
I0624 20:20:33.608888 23251 net.cpp:148] Top shape: 32 64 56 56 (6422528)
I0624 20:20:33.608891 23251 net.cpp:156] Memory required for data: 648675712
I0624 20:20:33.608894 23251 layer_factory.hpp:77] Creating layer pool2
I0624 20:20:33.608911 23251 net.cpp:91] Creating Layer pool2
I0624 20:20:33.608916 23251 net.cpp:425] pool2 <- conv2_2
I0624 20:20:33.608919 23251 net.cpp:399] pool2 -> pool2
I0624 20:20:33.608954 23251 net.cpp:141] Setting up pool2
I0624 20:20:33.608958 23251 net.cpp:148] Top shape: 32 64 28 28 (1605632)
I0624 20:20:33.608961 23251 net.cpp:156] Memory required for data: 655098240
I0624 20:20:33.608963 23251 layer_factory.hpp:77] Creating layer conv3_1
I0624 20:20:33.608970 23251 net.cpp:91] Creating Layer conv3_1
I0624 20:20:33.608973 23251 net.cpp:425] conv3_1 <- pool2
I0624 20:20:33.608976 23251 net.cpp:399] conv3_1 -> conv3_1
I0624 20:20:33.611186 23251 net.cpp:141] Setting up conv3_1
I0624 20:20:33.611197 23251 net.cpp:148] Top shape: 32 128 28 28 (3211264)
I0624 20:20:33.611202 23251 net.cpp:156] Memory required for data: 667943296
I0624 20:20:33.611205 23251 layer_factory.hpp:77] Creating layer bn3_1
I0624 20:20:33.611212 23251 net.cpp:91] Creating Layer bn3_1
I0624 20:20:33.611214 23251 net.cpp:425] bn3_1 <- conv3_1
I0624 20:20:33.611218 23251 net.cpp:386] bn3_1 -> conv3_1 (in-place)
I0624 20:20:33.612396 23251 net.cpp:141] Setting up bn3_1
I0624 20:20:33.612407 23251 net.cpp:148] Top shape: 32 128 28 28 (3211264)
I0624 20:20:33.612411 23251 net.cpp:156] Memory required for data: 680788352
I0624 20:20:33.612416 23251 layer_factory.hpp:77] Creating layer scale3_1
I0624 20:20:33.612423 23251 net.cpp:91] Creating Layer scale3_1
I0624 20:20:33.612426 23251 net.cpp:425] scale3_1 <- conv3_1
I0624 20:20:33.612429 23251 net.cpp:386] scale3_1 -> conv3_1 (in-place)
I0624 20:20:33.612460 23251 layer_factory.hpp:77] Creating layer scale3_1
I0624 20:20:33.612532 23251 net.cpp:141] Setting up scale3_1
I0624 20:20:33.612545 23251 net.cpp:148] Top shape: 32 128 28 28 (3211264)
I0624 20:20:33.612547 23251 net.cpp:156] Memory required for data: 693633408
I0624 20:20:33.612551 23251 layer_factory.hpp:77] Creating layer relu3_1
I0624 20:20:33.612556 23251 net.cpp:91] Creating Layer relu3_1
I0624 20:20:33.612558 23251 net.cpp:425] relu3_1 <- conv3_1
I0624 20:20:33.612562 23251 net.cpp:386] relu3_1 -> conv3_1 (in-place)
I0624 20:20:33.612689 23251 net.cpp:141] Setting up relu3_1
I0624 20:20:33.612696 23251 net.cpp:148] Top shape: 32 128 28 28 (3211264)
I0624 20:20:33.612699 23251 net.cpp:156] Memory required for data: 706478464
I0624 20:20:33.612701 23251 layer_factory.hpp:77] Creating layer conv3_2
I0624 20:20:33.612707 23251 net.cpp:91] Creating Layer conv3_2
I0624 20:20:33.612710 23251 net.cpp:425] conv3_2 <- conv3_1
I0624 20:20:33.612715 23251 net.cpp:399] conv3_2 -> conv3_2
I0624 20:20:33.614804 23251 net.cpp:141] Setting up conv3_2
I0624 20:20:33.614816 23251 net.cpp:148] Top shape: 32 128 28 28 (3211264)
I0624 20:20:33.614820 23251 net.cpp:156] Memory required for data: 719323520
I0624 20:20:33.614825 23251 layer_factory.hpp:77] Creating layer bn3_2
I0624 20:20:33.614830 23251 net.cpp:91] Creating Layer bn3_2
I0624 20:20:33.614833 23251 net.cpp:425] bn3_2 <- conv3_2
I0624 20:20:33.614837 23251 net.cpp:386] bn3_2 -> conv3_2 (in-place)
I0624 20:20:33.614969 23251 net.cpp:141] Setting up bn3_2
I0624 20:20:33.614976 23251 net.cpp:148] Top shape: 32 128 28 28 (3211264)
I0624 20:20:33.614979 23251 net.cpp:156] Memory required for data: 732168576
I0624 20:20:33.614989 23251 layer_factory.hpp:77] Creating layer scale3_2
I0624 20:20:33.614995 23251 net.cpp:91] Creating Layer scale3_2
I0624 20:20:33.614996 23251 net.cpp:425] scale3_2 <- conv3_2
I0624 20:20:33.615000 23251 net.cpp:386] scale3_2 -> conv3_2 (in-place)
I0624 20:20:33.615031 23251 layer_factory.hpp:77] Creating layer scale3_2
I0624 20:20:33.615100 23251 net.cpp:141] Setting up scale3_2
I0624 20:20:33.615108 23251 net.cpp:148] Top shape: 32 128 28 28 (3211264)
I0624 20:20:33.615110 23251 net.cpp:156] Memory required for data: 745013632
I0624 20:20:33.615115 23251 layer_factory.hpp:77] Creating layer relu3_2
I0624 20:20:33.615119 23251 net.cpp:91] Creating Layer relu3_2
I0624 20:20:33.615121 23251 net.cpp:425] relu3_2 <- conv3_2
I0624 20:20:33.615136 23251 net.cpp:386] relu3_2 -> conv3_2 (in-place)
I0624 20:20:33.615278 23251 net.cpp:141] Setting up relu3_2
I0624 20:20:33.615288 23251 net.cpp:148] Top shape: 32 128 28 28 (3211264)
I0624 20:20:33.615290 23251 net.cpp:156] Memory required for data: 757858688
I0624 20:20:33.615293 23251 layer_factory.hpp:77] Creating layer pool3
I0624 20:20:33.615298 23251 net.cpp:91] Creating Layer pool3
I0624 20:20:33.615301 23251 net.cpp:425] pool3 <- conv3_2
I0624 20:20:33.615305 23251 net.cpp:399] pool3 -> pool3
I0624 20:20:33.615336 23251 net.cpp:141] Setting up pool3
I0624 20:20:33.615341 23251 net.cpp:148] Top shape: 32 128 14 14 (802816)
I0624 20:20:33.615344 23251 net.cpp:156] Memory required for data: 761069952
I0624 20:20:33.615345 23251 layer_factory.hpp:77] Creating layer conv4_1
I0624 20:20:33.615352 23251 net.cpp:91] Creating Layer conv4_1
I0624 20:20:33.615355 23251 net.cpp:425] conv4_1 <- pool3
I0624 20:20:33.615358 23251 net.cpp:399] conv4_1 -> conv4_1
I0624 20:20:33.618017 23251 net.cpp:141] Setting up conv4_1
I0624 20:20:33.618029 23251 net.cpp:148] Top shape: 32 256 14 14 (1605632)
I0624 20:20:33.618032 23251 net.cpp:156] Memory required for data: 767492480
I0624 20:20:33.618036 23251 layer_factory.hpp:77] Creating layer bn4_1
I0624 20:20:33.618043 23251 net.cpp:91] Creating Layer bn4_1
I0624 20:20:33.618046 23251 net.cpp:425] bn4_1 <- conv4_1
I0624 20:20:33.618049 23251 net.cpp:386] bn4_1 -> conv4_1 (in-place)
I0624 20:20:33.618186 23251 net.cpp:141] Setting up bn4_1
I0624 20:20:33.618193 23251 net.cpp:148] Top shape: 32 256 14 14 (1605632)
I0624 20:20:33.618196 23251 net.cpp:156] Memory required for data: 773915008
I0624 20:20:33.618201 23251 layer_factory.hpp:77] Creating layer scale4_1
I0624 20:20:33.618207 23251 net.cpp:91] Creating Layer scale4_1
I0624 20:20:33.618211 23251 net.cpp:425] scale4_1 <- conv4_1
I0624 20:20:33.618213 23251 net.cpp:386] scale4_1 -> conv4_1 (in-place)
I0624 20:20:33.618242 23251 layer_factory.hpp:77] Creating layer scale4_1
I0624 20:20:33.618312 23251 net.cpp:141] Setting up scale4_1
I0624 20:20:33.618319 23251 net.cpp:148] Top shape: 32 256 14 14 (1605632)
I0624 20:20:33.618321 23251 net.cpp:156] Memory required for data: 780337536
I0624 20:20:33.618325 23251 layer_factory.hpp:77] Creating layer relu4_1
I0624 20:20:33.618332 23251 net.cpp:91] Creating Layer relu4_1
I0624 20:20:33.618335 23251 net.cpp:425] relu4_1 <- conv4_1
I0624 20:20:33.618338 23251 net.cpp:386] relu4_1 -> conv4_1 (in-place)
I0624 20:20:33.618464 23251 net.cpp:141] Setting up relu4_1
I0624 20:20:33.618472 23251 net.cpp:148] Top shape: 32 256 14 14 (1605632)
I0624 20:20:33.618475 23251 net.cpp:156] Memory required for data: 786760064
I0624 20:20:33.618477 23251 layer_factory.hpp:77] Creating layer conv4_2
I0624 20:20:33.618484 23251 net.cpp:91] Creating Layer conv4_2
I0624 20:20:33.618487 23251 net.cpp:425] conv4_2 <- conv4_1
I0624 20:20:33.618491 23251 net.cpp:399] conv4_2 -> conv4_2
I0624 20:20:33.624116 23251 net.cpp:141] Setting up conv4_2
I0624 20:20:33.624130 23251 net.cpp:148] Top shape: 32 256 14 14 (1605632)
I0624 20:20:33.624132 23251 net.cpp:156] Memory required for data: 793182592
I0624 20:20:33.624136 23251 layer_factory.hpp:77] Creating layer bn4_2
I0624 20:20:33.624143 23251 net.cpp:91] Creating Layer bn4_2
I0624 20:20:33.624145 23251 net.cpp:425] bn4_2 <- conv4_2
I0624 20:20:33.624150 23251 net.cpp:386] bn4_2 -> conv4_2 (in-place)
I0624 20:20:33.624286 23251 net.cpp:141] Setting up bn4_2
I0624 20:20:33.624292 23251 net.cpp:148] Top shape: 32 256 14 14 (1605632)
I0624 20:20:33.624295 23251 net.cpp:156] Memory required for data: 799605120
I0624 20:20:33.624301 23251 layer_factory.hpp:77] Creating layer scale4_2
I0624 20:20:33.624307 23251 net.cpp:91] Creating Layer scale4_2
I0624 20:20:33.624310 23251 net.cpp:425] scale4_2 <- conv4_2
I0624 20:20:33.624313 23251 net.cpp:386] scale4_2 -> conv4_2 (in-place)
I0624 20:20:33.624343 23251 layer_factory.hpp:77] Creating layer scale4_2
I0624 20:20:33.624414 23251 net.cpp:141] Setting up scale4_2
I0624 20:20:33.624420 23251 net.cpp:148] Top shape: 32 256 14 14 (1605632)
I0624 20:20:33.624433 23251 net.cpp:156] Memory required for data: 806027648
I0624 20:20:33.624438 23251 layer_factory.hpp:77] Creating layer relu4_2
I0624 20:20:33.624442 23251 net.cpp:91] Creating Layer relu4_2
I0624 20:20:33.624444 23251 net.cpp:425] relu4_2 <- conv4_2
I0624 20:20:33.624449 23251 net.cpp:386] relu4_2 -> conv4_2 (in-place)
I0624 20:20:33.624577 23251 net.cpp:141] Setting up relu4_2
I0624 20:20:33.624585 23251 net.cpp:148] Top shape: 32 256 14 14 (1605632)
I0624 20:20:33.624588 23251 net.cpp:156] Memory required for data: 812450176
I0624 20:20:33.624590 23251 layer_factory.hpp:77] Creating layer pool4
I0624 20:20:33.624595 23251 net.cpp:91] Creating Layer pool4
I0624 20:20:33.624598 23251 net.cpp:425] pool4 <- conv4_2
I0624 20:20:33.624601 23251 net.cpp:399] pool4 -> pool4
I0624 20:20:33.624634 23251 net.cpp:141] Setting up pool4
I0624 20:20:33.624639 23251 net.cpp:148] Top shape: 32 256 7 7 (401408)
I0624 20:20:33.624640 23251 net.cpp:156] Memory required for data: 814055808
I0624 20:20:33.624642 23251 layer_factory.hpp:77] Creating layer conv5_1
I0624 20:20:33.624650 23251 net.cpp:91] Creating Layer conv5_1
I0624 20:20:33.624651 23251 net.cpp:425] conv5_1 <- pool4
I0624 20:20:33.624655 23251 net.cpp:399] conv5_1 -> conv5_1
I0624 20:20:33.630121 23251 net.cpp:141] Setting up conv5_1
I0624 20:20:33.630136 23251 net.cpp:148] Top shape: 32 256 7 7 (401408)
I0624 20:20:33.630137 23251 net.cpp:156] Memory required for data: 815661440
I0624 20:20:33.630142 23251 layer_factory.hpp:77] Creating layer bn5_1
I0624 20:20:33.630153 23251 net.cpp:91] Creating Layer bn5_1
I0624 20:20:33.630156 23251 net.cpp:425] bn5_1 <- conv5_1
I0624 20:20:33.630161 23251 net.cpp:386] bn5_1 -> conv5_1 (in-place)
I0624 20:20:33.630300 23251 net.cpp:141] Setting up bn5_1
I0624 20:20:33.630307 23251 net.cpp:148] Top shape: 32 256 7 7 (401408)
I0624 20:20:33.630309 23251 net.cpp:156] Memory required for data: 817267072
I0624 20:20:33.630316 23251 layer_factory.hpp:77] Creating layer scale5_1
I0624 20:20:33.630321 23251 net.cpp:91] Creating Layer scale5_1
I0624 20:20:33.630323 23251 net.cpp:425] scale5_1 <- conv5_1
I0624 20:20:33.630326 23251 net.cpp:386] scale5_1 -> conv5_1 (in-place)
I0624 20:20:33.630357 23251 layer_factory.hpp:77] Creating layer scale5_1
I0624 20:20:33.630457 23251 net.cpp:141] Setting up scale5_1
I0624 20:20:33.630470 23251 net.cpp:148] Top shape: 32 256 7 7 (401408)
I0624 20:20:33.630473 23251 net.cpp:156] Memory required for data: 818872704
I0624 20:20:33.630481 23251 layer_factory.hpp:77] Creating layer relu5_1
I0624 20:20:33.630488 23251 net.cpp:91] Creating Layer relu5_1
I0624 20:20:33.630493 23251 net.cpp:425] relu5_1 <- conv5_1
I0624 20:20:33.630497 23251 net.cpp:386] relu5_1 -> conv5_1 (in-place)
I0624 20:20:33.630908 23251 net.cpp:141] Setting up relu5_1
I0624 20:20:33.630918 23251 net.cpp:148] Top shape: 32 256 7 7 (401408)
I0624 20:20:33.630923 23251 net.cpp:156] Memory required for data: 820478336
I0624 20:20:33.630925 23251 layer_factory.hpp:77] Creating layer conv5_2
I0624 20:20:33.630934 23251 net.cpp:91] Creating Layer conv5_2
I0624 20:20:33.630936 23251 net.cpp:425] conv5_2 <- conv5_1
I0624 20:20:33.630941 23251 net.cpp:399] conv5_2 -> conv5_2
I0624 20:20:33.636319 23251 net.cpp:141] Setting up conv5_2
I0624 20:20:33.636334 23251 net.cpp:148] Top shape: 32 256 7 7 (401408)
I0624 20:20:33.636337 23251 net.cpp:156] Memory required for data: 822083968
I0624 20:20:33.636342 23251 layer_factory.hpp:77] Creating layer bn5_2
I0624 20:20:33.636348 23251 net.cpp:91] Creating Layer bn5_2
I0624 20:20:33.636350 23251 net.cpp:425] bn5_2 <- conv5_2
I0624 20:20:33.636355 23251 net.cpp:386] bn5_2 -> conv5_2 (in-place)
I0624 20:20:33.636498 23251 net.cpp:141] Setting up bn5_2
I0624 20:20:33.636507 23251 net.cpp:148] Top shape: 32 256 7 7 (401408)
I0624 20:20:33.636508 23251 net.cpp:156] Memory required for data: 823689600
I0624 20:20:33.636514 23251 layer_factory.hpp:77] Creating layer scale5_2
I0624 20:20:33.636520 23251 net.cpp:91] Creating Layer scale5_2
I0624 20:20:33.636523 23251 net.cpp:425] scale5_2 <- conv5_2
I0624 20:20:33.636539 23251 net.cpp:386] scale5_2 -> conv5_2 (in-place)
I0624 20:20:33.636574 23251 layer_factory.hpp:77] Creating layer scale5_2
I0624 20:20:33.636648 23251 net.cpp:141] Setting up scale5_2
I0624 20:20:33.636656 23251 net.cpp:148] Top shape: 32 256 7 7 (401408)
I0624 20:20:33.636658 23251 net.cpp:156] Memory required for data: 825295232
I0624 20:20:33.636662 23251 layer_factory.hpp:77] Creating layer relu5_2
I0624 20:20:33.636667 23251 net.cpp:91] Creating Layer relu5_2
I0624 20:20:33.636669 23251 net.cpp:425] relu5_2 <- conv5_2
I0624 20:20:33.636672 23251 net.cpp:386] relu5_2 -> conv5_2 (in-place)
I0624 20:20:33.637063 23251 net.cpp:141] Setting up relu5_2
I0624 20:20:33.637074 23251 net.cpp:148] Top shape: 32 256 7 7 (401408)
I0624 20:20:33.637078 23251 net.cpp:156] Memory required for data: 826900864
I0624 20:20:33.637080 23251 layer_factory.hpp:77] Creating layer pool5
I0624 20:20:33.637086 23251 net.cpp:91] Creating Layer pool5
I0624 20:20:33.637089 23251 net.cpp:425] pool5 <- conv5_2
I0624 20:20:33.637094 23251 net.cpp:399] pool5 -> pool5
I0624 20:20:33.637238 23251 net.cpp:141] Setting up pool5
I0624 20:20:33.637245 23251 net.cpp:148] Top shape: 32 256 1 1 (8192)
I0624 20:20:33.637248 23251 net.cpp:156] Memory required for data: 826933632
I0624 20:20:33.637250 23251 layer_factory.hpp:77] Creating layer fc2
I0624 20:20:33.637256 23251 net.cpp:91] Creating Layer fc2
I0624 20:20:33.637259 23251 net.cpp:425] fc2 <- pool5
I0624 20:20:33.637264 23251 net.cpp:399] fc2 -> fc2
I0624 20:20:33.637348 23251 net.cpp:141] Setting up fc2
I0624 20:20:33.637354 23251 net.cpp:148] Top shape: 32 2 (64)
I0624 20:20:33.637357 23251 net.cpp:156] Memory required for data: 826933888
I0624 20:20:33.637362 23251 layer_factory.hpp:77] Creating layer fc2_fc2_0_split
I0624 20:20:33.637367 23251 net.cpp:91] Creating Layer fc2_fc2_0_split
I0624 20:20:33.637369 23251 net.cpp:425] fc2_fc2_0_split <- fc2
I0624 20:20:33.637372 23251 net.cpp:399] fc2_fc2_0_split -> fc2_fc2_0_split_0
I0624 20:20:33.637377 23251 net.cpp:399] fc2_fc2_0_split -> fc2_fc2_0_split_1
I0624 20:20:33.637403 23251 net.cpp:141] Setting up fc2_fc2_0_split
I0624 20:20:33.637406 23251 net.cpp:148] Top shape: 32 2 (64)
I0624 20:20:33.637409 23251 net.cpp:148] Top shape: 32 2 (64)
I0624 20:20:33.637411 23251 net.cpp:156] Memory required for data: 826934400
I0624 20:20:33.637413 23251 layer_factory.hpp:77] Creating layer loss
I0624 20:20:33.637423 23251 net.cpp:91] Creating Layer loss
I0624 20:20:33.637426 23251 net.cpp:425] loss <- fc2_fc2_0_split_0
I0624 20:20:33.637429 23251 net.cpp:425] loss <- label_data_1_split_0
I0624 20:20:33.637433 23251 net.cpp:399] loss -> loss
…
I0624 20:20:33.638664 23251 solver.cpp:181] Creating test net (#0) specified by net file: models/bpnet/train_val.prototxt
I0624 20:20:33.638715 23251 net.cpp:313] The NetState phase (1) differed from the phase (0) specified by a rule in layer data
I0624 20:20:33.638936 23251 net.cpp:49] Initializing net from parameters: 
name: "BPnet"
state {
  phase: TEST
}
layer {
  name: "data"
  type: "Data"
  top: "data"
  top: "label"
  include {
    phase: TEST
  }
  transform_param {
    mirror: false
    crop_size: 224
    mean_value: 100
  }
  data_param {
    source: "data/val_lmdb"
    batch_size: 64
    backend: LMDB
  }
}
layer {
  name: "conv1_1"
  type: "Convolution"
  bottom: "data"
  top: "conv1_1"
  param {
    lr_mult: 1
    decay_mult: 1
  }
  convolution_param {
    num_output: 32
    bias_term: false
    pad: 3
    kernel_size: 7
    stride: 2
    weight_filler {
      type: "xavier"
    }
  }
}
layer {
  name: "bn1_1"
  type: "BatchNorm"
  bottom: "conv1_1"
  top: "conv1_1"
  param {
    lr_mult: 0
  }
  param {
    lr_mult: 0
  }
  param {
    lr_mult: 0
  }
  batch_norm_param {
    use_global_stats: false
  }
}
layer {
  name: "scale1_1"
  type: "Scale"
  bottom: "conv1_1"
  top: "conv1_1"
  param {
    lr_mult: 1
    decay_mult: 1
  }
  param {
    lr_mult: 1
    decay_mult: 1
  }
  scale_param {
    bias_term: true
    bias_filler {
      type: "constant"
      value: 0
    }
  }
}
layer {
  name: "relu1_1"
  type: "ReLU"
  bottom: "conv1_1"
  top: "conv1_1"
}
layer {
  name: "conv1_2"
  type: "Convolution"
  bottom: "conv1_1"
  top: "conv1_2"
  param {
    lr_mult: 1
    decay_mult: 1
  }
  convolution_param {
    num_output: 32
    bias_term: false
    pad: 1
    kernel_size: 3
    weight_filler {
      type: "xavier"
    }
  }
}
layer {
  name: "bn1_2"
  type: "BatchNorm"
  bottom: "conv1_2"
  top: "conv1_2"
  param {
    lr_mult: 0
  }
  param {
    lr_mult: 0
  }
  param {
    lr_mult: 0
  }
  batch_norm_param {
    use_global_stats: false
  }
}
layer {
  name: "scale1_2"
  type: "Scale"
  bottom: "conv1_2"
  top: "conv1_2"
  param {
    lr_mult: 1
    decay_mult: 1
  }
  param {
    lr_mult: 1
    decay_mult: 1
  }
  scale_param {
    bias_term: true
    bias_filler {
      type: "constant"
      value: 0
    }
  }
}
layer {
  name: "relu1_2"
  type: "ReLU"
  bottom: "conv1_2"
  top: "conv1_2"
}
layer {
  name: "pool1"
  type: "Pooling"
  bottom: "conv1_2"
  top: "pool1"
  pooling_param {
    pool: MAX
    kernel_size: 2
    stride: 2
  }
}
layer {
  name: "conv2_1"
  type: "Convolution"
  bottom: "pool1"
  top: "conv2_1"
  param {
    lr_mult: 1
    decay_mult: 1
  }
  convolution_param {
    num_output: 64
    bias_term: false
    pad: 1
    kernel_size: 3
    weight_filler {
      type: "xavier"
    }
  }
}
layer {
  name: "bn2_1"
  type: "BatchNorm"
  bottom: "conv2_1"
  top: "conv2_1"
  param {
    lr_mult: 0
  }
  param {
    lr_mult: 0
  }
  param {
    lr_mult: 0
  }
  batch_norm_param {
    use_global_stats: false
  }
}
layer {
  name: "scale2_1"
  type: "Scale"
  bottom: "conv2_1"
  top: "conv2_1"
  param {
    lr_mult: 1
    decay_mult: 1
  }
  param {
    lr_mult: 1
    decay_mult: 1
  }
  scale_param {
    bias_term: true
    bias_filler {
      type: "constant"
      value: 0
    }
  }
}
layer {
  name: "relu2_1"
  type: "ReLU"
  bottom: "conv2_1"
  top: "conv2_1"
}
layer {
  name: "conv2_2"
  type: "Convolution"
  bottom: "conv2_1"
  top: "conv2_2"
  param {
    lr_mult: 1
    decay_mult: 1
  }
  convolution_param {
    num_output: 64
    bias_term: false
    pad: 1
    kernel_size: 3
    weight_filler {
      type: "xavier"
    }
  }
}
layer {
  name: "bn2_2"
  type: "BatchNorm"
  bottom: "conv2_2"
  top: "conv2_2"
  param {
    lr_mult: 0
  }
  param {
    lr_mult: 0
  }
  param {
    lr_mult: 0
  }
  batch_norm_param {
    use_global_stats: false
  }
}
layer {
  name: "scale2_2"
  type: "Scale"
  bottom: "conv2_2"
  top: "conv2_2"
  param {
    lr_mult: 1
    decay_mult: 1
  }
  param {
    lr_mult: 1
    decay_mult: 1
  }
  scale_param {
    bias_term: true
    bias_filler {
      type: "constant"
      value: 0
    }
  }
}
layer {
  name: "relu2_2"
  type: "ReLU"
  bottom: "conv2_2"
  top: "conv2_2"
}
layer {
  name: "pool2"
  type: "Pooling"
  bottom: "conv2_2"
  top: "pool2"
  pooling_param {
    pool: MAX
    kernel_size: 2
    stride: 2
  }
}
layer {
  name: "conv3_1"
  type: "Convolution"
  bottom: "pool2"
  top: "conv3_1"
  param {
    lr_mult: 1
    decay_mult: 1
  }
  convolution_param {
    num_output: 128
    bias_term: false
    pad: 1
    kernel_size: 3
    weight_filler {
      type: "xavier"
    }
  }
}
layer {
  name: "bn3_1"
  type: "BatchNorm"
  bottom: "conv3_1"
  top: "conv3_1"
  param {
    lr_mult: 0
  }
  param {
    lr_mult: 0
  }
  param {
    lr_mult: 0
  }
  batch_norm_param {
    use_global_stats: false
  }
}
layer {
  name: "scale3_1"
  type: "Scale"
  bottom: "conv3_1"
  top: "conv3_1"
  param {
    lr_mult: 1
    decay_mult: 1
  }
  param {
    lr_mult: 1
    decay_mult: 1
  }
  scale_param {
    bias_term: true
    bias_filler {
      type: "constant"
      value: 0
    }
  }
}
layer {
  name: "relu3_1"
  type: "ReLU"
  bottom: "conv3_1"
  top: "conv3_1"
}
layer {
  name: "conv3_2"
  type: "Convolution"
  bottom: "conv3_1"
  top: "conv3_2"
  param {
    lr_mult: 1
    decay_mult: 1
  }
  convolution_param {
    num_output: 128
    bias_term: false
    pad: 1
    kernel_size: 3
    weight_filler {
      type: "xavier"
    }
  }
}
layer {
  name: "bn3_2"
  type: "BatchNorm"
  bottom: "conv3_2"
  top: "conv3_2"
  param {
    lr_mult: 0
  }
  param {
    lr_mult: 0
  }
  param {
    lr_mult: 0
  }
  batch_norm_param {
    use_global_stats: false
  }
}
layer {
  name: "scale3_2"
  type: "Scale"
  bottom: "conv3_2"
  top: "conv3_2"
  param {
    lr_mult: 1
    decay_mult: 1
  }
  param {
    lr_mult: 1
    decay_mult: 1
  }
  scale_param {
    bias_term: true
    bias_filler {
      type: "constant"
      value: 0
    }
  }
}
layer {
  name: "relu3_2"
  type: "ReLU"
  bottom: "conv3_2"
  top: "conv3_2"
}
layer {
  name: "pool3"
  type: "Pooling"
  bottom: "conv3_2"
  top: "pool3"
  pooling_param {
    pool: MAX
    kernel_size: 2
    stride: 2
  }
}
layer {
  name: "conv4_1"
  type: "Convolution"
  bottom: "pool3"
  top: "conv4_1"
  param {
    lr_mult: 1
    decay_mult: 1
  }
  convolution_param {
    num_output: 256
    bias_term: false
    pad: 1
    kernel_size: 3
    weight_filler {
      type: "xavier"
    }
  }
}
layer {
  name: "bn4_1"
  type: "BatchNorm"
  bottom: "conv4_1"
  top: "conv4_1"
  param {
    lr_mult: 0
  }
  param {
    lr_mult: 0
  }
  param {
    lr_mult: 0
  }
  batch_norm_param {
    use_global_stats: false
  }
}
layer {
  name: "scale4_1"
  type: "Scale"
  bottom: "conv4_1"
  top: "conv4_1"
  param {
    lr_mult: 1
    decay_mult: 1
  }
  param {
    lr_mult: 1
    decay_mult: 1
  }
  scale_param {
    bias_term: true
    bias_filler {
      type: "constant"
      value: 0
    }
  }
}
layer {
  name: "relu4_1"
  type: "ReLU"
  bottom: "conv4_1"
  top: "conv4_1"
}
layer {
  name: "conv4_2"
  type: "Convolution"
  bottom: "conv4_1"
  top: "conv4_2"
  param {
    lr_mult: 1
    decay_mult: 1
  }
  convolution_param {
    num_output: 256
    bias_term: false
    pad: 1
    kernel_size: 3
    weight_filler {
      type: "xavier"
    }
  }
}
layer {
  name: "bn4_2"
  type: "BatchNorm"
  bottom: "conv4_2"
  top: "conv4_2"
  param {
    lr_mult: 0
  }
  param {
    lr_mult: 0
  }
  param {
    lr_mult: 0
  }
  batch_norm_param {
    use_global_stats: false
  }
}
layer {
  name: "scale4_2"
  type: "Scale"
  bottom: "conv4_2"
  top: "conv4_2"
  param {
    lr_mult: 1
    decay_mult: 1
  }
  param {
    lr_mult: 1
    decay_mult: 1
  }
  scale_param {
    bias_term: true
    bias_filler {
      type: "constant"
      value: 0
    }
  }
}
layer {
  name: "relu4_2"
  type: "ReLU"
  bottom: "conv4_2"
  top: "conv4_2"
}
layer {
  name: "pool4"
  type: "Pooling"
  bottom: "conv4_2"
  top: "pool4"
  pooling_param {
    pool: MAX
    kernel_size: 2
    stride: 2
  }
}
layer {
  name: "conv5_1"
  type: "Convolution"
  bottom: "pool4"
  top: "conv5_1"
  param {
    lr_mult: 1
    decay_mult: 1
  }
  convolution_param {
    num_output: 256
    bias_term: false
    pad: 1
    kernel_size: 3
    weight_filler {
      type: "xavier"
    }
  }
}
layer {
  name: "bn5_1"
  type: "BatchNorm"
  bottom: "conv5_1"
  top: "conv5_1"
  param {
    lr_mult: 0
  }
  param {
    lr_mult: 0
  }
  param {
    lr_mult: 0
  }
  batch_norm_param {
    use_global_stats: false
  }
}
layer {
  name: "scale5_1"
  type: "Scale"
  bottom: "conv5_1"
  top: "conv5_1"
  param {
    lr_mult: 1
    decay_mult: 1
  }
  param {
    lr_mult: 1
    decay_mult: 1
  }
  scale_param {
    bias_term: true
    bias_filler {
      type: "constant"
      value: 0
    }
  }
}
layer {
  name: "relu5_1"
  type: "ReLU"
  bottom: "conv5_1"
  top: "conv5_1"
}
layer {
  name: "conv5_2"
  type: "Convolution"
  bottom: "conv5_1"
  top: "conv5_2"
  param {
    lr_mult: 1
    decay_mult: 1
  }
  convolution_param {
    num_output: 256
    bias_term: false
    pad: 1
    kernel_size: 3
    weight_filler {
      type: "xavier"
    }
  }
}
layer {
  name: "bn5_2"
  type: "BatchNorm"
  bottom: "conv5_2"
  top: "conv5_2"
  param {
    lr_mult: 0
  }
  param {
    lr_mult: 0
  }
  param {
    lr_mult: 0
  }
  batch_norm_param {
    use_global_stats: false
  }
}
layer {
  name: "scale5_2"
  type: "Scale"
  bottom: "conv5_2"
  top: "conv5_2"
  param {
    lr_mult: 1
    decay_mult: 1
  }
  param {
    lr_mult: 1
    decay_mult: 1
  }
  scale_param {
    bias_term: true
    bias_filler {
      type: "constant"
      value: 0
    }
  }
}
layer {
  name: "relu5_2"
  type: "ReLU"
  bottom: "conv5_2"
  top: "conv5_2"
}
layer {
  name: "pool5"
  type: "Pooling"
  bottom: "conv5_2"
  top: "pool5"
  pooling_param {
    pool: AVE
    kernel_size: 7
    stride: 1
  }
}
layer {
  name: "fc2"
  type: "InnerProduct"
  bottom: "pool5"
  top: "fc2"
  inner_product_param {
    num_output: 2
  }
}
layer {
  name: "loss"
  type: "SoftmaxWithLoss"
  bottom: "fc2"
  bottom: "label"
  top: "loss"
}
layer {
  name: "accuracy"
  type: "Accuracy"
  bottom: "fc2"
  bottom: "label"
  top: "accuracy"
}
I0624 20:20:33.639068 23251 layer_factory.hpp:77] Creating layer data
I0624 20:20:33.639341 23251 net.cpp:91] Creating Layer data
I0624 20:20:33.639348 23251 net.cpp:399] data -> data
I0624 20:20:33.639355 23251 net.cpp:399] data -> label
I0624 20:20:33.640589 23265 db_lmdb.cpp:35] Opened lmdb data/val_lmdb
I0624 20:20:33.640987 23251 data_layer.cpp:42] output data size: 64,3,224,224
I0624 20:20:33.721755 23251 net.cpp:141] Setting up data
I0624 20:20:33.721776 23251 net.cpp:148] Top shape: 64 3 224 224 (9633792)
I0624 20:20:33.721781 23251 net.cpp:148] Top shape: 64 (64)
I0624 20:20:33.721782 23251 net.cpp:156] Memory required for data: 38535424
I0624 20:20:33.721787 23251 layer_factory.hpp:77] Creating layer label_data_1_split
I0624 20:20:33.721798 23251 net.cpp:91] Creating Layer label_data_1_split
I0624 20:20:33.721802 23251 net.cpp:425] label_data_1_split <- label
I0624 20:20:33.721807 23251 net.cpp:399] label_data_1_split -> label_data_1_split_0
I0624 20:20:33.721814 23251 net.cpp:399] label_data_1_split -> label_data_1_split_1
I0624 20:20:33.721901 23251 net.cpp:141] Setting up label_data_1_split
I0624 20:20:33.721909 23251 net.cpp:148] Top shape: 64 (64)
I0624 20:20:33.721912 23251 net.cpp:148] Top shape: 64 (64)
I0624 20:20:33.721915 23251 net.cpp:156] Memory required for data: 38535936
I0624 20:20:33.721916 23251 layer_factory.hpp:77] Creating layer conv1_1
I0624 20:20:33.721928 23251 net.cpp:91] Creating Layer conv1_1
I0624 20:20:33.721931 23251 net.cpp:425] conv1_1 <- data
I0624 20:20:33.721935 23251 net.cpp:399] conv1_1 -> conv1_1
I0624 20:20:33.726132 23251 net.cpp:141] Setting up conv1_1
I0624 20:20:33.726146 23251 net.cpp:148] Top shape: 64 32 112 112 (25690112)
I0624 20:20:33.726150 23251 net.cpp:156] Memory required for data: 141296384
I0624 20:20:33.726156 23251 layer_factory.hpp:77] Creating layer bn1_1
I0624 20:20:33.726163 23251 net.cpp:91] Creating Layer bn1_1
I0624 20:20:33.726166 23251 net.cpp:425] bn1_1 <- conv1_1
I0624 20:20:33.726169 23251 net.cpp:386] bn1_1 -> conv1_1 (in-place)
I0624 20:20:33.726332 23251 net.cpp:141] Setting up bn1_1
I0624 20:20:33.726341 23251 net.cpp:148] Top shape: 64 32 112 112 (25690112)
I0624 20:20:33.726342 23251 net.cpp:156] Memory required for data: 244056832
I0624 20:20:33.726351 23251 layer_factory.hpp:77] Creating layer scale1_1
I0624 20:20:33.726357 23251 net.cpp:91] Creating Layer scale1_1
I0624 20:20:33.726361 23251 net.cpp:425] scale1_1 <- conv1_1
I0624 20:20:33.726364 23251 net.cpp:386] scale1_1 -> conv1_1 (in-place)
I0624 20:20:33.726411 23251 layer_factory.hpp:77] Creating layer scale1_1
I0624 20:20:33.726511 23251 net.cpp:141] Setting up scale1_1
I0624 20:20:33.726518 23251 net.cpp:148] Top shape: 64 32 112 112 (25690112)
I0624 20:20:33.726521 23251 net.cpp:156] Memory required for data: 346817280
I0624 20:20:33.726526 23251 layer_factory.hpp:77] Creating layer relu1_1
I0624 20:20:33.726531 23251 net.cpp:91] Creating Layer relu1_1
I0624 20:20:33.726533 23251 net.cpp:425] relu1_1 <- conv1_1
I0624 20:20:33.726537 23251 net.cpp:386] relu1_1 -> conv1_1 (in-place)
I0624 20:20:33.726666 23251 net.cpp:141] Setting up relu1_1
I0624 20:20:33.726675 23251 net.cpp:148] Top shape: 64 32 112 112 (25690112)
I0624 20:20:33.726677 23251 net.cpp:156] Memory required for data: 449577728
I0624 20:20:33.726680 23251 layer_factory.hpp:77] Creating layer conv1_2
I0624 20:20:33.726688 23251 net.cpp:91] Creating Layer conv1_2
I0624 20:20:33.726691 23251 net.cpp:425] conv1_2 <- conv1_1
I0624 20:20:33.726694 23251 net.cpp:399] conv1_2 -> conv1_2
I0624 20:20:33.727548 23251 net.cpp:141] Setting up conv1_2
I0624 20:20:33.727560 23251 net.cpp:148] Top shape: 64 32 112 112 (25690112)
I0624 20:20:33.727563 23251 net.cpp:156] Memory required for data: 552338176
I0624 20:20:33.727567 23251 layer_factory.hpp:77] Creating layer bn1_2
I0624 20:20:33.727573 23251 net.cpp:91] Creating Layer bn1_2
I0624 20:20:33.727576 23251 net.cpp:425] bn1_2 <- conv1_2
I0624 20:20:33.727581 23251 net.cpp:386] bn1_2 -> conv1_2 (in-place)
I0624 20:20:33.727726 23251 net.cpp:141] Setting up bn1_2
I0624 20:20:33.727733 23251 net.cpp:148] Top shape: 64 32 112 112 (25690112)
I0624 20:20:33.727736 23251 net.cpp:156] Memory required for data: 655098624
I0624 20:20:33.727743 23251 layer_factory.hpp:77] Creating layer scale1_2
I0624 20:20:33.727751 23251 net.cpp:91] Creating Layer scale1_2
I0624 20:20:33.727752 23251 net.cpp:425] scale1_2 <- conv1_2
I0624 20:20:33.727756 23251 net.cpp:386] scale1_2 -> conv1_2 (in-place)
I0624 20:20:33.727787 23251 layer_factory.hpp:77] Creating layer scale1_2
I0624 20:20:33.727882 23251 net.cpp:141] Setting up scale1_2
I0624 20:20:33.727890 23251 net.cpp:148] Top shape: 64 32 112 112 (25690112)
I0624 20:20:33.727891 23251 net.cpp:156] Memory required for data: 757859072
I0624 20:20:33.727895 23251 layer_factory.hpp:77] Creating layer relu1_2
I0624 20:20:33.727900 23251 net.cpp:91] Creating Layer relu1_2
I0624 20:20:33.727901 23251 net.cpp:425] relu1_2 <- conv1_2
I0624 20:20:33.727905 23251 net.cpp:386] relu1_2 -> conv1_2 (in-place)
I0624 20:20:33.728307 23251 net.cpp:141] Setting up relu1_2
I0624 20:20:33.728318 23251 net.cpp:148] Top shape: 64 32 112 112 (25690112)
I0624 20:20:33.728322 23251 net.cpp:156] Memory required for data: 860619520
I0624 20:20:33.728324 23251 layer_factory.hpp:77] Creating layer pool1
I0624 20:20:33.728330 23251 net.cpp:91] Creating Layer pool1
I0624 20:20:33.728332 23251 net.cpp:425] pool1 <- conv1_2
I0624 20:20:33.728337 23251 net.cpp:399] pool1 -> pool1
I0624 20:20:33.728373 23251 net.cpp:141] Setting up pool1
I0624 20:20:33.728376 23251 net.cpp:148] Top shape: 64 32 56 56 (6422528)
I0624 20:20:33.728379 23251 net.cpp:156] Memory required for data: 886309632
I0624 20:20:33.728380 23251 layer_factory.hpp:77] Creating layer conv2_1
I0624 20:20:33.728387 23251 net.cpp:91] Creating Layer conv2_1
I0624 20:20:33.728389 23251 net.cpp:425] conv2_1 <- pool1
I0624 20:20:33.728394 23251 net.cpp:399] conv2_1 -> conv2_1
I0624 20:20:33.729347 23251 net.cpp:141] Setting up conv2_1
I0624 20:20:33.729358 23251 net.cpp:148] Top shape: 64 64 56 56 (12845056)
I0624 20:20:33.729362 23251 net.cpp:156] Memory required for data: 937689856
I0624 20:20:33.729365 23251 layer_factory.hpp:77] Creating layer bn2_1
I0624 20:20:33.729372 23251 net.cpp:91] Creating Layer bn2_1
I0624 20:20:33.729375 23251 net.cpp:425] bn2_1 <- conv2_1
I0624 20:20:33.729379 23251 net.cpp:386] bn2_1 -> conv2_1 (in-place)
I0624 20:20:33.729533 23251 net.cpp:141] Setting up bn2_1
I0624 20:20:33.729540 23251 net.cpp:148] Top shape: 64 64 56 56 (12845056)
I0624 20:20:33.729552 23251 net.cpp:156] Memory required for data: 989070080
I0624 20:20:33.729558 23251 layer_factory.hpp:77] Creating layer scale2_1
I0624 20:20:33.729563 23251 net.cpp:91] Creating Layer scale2_1
I0624 20:20:33.729567 23251 net.cpp:425] scale2_1 <- conv2_1
I0624 20:20:33.729570 23251 net.cpp:386] scale2_1 -> conv2_1 (in-place)
I0624 20:20:33.729607 23251 layer_factory.hpp:77] Creating layer scale2_1
I0624 20:20:33.729708 23251 net.cpp:141] Setting up scale2_1
I0624 20:20:33.729715 23251 net.cpp:148] Top shape: 64 64 56 56 (12845056)
I0624 20:20:33.729717 23251 net.cpp:156] Memory required for data: 1040450304
I0624 20:20:33.729724 23251 layer_factory.hpp:77] Creating layer relu2_1
I0624 20:20:33.729729 23251 net.cpp:91] Creating Layer relu2_1
I0624 20:20:33.729732 23251 net.cpp:425] relu2_1 <- conv2_1
I0624 20:20:33.729735 23251 net.cpp:386] relu2_1 -> conv2_1 (in-place)
I0624 20:20:33.729871 23251 net.cpp:141] Setting up relu2_1
I0624 20:20:33.729878 23251 net.cpp:148] Top shape: 64 64 56 56 (12845056)
I0624 20:20:33.729881 23251 net.cpp:156] Memory required for data: 1091830528
I0624 20:20:33.729882 23251 layer_factory.hpp:77] Creating layer conv2_2
I0624 20:20:33.729890 23251 net.cpp:91] Creating Layer conv2_2
I0624 20:20:33.729892 23251 net.cpp:425] conv2_2 <- conv2_1
I0624 20:20:33.729897 23251 net.cpp:399] conv2_2 -> conv2_2
I0624 20:20:33.731115 23251 net.cpp:141] Setting up conv2_2
I0624 20:20:33.731128 23251 net.cpp:148] Top shape: 64 64 56 56 (12845056)
I0624 20:20:33.731132 23251 net.cpp:156] Memory required for data: 1143210752
I0624 20:20:33.731135 23251 layer_factory.hpp:77] Creating layer bn2_2
I0624 20:20:33.731143 23251 net.cpp:91] Creating Layer bn2_2
I0624 20:20:33.731147 23251 net.cpp:425] bn2_2 <- conv2_2
I0624 20:20:33.731156 23251 net.cpp:386] bn2_2 -> conv2_2 (in-place)
I0624 20:20:33.731309 23251 net.cpp:141] Setting up bn2_2
I0624 20:20:33.731317 23251 net.cpp:148] Top shape: 64 64 56 56 (12845056)
I0624 20:20:33.731325 23251 net.cpp:156] Memory required for data: 1194590976
I0624 20:20:33.731330 23251 layer_factory.hpp:77] Creating layer scale2_2
I0624 20:20:33.731338 23251 net.cpp:91] Creating Layer scale2_2
I0624 20:20:33.731339 23251 net.cpp:425] scale2_2 <- conv2_2
I0624 20:20:33.731343 23251 net.cpp:386] scale2_2 -> conv2_2 (in-place)
I0624 20:20:33.731374 23251 layer_factory.hpp:77] Creating layer scale2_2
I0624 20:20:33.731467 23251 net.cpp:141] Setting up scale2_2
I0624 20:20:33.731473 23251 net.cpp:148] Top shape: 64 64 56 56 (12845056)
I0624 20:20:33.731477 23251 net.cpp:156] Memory required for data: 1245971200
I0624 20:20:33.731479 23251 layer_factory.hpp:77] Creating layer relu2_2
I0624 20:20:33.731485 23251 net.cpp:91] Creating Layer relu2_2
I0624 20:20:33.731487 23251 net.cpp:425] relu2_2 <- conv2_2
I0624 20:20:33.731490 23251 net.cpp:386] relu2_2 -> conv2_2 (in-place)
I0624 20:20:33.731639 23251 net.cpp:141] Setting up relu2_2
I0624 20:20:33.731647 23251 net.cpp:148] Top shape: 64 64 56 56 (12845056)
I0624 20:20:33.731649 23251 net.cpp:156] Memory required for data: 1297351424
I0624 20:20:33.731652 23251 layer_factory.hpp:77] Creating layer pool2
I0624 20:20:33.731657 23251 net.cpp:91] Creating Layer pool2
I0624 20:20:33.731660 23251 net.cpp:425] pool2 <- conv2_2
I0624 20:20:33.731663 23251 net.cpp:399] pool2 -> pool2
I0624 20:20:33.731699 23251 net.cpp:141] Setting up pool2
I0624 20:20:33.731704 23251 net.cpp:148] Top shape: 64 64 28 28 (3211264)
I0624 20:20:33.731706 23251 net.cpp:156] Memory required for data: 1310196480
I0624 20:20:33.731709 23251 layer_factory.hpp:77] Creating layer conv3_1
I0624 20:20:33.731716 23251 net.cpp:91] Creating Layer conv3_1
I0624 20:20:33.731719 23251 net.cpp:425] conv3_1 <- pool2
I0624 20:20:33.731724 23251 net.cpp:399] conv3_1 -> conv3_1
I0624 20:20:33.734354 23251 net.cpp:141] Setting up conv3_1
I0624 20:20:33.734369 23251 net.cpp:148] Top shape: 64 128 28 28 (6422528)
I0624 20:20:33.734371 23251 net.cpp:156] Memory required for data: 1335886592
I0624 20:20:33.734375 23251 layer_factory.hpp:77] Creating layer bn3_1
I0624 20:20:33.734395 23251 net.cpp:91] Creating Layer bn3_1
I0624 20:20:33.734400 23251 net.cpp:425] bn3_1 <- conv3_1
I0624 20:20:33.734405 23251 net.cpp:386] bn3_1 -> conv3_1 (in-place)
I0624 20:20:33.734552 23251 net.cpp:141] Setting up bn3_1
I0624 20:20:33.734560 23251 net.cpp:148] Top shape: 64 128 28 28 (6422528)
I0624 20:20:33.734577 23251 net.cpp:156] Memory required for data: 1361576704
I0624 20:20:33.734583 23251 layer_factory.hpp:77] Creating layer scale3_1
I0624 20:20:33.734589 23251 net.cpp:91] Creating Layer scale3_1
I0624 20:20:33.734592 23251 net.cpp:425] scale3_1 <- conv3_1
I0624 20:20:33.734596 23251 net.cpp:386] scale3_1 -> conv3_1 (in-place)
I0624 20:20:33.734627 23251 layer_factory.hpp:77] Creating layer scale3_1
I0624 20:20:33.734712 23251 net.cpp:141] Setting up scale3_1
I0624 20:20:33.734719 23251 net.cpp:148] Top shape: 64 128 28 28 (6422528)
I0624 20:20:33.734721 23251 net.cpp:156] Memory required for data: 1387266816
I0624 20:20:33.734725 23251 layer_factory.hpp:77] Creating layer relu3_1
I0624 20:20:33.734730 23251 net.cpp:91] Creating Layer relu3_1
I0624 20:20:33.734733 23251 net.cpp:425] relu3_1 <- conv3_1
I0624 20:20:33.734736 23251 net.cpp:386] relu3_1 -> conv3_1 (in-place)
I0624 20:20:33.734874 23251 net.cpp:141] Setting up relu3_1
I0624 20:20:33.734882 23251 net.cpp:148] Top shape: 64 128 28 28 (6422528)
I0624 20:20:33.734884 23251 net.cpp:156] Memory required for data: 1412956928
I0624 20:20:33.734886 23251 layer_factory.hpp:77] Creating layer conv3_2
I0624 20:20:33.734894 23251 net.cpp:91] Creating Layer conv3_2
I0624 20:20:33.734897 23251 net.cpp:425] conv3_2 <- conv3_1
I0624 20:20:33.734902 23251 net.cpp:399] conv3_2 -> conv3_2
I0624 20:20:33.736816 23251 net.cpp:141] Setting up conv3_2
I0624 20:20:33.736829 23251 net.cpp:148] Top shape: 64 128 28 28 (6422528)
I0624 20:20:33.736831 23251 net.cpp:156] Memory required for data: 1438647040
I0624 20:20:33.736835 23251 layer_factory.hpp:77] Creating layer bn3_2
I0624 20:20:33.736841 23251 net.cpp:91] Creating Layer bn3_2
I0624 20:20:33.736845 23251 net.cpp:425] bn3_2 <- conv3_2
I0624 20:20:33.736850 23251 net.cpp:386] bn3_2 -> conv3_2 (in-place)
I0624 20:20:33.737005 23251 net.cpp:141] Setting up bn3_2
I0624 20:20:33.737012 23251 net.cpp:148] Top shape: 64 128 28 28 (6422528)
I0624 20:20:33.737015 23251 net.cpp:156] Memory required for data: 1464337152
I0624 20:20:33.737025 23251 layer_factory.hpp:77] Creating layer scale3_2
I0624 20:20:33.737031 23251 net.cpp:91] Creating Layer scale3_2
I0624 20:20:33.737033 23251 net.cpp:425] scale3_2 <- conv3_2
I0624 20:20:33.737038 23251 net.cpp:386] scale3_2 -> conv3_2 (in-place)
I0624 20:20:33.737071 23251 layer_factory.hpp:77] Creating layer scale3_2
I0624 20:20:33.737159 23251 net.cpp:141] Setting up scale3_2
I0624 20:20:33.737165 23251 net.cpp:148] Top shape: 64 128 28 28 (6422528)
I0624 20:20:33.737169 23251 net.cpp:156] Memory required for data: 1490027264
I0624 20:20:33.737172 23251 layer_factory.hpp:77] Creating layer relu3_2
I0624 20:20:33.737176 23251 net.cpp:91] Creating Layer relu3_2
I0624 20:20:33.737179 23251 net.cpp:425] relu3_2 <- conv3_2
I0624 20:20:33.737184 23251 net.cpp:386] relu3_2 -> conv3_2 (in-place)
I0624 20:20:33.737320 23251 net.cpp:141] Setting up relu3_2
I0624 20:20:33.737329 23251 net.cpp:148] Top shape: 64 128 28 28 (6422528)
I0624 20:20:33.737330 23251 net.cpp:156] Memory required for data: 1515717376
I0624 20:20:33.737334 23251 layer_factory.hpp:77] Creating layer pool3
I0624 20:20:33.737339 23251 net.cpp:91] Creating Layer pool3
I0624 20:20:33.737342 23251 net.cpp:425] pool3 <- conv3_2
I0624 20:20:33.737345 23251 net.cpp:399] pool3 -> pool3
I0624 20:20:33.737382 23251 net.cpp:141] Setting up pool3
I0624 20:20:33.737386 23251 net.cpp:148] Top shape: 64 128 14 14 (1605632)
I0624 20:20:33.737388 23251 net.cpp:156] Memory required for data: 1522139904
I0624 20:20:33.737390 23251 layer_factory.hpp:77] Creating layer conv4_1
I0624 20:20:33.737397 23251 net.cpp:91] Creating Layer conv4_1
I0624 20:20:33.737401 23251 net.cpp:425] conv4_1 <- pool3
I0624 20:20:33.737404 23251 net.cpp:399] conv4_1 -> conv4_1
I0624 20:20:33.740150 23251 net.cpp:141] Setting up conv4_1
I0624 20:20:33.740162 23251 net.cpp:148] Top shape: 64 256 14 14 (3211264)
I0624 20:20:33.740165 23251 net.cpp:156] Memory required for data: 1534984960
I0624 20:20:33.740170 23251 layer_factory.hpp:77] Creating layer bn4_1
I0624 20:20:33.740176 23251 net.cpp:91] Creating Layer bn4_1
I0624 20:20:33.740180 23251 net.cpp:425] bn4_1 <- conv4_1
I0624 20:20:33.740183 23251 net.cpp:386] bn4_1 -> conv4_1 (in-place)
I0624 20:20:33.740340 23251 net.cpp:141] Setting up bn4_1
I0624 20:20:33.740348 23251 net.cpp:148] Top shape: 64 256 14 14 (3211264)
I0624 20:20:33.740350 23251 net.cpp:156] Memory required for data: 1547830016
I0624 20:20:33.740356 23251 layer_factory.hpp:77] Creating layer scale4_1
I0624 20:20:33.740362 23251 net.cpp:91] Creating Layer scale4_1
I0624 20:20:33.740365 23251 net.cpp:425] scale4_1 <- conv4_1
I0624 20:20:33.740370 23251 net.cpp:386] scale4_1 -> conv4_1 (in-place)
I0624 20:20:33.740401 23251 layer_factory.hpp:77] Creating layer scale4_1
I0624 20:20:33.740489 23251 net.cpp:141] Setting up scale4_1
I0624 20:20:33.740495 23251 net.cpp:148] Top shape: 64 256 14 14 (3211264)
I0624 20:20:33.740497 23251 net.cpp:156] Memory required for data: 1560675072
I0624 20:20:33.740501 23251 layer_factory.hpp:77] Creating layer relu4_1
I0624 20:20:33.740510 23251 net.cpp:91] Creating Layer relu4_1
I0624 20:20:33.740512 23251 net.cpp:425] relu4_1 <- conv4_1
I0624 20:20:33.740517 23251 net.cpp:386] relu4_1 -> conv4_1 (in-place)
I0624 20:20:33.740654 23251 net.cpp:141] Setting up relu4_1
I0624 20:20:33.740663 23251 net.cpp:148] Top shape: 64 256 14 14 (3211264)
I0624 20:20:33.740665 23251 net.cpp:156] Memory required for data: 1573520128
I0624 20:20:33.740667 23251 layer_factory.hpp:77] Creating layer conv4_2
I0624 20:20:33.740675 23251 net.cpp:91] Creating Layer conv4_2
I0624 20:20:33.740679 23251 net.cpp:425] conv4_2 <- conv4_1
I0624 20:20:33.740684 23251 net.cpp:399] conv4_2 -> conv4_2
I0624 20:20:33.746341 23251 net.cpp:141] Setting up conv4_2
I0624 20:20:33.746358 23251 net.cpp:148] Top shape: 64 256 14 14 (3211264)
I0624 20:20:33.746361 23251 net.cpp:156] Memory required for data: 1586365184
I0624 20:20:33.746367 23251 layer_factory.hpp:77] Creating layer bn4_2
I0624 20:20:33.746376 23251 net.cpp:91] Creating Layer bn4_2
I0624 20:20:33.746379 23251 net.cpp:425] bn4_2 <- conv4_2
I0624 20:20:33.746383 23251 net.cpp:386] bn4_2 -> conv4_2 (in-place)
I0624 20:20:33.746547 23251 net.cpp:141] Setting up bn4_2
I0624 20:20:33.746554 23251 net.cpp:148] Top shape: 64 256 14 14 (3211264)
I0624 20:20:33.746556 23251 net.cpp:156] Memory required for data: 1599210240
I0624 20:20:33.746562 23251 layer_factory.hpp:77] Creating layer scale4_2
I0624 20:20:33.746568 23251 net.cpp:91] Creating Layer scale4_2
I0624 20:20:33.746572 23251 net.cpp:425] scale4_2 <- conv4_2
I0624 20:20:33.746574 23251 net.cpp:386] scale4_2 -> conv4_2 (in-place)
I0624 20:20:33.746608 23251 layer_factory.hpp:77] Creating layer scale4_2
I0624 20:20:33.746693 23251 net.cpp:141] Setting up scale4_2
I0624 20:20:33.746701 23251 net.cpp:148] Top shape: 64 256 14 14 (3211264)
I0624 20:20:33.746702 23251 net.cpp:156] Memory required for data: 1612055296
I0624 20:20:33.746706 23251 layer_factory.hpp:77] Creating layer relu4_2
I0624 20:20:33.746712 23251 net.cpp:91] Creating Layer relu4_2
I0624 20:20:33.746714 23251 net.cpp:425] relu4_2 <- conv4_2
I0624 20:20:33.746718 23251 net.cpp:386] relu4_2 -> conv4_2 (in-place)
I0624 20:20:33.747143 23251 net.cpp:141] Setting up relu4_2
I0624 20:20:33.747164 23251 net.cpp:148] Top shape: 64 256 14 14 (3211264)
I0624 20:20:33.747169 23251 net.cpp:156] Memory required for data: 1624900352
I0624 20:20:33.747174 23251 layer_factory.hpp:77] Creating layer pool4
I0624 20:20:33.747184 23251 net.cpp:91] Creating Layer pool4
I0624 20:20:33.747189 23251 net.cpp:425] pool4 <- conv4_2
I0624 20:20:33.747200 23251 net.cpp:399] pool4 -> pool4
I0624 20:20:33.747277 23251 net.cpp:141] Setting up pool4
I0624 20:20:33.747287 23251 net.cpp:148] Top shape: 64 256 7 7 (802816)
I0624 20:20:33.747303 23251 net.cpp:156] Memory required for data: 1628111616
I0624 20:20:33.747306 23251 layer_factory.hpp:77] Creating layer conv5_1
I0624 20:20:33.747318 23251 net.cpp:91] Creating Layer conv5_1
I0624 20:20:33.747319 23251 net.cpp:425] conv5_1 <- pool4
I0624 20:20:33.747324 23251 net.cpp:399] conv5_1 -> conv5_1
I0624 20:20:33.753243 23251 net.cpp:141] Setting up conv5_1
I0624 20:20:33.753265 23251 net.cpp:148] Top shape: 64 256 7 7 (802816)
I0624 20:20:33.753268 23251 net.cpp:156] Memory required for data: 1631322880
I0624 20:20:33.753274 23251 layer_factory.hpp:77] Creating layer bn5_1
I0624 20:20:33.753283 23251 net.cpp:91] Creating Layer bn5_1
I0624 20:20:33.753288 23251 net.cpp:425] bn5_1 <- conv5_1
I0624 20:20:33.753293 23251 net.cpp:386] bn5_1 -> conv5_1 (in-place)
I0624 20:20:33.753473 23251 net.cpp:141] Setting up bn5_1
I0624 20:20:33.753480 23251 net.cpp:148] Top shape: 64 256 7 7 (802816)
I0624 20:20:33.753482 23251 net.cpp:156] Memory required for data: 1634534144
I0624 20:20:33.753487 23251 layer_factory.hpp:77] Creating layer scale5_1
I0624 20:20:33.753494 23251 net.cpp:91] Creating Layer scale5_1
I0624 20:20:33.753497 23251 net.cpp:425] scale5_1 <- conv5_1
I0624 20:20:33.753501 23251 net.cpp:386] scale5_1 -> conv5_1 (in-place)
I0624 20:20:33.753535 23251 layer_factory.hpp:77] Creating layer scale5_1
I0624 20:20:33.753636 23251 net.cpp:141] Setting up scale5_1
I0624 20:20:33.753646 23251 net.cpp:148] Top shape: 64 256 7 7 (802816)
I0624 20:20:33.753650 23251 net.cpp:156] Memory required for data: 1637745408
I0624 20:20:33.753656 23251 layer_factory.hpp:77] Creating layer relu5_1
I0624 20:20:33.753664 23251 net.cpp:91] Creating Layer relu5_1
I0624 20:20:33.753667 23251 net.cpp:425] relu5_1 <- conv5_1
I0624 20:20:33.753672 23251 net.cpp:386] relu5_1 -> conv5_1 (in-place)
I0624 20:20:33.753864 23251 net.cpp:141] Setting up relu5_1
I0624 20:20:33.753875 23251 net.cpp:148] Top shape: 64 256 7 7 (802816)
I0624 20:20:33.753877 23251 net.cpp:156] Memory required for data: 1640956672
I0624 20:20:33.753880 23251 layer_factory.hpp:77] Creating layer conv5_2
I0624 20:20:33.753890 23251 net.cpp:91] Creating Layer conv5_2
I0624 20:20:33.753892 23251 net.cpp:425] conv5_2 <- conv5_1
I0624 20:20:33.753897 23251 net.cpp:399] conv5_2 -> conv5_2
I0624 20:20:33.759763 23251 net.cpp:141] Setting up conv5_2
I0624 20:20:33.759784 23251 net.cpp:148] Top shape: 64 256 7 7 (802816)
I0624 20:20:33.759788 23251 net.cpp:156] Memory required for data: 1644167936
I0624 20:20:33.759793 23251 layer_factory.hpp:77] Creating layer bn5_2
I0624 20:20:33.759801 23251 net.cpp:91] Creating Layer bn5_2
I0624 20:20:33.759805 23251 net.cpp:425] bn5_2 <- conv5_2
I0624 20:20:33.759812 23251 net.cpp:386] bn5_2 -> conv5_2 (in-place)
I0624 20:20:33.759990 23251 net.cpp:141] Setting up bn5_2
I0624 20:20:33.759997 23251 net.cpp:148] Top shape: 64 256 7 7 (802816)
I0624 20:20:33.759999 23251 net.cpp:156] Memory required for data: 1647379200
I0624 20:20:33.760005 23251 layer_factory.hpp:77] Creating layer scale5_2
I0624 20:20:33.760012 23251 net.cpp:91] Creating Layer scale5_2
I0624 20:20:33.760015 23251 net.cpp:425] scale5_2 <- conv5_2
I0624 20:20:33.760018 23251 net.cpp:386] scale5_2 -> conv5_2 (in-place)
I0624 20:20:33.760052 23251 layer_factory.hpp:77] Creating layer scale5_2
I0624 20:20:33.760149 23251 net.cpp:141] Setting up scale5_2
I0624 20:20:33.760155 23251 net.cpp:148] Top shape: 64 256 7 7 (802816)
I0624 20:20:33.760157 23251 net.cpp:156] Memory required for data: 1650590464
I0624 20:20:33.760161 23251 layer_factory.hpp:77] Creating layer relu5_2
I0624 20:20:33.760167 23251 net.cpp:91] Creating Layer relu5_2
I0624 20:20:33.760170 23251 net.cpp:425] relu5_2 <- conv5_2
I0624 20:20:33.760174 23251 net.cpp:386] relu5_2 -> conv5_2 (in-place)
I0624 20:20:33.760323 23251 net.cpp:141] Setting up relu5_2
I0624 20:20:33.760330 23251 net.cpp:148] Top shape: 64 256 7 7 (802816)
I0624 20:20:33.760332 23251 net.cpp:156] Memory required for data: 1653801728
I0624 20:20:33.760335 23251 layer_factory.hpp:77] Creating layer pool5
I0624 20:20:33.760356 23251 net.cpp:91] Creating Layer pool5
I0624 20:20:33.760360 23251 net.cpp:425] pool5 <- conv5_2
I0624 20:20:33.760365 23251 net.cpp:399] pool5 -> pool5
I0624 20:20:33.760519 23251 net.cpp:141] Setting up pool5
I0624 20:20:33.760529 23251 net.cpp:148] Top shape: 64 256 1 1 (16384)
I0624 20:20:33.760530 23251 net.cpp:156] Memory required for data: 1653867264
I0624 20:20:33.760534 23251 layer_factory.hpp:77] Creating layer fc2
I0624 20:20:33.760540 23251 net.cpp:91] Creating Layer fc2
I0624 20:20:33.760542 23251 net.cpp:425] fc2 <- pool5
I0624 20:20:33.760546 23251 net.cpp:399] fc2 -> fc2
I0624 20:20:33.760648 23251 net.cpp:141] Setting up fc2
I0624 20:20:33.760653 23251 net.cpp:148] Top shape: 64 2 (128)
I0624 20:20:33.760656 23251 net.cpp:156] Memory required for data: 1653867776
I0624 20:20:33.760660 23251 layer_factory.hpp:77] Creating layer fc2_fc2_0_split
I0624 20:20:33.760665 23251 net.cpp:91] Creating Layer fc2_fc2_0_split
I0624 20:20:33.760668 23251 net.cpp:425] fc2_fc2_0_split <- fc2
I0624 20:20:33.760673 23251 net.cpp:399] fc2_fc2_0_split -> fc2_fc2_0_split_0
I0624 20:20:33.760676 23251 net.cpp:399] fc2_fc2_0_split -> fc2_fc2_0_split_1
I0624 20:20:33.760705 23251 net.cpp:141] Setting up fc2_fc2_0_split
I0624 20:20:33.760710 23251 net.cpp:148] Top shape: 64 2 (128)
I0624 20:20:33.760712 23251 net.cpp:148] Top shape: 64 2 (128)
I0624 20:20:33.760715 23251 net.cpp:156] Memory required for data: 1653868800
I0624 20:20:33.760716 23251 layer_factory.hpp:77] Creating layer loss
I0624 20:20:33.760722 23251 net.cpp:91] Creating Layer loss
I0624 20:20:33.760725 23251 net.cpp:425] loss <- fc2_fc2_0_split_0
I0624 20:20:33.760727 23251 net.cpp:425] loss <- label_data_1_split_0
I0624 20:20:33.760732 23251 net.cpp:399] loss -> loss
…
