…
I0624 17:04:37.720930 21347 solver.cpp:91] Creating training net from net file: models/bpnet/train_val.prototxt
I0624 17:04:37.721771 21347 net.cpp:313] The NetState phase (0) differed from the phase (1) specified by a rule in layer data
I0624 17:04:37.722018 21347 net.cpp:49] Initializing net from parameters: 
name: "BPnet"
state {
  phase: TRAIN
}
layer {
  name: "data"
  type: "Data"
  top: "data"
  top: "label"
  include {
    phase: TRAIN
  }
  transform_param {
    mirror: false
    crop_size: 224
    mean_value: 100
    contrast_jitter_range: 0.1
  }
  data_param {
    source: "data/train_lmdb"
    batch_size: 16
    backend: LMDB
  }
}
layer {
  name: "conv1_1"
  type: "Convolution"
  bottom: "data"
  top: "conv1_1"
  param {
    lr_mult: 1
    decay_mult: 1
  }
  convolution_param {
    num_output: 32
    bias_term: false
    pad: 3
    kernel_size: 7
    stride: 2
    weight_filler {
      type: "xavier"
    }
  }
}
layer {
  name: "bn1_1"
  type: "BatchNorm"
  bottom: "conv1_1"
  top: "conv1_1"
  param {
    lr_mult: 0
  }
  param {
    lr_mult: 0
  }
  param {
    lr_mult: 0
  }
  batch_norm_param {
    use_global_stats: false
  }
}
layer {
  name: "scale1_1"
  type: "Scale"
  bottom: "conv1_1"
  top: "conv1_1"
  param {
    lr_mult: 1
    decay_mult: 1
  }
  param {
    lr_mult: 1
    decay_mult: 1
  }
  scale_param {
    bias_term: true
    bias_filler {
      type: "constant"
      value: 0
    }
  }
}
layer {
  name: "relu1_1"
  type: "ReLU"
  bottom: "conv1_1"
  top: "conv1_1"
}
layer {
  name: "conv1_2"
  type: "Convolution"
  bottom: "conv1_1"
  top: "conv1_2"
  param {
    lr_mult: 1
    decay_mult: 1
  }
  convolution_param {
    num_output: 32
    bias_term: false
    pad: 1
    kernel_size: 3
    weight_filler {
      type: "xavier"
    }
  }
}
layer {
  name: "bn1_2"
  type: "BatchNorm"
  bottom: "conv1_2"
  top: "conv1_2"
  param {
    lr_mult: 0
  }
  param {
    lr_mult: 0
  }
  param {
    lr_mult: 0
  }
  batch_norm_param {
    use_global_stats: false
  }
}
layer {
  name: "scale1_2"
  type: "Scale"
  bottom: "conv1_2"
  top: "conv1_2"
  param {
    lr_mult: 1
    decay_mult: 1
  }
  param {
    lr_mult: 1
    decay_mult: 1
  }
  scale_param {
    bias_term: true
    bias_filler {
      type: "constant"
      value: 0
    }
  }
}
layer {
  name: "relu1_2"
  type: "ReLU"
  bottom: "conv1_2"
  top: "conv1_2"
}
layer {
  name: "pool1"
  type: "Pooling"
  bottom: "conv1_2"
  top: "pool1"
  pooling_param {
    pool: MAX
    kernel_size: 2
    stride: 2
  }
}
layer {
  name: "conv2_1"
  type: "Convolution"
  bottom: "pool1"
  top: "conv2_1"
  param {
    lr_mult: 1
    decay_mult: 1
  }
  convolution_param {
    num_output: 32
    bias_term: false
    pad: 1
    kernel_size: 3
    weight_filler {
      type: "xavier"
    }
  }
}
layer {
  name: "bn2_1"
  type: "BatchNorm"
  bottom: "conv2_1"
  top: "conv2_1"
  param {
    lr_mult: 0
  }
  param {
    lr_mult: 0
  }
  param {
    lr_mult: 0
  }
  batch_norm_param {
    use_global_stats: false
  }
}
layer {
  name: "scale2_1"
  type: "Scale"
  bottom: "conv2_1"
  top: "conv2_1"
  param {
    lr_mult: 1
    decay_mult: 1
  }
  param {
    lr_mult: 1
    decay_mult: 1
  }
  scale_param {
    bias_term: true
    bias_filler {
      type: "constant"
      value: 0
    }
  }
}
layer {
  name: "relu2_1"
  type: "ReLU"
  bottom: "conv2_1"
  top: "conv2_1"
}
layer {
  name: "conv2_2"
  type: "Convolution"
  bottom: "conv2_1"
  top: "conv2_2"
  param {
    lr_mult: 1
    decay_mult: 1
  }
  convolution_param {
    num_output: 32
    bias_term: false
    pad: 1
    kernel_size: 3
    weight_filler {
      type: "xavier"
    }
  }
}
layer {
  name: "bn2_2"
  type: "BatchNorm"
  bottom: "conv2_2"
  top: "conv2_2"
  param {
    lr_mult: 0
  }
  param {
    lr_mult: 0
  }
  param {
    lr_mult: 0
  }
  batch_norm_param {
    use_global_stats: false
  }
}
layer {
  name: "scale2_2"
  type: "Scale"
  bottom: "conv2_2"
  top: "conv2_2"
  param {
    lr_mult: 1
    decay_mult: 1
  }
  param {
    lr_mult: 1
    decay_mult: 1
  }
  scale_param {
    bias_term: true
    bias_filler {
      type: "constant"
      value: 0
    }
  }
}
layer {
  name: "relu2_2"
  type: "ReLU"
  bottom: "conv2_2"
  top: "conv2_2"
}
layer {
  name: "pool2"
  type: "Pooling"
  bottom: "conv2_2"
  top: "pool2"
  pooling_param {
    pool: MAX
    kernel_size: 2
    stride: 2
  }
}
layer {
  name: "conv3_1"
  type: "Convolution"
  bottom: "pool2"
  top: "conv3_1"
  param {
    lr_mult: 1
    decay_mult: 1
  }
  convolution_param {
    num_output: 32
    bias_term: false
    pad: 1
    kernel_size: 3
    weight_filler {
      type: "xavier"
    }
  }
}
layer {
  name: "bn3_1"
  type: "BatchNorm"
  bottom: "conv3_1"
  top: "conv3_1"
  param {
    lr_mult: 0
  }
  param {
    lr_mult: 0
  }
  param {
    lr_mult: 0
  }
  batch_norm_param {
    use_global_stats: false
  }
}
layer {
  name: "scale3_1"
  type: "Scale"
  bottom: "conv3_1"
  top: "conv3_1"
  param {
    lr_mult: 1
    decay_mult: 1
  }
  param {
    lr_mult: 1
    decay_mult: 1
  }
  scale_param {
    bias_term: true
    bias_filler {
      type: "constant"
      value: 0
    }
  }
}
layer {
  name: "relu3_1"
  type: "ReLU"
  bottom: "conv3_1"
  top: "conv3_1"
}
layer {
  name: "conv3_2"
  type: "Convolution"
  bottom: "conv3_1"
  top: "conv3_2"
  param {
    lr_mult: 1
    decay_mult: 1
  }
  convolution_param {
    num_output: 32
    bias_term: false
    pad: 1
    kernel_size: 3
    weight_filler {
      type: "xavier"
    }
  }
}
layer {
  name: "bn3_2"
  type: "BatchNorm"
  bottom: "conv3_2"
  top: "conv3_2"
  param {
    lr_mult: 0
  }
  param {
    lr_mult: 0
  }
  param {
    lr_mult: 0
  }
  batch_norm_param {
    use_global_stats: false
  }
}
layer {
  name: "scale3_2"
  type: "Scale"
  bottom: "conv3_2"
  top: "conv3_2"
  param {
    lr_mult: 1
    decay_mult: 1
  }
  param {
    lr_mult: 1
    decay_mult: 1
  }
  scale_param {
    bias_term: true
    bias_filler {
      type: "constant"
      value: 0
    }
  }
}
layer {
  name: "relu3_2"
  type: "ReLU"
  bottom: "conv3_2"
  top: "conv3_2"
}
layer {
  name: "pool3"
  type: "Pooling"
  bottom: "conv3_2"
  top: "pool3"
  pooling_param {
    pool: MAX
    kernel_size: 2
    stride: 2
  }
}
layer {
  name: "conv4_1"
  type: "Convolution"
  bottom: "pool3"
  top: "conv4_1"
  param {
    lr_mult: 1
    decay_mult: 1
  }
  convolution_param {
    num_output: 64
    bias_term: false
    pad: 1
    kernel_size: 3
    weight_filler {
      type: "xavier"
    }
  }
}
layer {
  name: "bn4_1"
  type: "BatchNorm"
  bottom: "conv4_1"
  top: "conv4_1"
  param {
    lr_mult: 0
  }
  param {
    lr_mult: 0
  }
  param {
    lr_mult: 0
  }
  batch_norm_param {
    use_global_stats: false
  }
}
layer {
  name: "scale4_1"
  type: "Scale"
  bottom: "conv4_1"
  top: "conv4_1"
  param {
    lr_mult: 1
    decay_mult: 1
  }
  param {
    lr_mult: 1
    decay_mult: 1
  }
  scale_param {
    bias_term: true
    bias_filler {
      type: "constant"
      value: 0
    }
  }
}
layer {
  name: "relu4_1"
  type: "ReLU"
  bottom: "conv4_1"
  top: "conv4_1"
}
layer {
  name: "conv4_2"
  type: "Convolution"
  bottom: "conv4_1"
  top: "conv4_2"
  param {
    lr_mult: 1
    decay_mult: 1
  }
  convolution_param {
    num_output: 64
    bias_term: false
    pad: 1
    kernel_size: 3
    weight_filler {
      type: "xavier"
    }
  }
}
layer {
  name: "bn4_2"
  type: "BatchNorm"
  bottom: "conv4_2"
  top: "conv4_2"
  param {
    lr_mult: 0
  }
  param {
    lr_mult: 0
  }
  param {
    lr_mult: 0
  }
  batch_norm_param {
    use_global_stats: false
  }
}
layer {
  name: "scale4_2"
  type: "Scale"
  bottom: "conv4_2"
  top: "conv4_2"
  param {
    lr_mult: 1
    decay_mult: 1
  }
  param {
    lr_mult: 1
    decay_mult: 1
  }
  scale_param {
    bias_term: true
    bias_filler {
      type: "constant"
      value: 0
    }
  }
}
layer {
  name: "relu4_2"
  type: "ReLU"
  bottom: "conv4_2"
  top: "conv4_2"
}
layer {
  name: "pool4"
  type: "Pooling"
  bottom: "conv4_2"
  top: "pool4"
  pooling_param {
    pool: MAX
    kernel_size: 2
    stride: 2
  }
}
layer {
  name: "conv5_1"
  type: "Convolution"
  bottom: "pool4"
  top: "conv5_1"
  param {
    lr_mult: 1
    decay_mult: 1
  }
  convolution_param {
    num_output: 64
    bias_term: false
    pad: 1
    kernel_size: 3
    weight_filler {
      type: "xavier"
    }
  }
}
layer {
  name: "bn5_1"
  type: "BatchNorm"
  bottom: "conv5_1"
  top: "conv5_1"
  param {
    lr_mult: 0
  }
  param {
    lr_mult: 0
  }
  param {
    lr_mult: 0
  }
  batch_norm_param {
    use_global_stats: false
  }
}
layer {
  name: "scale5_1"
  type: "Scale"
  bottom: "conv5_1"
  top: "conv5_1"
  param {
    lr_mult: 1
    decay_mult: 1
  }
  param {
    lr_mult: 1
    decay_mult: 1
  }
  scale_param {
    bias_term: true
    bias_filler {
      type: "constant"
      value: 0
    }
  }
}
layer {
  name: "relu5_1"
  type: "ReLU"
  bottom: "conv5_1"
  top: "conv5_1"
}
layer {
  name: "conv5_2"
  type: "Convolution"
  bottom: "conv5_1"
  top: "conv5_2"
  param {
    lr_mult: 1
    decay_mult: 1
  }
  convolution_param {
    num_output: 64
    bias_term: false
    pad: 1
    kernel_size: 3
    weight_filler {
      type: "xavier"
    }
  }
}
layer {
  name: "bn5_2"
  type: "BatchNorm"
  bottom: "conv5_2"
  top: "conv5_2"
  param {
    lr_mult: 0
  }
  param {
    lr_mult: 0
  }
  param {
    lr_mult: 0
  }
  batch_norm_param {
    use_global_stats: false
  }
}
layer {
  name: "scale5_2"
  type: "Scale"
  bottom: "conv5_2"
  top: "conv5_2"
  param {
    lr_mult: 1
    decay_mult: 1
  }
  param {
    lr_mult: 1
    decay_mult: 1
  }
  scale_param {
    bias_term: true
    bias_filler {
      type: "constant"
      value: 0
    }
  }
}
layer {
  name: "relu5_2"
  type: "ReLU"
  bottom: "conv5_2"
  top: "conv5_2"
}
layer {
  name: "pool5"
  type: "Pooling"
  bottom: "conv5_2"
  top: "pool5"
  pooling_param {
    pool: AVE
    kernel_size: 7
    stride: 1
  }
}
layer {
  name: "fc2"
  type: "InnerProduct"
  bottom: "pool5"
  top: "fc2"
  inner_product_param {
    num_output: 2
  }
}
layer {
  name: "loss"
  type: "SoftmaxWithLoss"
  bottom: "fc2"
  bottom: "label"
  top: "loss"
}
layer {
  name: "accuracy"
  type: "Accuracy"
  bottom: "fc2"
  bottom: "label"
  top: "accuracy"
}
I0624 17:04:37.722219 21347 layer_factory.hpp:77] Creating layer data
I0624 17:04:37.722625 21347 net.cpp:91] Creating Layer data
I0624 17:04:37.722635 21347 net.cpp:399] data -> data
I0624 17:04:37.722657 21347 net.cpp:399] data -> label
I0624 17:04:37.724484 21351 db_lmdb.cpp:35] Opened lmdb data/train_lmdb
I0624 17:04:37.747520 21347 data_layer.cpp:42] output data size: 16,3,224,224
I0624 17:04:37.767390 21347 net.cpp:141] Setting up data
I0624 17:04:37.767421 21347 net.cpp:148] Top shape: 16 3 224 224 (2408448)
I0624 17:04:37.767426 21347 net.cpp:148] Top shape: 16 (16)
I0624 17:04:37.767427 21347 net.cpp:156] Memory required for data: 9633856
I0624 17:04:37.767436 21347 layer_factory.hpp:77] Creating layer label_data_1_split
I0624 17:04:37.767452 21347 net.cpp:91] Creating Layer label_data_1_split
I0624 17:04:37.767457 21347 net.cpp:425] label_data_1_split <- label
I0624 17:04:37.767467 21347 net.cpp:399] label_data_1_split -> label_data_1_split_0
I0624 17:04:37.767475 21347 net.cpp:399] label_data_1_split -> label_data_1_split_1
I0624 17:04:37.767637 21347 net.cpp:141] Setting up label_data_1_split
I0624 17:04:37.767644 21347 net.cpp:148] Top shape: 16 (16)
I0624 17:04:37.767647 21347 net.cpp:148] Top shape: 16 (16)
I0624 17:04:37.767649 21347 net.cpp:156] Memory required for data: 9633984
I0624 17:04:37.767652 21347 layer_factory.hpp:77] Creating layer conv1_1
I0624 17:04:37.767668 21347 net.cpp:91] Creating Layer conv1_1
I0624 17:04:37.767670 21347 net.cpp:425] conv1_1 <- data
I0624 17:04:37.767674 21347 net.cpp:399] conv1_1 -> conv1_1
I0624 17:04:37.946848 21347 net.cpp:141] Setting up conv1_1
I0624 17:04:37.946882 21347 net.cpp:148] Top shape: 16 32 112 112 (6422528)
I0624 17:04:37.946884 21347 net.cpp:156] Memory required for data: 35324096
I0624 17:04:37.946895 21347 layer_factory.hpp:77] Creating layer bn1_1
I0624 17:04:37.946913 21347 net.cpp:91] Creating Layer bn1_1
I0624 17:04:37.946916 21347 net.cpp:425] bn1_1 <- conv1_1
I0624 17:04:37.946921 21347 net.cpp:386] bn1_1 -> conv1_1 (in-place)
I0624 17:04:37.947074 21347 net.cpp:141] Setting up bn1_1
I0624 17:04:37.947082 21347 net.cpp:148] Top shape: 16 32 112 112 (6422528)
I0624 17:04:37.947085 21347 net.cpp:156] Memory required for data: 61014208
I0624 17:04:37.947094 21347 layer_factory.hpp:77] Creating layer scale1_1
I0624 17:04:37.947103 21347 net.cpp:91] Creating Layer scale1_1
I0624 17:04:37.947105 21347 net.cpp:425] scale1_1 <- conv1_1
I0624 17:04:37.947109 21347 net.cpp:386] scale1_1 -> conv1_1 (in-place)
I0624 17:04:37.947144 21347 layer_factory.hpp:77] Creating layer scale1_1
I0624 17:04:37.947260 21347 net.cpp:141] Setting up scale1_1
I0624 17:04:37.947268 21347 net.cpp:148] Top shape: 16 32 112 112 (6422528)
I0624 17:04:37.947271 21347 net.cpp:156] Memory required for data: 86704320
I0624 17:04:37.947278 21347 layer_factory.hpp:77] Creating layer relu1_1
I0624 17:04:37.947283 21347 net.cpp:91] Creating Layer relu1_1
I0624 17:04:37.947286 21347 net.cpp:425] relu1_1 <- conv1_1
I0624 17:04:37.947290 21347 net.cpp:386] relu1_1 -> conv1_1 (in-place)
I0624 17:04:37.947427 21347 net.cpp:141] Setting up relu1_1
I0624 17:04:37.947437 21347 net.cpp:148] Top shape: 16 32 112 112 (6422528)
I0624 17:04:37.947438 21347 net.cpp:156] Memory required for data: 112394432
I0624 17:04:37.947441 21347 layer_factory.hpp:77] Creating layer conv1_2
I0624 17:04:37.947450 21347 net.cpp:91] Creating Layer conv1_2
I0624 17:04:37.947453 21347 net.cpp:425] conv1_2 <- conv1_1
I0624 17:04:37.947458 21347 net.cpp:399] conv1_2 -> conv1_2
I0624 17:04:37.948225 21347 net.cpp:141] Setting up conv1_2
I0624 17:04:37.948236 21347 net.cpp:148] Top shape: 16 32 112 112 (6422528)
I0624 17:04:37.948240 21347 net.cpp:156] Memory required for data: 138084544
I0624 17:04:37.948245 21347 layer_factory.hpp:77] Creating layer bn1_2
I0624 17:04:37.948249 21347 net.cpp:91] Creating Layer bn1_2
I0624 17:04:37.948252 21347 net.cpp:425] bn1_2 <- conv1_2
I0624 17:04:37.948256 21347 net.cpp:386] bn1_2 -> conv1_2 (in-place)
I0624 17:04:37.948390 21347 net.cpp:141] Setting up bn1_2
I0624 17:04:37.948396 21347 net.cpp:148] Top shape: 16 32 112 112 (6422528)
I0624 17:04:37.948400 21347 net.cpp:156] Memory required for data: 163774656
I0624 17:04:37.948407 21347 layer_factory.hpp:77] Creating layer scale1_2
I0624 17:04:37.948415 21347 net.cpp:91] Creating Layer scale1_2
I0624 17:04:37.948416 21347 net.cpp:425] scale1_2 <- conv1_2
I0624 17:04:37.948421 21347 net.cpp:386] scale1_2 -> conv1_2 (in-place)
I0624 17:04:37.948449 21347 layer_factory.hpp:77] Creating layer scale1_2
I0624 17:04:37.948540 21347 net.cpp:141] Setting up scale1_2
I0624 17:04:37.948547 21347 net.cpp:148] Top shape: 16 32 112 112 (6422528)
I0624 17:04:37.948549 21347 net.cpp:156] Memory required for data: 189464768
I0624 17:04:37.948554 21347 layer_factory.hpp:77] Creating layer relu1_2
I0624 17:04:37.948557 21347 net.cpp:91] Creating Layer relu1_2
I0624 17:04:37.948560 21347 net.cpp:425] relu1_2 <- conv1_2
I0624 17:04:37.948564 21347 net.cpp:386] relu1_2 -> conv1_2 (in-place)
I0624 17:04:37.948685 21347 net.cpp:141] Setting up relu1_2
I0624 17:04:37.948694 21347 net.cpp:148] Top shape: 16 32 112 112 (6422528)
I0624 17:04:37.948696 21347 net.cpp:156] Memory required for data: 215154880
I0624 17:04:37.948699 21347 layer_factory.hpp:77] Creating layer pool1
I0624 17:04:37.948705 21347 net.cpp:91] Creating Layer pool1
I0624 17:04:37.948707 21347 net.cpp:425] pool1 <- conv1_2
I0624 17:04:37.948711 21347 net.cpp:399] pool1 -> pool1
I0624 17:04:37.948753 21347 net.cpp:141] Setting up pool1
I0624 17:04:37.948758 21347 net.cpp:148] Top shape: 16 32 56 56 (1605632)
I0624 17:04:37.948779 21347 net.cpp:156] Memory required for data: 221577408
I0624 17:04:37.948782 21347 layer_factory.hpp:77] Creating layer conv2_1
I0624 17:04:37.948789 21347 net.cpp:91] Creating Layer conv2_1
I0624 17:04:37.948792 21347 net.cpp:425] conv2_1 <- pool1
I0624 17:04:37.948796 21347 net.cpp:399] conv2_1 -> conv2_1
I0624 17:04:37.949553 21347 net.cpp:141] Setting up conv2_1
I0624 17:04:37.949565 21347 net.cpp:148] Top shape: 16 32 56 56 (1605632)
I0624 17:04:37.949568 21347 net.cpp:156] Memory required for data: 227999936
I0624 17:04:37.949573 21347 layer_factory.hpp:77] Creating layer bn2_1
I0624 17:04:37.949579 21347 net.cpp:91] Creating Layer bn2_1
I0624 17:04:37.949581 21347 net.cpp:425] bn2_1 <- conv2_1
I0624 17:04:37.949585 21347 net.cpp:386] bn2_1 -> conv2_1 (in-place)
I0624 17:04:37.950852 21347 net.cpp:141] Setting up bn2_1
I0624 17:04:37.950865 21347 net.cpp:148] Top shape: 16 32 56 56 (1605632)
I0624 17:04:37.950866 21347 net.cpp:156] Memory required for data: 234422464
I0624 17:04:37.950873 21347 layer_factory.hpp:77] Creating layer scale2_1
I0624 17:04:37.950880 21347 net.cpp:91] Creating Layer scale2_1
I0624 17:04:37.950882 21347 net.cpp:425] scale2_1 <- conv2_1
I0624 17:04:37.950886 21347 net.cpp:386] scale2_1 -> conv2_1 (in-place)
I0624 17:04:37.950917 21347 layer_factory.hpp:77] Creating layer scale2_1
I0624 17:04:37.951007 21347 net.cpp:141] Setting up scale2_1
I0624 17:04:37.951014 21347 net.cpp:148] Top shape: 16 32 56 56 (1605632)
I0624 17:04:37.951016 21347 net.cpp:156] Memory required for data: 240844992
I0624 17:04:37.951025 21347 layer_factory.hpp:77] Creating layer relu2_1
I0624 17:04:37.951031 21347 net.cpp:91] Creating Layer relu2_1
I0624 17:04:37.951035 21347 net.cpp:425] relu2_1 <- conv2_1
I0624 17:04:37.951037 21347 net.cpp:386] relu2_1 -> conv2_1 (in-place)
I0624 17:04:37.951396 21347 net.cpp:141] Setting up relu2_1
I0624 17:04:37.951408 21347 net.cpp:148] Top shape: 16 32 56 56 (1605632)
I0624 17:04:37.951411 21347 net.cpp:156] Memory required for data: 247267520
I0624 17:04:37.951413 21347 layer_factory.hpp:77] Creating layer conv2_2
I0624 17:04:37.951421 21347 net.cpp:91] Creating Layer conv2_2
I0624 17:04:37.951424 21347 net.cpp:425] conv2_2 <- conv2_1
I0624 17:04:37.951431 21347 net.cpp:399] conv2_2 -> conv2_2
I0624 17:04:37.952018 21347 net.cpp:141] Setting up conv2_2
I0624 17:04:37.952029 21347 net.cpp:148] Top shape: 16 32 56 56 (1605632)
I0624 17:04:37.952033 21347 net.cpp:156] Memory required for data: 253690048
I0624 17:04:37.952036 21347 layer_factory.hpp:77] Creating layer bn2_2
I0624 17:04:37.952044 21347 net.cpp:91] Creating Layer bn2_2
I0624 17:04:37.952046 21347 net.cpp:425] bn2_2 <- conv2_2
I0624 17:04:37.952051 21347 net.cpp:386] bn2_2 -> conv2_2 (in-place)
I0624 17:04:37.952190 21347 net.cpp:141] Setting up bn2_2
I0624 17:04:37.952198 21347 net.cpp:148] Top shape: 16 32 56 56 (1605632)
I0624 17:04:37.952199 21347 net.cpp:156] Memory required for data: 260112576
I0624 17:04:37.952204 21347 layer_factory.hpp:77] Creating layer scale2_2
I0624 17:04:37.952211 21347 net.cpp:91] Creating Layer scale2_2
I0624 17:04:37.952214 21347 net.cpp:425] scale2_2 <- conv2_2
I0624 17:04:37.952217 21347 net.cpp:386] scale2_2 -> conv2_2 (in-place)
I0624 17:04:37.952250 21347 layer_factory.hpp:77] Creating layer scale2_2
I0624 17:04:37.952332 21347 net.cpp:141] Setting up scale2_2
I0624 17:04:37.952340 21347 net.cpp:148] Top shape: 16 32 56 56 (1605632)
I0624 17:04:37.952342 21347 net.cpp:156] Memory required for data: 266535104
I0624 17:04:37.952347 21347 layer_factory.hpp:77] Creating layer relu2_2
I0624 17:04:37.952352 21347 net.cpp:91] Creating Layer relu2_2
I0624 17:04:37.952353 21347 net.cpp:425] relu2_2 <- conv2_2
I0624 17:04:37.952356 21347 net.cpp:386] relu2_2 -> conv2_2 (in-place)
I0624 17:04:37.952704 21347 net.cpp:141] Setting up relu2_2
I0624 17:04:37.952714 21347 net.cpp:148] Top shape: 16 32 56 56 (1605632)
I0624 17:04:37.952718 21347 net.cpp:156] Memory required for data: 272957632
I0624 17:04:37.952720 21347 layer_factory.hpp:77] Creating layer pool2
I0624 17:04:37.952735 21347 net.cpp:91] Creating Layer pool2
I0624 17:04:37.952739 21347 net.cpp:425] pool2 <- conv2_2
I0624 17:04:37.952744 21347 net.cpp:399] pool2 -> pool2
I0624 17:04:37.952778 21347 net.cpp:141] Setting up pool2
I0624 17:04:37.952782 21347 net.cpp:148] Top shape: 16 32 28 28 (401408)
I0624 17:04:37.952785 21347 net.cpp:156] Memory required for data: 274563264
I0624 17:04:37.952786 21347 layer_factory.hpp:77] Creating layer conv3_1
I0624 17:04:37.952795 21347 net.cpp:91] Creating Layer conv3_1
I0624 17:04:37.952797 21347 net.cpp:425] conv3_1 <- pool2
I0624 17:04:37.952802 21347 net.cpp:399] conv3_1 -> conv3_1
I0624 17:04:37.953605 21347 net.cpp:141] Setting up conv3_1
I0624 17:04:37.953619 21347 net.cpp:148] Top shape: 16 32 28 28 (401408)
I0624 17:04:37.953620 21347 net.cpp:156] Memory required for data: 276168896
I0624 17:04:37.953625 21347 layer_factory.hpp:77] Creating layer bn3_1
I0624 17:04:37.953632 21347 net.cpp:91] Creating Layer bn3_1
I0624 17:04:37.953635 21347 net.cpp:425] bn3_1 <- conv3_1
I0624 17:04:37.953640 21347 net.cpp:386] bn3_1 -> conv3_1 (in-place)
I0624 17:04:37.954898 21347 net.cpp:141] Setting up bn3_1
I0624 17:04:37.954910 21347 net.cpp:148] Top shape: 16 32 28 28 (401408)
I0624 17:04:37.954911 21347 net.cpp:156] Memory required for data: 277774528
I0624 17:04:37.954918 21347 layer_factory.hpp:77] Creating layer scale3_1
I0624 17:04:37.954924 21347 net.cpp:91] Creating Layer scale3_1
I0624 17:04:37.954927 21347 net.cpp:425] scale3_1 <- conv3_1
I0624 17:04:37.954932 21347 net.cpp:386] scale3_1 -> conv3_1 (in-place)
I0624 17:04:37.954967 21347 layer_factory.hpp:77] Creating layer scale3_1
I0624 17:04:37.955055 21347 net.cpp:141] Setting up scale3_1
I0624 17:04:37.955062 21347 net.cpp:148] Top shape: 16 32 28 28 (401408)
I0624 17:04:37.955065 21347 net.cpp:156] Memory required for data: 279380160
I0624 17:04:37.955070 21347 layer_factory.hpp:77] Creating layer relu3_1
I0624 17:04:37.955075 21347 net.cpp:91] Creating Layer relu3_1
I0624 17:04:37.955077 21347 net.cpp:425] relu3_1 <- conv3_1
I0624 17:04:37.955080 21347 net.cpp:386] relu3_1 -> conv3_1 (in-place)
I0624 17:04:37.955222 21347 net.cpp:141] Setting up relu3_1
I0624 17:04:37.955231 21347 net.cpp:148] Top shape: 16 32 28 28 (401408)
I0624 17:04:37.955235 21347 net.cpp:156] Memory required for data: 280985792
I0624 17:04:37.955236 21347 layer_factory.hpp:77] Creating layer conv3_2
I0624 17:04:37.955245 21347 net.cpp:91] Creating Layer conv3_2
I0624 17:04:37.955248 21347 net.cpp:425] conv3_2 <- conv3_1
I0624 17:04:37.955252 21347 net.cpp:399] conv3_2 -> conv3_2
I0624 17:04:37.956069 21347 net.cpp:141] Setting up conv3_2
I0624 17:04:37.956084 21347 net.cpp:148] Top shape: 16 32 28 28 (401408)
I0624 17:04:37.956085 21347 net.cpp:156] Memory required for data: 282591424
I0624 17:04:37.956089 21347 layer_factory.hpp:77] Creating layer bn3_2
I0624 17:04:37.956095 21347 net.cpp:91] Creating Layer bn3_2
I0624 17:04:37.956099 21347 net.cpp:425] bn3_2 <- conv3_2
I0624 17:04:37.956104 21347 net.cpp:386] bn3_2 -> conv3_2 (in-place)
I0624 17:04:37.956246 21347 net.cpp:141] Setting up bn3_2
I0624 17:04:37.956254 21347 net.cpp:148] Top shape: 16 32 28 28 (401408)
I0624 17:04:37.956256 21347 net.cpp:156] Memory required for data: 284197056
I0624 17:04:37.956266 21347 layer_factory.hpp:77] Creating layer scale3_2
I0624 17:04:37.956271 21347 net.cpp:91] Creating Layer scale3_2
I0624 17:04:37.956274 21347 net.cpp:425] scale3_2 <- conv3_2
I0624 17:04:37.956279 21347 net.cpp:386] scale3_2 -> conv3_2 (in-place)
I0624 17:04:37.956311 21347 layer_factory.hpp:77] Creating layer scale3_2
I0624 17:04:37.956398 21347 net.cpp:141] Setting up scale3_2
I0624 17:04:37.956404 21347 net.cpp:148] Top shape: 16 32 28 28 (401408)
I0624 17:04:37.956406 21347 net.cpp:156] Memory required for data: 285802688
I0624 17:04:37.956410 21347 layer_factory.hpp:77] Creating layer relu3_2
I0624 17:04:37.956416 21347 net.cpp:91] Creating Layer relu3_2
I0624 17:04:37.956418 21347 net.cpp:425] relu3_2 <- conv3_2
I0624 17:04:37.956421 21347 net.cpp:386] relu3_2 -> conv3_2 (in-place)
I0624 17:04:37.956564 21347 net.cpp:141] Setting up relu3_2
I0624 17:04:37.956573 21347 net.cpp:148] Top shape: 16 32 28 28 (401408)
I0624 17:04:37.956576 21347 net.cpp:156] Memory required for data: 287408320
I0624 17:04:37.956578 21347 layer_factory.hpp:77] Creating layer pool3
I0624 17:04:37.956584 21347 net.cpp:91] Creating Layer pool3
I0624 17:04:37.956588 21347 net.cpp:425] pool3 <- conv3_2
I0624 17:04:37.956591 21347 net.cpp:399] pool3 -> pool3
I0624 17:04:37.956624 21347 net.cpp:141] Setting up pool3
I0624 17:04:37.956629 21347 net.cpp:148] Top shape: 16 32 14 14 (100352)
I0624 17:04:37.956630 21347 net.cpp:156] Memory required for data: 287809728
I0624 17:04:37.956634 21347 layer_factory.hpp:77] Creating layer conv4_1
I0624 17:04:37.956641 21347 net.cpp:91] Creating Layer conv4_1
I0624 17:04:37.956645 21347 net.cpp:425] conv4_1 <- pool3
I0624 17:04:37.956648 21347 net.cpp:399] conv4_1 -> conv4_1
I0624 17:04:37.958631 21347 net.cpp:141] Setting up conv4_1
I0624 17:04:37.958643 21347 net.cpp:148] Top shape: 16 64 14 14 (200704)
I0624 17:04:37.958645 21347 net.cpp:156] Memory required for data: 288612544
I0624 17:04:37.958649 21347 layer_factory.hpp:77] Creating layer bn4_1
I0624 17:04:37.958657 21347 net.cpp:91] Creating Layer bn4_1
I0624 17:04:37.958660 21347 net.cpp:425] bn4_1 <- conv4_1
I0624 17:04:37.958664 21347 net.cpp:386] bn4_1 -> conv4_1 (in-place)
I0624 17:04:37.958809 21347 net.cpp:141] Setting up bn4_1
I0624 17:04:37.958817 21347 net.cpp:148] Top shape: 16 64 14 14 (200704)
I0624 17:04:37.958819 21347 net.cpp:156] Memory required for data: 289415360
I0624 17:04:37.958824 21347 layer_factory.hpp:77] Creating layer scale4_1
I0624 17:04:37.958830 21347 net.cpp:91] Creating Layer scale4_1
I0624 17:04:37.958832 21347 net.cpp:425] scale4_1 <- conv4_1
I0624 17:04:37.958837 21347 net.cpp:386] scale4_1 -> conv4_1 (in-place)
I0624 17:04:37.958870 21347 layer_factory.hpp:77] Creating layer scale4_1
I0624 17:04:37.958957 21347 net.cpp:141] Setting up scale4_1
I0624 17:04:37.958966 21347 net.cpp:148] Top shape: 16 64 14 14 (200704)
I0624 17:04:37.958967 21347 net.cpp:156] Memory required for data: 290218176
I0624 17:04:37.958971 21347 layer_factory.hpp:77] Creating layer relu4_1
I0624 17:04:37.958977 21347 net.cpp:91] Creating Layer relu4_1
I0624 17:04:37.958981 21347 net.cpp:425] relu4_1 <- conv4_1
I0624 17:04:37.958984 21347 net.cpp:386] relu4_1 -> conv4_1 (in-place)
I0624 17:04:37.959117 21347 net.cpp:141] Setting up relu4_1
I0624 17:04:37.959125 21347 net.cpp:148] Top shape: 16 64 14 14 (200704)
I0624 17:04:37.959128 21347 net.cpp:156] Memory required for data: 291020992
I0624 17:04:37.959131 21347 layer_factory.hpp:77] Creating layer conv4_2
I0624 17:04:37.959141 21347 net.cpp:91] Creating Layer conv4_2
I0624 17:04:37.959143 21347 net.cpp:425] conv4_2 <- conv4_1
I0624 17:04:37.959153 21347 net.cpp:399] conv4_2 -> conv4_2
I0624 17:04:37.960141 21347 net.cpp:141] Setting up conv4_2
I0624 17:04:37.960155 21347 net.cpp:148] Top shape: 16 64 14 14 (200704)
I0624 17:04:37.960157 21347 net.cpp:156] Memory required for data: 291823808
I0624 17:04:37.960161 21347 layer_factory.hpp:77] Creating layer bn4_2
I0624 17:04:37.960167 21347 net.cpp:91] Creating Layer bn4_2
I0624 17:04:37.960170 21347 net.cpp:425] bn4_2 <- conv4_2
I0624 17:04:37.960175 21347 net.cpp:386] bn4_2 -> conv4_2 (in-place)
I0624 17:04:37.960322 21347 net.cpp:141] Setting up bn4_2
I0624 17:04:37.960330 21347 net.cpp:148] Top shape: 16 64 14 14 (200704)
I0624 17:04:37.960331 21347 net.cpp:156] Memory required for data: 292626624
I0624 17:04:37.960337 21347 layer_factory.hpp:77] Creating layer scale4_2
I0624 17:04:37.960342 21347 net.cpp:91] Creating Layer scale4_2
I0624 17:04:37.960345 21347 net.cpp:425] scale4_2 <- conv4_2
I0624 17:04:37.960350 21347 net.cpp:386] scale4_2 -> conv4_2 (in-place)
I0624 17:04:37.960381 21347 layer_factory.hpp:77] Creating layer scale4_2
I0624 17:04:37.960465 21347 net.cpp:141] Setting up scale4_2
I0624 17:04:37.960472 21347 net.cpp:148] Top shape: 16 64 14 14 (200704)
I0624 17:04:37.960474 21347 net.cpp:156] Memory required for data: 293429440
I0624 17:04:37.960489 21347 layer_factory.hpp:77] Creating layer relu4_2
I0624 17:04:37.960494 21347 net.cpp:91] Creating Layer relu4_2
I0624 17:04:37.960495 21347 net.cpp:425] relu4_2 <- conv4_2
I0624 17:04:37.960500 21347 net.cpp:386] relu4_2 -> conv4_2 (in-place)
I0624 17:04:37.960634 21347 net.cpp:141] Setting up relu4_2
I0624 17:04:37.960644 21347 net.cpp:148] Top shape: 16 64 14 14 (200704)
I0624 17:04:37.960647 21347 net.cpp:156] Memory required for data: 294232256
I0624 17:04:37.960649 21347 layer_factory.hpp:77] Creating layer pool4
I0624 17:04:37.960654 21347 net.cpp:91] Creating Layer pool4
I0624 17:04:37.960657 21347 net.cpp:425] pool4 <- conv4_2
I0624 17:04:37.960661 21347 net.cpp:399] pool4 -> pool4
I0624 17:04:37.960695 21347 net.cpp:141] Setting up pool4
I0624 17:04:37.960700 21347 net.cpp:148] Top shape: 16 64 7 7 (50176)
I0624 17:04:37.960702 21347 net.cpp:156] Memory required for data: 294432960
I0624 17:04:37.960705 21347 layer_factory.hpp:77] Creating layer conv5_1
I0624 17:04:37.960711 21347 net.cpp:91] Creating Layer conv5_1
I0624 17:04:37.960714 21347 net.cpp:425] conv5_1 <- pool4
I0624 17:04:37.960721 21347 net.cpp:399] conv5_1 -> conv5_1
I0624 17:04:37.961686 21347 net.cpp:141] Setting up conv5_1
I0624 17:04:37.961699 21347 net.cpp:148] Top shape: 16 64 7 7 (50176)
I0624 17:04:37.961701 21347 net.cpp:156] Memory required for data: 294633664
I0624 17:04:37.961706 21347 layer_factory.hpp:77] Creating layer bn5_1
I0624 17:04:37.961714 21347 net.cpp:91] Creating Layer bn5_1
I0624 17:04:37.961716 21347 net.cpp:425] bn5_1 <- conv5_1
I0624 17:04:37.961721 21347 net.cpp:386] bn5_1 -> conv5_1 (in-place)
I0624 17:04:37.961866 21347 net.cpp:141] Setting up bn5_1
I0624 17:04:37.961874 21347 net.cpp:148] Top shape: 16 64 7 7 (50176)
I0624 17:04:37.961875 21347 net.cpp:156] Memory required for data: 294834368
I0624 17:04:37.961881 21347 layer_factory.hpp:77] Creating layer scale5_1
I0624 17:04:37.961887 21347 net.cpp:91] Creating Layer scale5_1
I0624 17:04:37.961890 21347 net.cpp:425] scale5_1 <- conv5_1
I0624 17:04:37.961894 21347 net.cpp:386] scale5_1 -> conv5_1 (in-place)
I0624 17:04:37.961927 21347 layer_factory.hpp:77] Creating layer scale5_1
I0624 17:04:37.962013 21347 net.cpp:141] Setting up scale5_1
I0624 17:04:37.962019 21347 net.cpp:148] Top shape: 16 64 7 7 (50176)
I0624 17:04:37.962021 21347 net.cpp:156] Memory required for data: 295035072
I0624 17:04:37.962025 21347 layer_factory.hpp:77] Creating layer relu5_1
I0624 17:04:37.962029 21347 net.cpp:91] Creating Layer relu5_1
I0624 17:04:37.962033 21347 net.cpp:425] relu5_1 <- conv5_1
I0624 17:04:37.962036 21347 net.cpp:386] relu5_1 -> conv5_1 (in-place)
I0624 17:04:37.962396 21347 net.cpp:141] Setting up relu5_1
I0624 17:04:37.962409 21347 net.cpp:148] Top shape: 16 64 7 7 (50176)
I0624 17:04:37.962410 21347 net.cpp:156] Memory required for data: 295235776
I0624 17:04:37.962414 21347 layer_factory.hpp:77] Creating layer conv5_2
I0624 17:04:37.962424 21347 net.cpp:91] Creating Layer conv5_2
I0624 17:04:37.962426 21347 net.cpp:425] conv5_2 <- conv5_1
I0624 17:04:37.962431 21347 net.cpp:399] conv5_2 -> conv5_2
I0624 17:04:37.963405 21347 net.cpp:141] Setting up conv5_2
I0624 17:04:37.963418 21347 net.cpp:148] Top shape: 16 64 7 7 (50176)
I0624 17:04:37.963419 21347 net.cpp:156] Memory required for data: 295436480
I0624 17:04:37.963424 21347 layer_factory.hpp:77] Creating layer bn5_2
I0624 17:04:37.963430 21347 net.cpp:91] Creating Layer bn5_2
I0624 17:04:37.963433 21347 net.cpp:425] bn5_2 <- conv5_2
I0624 17:04:37.963438 21347 net.cpp:386] bn5_2 -> conv5_2 (in-place)
I0624 17:04:37.963592 21347 net.cpp:141] Setting up bn5_2
I0624 17:04:37.963598 21347 net.cpp:148] Top shape: 16 64 7 7 (50176)
I0624 17:04:37.963600 21347 net.cpp:156] Memory required for data: 295637184
I0624 17:04:37.963606 21347 layer_factory.hpp:77] Creating layer scale5_2
I0624 17:04:37.963613 21347 net.cpp:91] Creating Layer scale5_2
I0624 17:04:37.963615 21347 net.cpp:425] scale5_2 <- conv5_2
I0624 17:04:37.963619 21347 net.cpp:386] scale5_2 -> conv5_2 (in-place)
I0624 17:04:37.963665 21347 layer_factory.hpp:77] Creating layer scale5_2
I0624 17:04:37.963752 21347 net.cpp:141] Setting up scale5_2
I0624 17:04:37.963758 21347 net.cpp:148] Top shape: 16 64 7 7 (50176)
I0624 17:04:37.963760 21347 net.cpp:156] Memory required for data: 295837888
I0624 17:04:37.963764 21347 layer_factory.hpp:77] Creating layer relu5_2
I0624 17:04:37.963770 21347 net.cpp:91] Creating Layer relu5_2
I0624 17:04:37.963773 21347 net.cpp:425] relu5_2 <- conv5_2
I0624 17:04:37.963775 21347 net.cpp:386] relu5_2 -> conv5_2 (in-place)
I0624 17:04:37.964128 21347 net.cpp:141] Setting up relu5_2
I0624 17:04:37.964138 21347 net.cpp:148] Top shape: 16 64 7 7 (50176)
I0624 17:04:37.964141 21347 net.cpp:156] Memory required for data: 296038592
I0624 17:04:37.964145 21347 layer_factory.hpp:77] Creating layer pool5
I0624 17:04:37.964150 21347 net.cpp:91] Creating Layer pool5
I0624 17:04:37.964154 21347 net.cpp:425] pool5 <- conv5_2
I0624 17:04:37.964159 21347 net.cpp:399] pool5 -> pool5
I0624 17:04:37.964314 21347 net.cpp:141] Setting up pool5
I0624 17:04:37.964324 21347 net.cpp:148] Top shape: 16 64 1 1 (1024)
I0624 17:04:37.964328 21347 net.cpp:156] Memory required for data: 296042688
I0624 17:04:37.964330 21347 layer_factory.hpp:77] Creating layer fc2
I0624 17:04:37.964339 21347 net.cpp:91] Creating Layer fc2
I0624 17:04:37.964342 21347 net.cpp:425] fc2 <- pool5
I0624 17:04:37.964345 21347 net.cpp:399] fc2 -> fc2
I0624 17:04:37.964428 21347 net.cpp:141] Setting up fc2
I0624 17:04:37.964435 21347 net.cpp:148] Top shape: 16 2 (32)
I0624 17:04:37.964437 21347 net.cpp:156] Memory required for data: 296042816
I0624 17:04:37.964442 21347 layer_factory.hpp:77] Creating layer fc2_fc2_0_split
I0624 17:04:37.964447 21347 net.cpp:91] Creating Layer fc2_fc2_0_split
I0624 17:04:37.964449 21347 net.cpp:425] fc2_fc2_0_split <- fc2
I0624 17:04:37.964453 21347 net.cpp:399] fc2_fc2_0_split -> fc2_fc2_0_split_0
I0624 17:04:37.964458 21347 net.cpp:399] fc2_fc2_0_split -> fc2_fc2_0_split_1
I0624 17:04:37.964486 21347 net.cpp:141] Setting up fc2_fc2_0_split
I0624 17:04:37.964490 21347 net.cpp:148] Top shape: 16 2 (32)
I0624 17:04:37.964493 21347 net.cpp:148] Top shape: 16 2 (32)
I0624 17:04:37.964495 21347 net.cpp:156] Memory required for data: 296043072
I0624 17:04:37.964498 21347 layer_factory.hpp:77] Creating layer loss
I0624 17:04:37.964505 21347 net.cpp:91] Creating Layer loss
I0624 17:04:37.964509 21347 net.cpp:425] loss <- fc2_fc2_0_split_0
I0624 17:04:37.964511 21347 net.cpp:425] loss <- label_data_1_split_0
I0624 17:04:37.964515 21347 net.cpp:399] loss -> loss
…
