…
I0624 21:08:44.461694 23871 net.cpp:313] The NetState phase (0) differed from the phase (1) specified by a rule in layer data
I0624 21:08:44.461936 23871 net.cpp:49] Initializing net from parameters: 
name: "BPnet"
state {
  phase: TRAIN
}
layer {
  name: "data"
  type: "Data"
  top: "data"
  top: "label"
  include {
    phase: TRAIN
  }
  transform_param {
    mirror: false
    mean_value: 100
    crop_h: 224
    crop_w: 288
    scale_jitter_range: 0.1
    contrast_jitter_range: 0.1
  }
  data_param {
    source: "data/train_lmdb"
    batch_size: 32
    backend: LMDB
  }
}
layer {
  name: "conv1_1"
  type: "Convolution"
  bottom: "data"
  top: "conv1_1"
  param {
    lr_mult: 1
    decay_mult: 1
  }
  convolution_param {
    num_output: 32
    bias_term: false
    pad: 3
    kernel_size: 7
    stride: 2
    weight_filler {
      type: "xavier"
    }
  }
}
layer {
  name: "bn1_1"
  type: "BatchNorm"
  bottom: "conv1_1"
  top: "conv1_1"
  param {
    lr_mult: 0
  }
  param {
    lr_mult: 0
  }
  param {
    lr_mult: 0
  }
  batch_norm_param {
    use_global_stats: false
  }
}
layer {
  name: "scale1_1"
  type: "Scale"
  bottom: "conv1_1"
  top: "conv1_1"
  param {
    lr_mult: 1
    decay_mult: 1
  }
  param {
    lr_mult: 1
    decay_mult: 1
  }
  scale_param {
    bias_term: true
    bias_filler {
      type: "constant"
      value: 0
    }
  }
}
layer {
  name: "relu1_1"
  type: "ReLU"
  bottom: "conv1_1"
  top: "conv1_1"
}
layer {
  name: "conv1_2"
  type: "Convolution"
  bottom: "conv1_1"
  top: "conv1_2"
  param {
    lr_mult: 1
    decay_mult: 1
  }
  convolution_param {
    num_output: 32
    bias_term: false
    pad: 1
    kernel_size: 3
    weight_filler {
      type: "xavier"
    }
  }
}
layer {
  name: "bn1_2"
  type: "BatchNorm"
  bottom: "conv1_2"
  top: "conv1_2"
  param {
    lr_mult: 0
  }
  param {
    lr_mult: 0
  }
  param {
    lr_mult: 0
  }
  batch_norm_param {
    use_global_stats: false
  }
}
layer {
  name: "scale1_2"
  type: "Scale"
  bottom: "conv1_2"
  top: "conv1_2"
  param {
    lr_mult: 1
    decay_mult: 1
  }
  param {
    lr_mult: 1
    decay_mult: 1
  }
  scale_param {
    bias_term: true
    bias_filler {
      type: "constant"
      value: 0
    }
  }
}
layer {
  name: "relu1_2"
  type: "ReLU"
  bottom: "conv1_2"
  top: "conv1_2"
}
layer {
  name: "pool1"
  type: "Pooling"
  bottom: "conv1_2"
  top: "pool1"
  pooling_param {
    pool: MAX
    kernel_size: 2
    stride: 2
  }
}
layer {
  name: "conv2_1"
  type: "Convolution"
  bottom: "pool1"
  top: "conv2_1"
  param {
    lr_mult: 1
    decay_mult: 1
  }
  convolution_param {
    num_output: 64
    bias_term: false
    pad: 1
    kernel_size: 3
    weight_filler {
      type: "xavier"
    }
  }
}
layer {
  name: "bn2_1"
  type: "BatchNorm"
  bottom: "conv2_1"
  top: "conv2_1"
  param {
    lr_mult: 0
  }
  param {
    lr_mult: 0
  }
  param {
    lr_mult: 0
  }
  batch_norm_param {
    use_global_stats: false
  }
}
layer {
  name: "scale2_1"
  type: "Scale"
  bottom: "conv2_1"
  top: "conv2_1"
  param {
    lr_mult: 1
    decay_mult: 1
  }
  param {
    lr_mult: 1
    decay_mult: 1
  }
  scale_param {
    bias_term: true
    bias_filler {
      type: "constant"
      value: 0
    }
  }
}
layer {
  name: "relu2_1"
  type: "ReLU"
  bottom: "conv2_1"
  top: "conv2_1"
}
layer {
  name: "conv2_2"
  type: "Convolution"
  bottom: "conv2_1"
  top: "conv2_2"
  param {
    lr_mult: 1
    decay_mult: 1
  }
  convolution_param {
    num_output: 64
    bias_term: false
    pad: 1
    kernel_size: 3
    weight_filler {
      type: "xavier"
    }
  }
}
layer {
  name: "bn2_2"
  type: "BatchNorm"
  bottom: "conv2_2"
  top: "conv2_2"
  param {
    lr_mult: 0
  }
  param {
    lr_mult: 0
  }
  param {
    lr_mult: 0
  }
  batch_norm_param {
    use_global_stats: false
  }
}
layer {
  name: "scale2_2"
  type: "Scale"
  bottom: "conv2_2"
  top: "conv2_2"
  param {
    lr_mult: 1
    decay_mult: 1
  }
  param {
    lr_mult: 1
    decay_mult: 1
  }
  scale_param {
    bias_term: true
    bias_filler {
      type: "constant"
      value: 0
    }
  }
}
layer {
  name: "relu2_2"
  type: "ReLU"
  bottom: "conv2_2"
  top: "conv2_2"
}
layer {
  name: "pool2"
  type: "Pooling"
  bottom: "conv2_2"
  top: "pool2"
  pooling_param {
    pool: MAX
    kernel_size: 2
    stride: 2
  }
}
layer {
  name: "conv3_1"
  type: "Convolution"
  bottom: "pool2"
  top: "conv3_1"
  param {
    lr_mult: 1
    decay_mult: 1
  }
  convolution_param {
    num_output: 128
    bias_term: false
    pad: 1
    kernel_size: 3
    weight_filler {
      type: "xavier"
    }
  }
}
layer {
  name: "bn3_1"
  type: "BatchNorm"
  bottom: "conv3_1"
  top: "conv3_1"
  param {
    lr_mult: 0
  }
  param {
    lr_mult: 0
  }
  param {
    lr_mult: 0
  }
  batch_norm_param {
    use_global_stats: false
  }
}
layer {
  name: "scale3_1"
  type: "Scale"
  bottom: "conv3_1"
  top: "conv3_1"
  param {
    lr_mult: 1
    decay_mult: 1
  }
  param {
    lr_mult: 1
    decay_mult: 1
  }
  scale_param {
    bias_term: true
    bias_filler {
      type: "constant"
      value: 0
    }
  }
}
layer {
  name: "relu3_1"
  type: "ReLU"
  bottom: "conv3_1"
  top: "conv3_1"
}
layer {
  name: "conv3_2"
  type: "Convolution"
  bottom: "conv3_1"
  top: "conv3_2"
  param {
    lr_mult: 1
    decay_mult: 1
  }
  convolution_param {
    num_output: 128
    bias_term: false
    pad: 1
    kernel_size: 3
    weight_filler {
      type: "xavier"
    }
  }
}
layer {
  name: "bn3_2"
  type: "BatchNorm"
  bottom: "conv3_2"
  top: "conv3_2"
  param {
    lr_mult: 0
  }
  param {
    lr_mult: 0
  }
  param {
    lr_mult: 0
  }
  batch_norm_param {
    use_global_stats: false
  }
}
layer {
  name: "scale3_2"
  type: "Scale"
  bottom: "conv3_2"
  top: "conv3_2"
  param {
    lr_mult: 1
    decay_mult: 1
  }
  param {
    lr_mult: 1
    decay_mult: 1
  }
  scale_param {
    bias_term: true
    bias_filler {
      type: "constant"
      value: 0
    }
  }
}
layer {
  name: "relu3_2"
  type: "ReLU"
  bottom: "conv3_2"
  top: "conv3_2"
}
layer {
  name: "pool3"
  type: "Pooling"
  bottom: "conv3_2"
  top: "pool3"
  pooling_param {
    pool: MAX
    kernel_size: 2
    stride: 2
  }
}
layer {
  name: "conv4_1"
  type: "Convolution"
  bottom: "pool3"
  top: "conv4_1"
  param {
    lr_mult: 1
    decay_mult: 1
  }
  convolution_param {
    num_output: 256
    bias_term: false
    pad: 1
    kernel_size: 3
    weight_filler {
      type: "xavier"
    }
  }
}
layer {
  name: "bn4_1"
  type: "BatchNorm"
  bottom: "conv4_1"
  top: "conv4_1"
  param {
    lr_mult: 0
  }
  param {
    lr_mult: 0
  }
  param {
    lr_mult: 0
  }
  batch_norm_param {
    use_global_stats: false
  }
}
layer {
  name: "scale4_1"
  type: "Scale"
  bottom: "conv4_1"
  top: "conv4_1"
  param {
    lr_mult: 1
    decay_mult: 1
  }
  param {
    lr_mult: 1
    decay_mult: 1
  }
  scale_param {
    bias_term: true
    bias_filler {
      type: "constant"
      value: 0
    }
  }
}
layer {
  name: "relu4_1"
  type: "ReLU"
  bottom: "conv4_1"
  top: "conv4_1"
}
layer {
  name: "conv4_2"
  type: "Convolution"
  bottom: "conv4_1"
  top: "conv4_2"
  param {
    lr_mult: 1
    decay_mult: 1
  }
  convolution_param {
    num_output: 256
    bias_term: false
    pad: 1
    kernel_size: 3
    weight_filler {
      type: "xavier"
    }
  }
}
layer {
  name: "bn4_2"
  type: "BatchNorm"
  bottom: "conv4_2"
  top: "conv4_2"
  param {
    lr_mult: 0
  }
  param {
    lr_mult: 0
  }
  param {
    lr_mult: 0
  }
  batch_norm_param {
    use_global_stats: false
  }
}
layer {
  name: "scale4_2"
  type: "Scale"
  bottom: "conv4_2"
  top: "conv4_2"
  param {
    lr_mult: 1
    decay_mult: 1
  }
  param {
    lr_mult: 1
    decay_mult: 1
  }
  scale_param {
    bias_term: true
    bias_filler {
      type: "constant"
      value: 0
    }
  }
}
layer {
  name: "relu4_2"
  type: "ReLU"
  bottom: "conv4_2"
  top: "conv4_2"
}
layer {
  name: "pool4"
  type: "Pooling"
  bottom: "conv4_2"
  top: "pool4"
  pooling_param {
    pool: MAX
    kernel_size: 2
    stride: 2
  }
}
layer {
  name: "conv5_1"
  type: "Convolution"
  bottom: "pool4"
  top: "conv5_1"
  param {
    lr_mult: 1
    decay_mult: 1
  }
  convolution_param {
    num_output: 256
    bias_term: false
    pad: 1
    kernel_size: 3
    weight_filler {
      type: "xavier"
    }
  }
}
layer {
  name: "bn5_1"
  type: "BatchNorm"
  bottom: "conv5_1"
  top: "conv5_1"
  param {
    lr_mult: 0
  }
  param {
    lr_mult: 0
  }
  param {
    lr_mult: 0
  }
  batch_norm_param {
    use_global_stats: false
  }
}
layer {
  name: "scale5_1"
  type: "Scale"
  bottom: "conv5_1"
  top: "conv5_1"
  param {
    lr_mult: 1
    decay_mult: 1
  }
  param {
    lr_mult: 1
    decay_mult: 1
  }
  scale_param {
    bias_term: true
    bias_filler {
      type: "constant"
      value: 0
    }
  }
}
layer {
  name: "relu5_1"
  type: "ReLU"
  bottom: "conv5_1"
  top: "conv5_1"
}
layer {
  name: "conv5_2"
  type: "Convolution"
  bottom: "conv5_1"
  top: "conv5_2"
  param {
    lr_mult: 1
    decay_mult: 1
  }
  convolution_param {
    num_output: 256
    bias_term: false
    pad: 1
    kernel_size: 3
    weight_filler {
      type: "xavier"
    }
  }
}
layer {
  name: "bn5_2"
  type: "BatchNorm"
  bottom: "conv5_2"
  top: "conv5_2"
  param {
    lr_mult: 0
  }
  param {
    lr_mult: 0
  }
  param {
    lr_mult: 0
  }
  batch_norm_param {
    use_global_stats: false
  }
}
layer {
  name: "scale5_2"
  type: "Scale"
  bottom: "conv5_2"
  top: "conv5_2"
  param {
    lr_mult: 1
    decay_mult: 1
  }
  param {
    lr_mult: 1
    decay_mult: 1
  }
  scale_param {
    bias_term: true
    bias_filler {
      type: "constant"
      value: 0
    }
  }
}
layer {
  name: "relu5_2"
  type: "ReLU"
  bottom: "conv5_2"
  top: "conv5_2"
}
layer {
  name: "pool5"
  type: "Pooling"
  bottom: "conv5_2"
  top: "pool5"
  pooling_param {
    pool: AVE
    stride: 1
    kernel_h: 7
    kernel_w: 9
  }
}
layer {
  name: "fc2"
  type: "InnerProduct"
  bottom: "pool5"
  top: "fc2"
  inner_product_param {
    num_output: 2
  }
}
layer {
  name: "loss"
  type: "SoftmaxWithLoss"
  bottom: "fc2"
  bottom: "label"
  top: "loss"
}
layer {
  name: "accuracy"
  type: "Accuracy"
  bottom: "fc2"
  bottom: "label"
  top: "accuracy"
}
I0624 21:08:44.462100 23871 layer_factory.hpp:77] Creating layer data
I0624 21:08:44.462517 23871 net.cpp:91] Creating Layer data
I0624 21:08:44.462529 23871 net.cpp:399] data -> data
I0624 21:08:44.462555 23871 net.cpp:399] data -> label
I0624 21:08:44.463629 23875 db_lmdb.cpp:35] Opened lmdb data/train_lmdb
I0624 21:08:44.487603 23871 data_layer.cpp:42] output data size: 32,3,224,288
I0624 21:08:44.539222 23871 net.cpp:141] Setting up data
I0624 21:08:44.539252 23871 net.cpp:148] Top shape: 32 3 224 288 (6193152)
I0624 21:08:44.539257 23871 net.cpp:148] Top shape: 32 (32)
I0624 21:08:44.539259 23871 net.cpp:156] Memory required for data: 24772736
I0624 21:08:44.539268 23871 layer_factory.hpp:77] Creating layer label_data_1_split
I0624 21:08:44.539284 23871 net.cpp:91] Creating Layer label_data_1_split
I0624 21:08:44.539288 23871 net.cpp:425] label_data_1_split <- label
I0624 21:08:44.539297 23871 net.cpp:399] label_data_1_split -> label_data_1_split_0
I0624 21:08:44.539305 23871 net.cpp:399] label_data_1_split -> label_data_1_split_1
I0624 21:08:44.539360 23871 net.cpp:141] Setting up label_data_1_split
I0624 21:08:44.539371 23871 net.cpp:148] Top shape: 32 (32)
I0624 21:08:44.539376 23871 net.cpp:148] Top shape: 32 (32)
I0624 21:08:44.539377 23871 net.cpp:156] Memory required for data: 24772992
I0624 21:08:44.539379 23871 layer_factory.hpp:77] Creating layer conv1_1
I0624 21:08:44.539400 23871 net.cpp:91] Creating Layer conv1_1
I0624 21:08:44.539407 23871 net.cpp:425] conv1_1 <- data
I0624 21:08:44.539433 23871 net.cpp:399] conv1_1 -> conv1_1
I0624 21:08:44.908329 23871 net.cpp:141] Setting up conv1_1
I0624 21:08:44.908362 23871 net.cpp:148] Top shape: 32 32 112 144 (16515072)
I0624 21:08:44.908368 23871 net.cpp:156] Memory required for data: 90833280
I0624 21:08:44.908385 23871 layer_factory.hpp:77] Creating layer bn1_1
I0624 21:08:44.908403 23871 net.cpp:91] Creating Layer bn1_1
I0624 21:08:44.908409 23871 net.cpp:425] bn1_1 <- conv1_1
I0624 21:08:44.908416 23871 net.cpp:386] bn1_1 -> conv1_1 (in-place)
I0624 21:08:44.908627 23871 net.cpp:141] Setting up bn1_1
I0624 21:08:44.908638 23871 net.cpp:148] Top shape: 32 32 112 144 (16515072)
I0624 21:08:44.908643 23871 net.cpp:156] Memory required for data: 156893568
I0624 21:08:44.908655 23871 layer_factory.hpp:77] Creating layer scale1_1
I0624 21:08:44.908668 23871 net.cpp:91] Creating Layer scale1_1
I0624 21:08:44.908674 23871 net.cpp:425] scale1_1 <- conv1_1
I0624 21:08:44.908680 23871 net.cpp:386] scale1_1 -> conv1_1 (in-place)
I0624 21:08:44.908730 23871 layer_factory.hpp:77] Creating layer scale1_1
I0624 21:08:44.908880 23871 net.cpp:141] Setting up scale1_1
I0624 21:08:44.908890 23871 net.cpp:148] Top shape: 32 32 112 144 (16515072)
I0624 21:08:44.908895 23871 net.cpp:156] Memory required for data: 222953856
I0624 21:08:44.908903 23871 layer_factory.hpp:77] Creating layer relu1_1
I0624 21:08:44.908915 23871 net.cpp:91] Creating Layer relu1_1
I0624 21:08:44.908921 23871 net.cpp:425] relu1_1 <- conv1_1
I0624 21:08:44.908926 23871 net.cpp:386] relu1_1 -> conv1_1 (in-place)
I0624 21:08:44.909107 23871 net.cpp:141] Setting up relu1_1
I0624 21:08:44.909119 23871 net.cpp:148] Top shape: 32 32 112 144 (16515072)
I0624 21:08:44.909123 23871 net.cpp:156] Memory required for data: 289014144
I0624 21:08:44.909127 23871 layer_factory.hpp:77] Creating layer conv1_2
I0624 21:08:44.909139 23871 net.cpp:91] Creating Layer conv1_2
I0624 21:08:44.909145 23871 net.cpp:425] conv1_2 <- conv1_1
I0624 21:08:44.909152 23871 net.cpp:399] conv1_2 -> conv1_2
I0624 21:08:44.910352 23871 net.cpp:141] Setting up conv1_2
I0624 21:08:44.910372 23871 net.cpp:148] Top shape: 32 32 112 144 (16515072)
I0624 21:08:44.910377 23871 net.cpp:156] Memory required for data: 355074432
I0624 21:08:44.910382 23871 layer_factory.hpp:77] Creating layer bn1_2
I0624 21:08:44.910392 23871 net.cpp:91] Creating Layer bn1_2
I0624 21:08:44.910398 23871 net.cpp:425] bn1_2 <- conv1_2
I0624 21:08:44.910411 23871 net.cpp:386] bn1_2 -> conv1_2 (in-place)
I0624 21:08:44.910619 23871 net.cpp:141] Setting up bn1_2
I0624 21:08:44.910629 23871 net.cpp:148] Top shape: 32 32 112 144 (16515072)
I0624 21:08:44.910634 23871 net.cpp:156] Memory required for data: 421134720
I0624 21:08:44.910646 23871 layer_factory.hpp:77] Creating layer scale1_2
I0624 21:08:44.910657 23871 net.cpp:91] Creating Layer scale1_2
I0624 21:08:44.910662 23871 net.cpp:425] scale1_2 <- conv1_2
I0624 21:08:44.910668 23871 net.cpp:386] scale1_2 -> conv1_2 (in-place)
I0624 21:08:44.910712 23871 layer_factory.hpp:77] Creating layer scale1_2
I0624 21:08:44.910858 23871 net.cpp:141] Setting up scale1_2
I0624 21:08:44.910868 23871 net.cpp:148] Top shape: 32 32 112 144 (16515072)
I0624 21:08:44.910872 23871 net.cpp:156] Memory required for data: 487195008
I0624 21:08:44.910879 23871 layer_factory.hpp:77] Creating layer relu1_2
I0624 21:08:44.910887 23871 net.cpp:91] Creating Layer relu1_2
I0624 21:08:44.910892 23871 net.cpp:425] relu1_2 <- conv1_2
I0624 21:08:44.910897 23871 net.cpp:386] relu1_2 -> conv1_2 (in-place)
I0624 21:08:44.911082 23871 net.cpp:141] Setting up relu1_2
I0624 21:08:44.911093 23871 net.cpp:148] Top shape: 32 32 112 144 (16515072)
I0624 21:08:44.911098 23871 net.cpp:156] Memory required for data: 553255296
I0624 21:08:44.911101 23871 layer_factory.hpp:77] Creating layer pool1
I0624 21:08:44.911111 23871 net.cpp:91] Creating Layer pool1
I0624 21:08:44.911116 23871 net.cpp:425] pool1 <- conv1_2
I0624 21:08:44.911123 23871 net.cpp:399] pool1 -> pool1
I0624 21:08:44.911190 23871 net.cpp:141] Setting up pool1
I0624 21:08:44.911218 23871 net.cpp:148] Top shape: 32 32 56 72 (4128768)
I0624 21:08:44.911222 23871 net.cpp:156] Memory required for data: 569770368
I0624 21:08:44.911227 23871 layer_factory.hpp:77] Creating layer conv2_1
I0624 21:08:44.911240 23871 net.cpp:91] Creating Layer conv2_1
I0624 21:08:44.911247 23871 net.cpp:425] conv2_1 <- pool1
I0624 21:08:44.911254 23871 net.cpp:399] conv2_1 -> conv2_1
I0624 21:08:44.914175 23871 net.cpp:141] Setting up conv2_1
I0624 21:08:44.914191 23871 net.cpp:148] Top shape: 32 64 56 72 (8257536)
I0624 21:08:44.914196 23871 net.cpp:156] Memory required for data: 602800512
I0624 21:08:44.914203 23871 layer_factory.hpp:77] Creating layer bn2_1
I0624 21:08:44.914216 23871 net.cpp:91] Creating Layer bn2_1
I0624 21:08:44.914222 23871 net.cpp:425] bn2_1 <- conv2_1
I0624 21:08:44.914230 23871 net.cpp:386] bn2_1 -> conv2_1 (in-place)
I0624 21:08:44.915756 23871 net.cpp:141] Setting up bn2_1
I0624 21:08:44.915772 23871 net.cpp:148] Top shape: 32 64 56 72 (8257536)
I0624 21:08:44.915776 23871 net.cpp:156] Memory required for data: 635830656
I0624 21:08:44.915786 23871 layer_factory.hpp:77] Creating layer scale2_1
I0624 21:08:44.915796 23871 net.cpp:91] Creating Layer scale2_1
I0624 21:08:44.915802 23871 net.cpp:425] scale2_1 <- conv2_1
I0624 21:08:44.915812 23871 net.cpp:386] scale2_1 -> conv2_1 (in-place)
I0624 21:08:44.915868 23871 layer_factory.hpp:77] Creating layer scale2_1
I0624 21:08:44.916008 23871 net.cpp:141] Setting up scale2_1
I0624 21:08:44.916018 23871 net.cpp:148] Top shape: 32 64 56 72 (8257536)
I0624 21:08:44.916023 23871 net.cpp:156] Memory required for data: 668860800
I0624 21:08:44.916036 23871 layer_factory.hpp:77] Creating layer relu2_1
I0624 21:08:44.916045 23871 net.cpp:91] Creating Layer relu2_1
I0624 21:08:44.916051 23871 net.cpp:425] relu2_1 <- conv2_1
I0624 21:08:44.916059 23871 net.cpp:386] relu2_1 -> conv2_1 (in-place)
I0624 21:08:44.916752 23871 net.cpp:141] Setting up relu2_1
I0624 21:08:44.916767 23871 net.cpp:148] Top shape: 32 64 56 72 (8257536)
I0624 21:08:44.916771 23871 net.cpp:156] Memory required for data: 701890944
I0624 21:08:44.916776 23871 layer_factory.hpp:77] Creating layer conv2_2
I0624 21:08:44.916788 23871 net.cpp:91] Creating Layer conv2_2
I0624 21:08:44.916795 23871 net.cpp:425] conv2_2 <- conv2_1
I0624 21:08:44.916802 23871 net.cpp:399] conv2_2 -> conv2_2
I0624 21:08:44.918254 23871 net.cpp:141] Setting up conv2_2
I0624 21:08:44.918272 23871 net.cpp:148] Top shape: 32 64 56 72 (8257536)
I0624 21:08:44.918277 23871 net.cpp:156] Memory required for data: 734921088
I0624 21:08:44.918282 23871 layer_factory.hpp:77] Creating layer bn2_2
I0624 21:08:44.918297 23871 net.cpp:91] Creating Layer bn2_2
I0624 21:08:44.918303 23871 net.cpp:425] bn2_2 <- conv2_2
I0624 21:08:44.918309 23871 net.cpp:386] bn2_2 -> conv2_2 (in-place)
I0624 21:08:44.918522 23871 net.cpp:141] Setting up bn2_2
I0624 21:08:44.918534 23871 net.cpp:148] Top shape: 32 64 56 72 (8257536)
I0624 21:08:44.918536 23871 net.cpp:156] Memory required for data: 767951232
I0624 21:08:44.918545 23871 layer_factory.hpp:77] Creating layer scale2_2
I0624 21:08:44.918553 23871 net.cpp:91] Creating Layer scale2_2
I0624 21:08:44.918557 23871 net.cpp:425] scale2_2 <- conv2_2
I0624 21:08:44.918565 23871 net.cpp:386] scale2_2 -> conv2_2 (in-place)
I0624 21:08:44.918607 23871 layer_factory.hpp:77] Creating layer scale2_2
I0624 21:08:44.918736 23871 net.cpp:141] Setting up scale2_2
I0624 21:08:44.918746 23871 net.cpp:148] Top shape: 32 64 56 72 (8257536)
I0624 21:08:44.918751 23871 net.cpp:156] Memory required for data: 800981376
I0624 21:08:44.918757 23871 layer_factory.hpp:77] Creating layer relu2_2
I0624 21:08:44.918766 23871 net.cpp:91] Creating Layer relu2_2
I0624 21:08:44.918769 23871 net.cpp:425] relu2_2 <- conv2_2
I0624 21:08:44.918774 23871 net.cpp:386] relu2_2 -> conv2_2 (in-place)
I0624 21:08:44.919348 23871 net.cpp:141] Setting up relu2_2
I0624 21:08:44.919363 23871 net.cpp:148] Top shape: 32 64 56 72 (8257536)
I0624 21:08:44.919368 23871 net.cpp:156] Memory required for data: 834011520
I0624 21:08:44.919386 23871 layer_factory.hpp:77] Creating layer pool2
I0624 21:08:44.919399 23871 net.cpp:91] Creating Layer pool2
I0624 21:08:44.919402 23871 net.cpp:425] pool2 <- conv2_2
I0624 21:08:44.919409 23871 net.cpp:399] pool2 -> pool2
I0624 21:08:44.919455 23871 net.cpp:141] Setting up pool2
I0624 21:08:44.919464 23871 net.cpp:148] Top shape: 32 64 28 36 (2064384)
I0624 21:08:44.919471 23871 net.cpp:156] Memory required for data: 842269056
I0624 21:08:44.919476 23871 layer_factory.hpp:77] Creating layer conv3_1
I0624 21:08:44.919488 23871 net.cpp:91] Creating Layer conv3_1
I0624 21:08:44.919495 23871 net.cpp:425] conv3_1 <- pool2
I0624 21:08:44.919509 23871 net.cpp:399] conv3_1 -> conv3_1
I0624 21:08:44.922981 23871 net.cpp:141] Setting up conv3_1
I0624 21:08:44.922997 23871 net.cpp:148] Top shape: 32 128 28 36 (4128768)
I0624 21:08:44.923002 23871 net.cpp:156] Memory required for data: 858784128
I0624 21:08:44.923008 23871 layer_factory.hpp:77] Creating layer bn3_1
I0624 21:08:44.923018 23871 net.cpp:91] Creating Layer bn3_1
I0624 21:08:44.923022 23871 net.cpp:425] bn3_1 <- conv3_1
I0624 21:08:44.923028 23871 net.cpp:386] bn3_1 -> conv3_1 (in-place)
I0624 21:08:44.924517 23871 net.cpp:141] Setting up bn3_1
I0624 21:08:44.924533 23871 net.cpp:148] Top shape: 32 128 28 36 (4128768)
I0624 21:08:44.924537 23871 net.cpp:156] Memory required for data: 875299200
I0624 21:08:44.924547 23871 layer_factory.hpp:77] Creating layer scale3_1
I0624 21:08:44.924558 23871 net.cpp:91] Creating Layer scale3_1
I0624 21:08:44.924563 23871 net.cpp:425] scale3_1 <- conv3_1
I0624 21:08:44.924569 23871 net.cpp:386] scale3_1 -> conv3_1 (in-place)
I0624 21:08:44.924618 23871 layer_factory.hpp:77] Creating layer scale3_1
I0624 21:08:44.924739 23871 net.cpp:141] Setting up scale3_1
I0624 21:08:44.924751 23871 net.cpp:148] Top shape: 32 128 28 36 (4128768)
I0624 21:08:44.924753 23871 net.cpp:156] Memory required for data: 891814272
I0624 21:08:44.924760 23871 layer_factory.hpp:77] Creating layer relu3_1
I0624 21:08:44.924768 23871 net.cpp:91] Creating Layer relu3_1
I0624 21:08:44.924774 23871 net.cpp:425] relu3_1 <- conv3_1
I0624 21:08:44.924779 23871 net.cpp:386] relu3_1 -> conv3_1 (in-place)
I0624 21:08:44.924971 23871 net.cpp:141] Setting up relu3_1
I0624 21:08:44.924983 23871 net.cpp:148] Top shape: 32 128 28 36 (4128768)
I0624 21:08:44.924988 23871 net.cpp:156] Memory required for data: 908329344
I0624 21:08:44.924991 23871 layer_factory.hpp:77] Creating layer conv3_2
I0624 21:08:44.925003 23871 net.cpp:91] Creating Layer conv3_2
I0624 21:08:44.925009 23871 net.cpp:425] conv3_2 <- conv3_1
I0624 21:08:44.925014 23871 net.cpp:399] conv3_2 -> conv3_2
I0624 21:08:44.930479 23871 net.cpp:141] Setting up conv3_2
I0624 21:08:44.930510 23871 net.cpp:148] Top shape: 32 128 28 36 (4128768)
I0624 21:08:44.930517 23871 net.cpp:156] Memory required for data: 924844416
I0624 21:08:44.930528 23871 layer_factory.hpp:77] Creating layer bn3_2
I0624 21:08:44.930546 23871 net.cpp:91] Creating Layer bn3_2
I0624 21:08:44.930552 23871 net.cpp:425] bn3_2 <- conv3_2
I0624 21:08:44.930565 23871 net.cpp:386] bn3_2 -> conv3_2 (in-place)
I0624 21:08:44.930932 23871 net.cpp:141] Setting up bn3_2
I0624 21:08:44.930946 23871 net.cpp:148] Top shape: 32 128 28 36 (4128768)
I0624 21:08:44.930953 23871 net.cpp:156] Memory required for data: 941359488
I0624 21:08:44.930977 23871 layer_factory.hpp:77] Creating layer scale3_2
I0624 21:08:44.930994 23871 net.cpp:91] Creating Layer scale3_2
I0624 21:08:44.931000 23871 net.cpp:425] scale3_2 <- conv3_2
I0624 21:08:44.931010 23871 net.cpp:386] scale3_2 -> conv3_2 (in-place)
I0624 21:08:44.931092 23871 layer_factory.hpp:77] Creating layer scale3_2
I0624 21:08:44.931319 23871 net.cpp:141] Setting up scale3_2
I0624 21:08:44.931334 23871 net.cpp:148] Top shape: 32 128 28 36 (4128768)
I0624 21:08:44.931340 23871 net.cpp:156] Memory required for data: 957874560
I0624 21:08:44.931351 23871 layer_factory.hpp:77] Creating layer relu3_2
I0624 21:08:44.931361 23871 net.cpp:91] Creating Layer relu3_2
I0624 21:08:44.931371 23871 net.cpp:425] relu3_2 <- conv3_2
I0624 21:08:44.931406 23871 net.cpp:386] relu3_2 -> conv3_2 (in-place)
I0624 21:08:44.931751 23871 net.cpp:141] Setting up relu3_2
I0624 21:08:44.931769 23871 net.cpp:148] Top shape: 32 128 28 36 (4128768)
I0624 21:08:44.931776 23871 net.cpp:156] Memory required for data: 974389632
I0624 21:08:44.931782 23871 layer_factory.hpp:77] Creating layer pool3
I0624 21:08:44.931794 23871 net.cpp:91] Creating Layer pool3
I0624 21:08:44.931800 23871 net.cpp:425] pool3 <- conv3_2
I0624 21:08:44.931809 23871 net.cpp:399] pool3 -> pool3
I0624 21:08:44.931888 23871 net.cpp:141] Setting up pool3
I0624 21:08:44.931901 23871 net.cpp:148] Top shape: 32 128 14 18 (1032192)
I0624 21:08:44.931907 23871 net.cpp:156] Memory required for data: 978518400
I0624 21:08:44.931912 23871 layer_factory.hpp:77] Creating layer conv4_1
I0624 21:08:44.931929 23871 net.cpp:91] Creating Layer conv4_1
I0624 21:08:44.931937 23871 net.cpp:425] conv4_1 <- pool3
I0624 21:08:44.931951 23871 net.cpp:399] conv4_1 -> conv4_1
I0624 21:08:44.939056 23871 net.cpp:141] Setting up conv4_1
I0624 21:08:44.939090 23871 net.cpp:148] Top shape: 32 256 14 18 (2064384)
I0624 21:08:44.939097 23871 net.cpp:156] Memory required for data: 986775936
I0624 21:08:44.939108 23871 layer_factory.hpp:77] Creating layer bn4_1
I0624 21:08:44.939126 23871 net.cpp:91] Creating Layer bn4_1
I0624 21:08:44.939134 23871 net.cpp:425] bn4_1 <- conv4_1
I0624 21:08:44.939146 23871 net.cpp:386] bn4_1 -> conv4_1 (in-place)
I0624 21:08:44.939523 23871 net.cpp:141] Setting up bn4_1
I0624 21:08:44.939555 23871 net.cpp:148] Top shape: 32 256 14 18 (2064384)
I0624 21:08:44.939561 23871 net.cpp:156] Memory required for data: 995033472
I0624 21:08:44.939575 23871 layer_factory.hpp:77] Creating layer scale4_1
I0624 21:08:44.939590 23871 net.cpp:91] Creating Layer scale4_1
I0624 21:08:44.939596 23871 net.cpp:425] scale4_1 <- conv4_1
I0624 21:08:44.939605 23871 net.cpp:386] scale4_1 -> conv4_1 (in-place)
I0624 21:08:44.939679 23871 layer_factory.hpp:77] Creating layer scale4_1
I0624 21:08:44.939895 23871 net.cpp:141] Setting up scale4_1
I0624 21:08:44.939908 23871 net.cpp:148] Top shape: 32 256 14 18 (2064384)
I0624 21:08:44.939914 23871 net.cpp:156] Memory required for data: 1003291008
I0624 21:08:44.939925 23871 layer_factory.hpp:77] Creating layer relu4_1
I0624 21:08:44.939944 23871 net.cpp:91] Creating Layer relu4_1
I0624 21:08:44.939951 23871 net.cpp:425] relu4_1 <- conv4_1
I0624 21:08:44.939960 23871 net.cpp:386] relu4_1 -> conv4_1 (in-place)
I0624 21:08:44.940302 23871 net.cpp:141] Setting up relu4_1
I0624 21:08:44.940320 23871 net.cpp:148] Top shape: 32 256 14 18 (2064384)
I0624 21:08:44.940326 23871 net.cpp:156] Memory required for data: 1011548544
I0624 21:08:44.940332 23871 layer_factory.hpp:77] Creating layer conv4_2
I0624 21:08:44.940354 23871 net.cpp:91] Creating Layer conv4_2
I0624 21:08:44.940361 23871 net.cpp:425] conv4_2 <- conv4_1
I0624 21:08:44.940373 23871 net.cpp:399] conv4_2 -> conv4_2
I0624 21:08:44.953038 23871 net.cpp:141] Setting up conv4_2
I0624 21:08:44.953073 23871 net.cpp:148] Top shape: 32 256 14 18 (2064384)
I0624 21:08:44.953079 23871 net.cpp:156] Memory required for data: 1019806080
I0624 21:08:44.953090 23871 layer_factory.hpp:77] Creating layer bn4_2
I0624 21:08:44.953109 23871 net.cpp:91] Creating Layer bn4_2
I0624 21:08:44.953117 23871 net.cpp:425] bn4_2 <- conv4_2
I0624 21:08:44.953133 23871 net.cpp:386] bn4_2 -> conv4_2 (in-place)
I0624 21:08:44.953476 23871 net.cpp:141] Setting up bn4_2
I0624 21:08:44.953488 23871 net.cpp:148] Top shape: 32 256 14 18 (2064384)
I0624 21:08:44.953493 23871 net.cpp:156] Memory required for data: 1028063616
I0624 21:08:44.953511 23871 layer_factory.hpp:77] Creating layer scale4_2
I0624 21:08:44.953529 23871 net.cpp:91] Creating Layer scale4_2
I0624 21:08:44.953536 23871 net.cpp:425] scale4_2 <- conv4_2
I0624 21:08:44.953546 23871 net.cpp:386] scale4_2 -> conv4_2 (in-place)
I0624 21:08:44.953624 23871 layer_factory.hpp:77] Creating layer scale4_2
I0624 21:08:44.953814 23871 net.cpp:141] Setting up scale4_2
I0624 21:08:44.953827 23871 net.cpp:148] Top shape: 32 256 14 18 (2064384)
I0624 21:08:44.953855 23871 net.cpp:156] Memory required for data: 1036321152
I0624 21:08:44.953866 23871 layer_factory.hpp:77] Creating layer relu4_2
I0624 21:08:44.953877 23871 net.cpp:91] Creating Layer relu4_2
I0624 21:08:44.953886 23871 net.cpp:425] relu4_2 <- conv4_2
I0624 21:08:44.953896 23871 net.cpp:386] relu4_2 -> conv4_2 (in-place)
I0624 21:08:44.954254 23871 net.cpp:141] Setting up relu4_2
I0624 21:08:44.954277 23871 net.cpp:148] Top shape: 32 256 14 18 (2064384)
I0624 21:08:44.954284 23871 net.cpp:156] Memory required for data: 1044578688
I0624 21:08:44.954290 23871 layer_factory.hpp:77] Creating layer pool4
I0624 21:08:44.954303 23871 net.cpp:91] Creating Layer pool4
I0624 21:08:44.954310 23871 net.cpp:425] pool4 <- conv4_2
I0624 21:08:44.954319 23871 net.cpp:399] pool4 -> pool4
I0624 21:08:44.954399 23871 net.cpp:141] Setting up pool4
I0624 21:08:44.954412 23871 net.cpp:148] Top shape: 32 256 7 9 (516096)
I0624 21:08:44.954417 23871 net.cpp:156] Memory required for data: 1046643072
I0624 21:08:44.954422 23871 layer_factory.hpp:77] Creating layer conv5_1
I0624 21:08:44.954442 23871 net.cpp:91] Creating Layer conv5_1
I0624 21:08:44.954448 23871 net.cpp:425] conv5_1 <- pool4
I0624 21:08:44.954459 23871 net.cpp:399] conv5_1 -> conv5_1
I0624 21:08:44.966456 23871 net.cpp:141] Setting up conv5_1
I0624 21:08:44.966488 23871 net.cpp:148] Top shape: 32 256 7 9 (516096)
I0624 21:08:44.966495 23871 net.cpp:156] Memory required for data: 1048707456
I0624 21:08:44.966506 23871 layer_factory.hpp:77] Creating layer bn5_1
I0624 21:08:44.966522 23871 net.cpp:91] Creating Layer bn5_1
I0624 21:08:44.966531 23871 net.cpp:425] bn5_1 <- conv5_1
I0624 21:08:44.966542 23871 net.cpp:386] bn5_1 -> conv5_1 (in-place)
I0624 21:08:44.966886 23871 net.cpp:141] Setting up bn5_1
I0624 21:08:44.966898 23871 net.cpp:148] Top shape: 32 256 7 9 (516096)
I0624 21:08:44.966902 23871 net.cpp:156] Memory required for data: 1050771840
I0624 21:08:44.966915 23871 layer_factory.hpp:77] Creating layer scale5_1
I0624 21:08:44.966933 23871 net.cpp:91] Creating Layer scale5_1
I0624 21:08:44.966940 23871 net.cpp:425] scale5_1 <- conv5_1
I0624 21:08:44.966948 23871 net.cpp:386] scale5_1 -> conv5_1 (in-place)
I0624 21:08:44.967020 23871 layer_factory.hpp:77] Creating layer scale5_1
I0624 21:08:44.967216 23871 net.cpp:141] Setting up scale5_1
I0624 21:08:44.967229 23871 net.cpp:148] Top shape: 32 256 7 9 (516096)
I0624 21:08:44.967236 23871 net.cpp:156] Memory required for data: 1052836224
I0624 21:08:44.967245 23871 layer_factory.hpp:77] Creating layer relu5_1
I0624 21:08:44.967257 23871 net.cpp:91] Creating Layer relu5_1
I0624 21:08:44.967263 23871 net.cpp:425] relu5_1 <- conv5_1
I0624 21:08:44.967272 23871 net.cpp:386] relu5_1 -> conv5_1 (in-place)
I0624 21:08:44.968086 23871 net.cpp:141] Setting up relu5_1
I0624 21:08:44.968107 23871 net.cpp:148] Top shape: 32 256 7 9 (516096)
I0624 21:08:44.968114 23871 net.cpp:156] Memory required for data: 1054900608
I0624 21:08:44.968121 23871 layer_factory.hpp:77] Creating layer conv5_2
I0624 21:08:44.968138 23871 net.cpp:91] Creating Layer conv5_2
I0624 21:08:44.968147 23871 net.cpp:425] conv5_2 <- conv5_1
I0624 21:08:44.968156 23871 net.cpp:399] conv5_2 -> conv5_2
I0624 21:08:44.978576 23871 net.cpp:141] Setting up conv5_2
I0624 21:08:44.978600 23871 net.cpp:148] Top shape: 32 256 7 9 (516096)
I0624 21:08:44.978605 23871 net.cpp:156] Memory required for data: 1056964992
I0624 21:08:44.978615 23871 layer_factory.hpp:77] Creating layer bn5_2
I0624 21:08:44.978627 23871 net.cpp:91] Creating Layer bn5_2
I0624 21:08:44.978633 23871 net.cpp:425] bn5_2 <- conv5_2
I0624 21:08:44.978641 23871 net.cpp:386] bn5_2 -> conv5_2 (in-place)
I0624 21:08:44.978982 23871 net.cpp:141] Setting up bn5_2
I0624 21:08:44.978998 23871 net.cpp:148] Top shape: 32 256 7 9 (516096)
I0624 21:08:44.979003 23871 net.cpp:156] Memory required for data: 1059029376
I0624 21:08:44.979015 23871 layer_factory.hpp:77] Creating layer scale5_2
I0624 21:08:44.979028 23871 net.cpp:91] Creating Layer scale5_2
I0624 21:08:44.979054 23871 net.cpp:425] scale5_2 <- conv5_2
I0624 21:08:44.979065 23871 net.cpp:386] scale5_2 -> conv5_2 (in-place)
I0624 21:08:44.979133 23871 layer_factory.hpp:77] Creating layer scale5_2
I0624 21:08:44.979346 23871 net.cpp:141] Setting up scale5_2
I0624 21:08:44.979364 23871 net.cpp:148] Top shape: 32 256 7 9 (516096)
I0624 21:08:44.979368 23871 net.cpp:156] Memory required for data: 1061093760
I0624 21:08:44.979378 23871 layer_factory.hpp:77] Creating layer relu5_2
I0624 21:08:44.979387 23871 net.cpp:91] Creating Layer relu5_2
I0624 21:08:44.979393 23871 net.cpp:425] relu5_2 <- conv5_2
I0624 21:08:44.979400 23871 net.cpp:386] relu5_2 -> conv5_2 (in-place)
I0624 21:08:44.980159 23871 net.cpp:141] Setting up relu5_2
I0624 21:08:44.980178 23871 net.cpp:148] Top shape: 32 256 7 9 (516096)
I0624 21:08:44.980183 23871 net.cpp:156] Memory required for data: 1063158144
I0624 21:08:44.980188 23871 layer_factory.hpp:77] Creating layer pool5
I0624 21:08:44.980198 23871 net.cpp:91] Creating Layer pool5
I0624 21:08:44.980203 23871 net.cpp:425] pool5 <- conv5_2
I0624 21:08:44.980212 23871 net.cpp:399] pool5 -> pool5
I0624 21:08:44.980520 23871 net.cpp:141] Setting up pool5
I0624 21:08:44.980536 23871 net.cpp:148] Top shape: 32 256 1 1 (8192)
I0624 21:08:44.980541 23871 net.cpp:156] Memory required for data: 1063190912
I0624 21:08:44.980546 23871 layer_factory.hpp:77] Creating layer fc2
I0624 21:08:44.980564 23871 net.cpp:91] Creating Layer fc2
I0624 21:08:44.980569 23871 net.cpp:425] fc2 <- pool5
I0624 21:08:44.980578 23871 net.cpp:399] fc2 -> fc2
I0624 21:08:44.980758 23871 net.cpp:141] Setting up fc2
I0624 21:08:44.980774 23871 net.cpp:148] Top shape: 32 2 (64)
I0624 21:08:44.980778 23871 net.cpp:156] Memory required for data: 1063191168
I0624 21:08:44.980787 23871 layer_factory.hpp:77] Creating layer fc2_fc2_0_split
I0624 21:08:44.980795 23871 net.cpp:91] Creating Layer fc2_fc2_0_split
I0624 21:08:44.980800 23871 net.cpp:425] fc2_fc2_0_split <- fc2
I0624 21:08:44.980808 23871 net.cpp:399] fc2_fc2_0_split -> fc2_fc2_0_split_0
I0624 21:08:44.980815 23871 net.cpp:399] fc2_fc2_0_split -> fc2_fc2_0_split_1
I0624 21:08:44.980870 23871 net.cpp:141] Setting up fc2_fc2_0_split
I0624 21:08:44.980880 23871 net.cpp:148] Top shape: 32 2 (64)
I0624 21:08:44.980886 23871 net.cpp:148] Top shape: 32 2 (64)
I0624 21:08:44.980890 23871 net.cpp:156] Memory required for data: 1063191680
I0624 21:08:44.980895 23871 layer_factory.hpp:77] Creating layer loss
I0624 21:08:44.980902 23871 net.cpp:91] Creating Layer loss
I0624 21:08:44.980906 23871 net.cpp:425] loss <- fc2_fc2_0_split_0
I0624 21:08:44.980914 23871 net.cpp:425] loss <- label_data_1_split_0
I0624 21:08:44.980921 23871 net.cpp:399] loss -> loss
…
I0624 21:08:44.983324 23871 solver.cpp:181] Creating test net (#0) specified by net file: models/bpnet/train_val.prototxt
I0624 21:08:44.983422 23871 net.cpp:313] The NetState phase (1) differed from the phase (0) specified by a rule in layer data
I0624 21:08:44.983841 23871 net.cpp:49] Initializing net from parameters: 
name: "BPnet"
state {
  phase: TEST
}
layer {
  name: "data"
  type: "Data"
  top: "data"
  top: "label"
  include {
    phase: TEST
  }
  transform_param {
    mirror: false
    mean_value: 100
    crop_h: 224
    crop_w: 288
    contrast_jitter_range: 0.1
  }
  data_param {
    source: "data/val_lmdb"
    batch_size: 64
    backend: LMDB
  }
}
layer {
  name: "conv1_1"
  type: "Convolution"
  bottom: "data"
  top: "conv1_1"
  param {
    lr_mult: 1
    decay_mult: 1
  }
  convolution_param {
    num_output: 32
    bias_term: false
    pad: 3
    kernel_size: 7
    stride: 2
    weight_filler {
      type: "xavier"
    }
  }
}
layer {
  name: "bn1_1"
  type: "BatchNorm"
  bottom: "conv1_1"
  top: "conv1_1"
  param {
    lr_mult: 0
  }
  param {
    lr_mult: 0
  }
  param {
    lr_mult: 0
  }
  batch_norm_param {
    use_global_stats: false
  }
}
layer {
  name: "scale1_1"
  type: "Scale"
  bottom: "conv1_1"
  top: "conv1_1"
  param {
    lr_mult: 1
    decay_mult: 1
  }
  param {
    lr_mult: 1
    decay_mult: 1
  }
  scale_param {
    bias_term: true
    bias_filler {
      type: "constant"
      value: 0
    }
  }
}
layer {
  name: "relu1_1"
  type: "ReLU"
  bottom: "conv1_1"
  top: "conv1_1"
}
layer {
  name: "conv1_2"
  type: "Convolution"
  bottom: "conv1_1"
  top: "conv1_2"
  param {
    lr_mult: 1
    decay_mult: 1
  }
  convolution_param {
    num_output: 32
    bias_term: false
    pad: 1
    kernel_size: 3
    weight_filler {
      type: "xavier"
    }
  }
}
layer {
  name: "bn1_2"
  type: "BatchNorm"
  bottom: "conv1_2"
  top: "conv1_2"
  param {
    lr_mult: 0
  }
  param {
    lr_mult: 0
  }
  param {
    lr_mult: 0
  }
  batch_norm_param {
    use_global_stats: false
  }
}
layer {
  name: "scale1_2"
  type: "Scale"
  bottom: "conv1_2"
  top: "conv1_2"
  param {
    lr_mult: 1
    decay_mult: 1
  }
  param {
    lr_mult: 1
    decay_mult: 1
  }
  scale_param {
    bias_term: true
    bias_filler {
      type: "constant"
      value: 0
    }
  }
}
layer {
  name: "relu1_2"
  type: "ReLU"
  bottom: "conv1_2"
  top: "conv1_2"
}
layer {
  name: "pool1"
  type: "Pooling"
  bottom: "conv1_2"
  top: "pool1"
  pooling_param {
    pool: MAX
    kernel_size: 2
    stride: 2
  }
}
layer {
  name: "conv2_1"
  type: "Convolution"
  bottom: "pool1"
  top: "conv2_1"
  param {
    lr_mult: 1
    decay_mult: 1
  }
  convolution_param {
    num_output: 64
    bias_term: false
    pad: 1
    kernel_size: 3
    weight_filler {
      type: "xavier"
    }
  }
}
layer {
  name: "bn2_1"
  type: "BatchNorm"
  bottom: "conv2_1"
  top: "conv2_1"
  param {
    lr_mult: 0
  }
  param {
    lr_mult: 0
  }
  param {
    lr_mult: 0
  }
  batch_norm_param {
    use_global_stats: false
  }
}
layer {
  name: "scale2_1"
  type: "Scale"
  bottom: "conv2_1"
  top: "conv2_1"
  param {
    lr_mult: 1
    decay_mult: 1
  }
  param {
    lr_mult: 1
    decay_mult: 1
  }
  scale_param {
    bias_term: true
    bias_filler {
      type: "constant"
      value: 0
    }
  }
}
layer {
  name: "relu2_1"
  type: "ReLU"
  bottom: "conv2_1"
  top: "conv2_1"
}
layer {
  name: "conv2_2"
  type: "Convolution"
  bottom: "conv2_1"
  top: "conv2_2"
  param {
    lr_mult: 1
    decay_mult: 1
  }
  convolution_param {
    num_output: 64
    bias_term: false
    pad: 1
    kernel_size: 3
    weight_filler {
      type: "xavier"
    }
  }
}
layer {
  name: "bn2_2"
  type: "BatchNorm"
  bottom: "conv2_2"
  top: "conv2_2"
  param {
    lr_mult: 0
  }
  param {
    lr_mult: 0
  }
  param {
    lr_mult: 0
  }
  batch_norm_param {
    use_global_stats: false
  }
}
layer {
  name: "scale2_2"
  type: "Scale"
  bottom: "conv2_2"
  top: "conv2_2"
  param {
    lr_mult: 1
    decay_mult: 1
  }
  param {
    lr_mult: 1
    decay_mult: 1
  }
  scale_param {
    bias_term: true
    bias_filler {
      type: "constant"
      value: 0
    }
  }
}
layer {
  name: "relu2_2"
  type: "ReLU"
  bottom: "conv2_2"
  top: "conv2_2"
}
layer {
  name: "pool2"
  type: "Pooling"
  bottom: "conv2_2"
  top: "pool2"
  pooling_param {
    pool: MAX
    kernel_size: 2
    stride: 2
  }
}
layer {
  name: "conv3_1"
  type: "Convolution"
  bottom: "pool2"
  top: "conv3_1"
  param {
    lr_mult: 1
    decay_mult: 1
  }
  convolution_param {
    num_output: 128
    bias_term: false
    pad: 1
    kernel_size: 3
    weight_filler {
      type: "xavier"
    }
  }
}
layer {
  name: "bn3_1"
  type: "BatchNorm"
  bottom: "conv3_1"
  top: "conv3_1"
  param {
    lr_mult: 0
  }
  param {
    lr_mult: 0
  }
  param {
    lr_mult: 0
  }
  batch_norm_param {
    use_global_stats: false
  }
}
layer {
  name: "scale3_1"
  type: "Scale"
  bottom: "conv3_1"
  top: "conv3_1"
  param {
    lr_mult: 1
    decay_mult: 1
  }
  param {
    lr_mult: 1
    decay_mult: 1
  }
  scale_param {
    bias_term: true
    bias_filler {
      type: "constant"
      value: 0
    }
  }
}
layer {
  name: "relu3_1"
  type: "ReLU"
  bottom: "conv3_1"
  top: "conv3_1"
}
layer {
  name: "conv3_2"
  type: "Convolution"
  bottom: "conv3_1"
  top: "conv3_2"
  param {
    lr_mult: 1
    decay_mult: 1
  }
  convolution_param {
    num_output: 128
    bias_term: false
    pad: 1
    kernel_size: 3
    weight_filler {
      type: "xavier"
    }
  }
}
layer {
  name: "bn3_2"
  type: "BatchNorm"
  bottom: "conv3_2"
  top: "conv3_2"
  param {
    lr_mult: 0
  }
  param {
    lr_mult: 0
  }
  param {
    lr_mult: 0
  }
  batch_norm_param {
    use_global_stats: false
  }
}
layer {
  name: "scale3_2"
  type: "Scale"
  bottom: "conv3_2"
  top: "conv3_2"
  param {
    lr_mult: 1
    decay_mult: 1
  }
  param {
    lr_mult: 1
    decay_mult: 1
  }
  scale_param {
    bias_term: true
    bias_filler {
      type: "constant"
      value: 0
    }
  }
}
layer {
  name: "relu3_2"
  type: "ReLU"
  bottom: "conv3_2"
  top: "conv3_2"
}
layer {
  name: "pool3"
  type: "Pooling"
  bottom: "conv3_2"
  top: "pool3"
  pooling_param {
    pool: MAX
    kernel_size: 2
    stride: 2
  }
}
layer {
  name: "conv4_1"
  type: "Convolution"
  bottom: "pool3"
  top: "conv4_1"
  param {
    lr_mult: 1
    decay_mult: 1
  }
  convolution_param {
    num_output: 256
    bias_term: false
    pad: 1
    kernel_size: 3
    weight_filler {
      type: "xavier"
    }
  }
}
layer {
  name: "bn4_1"
  type: "BatchNorm"
  bottom: "conv4_1"
  top: "conv4_1"
  param {
    lr_mult: 0
  }
  param {
    lr_mult: 0
  }
  param {
    lr_mult: 0
  }
  batch_norm_param {
    use_global_stats: false
  }
}
layer {
  name: "scale4_1"
  type: "Scale"
  bottom: "conv4_1"
  top: "conv4_1"
  param {
    lr_mult: 1
    decay_mult: 1
  }
  param {
    lr_mult: 1
    decay_mult: 1
  }
  scale_param {
    bias_term: true
    bias_filler {
      type: "constant"
      value: 0
    }
  }
}
layer {
  name: "relu4_1"
  type: "ReLU"
  bottom: "conv4_1"
  top: "conv4_1"
}
layer {
  name: "conv4_2"
  type: "Convolution"
  bottom: "conv4_1"
  top: "conv4_2"
  param {
    lr_mult: 1
    decay_mult: 1
  }
  convolution_param {
    num_output: 256
    bias_term: false
    pad: 1
    kernel_size: 3
    weight_filler {
      type: "xavier"
    }
  }
}
layer {
  name: "bn4_2"
  type: "BatchNorm"
  bottom: "conv4_2"
  top: "conv4_2"
  param {
    lr_mult: 0
  }
  param {
    lr_mult: 0
  }
  param {
    lr_mult: 0
  }
  batch_norm_param {
    use_global_stats: false
  }
}
layer {
  name: "scale4_2"
  type: "Scale"
  bottom: "conv4_2"
  top: "conv4_2"
  param {
    lr_mult: 1
    decay_mult: 1
  }
  param {
    lr_mult: 1
    decay_mult: 1
  }
  scale_param {
    bias_term: true
    bias_filler {
      type: "constant"
      value: 0
    }
  }
}
layer {
  name: "relu4_2"
  type: "ReLU"
  bottom: "conv4_2"
  top: "conv4_2"
}
layer {
  name: "pool4"
  type: "Pooling"
  bottom: "conv4_2"
  top: "pool4"
  pooling_param {
    pool: MAX
    kernel_size: 2
    stride: 2
  }
}
layer {
  name: "conv5_1"
  type: "Convolution"
  bottom: "pool4"
  top: "conv5_1"
  param {
    lr_mult: 1
    decay_mult: 1
  }
  convolution_param {
    num_output: 256
    bias_term: false
    pad: 1
    kernel_size: 3
    weight_filler {
      type: "xavier"
    }
  }
}
layer {
  name: "bn5_1"
  type: "BatchNorm"
  bottom: "conv5_1"
  top: "conv5_1"
  param {
    lr_mult: 0
  }
  param {
    lr_mult: 0
  }
  param {
    lr_mult: 0
  }
  batch_norm_param {
    use_global_stats: false
  }
}
layer {
  name: "scale5_1"
  type: "Scale"
  bottom: "conv5_1"
  top: "conv5_1"
  param {
    lr_mult: 1
    decay_mult: 1
  }
  param {
    lr_mult: 1
    decay_mult: 1
  }
  scale_param {
    bias_term: true
    bias_filler {
      type: "constant"
      value: 0
    }
  }
}
layer {
  name: "relu5_1"
  type: "ReLU"
  bottom: "conv5_1"
  top: "conv5_1"
}
layer {
  name: "conv5_2"
  type: "Convolution"
  bottom: "conv5_1"
  top: "conv5_2"
  param {
    lr_mult: 1
    decay_mult: 1
  }
  convolution_param {
    num_output: 256
    bias_term: false
    pad: 1
    kernel_size: 3
    weight_filler {
      type: "xavier"
    }
  }
}
layer {
  name: "bn5_2"
  type: "BatchNorm"
  bottom: "conv5_2"
  top: "conv5_2"
  param {
    lr_mult: 0
  }
  param {
    lr_mult: 0
  }
  param {
    lr_mult: 0
  }
  batch_norm_param {
    use_global_stats: false
  }
}
layer {
  name: "scale5_2"
  type: "Scale"
  bottom: "conv5_2"
  top: "conv5_2"
  param {
    lr_mult: 1
    decay_mult: 1
  }
  param {
    lr_mult: 1
    decay_mult: 1
  }
  scale_param {
    bias_term: true
    bias_filler {
      type: "constant"
      value: 0
    }
  }
}
layer {
  name: "relu5_2"
  type: "ReLU"
  bottom: "conv5_2"
  top: "conv5_2"
}
layer {
  name: "pool5"
  type: "Pooling"
  bottom: "conv5_2"
  top: "pool5"
  pooling_param {
    pool: AVE
    stride: 1
    kernel_h: 7
    kernel_w: 9
  }
}
layer {
  name: "fc2"
  type: "InnerProduct"
  bottom: "pool5"
  top: "fc2"
  inner_product_param {
    num_output: 2
  }
}
layer {
  name: "loss"
  type: "SoftmaxWithLoss"
  bottom: "fc2"
  bottom: "label"
  top: "loss"
}
layer {
  name: "accuracy"
  type: "Accuracy"
  bottom: "fc2"
  bottom: "label"
  top: "accuracy"
}
I0624 21:08:44.984132 23871 layer_factory.hpp:77] Creating layer data
I0624 21:08:44.984554 23871 net.cpp:91] Creating Layer data
I0624 21:08:44.984586 23871 net.cpp:399] data -> data
I0624 21:08:44.984606 23871 net.cpp:399] data -> label
I0624 21:08:44.985654 23884 db_lmdb.cpp:35] Opened lmdb data/val_lmdb
I0624 21:08:44.986109 23871 data_layer.cpp:42] output data size: 64,3,224,288
I0624 21:08:45.111727 23871 net.cpp:141] Setting up data
I0624 21:08:45.111754 23871 net.cpp:148] Top shape: 64 3 224 288 (12386304)
I0624 21:08:45.111759 23871 net.cpp:148] Top shape: 64 (64)
I0624 21:08:45.111763 23871 net.cpp:156] Memory required for data: 49545472
I0624 21:08:45.111768 23871 layer_factory.hpp:77] Creating layer label_data_1_split
I0624 21:08:45.111780 23871 net.cpp:91] Creating Layer label_data_1_split
I0624 21:08:45.111785 23871 net.cpp:425] label_data_1_split <- label
I0624 21:08:45.111791 23871 net.cpp:399] label_data_1_split -> label_data_1_split_0
I0624 21:08:45.111802 23871 net.cpp:399] label_data_1_split -> label_data_1_split_1
I0624 21:08:45.111939 23871 net.cpp:141] Setting up label_data_1_split
I0624 21:08:45.111948 23871 net.cpp:148] Top shape: 64 (64)
I0624 21:08:45.111951 23871 net.cpp:148] Top shape: 64 (64)
I0624 21:08:45.111954 23871 net.cpp:156] Memory required for data: 49545984
I0624 21:08:45.111958 23871 layer_factory.hpp:77] Creating layer conv1_1
I0624 21:08:45.111974 23871 net.cpp:91] Creating Layer conv1_1
I0624 21:08:45.111976 23871 net.cpp:425] conv1_1 <- data
I0624 21:08:45.111981 23871 net.cpp:399] conv1_1 -> conv1_1
I0624 21:08:45.117023 23871 net.cpp:141] Setting up conv1_1
I0624 21:08:45.117041 23871 net.cpp:148] Top shape: 64 32 112 144 (33030144)
I0624 21:08:45.117044 23871 net.cpp:156] Memory required for data: 181666560
I0624 21:08:45.117053 23871 layer_factory.hpp:77] Creating layer bn1_1
I0624 21:08:45.117063 23871 net.cpp:91] Creating Layer bn1_1
I0624 21:08:45.117066 23871 net.cpp:425] bn1_1 <- conv1_1
I0624 21:08:45.117072 23871 net.cpp:386] bn1_1 -> conv1_1 (in-place)
I0624 21:08:45.117295 23871 net.cpp:141] Setting up bn1_1
I0624 21:08:45.117305 23871 net.cpp:148] Top shape: 64 32 112 144 (33030144)
I0624 21:08:45.117307 23871 net.cpp:156] Memory required for data: 313787136
I0624 21:08:45.117318 23871 layer_factory.hpp:77] Creating layer scale1_1
I0624 21:08:45.117326 23871 net.cpp:91] Creating Layer scale1_1
I0624 21:08:45.117346 23871 net.cpp:425] scale1_1 <- conv1_1
I0624 21:08:45.117350 23871 net.cpp:386] scale1_1 -> conv1_1 (in-place)
I0624 21:08:45.117399 23871 layer_factory.hpp:77] Creating layer scale1_1
I0624 21:08:45.117540 23871 net.cpp:141] Setting up scale1_1
I0624 21:08:45.117549 23871 net.cpp:148] Top shape: 64 32 112 144 (33030144)
I0624 21:08:45.117552 23871 net.cpp:156] Memory required for data: 445907712
I0624 21:08:45.117559 23871 layer_factory.hpp:77] Creating layer relu1_1
I0624 21:08:45.117566 23871 net.cpp:91] Creating Layer relu1_1
I0624 21:08:45.117569 23871 net.cpp:425] relu1_1 <- conv1_1
I0624 21:08:45.117574 23871 net.cpp:386] relu1_1 -> conv1_1 (in-place)
I0624 21:08:45.117741 23871 net.cpp:141] Setting up relu1_1
I0624 21:08:45.117750 23871 net.cpp:148] Top shape: 64 32 112 144 (33030144)
I0624 21:08:45.117754 23871 net.cpp:156] Memory required for data: 578028288
I0624 21:08:45.117756 23871 layer_factory.hpp:77] Creating layer conv1_2
I0624 21:08:45.117766 23871 net.cpp:91] Creating Layer conv1_2
I0624 21:08:45.117771 23871 net.cpp:425] conv1_2 <- conv1_1
I0624 21:08:45.117779 23871 net.cpp:399] conv1_2 -> conv1_2
I0624 21:08:45.118873 23871 net.cpp:141] Setting up conv1_2
I0624 21:08:45.118887 23871 net.cpp:148] Top shape: 64 32 112 144 (33030144)
I0624 21:08:45.118891 23871 net.cpp:156] Memory required for data: 710148864
I0624 21:08:45.118896 23871 layer_factory.hpp:77] Creating layer bn1_2
I0624 21:08:45.118906 23871 net.cpp:91] Creating Layer bn1_2
I0624 21:08:45.118909 23871 net.cpp:425] bn1_2 <- conv1_2
I0624 21:08:45.118914 23871 net.cpp:386] bn1_2 -> conv1_2 (in-place)
I0624 21:08:45.119122 23871 net.cpp:141] Setting up bn1_2
I0624 21:08:45.119129 23871 net.cpp:148] Top shape: 64 32 112 144 (33030144)
I0624 21:08:45.119132 23871 net.cpp:156] Memory required for data: 842269440
I0624 21:08:45.119143 23871 layer_factory.hpp:77] Creating layer scale1_2
I0624 21:08:45.119158 23871 net.cpp:91] Creating Layer scale1_2
I0624 21:08:45.119161 23871 net.cpp:425] scale1_2 <- conv1_2
I0624 21:08:45.119166 23871 net.cpp:386] scale1_2 -> conv1_2 (in-place)
I0624 21:08:45.119209 23871 layer_factory.hpp:77] Creating layer scale1_2
I0624 21:08:45.119343 23871 net.cpp:141] Setting up scale1_2
I0624 21:08:45.119349 23871 net.cpp:148] Top shape: 64 32 112 144 (33030144)
I0624 21:08:45.119352 23871 net.cpp:156] Memory required for data: 974390016
I0624 21:08:45.119357 23871 layer_factory.hpp:77] Creating layer relu1_2
I0624 21:08:45.119362 23871 net.cpp:91] Creating Layer relu1_2
I0624 21:08:45.119365 23871 net.cpp:425] relu1_2 <- conv1_2
I0624 21:08:45.119370 23871 net.cpp:386] relu1_2 -> conv1_2 (in-place)
I0624 21:08:45.119858 23871 net.cpp:141] Setting up relu1_2
I0624 21:08:45.119873 23871 net.cpp:148] Top shape: 64 32 112 144 (33030144)
I0624 21:08:45.119875 23871 net.cpp:156] Memory required for data: 1106510592
I0624 21:08:45.119879 23871 layer_factory.hpp:77] Creating layer pool1
I0624 21:08:45.119887 23871 net.cpp:91] Creating Layer pool1
I0624 21:08:45.119890 23871 net.cpp:425] pool1 <- conv1_2
I0624 21:08:45.119894 23871 net.cpp:399] pool1 -> pool1
I0624 21:08:45.119941 23871 net.cpp:141] Setting up pool1
I0624 21:08:45.119948 23871 net.cpp:148] Top shape: 64 32 56 72 (8257536)
I0624 21:08:45.119951 23871 net.cpp:156] Memory required for data: 1139540736
I0624 21:08:45.119954 23871 layer_factory.hpp:77] Creating layer conv2_1
I0624 21:08:45.119966 23871 net.cpp:91] Creating Layer conv2_1
I0624 21:08:45.119971 23871 net.cpp:425] conv2_1 <- pool1
I0624 21:08:45.119976 23871 net.cpp:399] conv2_1 -> conv2_1
I0624 21:08:45.121122 23871 net.cpp:141] Setting up conv2_1
I0624 21:08:45.121136 23871 net.cpp:148] Top shape: 64 64 56 72 (16515072)
I0624 21:08:45.121140 23871 net.cpp:156] Memory required for data: 1205601024
I0624 21:08:45.121145 23871 layer_factory.hpp:77] Creating layer bn2_1
I0624 21:08:45.121152 23871 net.cpp:91] Creating Layer bn2_1
I0624 21:08:45.121155 23871 net.cpp:425] bn2_1 <- conv2_1
I0624 21:08:45.121161 23871 net.cpp:386] bn2_1 -> conv2_1 (in-place)
I0624 21:08:45.121382 23871 net.cpp:141] Setting up bn2_1
I0624 21:08:45.121390 23871 net.cpp:148] Top shape: 64 64 56 72 (16515072)
I0624 21:08:45.121393 23871 net.cpp:156] Memory required for data: 1271661312
I0624 21:08:45.121400 23871 layer_factory.hpp:77] Creating layer scale2_1
I0624 21:08:45.121408 23871 net.cpp:91] Creating Layer scale2_1
I0624 21:08:45.121412 23871 net.cpp:425] scale2_1 <- conv2_1
I0624 21:08:45.121417 23871 net.cpp:386] scale2_1 -> conv2_1 (in-place)
I0624 21:08:45.121455 23871 layer_factory.hpp:77] Creating layer scale2_1
I0624 21:08:45.121573 23871 net.cpp:141] Setting up scale2_1
I0624 21:08:45.121579 23871 net.cpp:148] Top shape: 64 64 56 72 (16515072)
I0624 21:08:45.121582 23871 net.cpp:156] Memory required for data: 1337721600
I0624 21:08:45.121592 23871 layer_factory.hpp:77] Creating layer relu2_1
I0624 21:08:45.121598 23871 net.cpp:91] Creating Layer relu2_1
I0624 21:08:45.121601 23871 net.cpp:425] relu2_1 <- conv2_1
I0624 21:08:45.121605 23871 net.cpp:386] relu2_1 -> conv2_1 (in-place)
I0624 21:08:45.121773 23871 net.cpp:141] Setting up relu2_1
I0624 21:08:45.121783 23871 net.cpp:148] Top shape: 64 64 56 72 (16515072)
I0624 21:08:45.121786 23871 net.cpp:156] Memory required for data: 1403781888
I0624 21:08:45.121789 23871 layer_factory.hpp:77] Creating layer conv2_2
I0624 21:08:45.121799 23871 net.cpp:91] Creating Layer conv2_2
I0624 21:08:45.121803 23871 net.cpp:425] conv2_2 <- conv2_1
I0624 21:08:45.121809 23871 net.cpp:399] conv2_2 -> conv2_2
I0624 21:08:45.123095 23871 net.cpp:141] Setting up conv2_2
I0624 21:08:45.123109 23871 net.cpp:148] Top shape: 64 64 56 72 (16515072)
I0624 21:08:45.123112 23871 net.cpp:156] Memory required for data: 1469842176
I0624 21:08:45.123117 23871 layer_factory.hpp:77] Creating layer bn2_2
I0624 21:08:45.123128 23871 net.cpp:91] Creating Layer bn2_2
I0624 21:08:45.123131 23871 net.cpp:425] bn2_2 <- conv2_2
I0624 21:08:45.123136 23871 net.cpp:386] bn2_2 -> conv2_2 (in-place)
I0624 21:08:45.123370 23871 net.cpp:141] Setting up bn2_2
I0624 21:08:45.123396 23871 net.cpp:148] Top shape: 64 64 56 72 (16515072)
I0624 21:08:45.123401 23871 net.cpp:156] Memory required for data: 1535902464
I0624 21:08:45.123409 23871 layer_factory.hpp:77] Creating layer scale2_2
I0624 21:08:45.123415 23871 net.cpp:91] Creating Layer scale2_2
I0624 21:08:45.123419 23871 net.cpp:425] scale2_2 <- conv2_2
I0624 21:08:45.123423 23871 net.cpp:386] scale2_2 -> conv2_2 (in-place)
I0624 21:08:45.123468 23871 layer_factory.hpp:77] Creating layer scale2_2
I0624 21:08:45.123585 23871 net.cpp:141] Setting up scale2_2
I0624 21:08:45.123594 23871 net.cpp:148] Top shape: 64 64 56 72 (16515072)
I0624 21:08:45.123599 23871 net.cpp:156] Memory required for data: 1601962752
I0624 21:08:45.123603 23871 layer_factory.hpp:77] Creating layer relu2_2
I0624 21:08:45.123608 23871 net.cpp:91] Creating Layer relu2_2
I0624 21:08:45.123611 23871 net.cpp:425] relu2_2 <- conv2_2
I0624 21:08:45.123615 23871 net.cpp:386] relu2_2 -> conv2_2 (in-place)
I0624 21:08:45.123795 23871 net.cpp:141] Setting up relu2_2
I0624 21:08:45.123805 23871 net.cpp:148] Top shape: 64 64 56 72 (16515072)
I0624 21:08:45.123808 23871 net.cpp:156] Memory required for data: 1668023040
I0624 21:08:45.123811 23871 layer_factory.hpp:77] Creating layer pool2
I0624 21:08:45.123817 23871 net.cpp:91] Creating Layer pool2
I0624 21:08:45.123821 23871 net.cpp:425] pool2 <- conv2_2
I0624 21:08:45.123826 23871 net.cpp:399] pool2 -> pool2
I0624 21:08:45.123868 23871 net.cpp:141] Setting up pool2
I0624 21:08:45.123877 23871 net.cpp:148] Top shape: 64 64 28 36 (4128768)
I0624 21:08:45.123879 23871 net.cpp:156] Memory required for data: 1684538112
I0624 21:08:45.123883 23871 layer_factory.hpp:77] Creating layer conv3_1
I0624 21:08:45.123889 23871 net.cpp:91] Creating Layer conv3_1
I0624 21:08:45.123893 23871 net.cpp:425] conv3_1 <- pool2
I0624 21:08:45.123898 23871 net.cpp:399] conv3_1 -> conv3_1
I0624 21:08:45.127331 23871 net.cpp:141] Setting up conv3_1
I0624 21:08:45.127348 23871 net.cpp:148] Top shape: 64 128 28 36 (8257536)
I0624 21:08:45.127352 23871 net.cpp:156] Memory required for data: 1717568256
I0624 21:08:45.127372 23871 layer_factory.hpp:77] Creating layer bn3_1
I0624 21:08:45.127380 23871 net.cpp:91] Creating Layer bn3_1
I0624 21:08:45.127384 23871 net.cpp:425] bn3_1 <- conv3_1
I0624 21:08:45.127391 23871 net.cpp:386] bn3_1 -> conv3_1 (in-place)
I0624 21:08:45.127581 23871 net.cpp:141] Setting up bn3_1
I0624 21:08:45.127588 23871 net.cpp:148] Top shape: 64 128 28 36 (8257536)
I0624 21:08:45.127591 23871 net.cpp:156] Memory required for data: 1750598400
I0624 21:08:45.127599 23871 layer_factory.hpp:77] Creating layer scale3_1
I0624 21:08:45.127606 23871 net.cpp:91] Creating Layer scale3_1
I0624 21:08:45.127609 23871 net.cpp:425] scale3_1 <- conv3_1
I0624 21:08:45.127614 23871 net.cpp:386] scale3_1 -> conv3_1 (in-place)
I0624 21:08:45.127651 23871 layer_factory.hpp:77] Creating layer scale3_1
I0624 21:08:45.127761 23871 net.cpp:141] Setting up scale3_1
I0624 21:08:45.127768 23871 net.cpp:148] Top shape: 64 128 28 36 (8257536)
I0624 21:08:45.127771 23871 net.cpp:156] Memory required for data: 1783628544
I0624 21:08:45.127776 23871 layer_factory.hpp:77] Creating layer relu3_1
I0624 21:08:45.127782 23871 net.cpp:91] Creating Layer relu3_1
I0624 21:08:45.127784 23871 net.cpp:425] relu3_1 <- conv3_1
I0624 21:08:45.127789 23871 net.cpp:386] relu3_1 -> conv3_1 (in-place)
I0624 21:08:45.127961 23871 net.cpp:141] Setting up relu3_1
I0624 21:08:45.127970 23871 net.cpp:148] Top shape: 64 128 28 36 (8257536)
I0624 21:08:45.127974 23871 net.cpp:156] Memory required for data: 1816658688
I0624 21:08:45.127977 23871 layer_factory.hpp:77] Creating layer conv3_2
I0624 21:08:45.127986 23871 net.cpp:91] Creating Layer conv3_2
I0624 21:08:45.127990 23871 net.cpp:425] conv3_2 <- conv3_1
I0624 21:08:45.127995 23871 net.cpp:399] conv3_2 -> conv3_2
I0624 21:08:45.130317 23871 net.cpp:141] Setting up conv3_2
I0624 21:08:45.130333 23871 net.cpp:148] Top shape: 64 128 28 36 (8257536)
I0624 21:08:45.130337 23871 net.cpp:156] Memory required for data: 1849688832
I0624 21:08:45.130342 23871 layer_factory.hpp:77] Creating layer bn3_2
I0624 21:08:45.130349 23871 net.cpp:91] Creating Layer bn3_2
I0624 21:08:45.130352 23871 net.cpp:425] bn3_2 <- conv3_2
I0624 21:08:45.130358 23871 net.cpp:386] bn3_2 -> conv3_2 (in-place)
I0624 21:08:45.130553 23871 net.cpp:141] Setting up bn3_2
I0624 21:08:45.130560 23871 net.cpp:148] Top shape: 64 128 28 36 (8257536)
I0624 21:08:45.130563 23871 net.cpp:156] Memory required for data: 1882718976
I0624 21:08:45.130578 23871 layer_factory.hpp:77] Creating layer scale3_2
I0624 21:08:45.130585 23871 net.cpp:91] Creating Layer scale3_2
I0624 21:08:45.130589 23871 net.cpp:425] scale3_2 <- conv3_2
I0624 21:08:45.130592 23871 net.cpp:386] scale3_2 -> conv3_2 (in-place)
I0624 21:08:45.130630 23871 layer_factory.hpp:77] Creating layer scale3_2
I0624 21:08:45.130739 23871 net.cpp:141] Setting up scale3_2
I0624 21:08:45.130748 23871 net.cpp:148] Top shape: 64 128 28 36 (8257536)
I0624 21:08:45.130749 23871 net.cpp:156] Memory required for data: 1915749120
I0624 21:08:45.130754 23871 layer_factory.hpp:77] Creating layer relu3_2
I0624 21:08:45.130759 23871 net.cpp:91] Creating Layer relu3_2
I0624 21:08:45.130762 23871 net.cpp:425] relu3_2 <- conv3_2
I0624 21:08:45.130767 23871 net.cpp:386] relu3_2 -> conv3_2 (in-place)
I0624 21:08:45.130935 23871 net.cpp:141] Setting up relu3_2
I0624 21:08:45.130945 23871 net.cpp:148] Top shape: 64 128 28 36 (8257536)
I0624 21:08:45.130949 23871 net.cpp:156] Memory required for data: 1948779264
I0624 21:08:45.130951 23871 layer_factory.hpp:77] Creating layer pool3
I0624 21:08:45.130959 23871 net.cpp:91] Creating Layer pool3
I0624 21:08:45.130961 23871 net.cpp:425] pool3 <- conv3_2
I0624 21:08:45.130966 23871 net.cpp:399] pool3 -> pool3
I0624 21:08:45.131011 23871 net.cpp:141] Setting up pool3
I0624 21:08:45.131017 23871 net.cpp:148] Top shape: 64 128 14 18 (2064384)
I0624 21:08:45.131019 23871 net.cpp:156] Memory required for data: 1957036800
I0624 21:08:45.131022 23871 layer_factory.hpp:77] Creating layer conv4_1
I0624 21:08:45.131031 23871 net.cpp:91] Creating Layer conv4_1
I0624 21:08:45.131045 23871 net.cpp:425] conv4_1 <- pool3
I0624 21:08:45.131052 23871 net.cpp:399] conv4_1 -> conv4_1
I0624 21:08:45.134383 23871 net.cpp:141] Setting up conv4_1
I0624 21:08:45.134398 23871 net.cpp:148] Top shape: 64 256 14 18 (4128768)
I0624 21:08:45.134402 23871 net.cpp:156] Memory required for data: 1973551872
I0624 21:08:45.134407 23871 layer_factory.hpp:77] Creating layer bn4_1
I0624 21:08:45.134414 23871 net.cpp:91] Creating Layer bn4_1
I0624 21:08:45.134418 23871 net.cpp:425] bn4_1 <- conv4_1
I0624 21:08:45.134423 23871 net.cpp:386] bn4_1 -> conv4_1 (in-place)
I0624 21:08:45.134613 23871 net.cpp:141] Setting up bn4_1
I0624 21:08:45.134621 23871 net.cpp:148] Top shape: 64 256 14 18 (4128768)
I0624 21:08:45.134624 23871 net.cpp:156] Memory required for data: 1990066944
I0624 21:08:45.134630 23871 layer_factory.hpp:77] Creating layer scale4_1
I0624 21:08:45.134639 23871 net.cpp:91] Creating Layer scale4_1
I0624 21:08:45.134641 23871 net.cpp:425] scale4_1 <- conv4_1
I0624 21:08:45.134645 23871 net.cpp:386] scale4_1 -> conv4_1 (in-place)
I0624 21:08:45.134686 23871 layer_factory.hpp:77] Creating layer scale4_1
I0624 21:08:45.134788 23871 net.cpp:141] Setting up scale4_1
I0624 21:08:45.134796 23871 net.cpp:148] Top shape: 64 256 14 18 (4128768)
I0624 21:08:45.134799 23871 net.cpp:156] Memory required for data: 2006582016
I0624 21:08:45.134820 23871 layer_factory.hpp:77] Creating layer relu4_1
I0624 21:08:45.134830 23871 net.cpp:91] Creating Layer relu4_1
I0624 21:08:45.134834 23871 net.cpp:425] relu4_1 <- conv4_1
I0624 21:08:45.134837 23871 net.cpp:386] relu4_1 -> conv4_1 (in-place)
I0624 21:08:45.135009 23871 net.cpp:141] Setting up relu4_1
I0624 21:08:45.135018 23871 net.cpp:148] Top shape: 64 256 14 18 (4128768)
I0624 21:08:45.135021 23871 net.cpp:156] Memory required for data: 2023097088
I0624 21:08:45.135025 23871 layer_factory.hpp:77] Creating layer conv4_2
I0624 21:08:45.135033 23871 net.cpp:91] Creating Layer conv4_2
I0624 21:08:45.135036 23871 net.cpp:425] conv4_2 <- conv4_1
I0624 21:08:45.135041 23871 net.cpp:399] conv4_2 -> conv4_2
I0624 21:08:45.141619 23871 net.cpp:141] Setting up conv4_2
I0624 21:08:45.141641 23871 net.cpp:148] Top shape: 64 256 14 18 (4128768)
I0624 21:08:45.141645 23871 net.cpp:156] Memory required for data: 2039612160
I0624 21:08:45.141652 23871 layer_factory.hpp:77] Creating layer bn4_2
I0624 21:08:45.141664 23871 net.cpp:91] Creating Layer bn4_2
I0624 21:08:45.141667 23871 net.cpp:425] bn4_2 <- conv4_2
I0624 21:08:45.141672 23871 net.cpp:386] bn4_2 -> conv4_2 (in-place)
I0624 21:08:45.141867 23871 net.cpp:141] Setting up bn4_2
I0624 21:08:45.141876 23871 net.cpp:148] Top shape: 64 256 14 18 (4128768)
I0624 21:08:45.141878 23871 net.cpp:156] Memory required for data: 2056127232
I0624 21:08:45.141885 23871 layer_factory.hpp:77] Creating layer scale4_2
I0624 21:08:45.141894 23871 net.cpp:91] Creating Layer scale4_2
I0624 21:08:45.141897 23871 net.cpp:425] scale4_2 <- conv4_2
I0624 21:08:45.141901 23871 net.cpp:386] scale4_2 -> conv4_2 (in-place)
I0624 21:08:45.141943 23871 layer_factory.hpp:77] Creating layer scale4_2
I0624 21:08:45.142048 23871 net.cpp:141] Setting up scale4_2
I0624 21:08:45.142056 23871 net.cpp:148] Top shape: 64 256 14 18 (4128768)
I0624 21:08:45.142058 23871 net.cpp:156] Memory required for data: 2072642304
I0624 21:08:45.142063 23871 layer_factory.hpp:77] Creating layer relu4_2
I0624 21:08:45.142069 23871 net.cpp:91] Creating Layer relu4_2
I0624 21:08:45.142071 23871 net.cpp:425] relu4_2 <- conv4_2
I0624 21:08:45.142076 23871 net.cpp:386] relu4_2 -> conv4_2 (in-place)
I0624 21:08:45.142556 23871 net.cpp:141] Setting up relu4_2
I0624 21:08:45.142570 23871 net.cpp:148] Top shape: 64 256 14 18 (4128768)
I0624 21:08:45.142572 23871 net.cpp:156] Memory required for data: 2089157376
I0624 21:08:45.142575 23871 layer_factory.hpp:77] Creating layer pool4
I0624 21:08:45.142585 23871 net.cpp:91] Creating Layer pool4
I0624 21:08:45.142588 23871 net.cpp:425] pool4 <- conv4_2
I0624 21:08:45.142593 23871 net.cpp:399] pool4 -> pool4
I0624 21:08:45.142657 23871 net.cpp:141] Setting up pool4
I0624 21:08:45.142662 23871 net.cpp:148] Top shape: 64 256 7 9 (1032192)
I0624 21:08:45.142664 23871 net.cpp:156] Memory required for data: 2093286144
I0624 21:08:45.142668 23871 layer_factory.hpp:77] Creating layer conv5_1
I0624 21:08:45.142676 23871 net.cpp:91] Creating Layer conv5_1
I0624 21:08:45.142679 23871 net.cpp:425] conv5_1 <- pool4
I0624 21:08:45.142684 23871 net.cpp:399] conv5_1 -> conv5_1
I0624 21:08:45.149293 23871 net.cpp:141] Setting up conv5_1
I0624 21:08:45.149315 23871 net.cpp:148] Top shape: 64 256 7 9 (1032192)
I0624 21:08:45.149318 23871 net.cpp:156] Memory required for data: 2097414912
I0624 21:08:45.149325 23871 layer_factory.hpp:77] Creating layer bn5_1
I0624 21:08:45.149335 23871 net.cpp:91] Creating Layer bn5_1
I0624 21:08:45.149340 23871 net.cpp:425] bn5_1 <- conv5_1
I0624 21:08:45.149345 23871 net.cpp:386] bn5_1 -> conv5_1 (in-place)
I0624 21:08:45.149547 23871 net.cpp:141] Setting up bn5_1
I0624 21:08:45.149562 23871 net.cpp:148] Top shape: 64 256 7 9 (1032192)
I0624 21:08:45.149565 23871 net.cpp:156] Memory required for data: 2101543680
I0624 21:08:45.149572 23871 layer_factory.hpp:77] Creating layer scale5_1
I0624 21:08:45.149580 23871 net.cpp:91] Creating Layer scale5_1
I0624 21:08:45.149581 23871 net.cpp:425] scale5_1 <- conv5_1
I0624 21:08:45.149587 23871 net.cpp:386] scale5_1 -> conv5_1 (in-place)
I0624 21:08:45.149624 23871 layer_factory.hpp:77] Creating layer scale5_1
I0624 21:08:45.149729 23871 net.cpp:141] Setting up scale5_1
I0624 21:08:45.149736 23871 net.cpp:148] Top shape: 64 256 7 9 (1032192)
I0624 21:08:45.149739 23871 net.cpp:156] Memory required for data: 2105672448
I0624 21:08:45.149744 23871 layer_factory.hpp:77] Creating layer relu5_1
I0624 21:08:45.149749 23871 net.cpp:91] Creating Layer relu5_1
I0624 21:08:45.149751 23871 net.cpp:425] relu5_1 <- conv5_1
I0624 21:08:45.149755 23871 net.cpp:386] relu5_1 -> conv5_1 (in-place)
I0624 21:08:45.149914 23871 net.cpp:141] Setting up relu5_1
I0624 21:08:45.149924 23871 net.cpp:148] Top shape: 64 256 7 9 (1032192)
I0624 21:08:45.149927 23871 net.cpp:156] Memory required for data: 2109801216
I0624 21:08:45.149930 23871 layer_factory.hpp:77] Creating layer conv5_2
I0624 21:08:45.149940 23871 net.cpp:91] Creating Layer conv5_2
I0624 21:08:45.149943 23871 net.cpp:425] conv5_2 <- conv5_1
I0624 21:08:45.149950 23871 net.cpp:399] conv5_2 -> conv5_2
I0624 21:08:45.156311 23871 net.cpp:141] Setting up conv5_2
I0624 21:08:45.156332 23871 net.cpp:148] Top shape: 64 256 7 9 (1032192)
I0624 21:08:45.156337 23871 net.cpp:156] Memory required for data: 2113929984
I0624 21:08:45.156343 23871 layer_factory.hpp:77] Creating layer bn5_2
I0624 21:08:45.156352 23871 net.cpp:91] Creating Layer bn5_2
I0624 21:08:45.156357 23871 net.cpp:425] bn5_2 <- conv5_2
I0624 21:08:45.156363 23871 net.cpp:386] bn5_2 -> conv5_2 (in-place)
I0624 21:08:45.156556 23871 net.cpp:141] Setting up bn5_2
I0624 21:08:45.156564 23871 net.cpp:148] Top shape: 64 256 7 9 (1032192)
I0624 21:08:45.156566 23871 net.cpp:156] Memory required for data: 2118058752
I0624 21:08:45.156574 23871 layer_factory.hpp:77] Creating layer scale5_2
I0624 21:08:45.156581 23871 net.cpp:91] Creating Layer scale5_2
I0624 21:08:45.156584 23871 net.cpp:425] scale5_2 <- conv5_2
I0624 21:08:45.156589 23871 net.cpp:386] scale5_2 -> conv5_2 (in-place)
I0624 21:08:45.156632 23871 layer_factory.hpp:77] Creating layer scale5_2
I0624 21:08:45.156752 23871 net.cpp:141] Setting up scale5_2
I0624 21:08:45.156764 23871 net.cpp:148] Top shape: 64 256 7 9 (1032192)
I0624 21:08:45.156769 23871 net.cpp:156] Memory required for data: 2122187520
I0624 21:08:45.156775 23871 layer_factory.hpp:77] Creating layer relu5_2
I0624 21:08:45.156785 23871 net.cpp:91] Creating Layer relu5_2
I0624 21:08:45.156793 23871 net.cpp:425] relu5_2 <- conv5_2
I0624 21:08:45.156800 23871 net.cpp:386] relu5_2 -> conv5_2 (in-place)
I0624 21:08:45.156971 23871 net.cpp:141] Setting up relu5_2
I0624 21:08:45.156981 23871 net.cpp:148] Top shape: 64 256 7 9 (1032192)
I0624 21:08:45.156985 23871 net.cpp:156] Memory required for data: 2126316288
I0624 21:08:45.157002 23871 layer_factory.hpp:77] Creating layer pool5
I0624 21:08:45.157009 23871 net.cpp:91] Creating Layer pool5
I0624 21:08:45.157012 23871 net.cpp:425] pool5 <- conv5_2
I0624 21:08:45.157018 23871 net.cpp:399] pool5 -> pool5
I0624 21:08:45.157199 23871 net.cpp:141] Setting up pool5
I0624 21:08:45.157210 23871 net.cpp:148] Top shape: 64 256 1 1 (16384)
I0624 21:08:45.157213 23871 net.cpp:156] Memory required for data: 2126381824
I0624 21:08:45.157215 23871 layer_factory.hpp:77] Creating layer fc2
I0624 21:08:45.157223 23871 net.cpp:91] Creating Layer fc2
I0624 21:08:45.157227 23871 net.cpp:425] fc2 <- pool5
I0624 21:08:45.157232 23871 net.cpp:399] fc2 -> fc2
I0624 21:08:45.157347 23871 net.cpp:141] Setting up fc2
I0624 21:08:45.157356 23871 net.cpp:148] Top shape: 64 2 (128)
I0624 21:08:45.157358 23871 net.cpp:156] Memory required for data: 2126382336
I0624 21:08:45.157363 23871 layer_factory.hpp:77] Creating layer fc2_fc2_0_split
I0624 21:08:45.157368 23871 net.cpp:91] Creating Layer fc2_fc2_0_split
I0624 21:08:45.157371 23871 net.cpp:425] fc2_fc2_0_split <- fc2
I0624 21:08:45.157376 23871 net.cpp:399] fc2_fc2_0_split -> fc2_fc2_0_split_0
I0624 21:08:45.157379 23871 net.cpp:399] fc2_fc2_0_split -> fc2_fc2_0_split_1
I0624 21:08:45.157414 23871 net.cpp:141] Setting up fc2_fc2_0_split
I0624 21:08:45.157419 23871 net.cpp:148] Top shape: 64 2 (128)
I0624 21:08:45.157423 23871 net.cpp:148] Top shape: 64 2 (128)
I0624 21:08:45.157424 23871 net.cpp:156] Memory required for data: 2126383360
I0624 21:08:45.157428 23871 layer_factory.hpp:77] Creating layer loss
I0624 21:08:45.157433 23871 net.cpp:91] Creating Layer loss
I0624 21:08:45.157435 23871 net.cpp:425] loss <- fc2_fc2_0_split_0
I0624 21:08:45.157438 23871 net.cpp:425] loss <- label_data_1_split_0
I0624 21:08:45.157443 23871 net.cpp:399] loss -> loss
…
