…
I0624 13:54:13.264941 18353 net.cpp:313] The NetState phase (0) differed from the phase (1) specified by a rule in layer data
I0624 13:54:13.265372 18353 net.cpp:49] Initializing net from parameters: 
name: "segnet"
state {
  phase: TRAIN
}
layer {
  name: "data"
  type: "DenseImageData"
  top: "data"
  top: "label"
  include {
    phase: TRAIN
  }
  transform_param {
    crop_size: 224
    mean_value: 100
  }
  dense_image_data_param {
    source: "data/train_seg.txt"
    batch_size: 32
    shuffle: true
    new_height: 224
    new_width: 310
    is_color: false
    root_folder: "data/raw/train/"
  }
}
layer {
  name: "conv1_1"
  type: "Convolution"
  bottom: "data"
  top: "conv1_1"
  param {
    lr_mult: 1
    decay_mult: 1
  }
  convolution_param {
    num_output: 32
    bias_term: false
    pad: 1
    kernel_size: 3
    weight_filler {
      type: "xavier"
    }
  }
}
layer {
  name: "bn1_1"
  type: "BatchNorm"
  bottom: "conv1_1"
  top: "conv1_1"
  param {
    lr_mult: 0
  }
  param {
    lr_mult: 0
  }
  param {
    lr_mult: 0
  }
  batch_norm_param {
    use_global_stats: false
  }
}
layer {
  name: "scale1_1"
  type: "Scale"
  bottom: "conv1_1"
  top: "conv1_1"
  param {
    lr_mult: 1
    decay_mult: 1
  }
  param {
    lr_mult: 1
    decay_mult: 1
  }
  scale_param {
    bias_term: true
    bias_filler {
      type: "constant"
      value: 0
    }
  }
}
layer {
  name: "relu1_1"
  type: "ReLU"
  bottom: "conv1_1"
  top: "conv1_1"
}
layer {
  name: "conv1_2"
  type: "Convolution"
  bottom: "conv1_1"
  top: "conv1_2"
  param {
    lr_mult: 1
    decay_mult: 1
  }
  convolution_param {
    num_output: 32
    bias_term: false
    pad: 1
    kernel_size: 3
    weight_filler {
      type: "xavier"
    }
  }
}
layer {
  name: "bn1_2"
  type: "BatchNorm"
  bottom: "conv1_2"
  top: "conv1_2"
  param {
    lr_mult: 0
  }
  param {
    lr_mult: 0
  }
  param {
    lr_mult: 0
  }
  batch_norm_param {
    use_global_stats: false
  }
}
layer {
  name: "scale1_2"
  type: "Scale"
  bottom: "conv1_2"
  top: "conv1_2"
  param {
    lr_mult: 1
    decay_mult: 1
  }
  param {
    lr_mult: 1
    decay_mult: 1
  }
  scale_param {
    bias_term: true
    bias_filler {
      type: "constant"
      value: 0
    }
  }
}
layer {
  name: "relu1_2"
  type: "ReLU"
  bottom: "conv1_2"
  top: "conv1_2"
}
layer {
  name: "pool1"
  type: "Pooling"
  bottom: "conv1_2"
  top: "pool1"
  top: "pool1_mask"
  pooling_param {
    pool: MAX
    kernel_size: 2
    stride: 2
  }
}
layer {
  name: "conv2_1"
  type: "Convolution"
  bottom: "pool1"
  top: "conv2_1"
  param {
    lr_mult: 1
    decay_mult: 1
  }
  convolution_param {
    num_output: 64
    bias_term: false
    pad: 1
    kernel_size: 3
    weight_filler {
      type: "xavier"
    }
  }
}
layer {
  name: "bn2_1"
  type: "BatchNorm"
  bottom: "conv2_1"
  top: "conv2_1"
  param {
    lr_mult: 0
  }
  param {
    lr_mult: 0
  }
  param {
    lr_mult: 0
  }
  batch_norm_param {
    use_global_stats: false
  }
}
layer {
  name: "scale2_1"
  type: "Scale"
  bottom: "conv2_1"
  top: "conv2_1"
  param {
    lr_mult: 1
    decay_mult: 1
  }
  param {
    lr_mult: 1
    decay_mult: 1
  }
  scale_param {
    bias_term: true
    bias_filler {
      type: "constant"
      value: 0
    }
  }
}
layer {
  name: "relu2_1"
  type: "ReLU"
  bottom: "conv2_1"
  top: "conv2_1"
}
layer {
  name: "conv2_2"
  type: "Convolution"
  bottom: "conv2_1"
  top: "conv2_2"
  param {
    lr_mult: 1
    decay_mult: 1
  }
  convolution_param {
    num_output: 64
    bias_term: false
    pad: 1
    kernel_size: 3
    weight_filler {
      type: "xavier"
    }
  }
}
layer {
  name: "bn2_2"
  type: "BatchNorm"
  bottom: "conv2_2"
  top: "conv2_2"
  param {
    lr_mult: 0
  }
  param {
    lr_mult: 0
  }
  param {
    lr_mult: 0
  }
  batch_norm_param {
    use_global_stats: false
  }
}
layer {
  name: "scale2_2"
  type: "Scale"
  bottom: "conv2_2"
  top: "conv2_2"
  param {
    lr_mult: 1
    decay_mult: 1
  }
  param {
    lr_mult: 1
    decay_mult: 1
  }
  scale_param {
    bias_term: true
    bias_filler {
      type: "constant"
      value: 0
    }
  }
}
layer {
  name: "relu2_2"
  type: "ReLU"
  bottom: "conv2_2"
  top: "conv2_2"
}
layer {
  name: "pool2"
  type: "Pooling"
  bottom: "conv2_2"
  top: "pool2"
  top: "pool2_mask"
  pooling_param {
    pool: MAX
    kernel_size: 2
    stride: 2
  }
}
layer {
  name: "conv3_1"
  type: "Convolution"
  bottom: "pool2"
  top: "conv3_1"
  param {
    lr_mult: 1
    decay_mult: 1
  }
  convolution_param {
    num_output: 128
    bias_term: false
    pad: 1
    kernel_size: 3
    weight_filler {
      type: "xavier"
    }
  }
}
layer {
  name: "bn3_1"
  type: "BatchNorm"
  bottom: "conv3_1"
  top: "conv3_1"
  param {
    lr_mult: 0
  }
  param {
    lr_mult: 0
  }
  param {
    lr_mult: 0
  }
  batch_norm_param {
    use_global_stats: false
  }
}
layer {
  name: "scale3_1"
  type: "Scale"
  bottom: "conv3_1"
  top: "conv3_1"
  param {
    lr_mult: 1
    decay_mult: 1
  }
  param {
    lr_mult: 1
    decay_mult: 1
  }
  scale_param {
    bias_term: true
    bias_filler {
      type: "constant"
      value: 0
    }
  }
}
layer {
  name: "relu3_1"
  type: "ReLU"
  bottom: "conv3_1"
  top: "conv3_1"
}
layer {
  name: "conv3_2"
  type: "Convolution"
  bottom: "conv3_1"
  top: "conv3_2"
  param {
    lr_mult: 1
    decay_mult: 1
  }
  convolution_param {
    num_output: 128
    bias_term: false
    pad: 1
    kernel_size: 3
    weight_filler {
      type: "xavier"
    }
  }
}
layer {
  name: "bn3_2"
  type: "BatchNorm"
  bottom: "conv3_2"
  top: "conv3_2"
  param {
    lr_mult: 0
  }
  param {
    lr_mult: 0
  }
  param {
    lr_mult: 0
  }
  batch_norm_param {
    use_global_stats: false
  }
}
layer {
  name: "scale3_2"
  type: "Scale"
  bottom: "conv3_2"
  top: "conv3_2"
  param {
    lr_mult: 1
    decay_mult: 1
  }
  param {
    lr_mult: 1
    decay_mult: 1
  }
  scale_param {
    bias_term: true
    bias_filler {
      type: "constant"
      value: 0
    }
  }
}
layer {
  name: "relu3_2"
  type: "ReLU"
  bottom: "conv3_2"
  top: "conv3_2"
}
layer {
  name: "pool3"
  type: "Pooling"
  bottom: "conv3_2"
  top: "pool3"
  top: "pool3_mask"
  pooling_param {
    pool: MAX
    kernel_size: 2
    stride: 2
  }
}
layer {
  name: "conv4_1"
  type: "Convolution"
  bottom: "pool3"
  top: "conv4_1"
  param {
    lr_mult: 1
    decay_mult: 1
  }
  convolution_param {
    num_output: 256
    bias_term: false
    pad: 1
    kernel_size: 3
    weight_filler {
      type: "xavier"
    }
  }
}
layer {
  name: "bn4_1"
  type: "BatchNorm"
  bottom: "conv4_1"
  top: "conv4_1"
  param {
    lr_mult: 0
  }
  param {
    lr_mult: 0
  }
  param {
    lr_mult: 0
  }
  batch_norm_param {
    use_global_stats: false
  }
}
layer {
  name: "scale4_1"
  type: "Scale"
  bottom: "conv4_1"
  top: "conv4_1"
  param {
    lr_mult: 1
    decay_mult: 1
  }
  param {
    lr_mult: 1
    decay_mult: 1
  }
  scale_param {
    bias_term: true
    bias_filler {
      type: "constant"
      value: 0
    }
  }
}
layer {
  name: "relu4_1"
  type: "ReLU"
  bottom: "conv4_1"
  top: "conv4_1"
}
layer {
  name: "conv4_2"
  type: "Convolution"
  bottom: "conv4_1"
  top: "conv4_2"
  param {
    lr_mult: 1
    decay_mult: 1
  }
  convolution_param {
    num_output: 256
    bias_term: false
    pad: 1
    kernel_size: 3
    weight_filler {
      type: "xavier"
    }
  }
}
layer {
  name: "bn4_2"
  type: "BatchNorm"
  bottom: "conv4_2"
  top: "conv4_2"
  param {
    lr_mult: 0
  }
  param {
    lr_mult: 0
  }
  param {
    lr_mult: 0
  }
  batch_norm_param {
    use_global_stats: false
  }
}
layer {
  name: "scale4_2"
  type: "Scale"
  bottom: "conv4_2"
  top: "conv4_2"
  param {
    lr_mult: 1
    decay_mult: 1
  }
  param {
    lr_mult: 1
    decay_mult: 1
  }
  scale_param {
    bias_term: true
    bias_filler {
      type: "constant"
      value: 0
    }
  }
}
layer {
  name: "relu4_2"
  type: "ReLU"
  bottom: "conv4_2"
  top: "conv4_2"
}
layer {
  name: "pool4"
  type: "Pooling"
  bottom: "conv4_2"
  top: "pool4"
  top: "pool4_mask"
  pooling_param {
    pool: MAX
    kernel_size: 2
    stride: 2
  }
}
layer {
  name: "conv5_1"
  type: "Convolution"
  bottom: "pool4"
  top: "conv5_1"
  param {
    lr_mult: 1
    decay_mult: 1
  }
  convolution_param {
    num_output: 256
    bias_term: false
    pad: 1
    kernel_size: 3
    weight_filler {
      type: "xavier"
    }
  }
}
layer {
  name: "bn5_1"
  type: "BatchNorm"
  bottom: "conv5_1"
  top: "conv5_1"
  param {
    lr_mult: 0
  }
  param {
    lr_mult: 0
  }
  param {
    lr_mult: 0
  }
  batch_norm_param {
    use_global_stats: false
  }
}
layer {
  name: "scale5_1"
  type: "Scale"
  bottom: "conv5_1"
  top: "conv5_1"
  param {
    lr_mult: 1
    decay_mult: 1
  }
  param {
    lr_mult: 1
    decay_mult: 1
  }
  scale_param {
    bias_term: true
    bias_filler {
      type: "constant"
      value: 0
    }
  }
}
layer {
  name: "relu5_1"
  type: "ReLU"
  bottom: "conv5_1"
  top: "conv5_1"
}
layer {
  name: "conv5_2"
  type: "Convolution"
  bottom: "conv5_1"
  top: "conv5_2"
  param {
    lr_mult: 1
    decay_mult: 1
  }
  convolution_param {
    num_output: 256
    bias_term: false
    pad: 1
    kernel_size: 3
    weight_filler {
      type: "xavier"
    }
  }
}
layer {
  name: "bn5_2"
  type: "BatchNorm"
  bottom: "conv5_2"
  top: "conv5_2"
  param {
    lr_mult: 0
  }
  param {
    lr_mult: 0
  }
  param {
    lr_mult: 0
  }
  batch_norm_param {
    use_global_stats: false
  }
}
layer {
  name: "scale5_2"
  type: "Scale"
  bottom: "conv5_2"
  top: "conv5_2"
  param {
    lr_mult: 1
    decay_mult: 1
  }
  param {
    lr_mult: 1
    decay_mult: 1
  }
  scale_param {
    bias_term: true
    bias_filler {
      type: "constant"
      value: 0
    }
  }
}
layer {
  name: "relu5_2"
  type: "ReLU"
  bottom: "conv5_2"
  top: "conv5_2"
}
layer {
  name: "pool5"
  type: "Pooling"
  bottom: "conv5_2"
  top: "pool5"
  top: "pool5_mask"
  pooling_param {
    pool: MAX
    kernel_size: 2
    stride: 2
  }
}
layer {
  name: "upsample5"
  type: "Upsample"
  bottom: "pool5"
  bottom: "pool5_mask"
  top: "pool5_D"
  upsample_param {
    scale: 2
    upsample_h: 14
    upsample_w: 14
  }
}
layer {
  name: "conv5_2_D"
  type: "Convolution"
  bottom: "pool5_D"
  top: "conv5_2_D"
  param {
    lr_mult: 1
    decay_mult: 1
  }
  convolution_param {
    num_output: 256
    bias_term: false
    pad: 1
    kernel_size: 3
    weight_filler {
      type: "xavier"
    }
  }
}
layer {
  name: "bn5_2_D"
  type: "BatchNorm"
  bottom: "conv5_2_D"
  top: "conv5_2_D"
  param {
    lr_mult: 0
  }
  param {
    lr_mult: 0
  }
  param {
    lr_mult: 0
  }
  batch_norm_param {
    use_global_stats: false
  }
}
layer {
  name: "scale5_2_D"
  type: "Scale"
  bottom: "conv5_2_D"
  top: "conv5_2_D"
  param {
    lr_mult: 1
    decay_mult: 1
  }
  param {
    lr_mult: 1
    decay_mult: 1
  }
  scale_param {
    bias_term: true
    bias_filler {
      type: "constant"
      value: 0
    }
  }
}
layer {
  name: "relu5_2_D"
  type: "ReLU"
  bottom: "conv5_2_D"
  top: "conv5_2_D"
}
layer {
  name: "conv5_1_D"
  type: "Convolution"
  bottom: "conv5_2_D"
  top: "conv5_1_D"
  param {
    lr_mult: 1
    decay_mult: 1
  }
  convolution_param {
    num_output: 256
    bias_term: false
    pad: 1
    kernel_size: 3
    weight_filler {
      type: "xavier"
    }
  }
}
layer {
  name: "bn5_1_D"
  type: "BatchNorm"
  bottom: "conv5_1_D"
  top: "conv5_1_D"
  param {
    lr_mult: 0
  }
  param {
    lr_mult: 0
  }
  param {
    lr_mult: 0
  }
  batch_norm_param {
    use_global_stats: false
  }
}
layer {
  name: "scale5_1_D"
  type: "Scale"
  bottom: "conv5_1_D"
  top: "conv5_1_D"
  param {
    lr_mult: 1
    decay_mult: 1
  }
  param {
    lr_mult: 1
    decay_mult: 1
  }
  scale_param {
    bias_term: true
    bias_filler {
      type: "constant"
      value: 0
    }
  }
}
layer {
  name: "relu5_1_D"
  type: "ReLU"
  bottom: "conv5_1_D"
  top: "conv5_1_D"
}
layer {
  name: "upsample4"
  type: "Upsample"
  bottom: "conv5_1_D"
  bottom: "pool4_mask"
  top: "pool4_D"
  upsample_param {
    scale: 2
    upsample_h: 28
    upsample_w: 28
  }
}
layer {
  name: "conv4_2_D"
  type: "Convolution"
  bottom: "pool4_D"
  top: "conv4_2_D"
  param {
    lr_mult: 1
    decay_mult: 1
  }
  convolution_param {
    num_output: 256
    bias_term: false
    pad: 1
    kernel_size: 3
    weight_filler {
      type: "xavier"
    }
  }
}
layer {
  name: "bn4_2_D"
  type: "BatchNorm"
  bottom: "conv4_2_D"
  top: "conv4_2_D"
  param {
    lr_mult: 0
  }
  param {
    lr_mult: 0
  }
  param {
    lr_mult: 0
  }
  batch_norm_param {
    use_global_stats: false
  }
}
layer {
  name: "scale4_2_D"
  type: "Scale"
  bottom: "conv4_2_D"
  top: "conv4_2_D"
  param {
    lr_mult: 1
    decay_mult: 1
  }
  param {
    lr_mult: 1
    decay_mult: 1
  }
  scale_param {
    bias_term: true
    bias_filler {
      type: "constant"
      value: 0
    }
  }
}
layer {
  name: "relu4_2_D"
  type: "ReLU"
  bottom: "conv4_2_D"
  top: "conv4_2_D"
}
layer {
  name: "conv4_1_D"
  type: "Convolution"
  bottom: "conv4_2_D"
  top: "conv4_1_D"
  param {
    lr_mult: 1
    decay_mult: 1
  }
  convolution_param {
    num_output: 128
    bias_term: false
    pad: 1
    kernel_size: 3
    weight_filler {
      type: "xavier"
    }
  }
}
layer {
  name: "bn4_1_D"
  type: "BatchNorm"
  bottom: "conv4_1_D"
  top: "conv4_1_D"
  param {
    lr_mult: 0
  }
  param {
    lr_mult: 0
  }
  param {
    lr_mult: 0
  }
  batch_norm_param {
    use_global_stats: false
  }
}
layer {
  name: "scale4_1_D"
  type: "Scale"
  bottom: "conv4_1_D"
  top: "conv4_1_D"
  param {
    lr_mult: 1
    decay_mult: 1
  }
  param {
    lr_mult: 1
    decay_mult: 1
  }
  scale_param {
    bias_term: true
    bias_filler {
      type: "constant"
      value: 0
    }
  }
}
layer {
  name: "relu4_1_D"
  type: "ReLU"
  bottom: "conv4_1_D"
  top: "conv4_1_D"
}
layer {
  name: "upsample3"
  type: "Upsample"
  bottom: "conv4_1_D"
  bottom: "pool3_mask"
  top: "pool3_D"
  upsample_param {
    scale: 2
    upsample_h: 56
    upsample_w: 56
  }
}
layer {
  name: "conv3_2_D"
  type: "Convolution"
  bottom: "pool3_D"
  top: "conv3_2_D"
  param {
    lr_mult: 1
    decay_mult: 1
  }
  param {
    lr_mult: 1
    decay_mult: 1
  }
  convolution_param {
    num_output: 128
    pad: 1
    kernel_size: 3
    weight_filler {
      type: "xavier"
    }
    bias_filler {
      type: "constant"
      value: 0
    }
  }
}
layer {
  name: "bn3_2_D"
  type: "BatchNorm"
  bottom: "conv3_2_D"
  top: "conv3_2_D"
  param {
    lr_mult: 0
  }
  param {
    lr_mult: 0
  }
  param {
    lr_mult: 0
  }
  batch_norm_param {
    use_global_stats: false
  }
}
layer {
  name: "scale3_2_D"
  type: "Scale"
  bottom: "conv3_2_D"
  top: "conv3_2_D"
  param {
    lr_mult: 1
    decay_mult: 1
  }
  param {
    lr_mult: 1
    decay_mult: 1
  }
  scale_param {
    bias_term: true
    bias_filler {
      type: "constant"
      value: 0
    }
  }
}
layer {
  name: "relu3_2_D"
  type: "ReLU"
  bottom: "conv3_2_D"
  top: "conv3_2_D"
}
layer {
  name: "conv3_1_D"
  type: "Convolution"
  bottom: "conv3_2_D"
  top: "conv3_1_D"
  param {
    lr_mult: 1
    decay_mult: 1
  }
  convolution_param {
    num_output: 64
    bias_term: false
    pad: 1
    kernel_size: 3
    weight_filler {
      type: "xavier"
    }
  }
}
layer {
  name: "bn3_1_D"
  type: "BatchNorm"
  bottom: "conv3_1_D"
  top: "conv3_1_D"
  param {
    lr_mult: 0
  }
  param {
    lr_mult: 0
  }
  param {
    lr_mult: 0
  }
  batch_norm_param {
    use_global_stats: false
  }
}
layer {
  name: "scale3_1_D"
  type: "Scale"
  bottom: "conv3_1_D"
  top: "conv3_1_D"
  param {
    lr_mult: 1
    decay_mult: 1
  }
  param {
    lr_mult: 1
    decay_mult: 1
  }
  scale_param {
    bias_term: true
    bias_filler {
      type: "constant"
      value: 0
    }
  }
}
layer {
  name: "relu3_1_D"
  type: "ReLU"
  bottom: "conv3_1_D"
  top: "conv3_1_D"
}
layer {
  name: "upsample2"
  type: "Upsample"
  bottom: "conv3_1_D"
  bottom: "pool2_mask"
  top: "pool2_D"
  upsample_param {
    scale: 2
    upsample_h: 112
    upsample_w: 112
  }
}
layer {
  name: "conv2_2_D"
  type: "Convolution"
  bottom: "pool2_D"
  top: "conv2_2_D"
  param {
    lr_mult: 1
    decay_mult: 1
  }
  convolution_param {
    num_output: 64
    bias_term: false
    pad: 1
    kernel_size: 3
    weight_filler {
      type: "xavier"
    }
  }
}
layer {
  name: "bn2_2_D"
  type: "BatchNorm"
  bottom: "conv2_2_D"
  top: "conv2_2_D"
  param {
    lr_mult: 0
  }
  param {
    lr_mult: 0
  }
  param {
    lr_mult: 0
  }
  batch_norm_param {
    use_global_stats: false
  }
}
layer {
  name: "scale2_2_D"
  type: "Scale"
  bottom: "conv2_2_D"
  top: "conv2_2_D"
  param {
    lr_mult: 1
    decay_mult: 1
  }
  param {
    lr_mult: 1
    decay_mult: 1
  }
  scale_param {
    bias_term: true
    bias_filler {
      type: "constant"
      value: 0
    }
  }
}
layer {
  name: "relu2_2_D"
  type: "ReLU"
  bottom: "conv2_2_D"
  top: "conv2_2_D"
}
layer {
  name: "conv2_1_D"
  type: "Convolution"
  bottom: "conv2_2_D"
  top: "conv2_1_D"
  param {
    lr_mult: 1
    decay_mult: 1
  }
  convolution_param {
    num_output: 32
    bias_term: false
    pad: 1
    kernel_size: 3
    weight_filler {
      type: "xavier"
    }
  }
}
layer {
  name: "bn2_1_D"
  type: "BatchNorm"
  bottom: "conv2_1_D"
  top: "conv2_1_D"
  param {
    lr_mult: 0
  }
  param {
    lr_mult: 0
  }
  param {
    lr_mult: 0
  }
  batch_norm_param {
    use_global_stats: false
  }
}
layer {
  name: "scale2_1_D"
  type: "Scale"
  bottom: "conv2_1_D"
  top: "conv2_1_D"
  param {
    lr_mult: 1
    decay_mult: 1
  }
  param {
    lr_mult: 1
    decay_mult: 1
  }
  scale_param {
    bias_term: true
    bias_filler {
      type: "constant"
      value: 0
    }
  }
}
layer {
  name: "relu2_1_D"
  type: "ReLU"
  bottom: "conv2_1_D"
  top: "conv2_1_D"
}
layer {
  name: "upsample1"
  type: "Upsample"
  bottom: "conv2_1_D"
  bottom: "pool1_mask"
  top: "pool1_D"
  upsample_param {
    scale: 2
    upsample_h: 224
    upsample_w: 224
  }
}
layer {
  name: "conv1_2_D"
  type: "Convolution"
  bottom: "pool1_D"
  top: "conv1_2_D"
  param {
    lr_mult: 1
    decay_mult: 1
  }
  convolution_param {
    num_output: 32
    bias_term: false
    pad: 1
    kernel_size: 3
    weight_filler {
      type: "xavier"
    }
  }
}
layer {
  name: "bn1_2_D"
  type: "BatchNorm"
  bottom: "conv1_2_D"
  top: "conv1_2_D"
  param {
    lr_mult: 0
  }
  param {
    lr_mult: 0
  }
  param {
    lr_mult: 0
  }
  batch_norm_param {
    use_global_stats: false
  }
}
layer {
  name: "scale1_2_D"
  type: "Scale"
  bottom: "conv1_2_D"
  top: "conv1_2_D"
  param {
    lr_mult: 1
    decay_mult: 1
  }
  param {
    lr_mult: 1
    decay_mult: 1
  }
  scale_param {
    bias_term: true
    bias_filler {
      type: "constant"
      value: 0
    }
  }
}
layer {
  name: "relu1_2_D"
  type: "ReLU"
  bottom: "conv1_2_D"
  top: "conv1_2_D"
}
layer {
  name: "conv1_1_D"
  type: "Convolution"
  bottom: "conv1_2_D"
  top: "conv1_1_D"
  param {
    lr_mult: 1
    decay_mult: 1
  }
  param {
    lr_mult: 1
    decay_mult: 1
  }
  convolution_param {
    num_output: 2
    bias_term: true
    pad: 1
    kernel_size: 3
    weight_filler {
      type: "xavier"
    }
    bias_filler {
      type: "constant"
    }
  }
}
layer {
  name: "loss"
  type: "SoftmaxWithLoss"
  bottom: "conv1_1_D"
  bottom: "label"
  top: "loss"
}
layer {
  name: "accuracy"
  type: "Accuracy"
  bottom: "conv1_1_D"
  bottom: "label"
  top: "accuracy"
}
I0624 13:54:13.265650 18353 layer_factory.hpp:77] Creating layer data
I0624 13:54:13.265681 18353 net.cpp:91] Creating Layer data
I0624 13:54:13.265686 18353 net.cpp:399] data -> data
I0624 13:54:13.265707 18353 net.cpp:399] data -> label
I0624 13:54:13.266022 18353 dense_image_data_layer.cpp:38] Opening file data/train_seg.txt
I0624 13:54:13.266911 18353 dense_image_data_layer.cpp:48] Shuffling data
I0624 13:54:13.267125 18353 dense_image_data_layer.cpp:53] A total of 2024 examples.
I0624 13:54:13.513574 18353 dense_image_data_layer.cpp:92] output data size: 1,1,224,224
I0624 13:54:13.515386 18353 net.cpp:141] Setting up data
I0624 13:54:13.515404 18353 net.cpp:148] Top shape: 1 1 224 224 (50176)
I0624 13:54:13.515409 18353 net.cpp:148] Top shape: 1 1 224 224 (50176)
I0624 13:54:13.515413 18353 net.cpp:156] Memory required for data: 401408
I0624 13:54:13.515419 18353 layer_factory.hpp:77] Creating layer label_data_1_split
I0624 13:54:13.515434 18353 net.cpp:91] Creating Layer label_data_1_split
I0624 13:54:13.515437 18353 net.cpp:425] label_data_1_split <- label
I0624 13:54:13.515446 18353 net.cpp:399] label_data_1_split -> label_data_1_split_0
I0624 13:54:13.515460 18353 net.cpp:399] label_data_1_split -> label_data_1_split_1
I0624 13:54:13.515521 18353 net.cpp:141] Setting up label_data_1_split
I0624 13:54:13.515528 18353 net.cpp:148] Top shape: 1 1 224 224 (50176)
I0624 13:54:13.515532 18353 net.cpp:148] Top shape: 1 1 224 224 (50176)
I0624 13:54:13.515533 18353 net.cpp:156] Memory required for data: 802816
I0624 13:54:13.515537 18353 layer_factory.hpp:77] Creating layer conv1_1
I0624 13:54:13.515549 18353 net.cpp:91] Creating Layer conv1_1
I0624 13:54:13.515552 18353 net.cpp:425] conv1_1 <- data
I0624 13:54:13.515558 18353 net.cpp:399] conv1_1 -> conv1_1
I0624 13:54:13.701439 18353 net.cpp:141] Setting up conv1_1
I0624 13:54:13.701464 18353 net.cpp:148] Top shape: 1 32 224 224 (1605632)
I0624 13:54:13.701467 18353 net.cpp:156] Memory required for data: 7225344
I0624 13:54:13.701480 18353 layer_factory.hpp:77] Creating layer bn1_1
I0624 13:54:13.701490 18353 net.cpp:91] Creating Layer bn1_1
I0624 13:54:13.701495 18353 net.cpp:425] bn1_1 <- conv1_1
I0624 13:54:13.701499 18353 net.cpp:386] bn1_1 -> conv1_1 (in-place)
I0624 13:54:13.701684 18353 net.cpp:141] Setting up bn1_1
I0624 13:54:13.701692 18353 net.cpp:148] Top shape: 1 32 224 224 (1605632)
I0624 13:54:13.701694 18353 net.cpp:156] Memory required for data: 13647872
I0624 13:54:13.701704 18353 layer_factory.hpp:77] Creating layer scale1_1
I0624 13:54:13.701714 18353 net.cpp:91] Creating Layer scale1_1
I0624 13:54:13.701716 18353 net.cpp:425] scale1_1 <- conv1_1
I0624 13:54:13.701720 18353 net.cpp:386] scale1_1 -> conv1_1 (in-place)
I0624 13:54:13.701756 18353 layer_factory.hpp:77] Creating layer scale1_1
I0624 13:54:13.701912 18353 net.cpp:141] Setting up scale1_1
I0624 13:54:13.701920 18353 net.cpp:148] Top shape: 1 32 224 224 (1605632)
I0624 13:54:13.701922 18353 net.cpp:156] Memory required for data: 20070400
I0624 13:54:13.701928 18353 layer_factory.hpp:77] Creating layer relu1_1
I0624 13:54:13.701933 18353 net.cpp:91] Creating Layer relu1_1
I0624 13:54:13.701936 18353 net.cpp:425] relu1_1 <- conv1_1
I0624 13:54:13.701939 18353 net.cpp:386] relu1_1 -> conv1_1 (in-place)
I0624 13:54:13.702198 18353 net.cpp:141] Setting up relu1_1
I0624 13:54:13.702209 18353 net.cpp:148] Top shape: 1 32 224 224 (1605632)
I0624 13:54:13.702213 18353 net.cpp:156] Memory required for data: 26492928
I0624 13:54:13.702214 18353 layer_factory.hpp:77] Creating layer conv1_2
I0624 13:54:13.702224 18353 net.cpp:91] Creating Layer conv1_2
I0624 13:54:13.702226 18353 net.cpp:425] conv1_2 <- conv1_1
I0624 13:54:13.702230 18353 net.cpp:399] conv1_2 -> conv1_2
I0624 13:54:13.703775 18353 net.cpp:141] Setting up conv1_2
I0624 13:54:13.703788 18353 net.cpp:148] Top shape: 1 32 224 224 (1605632)
I0624 13:54:13.703790 18353 net.cpp:156] Memory required for data: 32915456
I0624 13:54:13.703795 18353 layer_factory.hpp:77] Creating layer bn1_2
I0624 13:54:13.703801 18353 net.cpp:91] Creating Layer bn1_2
I0624 13:54:13.703804 18353 net.cpp:425] bn1_2 <- conv1_2
I0624 13:54:13.703809 18353 net.cpp:386] bn1_2 -> conv1_2 (in-place)
I0624 13:54:13.703979 18353 net.cpp:141] Setting up bn1_2
I0624 13:54:13.703986 18353 net.cpp:148] Top shape: 1 32 224 224 (1605632)
I0624 13:54:13.703989 18353 net.cpp:156] Memory required for data: 39337984
I0624 13:54:13.703996 18353 layer_factory.hpp:77] Creating layer scale1_2
I0624 13:54:13.704020 18353 net.cpp:91] Creating Layer scale1_2
I0624 13:54:13.704022 18353 net.cpp:425] scale1_2 <- conv1_2
I0624 13:54:13.704027 18353 net.cpp:386] scale1_2 -> conv1_2 (in-place)
I0624 13:54:13.704058 18353 layer_factory.hpp:77] Creating layer scale1_2
I0624 13:54:13.704216 18353 net.cpp:141] Setting up scale1_2
I0624 13:54:13.704223 18353 net.cpp:148] Top shape: 1 32 224 224 (1605632)
I0624 13:54:13.704226 18353 net.cpp:156] Memory required for data: 45760512
I0624 13:54:13.704231 18353 layer_factory.hpp:77] Creating layer relu1_2
I0624 13:54:13.704234 18353 net.cpp:91] Creating Layer relu1_2
I0624 13:54:13.704237 18353 net.cpp:425] relu1_2 <- conv1_2
I0624 13:54:13.704241 18353 net.cpp:386] relu1_2 -> conv1_2 (in-place)
I0624 13:54:13.704375 18353 net.cpp:141] Setting up relu1_2
I0624 13:54:13.704383 18353 net.cpp:148] Top shape: 1 32 224 224 (1605632)
I0624 13:54:13.704385 18353 net.cpp:156] Memory required for data: 52183040
I0624 13:54:13.704388 18353 layer_factory.hpp:77] Creating layer pool1
I0624 13:54:13.704391 18353 layer_factory.cpp:90] cuDNN does not support multiple tops. Using Caffe's own pooling layer.
I0624 13:54:13.704396 18353 net.cpp:91] Creating Layer pool1
I0624 13:54:13.704398 18353 net.cpp:425] pool1 <- conv1_2
I0624 13:54:13.704402 18353 net.cpp:399] pool1 -> pool1
I0624 13:54:13.704409 18353 net.cpp:399] pool1 -> pool1_mask
I0624 13:54:13.704450 18353 net.cpp:141] Setting up pool1
I0624 13:54:13.704457 18353 net.cpp:148] Top shape: 1 32 112 112 (401408)
I0624 13:54:13.704460 18353 net.cpp:148] Top shape: 1 32 112 112 (401408)
I0624 13:54:13.704463 18353 net.cpp:156] Memory required for data: 55394304
I0624 13:54:13.704464 18353 layer_factory.hpp:77] Creating layer conv2_1
I0624 13:54:13.704471 18353 net.cpp:91] Creating Layer conv2_1
I0624 13:54:13.704474 18353 net.cpp:425] conv2_1 <- pool1
I0624 13:54:13.704478 18353 net.cpp:399] conv2_1 -> conv2_1
I0624 13:54:13.706091 18353 net.cpp:141] Setting up conv2_1
I0624 13:54:13.706105 18353 net.cpp:148] Top shape: 1 64 112 112 (802816)
I0624 13:54:13.706109 18353 net.cpp:156] Memory required for data: 58605568
I0624 13:54:13.706112 18353 layer_factory.hpp:77] Creating layer bn2_1
I0624 13:54:13.706120 18353 net.cpp:91] Creating Layer bn2_1
I0624 13:54:13.706121 18353 net.cpp:425] bn2_1 <- conv2_1
I0624 13:54:13.706126 18353 net.cpp:386] bn2_1 -> conv2_1 (in-place)
I0624 13:54:13.706280 18353 net.cpp:141] Setting up bn2_1
I0624 13:54:13.706288 18353 net.cpp:148] Top shape: 1 64 112 112 (802816)
I0624 13:54:13.706290 18353 net.cpp:156] Memory required for data: 61816832
I0624 13:54:13.706295 18353 layer_factory.hpp:77] Creating layer scale2_1
I0624 13:54:13.706303 18353 net.cpp:91] Creating Layer scale2_1
I0624 13:54:13.706305 18353 net.cpp:425] scale2_1 <- conv2_1
I0624 13:54:13.706310 18353 net.cpp:386] scale2_1 -> conv2_1 (in-place)
I0624 13:54:13.706341 18353 layer_factory.hpp:77] Creating layer scale2_1
I0624 13:54:13.706439 18353 net.cpp:141] Setting up scale2_1
I0624 13:54:13.706445 18353 net.cpp:148] Top shape: 1 64 112 112 (802816)
I0624 13:54:13.706447 18353 net.cpp:156] Memory required for data: 65028096
I0624 13:54:13.706455 18353 layer_factory.hpp:77] Creating layer relu2_1
I0624 13:54:13.706460 18353 net.cpp:91] Creating Layer relu2_1
I0624 13:54:13.706462 18353 net.cpp:425] relu2_1 <- conv2_1
I0624 13:54:13.706467 18353 net.cpp:386] relu2_1 -> conv2_1 (in-place)
I0624 13:54:13.706728 18353 net.cpp:141] Setting up relu2_1
I0624 13:54:13.706740 18353 net.cpp:148] Top shape: 1 64 112 112 (802816)
I0624 13:54:13.706743 18353 net.cpp:156] Memory required for data: 68239360
I0624 13:54:13.706745 18353 layer_factory.hpp:77] Creating layer conv2_2
I0624 13:54:13.706754 18353 net.cpp:91] Creating Layer conv2_2
I0624 13:54:13.706758 18353 net.cpp:425] conv2_2 <- conv2_1
I0624 13:54:13.706763 18353 net.cpp:399] conv2_2 -> conv2_2
I0624 13:54:13.707770 18353 net.cpp:141] Setting up conv2_2
I0624 13:54:13.707783 18353 net.cpp:148] Top shape: 1 64 112 112 (802816)
I0624 13:54:13.707795 18353 net.cpp:156] Memory required for data: 71450624
I0624 13:54:13.707801 18353 layer_factory.hpp:77] Creating layer bn2_2
I0624 13:54:13.707809 18353 net.cpp:91] Creating Layer bn2_2
I0624 13:54:13.707813 18353 net.cpp:425] bn2_2 <- conv2_2
I0624 13:54:13.707818 18353 net.cpp:386] bn2_2 -> conv2_2 (in-place)
I0624 13:54:13.707973 18353 net.cpp:141] Setting up bn2_2
I0624 13:54:13.707980 18353 net.cpp:148] Top shape: 1 64 112 112 (802816)
I0624 13:54:13.707983 18353 net.cpp:156] Memory required for data: 74661888
I0624 13:54:13.707988 18353 layer_factory.hpp:77] Creating layer scale2_2
I0624 13:54:13.707994 18353 net.cpp:91] Creating Layer scale2_2
I0624 13:54:13.707998 18353 net.cpp:425] scale2_2 <- conv2_2
I0624 13:54:13.708001 18353 net.cpp:386] scale2_2 -> conv2_2 (in-place)
I0624 13:54:13.708031 18353 layer_factory.hpp:77] Creating layer scale2_2
I0624 13:54:13.708133 18353 net.cpp:141] Setting up scale2_2
I0624 13:54:13.708140 18353 net.cpp:148] Top shape: 1 64 112 112 (802816)
I0624 13:54:13.708142 18353 net.cpp:156] Memory required for data: 77873152
I0624 13:54:13.708148 18353 layer_factory.hpp:77] Creating layer relu2_2
I0624 13:54:13.708151 18353 net.cpp:91] Creating Layer relu2_2
I0624 13:54:13.708153 18353 net.cpp:425] relu2_2 <- conv2_2
I0624 13:54:13.708158 18353 net.cpp:386] relu2_2 -> conv2_2 (in-place)
I0624 13:54:13.708425 18353 net.cpp:141] Setting up relu2_2
I0624 13:54:13.708437 18353 net.cpp:148] Top shape: 1 64 112 112 (802816)
I0624 13:54:13.708441 18353 net.cpp:156] Memory required for data: 81084416
I0624 13:54:13.708443 18353 layer_factory.hpp:77] Creating layer pool2
I0624 13:54:13.708446 18353 layer_factory.cpp:90] cuDNN does not support multiple tops. Using Caffe's own pooling layer.
I0624 13:54:13.708451 18353 net.cpp:91] Creating Layer pool2
I0624 13:54:13.708453 18353 net.cpp:425] pool2 <- conv2_2
I0624 13:54:13.708457 18353 net.cpp:399] pool2 -> pool2
I0624 13:54:13.708463 18353 net.cpp:399] pool2 -> pool2_mask
I0624 13:54:13.708498 18353 net.cpp:141] Setting up pool2
I0624 13:54:13.708505 18353 net.cpp:148] Top shape: 1 64 56 56 (200704)
I0624 13:54:13.708508 18353 net.cpp:148] Top shape: 1 64 56 56 (200704)
I0624 13:54:13.708510 18353 net.cpp:156] Memory required for data: 82690048
I0624 13:54:13.708513 18353 layer_factory.hpp:77] Creating layer conv3_1
I0624 13:54:13.708520 18353 net.cpp:91] Creating Layer conv3_1
I0624 13:54:13.708523 18353 net.cpp:425] conv3_1 <- pool2
I0624 13:54:13.708528 18353 net.cpp:399] conv3_1 -> conv3_1
I0624 13:54:13.710465 18353 net.cpp:141] Setting up conv3_1
I0624 13:54:13.710477 18353 net.cpp:148] Top shape: 1 128 56 56 (401408)
I0624 13:54:13.710480 18353 net.cpp:156] Memory required for data: 84295680
I0624 13:54:13.710485 18353 layer_factory.hpp:77] Creating layer bn3_1
I0624 13:54:13.710491 18353 net.cpp:91] Creating Layer bn3_1
I0624 13:54:13.710494 18353 net.cpp:425] bn3_1 <- conv3_1
I0624 13:54:13.710499 18353 net.cpp:386] bn3_1 -> conv3_1 (in-place)
I0624 13:54:13.711262 18353 net.cpp:141] Setting up bn3_1
I0624 13:54:13.711273 18353 net.cpp:148] Top shape: 1 128 56 56 (401408)
I0624 13:54:13.711277 18353 net.cpp:156] Memory required for data: 85901312
I0624 13:54:13.711282 18353 layer_factory.hpp:77] Creating layer scale3_1
I0624 13:54:13.711289 18353 net.cpp:91] Creating Layer scale3_1
I0624 13:54:13.711292 18353 net.cpp:425] scale3_1 <- conv3_1
I0624 13:54:13.711297 18353 net.cpp:386] scale3_1 -> conv3_1 (in-place)
I0624 13:54:13.711331 18353 layer_factory.hpp:77] Creating layer scale3_1
I0624 13:54:13.711422 18353 net.cpp:141] Setting up scale3_1
I0624 13:54:13.711428 18353 net.cpp:148] Top shape: 1 128 56 56 (401408)
I0624 13:54:13.711431 18353 net.cpp:156] Memory required for data: 87506944
I0624 13:54:13.711436 18353 layer_factory.hpp:77] Creating layer relu3_1
I0624 13:54:13.711441 18353 net.cpp:91] Creating Layer relu3_1
I0624 13:54:13.711443 18353 net.cpp:425] relu3_1 <- conv3_1
I0624 13:54:13.711447 18353 net.cpp:386] relu3_1 -> conv3_1 (in-place)
I0624 13:54:13.711591 18353 net.cpp:141] Setting up relu3_1
I0624 13:54:13.711601 18353 net.cpp:148] Top shape: 1 128 56 56 (401408)
I0624 13:54:13.711614 18353 net.cpp:156] Memory required for data: 89112576
I0624 13:54:13.711617 18353 layer_factory.hpp:77] Creating layer conv3_2
I0624 13:54:13.711627 18353 net.cpp:91] Creating Layer conv3_2
I0624 13:54:13.711633 18353 net.cpp:425] conv3_2 <- conv3_1
I0624 13:54:13.711638 18353 net.cpp:399] conv3_2 -> conv3_2
I0624 13:54:13.713397 18353 net.cpp:141] Setting up conv3_2
I0624 13:54:13.713412 18353 net.cpp:148] Top shape: 1 128 56 56 (401408)
I0624 13:54:13.713414 18353 net.cpp:156] Memory required for data: 90718208
I0624 13:54:13.713418 18353 layer_factory.hpp:77] Creating layer bn3_2
I0624 13:54:13.713424 18353 net.cpp:91] Creating Layer bn3_2
I0624 13:54:13.713428 18353 net.cpp:425] bn3_2 <- conv3_2
I0624 13:54:13.713431 18353 net.cpp:386] bn3_2 -> conv3_2 (in-place)
I0624 13:54:13.713583 18353 net.cpp:141] Setting up bn3_2
I0624 13:54:13.713590 18353 net.cpp:148] Top shape: 1 128 56 56 (401408)
I0624 13:54:13.713593 18353 net.cpp:156] Memory required for data: 92323840
I0624 13:54:13.713601 18353 layer_factory.hpp:77] Creating layer scale3_2
I0624 13:54:13.713608 18353 net.cpp:91] Creating Layer scale3_2
I0624 13:54:13.713611 18353 net.cpp:425] scale3_2 <- conv3_2
I0624 13:54:13.713614 18353 net.cpp:386] scale3_2 -> conv3_2 (in-place)
I0624 13:54:13.713649 18353 layer_factory.hpp:77] Creating layer scale3_2
I0624 13:54:13.713738 18353 net.cpp:141] Setting up scale3_2
I0624 13:54:13.713744 18353 net.cpp:148] Top shape: 1 128 56 56 (401408)
I0624 13:54:13.713747 18353 net.cpp:156] Memory required for data: 93929472
I0624 13:54:13.713752 18353 layer_factory.hpp:77] Creating layer relu3_2
I0624 13:54:13.713755 18353 net.cpp:91] Creating Layer relu3_2
I0624 13:54:13.713758 18353 net.cpp:425] relu3_2 <- conv3_2
I0624 13:54:13.713763 18353 net.cpp:386] relu3_2 -> conv3_2 (in-place)
I0624 13:54:13.714032 18353 net.cpp:141] Setting up relu3_2
I0624 13:54:13.714042 18353 net.cpp:148] Top shape: 1 128 56 56 (401408)
I0624 13:54:13.714046 18353 net.cpp:156] Memory required for data: 95535104
I0624 13:54:13.714047 18353 layer_factory.hpp:77] Creating layer pool3
I0624 13:54:13.714051 18353 layer_factory.cpp:90] cuDNN does not support multiple tops. Using Caffe's own pooling layer.
I0624 13:54:13.714056 18353 net.cpp:91] Creating Layer pool3
I0624 13:54:13.714058 18353 net.cpp:425] pool3 <- conv3_2
I0624 13:54:13.714062 18353 net.cpp:399] pool3 -> pool3
I0624 13:54:13.714068 18353 net.cpp:399] pool3 -> pool3_mask
I0624 13:54:13.714105 18353 net.cpp:141] Setting up pool3
I0624 13:54:13.714114 18353 net.cpp:148] Top shape: 1 128 28 28 (100352)
I0624 13:54:13.714118 18353 net.cpp:148] Top shape: 1 128 28 28 (100352)
I0624 13:54:13.714119 18353 net.cpp:156] Memory required for data: 96337920
I0624 13:54:13.714121 18353 layer_factory.hpp:77] Creating layer conv4_1
I0624 13:54:13.714129 18353 net.cpp:91] Creating Layer conv4_1
I0624 13:54:13.714131 18353 net.cpp:425] conv4_1 <- pool3
I0624 13:54:13.714138 18353 net.cpp:399] conv4_1 -> conv4_1
I0624 13:54:13.717360 18353 net.cpp:141] Setting up conv4_1
I0624 13:54:13.717372 18353 net.cpp:148] Top shape: 1 256 28 28 (200704)
I0624 13:54:13.717375 18353 net.cpp:156] Memory required for data: 97140736
I0624 13:54:13.717381 18353 layer_factory.hpp:77] Creating layer bn4_1
I0624 13:54:13.717387 18353 net.cpp:91] Creating Layer bn4_1
I0624 13:54:13.717391 18353 net.cpp:425] bn4_1 <- conv4_1
I0624 13:54:13.717394 18353 net.cpp:386] bn4_1 -> conv4_1 (in-place)
I0624 13:54:13.717552 18353 net.cpp:141] Setting up bn4_1
I0624 13:54:13.717559 18353 net.cpp:148] Top shape: 1 256 28 28 (200704)
I0624 13:54:13.717562 18353 net.cpp:156] Memory required for data: 97943552
I0624 13:54:13.717567 18353 layer_factory.hpp:77] Creating layer scale4_1
I0624 13:54:13.717574 18353 net.cpp:91] Creating Layer scale4_1
I0624 13:54:13.717577 18353 net.cpp:425] scale4_1 <- conv4_1
I0624 13:54:13.717581 18353 net.cpp:386] scale4_1 -> conv4_1 (in-place)
I0624 13:54:13.717615 18353 layer_factory.hpp:77] Creating layer scale4_1
I0624 13:54:13.717716 18353 net.cpp:141] Setting up scale4_1
I0624 13:54:13.717732 18353 net.cpp:148] Top shape: 1 256 28 28 (200704)
I0624 13:54:13.717736 18353 net.cpp:156] Memory required for data: 98746368
I0624 13:54:13.717741 18353 layer_factory.hpp:77] Creating layer relu4_1
I0624 13:54:13.717748 18353 net.cpp:91] Creating Layer relu4_1
I0624 13:54:13.717751 18353 net.cpp:425] relu4_1 <- conv4_1
I0624 13:54:13.717756 18353 net.cpp:386] relu4_1 -> conv4_1 (in-place)
I0624 13:54:13.718031 18353 net.cpp:141] Setting up relu4_1
I0624 13:54:13.718044 18353 net.cpp:148] Top shape: 1 256 28 28 (200704)
I0624 13:54:13.718046 18353 net.cpp:156] Memory required for data: 99549184
I0624 13:54:13.718049 18353 layer_factory.hpp:77] Creating layer conv4_2
I0624 13:54:13.718057 18353 net.cpp:91] Creating Layer conv4_2
I0624 13:54:13.718060 18353 net.cpp:425] conv4_2 <- conv4_1
I0624 13:54:13.718065 18353 net.cpp:399] conv4_2 -> conv4_2
I0624 13:54:13.723716 18353 net.cpp:141] Setting up conv4_2
I0624 13:54:13.723728 18353 net.cpp:148] Top shape: 1 256 28 28 (200704)
I0624 13:54:13.723731 18353 net.cpp:156] Memory required for data: 100352000
I0624 13:54:13.723736 18353 layer_factory.hpp:77] Creating layer bn4_2
I0624 13:54:13.723743 18353 net.cpp:91] Creating Layer bn4_2
I0624 13:54:13.723747 18353 net.cpp:425] bn4_2 <- conv4_2
I0624 13:54:13.723750 18353 net.cpp:386] bn4_2 -> conv4_2 (in-place)
I0624 13:54:13.723914 18353 net.cpp:141] Setting up bn4_2
I0624 13:54:13.723922 18353 net.cpp:148] Top shape: 1 256 28 28 (200704)
I0624 13:54:13.723925 18353 net.cpp:156] Memory required for data: 101154816
I0624 13:54:13.723930 18353 layer_factory.hpp:77] Creating layer scale4_2
I0624 13:54:13.723937 18353 net.cpp:91] Creating Layer scale4_2
I0624 13:54:13.723939 18353 net.cpp:425] scale4_2 <- conv4_2
I0624 13:54:13.723944 18353 net.cpp:386] scale4_2 -> conv4_2 (in-place)
I0624 13:54:13.723978 18353 layer_factory.hpp:77] Creating layer scale4_2
I0624 13:54:13.724071 18353 net.cpp:141] Setting up scale4_2
I0624 13:54:13.724077 18353 net.cpp:148] Top shape: 1 256 28 28 (200704)
I0624 13:54:13.724081 18353 net.cpp:156] Memory required for data: 101957632
I0624 13:54:13.724084 18353 layer_factory.hpp:77] Creating layer relu4_2
I0624 13:54:13.724088 18353 net.cpp:91] Creating Layer relu4_2
I0624 13:54:13.724092 18353 net.cpp:425] relu4_2 <- conv4_2
I0624 13:54:13.724094 18353 net.cpp:386] relu4_2 -> conv4_2 (in-place)
I0624 13:54:13.724243 18353 net.cpp:141] Setting up relu4_2
I0624 13:54:13.724252 18353 net.cpp:148] Top shape: 1 256 28 28 (200704)
I0624 13:54:13.724254 18353 net.cpp:156] Memory required for data: 102760448
I0624 13:54:13.724257 18353 layer_factory.hpp:77] Creating layer pool4
I0624 13:54:13.724259 18353 layer_factory.cpp:90] cuDNN does not support multiple tops. Using Caffe's own pooling layer.
I0624 13:54:13.724266 18353 net.cpp:91] Creating Layer pool4
I0624 13:54:13.724267 18353 net.cpp:425] pool4 <- conv4_2
I0624 13:54:13.724272 18353 net.cpp:399] pool4 -> pool4
I0624 13:54:13.724277 18353 net.cpp:399] pool4 -> pool4_mask
I0624 13:54:13.724315 18353 net.cpp:141] Setting up pool4
I0624 13:54:13.724321 18353 net.cpp:148] Top shape: 1 256 14 14 (50176)
I0624 13:54:13.724324 18353 net.cpp:148] Top shape: 1 256 14 14 (50176)
I0624 13:54:13.724326 18353 net.cpp:156] Memory required for data: 103161856
I0624 13:54:13.724328 18353 layer_factory.hpp:77] Creating layer conv5_1
I0624 13:54:13.724336 18353 net.cpp:91] Creating Layer conv5_1
I0624 13:54:13.724339 18353 net.cpp:425] conv5_1 <- pool4
I0624 13:54:13.724350 18353 net.cpp:399] conv5_1 -> conv5_1
I0624 13:54:13.729848 18353 net.cpp:141] Setting up conv5_1
I0624 13:54:13.729862 18353 net.cpp:148] Top shape: 1 256 14 14 (50176)
I0624 13:54:13.729866 18353 net.cpp:156] Memory required for data: 103362560
I0624 13:54:13.729869 18353 layer_factory.hpp:77] Creating layer bn5_1
I0624 13:54:13.729876 18353 net.cpp:91] Creating Layer bn5_1
I0624 13:54:13.729878 18353 net.cpp:425] bn5_1 <- conv5_1
I0624 13:54:13.729883 18353 net.cpp:386] bn5_1 -> conv5_1 (in-place)
I0624 13:54:13.730049 18353 net.cpp:141] Setting up bn5_1
I0624 13:54:13.730067 18353 net.cpp:148] Top shape: 1 256 14 14 (50176)
I0624 13:54:13.730069 18353 net.cpp:156] Memory required for data: 103563264
I0624 13:54:13.730075 18353 layer_factory.hpp:77] Creating layer scale5_1
I0624 13:54:13.730082 18353 net.cpp:91] Creating Layer scale5_1
I0624 13:54:13.730083 18353 net.cpp:425] scale5_1 <- conv5_1
I0624 13:54:13.730087 18353 net.cpp:386] scale5_1 -> conv5_1 (in-place)
I0624 13:54:13.730124 18353 layer_factory.hpp:77] Creating layer scale5_1
I0624 13:54:13.730216 18353 net.cpp:141] Setting up scale5_1
I0624 13:54:13.730222 18353 net.cpp:148] Top shape: 1 256 14 14 (50176)
I0624 13:54:13.730224 18353 net.cpp:156] Memory required for data: 103763968
I0624 13:54:13.730228 18353 layer_factory.hpp:77] Creating layer relu5_1
I0624 13:54:13.730233 18353 net.cpp:91] Creating Layer relu5_1
I0624 13:54:13.730237 18353 net.cpp:425] relu5_1 <- conv5_1
I0624 13:54:13.730239 18353 net.cpp:386] relu5_1 -> conv5_1 (in-place)
I0624 13:54:13.730514 18353 net.cpp:141] Setting up relu5_1
I0624 13:54:13.730525 18353 net.cpp:148] Top shape: 1 256 14 14 (50176)
I0624 13:54:13.730526 18353 net.cpp:156] Memory required for data: 103964672
I0624 13:54:13.730530 18353 layer_factory.hpp:77] Creating layer conv5_2
I0624 13:54:13.730537 18353 net.cpp:91] Creating Layer conv5_2
I0624 13:54:13.730540 18353 net.cpp:425] conv5_2 <- conv5_1
I0624 13:54:13.730545 18353 net.cpp:399] conv5_2 -> conv5_2
I0624 13:54:13.735982 18353 net.cpp:141] Setting up conv5_2
I0624 13:54:13.735998 18353 net.cpp:148] Top shape: 1 256 14 14 (50176)
I0624 13:54:13.736001 18353 net.cpp:156] Memory required for data: 104165376
I0624 13:54:13.736006 18353 layer_factory.hpp:77] Creating layer bn5_2
I0624 13:54:13.736012 18353 net.cpp:91] Creating Layer bn5_2
I0624 13:54:13.736016 18353 net.cpp:425] bn5_2 <- conv5_2
I0624 13:54:13.736021 18353 net.cpp:386] bn5_2 -> conv5_2 (in-place)
I0624 13:54:13.736181 18353 net.cpp:141] Setting up bn5_2
I0624 13:54:13.736188 18353 net.cpp:148] Top shape: 1 256 14 14 (50176)
I0624 13:54:13.736191 18353 net.cpp:156] Memory required for data: 104366080
I0624 13:54:13.736197 18353 layer_factory.hpp:77] Creating layer scale5_2
I0624 13:54:13.736204 18353 net.cpp:91] Creating Layer scale5_2
I0624 13:54:13.736207 18353 net.cpp:425] scale5_2 <- conv5_2
I0624 13:54:13.736210 18353 net.cpp:386] scale5_2 -> conv5_2 (in-place)
I0624 13:54:13.736249 18353 layer_factory.hpp:77] Creating layer scale5_2
I0624 13:54:13.736343 18353 net.cpp:141] Setting up scale5_2
I0624 13:54:13.736351 18353 net.cpp:148] Top shape: 1 256 14 14 (50176)
I0624 13:54:13.736352 18353 net.cpp:156] Memory required for data: 104566784
I0624 13:54:13.736356 18353 layer_factory.hpp:77] Creating layer relu5_2
I0624 13:54:13.736362 18353 net.cpp:91] Creating Layer relu5_2
I0624 13:54:13.736366 18353 net.cpp:425] relu5_2 <- conv5_2
I0624 13:54:13.736368 18353 net.cpp:386] relu5_2 -> conv5_2 (in-place)
I0624 13:54:13.736780 18353 net.cpp:141] Setting up relu5_2
I0624 13:54:13.736790 18353 net.cpp:148] Top shape: 1 256 14 14 (50176)
I0624 13:54:13.736793 18353 net.cpp:156] Memory required for data: 104767488
I0624 13:54:13.736795 18353 layer_factory.hpp:77] Creating layer pool5
I0624 13:54:13.736799 18353 layer_factory.cpp:90] cuDNN does not support multiple tops. Using Caffe's own pooling layer.
I0624 13:54:13.736804 18353 net.cpp:91] Creating Layer pool5
I0624 13:54:13.736807 18353 net.cpp:425] pool5 <- conv5_2
I0624 13:54:13.736811 18353 net.cpp:399] pool5 -> pool5
I0624 13:54:13.736816 18353 net.cpp:399] pool5 -> pool5_mask
I0624 13:54:13.736857 18353 net.cpp:141] Setting up pool5
I0624 13:54:13.736865 18353 net.cpp:148] Top shape: 1 256 7 7 (12544)
I0624 13:54:13.736868 18353 net.cpp:148] Top shape: 1 256 7 7 (12544)
I0624 13:54:13.736871 18353 net.cpp:156] Memory required for data: 104867840
I0624 13:54:13.736873 18353 layer_factory.hpp:77] Creating layer upsample5
I0624 13:54:13.736881 18353 net.cpp:91] Creating Layer upsample5
I0624 13:54:13.736882 18353 net.cpp:425] upsample5 <- pool5
I0624 13:54:13.736886 18353 net.cpp:425] upsample5 <- pool5_mask
I0624 13:54:13.736901 18353 net.cpp:399] upsample5 -> pool5_D
I0624 13:54:13.736927 18353 net.cpp:141] Setting up upsample5
I0624 13:54:13.736934 18353 net.cpp:148] Top shape: 1 256 14 14 (50176)
I0624 13:54:13.736937 18353 net.cpp:156] Memory required for data: 105068544
I0624 13:54:13.736938 18353 layer_factory.hpp:77] Creating layer conv5_2_D
I0624 13:54:13.736948 18353 net.cpp:91] Creating Layer conv5_2_D
I0624 13:54:13.736951 18353 net.cpp:425] conv5_2_D <- pool5_D
I0624 13:54:13.736955 18353 net.cpp:399] conv5_2_D -> conv5_2_D
I0624 13:54:13.742444 18353 net.cpp:141] Setting up conv5_2_D
I0624 13:54:13.742456 18353 net.cpp:148] Top shape: 1 256 14 14 (50176)
I0624 13:54:13.742458 18353 net.cpp:156] Memory required for data: 105269248
I0624 13:54:13.742463 18353 layer_factory.hpp:77] Creating layer bn5_2_D
I0624 13:54:13.742470 18353 net.cpp:91] Creating Layer bn5_2_D
I0624 13:54:13.742473 18353 net.cpp:425] bn5_2_D <- conv5_2_D
I0624 13:54:13.742477 18353 net.cpp:386] bn5_2_D -> conv5_2_D (in-place)
I0624 13:54:13.742645 18353 net.cpp:141] Setting up bn5_2_D
I0624 13:54:13.742651 18353 net.cpp:148] Top shape: 1 256 14 14 (50176)
I0624 13:54:13.742655 18353 net.cpp:156] Memory required for data: 105469952
I0624 13:54:13.742660 18353 layer_factory.hpp:77] Creating layer scale5_2_D
I0624 13:54:13.742666 18353 net.cpp:91] Creating Layer scale5_2_D
I0624 13:54:13.742669 18353 net.cpp:425] scale5_2_D <- conv5_2_D
I0624 13:54:13.742672 18353 net.cpp:386] scale5_2_D -> conv5_2_D (in-place)
I0624 13:54:13.742709 18353 layer_factory.hpp:77] Creating layer scale5_2_D
I0624 13:54:13.742810 18353 net.cpp:141] Setting up scale5_2_D
I0624 13:54:13.742816 18353 net.cpp:148] Top shape: 1 256 14 14 (50176)
I0624 13:54:13.742820 18353 net.cpp:156] Memory required for data: 105670656
I0624 13:54:13.742832 18353 layer_factory.hpp:77] Creating layer relu5_2_D
I0624 13:54:13.742837 18353 net.cpp:91] Creating Layer relu5_2_D
I0624 13:54:13.742841 18353 net.cpp:425] relu5_2_D <- conv5_2_D
I0624 13:54:13.742844 18353 net.cpp:386] relu5_2_D -> conv5_2_D (in-place)
I0624 13:54:13.742990 18353 net.cpp:141] Setting up relu5_2_D
I0624 13:54:13.742998 18353 net.cpp:148] Top shape: 1 256 14 14 (50176)
I0624 13:54:13.743001 18353 net.cpp:156] Memory required for data: 105871360
I0624 13:54:13.743003 18353 layer_factory.hpp:77] Creating layer conv5_1_D
I0624 13:54:13.743011 18353 net.cpp:91] Creating Layer conv5_1_D
I0624 13:54:13.743015 18353 net.cpp:425] conv5_1_D <- conv5_2_D
I0624 13:54:13.743019 18353 net.cpp:399] conv5_1_D -> conv5_1_D
I0624 13:54:13.748525 18353 net.cpp:141] Setting up conv5_1_D
I0624 13:54:13.748538 18353 net.cpp:148] Top shape: 1 256 14 14 (50176)
I0624 13:54:13.748540 18353 net.cpp:156] Memory required for data: 106072064
I0624 13:54:13.748545 18353 layer_factory.hpp:77] Creating layer bn5_1_D
I0624 13:54:13.748551 18353 net.cpp:91] Creating Layer bn5_1_D
I0624 13:54:13.748553 18353 net.cpp:425] bn5_1_D <- conv5_1_D
I0624 13:54:13.748559 18353 net.cpp:386] bn5_1_D -> conv5_1_D (in-place)
I0624 13:54:13.748738 18353 net.cpp:141] Setting up bn5_1_D
I0624 13:54:13.748745 18353 net.cpp:148] Top shape: 1 256 14 14 (50176)
I0624 13:54:13.748747 18353 net.cpp:156] Memory required for data: 106272768
I0624 13:54:13.748754 18353 layer_factory.hpp:77] Creating layer scale5_1_D
I0624 13:54:13.748759 18353 net.cpp:91] Creating Layer scale5_1_D
I0624 13:54:13.748761 18353 net.cpp:425] scale5_1_D <- conv5_1_D
I0624 13:54:13.748764 18353 net.cpp:386] scale5_1_D -> conv5_1_D (in-place)
I0624 13:54:13.748798 18353 layer_factory.hpp:77] Creating layer scale5_1_D
I0624 13:54:13.748896 18353 net.cpp:141] Setting up scale5_1_D
I0624 13:54:13.748903 18353 net.cpp:148] Top shape: 1 256 14 14 (50176)
I0624 13:54:13.748905 18353 net.cpp:156] Memory required for data: 106473472
I0624 13:54:13.748909 18353 layer_factory.hpp:77] Creating layer relu5_1_D
I0624 13:54:13.748914 18353 net.cpp:91] Creating Layer relu5_1_D
I0624 13:54:13.748917 18353 net.cpp:425] relu5_1_D <- conv5_1_D
I0624 13:54:13.748920 18353 net.cpp:386] relu5_1_D -> conv5_1_D (in-place)
I0624 13:54:13.749228 18353 net.cpp:141] Setting up relu5_1_D
I0624 13:54:13.749240 18353 net.cpp:148] Top shape: 1 256 14 14 (50176)
I0624 13:54:13.749243 18353 net.cpp:156] Memory required for data: 106674176
I0624 13:54:13.749246 18353 layer_factory.hpp:77] Creating layer upsample4
I0624 13:54:13.749253 18353 net.cpp:91] Creating Layer upsample4
I0624 13:54:13.749258 18353 net.cpp:425] upsample4 <- conv5_1_D
I0624 13:54:13.749261 18353 net.cpp:425] upsample4 <- pool4_mask
I0624 13:54:13.749264 18353 net.cpp:399] upsample4 -> pool4_D
I0624 13:54:13.749297 18353 net.cpp:141] Setting up upsample4
I0624 13:54:13.749303 18353 net.cpp:148] Top shape: 1 256 28 28 (200704)
I0624 13:54:13.749305 18353 net.cpp:156] Memory required for data: 107476992
I0624 13:54:13.749308 18353 layer_factory.hpp:77] Creating layer conv4_2_D
I0624 13:54:13.749316 18353 net.cpp:91] Creating Layer conv4_2_D
I0624 13:54:13.749320 18353 net.cpp:425] conv4_2_D <- pool4_D
I0624 13:54:13.749325 18353 net.cpp:399] conv4_2_D -> conv4_2_D
I0624 13:54:13.754690 18353 net.cpp:141] Setting up conv4_2_D
I0624 13:54:13.754703 18353 net.cpp:148] Top shape: 1 256 28 28 (200704)
I0624 13:54:13.754705 18353 net.cpp:156] Memory required for data: 108279808
I0624 13:54:13.754710 18353 layer_factory.hpp:77] Creating layer bn4_2_D
I0624 13:54:13.754717 18353 net.cpp:91] Creating Layer bn4_2_D
I0624 13:54:13.754720 18353 net.cpp:425] bn4_2_D <- conv4_2_D
I0624 13:54:13.754725 18353 net.cpp:386] bn4_2_D -> conv4_2_D (in-place)
I0624 13:54:13.754904 18353 net.cpp:141] Setting up bn4_2_D
I0624 13:54:13.754912 18353 net.cpp:148] Top shape: 1 256 28 28 (200704)
I0624 13:54:13.754914 18353 net.cpp:156] Memory required for data: 109082624
I0624 13:54:13.754920 18353 layer_factory.hpp:77] Creating layer scale4_2_D
I0624 13:54:13.754926 18353 net.cpp:91] Creating Layer scale4_2_D
I0624 13:54:13.754930 18353 net.cpp:425] scale4_2_D <- conv4_2_D
I0624 13:54:13.754932 18353 net.cpp:386] scale4_2_D -> conv4_2_D (in-place)
I0624 13:54:13.754966 18353 layer_factory.hpp:77] Creating layer scale4_2_D
I0624 13:54:13.755067 18353 net.cpp:141] Setting up scale4_2_D
I0624 13:54:13.755074 18353 net.cpp:148] Top shape: 1 256 28 28 (200704)
I0624 13:54:13.755076 18353 net.cpp:156] Memory required for data: 109885440
I0624 13:54:13.755081 18353 layer_factory.hpp:77] Creating layer relu4_2_D
I0624 13:54:13.755085 18353 net.cpp:91] Creating Layer relu4_2_D
I0624 13:54:13.755087 18353 net.cpp:425] relu4_2_D <- conv4_2_D
I0624 13:54:13.755092 18353 net.cpp:386] relu4_2_D -> conv4_2_D (in-place)
I0624 13:54:13.755380 18353 net.cpp:141] Setting up relu4_2_D
I0624 13:54:13.755391 18353 net.cpp:148] Top shape: 1 256 28 28 (200704)
I0624 13:54:13.755394 18353 net.cpp:156] Memory required for data: 110688256
I0624 13:54:13.755396 18353 layer_factory.hpp:77] Creating layer conv4_1_D
I0624 13:54:13.755408 18353 net.cpp:91] Creating Layer conv4_1_D
I0624 13:54:13.755410 18353 net.cpp:425] conv4_1_D <- conv4_2_D
I0624 13:54:13.755416 18353 net.cpp:399] conv4_1_D -> conv4_1_D
I0624 13:54:13.758676 18353 net.cpp:141] Setting up conv4_1_D
I0624 13:54:13.758687 18353 net.cpp:148] Top shape: 1 128 28 28 (100352)
I0624 13:54:13.758688 18353 net.cpp:156] Memory required for data: 111089664
I0624 13:54:13.758693 18353 layer_factory.hpp:77] Creating layer bn4_1_D
I0624 13:54:13.758700 18353 net.cpp:91] Creating Layer bn4_1_D
I0624 13:54:13.758703 18353 net.cpp:425] bn4_1_D <- conv4_1_D
I0624 13:54:13.758708 18353 net.cpp:386] bn4_1_D -> conv4_1_D (in-place)
I0624 13:54:13.758882 18353 net.cpp:141] Setting up bn4_1_D
I0624 13:54:13.758889 18353 net.cpp:148] Top shape: 1 128 28 28 (100352)
I0624 13:54:13.758893 18353 net.cpp:156] Memory required for data: 111491072
I0624 13:54:13.758898 18353 layer_factory.hpp:77] Creating layer scale4_1_D
I0624 13:54:13.758903 18353 net.cpp:91] Creating Layer scale4_1_D
I0624 13:54:13.758905 18353 net.cpp:425] scale4_1_D <- conv4_1_D
I0624 13:54:13.758913 18353 net.cpp:386] scale4_1_D -> conv4_1_D (in-place)
I0624 13:54:13.758949 18353 layer_factory.hpp:77] Creating layer scale4_1_D
I0624 13:54:13.759066 18353 net.cpp:141] Setting up scale4_1_D
I0624 13:54:13.759073 18353 net.cpp:148] Top shape: 1 128 28 28 (100352)
I0624 13:54:13.759076 18353 net.cpp:156] Memory required for data: 111892480
I0624 13:54:13.759080 18353 layer_factory.hpp:77] Creating layer relu4_1_D
I0624 13:54:13.759090 18353 net.cpp:91] Creating Layer relu4_1_D
I0624 13:54:13.759095 18353 net.cpp:425] relu4_1_D <- conv4_1_D
I0624 13:54:13.759099 18353 net.cpp:386] relu4_1_D -> conv4_1_D (in-place)
I0624 13:54:13.759265 18353 net.cpp:141] Setting up relu4_1_D
I0624 13:54:13.759274 18353 net.cpp:148] Top shape: 1 128 28 28 (100352)
I0624 13:54:13.759277 18353 net.cpp:156] Memory required for data: 112293888
I0624 13:54:13.759280 18353 layer_factory.hpp:77] Creating layer upsample3
I0624 13:54:13.759285 18353 net.cpp:91] Creating Layer upsample3
I0624 13:54:13.759289 18353 net.cpp:425] upsample3 <- conv4_1_D
I0624 13:54:13.759292 18353 net.cpp:425] upsample3 <- pool3_mask
I0624 13:54:13.759296 18353 net.cpp:399] upsample3 -> pool3_D
I0624 13:54:13.759325 18353 net.cpp:141] Setting up upsample3
I0624 13:54:13.759331 18353 net.cpp:148] Top shape: 1 128 56 56 (401408)
I0624 13:54:13.759333 18353 net.cpp:156] Memory required for data: 113899520
I0624 13:54:13.759335 18353 layer_factory.hpp:77] Creating layer conv3_2_D
I0624 13:54:13.759343 18353 net.cpp:91] Creating Layer conv3_2_D
I0624 13:54:13.759346 18353 net.cpp:425] conv3_2_D <- pool3_D
I0624 13:54:13.759351 18353 net.cpp:399] conv3_2_D -> conv3_2_D
I0624 13:54:13.761837 18353 net.cpp:141] Setting up conv3_2_D
I0624 13:54:13.761850 18353 net.cpp:148] Top shape: 1 128 56 56 (401408)
I0624 13:54:13.761853 18353 net.cpp:156] Memory required for data: 115505152
I0624 13:54:13.761858 18353 layer_factory.hpp:77] Creating layer bn3_2_D
I0624 13:54:13.761868 18353 net.cpp:91] Creating Layer bn3_2_D
I0624 13:54:13.761871 18353 net.cpp:425] bn3_2_D <- conv3_2_D
I0624 13:54:13.761875 18353 net.cpp:386] bn3_2_D -> conv3_2_D (in-place)
I0624 13:54:13.762058 18353 net.cpp:141] Setting up bn3_2_D
I0624 13:54:13.762066 18353 net.cpp:148] Top shape: 1 128 56 56 (401408)
I0624 13:54:13.762069 18353 net.cpp:156] Memory required for data: 117110784
I0624 13:54:13.762075 18353 layer_factory.hpp:77] Creating layer scale3_2_D
I0624 13:54:13.762082 18353 net.cpp:91] Creating Layer scale3_2_D
I0624 13:54:13.762084 18353 net.cpp:425] scale3_2_D <- conv3_2_D
I0624 13:54:13.762089 18353 net.cpp:386] scale3_2_D -> conv3_2_D (in-place)
I0624 13:54:13.762125 18353 layer_factory.hpp:77] Creating layer scale3_2_D
I0624 13:54:13.762230 18353 net.cpp:141] Setting up scale3_2_D
I0624 13:54:13.762238 18353 net.cpp:148] Top shape: 1 128 56 56 (401408)
I0624 13:54:13.762240 18353 net.cpp:156] Memory required for data: 118716416
I0624 13:54:13.762244 18353 layer_factory.hpp:77] Creating layer relu3_2_D
I0624 13:54:13.762249 18353 net.cpp:91] Creating Layer relu3_2_D
I0624 13:54:13.762253 18353 net.cpp:425] relu3_2_D <- conv3_2_D
I0624 13:54:13.762255 18353 net.cpp:386] relu3_2_D -> conv3_2_D (in-place)
I0624 13:54:13.762543 18353 net.cpp:141] Setting up relu3_2_D
I0624 13:54:13.762554 18353 net.cpp:148] Top shape: 1 128 56 56 (401408)
I0624 13:54:13.762557 18353 net.cpp:156] Memory required for data: 120322048
I0624 13:54:13.762559 18353 layer_factory.hpp:77] Creating layer conv3_1_D
I0624 13:54:13.762568 18353 net.cpp:91] Creating Layer conv3_1_D
I0624 13:54:13.762572 18353 net.cpp:425] conv3_1_D <- conv3_2_D
I0624 13:54:13.762575 18353 net.cpp:399] conv3_1_D -> conv3_1_D
I0624 13:54:13.763978 18353 net.cpp:141] Setting up conv3_1_D
I0624 13:54:13.763990 18353 net.cpp:148] Top shape: 1 64 56 56 (200704)
I0624 13:54:13.763993 18353 net.cpp:156] Memory required for data: 121124864
I0624 13:54:13.763998 18353 layer_factory.hpp:77] Creating layer bn3_1_D
I0624 13:54:13.764004 18353 net.cpp:91] Creating Layer bn3_1_D
I0624 13:54:13.764008 18353 net.cpp:425] bn3_1_D <- conv3_1_D
I0624 13:54:13.764011 18353 net.cpp:386] bn3_1_D -> conv3_1_D (in-place)
I0624 13:54:13.764202 18353 net.cpp:141] Setting up bn3_1_D
I0624 13:54:13.764219 18353 net.cpp:148] Top shape: 1 64 56 56 (200704)
I0624 13:54:13.764221 18353 net.cpp:156] Memory required for data: 121927680
I0624 13:54:13.764226 18353 layer_factory.hpp:77] Creating layer scale3_1_D
I0624 13:54:13.764232 18353 net.cpp:91] Creating Layer scale3_1_D
I0624 13:54:13.764235 18353 net.cpp:425] scale3_1_D <- conv3_1_D
I0624 13:54:13.764240 18353 net.cpp:386] scale3_1_D -> conv3_1_D (in-place)
I0624 13:54:13.764282 18353 layer_factory.hpp:77] Creating layer scale3_1_D
I0624 13:54:13.764396 18353 net.cpp:141] Setting up scale3_1_D
I0624 13:54:13.764403 18353 net.cpp:148] Top shape: 1 64 56 56 (200704)
I0624 13:54:13.764406 18353 net.cpp:156] Memory required for data: 122730496
I0624 13:54:13.764410 18353 layer_factory.hpp:77] Creating layer relu3_1_D
I0624 13:54:13.764415 18353 net.cpp:91] Creating Layer relu3_1_D
I0624 13:54:13.764417 18353 net.cpp:425] relu3_1_D <- conv3_1_D
I0624 13:54:13.764421 18353 net.cpp:386] relu3_1_D -> conv3_1_D (in-place)
I0624 13:54:13.764737 18353 net.cpp:141] Setting up relu3_1_D
I0624 13:54:13.764750 18353 net.cpp:148] Top shape: 1 64 56 56 (200704)
I0624 13:54:13.764752 18353 net.cpp:156] Memory required for data: 123533312
I0624 13:54:13.764755 18353 layer_factory.hpp:77] Creating layer upsample2
I0624 13:54:13.764760 18353 net.cpp:91] Creating Layer upsample2
I0624 13:54:13.764763 18353 net.cpp:425] upsample2 <- conv3_1_D
I0624 13:54:13.764766 18353 net.cpp:425] upsample2 <- pool2_mask
I0624 13:54:13.764770 18353 net.cpp:399] upsample2 -> pool2_D
I0624 13:54:13.764803 18353 net.cpp:141] Setting up upsample2
I0624 13:54:13.764809 18353 net.cpp:148] Top shape: 1 64 112 112 (802816)
I0624 13:54:13.764811 18353 net.cpp:156] Memory required for data: 126744576
I0624 13:54:13.764814 18353 layer_factory.hpp:77] Creating layer conv2_2_D
I0624 13:54:13.764822 18353 net.cpp:91] Creating Layer conv2_2_D
I0624 13:54:13.764824 18353 net.cpp:425] conv2_2_D <- pool2_D
I0624 13:54:13.764828 18353 net.cpp:399] conv2_2_D -> conv2_2_D
I0624 13:54:13.766047 18353 net.cpp:141] Setting up conv2_2_D
I0624 13:54:13.766062 18353 net.cpp:148] Top shape: 1 64 112 112 (802816)
I0624 13:54:13.766065 18353 net.cpp:156] Memory required for data: 129955840
I0624 13:54:13.766072 18353 layer_factory.hpp:77] Creating layer bn2_2_D
I0624 13:54:13.766083 18353 net.cpp:91] Creating Layer bn2_2_D
I0624 13:54:13.766088 18353 net.cpp:425] bn2_2_D <- conv2_2_D
I0624 13:54:13.766098 18353 net.cpp:386] bn2_2_D -> conv2_2_D (in-place)
I0624 13:54:13.766311 18353 net.cpp:141] Setting up bn2_2_D
I0624 13:54:13.766321 18353 net.cpp:148] Top shape: 1 64 112 112 (802816)
I0624 13:54:13.766326 18353 net.cpp:156] Memory required for data: 133167104
I0624 13:54:13.766335 18353 layer_factory.hpp:77] Creating layer scale2_2_D
I0624 13:54:13.766347 18353 net.cpp:91] Creating Layer scale2_2_D
I0624 13:54:13.766353 18353 net.cpp:425] scale2_2_D <- conv2_2_D
I0624 13:54:13.766360 18353 net.cpp:386] scale2_2_D -> conv2_2_D (in-place)
I0624 13:54:13.766410 18353 layer_factory.hpp:77] Creating layer scale2_2_D
I0624 13:54:13.766551 18353 net.cpp:141] Setting up scale2_2_D
I0624 13:54:13.766561 18353 net.cpp:148] Top shape: 1 64 112 112 (802816)
I0624 13:54:13.766566 18353 net.cpp:156] Memory required for data: 136378368
I0624 13:54:13.766572 18353 layer_factory.hpp:77] Creating layer relu2_2_D
I0624 13:54:13.766580 18353 net.cpp:91] Creating Layer relu2_2_D
I0624 13:54:13.766584 18353 net.cpp:425] relu2_2_D <- conv2_2_D
I0624 13:54:13.766593 18353 net.cpp:386] relu2_2_D -> conv2_2_D (in-place)
I0624 13:54:13.766755 18353 net.cpp:141] Setting up relu2_2_D
I0624 13:54:13.766768 18353 net.cpp:148] Top shape: 1 64 112 112 (802816)
I0624 13:54:13.766773 18353 net.cpp:156] Memory required for data: 139589632
I0624 13:54:13.766777 18353 layer_factory.hpp:77] Creating layer conv2_1_D
I0624 13:54:13.766788 18353 net.cpp:91] Creating Layer conv2_1_D
I0624 13:54:13.766793 18353 net.cpp:425] conv2_1_D <- conv2_2_D
I0624 13:54:13.766801 18353 net.cpp:399] conv2_1_D -> conv2_1_D
I0624 13:54:13.768007 18353 net.cpp:141] Setting up conv2_1_D
I0624 13:54:13.768029 18353 net.cpp:148] Top shape: 1 32 112 112 (401408)
I0624 13:54:13.768034 18353 net.cpp:156] Memory required for data: 141195264
I0624 13:54:13.768041 18353 layer_factory.hpp:77] Creating layer bn2_1_D
I0624 13:54:13.768052 18353 net.cpp:91] Creating Layer bn2_1_D
I0624 13:54:13.768059 18353 net.cpp:425] bn2_1_D <- conv2_1_D
I0624 13:54:13.768069 18353 net.cpp:386] bn2_1_D -> conv2_1_D (in-place)
I0624 13:54:13.768271 18353 net.cpp:141] Setting up bn2_1_D
I0624 13:54:13.768282 18353 net.cpp:148] Top shape: 1 32 112 112 (401408)
I0624 13:54:13.768286 18353 net.cpp:156] Memory required for data: 142800896
I0624 13:54:13.768296 18353 layer_factory.hpp:77] Creating layer scale2_1_D
I0624 13:54:13.768307 18353 net.cpp:91] Creating Layer scale2_1_D
I0624 13:54:13.768312 18353 net.cpp:425] scale2_1_D <- conv2_1_D
I0624 13:54:13.768319 18353 net.cpp:386] scale2_1_D -> conv2_1_D (in-place)
I0624 13:54:13.768369 18353 layer_factory.hpp:77] Creating layer scale2_1_D
I0624 13:54:13.768512 18353 net.cpp:141] Setting up scale2_1_D
I0624 13:54:13.768522 18353 net.cpp:148] Top shape: 1 32 112 112 (401408)
I0624 13:54:13.768527 18353 net.cpp:156] Memory required for data: 144406528
I0624 13:54:13.768534 18353 layer_factory.hpp:77] Creating layer relu2_1_D
I0624 13:54:13.768542 18353 net.cpp:91] Creating Layer relu2_1_D
I0624 13:54:13.768546 18353 net.cpp:425] relu2_1_D <- conv2_1_D
I0624 13:54:13.768555 18353 net.cpp:386] relu2_1_D -> conv2_1_D (in-place)
I0624 13:54:13.768847 18353 net.cpp:141] Setting up relu2_1_D
I0624 13:54:13.768860 18353 net.cpp:148] Top shape: 1 32 112 112 (401408)
I0624 13:54:13.768864 18353 net.cpp:156] Memory required for data: 146012160
I0624 13:54:13.768936 18353 layer_factory.hpp:77] Creating layer upsample1
I0624 13:54:13.768947 18353 net.cpp:91] Creating Layer upsample1
I0624 13:54:13.768954 18353 net.cpp:425] upsample1 <- conv2_1_D
I0624 13:54:13.768959 18353 net.cpp:425] upsample1 <- pool1_mask
I0624 13:54:13.768966 18353 net.cpp:399] upsample1 -> pool1_D
I0624 13:54:13.769006 18353 net.cpp:141] Setting up upsample1
I0624 13:54:13.769016 18353 net.cpp:148] Top shape: 1 32 224 224 (1605632)
I0624 13:54:13.769019 18353 net.cpp:156] Memory required for data: 152434688
I0624 13:54:13.769023 18353 layer_factory.hpp:77] Creating layer conv1_2_D
I0624 13:54:13.769035 18353 net.cpp:91] Creating Layer conv1_2_D
I0624 13:54:13.769042 18353 net.cpp:425] conv1_2_D <- pool1_D
I0624 13:54:13.769050 18353 net.cpp:399] conv1_2_D -> conv1_2_D
I0624 13:54:13.770006 18353 net.cpp:141] Setting up conv1_2_D
I0624 13:54:13.770020 18353 net.cpp:148] Top shape: 1 32 224 224 (1605632)
I0624 13:54:13.770025 18353 net.cpp:156] Memory required for data: 158857216
I0624 13:54:13.770033 18353 layer_factory.hpp:77] Creating layer bn1_2_D
I0624 13:54:13.770045 18353 net.cpp:91] Creating Layer bn1_2_D
I0624 13:54:13.770051 18353 net.cpp:425] bn1_2_D <- conv1_2_D
I0624 13:54:13.770057 18353 net.cpp:386] bn1_2_D -> conv1_2_D (in-place)
I0624 13:54:13.770301 18353 net.cpp:141] Setting up bn1_2_D
I0624 13:54:13.770313 18353 net.cpp:148] Top shape: 1 32 224 224 (1605632)
I0624 13:54:13.770316 18353 net.cpp:156] Memory required for data: 165279744
I0624 13:54:13.770326 18353 layer_factory.hpp:77] Creating layer scale1_2_D
I0624 13:54:13.770337 18353 net.cpp:91] Creating Layer scale1_2_D
I0624 13:54:13.770344 18353 net.cpp:425] scale1_2_D <- conv1_2_D
I0624 13:54:13.770350 18353 net.cpp:386] scale1_2_D -> conv1_2_D (in-place)
I0624 13:54:13.770401 18353 layer_factory.hpp:77] Creating layer scale1_2_D
I0624 13:54:13.770606 18353 net.cpp:141] Setting up scale1_2_D
I0624 13:54:13.770615 18353 net.cpp:148] Top shape: 1 32 224 224 (1605632)
I0624 13:54:13.770619 18353 net.cpp:156] Memory required for data: 171702272
I0624 13:54:13.770627 18353 layer_factory.hpp:77] Creating layer relu1_2_D
I0624 13:54:13.770634 18353 net.cpp:91] Creating Layer relu1_2_D
I0624 13:54:13.770638 18353 net.cpp:425] relu1_2_D <- conv1_2_D
I0624 13:54:13.770647 18353 net.cpp:386] relu1_2_D -> conv1_2_D (in-place)
I0624 13:54:13.770954 18353 net.cpp:141] Setting up relu1_2_D
I0624 13:54:13.770967 18353 net.cpp:148] Top shape: 1 32 224 224 (1605632)
I0624 13:54:13.770972 18353 net.cpp:156] Memory required for data: 178124800
I0624 13:54:13.770975 18353 layer_factory.hpp:77] Creating layer conv1_1_D
I0624 13:54:13.770993 18353 net.cpp:91] Creating Layer conv1_1_D
I0624 13:54:13.771000 18353 net.cpp:425] conv1_1_D <- conv1_2_D
I0624 13:54:13.771009 18353 net.cpp:399] conv1_1_D -> conv1_1_D
I0624 13:54:13.773851 18353 net.cpp:141] Setting up conv1_1_D
I0624 13:54:13.773866 18353 net.cpp:148] Top shape: 1 2 224 224 (100352)
I0624 13:54:13.773870 18353 net.cpp:156] Memory required for data: 178526208
I0624 13:54:13.773880 18353 layer_factory.hpp:77] Creating layer conv1_1_D_conv1_1_D_0_split
I0624 13:54:13.773890 18353 net.cpp:91] Creating Layer conv1_1_D_conv1_1_D_0_split
I0624 13:54:13.773895 18353 net.cpp:425] conv1_1_D_conv1_1_D_0_split <- conv1_1_D
I0624 13:54:13.773902 18353 net.cpp:399] conv1_1_D_conv1_1_D_0_split -> conv1_1_D_conv1_1_D_0_split_0
I0624 13:54:13.773911 18353 net.cpp:399] conv1_1_D_conv1_1_D_0_split -> conv1_1_D_conv1_1_D_0_split_1
I0624 13:54:13.773965 18353 net.cpp:141] Setting up conv1_1_D_conv1_1_D_0_split
I0624 13:54:13.773975 18353 net.cpp:148] Top shape: 1 2 224 224 (100352)
I0624 13:54:13.773980 18353 net.cpp:148] Top shape: 1 2 224 224 (100352)
I0624 13:54:13.773984 18353 net.cpp:156] Memory required for data: 179329024
I0624 13:54:13.773988 18353 layer_factory.hpp:77] Creating layer loss
I0624 13:54:13.773998 18353 net.cpp:91] Creating Layer loss
I0624 13:54:13.774003 18353 net.cpp:425] loss <- conv1_1_D_conv1_1_D_0_split_0
I0624 13:54:13.774008 18353 net.cpp:425] loss <- label_data_1_split_0
I0624 13:54:13.774014 18353 net.cpp:399] loss -> loss
…
