…
test_initialization: true
iter_size: 1
I0705 23:25:24.987797  2756 solver.cpp:81] Creating training net from train_net file: models/laddernet/train.prototxt
I0705 23:25:24.989851  2756 net.cpp:49] Initializing net from parameters: 
name: "LadderNet"
state {
  phase: TRAIN
}
layer {
  name: "data"
  type: "Data"
  top: "data"
  top: "label"
  include {
    phase: TRAIN
  }
  transform_param {
    scale: 0.0039215
    mirror: true
    mean_value: 100
    crop_h: 192
    crop_w: 256
  }
  data_param {
    source: "data/train_lmdb"
    batch_size: 24
    backend: LMDB
  }
}
layer {
  name: "noisy_data"
  type: "Noise"
  bottom: "data"
  top: "noisy_data"
  noise_param {
    sigma: 0.05
  }
}
layer {
  name: "conv1"
  type: "Convolution"
  bottom: "data"
  bottom: "noisy_data"
  top: "z1_pre"
  top: "z1_n"
  param {
    name: "conv1_w"
  }
  convolution_param {
    num_output: 32
    bias_term: false
    pad: 1
    kernel_size: 3
    stride: 1
    weight_filler {
      type: "xavier"
    }
  }
}
layer {
  name: "bn1"
  type: "BatchNorm"
  bottom: "z1_pre"
  top: "z1"
  top: "bn1_param"
  param {
    lr_mult: 0
  }
  param {
    lr_mult: 0
  }
  param {
    lr_mult: 0
  }
  batch_norm_param {
    use_global_stats: false
    eps: 0.001
  }
}
layer {
  name: "scale1"
  type: "Scale"
  bottom: "z1"
  top: "h1"
  param {
    name: "scale1_w"
  }
  param {
    name: "scale1_b"
  }
  scale_param {
    filler {
      type: "constant"
      value: 1
    }
    bias_term: true
    bias_filler {
      type: "constant"
      value: 0
    }
  }
}
layer {
  name: "relu1"
  type: "ReLU"
  bottom: "h1"
  top: "h1"
}
layer {
  name: "bn1_n"
  type: "BatchNorm"
  bottom: "z1_n"
  top: "z1_n"
  param {
    lr_mult: 0
  }
  param {
    lr_mult: 0
  }
  param {
    lr_mult: 0
  }
  batch_norm_param {
    use_global_stats: false
    eps: 0.001
  }
}
layer {
  name: "noisy_z1_n"
  type: "Noise"
  bottom: "z1_n"
  top: "z1_n"
  noise_param {
    sigma: 0.05
  }
}
layer {
  name: "scale1_n"
  type: "Scale"
  bottom: "z1_n"
  top: "h1_n"
  param {
    name: "scale1_w"
  }
  param {
    name: "scale1_b"
  }
  scale_param {
    filler {
      type: "constant"
      value: 1
    }
    bias_term: true
    bias_filler {
      type: "constant"
      value: 0
    }
  }
}
layer {
  name: "relu1_n"
  type: "ReLU"
  bottom: "h1_n"
  top: "h1_n"
}
layer {
  name: "pool1"
  type: "Pooling"
  bottom: "h1"
  top: "pool1"
  pooling_param {
    pool: MAX
    kernel_size: 2
    stride: 2
  }
}
layer {
  name: "pool1_n"
  type: "Pooling"
  bottom: "h1_n"
  top: "pool1_n"
  top: "pool1_n_mask"
  pooling_param {
    pool: MAX
    kernel_size: 2
    stride: 2
  }
}
layer {
  name: "conv2"
  type: "Convolution"
  bottom: "pool1"
  bottom: "pool1_n"
  top: "z2_pre"
  top: "z2_n"
  param {
    name: "conv2_w"
  }
  convolution_param {
    num_output: 64
    bias_term: false
    pad: 1
    kernel_size: 3
    stride: 1
    weight_filler {
      type: "xavier"
    }
  }
}
layer {
  name: "bn2"
  type: "BatchNorm"
  bottom: "z2_pre"
  top: "z2"
  top: "bn2_param"
  param {
    lr_mult: 0
  }
  param {
    lr_mult: 0
  }
  param {
    lr_mult: 0
  }
  batch_norm_param {
    use_global_stats: false
    eps: 0.001
  }
}
layer {
  name: "scale2"
  type: "Scale"
  bottom: "z2"
  top: "h2"
  param {
    name: "scale2_w"
  }
  param {
    name: "scale2_b"
  }
  scale_param {
    filler {
      type: "constant"
      value: 1
    }
    bias_term: true
    bias_filler {
      type: "constant"
      value: 0
    }
  }
}
layer {
  name: "relu2"
  type: "ReLU"
  bottom: "h2"
  top: "h2"
}
layer {
  name: "bn2_n"
  type: "BatchNorm"
  bottom: "z2_n"
  top: "z2_n"
  param {
    lr_mult: 0
  }
  param {
    lr_mult: 0
  }
  param {
    lr_mult: 0
  }
  batch_norm_param {
    use_global_stats: false
    eps: 0.001
  }
}
layer {
  name: "noisy_z2_n"
  type: "Noise"
  bottom: "z2_n"
  top: "z2_n"
  noise_param {
    sigma: 0.05
  }
}
layer {
  name: "scale2_n"
  type: "Scale"
  bottom: "z2_n"
  top: "h2_n"
  param {
    name: "scale2_w"
  }
  param {
    name: "scale2_b"
  }
  scale_param {
    filler {
      type: "constant"
      value: 1
    }
    bias_term: true
    bias_filler {
      type: "constant"
      value: 0
    }
  }
}
layer {
  name: "relu2_n"
  type: "ReLU"
  bottom: "h2_n"
  top: "h2_n"
}
layer {
  name: "pool2"
  type: "Pooling"
  bottom: "h2"
  top: "pool2"
  pooling_param {
    pool: MAX
    kernel_size: 2
    stride: 2
  }
}
layer {
  name: "pool2_n"
  type: "Pooling"
  bottom: "h2_n"
  top: "pool2_n"
  top: "pool2_n_mask"
  pooling_param {
    pool: MAX
    kernel_size: 2
    stride: 2
  }
}
layer {
  name: "conv3"
  type: "Convolution"
  bottom: "pool2"
  bottom: "pool2_n"
  top: "z3_pre"
  top: "z3_n"
  param {
    name: "conv3_w"
  }
  convolution_param {
    num_output: 128
    bias_term: false
    pad: 1
    kernel_size: 3
    stride: 1
    weight_filler {
      type: "xavier"
    }
  }
}
layer {
  name: "bn3"
  type: "BatchNorm"
  bottom: "z3_pre"
  top: "z3"
  top: "bn3_param"
  param {
    lr_mult: 0
  }
  param {
    lr_mult: 0
  }
  param {
    lr_mult: 0
  }
  batch_norm_param {
    use_global_stats: false
    eps: 0.001
  }
}
layer {
  name: "scale3"
  type: "Scale"
  bottom: "z3"
  top: "h3"
  param {
    name: "scale3_w"
  }
  param {
    name: "scale3_b"
  }
  scale_param {
    filler {
      type: "constant"
      value: 1
    }
    bias_term: true
    bias_filler {
      type: "constant"
      value: 0
    }
  }
}
layer {
  name: "relu3"
  type: "ReLU"
  bottom: "h3"
  top: "h3"
}
layer {
  name: "bn3_n"
  type: "BatchNorm"
  bottom: "z3_n"
  top: "z3_n"
  param {
    lr_mult: 0
  }
  param {
    lr_mult: 0
  }
  param {
    lr_mult: 0
  }
  batch_norm_param {
    use_global_stats: false
    eps: 0.001
  }
}
layer {
  name: "noisy_z3_n"
  type: "Noise"
  bottom: "z3_n"
  top: "z3_n"
  noise_param {
    sigma: 0.05
  }
}
layer {
  name: "scale3_n"
  type: "Scale"
  bottom: "z3_n"
  top: "h3_n"
  param {
    name: "scale3_w"
  }
  param {
    name: "scale3_b"
  }
  scale_param {
    filler {
      type: "constant"
      value: 1
    }
    bias_term: true
    bias_filler {
      type: "constant"
      value: 0
    }
  }
}
layer {
  name: "relu3_n"
  type: "ReLU"
  bottom: "h3_n"
  top: "h3_n"
}
layer {
  name: "pool3"
  type: "Pooling"
  bottom: "h3"
  top: "pool3"
  pooling_param {
    pool: MAX
    kernel_size: 2
    stride: 2
  }
}
layer {
  name: "pool3_n"
  type: "Pooling"
  bottom: "h3_n"
  top: "pool3_n"
  top: "pool3_n_mask"
  pooling_param {
    pool: MAX
    kernel_size: 2
    stride: 2
  }
}
layer {
  name: "conv4"
  type: "Convolution"
  bottom: "pool3"
  bottom: "pool3_n"
  top: "z4_pre"
  top: "z4_n"
  param {
    name: "conv4_w"
  }
  convolution_param {
    num_output: 256
    bias_term: false
    pad: 1
    kernel_size: 3
    stride: 1
    weight_filler {
      type: "xavier"
    }
  }
}
layer {
  name: "bn4"
  type: "BatchNorm"
  bottom: "z4_pre"
  top: "z4"
  top: "bn4_param"
  param {
    lr_mult: 0
  }
  param {
    lr_mult: 0
  }
  param {
    lr_mult: 0
  }
  batch_norm_param {
    use_global_stats: false
    eps: 0.001
  }
}
layer {
  name: "scale4"
  type: "Scale"
  bottom: "z4"
  top: "h4"
  param {
    name: "scale4_w"
  }
  param {
    name: "scale4_b"
  }
  scale_param {
    filler {
      type: "constant"
      value: 1
    }
    bias_term: true
    bias_filler {
      type: "constant"
      value: 0
    }
  }
}
layer {
  name: "relu4"
  type: "ReLU"
  bottom: "h4"
  top: "h4"
}
layer {
  name: "bn4_n"
  type: "BatchNorm"
  bottom: "z4_n"
  top: "z4_n"
  param {
    lr_mult: 0
  }
  param {
    lr_mult: 0
  }
  param {
    lr_mult: 0
  }
  batch_norm_param {
    use_global_stats: false
    eps: 0.001
  }
}
layer {
  name: "noisy_z4_n"
  type: "Noise"
  bottom: "z4_n"
  top: "z4_n"
  noise_param {
    sigma: 0.05
  }
}
layer {
  name: "scale4_n"
  type: "Scale"
  bottom: "z4_n"
  top: "h4_n"
  param {
    name: "scale4_w"
  }
  param {
    name: "scale4_b"
  }
  scale_param {
    filler {
      type: "constant"
      value: 1
    }
    bias_term: true
    bias_filler {
      type: "constant"
      value: 0
    }
  }
}
layer {
  name: "relu4_n"
  type: "ReLU"
  bottom: "h4_n"
  top: "h4_n"
}
layer {
  name: "pool4"
  type: "Pooling"
  bottom: "h4"
  top: "pool4"
  pooling_param {
    pool: MAX
    kernel_size: 2
    stride: 2
  }
}
layer {
  name: "pool4_n"
  type: "Pooling"
  bottom: "h4_n"
  top: "pool4_n"
  top: "pool4_n_mask"
  pooling_param {
    pool: MAX
    kernel_size: 2
    stride: 2
  }
}
layer {
  name: "conv5"
  type: "Convolution"
  bottom: "pool4"
  bottom: "pool4_n"
  top: "z5_pre"
  top: "z5_n"
  param {
    name: "conv5_w"
  }
  convolution_param {
    num_output: 256
    bias_term: false
    pad: 1
    kernel_size: 3
    stride: 1
    weight_filler {
      type: "xavier"
    }
  }
}
layer {
  name: "bn5"
  type: "BatchNorm"
  bottom: "z5_pre"
  top: "z5"
  top: "bn5_param"
  param {
    lr_mult: 0
  }
  param {
    lr_mult: 0
  }
  param {
    lr_mult: 0
  }
  batch_norm_param {
    use_global_stats: false
    eps: 0.001
  }
}
layer {
  name: "scale5"
  type: "Scale"
  bottom: "z5"
  top: "h5"
  param {
    name: "scale5_w"
  }
  param {
    name: "scale5_b"
  }
  scale_param {
    filler {
      type: "constant"
      value: 1
    }
    bias_term: true
    bias_filler {
      type: "constant"
      value: 0
    }
  }
}
layer {
  name: "relu5"
  type: "ReLU"
  bottom: "h5"
  top: "h5"
}
layer {
  name: "bn5_n"
  type: "BatchNorm"
  bottom: "z5_n"
  top: "z5_n"
  param {
    lr_mult: 0
  }
  param {
    lr_mult: 0
  }
  param {
    lr_mult: 0
  }
  batch_norm_param {
    use_global_stats: false
    eps: 0.001
  }
}
layer {
  name: "noisy_z5_n"
  type: "Noise"
  bottom: "z5_n"
  top: "z5_n"
  noise_param {
    sigma: 0.05
  }
}
layer {
  name: "scale5_n"
  type: "Scale"
  bottom: "z5_n"
  top: "h5_n"
  param {
    name: "scale5_w"
  }
  param {
    name: "scale5_b"
  }
  scale_param {
    filler {
      type: "constant"
      value: 1
    }
    bias_term: true
    bias_filler {
      type: "constant"
      value: 0
    }
  }
}
layer {
  name: "relu5_n"
  type: "ReLU"
  bottom: "h5_n"
  top: "h5_n"
}
layer {
  name: "pool5"
  type: "Pooling"
  bottom: "h5"
  top: "pool5"
  pooling_param {
    pool: MAX
    kernel_size: 2
    stride: 2
  }
}
layer {
  name: "pool5_n"
  type: "Pooling"
  bottom: "h5_n"
  top: "pool5_n"
  top: "pool5_n_mask"
  pooling_param {
    pool: MAX
    kernel_size: 2
    stride: 2
  }
}
layer {
  name: "conv6"
  type: "Convolution"
  bottom: "pool5"
  bottom: "pool5_n"
  top: "z6_pre"
  top: "z6_n"
  param {
    name: "conv6_w"
  }
  convolution_param {
    num_output: 256
    bias_term: false
    pad: 1
    kernel_size: 3
    stride: 1
    weight_filler {
      type: "xavier"
    }
  }
}
layer {
  name: "bn6"
  type: "BatchNorm"
  bottom: "z6_pre"
  top: "z6"
  top: "bn6_param"
  param {
    lr_mult: 0
  }
  param {
    lr_mult: 0
  }
  param {
    lr_mult: 0
  }
  batch_norm_param {
    use_global_stats: false
    eps: 0.001
  }
}
layer {
  name: "scale6"
  type: "Scale"
  bottom: "z6"
  top: "h6"
  param {
    name: "scale6_w"
  }
  param {
    name: "scale6_b"
  }
  scale_param {
    filler {
      type: "constant"
      value: 1
    }
    bias_term: true
    bias_filler {
      type: "constant"
      value: 0
    }
  }
}
layer {
  name: "relu6"
  type: "ReLU"
  bottom: "h6"
  top: "h6"
}
layer {
  name: "bn6_n"
  type: "BatchNorm"
  bottom: "z6_n"
  top: "z6_n"
  param {
    lr_mult: 0
  }
  param {
    lr_mult: 0
  }
  param {
    lr_mult: 0
  }
  batch_norm_param {
    use_global_stats: false
    eps: 0.001
  }
}
layer {
  name: "noisy_z6_n"
  type: "Noise"
  bottom: "z6_n"
  top: "z6_n"
  noise_param {
    sigma: 0.05
  }
}
layer {
  name: "scale6_n"
  type: "Scale"
  bottom: "z6_n"
  top: "h6_n"
  param {
    name: "scale6_w"
  }
  param {
    name: "scale6_b"
  }
  scale_param {
    filler {
      type: "constant"
      value: 1
    }
    bias_term: true
    bias_filler {
      type: "constant"
      value: 0
    }
  }
}
layer {
  name: "relu6_n"
  type: "ReLU"
  bottom: "h6_n"
  top: "h6_n"
}
layer {
  name: "u6"
  type: "BatchNorm"
  bottom: "h6_n"
  top: "u6"
  param {
    lr_mult: 0
  }
  param {
    lr_mult: 0
  }
  param {
    lr_mult: 0
  }
  batch_norm_param {
    use_global_stats: false
    eps: 0.001
  }
}
layer {
  name: "comb6"
  type: "VanillaLadderCombinator"
  bottom: "z6_n"
  bottom: "u6"
  top: "z6_r"
}
layer {
  name: "recon6"
  type: "Deconvolution"
  bottom: "z6_r"
  top: "h6_r"
  param {
    name: "conv6_w"
    lr_mult: 1
  }
  convolution_param {
    num_output: 256
    bias_term: true
    pad: 1
    kernel_size: 3
    stride: 1
    weight_filler {
      type: "xavier"
    }
    bias_filler {
      type: "constant"
      value: 0
    }
  }
}
layer {
  name: "bn6_r"
  type: "BatchNorm"
  bottom: "h6_r"
  top: "h6_r"
  param {
    lr_mult: 0
  }
  param {
    lr_mult: 0
  }
  param {
    lr_mult: 0
  }
  batch_norm_param {
    use_global_stats: false
    eps: 0.001
  }
}
layer {
  name: "upsample5"
  type: "Upsample"
  bottom: "h6_r"
  bottom: "pool5_n_mask"
  top: "upsample5"
  upsample_param {
    scale: 2
  }
}
layer {
  name: "comb5"
  type: "VanillaLadderCombinator"
  bottom: "z5_n"
  bottom: "upsample5"
  top: "z5_r"
}
layer {
  name: "recon5"
  type: "Deconvolution"
  bottom: "z5_r"
  top: "h5_r"
  param {
    name: "conv5_w"
    lr_mult: 1
  }
  convolution_param {
    num_output: 256
    bias_term: true
    pad: 1
    kernel_size: 3
    stride: 1
    weight_filler {
      type: "xavier"
    }
    bias_filler {
      type: "constant"
      value: 0
    }
  }
}
layer {
  name: "bn5_r"
  type: "BatchNorm"
  bottom: "h5_r"
  top: "h5_r"
  param {
    lr_mult: 0
  }
  param {
    lr_mult: 0
  }
  param {
    lr_mult: 0
  }
  batch_norm_param {
    use_global_stats: false
    eps: 0.001
  }
}
layer {
  name: "upsample4"
  type: "Upsample"
  bottom: "h5_r"
  bottom: "pool4_n_mask"
  top: "upsample4"
  upsample_param {
    scale: 2
  }
}
layer {
  name: "comb4"
  type: "VanillaLadderCombinator"
  bottom: "z4_n"
  bottom: "upsample4"
  top: "z4_r"
}
layer {
  name: "recon4"
  type: "Deconvolution"
  bottom: "z4_r"
  top: "h4_r"
  param {
    name: "conv4_w"
    lr_mult: 1
  }
  convolution_param {
    num_output: 128
    bias_term: true
    pad: 1
    kernel_size: 3
    stride: 1
    weight_filler {
      type: "xavier"
    }
    bias_filler {
      type: "constant"
      value: 0
    }
  }
}
layer {
  name: "bn4_r"
  type: "BatchNorm"
  bottom: "h4_r"
  top: "h4_r"
  param {
    lr_mult: 0
  }
  param {
    lr_mult: 0
  }
  param {
    lr_mult: 0
  }
  batch_norm_param {
    use_global_stats: false
    eps: 0.001
  }
}
layer {
  name: "upsample3"
  type: "Upsample"
  bottom: "h4_r"
  bottom: "pool3_n_mask"
  top: "upsample3"
  upsample_param {
    scale: 2
  }
}
layer {
  name: "comb3"
  type: "VanillaLadderCombinator"
  bottom: "z3_n"
  bottom: "upsample3"
  top: "z3_r"
}
layer {
  name: "recon3"
  type: "Deconvolution"
  bottom: "z3_r"
  top: "h3_r"
  param {
    name: "conv3_w"
    lr_mult: 1
  }
  convolution_param {
    num_output: 64
    bias_term: true
    pad: 1
    kernel_size: 3
    stride: 1
    weight_filler {
      type: "xavier"
    }
    bias_filler {
      type: "constant"
      value: 0
    }
  }
}
layer {
  name: "bn3_r"
  type: "BatchNorm"
  bottom: "h3_r"
  top: "h3_r"
  param {
    lr_mult: 0
  }
  param {
    lr_mult: 0
  }
  param {
    lr_mult: 0
  }
  batch_norm_param {
    use_global_stats: false
    eps: 0.001
  }
}
layer {
  name: "upsample2"
  type: "Upsample"
  bottom: "h3_r"
  bottom: "pool2_n_mask"
  top: "upsample2"
  upsample_param {
    scale: 2
  }
}
layer {
  name: "comb2"
  type: "VanillaLadderCombinator"
  bottom: "z2_n"
  bottom: "upsample2"
  top: "z2_r"
}
layer {
  name: "recon2"
  type: "Deconvolution"
  bottom: "z2_r"
  top: "h2_r"
  param {
    name: "conv2_w"
    lr_mult: 1
  }
  convolution_param {
    num_output: 32
    bias_term: true
    pad: 1
    kernel_size: 3
    stride: 1
    weight_filler {
      type: "xavier"
    }
    bias_filler {
      type: "constant"
      value: 0
    }
  }
}
layer {
  name: "bn2_r"
  type: "BatchNorm"
  bottom: "h2_r"
  top: "h2_r"
  param {
    lr_mult: 0
  }
  param {
    lr_mult: 0
  }
  param {
    lr_mult: 0
  }
  batch_norm_param {
    use_global_stats: false
    eps: 0.001
  }
}
layer {
  name: "upsample1"
  type: "Upsample"
  bottom: "h2_r"
  bottom: "pool1_n_mask"
  top: "upsample1"
  upsample_param {
    scale: 2
  }
}
layer {
  name: "comb1"
  type: "VanillaLadderCombinator"
  bottom: "z1_n"
  bottom: "upsample1"
  top: "z1_r"
}
layer {
  name: "recon1"
  type: "Deconvolution"
  bottom: "z1_r"
  top: "h1_r"
  param {
    name: "conv1_w"
    lr_mult: 1
  }
  convolution_param {
    num_output: 1
    bias_term: true
    pad: 1
    kernel_size: 3
    stride: 1
    weight_filler {
      type: "xavier"
    }
    bias_filler {
      type: "constant"
      value: 0
    }
  }
}
layer {
  name: "bn1_r"
  type: "BatchNorm"
  bottom: "h1_r"
  top: "h1_r"
  param {
    lr_mult: 0
  }
  param {
    lr_mult: 0
  }
  param {
    lr_mult: 0
  }
  batch_norm_param {
    use_global_stats: false
    eps: 0.001
  }
}
layer {
  name: "comb0"
  type: "VanillaLadderCombinator"
  bottom: "noisy_data"
  bottom: "h1_r"
  top: "z0_r"
}
layer {
  name: "loss_ladder_6"
  type: "LadderLoss"
  bottom: "z6"
  bottom: "z6_r"
  bottom: "bn6_param"
  top: "loss_ladder_6"
  loss_weight: 1
}
layer {
  name: "loss_ladder_5"
  type: "LadderLoss"
  bottom: "z5"
  bottom: "z5_r"
  bottom: "bn5_param"
  top: "loss_ladder_5"
  loss_weight: 1
}
layer {
  name: "loss_ladder_4"
  type: "LadderLoss"
  bottom: "z4"
  bottom: "z4_r"
  bottom: "bn4_param"
  top: "loss_ladder_4"
  loss_weight: 1
}
layer {
  name: "loss_ladder_3"
  type: "LadderLoss"
  bottom: "z3"
  bottom: "z3_r"
  bottom: "bn3_param"
  top: "loss_ladder_3"
  loss_weight: 1
}
layer {
  name: "loss_ladder_2"
  type: "LadderLoss"
  bottom: "z2"
  bottom: "z2_r"
  bottom: "bn2_param"
  top: "loss_ladder_2"
  loss_weight: 1
}
layer {
  name: "loss_ladder_1"
  type: "LadderLoss"
  bottom: "z1"
  bottom: "z1_r"
  bottom: "bn1_param"
  top: "loss_ladder_1"
  loss_weight: 1
}
layer {
  name: "loss_ladder_0"
  type: "LadderLoss"
  bottom: "noisy_data"
  bottom: "z0_r"
  top: "loss_ladder_0"
  loss_weight: 1
}
layer {
  name: "pool_final"
  type: "Pooling"
  bottom: "h6"
  top: "pool_final"
  pooling_param {
    pool: AVE
    stride: 1
    kernel_h: 6
    kernel_w: 8
  }
}
layer {
  name: "score"
  type: "InnerProduct"
  bottom: "pool_final"
  top: "score"
  inner_product_param {
    num_output: 2
    weight_filler {
      type: "xavier"
    }
  }
}
layer {
  name: "loss_supervised"
  type: "SoftmaxWithLoss"
  bottom: "score"
  bottom: "label"
  top: "loss_supervised"
}
layer {
  name: "accuracy"
  type: "Accuracy"
  bottom: "score"
  bottom: "label"
  top: "accuracy"
}
I0705 23:25:24.990591  2756 layer_factory.hpp:77] Creating layer data
I0705 23:25:24.991186  2756 net.cpp:91] Creating Layer data
I0705 23:25:24.991226  2756 net.cpp:399] data -> data
I0705 23:25:24.991261  2756 net.cpp:399] data -> label
I0705 23:25:24.992434  2760 db_lmdb.cpp:35] Opened lmdb data/train_lmdb
I0705 23:25:25.011529  2756 data_layer.cpp:42] output data size: 24,1,192,256
I0705 23:25:25.022195  2756 net.cpp:141] Setting up data
I0705 23:25:25.022227  2756 net.cpp:148] Top shape: 24 1 192 256 (1179648)
I0705 23:25:25.022231  2756 net.cpp:148] Top shape: 24 (24)
I0705 23:25:25.022234  2756 net.cpp:156] Memory required for data: 4718688
I0705 23:25:25.022243  2756 layer_factory.hpp:77] Creating layer data_data_0_split
I0705 23:25:25.022259  2756 net.cpp:91] Creating Layer data_data_0_split
I0705 23:25:25.022264  2756 net.cpp:425] data_data_0_split <- data
I0705 23:25:25.022274  2756 net.cpp:399] data_data_0_split -> data_data_0_split_0
I0705 23:25:25.022284  2756 net.cpp:399] data_data_0_split -> data_data_0_split_1
I0705 23:25:25.022426  2756 net.cpp:141] Setting up data_data_0_split
I0705 23:25:25.022436  2756 net.cpp:148] Top shape: 24 1 192 256 (1179648)
I0705 23:25:25.022440  2756 net.cpp:148] Top shape: 24 1 192 256 (1179648)
I0705 23:25:25.022442  2756 net.cpp:156] Memory required for data: 14155872
I0705 23:25:25.022446  2756 layer_factory.hpp:77] Creating layer label_data_1_split
I0705 23:25:25.022452  2756 net.cpp:91] Creating Layer label_data_1_split
I0705 23:25:25.022454  2756 net.cpp:425] label_data_1_split <- label
I0705 23:25:25.022459  2756 net.cpp:399] label_data_1_split -> label_data_1_split_0
I0705 23:25:25.022464  2756 net.cpp:399] label_data_1_split -> label_data_1_split_1
I0705 23:25:25.022519  2756 net.cpp:141] Setting up label_data_1_split
I0705 23:25:25.022528  2756 net.cpp:148] Top shape: 24 (24)
I0705 23:25:25.022531  2756 net.cpp:148] Top shape: 24 (24)
I0705 23:25:25.022533  2756 net.cpp:156] Memory required for data: 14156064
I0705 23:25:25.022536  2756 layer_factory.hpp:77] Creating layer noisy_data
I0705 23:25:25.022543  2756 net.cpp:91] Creating Layer noisy_data
I0705 23:25:25.022547  2756 net.cpp:425] noisy_data <- data_data_0_split_0
I0705 23:25:25.022552  2756 net.cpp:399] noisy_data -> noisy_data
I0705 23:25:25.022588  2756 net.cpp:141] Setting up noisy_data
I0705 23:25:25.022599  2756 net.cpp:148] Top shape: 24 1 192 256 (1179648)
I0705 23:25:25.022603  2756 net.cpp:156] Memory required for data: 18874656
I0705 23:25:25.022605  2756 layer_factory.hpp:77] Creating layer noisy_data_noisy_data_0_split
I0705 23:25:25.022611  2756 net.cpp:91] Creating Layer noisy_data_noisy_data_0_split
I0705 23:25:25.022614  2756 net.cpp:425] noisy_data_noisy_data_0_split <- noisy_data
I0705 23:25:25.022619  2756 net.cpp:399] noisy_data_noisy_data_0_split -> noisy_data_noisy_data_0_split_0
I0705 23:25:25.022622  2756 net.cpp:399] noisy_data_noisy_data_0_split -> noisy_data_noisy_data_0_split_1
I0705 23:25:25.022629  2756 net.cpp:399] noisy_data_noisy_data_0_split -> noisy_data_noisy_data_0_split_2
I0705 23:25:25.022665  2756 net.cpp:141] Setting up noisy_data_noisy_data_0_split
I0705 23:25:25.022675  2756 net.cpp:148] Top shape: 24 1 192 256 (1179648)
I0705 23:25:25.022680  2756 net.cpp:148] Top shape: 24 1 192 256 (1179648)
I0705 23:25:25.022682  2756 net.cpp:148] Top shape: 24 1 192 256 (1179648)
I0705 23:25:25.022685  2756 net.cpp:156] Memory required for data: 33030432
I0705 23:25:25.022687  2756 layer_factory.hpp:77] Creating layer conv1
I0705 23:25:25.022701  2756 net.cpp:91] Creating Layer conv1
I0705 23:25:25.022704  2756 net.cpp:425] conv1 <- data_data_0_split_1
I0705 23:25:25.022708  2756 net.cpp:425] conv1 <- noisy_data_noisy_data_0_split_0
I0705 23:25:25.022712  2756 net.cpp:399] conv1 -> z1_pre
I0705 23:25:25.022718  2756 net.cpp:399] conv1 -> z1_n
I0705 23:25:25.224495  2756 net.cpp:141] Setting up conv1
I0705 23:25:25.224522  2756 net.cpp:148] Top shape: 24 32 192 256 (37748736)
I0705 23:25:25.224527  2756 net.cpp:148] Top shape: 24 32 192 256 (37748736)
I0705 23:25:25.224530  2756 net.cpp:156] Memory required for data: 335020320
I0705 23:25:25.224544  2756 layer_factory.hpp:77] Creating layer bn1
I0705 23:25:25.224560  2756 net.cpp:91] Creating Layer bn1
I0705 23:25:25.224562  2756 net.cpp:425] bn1 <- z1_pre
I0705 23:25:25.224567  2756 net.cpp:399] bn1 -> z1
I0705 23:25:25.224577  2756 net.cpp:399] bn1 -> bn1_param
I0705 23:25:25.225424  2756 net.cpp:141] Setting up bn1
I0705 23:25:25.225436  2756 net.cpp:148] Top shape: 24 32 192 256 (37748736)
I0705 23:25:25.225440  2756 net.cpp:148] Top shape: 2 32 (64)
I0705 23:25:25.225443  2756 net.cpp:156] Memory required for data: 486015520
I0705 23:25:25.225453  2756 layer_factory.hpp:77] Creating layer z1_bn1_0_split
I0705 23:25:25.225461  2756 net.cpp:91] Creating Layer z1_bn1_0_split
I0705 23:25:25.225463  2756 net.cpp:425] z1_bn1_0_split <- z1
I0705 23:25:25.225467  2756 net.cpp:399] z1_bn1_0_split -> z1_bn1_0_split_0
I0705 23:25:25.225472  2756 net.cpp:399] z1_bn1_0_split -> z1_bn1_0_split_1
I0705 23:25:25.225502  2756 net.cpp:141] Setting up z1_bn1_0_split
I0705 23:25:25.225528  2756 net.cpp:148] Top shape: 24 32 192 256 (37748736)
I0705 23:25:25.225535  2756 net.cpp:148] Top shape: 24 32 192 256 (37748736)
I0705 23:25:25.225539  2756 net.cpp:156] Memory required for data: 788005408
I0705 23:25:25.225543  2756 layer_factory.hpp:77] Creating layer scale1
I0705 23:25:25.225558  2756 net.cpp:91] Creating Layer scale1
I0705 23:25:25.225565  2756 net.cpp:425] scale1 <- z1_bn1_0_split_0
I0705 23:25:25.225574  2756 net.cpp:399] scale1 -> h1
I0705 23:25:25.225636  2756 layer_factory.hpp:77] Creating layer scale1
I0705 23:25:25.225785  2756 net.cpp:141] Setting up scale1
I0705 23:25:25.225795  2756 net.cpp:148] Top shape: 24 32 192 256 (37748736)
I0705 23:25:25.225797  2756 net.cpp:156] Memory required for data: 939000352
I0705 23:25:25.225805  2756 layer_factory.hpp:77] Creating layer relu1
I0705 23:25:25.225811  2756 net.cpp:91] Creating Layer relu1
I0705 23:25:25.225813  2756 net.cpp:425] relu1 <- h1
I0705 23:25:25.225816  2756 net.cpp:386] relu1 -> h1 (in-place)
I0705 23:25:25.226131  2756 net.cpp:141] Setting up relu1
I0705 23:25:25.226143  2756 net.cpp:148] Top shape: 24 32 192 256 (37748736)
I0705 23:25:25.226146  2756 net.cpp:156] Memory required for data: 1089995296
I0705 23:25:25.226150  2756 layer_factory.hpp:77] Creating layer bn1_n
I0705 23:25:25.226155  2756 net.cpp:91] Creating Layer bn1_n
I0705 23:25:25.226160  2756 net.cpp:425] bn1_n <- z1_n
I0705 23:25:25.226163  2756 net.cpp:386] bn1_n -> z1_n (in-place)
I0705 23:25:25.226341  2756 net.cpp:141] Setting up bn1_n
I0705 23:25:25.226351  2756 net.cpp:148] Top shape: 24 32 192 256 (37748736)
I0705 23:25:25.226353  2756 net.cpp:156] Memory required for data: 1240990240
I0705 23:25:25.226362  2756 layer_factory.hpp:77] Creating layer noisy_z1_n
I0705 23:25:25.226368  2756 net.cpp:91] Creating Layer noisy_z1_n
I0705 23:25:25.226372  2756 net.cpp:425] noisy_z1_n <- z1_n
I0705 23:25:25.226375  2756 net.cpp:386] noisy_z1_n -> z1_n (in-place)
I0705 23:25:25.226397  2756 net.cpp:141] Setting up noisy_z1_n
I0705 23:25:25.226408  2756 net.cpp:148] Top shape: 24 32 192 256 (37748736)
I0705 23:25:25.226413  2756 net.cpp:156] Memory required for data: 1391985184
I0705 23:25:25.226418  2756 layer_factory.hpp:77] Creating layer z1_n_noisy_z1_n_0_split
I0705 23:25:25.226423  2756 net.cpp:91] Creating Layer z1_n_noisy_z1_n_0_split
I0705 23:25:25.226426  2756 net.cpp:425] z1_n_noisy_z1_n_0_split <- z1_n
I0705 23:25:25.226431  2756 net.cpp:399] z1_n_noisy_z1_n_0_split -> z1_n_noisy_z1_n_0_split_0
I0705 23:25:25.226435  2756 net.cpp:399] z1_n_noisy_z1_n_0_split -> z1_n_noisy_z1_n_0_split_1
I0705 23:25:25.226471  2756 net.cpp:141] Setting up z1_n_noisy_z1_n_0_split
I0705 23:25:25.226481  2756 net.cpp:148] Top shape: 24 32 192 256 (37748736)
I0705 23:25:25.226485  2756 net.cpp:148] Top shape: 24 32 192 256 (37748736)
I0705 23:25:25.226486  2756 net.cpp:156] Memory required for data: 1693975072
I0705 23:25:25.226490  2756 layer_factory.hpp:77] Creating layer scale1_n
I0705 23:25:25.226496  2756 net.cpp:91] Creating Layer scale1_n
I0705 23:25:25.226500  2756 net.cpp:425] scale1_n <- z1_n_noisy_z1_n_0_split_0
I0705 23:25:25.226505  2756 net.cpp:399] scale1_n -> h1_n
I0705 23:25:25.226547  2756 layer_factory.hpp:77] Creating layer scale1_n
I0705 23:25:25.227300  2756 net.cpp:141] Setting up scale1_n
I0705 23:25:25.227313  2756 net.cpp:148] Top shape: 24 32 192 256 (37748736)
I0705 23:25:25.227315  2756 net.cpp:156] Memory required for data: 1844970016
I0705 23:25:25.227319  2756 net.cpp:484] Sharing parameters 'scale1_w' owned by layer 'scale1', param index 0
I0705 23:25:25.227324  2756 net.cpp:484] Sharing parameters 'scale1_b' owned by layer 'scale1', param index 1
I0705 23:25:25.227326  2756 layer_factory.hpp:77] Creating layer relu1_n
I0705 23:25:25.227331  2756 net.cpp:91] Creating Layer relu1_n
I0705 23:25:25.227334  2756 net.cpp:425] relu1_n <- h1_n
I0705 23:25:25.227339  2756 net.cpp:386] relu1_n -> h1_n (in-place)
I0705 23:25:25.227488  2756 net.cpp:141] Setting up relu1_n
I0705 23:25:25.227497  2756 net.cpp:148] Top shape: 24 32 192 256 (37748736)
I0705 23:25:25.227509  2756 net.cpp:156] Memory required for data: 1995964960
I0705 23:25:25.227512  2756 layer_factory.hpp:77] Creating layer pool1
I0705 23:25:25.227520  2756 net.cpp:91] Creating Layer pool1
I0705 23:25:25.227525  2756 net.cpp:425] pool1 <- h1
I0705 23:25:25.227531  2756 net.cpp:399] pool1 -> pool1
I0705 23:25:25.227581  2756 net.cpp:141] Setting up pool1
I0705 23:25:25.227589  2756 net.cpp:148] Top shape: 24 32 96 128 (9437184)
I0705 23:25:25.227591  2756 net.cpp:156] Memory required for data: 2033713696
I0705 23:25:25.227593  2756 layer_factory.hpp:77] Creating layer pool1_n
I0705 23:25:25.227596  2756 layer_factory.cpp:90] cuDNN does not support multiple tops. Using Caffe's own pooling layer.
I0705 23:25:25.227604  2756 net.cpp:91] Creating Layer pool1_n
I0705 23:25:25.227607  2756 net.cpp:425] pool1_n <- h1_n
I0705 23:25:25.227610  2756 net.cpp:399] pool1_n -> pool1_n
I0705 23:25:25.227615  2756 net.cpp:399] pool1_n -> pool1_n_mask
I0705 23:25:25.227643  2756 net.cpp:141] Setting up pool1_n
I0705 23:25:25.227649  2756 net.cpp:148] Top shape: 24 32 96 128 (9437184)
I0705 23:25:25.227653  2756 net.cpp:148] Top shape: 24 32 96 128 (9437184)
I0705 23:25:25.227654  2756 net.cpp:156] Memory required for data: 2109211168
I0705 23:25:25.227656  2756 layer_factory.hpp:77] Creating layer conv2
I0705 23:25:25.227666  2756 net.cpp:91] Creating Layer conv2
I0705 23:25:25.227669  2756 net.cpp:425] conv2 <- pool1
I0705 23:25:25.227672  2756 net.cpp:425] conv2 <- pool1_n
I0705 23:25:25.227677  2756 net.cpp:399] conv2 -> z2_pre
I0705 23:25:25.227684  2756 net.cpp:399] conv2 -> z2_n
I0705 23:25:25.228775  2756 net.cpp:141] Setting up conv2
I0705 23:25:25.228791  2756 net.cpp:148] Top shape: 24 64 96 128 (18874368)
I0705 23:25:25.228798  2756 net.cpp:148] Top shape: 24 64 96 128 (18874368)
I0705 23:25:25.228803  2756 net.cpp:156] Memory required for data: 2260206112
I0705 23:25:25.228811  2756 layer_factory.hpp:77] Creating layer bn2
I0705 23:25:25.228822  2756 net.cpp:91] Creating Layer bn2
I0705 23:25:25.228827  2756 net.cpp:425] bn2 <- z2_pre
I0705 23:25:25.228834  2756 net.cpp:399] bn2 -> z2
I0705 23:25:25.228845  2756 net.cpp:399] bn2 -> bn2_param
I0705 23:25:25.229648  2756 net.cpp:141] Setting up bn2
I0705 23:25:25.229660  2756 net.cpp:148] Top shape: 24 64 96 128 (18874368)
I0705 23:25:25.229663  2756 net.cpp:148] Top shape: 2 64 (128)
I0705 23:25:25.229665  2756 net.cpp:156] Memory required for data: 2335704096
I0705 23:25:25.229671  2756 layer_factory.hpp:77] Creating layer z2_bn2_0_split
I0705 23:25:25.229676  2756 net.cpp:91] Creating Layer z2_bn2_0_split
I0705 23:25:25.229679  2756 net.cpp:425] z2_bn2_0_split <- z2
I0705 23:25:25.229686  2756 net.cpp:399] z2_bn2_0_split -> z2_bn2_0_split_0
I0705 23:25:25.229691  2756 net.cpp:399] z2_bn2_0_split -> z2_bn2_0_split_1
I0705 23:25:25.229720  2756 net.cpp:141] Setting up z2_bn2_0_split
I0705 23:25:25.229725  2756 net.cpp:148] Top shape: 24 64 96 128 (18874368)
I0705 23:25:25.229728  2756 net.cpp:148] Top shape: 24 64 96 128 (18874368)
I0705 23:25:25.229732  2756 net.cpp:156] Memory required for data: 2486699040
I0705 23:25:25.229733  2756 layer_factory.hpp:77] Creating layer scale2
I0705 23:25:25.229739  2756 net.cpp:91] Creating Layer scale2
I0705 23:25:25.229744  2756 net.cpp:425] scale2 <- z2_bn2_0_split_0
I0705 23:25:25.229753  2756 net.cpp:399] scale2 -> h2
I0705 23:25:25.229812  2756 layer_factory.hpp:77] Creating layer scale2
I0705 23:25:25.229933  2756 net.cpp:141] Setting up scale2
I0705 23:25:25.229943  2756 net.cpp:148] Top shape: 24 64 96 128 (18874368)
I0705 23:25:25.229944  2756 net.cpp:156] Memory required for data: 2562196512
I0705 23:25:25.229951  2756 layer_factory.hpp:77] Creating layer relu2
I0705 23:25:25.229956  2756 net.cpp:91] Creating Layer relu2
I0705 23:25:25.229959  2756 net.cpp:425] relu2 <- h2
I0705 23:25:25.229964  2756 net.cpp:386] relu2 -> h2 (in-place)
I0705 23:25:25.230242  2756 net.cpp:141] Setting up relu2
I0705 23:25:25.230253  2756 net.cpp:148] Top shape: 24 64 96 128 (18874368)
I0705 23:25:25.230264  2756 net.cpp:156] Memory required for data: 2637693984
I0705 23:25:25.230268  2756 layer_factory.hpp:77] Creating layer bn2_n
I0705 23:25:25.230275  2756 net.cpp:91] Creating Layer bn2_n
I0705 23:25:25.230278  2756 net.cpp:425] bn2_n <- z2_n
I0705 23:25:25.230284  2756 net.cpp:386] bn2_n -> z2_n (in-place)
I0705 23:25:25.230438  2756 net.cpp:141] Setting up bn2_n
I0705 23:25:25.230446  2756 net.cpp:148] Top shape: 24 64 96 128 (18874368)
I0705 23:25:25.230448  2756 net.cpp:156] Memory required for data: 2713191456
I0705 23:25:25.230455  2756 layer_factory.hpp:77] Creating layer noisy_z2_n
I0705 23:25:25.230461  2756 net.cpp:91] Creating Layer noisy_z2_n
I0705 23:25:25.230464  2756 net.cpp:425] noisy_z2_n <- z2_n
I0705 23:25:25.230468  2756 net.cpp:386] noisy_z2_n -> z2_n (in-place)
I0705 23:25:25.230486  2756 net.cpp:141] Setting up noisy_z2_n
I0705 23:25:25.230491  2756 net.cpp:148] Top shape: 24 64 96 128 (18874368)
I0705 23:25:25.230494  2756 net.cpp:156] Memory required for data: 2788688928
I0705 23:25:25.230496  2756 layer_factory.hpp:77] Creating layer z2_n_noisy_z2_n_0_split
I0705 23:25:25.230500  2756 net.cpp:91] Creating Layer z2_n_noisy_z2_n_0_split
I0705 23:25:25.230504  2756 net.cpp:425] z2_n_noisy_z2_n_0_split <- z2_n
I0705 23:25:25.230506  2756 net.cpp:399] z2_n_noisy_z2_n_0_split -> z2_n_noisy_z2_n_0_split_0
I0705 23:25:25.230515  2756 net.cpp:399] z2_n_noisy_z2_n_0_split -> z2_n_noisy_z2_n_0_split_1
I0705 23:25:25.230540  2756 net.cpp:141] Setting up z2_n_noisy_z2_n_0_split
I0705 23:25:25.230545  2756 net.cpp:148] Top shape: 24 64 96 128 (18874368)
I0705 23:25:25.230548  2756 net.cpp:148] Top shape: 24 64 96 128 (18874368)
I0705 23:25:25.230551  2756 net.cpp:156] Memory required for data: 2939683872
I0705 23:25:25.230553  2756 layer_factory.hpp:77] Creating layer scale2_n
I0705 23:25:25.230561  2756 net.cpp:91] Creating Layer scale2_n
I0705 23:25:25.230563  2756 net.cpp:425] scale2_n <- z2_n_noisy_z2_n_0_split_0
I0705 23:25:25.230568  2756 net.cpp:399] scale2_n -> h2_n
I0705 23:25:25.230603  2756 layer_factory.hpp:77] Creating layer scale2_n
I0705 23:25:25.230695  2756 net.cpp:141] Setting up scale2_n
I0705 23:25:25.230702  2756 net.cpp:148] Top shape: 24 64 96 128 (18874368)
I0705 23:25:25.230705  2756 net.cpp:156] Memory required for data: 3015181344
I0705 23:25:25.230708  2756 net.cpp:484] Sharing parameters 'scale2_w' owned by layer 'scale2', param index 0
I0705 23:25:25.230711  2756 net.cpp:484] Sharing parameters 'scale2_b' owned by layer 'scale2', param index 1
I0705 23:25:25.230715  2756 layer_factory.hpp:77] Creating layer relu2_n
I0705 23:25:25.230720  2756 net.cpp:91] Creating Layer relu2_n
I0705 23:25:25.230721  2756 net.cpp:425] relu2_n <- h2_n
I0705 23:25:25.230726  2756 net.cpp:386] relu2_n -> h2_n (in-place)
I0705 23:25:25.230906  2756 net.cpp:141] Setting up relu2_n
I0705 23:25:25.230916  2756 net.cpp:148] Top shape: 24 64 96 128 (18874368)
I0705 23:25:25.230919  2756 net.cpp:156] Memory required for data: 3090678816
I0705 23:25:25.230922  2756 layer_factory.hpp:77] Creating layer pool2
I0705 23:25:25.230931  2756 net.cpp:91] Creating Layer pool2
I0705 23:25:25.230934  2756 net.cpp:425] pool2 <- h2
I0705 23:25:25.230939  2756 net.cpp:399] pool2 -> pool2
I0705 23:25:25.230978  2756 net.cpp:141] Setting up pool2
I0705 23:25:25.230983  2756 net.cpp:148] Top shape: 24 64 48 64 (4718592)
I0705 23:25:25.230986  2756 net.cpp:156] Memory required for data: 3109553184
I0705 23:25:25.230988  2756 layer_factory.hpp:77] Creating layer pool2_n
I0705 23:25:25.230991  2756 layer_factory.cpp:90] cuDNN does not support multiple tops. Using Caffe's own pooling layer.
I0705 23:25:25.230996  2756 net.cpp:91] Creating Layer pool2_n
I0705 23:25:25.230999  2756 net.cpp:425] pool2_n <- h2_n
I0705 23:25:25.231003  2756 net.cpp:399] pool2_n -> pool2_n
I0705 23:25:25.231007  2756 net.cpp:399] pool2_n -> pool2_n_mask
I0705 23:25:25.231034  2756 net.cpp:141] Setting up pool2_n
I0705 23:25:25.231040  2756 net.cpp:148] Top shape: 24 64 48 64 (4718592)
I0705 23:25:25.231043  2756 net.cpp:148] Top shape: 24 64 48 64 (4718592)
I0705 23:25:25.231055  2756 net.cpp:156] Memory required for data: 3147301920
I0705 23:25:25.231057  2756 layer_factory.hpp:77] Creating layer conv3
I0705 23:25:25.231065  2756 net.cpp:91] Creating Layer conv3
I0705 23:25:25.231068  2756 net.cpp:425] conv3 <- pool2
I0705 23:25:25.231072  2756 net.cpp:425] conv3 <- pool2_n
I0705 23:25:25.231077  2756 net.cpp:399] conv3 -> z3_pre
I0705 23:25:25.231082  2756 net.cpp:399] conv3 -> z3_n
I0705 23:25:25.233073  2756 net.cpp:141] Setting up conv3
I0705 23:25:25.233088  2756 net.cpp:148] Top shape: 24 128 48 64 (9437184)
I0705 23:25:25.233091  2756 net.cpp:148] Top shape: 24 128 48 64 (9437184)
I0705 23:25:25.233094  2756 net.cpp:156] Memory required for data: 3222799392
I0705 23:25:25.233099  2756 layer_factory.hpp:77] Creating layer bn3
I0705 23:25:25.233105  2756 net.cpp:91] Creating Layer bn3
I0705 23:25:25.233108  2756 net.cpp:425] bn3 <- z3_pre
I0705 23:25:25.233114  2756 net.cpp:399] bn3 -> z3
I0705 23:25:25.233119  2756 net.cpp:399] bn3 -> bn3_param
I0705 23:25:25.233906  2756 net.cpp:141] Setting up bn3
I0705 23:25:25.233918  2756 net.cpp:148] Top shape: 24 128 48 64 (9437184)
I0705 23:25:25.233922  2756 net.cpp:148] Top shape: 2 128 (256)
I0705 23:25:25.233924  2756 net.cpp:156] Memory required for data: 3260549152
I0705 23:25:25.233932  2756 layer_factory.hpp:77] Creating layer z3_bn3_0_split
I0705 23:25:25.233937  2756 net.cpp:91] Creating Layer z3_bn3_0_split
I0705 23:25:25.233939  2756 net.cpp:425] z3_bn3_0_split <- z3
I0705 23:25:25.233945  2756 net.cpp:399] z3_bn3_0_split -> z3_bn3_0_split_0
I0705 23:25:25.233952  2756 net.cpp:399] z3_bn3_0_split -> z3_bn3_0_split_1
I0705 23:25:25.233983  2756 net.cpp:141] Setting up z3_bn3_0_split
I0705 23:25:25.233989  2756 net.cpp:148] Top shape: 24 128 48 64 (9437184)
I0705 23:25:25.233992  2756 net.cpp:148] Top shape: 24 128 48 64 (9437184)
I0705 23:25:25.233995  2756 net.cpp:156] Memory required for data: 3336046624
I0705 23:25:25.233997  2756 layer_factory.hpp:77] Creating layer scale3
I0705 23:25:25.234007  2756 net.cpp:91] Creating Layer scale3
I0705 23:25:25.234014  2756 net.cpp:425] scale3 <- z3_bn3_0_split_0
I0705 23:25:25.234017  2756 net.cpp:399] scale3 -> h3
I0705 23:25:25.234051  2756 layer_factory.hpp:77] Creating layer scale3
I0705 23:25:25.234133  2756 net.cpp:141] Setting up scale3
I0705 23:25:25.234140  2756 net.cpp:148] Top shape: 24 128 48 64 (9437184)
I0705 23:25:25.234143  2756 net.cpp:156] Memory required for data: 3373795360
I0705 23:25:25.234148  2756 layer_factory.hpp:77] Creating layer relu3
I0705 23:25:25.234153  2756 net.cpp:91] Creating Layer relu3
I0705 23:25:25.234156  2756 net.cpp:425] relu3 <- h3
I0705 23:25:25.234159  2756 net.cpp:386] relu3 -> h3 (in-place)
I0705 23:25:25.234438  2756 net.cpp:141] Setting up relu3
I0705 23:25:25.234449  2756 net.cpp:148] Top shape: 24 128 48 64 (9437184)
I0705 23:25:25.234452  2756 net.cpp:156] Memory required for data: 3411544096
I0705 23:25:25.234455  2756 layer_factory.hpp:77] Creating layer bn3_n
I0705 23:25:25.234462  2756 net.cpp:91] Creating Layer bn3_n
I0705 23:25:25.234467  2756 net.cpp:425] bn3_n <- z3_n
I0705 23:25:25.234470  2756 net.cpp:386] bn3_n -> z3_n (in-place)
I0705 23:25:25.234613  2756 net.cpp:141] Setting up bn3_n
I0705 23:25:25.234622  2756 net.cpp:148] Top shape: 24 128 48 64 (9437184)
I0705 23:25:25.234623  2756 net.cpp:156] Memory required for data: 3449292832
I0705 23:25:25.234629  2756 layer_factory.hpp:77] Creating layer noisy_z3_n
I0705 23:25:25.234635  2756 net.cpp:91] Creating Layer noisy_z3_n
I0705 23:25:25.234637  2756 net.cpp:425] noisy_z3_n <- z3_n
I0705 23:25:25.234643  2756 net.cpp:386] noisy_z3_n -> z3_n (in-place)
I0705 23:25:25.234661  2756 net.cpp:141] Setting up noisy_z3_n
I0705 23:25:25.234665  2756 net.cpp:148] Top shape: 24 128 48 64 (9437184)
I0705 23:25:25.234668  2756 net.cpp:156] Memory required for data: 3487041568
I0705 23:25:25.234670  2756 layer_factory.hpp:77] Creating layer z3_n_noisy_z3_n_0_split
I0705 23:25:25.234674  2756 net.cpp:91] Creating Layer z3_n_noisy_z3_n_0_split
I0705 23:25:25.234690  2756 net.cpp:425] z3_n_noisy_z3_n_0_split <- z3_n
I0705 23:25:25.234695  2756 net.cpp:399] z3_n_noisy_z3_n_0_split -> z3_n_noisy_z3_n_0_split_0
I0705 23:25:25.234700  2756 net.cpp:399] z3_n_noisy_z3_n_0_split -> z3_n_noisy_z3_n_0_split_1
I0705 23:25:25.234730  2756 net.cpp:141] Setting up z3_n_noisy_z3_n_0_split
I0705 23:25:25.234737  2756 net.cpp:148] Top shape: 24 128 48 64 (9437184)
I0705 23:25:25.234741  2756 net.cpp:148] Top shape: 24 128 48 64 (9437184)
I0705 23:25:25.234743  2756 net.cpp:156] Memory required for data: 3562539040
I0705 23:25:25.234745  2756 layer_factory.hpp:77] Creating layer scale3_n
I0705 23:25:25.234755  2756 net.cpp:91] Creating Layer scale3_n
I0705 23:25:25.234757  2756 net.cpp:425] scale3_n <- z3_n_noisy_z3_n_0_split_0
I0705 23:25:25.234762  2756 net.cpp:399] scale3_n -> h3_n
I0705 23:25:25.234808  2756 layer_factory.hpp:77] Creating layer scale3_n
I0705 23:25:25.234927  2756 net.cpp:141] Setting up scale3_n
I0705 23:25:25.234946  2756 net.cpp:148] Top shape: 24 128 48 64 (9437184)
I0705 23:25:25.234949  2756 net.cpp:156] Memory required for data: 3600287776
I0705 23:25:25.234956  2756 net.cpp:484] Sharing parameters 'scale3_w' owned by layer 'scale3', param index 0
I0705 23:25:25.234963  2756 net.cpp:484] Sharing parameters 'scale3_b' owned by layer 'scale3', param index 1
I0705 23:25:25.234971  2756 layer_factory.hpp:77] Creating layer relu3_n
I0705 23:25:25.234977  2756 net.cpp:91] Creating Layer relu3_n
I0705 23:25:25.234982  2756 net.cpp:425] relu3_n <- h3_n
I0705 23:25:25.234987  2756 net.cpp:386] relu3_n -> h3_n (in-place)
I0705 23:25:25.235194  2756 net.cpp:141] Setting up relu3_n
I0705 23:25:25.235208  2756 net.cpp:148] Top shape: 24 128 48 64 (9437184)
I0705 23:25:25.235213  2756 net.cpp:156] Memory required for data: 3638036512
I0705 23:25:25.235216  2756 layer_factory.hpp:77] Creating layer pool3
I0705 23:25:25.235224  2756 net.cpp:91] Creating Layer pool3
I0705 23:25:25.235229  2756 net.cpp:425] pool3 <- h3
I0705 23:25:25.235236  2756 net.cpp:399] pool3 -> pool3
I0705 23:25:25.235285  2756 net.cpp:141] Setting up pool3
I0705 23:25:25.235294  2756 net.cpp:148] Top shape: 24 128 24 32 (2359296)
I0705 23:25:25.235298  2756 net.cpp:156] Memory required for data: 3647473696
I0705 23:25:25.235302  2756 layer_factory.hpp:77] Creating layer pool3_n
I0705 23:25:25.235306  2756 layer_factory.cpp:90] cuDNN does not support multiple tops. Using Caffe's own pooling layer.
I0705 23:25:25.235314  2756 net.cpp:91] Creating Layer pool3_n
I0705 23:25:25.235318  2756 net.cpp:425] pool3_n <- h3_n
I0705 23:25:25.235326  2756 net.cpp:399] pool3_n -> pool3_n
I0705 23:25:25.235332  2756 net.cpp:399] pool3_n -> pool3_n_mask
I0705 23:25:25.235371  2756 net.cpp:141] Setting up pool3_n
I0705 23:25:25.235381  2756 net.cpp:148] Top shape: 24 128 24 32 (2359296)
I0705 23:25:25.235390  2756 net.cpp:148] Top shape: 24 128 24 32 (2359296)
I0705 23:25:25.235395  2756 net.cpp:156] Memory required for data: 3666348064
I0705 23:25:25.235399  2756 layer_factory.hpp:77] Creating layer conv4
I0705 23:25:25.235411  2756 net.cpp:91] Creating Layer conv4
I0705 23:25:25.235416  2756 net.cpp:425] conv4 <- pool3
I0705 23:25:25.235421  2756 net.cpp:425] conv4 <- pool3_n
I0705 23:25:25.235430  2756 net.cpp:399] conv4 -> z4_pre
I0705 23:25:25.235438  2756 net.cpp:399] conv4 -> z4_n
I0705 23:25:25.239027  2756 net.cpp:141] Setting up conv4
I0705 23:25:25.239040  2756 net.cpp:148] Top shape: 24 256 24 32 (4718592)
I0705 23:25:25.239044  2756 net.cpp:148] Top shape: 24 256 24 32 (4718592)
I0705 23:25:25.239047  2756 net.cpp:156] Memory required for data: 3704096800
I0705 23:25:25.239051  2756 layer_factory.hpp:77] Creating layer bn4
I0705 23:25:25.239059  2756 net.cpp:91] Creating Layer bn4
I0705 23:25:25.239063  2756 net.cpp:425] bn4 <- z4_pre
I0705 23:25:25.239068  2756 net.cpp:399] bn4 -> z4
I0705 23:25:25.239074  2756 net.cpp:399] bn4 -> bn4_param
I0705 23:25:25.239246  2756 net.cpp:141] Setting up bn4
I0705 23:25:25.239254  2756 net.cpp:148] Top shape: 24 256 24 32 (4718592)
I0705 23:25:25.239258  2756 net.cpp:148] Top shape: 2 256 (512)
I0705 23:25:25.239269  2756 net.cpp:156] Memory required for data: 3722973216
I0705 23:25:25.239275  2756 layer_factory.hpp:77] Creating layer z4_bn4_0_split
I0705 23:25:25.239280  2756 net.cpp:91] Creating Layer z4_bn4_0_split
I0705 23:25:25.239284  2756 net.cpp:425] z4_bn4_0_split <- z4
I0705 23:25:25.239289  2756 net.cpp:399] z4_bn4_0_split -> z4_bn4_0_split_0
I0705 23:25:25.239294  2756 net.cpp:399] z4_bn4_0_split -> z4_bn4_0_split_1
I0705 23:25:25.239326  2756 net.cpp:141] Setting up z4_bn4_0_split
I0705 23:25:25.239332  2756 net.cpp:148] Top shape: 24 256 24 32 (4718592)
I0705 23:25:25.239336  2756 net.cpp:148] Top shape: 24 256 24 32 (4718592)
I0705 23:25:25.239337  2756 net.cpp:156] Memory required for data: 3760721952
I0705 23:25:25.239341  2756 layer_factory.hpp:77] Creating layer scale4
I0705 23:25:25.239347  2756 net.cpp:91] Creating Layer scale4
I0705 23:25:25.239351  2756 net.cpp:425] scale4 <- z4_bn4_0_split_0
I0705 23:25:25.239354  2756 net.cpp:399] scale4 -> h4
I0705 23:25:25.239394  2756 layer_factory.hpp:77] Creating layer scale4
I0705 23:25:25.239481  2756 net.cpp:141] Setting up scale4
I0705 23:25:25.239490  2756 net.cpp:148] Top shape: 24 256 24 32 (4718592)
I0705 23:25:25.239492  2756 net.cpp:156] Memory required for data: 3779596320
I0705 23:25:25.239500  2756 layer_factory.hpp:77] Creating layer relu4
I0705 23:25:25.239505  2756 net.cpp:91] Creating Layer relu4
I0705 23:25:25.239507  2756 net.cpp:425] relu4 <- h4
I0705 23:25:25.239511  2756 net.cpp:386] relu4 -> h4 (in-place)
I0705 23:25:25.239660  2756 net.cpp:141] Setting up relu4
I0705 23:25:25.239668  2756 net.cpp:148] Top shape: 24 256 24 32 (4718592)
I0705 23:25:25.239671  2756 net.cpp:156] Memory required for data: 3798470688
I0705 23:25:25.239675  2756 layer_factory.hpp:77] Creating layer bn4_n
I0705 23:25:25.239681  2756 net.cpp:91] Creating Layer bn4_n
I0705 23:25:25.239683  2756 net.cpp:425] bn4_n <- z4_n
I0705 23:25:25.239688  2756 net.cpp:386] bn4_n -> z4_n (in-place)
I0705 23:25:25.239850  2756 net.cpp:141] Setting up bn4_n
I0705 23:25:25.239862  2756 net.cpp:148] Top shape: 24 256 24 32 (4718592)
I0705 23:25:25.239867  2756 net.cpp:156] Memory required for data: 3817345056
I0705 23:25:25.239876  2756 layer_factory.hpp:77] Creating layer noisy_z4_n
I0705 23:25:25.239884  2756 net.cpp:91] Creating Layer noisy_z4_n
I0705 23:25:25.239887  2756 net.cpp:425] noisy_z4_n <- z4_n
I0705 23:25:25.239892  2756 net.cpp:386] noisy_z4_n -> z4_n (in-place)
I0705 23:25:25.239917  2756 net.cpp:141] Setting up noisy_z4_n
I0705 23:25:25.239922  2756 net.cpp:148] Top shape: 24 256 24 32 (4718592)
I0705 23:25:25.239924  2756 net.cpp:156] Memory required for data: 3836219424
I0705 23:25:25.239928  2756 layer_factory.hpp:77] Creating layer z4_n_noisy_z4_n_0_split
I0705 23:25:25.239931  2756 net.cpp:91] Creating Layer z4_n_noisy_z4_n_0_split
I0705 23:25:25.239933  2756 net.cpp:425] z4_n_noisy_z4_n_0_split <- z4_n
I0705 23:25:25.239938  2756 net.cpp:399] z4_n_noisy_z4_n_0_split -> z4_n_noisy_z4_n_0_split_0
I0705 23:25:25.239941  2756 net.cpp:399] z4_n_noisy_z4_n_0_split -> z4_n_noisy_z4_n_0_split_1
I0705 23:25:25.239969  2756 net.cpp:141] Setting up z4_n_noisy_z4_n_0_split
I0705 23:25:25.239974  2756 net.cpp:148] Top shape: 24 256 24 32 (4718592)
I0705 23:25:25.239977  2756 net.cpp:148] Top shape: 24 256 24 32 (4718592)
I0705 23:25:25.239979  2756 net.cpp:156] Memory required for data: 3873968160
I0705 23:25:25.239982  2756 layer_factory.hpp:77] Creating layer scale4_n
I0705 23:25:25.239989  2756 net.cpp:91] Creating Layer scale4_n
I0705 23:25:25.239990  2756 net.cpp:425] scale4_n <- z4_n_noisy_z4_n_0_split_0
I0705 23:25:25.239995  2756 net.cpp:399] scale4_n -> h4_n
I0705 23:25:25.240030  2756 layer_factory.hpp:77] Creating layer scale4_n
I0705 23:25:25.240108  2756 net.cpp:141] Setting up scale4_n
I0705 23:25:25.240114  2756 net.cpp:148] Top shape: 24 256 24 32 (4718592)
I0705 23:25:25.240118  2756 net.cpp:156] Memory required for data: 3892842528
I0705 23:25:25.240120  2756 net.cpp:484] Sharing parameters 'scale4_w' owned by layer 'scale4', param index 0
I0705 23:25:25.240135  2756 net.cpp:484] Sharing parameters 'scale4_b' owned by layer 'scale4', param index 1
I0705 23:25:25.240139  2756 layer_factory.hpp:77] Creating layer relu4_n
I0705 23:25:25.240142  2756 net.cpp:91] Creating Layer relu4_n
I0705 23:25:25.240145  2756 net.cpp:425] relu4_n <- h4_n
I0705 23:25:25.240149  2756 net.cpp:386] relu4_n -> h4_n (in-place)
I0705 23:25:25.240422  2756 net.cpp:141] Setting up relu4_n
I0705 23:25:25.240433  2756 net.cpp:148] Top shape: 24 256 24 32 (4718592)
I0705 23:25:25.240435  2756 net.cpp:156] Memory required for data: 3911716896
I0705 23:25:25.240438  2756 layer_factory.hpp:77] Creating layer pool4
I0705 23:25:25.240447  2756 net.cpp:91] Creating Layer pool4
I0705 23:25:25.240449  2756 net.cpp:425] pool4 <- h4
I0705 23:25:25.240453  2756 net.cpp:399] pool4 -> pool4
I0705 23:25:25.240494  2756 net.cpp:141] Setting up pool4
I0705 23:25:25.240499  2756 net.cpp:148] Top shape: 24 256 12 16 (1179648)
I0705 23:25:25.240502  2756 net.cpp:156] Memory required for data: 3916435488
I0705 23:25:25.240504  2756 layer_factory.hpp:77] Creating layer pool4_n
I0705 23:25:25.240507  2756 layer_factory.cpp:90] cuDNN does not support multiple tops. Using Caffe's own pooling layer.
I0705 23:25:25.240511  2756 net.cpp:91] Creating Layer pool4_n
I0705 23:25:25.240514  2756 net.cpp:425] pool4_n <- h4_n
I0705 23:25:25.240519  2756 net.cpp:399] pool4_n -> pool4_n
I0705 23:25:25.240523  2756 net.cpp:399] pool4_n -> pool4_n_mask
I0705 23:25:25.240551  2756 net.cpp:141] Setting up pool4_n
I0705 23:25:25.240556  2756 net.cpp:148] Top shape: 24 256 12 16 (1179648)
I0705 23:25:25.240558  2756 net.cpp:148] Top shape: 24 256 12 16 (1179648)
I0705 23:25:25.240561  2756 net.cpp:156] Memory required for data: 3925872672
I0705 23:25:25.240563  2756 layer_factory.hpp:77] Creating layer conv5
I0705 23:25:25.240572  2756 net.cpp:91] Creating Layer conv5
I0705 23:25:25.240576  2756 net.cpp:425] conv5 <- pool4
I0705 23:25:25.240578  2756 net.cpp:425] conv5 <- pool4_n
I0705 23:25:25.240582  2756 net.cpp:399] conv5 -> z5_pre
I0705 23:25:25.240587  2756 net.cpp:399] conv5 -> z5_n
I0705 23:25:25.246146  2756 net.cpp:141] Setting up conv5
I0705 23:25:25.246160  2756 net.cpp:148] Top shape: 24 256 12 16 (1179648)
I0705 23:25:25.246163  2756 net.cpp:148] Top shape: 24 256 12 16 (1179648)
I0705 23:25:25.246166  2756 net.cpp:156] Memory required for data: 3935309856
I0705 23:25:25.246171  2756 layer_factory.hpp:77] Creating layer bn5
I0705 23:25:25.246181  2756 net.cpp:91] Creating Layer bn5
I0705 23:25:25.246183  2756 net.cpp:425] bn5 <- z5_pre
I0705 23:25:25.246189  2756 net.cpp:399] bn5 -> z5
I0705 23:25:25.246199  2756 net.cpp:399] bn5 -> bn5_param
I0705 23:25:25.246366  2756 net.cpp:141] Setting up bn5
I0705 23:25:25.246373  2756 net.cpp:148] Top shape: 24 256 12 16 (1179648)
I0705 23:25:25.246376  2756 net.cpp:148] Top shape: 2 256 (512)
I0705 23:25:25.246378  2756 net.cpp:156] Memory required for data: 3940030496
I0705 23:25:25.246386  2756 layer_factory.hpp:77] Creating layer z5_bn5_0_split
I0705 23:25:25.246390  2756 net.cpp:91] Creating Layer z5_bn5_0_split
I0705 23:25:25.246393  2756 net.cpp:425] z5_bn5_0_split <- z5
I0705 23:25:25.246398  2756 net.cpp:399] z5_bn5_0_split -> z5_bn5_0_split_0
I0705 23:25:25.246403  2756 net.cpp:399] z5_bn5_0_split -> z5_bn5_0_split_1
I0705 23:25:25.246431  2756 net.cpp:141] Setting up z5_bn5_0_split
I0705 23:25:25.246436  2756 net.cpp:148] Top shape: 24 256 12 16 (1179648)
I0705 23:25:25.246438  2756 net.cpp:148] Top shape: 24 256 12 16 (1179648)
I0705 23:25:25.246441  2756 net.cpp:156] Memory required for data: 3949467680
I0705 23:25:25.246443  2756 layer_factory.hpp:77] Creating layer scale5
I0705 23:25:25.246450  2756 net.cpp:91] Creating Layer scale5
I0705 23:25:25.246454  2756 net.cpp:425] scale5 <- z5_bn5_0_split_0
I0705 23:25:25.246459  2756 net.cpp:399] scale5 -> h5
I0705 23:25:25.246490  2756 layer_factory.hpp:77] Creating layer scale5
I0705 23:25:25.246572  2756 net.cpp:141] Setting up scale5
I0705 23:25:25.246578  2756 net.cpp:148] Top shape: 24 256 12 16 (1179648)
I0705 23:25:25.246590  2756 net.cpp:156] Memory required for data: 3954186272
I0705 23:25:25.246597  2756 layer_factory.hpp:77] Creating layer relu5
I0705 23:25:25.246600  2756 net.cpp:91] Creating Layer relu5
I0705 23:25:25.246603  2756 net.cpp:425] relu5 <- h5
I0705 23:25:25.246608  2756 net.cpp:386] relu5 -> h5 (in-place)
I0705 23:25:25.246754  2756 net.cpp:141] Setting up relu5
I0705 23:25:25.246763  2756 net.cpp:148] Top shape: 24 256 12 16 (1179648)
I0705 23:25:25.246765  2756 net.cpp:156] Memory required for data: 3958904864
I0705 23:25:25.246768  2756 layer_factory.hpp:77] Creating layer bn5_n
I0705 23:25:25.246776  2756 net.cpp:91] Creating Layer bn5_n
I0705 23:25:25.246783  2756 net.cpp:425] bn5_n <- z5_n
I0705 23:25:25.246788  2756 net.cpp:386] bn5_n -> z5_n (in-place)
I0705 23:25:25.246956  2756 net.cpp:141] Setting up bn5_n
I0705 23:25:25.246965  2756 net.cpp:148] Top shape: 24 256 12 16 (1179648)
I0705 23:25:25.246968  2756 net.cpp:156] Memory required for data: 3963623456
I0705 23:25:25.246974  2756 layer_factory.hpp:77] Creating layer noisy_z5_n
I0705 23:25:25.246981  2756 net.cpp:91] Creating Layer noisy_z5_n
I0705 23:25:25.246984  2756 net.cpp:425] noisy_z5_n <- z5_n
I0705 23:25:25.246989  2756 net.cpp:386] noisy_z5_n -> z5_n (in-place)
I0705 23:25:25.247009  2756 net.cpp:141] Setting up noisy_z5_n
I0705 23:25:25.247012  2756 net.cpp:148] Top shape: 24 256 12 16 (1179648)
I0705 23:25:25.247015  2756 net.cpp:156] Memory required for data: 3968342048
I0705 23:25:25.247017  2756 layer_factory.hpp:77] Creating layer z5_n_noisy_z5_n_0_split
I0705 23:25:25.247021  2756 net.cpp:91] Creating Layer z5_n_noisy_z5_n_0_split
I0705 23:25:25.247023  2756 net.cpp:425] z5_n_noisy_z5_n_0_split <- z5_n
I0705 23:25:25.247028  2756 net.cpp:399] z5_n_noisy_z5_n_0_split -> z5_n_noisy_z5_n_0_split_0
I0705 23:25:25.247032  2756 net.cpp:399] z5_n_noisy_z5_n_0_split -> z5_n_noisy_z5_n_0_split_1
I0705 23:25:25.247062  2756 net.cpp:141] Setting up z5_n_noisy_z5_n_0_split
I0705 23:25:25.247067  2756 net.cpp:148] Top shape: 24 256 12 16 (1179648)
I0705 23:25:25.247071  2756 net.cpp:148] Top shape: 24 256 12 16 (1179648)
I0705 23:25:25.247072  2756 net.cpp:156] Memory required for data: 3977779232
I0705 23:25:25.247074  2756 layer_factory.hpp:77] Creating layer scale5_n
I0705 23:25:25.247081  2756 net.cpp:91] Creating Layer scale5_n
I0705 23:25:25.247084  2756 net.cpp:425] scale5_n <- z5_n_noisy_z5_n_0_split_0
I0705 23:25:25.247088  2756 net.cpp:399] scale5_n -> h5_n
I0705 23:25:25.247123  2756 layer_factory.hpp:77] Creating layer scale5_n
I0705 23:25:25.247205  2756 net.cpp:141] Setting up scale5_n
I0705 23:25:25.247211  2756 net.cpp:148] Top shape: 24 256 12 16 (1179648)
I0705 23:25:25.247213  2756 net.cpp:156] Memory required for data: 3982497824
I0705 23:25:25.247217  2756 net.cpp:484] Sharing parameters 'scale5_w' owned by layer 'scale5', param index 0
I0705 23:25:25.247220  2756 net.cpp:484] Sharing parameters 'scale5_b' owned by layer 'scale5', param index 1
I0705 23:25:25.247222  2756 layer_factory.hpp:77] Creating layer relu5_n
I0705 23:25:25.247226  2756 net.cpp:91] Creating Layer relu5_n
I0705 23:25:25.247229  2756 net.cpp:425] relu5_n <- h5_n
I0705 23:25:25.247233  2756 net.cpp:386] relu5_n -> h5_n (in-place)
I0705 23:25:25.247519  2756 net.cpp:141] Setting up relu5_n
I0705 23:25:25.247530  2756 net.cpp:148] Top shape: 24 256 12 16 (1179648)
I0705 23:25:25.247534  2756 net.cpp:156] Memory required for data: 3987216416
I0705 23:25:25.247535  2756 layer_factory.hpp:77] Creating layer pool5
I0705 23:25:25.247541  2756 net.cpp:91] Creating Layer pool5
I0705 23:25:25.247545  2756 net.cpp:425] pool5 <- h5
I0705 23:25:25.247550  2756 net.cpp:399] pool5 -> pool5
I0705 23:25:25.247587  2756 net.cpp:141] Setting up pool5
I0705 23:25:25.247593  2756 net.cpp:148] Top shape: 24 256 6 8 (294912)
I0705 23:25:25.247596  2756 net.cpp:156] Memory required for data: 3988396064
I0705 23:25:25.247598  2756 layer_factory.hpp:77] Creating layer pool5_n
I0705 23:25:25.247601  2756 layer_factory.cpp:90] cuDNN does not support multiple tops. Using Caffe's own pooling layer.
I0705 23:25:25.247619  2756 net.cpp:91] Creating Layer pool5_n
I0705 23:25:25.247622  2756 net.cpp:425] pool5_n <- h5_n
I0705 23:25:25.247627  2756 net.cpp:399] pool5_n -> pool5_n
I0705 23:25:25.247632  2756 net.cpp:399] pool5_n -> pool5_n_mask
I0705 23:25:25.247666  2756 net.cpp:141] Setting up pool5_n
I0705 23:25:25.247670  2756 net.cpp:148] Top shape: 24 256 6 8 (294912)
I0705 23:25:25.247673  2756 net.cpp:148] Top shape: 24 256 6 8 (294912)
I0705 23:25:25.247675  2756 net.cpp:156] Memory required for data: 3990755360
I0705 23:25:25.247678  2756 layer_factory.hpp:77] Creating layer conv6
I0705 23:25:25.247686  2756 net.cpp:91] Creating Layer conv6
I0705 23:25:25.247689  2756 net.cpp:425] conv6 <- pool5
I0705 23:25:25.247692  2756 net.cpp:425] conv6 <- pool5_n
I0705 23:25:25.247697  2756 net.cpp:399] conv6 -> z6_pre
I0705 23:25:25.247704  2756 net.cpp:399] conv6 -> z6_n
I0705 23:25:25.253989  2756 net.cpp:141] Setting up conv6
I0705 23:25:25.254004  2756 net.cpp:148] Top shape: 24 256 6 8 (294912)
I0705 23:25:25.254009  2756 net.cpp:148] Top shape: 24 256 6 8 (294912)
I0705 23:25:25.254010  2756 net.cpp:156] Memory required for data: 3993114656
I0705 23:25:25.254015  2756 layer_factory.hpp:77] Creating layer bn6
I0705 23:25:25.254022  2756 net.cpp:91] Creating Layer bn6
I0705 23:25:25.254026  2756 net.cpp:425] bn6 <- z6_pre
I0705 23:25:25.254031  2756 net.cpp:399] bn6 -> z6
I0705 23:25:25.254037  2756 net.cpp:399] bn6 -> bn6_param
I0705 23:25:25.254215  2756 net.cpp:141] Setting up bn6
I0705 23:25:25.254222  2756 net.cpp:148] Top shape: 24 256 6 8 (294912)
I0705 23:25:25.254225  2756 net.cpp:148] Top shape: 2 256 (512)
I0705 23:25:25.254227  2756 net.cpp:156] Memory required for data: 3994296352
I0705 23:25:25.254233  2756 layer_factory.hpp:77] Creating layer z6_bn6_0_split
I0705 23:25:25.254238  2756 net.cpp:91] Creating Layer z6_bn6_0_split
I0705 23:25:25.254241  2756 net.cpp:425] z6_bn6_0_split <- z6
I0705 23:25:25.254246  2756 net.cpp:399] z6_bn6_0_split -> z6_bn6_0_split_0
I0705 23:25:25.254251  2756 net.cpp:399] z6_bn6_0_split -> z6_bn6_0_split_1
I0705 23:25:25.254281  2756 net.cpp:141] Setting up z6_bn6_0_split
I0705 23:25:25.254286  2756 net.cpp:148] Top shape: 24 256 6 8 (294912)
I0705 23:25:25.254288  2756 net.cpp:148] Top shape: 24 256 6 8 (294912)
I0705 23:25:25.254290  2756 net.cpp:156] Memory required for data: 3996655648
I0705 23:25:25.254292  2756 layer_factory.hpp:77] Creating layer scale6
I0705 23:25:25.254299  2756 net.cpp:91] Creating Layer scale6
I0705 23:25:25.254302  2756 net.cpp:425] scale6 <- z6_bn6_0_split_0
I0705 23:25:25.254308  2756 net.cpp:399] scale6 -> h6
I0705 23:25:25.254343  2756 layer_factory.hpp:77] Creating layer scale6
I0705 23:25:25.254429  2756 net.cpp:141] Setting up scale6
I0705 23:25:25.254436  2756 net.cpp:148] Top shape: 24 256 6 8 (294912)
I0705 23:25:25.254439  2756 net.cpp:156] Memory required for data: 3997835296
I0705 23:25:25.254444  2756 layer_factory.hpp:77] Creating layer relu6
I0705 23:25:25.254448  2756 net.cpp:91] Creating Layer relu6
I0705 23:25:25.254451  2756 net.cpp:425] relu6 <- h6
I0705 23:25:25.254456  2756 net.cpp:386] relu6 -> h6 (in-place)
I0705 23:25:25.254617  2756 net.cpp:141] Setting up relu6
I0705 23:25:25.254626  2756 net.cpp:148] Top shape: 24 256 6 8 (294912)
I0705 23:25:25.254628  2756 net.cpp:156] Memory required for data: 3999014944
I0705 23:25:25.254631  2756 layer_factory.hpp:77] Creating layer bn6_n
I0705 23:25:25.254638  2756 net.cpp:91] Creating Layer bn6_n
I0705 23:25:25.254642  2756 net.cpp:425] bn6_n <- z6_n
I0705 23:25:25.254647  2756 net.cpp:386] bn6_n -> z6_n (in-place)
I0705 23:25:25.254808  2756 net.cpp:141] Setting up bn6_n
I0705 23:25:25.254817  2756 net.cpp:148] Top shape: 24 256 6 8 (294912)
I0705 23:25:25.254819  2756 net.cpp:156] Memory required for data: 4000194592
I0705 23:25:25.254827  2756 layer_factory.hpp:77] Creating layer noisy_z6_n
I0705 23:25:25.254832  2756 net.cpp:91] Creating Layer noisy_z6_n
I0705 23:25:25.254834  2756 net.cpp:425] noisy_z6_n <- z6_n
I0705 23:25:25.254848  2756 net.cpp:386] noisy_z6_n -> z6_n (in-place)
I0705 23:25:25.254871  2756 net.cpp:141] Setting up noisy_z6_n
I0705 23:25:25.254875  2756 net.cpp:148] Top shape: 24 256 6 8 (294912)
I0705 23:25:25.254878  2756 net.cpp:156] Memory required for data: 4001374240
I0705 23:25:25.254880  2756 layer_factory.hpp:77] Creating layer z6_n_noisy_z6_n_0_split
I0705 23:25:25.254884  2756 net.cpp:91] Creating Layer z6_n_noisy_z6_n_0_split
I0705 23:25:25.254886  2756 net.cpp:425] z6_n_noisy_z6_n_0_split <- z6_n
I0705 23:25:25.254890  2756 net.cpp:399] z6_n_noisy_z6_n_0_split -> z6_n_noisy_z6_n_0_split_0
I0705 23:25:25.254894  2756 net.cpp:399] z6_n_noisy_z6_n_0_split -> z6_n_noisy_z6_n_0_split_1
I0705 23:25:25.254923  2756 net.cpp:141] Setting up z6_n_noisy_z6_n_0_split
I0705 23:25:25.254928  2756 net.cpp:148] Top shape: 24 256 6 8 (294912)
I0705 23:25:25.254930  2756 net.cpp:148] Top shape: 24 256 6 8 (294912)
I0705 23:25:25.254933  2756 net.cpp:156] Memory required for data: 4003733536
I0705 23:25:25.254935  2756 layer_factory.hpp:77] Creating layer scale6_n
I0705 23:25:25.254942  2756 net.cpp:91] Creating Layer scale6_n
I0705 23:25:25.254945  2756 net.cpp:425] scale6_n <- z6_n_noisy_z6_n_0_split_0
I0705 23:25:25.254948  2756 net.cpp:399] scale6_n -> h6_n
I0705 23:25:25.254983  2756 layer_factory.hpp:77] Creating layer scale6_n
I0705 23:25:25.255067  2756 net.cpp:141] Setting up scale6_n
I0705 23:25:25.255074  2756 net.cpp:148] Top shape: 24 256 6 8 (294912)
I0705 23:25:25.255076  2756 net.cpp:156] Memory required for data: 4004913184
I0705 23:25:25.255086  2756 net.cpp:484] Sharing parameters 'scale6_w' owned by layer 'scale6', param index 0
I0705 23:25:25.255090  2756 net.cpp:484] Sharing parameters 'scale6_b' owned by layer 'scale6', param index 1
I0705 23:25:25.255092  2756 layer_factory.hpp:77] Creating layer relu6_n
I0705 23:25:25.255097  2756 net.cpp:91] Creating Layer relu6_n
I0705 23:25:25.255100  2756 net.cpp:425] relu6_n <- h6_n
I0705 23:25:25.255103  2756 net.cpp:386] relu6_n -> h6_n (in-place)
I0705 23:25:25.255508  2756 net.cpp:141] Setting up relu6_n
I0705 23:25:25.255519  2756 net.cpp:148] Top shape: 24 256 6 8 (294912)
I0705 23:25:25.255522  2756 net.cpp:156] Memory required for data: 4006092832
I0705 23:25:25.255525  2756 layer_factory.hpp:77] Creating layer u6
I0705 23:25:25.255532  2756 net.cpp:91] Creating Layer u6
I0705 23:25:25.255535  2756 net.cpp:425] u6 <- h6_n
I0705 23:25:25.255542  2756 net.cpp:399] u6 -> u6
I0705 23:25:25.255708  2756 net.cpp:141] Setting up u6
I0705 23:25:25.255715  2756 net.cpp:148] Top shape: 24 256 6 8 (294912)
I0705 23:25:25.255717  2756 net.cpp:156] Memory required for data: 4007272480
I0705 23:25:25.255725  2756 layer_factory.hpp:77] Creating layer comb6
I0705 23:25:25.255730  2756 net.cpp:91] Creating Layer comb6
I0705 23:25:25.255733  2756 net.cpp:425] comb6 <- z6_n_noisy_z6_n_0_split_1
I0705 23:25:25.255738  2756 net.cpp:425] comb6 <- u6
I0705 23:25:25.255740  2756 net.cpp:399] comb6 -> z6_r
I0705 23:25:25.256031  2756 net.cpp:141] Setting up comb6
I0705 23:25:25.256037  2756 net.cpp:148] Top shape: 24 256 6 8 (294912)
I0705 23:25:25.256039  2756 net.cpp:156] Memory required for data: 4008452128
I0705 23:25:25.256050  2756 layer_factory.hpp:77] Creating layer z6_r_comb6_0_split
I0705 23:25:25.256055  2756 net.cpp:91] Creating Layer z6_r_comb6_0_split
I0705 23:25:25.256058  2756 net.cpp:425] z6_r_comb6_0_split <- z6_r
I0705 23:25:25.256064  2756 net.cpp:399] z6_r_comb6_0_split -> z6_r_comb6_0_split_0
I0705 23:25:25.256069  2756 net.cpp:399] z6_r_comb6_0_split -> z6_r_comb6_0_split_1
I0705 23:25:25.256100  2756 net.cpp:141] Setting up z6_r_comb6_0_split
I0705 23:25:25.256104  2756 net.cpp:148] Top shape: 24 256 6 8 (294912)
I0705 23:25:25.256108  2756 net.cpp:148] Top shape: 24 256 6 8 (294912)
I0705 23:25:25.256109  2756 net.cpp:156] Memory required for data: 4010811424
I0705 23:25:25.256113  2756 layer_factory.hpp:77] Creating layer recon6
I0705 23:25:25.256125  2756 net.cpp:91] Creating Layer recon6
I0705 23:25:25.256129  2756 net.cpp:425] recon6 <- z6_r_comb6_0_split_0
I0705 23:25:25.256142  2756 net.cpp:399] recon6 -> h6_r
I0705 23:25:25.260794  2756 net.cpp:141] Setting up recon6
I0705 23:25:25.260807  2756 net.cpp:148] Top shape: 24 256 6 8 (294912)
I0705 23:25:25.260809  2756 net.cpp:156] Memory required for data: 4011991072
I0705 23:25:25.260814  2756 net.cpp:484] Sharing parameters 'conv6_w' owned by layer 'conv6', param index 0
I0705 23:25:25.260818  2756 layer_factory.hpp:77] Creating layer bn6_r
I0705 23:25:25.260825  2756 net.cpp:91] Creating Layer bn6_r
I0705 23:25:25.260828  2756 net.cpp:425] bn6_r <- h6_r
I0705 23:25:25.260833  2756 net.cpp:386] bn6_r -> h6_r (in-place)
I0705 23:25:25.260990  2756 net.cpp:141] Setting up bn6_r
I0705 23:25:25.260998  2756 net.cpp:148] Top shape: 24 256 6 8 (294912)
I0705 23:25:25.260999  2756 net.cpp:156] Memory required for data: 4013170720
I0705 23:25:25.261005  2756 layer_factory.hpp:77] Creating layer upsample5
I0705 23:25:25.261011  2756 net.cpp:91] Creating Layer upsample5
I0705 23:25:25.261014  2756 net.cpp:425] upsample5 <- h6_r
I0705 23:25:25.261018  2756 net.cpp:425] upsample5 <- pool5_n_mask
I0705 23:25:25.261023  2756 net.cpp:399] upsample5 -> upsample5
I0705 23:25:25.261030  2756 upsample_layer.cpp:31] Params 'pad_out_{}_' are deprecated. Please declare upsample height and width useing the upsample_h, upsample_w parameters.
I0705 23:25:25.261052  2756 net.cpp:141] Setting up upsample5
I0705 23:25:25.261056  2756 net.cpp:148] Top shape: 24 256 12 16 (1179648)
I0705 23:25:25.261059  2756 net.cpp:156] Memory required for data: 4017889312
I0705 23:25:25.261061  2756 layer_factory.hpp:77] Creating layer comb5
I0705 23:25:25.261066  2756 net.cpp:91] Creating Layer comb5
I0705 23:25:25.261070  2756 net.cpp:425] comb5 <- z5_n_noisy_z5_n_0_split_1
I0705 23:25:25.261072  2756 net.cpp:425] comb5 <- upsample5
I0705 23:25:25.261076  2756 net.cpp:399] comb5 -> z5_r
I0705 23:25:25.262750  2756 net.cpp:141] Setting up comb5
I0705 23:25:25.262763  2756 net.cpp:148] Top shape: 24 256 12 16 (1179648)
I0705 23:25:25.262765  2756 net.cpp:156] Memory required for data: 4022607904
I0705 23:25:25.262776  2756 layer_factory.hpp:77] Creating layer z5_r_comb5_0_split
I0705 23:25:25.262781  2756 net.cpp:91] Creating Layer z5_r_comb5_0_split
I0705 23:25:25.262784  2756 net.cpp:425] z5_r_comb5_0_split <- z5_r
I0705 23:25:25.262789  2756 net.cpp:399] z5_r_comb5_0_split -> z5_r_comb5_0_split_0
I0705 23:25:25.262794  2756 net.cpp:399] z5_r_comb5_0_split -> z5_r_comb5_0_split_1
I0705 23:25:25.262828  2756 net.cpp:141] Setting up z5_r_comb5_0_split
I0705 23:25:25.262833  2756 net.cpp:148] Top shape: 24 256 12 16 (1179648)
I0705 23:25:25.262836  2756 net.cpp:148] Top shape: 24 256 12 16 (1179648)
I0705 23:25:25.262838  2756 net.cpp:156] Memory required for data: 4032045088
I0705 23:25:25.262840  2756 layer_factory.hpp:77] Creating layer recon5
I0705 23:25:25.262848  2756 net.cpp:91] Creating Layer recon5
I0705 23:25:25.262850  2756 net.cpp:425] recon5 <- z5_r_comb5_0_split_0
I0705 23:25:25.262856  2756 net.cpp:399] recon5 -> h5_r
I0705 23:25:25.267442  2756 net.cpp:141] Setting up recon5
I0705 23:25:25.267453  2756 net.cpp:148] Top shape: 24 256 12 16 (1179648)
I0705 23:25:25.267457  2756 net.cpp:156] Memory required for data: 4036763680
I0705 23:25:25.267460  2756 net.cpp:484] Sharing parameters 'conv5_w' owned by layer 'conv5', param index 0
I0705 23:25:25.267464  2756 layer_factory.hpp:77] Creating layer bn5_r
I0705 23:25:25.267472  2756 net.cpp:91] Creating Layer bn5_r
I0705 23:25:25.267475  2756 net.cpp:425] bn5_r <- h5_r
I0705 23:25:25.267479  2756 net.cpp:386] bn5_r -> h5_r (in-place)
I0705 23:25:25.267632  2756 net.cpp:141] Setting up bn5_r
I0705 23:25:25.267638  2756 net.cpp:148] Top shape: 24 256 12 16 (1179648)
I0705 23:25:25.267642  2756 net.cpp:156] Memory required for data: 4041482272
I0705 23:25:25.267647  2756 layer_factory.hpp:77] Creating layer upsample4
I0705 23:25:25.267654  2756 net.cpp:91] Creating Layer upsample4
I0705 23:25:25.267657  2756 net.cpp:425] upsample4 <- h5_r
I0705 23:25:25.267662  2756 net.cpp:425] upsample4 <- pool4_n_mask
I0705 23:25:25.267676  2756 net.cpp:399] upsample4 -> upsample4
I0705 23:25:25.267683  2756 upsample_layer.cpp:31] Params 'pad_out_{}_' are deprecated. Please declare upsample height and width useing the upsample_h, upsample_w parameters.
I0705 23:25:25.267704  2756 net.cpp:141] Setting up upsample4
I0705 23:25:25.267709  2756 net.cpp:148] Top shape: 24 256 24 32 (4718592)
I0705 23:25:25.267710  2756 net.cpp:156] Memory required for data: 4060356640
I0705 23:25:25.267714  2756 layer_factory.hpp:77] Creating layer comb4
I0705 23:25:25.267719  2756 net.cpp:91] Creating Layer comb4
I0705 23:25:25.267722  2756 net.cpp:425] comb4 <- z4_n_noisy_z4_n_0_split_1
I0705 23:25:25.267726  2756 net.cpp:425] comb4 <- upsample4
I0705 23:25:25.267729  2756 net.cpp:399] comb4 -> z4_r
I0705 23:25:25.274437  2756 net.cpp:141] Setting up comb4
I0705 23:25:25.274454  2756 net.cpp:148] Top shape: 24 256 24 32 (4718592)
I0705 23:25:25.274457  2756 net.cpp:156] Memory required for data: 4079231008
I0705 23:25:25.274468  2756 layer_factory.hpp:77] Creating layer z4_r_comb4_0_split
I0705 23:25:25.274476  2756 net.cpp:91] Creating Layer z4_r_comb4_0_split
I0705 23:25:25.274479  2756 net.cpp:425] z4_r_comb4_0_split <- z4_r
I0705 23:25:25.274485  2756 net.cpp:399] z4_r_comb4_0_split -> z4_r_comb4_0_split_0
I0705 23:25:25.274492  2756 net.cpp:399] z4_r_comb4_0_split -> z4_r_comb4_0_split_1
I0705 23:25:25.274528  2756 net.cpp:141] Setting up z4_r_comb4_0_split
I0705 23:25:25.274531  2756 net.cpp:148] Top shape: 24 256 24 32 (4718592)
I0705 23:25:25.274534  2756 net.cpp:148] Top shape: 24 256 24 32 (4718592)
I0705 23:25:25.274538  2756 net.cpp:156] Memory required for data: 4116979744
I0705 23:25:25.274539  2756 layer_factory.hpp:77] Creating layer recon4
I0705 23:25:25.274549  2756 net.cpp:91] Creating Layer recon4
I0705 23:25:25.274551  2756 net.cpp:425] recon4 <- z4_r_comb4_0_split_0
I0705 23:25:25.274556  2756 net.cpp:399] recon4 -> h4_r
I0705 23:25:25.277086  2756 net.cpp:141] Setting up recon4
I0705 23:25:25.277099  2756 net.cpp:148] Top shape: 24 128 24 32 (2359296)
I0705 23:25:25.277102  2756 net.cpp:156] Memory required for data: 4126416928
I0705 23:25:25.277107  2756 net.cpp:484] Sharing parameters 'conv4_w' owned by layer 'conv4', param index 0
I0705 23:25:25.277112  2756 layer_factory.hpp:77] Creating layer bn4_r
I0705 23:25:25.277118  2756 net.cpp:91] Creating Layer bn4_r
I0705 23:25:25.277122  2756 net.cpp:425] bn4_r <- h4_r
I0705 23:25:25.277127  2756 net.cpp:386] bn4_r -> h4_r (in-place)
I0705 23:25:25.277287  2756 net.cpp:141] Setting up bn4_r
I0705 23:25:25.277293  2756 net.cpp:148] Top shape: 24 128 24 32 (2359296)
I0705 23:25:25.277297  2756 net.cpp:156] Memory required for data: 4135854112
I0705 23:25:25.277302  2756 layer_factory.hpp:77] Creating layer upsample3
I0705 23:25:25.277309  2756 net.cpp:91] Creating Layer upsample3
I0705 23:25:25.277312  2756 net.cpp:425] upsample3 <- h4_r
I0705 23:25:25.277317  2756 net.cpp:425] upsample3 <- pool3_n_mask
I0705 23:25:25.277320  2756 net.cpp:399] upsample3 -> upsample3
I0705 23:25:25.277325  2756 upsample_layer.cpp:31] Params 'pad_out_{}_' are deprecated. Please declare upsample height and width useing the upsample_h, upsample_w parameters.
I0705 23:25:25.277346  2756 net.cpp:141] Setting up upsample3
I0705 23:25:25.277350  2756 net.cpp:148] Top shape: 24 128 48 64 (9437184)
I0705 23:25:25.277353  2756 net.cpp:156] Memory required for data: 4173602848
I0705 23:25:25.277355  2756 layer_factory.hpp:77] Creating layer comb3
I0705 23:25:25.277360  2756 net.cpp:91] Creating Layer comb3
I0705 23:25:25.277364  2756 net.cpp:425] comb3 <- z3_n_noisy_z3_n_0_split_1
I0705 23:25:25.277367  2756 net.cpp:425] comb3 <- upsample3
I0705 23:25:25.277371  2756 net.cpp:399] comb3 -> z3_r
I0705 23:25:25.287185  2756 net.cpp:141] Setting up comb3
I0705 23:25:25.287209  2756 net.cpp:148] Top shape: 24 128 48 64 (9437184)
I0705 23:25:25.287212  2756 net.cpp:156] Memory required for data: 4211351584
I0705 23:25:25.287225  2756 layer_factory.hpp:77] Creating layer z3_r_comb3_0_split
I0705 23:25:25.287232  2756 net.cpp:91] Creating Layer z3_r_comb3_0_split
I0705 23:25:25.287253  2756 net.cpp:425] z3_r_comb3_0_split <- z3_r
I0705 23:25:25.287259  2756 net.cpp:399] z3_r_comb3_0_split -> z3_r_comb3_0_split_0
I0705 23:25:25.287266  2756 net.cpp:399] z3_r_comb3_0_split -> z3_r_comb3_0_split_1
I0705 23:25:25.287309  2756 net.cpp:141] Setting up z3_r_comb3_0_split
I0705 23:25:25.287314  2756 net.cpp:148] Top shape: 24 128 48 64 (9437184)
I0705 23:25:25.287317  2756 net.cpp:148] Top shape: 24 128 48 64 (9437184)
I0705 23:25:25.287319  2756 net.cpp:156] Memory required for data: 4286849056
I0705 23:25:25.287322  2756 layer_factory.hpp:77] Creating layer recon3
I0705 23:25:25.287331  2756 net.cpp:91] Creating Layer recon3
I0705 23:25:25.287334  2756 net.cpp:425] recon3 <- z3_r_comb3_0_split_0
I0705 23:25:25.287341  2756 net.cpp:399] recon3 -> h3_r
I0705 23:25:25.288010  2756 net.cpp:141] Setting up recon3
I0705 23:25:25.288022  2756 net.cpp:148] Top shape: 24 64 48 64 (4718592)
I0705 23:25:25.288024  2756 net.cpp:156] Memory required for data: 4305723424
I0705 23:25:25.288028  2756 net.cpp:484] Sharing parameters 'conv3_w' owned by layer 'conv3', param index 0
I0705 23:25:25.288033  2756 layer_factory.hpp:77] Creating layer bn3_r
I0705 23:25:25.288041  2756 net.cpp:91] Creating Layer bn3_r
I0705 23:25:25.288044  2756 net.cpp:425] bn3_r <- h3_r
I0705 23:25:25.288048  2756 net.cpp:386] bn3_r -> h3_r (in-place)
I0705 23:25:25.288219  2756 net.cpp:141] Setting up bn3_r
I0705 23:25:25.288226  2756 net.cpp:148] Top shape: 24 64 48 64 (4718592)
I0705 23:25:25.288229  2756 net.cpp:156] Memory required for data: 4324597792
I0705 23:25:25.288235  2756 layer_factory.hpp:77] Creating layer upsample2
I0705 23:25:25.288241  2756 net.cpp:91] Creating Layer upsample2
I0705 23:25:25.288244  2756 net.cpp:425] upsample2 <- h3_r
I0705 23:25:25.288247  2756 net.cpp:425] upsample2 <- pool2_n_mask
I0705 23:25:25.288254  2756 net.cpp:399] upsample2 -> upsample2
I0705 23:25:25.288260  2756 upsample_layer.cpp:31] Params 'pad_out_{}_' are deprecated. Please declare upsample height and width useing the upsample_h, upsample_w parameters.
I0705 23:25:25.288281  2756 net.cpp:141] Setting up upsample2
I0705 23:25:25.288285  2756 net.cpp:148] Top shape: 24 64 96 128 (18874368)
I0705 23:25:25.288287  2756 net.cpp:156] Memory required for data: 4400095264
I0705 23:25:25.288290  2756 layer_factory.hpp:77] Creating layer comb2
I0705 23:25:25.288295  2756 net.cpp:91] Creating Layer comb2
I0705 23:25:25.288297  2756 net.cpp:425] comb2 <- z2_n_noisy_z2_n_0_split_1
I0705 23:25:25.288301  2756 net.cpp:425] comb2 <- upsample2
I0705 23:25:25.288305  2756 net.cpp:399] comb2 -> z2_r
I0705 23:25:25.307317  2756 net.cpp:141] Setting up comb2
I0705 23:25:25.307340  2756 net.cpp:148] Top shape: 24 64 96 128 (18874368)
I0705 23:25:25.307344  2756 net.cpp:156] Memory required for data: 4475592736
I0705 23:25:25.307374  2756 layer_factory.hpp:77] Creating layer z2_r_comb2_0_split
I0705 23:25:25.307382  2756 net.cpp:91] Creating Layer z2_r_comb2_0_split
I0705 23:25:25.307392  2756 net.cpp:425] z2_r_comb2_0_split <- z2_r
I0705 23:25:25.307399  2756 net.cpp:399] z2_r_comb2_0_split -> z2_r_comb2_0_split_0
I0705 23:25:25.307405  2756 net.cpp:399] z2_r_comb2_0_split -> z2_r_comb2_0_split_1
I0705 23:25:25.307453  2756 net.cpp:141] Setting up z2_r_comb2_0_split
I0705 23:25:25.307459  2756 net.cpp:148] Top shape: 24 64 96 128 (18874368)
I0705 23:25:25.307462  2756 net.cpp:148] Top shape: 24 64 96 128 (18874368)
I0705 23:25:25.307466  2756 net.cpp:156] Memory required for data: 4626587680
I0705 23:25:25.307467  2756 layer_factory.hpp:77] Creating layer recon2
I0705 23:25:25.307476  2756 net.cpp:91] Creating Layer recon2
I0705 23:25:25.307478  2756 net.cpp:425] recon2 <- z2_r_comb2_0_split_0
I0705 23:25:25.307485  2756 net.cpp:399] recon2 -> h2_r
I0705 23:25:25.307896  2756 net.cpp:141] Setting up recon2
I0705 23:25:25.307909  2756 net.cpp:148] Top shape: 24 32 96 128 (9437184)
I0705 23:25:25.307910  2756 net.cpp:156] Memory required for data: 4664336416
I0705 23:25:25.307914  2756 net.cpp:484] Sharing parameters 'conv2_w' owned by layer 'conv2', param index 0
I0705 23:25:25.307934  2756 layer_factory.hpp:77] Creating layer bn2_r
I0705 23:25:25.307940  2756 net.cpp:91] Creating Layer bn2_r
I0705 23:25:25.307943  2756 net.cpp:425] bn2_r <- h2_r
I0705 23:25:25.307950  2756 net.cpp:386] bn2_r -> h2_r (in-place)
I0705 23:25:25.308136  2756 net.cpp:141] Setting up bn2_r
I0705 23:25:25.308142  2756 net.cpp:148] Top shape: 24 32 96 128 (9437184)
I0705 23:25:25.308145  2756 net.cpp:156] Memory required for data: 4702085152
I0705 23:25:25.308151  2756 layer_factory.hpp:77] Creating layer upsample1
I0705 23:25:25.308156  2756 net.cpp:91] Creating Layer upsample1
I0705 23:25:25.308159  2756 net.cpp:425] upsample1 <- h2_r
I0705 23:25:25.308163  2756 net.cpp:425] upsample1 <- pool1_n_mask
I0705 23:25:25.308167  2756 net.cpp:399] upsample1 -> upsample1
I0705 23:25:25.308174  2756 upsample_layer.cpp:31] Params 'pad_out_{}_' are deprecated. Please declare upsample height and width useing the upsample_h, upsample_w parameters.
I0705 23:25:25.308197  2756 net.cpp:141] Setting up upsample1
I0705 23:25:25.308202  2756 net.cpp:148] Top shape: 24 32 192 256 (37748736)
I0705 23:25:25.308203  2756 net.cpp:156] Memory required for data: 4853080096
I0705 23:25:25.308205  2756 layer_factory.hpp:77] Creating layer comb1
I0705 23:25:25.308210  2756 net.cpp:91] Creating Layer comb1
I0705 23:25:25.308213  2756 net.cpp:425] comb1 <- z1_n_noisy_z1_n_0_split_1
I0705 23:25:25.308217  2756 net.cpp:425] comb1 <- upsample1
I0705 23:25:25.308220  2756 net.cpp:399] comb1 -> z1_r
I0705 23:25:25.344194  2756 net.cpp:141] Setting up comb1
I0705 23:25:25.344221  2756 net.cpp:148] Top shape: 24 32 192 256 (37748736)
I0705 23:25:25.344224  2756 net.cpp:156] Memory required for data: 5004075040
I0705 23:25:25.344244  2756 layer_factory.hpp:77] Creating layer z1_r_comb1_0_split
I0705 23:25:25.344254  2756 net.cpp:91] Creating Layer z1_r_comb1_0_split
I0705 23:25:25.344259  2756 net.cpp:425] z1_r_comb1_0_split <- z1_r
I0705 23:25:25.344264  2756 net.cpp:399] z1_r_comb1_0_split -> z1_r_comb1_0_split_0
I0705 23:25:25.344271  2756 net.cpp:399] z1_r_comb1_0_split -> z1_r_comb1_0_split_1
I0705 23:25:25.344317  2756 net.cpp:141] Setting up z1_r_comb1_0_split
I0705 23:25:25.344323  2756 net.cpp:148] Top shape: 24 32 192 256 (37748736)
I0705 23:25:25.344326  2756 net.cpp:148] Top shape: 24 32 192 256 (37748736)
I0705 23:25:25.344329  2756 net.cpp:156] Memory required for data: 5306064928
I0705 23:25:25.344331  2756 layer_factory.hpp:77] Creating layer recon1
I0705 23:25:25.344341  2756 net.cpp:91] Creating Layer recon1
I0705 23:25:25.344343  2756 net.cpp:425] recon1 <- z1_r_comb1_0_split_0
I0705 23:25:25.344352  2756 net.cpp:399] recon1 -> h1_r
I0705 23:25:25.344624  2756 net.cpp:141] Setting up recon1
I0705 23:25:25.344633  2756 net.cpp:148] Top shape: 24 1 192 256 (1179648)
I0705 23:25:25.344635  2756 net.cpp:156] Memory required for data: 5310783520
I0705 23:25:25.344640  2756 net.cpp:484] Sharing parameters 'conv1_w' owned by layer 'conv1', param index 0
I0705 23:25:25.344645  2756 layer_factory.hpp:77] Creating layer bn1_r
I0705 23:25:25.344650  2756 net.cpp:91] Creating Layer bn1_r
I0705 23:25:25.344653  2756 net.cpp:425] bn1_r <- h1_r
I0705 23:25:25.344658  2756 net.cpp:386] bn1_r -> h1_r (in-place)
I0705 23:25:25.344880  2756 net.cpp:141] Setting up bn1_r
I0705 23:25:25.344887  2756 net.cpp:148] Top shape: 24 1 192 256 (1179648)
I0705 23:25:25.344889  2756 net.cpp:156] Memory required for data: 5315502112
I0705 23:25:25.344895  2756 layer_factory.hpp:77] Creating layer comb0
I0705 23:25:25.344900  2756 net.cpp:91] Creating Layer comb0
I0705 23:25:25.344903  2756 net.cpp:425] comb0 <- noisy_data_noisy_data_0_split_1
I0705 23:25:25.344908  2756 net.cpp:425] comb0 <- h1_r
I0705 23:25:25.344913  2756 net.cpp:399] comb0 -> z0_r
I0705 23:25:25.346628  2756 net.cpp:141] Setting up comb0
I0705 23:25:25.346639  2756 net.cpp:148] Top shape: 24 1 192 256 (1179648)
I0705 23:25:25.346642  2756 net.cpp:156] Memory required for data: 5320220704
I0705 23:25:25.346652  2756 layer_factory.hpp:77] Creating layer loss_ladder_6
I0705 23:25:25.346673  2756 net.cpp:91] Creating Layer loss_ladder_6
I0705 23:25:25.346678  2756 net.cpp:425] loss_ladder_6 <- z6_bn6_0_split_1
I0705 23:25:25.346683  2756 net.cpp:425] loss_ladder_6 <- z6_r_comb6_0_split_1
…
I0705 23:25:25.350631  2756 net.cpp:274] Network initialization done.
I0705 23:25:25.351735  2756 solver.cpp:181] Creating test net (#0) specified by test_net file: models/laddernet/val.prototxt
I0705 23:25:25.352068  2756 net.cpp:49] Initializing net from parameters: 
name: "LadderNet"
state {
  phase: TEST
}
layer {
  name: "data"
  type: "Data"
  top: "data"
  top: "label"
  include {
    phase: TEST
  }
  transform_param {
    scale: 0.0039215
    mirror: false
    mean_value: 100
    crop_h: 192
    crop_w: 256
  }
  data_param {
    source: "data/val_lmdb"
    batch_size: 8
    backend: LMDB
  }
}
layer {
  name: "conv1"
  type: "Convolution"
  bottom: "data"
  top: "z1_pre"
  convolution_param {
    num_output: 32
    bias_term: false
    pad: 1
    kernel_size: 3
    stride: 1
    weight_filler {
      type: "xavier"
    }
  }
}
layer {
  name: "bn1"
  type: "BatchNorm"
  bottom: "z1_pre"
  top: "z1"
  param {
    lr_mult: 0
  }
  param {
    lr_mult: 0
  }
  param {
    lr_mult: 0
  }
  batch_norm_param {
    use_global_stats: true
    eps: 0.001
  }
}
layer {
  name: "scale1"
  type: "Scale"
  bottom: "z1"
  top: "z1"
  param {
    name: "scale1_w"
  }
  param {
    name: "scale1_b"
  }
  scale_param {
    filler {
      type: "xavier"
    }
    bias_term: true
    bias_filler {
      type: "constant"
      value: 0
    }
  }
}
layer {
  name: "relu1"
  type: "ReLU"
  bottom: "z1"
  top: "z1"
}
layer {
  name: "pool1"
  type: "Pooling"
  bottom: "z1"
  top: "pool1"
  pooling_param {
    pool: MAX
    kernel_size: 2
    stride: 2
  }
}
layer {
  name: "conv2"
  type: "Convolution"
  bottom: "pool1"
  top: "z2_pre"
  convolution_param {
    num_output: 64
    bias_term: false
    pad: 1
    kernel_size: 3
    stride: 1
    weight_filler {
      type: "xavier"
    }
  }
}
layer {
  name: "bn2"
  type: "BatchNorm"
  bottom: "z2_pre"
  top: "z2"
  param {
    lr_mult: 0
  }
  param {
    lr_mult: 0
  }
  param {
    lr_mult: 0
  }
  batch_norm_param {
    use_global_stats: true
    eps: 0.001
  }
}
layer {
  name: "scale2"
  type: "Scale"
  bottom: "z2"
  top: "z2"
  param {
    name: "scale2_w"
  }
  param {
    name: "scale2_b"
  }
  scale_param {
    filler {
      type: "xavier"
    }
    bias_term: true
    bias_filler {
      type: "constant"
      value: 0
    }
  }
}
layer {
  name: "relu2"
  type: "ReLU"
  bottom: "z2"
  top: "z2"
}
layer {
  name: "pool2"
  type: "Pooling"
  bottom: "z2"
  top: "pool2"
  pooling_param {
    pool: MAX
    kernel_size: 2
    stride: 2
  }
}
layer {
  name: "conv3"
  type: "Convolution"
  bottom: "pool2"
  top: "z3_pre"
  convolution_param {
    num_output: 128
    bias_term: false
    pad: 1
    kernel_size: 3
    stride: 1
    weight_filler {
      type: "xavier"
    }
  }
}
layer {
  name: "bn3"
  type: "BatchNorm"
  bottom: "z3_pre"
  top: "z3"
  param {
    lr_mult: 0
  }
  param {
    lr_mult: 0
  }
  param {
    lr_mult: 0
  }
  batch_norm_param {
    use_global_stats: true
    eps: 0.001
  }
}
layer {
  name: "scale3"
  type: "Scale"
  bottom: "z3"
  top: "z3"
  param {
    name: "scale3_w"
  }
  param {
    name: "scale3_b"
  }
  scale_param {
    filler {
      type: "xavier"
    }
    bias_term: true
    bias_filler {
      type: "constant"
      value: 0
    }
  }
}
layer {
  name: "relu3"
  type: "ReLU"
  bottom: "z3"
  top: "z3"
}
layer {
  name: "pool3"
  type: "Pooling"
  bottom: "z3"
  top: "pool3"
  pooling_param {
    pool: MAX
    kernel_size: 2
    stride: 2
  }
}
layer {
  name: "conv4"
  type: "Convolution"
  bottom: "pool3"
  top: "z4_pre"
  convolution_param {
    num_output: 256
    bias_term: false
    pad: 1
    kernel_size: 3
    stride: 1
    weight_filler {
      type: "xavier"
    }
  }
}
layer {
  name: "bn4"
  type: "BatchNorm"
  bottom: "z4_pre"
  top: "z4"
  param {
    lr_mult: 0
  }
  param {
    lr_mult: 0
  }
  param {
    lr_mult: 0
  }
  batch_norm_param {
    use_global_stats: true
    eps: 0.001
  }
}
layer {
  name: "scale4"
  type: "Scale"
  bottom: "z4"
  top: "z4"
  param {
    name: "scale4_w"
  }
  param {
    name: "scale4_b"
  }
  scale_param {
    filler {
      type: "xavier"
    }
    bias_term: true
    bias_filler {
      type: "constant"
      value: 0
    }
  }
}
layer {
  name: "relu4"
  type: "ReLU"
  bottom: "z4"
  top: "z4"
}
layer {
  name: "pool4"
  type: "Pooling"
  bottom: "z4"
  top: "pool4"
  pooling_param {
    pool: MAX
    kernel_size: 2
    stride: 2
  }
}
layer {
  name: "conv5"
  type: "Convolution"
  bottom: "pool4"
  top: "z5_pre"
  convolution_param {
    num_output: 256
    bias_term: false
    pad: 1
    kernel_size: 3
    stride: 1
    weight_filler {
      type: "xavier"
    }
  }
}
layer {
  name: "bn5"
  type: "BatchNorm"
  bottom: "z5_pre"
  top: "z5"
  param {
    lr_mult: 0
  }
  param {
    lr_mult: 0
  }
  param {
    lr_mult: 0
  }
  batch_norm_param {
    use_global_stats: true
    eps: 0.001
  }
}
layer {
  name: "scale5"
  type: "Scale"
  bottom: "z5"
  top: "z5"
  param {
    name: "scale5_w"
  }
  param {
    name: "scale5_b"
  }
  scale_param {
    filler {
      type: "xavier"
    }
    bias_term: true
    bias_filler {
      type: "constant"
      value: 0
    }
  }
}
layer {
  name: "relu5"
  type: "ReLU"
  bottom: "z5"
  top: "z5"
}
layer {
  name: "pool5"
  type: "Pooling"
  bottom: "z5"
  top: "pool5"
  pooling_param {
    pool: MAX
    kernel_size: 2
    stride: 2
  }
}
layer {
  name: "conv6"
  type: "Convolution"
  bottom: "pool5"
  top: "z6_pre"
  convolution_param {
    num_output: 256
    bias_term: false
    pad: 1
    kernel_size: 3
    stride: 1
    weight_filler {
      type: "xavier"
    }
  }
}
layer {
  name: "bn6"
  type: "BatchNorm"
  bottom: "z6_pre"
  top: "z6"
  param {
    lr_mult: 0
  }
  param {
    lr_mult: 0
  }
  param {
    lr_mult: 0
  }
  batch_norm_param {
    use_global_stats: true
    eps: 0.001
  }
}
layer {
  name: "scale6"
  type: "Scale"
  bottom: "z6"
  top: "z6"
  param {
    name: "scale6_w"
  }
  param {
    name: "scale6_b"
  }
  scale_param {
    filler {
      type: "xavier"
    }
    bias_term: true
    bias_filler {
      type: "constant"
      value: 0
    }
  }
}
layer {
  name: "relu6"
  type: "ReLU"
  bottom: "z6"
  top: "z6"
}
layer {
  name: "pool_final"
  type: "Pooling"
  bottom: "z6"
  top: "pool_final"
  pooling_param {
    pool: AVE
    stride: 1
    kernel_h: 6
    kernel_w: 8
  }
}
layer {
  name: "score"
  type: "InnerProduct"
  bottom: "pool_final"
  top: "score"
  inner_product_param {
    num_output: 2
    weight_filler {
      type: "xavier"
    }
  }
}
layer {
  name: "prob"
  type: "SoftmaxWithLoss"
  bottom: "score"
  bottom: "label"
  top: "prob"
}
layer {
  name: "accuracy"
  type: "Accuracy"
  bottom: "score"
  bottom: "label"
  top: "accuracy"
}
I0705 23:25:25.352201  2756 layer_factory.hpp:77] Creating layer data
I0705 23:25:25.352437  2756 net.cpp:91] Creating Layer data
I0705 23:25:25.352447  2756 net.cpp:399] data -> data
I0705 23:25:25.352453  2756 net.cpp:399] data -> label
I0705 23:25:25.353538  2762 db_lmdb.cpp:35] Opened lmdb data/val_lmdb
I0705 23:25:25.353752  2756 data_layer.cpp:42] output data size: 8,1,192,256
I0705 23:25:25.357767  2756 net.cpp:141] Setting up data
I0705 23:25:25.357782  2756 net.cpp:148] Top shape: 8 1 192 256 (393216)
I0705 23:25:25.357787  2756 net.cpp:148] Top shape: 8 (8)
I0705 23:25:25.357790  2756 net.cpp:156] Memory required for data: 1572896
I0705 23:25:25.357794  2756 layer_factory.hpp:77] Creating layer label_data_1_split
I0705 23:25:25.357801  2756 net.cpp:91] Creating Layer label_data_1_split
I0705 23:25:25.357805  2756 net.cpp:425] label_data_1_split <- label
I0705 23:25:25.357810  2756 net.cpp:399] label_data_1_split -> label_data_1_split_0
I0705 23:25:25.357816  2756 net.cpp:399] label_data_1_split -> label_data_1_split_1
I0705 23:25:25.357874  2756 net.cpp:141] Setting up label_data_1_split
I0705 23:25:25.357880  2756 net.cpp:148] Top shape: 8 (8)
I0705 23:25:25.357884  2756 net.cpp:148] Top shape: 8 (8)
I0705 23:25:25.357887  2756 net.cpp:156] Memory required for data: 1572960
I0705 23:25:25.357889  2756 layer_factory.hpp:77] Creating layer conv1
I0705 23:25:25.357898  2756 net.cpp:91] Creating Layer conv1
I0705 23:25:25.357902  2756 net.cpp:425] conv1 <- data
I0705 23:25:25.357905  2756 net.cpp:399] conv1 -> z1_pre
I0705 23:25:25.359356  2756 net.cpp:141] Setting up conv1
I0705 23:25:25.359369  2756 net.cpp:148] Top shape: 8 32 192 256 (12582912)
I0705 23:25:25.359372  2756 net.cpp:156] Memory required for data: 51904608
I0705 23:25:25.359378  2756 layer_factory.hpp:77] Creating layer bn1
I0705 23:25:25.359385  2756 net.cpp:91] Creating Layer bn1
I0705 23:25:25.359395  2756 net.cpp:425] bn1 <- z1_pre
I0705 23:25:25.359400  2756 net.cpp:399] bn1 -> z1
I0705 23:25:25.359642  2756 net.cpp:141] Setting up bn1
I0705 23:25:25.359650  2756 net.cpp:148] Top shape: 8 32 192 256 (12582912)
I0705 23:25:25.359653  2756 net.cpp:156] Memory required for data: 102236256
I0705 23:25:25.359661  2756 layer_factory.hpp:77] Creating layer scale1
I0705 23:25:25.359670  2756 net.cpp:91] Creating Layer scale1
I0705 23:25:25.359673  2756 net.cpp:425] scale1 <- z1
I0705 23:25:25.359676  2756 net.cpp:386] scale1 -> z1 (in-place)
I0705 23:25:25.359719  2756 layer_factory.hpp:77] Creating layer scale1
I0705 23:25:25.360532  2756 net.cpp:141] Setting up scale1
I0705 23:25:25.360543  2756 net.cpp:148] Top shape: 8 32 192 256 (12582912)
I0705 23:25:25.360544  2756 net.cpp:156] Memory required for data: 152567904
I0705 23:25:25.360553  2756 layer_factory.hpp:77] Creating layer relu1
I0705 23:25:25.360558  2756 net.cpp:91] Creating Layer relu1
I0705 23:25:25.360560  2756 net.cpp:425] relu1 <- z1
I0705 23:25:25.360564  2756 net.cpp:386] relu1 -> z1 (in-place)
I0705 23:25:25.360865  2756 net.cpp:141] Setting up relu1
I0705 23:25:25.360875  2756 net.cpp:148] Top shape: 8 32 192 256 (12582912)
I0705 23:25:25.360878  2756 net.cpp:156] Memory required for data: 202899552
I0705 23:25:25.360882  2756 layer_factory.hpp:77] Creating layer pool1
I0705 23:25:25.360888  2756 net.cpp:91] Creating Layer pool1
I0705 23:25:25.360889  2756 net.cpp:425] pool1 <- z1
I0705 23:25:25.360894  2756 net.cpp:399] pool1 -> pool1
I0705 23:25:25.360941  2756 net.cpp:141] Setting up pool1
I0705 23:25:25.360949  2756 net.cpp:148] Top shape: 8 32 96 128 (3145728)
I0705 23:25:25.360950  2756 net.cpp:156] Memory required for data: 215482464
I0705 23:25:25.360954  2756 layer_factory.hpp:77] Creating layer conv2
I0705 23:25:25.360961  2756 net.cpp:91] Creating Layer conv2
I0705 23:25:25.360965  2756 net.cpp:425] conv2 <- pool1
I0705 23:25:25.360968  2756 net.cpp:399] conv2 -> z2_pre
I0705 23:25:25.361994  2756 net.cpp:141] Setting up conv2
I0705 23:25:25.362005  2756 net.cpp:148] Top shape: 8 64 96 128 (6291456)
I0705 23:25:25.362009  2756 net.cpp:156] Memory required for data: 240648288
I0705 23:25:25.362026  2756 layer_factory.hpp:77] Creating layer bn2
I0705 23:25:25.362035  2756 net.cpp:91] Creating Layer bn2
I0705 23:25:25.362038  2756 net.cpp:425] bn2 <- z2_pre
I0705 23:25:25.362042  2756 net.cpp:399] bn2 -> z2
I0705 23:25:25.362258  2756 net.cpp:141] Setting up bn2
I0705 23:25:25.362267  2756 net.cpp:148] Top shape: 8 64 96 128 (6291456)
I0705 23:25:25.362269  2756 net.cpp:156] Memory required for data: 265814112
I0705 23:25:25.362277  2756 layer_factory.hpp:77] Creating layer scale2
I0705 23:25:25.362285  2756 net.cpp:91] Creating Layer scale2
I0705 23:25:25.362288  2756 net.cpp:425] scale2 <- z2
I0705 23:25:25.362293  2756 net.cpp:386] scale2 -> z2 (in-place)
I0705 23:25:25.362339  2756 layer_factory.hpp:77] Creating layer scale2
I0705 23:25:25.362473  2756 net.cpp:141] Setting up scale2
I0705 23:25:25.362480  2756 net.cpp:148] Top shape: 8 64 96 128 (6291456)
I0705 23:25:25.362483  2756 net.cpp:156] Memory required for data: 290979936
I0705 23:25:25.362488  2756 layer_factory.hpp:77] Creating layer relu2
I0705 23:25:25.362493  2756 net.cpp:91] Creating Layer relu2
I0705 23:25:25.362495  2756 net.cpp:425] relu2 <- z2
I0705 23:25:25.362499  2756 net.cpp:386] relu2 -> z2 (in-place)
I0705 23:25:25.362788  2756 net.cpp:141] Setting up relu2
I0705 23:25:25.362799  2756 net.cpp:148] Top shape: 8 64 96 128 (6291456)
I0705 23:25:25.362802  2756 net.cpp:156] Memory required for data: 316145760
I0705 23:25:25.362805  2756 layer_factory.hpp:77] Creating layer pool2
I0705 23:25:25.362812  2756 net.cpp:91] Creating Layer pool2
I0705 23:25:25.362814  2756 net.cpp:425] pool2 <- z2
I0705 23:25:25.362818  2756 net.cpp:399] pool2 -> pool2
I0705 23:25:25.362865  2756 net.cpp:141] Setting up pool2
I0705 23:25:25.362872  2756 net.cpp:148] Top shape: 8 64 48 64 (1572864)
I0705 23:25:25.362874  2756 net.cpp:156] Memory required for data: 322437216
I0705 23:25:25.362877  2756 layer_factory.hpp:77] Creating layer conv3
I0705 23:25:25.362884  2756 net.cpp:91] Creating Layer conv3
I0705 23:25:25.362887  2756 net.cpp:425] conv3 <- pool2
I0705 23:25:25.362891  2756 net.cpp:399] conv3 -> z3_pre
I0705 23:25:25.364224  2756 net.cpp:141] Setting up conv3
I0705 23:25:25.364236  2756 net.cpp:148] Top shape: 8 128 48 64 (3145728)
I0705 23:25:25.364239  2756 net.cpp:156] Memory required for data: 335020128
I0705 23:25:25.364244  2756 layer_factory.hpp:77] Creating layer bn3
I0705 23:25:25.364251  2756 net.cpp:91] Creating Layer bn3
I0705 23:25:25.364255  2756 net.cpp:425] bn3 <- z3_pre
I0705 23:25:25.364260  2756 net.cpp:399] bn3 -> z3
I0705 23:25:25.364462  2756 net.cpp:141] Setting up bn3
I0705 23:25:25.364470  2756 net.cpp:148] Top shape: 8 128 48 64 (3145728)
I0705 23:25:25.364472  2756 net.cpp:156] Memory required for data: 347603040
I0705 23:25:25.364478  2756 layer_factory.hpp:77] Creating layer scale3
I0705 23:25:25.364485  2756 net.cpp:91] Creating Layer scale3
I0705 23:25:25.364487  2756 net.cpp:425] scale3 <- z3
I0705 23:25:25.364492  2756 net.cpp:386] scale3 -> z3 (in-place)
I0705 23:25:25.364537  2756 layer_factory.hpp:77] Creating layer scale3
I0705 23:25:25.364666  2756 net.cpp:141] Setting up scale3
I0705 23:25:25.364675  2756 net.cpp:148] Top shape: 8 128 48 64 (3145728)
I0705 23:25:25.364678  2756 net.cpp:156] Memory required for data: 360185952
I0705 23:25:25.364686  2756 layer_factory.hpp:77] Creating layer relu3
I0705 23:25:25.364692  2756 net.cpp:91] Creating Layer relu3
I0705 23:25:25.364694  2756 net.cpp:425] relu3 <- z3
I0705 23:25:25.364698  2756 net.cpp:386] relu3 -> z3 (in-place)
I0705 23:25:25.365171  2756 net.cpp:141] Setting up relu3
I0705 23:25:25.365182  2756 net.cpp:148] Top shape: 8 128 48 64 (3145728)
I0705 23:25:25.365185  2756 net.cpp:156] Memory required for data: 372768864
I0705 23:25:25.365188  2756 layer_factory.hpp:77] Creating layer pool3
I0705 23:25:25.365195  2756 net.cpp:91] Creating Layer pool3
I0705 23:25:25.365198  2756 net.cpp:425] pool3 <- z3
I0705 23:25:25.365203  2756 net.cpp:399] pool3 -> pool3
I0705 23:25:25.365252  2756 net.cpp:141] Setting up pool3
I0705 23:25:25.365270  2756 net.cpp:148] Top shape: 8 128 24 32 (786432)
I0705 23:25:25.365273  2756 net.cpp:156] Memory required for data: 375914592
I0705 23:25:25.365275  2756 layer_factory.hpp:77] Creating layer conv4
I0705 23:25:25.365285  2756 net.cpp:91] Creating Layer conv4
I0705 23:25:25.365288  2756 net.cpp:425] conv4 <- pool3
I0705 23:25:25.365293  2756 net.cpp:399] conv4 -> z4_pre
I0705 23:25:25.373237  2756 net.cpp:141] Setting up conv4
I0705 23:25:25.373270  2756 net.cpp:148] Top shape: 8 256 24 32 (1572864)
I0705 23:25:25.373277  2756 net.cpp:156] Memory required for data: 382206048
I0705 23:25:25.373288  2756 layer_factory.hpp:77] Creating layer bn4
I0705 23:25:25.373307  2756 net.cpp:91] Creating Layer bn4
I0705 23:25:25.373314  2756 net.cpp:425] bn4 <- z4_pre
I0705 23:25:25.373325  2756 net.cpp:399] bn4 -> z4
I0705 23:25:25.374073  2756 net.cpp:141] Setting up bn4
I0705 23:25:25.374094  2756 net.cpp:148] Top shape: 8 256 24 32 (1572864)
I0705 23:25:25.374101  2756 net.cpp:156] Memory required for data: 388497504
I0705 23:25:25.374117  2756 layer_factory.hpp:77] Creating layer scale4
I0705 23:25:25.374132  2756 net.cpp:91] Creating Layer scale4
I0705 23:25:25.374142  2756 net.cpp:425] scale4 <- z4
I0705 23:25:25.374160  2756 net.cpp:386] scale4 -> z4 (in-place)
I0705 23:25:25.374270  2756 layer_factory.hpp:77] Creating layer scale4
I0705 23:25:25.374522  2756 net.cpp:141] Setting up scale4
I0705 23:25:25.374536  2756 net.cpp:148] Top shape: 8 256 24 32 (1572864)
I0705 23:25:25.374542  2756 net.cpp:156] Memory required for data: 394788960
I0705 23:25:25.374554  2756 layer_factory.hpp:77] Creating layer relu4
I0705 23:25:25.374567  2756 net.cpp:91] Creating Layer relu4
I0705 23:25:25.374577  2756 net.cpp:425] relu4 <- z4
I0705 23:25:25.374588  2756 net.cpp:386] relu4 -> z4 (in-place)
I0705 23:25:25.374981  2756 net.cpp:141] Setting up relu4
I0705 23:25:25.374999  2756 net.cpp:148] Top shape: 8 256 24 32 (1572864)
I0705 23:25:25.375005  2756 net.cpp:156] Memory required for data: 401080416
I0705 23:25:25.375012  2756 layer_factory.hpp:77] Creating layer pool4
I0705 23:25:25.375026  2756 net.cpp:91] Creating Layer pool4
I0705 23:25:25.375036  2756 net.cpp:425] pool4 <- z4
I0705 23:25:25.375046  2756 net.cpp:399] pool4 -> pool4
I0705 23:25:25.375149  2756 net.cpp:141] Setting up pool4
I0705 23:25:25.375161  2756 net.cpp:148] Top shape: 8 256 12 16 (393216)
I0705 23:25:25.375167  2756 net.cpp:156] Memory required for data: 402653280
I0705 23:25:25.375174  2756 layer_factory.hpp:77] Creating layer conv5
I0705 23:25:25.375190  2756 net.cpp:91] Creating Layer conv5
I0705 23:25:25.375200  2756 net.cpp:425] conv5 <- pool4
I0705 23:25:25.375211  2756 net.cpp:399] conv5 -> z5_pre
I0705 23:25:25.387856  2756 net.cpp:141] Setting up conv5
I0705 23:25:25.387886  2756 net.cpp:148] Top shape: 8 256 12 16 (393216)
I0705 23:25:25.387892  2756 net.cpp:156] Memory required for data: 404226144
I0705 23:25:25.387903  2756 layer_factory.hpp:77] Creating layer bn5
I0705 23:25:25.387919  2756 net.cpp:91] Creating Layer bn5
I0705 23:25:25.387931  2756 net.cpp:425] bn5 <- z5_pre
I0705 23:25:25.387941  2756 net.cpp:399] bn5 -> z5
I0705 23:25:25.388419  2756 net.cpp:141] Setting up bn5
I0705 23:25:25.388434  2756 net.cpp:148] Top shape: 8 256 12 16 (393216)
I0705 23:25:25.388440  2756 net.cpp:156] Memory required for data: 405799008
I0705 23:25:25.388454  2756 layer_factory.hpp:77] Creating layer scale5
I0705 23:25:25.388469  2756 net.cpp:91] Creating Layer scale5
I0705 23:25:25.388478  2756 net.cpp:425] scale5 <- z5
I0705 23:25:25.388489  2756 net.cpp:386] scale5 -> z5 (in-place)
I0705 23:25:25.388586  2756 layer_factory.hpp:77] Creating layer scale5
I0705 23:25:25.388835  2756 net.cpp:141] Setting up scale5
I0705 23:25:25.388849  2756 net.cpp:148] Top shape: 8 256 12 16 (393216)
I0705 23:25:25.388854  2756 net.cpp:156] Memory required for data: 407371872
I0705 23:25:25.388864  2756 layer_factory.hpp:77] Creating layer relu5
I0705 23:25:25.388876  2756 net.cpp:91] Creating Layer relu5
I0705 23:25:25.388885  2756 net.cpp:425] relu5 <- z5
I0705 23:25:25.388917  2756 net.cpp:386] relu5 -> z5 (in-place)
I0705 23:25:25.389523  2756 net.cpp:141] Setting up relu5
I0705 23:25:25.389546  2756 net.cpp:148] Top shape: 8 256 12 16 (393216)
I0705 23:25:25.389554  2756 net.cpp:156] Memory required for data: 408944736
I0705 23:25:25.389561  2756 layer_factory.hpp:77] Creating layer pool5
I0705 23:25:25.389575  2756 net.cpp:91] Creating Layer pool5
I0705 23:25:25.389582  2756 net.cpp:425] pool5 <- z5
I0705 23:25:25.389592  2756 net.cpp:399] pool5 -> pool5
I0705 23:25:25.389698  2756 net.cpp:141] Setting up pool5
I0705 23:25:25.389711  2756 net.cpp:148] Top shape: 8 256 6 8 (98304)
I0705 23:25:25.389717  2756 net.cpp:156] Memory required for data: 409337952
I0705 23:25:25.389724  2756 layer_factory.hpp:77] Creating layer conv6
I0705 23:25:25.389741  2756 net.cpp:91] Creating Layer conv6
I0705 23:25:25.389750  2756 net.cpp:425] conv6 <- pool5
I0705 23:25:25.389762  2756 net.cpp:399] conv6 -> z6_pre
I0705 23:25:25.401181  2756 net.cpp:141] Setting up conv6
I0705 23:25:25.401206  2756 net.cpp:148] Top shape: 8 256 6 8 (98304)
I0705 23:25:25.401213  2756 net.cpp:156] Memory required for data: 409731168
I0705 23:25:25.401223  2756 layer_factory.hpp:77] Creating layer bn6
I0705 23:25:25.401239  2756 net.cpp:91] Creating Layer bn6
I0705 23:25:25.401245  2756 net.cpp:425] bn6 <- z6_pre
I0705 23:25:25.401255  2756 net.cpp:399] bn6 -> z6
I0705 23:25:25.401721  2756 net.cpp:141] Setting up bn6
I0705 23:25:25.401733  2756 net.cpp:148] Top shape: 8 256 6 8 (98304)
I0705 23:25:25.401739  2756 net.cpp:156] Memory required for data: 410124384
I0705 23:25:25.401763  2756 layer_factory.hpp:77] Creating layer scale6
I0705 23:25:25.401777  2756 net.cpp:91] Creating Layer scale6
I0705 23:25:25.401782  2756 net.cpp:425] scale6 <- z6
I0705 23:25:25.401793  2756 net.cpp:386] scale6 -> z6 (in-place)
I0705 23:25:25.401883  2756 layer_factory.hpp:77] Creating layer scale6
I0705 23:25:25.402139  2756 net.cpp:141] Setting up scale6
I0705 23:25:25.402151  2756 net.cpp:148] Top shape: 8 256 6 8 (98304)
I0705 23:25:25.402156  2756 net.cpp:156] Memory required for data: 410517600
I0705 23:25:25.402168  2756 layer_factory.hpp:77] Creating layer relu6
I0705 23:25:25.402176  2756 net.cpp:91] Creating Layer relu6
I0705 23:25:25.402181  2756 net.cpp:425] relu6 <- z6
I0705 23:25:25.402189  2756 net.cpp:386] relu6 -> z6 (in-place)
I0705 23:25:25.402964  2756 net.cpp:141] Setting up relu6
I0705 23:25:25.402987  2756 net.cpp:148] Top shape: 8 256 6 8 (98304)
I0705 23:25:25.402994  2756 net.cpp:156] Memory required for data: 410910816
I0705 23:25:25.403000  2756 layer_factory.hpp:77] Creating layer pool_final
I0705 23:25:25.403012  2756 net.cpp:91] Creating Layer pool_final
I0705 23:25:25.403018  2756 net.cpp:425] pool_final <- z6
I0705 23:25:25.403028  2756 net.cpp:399] pool_final -> pool_final
I0705 23:25:25.403409  2756 net.cpp:141] Setting up pool_final
I0705 23:25:25.403429  2756 net.cpp:148] Top shape: 8 256 1 1 (2048)
I0705 23:25:25.403434  2756 net.cpp:156] Memory required for data: 410919008
I0705 23:25:25.403440  2756 layer_factory.hpp:77] Creating layer score
I0705 23:25:25.403462  2756 net.cpp:91] Creating Layer score
I0705 23:25:25.403470  2756 net.cpp:425] score <- pool_final
I0705 23:25:25.403479  2756 net.cpp:399] score -> score
I0705 23:25:25.403739  2756 net.cpp:141] Setting up score
I0705 23:25:25.403751  2756 net.cpp:148] Top shape: 8 2 (16)
I0705 23:25:25.403756  2756 net.cpp:156] Memory required for data: 410919072
I0705 23:25:25.403766  2756 layer_factory.hpp:77] Creating layer score_score_0_split
I0705 23:25:25.403775  2756 net.cpp:91] Creating Layer score_score_0_split
I0705 23:25:25.403781  2756 net.cpp:425] score_score_0_split <- score
I0705 23:25:25.403792  2756 net.cpp:399] score_score_0_split -> score_score_0_split_0
I0705 23:25:25.403802  2756 net.cpp:399] score_score_0_split -> score_score_0_split_1
I0705 23:25:25.403879  2756 net.cpp:141] Setting up score_score_0_split
I0705 23:25:25.403890  2756 net.cpp:148] Top shape: 8 2 (16)
I0705 23:25:25.403915  2756 net.cpp:148] Top shape: 8 2 (16)
I0705 23:25:25.403920  2756 net.cpp:156] Memory required for data: 410919200
I0705 23:25:25.403925  2756 layer_factory.hpp:77] Creating layer prob
I0705 23:25:25.403934  2756 net.cpp:91] Creating Layer prob
I0705 23:25:25.403942  2756 net.cpp:425] prob <- score_score_0_split_0
I0705 23:25:25.403949  2756 net.cpp:425] prob <- label_data_1_split_0
I0705 23:25:25.403959  2756 net.cpp:399] prob -> prob
…
