…
I0524 17:36:11.863951  8086 net.cpp:313] The NetState phase (0) differed from the phase (1) specified by a rule in layer data
I0524 17:36:11.864439  8086 net.cpp:49] Initializing net from parameters: 
name: "segnet"
state {
  phase: TRAIN
}
layer {
  name: "data"
  type: "DenseImageData"
  top: "data"
  top: "label"
  include {
    phase: TRAIN
  }
  transform_param {
    crop_size: 224
    mean_value: 100
  }
  dense_image_data_param {
    source: "data/train.txt"
    batch_size: 32
    shuffle: true
    new_height: 224
    new_width: 310
    is_color: false
    root_folder: "data/raw/train/"
  }
}
layer {
  name: "conv1_1"
  type: "Convolution"
  bottom: "data"
  top: "conv1_1"
  param {
    lr_mult: 1
    decay_mult: 1
  }
  convolution_param {
    num_output: 32
    bias_term: false
    pad: 1
    kernel_size: 3
    weight_filler {
      type: "msra"
    }
  }
}
layer {
  name: "bn1_1"
  type: "BatchNorm"
  bottom: "conv1_1"
  top: "conv1_1"
  param {
    lr_mult: 0
  }
  param {
    lr_mult: 0
  }
  param {
    lr_mult: 0
  }
  batch_norm_param {
    use_global_stats: false
  }
}
layer {
  name: "scale1_1"
  type: "Scale"
  bottom: "conv1_1"
  top: "conv1_1"
  param {
    lr_mult: 1
    decay_mult: 1
  }
  param {
    lr_mult: 1
    decay_mult: 1
  }
  scale_param {
    bias_term: true
    bias_filler {
      type: "constant"
      value: 0
    }
  }
}
layer {
  name: "relu1_1"
  type: "ReLU"
  bottom: "conv1_1"
  top: "conv1_1"
}
layer {
  name: "pool1"
  type: "Pooling"
  bottom: "conv1_1"
  top: "pool1"
  top: "pool1_mask"
  pooling_param {
    pool: MAX
    kernel_size: 2
    stride: 2
  }
}
layer {
  name: "conv2_1"
  type: "Convolution"
  bottom: "pool1"
  top: "conv2_1"
  param {
    lr_mult: 1
    decay_mult: 1
  }
  convolution_param {
    num_output: 64
    bias_term: false
    pad: 1
    kernel_size: 3
    weight_filler {
      type: "msra"
    }
  }
}
layer {
  name: "bn2_1"
  type: "BatchNorm"
  bottom: "conv2_1"
  top: "conv2_1"
  param {
    lr_mult: 0
  }
  param {
    lr_mult: 0
  }
  param {
    lr_mult: 0
  }
  batch_norm_param {
    use_global_stats: false
  }
}
layer {
  name: "scale2_1"
  type: "Scale"
  bottom: "conv2_1"
  top: "conv2_1"
  param {
    lr_mult: 1
    decay_mult: 1
  }
  param {
    lr_mult: 1
    decay_mult: 1
  }
  scale_param {
    bias_term: true
    bias_filler {
      type: "constant"
      value: 0
    }
  }
}
layer {
  name: "relu2_1"
  type: "ReLU"
  bottom: "conv2_1"
  top: "conv2_1"
}
layer {
  name: "pool2"
  type: "Pooling"
  bottom: "conv2_1"
  top: "pool2"
  top: "pool2_mask"
  pooling_param {
    pool: MAX
    kernel_size: 2
    stride: 2
  }
}
layer {
  name: "conv3_1"
  type: "Convolution"
  bottom: "pool2"
  top: "conv3_1"
  param {
    lr_mult: 1
    decay_mult: 1
  }
  convolution_param {
    num_output: 128
    bias_term: false
    pad: 1
    kernel_size: 3
    weight_filler {
      type: "msra"
    }
  }
}
layer {
  name: "bn3_1"
  type: "BatchNorm"
  bottom: "conv3_1"
  top: "conv3_1"
  param {
    lr_mult: 0
  }
  param {
    lr_mult: 0
  }
  param {
    lr_mult: 0
  }
  batch_norm_param {
    use_global_stats: false
  }
}
layer {
  name: "scale3_1"
  type: "Scale"
  bottom: "conv3_1"
  top: "conv3_1"
  param {
    lr_mult: 1
    decay_mult: 1
  }
  param {
    lr_mult: 1
    decay_mult: 1
  }
  scale_param {
    bias_term: true
    bias_filler {
      type: "constant"
      value: 0
    }
  }
}
layer {
  name: "relu3_1"
  type: "ReLU"
  bottom: "conv3_1"
  top: "conv3_1"
}
layer {
  name: "pool3"
  type: "Pooling"
  bottom: "conv3_1"
  top: "pool3"
  top: "pool3_mask"
  pooling_param {
    pool: MAX
    kernel_size: 2
    stride: 2
  }
}
layer {
  name: "conv4_1"
  type: "Convolution"
  bottom: "pool3"
  top: "conv4_1"
  param {
    lr_mult: 1
    decay_mult: 1
  }
  convolution_param {
    num_output: 256
    bias_term: false
    pad: 1
    kernel_size: 3
    weight_filler {
      type: "msra"
    }
  }
}
layer {
  name: "bn4_1"
  type: "BatchNorm"
  bottom: "conv4_1"
  top: "conv4_1"
  param {
    lr_mult: 0
  }
  param {
    lr_mult: 0
  }
  param {
    lr_mult: 0
  }
  batch_norm_param {
    use_global_stats: false
  }
}
layer {
  name: "scale4_1"
  type: "Scale"
  bottom: "conv4_1"
  top: "conv4_1"
  param {
    lr_mult: 1
    decay_mult: 1
  }
  param {
    lr_mult: 1
    decay_mult: 1
  }
  scale_param {
    bias_term: true
    bias_filler {
      type: "constant"
      value: 0
    }
  }
}
layer {
  name: "relu4_1"
  type: "ReLU"
  bottom: "conv4_1"
  top: "conv4_1"
}
layer {
  name: "pool4"
  type: "Pooling"
  bottom: "conv4_1"
  top: "pool4"
  top: "pool4_mask"
  pooling_param {
    pool: MAX
    kernel_size: 2
    stride: 2
  }
}
layer {
  name: "conv5_1"
  type: "Convolution"
  bottom: "pool4"
  top: "conv5_1"
  param {
    lr_mult: 1
    decay_mult: 1
  }
  convolution_param {
    num_output: 256
    bias_term: false
    pad: 1
    kernel_size: 3
    weight_filler {
      type: "msra"
    }
  }
}
layer {
  name: "bn5_1"
  type: "BatchNorm"
  bottom: "conv5_1"
  top: "conv5_1"
  param {
    lr_mult: 0
  }
  param {
    lr_mult: 0
  }
  param {
    lr_mult: 0
  }
  batch_norm_param {
    use_global_stats: false
  }
}
layer {
  name: "scale5_1"
  type: "Scale"
  bottom: "conv5_1"
  top: "conv5_1"
  param {
    lr_mult: 1
    decay_mult: 1
  }
  param {
    lr_mult: 1
    decay_mult: 1
  }
  scale_param {
    bias_term: true
    bias_filler {
      type: "constant"
      value: 0
    }
  }
}
layer {
  name: "relu5_1"
  type: "ReLU"
  bottom: "conv5_1"
  top: "conv5_1"
}
layer {
  name: "pool5"
  type: "Pooling"
  bottom: "conv5_1"
  top: "pool5"
  top: "pool5_mask"
  pooling_param {
    pool: MAX
    kernel_size: 2
    stride: 2
  }
}
layer {
  name: "upsample5"
  type: "Upsample"
  bottom: "pool5"
  bottom: "pool5_mask"
  top: "pool5_D"
  upsample_param {
    scale: 2
    upsample_h: 14
    upsample_w: 14
  }
}
layer {
  name: "conv5_1_D"
  type: "Convolution"
  bottom: "pool5_D"
  top: "conv5_1_D"
  param {
    lr_mult: 1
    decay_mult: 1
  }
  convolution_param {
    num_output: 256
    bias_term: false
    pad: 1
    kernel_size: 3
    weight_filler {
      type: "msra"
    }
  }
}
layer {
  name: "bn5_1_D"
  type: "BatchNorm"
  bottom: "conv5_1_D"
  top: "conv5_1_D"
  param {
    lr_mult: 0
  }
  param {
    lr_mult: 0
  }
  param {
    lr_mult: 0
  }
  batch_norm_param {
    use_global_stats: false
  }
}
layer {
  name: "scale5_1_D"
  type: "Scale"
  bottom: "conv5_1_D"
  top: "conv5_1_D"
  param {
    lr_mult: 1
    decay_mult: 1
  }
  param {
    lr_mult: 1
    decay_mult: 1
  }
  scale_param {
    bias_term: true
    bias_filler {
      type: "constant"
      value: 0
    }
  }
}
layer {
  name: "relu5_1_D"
  type: "ReLU"
  bottom: "conv5_1_D"
  top: "conv5_1_D"
}
layer {
  name: "upsample4"
  type: "Upsample"
  bottom: "conv5_1_D"
  bottom: "pool4_mask"
  top: "pool4_D"
  upsample_param {
    scale: 2
    upsample_h: 28
    upsample_w: 28
  }
}
layer {
  name: "conv4_1_D"
  type: "Convolution"
  bottom: "pool4_D"
  top: "conv4_1_D"
  param {
    lr_mult: 1
    decay_mult: 1
  }
  convolution_param {
    num_output: 128
    bias_term: false
    pad: 1
    kernel_size: 3
    weight_filler {
      type: "msra"
    }
  }
}
layer {
  name: "bn4_1_D"
  type: "BatchNorm"
  bottom: "conv4_1_D"
  top: "conv4_1_D"
  param {
    lr_mult: 0
  }
  param {
    lr_mult: 0
  }
  param {
    lr_mult: 0
  }
  batch_norm_param {
    use_global_stats: false
  }
}
layer {
  name: "scale4_1_D"
  type: "Scale"
  bottom: "conv4_1_D"
  top: "conv4_1_D"
  param {
    lr_mult: 1
    decay_mult: 1
  }
  param {
    lr_mult: 1
    decay_mult: 1
  }
  scale_param {
    bias_term: true
    bias_filler {
      type: "constant"
      value: 0
    }
  }
}
layer {
  name: "relu4_1_D"
  type: "ReLU"
  bottom: "conv4_1_D"
  top: "conv4_1_D"
}
layer {
  name: "upsample3"
  type: "Upsample"
  bottom: "conv4_1_D"
  bottom: "pool3_mask"
  top: "pool3_D"
  upsample_param {
    scale: 2
    upsample_h: 56
    upsample_w: 56
  }
}
layer {
  name: "conv3_1_D"
  type: "Convolution"
  bottom: "pool3_D"
  top: "conv3_1_D"
  param {
    lr_mult: 1
    decay_mult: 1
  }
  convolution_param {
    num_output: 64
    bias_term: false
    pad: 1
    kernel_size: 3
    weight_filler {
      type: "msra"
    }
  }
}
layer {
  name: "bn3_1_D"
  type: "BatchNorm"
  bottom: "conv3_1_D"
  top: "conv3_1_D"
  param {
    lr_mult: 0
  }
  param {
    lr_mult: 0
  }
  param {
    lr_mult: 0
  }
  batch_norm_param {
    use_global_stats: false
  }
}
layer {
  name: "scale3_1_D"
  type: "Scale"
  bottom: "conv3_1_D"
  top: "conv3_1_D"
  param {
    lr_mult: 1
    decay_mult: 1
  }
  param {
    lr_mult: 1
    decay_mult: 1
  }
  scale_param {
    bias_term: true
    bias_filler {
      type: "constant"
      value: 0
    }
  }
}
layer {
  name: "relu3_1_D"
  type: "ReLU"
  bottom: "conv3_1_D"
  top: "conv3_1_D"
}
layer {
  name: "upsample2"
  type: "Upsample"
  bottom: "conv3_1_D"
  bottom: "pool2_mask"
  top: "pool2_D"
  upsample_param {
    scale: 2
    upsample_h: 112
    upsample_w: 112
  }
}
layer {
  name: "conv2_1_D"
  type: "Convolution"
  bottom: "pool2_D"
  top: "conv2_1_D"
  param {
    lr_mult: 1
    decay_mult: 1
  }
  convolution_param {
    num_output: 32
    bias_term: false
    pad: 1
    kernel_size: 3
    weight_filler {
      type: "msra"
    }
  }
}
layer {
  name: "bn2_1_D"
  type: "BatchNorm"
  bottom: "conv2_1_D"
  top: "conv2_1_D"
  param {
    lr_mult: 0
  }
  param {
    lr_mult: 0
  }
  param {
    lr_mult: 0
  }
  batch_norm_param {
    use_global_stats: false
  }
}
layer {
  name: "scale2_1_D"
  type: "Scale"
  bottom: "conv2_1_D"
  top: "conv2_1_D"
  param {
    lr_mult: 1
    decay_mult: 1
  }
  param {
    lr_mult: 1
    decay_mult: 1
  }
  scale_param {
    bias_term: true
    bias_filler {
      type: "constant"
      value: 0
    }
  }
}
layer {
  name: "relu2_1_D"
  type: "ReLU"
  bottom: "conv2_1_D"
  top: "conv2_1_D"
}
layer {
  name: "upsample1"
  type: "Upsample"
  bottom: "conv2_1_D"
  bottom: "pool1_mask"
  top: "pool1_D"
  upsample_param {
    scale: 2
    upsample_h: 224
    upsample_w: 224
  }
}
layer {
  name: "conv1_1_D"
  type: "Convolution"
  bottom: "pool1_D"
  top: "conv1_1_D"
  param {
    lr_mult: 1
    decay_mult: 1
  }
  param {
    lr_mult: 1
    decay_mult: 1
  }
  convolution_param {
    num_output: 2
    pad: 1
    kernel_size: 3
    weight_filler {
      type: "msra"
    }
    bias_filler {
      type: "constant"
    }
  }
}
layer {
  name: "loss"
  type: "SoftmaxWithLoss"
  bottom: "conv1_1_D"
  bottom: "label"
  top: "loss"
}
layer {
  name: "accuracy"
  type: "Accuracy"
  bottom: "conv1_1_D"
  bottom: "label"
  top: "accuracy"
}
I0524 17:36:11.864795  8086 layer_factory.hpp:77] Creating layer data
I0524 17:36:11.865586  8086 net.cpp:91] Creating Layer data
I0524 17:36:11.865607  8086 net.cpp:399] data -> data
I0524 17:36:11.865643  8086 net.cpp:399] data -> label
I0524 17:36:11.866225  8086 dense_image_data_layer.cpp:38] Opening file data/train.txt
I0524 17:36:11.871047  8086 dense_image_data_layer.cpp:48] Shuffling data
I0524 17:36:11.872298  8086 dense_image_data_layer.cpp:53] A total of 4930 examples.
I0524 17:36:12.150022  8086 dense_image_data_layer.cpp:92] output data size: 1,1,224,224
I0524 17:36:12.152848  8086 net.cpp:141] Setting up data
I0524 17:36:12.152886  8086 net.cpp:148] Top shape: 1 1 224 224 (50176)
I0524 17:36:12.152897  8086 net.cpp:148] Top shape: 1 1 224 224 (50176)
I0524 17:36:12.152904  8086 net.cpp:156] Memory required for data: 401408
I0524 17:36:12.152916  8086 layer_factory.hpp:77] Creating layer label_data_1_split
I0524 17:36:12.153360  8086 net.cpp:91] Creating Layer label_data_1_split
I0524 17:36:12.153405  8086 net.cpp:425] label_data_1_split <- label
I0524 17:36:12.153426  8086 net.cpp:399] label_data_1_split -> label_data_1_split_0
I0524 17:36:12.153445  8086 net.cpp:399] label_data_1_split -> label_data_1_split_1
I0524 17:36:12.153852  8086 net.cpp:141] Setting up label_data_1_split
I0524 17:36:12.153875  8086 net.cpp:148] Top shape: 1 1 224 224 (50176)
I0524 17:36:12.153883  8086 net.cpp:148] Top shape: 1 1 224 224 (50176)
I0524 17:36:12.153888  8086 net.cpp:156] Memory required for data: 802816
I0524 17:36:12.153895  8086 layer_factory.hpp:77] Creating layer conv1_1
I0524 17:36:12.153923  8086 net.cpp:91] Creating Layer conv1_1
I0524 17:36:12.153929  8086 net.cpp:425] conv1_1 <- data
I0524 17:36:12.153940  8086 net.cpp:399] conv1_1 -> conv1_1
I0524 17:36:12.537703  8086 net.cpp:141] Setting up conv1_1
I0524 17:36:12.537732  8086 net.cpp:148] Top shape: 1 32 224 224 (1605632)
I0524 17:36:12.537736  8086 net.cpp:156] Memory required for data: 7225344
I0524 17:36:12.537750  8086 layer_factory.hpp:77] Creating layer bn1_1
I0524 17:36:12.537766  8086 net.cpp:91] Creating Layer bn1_1
I0524 17:36:12.537771  8086 net.cpp:425] bn1_1 <- conv1_1
I0524 17:36:12.537777  8086 net.cpp:386] bn1_1 -> conv1_1 (in-place)
I0524 17:36:12.538039  8086 net.cpp:141] Setting up bn1_1
I0524 17:36:12.538051  8086 net.cpp:148] Top shape: 1 32 224 224 (1605632)
I0524 17:36:12.538055  8086 net.cpp:156] Memory required for data: 13647872
I0524 17:36:12.538069  8086 layer_factory.hpp:77] Creating layer scale1_1
I0524 17:36:12.538080  8086 net.cpp:91] Creating Layer scale1_1
I0524 17:36:12.538084  8086 net.cpp:425] scale1_1 <- conv1_1
I0524 17:36:12.538089  8086 net.cpp:386] scale1_1 -> conv1_1 (in-place)
I0524 17:36:12.538141  8086 layer_factory.hpp:77] Creating layer scale1_1
I0524 17:36:12.538347  8086 net.cpp:141] Setting up scale1_1
I0524 17:36:12.538358  8086 net.cpp:148] Top shape: 1 32 224 224 (1605632)
I0524 17:36:12.538362  8086 net.cpp:156] Memory required for data: 20070400
I0524 17:36:12.538369  8086 layer_factory.hpp:77] Creating layer relu1_1
I0524 17:36:12.538375  8086 net.cpp:91] Creating Layer relu1_1
I0524 17:36:12.538378  8086 net.cpp:425] relu1_1 <- conv1_1
I0524 17:36:12.538385  8086 net.cpp:386] relu1_1 -> conv1_1 (in-place)
I0524 17:36:12.538707  8086 net.cpp:141] Setting up relu1_1
I0524 17:36:12.538722  8086 net.cpp:148] Top shape: 1 32 224 224 (1605632)
I0524 17:36:12.538725  8086 net.cpp:156] Memory required for data: 26492928
I0524 17:36:12.538729  8086 layer_factory.hpp:77] Creating layer pool1
I0524 17:36:12.538733  8086 layer_factory.cpp:90] cuDNN does not support multiple tops. Using Caffe's own pooling layer.
I0524 17:36:12.538739  8086 net.cpp:91] Creating Layer pool1
I0524 17:36:12.538743  8086 net.cpp:425] pool1 <- conv1_1
I0524 17:36:12.538749  8086 net.cpp:399] pool1 -> pool1
I0524 17:36:12.538758  8086 net.cpp:399] pool1 -> pool1_mask
I0524 17:36:12.538810  8086 net.cpp:141] Setting up pool1
I0524 17:36:12.538817  8086 net.cpp:148] Top shape: 1 32 112 112 (401408)
I0524 17:36:12.538820  8086 net.cpp:148] Top shape: 1 32 112 112 (401408)
I0524 17:36:12.538823  8086 net.cpp:156] Memory required for data: 29704192
I0524 17:36:12.538826  8086 layer_factory.hpp:77] Creating layer conv2_1
I0524 17:36:12.538837  8086 net.cpp:91] Creating Layer conv2_1
I0524 17:36:12.538841  8086 net.cpp:425] conv2_1 <- pool1
I0524 17:36:12.538846  8086 net.cpp:399] conv2_1 -> conv2_1
I0524 17:36:12.540546  8086 net.cpp:141] Setting up conv2_1
I0524 17:36:12.540563  8086 net.cpp:148] Top shape: 1 64 112 112 (802816)
I0524 17:36:12.540567  8086 net.cpp:156] Memory required for data: 32915456
I0524 17:36:12.540573  8086 layer_factory.hpp:77] Creating layer bn2_1
I0524 17:36:12.540585  8086 net.cpp:91] Creating Layer bn2_1
I0524 17:36:12.540590  8086 net.cpp:425] bn2_1 <- conv2_1
I0524 17:36:12.540594  8086 net.cpp:386] bn2_1 -> conv2_1 (in-place)
I0524 17:36:12.541265  8086 net.cpp:141] Setting up bn2_1
I0524 17:36:12.541280  8086 net.cpp:148] Top shape: 1 64 112 112 (802816)
I0524 17:36:12.541283  8086 net.cpp:156] Memory required for data: 36126720
I0524 17:36:12.541316  8086 layer_factory.hpp:77] Creating layer scale2_1
I0524 17:36:12.541326  8086 net.cpp:91] Creating Layer scale2_1
I0524 17:36:12.541328  8086 net.cpp:425] scale2_1 <- conv2_1
I0524 17:36:12.541334  8086 net.cpp:386] scale2_1 -> conv2_1 (in-place)
I0524 17:36:12.541384  8086 layer_factory.hpp:77] Creating layer scale2_1
I0524 17:36:12.541517  8086 net.cpp:141] Setting up scale2_1
I0524 17:36:12.541527  8086 net.cpp:148] Top shape: 1 64 112 112 (802816)
I0524 17:36:12.541529  8086 net.cpp:156] Memory required for data: 39337984
I0524 17:36:12.541535  8086 layer_factory.hpp:77] Creating layer relu2_1
I0524 17:36:12.541541  8086 net.cpp:91] Creating Layer relu2_1
I0524 17:36:12.541544  8086 net.cpp:425] relu2_1 <- conv2_1
I0524 17:36:12.541550  8086 net.cpp:386] relu2_1 -> conv2_1 (in-place)
I0524 17:36:12.541743  8086 net.cpp:141] Setting up relu2_1
I0524 17:36:12.541755  8086 net.cpp:148] Top shape: 1 64 112 112 (802816)
I0524 17:36:12.541759  8086 net.cpp:156] Memory required for data: 42549248
I0524 17:36:12.541762  8086 layer_factory.hpp:77] Creating layer pool2
I0524 17:36:12.541766  8086 layer_factory.cpp:90] cuDNN does not support multiple tops. Using Caffe's own pooling layer.
I0524 17:36:12.541781  8086 net.cpp:91] Creating Layer pool2
I0524 17:36:12.541785  8086 net.cpp:425] pool2 <- conv2_1
I0524 17:36:12.541790  8086 net.cpp:399] pool2 -> pool2
I0524 17:36:12.541797  8086 net.cpp:399] pool2 -> pool2_mask
I0524 17:36:12.541843  8086 net.cpp:141] Setting up pool2
I0524 17:36:12.541852  8086 net.cpp:148] Top shape: 1 64 56 56 (200704)
I0524 17:36:12.541856  8086 net.cpp:148] Top shape: 1 64 56 56 (200704)
I0524 17:36:12.541858  8086 net.cpp:156] Memory required for data: 44154880
I0524 17:36:12.541862  8086 layer_factory.hpp:77] Creating layer conv3_1
I0524 17:36:12.541872  8086 net.cpp:91] Creating Layer conv3_1
I0524 17:36:12.541874  8086 net.cpp:425] conv3_1 <- pool2
I0524 17:36:12.541882  8086 net.cpp:399] conv3_1 -> conv3_1
I0524 17:36:12.548964  8086 net.cpp:141] Setting up conv3_1
I0524 17:36:12.548990  8086 net.cpp:148] Top shape: 1 128 56 56 (401408)
I0524 17:36:12.548993  8086 net.cpp:156] Memory required for data: 45760512
I0524 17:36:12.549000  8086 layer_factory.hpp:77] Creating layer bn3_1
I0524 17:36:12.549013  8086 net.cpp:91] Creating Layer bn3_1
I0524 17:36:12.549018  8086 net.cpp:425] bn3_1 <- conv3_1
I0524 17:36:12.549026  8086 net.cpp:386] bn3_1 -> conv3_1 (in-place)
I0524 17:36:12.549662  8086 net.cpp:141] Setting up bn3_1
I0524 17:36:12.549677  8086 net.cpp:148] Top shape: 1 128 56 56 (401408)
I0524 17:36:12.549681  8086 net.cpp:156] Memory required for data: 47366144
I0524 17:36:12.549690  8086 layer_factory.hpp:77] Creating layer scale3_1
I0524 17:36:12.549700  8086 net.cpp:91] Creating Layer scale3_1
I0524 17:36:12.549703  8086 net.cpp:425] scale3_1 <- conv3_1
I0524 17:36:12.549708  8086 net.cpp:386] scale3_1 -> conv3_1 (in-place)
I0524 17:36:12.549757  8086 layer_factory.hpp:77] Creating layer scale3_1
I0524 17:36:12.549880  8086 net.cpp:141] Setting up scale3_1
I0524 17:36:12.549891  8086 net.cpp:148] Top shape: 1 128 56 56 (401408)
I0524 17:36:12.549895  8086 net.cpp:156] Memory required for data: 48971776
I0524 17:36:12.549906  8086 layer_factory.hpp:77] Creating layer relu3_1
I0524 17:36:12.549916  8086 net.cpp:91] Creating Layer relu3_1
I0524 17:36:12.549918  8086 net.cpp:425] relu3_1 <- conv3_1
I0524 17:36:12.549923  8086 net.cpp:386] relu3_1 -> conv3_1 (in-place)
I0524 17:36:12.550114  8086 net.cpp:141] Setting up relu3_1
I0524 17:36:12.550127  8086 net.cpp:148] Top shape: 1 128 56 56 (401408)
I0524 17:36:12.550129  8086 net.cpp:156] Memory required for data: 50577408
I0524 17:36:12.550132  8086 layer_factory.hpp:77] Creating layer pool3
I0524 17:36:12.550137  8086 layer_factory.cpp:90] cuDNN does not support multiple tops. Using Caffe's own pooling layer.
I0524 17:36:12.550146  8086 net.cpp:91] Creating Layer pool3
I0524 17:36:12.550149  8086 net.cpp:425] pool3 <- conv3_1
I0524 17:36:12.550155  8086 net.cpp:399] pool3 -> pool3
I0524 17:36:12.550181  8086 net.cpp:399] pool3 -> pool3_mask
I0524 17:36:12.550238  8086 net.cpp:141] Setting up pool3
I0524 17:36:12.550246  8086 net.cpp:148] Top shape: 1 128 28 28 (100352)
I0524 17:36:12.550251  8086 net.cpp:148] Top shape: 1 128 28 28 (100352)
I0524 17:36:12.550253  8086 net.cpp:156] Memory required for data: 51380224
I0524 17:36:12.550256  8086 layer_factory.hpp:77] Creating layer conv4_1
I0524 17:36:12.550267  8086 net.cpp:91] Creating Layer conv4_1
I0524 17:36:12.550271  8086 net.cpp:425] conv4_1 <- pool3
I0524 17:36:12.550277  8086 net.cpp:399] conv4_1 -> conv4_1
I0524 17:36:12.561990  8086 net.cpp:141] Setting up conv4_1
I0524 17:36:12.562011  8086 net.cpp:148] Top shape: 1 256 28 28 (200704)
I0524 17:36:12.562014  8086 net.cpp:156] Memory required for data: 52183040
I0524 17:36:12.562021  8086 layer_factory.hpp:77] Creating layer bn4_1
I0524 17:36:12.562029  8086 net.cpp:91] Creating Layer bn4_1
I0524 17:36:12.562032  8086 net.cpp:425] bn4_1 <- conv4_1
I0524 17:36:12.562039  8086 net.cpp:386] bn4_1 -> conv4_1 (in-place)
I0524 17:36:12.562235  8086 net.cpp:141] Setting up bn4_1
I0524 17:36:12.562245  8086 net.cpp:148] Top shape: 1 256 28 28 (200704)
I0524 17:36:12.562248  8086 net.cpp:156] Memory required for data: 52985856
I0524 17:36:12.562255  8086 layer_factory.hpp:77] Creating layer scale4_1
I0524 17:36:12.562263  8086 net.cpp:91] Creating Layer scale4_1
I0524 17:36:12.562266  8086 net.cpp:425] scale4_1 <- conv4_1
I0524 17:36:12.562271  8086 net.cpp:386] scale4_1 -> conv4_1 (in-place)
I0524 17:36:12.562314  8086 layer_factory.hpp:77] Creating layer scale4_1
I0524 17:36:12.562427  8086 net.cpp:141] Setting up scale4_1
I0524 17:36:12.562438  8086 net.cpp:148] Top shape: 1 256 28 28 (200704)
I0524 17:36:12.562440  8086 net.cpp:156] Memory required for data: 53788672
I0524 17:36:12.562445  8086 layer_factory.hpp:77] Creating layer relu4_1
I0524 17:36:12.562453  8086 net.cpp:91] Creating Layer relu4_1
I0524 17:36:12.562456  8086 net.cpp:425] relu4_1 <- conv4_1
I0524 17:36:12.562460  8086 net.cpp:386] relu4_1 -> conv4_1 (in-place)
I0524 17:36:12.562773  8086 net.cpp:141] Setting up relu4_1
I0524 17:36:12.562788  8086 net.cpp:148] Top shape: 1 256 28 28 (200704)
I0524 17:36:12.562791  8086 net.cpp:156] Memory required for data: 54591488
I0524 17:36:12.562795  8086 layer_factory.hpp:77] Creating layer pool4
I0524 17:36:12.562798  8086 layer_factory.cpp:90] cuDNN does not support multiple tops. Using Caffe's own pooling layer.
I0524 17:36:12.562804  8086 net.cpp:91] Creating Layer pool4
I0524 17:36:12.562809  8086 net.cpp:425] pool4 <- conv4_1
I0524 17:36:12.562814  8086 net.cpp:399] pool4 -> pool4
I0524 17:36:12.562821  8086 net.cpp:399] pool4 -> pool4_mask
I0524 17:36:12.562870  8086 net.cpp:141] Setting up pool4
I0524 17:36:12.562876  8086 net.cpp:148] Top shape: 1 256 14 14 (50176)
I0524 17:36:12.562880  8086 net.cpp:148] Top shape: 1 256 14 14 (50176)
I0524 17:36:12.562883  8086 net.cpp:156] Memory required for data: 54992896
I0524 17:36:12.562886  8086 layer_factory.hpp:77] Creating layer conv5_1
I0524 17:36:12.562896  8086 net.cpp:91] Creating Layer conv5_1
I0524 17:36:12.562899  8086 net.cpp:425] conv5_1 <- pool4
I0524 17:36:12.562904  8086 net.cpp:399] conv5_1 -> conv5_1
I0524 17:36:12.583921  8086 net.cpp:141] Setting up conv5_1
I0524 17:36:12.583940  8086 net.cpp:148] Top shape: 1 256 14 14 (50176)
I0524 17:36:12.583945  8086 net.cpp:156] Memory required for data: 55193600
I0524 17:36:12.583950  8086 layer_factory.hpp:77] Creating layer bn5_1
I0524 17:36:12.583958  8086 net.cpp:91] Creating Layer bn5_1
I0524 17:36:12.583962  8086 net.cpp:425] bn5_1 <- conv5_1
I0524 17:36:12.583968  8086 net.cpp:386] bn5_1 -> conv5_1 (in-place)
I0524 17:36:12.584179  8086 net.cpp:141] Setting up bn5_1
I0524 17:36:12.584188  8086 net.cpp:148] Top shape: 1 256 14 14 (50176)
I0524 17:36:12.584197  8086 net.cpp:156] Memory required for data: 55394304
I0524 17:36:12.584211  8086 layer_factory.hpp:77] Creating layer scale5_1
I0524 17:36:12.584223  8086 net.cpp:91] Creating Layer scale5_1
I0524 17:36:12.584229  8086 net.cpp:425] scale5_1 <- conv5_1
I0524 17:36:12.584265  8086 net.cpp:386] scale5_1 -> conv5_1 (in-place)
I0524 17:36:12.584339  8086 layer_factory.hpp:77] Creating layer scale5_1
I0524 17:36:12.584483  8086 net.cpp:141] Setting up scale5_1
I0524 17:36:12.584494  8086 net.cpp:148] Top shape: 1 256 14 14 (50176)
I0524 17:36:12.584497  8086 net.cpp:156] Memory required for data: 55595008
I0524 17:36:12.584502  8086 layer_factory.hpp:77] Creating layer relu5_1
I0524 17:36:12.584508  8086 net.cpp:91] Creating Layer relu5_1
I0524 17:36:12.584511  8086 net.cpp:425] relu5_1 <- conv5_1
I0524 17:36:12.584516  8086 net.cpp:386] relu5_1 -> conv5_1 (in-place)
I0524 17:36:12.584705  8086 net.cpp:141] Setting up relu5_1
I0524 17:36:12.584717  8086 net.cpp:148] Top shape: 1 256 14 14 (50176)
I0524 17:36:12.584719  8086 net.cpp:156] Memory required for data: 55795712
I0524 17:36:12.584723  8086 layer_factory.hpp:77] Creating layer pool5
I0524 17:36:12.584727  8086 layer_factory.cpp:90] cuDNN does not support multiple tops. Using Caffe's own pooling layer.
I0524 17:36:12.584733  8086 net.cpp:91] Creating Layer pool5
I0524 17:36:12.584738  8086 net.cpp:425] pool5 <- conv5_1
I0524 17:36:12.584743  8086 net.cpp:399] pool5 -> pool5
I0524 17:36:12.584748  8086 net.cpp:399] pool5 -> pool5_mask
I0524 17:36:12.584790  8086 net.cpp:141] Setting up pool5
I0524 17:36:12.584797  8086 net.cpp:148] Top shape: 1 256 7 7 (12544)
I0524 17:36:12.584801  8086 net.cpp:148] Top shape: 1 256 7 7 (12544)
I0524 17:36:12.584803  8086 net.cpp:156] Memory required for data: 55896064
I0524 17:36:12.584806  8086 layer_factory.hpp:77] Creating layer upsample5
I0524 17:36:12.584817  8086 net.cpp:91] Creating Layer upsample5
I0524 17:36:12.584820  8086 net.cpp:425] upsample5 <- pool5
I0524 17:36:12.584825  8086 net.cpp:425] upsample5 <- pool5_mask
I0524 17:36:12.584828  8086 net.cpp:399] upsample5 -> pool5_D
I0524 17:36:12.584856  8086 net.cpp:141] Setting up upsample5
I0524 17:36:12.584861  8086 net.cpp:148] Top shape: 1 256 14 14 (50176)
I0524 17:36:12.584863  8086 net.cpp:156] Memory required for data: 56096768
I0524 17:36:12.584866  8086 layer_factory.hpp:77] Creating layer conv5_1_D
I0524 17:36:12.584877  8086 net.cpp:91] Creating Layer conv5_1_D
I0524 17:36:12.584879  8086 net.cpp:425] conv5_1_D <- pool5_D
I0524 17:36:12.584885  8086 net.cpp:399] conv5_1_D -> conv5_1_D
I0524 17:36:12.604595  8086 net.cpp:141] Setting up conv5_1_D
I0524 17:36:12.604615  8086 net.cpp:148] Top shape: 1 256 14 14 (50176)
I0524 17:36:12.604619  8086 net.cpp:156] Memory required for data: 56297472
I0524 17:36:12.604624  8086 layer_factory.hpp:77] Creating layer bn5_1_D
I0524 17:36:12.604635  8086 net.cpp:91] Creating Layer bn5_1_D
I0524 17:36:12.604638  8086 net.cpp:425] bn5_1_D <- conv5_1_D
I0524 17:36:12.604645  8086 net.cpp:386] bn5_1_D -> conv5_1_D (in-place)
I0524 17:36:12.604817  8086 net.cpp:141] Setting up bn5_1_D
I0524 17:36:12.604825  8086 net.cpp:148] Top shape: 1 256 14 14 (50176)
I0524 17:36:12.604828  8086 net.cpp:156] Memory required for data: 56498176
I0524 17:36:12.604845  8086 layer_factory.hpp:77] Creating layer scale5_1_D
I0524 17:36:12.604852  8086 net.cpp:91] Creating Layer scale5_1_D
I0524 17:36:12.604856  8086 net.cpp:425] scale5_1_D <- conv5_1_D
I0524 17:36:12.604859  8086 net.cpp:386] scale5_1_D -> conv5_1_D (in-place)
I0524 17:36:12.604899  8086 layer_factory.hpp:77] Creating layer scale5_1_D
I0524 17:36:12.605002  8086 net.cpp:141] Setting up scale5_1_D
I0524 17:36:12.605010  8086 net.cpp:148] Top shape: 1 256 14 14 (50176)
I0524 17:36:12.605013  8086 net.cpp:156] Memory required for data: 56698880
I0524 17:36:12.605018  8086 layer_factory.hpp:77] Creating layer relu5_1_D
I0524 17:36:12.605023  8086 net.cpp:91] Creating Layer relu5_1_D
I0524 17:36:12.605026  8086 net.cpp:425] relu5_1_D <- conv5_1_D
I0524 17:36:12.605031  8086 net.cpp:386] relu5_1_D -> conv5_1_D (in-place)
I0524 17:36:12.605201  8086 net.cpp:141] Setting up relu5_1_D
I0524 17:36:12.605211  8086 net.cpp:148] Top shape: 1 256 14 14 (50176)
I0524 17:36:12.605214  8086 net.cpp:156] Memory required for data: 56899584
I0524 17:36:12.605242  8086 layer_factory.hpp:77] Creating layer upsample4
I0524 17:36:12.605254  8086 net.cpp:91] Creating Layer upsample4
I0524 17:36:12.605257  8086 net.cpp:425] upsample4 <- conv5_1_D
I0524 17:36:12.605262  8086 net.cpp:425] upsample4 <- pool4_mask
I0524 17:36:12.605267  8086 net.cpp:399] upsample4 -> pool4_D
I0524 17:36:12.605298  8086 net.cpp:141] Setting up upsample4
I0524 17:36:12.605304  8086 net.cpp:148] Top shape: 1 256 28 28 (200704)
I0524 17:36:12.605307  8086 net.cpp:156] Memory required for data: 57702400
I0524 17:36:12.605310  8086 layer_factory.hpp:77] Creating layer conv4_1_D
I0524 17:36:12.605320  8086 net.cpp:91] Creating Layer conv4_1_D
I0524 17:36:12.605324  8086 net.cpp:425] conv4_1_D <- pool4_D
I0524 17:36:12.605329  8086 net.cpp:399] conv4_1_D -> conv4_1_D
I0524 17:36:12.615335  8086 net.cpp:141] Setting up conv4_1_D
I0524 17:36:12.615350  8086 net.cpp:148] Top shape: 1 128 28 28 (100352)
I0524 17:36:12.615352  8086 net.cpp:156] Memory required for data: 58103808
I0524 17:36:12.615357  8086 layer_factory.hpp:77] Creating layer bn4_1_D
I0524 17:36:12.615367  8086 net.cpp:91] Creating Layer bn4_1_D
I0524 17:36:12.615371  8086 net.cpp:425] bn4_1_D <- conv4_1_D
I0524 17:36:12.615375  8086 net.cpp:386] bn4_1_D -> conv4_1_D (in-place)
I0524 17:36:12.615550  8086 net.cpp:141] Setting up bn4_1_D
I0524 17:36:12.615558  8086 net.cpp:148] Top shape: 1 128 28 28 (100352)
I0524 17:36:12.615561  8086 net.cpp:156] Memory required for data: 58505216
I0524 17:36:12.615567  8086 layer_factory.hpp:77] Creating layer scale4_1_D
I0524 17:36:12.615573  8086 net.cpp:91] Creating Layer scale4_1_D
I0524 17:36:12.615576  8086 net.cpp:425] scale4_1_D <- conv4_1_D
I0524 17:36:12.615582  8086 net.cpp:386] scale4_1_D -> conv4_1_D (in-place)
I0524 17:36:12.615618  8086 layer_factory.hpp:77] Creating layer scale4_1_D
I0524 17:36:12.615715  8086 net.cpp:141] Setting up scale4_1_D
I0524 17:36:12.615723  8086 net.cpp:148] Top shape: 1 128 28 28 (100352)
I0524 17:36:12.615726  8086 net.cpp:156] Memory required for data: 58906624
I0524 17:36:12.615731  8086 layer_factory.hpp:77] Creating layer relu4_1_D
I0524 17:36:12.615736  8086 net.cpp:91] Creating Layer relu4_1_D
I0524 17:36:12.615738  8086 net.cpp:425] relu4_1_D <- conv4_1_D
I0524 17:36:12.615741  8086 net.cpp:386] relu4_1_D -> conv4_1_D (in-place)
I0524 17:36:12.616019  8086 net.cpp:141] Setting up relu4_1_D
I0524 17:36:12.616032  8086 net.cpp:148] Top shape: 1 128 28 28 (100352)
I0524 17:36:12.616034  8086 net.cpp:156] Memory required for data: 59308032
I0524 17:36:12.616037  8086 layer_factory.hpp:77] Creating layer upsample3
I0524 17:36:12.616045  8086 net.cpp:91] Creating Layer upsample3
I0524 17:36:12.616049  8086 net.cpp:425] upsample3 <- conv4_1_D
I0524 17:36:12.616052  8086 net.cpp:425] upsample3 <- pool3_mask
I0524 17:36:12.616056  8086 net.cpp:399] upsample3 -> pool3_D
I0524 17:36:12.616087  8086 net.cpp:141] Setting up upsample3
I0524 17:36:12.616092  8086 net.cpp:148] Top shape: 1 128 56 56 (401408)
I0524 17:36:12.616096  8086 net.cpp:156] Memory required for data: 60913664
I0524 17:36:12.616097  8086 layer_factory.hpp:77] Creating layer conv3_1_D
I0524 17:36:12.616106  8086 net.cpp:91] Creating Layer conv3_1_D
I0524 17:36:12.616108  8086 net.cpp:425] conv3_1_D <- pool3_D
I0524 17:36:12.616113  8086 net.cpp:399] conv3_1_D -> conv3_1_D
I0524 17:36:12.619292  8086 net.cpp:141] Setting up conv3_1_D
I0524 17:36:12.619305  8086 net.cpp:148] Top shape: 1 64 56 56 (200704)
I0524 17:36:12.619308  8086 net.cpp:156] Memory required for data: 61716480
I0524 17:36:12.619314  8086 layer_factory.hpp:77] Creating layer bn3_1_D
I0524 17:36:12.619321  8086 net.cpp:91] Creating Layer bn3_1_D
I0524 17:36:12.619330  8086 net.cpp:425] bn3_1_D <- conv3_1_D
I0524 17:36:12.619335  8086 net.cpp:386] bn3_1_D -> conv3_1_D (in-place)
I0524 17:36:12.619523  8086 net.cpp:141] Setting up bn3_1_D
I0524 17:36:12.619531  8086 net.cpp:148] Top shape: 1 64 56 56 (200704)
I0524 17:36:12.619534  8086 net.cpp:156] Memory required for data: 62519296
I0524 17:36:12.619540  8086 layer_factory.hpp:77] Creating layer scale3_1_D
I0524 17:36:12.619559  8086 net.cpp:91] Creating Layer scale3_1_D
I0524 17:36:12.619561  8086 net.cpp:425] scale3_1_D <- conv3_1_D
I0524 17:36:12.619565  8086 net.cpp:386] scale3_1_D -> conv3_1_D (in-place)
I0524 17:36:12.619607  8086 layer_factory.hpp:77] Creating layer scale3_1_D
I0524 17:36:12.619720  8086 net.cpp:141] Setting up scale3_1_D
I0524 17:36:12.619729  8086 net.cpp:148] Top shape: 1 64 56 56 (200704)
I0524 17:36:12.619731  8086 net.cpp:156] Memory required for data: 63322112
I0524 17:36:12.619735  8086 layer_factory.hpp:77] Creating layer relu3_1_D
I0524 17:36:12.619740  8086 net.cpp:91] Creating Layer relu3_1_D
I0524 17:36:12.619743  8086 net.cpp:425] relu3_1_D <- conv3_1_D
I0524 17:36:12.619747  8086 net.cpp:386] relu3_1_D -> conv3_1_D (in-place)
I0524 17:36:12.619921  8086 net.cpp:141] Setting up relu3_1_D
I0524 17:36:12.619931  8086 net.cpp:148] Top shape: 1 64 56 56 (200704)
I0524 17:36:12.619935  8086 net.cpp:156] Memory required for data: 64124928
I0524 17:36:12.619937  8086 layer_factory.hpp:77] Creating layer upsample2
I0524 17:36:12.619943  8086 net.cpp:91] Creating Layer upsample2
I0524 17:36:12.619946  8086 net.cpp:425] upsample2 <- conv3_1_D
I0524 17:36:12.619949  8086 net.cpp:425] upsample2 <- pool2_mask
I0524 17:36:12.619956  8086 net.cpp:399] upsample2 -> pool2_D
I0524 17:36:12.619983  8086 net.cpp:141] Setting up upsample2
I0524 17:36:12.619988  8086 net.cpp:148] Top shape: 1 64 112 112 (802816)
I0524 17:36:12.619992  8086 net.cpp:156] Memory required for data: 67336192
I0524 17:36:12.619993  8086 layer_factory.hpp:77] Creating layer conv2_1_D
I0524 17:36:12.620003  8086 net.cpp:91] Creating Layer conv2_1_D
I0524 17:36:12.620007  8086 net.cpp:425] conv2_1_D <- pool2_D
I0524 17:36:12.620010  8086 net.cpp:399] conv2_1_D -> conv2_1_D
I0524 17:36:12.621708  8086 net.cpp:141] Setting up conv2_1_D
I0524 17:36:12.621721  8086 net.cpp:148] Top shape: 1 32 112 112 (401408)
I0524 17:36:12.621726  8086 net.cpp:156] Memory required for data: 68941824
I0524 17:36:12.621729  8086 layer_factory.hpp:77] Creating layer bn2_1_D
I0524 17:36:12.621737  8086 net.cpp:91] Creating Layer bn2_1_D
I0524 17:36:12.621740  8086 net.cpp:425] bn2_1_D <- conv2_1_D
I0524 17:36:12.621747  8086 net.cpp:386] bn2_1_D -> conv2_1_D (in-place)
I0524 17:36:12.621929  8086 net.cpp:141] Setting up bn2_1_D
I0524 17:36:12.621938  8086 net.cpp:148] Top shape: 1 32 112 112 (401408)
I0524 17:36:12.621942  8086 net.cpp:156] Memory required for data: 70547456
I0524 17:36:12.621948  8086 layer_factory.hpp:77] Creating layer scale2_1_D
I0524 17:36:12.621954  8086 net.cpp:91] Creating Layer scale2_1_D
I0524 17:36:12.621958  8086 net.cpp:425] scale2_1_D <- conv2_1_D
I0524 17:36:12.621961  8086 net.cpp:386] scale2_1_D -> conv2_1_D (in-place)
I0524 17:36:12.622004  8086 layer_factory.hpp:77] Creating layer scale2_1_D
I0524 17:36:12.622128  8086 net.cpp:141] Setting up scale2_1_D
I0524 17:36:12.622138  8086 net.cpp:148] Top shape: 1 32 112 112 (401408)
I0524 17:36:12.622139  8086 net.cpp:156] Memory required for data: 72153088
I0524 17:36:12.622144  8086 layer_factory.hpp:77] Creating layer relu2_1_D
I0524 17:36:12.622149  8086 net.cpp:91] Creating Layer relu2_1_D
I0524 17:36:12.622153  8086 net.cpp:425] relu2_1_D <- conv2_1_D
I0524 17:36:12.622159  8086 net.cpp:386] relu2_1_D -> conv2_1_D (in-place)
I0524 17:36:12.622316  8086 net.cpp:141] Setting up relu2_1_D
I0524 17:36:12.622328  8086 net.cpp:148] Top shape: 1 32 112 112 (401408)
I0524 17:36:12.622330  8086 net.cpp:156] Memory required for data: 73758720
I0524 17:36:12.622334  8086 layer_factory.hpp:77] Creating layer upsample1
I0524 17:36:12.622339  8086 net.cpp:91] Creating Layer upsample1
I0524 17:36:12.622342  8086 net.cpp:425] upsample1 <- conv2_1_D
I0524 17:36:12.622346  8086 net.cpp:425] upsample1 <- pool1_mask
I0524 17:36:12.622350  8086 net.cpp:399] upsample1 -> pool1_D
I0524 17:36:12.622380  8086 net.cpp:141] Setting up upsample1
I0524 17:36:12.622385  8086 net.cpp:148] Top shape: 1 32 224 224 (1605632)
I0524 17:36:12.622386  8086 net.cpp:156] Memory required for data: 80181248
I0524 17:36:12.622400  8086 layer_factory.hpp:77] Creating layer conv1_1_D
I0524 17:36:12.622411  8086 net.cpp:91] Creating Layer conv1_1_D
I0524 17:36:12.622414  8086 net.cpp:425] conv1_1_D <- pool1_D
I0524 17:36:12.622421  8086 net.cpp:399] conv1_1_D -> conv1_1_D
I0524 17:36:12.623565  8086 net.cpp:141] Setting up conv1_1_D
I0524 17:36:12.623580  8086 net.cpp:148] Top shape: 1 2 224 224 (100352)
I0524 17:36:12.623584  8086 net.cpp:156] Memory required for data: 80582656
I0524 17:36:12.623589  8086 layer_factory.hpp:77] Creating layer conv1_1_D_conv1_1_D_0_split
I0524 17:36:12.623597  8086 net.cpp:91] Creating Layer conv1_1_D_conv1_1_D_0_split
I0524 17:36:12.623600  8086 net.cpp:425] conv1_1_D_conv1_1_D_0_split <- conv1_1_D
I0524 17:36:12.623605  8086 net.cpp:399] conv1_1_D_conv1_1_D_0_split -> conv1_1_D_conv1_1_D_0_split_0
I0524 17:36:12.623610  8086 net.cpp:399] conv1_1_D_conv1_1_D_0_split -> conv1_1_D_conv1_1_D_0_split_1
I0524 17:36:12.623656  8086 net.cpp:141] Setting up conv1_1_D_conv1_1_D_0_split
I0524 17:36:12.623661  8086 net.cpp:148] Top shape: 1 2 224 224 (100352)
I0524 17:36:12.623664  8086 net.cpp:148] Top shape: 1 2 224 224 (100352)
I0524 17:36:12.623667  8086 net.cpp:156] Memory required for data: 81385472
I0524 17:36:12.623669  8086 layer_factory.hpp:77] Creating layer loss
I0524 17:36:12.623685  8086 net.cpp:91] Creating Layer loss
I0524 17:36:12.623688  8086 net.cpp:425] loss <- conv1_1_D_conv1_1_D_0_split_0
I0524 17:36:12.623692  8086 net.cpp:425] loss <- label_data_1_split_0
I0524 17:36:12.623695  8086 net.cpp:399] loss -> loss
…
