…
I0522 11:44:40.649812 31633 net.cpp:313] The NetState phase (0) differed from the phase (1) specified by a rule in layer data
I0522 11:44:40.650209 31633 net.cpp:49] Initializing net from parameters: 
name: "segnet"
state {
  phase: TRAIN
}
layer {
  name: "data"
  type: "DenseImageData"
  top: "data"
  top: "label"
  include {
    phase: TRAIN
  }
  transform_param {
    crop_size: 224
  }
  dense_image_data_param {
    source: "data/train.txt"
    batch_size: 16
    shuffle: true
    new_height: 224
    new_width: 310
    is_color: false
    root_folder: "data/raw/train/"
  }
}
layer {
  name: "conv1_1"
  type: "Convolution"
  bottom: "data"
  top: "conv1_1"
  param {
    lr_mult: 1
    decay_mult: 1
  }
  convolution_param {
    num_output: 16
    bias_term: false
    pad: 1
    kernel_size: 3
    weight_filler {
      type: "msra"
    }
  }
}
layer {
  name: "bn1_1"
  type: "BatchNorm"
  bottom: "conv1_1"
  top: "conv1_1"
  param {
    lr_mult: 0
  }
  param {
    lr_mult: 0
  }
  param {
    lr_mult: 0
  }
  batch_norm_param {
    use_global_stats: false
  }
}
layer {
  name: "scale1_1"
  type: "Scale"
  bottom: "conv1_1"
  top: "conv1_1"
  param {
    lr_mult: 1
    decay_mult: 1
  }
  param {
    lr_mult: 1
    decay_mult: 1
  }
  scale_param {
    bias_term: true
    bias_filler {
      type: "constant"
      value: 0
    }
  }
}
layer {
  name: "relu1_1"
  type: "ReLU"
  bottom: "conv1_1"
  top: "conv1_1"
}
layer {
  name: "conv1_2"
  type: "Convolution"
  bottom: "conv1_1"
  top: "conv1_2"
  param {
    lr_mult: 1
    decay_mult: 1
  }
  convolution_param {
    num_output: 16
    bias_term: false
    pad: 1
    kernel_size: 3
    weight_filler {
      type: "msra"
    }
  }
}
layer {
  name: "bn1_2"
  type: "BatchNorm"
  bottom: "conv1_2"
  top: "conv1_2"
  param {
    lr_mult: 0
  }
  param {
    lr_mult: 0
  }
  param {
    lr_mult: 0
  }
  batch_norm_param {
    use_global_stats: false
  }
}
layer {
  name: "scale1_2"
  type: "Scale"
  bottom: "conv1_2"
  top: "conv1_2"
  param {
    lr_mult: 1
    decay_mult: 1
  }
  param {
    lr_mult: 1
    decay_mult: 1
  }
  scale_param {
    bias_term: true
    bias_filler {
      type: "constant"
      value: 0
    }
  }
}
layer {
  name: "relu1_2"
  type: "ReLU"
  bottom: "conv1_2"
  top: "conv1_2"
}
layer {
  name: "pool1"
  type: "Pooling"
  bottom: "conv1_2"
  top: "pool1"
  top: "pool1_mask"
  pooling_param {
    pool: MAX
    kernel_size: 2
    stride: 2
  }
}
layer {
  name: "conv2_1"
  type: "Convolution"
  bottom: "pool1"
  top: "conv2_1"
  param {
    lr_mult: 1
    decay_mult: 1
  }
  convolution_param {
    num_output: 32
    bias_term: false
    pad: 1
    kernel_size: 3
    weight_filler {
      type: "msra"
    }
  }
}
layer {
  name: "bn2_1"
  type: "BatchNorm"
  bottom: "conv2_1"
  top: "conv2_1"
  param {
    lr_mult: 0
  }
  param {
    lr_mult: 0
  }
  param {
    lr_mult: 0
  }
  batch_norm_param {
    use_global_stats: false
  }
}
layer {
  name: "scale2_1"
  type: "Scale"
  bottom: "conv2_1"
  top: "conv2_1"
  param {
    lr_mult: 1
    decay_mult: 1
  }
  param {
    lr_mult: 1
    decay_mult: 1
  }
  scale_param {
    bias_term: true
    bias_filler {
      type: "constant"
      value: 0
    }
  }
}
layer {
  name: "relu2_1"
  type: "ReLU"
  bottom: "conv2_1"
  top: "conv2_1"
}
layer {
  name: "conv2_2"
  type: "Convolution"
  bottom: "conv2_1"
  top: "conv2_2"
  param {
    lr_mult: 1
    decay_mult: 1
  }
  convolution_param {
    num_output: 32
    bias_term: false
    pad: 1
    kernel_size: 3
    weight_filler {
      type: "msra"
    }
  }
}
layer {
  name: "bn2_2"
  type: "BatchNorm"
  bottom: "conv2_2"
  top: "conv2_2"
  param {
    lr_mult: 0
  }
  param {
    lr_mult: 0
  }
  param {
    lr_mult: 0
  }
  batch_norm_param {
    use_global_stats: false
  }
}
layer {
  name: "scale2_2"
  type: "Scale"
  bottom: "conv2_2"
  top: "conv2_2"
  param {
    lr_mult: 1
    decay_mult: 1
  }
  param {
    lr_mult: 1
    decay_mult: 1
  }
  scale_param {
    bias_term: true
    bias_filler {
      type: "constant"
      value: 0
    }
  }
}
layer {
  name: "relu2_2"
  type: "ReLU"
  bottom: "conv2_2"
  top: "conv2_2"
}
layer {
  name: "pool2"
  type: "Pooling"
  bottom: "conv2_2"
  top: "pool2"
  top: "pool2_mask"
  pooling_param {
    pool: MAX
    kernel_size: 2
    stride: 2
  }
}
layer {
  name: "conv3_1"
  type: "Convolution"
  bottom: "pool2"
  top: "conv3_1"
  param {
    lr_mult: 1
    decay_mult: 1
  }
  convolution_param {
    num_output: 64
    bias_term: false
    pad: 1
    kernel_size: 3
    weight_filler {
      type: "msra"
    }
  }
}
layer {
  name: "bn3_1"
  type: "BatchNorm"
  bottom: "conv3_1"
  top: "conv3_1"
  param {
    lr_mult: 0
  }
  param {
    lr_mult: 0
  }
  param {
    lr_mult: 0
  }
  batch_norm_param {
    use_global_stats: false
  }
}
layer {
  name: "scale3_1"
  type: "Scale"
  bottom: "conv3_1"
  top: "conv3_1"
  param {
    lr_mult: 1
    decay_mult: 1
  }
  param {
    lr_mult: 1
    decay_mult: 1
  }
  scale_param {
    bias_term: true
    bias_filler {
      type: "constant"
      value: 0
    }
  }
}
layer {
  name: "relu3_1"
  type: "ReLU"
  bottom: "conv3_1"
  top: "conv3_1"
}
layer {
  name: "conv3_2"
  type: "Convolution"
  bottom: "conv3_1"
  top: "conv3_2"
  param {
    lr_mult: 1
    decay_mult: 1
  }
  convolution_param {
    num_output: 64
    bias_term: false
    pad: 1
    kernel_size: 3
    weight_filler {
      type: "msra"
    }
  }
}
layer {
  name: "bn3_2"
  type: "BatchNorm"
  bottom: "conv3_2"
  top: "conv3_2"
  param {
    lr_mult: 0
  }
  param {
    lr_mult: 0
  }
  param {
    lr_mult: 0
  }
  batch_norm_param {
    use_global_stats: false
  }
}
layer {
  name: "scale3_2"
  type: "Scale"
  bottom: "conv3_2"
  top: "conv3_2"
  param {
    lr_mult: 1
    decay_mult: 1
  }
  param {
    lr_mult: 1
    decay_mult: 1
  }
  scale_param {
    bias_term: true
    bias_filler {
      type: "constant"
      value: 0
    }
  }
}
layer {
  name: "relu3_2"
  type: "ReLU"
  bottom: "conv3_2"
  top: "conv3_2"
}
layer {
  name: "pool3"
  type: "Pooling"
  bottom: "conv3_2"
  top: "pool3"
  top: "pool3_mask"
  pooling_param {
    pool: MAX
    kernel_size: 2
    stride: 2
  }
}
layer {
  name: "conv4_1"
  type: "Convolution"
  bottom: "pool3"
  top: "conv4_1"
  param {
    lr_mult: 1
    decay_mult: 1
  }
  convolution_param {
    num_output: 128
    bias_term: false
    pad: 1
    kernel_size: 3
    weight_filler {
      type: "msra"
    }
  }
}
layer {
  name: "bn4_1"
  type: "BatchNorm"
  bottom: "conv4_1"
  top: "conv4_1"
  param {
    lr_mult: 0
  }
  param {
    lr_mult: 0
  }
  param {
    lr_mult: 0
  }
  batch_norm_param {
    use_global_stats: false
  }
}
layer {
  name: "scale4_1"
  type: "Scale"
  bottom: "conv4_1"
  top: "conv4_1"
  param {
    lr_mult: 1
    decay_mult: 1
  }
  param {
    lr_mult: 1
    decay_mult: 1
  }
  scale_param {
    bias_term: true
    bias_filler {
      type: "constant"
      value: 0
    }
  }
}
layer {
  name: "relu4_1"
  type: "ReLU"
  bottom: "conv4_1"
  top: "conv4_1"
}
layer {
  name: "conv4_2"
  type: "Convolution"
  bottom: "conv4_1"
  top: "conv4_2"
  param {
    lr_mult: 1
    decay_mult: 1
  }
  convolution_param {
    num_output: 128
    bias_term: false
    pad: 1
    kernel_size: 3
    weight_filler {
      type: "msra"
    }
  }
}
layer {
  name: "bn4_2"
  type: "BatchNorm"
  bottom: "conv4_2"
  top: "conv4_2"
  param {
    lr_mult: 0
  }
  param {
    lr_mult: 0
  }
  param {
    lr_mult: 0
  }
  batch_norm_param {
    use_global_stats: false
  }
}
layer {
  name: "scale4_2"
  type: "Scale"
  bottom: "conv4_2"
  top: "conv4_2"
  param {
    lr_mult: 1
    decay_mult: 1
  }
  param {
    lr_mult: 1
    decay_mult: 1
  }
  scale_param {
    bias_term: true
    bias_filler {
      type: "constant"
      value: 0
    }
  }
}
layer {
  name: "relu4_2"
  type: "ReLU"
  bottom: "conv4_2"
  top: "conv4_2"
}
layer {
  name: "pool4"
  type: "Pooling"
  bottom: "conv4_2"
  top: "pool4"
  top: "pool4_mask"
  pooling_param {
    pool: MAX
    kernel_size: 2
    stride: 2
  }
}
layer {
  name: "conv5_1"
  type: "Convolution"
  bottom: "pool4"
  top: "conv5_1"
  param {
    lr_mult: 1
    decay_mult: 1
  }
  convolution_param {
    num_output: 128
    bias_term: false
    pad: 1
    kernel_size: 3
    weight_filler {
      type: "msra"
    }
  }
}
layer {
  name: "bn5_1"
  type: "BatchNorm"
  bottom: "conv5_1"
  top: "conv5_1"
  param {
    lr_mult: 0
  }
  param {
    lr_mult: 0
  }
  param {
    lr_mult: 0
  }
  batch_norm_param {
    use_global_stats: false
  }
}
layer {
  name: "scale5_1"
  type: "Scale"
  bottom: "conv5_1"
  top: "conv5_1"
  param {
    lr_mult: 1
    decay_mult: 1
  }
  param {
    lr_mult: 1
    decay_mult: 1
  }
  scale_param {
    bias_term: true
    bias_filler {
      type: "constant"
      value: 0
    }
  }
}
layer {
  name: "relu5_1"
  type: "ReLU"
  bottom: "conv5_1"
  top: "conv5_1"
}
layer {
  name: "conv5_2"
  type: "Convolution"
  bottom: "conv5_1"
  top: "conv5_2"
  param {
    lr_mult: 1
    decay_mult: 1
  }
  convolution_param {
    num_output: 128
    bias_term: false
    pad: 1
    kernel_size: 3
    weight_filler {
      type: "msra"
    }
  }
}
layer {
  name: "bn5_2"
  type: "BatchNorm"
  bottom: "conv5_2"
  top: "conv5_2"
  param {
    lr_mult: 0
  }
  param {
    lr_mult: 0
  }
  param {
    lr_mult: 0
  }
  batch_norm_param {
    use_global_stats: false
  }
}
layer {
  name: "scale5_2"
  type: "Scale"
  bottom: "conv5_2"
  top: "conv5_2"
  param {
    lr_mult: 1
    decay_mult: 1
  }
  param {
    lr_mult: 1
    decay_mult: 1
  }
  scale_param {
    bias_term: true
    bias_filler {
      type: "constant"
      value: 0
    }
  }
}
layer {
  name: "relu5_2"
  type: "ReLU"
  bottom: "conv5_2"
  top: "conv5_2"
}
layer {
  name: "pool5"
  type: "Pooling"
  bottom: "conv5_2"
  top: "pool5"
  top: "pool5_mask"
  pooling_param {
    pool: MAX
    kernel_size: 2
    stride: 2
  }
}
layer {
  name: "upsample5"
  type: "Upsample"
  bottom: "pool5"
  bottom: "pool5_mask"
  top: "pool5_D"
  upsample_param {
    scale: 2
    upsample_h: 14
    upsample_w: 14
  }
}
layer {
  name: "conv5_2_D"
  type: "Convolution"
  bottom: "pool5_D"
  top: "conv5_2_D"
  param {
    lr_mult: 1
    decay_mult: 1
  }
  convolution_param {
    num_output: 128
    bias_term: false
    pad: 1
    kernel_size: 3
    weight_filler {
      type: "msra"
    }
  }
}
layer {
  name: "bn5_2_D"
  type: "BatchNorm"
  bottom: "conv5_2_D"
  top: "conv5_2_D"
  param {
    lr_mult: 0
  }
  param {
    lr_mult: 0
  }
  param {
    lr_mult: 0
  }
  batch_norm_param {
    use_global_stats: false
  }
}
layer {
  name: "scale5_2_D"
  type: "Scale"
  bottom: "conv5_2_D"
  top: "conv5_2_D"
  param {
    lr_mult: 1
    decay_mult: 1
  }
  param {
    lr_mult: 1
    decay_mult: 1
  }
  scale_param {
    bias_term: true
    bias_filler {
      type: "constant"
      value: 0
    }
  }
}
layer {
  name: "relu5_2_D"
  type: "ReLU"
  bottom: "conv5_2_D"
  top: "conv5_2_D"
}
layer {
  name: "conv5_1_D"
  type: "Convolution"
  bottom: "conv5_2_D"
  top: "conv5_1_D"
  param {
    lr_mult: 1
    decay_mult: 1
  }
  convolution_param {
    num_output: 128
    bias_term: false
    pad: 1
    kernel_size: 3
    weight_filler {
      type: "msra"
    }
  }
}
layer {
  name: "bn5_1_D"
  type: "BatchNorm"
  bottom: "conv5_1_D"
  top: "conv5_1_D"
  param {
    lr_mult: 0
  }
  param {
    lr_mult: 0
  }
  param {
    lr_mult: 0
  }
  batch_norm_param {
    use_global_stats: false
  }
}
layer {
  name: "scale5_1_D"
  type: "Scale"
  bottom: "conv5_1_D"
  top: "conv5_1_D"
  param {
    lr_mult: 1
    decay_mult: 1
  }
  param {
    lr_mult: 1
    decay_mult: 1
  }
  scale_param {
    bias_term: true
    bias_filler {
      type: "constant"
      value: 0
    }
  }
}
layer {
  name: "relu5_1_D"
  type: "ReLU"
  bottom: "conv5_1_D"
  top: "conv5_1_D"
}
layer {
  name: "upsample4"
  type: "Upsample"
  bottom: "conv5_1_D"
  bottom: "pool4_mask"
  top: "pool4_D"
  upsample_param {
    scale: 2
    upsample_h: 28
    upsample_w: 28
  }
}
layer {
  name: "conv4_2_D"
  type: "Convolution"
  bottom: "pool4_D"
  top: "conv4_2_D"
  param {
    lr_mult: 1
    decay_mult: 1
  }
  convolution_param {
    num_output: 128
    bias_term: false
    pad: 1
    kernel_size: 3
    weight_filler {
      type: "msra"
    }
  }
}
layer {
  name: "bn4_2_D"
  type: "BatchNorm"
  bottom: "conv4_2_D"
  top: "conv4_2_D"
  param {
    lr_mult: 0
  }
  param {
    lr_mult: 0
  }
  param {
    lr_mult: 0
  }
  batch_norm_param {
    use_global_stats: false
  }
}
layer {
  name: "scale4_2_D"
  type: "Scale"
  bottom: "conv4_2_D"
  top: "conv4_2_D"
  param {
    lr_mult: 1
    decay_mult: 1
  }
  param {
    lr_mult: 1
    decay_mult: 1
  }
  scale_param {
    bias_term: true
    bias_filler {
      type: "constant"
      value: 0
    }
  }
}
layer {
  name: "relu4_2_D"
  type: "ReLU"
  bottom: "conv4_2_D"
  top: "conv4_2_D"
}
layer {
  name: "conv4_1_D"
  type: "Convolution"
  bottom: "conv4_2_D"
  top: "conv4_1_D"
  param {
    lr_mult: 1
    decay_mult: 1
  }
  convolution_param {
    num_output: 64
    bias_term: false
    pad: 1
    kernel_size: 3
    weight_filler {
      type: "msra"
    }
  }
}
layer {
  name: "bn4_1_D"
  type: "BatchNorm"
  bottom: "conv4_1_D"
  top: "conv4_1_D"
  param {
    lr_mult: 0
  }
  param {
    lr_mult: 0
  }
  param {
    lr_mult: 0
  }
  batch_norm_param {
    use_global_stats: false
  }
}
layer {
  name: "scale4_1_D"
  type: "Scale"
  bottom: "conv4_1_D"
  top: "conv4_1_D"
  param {
    lr_mult: 1
    decay_mult: 1
  }
  param {
    lr_mult: 1
    decay_mult: 1
  }
  scale_param {
    bias_term: true
    bias_filler {
      type: "constant"
      value: 0
    }
  }
}
layer {
  name: "relu4_1_D"
  type: "ReLU"
  bottom: "conv4_1_D"
  top: "conv4_1_D"
}
layer {
  name: "upsample3"
  type: "Upsample"
  bottom: "conv4_1_D"
  bottom: "pool3_mask"
  top: "pool3_D"
  upsample_param {
    scale: 2
    upsample_h: 56
    upsample_w: 56
  }
}
layer {
  name: "conv3_2_D"
  type: "Convolution"
  bottom: "pool3_D"
  top: "conv3_2_D"
  param {
    lr_mult: 1
    decay_mult: 1
  }
  param {
    lr_mult: 1
    decay_mult: 1
  }
  convolution_param {
    num_output: 64
    pad: 1
    kernel_size: 3
    weight_filler {
      type: "msra"
    }
    bias_filler {
      type: "constant"
      value: 0
    }
  }
}
layer {
  name: "bn3_2_D"
  type: "BatchNorm"
  bottom: "conv3_2_D"
  top: "conv3_2_D"
  param {
    lr_mult: 0
  }
  param {
    lr_mult: 0
  }
  param {
    lr_mult: 0
  }
  batch_norm_param {
    use_global_stats: false
  }
}
layer {
  name: "scale3_2_D"
  type: "Scale"
  bottom: "conv3_2_D"
  top: "conv3_2_D"
  param {
    lr_mult: 1
    decay_mult: 1
  }
  param {
    lr_mult: 1
    decay_mult: 1
  }
  scale_param {
    bias_term: true
    bias_filler {
      type: "constant"
      value: 0
    }
  }
}
layer {
  name: "relu3_2_D"
  type: "ReLU"
  bottom: "conv3_2_D"
  top: "conv3_2_D"
}
layer {
  name: "conv3_1_D"
  type: "Convolution"
  bottom: "conv3_2_D"
  top: "conv3_1_D"
  param {
    lr_mult: 1
    decay_mult: 1
  }
  convolution_param {
    num_output: 32
    bias_term: false
    pad: 1
    kernel_size: 3
    weight_filler {
      type: "msra"
    }
  }
}
layer {
  name: "bn3_1_D"
  type: "BatchNorm"
  bottom: "conv3_1_D"
  top: "conv3_1_D"
  param {
    lr_mult: 0
  }
  param {
    lr_mult: 0
  }
  param {
    lr_mult: 0
  }
  batch_norm_param {
    use_global_stats: false
  }
}
layer {
  name: "scale3_1_D"
  type: "Scale"
  bottom: "conv3_1_D"
  top: "conv3_1_D"
  param {
    lr_mult: 1
    decay_mult: 1
  }
  param {
    lr_mult: 1
    decay_mult: 1
  }
  scale_param {
    bias_term: true
    bias_filler {
      type: "constant"
      value: 0
    }
  }
}
layer {
  name: "relu3_1_D"
  type: "ReLU"
  bottom: "conv3_1_D"
  top: "conv3_1_D"
}
layer {
  name: "upsample2"
  type: "Upsample"
  bottom: "conv3_1_D"
  bottom: "pool2_mask"
  top: "pool2_D"
  upsample_param {
    scale: 2
    upsample_h: 112
    upsample_w: 112
  }
}
layer {
  name: "conv2_2_D"
  type: "Convolution"
  bottom: "pool2_D"
  top: "conv2_2_D"
  param {
    lr_mult: 1
    decay_mult: 1
  }
  convolution_param {
    num_output: 32
    bias_term: false
    pad: 1
    kernel_size: 3
    weight_filler {
      type: "msra"
    }
  }
}
layer {
  name: "bn2_2_D"
  type: "BatchNorm"
  bottom: "conv2_2_D"
  top: "conv2_2_D"
  param {
    lr_mult: 0
  }
  param {
    lr_mult: 0
  }
  param {
    lr_mult: 0
  }
  batch_norm_param {
    use_global_stats: false
  }
}
layer {
  name: "scale2_2_D"
  type: "Scale"
  bottom: "conv2_2_D"
  top: "conv2_2_D"
  param {
    lr_mult: 1
    decay_mult: 1
  }
  param {
    lr_mult: 1
    decay_mult: 1
  }
  scale_param {
    bias_term: true
    bias_filler {
      type: "constant"
      value: 0
    }
  }
}
layer {
  name: "relu2_2_D"
  type: "ReLU"
  bottom: "conv2_2_D"
  top: "conv2_2_D"
}
layer {
  name: "conv2_1_D"
  type: "Convolution"
  bottom: "conv2_2_D"
  top: "conv2_1_D"
  param {
    lr_mult: 1
    decay_mult: 1
  }
  convolution_param {
    num_output: 16
    bias_term: false
    pad: 1
    kernel_size: 3
    weight_filler {
      type: "msra"
    }
  }
}
layer {
  name: "bn2_1_D"
  type: "BatchNorm"
  bottom: "conv2_1_D"
  top: "conv2_1_D"
  param {
    lr_mult: 0
  }
  param {
    lr_mult: 0
  }
  param {
    lr_mult: 0
  }
  batch_norm_param {
    use_global_stats: false
  }
}
layer {
  name: "scale2_1_D"
  type: "Scale"
  bottom: "conv2_1_D"
  top: "conv2_1_D"
  param {
    lr_mult: 1
    decay_mult: 1
  }
  param {
    lr_mult: 1
    decay_mult: 1
  }
  scale_param {
    bias_term: true
    bias_filler {
      type: "constant"
      value: 0
    }
  }
}
layer {
  name: "relu2_1_D"
  type: "ReLU"
  bottom: "conv2_1_D"
  top: "conv2_1_D"
}
layer {
  name: "upsample1"
  type: "Upsample"
  bottom: "conv2_1_D"
  bottom: "pool1_mask"
  top: "pool1_D"
  upsample_param {
    scale: 2
    upsample_h: 224
    upsample_w: 224
  }
}
layer {
  name: "conv1_2_D"
  type: "Convolution"
  bottom: "pool1_D"
  top: "conv1_2_D"
  param {
    lr_mult: 1
    decay_mult: 1
  }
  convolution_param {
    num_output: 16
    bias_term: false
    pad: 1
    kernel_size: 3
    weight_filler {
      type: "msra"
    }
  }
}
layer {
  name: "bn1_2_D"
  type: "BatchNorm"
  bottom: "conv1_2_D"
  top: "conv1_2_D"
  param {
    lr_mult: 0
  }
  param {
    lr_mult: 0
  }
  param {
    lr_mult: 0
  }
  batch_norm_param {
    use_global_stats: false
  }
}
layer {
  name: "scale1_2_D"
  type: "Scale"
  bottom: "conv1_2_D"
  top: "conv1_2_D"
  param {
    lr_mult: 1
    decay_mult: 1
  }
  param {
    lr_mult: 1
    decay_mult: 1
  }
  scale_param {
    bias_term: true
    bias_filler {
      type: "constant"
      value: 0
    }
  }
}
layer {
  name: "relu1_2_D"
  type: "ReLU"
  bottom: "conv1_2_D"
  top: "conv1_2_D"
}
layer {
  name: "conv1_1_D"
  type: "Convolution"
  bottom: "conv1_2_D"
  top: "conv1_1_D"
  param {
    lr_mult: 1
    decay_mult: 1
  }
  convolution_param {
    num_output: 2
    bias_term: false
    pad: 1
    kernel_size: 3
    weight_filler {
      type: "msra"
    }
    bias_filler {
      type: "constant"
    }
  }
}
layer {
  name: "loss"
  type: "SoftmaxWithLoss"
  bottom: "conv1_1_D"
  bottom: "label"
  top: "loss"
}
layer {
  name: "accuracy"
  type: "Accuracy"
  bottom: "conv1_1_D"
  bottom: "label"
  top: "accuracy"
}
I0522 11:44:40.650452 31633 layer_factory.hpp:77] Creating layer data
I0522 11:44:40.650504 31633 net.cpp:91] Creating Layer data
I0522 11:44:40.650512 31633 net.cpp:399] data -> data
I0522 11:44:40.650552 31633 net.cpp:399] data -> label
I0522 11:44:40.650866 31633 dense_image_data_layer.cpp:38] Opening file data/train.txt
I0522 11:44:40.652927 31633 dense_image_data_layer.cpp:48] Shuffling data
I0522 11:44:40.653432 31633 dense_image_data_layer.cpp:53] A total of 4930 examples.
I0522 11:44:40.663463 31633 dense_image_data_layer.cpp:92] output data size: 1,1,224,224
I0522 11:44:40.664908 31633 net.cpp:141] Setting up data
I0522 11:44:40.664937 31633 net.cpp:148] Top shape: 1 1 224 224 (50176)
I0522 11:44:40.664942 31633 net.cpp:148] Top shape: 1 1 224 224 (50176)
I0522 11:44:40.664943 31633 net.cpp:156] Memory required for data: 401408
I0522 11:44:40.664950 31633 layer_factory.hpp:77] Creating layer label_data_1_split
I0522 11:44:40.664964 31633 net.cpp:91] Creating Layer label_data_1_split
I0522 11:44:40.664969 31633 net.cpp:425] label_data_1_split <- label
I0522 11:44:40.664978 31633 net.cpp:399] label_data_1_split -> label_data_1_split_0
I0522 11:44:40.664988 31633 net.cpp:399] label_data_1_split -> label_data_1_split_1
I0522 11:44:40.665019 31633 net.cpp:141] Setting up label_data_1_split
I0522 11:44:40.665024 31633 net.cpp:148] Top shape: 1 1 224 224 (50176)
I0522 11:44:40.665029 31633 net.cpp:148] Top shape: 1 1 224 224 (50176)
I0522 11:44:40.665030 31633 net.cpp:156] Memory required for data: 802816
I0522 11:44:40.665033 31633 layer_factory.hpp:77] Creating layer conv1_1
I0522 11:44:40.665056 31633 net.cpp:91] Creating Layer conv1_1
I0522 11:44:40.665060 31633 net.cpp:425] conv1_1 <- data
I0522 11:44:40.665063 31633 net.cpp:399] conv1_1 -> conv1_1
I0522 11:44:40.804296 31633 net.cpp:141] Setting up conv1_1
I0522 11:44:40.804328 31633 net.cpp:148] Top shape: 1 16 224 224 (802816)
I0522 11:44:40.804332 31633 net.cpp:156] Memory required for data: 4014080
I0522 11:44:40.804345 31633 layer_factory.hpp:77] Creating layer bn1_1
I0522 11:44:40.804359 31633 net.cpp:91] Creating Layer bn1_1
I0522 11:44:40.804375 31633 net.cpp:425] bn1_1 <- conv1_1
I0522 11:44:40.804380 31633 net.cpp:386] bn1_1 -> conv1_1 (in-place)
I0522 11:44:40.804559 31633 net.cpp:141] Setting up bn1_1
I0522 11:44:40.804565 31633 net.cpp:148] Top shape: 1 16 224 224 (802816)
I0522 11:44:40.804568 31633 net.cpp:156] Memory required for data: 7225344
I0522 11:44:40.804585 31633 layer_factory.hpp:77] Creating layer scale1_1
I0522 11:44:40.804594 31633 net.cpp:91] Creating Layer scale1_1
I0522 11:44:40.804595 31633 net.cpp:425] scale1_1 <- conv1_1
I0522 11:44:40.804600 31633 net.cpp:386] scale1_1 -> conv1_1 (in-place)
I0522 11:44:40.804628 31633 layer_factory.hpp:77] Creating layer scale1_1
I0522 11:44:40.804800 31633 net.cpp:141] Setting up scale1_1
I0522 11:44:40.804806 31633 net.cpp:148] Top shape: 1 16 224 224 (802816)
I0522 11:44:40.804808 31633 net.cpp:156] Memory required for data: 10436608
I0522 11:44:40.804823 31633 layer_factory.hpp:77] Creating layer relu1_1
I0522 11:44:40.804829 31633 net.cpp:91] Creating Layer relu1_1
I0522 11:44:40.804831 31633 net.cpp:425] relu1_1 <- conv1_1
I0522 11:44:40.804834 31633 net.cpp:386] relu1_1 -> conv1_1 (in-place)
I0522 11:44:40.805052 31633 net.cpp:141] Setting up relu1_1
I0522 11:44:40.805061 31633 net.cpp:148] Top shape: 1 16 224 224 (802816)
I0522 11:44:40.805063 31633 net.cpp:156] Memory required for data: 13647872
I0522 11:44:40.805066 31633 layer_factory.hpp:77] Creating layer conv1_2
I0522 11:44:40.805083 31633 net.cpp:91] Creating Layer conv1_2
I0522 11:44:40.805086 31633 net.cpp:425] conv1_2 <- conv1_1
I0522 11:44:40.805090 31633 net.cpp:399] conv1_2 -> conv1_2
I0522 11:44:40.806090 31633 net.cpp:141] Setting up conv1_2
I0522 11:44:40.806100 31633 net.cpp:148] Top shape: 1 16 224 224 (802816)
I0522 11:44:40.806103 31633 net.cpp:156] Memory required for data: 16859136
I0522 11:44:40.806107 31633 layer_factory.hpp:77] Creating layer bn1_2
I0522 11:44:40.806123 31633 net.cpp:91] Creating Layer bn1_2
I0522 11:44:40.806125 31633 net.cpp:425] bn1_2 <- conv1_2
I0522 11:44:40.806128 31633 net.cpp:386] bn1_2 -> conv1_2 (in-place)
I0522 11:44:40.806295 31633 net.cpp:141] Setting up bn1_2
I0522 11:44:40.806301 31633 net.cpp:148] Top shape: 1 16 224 224 (802816)
I0522 11:44:40.806303 31633 net.cpp:156] Memory required for data: 20070400
I0522 11:44:40.806320 31633 layer_factory.hpp:77] Creating layer scale1_2
I0522 11:44:40.806329 31633 net.cpp:91] Creating Layer scale1_2
I0522 11:44:40.806330 31633 net.cpp:425] scale1_2 <- conv1_2
I0522 11:44:40.806345 31633 net.cpp:386] scale1_2 -> conv1_2 (in-place)
I0522 11:44:40.806372 31633 layer_factory.hpp:77] Creating layer scale1_2
I0522 11:44:40.806546 31633 net.cpp:141] Setting up scale1_2
I0522 11:44:40.806555 31633 net.cpp:148] Top shape: 1 16 224 224 (802816)
I0522 11:44:40.806558 31633 net.cpp:156] Memory required for data: 23281664
I0522 11:44:40.806565 31633 layer_factory.hpp:77] Creating layer relu1_2
I0522 11:44:40.806572 31633 net.cpp:91] Creating Layer relu1_2
I0522 11:44:40.806597 31633 net.cpp:425] relu1_2 <- conv1_2
I0522 11:44:40.806617 31633 net.cpp:386] relu1_2 -> conv1_2 (in-place)
I0522 11:44:40.806784 31633 net.cpp:141] Setting up relu1_2
I0522 11:44:40.806792 31633 net.cpp:148] Top shape: 1 16 224 224 (802816)
I0522 11:44:40.806805 31633 net.cpp:156] Memory required for data: 26492928
I0522 11:44:40.806807 31633 layer_factory.hpp:77] Creating layer pool1
I0522 11:44:40.806810 31633 layer_factory.cpp:90] cuDNN does not support multiple tops. Using Caffe's own pooling layer.
I0522 11:44:40.806815 31633 net.cpp:91] Creating Layer pool1
I0522 11:44:40.806818 31633 net.cpp:425] pool1 <- conv1_2
I0522 11:44:40.806826 31633 net.cpp:399] pool1 -> pool1
I0522 11:44:40.806835 31633 net.cpp:399] pool1 -> pool1_mask
I0522 11:44:40.806891 31633 net.cpp:141] Setting up pool1
I0522 11:44:40.806898 31633 net.cpp:148] Top shape: 1 16 112 112 (200704)
I0522 11:44:40.806911 31633 net.cpp:148] Top shape: 1 16 112 112 (200704)
I0522 11:44:40.806913 31633 net.cpp:156] Memory required for data: 28098560
I0522 11:44:40.806915 31633 layer_factory.hpp:77] Creating layer conv2_1
I0522 11:44:40.806922 31633 net.cpp:91] Creating Layer conv2_1
I0522 11:44:40.806924 31633 net.cpp:425] conv2_1 <- pool1
I0522 11:44:40.806928 31633 net.cpp:399] conv2_1 -> conv2_1
I0522 11:44:40.808131 31633 net.cpp:141] Setting up conv2_1
I0522 11:44:40.808141 31633 net.cpp:148] Top shape: 1 32 112 112 (401408)
I0522 11:44:40.808145 31633 net.cpp:156] Memory required for data: 29704192
I0522 11:44:40.808148 31633 layer_factory.hpp:77] Creating layer bn2_1
I0522 11:44:40.808154 31633 net.cpp:91] Creating Layer bn2_1
I0522 11:44:40.808156 31633 net.cpp:425] bn2_1 <- conv2_1
I0522 11:44:40.808161 31633 net.cpp:386] bn2_1 -> conv2_1 (in-place)
I0522 11:44:40.808310 31633 net.cpp:141] Setting up bn2_1
I0522 11:44:40.808315 31633 net.cpp:148] Top shape: 1 32 112 112 (401408)
I0522 11:44:40.808326 31633 net.cpp:156] Memory required for data: 31309824
I0522 11:44:40.808331 31633 layer_factory.hpp:77] Creating layer scale2_1
I0522 11:44:40.808338 31633 net.cpp:91] Creating Layer scale2_1
I0522 11:44:40.808341 31633 net.cpp:425] scale2_1 <- conv2_1
I0522 11:44:40.808343 31633 net.cpp:386] scale2_1 -> conv2_1 (in-place)
I0522 11:44:40.808379 31633 layer_factory.hpp:77] Creating layer scale2_1
I0522 11:44:40.808485 31633 net.cpp:141] Setting up scale2_1
I0522 11:44:40.808490 31633 net.cpp:148] Top shape: 1 32 112 112 (401408)
I0522 11:44:40.808501 31633 net.cpp:156] Memory required for data: 32915456
I0522 11:44:40.808509 31633 layer_factory.hpp:77] Creating layer relu2_1
I0522 11:44:40.808513 31633 net.cpp:91] Creating Layer relu2_1
I0522 11:44:40.808516 31633 net.cpp:425] relu2_1 <- conv2_1
I0522 11:44:40.808518 31633 net.cpp:386] relu2_1 -> conv2_1 (in-place)
I0522 11:44:40.808647 31633 net.cpp:141] Setting up relu2_1
I0522 11:44:40.808653 31633 net.cpp:148] Top shape: 1 32 112 112 (401408)
I0522 11:44:40.808665 31633 net.cpp:156] Memory required for data: 34521088
I0522 11:44:40.808667 31633 layer_factory.hpp:77] Creating layer conv2_2
I0522 11:44:40.808675 31633 net.cpp:91] Creating Layer conv2_2
I0522 11:44:40.808676 31633 net.cpp:425] conv2_2 <- conv2_1
I0522 11:44:40.808681 31633 net.cpp:399] conv2_2 -> conv2_2
I0522 11:44:40.809695 31633 net.cpp:141] Setting up conv2_2
I0522 11:44:40.809705 31633 net.cpp:148] Top shape: 1 32 112 112 (401408)
I0522 11:44:40.809707 31633 net.cpp:156] Memory required for data: 36126720
I0522 11:44:40.809711 31633 layer_factory.hpp:77] Creating layer bn2_2
I0522 11:44:40.809727 31633 net.cpp:91] Creating Layer bn2_2
I0522 11:44:40.809731 31633 net.cpp:425] bn2_2 <- conv2_2
I0522 11:44:40.809734 31633 net.cpp:386] bn2_2 -> conv2_2 (in-place)
I0522 11:44:40.809867 31633 net.cpp:141] Setting up bn2_2
I0522 11:44:40.809873 31633 net.cpp:148] Top shape: 1 32 112 112 (401408)
I0522 11:44:40.809885 31633 net.cpp:156] Memory required for data: 37732352
I0522 11:44:40.809890 31633 layer_factory.hpp:77] Creating layer scale2_2
I0522 11:44:40.809896 31633 net.cpp:91] Creating Layer scale2_2
I0522 11:44:40.809898 31633 net.cpp:425] scale2_2 <- conv2_2
I0522 11:44:40.809902 31633 net.cpp:386] scale2_2 -> conv2_2 (in-place)
I0522 11:44:40.809937 31633 layer_factory.hpp:77] Creating layer scale2_2
I0522 11:44:40.810040 31633 net.cpp:141] Setting up scale2_2
I0522 11:44:40.810045 31633 net.cpp:148] Top shape: 1 32 112 112 (401408)
I0522 11:44:40.810056 31633 net.cpp:156] Memory required for data: 39337984
I0522 11:44:40.810060 31633 layer_factory.hpp:77] Creating layer relu2_2
I0522 11:44:40.810065 31633 net.cpp:91] Creating Layer relu2_2
I0522 11:44:40.810067 31633 net.cpp:425] relu2_2 <- conv2_2
I0522 11:44:40.810070 31633 net.cpp:386] relu2_2 -> conv2_2 (in-place)
I0522 11:44:40.810287 31633 net.cpp:141] Setting up relu2_2
I0522 11:44:40.810295 31633 net.cpp:148] Top shape: 1 32 112 112 (401408)
I0522 11:44:40.810307 31633 net.cpp:156] Memory required for data: 40943616
I0522 11:44:40.810310 31633 layer_factory.hpp:77] Creating layer pool2
I0522 11:44:40.810312 31633 layer_factory.cpp:90] cuDNN does not support multiple tops. Using Caffe's own pooling layer.
I0522 11:44:40.810317 31633 net.cpp:91] Creating Layer pool2
I0522 11:44:40.810318 31633 net.cpp:425] pool2 <- conv2_2
I0522 11:44:40.810323 31633 net.cpp:399] pool2 -> pool2
I0522 11:44:40.810328 31633 net.cpp:399] pool2 -> pool2_mask
I0522 11:44:40.810360 31633 net.cpp:141] Setting up pool2
I0522 11:44:40.810364 31633 net.cpp:148] Top shape: 1 32 56 56 (100352)
I0522 11:44:40.810367 31633 net.cpp:148] Top shape: 1 32 56 56 (100352)
I0522 11:44:40.810369 31633 net.cpp:156] Memory required for data: 41746432
I0522 11:44:40.810371 31633 layer_factory.hpp:77] Creating layer conv3_1
I0522 11:44:40.810379 31633 net.cpp:91] Creating Layer conv3_1
I0522 11:44:40.810380 31633 net.cpp:425] conv3_1 <- pool2
I0522 11:44:40.810384 31633 net.cpp:399] conv3_1 -> conv3_1
I0522 11:44:40.811619 31633 net.cpp:141] Setting up conv3_1
I0522 11:44:40.811638 31633 net.cpp:148] Top shape: 1 64 56 56 (200704)
I0522 11:44:40.811640 31633 net.cpp:156] Memory required for data: 42549248
I0522 11:44:40.811645 31633 layer_factory.hpp:77] Creating layer bn3_1
I0522 11:44:40.811650 31633 net.cpp:91] Creating Layer bn3_1
I0522 11:44:40.811652 31633 net.cpp:425] bn3_1 <- conv3_1
I0522 11:44:40.811657 31633 net.cpp:386] bn3_1 -> conv3_1 (in-place)
I0522 11:44:40.811805 31633 net.cpp:141] Setting up bn3_1
I0522 11:44:40.811811 31633 net.cpp:148] Top shape: 1 64 56 56 (200704)
I0522 11:44:40.811823 31633 net.cpp:156] Memory required for data: 43352064
I0522 11:44:40.811828 31633 layer_factory.hpp:77] Creating layer scale3_1
I0522 11:44:40.811835 31633 net.cpp:91] Creating Layer scale3_1
I0522 11:44:40.811836 31633 net.cpp:425] scale3_1 <- conv3_1
I0522 11:44:40.811839 31633 net.cpp:386] scale3_1 -> conv3_1 (in-place)
I0522 11:44:40.811875 31633 layer_factory.hpp:77] Creating layer scale3_1
I0522 11:44:40.811980 31633 net.cpp:141] Setting up scale3_1
I0522 11:44:40.811983 31633 net.cpp:148] Top shape: 1 64 56 56 (200704)
I0522 11:44:40.811996 31633 net.cpp:156] Memory required for data: 44154880
I0522 11:44:40.812000 31633 layer_factory.hpp:77] Creating layer relu3_1
I0522 11:44:40.812003 31633 net.cpp:91] Creating Layer relu3_1
I0522 11:44:40.812005 31633 net.cpp:425] relu3_1 <- conv3_1
I0522 11:44:40.812010 31633 net.cpp:386] relu3_1 -> conv3_1 (in-place)
I0522 11:44:40.812137 31633 net.cpp:141] Setting up relu3_1
I0522 11:44:40.812144 31633 net.cpp:148] Top shape: 1 64 56 56 (200704)
I0522 11:44:40.812155 31633 net.cpp:156] Memory required for data: 44957696
I0522 11:44:40.812166 31633 layer_factory.hpp:77] Creating layer conv3_2
I0522 11:44:40.812173 31633 net.cpp:91] Creating Layer conv3_2
I0522 11:44:40.812175 31633 net.cpp:425] conv3_2 <- conv3_1
I0522 11:44:40.812180 31633 net.cpp:399] conv3_2 -> conv3_2
I0522 11:44:40.813752 31633 net.cpp:141] Setting up conv3_2
I0522 11:44:40.813761 31633 net.cpp:148] Top shape: 1 64 56 56 (200704)
I0522 11:44:40.813774 31633 net.cpp:156] Memory required for data: 45760512
I0522 11:44:40.813778 31633 layer_factory.hpp:77] Creating layer bn3_2
I0522 11:44:40.813784 31633 net.cpp:91] Creating Layer bn3_2
I0522 11:44:40.813787 31633 net.cpp:425] bn3_2 <- conv3_2
I0522 11:44:40.813791 31633 net.cpp:386] bn3_2 -> conv3_2 (in-place)
I0522 11:44:40.813936 31633 net.cpp:141] Setting up bn3_2
I0522 11:44:40.813941 31633 net.cpp:148] Top shape: 1 64 56 56 (200704)
I0522 11:44:40.813953 31633 net.cpp:156] Memory required for data: 46563328
I0522 11:44:40.813961 31633 layer_factory.hpp:77] Creating layer scale3_2
I0522 11:44:40.813967 31633 net.cpp:91] Creating Layer scale3_2
I0522 11:44:40.813969 31633 net.cpp:425] scale3_2 <- conv3_2
I0522 11:44:40.813973 31633 net.cpp:386] scale3_2 -> conv3_2 (in-place)
I0522 11:44:40.814012 31633 layer_factory.hpp:77] Creating layer scale3_2
I0522 11:44:40.814112 31633 net.cpp:141] Setting up scale3_2
I0522 11:44:40.814117 31633 net.cpp:148] Top shape: 1 64 56 56 (200704)
I0522 11:44:40.814129 31633 net.cpp:156] Memory required for data: 47366144
I0522 11:44:40.814133 31633 layer_factory.hpp:77] Creating layer relu3_2
I0522 11:44:40.814138 31633 net.cpp:91] Creating Layer relu3_2
I0522 11:44:40.814141 31633 net.cpp:425] relu3_2 <- conv3_2
I0522 11:44:40.814143 31633 net.cpp:386] relu3_2 -> conv3_2 (in-place)
I0522 11:44:40.814270 31633 net.cpp:141] Setting up relu3_2
I0522 11:44:40.814276 31633 net.cpp:148] Top shape: 1 64 56 56 (200704)
I0522 11:44:40.814278 31633 net.cpp:156] Memory required for data: 48168960
I0522 11:44:40.814280 31633 layer_factory.hpp:77] Creating layer pool3
I0522 11:44:40.814283 31633 layer_factory.cpp:90] cuDNN does not support multiple tops. Using Caffe's own pooling layer.
I0522 11:44:40.814286 31633 net.cpp:91] Creating Layer pool3
I0522 11:44:40.814297 31633 net.cpp:425] pool3 <- conv3_2
I0522 11:44:40.814301 31633 net.cpp:399] pool3 -> pool3
I0522 11:44:40.814306 31633 net.cpp:399] pool3 -> pool3_mask
I0522 11:44:40.814333 31633 net.cpp:141] Setting up pool3
I0522 11:44:40.814338 31633 net.cpp:148] Top shape: 1 64 28 28 (50176)
I0522 11:44:40.814342 31633 net.cpp:148] Top shape: 1 64 28 28 (50176)
I0522 11:44:40.814343 31633 net.cpp:156] Memory required for data: 48570368
I0522 11:44:40.814344 31633 layer_factory.hpp:77] Creating layer conv4_1
I0522 11:44:40.814352 31633 net.cpp:91] Creating Layer conv4_1
I0522 11:44:40.814353 31633 net.cpp:425] conv4_1 <- pool3
I0522 11:44:40.814357 31633 net.cpp:399] conv4_1 -> conv4_1
I0522 11:44:40.817687 31633 net.cpp:141] Setting up conv4_1
I0522 11:44:40.817710 31633 net.cpp:148] Top shape: 1 128 28 28 (100352)
I0522 11:44:40.817713 31633 net.cpp:156] Memory required for data: 48971776
I0522 11:44:40.817718 31633 layer_factory.hpp:77] Creating layer bn4_1
I0522 11:44:40.817725 31633 net.cpp:91] Creating Layer bn4_1
I0522 11:44:40.817729 31633 net.cpp:425] bn4_1 <- conv4_1
I0522 11:44:40.817734 31633 net.cpp:386] bn4_1 -> conv4_1 (in-place)
I0522 11:44:40.818177 31633 net.cpp:141] Setting up bn4_1
I0522 11:44:40.818186 31633 net.cpp:148] Top shape: 1 128 28 28 (100352)
I0522 11:44:40.818198 31633 net.cpp:156] Memory required for data: 49373184
I0522 11:44:40.818204 31633 layer_factory.hpp:77] Creating layer scale4_1
I0522 11:44:40.818210 31633 net.cpp:91] Creating Layer scale4_1
I0522 11:44:40.818213 31633 net.cpp:425] scale4_1 <- conv4_1
I0522 11:44:40.818261 31633 net.cpp:386] scale4_1 -> conv4_1 (in-place)
I0522 11:44:40.818297 31633 layer_factory.hpp:77] Creating layer scale4_1
I0522 11:44:40.818382 31633 net.cpp:141] Setting up scale4_1
I0522 11:44:40.818388 31633 net.cpp:148] Top shape: 1 128 28 28 (100352)
I0522 11:44:40.818390 31633 net.cpp:156] Memory required for data: 49774592
I0522 11:44:40.818405 31633 layer_factory.hpp:77] Creating layer relu4_1
I0522 11:44:40.818414 31633 net.cpp:91] Creating Layer relu4_1
I0522 11:44:40.818418 31633 net.cpp:425] relu4_1 <- conv4_1
I0522 11:44:40.818421 31633 net.cpp:386] relu4_1 -> conv4_1 (in-place)
I0522 11:44:40.818661 31633 net.cpp:141] Setting up relu4_1
I0522 11:44:40.818778 31633 net.cpp:148] Top shape: 1 128 28 28 (100352)
I0522 11:44:40.818800 31633 net.cpp:156] Memory required for data: 50176000
I0522 11:44:40.818807 31633 layer_factory.hpp:77] Creating layer conv4_2
I0522 11:44:40.818819 31633 net.cpp:91] Creating Layer conv4_2
I0522 11:44:40.818825 31633 net.cpp:425] conv4_2 <- conv4_1
I0522 11:44:40.818835 31633 net.cpp:399] conv4_2 -> conv4_2
I0522 11:44:40.823285 31633 net.cpp:141] Setting up conv4_2
I0522 11:44:40.823302 31633 net.cpp:148] Top shape: 1 128 28 28 (100352)
I0522 11:44:40.823307 31633 net.cpp:156] Memory required for data: 50577408
I0522 11:44:40.823314 31633 layer_factory.hpp:77] Creating layer bn4_2
I0522 11:44:40.823323 31633 net.cpp:91] Creating Layer bn4_2
I0522 11:44:40.823330 31633 net.cpp:425] bn4_2 <- conv4_2
I0522 11:44:40.823338 31633 net.cpp:386] bn4_2 -> conv4_2 (in-place)
I0522 11:44:40.823499 31633 net.cpp:141] Setting up bn4_2
I0522 11:44:40.823505 31633 net.cpp:148] Top shape: 1 128 28 28 (100352)
I0522 11:44:40.823508 31633 net.cpp:156] Memory required for data: 50978816
I0522 11:44:40.823523 31633 layer_factory.hpp:77] Creating layer scale4_2
I0522 11:44:40.823529 31633 net.cpp:91] Creating Layer scale4_2
I0522 11:44:40.823531 31633 net.cpp:425] scale4_2 <- conv4_2
I0522 11:44:40.823534 31633 net.cpp:386] scale4_2 -> conv4_2 (in-place)
I0522 11:44:40.823572 31633 layer_factory.hpp:77] Creating layer scale4_2
I0522 11:44:40.823667 31633 net.cpp:141] Setting up scale4_2
I0522 11:44:40.823671 31633 net.cpp:148] Top shape: 1 128 28 28 (100352)
I0522 11:44:40.823683 31633 net.cpp:156] Memory required for data: 51380224
I0522 11:44:40.823688 31633 layer_factory.hpp:77] Creating layer relu4_2
I0522 11:44:40.823693 31633 net.cpp:91] Creating Layer relu4_2
I0522 11:44:40.823694 31633 net.cpp:425] relu4_2 <- conv4_2
I0522 11:44:40.823698 31633 net.cpp:386] relu4_2 -> conv4_2 (in-place)
I0522 11:44:40.823833 31633 net.cpp:141] Setting up relu4_2
I0522 11:44:40.823839 31633 net.cpp:148] Top shape: 1 128 28 28 (100352)
I0522 11:44:40.823851 31633 net.cpp:156] Memory required for data: 51781632
I0522 11:44:40.823854 31633 layer_factory.hpp:77] Creating layer pool4
I0522 11:44:40.823856 31633 layer_factory.cpp:90] cuDNN does not support multiple tops. Using Caffe's own pooling layer.
I0522 11:44:40.823861 31633 net.cpp:91] Creating Layer pool4
I0522 11:44:40.823863 31633 net.cpp:425] pool4 <- conv4_2
I0522 11:44:40.823868 31633 net.cpp:399] pool4 -> pool4
I0522 11:44:40.823873 31633 net.cpp:399] pool4 -> pool4_mask
I0522 11:44:40.823912 31633 net.cpp:141] Setting up pool4
I0522 11:44:40.823916 31633 net.cpp:148] Top shape: 1 128 14 14 (25088)
I0522 11:44:40.823930 31633 net.cpp:148] Top shape: 1 128 14 14 (25088)
I0522 11:44:40.823931 31633 net.cpp:156] Memory required for data: 51982336
I0522 11:44:40.823935 31633 layer_factory.hpp:77] Creating layer conv5_1
I0522 11:44:40.823941 31633 net.cpp:91] Creating Layer conv5_1
I0522 11:44:40.823943 31633 net.cpp:425] conv5_1 <- pool4
I0522 11:44:40.823947 31633 net.cpp:399] conv5_1 -> conv5_1
I0522 11:44:40.828321 31633 net.cpp:141] Setting up conv5_1
I0522 11:44:40.828403 31633 net.cpp:148] Top shape: 1 128 14 14 (25088)
I0522 11:44:40.828408 31633 net.cpp:156] Memory required for data: 52082688
I0522 11:44:40.828424 31633 layer_factory.hpp:77] Creating layer bn5_1
I0522 11:44:40.828431 31633 net.cpp:91] Creating Layer bn5_1
I0522 11:44:40.828434 31633 net.cpp:425] bn5_1 <- conv5_1
I0522 11:44:40.828438 31633 net.cpp:386] bn5_1 -> conv5_1 (in-place)
I0522 11:44:40.828590 31633 net.cpp:141] Setting up bn5_1
I0522 11:44:40.828595 31633 net.cpp:148] Top shape: 1 128 14 14 (25088)
I0522 11:44:40.828608 31633 net.cpp:156] Memory required for data: 52183040
I0522 11:44:40.828624 31633 layer_factory.hpp:77] Creating layer scale5_1
I0522 11:44:40.828629 31633 net.cpp:91] Creating Layer scale5_1
I0522 11:44:40.828631 31633 net.cpp:425] scale5_1 <- conv5_1
I0522 11:44:40.828693 31633 net.cpp:386] scale5_1 -> conv5_1 (in-place)
I0522 11:44:40.828737 31633 layer_factory.hpp:77] Creating layer scale5_1
I0522 11:44:40.828835 31633 net.cpp:141] Setting up scale5_1
I0522 11:44:40.828840 31633 net.cpp:148] Top shape: 1 128 14 14 (25088)
I0522 11:44:40.828851 31633 net.cpp:156] Memory required for data: 52283392
I0522 11:44:40.828855 31633 layer_factory.hpp:77] Creating layer relu5_1
I0522 11:44:40.828860 31633 net.cpp:91] Creating Layer relu5_1
I0522 11:44:40.828862 31633 net.cpp:425] relu5_1 <- conv5_1
I0522 11:44:40.828866 31633 net.cpp:386] relu5_1 -> conv5_1 (in-place)
I0522 11:44:40.828999 31633 net.cpp:141] Setting up relu5_1
I0522 11:44:40.829005 31633 net.cpp:148] Top shape: 1 128 14 14 (25088)
I0522 11:44:40.829017 31633 net.cpp:156] Memory required for data: 52383744
I0522 11:44:40.829020 31633 layer_factory.hpp:77] Creating layer conv5_2
I0522 11:44:40.829026 31633 net.cpp:91] Creating Layer conv5_2
I0522 11:44:40.829028 31633 net.cpp:425] conv5_2 <- conv5_1
I0522 11:44:40.829032 31633 net.cpp:399] conv5_2 -> conv5_2
I0522 11:44:40.835355 31633 net.cpp:141] Setting up conv5_2
I0522 11:44:40.835377 31633 net.cpp:148] Top shape: 1 128 14 14 (25088)
I0522 11:44:40.835381 31633 net.cpp:156] Memory required for data: 52484096
I0522 11:44:40.835386 31633 layer_factory.hpp:77] Creating layer bn5_2
I0522 11:44:40.835392 31633 net.cpp:91] Creating Layer bn5_2
I0522 11:44:40.835396 31633 net.cpp:425] bn5_2 <- conv5_2
I0522 11:44:40.835402 31633 net.cpp:386] bn5_2 -> conv5_2 (in-place)
I0522 11:44:40.835551 31633 net.cpp:141] Setting up bn5_2
I0522 11:44:40.835556 31633 net.cpp:148] Top shape: 1 128 14 14 (25088)
I0522 11:44:40.835567 31633 net.cpp:156] Memory required for data: 52584448
I0522 11:44:40.835572 31633 layer_factory.hpp:77] Creating layer scale5_2
I0522 11:44:40.835578 31633 net.cpp:91] Creating Layer scale5_2
I0522 11:44:40.835580 31633 net.cpp:425] scale5_2 <- conv5_2
I0522 11:44:40.835583 31633 net.cpp:386] scale5_2 -> conv5_2 (in-place)
I0522 11:44:40.835621 31633 layer_factory.hpp:77] Creating layer scale5_2
I0522 11:44:40.835721 31633 net.cpp:141] Setting up scale5_2
I0522 11:44:40.835727 31633 net.cpp:148] Top shape: 1 128 14 14 (25088)
I0522 11:44:40.835739 31633 net.cpp:156] Memory required for data: 52684800
I0522 11:44:40.835743 31633 layer_factory.hpp:77] Creating layer relu5_2
I0522 11:44:40.835748 31633 net.cpp:91] Creating Layer relu5_2
I0522 11:44:40.835752 31633 net.cpp:425] relu5_2 <- conv5_2
I0522 11:44:40.835754 31633 net.cpp:386] relu5_2 -> conv5_2 (in-place)
I0522 11:44:40.836041 31633 net.cpp:141] Setting up relu5_2
I0522 11:44:40.836050 31633 net.cpp:148] Top shape: 1 128 14 14 (25088)
I0522 11:44:40.836062 31633 net.cpp:156] Memory required for data: 52785152
I0522 11:44:40.836064 31633 layer_factory.hpp:77] Creating layer pool5
I0522 11:44:40.836067 31633 layer_factory.cpp:90] cuDNN does not support multiple tops. Using Caffe's own pooling layer.
I0522 11:44:40.836072 31633 net.cpp:91] Creating Layer pool5
I0522 11:44:40.836074 31633 net.cpp:425] pool5 <- conv5_2
I0522 11:44:40.836078 31633 net.cpp:399] pool5 -> pool5
I0522 11:44:40.836083 31633 net.cpp:399] pool5 -> pool5_mask
I0522 11:44:40.836146 31633 net.cpp:141] Setting up pool5
I0522 11:44:40.836153 31633 net.cpp:148] Top shape: 1 128 7 7 (6272)
I0522 11:44:40.836165 31633 net.cpp:148] Top shape: 1 128 7 7 (6272)
I0522 11:44:40.836168 31633 net.cpp:156] Memory required for data: 52835328
I0522 11:44:40.836170 31633 layer_factory.hpp:77] Creating layer upsample5
I0522 11:44:40.836174 31633 net.cpp:91] Creating Layer upsample5
I0522 11:44:40.836177 31633 net.cpp:425] upsample5 <- pool5
I0522 11:44:40.836180 31633 net.cpp:425] upsample5 <- pool5_mask
I0522 11:44:40.836184 31633 net.cpp:399] upsample5 -> pool5_D
I0522 11:44:40.836206 31633 net.cpp:141] Setting up upsample5
I0522 11:44:40.836232 31633 net.cpp:148] Top shape: 1 128 14 14 (25088)
I0522 11:44:40.836235 31633 net.cpp:156] Memory required for data: 52935680
I0522 11:44:40.836236 31633 layer_factory.hpp:77] Creating layer conv5_2_D
I0522 11:44:40.836253 31633 net.cpp:91] Creating Layer conv5_2_D
I0522 11:44:40.836256 31633 net.cpp:425] conv5_2_D <- pool5_D
I0522 11:44:40.836261 31633 net.cpp:399] conv5_2_D -> conv5_2_D
I0522 11:44:40.840905 31633 net.cpp:141] Setting up conv5_2_D
I0522 11:44:40.840930 31633 net.cpp:148] Top shape: 1 128 14 14 (25088)
I0522 11:44:40.840934 31633 net.cpp:156] Memory required for data: 53036032
I0522 11:44:40.840939 31633 layer_factory.hpp:77] Creating layer bn5_2_D
I0522 11:44:40.840946 31633 net.cpp:91] Creating Layer bn5_2_D
I0522 11:44:40.840950 31633 net.cpp:425] bn5_2_D <- conv5_2_D
I0522 11:44:40.840955 31633 net.cpp:386] bn5_2_D -> conv5_2_D (in-place)
I0522 11:44:40.841110 31633 net.cpp:141] Setting up bn5_2_D
I0522 11:44:40.841115 31633 net.cpp:148] Top shape: 1 128 14 14 (25088)
I0522 11:44:40.841127 31633 net.cpp:156] Memory required for data: 53136384
I0522 11:44:40.841133 31633 layer_factory.hpp:77] Creating layer scale5_2_D
I0522 11:44:40.841138 31633 net.cpp:91] Creating Layer scale5_2_D
I0522 11:44:40.841141 31633 net.cpp:425] scale5_2_D <- conv5_2_D
I0522 11:44:40.841145 31633 net.cpp:386] scale5_2_D -> conv5_2_D (in-place)
I0522 11:44:40.841183 31633 layer_factory.hpp:77] Creating layer scale5_2_D
I0522 11:44:40.841286 31633 net.cpp:141] Setting up scale5_2_D
I0522 11:44:40.841291 31633 net.cpp:148] Top shape: 1 128 14 14 (25088)
I0522 11:44:40.841303 31633 net.cpp:156] Memory required for data: 53236736
I0522 11:44:40.841316 31633 layer_factory.hpp:77] Creating layer relu5_2_D
I0522 11:44:40.841322 31633 net.cpp:91] Creating Layer relu5_2_D
I0522 11:44:40.841325 31633 net.cpp:425] relu5_2_D <- conv5_2_D
I0522 11:44:40.841328 31633 net.cpp:386] relu5_2_D -> conv5_2_D (in-place)
I0522 11:44:40.841465 31633 net.cpp:141] Setting up relu5_2_D
I0522 11:44:40.841471 31633 net.cpp:148] Top shape: 1 128 14 14 (25088)
I0522 11:44:40.841483 31633 net.cpp:156] Memory required for data: 53337088
I0522 11:44:40.841486 31633 layer_factory.hpp:77] Creating layer conv5_1_D
I0522 11:44:40.841493 31633 net.cpp:91] Creating Layer conv5_1_D
I0522 11:44:40.841496 31633 net.cpp:425] conv5_1_D <- conv5_2_D
I0522 11:44:40.841500 31633 net.cpp:399] conv5_1_D -> conv5_1_D
I0522 11:44:40.845924 31633 net.cpp:141] Setting up conv5_1_D
I0522 11:44:40.845945 31633 net.cpp:148] Top shape: 1 128 14 14 (25088)
I0522 11:44:40.845948 31633 net.cpp:156] Memory required for data: 53437440
I0522 11:44:40.845953 31633 layer_factory.hpp:77] Creating layer bn5_1_D
I0522 11:44:40.845959 31633 net.cpp:91] Creating Layer bn5_1_D
I0522 11:44:40.845962 31633 net.cpp:425] bn5_1_D <- conv5_1_D
I0522 11:44:40.845965 31633 net.cpp:386] bn5_1_D -> conv5_1_D (in-place)
I0522 11:44:40.846118 31633 net.cpp:141] Setting up bn5_1_D
I0522 11:44:40.846125 31633 net.cpp:148] Top shape: 1 128 14 14 (25088)
I0522 11:44:40.846138 31633 net.cpp:156] Memory required for data: 53537792
I0522 11:44:40.846143 31633 layer_factory.hpp:77] Creating layer scale5_1_D
I0522 11:44:40.846148 31633 net.cpp:91] Creating Layer scale5_1_D
I0522 11:44:40.846149 31633 net.cpp:425] scale5_1_D <- conv5_1_D
I0522 11:44:40.846154 31633 net.cpp:386] scale5_1_D -> conv5_1_D (in-place)
I0522 11:44:40.846192 31633 layer_factory.hpp:77] Creating layer scale5_1_D
I0522 11:44:40.846283 31633 net.cpp:141] Setting up scale5_1_D
I0522 11:44:40.846288 31633 net.cpp:148] Top shape: 1 128 14 14 (25088)
I0522 11:44:40.846290 31633 net.cpp:156] Memory required for data: 53638144
I0522 11:44:40.846294 31633 layer_factory.hpp:77] Creating layer relu5_1_D
I0522 11:44:40.846298 31633 net.cpp:91] Creating Layer relu5_1_D
I0522 11:44:40.846302 31633 net.cpp:425] relu5_1_D <- conv5_1_D
I0522 11:44:40.846304 31633 net.cpp:386] relu5_1_D -> conv5_1_D (in-place)
I0522 11:44:40.846434 31633 net.cpp:141] Setting up relu5_1_D
I0522 11:44:40.846441 31633 net.cpp:148] Top shape: 1 128 14 14 (25088)
I0522 11:44:40.846454 31633 net.cpp:156] Memory required for data: 53738496
I0522 11:44:40.846457 31633 layer_factory.hpp:77] Creating layer upsample4
I0522 11:44:40.846462 31633 net.cpp:91] Creating Layer upsample4
I0522 11:44:40.846464 31633 net.cpp:425] upsample4 <- conv5_1_D
I0522 11:44:40.846467 31633 net.cpp:425] upsample4 <- pool4_mask
I0522 11:44:40.846477 31633 net.cpp:399] upsample4 -> pool4_D
I0522 11:44:40.846511 31633 net.cpp:141] Setting up upsample4
I0522 11:44:40.846525 31633 net.cpp:148] Top shape: 1 128 28 28 (100352)
I0522 11:44:40.846527 31633 net.cpp:156] Memory required for data: 54139904
I0522 11:44:40.846529 31633 layer_factory.hpp:77] Creating layer conv4_2_D
I0522 11:44:40.846547 31633 net.cpp:91] Creating Layer conv4_2_D
I0522 11:44:40.846550 31633 net.cpp:425] conv4_2_D <- pool4_D
I0522 11:44:40.846554 31633 net.cpp:399] conv4_2_D -> conv4_2_D
I0522 11:44:40.850999 31633 net.cpp:141] Setting up conv4_2_D
I0522 11:44:40.851021 31633 net.cpp:148] Top shape: 1 128 28 28 (100352)
I0522 11:44:40.851023 31633 net.cpp:156] Memory required for data: 54541312
I0522 11:44:40.851027 31633 layer_factory.hpp:77] Creating layer bn4_2_D
I0522 11:44:40.851034 31633 net.cpp:91] Creating Layer bn4_2_D
I0522 11:44:40.851037 31633 net.cpp:425] bn4_2_D <- conv4_2_D
I0522 11:44:40.851042 31633 net.cpp:386] bn4_2_D -> conv4_2_D (in-place)
I0522 11:44:40.851196 31633 net.cpp:141] Setting up bn4_2_D
I0522 11:44:40.851202 31633 net.cpp:148] Top shape: 1 128 28 28 (100352)
I0522 11:44:40.851203 31633 net.cpp:156] Memory required for data: 54942720
I0522 11:44:40.851208 31633 layer_factory.hpp:77] Creating layer scale4_2_D
I0522 11:44:40.851213 31633 net.cpp:91] Creating Layer scale4_2_D
I0522 11:44:40.851217 31633 net.cpp:425] scale4_2_D <- conv4_2_D
I0522 11:44:40.851219 31633 net.cpp:386] scale4_2_D -> conv4_2_D (in-place)
I0522 11:44:40.851248 31633 layer_factory.hpp:77] Creating layer scale4_2_D
I0522 11:44:40.851326 31633 net.cpp:141] Setting up scale4_2_D
I0522 11:44:40.851331 31633 net.cpp:148] Top shape: 1 128 28 28 (100352)
I0522 11:44:40.851333 31633 net.cpp:156] Memory required for data: 55344128
I0522 11:44:40.851336 31633 layer_factory.hpp:77] Creating layer relu4_2_D
I0522 11:44:40.851341 31633 net.cpp:91] Creating Layer relu4_2_D
I0522 11:44:40.851342 31633 net.cpp:425] relu4_2_D <- conv4_2_D
I0522 11:44:40.851346 31633 net.cpp:386] relu4_2_D -> conv4_2_D (in-place)
I0522 11:44:40.851555 31633 net.cpp:141] Setting up relu4_2_D
I0522 11:44:40.851563 31633 net.cpp:148] Top shape: 1 128 28 28 (100352)
I0522 11:44:40.851575 31633 net.cpp:156] Memory required for data: 55745536
I0522 11:44:40.851577 31633 layer_factory.hpp:77] Creating layer conv4_1_D
I0522 11:44:40.851586 31633 net.cpp:91] Creating Layer conv4_1_D
I0522 11:44:40.851589 31633 net.cpp:425] conv4_1_D <- conv4_2_D
I0522 11:44:40.851594 31633 net.cpp:399] conv4_1_D -> conv4_1_D
I0522 11:44:40.854034 31633 net.cpp:141] Setting up conv4_1_D
I0522 11:44:40.854043 31633 net.cpp:148] Top shape: 1 64 28 28 (50176)
I0522 11:44:40.854056 31633 net.cpp:156] Memory required for data: 55946240
I0522 11:44:40.854060 31633 layer_factory.hpp:77] Creating layer bn4_1_D
I0522 11:44:40.854066 31633 net.cpp:91] Creating Layer bn4_1_D
I0522 11:44:40.854069 31633 net.cpp:425] bn4_1_D <- conv4_1_D
I0522 11:44:40.854073 31633 net.cpp:386] bn4_1_D -> conv4_1_D (in-place)
I0522 11:44:40.854233 31633 net.cpp:141] Setting up bn4_1_D
I0522 11:44:40.854238 31633 net.cpp:148] Top shape: 1 64 28 28 (50176)
I0522 11:44:40.854250 31633 net.cpp:156] Memory required for data: 56146944
I0522 11:44:40.854255 31633 layer_factory.hpp:77] Creating layer scale4_1_D
I0522 11:44:40.854260 31633 net.cpp:91] Creating Layer scale4_1_D
I0522 11:44:40.854262 31633 net.cpp:425] scale4_1_D <- conv4_1_D
I0522 11:44:40.854265 31633 net.cpp:386] scale4_1_D -> conv4_1_D (in-place)
I0522 11:44:40.854306 31633 layer_factory.hpp:77] Creating layer scale4_1_D
I0522 11:44:40.854414 31633 net.cpp:141] Setting up scale4_1_D
I0522 11:44:40.854419 31633 net.cpp:148] Top shape: 1 64 28 28 (50176)
I0522 11:44:40.854440 31633 net.cpp:156] Memory required for data: 56347648
I0522 11:44:40.854444 31633 layer_factory.hpp:77] Creating layer relu4_1_D
I0522 11:44:40.854454 31633 net.cpp:91] Creating Layer relu4_1_D
I0522 11:44:40.854457 31633 net.cpp:425] relu4_1_D <- conv4_1_D
I0522 11:44:40.854461 31633 net.cpp:386] relu4_1_D -> conv4_1_D (in-place)
I0522 11:44:40.854624 31633 net.cpp:141] Setting up relu4_1_D
I0522 11:44:40.854631 31633 net.cpp:148] Top shape: 1 64 28 28 (50176)
I0522 11:44:40.854645 31633 net.cpp:156] Memory required for data: 56548352
I0522 11:44:40.854647 31633 layer_factory.hpp:77] Creating layer upsample3
I0522 11:44:40.854651 31633 net.cpp:91] Creating Layer upsample3
I0522 11:44:40.854653 31633 net.cpp:425] upsample3 <- conv4_1_D
I0522 11:44:40.854656 31633 net.cpp:425] upsample3 <- pool3_mask
I0522 11:44:40.854660 31633 net.cpp:399] upsample3 -> pool3_D
I0522 11:44:40.854682 31633 net.cpp:141] Setting up upsample3
I0522 11:44:40.854686 31633 net.cpp:148] Top shape: 1 64 56 56 (200704)
I0522 11:44:40.854688 31633 net.cpp:156] Memory required for data: 57351168
I0522 11:44:40.854691 31633 layer_factory.hpp:77] Creating layer conv3_2_D
I0522 11:44:40.854697 31633 net.cpp:91] Creating Layer conv3_2_D
I0522 11:44:40.854701 31633 net.cpp:425] conv3_2_D <- pool3_D
I0522 11:44:40.854706 31633 net.cpp:399] conv3_2_D -> conv3_2_D
I0522 11:44:40.856408 31633 net.cpp:141] Setting up conv3_2_D
I0522 11:44:40.856427 31633 net.cpp:148] Top shape: 1 64 56 56 (200704)
I0522 11:44:40.856431 31633 net.cpp:156] Memory required for data: 58153984
I0522 11:44:40.856436 31633 layer_factory.hpp:77] Creating layer bn3_2_D
I0522 11:44:40.856441 31633 net.cpp:91] Creating Layer bn3_2_D
I0522 11:44:40.856443 31633 net.cpp:425] bn3_2_D <- conv3_2_D
I0522 11:44:40.856447 31633 net.cpp:386] bn3_2_D -> conv3_2_D (in-place)
I0522 11:44:40.856611 31633 net.cpp:141] Setting up bn3_2_D
I0522 11:44:40.856616 31633 net.cpp:148] Top shape: 1 64 56 56 (200704)
I0522 11:44:40.856619 31633 net.cpp:156] Memory required for data: 58956800
I0522 11:44:40.856623 31633 layer_factory.hpp:77] Creating layer scale3_2_D
I0522 11:44:40.856628 31633 net.cpp:91] Creating Layer scale3_2_D
I0522 11:44:40.856631 31633 net.cpp:425] scale3_2_D <- conv3_2_D
I0522 11:44:40.856634 31633 net.cpp:386] scale3_2_D -> conv3_2_D (in-place)
I0522 11:44:40.856663 31633 layer_factory.hpp:77] Creating layer scale3_2_D
I0522 11:44:40.856755 31633 net.cpp:141] Setting up scale3_2_D
I0522 11:44:40.856760 31633 net.cpp:148] Top shape: 1 64 56 56 (200704)
I0522 11:44:40.856761 31633 net.cpp:156] Memory required for data: 59759616
I0522 11:44:40.856765 31633 layer_factory.hpp:77] Creating layer relu3_2_D
I0522 11:44:40.856768 31633 net.cpp:91] Creating Layer relu3_2_D
I0522 11:44:40.856770 31633 net.cpp:425] relu3_2_D <- conv3_2_D
I0522 11:44:40.856775 31633 net.cpp:386] relu3_2_D -> conv3_2_D (in-place)
I0522 11:44:40.856921 31633 net.cpp:141] Setting up relu3_2_D
I0522 11:44:40.856927 31633 net.cpp:148] Top shape: 1 64 56 56 (200704)
I0522 11:44:40.856940 31633 net.cpp:156] Memory required for data: 60562432
I0522 11:44:40.856942 31633 layer_factory.hpp:77] Creating layer conv3_1_D
I0522 11:44:40.856950 31633 net.cpp:91] Creating Layer conv3_1_D
I0522 11:44:40.856951 31633 net.cpp:425] conv3_1_D <- conv3_2_D
I0522 11:44:40.856956 31633 net.cpp:399] conv3_1_D -> conv3_1_D
I0522 11:44:40.858636 31633 net.cpp:141] Setting up conv3_1_D
I0522 11:44:40.858657 31633 net.cpp:148] Top shape: 1 32 56 56 (100352)
I0522 11:44:40.858659 31633 net.cpp:156] Memory required for data: 60963840
I0522 11:44:40.858664 31633 layer_factory.hpp:77] Creating layer bn3_1_D
I0522 11:44:40.858669 31633 net.cpp:91] Creating Layer bn3_1_D
I0522 11:44:40.858674 31633 net.cpp:425] bn3_1_D <- conv3_1_D
I0522 11:44:40.858676 31633 net.cpp:386] bn3_1_D -> conv3_1_D (in-place)
I0522 11:44:40.858840 31633 net.cpp:141] Setting up bn3_1_D
I0522 11:44:40.858845 31633 net.cpp:148] Top shape: 1 32 56 56 (100352)
I0522 11:44:40.858858 31633 net.cpp:156] Memory required for data: 61365248
I0522 11:44:40.858862 31633 layer_factory.hpp:77] Creating layer scale3_1_D
I0522 11:44:40.858887 31633 net.cpp:91] Creating Layer scale3_1_D
I0522 11:44:40.858889 31633 net.cpp:425] scale3_1_D <- conv3_1_D
I0522 11:44:40.858893 31633 net.cpp:386] scale3_1_D -> conv3_1_D (in-place)
I0522 11:44:40.858927 31633 layer_factory.hpp:77] Creating layer scale3_1_D
I0522 11:44:40.859061 31633 net.cpp:141] Setting up scale3_1_D
I0522 11:44:40.859078 31633 net.cpp:148] Top shape: 1 32 56 56 (100352)
I0522 11:44:40.859081 31633 net.cpp:156] Memory required for data: 61766656
I0522 11:44:40.859086 31633 layer_factory.hpp:77] Creating layer relu3_1_D
I0522 11:44:40.859089 31633 net.cpp:91] Creating Layer relu3_1_D
I0522 11:44:40.859091 31633 net.cpp:425] relu3_1_D <- conv3_1_D
I0522 11:44:40.859094 31633 net.cpp:386] relu3_1_D -> conv3_1_D (in-place)
I0522 11:44:40.859345 31633 net.cpp:141] Setting up relu3_1_D
I0522 11:44:40.859354 31633 net.cpp:148] Top shape: 1 32 56 56 (100352)
I0522 11:44:40.859371 31633 net.cpp:156] Memory required for data: 62168064
I0522 11:44:40.859374 31633 layer_factory.hpp:77] Creating layer upsample2
I0522 11:44:40.859378 31633 net.cpp:91] Creating Layer upsample2
I0522 11:44:40.859380 31633 net.cpp:425] upsample2 <- conv3_1_D
I0522 11:44:40.859385 31633 net.cpp:425] upsample2 <- pool2_mask
I0522 11:44:40.859397 31633 net.cpp:399] upsample2 -> pool2_D
I0522 11:44:40.859421 31633 net.cpp:141] Setting up upsample2
I0522 11:44:40.859426 31633 net.cpp:148] Top shape: 1 32 112 112 (401408)
I0522 11:44:40.859428 31633 net.cpp:156] Memory required for data: 63773696
I0522 11:44:40.859431 31633 layer_factory.hpp:77] Creating layer conv2_2_D
I0522 11:44:40.859436 31633 net.cpp:91] Creating Layer conv2_2_D
I0522 11:44:40.859438 31633 net.cpp:425] conv2_2_D <- pool2_D
I0522 11:44:40.859442 31633 net.cpp:399] conv2_2_D -> conv2_2_D
I0522 11:44:40.860363 31633 net.cpp:141] Setting up conv2_2_D
I0522 11:44:40.860373 31633 net.cpp:148] Top shape: 1 32 112 112 (401408)
I0522 11:44:40.860384 31633 net.cpp:156] Memory required for data: 65379328
I0522 11:44:40.860388 31633 layer_factory.hpp:77] Creating layer bn2_2_D
I0522 11:44:40.860394 31633 net.cpp:91] Creating Layer bn2_2_D
I0522 11:44:40.860396 31633 net.cpp:425] bn2_2_D <- conv2_2_D
I0522 11:44:40.860400 31633 net.cpp:386] bn2_2_D -> conv2_2_D (in-place)
I0522 11:44:40.860580 31633 net.cpp:141] Setting up bn2_2_D
I0522 11:44:40.860587 31633 net.cpp:148] Top shape: 1 32 112 112 (401408)
I0522 11:44:40.860599 31633 net.cpp:156] Memory required for data: 66984960
I0522 11:44:40.860605 31633 layer_factory.hpp:77] Creating layer scale2_2_D
I0522 11:44:40.860610 31633 net.cpp:91] Creating Layer scale2_2_D
I0522 11:44:40.860611 31633 net.cpp:425] scale2_2_D <- conv2_2_D
I0522 11:44:40.860615 31633 net.cpp:386] scale2_2_D -> conv2_2_D (in-place)
I0522 11:44:40.860658 31633 layer_factory.hpp:77] Creating layer scale2_2_D
I0522 11:44:40.860779 31633 net.cpp:141] Setting up scale2_2_D
I0522 11:44:40.860783 31633 net.cpp:148] Top shape: 1 32 112 112 (401408)
I0522 11:44:40.860795 31633 net.cpp:156] Memory required for data: 68590592
I0522 11:44:40.860798 31633 layer_factory.hpp:77] Creating layer relu2_2_D
I0522 11:44:40.860802 31633 net.cpp:91] Creating Layer relu2_2_D
I0522 11:44:40.860805 31633 net.cpp:425] relu2_2_D <- conv2_2_D
I0522 11:44:40.860808 31633 net.cpp:386] relu2_2_D -> conv2_2_D (in-place)
I0522 11:44:40.861697 31633 net.cpp:141] Setting up relu2_2_D
I0522 11:44:40.861704 31633 net.cpp:148] Top shape: 1 32 112 112 (401408)
I0522 11:44:40.861716 31633 net.cpp:156] Memory required for data: 70196224
I0522 11:44:40.861718 31633 layer_factory.hpp:77] Creating layer conv2_1_D
I0522 11:44:40.861726 31633 net.cpp:91] Creating Layer conv2_1_D
I0522 11:44:40.861727 31633 net.cpp:425] conv2_1_D <- conv2_2_D
I0522 11:44:40.861732 31633 net.cpp:399] conv2_1_D -> conv2_1_D
I0522 11:44:40.862622 31633 net.cpp:141] Setting up conv2_1_D
I0522 11:44:40.862642 31633 net.cpp:148] Top shape: 1 16 112 112 (200704)
I0522 11:44:40.862644 31633 net.cpp:156] Memory required for data: 70999040
I0522 11:44:40.862648 31633 layer_factory.hpp:77] Creating layer bn2_1_D
I0522 11:44:40.862663 31633 net.cpp:91] Creating Layer bn2_1_D
I0522 11:44:40.862666 31633 net.cpp:425] bn2_1_D <- conv2_1_D
I0522 11:44:40.862670 31633 net.cpp:386] bn2_1_D -> conv2_1_D (in-place)
I0522 11:44:40.862843 31633 net.cpp:141] Setting up bn2_1_D
I0522 11:44:40.862848 31633 net.cpp:148] Top shape: 1 16 112 112 (200704)
I0522 11:44:40.862860 31633 net.cpp:156] Memory required for data: 71801856
I0522 11:44:40.862865 31633 layer_factory.hpp:77] Creating layer scale2_1_D
I0522 11:44:40.862870 31633 net.cpp:91] Creating Layer scale2_1_D
I0522 11:44:40.862874 31633 net.cpp:425] scale2_1_D <- conv2_1_D
I0522 11:44:40.862877 31633 net.cpp:386] scale2_1_D -> conv2_1_D (in-place)
I0522 11:44:40.862917 31633 layer_factory.hpp:77] Creating layer scale2_1_D
I0522 11:44:40.863036 31633 net.cpp:141] Setting up scale2_1_D
I0522 11:44:40.863040 31633 net.cpp:148] Top shape: 1 16 112 112 (200704)
I0522 11:44:40.863052 31633 net.cpp:156] Memory required for data: 72604672
I0522 11:44:40.863056 31633 layer_factory.hpp:77] Creating layer relu2_1_D
I0522 11:44:40.863060 31633 net.cpp:91] Creating Layer relu2_1_D
I0522 11:44:40.863064 31633 net.cpp:425] relu2_1_D <- conv2_1_D
I0522 11:44:40.863065 31633 net.cpp:386] relu2_1_D -> conv2_1_D (in-place)
I0522 11:44:40.863203 31633 net.cpp:141] Setting up relu2_1_D
I0522 11:44:40.863209 31633 net.cpp:148] Top shape: 1 16 112 112 (200704)
I0522 11:44:40.863220 31633 net.cpp:156] Memory required for data: 73407488
I0522 11:44:40.863224 31633 layer_factory.hpp:77] Creating layer upsample1
I0522 11:44:40.863229 31633 net.cpp:91] Creating Layer upsample1
I0522 11:44:40.863230 31633 net.cpp:425] upsample1 <- conv2_1_D
I0522 11:44:40.863234 31633 net.cpp:425] upsample1 <- pool1_mask
I0522 11:44:40.863237 31633 net.cpp:399] upsample1 -> pool1_D
I0522 11:44:40.863268 31633 net.cpp:141] Setting up upsample1
I0522 11:44:40.863273 31633 net.cpp:148] Top shape: 1 16 224 224 (802816)
I0522 11:44:40.863276 31633 net.cpp:156] Memory required for data: 76618752
I0522 11:44:40.863287 31633 layer_factory.hpp:77] Creating layer conv1_2_D
I0522 11:44:40.863294 31633 net.cpp:91] Creating Layer conv1_2_D
I0522 11:44:40.863296 31633 net.cpp:425] conv1_2_D <- pool1_D
I0522 11:44:40.863301 31633 net.cpp:399] conv1_2_D -> conv1_2_D
I0522 11:44:40.864138 31633 net.cpp:141] Setting up conv1_2_D
I0522 11:44:40.864159 31633 net.cpp:148] Top shape: 1 16 224 224 (802816)
I0522 11:44:40.864161 31633 net.cpp:156] Memory required for data: 79830016
I0522 11:44:40.864166 31633 layer_factory.hpp:77] Creating layer bn1_2_D
I0522 11:44:40.864171 31633 net.cpp:91] Creating Layer bn1_2_D
I0522 11:44:40.864173 31633 net.cpp:425] bn1_2_D <- conv1_2_D
I0522 11:44:40.864187 31633 net.cpp:386] bn1_2_D -> conv1_2_D (in-place)
I0522 11:44:40.864408 31633 net.cpp:141] Setting up bn1_2_D
I0522 11:44:40.864413 31633 net.cpp:148] Top shape: 1 16 224 224 (802816)
I0522 11:44:40.864425 31633 net.cpp:156] Memory required for data: 83041280
I0522 11:44:40.864431 31633 layer_factory.hpp:77] Creating layer scale1_2_D
I0522 11:44:40.864437 31633 net.cpp:91] Creating Layer scale1_2_D
I0522 11:44:40.864440 31633 net.cpp:425] scale1_2_D <- conv1_2_D
I0522 11:44:40.864444 31633 net.cpp:386] scale1_2_D -> conv1_2_D (in-place)
I0522 11:44:40.864485 31633 layer_factory.hpp:77] Creating layer scale1_2_D
I0522 11:44:40.864678 31633 net.cpp:141] Setting up scale1_2_D
I0522 11:44:40.864683 31633 net.cpp:148] Top shape: 1 16 224 224 (802816)
I0522 11:44:40.864696 31633 net.cpp:156] Memory required for data: 86252544
I0522 11:44:40.864701 31633 layer_factory.hpp:77] Creating layer relu1_2_D
I0522 11:44:40.864704 31633 net.cpp:91] Creating Layer relu1_2_D
I0522 11:44:40.864707 31633 net.cpp:425] relu1_2_D <- conv1_2_D
I0522 11:44:40.864711 31633 net.cpp:386] relu1_2_D -> conv1_2_D (in-place)
I0522 11:44:40.864938 31633 net.cpp:141] Setting up relu1_2_D
I0522 11:44:40.864959 31633 net.cpp:148] Top shape: 1 16 224 224 (802816)
I0522 11:44:40.864962 31633 net.cpp:156] Memory required for data: 89463808
I0522 11:44:40.864976 31633 layer_factory.hpp:77] Creating layer conv1_1_D
I0522 11:44:40.865000 31633 net.cpp:91] Creating Layer conv1_1_D
I0522 11:44:40.865005 31633 net.cpp:425] conv1_1_D <- conv1_2_D
I0522 11:44:40.865011 31633 net.cpp:399] conv1_1_D -> conv1_1_D
I0522 11:44:40.866122 31633 net.cpp:141] Setting up conv1_1_D
I0522 11:44:40.866145 31633 net.cpp:148] Top shape: 1 2 224 224 (100352)
I0522 11:44:40.866149 31633 net.cpp:156] Memory required for data: 89865216
I0522 11:44:40.866155 31633 layer_factory.hpp:77] Creating layer conv1_1_D_conv1_1_D_0_split
I0522 11:44:40.866163 31633 net.cpp:91] Creating Layer conv1_1_D_conv1_1_D_0_split
I0522 11:44:40.866169 31633 net.cpp:425] conv1_1_D_conv1_1_D_0_split <- conv1_1_D
I0522 11:44:40.866175 31633 net.cpp:399] conv1_1_D_conv1_1_D_0_split -> conv1_1_D_conv1_1_D_0_split_0
I0522 11:44:40.866183 31633 net.cpp:399] conv1_1_D_conv1_1_D_0_split -> conv1_1_D_conv1_1_D_0_split_1
I0522 11:44:40.866238 31633 net.cpp:141] Setting up conv1_1_D_conv1_1_D_0_split
I0522 11:44:40.866246 31633 net.cpp:148] Top shape: 1 2 224 224 (100352)
I0522 11:44:40.866261 31633 net.cpp:148] Top shape: 1 2 224 224 (100352)
I0522 11:44:40.866264 31633 net.cpp:156] Memory required for data: 90668032
I0522 11:44:40.866268 31633 layer_factory.hpp:77] Creating layer loss
I0522 11:44:40.866281 31633 net.cpp:91] Creating Layer loss
I0522 11:44:40.866286 31633 net.cpp:425] loss <- conv1_1_D_conv1_1_D_0_split_0
I0522 11:44:40.866302 31633 net.cpp:425] loss <- label_data_1_split_0
I0522 11:44:40.866307 31633 net.cpp:399] loss -> loss
…
