…
I0523 15:14:00.018520 21880 net.cpp:313] The NetState phase (0) differed from the phase (1) specified by a rule in layer data
I0523 15:14:00.018899 21880 net.cpp:49] Initializing net from parameters: 
name: "segnet"
state {
  phase: TRAIN
}
layer {
  name: "data"
  type: "DenseImageData"
  top: "data"
  top: "label"
  include {
    phase: TRAIN
  }
  transform_param {
    crop_size: 224
    mean_value: 100
  }
  dense_image_data_param {
    source: "data/train.txt"
    batch_size: 32
    shuffle: true
    new_height: 224
    new_width: 310
    is_color: false
    root_folder: "data/raw/train/"
  }
}
layer {
  name: "conv1_1"
  type: "Convolution"
  bottom: "data"
  top: "conv1_1"
  param {
    lr_mult: 1
    decay_mult: 1
  }
  convolution_param {
    num_output: 32
    bias_term: false
    pad: 1
    kernel_size: 3
    weight_filler {
      type: "msra"
    }
  }
}
layer {
  name: "bn1_1"
  type: "BatchNorm"
  bottom: "conv1_1"
  top: "conv1_1"
  param {
    lr_mult: 0
  }
  param {
    lr_mult: 0
  }
  param {
    lr_mult: 0
  }
  batch_norm_param {
    use_global_stats: false
  }
}
layer {
  name: "scale1_1"
  type: "Scale"
  bottom: "conv1_1"
  top: "conv1_1"
  param {
    lr_mult: 1
    decay_mult: 1
  }
  param {
    lr_mult: 1
    decay_mult: 1
  }
  scale_param {
    bias_term: true
    bias_filler {
      type: "constant"
      value: 0
    }
  }
}
layer {
  name: "relu1_1"
  type: "ReLU"
  bottom: "conv1_1"
  top: "conv1_1"
}
layer {
  name: "conv1_2"
  type: "Convolution"
  bottom: "conv1_1"
  top: "conv1_2"
  param {
    lr_mult: 1
    decay_mult: 1
  }
  convolution_param {
    num_output: 32
    bias_term: false
    pad: 1
    kernel_size: 3
    weight_filler {
      type: "msra"
    }
  }
}
layer {
  name: "bn1_2"
  type: "BatchNorm"
  bottom: "conv1_2"
  top: "conv1_2"
  param {
    lr_mult: 0
  }
  param {
    lr_mult: 0
  }
  param {
    lr_mult: 0
  }
  batch_norm_param {
    use_global_stats: false
  }
}
layer {
  name: "scale1_2"
  type: "Scale"
  bottom: "conv1_2"
  top: "conv1_2"
  param {
    lr_mult: 1
    decay_mult: 1
  }
  param {
    lr_mult: 1
    decay_mult: 1
  }
  scale_param {
    bias_term: true
    bias_filler {
      type: "constant"
      value: 0
    }
  }
}
layer {
  name: "relu1_2"
  type: "ReLU"
  bottom: "conv1_2"
  top: "conv1_2"
}
layer {
  name: "pool1"
  type: "Pooling"
  bottom: "conv1_2"
  top: "pool1"
  top: "pool1_mask"
  pooling_param {
    pool: MAX
    kernel_size: 2
    stride: 2
  }
}
layer {
  name: "conv2_1"
  type: "Convolution"
  bottom: "pool1"
  top: "conv2_1"
  param {
    lr_mult: 1
    decay_mult: 1
  }
  convolution_param {
    num_output: 64
    bias_term: false
    pad: 1
    kernel_size: 3
    weight_filler {
      type: "msra"
    }
  }
}
layer {
  name: "bn2_1"
  type: "BatchNorm"
  bottom: "conv2_1"
  top: "conv2_1"
  param {
    lr_mult: 0
  }
  param {
    lr_mult: 0
  }
  param {
    lr_mult: 0
  }
  batch_norm_param {
    use_global_stats: false
  }
}
layer {
  name: "scale2_1"
  type: "Scale"
  bottom: "conv2_1"
  top: "conv2_1"
  param {
    lr_mult: 1
    decay_mult: 1
  }
  param {
    lr_mult: 1
    decay_mult: 1
  }
  scale_param {
    bias_term: true
    bias_filler {
      type: "constant"
      value: 0
    }
  }
}
layer {
  name: "relu2_1"
  type: "ReLU"
  bottom: "conv2_1"
  top: "conv2_1"
}
layer {
  name: "conv2_2"
  type: "Convolution"
  bottom: "conv2_1"
  top: "conv2_2"
  param {
    lr_mult: 1
    decay_mult: 1
  }
  convolution_param {
    num_output: 64
    bias_term: false
    pad: 1
    kernel_size: 3
    weight_filler {
      type: "msra"
    }
  }
}
layer {
  name: "bn2_2"
  type: "BatchNorm"
  bottom: "conv2_2"
  top: "conv2_2"
  param {
    lr_mult: 0
  }
  param {
    lr_mult: 0
  }
  param {
    lr_mult: 0
  }
  batch_norm_param {
    use_global_stats: false
  }
}
layer {
  name: "scale2_2"
  type: "Scale"
  bottom: "conv2_2"
  top: "conv2_2"
  param {
    lr_mult: 1
    decay_mult: 1
  }
  param {
    lr_mult: 1
    decay_mult: 1
  }
  scale_param {
    bias_term: true
    bias_filler {
      type: "constant"
      value: 0
    }
  }
}
layer {
  name: "relu2_2"
  type: "ReLU"
  bottom: "conv2_2"
  top: "conv2_2"
}
layer {
  name: "pool2"
  type: "Pooling"
  bottom: "conv2_2"
  top: "pool2"
  top: "pool2_mask"
  pooling_param {
    pool: MAX
    kernel_size: 2
    stride: 2
  }
}
layer {
  name: "conv3_1"
  type: "Convolution"
  bottom: "pool2"
  top: "conv3_1"
  param {
    lr_mult: 1
    decay_mult: 1
  }
  convolution_param {
    num_output: 128
    bias_term: false
    pad: 1
    kernel_size: 3
    weight_filler {
      type: "msra"
    }
  }
}
layer {
  name: "bn3_1"
  type: "BatchNorm"
  bottom: "conv3_1"
  top: "conv3_1"
  param {
    lr_mult: 0
  }
  param {
    lr_mult: 0
  }
  param {
    lr_mult: 0
  }
  batch_norm_param {
    use_global_stats: false
  }
}
layer {
  name: "scale3_1"
  type: "Scale"
  bottom: "conv3_1"
  top: "conv3_1"
  param {
    lr_mult: 1
    decay_mult: 1
  }
  param {
    lr_mult: 1
    decay_mult: 1
  }
  scale_param {
    bias_term: true
    bias_filler {
      type: "constant"
      value: 0
    }
  }
}
layer {
  name: "relu3_1"
  type: "ReLU"
  bottom: "conv3_1"
  top: "conv3_1"
}
layer {
  name: "conv3_2"
  type: "Convolution"
  bottom: "conv3_1"
  top: "conv3_2"
  param {
    lr_mult: 1
    decay_mult: 1
  }
  convolution_param {
    num_output: 128
    bias_term: false
    pad: 1
    kernel_size: 3
    weight_filler {
      type: "msra"
    }
  }
}
layer {
  name: "bn3_2"
  type: "BatchNorm"
  bottom: "conv3_2"
  top: "conv3_2"
  param {
    lr_mult: 0
  }
  param {
    lr_mult: 0
  }
  param {
    lr_mult: 0
  }
  batch_norm_param {
    use_global_stats: false
  }
}
layer {
  name: "scale3_2"
  type: "Scale"
  bottom: "conv3_2"
  top: "conv3_2"
  param {
    lr_mult: 1
    decay_mult: 1
  }
  param {
    lr_mult: 1
    decay_mult: 1
  }
  scale_param {
    bias_term: true
    bias_filler {
      type: "constant"
      value: 0
    }
  }
}
layer {
  name: "relu3_2"
  type: "ReLU"
  bottom: "conv3_2"
  top: "conv3_2"
}
layer {
  name: "pool3"
  type: "Pooling"
  bottom: "conv3_2"
  top: "pool3"
  top: "pool3_mask"
  pooling_param {
    pool: MAX
    kernel_size: 2
    stride: 2
  }
}
layer {
  name: "conv4_1"
  type: "Convolution"
  bottom: "pool3"
  top: "conv4_1"
  param {
    lr_mult: 1
    decay_mult: 1
  }
  convolution_param {
    num_output: 256
    bias_term: false
    pad: 1
    kernel_size: 3
    weight_filler {
      type: "msra"
    }
  }
}
layer {
  name: "bn4_1"
  type: "BatchNorm"
  bottom: "conv4_1"
  top: "conv4_1"
  param {
    lr_mult: 0
  }
  param {
    lr_mult: 0
  }
  param {
    lr_mult: 0
  }
  batch_norm_param {
    use_global_stats: false
  }
}
layer {
  name: "scale4_1"
  type: "Scale"
  bottom: "conv4_1"
  top: "conv4_1"
  param {
    lr_mult: 1
    decay_mult: 1
  }
  param {
    lr_mult: 1
    decay_mult: 1
  }
  scale_param {
    bias_term: true
    bias_filler {
      type: "constant"
      value: 0
    }
  }
}
layer {
  name: "relu4_1"
  type: "ReLU"
  bottom: "conv4_1"
  top: "conv4_1"
}
layer {
  name: "conv4_2"
  type: "Convolution"
  bottom: "conv4_1"
  top: "conv4_2"
  param {
    lr_mult: 1
    decay_mult: 1
  }
  convolution_param {
    num_output: 256
    bias_term: false
    pad: 1
    kernel_size: 3
    weight_filler {
      type: "msra"
    }
  }
}
layer {
  name: "bn4_2"
  type: "BatchNorm"
  bottom: "conv4_2"
  top: "conv4_2"
  param {
    lr_mult: 0
  }
  param {
    lr_mult: 0
  }
  param {
    lr_mult: 0
  }
  batch_norm_param {
    use_global_stats: false
  }
}
layer {
  name: "scale4_2"
  type: "Scale"
  bottom: "conv4_2"
  top: "conv4_2"
  param {
    lr_mult: 1
    decay_mult: 1
  }
  param {
    lr_mult: 1
    decay_mult: 1
  }
  scale_param {
    bias_term: true
    bias_filler {
      type: "constant"
      value: 0
    }
  }
}
layer {
  name: "relu4_2"
  type: "ReLU"
  bottom: "conv4_2"
  top: "conv4_2"
}
layer {
  name: "pool4"
  type: "Pooling"
  bottom: "conv4_2"
  top: "pool4"
  top: "pool4_mask"
  pooling_param {
    pool: MAX
    kernel_size: 2
    stride: 2
  }
}
layer {
  name: "conv5_1"
  type: "Convolution"
  bottom: "pool4"
  top: "conv5_1"
  param {
    lr_mult: 1
    decay_mult: 1
  }
  convolution_param {
    num_output: 256
    bias_term: false
    pad: 1
    kernel_size: 3
    weight_filler {
      type: "msra"
    }
  }
}
layer {
  name: "bn5_1"
  type: "BatchNorm"
  bottom: "conv5_1"
  top: "conv5_1"
  param {
    lr_mult: 0
  }
  param {
    lr_mult: 0
  }
  param {
    lr_mult: 0
  }
  batch_norm_param {
    use_global_stats: false
  }
}
layer {
  name: "scale5_1"
  type: "Scale"
  bottom: "conv5_1"
  top: "conv5_1"
  param {
    lr_mult: 1
    decay_mult: 1
  }
  param {
    lr_mult: 1
    decay_mult: 1
  }
  scale_param {
    bias_term: true
    bias_filler {
      type: "constant"
      value: 0
    }
  }
}
layer {
  name: "relu5_1"
  type: "ReLU"
  bottom: "conv5_1"
  top: "conv5_1"
}
layer {
  name: "conv5_2"
  type: "Convolution"
  bottom: "conv5_1"
  top: "conv5_2"
  param {
    lr_mult: 1
    decay_mult: 1
  }
  convolution_param {
    num_output: 256
    bias_term: false
    pad: 1
    kernel_size: 3
    weight_filler {
      type: "msra"
    }
  }
}
layer {
  name: "bn5_2"
  type: "BatchNorm"
  bottom: "conv5_2"
  top: "conv5_2"
  param {
    lr_mult: 0
  }
  param {
    lr_mult: 0
  }
  param {
    lr_mult: 0
  }
  batch_norm_param {
    use_global_stats: false
  }
}
layer {
  name: "scale5_2"
  type: "Scale"
  bottom: "conv5_2"
  top: "conv5_2"
  param {
    lr_mult: 1
    decay_mult: 1
  }
  param {
    lr_mult: 1
    decay_mult: 1
  }
  scale_param {
    bias_term: true
    bias_filler {
      type: "constant"
      value: 0
    }
  }
}
layer {
  name: "relu5_2"
  type: "ReLU"
  bottom: "conv5_2"
  top: "conv5_2"
}
layer {
  name: "pool5"
  type: "Pooling"
  bottom: "conv5_2"
  top: "pool5"
  top: "pool5_mask"
  pooling_param {
    pool: MAX
    kernel_size: 2
    stride: 2
  }
}
layer {
  name: "upsample5"
  type: "Upsample"
  bottom: "pool5"
  bottom: "pool5_mask"
  top: "pool5_D"
  upsample_param {
    scale: 2
    upsample_h: 14
    upsample_w: 14
  }
}
layer {
  name: "conv5_2_D"
  type: "Convolution"
  bottom: "pool5_D"
  top: "conv5_2_D"
  param {
    lr_mult: 1
    decay_mult: 1
  }
  convolution_param {
    num_output: 256
    bias_term: false
    pad: 1
    kernel_size: 3
    weight_filler {
      type: "msra"
    }
  }
}
layer {
  name: "bn5_2_D"
  type: "BatchNorm"
  bottom: "conv5_2_D"
  top: "conv5_2_D"
  param {
    lr_mult: 0
  }
  param {
    lr_mult: 0
  }
  param {
    lr_mult: 0
  }
  batch_norm_param {
    use_global_stats: false
  }
}
layer {
  name: "scale5_2_D"
  type: "Scale"
  bottom: "conv5_2_D"
  top: "conv5_2_D"
  param {
    lr_mult: 1
    decay_mult: 1
  }
  param {
    lr_mult: 1
    decay_mult: 1
  }
  scale_param {
    bias_term: true
    bias_filler {
      type: "constant"
      value: 0
    }
  }
}
layer {
  name: "relu5_2_D"
  type: "ReLU"
  bottom: "conv5_2_D"
  top: "conv5_2_D"
}
layer {
  name: "conv5_1_D"
  type: "Convolution"
  bottom: "conv5_2_D"
  top: "conv5_1_D"
  param {
    lr_mult: 1
    decay_mult: 1
  }
  convolution_param {
    num_output: 256
    bias_term: false
    pad: 1
    kernel_size: 3
    weight_filler {
      type: "msra"
    }
  }
}
layer {
  name: "bn5_1_D"
  type: "BatchNorm"
  bottom: "conv5_1_D"
  top: "conv5_1_D"
  param {
    lr_mult: 0
  }
  param {
    lr_mult: 0
  }
  param {
    lr_mult: 0
  }
  batch_norm_param {
    use_global_stats: false
  }
}
layer {
  name: "scale5_1_D"
  type: "Scale"
  bottom: "conv5_1_D"
  top: "conv5_1_D"
  param {
    lr_mult: 1
    decay_mult: 1
  }
  param {
    lr_mult: 1
    decay_mult: 1
  }
  scale_param {
    bias_term: true
    bias_filler {
      type: "constant"
      value: 0
    }
  }
}
layer {
  name: "relu5_1_D"
  type: "ReLU"
  bottom: "conv5_1_D"
  top: "conv5_1_D"
}
layer {
  name: "upsample4"
  type: "Upsample"
  bottom: "conv5_1_D"
  bottom: "pool4_mask"
  top: "pool4_D"
  upsample_param {
    scale: 2
    upsample_h: 28
    upsample_w: 28
  }
}
layer {
  name: "conv4_2_D"
  type: "Convolution"
  bottom: "pool4_D"
  top: "conv4_2_D"
  param {
    lr_mult: 1
    decay_mult: 1
  }
  convolution_param {
    num_output: 256
    bias_term: false
    pad: 1
    kernel_size: 3
    weight_filler {
      type: "msra"
    }
  }
}
layer {
  name: "bn4_2_D"
  type: "BatchNorm"
  bottom: "conv4_2_D"
  top: "conv4_2_D"
  param {
    lr_mult: 0
  }
  param {
    lr_mult: 0
  }
  param {
    lr_mult: 0
  }
  batch_norm_param {
    use_global_stats: false
  }
}
layer {
  name: "scale4_2_D"
  type: "Scale"
  bottom: "conv4_2_D"
  top: "conv4_2_D"
  param {
    lr_mult: 1
    decay_mult: 1
  }
  param {
    lr_mult: 1
    decay_mult: 1
  }
  scale_param {
    bias_term: true
    bias_filler {
      type: "constant"
      value: 0
    }
  }
}
layer {
  name: "relu4_2_D"
  type: "ReLU"
  bottom: "conv4_2_D"
  top: "conv4_2_D"
}
layer {
  name: "conv4_1_D"
  type: "Convolution"
  bottom: "conv4_2_D"
  top: "conv4_1_D"
  param {
    lr_mult: 1
    decay_mult: 1
  }
  convolution_param {
    num_output: 128
    bias_term: false
    pad: 1
    kernel_size: 3
    weight_filler {
      type: "msra"
    }
  }
}
layer {
  name: "bn4_1_D"
  type: "BatchNorm"
  bottom: "conv4_1_D"
  top: "conv4_1_D"
  param {
    lr_mult: 0
  }
  param {
    lr_mult: 0
  }
  param {
    lr_mult: 0
  }
  batch_norm_param {
    use_global_stats: false
  }
}
layer {
  name: "scale4_1_D"
  type: "Scale"
  bottom: "conv4_1_D"
  top: "conv4_1_D"
  param {
    lr_mult: 1
    decay_mult: 1
  }
  param {
    lr_mult: 1
    decay_mult: 1
  }
  scale_param {
    bias_term: true
    bias_filler {
      type: "constant"
      value: 0
    }
  }
}
layer {
  name: "relu4_1_D"
  type: "ReLU"
  bottom: "conv4_1_D"
  top: "conv4_1_D"
}
layer {
  name: "upsample3"
  type: "Upsample"
  bottom: "conv4_1_D"
  bottom: "pool3_mask"
  top: "pool3_D"
  upsample_param {
    scale: 2
    upsample_h: 56
    upsample_w: 56
  }
}
layer {
  name: "conv3_2_D"
  type: "Convolution"
  bottom: "pool3_D"
  top: "conv3_2_D"
  param {
    lr_mult: 1
    decay_mult: 1
  }
  param {
    lr_mult: 1
    decay_mult: 1
  }
  convolution_param {
    num_output: 128
    pad: 1
    kernel_size: 3
    weight_filler {
      type: "msra"
    }
    bias_filler {
      type: "constant"
      value: 0
    }
  }
}
layer {
  name: "bn3_2_D"
  type: "BatchNorm"
  bottom: "conv3_2_D"
  top: "conv3_2_D"
  param {
    lr_mult: 0
  }
  param {
    lr_mult: 0
  }
  param {
    lr_mult: 0
  }
  batch_norm_param {
    use_global_stats: false
  }
}
layer {
  name: "scale3_2_D"
  type: "Scale"
  bottom: "conv3_2_D"
  top: "conv3_2_D"
  param {
    lr_mult: 1
    decay_mult: 1
  }
  param {
    lr_mult: 1
    decay_mult: 1
  }
  scale_param {
    bias_term: true
    bias_filler {
      type: "constant"
      value: 0
    }
  }
}
layer {
  name: "relu3_2_D"
  type: "ReLU"
  bottom: "conv3_2_D"
  top: "conv3_2_D"
}
layer {
  name: "conv3_1_D"
  type: "Convolution"
  bottom: "conv3_2_D"
  top: "conv3_1_D"
  param {
    lr_mult: 1
    decay_mult: 1
  }
  convolution_param {
    num_output: 64
    bias_term: false
    pad: 1
    kernel_size: 3
    weight_filler {
      type: "msra"
    }
  }
}
layer {
  name: "bn3_1_D"
  type: "BatchNorm"
  bottom: "conv3_1_D"
  top: "conv3_1_D"
  param {
    lr_mult: 0
  }
  param {
    lr_mult: 0
  }
  param {
    lr_mult: 0
  }
  batch_norm_param {
    use_global_stats: false
  }
}
layer {
  name: "scale3_1_D"
  type: "Scale"
  bottom: "conv3_1_D"
  top: "conv3_1_D"
  param {
    lr_mult: 1
    decay_mult: 1
  }
  param {
    lr_mult: 1
    decay_mult: 1
  }
  scale_param {
    bias_term: true
    bias_filler {
      type: "constant"
      value: 0
    }
  }
}
layer {
  name: "relu3_1_D"
  type: "ReLU"
  bottom: "conv3_1_D"
  top: "conv3_1_D"
}
layer {
  name: "upsample2"
  type: "Upsample"
  bottom: "conv3_1_D"
  bottom: "pool2_mask"
  top: "pool2_D"
  upsample_param {
    scale: 2
    upsample_h: 112
    upsample_w: 112
  }
}
layer {
  name: "conv2_2_D"
  type: "Convolution"
  bottom: "pool2_D"
  top: "conv2_2_D"
  param {
    lr_mult: 1
    decay_mult: 1
  }
  convolution_param {
    num_output: 64
    bias_term: false
    pad: 1
    kernel_size: 3
    weight_filler {
      type: "msra"
    }
  }
}
layer {
  name: "bn2_2_D"
  type: "BatchNorm"
  bottom: "conv2_2_D"
  top: "conv2_2_D"
  param {
    lr_mult: 0
  }
  param {
    lr_mult: 0
  }
  param {
    lr_mult: 0
  }
  batch_norm_param {
    use_global_stats: false
  }
}
layer {
  name: "scale2_2_D"
  type: "Scale"
  bottom: "conv2_2_D"
  top: "conv2_2_D"
  param {
    lr_mult: 1
    decay_mult: 1
  }
  param {
    lr_mult: 1
    decay_mult: 1
  }
  scale_param {
    bias_term: true
    bias_filler {
      type: "constant"
      value: 0
    }
  }
}
layer {
  name: "relu2_2_D"
  type: "ReLU"
  bottom: "conv2_2_D"
  top: "conv2_2_D"
}
layer {
  name: "conv2_1_D"
  type: "Convolution"
  bottom: "conv2_2_D"
  top: "conv2_1_D"
  param {
    lr_mult: 1
    decay_mult: 1
  }
  convolution_param {
    num_output: 32
    bias_term: false
    pad: 1
    kernel_size: 3
    weight_filler {
      type: "msra"
    }
  }
}
layer {
  name: "bn2_1_D"
  type: "BatchNorm"
  bottom: "conv2_1_D"
  top: "conv2_1_D"
  param {
    lr_mult: 0
  }
  param {
    lr_mult: 0
  }
  param {
    lr_mult: 0
  }
  batch_norm_param {
    use_global_stats: false
  }
}
layer {
  name: "scale2_1_D"
  type: "Scale"
  bottom: "conv2_1_D"
  top: "conv2_1_D"
  param {
    lr_mult: 1
    decay_mult: 1
  }
  param {
    lr_mult: 1
    decay_mult: 1
  }
  scale_param {
    bias_term: true
    bias_filler {
      type: "constant"
      value: 0
    }
  }
}
layer {
  name: "relu2_1_D"
  type: "ReLU"
  bottom: "conv2_1_D"
  top: "conv2_1_D"
}
layer {
  name: "upsample1"
  type: "Upsample"
  bottom: "conv2_1_D"
  bottom: "pool1_mask"
  top: "pool1_D"
  upsample_param {
    scale: 2
    upsample_h: 224
    upsample_w: 224
  }
}
layer {
  name: "conv1_2_D"
  type: "Convolution"
  bottom: "pool1_D"
  top: "conv1_2_D"
  param {
    lr_mult: 1
    decay_mult: 1
  }
  convolution_param {
    num_output: 32
    bias_term: false
    pad: 1
    kernel_size: 3
    weight_filler {
      type: "msra"
    }
  }
}
layer {
  name: "bn1_2_D"
  type: "BatchNorm"
  bottom: "conv1_2_D"
  top: "conv1_2_D"
  param {
    lr_mult: 0
  }
  param {
    lr_mult: 0
  }
  param {
    lr_mult: 0
  }
  batch_norm_param {
    use_global_stats: false
  }
}
layer {
  name: "scale1_2_D"
  type: "Scale"
  bottom: "conv1_2_D"
  top: "conv1_2_D"
  param {
    lr_mult: 1
    decay_mult: 1
  }
  param {
    lr_mult: 1
    decay_mult: 1
  }
  scale_param {
    bias_term: true
    bias_filler {
      type: "constant"
      value: 0
    }
  }
}
layer {
  name: "relu1_2_D"
  type: "ReLU"
  bottom: "conv1_2_D"
  top: "conv1_2_D"
}
layer {
  name: "conv1_1_D"
  type: "Convolution"
  bottom: "conv1_2_D"
  top: "conv1_1_D"
  param {
    lr_mult: 1
    decay_mult: 1
  }
  param {
    lr_mult: 1
    decay_mult: 1
  }
  convolution_param {
    num_output: 2
    pad: 1
    kernel_size: 3
    weight_filler {
      type: "msra"
    }
    bias_filler {
      type: "constant"
    }
  }
}
layer {
  name: "loss"
  type: "SoftmaxWithLoss"
  bottom: "conv1_1_D"
  bottom: "label"
  top: "loss"
}
layer {
  name: "accuracy"
  type: "Accuracy"
  bottom: "conv1_1_D"
  bottom: "label"
  top: "accuracy"
}
I0523 15:14:00.019131 21880 layer_factory.hpp:77] Creating layer data
I0523 15:14:00.019157 21880 net.cpp:91] Creating Layer data
I0523 15:14:00.019162 21880 net.cpp:399] data -> data
I0523 15:14:00.019179 21880 net.cpp:399] data -> label
I0523 15:14:00.019461 21880 dense_image_data_layer.cpp:38] Opening file data/train.txt
I0523 15:14:00.021559 21880 dense_image_data_layer.cpp:48] Shuffling data
I0523 15:14:00.022032 21880 dense_image_data_layer.cpp:53] A total of 4930 examples.
I0523 15:14:00.032487 21880 dense_image_data_layer.cpp:92] output data size: 1,1,224,224
I0523 15:14:00.033586 21880 net.cpp:141] Setting up data
I0523 15:14:00.033619 21880 net.cpp:148] Top shape: 1 1 224 224 (50176)
I0523 15:14:00.033623 21880 net.cpp:148] Top shape: 1 1 224 224 (50176)
I0523 15:14:00.033625 21880 net.cpp:156] Memory required for data: 401408
I0523 15:14:00.033632 21880 layer_factory.hpp:77] Creating layer label_data_1_split
I0523 15:14:00.033646 21880 net.cpp:91] Creating Layer label_data_1_split
I0523 15:14:00.033650 21880 net.cpp:425] label_data_1_split <- label
I0523 15:14:00.033659 21880 net.cpp:399] label_data_1_split -> label_data_1_split_0
I0523 15:14:00.033668 21880 net.cpp:399] label_data_1_split -> label_data_1_split_1
I0523 15:14:00.033726 21880 net.cpp:141] Setting up label_data_1_split
I0523 15:14:00.033731 21880 net.cpp:148] Top shape: 1 1 224 224 (50176)
I0523 15:14:00.033745 21880 net.cpp:148] Top shape: 1 1 224 224 (50176)
I0523 15:14:00.033746 21880 net.cpp:156] Memory required for data: 802816
I0523 15:14:00.033749 21880 layer_factory.hpp:77] Creating layer conv1_1
I0523 15:14:00.033761 21880 net.cpp:91] Creating Layer conv1_1
I0523 15:14:00.033764 21880 net.cpp:425] conv1_1 <- data
I0523 15:14:00.033768 21880 net.cpp:399] conv1_1 -> conv1_1
I0523 15:14:00.191020 21880 net.cpp:141] Setting up conv1_1
I0523 15:14:00.191051 21880 net.cpp:148] Top shape: 1 32 224 224 (1605632)
I0523 15:14:00.191054 21880 net.cpp:156] Memory required for data: 7225344
I0523 15:14:00.191067 21880 layer_factory.hpp:77] Creating layer bn1_1
I0523 15:14:00.191082 21880 net.cpp:91] Creating Layer bn1_1
I0523 15:14:00.191087 21880 net.cpp:425] bn1_1 <- conv1_1
I0523 15:14:00.191092 21880 net.cpp:386] bn1_1 -> conv1_1 (in-place)
I0523 15:14:00.191273 21880 net.cpp:141] Setting up bn1_1
I0523 15:14:00.191280 21880 net.cpp:148] Top shape: 1 32 224 224 (1605632)
I0523 15:14:00.191293 21880 net.cpp:156] Memory required for data: 13647872
I0523 15:14:00.191303 21880 layer_factory.hpp:77] Creating layer scale1_1
I0523 15:14:00.191311 21880 net.cpp:91] Creating Layer scale1_1
I0523 15:14:00.191313 21880 net.cpp:425] scale1_1 <- conv1_1
I0523 15:14:00.191318 21880 net.cpp:386] scale1_1 -> conv1_1 (in-place)
I0523 15:14:00.191350 21880 layer_factory.hpp:77] Creating layer scale1_1
I0523 15:14:00.191507 21880 net.cpp:141] Setting up scale1_1
I0523 15:14:00.191514 21880 net.cpp:148] Top shape: 1 32 224 224 (1605632)
I0523 15:14:00.191525 21880 net.cpp:156] Memory required for data: 20070400
I0523 15:14:00.191531 21880 layer_factory.hpp:77] Creating layer relu1_1
I0523 15:14:00.191537 21880 net.cpp:91] Creating Layer relu1_1
I0523 15:14:00.191540 21880 net.cpp:425] relu1_1 <- conv1_1
I0523 15:14:00.191543 21880 net.cpp:386] relu1_1 -> conv1_1 (in-place)
I0523 15:14:00.191776 21880 net.cpp:141] Setting up relu1_1
I0523 15:14:00.191786 21880 net.cpp:148] Top shape: 1 32 224 224 (1605632)
I0523 15:14:00.191797 21880 net.cpp:156] Memory required for data: 26492928
I0523 15:14:00.191800 21880 layer_factory.hpp:77] Creating layer conv1_2
I0523 15:14:00.191809 21880 net.cpp:91] Creating Layer conv1_2
I0523 15:14:00.191812 21880 net.cpp:425] conv1_2 <- conv1_1
I0523 15:14:00.191815 21880 net.cpp:399] conv1_2 -> conv1_2
I0523 15:14:00.193084 21880 net.cpp:141] Setting up conv1_2
I0523 15:14:00.193105 21880 net.cpp:148] Top shape: 1 32 224 224 (1605632)
I0523 15:14:00.193109 21880 net.cpp:156] Memory required for data: 32915456
I0523 15:14:00.193112 21880 layer_factory.hpp:77] Creating layer bn1_2
I0523 15:14:00.193120 21880 net.cpp:91] Creating Layer bn1_2
I0523 15:14:00.193121 21880 net.cpp:425] bn1_2 <- conv1_2
I0523 15:14:00.193125 21880 net.cpp:386] bn1_2 -> conv1_2 (in-place)
I0523 15:14:00.193308 21880 net.cpp:141] Setting up bn1_2
I0523 15:14:00.193315 21880 net.cpp:148] Top shape: 1 32 224 224 (1605632)
I0523 15:14:00.193326 21880 net.cpp:156] Memory required for data: 39337984
I0523 15:14:00.193333 21880 layer_factory.hpp:77] Creating layer scale1_2
I0523 15:14:00.193341 21880 net.cpp:91] Creating Layer scale1_2
I0523 15:14:00.193357 21880 net.cpp:425] scale1_2 <- conv1_2
I0523 15:14:00.193361 21880 net.cpp:386] scale1_2 -> conv1_2 (in-place)
I0523 15:14:00.193392 21880 layer_factory.hpp:77] Creating layer scale1_2
I0523 15:14:00.193554 21880 net.cpp:141] Setting up scale1_2
I0523 15:14:00.193559 21880 net.cpp:148] Top shape: 1 32 224 224 (1605632)
I0523 15:14:00.193572 21880 net.cpp:156] Memory required for data: 45760512
I0523 15:14:00.193577 21880 layer_factory.hpp:77] Creating layer relu1_2
I0523 15:14:00.193583 21880 net.cpp:91] Creating Layer relu1_2
I0523 15:14:00.193584 21880 net.cpp:425] relu1_2 <- conv1_2
I0523 15:14:00.193588 21880 net.cpp:386] relu1_2 -> conv1_2 (in-place)
I0523 15:14:00.193730 21880 net.cpp:141] Setting up relu1_2
I0523 15:14:00.193735 21880 net.cpp:148] Top shape: 1 32 224 224 (1605632)
I0523 15:14:00.193748 21880 net.cpp:156] Memory required for data: 52183040
I0523 15:14:00.193750 21880 layer_factory.hpp:77] Creating layer pool1
I0523 15:14:00.193754 21880 layer_factory.cpp:90] cuDNN does not support multiple tops. Using Caffe's own pooling layer.
I0523 15:14:00.193758 21880 net.cpp:91] Creating Layer pool1
I0523 15:14:00.193761 21880 net.cpp:425] pool1 <- conv1_2
I0523 15:14:00.193764 21880 net.cpp:399] pool1 -> pool1
I0523 15:14:00.193771 21880 net.cpp:399] pool1 -> pool1_mask
I0523 15:14:00.193806 21880 net.cpp:141] Setting up pool1
I0523 15:14:00.193810 21880 net.cpp:148] Top shape: 1 32 112 112 (401408)
I0523 15:14:00.193814 21880 net.cpp:148] Top shape: 1 32 112 112 (401408)
I0523 15:14:00.193815 21880 net.cpp:156] Memory required for data: 55394304
I0523 15:14:00.193817 21880 layer_factory.hpp:77] Creating layer conv2_1
I0523 15:14:00.193825 21880 net.cpp:91] Creating Layer conv2_1
I0523 15:14:00.193826 21880 net.cpp:425] conv2_1 <- pool1
I0523 15:14:00.193830 21880 net.cpp:399] conv2_1 -> conv2_1
I0523 15:14:00.196733 21880 net.cpp:141] Setting up conv2_1
I0523 15:14:00.196759 21880 net.cpp:148] Top shape: 1 64 112 112 (802816)
I0523 15:14:00.196761 21880 net.cpp:156] Memory required for data: 58605568
I0523 15:14:00.196768 21880 layer_factory.hpp:77] Creating layer bn2_1
I0523 15:14:00.196776 21880 net.cpp:91] Creating Layer bn2_1
I0523 15:14:00.196779 21880 net.cpp:425] bn2_1 <- conv2_1
I0523 15:14:00.196784 21880 net.cpp:386] bn2_1 -> conv2_1 (in-place)
I0523 15:14:00.196949 21880 net.cpp:141] Setting up bn2_1
I0523 15:14:00.196954 21880 net.cpp:148] Top shape: 1 64 112 112 (802816)
I0523 15:14:00.196967 21880 net.cpp:156] Memory required for data: 61816832
I0523 15:14:00.196972 21880 layer_factory.hpp:77] Creating layer scale2_1
I0523 15:14:00.196979 21880 net.cpp:91] Creating Layer scale2_1
I0523 15:14:00.196981 21880 net.cpp:425] scale2_1 <- conv2_1
I0523 15:14:00.196986 21880 net.cpp:386] scale2_1 -> conv2_1 (in-place)
I0523 15:14:00.197017 21880 layer_factory.hpp:77] Creating layer scale2_1
I0523 15:14:00.197160 21880 net.cpp:141] Setting up scale2_1
I0523 15:14:00.197166 21880 net.cpp:148] Top shape: 1 64 112 112 (802816)
I0523 15:14:00.197180 21880 net.cpp:156] Memory required for data: 65028096
I0523 15:14:00.197188 21880 layer_factory.hpp:77] Creating layer relu2_1
I0523 15:14:00.197194 21880 net.cpp:91] Creating Layer relu2_1
I0523 15:14:00.197196 21880 net.cpp:425] relu2_1 <- conv2_1
I0523 15:14:00.197199 21880 net.cpp:386] relu2_1 -> conv2_1 (in-place)
I0523 15:14:00.198616 21880 net.cpp:141] Setting up relu2_1
I0523 15:14:00.198635 21880 net.cpp:148] Top shape: 1 64 112 112 (802816)
I0523 15:14:00.198638 21880 net.cpp:156] Memory required for data: 68239360
I0523 15:14:00.198640 21880 layer_factory.hpp:77] Creating layer conv2_2
I0523 15:14:00.198649 21880 net.cpp:91] Creating Layer conv2_2
I0523 15:14:00.198652 21880 net.cpp:425] conv2_2 <- conv2_1
I0523 15:14:00.198657 21880 net.cpp:399] conv2_2 -> conv2_2
I0523 15:14:00.200326 21880 net.cpp:141] Setting up conv2_2
I0523 15:14:00.200335 21880 net.cpp:148] Top shape: 1 64 112 112 (802816)
I0523 15:14:00.200348 21880 net.cpp:156] Memory required for data: 71450624
I0523 15:14:00.200353 21880 layer_factory.hpp:77] Creating layer bn2_2
I0523 15:14:00.200373 21880 net.cpp:91] Creating Layer bn2_2
I0523 15:14:00.200376 21880 net.cpp:425] bn2_2 <- conv2_2
I0523 15:14:00.200381 21880 net.cpp:386] bn2_2 -> conv2_2 (in-place)
I0523 15:14:00.200530 21880 net.cpp:141] Setting up bn2_2
I0523 15:14:00.200534 21880 net.cpp:148] Top shape: 1 64 112 112 (802816)
I0523 15:14:00.200547 21880 net.cpp:156] Memory required for data: 74661888
I0523 15:14:00.200552 21880 layer_factory.hpp:77] Creating layer scale2_2
I0523 15:14:00.200558 21880 net.cpp:91] Creating Layer scale2_2
I0523 15:14:00.200561 21880 net.cpp:425] scale2_2 <- conv2_2
I0523 15:14:00.200563 21880 net.cpp:386] scale2_2 -> conv2_2 (in-place)
I0523 15:14:00.200592 21880 layer_factory.hpp:77] Creating layer scale2_2
I0523 15:14:00.200714 21880 net.cpp:141] Setting up scale2_2
I0523 15:14:00.200719 21880 net.cpp:148] Top shape: 1 64 112 112 (802816)
I0523 15:14:00.200731 21880 net.cpp:156] Memory required for data: 77873152
I0523 15:14:00.200736 21880 layer_factory.hpp:77] Creating layer relu2_2
I0523 15:14:00.200741 21880 net.cpp:91] Creating Layer relu2_2
I0523 15:14:00.200742 21880 net.cpp:425] relu2_2 <- conv2_2
I0523 15:14:00.200747 21880 net.cpp:386] relu2_2 -> conv2_2 (in-place)
I0523 15:14:00.200968 21880 net.cpp:141] Setting up relu2_2
I0523 15:14:00.200976 21880 net.cpp:148] Top shape: 1 64 112 112 (802816)
I0523 15:14:00.200989 21880 net.cpp:156] Memory required for data: 81084416
I0523 15:14:00.200991 21880 layer_factory.hpp:77] Creating layer pool2
I0523 15:14:00.200995 21880 layer_factory.cpp:90] cuDNN does not support multiple tops. Using Caffe's own pooling layer.
I0523 15:14:00.201000 21880 net.cpp:91] Creating Layer pool2
I0523 15:14:00.201002 21880 net.cpp:425] pool2 <- conv2_2
I0523 15:14:00.201006 21880 net.cpp:399] pool2 -> pool2
I0523 15:14:00.201011 21880 net.cpp:399] pool2 -> pool2_mask
I0523 15:14:00.201052 21880 net.cpp:141] Setting up pool2
I0523 15:14:00.201057 21880 net.cpp:148] Top shape: 1 64 56 56 (200704)
I0523 15:14:00.201071 21880 net.cpp:148] Top shape: 1 64 56 56 (200704)
I0523 15:14:00.201071 21880 net.cpp:156] Memory required for data: 82690048
I0523 15:14:00.201074 21880 layer_factory.hpp:77] Creating layer conv3_1
I0523 15:14:00.201081 21880 net.cpp:91] Creating Layer conv3_1
I0523 15:14:00.201082 21880 net.cpp:425] conv3_1 <- pool2
I0523 15:14:00.201086 21880 net.cpp:399] conv3_1 -> conv3_1
I0523 15:14:00.203989 21880 net.cpp:141] Setting up conv3_1
I0523 15:14:00.204010 21880 net.cpp:148] Top shape: 1 128 56 56 (401408)
I0523 15:14:00.204015 21880 net.cpp:156] Memory required for data: 84295680
I0523 15:14:00.204018 21880 layer_factory.hpp:77] Creating layer bn3_1
I0523 15:14:00.204023 21880 net.cpp:91] Creating Layer bn3_1
I0523 15:14:00.204026 21880 net.cpp:425] bn3_1 <- conv3_1
I0523 15:14:00.204031 21880 net.cpp:386] bn3_1 -> conv3_1 (in-place)
I0523 15:14:00.204447 21880 net.cpp:141] Setting up bn3_1
I0523 15:14:00.204454 21880 net.cpp:148] Top shape: 1 128 56 56 (401408)
I0523 15:14:00.204468 21880 net.cpp:156] Memory required for data: 85901312
I0523 15:14:00.204473 21880 layer_factory.hpp:77] Creating layer scale3_1
I0523 15:14:00.204478 21880 net.cpp:91] Creating Layer scale3_1
I0523 15:14:00.204481 21880 net.cpp:425] scale3_1 <- conv3_1
I0523 15:14:00.204488 21880 net.cpp:386] scale3_1 -> conv3_1 (in-place)
I0523 15:14:00.204516 21880 layer_factory.hpp:77] Creating layer scale3_1
I0523 15:14:00.204603 21880 net.cpp:141] Setting up scale3_1
I0523 15:14:00.204607 21880 net.cpp:148] Top shape: 1 128 56 56 (401408)
I0523 15:14:00.204619 21880 net.cpp:156] Memory required for data: 87506944
I0523 15:14:00.204623 21880 layer_factory.hpp:77] Creating layer relu3_1
I0523 15:14:00.204628 21880 net.cpp:91] Creating Layer relu3_1
I0523 15:14:00.204630 21880 net.cpp:425] relu3_1 <- conv3_1
I0523 15:14:00.204633 21880 net.cpp:386] relu3_1 -> conv3_1 (in-place)
I0523 15:14:00.204772 21880 net.cpp:141] Setting up relu3_1
I0523 15:14:00.204778 21880 net.cpp:148] Top shape: 1 128 56 56 (401408)
I0523 15:14:00.204790 21880 net.cpp:156] Memory required for data: 89112576
I0523 15:14:00.204802 21880 layer_factory.hpp:77] Creating layer conv3_2
I0523 15:14:00.204809 21880 net.cpp:91] Creating Layer conv3_2
I0523 15:14:00.204812 21880 net.cpp:425] conv3_2 <- conv3_1
I0523 15:14:00.204816 21880 net.cpp:399] conv3_2 -> conv3_2
I0523 15:14:00.209257 21880 net.cpp:141] Setting up conv3_2
I0523 15:14:00.209280 21880 net.cpp:148] Top shape: 1 128 56 56 (401408)
I0523 15:14:00.209282 21880 net.cpp:156] Memory required for data: 90718208
I0523 15:14:00.209287 21880 layer_factory.hpp:77] Creating layer bn3_2
I0523 15:14:00.209293 21880 net.cpp:91] Creating Layer bn3_2
I0523 15:14:00.209296 21880 net.cpp:425] bn3_2 <- conv3_2
I0523 15:14:00.209300 21880 net.cpp:386] bn3_2 -> conv3_2 (in-place)
I0523 15:14:00.209449 21880 net.cpp:141] Setting up bn3_2
I0523 15:14:00.209453 21880 net.cpp:148] Top shape: 1 128 56 56 (401408)
I0523 15:14:00.209465 21880 net.cpp:156] Memory required for data: 92323840
I0523 15:14:00.209475 21880 layer_factory.hpp:77] Creating layer scale3_2
I0523 15:14:00.209481 21880 net.cpp:91] Creating Layer scale3_2
I0523 15:14:00.209484 21880 net.cpp:425] scale3_2 <- conv3_2
I0523 15:14:00.209487 21880 net.cpp:386] scale3_2 -> conv3_2 (in-place)
I0523 15:14:00.209516 21880 layer_factory.hpp:77] Creating layer scale3_2
I0523 15:14:00.209606 21880 net.cpp:141] Setting up scale3_2
I0523 15:14:00.209610 21880 net.cpp:148] Top shape: 1 128 56 56 (401408)
I0523 15:14:00.209624 21880 net.cpp:156] Memory required for data: 93929472
I0523 15:14:00.209627 21880 layer_factory.hpp:77] Creating layer relu3_2
I0523 15:14:00.209632 21880 net.cpp:91] Creating Layer relu3_2
I0523 15:14:00.209635 21880 net.cpp:425] relu3_2 <- conv3_2
I0523 15:14:00.209638 21880 net.cpp:386] relu3_2 -> conv3_2 (in-place)
I0523 15:14:00.209780 21880 net.cpp:141] Setting up relu3_2
I0523 15:14:00.209787 21880 net.cpp:148] Top shape: 1 128 56 56 (401408)
I0523 15:14:00.209800 21880 net.cpp:156] Memory required for data: 95535104
I0523 15:14:00.209802 21880 layer_factory.hpp:77] Creating layer pool3
I0523 15:14:00.209806 21880 layer_factory.cpp:90] cuDNN does not support multiple tops. Using Caffe's own pooling layer.
I0523 15:14:00.209810 21880 net.cpp:91] Creating Layer pool3
I0523 15:14:00.209812 21880 net.cpp:425] pool3 <- conv3_2
I0523 15:14:00.209815 21880 net.cpp:399] pool3 -> pool3
I0523 15:14:00.209820 21880 net.cpp:399] pool3 -> pool3_mask
I0523 15:14:00.209852 21880 net.cpp:141] Setting up pool3
I0523 15:14:00.209867 21880 net.cpp:148] Top shape: 1 128 28 28 (100352)
I0523 15:14:00.209868 21880 net.cpp:148] Top shape: 1 128 28 28 (100352)
I0523 15:14:00.209870 21880 net.cpp:156] Memory required for data: 96337920
I0523 15:14:00.209883 21880 layer_factory.hpp:77] Creating layer conv4_1
I0523 15:14:00.209889 21880 net.cpp:91] Creating Layer conv4_1
I0523 15:14:00.209892 21880 net.cpp:425] conv4_1 <- pool3
I0523 15:14:00.209897 21880 net.cpp:399] conv4_1 -> conv4_1
I0523 15:14:00.217905 21880 net.cpp:141] Setting up conv4_1
I0523 15:14:00.217919 21880 net.cpp:148] Top shape: 1 256 28 28 (200704)
I0523 15:14:00.217921 21880 net.cpp:156] Memory required for data: 97140736
I0523 15:14:00.217936 21880 layer_factory.hpp:77] Creating layer bn4_1
I0523 15:14:00.217943 21880 net.cpp:91] Creating Layer bn4_1
I0523 15:14:00.217947 21880 net.cpp:425] bn4_1 <- conv4_1
I0523 15:14:00.217952 21880 net.cpp:386] bn4_1 -> conv4_1 (in-place)
I0523 15:14:00.218107 21880 net.cpp:141] Setting up bn4_1
I0523 15:14:00.218112 21880 net.cpp:148] Top shape: 1 256 28 28 (200704)
I0523 15:14:00.218114 21880 net.cpp:156] Memory required for data: 97943552
I0523 15:14:00.218119 21880 layer_factory.hpp:77] Creating layer scale4_1
I0523 15:14:00.218127 21880 net.cpp:91] Creating Layer scale4_1
I0523 15:14:00.218129 21880 net.cpp:425] scale4_1 <- conv4_1
I0523 15:14:00.218132 21880 net.cpp:386] scale4_1 -> conv4_1 (in-place)
I0523 15:14:00.218163 21880 layer_factory.hpp:77] Creating layer scale4_1
I0523 15:14:00.218246 21880 net.cpp:141] Setting up scale4_1
I0523 15:14:00.218251 21880 net.cpp:148] Top shape: 1 256 28 28 (200704)
I0523 15:14:00.218261 21880 net.cpp:156] Memory required for data: 98746368
I0523 15:14:00.218266 21880 layer_factory.hpp:77] Creating layer relu4_1
I0523 15:14:00.218274 21880 net.cpp:91] Creating Layer relu4_1
I0523 15:14:00.218276 21880 net.cpp:425] relu4_1 <- conv4_1
I0523 15:14:00.218281 21880 net.cpp:386] relu4_1 -> conv4_1 (in-place)
I0523 15:14:00.218508 21880 net.cpp:141] Setting up relu4_1
I0523 15:14:00.218518 21880 net.cpp:148] Top shape: 1 256 28 28 (200704)
I0523 15:14:00.218530 21880 net.cpp:156] Memory required for data: 99549184
I0523 15:14:00.218533 21880 layer_factory.hpp:77] Creating layer conv4_2
I0523 15:14:00.218541 21880 net.cpp:91] Creating Layer conv4_2
I0523 15:14:00.218544 21880 net.cpp:425] conv4_2 <- conv4_1
I0523 15:14:00.218549 21880 net.cpp:399] conv4_2 -> conv4_2
I0523 15:14:00.234134 21880 net.cpp:141] Setting up conv4_2
I0523 15:14:00.234163 21880 net.cpp:148] Top shape: 1 256 28 28 (200704)
I0523 15:14:00.234166 21880 net.cpp:156] Memory required for data: 100352000
I0523 15:14:00.234174 21880 layer_factory.hpp:77] Creating layer bn4_2
I0523 15:14:00.234184 21880 net.cpp:91] Creating Layer bn4_2
I0523 15:14:00.234189 21880 net.cpp:425] bn4_2 <- conv4_2
I0523 15:14:00.234194 21880 net.cpp:386] bn4_2 -> conv4_2 (in-place)
I0523 15:14:00.234386 21880 net.cpp:141] Setting up bn4_2
I0523 15:14:00.234392 21880 net.cpp:148] Top shape: 1 256 28 28 (200704)
I0523 15:14:00.234405 21880 net.cpp:156] Memory required for data: 101154816
I0523 15:14:00.234411 21880 layer_factory.hpp:77] Creating layer scale4_2
I0523 15:14:00.234421 21880 net.cpp:91] Creating Layer scale4_2
I0523 15:14:00.234424 21880 net.cpp:425] scale4_2 <- conv4_2
I0523 15:14:00.234428 21880 net.cpp:386] scale4_2 -> conv4_2 (in-place)
I0523 15:14:00.234493 21880 layer_factory.hpp:77] Creating layer scale4_2
I0523 15:14:00.234596 21880 net.cpp:141] Setting up scale4_2
I0523 15:14:00.234602 21880 net.cpp:148] Top shape: 1 256 28 28 (200704)
I0523 15:14:00.234616 21880 net.cpp:156] Memory required for data: 101957632
I0523 15:14:00.234619 21880 layer_factory.hpp:77] Creating layer relu4_2
I0523 15:14:00.234624 21880 net.cpp:91] Creating Layer relu4_2
I0523 15:14:00.234627 21880 net.cpp:425] relu4_2 <- conv4_2
I0523 15:14:00.234630 21880 net.cpp:386] relu4_2 -> conv4_2 (in-place)
I0523 15:14:00.234771 21880 net.cpp:141] Setting up relu4_2
I0523 15:14:00.234777 21880 net.cpp:148] Top shape: 1 256 28 28 (200704)
I0523 15:14:00.234791 21880 net.cpp:156] Memory required for data: 102760448
I0523 15:14:00.234792 21880 layer_factory.hpp:77] Creating layer pool4
I0523 15:14:00.234796 21880 layer_factory.cpp:90] cuDNN does not support multiple tops. Using Caffe's own pooling layer.
I0523 15:14:00.234799 21880 net.cpp:91] Creating Layer pool4
I0523 15:14:00.234802 21880 net.cpp:425] pool4 <- conv4_2
I0523 15:14:00.234805 21880 net.cpp:399] pool4 -> pool4
I0523 15:14:00.234812 21880 net.cpp:399] pool4 -> pool4_mask
I0523 15:14:00.234843 21880 net.cpp:141] Setting up pool4
I0523 15:14:00.234846 21880 net.cpp:148] Top shape: 1 256 14 14 (50176)
I0523 15:14:00.234849 21880 net.cpp:148] Top shape: 1 256 14 14 (50176)
I0523 15:14:00.234851 21880 net.cpp:156] Memory required for data: 103161856
I0523 15:14:00.234853 21880 layer_factory.hpp:77] Creating layer conv5_1
I0523 15:14:00.234860 21880 net.cpp:91] Creating Layer conv5_1
I0523 15:14:00.234863 21880 net.cpp:425] conv5_1 <- pool4
I0523 15:14:00.234868 21880 net.cpp:399] conv5_1 -> conv5_1
I0523 15:14:00.249790 21880 net.cpp:141] Setting up conv5_1
I0523 15:14:00.249819 21880 net.cpp:148] Top shape: 1 256 14 14 (50176)
I0523 15:14:00.249821 21880 net.cpp:156] Memory required for data: 103362560
I0523 15:14:00.249827 21880 layer_factory.hpp:77] Creating layer bn5_1
I0523 15:14:00.249835 21880 net.cpp:91] Creating Layer bn5_1
I0523 15:14:00.249840 21880 net.cpp:425] bn5_1 <- conv5_1
I0523 15:14:00.249845 21880 net.cpp:386] bn5_1 -> conv5_1 (in-place)
I0523 15:14:00.250025 21880 net.cpp:141] Setting up bn5_1
I0523 15:14:00.250035 21880 net.cpp:148] Top shape: 1 256 14 14 (50176)
I0523 15:14:00.250049 21880 net.cpp:156] Memory required for data: 103563264
I0523 15:14:00.250059 21880 layer_factory.hpp:77] Creating layer scale5_1
I0523 15:14:00.250069 21880 net.cpp:91] Creating Layer scale5_1
I0523 15:14:00.250074 21880 net.cpp:425] scale5_1 <- conv5_1
I0523 15:14:00.250080 21880 net.cpp:386] scale5_1 -> conv5_1 (in-place)
I0523 15:14:00.250129 21880 layer_factory.hpp:77] Creating layer scale5_1
I0523 15:14:00.250219 21880 net.cpp:141] Setting up scale5_1
I0523 15:14:00.250224 21880 net.cpp:148] Top shape: 1 256 14 14 (50176)
I0523 15:14:00.250226 21880 net.cpp:156] Memory required for data: 103763968
I0523 15:14:00.250241 21880 layer_factory.hpp:77] Creating layer relu5_1
I0523 15:14:00.250247 21880 net.cpp:91] Creating Layer relu5_1
I0523 15:14:00.250248 21880 net.cpp:425] relu5_1 <- conv5_1
I0523 15:14:00.250252 21880 net.cpp:386] relu5_1 -> conv5_1 (in-place)
I0523 15:14:00.250393 21880 net.cpp:141] Setting up relu5_1
I0523 15:14:00.250399 21880 net.cpp:148] Top shape: 1 256 14 14 (50176)
I0523 15:14:00.250411 21880 net.cpp:156] Memory required for data: 103964672
I0523 15:14:00.250414 21880 layer_factory.hpp:77] Creating layer conv5_2
I0523 15:14:00.250422 21880 net.cpp:91] Creating Layer conv5_2
I0523 15:14:00.250424 21880 net.cpp:425] conv5_2 <- conv5_1
I0523 15:14:00.250428 21880 net.cpp:399] conv5_2 -> conv5_2
I0523 15:14:00.265666 21880 net.cpp:141] Setting up conv5_2
I0523 15:14:00.265696 21880 net.cpp:148] Top shape: 1 256 14 14 (50176)
I0523 15:14:00.265698 21880 net.cpp:156] Memory required for data: 104165376
I0523 15:14:00.265705 21880 layer_factory.hpp:77] Creating layer bn5_2
I0523 15:14:00.265717 21880 net.cpp:91] Creating Layer bn5_2
I0523 15:14:00.265720 21880 net.cpp:425] bn5_2 <- conv5_2
I0523 15:14:00.265727 21880 net.cpp:386] bn5_2 -> conv5_2 (in-place)
I0523 15:14:00.265890 21880 net.cpp:141] Setting up bn5_2
I0523 15:14:00.265897 21880 net.cpp:148] Top shape: 1 256 14 14 (50176)
I0523 15:14:00.265908 21880 net.cpp:156] Memory required for data: 104366080
I0523 15:14:00.265914 21880 layer_factory.hpp:77] Creating layer scale5_2
I0523 15:14:00.265921 21880 net.cpp:91] Creating Layer scale5_2
I0523 15:14:00.265923 21880 net.cpp:425] scale5_2 <- conv5_2
I0523 15:14:00.265928 21880 net.cpp:386] scale5_2 -> conv5_2 (in-place)
I0523 15:14:00.265957 21880 layer_factory.hpp:77] Creating layer scale5_2
I0523 15:14:00.266049 21880 net.cpp:141] Setting up scale5_2
I0523 15:14:00.266053 21880 net.cpp:148] Top shape: 1 256 14 14 (50176)
I0523 15:14:00.266065 21880 net.cpp:156] Memory required for data: 104566784
I0523 15:14:00.266070 21880 layer_factory.hpp:77] Creating layer relu5_2
I0523 15:14:00.266074 21880 net.cpp:91] Creating Layer relu5_2
I0523 15:14:00.266077 21880 net.cpp:425] relu5_2 <- conv5_2
I0523 15:14:00.266079 21880 net.cpp:386] relu5_2 -> conv5_2 (in-place)
I0523 15:14:00.266331 21880 net.cpp:141] Setting up relu5_2
I0523 15:14:00.266351 21880 net.cpp:148] Top shape: 1 256 14 14 (50176)
I0523 15:14:00.266355 21880 net.cpp:156] Memory required for data: 104767488
I0523 15:14:00.266356 21880 layer_factory.hpp:77] Creating layer pool5
I0523 15:14:00.266360 21880 layer_factory.cpp:90] cuDNN does not support multiple tops. Using Caffe's own pooling layer.
I0523 15:14:00.266365 21880 net.cpp:91] Creating Layer pool5
I0523 15:14:00.266366 21880 net.cpp:425] pool5 <- conv5_2
I0523 15:14:00.266371 21880 net.cpp:399] pool5 -> pool5
I0523 15:14:00.266376 21880 net.cpp:399] pool5 -> pool5_mask
I0523 15:14:00.266412 21880 net.cpp:141] Setting up pool5
I0523 15:14:00.266417 21880 net.cpp:148] Top shape: 1 256 7 7 (12544)
I0523 15:14:00.266420 21880 net.cpp:148] Top shape: 1 256 7 7 (12544)
I0523 15:14:00.266422 21880 net.cpp:156] Memory required for data: 104867840
I0523 15:14:00.266424 21880 layer_factory.hpp:77] Creating layer upsample5
I0523 15:14:00.266430 21880 net.cpp:91] Creating Layer upsample5
I0523 15:14:00.266433 21880 net.cpp:425] upsample5 <- pool5
I0523 15:14:00.266435 21880 net.cpp:425] upsample5 <- pool5_mask
I0523 15:14:00.266438 21880 net.cpp:399] upsample5 -> pool5_D
I0523 15:14:00.266477 21880 net.cpp:141] Setting up upsample5
I0523 15:14:00.266496 21880 net.cpp:148] Top shape: 1 256 14 14 (50176)
I0523 15:14:00.266500 21880 net.cpp:156] Memory required for data: 105068544
I0523 15:14:00.266504 21880 layer_factory.hpp:77] Creating layer conv5_2_D
I0523 15:14:00.266511 21880 net.cpp:91] Creating Layer conv5_2_D
I0523 15:14:00.266515 21880 net.cpp:425] conv5_2_D <- pool5_D
I0523 15:14:00.266518 21880 net.cpp:399] conv5_2_D -> conv5_2_D
I0523 15:14:00.281366 21880 net.cpp:141] Setting up conv5_2_D
I0523 15:14:00.281390 21880 net.cpp:148] Top shape: 1 256 14 14 (50176)
I0523 15:14:00.281394 21880 net.cpp:156] Memory required for data: 105269248
I0523 15:14:00.281399 21880 layer_factory.hpp:77] Creating layer bn5_2_D
I0523 15:14:00.281407 21880 net.cpp:91] Creating Layer bn5_2_D
I0523 15:14:00.281410 21880 net.cpp:425] bn5_2_D <- conv5_2_D
I0523 15:14:00.281414 21880 net.cpp:386] bn5_2_D -> conv5_2_D (in-place)
I0523 15:14:00.281569 21880 net.cpp:141] Setting up bn5_2_D
I0523 15:14:00.281574 21880 net.cpp:148] Top shape: 1 256 14 14 (50176)
I0523 15:14:00.281576 21880 net.cpp:156] Memory required for data: 105469952
I0523 15:14:00.281581 21880 layer_factory.hpp:77] Creating layer scale5_2_D
I0523 15:14:00.281587 21880 net.cpp:91] Creating Layer scale5_2_D
I0523 15:14:00.281589 21880 net.cpp:425] scale5_2_D <- conv5_2_D
I0523 15:14:00.281595 21880 net.cpp:386] scale5_2_D -> conv5_2_D (in-place)
I0523 15:14:00.281625 21880 layer_factory.hpp:77] Creating layer scale5_2_D
I0523 15:14:00.281707 21880 net.cpp:141] Setting up scale5_2_D
I0523 15:14:00.281711 21880 net.cpp:148] Top shape: 1 256 14 14 (50176)
I0523 15:14:00.281714 21880 net.cpp:156] Memory required for data: 105670656
I0523 15:14:00.281728 21880 layer_factory.hpp:77] Creating layer relu5_2_D
I0523 15:14:00.281733 21880 net.cpp:91] Creating Layer relu5_2_D
I0523 15:14:00.281734 21880 net.cpp:425] relu5_2_D <- conv5_2_D
I0523 15:14:00.281738 21880 net.cpp:386] relu5_2_D -> conv5_2_D (in-place)
I0523 15:14:00.281875 21880 net.cpp:141] Setting up relu5_2_D
I0523 15:14:00.281883 21880 net.cpp:148] Top shape: 1 256 14 14 (50176)
I0523 15:14:00.281884 21880 net.cpp:156] Memory required for data: 105871360
I0523 15:14:00.281886 21880 layer_factory.hpp:77] Creating layer conv5_1_D
I0523 15:14:00.281894 21880 net.cpp:91] Creating Layer conv5_1_D
I0523 15:14:00.281898 21880 net.cpp:425] conv5_1_D <- conv5_2_D
I0523 15:14:00.281901 21880 net.cpp:399] conv5_1_D -> conv5_1_D
I0523 15:14:00.297214 21880 net.cpp:141] Setting up conv5_1_D
I0523 15:14:00.297242 21880 net.cpp:148] Top shape: 1 256 14 14 (50176)
I0523 15:14:00.297245 21880 net.cpp:156] Memory required for data: 106072064
I0523 15:14:00.297252 21880 layer_factory.hpp:77] Creating layer bn5_1_D
I0523 15:14:00.297260 21880 net.cpp:91] Creating Layer bn5_1_D
I0523 15:14:00.297265 21880 net.cpp:425] bn5_1_D <- conv5_1_D
I0523 15:14:00.297271 21880 net.cpp:386] bn5_1_D -> conv5_1_D (in-place)
I0523 15:14:00.297435 21880 net.cpp:141] Setting up bn5_1_D
I0523 15:14:00.297441 21880 net.cpp:148] Top shape: 1 256 14 14 (50176)
I0523 15:14:00.297452 21880 net.cpp:156] Memory required for data: 106272768
I0523 15:14:00.297457 21880 layer_factory.hpp:77] Creating layer scale5_1_D
I0523 15:14:00.297464 21880 net.cpp:91] Creating Layer scale5_1_D
I0523 15:14:00.297466 21880 net.cpp:425] scale5_1_D <- conv5_1_D
I0523 15:14:00.297471 21880 net.cpp:386] scale5_1_D -> conv5_1_D (in-place)
I0523 15:14:00.297500 21880 layer_factory.hpp:77] Creating layer scale5_1_D
I0523 15:14:00.297591 21880 net.cpp:141] Setting up scale5_1_D
I0523 15:14:00.297597 21880 net.cpp:148] Top shape: 1 256 14 14 (50176)
I0523 15:14:00.297610 21880 net.cpp:156] Memory required for data: 106473472
I0523 15:14:00.297613 21880 layer_factory.hpp:77] Creating layer relu5_1_D
I0523 15:14:00.297618 21880 net.cpp:91] Creating Layer relu5_1_D
I0523 15:14:00.297621 21880 net.cpp:425] relu5_1_D <- conv5_1_D
I0523 15:14:00.297624 21880 net.cpp:386] relu5_1_D -> conv5_1_D (in-place)
I0523 15:14:00.297767 21880 net.cpp:141] Setting up relu5_1_D
I0523 15:14:00.297785 21880 net.cpp:148] Top shape: 1 256 14 14 (50176)
I0523 15:14:00.297797 21880 net.cpp:156] Memory required for data: 106674176
I0523 15:14:00.297801 21880 layer_factory.hpp:77] Creating layer upsample4
I0523 15:14:00.297806 21880 net.cpp:91] Creating Layer upsample4
I0523 15:14:00.297808 21880 net.cpp:425] upsample4 <- conv5_1_D
I0523 15:14:00.297812 21880 net.cpp:425] upsample4 <- pool4_mask
I0523 15:14:00.297816 21880 net.cpp:399] upsample4 -> pool4_D
I0523 15:14:00.297839 21880 net.cpp:141] Setting up upsample4
I0523 15:14:00.297842 21880 net.cpp:148] Top shape: 1 256 28 28 (200704)
I0523 15:14:00.297844 21880 net.cpp:156] Memory required for data: 107476992
I0523 15:14:00.297847 21880 layer_factory.hpp:77] Creating layer conv4_2_D
I0523 15:14:00.297854 21880 net.cpp:91] Creating Layer conv4_2_D
I0523 15:14:00.297857 21880 net.cpp:425] conv4_2_D <- pool4_D
I0523 15:14:00.297862 21880 net.cpp:399] conv4_2_D -> conv4_2_D
I0523 15:14:00.312733 21880 net.cpp:141] Setting up conv4_2_D
I0523 15:14:00.312760 21880 net.cpp:148] Top shape: 1 256 28 28 (200704)
I0523 15:14:00.312763 21880 net.cpp:156] Memory required for data: 108279808
I0523 15:14:00.312769 21880 layer_factory.hpp:77] Creating layer bn4_2_D
I0523 15:14:00.312778 21880 net.cpp:91] Creating Layer bn4_2_D
I0523 15:14:00.312783 21880 net.cpp:425] bn4_2_D <- conv4_2_D
I0523 15:14:00.312788 21880 net.cpp:386] bn4_2_D -> conv4_2_D (in-place)
I0523 15:14:00.312990 21880 net.cpp:141] Setting up bn4_2_D
I0523 15:14:00.312997 21880 net.cpp:148] Top shape: 1 256 28 28 (200704)
I0523 15:14:00.312999 21880 net.cpp:156] Memory required for data: 109082624
I0523 15:14:00.313005 21880 layer_factory.hpp:77] Creating layer scale4_2_D
I0523 15:14:00.313012 21880 net.cpp:91] Creating Layer scale4_2_D
I0523 15:14:00.313015 21880 net.cpp:425] scale4_2_D <- conv4_2_D
I0523 15:14:00.313019 21880 net.cpp:386] scale4_2_D -> conv4_2_D (in-place)
I0523 15:14:00.313051 21880 layer_factory.hpp:77] Creating layer scale4_2_D
I0523 15:14:00.313144 21880 net.cpp:141] Setting up scale4_2_D
I0523 15:14:00.313149 21880 net.cpp:148] Top shape: 1 256 28 28 (200704)
I0523 15:14:00.313153 21880 net.cpp:156] Memory required for data: 109885440
I0523 15:14:00.313156 21880 layer_factory.hpp:77] Creating layer relu4_2_D
I0523 15:14:00.313161 21880 net.cpp:91] Creating Layer relu4_2_D
I0523 15:14:00.313163 21880 net.cpp:425] relu4_2_D <- conv4_2_D
I0523 15:14:00.313166 21880 net.cpp:386] relu4_2_D -> conv4_2_D (in-place)
I0523 15:14:00.313419 21880 net.cpp:141] Setting up relu4_2_D
I0523 15:14:00.313428 21880 net.cpp:148] Top shape: 1 256 28 28 (200704)
I0523 15:14:00.313442 21880 net.cpp:156] Memory required for data: 110688256
I0523 15:14:00.313446 21880 layer_factory.hpp:77] Creating layer conv4_1_D
I0523 15:14:00.313453 21880 net.cpp:91] Creating Layer conv4_1_D
I0523 15:14:00.313457 21880 net.cpp:425] conv4_1_D <- conv4_2_D
I0523 15:14:00.313462 21880 net.cpp:399] conv4_1_D -> conv4_1_D
I0523 15:14:00.321692 21880 net.cpp:141] Setting up conv4_1_D
I0523 15:14:00.321717 21880 net.cpp:148] Top shape: 1 128 28 28 (100352)
I0523 15:14:00.321720 21880 net.cpp:156] Memory required for data: 111089664
I0523 15:14:00.321727 21880 layer_factory.hpp:77] Creating layer bn4_1_D
I0523 15:14:00.321734 21880 net.cpp:91] Creating Layer bn4_1_D
I0523 15:14:00.321738 21880 net.cpp:425] bn4_1_D <- conv4_1_D
I0523 15:14:00.321743 21880 net.cpp:386] bn4_1_D -> conv4_1_D (in-place)
I0523 15:14:00.321918 21880 net.cpp:141] Setting up bn4_1_D
I0523 15:14:00.321923 21880 net.cpp:148] Top shape: 1 128 28 28 (100352)
I0523 15:14:00.321935 21880 net.cpp:156] Memory required for data: 111491072
I0523 15:14:00.321940 21880 layer_factory.hpp:77] Creating layer scale4_1_D
I0523 15:14:00.321948 21880 net.cpp:91] Creating Layer scale4_1_D
I0523 15:14:00.321950 21880 net.cpp:425] scale4_1_D <- conv4_1_D
I0523 15:14:00.321954 21880 net.cpp:386] scale4_1_D -> conv4_1_D (in-place)
I0523 15:14:00.321985 21880 layer_factory.hpp:77] Creating layer scale4_1_D
I0523 15:14:00.322088 21880 net.cpp:141] Setting up scale4_1_D
I0523 15:14:00.322103 21880 net.cpp:148] Top shape: 1 128 28 28 (100352)
I0523 15:14:00.322115 21880 net.cpp:156] Memory required for data: 111892480
I0523 15:14:00.322119 21880 layer_factory.hpp:77] Creating layer relu4_1_D
I0523 15:14:00.322132 21880 net.cpp:91] Creating Layer relu4_1_D
I0523 15:14:00.322135 21880 net.cpp:425] relu4_1_D <- conv4_1_D
I0523 15:14:00.322139 21880 net.cpp:386] relu4_1_D -> conv4_1_D (in-place)
I0523 15:14:00.322285 21880 net.cpp:141] Setting up relu4_1_D
I0523 15:14:00.322291 21880 net.cpp:148] Top shape: 1 128 28 28 (100352)
I0523 15:14:00.322304 21880 net.cpp:156] Memory required for data: 112293888
I0523 15:14:00.322306 21880 layer_factory.hpp:77] Creating layer upsample3
I0523 15:14:00.322312 21880 net.cpp:91] Creating Layer upsample3
I0523 15:14:00.322315 21880 net.cpp:425] upsample3 <- conv4_1_D
I0523 15:14:00.322319 21880 net.cpp:425] upsample3 <- pool3_mask
I0523 15:14:00.322321 21880 net.cpp:399] upsample3 -> pool3_D
I0523 15:14:00.322345 21880 net.cpp:141] Setting up upsample3
I0523 15:14:00.322348 21880 net.cpp:148] Top shape: 1 128 56 56 (401408)
I0523 15:14:00.322350 21880 net.cpp:156] Memory required for data: 113899520
I0523 15:14:00.322352 21880 layer_factory.hpp:77] Creating layer conv3_2_D
I0523 15:14:00.322360 21880 net.cpp:91] Creating Layer conv3_2_D
I0523 15:14:00.322362 21880 net.cpp:425] conv3_2_D <- pool3_D
I0523 15:14:00.322367 21880 net.cpp:399] conv3_2_D -> conv3_2_D
I0523 15:14:00.326982 21880 net.cpp:141] Setting up conv3_2_D
I0523 15:14:00.327003 21880 net.cpp:148] Top shape: 1 128 56 56 (401408)
I0523 15:14:00.327006 21880 net.cpp:156] Memory required for data: 115505152
I0523 15:14:00.327011 21880 layer_factory.hpp:77] Creating layer bn3_2_D
I0523 15:14:00.327018 21880 net.cpp:91] Creating Layer bn3_2_D
I0523 15:14:00.327021 21880 net.cpp:425] bn3_2_D <- conv3_2_D
I0523 15:14:00.327025 21880 net.cpp:386] bn3_2_D -> conv3_2_D (in-place)
I0523 15:14:00.327186 21880 net.cpp:141] Setting up bn3_2_D
I0523 15:14:00.327191 21880 net.cpp:148] Top shape: 1 128 56 56 (401408)
I0523 15:14:00.327204 21880 net.cpp:156] Memory required for data: 117110784
I0523 15:14:00.327210 21880 layer_factory.hpp:77] Creating layer scale3_2_D
I0523 15:14:00.327216 21880 net.cpp:91] Creating Layer scale3_2_D
I0523 15:14:00.327219 21880 net.cpp:425] scale3_2_D <- conv3_2_D
I0523 15:14:00.327221 21880 net.cpp:386] scale3_2_D -> conv3_2_D (in-place)
I0523 15:14:00.327251 21880 layer_factory.hpp:77] Creating layer scale3_2_D
I0523 15:14:00.327369 21880 net.cpp:141] Setting up scale3_2_D
I0523 15:14:00.327374 21880 net.cpp:148] Top shape: 1 128 56 56 (401408)
I0523 15:14:00.327376 21880 net.cpp:156] Memory required for data: 118716416
I0523 15:14:00.327390 21880 layer_factory.hpp:77] Creating layer relu3_2_D
I0523 15:14:00.327394 21880 net.cpp:91] Creating Layer relu3_2_D
I0523 15:14:00.327396 21880 net.cpp:425] relu3_2_D <- conv3_2_D
I0523 15:14:00.327400 21880 net.cpp:386] relu3_2_D -> conv3_2_D (in-place)
I0523 15:14:00.327541 21880 net.cpp:141] Setting up relu3_2_D
I0523 15:14:00.327548 21880 net.cpp:148] Top shape: 1 128 56 56 (401408)
I0523 15:14:00.327559 21880 net.cpp:156] Memory required for data: 120322048
I0523 15:14:00.327563 21880 layer_factory.hpp:77] Creating layer conv3_1_D
I0523 15:14:00.327569 21880 net.cpp:91] Creating Layer conv3_1_D
I0523 15:14:00.327571 21880 net.cpp:425] conv3_1_D <- conv3_2_D
I0523 15:14:00.327576 21880 net.cpp:399] conv3_1_D -> conv3_1_D
I0523 15:14:00.330291 21880 net.cpp:141] Setting up conv3_1_D
I0523 15:14:00.330312 21880 net.cpp:148] Top shape: 1 64 56 56 (200704)
I0523 15:14:00.330314 21880 net.cpp:156] Memory required for data: 121124864
I0523 15:14:00.330318 21880 layer_factory.hpp:77] Creating layer bn3_1_D
I0523 15:14:00.330323 21880 net.cpp:91] Creating Layer bn3_1_D
I0523 15:14:00.330327 21880 net.cpp:425] bn3_1_D <- conv3_1_D
I0523 15:14:00.330330 21880 net.cpp:386] bn3_1_D -> conv3_1_D (in-place)
I0523 15:14:00.330513 21880 net.cpp:141] Setting up bn3_1_D
I0523 15:14:00.330530 21880 net.cpp:148] Top shape: 1 64 56 56 (200704)
I0523 15:14:00.330543 21880 net.cpp:156] Memory required for data: 121927680
I0523 15:14:00.330549 21880 layer_factory.hpp:77] Creating layer scale3_1_D
I0523 15:14:00.330555 21880 net.cpp:91] Creating Layer scale3_1_D
I0523 15:14:00.330559 21880 net.cpp:425] scale3_1_D <- conv3_1_D
I0523 15:14:00.330561 21880 net.cpp:386] scale3_1_D -> conv3_1_D (in-place)
I0523 15:14:00.330605 21880 layer_factory.hpp:77] Creating layer scale3_1_D
I0523 15:14:00.330719 21880 net.cpp:141] Setting up scale3_1_D
I0523 15:14:00.330724 21880 net.cpp:148] Top shape: 1 64 56 56 (200704)
I0523 15:14:00.330736 21880 net.cpp:156] Memory required for data: 122730496
I0523 15:14:00.330740 21880 layer_factory.hpp:77] Creating layer relu3_1_D
I0523 15:14:00.330744 21880 net.cpp:91] Creating Layer relu3_1_D
I0523 15:14:00.330746 21880 net.cpp:425] relu3_1_D <- conv3_1_D
I0523 15:14:00.330750 21880 net.cpp:386] relu3_1_D -> conv3_1_D (in-place)
I0523 15:14:00.330974 21880 net.cpp:141] Setting up relu3_1_D
I0523 15:14:00.330982 21880 net.cpp:148] Top shape: 1 64 56 56 (200704)
I0523 15:14:00.330996 21880 net.cpp:156] Memory required for data: 123533312
I0523 15:14:00.330997 21880 layer_factory.hpp:77] Creating layer upsample2
I0523 15:14:00.331003 21880 net.cpp:91] Creating Layer upsample2
I0523 15:14:00.331006 21880 net.cpp:425] upsample2 <- conv3_1_D
I0523 15:14:00.331009 21880 net.cpp:425] upsample2 <- pool2_mask
I0523 15:14:00.331013 21880 net.cpp:399] upsample2 -> pool2_D
I0523 15:14:00.331037 21880 net.cpp:141] Setting up upsample2
I0523 15:14:00.331040 21880 net.cpp:148] Top shape: 1 64 112 112 (802816)
I0523 15:14:00.331043 21880 net.cpp:156] Memory required for data: 126744576
I0523 15:14:00.331044 21880 layer_factory.hpp:77] Creating layer conv2_2_D
I0523 15:14:00.331051 21880 net.cpp:91] Creating Layer conv2_2_D
I0523 15:14:00.331054 21880 net.cpp:425] conv2_2_D <- pool2_D
I0523 15:14:00.331058 21880 net.cpp:399] conv2_2_D -> conv2_2_D
I0523 15:14:00.332729 21880 net.cpp:141] Setting up conv2_2_D
I0523 15:14:00.332739 21880 net.cpp:148] Top shape: 1 64 112 112 (802816)
I0523 15:14:00.332741 21880 net.cpp:156] Memory required for data: 129955840
I0523 15:14:00.332746 21880 layer_factory.hpp:77] Creating layer bn2_2_D
I0523 15:14:00.332751 21880 net.cpp:91] Creating Layer bn2_2_D
I0523 15:14:00.332754 21880 net.cpp:425] bn2_2_D <- conv2_2_D
I0523 15:14:00.332759 21880 net.cpp:386] bn2_2_D -> conv2_2_D (in-place)
I0523 15:14:00.332933 21880 net.cpp:141] Setting up bn2_2_D
I0523 15:14:00.332938 21880 net.cpp:148] Top shape: 1 64 112 112 (802816)
I0523 15:14:00.332950 21880 net.cpp:156] Memory required for data: 133167104
I0523 15:14:00.332955 21880 layer_factory.hpp:77] Creating layer scale2_2_D
I0523 15:14:00.332960 21880 net.cpp:91] Creating Layer scale2_2_D
I0523 15:14:00.332962 21880 net.cpp:425] scale2_2_D <- conv2_2_D
I0523 15:14:00.332965 21880 net.cpp:386] scale2_2_D -> conv2_2_D (in-place)
I0523 15:14:00.333005 21880 layer_factory.hpp:77] Creating layer scale2_2_D
I0523 15:14:00.333118 21880 net.cpp:141] Setting up scale2_2_D
I0523 15:14:00.333123 21880 net.cpp:148] Top shape: 1 64 112 112 (802816)
I0523 15:14:00.333125 21880 net.cpp:156] Memory required for data: 136378368
I0523 15:14:00.333129 21880 layer_factory.hpp:77] Creating layer relu2_2_D
I0523 15:14:00.333134 21880 net.cpp:91] Creating Layer relu2_2_D
I0523 15:14:00.333137 21880 net.cpp:425] relu2_2_D <- conv2_2_D
I0523 15:14:00.333139 21880 net.cpp:386] relu2_2_D -> conv2_2_D (in-place)
I0523 15:14:00.333277 21880 net.cpp:141] Setting up relu2_2_D
I0523 15:14:00.333283 21880 net.cpp:148] Top shape: 1 64 112 112 (802816)
I0523 15:14:00.333295 21880 net.cpp:156] Memory required for data: 139589632
I0523 15:14:00.333298 21880 layer_factory.hpp:77] Creating layer conv2_1_D
I0523 15:14:00.333305 21880 net.cpp:91] Creating Layer conv2_1_D
I0523 15:14:00.333308 21880 net.cpp:425] conv2_1_D <- conv2_2_D
I0523 15:14:00.333312 21880 net.cpp:399] conv2_1_D -> conv2_1_D
I0523 15:14:00.334434 21880 net.cpp:141] Setting up conv2_1_D
I0523 15:14:00.334442 21880 net.cpp:148] Top shape: 1 32 112 112 (401408)
I0523 15:14:00.334463 21880 net.cpp:156] Memory required for data: 141195264
I0523 15:14:00.334468 21880 layer_factory.hpp:77] Creating layer bn2_1_D
I0523 15:14:00.334481 21880 net.cpp:91] Creating Layer bn2_1_D
I0523 15:14:00.334486 21880 net.cpp:425] bn2_1_D <- conv2_1_D
I0523 15:14:00.334491 21880 net.cpp:386] bn2_1_D -> conv2_1_D (in-place)
I0523 15:14:00.334666 21880 net.cpp:141] Setting up bn2_1_D
I0523 15:14:00.334671 21880 net.cpp:148] Top shape: 1 32 112 112 (401408)
I0523 15:14:00.334684 21880 net.cpp:156] Memory required for data: 142800896
I0523 15:14:00.334689 21880 layer_factory.hpp:77] Creating layer scale2_1_D
I0523 15:14:00.334694 21880 net.cpp:91] Creating Layer scale2_1_D
I0523 15:14:00.334697 21880 net.cpp:425] scale2_1_D <- conv2_1_D
I0523 15:14:00.334699 21880 net.cpp:386] scale2_1_D -> conv2_1_D (in-place)
I0523 15:14:00.334739 21880 layer_factory.hpp:77] Creating layer scale2_1_D
I0523 15:14:00.334859 21880 net.cpp:141] Setting up scale2_1_D
I0523 15:14:00.334863 21880 net.cpp:148] Top shape: 1 32 112 112 (401408)
I0523 15:14:00.334877 21880 net.cpp:156] Memory required for data: 144406528
I0523 15:14:00.334879 21880 layer_factory.hpp:77] Creating layer relu2_1_D
I0523 15:14:00.334883 21880 net.cpp:91] Creating Layer relu2_1_D
I0523 15:14:00.334887 21880 net.cpp:425] relu2_1_D <- conv2_1_D
I0523 15:14:00.334889 21880 net.cpp:386] relu2_1_D -> conv2_1_D (in-place)
I0523 15:14:00.335031 21880 net.cpp:141] Setting up relu2_1_D
I0523 15:14:00.335036 21880 net.cpp:148] Top shape: 1 32 112 112 (401408)
I0523 15:14:00.335049 21880 net.cpp:156] Memory required for data: 146012160
I0523 15:14:00.335052 21880 layer_factory.hpp:77] Creating layer upsample1
I0523 15:14:00.335057 21880 net.cpp:91] Creating Layer upsample1
I0523 15:14:00.335058 21880 net.cpp:425] upsample1 <- conv2_1_D
I0523 15:14:00.335062 21880 net.cpp:425] upsample1 <- pool1_mask
I0523 15:14:00.335065 21880 net.cpp:399] upsample1 -> pool1_D
I0523 15:14:00.335099 21880 net.cpp:141] Setting up upsample1
I0523 15:14:00.335103 21880 net.cpp:148] Top shape: 1 32 224 224 (1605632)
I0523 15:14:00.335104 21880 net.cpp:156] Memory required for data: 152434688
I0523 15:14:00.335117 21880 layer_factory.hpp:77] Creating layer conv1_2_D
I0523 15:14:00.335124 21880 net.cpp:91] Creating Layer conv1_2_D
I0523 15:14:00.335125 21880 net.cpp:425] conv1_2_D <- pool1_D
I0523 15:14:00.335130 21880 net.cpp:399] conv1_2_D -> conv1_2_D
I0523 15:14:00.336138 21880 net.cpp:141] Setting up conv1_2_D
I0523 15:14:00.336148 21880 net.cpp:148] Top shape: 1 32 224 224 (1605632)
I0523 15:14:00.336159 21880 net.cpp:156] Memory required for data: 158857216
I0523 15:14:00.336163 21880 layer_factory.hpp:77] Creating layer bn1_2_D
I0523 15:14:00.336169 21880 net.cpp:91] Creating Layer bn1_2_D
I0523 15:14:00.336171 21880 net.cpp:425] bn1_2_D <- conv1_2_D
I0523 15:14:00.336175 21880 net.cpp:386] bn1_2_D -> conv1_2_D (in-place)
I0523 15:14:00.336377 21880 net.cpp:141] Setting up bn1_2_D
I0523 15:14:00.336382 21880 net.cpp:148] Top shape: 1 32 224 224 (1605632)
I0523 15:14:00.336385 21880 net.cpp:156] Memory required for data: 165279744
I0523 15:14:00.336400 21880 layer_factory.hpp:77] Creating layer scale1_2_D
I0523 15:14:00.336403 21880 net.cpp:91] Creating Layer scale1_2_D
I0523 15:14:00.336405 21880 net.cpp:425] scale1_2_D <- conv1_2_D
I0523 15:14:00.336410 21880 net.cpp:386] scale1_2_D -> conv1_2_D (in-place)
I0523 15:14:00.336449 21880 layer_factory.hpp:77] Creating layer scale1_2_D
I0523 15:14:00.336627 21880 net.cpp:141] Setting up scale1_2_D
I0523 15:14:00.336632 21880 net.cpp:148] Top shape: 1 32 224 224 (1605632)
I0523 15:14:00.336644 21880 net.cpp:156] Memory required for data: 171702272
I0523 15:14:00.336648 21880 layer_factory.hpp:77] Creating layer relu1_2_D
I0523 15:14:00.336653 21880 net.cpp:91] Creating Layer relu1_2_D
I0523 15:14:00.336655 21880 net.cpp:425] relu1_2_D <- conv1_2_D
I0523 15:14:00.336658 21880 net.cpp:386] relu1_2_D -> conv1_2_D (in-place)
I0523 15:14:00.336889 21880 net.cpp:141] Setting up relu1_2_D
I0523 15:14:00.336897 21880 net.cpp:148] Top shape: 1 32 224 224 (1605632)
I0523 15:14:00.336908 21880 net.cpp:156] Memory required for data: 178124800
I0523 15:14:00.336911 21880 layer_factory.hpp:77] Creating layer conv1_1_D
I0523 15:14:00.336920 21880 net.cpp:91] Creating Layer conv1_1_D
I0523 15:14:00.336921 21880 net.cpp:425] conv1_1_D <- conv1_2_D
I0523 15:14:00.336926 21880 net.cpp:399] conv1_1_D -> conv1_1_D
I0523 15:14:00.338037 21880 net.cpp:141] Setting up conv1_1_D
I0523 15:14:00.338055 21880 net.cpp:148] Top shape: 1 2 224 224 (100352)
I0523 15:14:00.338058 21880 net.cpp:156] Memory required for data: 178526208
I0523 15:14:00.338064 21880 layer_factory.hpp:77] Creating layer conv1_1_D_conv1_1_D_0_split
I0523 15:14:00.338070 21880 net.cpp:91] Creating Layer conv1_1_D_conv1_1_D_0_split
I0523 15:14:00.338073 21880 net.cpp:425] conv1_1_D_conv1_1_D_0_split <- conv1_1_D
I0523 15:14:00.338078 21880 net.cpp:399] conv1_1_D_conv1_1_D_0_split -> conv1_1_D_conv1_1_D_0_split_0
I0523 15:14:00.338083 21880 net.cpp:399] conv1_1_D_conv1_1_D_0_split -> conv1_1_D_conv1_1_D_0_split_1
I0523 15:14:00.338131 21880 net.cpp:141] Setting up conv1_1_D_conv1_1_D_0_split
I0523 15:14:00.338135 21880 net.cpp:148] Top shape: 1 2 224 224 (100352)
I0523 15:14:00.338148 21880 net.cpp:148] Top shape: 1 2 224 224 (100352)
I0523 15:14:00.338150 21880 net.cpp:156] Memory required for data: 179329024
I0523 15:14:00.338152 21880 layer_factory.hpp:77] Creating layer loss
I0523 15:14:00.338160 21880 net.cpp:91] Creating Layer loss
I0523 15:14:00.338163 21880 net.cpp:425] loss <- conv1_1_D_conv1_1_D_0_split_0
I0523 15:14:00.338166 21880 net.cpp:425] loss <- label_data_1_split_0
I0523 15:14:00.338171 21880 net.cpp:399] loss -> loss
…
