…
I0622 22:32:36.172214  4313 net.cpp:313] The NetState phase (0) differed from the phase (1) specified by a rule in layer data
I0622 22:32:36.172727  4313 net.cpp:49] Initializing net from parameters: 
name: "segnet"
state {
  phase: TRAIN
}
layer {
  name: "data"
  type: "DenseImageData"
  top: "data"
  top: "label"
  include {
    phase: TRAIN
  }
  transform_param {
    crop_size: 224
    mean_value: 100
  }
  dense_image_data_param {
    source: "data/train.txt"
    batch_size: 64
    shuffle: true
    new_height: 224
    new_width: 310
    is_color: false
    root_folder: "data/raw/train/"
  }
}
layer {
  name: "conv1_1"
  type: "Convolution"
  bottom: "data"
  top: "conv1_1"
  param {
    lr_mult: 1
    decay_mult: 1
  }
  convolution_param {
    num_output: 64
    bias_term: false
    pad: 1
    kernel_size: 3
    weight_filler {
      type: "msra"
    }
  }
}
layer {
  name: "bn1_1"
  type: "BatchNorm"
  bottom: "conv1_1"
  top: "conv1_1"
  param {
    lr_mult: 0
  }
  param {
    lr_mult: 0
  }
  param {
    lr_mult: 0
  }
  batch_norm_param {
    use_global_stats: false
  }
}
layer {
  name: "scale1_1"
  type: "Scale"
  bottom: "conv1_1"
  top: "conv1_1"
  param {
    lr_mult: 1
    decay_mult: 1
  }
  param {
    lr_mult: 1
    decay_mult: 1
  }
  scale_param {
    bias_term: true
    bias_filler {
      type: "constant"
      value: 0
    }
  }
}
layer {
  name: "relu1_1"
  type: "ReLU"
  bottom: "conv1_1"
  top: "conv1_1"
}
layer {
  name: "pool1"
  type: "Pooling"
  bottom: "conv1_1"
  top: "pool1"
  top: "pool1_mask"
  pooling_param {
    pool: MAX
    kernel_size: 2
    stride: 2
  }
}
layer {
  name: "conv2_1"
  type: "Convolution"
  bottom: "pool1"
  top: "conv2_1"
  param {
    lr_mult: 1
    decay_mult: 1
  }
  convolution_param {
    num_output: 64
    bias_term: false
    pad: 1
    kernel_size: 3
    weight_filler {
      type: "msra"
    }
  }
}
layer {
  name: "bn2_1"
  type: "BatchNorm"
  bottom: "conv2_1"
  top: "conv2_1"
  param {
    lr_mult: 0
  }
  param {
    lr_mult: 0
  }
  param {
    lr_mult: 0
  }
  batch_norm_param {
    use_global_stats: false
  }
}
layer {
  name: "scale2_1"
  type: "Scale"
  bottom: "conv2_1"
  top: "conv2_1"
  param {
    lr_mult: 1
    decay_mult: 1
  }
  param {
    lr_mult: 1
    decay_mult: 1
  }
  scale_param {
    bias_term: true
    bias_filler {
      type: "constant"
      value: 0
    }
  }
}
layer {
  name: "relu2_1"
  type: "ReLU"
  bottom: "conv2_1"
  top: "conv2_1"
}
layer {
  name: "pool2"
  type: "Pooling"
  bottom: "conv2_1"
  top: "pool2"
  top: "pool2_mask"
  pooling_param {
    pool: MAX
    kernel_size: 2
    stride: 2
  }
}
layer {
  name: "conv3_1"
  type: "Convolution"
  bottom: "pool2"
  top: "conv3_1"
  param {
    lr_mult: 1
    decay_mult: 1
  }
  convolution_param {
    num_output: 64
    bias_term: false
    pad: 1
    kernel_size: 3
    weight_filler {
      type: "msra"
    }
  }
}
layer {
  name: "bn3_1"
  type: "BatchNorm"
  bottom: "conv3_1"
  top: "conv3_1"
  param {
    lr_mult: 0
  }
  param {
    lr_mult: 0
  }
  param {
    lr_mult: 0
  }
  batch_norm_param {
    use_global_stats: false
  }
}
layer {
  name: "scale3_1"
  type: "Scale"
  bottom: "conv3_1"
  top: "conv3_1"
  param {
    lr_mult: 1
    decay_mult: 1
  }
  param {
    lr_mult: 1
    decay_mult: 1
  }
  scale_param {
    bias_term: true
    bias_filler {
      type: "constant"
      value: 0
    }
  }
}
layer {
  name: "relu3_1"
  type: "ReLU"
  bottom: "conv3_1"
  top: "conv3_1"
}
layer {
  name: "pool3"
  type: "Pooling"
  bottom: "conv3_1"
  top: "pool3"
  top: "pool3_mask"
  pooling_param {
    pool: MAX
    kernel_size: 2
    stride: 2
  }
}
layer {
  name: "conv4_1"
  type: "Convolution"
  bottom: "pool3"
  top: "conv4_1"
  param {
    lr_mult: 1
    decay_mult: 1
  }
  convolution_param {
    num_output: 64
    bias_term: false
    pad: 1
    kernel_size: 3
    weight_filler {
      type: "msra"
    }
  }
}
layer {
  name: "bn4_1"
  type: "BatchNorm"
  bottom: "conv4_1"
  top: "conv4_1"
  param {
    lr_mult: 0
  }
  param {
    lr_mult: 0
  }
  param {
    lr_mult: 0
  }
  batch_norm_param {
    use_global_stats: false
  }
}
layer {
  name: "scale4_1"
  type: "Scale"
  bottom: "conv4_1"
  top: "conv4_1"
  param {
    lr_mult: 1
    decay_mult: 1
  }
  param {
    lr_mult: 1
    decay_mult: 1
  }
  scale_param {
    bias_term: true
    bias_filler {
      type: "constant"
      value: 0
    }
  }
}
layer {
  name: "relu4_1"
  type: "ReLU"
  bottom: "conv4_1"
  top: "conv4_1"
}
layer {
  name: "pool4"
  type: "Pooling"
  bottom: "conv4_1"
  top: "pool4"
  top: "pool4_mask"
  pooling_param {
    pool: MAX
    kernel_size: 2
    stride: 2
  }
}
layer {
  name: "conv5_1"
  type: "Convolution"
  bottom: "pool4"
  top: "conv5_1"
  param {
    lr_mult: 1
    decay_mult: 1
  }
  convolution_param {
    num_output: 64
    bias_term: false
    pad: 1
    kernel_size: 3
    weight_filler {
      type: "msra"
    }
  }
}
layer {
  name: "bn5_1"
  type: "BatchNorm"
  bottom: "conv5_1"
  top: "conv5_1"
  param {
    lr_mult: 0
  }
  param {
    lr_mult: 0
  }
  param {
    lr_mult: 0
  }
  batch_norm_param {
    use_global_stats: false
  }
}
layer {
  name: "scale5_1"
  type: "Scale"
  bottom: "conv5_1"
  top: "conv5_1"
  param {
    lr_mult: 1
    decay_mult: 1
  }
  param {
    lr_mult: 1
    decay_mult: 1
  }
  scale_param {
    bias_term: true
    bias_filler {
      type: "constant"
      value: 0
    }
  }
}
layer {
  name: "relu5_1"
  type: "ReLU"
  bottom: "conv5_1"
  top: "conv5_1"
}
layer {
  name: "pool5"
  type: "Pooling"
  bottom: "conv5_1"
  top: "pool5"
  top: "pool5_mask"
  pooling_param {
    pool: MAX
    kernel_size: 2
    stride: 2
  }
}
layer {
  name: "upsample5"
  type: "Upsample"
  bottom: "pool5"
  bottom: "pool5_mask"
  top: "pool5_D"
  upsample_param {
    scale: 2
    upsample_h: 14
    upsample_w: 14
  }
}
layer {
  name: "conv5_1_D"
  type: "Convolution"
  bottom: "pool5_D"
  top: "conv5_1_D"
  param {
    lr_mult: 1
    decay_mult: 1
  }
  convolution_param {
    num_output: 64
    bias_term: false
    pad: 1
    kernel_size: 3
    weight_filler {
      type: "msra"
    }
  }
}
layer {
  name: "bn5_1_D"
  type: "BatchNorm"
  bottom: "conv5_1_D"
  top: "conv5_1_D"
  param {
    lr_mult: 0
  }
  param {
    lr_mult: 0
  }
  param {
    lr_mult: 0
  }
  batch_norm_param {
    use_global_stats: false
  }
}
layer {
  name: "scale5_1_D"
  type: "Scale"
  bottom: "conv5_1_D"
  top: "conv5_1_D"
  param {
    lr_mult: 1
    decay_mult: 1
  }
  param {
    lr_mult: 1
    decay_mult: 1
  }
  scale_param {
    bias_term: true
    bias_filler {
      type: "constant"
      value: 0
    }
  }
}
layer {
  name: "relu5_1_D"
  type: "ReLU"
  bottom: "conv5_1_D"
  top: "conv5_1_D"
}
layer {
  name: "upsample4"
  type: "Upsample"
  bottom: "conv5_1_D"
  bottom: "pool4_mask"
  top: "pool4_D"
  upsample_param {
    scale: 2
    upsample_h: 28
    upsample_w: 28
  }
}
layer {
  name: "conv4_1_D"
  type: "Convolution"
  bottom: "pool4_D"
  top: "conv4_1_D"
  param {
    lr_mult: 1
    decay_mult: 1
  }
  convolution_param {
    num_output: 64
    bias_term: false
    pad: 1
    kernel_size: 3
    weight_filler {
      type: "msra"
    }
  }
}
layer {
  name: "bn4_1_D"
  type: "BatchNorm"
  bottom: "conv4_1_D"
  top: "conv4_1_D"
  param {
    lr_mult: 0
  }
  param {
    lr_mult: 0
  }
  param {
    lr_mult: 0
  }
  batch_norm_param {
    use_global_stats: false
  }
}
layer {
  name: "scale4_1_D"
  type: "Scale"
  bottom: "conv4_1_D"
  top: "conv4_1_D"
  param {
    lr_mult: 1
    decay_mult: 1
  }
  param {
    lr_mult: 1
    decay_mult: 1
  }
  scale_param {
    bias_term: true
    bias_filler {
      type: "constant"
      value: 0
    }
  }
}
layer {
  name: "relu4_1_D"
  type: "ReLU"
  bottom: "conv4_1_D"
  top: "conv4_1_D"
}
layer {
  name: "upsample3"
  type: "Upsample"
  bottom: "conv4_1_D"
  bottom: "pool3_mask"
  top: "pool3_D"
  upsample_param {
    scale: 2
    upsample_h: 56
    upsample_w: 56
  }
}
layer {
  name: "conv3_1_D"
  type: "Convolution"
  bottom: "pool3_D"
  top: "conv3_1_D"
  param {
    lr_mult: 1
    decay_mult: 1
  }
  convolution_param {
    num_output: 64
    bias_term: false
    pad: 1
    kernel_size: 3
    weight_filler {
      type: "msra"
    }
  }
}
layer {
  name: "bn3_1_D"
  type: "BatchNorm"
  bottom: "conv3_1_D"
  top: "conv3_1_D"
  param {
    lr_mult: 0
  }
  param {
    lr_mult: 0
  }
  param {
    lr_mult: 0
  }
  batch_norm_param {
    use_global_stats: false
  }
}
layer {
  name: "scale3_1_D"
  type: "Scale"
  bottom: "conv3_1_D"
  top: "conv3_1_D"
  param {
    lr_mult: 1
    decay_mult: 1
  }
  param {
    lr_mult: 1
    decay_mult: 1
  }
  scale_param {
    bias_term: true
    bias_filler {
      type: "constant"
      value: 0
    }
  }
}
layer {
  name: "relu3_1_D"
  type: "ReLU"
  bottom: "conv3_1_D"
  top: "conv3_1_D"
}
layer {
  name: "upsample2"
  type: "Upsample"
  bottom: "conv3_1_D"
  bottom: "pool2_mask"
  top: "pool2_D"
  upsample_param {
    scale: 2
    upsample_h: 112
    upsample_w: 112
  }
}
layer {
  name: "conv2_1_D"
  type: "Convolution"
  bottom: "pool2_D"
  top: "conv2_1_D"
  param {
    lr_mult: 1
    decay_mult: 1
  }
  convolution_param {
    num_output: 64
    bias_term: false
    pad: 1
    kernel_size: 3
    weight_filler {
      type: "msra"
    }
  }
}
layer {
  name: "bn2_1_D"
  type: "BatchNorm"
  bottom: "conv2_1_D"
  top: "conv2_1_D"
  param {
    lr_mult: 0
  }
  param {
    lr_mult: 0
  }
  param {
    lr_mult: 0
  }
  batch_norm_param {
    use_global_stats: false
  }
}
layer {
  name: "scale2_1_D"
  type: "Scale"
  bottom: "conv2_1_D"
  top: "conv2_1_D"
  param {
    lr_mult: 1
    decay_mult: 1
  }
  param {
    lr_mult: 1
    decay_mult: 1
  }
  scale_param {
    bias_term: true
    bias_filler {
      type: "constant"
      value: 0
    }
  }
}
layer {
  name: "relu2_1_D"
  type: "ReLU"
  bottom: "conv2_1_D"
  top: "conv2_1_D"
}
layer {
  name: "upsample1"
  type: "Upsample"
  bottom: "conv2_1_D"
  bottom: "pool1_mask"
  top: "pool1_D"
  upsample_param {
    scale: 2
    upsample_h: 224
    upsample_w: 224
  }
}
layer {
  name: "conv1_1_D"
  type: "Convolution"
  bottom: "pool1_D"
  top: "conv1_1_D"
  param {
    lr_mult: 1
    decay_mult: 1
  }
  convolution_param {
    num_output: 2
    bias_term: false
    pad: 1
    kernel_size: 3
    weight_filler {
      type: "msra"
    }
  }
}
layer {
  name: "bn1_1_D"
  type: "BatchNorm"
  bottom: "conv1_1_D"
  top: "conv1_1_D"
  param {
    lr_mult: 0
  }
  param {
    lr_mult: 0
  }
  param {
    lr_mult: 0
  }
  batch_norm_param {
    use_global_stats: false
  }
}
layer {
  name: "scale1_1_D"
  type: "Scale"
  bottom: "conv1_1_D"
  top: "conv1_1_D"
  param {
    lr_mult: 1
    decay_mult: 1
  }
  param {
    lr_mult: 1
    decay_mult: 1
  }
  scale_param {
    bias_term: true
    bias_filler {
      type: "constant"
      value: 0
    }
  }
}
layer {
  name: "relu1_1_D"
  type: "ReLU"
  bottom: "conv1_1_D"
  top: "conv1_1_D"
}
layer {
  name: "loss"
  type: "SoftmaxWithLoss"
  bottom: "conv1_1_D"
  bottom: "label"
  top: "loss"
}
layer {
  name: "accuracy"
  type: "Accuracy"
  bottom: "conv1_1_D"
  bottom: "label"
  top: "accuracy"
}
I0622 22:32:36.173115  4313 layer_factory.hpp:77] Creating layer data
I0622 22:32:36.173907  4313 net.cpp:91] Creating Layer data
I0622 22:32:36.173923  4313 net.cpp:399] data -> data
I0622 22:32:36.173960  4313 net.cpp:399] data -> label
I0622 22:32:36.174579  4313 dense_image_data_layer.cpp:38] Opening file data/train.txt
I0622 22:32:36.179620  4313 dense_image_data_layer.cpp:48] Shuffling data
I0622 22:32:36.180879  4313 dense_image_data_layer.cpp:53] A total of 4930 examples.
I0622 22:32:36.569007  4313 dense_image_data_layer.cpp:92] output data size: 1,1,224,224
I0622 22:32:36.572588  4313 net.cpp:141] Setting up data
I0622 22:32:36.572625  4313 net.cpp:148] Top shape: 1 1 224 224 (50176)
I0622 22:32:36.572634  4313 net.cpp:148] Top shape: 1 1 224 224 (50176)
I0622 22:32:36.572640  4313 net.cpp:156] Memory required for data: 401408
I0622 22:32:36.572654  4313 layer_factory.hpp:77] Creating layer label_data_1_split
I0622 22:32:36.573086  4313 net.cpp:91] Creating Layer label_data_1_split
I0622 22:32:36.573104  4313 net.cpp:425] label_data_1_split <- label
I0622 22:32:36.573122  4313 net.cpp:399] label_data_1_split -> label_data_1_split_0
I0622 22:32:36.573139  4313 net.cpp:399] label_data_1_split -> label_data_1_split_1
I0622 22:32:36.573544  4313 net.cpp:141] Setting up label_data_1_split
I0622 22:32:36.573562  4313 net.cpp:148] Top shape: 1 1 224 224 (50176)
I0622 22:32:36.573570  4313 net.cpp:148] Top shape: 1 1 224 224 (50176)
I0622 22:32:36.573575  4313 net.cpp:156] Memory required for data: 802816
I0622 22:32:36.573580  4313 layer_factory.hpp:77] Creating layer conv1_1
I0622 22:32:36.573606  4313 net.cpp:91] Creating Layer conv1_1
I0622 22:32:36.573611  4313 net.cpp:425] conv1_1 <- data
I0622 22:32:36.573621  4313 net.cpp:399] conv1_1 -> conv1_1
I0622 22:32:37.029458  4313 net.cpp:141] Setting up conv1_1
I0622 22:32:37.029484  4313 net.cpp:148] Top shape: 1 64 224 224 (3211264)
I0622 22:32:37.029489  4313 net.cpp:156] Memory required for data: 13647872
I0622 22:32:37.029501  4313 layer_factory.hpp:77] Creating layer bn1_1
I0622 22:32:37.029517  4313 net.cpp:91] Creating Layer bn1_1
I0622 22:32:37.029522  4313 net.cpp:425] bn1_1 <- conv1_1
I0622 22:32:37.029527  4313 net.cpp:386] bn1_1 -> conv1_1 (in-place)
I0622 22:32:37.029728  4313 net.cpp:141] Setting up bn1_1
I0622 22:32:37.029737  4313 net.cpp:148] Top shape: 1 64 224 224 (3211264)
I0622 22:32:37.029741  4313 net.cpp:156] Memory required for data: 26492928
I0622 22:32:37.029750  4313 layer_factory.hpp:77] Creating layer scale1_1
I0622 22:32:37.029760  4313 net.cpp:91] Creating Layer scale1_1
I0622 22:32:37.029763  4313 net.cpp:425] scale1_1 <- conv1_1
I0622 22:32:37.029768  4313 net.cpp:386] scale1_1 -> conv1_1 (in-place)
I0622 22:32:37.029811  4313 layer_factory.hpp:77] Creating layer scale1_1
I0622 22:32:37.029991  4313 net.cpp:141] Setting up scale1_1
I0622 22:32:37.030000  4313 net.cpp:148] Top shape: 1 64 224 224 (3211264)
I0622 22:32:37.030004  4313 net.cpp:156] Memory required for data: 39337984
I0622 22:32:37.030009  4313 layer_factory.hpp:77] Creating layer relu1_1
I0622 22:32:37.030015  4313 net.cpp:91] Creating Layer relu1_1
I0622 22:32:37.030019  4313 net.cpp:425] relu1_1 <- conv1_1
I0622 22:32:37.030022  4313 net.cpp:386] relu1_1 -> conv1_1 (in-place)
I0622 22:32:37.030318  4313 net.cpp:141] Setting up relu1_1
I0622 22:32:37.030330  4313 net.cpp:148] Top shape: 1 64 224 224 (3211264)
I0622 22:32:37.030336  4313 net.cpp:156] Memory required for data: 52183040
I0622 22:32:37.030339  4313 layer_factory.hpp:77] Creating layer pool1
I0622 22:32:37.030344  4313 layer_factory.cpp:90] cuDNN does not support multiple tops. Using Caffe's own pooling layer.
I0622 22:32:37.030349  4313 net.cpp:91] Creating Layer pool1
I0622 22:32:37.030351  4313 net.cpp:425] pool1 <- conv1_1
I0622 22:32:37.030356  4313 net.cpp:399] pool1 -> pool1
I0622 22:32:37.030364  4313 net.cpp:399] pool1 -> pool1_mask
I0622 22:32:37.030405  4313 net.cpp:141] Setting up pool1
I0622 22:32:37.030411  4313 net.cpp:148] Top shape: 1 64 112 112 (802816)
I0622 22:32:37.030414  4313 net.cpp:148] Top shape: 1 64 112 112 (802816)
I0622 22:32:37.030416  4313 net.cpp:156] Memory required for data: 58605568
I0622 22:32:37.030418  4313 layer_factory.hpp:77] Creating layer conv2_1
I0622 22:32:37.030427  4313 net.cpp:91] Creating Layer conv2_1
I0622 22:32:37.030431  4313 net.cpp:425] conv2_1 <- pool1
I0622 22:32:37.030434  4313 net.cpp:399] conv2_1 -> conv2_1
I0622 22:32:37.033066  4313 net.cpp:141] Setting up conv2_1
I0622 22:32:37.033080  4313 net.cpp:148] Top shape: 1 64 112 112 (802816)
I0622 22:32:37.033099  4313 net.cpp:156] Memory required for data: 61816832
I0622 22:32:37.033107  4313 layer_factory.hpp:77] Creating layer bn2_1
I0622 22:32:37.033116  4313 net.cpp:91] Creating Layer bn2_1
I0622 22:32:37.033120  4313 net.cpp:425] bn2_1 <- conv2_1
I0622 22:32:37.033124  4313 net.cpp:386] bn2_1 -> conv2_1 (in-place)
I0622 22:32:37.034011  4313 net.cpp:141] Setting up bn2_1
I0622 22:32:37.034024  4313 net.cpp:148] Top shape: 1 64 112 112 (802816)
I0622 22:32:37.034027  4313 net.cpp:156] Memory required for data: 65028096
I0622 22:32:37.034039  4313 layer_factory.hpp:77] Creating layer scale2_1
I0622 22:32:37.034046  4313 net.cpp:91] Creating Layer scale2_1
I0622 22:32:37.034049  4313 net.cpp:425] scale2_1 <- conv2_1
I0622 22:32:37.034055  4313 net.cpp:386] scale2_1 -> conv2_1 (in-place)
I0622 22:32:37.034093  4313 layer_factory.hpp:77] Creating layer scale2_1
I0622 22:32:37.034200  4313 net.cpp:141] Setting up scale2_1
I0622 22:32:37.034209  4313 net.cpp:148] Top shape: 1 64 112 112 (802816)
I0622 22:32:37.034212  4313 net.cpp:156] Memory required for data: 68239360
I0622 22:32:37.034217  4313 layer_factory.hpp:77] Creating layer relu2_1
I0622 22:32:37.034222  4313 net.cpp:91] Creating Layer relu2_1
I0622 22:32:37.034225  4313 net.cpp:425] relu2_1 <- conv2_1
I0622 22:32:37.034229  4313 net.cpp:386] relu2_1 -> conv2_1 (in-place)
I0622 22:32:37.034395  4313 net.cpp:141] Setting up relu2_1
I0622 22:32:37.034405  4313 net.cpp:148] Top shape: 1 64 112 112 (802816)
I0622 22:32:37.034407  4313 net.cpp:156] Memory required for data: 71450624
I0622 22:32:37.034410  4313 layer_factory.hpp:77] Creating layer pool2
I0622 22:32:37.034413  4313 layer_factory.cpp:90] cuDNN does not support multiple tops. Using Caffe's own pooling layer.
I0622 22:32:37.034420  4313 net.cpp:91] Creating Layer pool2
I0622 22:32:37.034422  4313 net.cpp:425] pool2 <- conv2_1
I0622 22:32:37.034428  4313 net.cpp:399] pool2 -> pool2
I0622 22:32:37.034435  4313 net.cpp:399] pool2 -> pool2_mask
I0622 22:32:37.034478  4313 net.cpp:141] Setting up pool2
I0622 22:32:37.034483  4313 net.cpp:148] Top shape: 1 64 56 56 (200704)
I0622 22:32:37.034487  4313 net.cpp:148] Top shape: 1 64 56 56 (200704)
I0622 22:32:37.034489  4313 net.cpp:156] Memory required for data: 73056256
I0622 22:32:37.034492  4313 layer_factory.hpp:77] Creating layer conv3_1
I0622 22:32:37.034500  4313 net.cpp:91] Creating Layer conv3_1
I0622 22:32:37.034503  4313 net.cpp:425] conv3_1 <- pool2
I0622 22:32:37.034507  4313 net.cpp:399] conv3_1 -> conv3_1
I0622 22:32:37.036900  4313 net.cpp:141] Setting up conv3_1
I0622 22:32:37.036916  4313 net.cpp:148] Top shape: 1 64 56 56 (200704)
I0622 22:32:37.036918  4313 net.cpp:156] Memory required for data: 73859072
I0622 22:32:37.036923  4313 layer_factory.hpp:77] Creating layer bn3_1
I0622 22:32:37.036931  4313 net.cpp:91] Creating Layer bn3_1
I0622 22:32:37.036933  4313 net.cpp:425] bn3_1 <- conv3_1
I0622 22:32:37.036942  4313 net.cpp:386] bn3_1 -> conv3_1 (in-place)
I0622 22:32:37.037819  4313 net.cpp:141] Setting up bn3_1
I0622 22:32:37.037832  4313 net.cpp:148] Top shape: 1 64 56 56 (200704)
I0622 22:32:37.037834  4313 net.cpp:156] Memory required for data: 74661888
I0622 22:32:37.037842  4313 layer_factory.hpp:77] Creating layer scale3_1
I0622 22:32:37.037850  4313 net.cpp:91] Creating Layer scale3_1
I0622 22:32:37.037853  4313 net.cpp:425] scale3_1 <- conv3_1
I0622 22:32:37.037858  4313 net.cpp:386] scale3_1 -> conv3_1 (in-place)
I0622 22:32:37.037899  4313 layer_factory.hpp:77] Creating layer scale3_1
I0622 22:32:37.038002  4313 net.cpp:141] Setting up scale3_1
I0622 22:32:37.038010  4313 net.cpp:148] Top shape: 1 64 56 56 (200704)
I0622 22:32:37.038013  4313 net.cpp:156] Memory required for data: 75464704
I0622 22:32:37.038022  4313 layer_factory.hpp:77] Creating layer relu3_1
I0622 22:32:37.038028  4313 net.cpp:91] Creating Layer relu3_1
I0622 22:32:37.038030  4313 net.cpp:425] relu3_1 <- conv3_1
I0622 22:32:37.038034  4313 net.cpp:386] relu3_1 -> conv3_1 (in-place)
I0622 22:32:37.038352  4313 net.cpp:141] Setting up relu3_1
I0622 22:32:37.038373  4313 net.cpp:148] Top shape: 1 64 56 56 (200704)
I0622 22:32:37.038378  4313 net.cpp:156] Memory required for data: 76267520
I0622 22:32:37.038381  4313 layer_factory.hpp:77] Creating layer pool3
I0622 22:32:37.038384  4313 layer_factory.cpp:90] cuDNN does not support multiple tops. Using Caffe's own pooling layer.
I0622 22:32:37.038391  4313 net.cpp:91] Creating Layer pool3
I0622 22:32:37.038394  4313 net.cpp:425] pool3 <- conv3_1
I0622 22:32:37.038399  4313 net.cpp:399] pool3 -> pool3
I0622 22:32:37.038406  4313 net.cpp:399] pool3 -> pool3_mask
I0622 22:32:37.038449  4313 net.cpp:141] Setting up pool3
I0622 22:32:37.038453  4313 net.cpp:148] Top shape: 1 64 28 28 (50176)
I0622 22:32:37.038456  4313 net.cpp:148] Top shape: 1 64 28 28 (50176)
I0622 22:32:37.038458  4313 net.cpp:156] Memory required for data: 76668928
I0622 22:32:37.038461  4313 layer_factory.hpp:77] Creating layer conv4_1
I0622 22:32:37.038470  4313 net.cpp:91] Creating Layer conv4_1
I0622 22:32:37.038472  4313 net.cpp:425] conv4_1 <- pool3
I0622 22:32:37.038478  4313 net.cpp:399] conv4_1 -> conv4_1
I0622 22:32:37.040730  4313 net.cpp:141] Setting up conv4_1
I0622 22:32:37.040745  4313 net.cpp:148] Top shape: 1 64 28 28 (50176)
I0622 22:32:37.040748  4313 net.cpp:156] Memory required for data: 76869632
I0622 22:32:37.040755  4313 layer_factory.hpp:77] Creating layer bn4_1
I0622 22:32:37.040761  4313 net.cpp:91] Creating Layer bn4_1
I0622 22:32:37.040766  4313 net.cpp:425] bn4_1 <- conv4_1
I0622 22:32:37.040769  4313 net.cpp:386] bn4_1 -> conv4_1 (in-place)
I0622 22:32:37.040953  4313 net.cpp:141] Setting up bn4_1
I0622 22:32:37.040962  4313 net.cpp:148] Top shape: 1 64 28 28 (50176)
I0622 22:32:37.040964  4313 net.cpp:156] Memory required for data: 77070336
I0622 22:32:37.040971  4313 layer_factory.hpp:77] Creating layer scale4_1
I0622 22:32:37.040977  4313 net.cpp:91] Creating Layer scale4_1
I0622 22:32:37.040980  4313 net.cpp:425] scale4_1 <- conv4_1
I0622 22:32:37.040984  4313 net.cpp:386] scale4_1 -> conv4_1 (in-place)
I0622 22:32:37.041023  4313 layer_factory.hpp:77] Creating layer scale4_1
I0622 22:32:37.041138  4313 net.cpp:141] Setting up scale4_1
I0622 22:32:37.041146  4313 net.cpp:148] Top shape: 1 64 28 28 (50176)
I0622 22:32:37.041148  4313 net.cpp:156] Memory required for data: 77271040
I0622 22:32:37.041153  4313 layer_factory.hpp:77] Creating layer relu4_1
I0622 22:32:37.041158  4313 net.cpp:91] Creating Layer relu4_1
I0622 22:32:37.041160  4313 net.cpp:425] relu4_1 <- conv4_1
I0622 22:32:37.041164  4313 net.cpp:386] relu4_1 -> conv4_1 (in-place)
I0622 22:32:37.041462  4313 net.cpp:141] Setting up relu4_1
I0622 22:32:37.041476  4313 net.cpp:148] Top shape: 1 64 28 28 (50176)
I0622 22:32:37.041478  4313 net.cpp:156] Memory required for data: 77471744
I0622 22:32:37.041482  4313 layer_factory.hpp:77] Creating layer pool4
I0622 22:32:37.041486  4313 layer_factory.cpp:90] cuDNN does not support multiple tops. Using Caffe's own pooling layer.
I0622 22:32:37.041491  4313 net.cpp:91] Creating Layer pool4
I0622 22:32:37.041493  4313 net.cpp:425] pool4 <- conv4_1
I0622 22:32:37.041497  4313 net.cpp:399] pool4 -> pool4
I0622 22:32:37.041504  4313 net.cpp:399] pool4 -> pool4_mask
I0622 22:32:37.041544  4313 net.cpp:141] Setting up pool4
I0622 22:32:37.041549  4313 net.cpp:148] Top shape: 1 64 14 14 (12544)
I0622 22:32:37.041553  4313 net.cpp:148] Top shape: 1 64 14 14 (12544)
I0622 22:32:37.041554  4313 net.cpp:156] Memory required for data: 77572096
I0622 22:32:37.041556  4313 layer_factory.hpp:77] Creating layer conv5_1
I0622 22:32:37.041565  4313 net.cpp:91] Creating Layer conv5_1
I0622 22:32:37.041568  4313 net.cpp:425] conv5_1 <- pool4
I0622 22:32:37.041574  4313 net.cpp:399] conv5_1 -> conv5_1
I0622 22:32:37.044602  4313 net.cpp:141] Setting up conv5_1
I0622 22:32:37.044617  4313 net.cpp:148] Top shape: 1 64 14 14 (12544)
I0622 22:32:37.044620  4313 net.cpp:156] Memory required for data: 77622272
I0622 22:32:37.044626  4313 layer_factory.hpp:77] Creating layer bn5_1
I0622 22:32:37.044633  4313 net.cpp:91] Creating Layer bn5_1
I0622 22:32:37.044648  4313 net.cpp:425] bn5_1 <- conv5_1
I0622 22:32:37.044654  4313 net.cpp:386] bn5_1 -> conv5_1 (in-place)
I0622 22:32:37.044836  4313 net.cpp:141] Setting up bn5_1
I0622 22:32:37.044843  4313 net.cpp:148] Top shape: 1 64 14 14 (12544)
I0622 22:32:37.044845  4313 net.cpp:156] Memory required for data: 77672448
I0622 22:32:37.044852  4313 layer_factory.hpp:77] Creating layer scale5_1
I0622 22:32:37.044858  4313 net.cpp:91] Creating Layer scale5_1
I0622 22:32:37.044860  4313 net.cpp:425] scale5_1 <- conv5_1
I0622 22:32:37.044864  4313 net.cpp:386] scale5_1 -> conv5_1 (in-place)
I0622 22:32:37.044903  4313 layer_factory.hpp:77] Creating layer scale5_1
I0622 22:32:37.045007  4313 net.cpp:141] Setting up scale5_1
I0622 22:32:37.045014  4313 net.cpp:148] Top shape: 1 64 14 14 (12544)
I0622 22:32:37.045017  4313 net.cpp:156] Memory required for data: 77722624
I0622 22:32:37.045022  4313 layer_factory.hpp:77] Creating layer relu5_1
I0622 22:32:37.045027  4313 net.cpp:91] Creating Layer relu5_1
I0622 22:32:37.045028  4313 net.cpp:425] relu5_1 <- conv5_1
I0622 22:32:37.045032  4313 net.cpp:386] relu5_1 -> conv5_1 (in-place)
I0622 22:32:37.045230  4313 net.cpp:141] Setting up relu5_1
I0622 22:32:37.045243  4313 net.cpp:148] Top shape: 1 64 14 14 (12544)
I0622 22:32:37.045244  4313 net.cpp:156] Memory required for data: 77772800
I0622 22:32:37.045248  4313 layer_factory.hpp:77] Creating layer pool5
I0622 22:32:37.045251  4313 layer_factory.cpp:90] cuDNN does not support multiple tops. Using Caffe's own pooling layer.
I0622 22:32:37.045258  4313 net.cpp:91] Creating Layer pool5
I0622 22:32:37.045260  4313 net.cpp:425] pool5 <- conv5_1
I0622 22:32:37.045264  4313 net.cpp:399] pool5 -> pool5
I0622 22:32:37.045269  4313 net.cpp:399] pool5 -> pool5_mask
I0622 22:32:37.045317  4313 net.cpp:141] Setting up pool5
I0622 22:32:37.045323  4313 net.cpp:148] Top shape: 1 64 7 7 (3136)
I0622 22:32:37.045327  4313 net.cpp:148] Top shape: 1 64 7 7 (3136)
I0622 22:32:37.045330  4313 net.cpp:156] Memory required for data: 77797888
I0622 22:32:37.045332  4313 layer_factory.hpp:77] Creating layer upsample5
I0622 22:32:37.045338  4313 net.cpp:91] Creating Layer upsample5
I0622 22:32:37.045341  4313 net.cpp:425] upsample5 <- pool5
I0622 22:32:37.045344  4313 net.cpp:425] upsample5 <- pool5_mask
I0622 22:32:37.045349  4313 net.cpp:399] upsample5 -> pool5_D
I0622 22:32:37.045378  4313 net.cpp:141] Setting up upsample5
I0622 22:32:37.045384  4313 net.cpp:148] Top shape: 1 64 14 14 (12544)
I0622 22:32:37.045387  4313 net.cpp:156] Memory required for data: 77848064
I0622 22:32:37.045389  4313 layer_factory.hpp:77] Creating layer conv5_1_D
I0622 22:32:37.045397  4313 net.cpp:91] Creating Layer conv5_1_D
I0622 22:32:37.045399  4313 net.cpp:425] conv5_1_D <- pool5_D
I0622 22:32:37.045405  4313 net.cpp:399] conv5_1_D -> conv5_1_D
I0622 22:32:37.047729  4313 net.cpp:141] Setting up conv5_1_D
I0622 22:32:37.047742  4313 net.cpp:148] Top shape: 1 64 14 14 (12544)
I0622 22:32:37.047745  4313 net.cpp:156] Memory required for data: 77898240
I0622 22:32:37.047752  4313 layer_factory.hpp:77] Creating layer bn5_1_D
I0622 22:32:37.047758  4313 net.cpp:91] Creating Layer bn5_1_D
I0622 22:32:37.047761  4313 net.cpp:425] bn5_1_D <- conv5_1_D
I0622 22:32:37.047767  4313 net.cpp:386] bn5_1_D -> conv5_1_D (in-place)
I0622 22:32:37.047953  4313 net.cpp:141] Setting up bn5_1_D
I0622 22:32:37.047961  4313 net.cpp:148] Top shape: 1 64 14 14 (12544)
I0622 22:32:37.047965  4313 net.cpp:156] Memory required for data: 77948416
I0622 22:32:37.047976  4313 layer_factory.hpp:77] Creating layer scale5_1_D
I0622 22:32:37.047983  4313 net.cpp:91] Creating Layer scale5_1_D
I0622 22:32:37.047986  4313 net.cpp:425] scale5_1_D <- conv5_1_D
I0622 22:32:37.047991  4313 net.cpp:386] scale5_1_D -> conv5_1_D (in-place)
I0622 22:32:37.048032  4313 layer_factory.hpp:77] Creating layer scale5_1_D
I0622 22:32:37.048130  4313 net.cpp:141] Setting up scale5_1_D
I0622 22:32:37.048137  4313 net.cpp:148] Top shape: 1 64 14 14 (12544)
I0622 22:32:37.048140  4313 net.cpp:156] Memory required for data: 77998592
I0622 22:32:37.048156  4313 layer_factory.hpp:77] Creating layer relu5_1_D
I0622 22:32:37.048161  4313 net.cpp:91] Creating Layer relu5_1_D
I0622 22:32:37.048163  4313 net.cpp:425] relu5_1_D <- conv5_1_D
I0622 22:32:37.048168  4313 net.cpp:386] relu5_1_D -> conv5_1_D (in-place)
I0622 22:32:37.048467  4313 net.cpp:141] Setting up relu5_1_D
I0622 22:32:37.048480  4313 net.cpp:148] Top shape: 1 64 14 14 (12544)
I0622 22:32:37.048482  4313 net.cpp:156] Memory required for data: 78048768
I0622 22:32:37.048485  4313 layer_factory.hpp:77] Creating layer upsample4
I0622 22:32:37.048494  4313 net.cpp:91] Creating Layer upsample4
I0622 22:32:37.048498  4313 net.cpp:425] upsample4 <- conv5_1_D
I0622 22:32:37.048502  4313 net.cpp:425] upsample4 <- pool4_mask
I0622 22:32:37.048508  4313 net.cpp:399] upsample4 -> pool4_D
I0622 22:32:37.048538  4313 net.cpp:141] Setting up upsample4
I0622 22:32:37.048543  4313 net.cpp:148] Top shape: 1 64 28 28 (50176)
I0622 22:32:37.048545  4313 net.cpp:156] Memory required for data: 78249472
I0622 22:32:37.048547  4313 layer_factory.hpp:77] Creating layer conv4_1_D
I0622 22:32:37.048557  4313 net.cpp:91] Creating Layer conv4_1_D
I0622 22:32:37.048559  4313 net.cpp:425] conv4_1_D <- pool4_D
I0622 22:32:37.048564  4313 net.cpp:399] conv4_1_D -> conv4_1_D
I0622 22:32:37.050761  4313 net.cpp:141] Setting up conv4_1_D
I0622 22:32:37.050775  4313 net.cpp:148] Top shape: 1 64 28 28 (50176)
I0622 22:32:37.050777  4313 net.cpp:156] Memory required for data: 78450176
I0622 22:32:37.050782  4313 layer_factory.hpp:77] Creating layer bn4_1_D
I0622 22:32:37.050791  4313 net.cpp:91] Creating Layer bn4_1_D
I0622 22:32:37.050793  4313 net.cpp:425] bn4_1_D <- conv4_1_D
I0622 22:32:37.050798  4313 net.cpp:386] bn4_1_D -> conv4_1_D (in-place)
I0622 22:32:37.050983  4313 net.cpp:141] Setting up bn4_1_D
I0622 22:32:37.050992  4313 net.cpp:148] Top shape: 1 64 28 28 (50176)
I0622 22:32:37.050993  4313 net.cpp:156] Memory required for data: 78650880
I0622 22:32:37.051000  4313 layer_factory.hpp:77] Creating layer scale4_1_D
I0622 22:32:37.051007  4313 net.cpp:91] Creating Layer scale4_1_D
I0622 22:32:37.051009  4313 net.cpp:425] scale4_1_D <- conv4_1_D
I0622 22:32:37.051013  4313 net.cpp:386] scale4_1_D -> conv4_1_D (in-place)
I0622 22:32:37.051054  4313 layer_factory.hpp:77] Creating layer scale4_1_D
I0622 22:32:37.051167  4313 net.cpp:141] Setting up scale4_1_D
I0622 22:32:37.051173  4313 net.cpp:148] Top shape: 1 64 28 28 (50176)
I0622 22:32:37.051175  4313 net.cpp:156] Memory required for data: 78851584
I0622 22:32:37.051180  4313 layer_factory.hpp:77] Creating layer relu4_1_D
I0622 22:32:37.051184  4313 net.cpp:91] Creating Layer relu4_1_D
I0622 22:32:37.051187  4313 net.cpp:425] relu4_1_D <- conv4_1_D
I0622 22:32:37.051192  4313 net.cpp:386] relu4_1_D -> conv4_1_D (in-place)
I0622 22:32:37.051488  4313 net.cpp:141] Setting up relu4_1_D
I0622 22:32:37.051501  4313 net.cpp:148] Top shape: 1 64 28 28 (50176)
I0622 22:32:37.051502  4313 net.cpp:156] Memory required for data: 79052288
I0622 22:32:37.051506  4313 layer_factory.hpp:77] Creating layer upsample3
I0622 22:32:37.051512  4313 net.cpp:91] Creating Layer upsample3
I0622 22:32:37.051514  4313 net.cpp:425] upsample3 <- conv4_1_D
I0622 22:32:37.051518  4313 net.cpp:425] upsample3 <- pool3_mask
I0622 22:32:37.051523  4313 net.cpp:399] upsample3 -> pool3_D
I0622 22:32:37.051551  4313 net.cpp:141] Setting up upsample3
I0622 22:32:37.051558  4313 net.cpp:148] Top shape: 1 64 56 56 (200704)
I0622 22:32:37.051559  4313 net.cpp:156] Memory required for data: 79855104
I0622 22:32:37.051563  4313 layer_factory.hpp:77] Creating layer conv3_1_D
I0622 22:32:37.051569  4313 net.cpp:91] Creating Layer conv3_1_D
I0622 22:32:37.051573  4313 net.cpp:425] conv3_1_D <- pool3_D
I0622 22:32:37.051578  4313 net.cpp:399] conv3_1_D -> conv3_1_D
I0622 22:32:37.054052  4313 net.cpp:141] Setting up conv3_1_D
I0622 22:32:37.054066  4313 net.cpp:148] Top shape: 1 64 56 56 (200704)
I0622 22:32:37.054069  4313 net.cpp:156] Memory required for data: 80657920
I0622 22:32:37.054074  4313 layer_factory.hpp:77] Creating layer bn3_1_D
I0622 22:32:37.054092  4313 net.cpp:91] Creating Layer bn3_1_D
I0622 22:32:37.054096  4313 net.cpp:425] bn3_1_D <- conv3_1_D
I0622 22:32:37.054100  4313 net.cpp:386] bn3_1_D -> conv3_1_D (in-place)
I0622 22:32:37.054291  4313 net.cpp:141] Setting up bn3_1_D
I0622 22:32:37.054298  4313 net.cpp:148] Top shape: 1 64 56 56 (200704)
I0622 22:32:37.054301  4313 net.cpp:156] Memory required for data: 81460736
I0622 22:32:37.054306  4313 layer_factory.hpp:77] Creating layer scale3_1_D
I0622 22:32:37.054316  4313 net.cpp:91] Creating Layer scale3_1_D
I0622 22:32:37.054318  4313 net.cpp:425] scale3_1_D <- conv3_1_D
I0622 22:32:37.054322  4313 net.cpp:386] scale3_1_D -> conv3_1_D (in-place)
I0622 22:32:37.054359  4313 layer_factory.hpp:77] Creating layer scale3_1_D
I0622 22:32:37.054476  4313 net.cpp:141] Setting up scale3_1_D
I0622 22:32:37.054482  4313 net.cpp:148] Top shape: 1 64 56 56 (200704)
I0622 22:32:37.054486  4313 net.cpp:156] Memory required for data: 82263552
I0622 22:32:37.054489  4313 layer_factory.hpp:77] Creating layer relu3_1_D
I0622 22:32:37.054494  4313 net.cpp:91] Creating Layer relu3_1_D
I0622 22:32:37.054497  4313 net.cpp:425] relu3_1_D <- conv3_1_D
I0622 22:32:37.054500  4313 net.cpp:386] relu3_1_D -> conv3_1_D (in-place)
I0622 22:32:37.054675  4313 net.cpp:141] Setting up relu3_1_D
I0622 22:32:37.054685  4313 net.cpp:148] Top shape: 1 64 56 56 (200704)
I0622 22:32:37.054688  4313 net.cpp:156] Memory required for data: 83066368
I0622 22:32:37.054692  4313 layer_factory.hpp:77] Creating layer upsample2
I0622 22:32:37.054697  4313 net.cpp:91] Creating Layer upsample2
I0622 22:32:37.054699  4313 net.cpp:425] upsample2 <- conv3_1_D
I0622 22:32:37.054703  4313 net.cpp:425] upsample2 <- pool2_mask
I0622 22:32:37.054708  4313 net.cpp:399] upsample2 -> pool2_D
I0622 22:32:37.054738  4313 net.cpp:141] Setting up upsample2
I0622 22:32:37.054743  4313 net.cpp:148] Top shape: 1 64 112 112 (802816)
I0622 22:32:37.054744  4313 net.cpp:156] Memory required for data: 86277632
I0622 22:32:37.054746  4313 layer_factory.hpp:77] Creating layer conv2_1_D
I0622 22:32:37.054755  4313 net.cpp:91] Creating Layer conv2_1_D
I0622 22:32:37.054759  4313 net.cpp:425] conv2_1_D <- pool2_D
I0622 22:32:37.054762  4313 net.cpp:399] conv2_1_D -> conv2_1_D
I0622 22:32:37.057034  4313 net.cpp:141] Setting up conv2_1_D
I0622 22:32:37.057046  4313 net.cpp:148] Top shape: 1 64 112 112 (802816)
I0622 22:32:37.057049  4313 net.cpp:156] Memory required for data: 89488896
I0622 22:32:37.057055  4313 layer_factory.hpp:77] Creating layer bn2_1_D
I0622 22:32:37.057062  4313 net.cpp:91] Creating Layer bn2_1_D
I0622 22:32:37.057065  4313 net.cpp:425] bn2_1_D <- conv2_1_D
I0622 22:32:37.057070  4313 net.cpp:386] bn2_1_D -> conv2_1_D (in-place)
I0622 22:32:37.057255  4313 net.cpp:141] Setting up bn2_1_D
I0622 22:32:37.057263  4313 net.cpp:148] Top shape: 1 64 112 112 (802816)
I0622 22:32:37.057265  4313 net.cpp:156] Memory required for data: 92700160
I0622 22:32:37.057271  4313 layer_factory.hpp:77] Creating layer scale2_1_D
I0622 22:32:37.057278  4313 net.cpp:91] Creating Layer scale2_1_D
I0622 22:32:37.057281  4313 net.cpp:425] scale2_1_D <- conv2_1_D
I0622 22:32:37.057286  4313 net.cpp:386] scale2_1_D -> conv2_1_D (in-place)
I0622 22:32:37.057323  4313 layer_factory.hpp:77] Creating layer scale2_1_D
I0622 22:32:37.057441  4313 net.cpp:141] Setting up scale2_1_D
I0622 22:32:37.057449  4313 net.cpp:148] Top shape: 1 64 112 112 (802816)
I0622 22:32:37.057451  4313 net.cpp:156] Memory required for data: 95911424
I0622 22:32:37.057456  4313 layer_factory.hpp:77] Creating layer relu2_1_D
I0622 22:32:37.057461  4313 net.cpp:91] Creating Layer relu2_1_D
I0622 22:32:37.057462  4313 net.cpp:425] relu2_1_D <- conv2_1_D
I0622 22:32:37.057466  4313 net.cpp:386] relu2_1_D -> conv2_1_D (in-place)
I0622 22:32:37.057754  4313 net.cpp:141] Setting up relu2_1_D
I0622 22:32:37.057766  4313 net.cpp:148] Top shape: 1 64 112 112 (802816)
I0622 22:32:37.057768  4313 net.cpp:156] Memory required for data: 99122688
I0622 22:32:37.057781  4313 layer_factory.hpp:77] Creating layer upsample1
I0622 22:32:37.057787  4313 net.cpp:91] Creating Layer upsample1
I0622 22:32:37.057792  4313 net.cpp:425] upsample1 <- conv2_1_D
I0622 22:32:37.057796  4313 net.cpp:425] upsample1 <- pool1_mask
I0622 22:32:37.057801  4313 net.cpp:399] upsample1 -> pool1_D
I0622 22:32:37.057831  4313 net.cpp:141] Setting up upsample1
I0622 22:32:37.057835  4313 net.cpp:148] Top shape: 1 64 224 224 (3211264)
I0622 22:32:37.057837  4313 net.cpp:156] Memory required for data: 111967744
I0622 22:32:37.057839  4313 layer_factory.hpp:77] Creating layer conv1_1_D
I0622 22:32:37.057847  4313 net.cpp:91] Creating Layer conv1_1_D
I0622 22:32:37.057852  4313 net.cpp:425] conv1_1_D <- pool1_D
I0622 22:32:37.057857  4313 net.cpp:399] conv1_1_D -> conv1_1_D
I0622 22:32:37.058818  4313 net.cpp:141] Setting up conv1_1_D
I0622 22:32:37.058832  4313 net.cpp:148] Top shape: 1 2 224 224 (100352)
I0622 22:32:37.058835  4313 net.cpp:156] Memory required for data: 112369152
I0622 22:32:37.058840  4313 layer_factory.hpp:77] Creating layer bn1_1_D
I0622 22:32:37.058846  4313 net.cpp:91] Creating Layer bn1_1_D
I0622 22:32:37.058850  4313 net.cpp:425] bn1_1_D <- conv1_1_D
I0622 22:32:37.058854  4313 net.cpp:386] bn1_1_D -> conv1_1_D (in-place)
I0622 22:32:37.059075  4313 net.cpp:141] Setting up bn1_1_D
I0622 22:32:37.059083  4313 net.cpp:148] Top shape: 1 2 224 224 (100352)
I0622 22:32:37.059087  4313 net.cpp:156] Memory required for data: 112770560
I0622 22:32:37.059092  4313 layer_factory.hpp:77] Creating layer scale1_1_D
I0622 22:32:37.059098  4313 net.cpp:91] Creating Layer scale1_1_D
I0622 22:32:37.059101  4313 net.cpp:425] scale1_1_D <- conv1_1_D
I0622 22:32:37.059106  4313 net.cpp:386] scale1_1_D -> conv1_1_D (in-place)
I0622 22:32:37.059141  4313 layer_factory.hpp:77] Creating layer scale1_1_D
I0622 22:32:37.059963  4313 net.cpp:141] Setting up scale1_1_D
I0622 22:32:37.059975  4313 net.cpp:148] Top shape: 1 2 224 224 (100352)
I0622 22:32:37.059978  4313 net.cpp:156] Memory required for data: 113171968
I0622 22:32:37.059984  4313 layer_factory.hpp:77] Creating layer relu1_1_D
I0622 22:32:37.059990  4313 net.cpp:91] Creating Layer relu1_1_D
I0622 22:32:37.059993  4313 net.cpp:425] relu1_1_D <- conv1_1_D
I0622 22:32:37.059998  4313 net.cpp:386] relu1_1_D -> conv1_1_D (in-place)
I0622 22:32:37.060291  4313 net.cpp:141] Setting up relu1_1_D
I0622 22:32:37.060302  4313 net.cpp:148] Top shape: 1 2 224 224 (100352)
I0622 22:32:37.060305  4313 net.cpp:156] Memory required for data: 113573376
I0622 22:32:37.060308  4313 layer_factory.hpp:77] Creating layer conv1_1_D_relu1_1_D_0_split
I0622 22:32:37.060315  4313 net.cpp:91] Creating Layer conv1_1_D_relu1_1_D_0_split
I0622 22:32:37.060318  4313 net.cpp:425] conv1_1_D_relu1_1_D_0_split <- conv1_1_D
I0622 22:32:37.060322  4313 net.cpp:399] conv1_1_D_relu1_1_D_0_split -> conv1_1_D_relu1_1_D_0_split_0
I0622 22:32:37.060328  4313 net.cpp:399] conv1_1_D_relu1_1_D_0_split -> conv1_1_D_relu1_1_D_0_split_1
I0622 22:32:37.060372  4313 net.cpp:141] Setting up conv1_1_D_relu1_1_D_0_split
I0622 22:32:37.060379  4313 net.cpp:148] Top shape: 1 2 224 224 (100352)
I0622 22:32:37.060382  4313 net.cpp:148] Top shape: 1 2 224 224 (100352)
I0622 22:32:37.060384  4313 net.cpp:156] Memory required for data: 114376192
I0622 22:32:37.060386  4313 layer_factory.hpp:77] Creating layer loss
I0622 22:32:37.060392  4313 net.cpp:91] Creating Layer loss
I0622 22:32:37.060395  4313 net.cpp:425] loss <- conv1_1_D_relu1_1_D_0_split_0
I0622 22:32:37.060398  4313 net.cpp:425] loss <- label_data_1_split_0
I0622 22:32:37.060402  4313 net.cpp:399] loss -> loss
…
