…
I0523 01:22:22.134469 18070 net.cpp:313] The NetState phase (0) differed from the phase (1) specified by a rule in layer data
I0523 01:22:22.134914 18070 net.cpp:49] Initializing net from parameters: 
name: "segnet"
state {
  phase: TRAIN
}
layer {
  name: "data"
  type: "DenseImageData"
  top: "data"
  top: "label"
  include {
    phase: TRAIN
  }
  transform_param {
    crop_size: 224
    mean_value: 100
  }
  dense_image_data_param {
    source: "data/train.txt"
    batch_size: 64
    shuffle: true
    new_height: 224
    new_width: 310
    is_color: false
    root_folder: "data/raw/train/"
  }
}
layer {
  name: "conv1_1"
  type: "Convolution"
  bottom: "data"
  top: "conv1_1"
  param {
    lr_mult: 1
    decay_mult: 1
  }
  convolution_param {
    num_output: 16
    bias_term: false
    pad: 1
    kernel_size: 3
    weight_filler {
      type: "msra"
    }
  }
}
layer {
  name: "bn1_1"
  type: "BatchNorm"
  bottom: "conv1_1"
  top: "conv1_1"
  param {
    lr_mult: 0
  }
  param {
    lr_mult: 0
  }
  param {
    lr_mult: 0
  }
  batch_norm_param {
    use_global_stats: false
  }
}
layer {
  name: "scale1_1"
  type: "Scale"
  bottom: "conv1_1"
  top: "conv1_1"
  param {
    lr_mult: 1
    decay_mult: 1
  }
  param {
    lr_mult: 1
    decay_mult: 1
  }
  scale_param {
    bias_term: true
    bias_filler {
      type: "constant"
      value: 0
    }
  }
}
layer {
  name: "relu1_1"
  type: "ReLU"
  bottom: "conv1_1"
  top: "conv1_1"
}
layer {
  name: "conv1_2"
  type: "Convolution"
  bottom: "conv1_1"
  top: "conv1_2"
  param {
    lr_mult: 1
    decay_mult: 1
  }
  convolution_param {
    num_output: 16
    bias_term: false
    pad: 1
    kernel_size: 3
    weight_filler {
      type: "msra"
    }
  }
}
layer {
  name: "bn1_2"
  type: "BatchNorm"
  bottom: "conv1_2"
  top: "conv1_2"
  param {
    lr_mult: 0
  }
  param {
    lr_mult: 0
  }
  param {
    lr_mult: 0
  }
  batch_norm_param {
    use_global_stats: false
  }
}
layer {
  name: "scale1_2"
  type: "Scale"
  bottom: "conv1_2"
  top: "conv1_2"
  param {
    lr_mult: 1
    decay_mult: 1
  }
  param {
    lr_mult: 1
    decay_mult: 1
  }
  scale_param {
    bias_term: true
    bias_filler {
      type: "constant"
      value: 0
    }
  }
}
layer {
  name: "relu1_2"
  type: "ReLU"
  bottom: "conv1_2"
  top: "conv1_2"
}
layer {
  name: "pool1"
  type: "Pooling"
  bottom: "conv1_2"
  top: "pool1"
  top: "pool1_mask"
  pooling_param {
    pool: MAX
    kernel_size: 2
    stride: 2
  }
}
layer {
  name: "conv2_1"
  type: "Convolution"
  bottom: "pool1"
  top: "conv2_1"
  param {
    lr_mult: 1
    decay_mult: 1
  }
  convolution_param {
    num_output: 32
    bias_term: false
    pad: 1
    kernel_size: 3
    weight_filler {
      type: "msra"
    }
  }
}
layer {
  name: "bn2_1"
  type: "BatchNorm"
  bottom: "conv2_1"
  top: "conv2_1"
  param {
    lr_mult: 0
  }
  param {
    lr_mult: 0
  }
  param {
    lr_mult: 0
  }
  batch_norm_param {
    use_global_stats: false
  }
}
layer {
  name: "scale2_1"
  type: "Scale"
  bottom: "conv2_1"
  top: "conv2_1"
  param {
    lr_mult: 1
    decay_mult: 1
  }
  param {
    lr_mult: 1
    decay_mult: 1
  }
  scale_param {
    bias_term: true
    bias_filler {
      type: "constant"
      value: 0
    }
  }
}
layer {
  name: "relu2_1"
  type: "ReLU"
  bottom: "conv2_1"
  top: "conv2_1"
}
layer {
  name: "conv2_2"
  type: "Convolution"
  bottom: "conv2_1"
  top: "conv2_2"
  param {
    lr_mult: 1
    decay_mult: 1
  }
  convolution_param {
    num_output: 32
    bias_term: false
    pad: 1
    kernel_size: 3
    weight_filler {
      type: "msra"
    }
  }
}
layer {
  name: "bn2_2"
  type: "BatchNorm"
  bottom: "conv2_2"
  top: "conv2_2"
  param {
    lr_mult: 0
  }
  param {
    lr_mult: 0
  }
  param {
    lr_mult: 0
  }
  batch_norm_param {
    use_global_stats: false
  }
}
layer {
  name: "scale2_2"
  type: "Scale"
  bottom: "conv2_2"
  top: "conv2_2"
  param {
    lr_mult: 1
    decay_mult: 1
  }
  param {
    lr_mult: 1
    decay_mult: 1
  }
  scale_param {
    bias_term: true
    bias_filler {
      type: "constant"
      value: 0
    }
  }
}
layer {
  name: "relu2_2"
  type: "ReLU"
  bottom: "conv2_2"
  top: "conv2_2"
}
layer {
  name: "pool2"
  type: "Pooling"
  bottom: "conv2_2"
  top: "pool2"
  top: "pool2_mask"
  pooling_param {
    pool: MAX
    kernel_size: 2
    stride: 2
  }
}
layer {
  name: "conv3_1"
  type: "Convolution"
  bottom: "pool2"
  top: "conv3_1"
  param {
    lr_mult: 1
    decay_mult: 1
  }
  convolution_param {
    num_output: 64
    bias_term: false
    pad: 1
    kernel_size: 3
    weight_filler {
      type: "msra"
    }
  }
}
layer {
  name: "bn3_1"
  type: "BatchNorm"
  bottom: "conv3_1"
  top: "conv3_1"
  param {
    lr_mult: 0
  }
  param {
    lr_mult: 0
  }
  param {
    lr_mult: 0
  }
  batch_norm_param {
    use_global_stats: false
  }
}
layer {
  name: "scale3_1"
  type: "Scale"
  bottom: "conv3_1"
  top: "conv3_1"
  param {
    lr_mult: 1
    decay_mult: 1
  }
  param {
    lr_mult: 1
    decay_mult: 1
  }
  scale_param {
    bias_term: true
    bias_filler {
      type: "constant"
      value: 0
    }
  }
}
layer {
  name: "relu3_1"
  type: "ReLU"
  bottom: "conv3_1"
  top: "conv3_1"
}
layer {
  name: "conv3_2"
  type: "Convolution"
  bottom: "conv3_1"
  top: "conv3_2"
  param {
    lr_mult: 1
    decay_mult: 1
  }
  convolution_param {
    num_output: 64
    bias_term: false
    pad: 1
    kernel_size: 3
    weight_filler {
      type: "msra"
    }
  }
}
layer {
  name: "bn3_2"
  type: "BatchNorm"
  bottom: "conv3_2"
  top: "conv3_2"
  param {
    lr_mult: 0
  }
  param {
    lr_mult: 0
  }
  param {
    lr_mult: 0
  }
  batch_norm_param {
    use_global_stats: false
  }
}
layer {
  name: "scale3_2"
  type: "Scale"
  bottom: "conv3_2"
  top: "conv3_2"
  param {
    lr_mult: 1
    decay_mult: 1
  }
  param {
    lr_mult: 1
    decay_mult: 1
  }
  scale_param {
    bias_term: true
    bias_filler {
      type: "constant"
      value: 0
    }
  }
}
layer {
  name: "relu3_2"
  type: "ReLU"
  bottom: "conv3_2"
  top: "conv3_2"
}
layer {
  name: "pool3"
  type: "Pooling"
  bottom: "conv3_2"
  top: "pool3"
  top: "pool3_mask"
  pooling_param {
    pool: MAX
    kernel_size: 2
    stride: 2
  }
}
layer {
  name: "conv4_1"
  type: "Convolution"
  bottom: "pool3"
  top: "conv4_1"
  param {
    lr_mult: 1
    decay_mult: 1
  }
  convolution_param {
    num_output: 128
    bias_term: false
    pad: 1
    kernel_size: 3
    weight_filler {
      type: "msra"
    }
  }
}
layer {
  name: "bn4_1"
  type: "BatchNorm"
  bottom: "conv4_1"
  top: "conv4_1"
  param {
    lr_mult: 0
  }
  param {
    lr_mult: 0
  }
  param {
    lr_mult: 0
  }
  batch_norm_param {
    use_global_stats: false
  }
}
layer {
  name: "scale4_1"
  type: "Scale"
  bottom: "conv4_1"
  top: "conv4_1"
  param {
    lr_mult: 1
    decay_mult: 1
  }
  param {
    lr_mult: 1
    decay_mult: 1
  }
  scale_param {
    bias_term: true
    bias_filler {
      type: "constant"
      value: 0
    }
  }
}
layer {
  name: "relu4_1"
  type: "ReLU"
  bottom: "conv4_1"
  top: "conv4_1"
}
layer {
  name: "conv4_2"
  type: "Convolution"
  bottom: "conv4_1"
  top: "conv4_2"
  param {
    lr_mult: 1
    decay_mult: 1
  }
  convolution_param {
    num_output: 128
    bias_term: false
    pad: 1
    kernel_size: 3
    weight_filler {
      type: "msra"
    }
  }
}
layer {
  name: "bn4_2"
  type: "BatchNorm"
  bottom: "conv4_2"
  top: "conv4_2"
  param {
    lr_mult: 0
  }
  param {
    lr_mult: 0
  }
  param {
    lr_mult: 0
  }
  batch_norm_param {
    use_global_stats: false
  }
}
layer {
  name: "scale4_2"
  type: "Scale"
  bottom: "conv4_2"
  top: "conv4_2"
  param {
    lr_mult: 1
    decay_mult: 1
  }
  param {
    lr_mult: 1
    decay_mult: 1
  }
  scale_param {
    bias_term: true
    bias_filler {
      type: "constant"
      value: 0
    }
  }
}
layer {
  name: "relu4_2"
  type: "ReLU"
  bottom: "conv4_2"
  top: "conv4_2"
}
layer {
  name: "pool4"
  type: "Pooling"
  bottom: "conv4_2"
  top: "pool4"
  top: "pool4_mask"
  pooling_param {
    pool: MAX
    kernel_size: 2
    stride: 2
  }
}
layer {
  name: "conv5_1"
  type: "Convolution"
  bottom: "pool4"
  top: "conv5_1"
  param {
    lr_mult: 1
    decay_mult: 1
  }
  convolution_param {
    num_output: 128
    bias_term: false
    pad: 1
    kernel_size: 3
    weight_filler {
      type: "msra"
    }
  }
}
layer {
  name: "bn5_1"
  type: "BatchNorm"
  bottom: "conv5_1"
  top: "conv5_1"
  param {
    lr_mult: 0
  }
  param {
    lr_mult: 0
  }
  param {
    lr_mult: 0
  }
  batch_norm_param {
    use_global_stats: false
  }
}
layer {
  name: "scale5_1"
  type: "Scale"
  bottom: "conv5_1"
  top: "conv5_1"
  param {
    lr_mult: 1
    decay_mult: 1
  }
  param {
    lr_mult: 1
    decay_mult: 1
  }
  scale_param {
    bias_term: true
    bias_filler {
      type: "constant"
      value: 0
    }
  }
}
layer {
  name: "relu5_1"
  type: "ReLU"
  bottom: "conv5_1"
  top: "conv5_1"
}
layer {
  name: "conv5_2"
  type: "Convolution"
  bottom: "conv5_1"
  top: "conv5_2"
  param {
    lr_mult: 1
    decay_mult: 1
  }
  convolution_param {
    num_output: 128
    bias_term: false
    pad: 1
    kernel_size: 3
    weight_filler {
      type: "msra"
    }
  }
}
layer {
  name: "bn5_2"
  type: "BatchNorm"
  bottom: "conv5_2"
  top: "conv5_2"
  param {
    lr_mult: 0
  }
  param {
    lr_mult: 0
  }
  param {
    lr_mult: 0
  }
  batch_norm_param {
    use_global_stats: false
  }
}
layer {
  name: "scale5_2"
  type: "Scale"
  bottom: "conv5_2"
  top: "conv5_2"
  param {
    lr_mult: 1
    decay_mult: 1
  }
  param {
    lr_mult: 1
    decay_mult: 1
  }
  scale_param {
    bias_term: true
    bias_filler {
      type: "constant"
      value: 0
    }
  }
}
layer {
  name: "relu5_2"
  type: "ReLU"
  bottom: "conv5_2"
  top: "conv5_2"
}
layer {
  name: "pool5"
  type: "Pooling"
  bottom: "conv5_2"
  top: "pool5"
  top: "pool5_mask"
  pooling_param {
    pool: MAX
    kernel_size: 2
    stride: 2
  }
}
layer {
  name: "upsample5"
  type: "Upsample"
  bottom: "pool5"
  bottom: "pool5_mask"
  top: "pool5_D"
  upsample_param {
    scale: 2
    upsample_h: 14
    upsample_w: 14
  }
}
layer {
  name: "conv5_2_D"
  type: "Convolution"
  bottom: "pool5_D"
  top: "conv5_2_D"
  param {
    lr_mult: 1
    decay_mult: 1
  }
  convolution_param {
    num_output: 128
    bias_term: false
    pad: 1
    kernel_size: 3
    weight_filler {
      type: "msra"
    }
  }
}
layer {
  name: "bn5_2_D"
  type: "BatchNorm"
  bottom: "conv5_2_D"
  top: "conv5_2_D"
  param {
    lr_mult: 0
  }
  param {
    lr_mult: 0
  }
  param {
    lr_mult: 0
  }
  batch_norm_param {
    use_global_stats: false
  }
}
layer {
  name: "scale5_2_D"
  type: "Scale"
  bottom: "conv5_2_D"
  top: "conv5_2_D"
  param {
    lr_mult: 1
    decay_mult: 1
  }
  param {
    lr_mult: 1
    decay_mult: 1
  }
  scale_param {
    bias_term: true
    bias_filler {
      type: "constant"
      value: 0
    }
  }
}
layer {
  name: "relu5_2_D"
  type: "ReLU"
  bottom: "conv5_2_D"
  top: "conv5_2_D"
}
layer {
  name: "conv5_1_D"
  type: "Convolution"
  bottom: "conv5_2_D"
  top: "conv5_1_D"
  param {
    lr_mult: 1
    decay_mult: 1
  }
  convolution_param {
    num_output: 128
    bias_term: false
    pad: 1
    kernel_size: 3
    weight_filler {
      type: "msra"
    }
  }
}
layer {
  name: "bn5_1_D"
  type: "BatchNorm"
  bottom: "conv5_1_D"
  top: "conv5_1_D"
  param {
    lr_mult: 0
  }
  param {
    lr_mult: 0
  }
  param {
    lr_mult: 0
  }
  batch_norm_param {
    use_global_stats: false
  }
}
layer {
  name: "scale5_1_D"
  type: "Scale"
  bottom: "conv5_1_D"
  top: "conv5_1_D"
  param {
    lr_mult: 1
    decay_mult: 1
  }
  param {
    lr_mult: 1
    decay_mult: 1
  }
  scale_param {
    bias_term: true
    bias_filler {
      type: "constant"
      value: 0
    }
  }
}
layer {
  name: "relu5_1_D"
  type: "ReLU"
  bottom: "conv5_1_D"
  top: "conv5_1_D"
}
layer {
  name: "upsample4"
  type: "Upsample"
  bottom: "conv5_1_D"
  bottom: "pool4_mask"
  top: "pool4_D"
  upsample_param {
    scale: 2
    upsample_h: 28
    upsample_w: 28
  }
}
layer {
  name: "conv4_2_D"
  type: "Convolution"
  bottom: "pool4_D"
  top: "conv4_2_D"
  param {
    lr_mult: 1
    decay_mult: 1
  }
  convolution_param {
    num_output: 128
    bias_term: false
    pad: 1
    kernel_size: 3
    weight_filler {
      type: "msra"
    }
  }
}
layer {
  name: "bn4_2_D"
  type: "BatchNorm"
  bottom: "conv4_2_D"
  top: "conv4_2_D"
  param {
    lr_mult: 0
  }
  param {
    lr_mult: 0
  }
  param {
    lr_mult: 0
  }
  batch_norm_param {
    use_global_stats: false
  }
}
layer {
  name: "scale4_2_D"
  type: "Scale"
  bottom: "conv4_2_D"
  top: "conv4_2_D"
  param {
    lr_mult: 1
    decay_mult: 1
  }
  param {
    lr_mult: 1
    decay_mult: 1
  }
  scale_param {
    bias_term: true
    bias_filler {
      type: "constant"
      value: 0
    }
  }
}
layer {
  name: "relu4_2_D"
  type: "ReLU"
  bottom: "conv4_2_D"
  top: "conv4_2_D"
}
layer {
  name: "conv4_1_D"
  type: "Convolution"
  bottom: "conv4_2_D"
  top: "conv4_1_D"
  param {
    lr_mult: 1
    decay_mult: 1
  }
  convolution_param {
    num_output: 64
    bias_term: false
    pad: 1
    kernel_size: 3
    weight_filler {
      type: "msra"
    }
  }
}
layer {
  name: "bn4_1_D"
  type: "BatchNorm"
  bottom: "conv4_1_D"
  top: "conv4_1_D"
  param {
    lr_mult: 0
  }
  param {
    lr_mult: 0
  }
  param {
    lr_mult: 0
  }
  batch_norm_param {
    use_global_stats: false
  }
}
layer {
  name: "scale4_1_D"
  type: "Scale"
  bottom: "conv4_1_D"
  top: "conv4_1_D"
  param {
    lr_mult: 1
    decay_mult: 1
  }
  param {
    lr_mult: 1
    decay_mult: 1
  }
  scale_param {
    bias_term: true
    bias_filler {
      type: "constant"
      value: 0
    }
  }
}
layer {
  name: "relu4_1_D"
  type: "ReLU"
  bottom: "conv4_1_D"
  top: "conv4_1_D"
}
layer {
  name: "upsample3"
  type: "Upsample"
  bottom: "conv4_1_D"
  bottom: "pool3_mask"
  top: "pool3_D"
  upsample_param {
    scale: 2
    upsample_h: 56
    upsample_w: 56
  }
}
layer {
  name: "conv3_2_D"
  type: "Convolution"
  bottom: "pool3_D"
  top: "conv3_2_D"
  param {
    lr_mult: 1
    decay_mult: 1
  }
  param {
    lr_mult: 1
    decay_mult: 1
  }
  convolution_param {
    num_output: 64
    pad: 1
    kernel_size: 3
    weight_filler {
      type: "msra"
    }
    bias_filler {
      type: "constant"
      value: 0
    }
  }
}
layer {
  name: "bn3_2_D"
  type: "BatchNorm"
  bottom: "conv3_2_D"
  top: "conv3_2_D"
  param {
    lr_mult: 0
  }
  param {
    lr_mult: 0
  }
  param {
    lr_mult: 0
  }
  batch_norm_param {
    use_global_stats: false
  }
}
layer {
  name: "scale3_2_D"
  type: "Scale"
  bottom: "conv3_2_D"
  top: "conv3_2_D"
  param {
    lr_mult: 1
    decay_mult: 1
  }
  param {
    lr_mult: 1
    decay_mult: 1
  }
  scale_param {
    bias_term: true
    bias_filler {
      type: "constant"
      value: 0
    }
  }
}
layer {
  name: "relu3_2_D"
  type: "ReLU"
  bottom: "conv3_2_D"
  top: "conv3_2_D"
}
layer {
  name: "conv3_1_D"
  type: "Convolution"
  bottom: "conv3_2_D"
  top: "conv3_1_D"
  param {
    lr_mult: 1
    decay_mult: 1
  }
  convolution_param {
    num_output: 32
    bias_term: false
    pad: 1
    kernel_size: 3
    weight_filler {
      type: "msra"
    }
  }
}
layer {
  name: "bn3_1_D"
  type: "BatchNorm"
  bottom: "conv3_1_D"
  top: "conv3_1_D"
  param {
    lr_mult: 0
  }
  param {
    lr_mult: 0
  }
  param {
    lr_mult: 0
  }
  batch_norm_param {
    use_global_stats: false
  }
}
layer {
  name: "scale3_1_D"
  type: "Scale"
  bottom: "conv3_1_D"
  top: "conv3_1_D"
  param {
    lr_mult: 1
    decay_mult: 1
  }
  param {
    lr_mult: 1
    decay_mult: 1
  }
  scale_param {
    bias_term: true
    bias_filler {
      type: "constant"
      value: 0
    }
  }
}
layer {
  name: "relu3_1_D"
  type: "ReLU"
  bottom: "conv3_1_D"
  top: "conv3_1_D"
}
layer {
  name: "upsample2"
  type: "Upsample"
  bottom: "conv3_1_D"
  bottom: "pool2_mask"
  top: "pool2_D"
  upsample_param {
    scale: 2
    upsample_h: 112
    upsample_w: 112
  }
}
layer {
  name: "conv2_2_D"
  type: "Convolution"
  bottom: "pool2_D"
  top: "conv2_2_D"
  param {
    lr_mult: 1
    decay_mult: 1
  }
  convolution_param {
    num_output: 32
    bias_term: false
    pad: 1
    kernel_size: 3
    weight_filler {
      type: "msra"
    }
  }
}
layer {
  name: "bn2_2_D"
  type: "BatchNorm"
  bottom: "conv2_2_D"
  top: "conv2_2_D"
  param {
    lr_mult: 0
  }
  param {
    lr_mult: 0
  }
  param {
    lr_mult: 0
  }
  batch_norm_param {
    use_global_stats: false
  }
}
layer {
  name: "scale2_2_D"
  type: "Scale"
  bottom: "conv2_2_D"
  top: "conv2_2_D"
  param {
    lr_mult: 1
    decay_mult: 1
  }
  param {
    lr_mult: 1
    decay_mult: 1
  }
  scale_param {
    bias_term: true
    bias_filler {
      type: "constant"
      value: 0
    }
  }
}
layer {
  name: "relu2_2_D"
  type: "ReLU"
  bottom: "conv2_2_D"
  top: "conv2_2_D"
}
layer {
  name: "conv2_1_D"
  type: "Convolution"
  bottom: "conv2_2_D"
  top: "conv2_1_D"
  param {
    lr_mult: 1
    decay_mult: 1
  }
  convolution_param {
    num_output: 16
    bias_term: false
    pad: 1
    kernel_size: 3
    weight_filler {
      type: "msra"
    }
  }
}
layer {
  name: "bn2_1_D"
  type: "BatchNorm"
  bottom: "conv2_1_D"
  top: "conv2_1_D"
  param {
    lr_mult: 0
  }
  param {
    lr_mult: 0
  }
  param {
    lr_mult: 0
  }
  batch_norm_param {
    use_global_stats: false
  }
}
layer {
  name: "scale2_1_D"
  type: "Scale"
  bottom: "conv2_1_D"
  top: "conv2_1_D"
  param {
    lr_mult: 1
    decay_mult: 1
  }
  param {
    lr_mult: 1
    decay_mult: 1
  }
  scale_param {
    bias_term: true
    bias_filler {
      type: "constant"
      value: 0
    }
  }
}
layer {
  name: "relu2_1_D"
  type: "ReLU"
  bottom: "conv2_1_D"
  top: "conv2_1_D"
}
layer {
  name: "upsample1"
  type: "Upsample"
  bottom: "conv2_1_D"
  bottom: "pool1_mask"
  top: "pool1_D"
  upsample_param {
    scale: 2
    upsample_h: 224
    upsample_w: 224
  }
}
layer {
  name: "conv1_2_D"
  type: "Convolution"
  bottom: "pool1_D"
  top: "conv1_2_D"
  param {
    lr_mult: 1
    decay_mult: 1
  }
  convolution_param {
    num_output: 16
    bias_term: false
    pad: 1
    kernel_size: 3
    weight_filler {
      type: "msra"
    }
  }
}
layer {
  name: "bn1_2_D"
  type: "BatchNorm"
  bottom: "conv1_2_D"
  top: "conv1_2_D"
  param {
    lr_mult: 0
  }
  param {
    lr_mult: 0
  }
  param {
    lr_mult: 0
  }
  batch_norm_param {
    use_global_stats: false
  }
}
layer {
  name: "scale1_2_D"
  type: "Scale"
  bottom: "conv1_2_D"
  top: "conv1_2_D"
  param {
    lr_mult: 1
    decay_mult: 1
  }
  param {
    lr_mult: 1
    decay_mult: 1
  }
  scale_param {
    bias_term: true
    bias_filler {
      type: "constant"
      value: 0
    }
  }
}
layer {
  name: "relu1_2_D"
  type: "ReLU"
  bottom: "conv1_2_D"
  top: "conv1_2_D"
}
layer {
  name: "conv1_1_D"
  type: "Convolution"
  bottom: "conv1_2_D"
  top: "conv1_1_D"
  param {
    lr_mult: 1
    decay_mult: 1
  }
  param {
    lr_mult: 1
    decay_mult: 1
  }
  convolution_param {
    num_output: 2
    pad: 1
    kernel_size: 3
    weight_filler {
      type: "msra"
    }
    bias_filler {
      type: "constant"
    }
  }
}
layer {
  name: "loss"
  type: "SoftmaxWithLoss"
  bottom: "conv1_1_D"
  bottom: "label"
  top: "loss"
  loss_param {
    weight_by_label_freqs: true
    class_weighting: 0.05
    class_weighting: 0.95
  }
}
layer {
  name: "accuracy"
  type: "Accuracy"
  bottom: "conv1_1_D"
  bottom: "label"
  top: "accuracy"
}
I0523 01:22:22.135176 18070 layer_factory.hpp:77] Creating layer data
I0523 01:22:22.135205 18070 net.cpp:91] Creating Layer data
I0523 01:22:22.135213 18070 net.cpp:399] data -> data
I0523 01:22:22.135318 18070 net.cpp:399] data -> label
I0523 01:22:22.135637 18070 dense_image_data_layer.cpp:38] Opening file data/train.txt
I0523 01:22:22.137814 18070 dense_image_data_layer.cpp:48] Shuffling data
I0523 01:22:22.138253 18070 dense_image_data_layer.cpp:53] A total of 4930 examples.
I0523 01:22:22.148473 18070 dense_image_data_layer.cpp:92] output data size: 1,1,224,224
I0523 01:22:22.149649 18070 net.cpp:141] Setting up data
I0523 01:22:22.149687 18070 net.cpp:148] Top shape: 1 1 224 224 (50176)
I0523 01:22:22.149693 18070 net.cpp:148] Top shape: 1 1 224 224 (50176)
I0523 01:22:22.149709 18070 net.cpp:156] Memory required for data: 401408
I0523 01:22:22.149726 18070 layer_factory.hpp:77] Creating layer label_data_1_split
I0523 01:22:22.149751 18070 net.cpp:91] Creating Layer label_data_1_split
I0523 01:22:22.149755 18070 net.cpp:425] label_data_1_split <- label
I0523 01:22:22.149763 18070 net.cpp:399] label_data_1_split -> label_data_1_split_0
I0523 01:22:22.149771 18070 net.cpp:399] label_data_1_split -> label_data_1_split_1
I0523 01:22:22.149813 18070 net.cpp:141] Setting up label_data_1_split
I0523 01:22:22.149821 18070 net.cpp:148] Top shape: 1 1 224 224 (50176)
I0523 01:22:22.149826 18070 net.cpp:148] Top shape: 1 1 224 224 (50176)
I0523 01:22:22.149838 18070 net.cpp:156] Memory required for data: 802816
I0523 01:22:22.149842 18070 layer_factory.hpp:77] Creating layer conv1_1
I0523 01:22:22.149878 18070 net.cpp:91] Creating Layer conv1_1
I0523 01:22:22.149881 18070 net.cpp:425] conv1_1 <- data
I0523 01:22:22.149885 18070 net.cpp:399] conv1_1 -> conv1_1
I0523 01:22:22.286444 18070 net.cpp:141] Setting up conv1_1
I0523 01:22:22.286487 18070 net.cpp:148] Top shape: 1 16 224 224 (802816)
I0523 01:22:22.286490 18070 net.cpp:156] Memory required for data: 4014080
I0523 01:22:22.286504 18070 layer_factory.hpp:77] Creating layer bn1_1
I0523 01:22:22.286514 18070 net.cpp:91] Creating Layer bn1_1
I0523 01:22:22.286526 18070 net.cpp:425] bn1_1 <- conv1_1
I0523 01:22:22.286531 18070 net.cpp:386] bn1_1 -> conv1_1 (in-place)
I0523 01:22:22.286723 18070 net.cpp:141] Setting up bn1_1
I0523 01:22:22.286732 18070 net.cpp:148] Top shape: 1 16 224 224 (802816)
I0523 01:22:22.286736 18070 net.cpp:156] Memory required for data: 7225344
I0523 01:22:22.286757 18070 layer_factory.hpp:77] Creating layer scale1_1
I0523 01:22:22.286787 18070 net.cpp:91] Creating Layer scale1_1
I0523 01:22:22.286792 18070 net.cpp:425] scale1_1 <- conv1_1
I0523 01:22:22.286798 18070 net.cpp:386] scale1_1 -> conv1_1 (in-place)
I0523 01:22:22.286850 18070 layer_factory.hpp:77] Creating layer scale1_1
I0523 01:22:22.287055 18070 net.cpp:141] Setting up scale1_1
I0523 01:22:22.287062 18070 net.cpp:148] Top shape: 1 16 224 224 (802816)
I0523 01:22:22.287066 18070 net.cpp:156] Memory required for data: 10436608
I0523 01:22:22.287086 18070 layer_factory.hpp:77] Creating layer relu1_1
I0523 01:22:22.287104 18070 net.cpp:91] Creating Layer relu1_1
I0523 01:22:22.287111 18070 net.cpp:425] relu1_1 <- conv1_1
I0523 01:22:22.287116 18070 net.cpp:386] relu1_1 -> conv1_1 (in-place)
I0523 01:22:22.287348 18070 net.cpp:141] Setting up relu1_1
I0523 01:22:22.287358 18070 net.cpp:148] Top shape: 1 16 224 224 (802816)
I0523 01:22:22.287361 18070 net.cpp:156] Memory required for data: 13647872
I0523 01:22:22.287365 18070 layer_factory.hpp:77] Creating layer conv1_2
I0523 01:22:22.287386 18070 net.cpp:91] Creating Layer conv1_2
I0523 01:22:22.287402 18070 net.cpp:425] conv1_2 <- conv1_1
I0523 01:22:22.287410 18070 net.cpp:399] conv1_2 -> conv1_2
I0523 01:22:22.288452 18070 net.cpp:141] Setting up conv1_2
I0523 01:22:22.288462 18070 net.cpp:148] Top shape: 1 16 224 224 (802816)
I0523 01:22:22.288466 18070 net.cpp:156] Memory required for data: 16859136
I0523 01:22:22.288473 18070 layer_factory.hpp:77] Creating layer bn1_2
I0523 01:22:22.288503 18070 net.cpp:91] Creating Layer bn1_2
I0523 01:22:22.288506 18070 net.cpp:425] bn1_2 <- conv1_2
I0523 01:22:22.288511 18070 net.cpp:386] bn1_2 -> conv1_2 (in-place)
I0523 01:22:22.288688 18070 net.cpp:141] Setting up bn1_2
I0523 01:22:22.288693 18070 net.cpp:148] Top shape: 1 16 224 224 (802816)
I0523 01:22:22.288707 18070 net.cpp:156] Memory required for data: 20070400
I0523 01:22:22.288724 18070 layer_factory.hpp:77] Creating layer scale1_2
I0523 01:22:22.288740 18070 net.cpp:91] Creating Layer scale1_2
I0523 01:22:22.288744 18070 net.cpp:425] scale1_2 <- conv1_2
I0523 01:22:22.288750 18070 net.cpp:386] scale1_2 -> conv1_2 (in-place)
I0523 01:22:22.288792 18070 layer_factory.hpp:77] Creating layer scale1_2
I0523 01:22:22.288990 18070 net.cpp:141] Setting up scale1_2
I0523 01:22:22.288997 18070 net.cpp:148] Top shape: 1 16 224 224 (802816)
I0523 01:22:22.289000 18070 net.cpp:156] Memory required for data: 23281664
I0523 01:22:22.289017 18070 layer_factory.hpp:77] Creating layer relu1_2
I0523 01:22:22.289036 18070 net.cpp:91] Creating Layer relu1_2
I0523 01:22:22.289041 18070 net.cpp:425] relu1_2 <- conv1_2
I0523 01:22:22.289046 18070 net.cpp:386] relu1_2 -> conv1_2 (in-place)
I0523 01:22:22.289173 18070 net.cpp:141] Setting up relu1_2
I0523 01:22:22.289181 18070 net.cpp:148] Top shape: 1 16 224 224 (802816)
I0523 01:22:22.289185 18070 net.cpp:156] Memory required for data: 26492928
I0523 01:22:22.289188 18070 layer_factory.hpp:77] Creating layer pool1
I0523 01:22:22.289203 18070 layer_factory.cpp:90] cuDNN does not support multiple tops. Using Caffe's own pooling layer.
I0523 01:22:22.289221 18070 net.cpp:91] Creating Layer pool1
I0523 01:22:22.289223 18070 net.cpp:425] pool1 <- conv1_2
I0523 01:22:22.289227 18070 net.cpp:399] pool1 -> pool1
I0523 01:22:22.289233 18070 net.cpp:399] pool1 -> pool1_mask
I0523 01:22:22.289285 18070 net.cpp:141] Setting up pool1
I0523 01:22:22.289290 18070 net.cpp:148] Top shape: 1 16 112 112 (200704)
I0523 01:22:22.289304 18070 net.cpp:148] Top shape: 1 16 112 112 (200704)
I0523 01:22:22.289305 18070 net.cpp:156] Memory required for data: 28098560
I0523 01:22:22.289307 18070 layer_factory.hpp:77] Creating layer conv2_1
I0523 01:22:22.289312 18070 net.cpp:91] Creating Layer conv2_1
I0523 01:22:22.289314 18070 net.cpp:425] conv2_1 <- pool1
I0523 01:22:22.289319 18070 net.cpp:399] conv2_1 -> conv2_1
I0523 01:22:22.290320 18070 net.cpp:141] Setting up conv2_1
I0523 01:22:22.290340 18070 net.cpp:148] Top shape: 1 32 112 112 (401408)
I0523 01:22:22.290343 18070 net.cpp:156] Memory required for data: 29704192
I0523 01:22:22.290346 18070 layer_factory.hpp:77] Creating layer bn2_1
I0523 01:22:22.290351 18070 net.cpp:91] Creating Layer bn2_1
I0523 01:22:22.290366 18070 net.cpp:425] bn2_1 <- conv2_1
I0523 01:22:22.290372 18070 net.cpp:386] bn2_1 -> conv2_1 (in-place)
I0523 01:22:22.290556 18070 net.cpp:141] Setting up bn2_1
I0523 01:22:22.290565 18070 net.cpp:148] Top shape: 1 32 112 112 (401408)
I0523 01:22:22.290567 18070 net.cpp:156] Memory required for data: 31309824
I0523 01:22:22.290586 18070 layer_factory.hpp:77] Creating layer scale2_1
I0523 01:22:22.290596 18070 net.cpp:91] Creating Layer scale2_1
I0523 01:22:22.290601 18070 net.cpp:425] scale2_1 <- conv2_1
I0523 01:22:22.290606 18070 net.cpp:386] scale2_1 -> conv2_1 (in-place)
I0523 01:22:22.290642 18070 layer_factory.hpp:77] Creating layer scale2_1
I0523 01:22:22.290753 18070 net.cpp:141] Setting up scale2_1
I0523 01:22:22.290760 18070 net.cpp:148] Top shape: 1 32 112 112 (401408)
I0523 01:22:22.290763 18070 net.cpp:156] Memory required for data: 32915456
I0523 01:22:22.290784 18070 layer_factory.hpp:77] Creating layer relu2_1
I0523 01:22:22.290791 18070 net.cpp:91] Creating Layer relu2_1
I0523 01:22:22.290796 18070 net.cpp:425] relu2_1 <- conv2_1
I0523 01:22:22.290801 18070 net.cpp:386] relu2_1 -> conv2_1 (in-place)
I0523 01:22:22.290925 18070 net.cpp:141] Setting up relu2_1
I0523 01:22:22.290931 18070 net.cpp:148] Top shape: 1 32 112 112 (401408)
I0523 01:22:22.290935 18070 net.cpp:156] Memory required for data: 34521088
I0523 01:22:22.290938 18070 layer_factory.hpp:77] Creating layer conv2_2
I0523 01:22:22.290957 18070 net.cpp:91] Creating Layer conv2_2
I0523 01:22:22.290963 18070 net.cpp:425] conv2_2 <- conv2_1
I0523 01:22:22.290969 18070 net.cpp:399] conv2_2 -> conv2_2
I0523 01:22:22.291842 18070 net.cpp:141] Setting up conv2_2
I0523 01:22:22.291851 18070 net.cpp:148] Top shape: 1 32 112 112 (401408)
I0523 01:22:22.291872 18070 net.cpp:156] Memory required for data: 36126720
I0523 01:22:22.291875 18070 layer_factory.hpp:77] Creating layer bn2_2
I0523 01:22:22.291882 18070 net.cpp:91] Creating Layer bn2_2
I0523 01:22:22.291885 18070 net.cpp:425] bn2_2 <- conv2_2
I0523 01:22:22.291889 18070 net.cpp:386] bn2_2 -> conv2_2 (in-place)
I0523 01:22:22.292034 18070 net.cpp:141] Setting up bn2_2
I0523 01:22:22.292042 18070 net.cpp:148] Top shape: 1 32 112 112 (401408)
I0523 01:22:22.292044 18070 net.cpp:156] Memory required for data: 37732352
I0523 01:22:22.292053 18070 layer_factory.hpp:77] Creating layer scale2_2
I0523 01:22:22.292062 18070 net.cpp:91] Creating Layer scale2_2
I0523 01:22:22.292068 18070 net.cpp:425] scale2_2 <- conv2_2
I0523 01:22:22.292083 18070 net.cpp:386] scale2_2 -> conv2_2 (in-place)
I0523 01:22:22.292111 18070 layer_factory.hpp:77] Creating layer scale2_2
I0523 01:22:22.292250 18070 net.cpp:141] Setting up scale2_2
I0523 01:22:22.292255 18070 net.cpp:148] Top shape: 1 32 112 112 (401408)
I0523 01:22:22.292258 18070 net.cpp:156] Memory required for data: 39337984
I0523 01:22:22.292271 18070 layer_factory.hpp:77] Creating layer relu2_2
I0523 01:22:22.292276 18070 net.cpp:91] Creating Layer relu2_2
I0523 01:22:22.292279 18070 net.cpp:425] relu2_2 <- conv2_2
I0523 01:22:22.292281 18070 net.cpp:386] relu2_2 -> conv2_2 (in-place)
I0523 01:22:22.292505 18070 net.cpp:141] Setting up relu2_2
I0523 01:22:22.292513 18070 net.cpp:148] Top shape: 1 32 112 112 (401408)
I0523 01:22:22.292526 18070 net.cpp:156] Memory required for data: 40943616
I0523 01:22:22.292528 18070 layer_factory.hpp:77] Creating layer pool2
I0523 01:22:22.292531 18070 layer_factory.cpp:90] cuDNN does not support multiple tops. Using Caffe's own pooling layer.
I0523 01:22:22.292534 18070 net.cpp:91] Creating Layer pool2
I0523 01:22:22.292546 18070 net.cpp:425] pool2 <- conv2_2
I0523 01:22:22.292553 18070 net.cpp:399] pool2 -> pool2
I0523 01:22:22.292570 18070 net.cpp:399] pool2 -> pool2_mask
I0523 01:22:22.292613 18070 net.cpp:141] Setting up pool2
I0523 01:22:22.292618 18070 net.cpp:148] Top shape: 1 32 56 56 (100352)
I0523 01:22:22.292623 18070 net.cpp:148] Top shape: 1 32 56 56 (100352)
I0523 01:22:22.292626 18070 net.cpp:156] Memory required for data: 41746432
I0523 01:22:22.292640 18070 layer_factory.hpp:77] Creating layer conv3_1
I0523 01:22:22.292649 18070 net.cpp:91] Creating Layer conv3_1
I0523 01:22:22.292654 18070 net.cpp:425] conv3_1 <- pool2
I0523 01:22:22.292660 18070 net.cpp:399] conv3_1 -> conv3_1
I0523 01:22:22.294047 18070 net.cpp:141] Setting up conv3_1
I0523 01:22:22.294056 18070 net.cpp:148] Top shape: 1 64 56 56 (200704)
I0523 01:22:22.294070 18070 net.cpp:156] Memory required for data: 42549248
I0523 01:22:22.294073 18070 layer_factory.hpp:77] Creating layer bn3_1
I0523 01:22:22.294078 18070 net.cpp:91] Creating Layer bn3_1
I0523 01:22:22.294091 18070 net.cpp:425] bn3_1 <- conv3_1
I0523 01:22:22.294095 18070 net.cpp:386] bn3_1 -> conv3_1 (in-place)
I0523 01:22:22.294241 18070 net.cpp:141] Setting up bn3_1
I0523 01:22:22.294245 18070 net.cpp:148] Top shape: 1 64 56 56 (200704)
I0523 01:22:22.294257 18070 net.cpp:156] Memory required for data: 43352064
I0523 01:22:22.294262 18070 layer_factory.hpp:77] Creating layer scale3_1
I0523 01:22:22.294267 18070 net.cpp:91] Creating Layer scale3_1
I0523 01:22:22.294270 18070 net.cpp:425] scale3_1 <- conv3_1
I0523 01:22:22.294273 18070 net.cpp:386] scale3_1 -> conv3_1 (in-place)
I0523 01:22:22.294317 18070 layer_factory.hpp:77] Creating layer scale3_1
I0523 01:22:22.294445 18070 net.cpp:141] Setting up scale3_1
I0523 01:22:22.294450 18070 net.cpp:148] Top shape: 1 64 56 56 (200704)
I0523 01:22:22.294461 18070 net.cpp:156] Memory required for data: 44154880
I0523 01:22:22.294466 18070 layer_factory.hpp:77] Creating layer relu3_1
I0523 01:22:22.294469 18070 net.cpp:91] Creating Layer relu3_1
I0523 01:22:22.294486 18070 net.cpp:425] relu3_1 <- conv3_1
I0523 01:22:22.294489 18070 net.cpp:386] relu3_1 -> conv3_1 (in-place)
I0523 01:22:22.294623 18070 net.cpp:141] Setting up relu3_1
I0523 01:22:22.294636 18070 net.cpp:148] Top shape: 1 64 56 56 (200704)
I0523 01:22:22.294649 18070 net.cpp:156] Memory required for data: 44957696
I0523 01:22:22.294651 18070 layer_factory.hpp:77] Creating layer conv3_2
I0523 01:22:22.294657 18070 net.cpp:91] Creating Layer conv3_2
I0523 01:22:22.294659 18070 net.cpp:425] conv3_2 <- conv3_1
I0523 01:22:22.294673 18070 net.cpp:399] conv3_2 -> conv3_2
I0523 01:22:22.296259 18070 net.cpp:141] Setting up conv3_2
I0523 01:22:22.296269 18070 net.cpp:148] Top shape: 1 64 56 56 (200704)
I0523 01:22:22.296281 18070 net.cpp:156] Memory required for data: 45760512
I0523 01:22:22.296285 18070 layer_factory.hpp:77] Creating layer bn3_2
I0523 01:22:22.296290 18070 net.cpp:91] Creating Layer bn3_2
I0523 01:22:22.296293 18070 net.cpp:425] bn3_2 <- conv3_2
I0523 01:22:22.296296 18070 net.cpp:386] bn3_2 -> conv3_2 (in-place)
I0523 01:22:22.296442 18070 net.cpp:141] Setting up bn3_2
I0523 01:22:22.296447 18070 net.cpp:148] Top shape: 1 64 56 56 (200704)
I0523 01:22:22.296459 18070 net.cpp:156] Memory required for data: 46563328
I0523 01:22:22.296468 18070 layer_factory.hpp:77] Creating layer scale3_2
I0523 01:22:22.296473 18070 net.cpp:91] Creating Layer scale3_2
I0523 01:22:22.296486 18070 net.cpp:425] scale3_2 <- conv3_2
I0523 01:22:22.296489 18070 net.cpp:386] scale3_2 -> conv3_2 (in-place)
I0523 01:22:22.296515 18070 layer_factory.hpp:77] Creating layer scale3_2
I0523 01:22:22.296630 18070 net.cpp:141] Setting up scale3_2
I0523 01:22:22.296635 18070 net.cpp:148] Top shape: 1 64 56 56 (200704)
I0523 01:22:22.296648 18070 net.cpp:156] Memory required for data: 47366144
I0523 01:22:22.296651 18070 layer_factory.hpp:77] Creating layer relu3_2
I0523 01:22:22.296655 18070 net.cpp:91] Creating Layer relu3_2
I0523 01:22:22.296658 18070 net.cpp:425] relu3_2 <- conv3_2
I0523 01:22:22.296660 18070 net.cpp:386] relu3_2 -> conv3_2 (in-place)
I0523 01:22:22.296802 18070 net.cpp:141] Setting up relu3_2
I0523 01:22:22.296808 18070 net.cpp:148] Top shape: 1 64 56 56 (200704)
I0523 01:22:22.296819 18070 net.cpp:156] Memory required for data: 48168960
I0523 01:22:22.296821 18070 layer_factory.hpp:77] Creating layer pool3
I0523 01:22:22.296824 18070 layer_factory.cpp:90] cuDNN does not support multiple tops. Using Caffe's own pooling layer.
I0523 01:22:22.296828 18070 net.cpp:91] Creating Layer pool3
I0523 01:22:22.296830 18070 net.cpp:425] pool3 <- conv3_2
I0523 01:22:22.296833 18070 net.cpp:399] pool3 -> pool3
I0523 01:22:22.296847 18070 net.cpp:399] pool3 -> pool3_mask
I0523 01:22:22.296895 18070 net.cpp:141] Setting up pool3
I0523 01:22:22.296911 18070 net.cpp:148] Top shape: 1 64 28 28 (50176)
I0523 01:22:22.296916 18070 net.cpp:148] Top shape: 1 64 28 28 (50176)
I0523 01:22:22.296919 18070 net.cpp:156] Memory required for data: 48570368
I0523 01:22:22.296933 18070 layer_factory.hpp:77] Creating layer conv4_1
I0523 01:22:22.296941 18070 net.cpp:91] Creating Layer conv4_1
I0523 01:22:22.296947 18070 net.cpp:425] conv4_1 <- pool3
I0523 01:22:22.296953 18070 net.cpp:399] conv4_1 -> conv4_1
I0523 01:22:22.299849 18070 net.cpp:141] Setting up conv4_1
I0523 01:22:22.299863 18070 net.cpp:148] Top shape: 1 128 28 28 (100352)
I0523 01:22:22.299867 18070 net.cpp:156] Memory required for data: 48971776
I0523 01:22:22.299875 18070 layer_factory.hpp:77] Creating layer bn4_1
I0523 01:22:22.299892 18070 net.cpp:91] Creating Layer bn4_1
I0523 01:22:22.299898 18070 net.cpp:425] bn4_1 <- conv4_1
I0523 01:22:22.299914 18070 net.cpp:386] bn4_1 -> conv4_1 (in-place)
I0523 01:22:22.300348 18070 net.cpp:141] Setting up bn4_1
I0523 01:22:22.300356 18070 net.cpp:148] Top shape: 1 128 28 28 (100352)
I0523 01:22:22.300421 18070 net.cpp:156] Memory required for data: 49373184
I0523 01:22:22.300439 18070 layer_factory.hpp:77] Creating layer scale4_1
I0523 01:22:22.300446 18070 net.cpp:91] Creating Layer scale4_1
I0523 01:22:22.300448 18070 net.cpp:425] scale4_1 <- conv4_1
I0523 01:22:22.300452 18070 net.cpp:386] scale4_1 -> conv4_1 (in-place)
I0523 01:22:22.300492 18070 layer_factory.hpp:77] Creating layer scale4_1
I0523 01:22:22.300586 18070 net.cpp:141] Setting up scale4_1
I0523 01:22:22.300600 18070 net.cpp:148] Top shape: 1 128 28 28 (100352)
I0523 01:22:22.300612 18070 net.cpp:156] Memory required for data: 49774592
I0523 01:22:22.300616 18070 layer_factory.hpp:77] Creating layer relu4_1
I0523 01:22:22.300624 18070 net.cpp:91] Creating Layer relu4_1
I0523 01:22:22.300626 18070 net.cpp:425] relu4_1 <- conv4_1
I0523 01:22:22.300629 18070 net.cpp:386] relu4_1 -> conv4_1 (in-place)
I0523 01:22:22.300863 18070 net.cpp:141] Setting up relu4_1
I0523 01:22:22.300871 18070 net.cpp:148] Top shape: 1 128 28 28 (100352)
I0523 01:22:22.300884 18070 net.cpp:156] Memory required for data: 50176000
I0523 01:22:22.300886 18070 layer_factory.hpp:77] Creating layer conv4_2
I0523 01:22:22.300894 18070 net.cpp:91] Creating Layer conv4_2
I0523 01:22:22.300896 18070 net.cpp:425] conv4_2 <- conv4_1
I0523 01:22:22.300900 18070 net.cpp:399] conv4_2 -> conv4_2
I0523 01:22:22.305179 18070 net.cpp:141] Setting up conv4_2
I0523 01:22:22.305191 18070 net.cpp:148] Top shape: 1 128 28 28 (100352)
I0523 01:22:22.305196 18070 net.cpp:156] Memory required for data: 50577408
I0523 01:22:22.305202 18070 layer_factory.hpp:77] Creating layer bn4_2
I0523 01:22:22.305218 18070 net.cpp:91] Creating Layer bn4_2
I0523 01:22:22.305225 18070 net.cpp:425] bn4_2 <- conv4_2
I0523 01:22:22.305241 18070 net.cpp:386] bn4_2 -> conv4_2 (in-place)
I0523 01:22:22.305387 18070 net.cpp:141] Setting up bn4_2
I0523 01:22:22.305392 18070 net.cpp:148] Top shape: 1 128 28 28 (100352)
I0523 01:22:22.305403 18070 net.cpp:156] Memory required for data: 50978816
I0523 01:22:22.305408 18070 layer_factory.hpp:77] Creating layer scale4_2
I0523 01:22:22.305413 18070 net.cpp:91] Creating Layer scale4_2
I0523 01:22:22.305416 18070 net.cpp:425] scale4_2 <- conv4_2
I0523 01:22:22.305419 18070 net.cpp:386] scale4_2 -> conv4_2 (in-place)
I0523 01:22:22.305465 18070 layer_factory.hpp:77] Creating layer scale4_2
I0523 01:22:22.305584 18070 net.cpp:141] Setting up scale4_2
I0523 01:22:22.305588 18070 net.cpp:148] Top shape: 1 128 28 28 (100352)
I0523 01:22:22.305600 18070 net.cpp:156] Memory required for data: 51380224
I0523 01:22:22.305604 18070 layer_factory.hpp:77] Creating layer relu4_2
I0523 01:22:22.305608 18070 net.cpp:91] Creating Layer relu4_2
I0523 01:22:22.305610 18070 net.cpp:425] relu4_2 <- conv4_2
I0523 01:22:22.305613 18070 net.cpp:386] relu4_2 -> conv4_2 (in-place)
I0523 01:22:22.305750 18070 net.cpp:141] Setting up relu4_2
I0523 01:22:22.305757 18070 net.cpp:148] Top shape: 1 128 28 28 (100352)
I0523 01:22:22.305758 18070 net.cpp:156] Memory required for data: 51781632
I0523 01:22:22.305760 18070 layer_factory.hpp:77] Creating layer pool4
I0523 01:22:22.305763 18070 layer_factory.cpp:90] cuDNN does not support multiple tops. Using Caffe's own pooling layer.
I0523 01:22:22.305778 18070 net.cpp:91] Creating Layer pool4
I0523 01:22:22.305779 18070 net.cpp:425] pool4 <- conv4_2
I0523 01:22:22.305783 18070 net.cpp:399] pool4 -> pool4
I0523 01:22:22.305788 18070 net.cpp:399] pool4 -> pool4_mask
I0523 01:22:22.305815 18070 net.cpp:141] Setting up pool4
I0523 01:22:22.305819 18070 net.cpp:148] Top shape: 1 128 14 14 (25088)
I0523 01:22:22.305822 18070 net.cpp:148] Top shape: 1 128 14 14 (25088)
I0523 01:22:22.305824 18070 net.cpp:156] Memory required for data: 51982336
I0523 01:22:22.305826 18070 layer_factory.hpp:77] Creating layer conv5_1
I0523 01:22:22.305832 18070 net.cpp:91] Creating Layer conv5_1
I0523 01:22:22.305835 18070 net.cpp:425] conv5_1 <- pool4
I0523 01:22:22.305840 18070 net.cpp:399] conv5_1 -> conv5_1
I0523 01:22:22.310230 18070 net.cpp:141] Setting up conv5_1
I0523 01:22:22.310250 18070 net.cpp:148] Top shape: 1 128 14 14 (25088)
I0523 01:22:22.310253 18070 net.cpp:156] Memory required for data: 52082688
I0523 01:22:22.310258 18070 layer_factory.hpp:77] Creating layer bn5_1
I0523 01:22:22.310264 18070 net.cpp:91] Creating Layer bn5_1
I0523 01:22:22.310266 18070 net.cpp:425] bn5_1 <- conv5_1
I0523 01:22:22.310271 18070 net.cpp:386] bn5_1 -> conv5_1 (in-place)
I0523 01:22:22.310410 18070 net.cpp:141] Setting up bn5_1
I0523 01:22:22.310425 18070 net.cpp:148] Top shape: 1 128 14 14 (25088)
I0523 01:22:22.310436 18070 net.cpp:156] Memory required for data: 52183040
I0523 01:22:22.310441 18070 layer_factory.hpp:77] Creating layer scale5_1
I0523 01:22:22.310447 18070 net.cpp:91] Creating Layer scale5_1
I0523 01:22:22.310449 18070 net.cpp:425] scale5_1 <- conv5_1
I0523 01:22:22.310453 18070 net.cpp:386] scale5_1 -> conv5_1 (in-place)
I0523 01:22:22.310484 18070 layer_factory.hpp:77] Creating layer scale5_1
I0523 01:22:22.310564 18070 net.cpp:141] Setting up scale5_1
I0523 01:22:22.310570 18070 net.cpp:148] Top shape: 1 128 14 14 (25088)
I0523 01:22:22.310581 18070 net.cpp:156] Memory required for data: 52283392
I0523 01:22:22.310585 18070 layer_factory.hpp:77] Creating layer relu5_1
I0523 01:22:22.310590 18070 net.cpp:91] Creating Layer relu5_1
I0523 01:22:22.310591 18070 net.cpp:425] relu5_1 <- conv5_1
I0523 01:22:22.310595 18070 net.cpp:386] relu5_1 -> conv5_1 (in-place)
I0523 01:22:22.310719 18070 net.cpp:141] Setting up relu5_1
I0523 01:22:22.310724 18070 net.cpp:148] Top shape: 1 128 14 14 (25088)
I0523 01:22:22.310736 18070 net.cpp:156] Memory required for data: 52383744
I0523 01:22:22.310739 18070 layer_factory.hpp:77] Creating layer conv5_2
I0523 01:22:22.310745 18070 net.cpp:91] Creating Layer conv5_2
I0523 01:22:22.310747 18070 net.cpp:425] conv5_2 <- conv5_1
I0523 01:22:22.310750 18070 net.cpp:399] conv5_2 -> conv5_2
I0523 01:22:22.316107 18070 net.cpp:141] Setting up conv5_2
I0523 01:22:22.316130 18070 net.cpp:148] Top shape: 1 128 14 14 (25088)
I0523 01:22:22.316133 18070 net.cpp:156] Memory required for data: 52484096
I0523 01:22:22.316138 18070 layer_factory.hpp:77] Creating layer bn5_2
I0523 01:22:22.316144 18070 net.cpp:91] Creating Layer bn5_2
I0523 01:22:22.316146 18070 net.cpp:425] bn5_2 <- conv5_2
I0523 01:22:22.316150 18070 net.cpp:386] bn5_2 -> conv5_2 (in-place)
I0523 01:22:22.316308 18070 net.cpp:141] Setting up bn5_2
I0523 01:22:22.316313 18070 net.cpp:148] Top shape: 1 128 14 14 (25088)
I0523 01:22:22.316324 18070 net.cpp:156] Memory required for data: 52584448
I0523 01:22:22.316329 18070 layer_factory.hpp:77] Creating layer scale5_2
I0523 01:22:22.316334 18070 net.cpp:91] Creating Layer scale5_2
I0523 01:22:22.316337 18070 net.cpp:425] scale5_2 <- conv5_2
I0523 01:22:22.316340 18070 net.cpp:386] scale5_2 -> conv5_2 (in-place)
I0523 01:22:22.316375 18070 layer_factory.hpp:77] Creating layer scale5_2
I0523 01:22:22.316486 18070 net.cpp:141] Setting up scale5_2
I0523 01:22:22.316490 18070 net.cpp:148] Top shape: 1 128 14 14 (25088)
I0523 01:22:22.316504 18070 net.cpp:156] Memory required for data: 52684800
I0523 01:22:22.316506 18070 layer_factory.hpp:77] Creating layer relu5_2
I0523 01:22:22.316511 18070 net.cpp:91] Creating Layer relu5_2
I0523 01:22:22.316514 18070 net.cpp:425] relu5_2 <- conv5_2
I0523 01:22:22.316516 18070 net.cpp:386] relu5_2 -> conv5_2 (in-place)
I0523 01:22:22.316740 18070 net.cpp:141] Setting up relu5_2
I0523 01:22:22.316747 18070 net.cpp:148] Top shape: 1 128 14 14 (25088)
I0523 01:22:22.316759 18070 net.cpp:156] Memory required for data: 52785152
I0523 01:22:22.316762 18070 layer_factory.hpp:77] Creating layer pool5
I0523 01:22:22.316766 18070 layer_factory.cpp:90] cuDNN does not support multiple tops. Using Caffe's own pooling layer.
I0523 01:22:22.316769 18070 net.cpp:91] Creating Layer pool5
I0523 01:22:22.316771 18070 net.cpp:425] pool5 <- conv5_2
I0523 01:22:22.316776 18070 net.cpp:399] pool5 -> pool5
I0523 01:22:22.316781 18070 net.cpp:399] pool5 -> pool5_mask
I0523 01:22:22.316819 18070 net.cpp:141] Setting up pool5
I0523 01:22:22.316833 18070 net.cpp:148] Top shape: 1 128 7 7 (6272)
I0523 01:22:22.316836 18070 net.cpp:148] Top shape: 1 128 7 7 (6272)
I0523 01:22:22.316838 18070 net.cpp:156] Memory required for data: 52835328
I0523 01:22:22.316850 18070 layer_factory.hpp:77] Creating layer upsample5
I0523 01:22:22.316855 18070 net.cpp:91] Creating Layer upsample5
I0523 01:22:22.316857 18070 net.cpp:425] upsample5 <- pool5
I0523 01:22:22.316860 18070 net.cpp:425] upsample5 <- pool5_mask
I0523 01:22:22.316874 18070 net.cpp:399] upsample5 -> pool5_D
I0523 01:22:22.316895 18070 net.cpp:141] Setting up upsample5
I0523 01:22:22.316900 18070 net.cpp:148] Top shape: 1 128 14 14 (25088)
I0523 01:22:22.316901 18070 net.cpp:156] Memory required for data: 52935680
I0523 01:22:22.316903 18070 layer_factory.hpp:77] Creating layer conv5_2_D
I0523 01:22:22.316910 18070 net.cpp:91] Creating Layer conv5_2_D
I0523 01:22:22.316912 18070 net.cpp:425] conv5_2_D <- pool5_D
I0523 01:22:22.316916 18070 net.cpp:399] conv5_2_D -> conv5_2_D
I0523 01:22:22.321511 18070 net.cpp:141] Setting up conv5_2_D
I0523 01:22:22.321533 18070 net.cpp:148] Top shape: 1 128 14 14 (25088)
I0523 01:22:22.321537 18070 net.cpp:156] Memory required for data: 53036032
I0523 01:22:22.321542 18070 layer_factory.hpp:77] Creating layer bn5_2_D
I0523 01:22:22.321549 18070 net.cpp:91] Creating Layer bn5_2_D
I0523 01:22:22.321552 18070 net.cpp:425] bn5_2_D <- conv5_2_D
I0523 01:22:22.321557 18070 net.cpp:386] bn5_2_D -> conv5_2_D (in-place)
I0523 01:22:22.321714 18070 net.cpp:141] Setting up bn5_2_D
I0523 01:22:22.321719 18070 net.cpp:148] Top shape: 1 128 14 14 (25088)
I0523 01:22:22.321732 18070 net.cpp:156] Memory required for data: 53136384
I0523 01:22:22.321738 18070 layer_factory.hpp:77] Creating layer scale5_2_D
I0523 01:22:22.321743 18070 net.cpp:91] Creating Layer scale5_2_D
I0523 01:22:22.321744 18070 net.cpp:425] scale5_2_D <- conv5_2_D
I0523 01:22:22.321748 18070 net.cpp:386] scale5_2_D -> conv5_2_D (in-place)
I0523 01:22:22.321796 18070 layer_factory.hpp:77] Creating layer scale5_2_D
I0523 01:22:22.321921 18070 net.cpp:141] Setting up scale5_2_D
I0523 01:22:22.321925 18070 net.cpp:148] Top shape: 1 128 14 14 (25088)
I0523 01:22:22.321938 18070 net.cpp:156] Memory required for data: 53236736
I0523 01:22:22.321948 18070 layer_factory.hpp:77] Creating layer relu5_2_D
I0523 01:22:22.321952 18070 net.cpp:91] Creating Layer relu5_2_D
I0523 01:22:22.321964 18070 net.cpp:425] relu5_2_D <- conv5_2_D
I0523 01:22:22.321967 18070 net.cpp:386] relu5_2_D -> conv5_2_D (in-place)
I0523 01:22:22.322089 18070 net.cpp:141] Setting up relu5_2_D
I0523 01:22:22.322095 18070 net.cpp:148] Top shape: 1 128 14 14 (25088)
I0523 01:22:22.322098 18070 net.cpp:156] Memory required for data: 53337088
I0523 01:22:22.322100 18070 layer_factory.hpp:77] Creating layer conv5_1_D
I0523 01:22:22.322106 18070 net.cpp:91] Creating Layer conv5_1_D
I0523 01:22:22.322109 18070 net.cpp:425] conv5_1_D <- conv5_2_D
I0523 01:22:22.322113 18070 net.cpp:399] conv5_1_D -> conv5_1_D
I0523 01:22:22.326462 18070 net.cpp:141] Setting up conv5_1_D
I0523 01:22:22.326485 18070 net.cpp:148] Top shape: 1 128 14 14 (25088)
I0523 01:22:22.326488 18070 net.cpp:156] Memory required for data: 53437440
I0523 01:22:22.326503 18070 layer_factory.hpp:77] Creating layer bn5_1_D
I0523 01:22:22.326508 18070 net.cpp:91] Creating Layer bn5_1_D
I0523 01:22:22.326511 18070 net.cpp:425] bn5_1_D <- conv5_1_D
I0523 01:22:22.326515 18070 net.cpp:386] bn5_1_D -> conv5_1_D (in-place)
I0523 01:22:22.326671 18070 net.cpp:141] Setting up bn5_1_D
I0523 01:22:22.326676 18070 net.cpp:148] Top shape: 1 128 14 14 (25088)
I0523 01:22:22.326689 18070 net.cpp:156] Memory required for data: 53537792
I0523 01:22:22.326694 18070 layer_factory.hpp:77] Creating layer scale5_1_D
I0523 01:22:22.326699 18070 net.cpp:91] Creating Layer scale5_1_D
I0523 01:22:22.326701 18070 net.cpp:425] scale5_1_D <- conv5_1_D
I0523 01:22:22.326704 18070 net.cpp:386] scale5_1_D -> conv5_1_D (in-place)
I0523 01:22:22.326743 18070 layer_factory.hpp:77] Creating layer scale5_1_D
I0523 01:22:22.326869 18070 net.cpp:141] Setting up scale5_1_D
I0523 01:22:22.326874 18070 net.cpp:148] Top shape: 1 128 14 14 (25088)
I0523 01:22:22.326886 18070 net.cpp:156] Memory required for data: 53638144
I0523 01:22:22.326890 18070 layer_factory.hpp:77] Creating layer relu5_1_D
I0523 01:22:22.326894 18070 net.cpp:91] Creating Layer relu5_1_D
I0523 01:22:22.326896 18070 net.cpp:425] relu5_1_D <- conv5_1_D
I0523 01:22:22.326900 18070 net.cpp:386] relu5_1_D -> conv5_1_D (in-place)
I0523 01:22:22.327042 18070 net.cpp:141] Setting up relu5_1_D
I0523 01:22:22.327049 18070 net.cpp:148] Top shape: 1 128 14 14 (25088)
I0523 01:22:22.327059 18070 net.cpp:156] Memory required for data: 53738496
I0523 01:22:22.327062 18070 layer_factory.hpp:77] Creating layer upsample4
I0523 01:22:22.327066 18070 net.cpp:91] Creating Layer upsample4
I0523 01:22:22.327069 18070 net.cpp:425] upsample4 <- conv5_1_D
I0523 01:22:22.327072 18070 net.cpp:425] upsample4 <- pool4_mask
I0523 01:22:22.327076 18070 net.cpp:399] upsample4 -> pool4_D
I0523 01:22:22.327101 18070 net.cpp:141] Setting up upsample4
I0523 01:22:22.327116 18070 net.cpp:148] Top shape: 1 128 28 28 (100352)
I0523 01:22:22.327117 18070 net.cpp:156] Memory required for data: 54139904
I0523 01:22:22.327119 18070 layer_factory.hpp:77] Creating layer conv4_2_D
I0523 01:22:22.327136 18070 net.cpp:91] Creating Layer conv4_2_D
I0523 01:22:22.327137 18070 net.cpp:425] conv4_2_D <- pool4_D
I0523 01:22:22.327142 18070 net.cpp:399] conv4_2_D -> conv4_2_D
I0523 01:22:22.331532 18070 net.cpp:141] Setting up conv4_2_D
I0523 01:22:22.331542 18070 net.cpp:148] Top shape: 1 128 28 28 (100352)
I0523 01:22:22.331555 18070 net.cpp:156] Memory required for data: 54541312
I0523 01:22:22.331559 18070 layer_factory.hpp:77] Creating layer bn4_2_D
I0523 01:22:22.331564 18070 net.cpp:91] Creating Layer bn4_2_D
I0523 01:22:22.331568 18070 net.cpp:425] bn4_2_D <- conv4_2_D
I0523 01:22:22.331571 18070 net.cpp:386] bn4_2_D -> conv4_2_D (in-place)
I0523 01:22:22.331730 18070 net.cpp:141] Setting up bn4_2_D
I0523 01:22:22.331735 18070 net.cpp:148] Top shape: 1 128 28 28 (100352)
I0523 01:22:22.331748 18070 net.cpp:156] Memory required for data: 54942720
I0523 01:22:22.331753 18070 layer_factory.hpp:77] Creating layer scale4_2_D
I0523 01:22:22.331758 18070 net.cpp:91] Creating Layer scale4_2_D
I0523 01:22:22.331759 18070 net.cpp:425] scale4_2_D <- conv4_2_D
I0523 01:22:22.331763 18070 net.cpp:386] scale4_2_D -> conv4_2_D (in-place)
I0523 01:22:22.331800 18070 layer_factory.hpp:77] Creating layer scale4_2_D
I0523 01:22:22.331930 18070 net.cpp:141] Setting up scale4_2_D
I0523 01:22:22.331936 18070 net.cpp:148] Top shape: 1 128 28 28 (100352)
I0523 01:22:22.331948 18070 net.cpp:156] Memory required for data: 55344128
I0523 01:22:22.331953 18070 layer_factory.hpp:77] Creating layer relu4_2_D
I0523 01:22:22.331956 18070 net.cpp:91] Creating Layer relu4_2_D
I0523 01:22:22.331959 18070 net.cpp:425] relu4_2_D <- conv4_2_D
I0523 01:22:22.331961 18070 net.cpp:386] relu4_2_D -> conv4_2_D (in-place)
I0523 01:22:22.332181 18070 net.cpp:141] Setting up relu4_2_D
I0523 01:22:22.332190 18070 net.cpp:148] Top shape: 1 128 28 28 (100352)
I0523 01:22:22.332202 18070 net.cpp:156] Memory required for data: 55745536
I0523 01:22:22.332204 18070 layer_factory.hpp:77] Creating layer conv4_1_D
I0523 01:22:22.332211 18070 net.cpp:91] Creating Layer conv4_1_D
I0523 01:22:22.332214 18070 net.cpp:425] conv4_1_D <- conv4_2_D
I0523 01:22:22.332218 18070 net.cpp:399] conv4_1_D -> conv4_1_D
I0523 01:22:22.334659 18070 net.cpp:141] Setting up conv4_1_D
I0523 01:22:22.334668 18070 net.cpp:148] Top shape: 1 64 28 28 (50176)
I0523 01:22:22.334681 18070 net.cpp:156] Memory required for data: 55946240
I0523 01:22:22.334684 18070 layer_factory.hpp:77] Creating layer bn4_1_D
I0523 01:22:22.334691 18070 net.cpp:91] Creating Layer bn4_1_D
I0523 01:22:22.334692 18070 net.cpp:425] bn4_1_D <- conv4_1_D
I0523 01:22:22.334697 18070 net.cpp:386] bn4_1_D -> conv4_1_D (in-place)
I0523 01:22:22.334870 18070 net.cpp:141] Setting up bn4_1_D
I0523 01:22:22.334874 18070 net.cpp:148] Top shape: 1 64 28 28 (50176)
I0523 01:22:22.334887 18070 net.cpp:156] Memory required for data: 56146944
I0523 01:22:22.334892 18070 layer_factory.hpp:77] Creating layer scale4_1_D
I0523 01:22:22.334897 18070 net.cpp:91] Creating Layer scale4_1_D
I0523 01:22:22.334899 18070 net.cpp:425] scale4_1_D <- conv4_1_D
I0523 01:22:22.334903 18070 net.cpp:386] scale4_1_D -> conv4_1_D (in-place)
I0523 01:22:22.334942 18070 layer_factory.hpp:77] Creating layer scale4_1_D
I0523 01:22:22.335099 18070 net.cpp:141] Setting up scale4_1_D
I0523 01:22:22.335104 18070 net.cpp:148] Top shape: 1 64 28 28 (50176)
I0523 01:22:22.335116 18070 net.cpp:156] Memory required for data: 56347648
I0523 01:22:22.335120 18070 layer_factory.hpp:77] Creating layer relu4_1_D
I0523 01:22:22.335129 18070 net.cpp:91] Creating Layer relu4_1_D
I0523 01:22:22.335142 18070 net.cpp:425] relu4_1_D <- conv4_1_D
I0523 01:22:22.335145 18070 net.cpp:386] relu4_1_D -> conv4_1_D (in-place)
I0523 01:22:22.335288 18070 net.cpp:141] Setting up relu4_1_D
I0523 01:22:22.335304 18070 net.cpp:148] Top shape: 1 64 28 28 (50176)
I0523 01:22:22.335306 18070 net.cpp:156] Memory required for data: 56548352
I0523 01:22:22.335309 18070 layer_factory.hpp:77] Creating layer upsample3
I0523 01:22:22.335314 18070 net.cpp:91] Creating Layer upsample3
I0523 01:22:22.335316 18070 net.cpp:425] upsample3 <- conv4_1_D
I0523 01:22:22.335330 18070 net.cpp:425] upsample3 <- pool3_mask
I0523 01:22:22.335335 18070 net.cpp:399] upsample3 -> pool3_D
I0523 01:22:22.335364 18070 net.cpp:141] Setting up upsample3
I0523 01:22:22.335368 18070 net.cpp:148] Top shape: 1 64 56 56 (200704)
I0523 01:22:22.335371 18070 net.cpp:156] Memory required for data: 57351168
I0523 01:22:22.335372 18070 layer_factory.hpp:77] Creating layer conv3_2_D
I0523 01:22:22.335391 18070 net.cpp:91] Creating Layer conv3_2_D
I0523 01:22:22.335402 18070 net.cpp:425] conv3_2_D <- pool3_D
I0523 01:22:22.335407 18070 net.cpp:399] conv3_2_D -> conv3_2_D
I0523 01:22:22.337098 18070 net.cpp:141] Setting up conv3_2_D
I0523 01:22:22.337107 18070 net.cpp:148] Top shape: 1 64 56 56 (200704)
I0523 01:22:22.337110 18070 net.cpp:156] Memory required for data: 58153984
I0523 01:22:22.337115 18070 layer_factory.hpp:77] Creating layer bn3_2_D
I0523 01:22:22.337121 18070 net.cpp:91] Creating Layer bn3_2_D
I0523 01:22:22.337122 18070 net.cpp:425] bn3_2_D <- conv3_2_D
I0523 01:22:22.337126 18070 net.cpp:386] bn3_2_D -> conv3_2_D (in-place)
I0523 01:22:22.337297 18070 net.cpp:141] Setting up bn3_2_D
I0523 01:22:22.337302 18070 net.cpp:148] Top shape: 1 64 56 56 (200704)
I0523 01:22:22.337304 18070 net.cpp:156] Memory required for data: 58956800
I0523 01:22:22.337309 18070 layer_factory.hpp:77] Creating layer scale3_2_D
I0523 01:22:22.337324 18070 net.cpp:91] Creating Layer scale3_2_D
I0523 01:22:22.337327 18070 net.cpp:425] scale3_2_D <- conv3_2_D
I0523 01:22:22.337329 18070 net.cpp:386] scale3_2_D -> conv3_2_D (in-place)
I0523 01:22:22.337359 18070 layer_factory.hpp:77] Creating layer scale3_2_D
I0523 01:22:22.337486 18070 net.cpp:141] Setting up scale3_2_D
I0523 01:22:22.337491 18070 net.cpp:148] Top shape: 1 64 56 56 (200704)
I0523 01:22:22.337492 18070 net.cpp:156] Memory required for data: 59759616
I0523 01:22:22.337496 18070 layer_factory.hpp:77] Creating layer relu3_2_D
I0523 01:22:22.337501 18070 net.cpp:91] Creating Layer relu3_2_D
I0523 01:22:22.337502 18070 net.cpp:425] relu3_2_D <- conv3_2_D
I0523 01:22:22.337505 18070 net.cpp:386] relu3_2_D -> conv3_2_D (in-place)
I0523 01:22:22.337631 18070 net.cpp:141] Setting up relu3_2_D
I0523 01:22:22.337636 18070 net.cpp:148] Top shape: 1 64 56 56 (200704)
I0523 01:22:22.337638 18070 net.cpp:156] Memory required for data: 60562432
I0523 01:22:22.337641 18070 layer_factory.hpp:77] Creating layer conv3_1_D
I0523 01:22:22.337647 18070 net.cpp:91] Creating Layer conv3_1_D
I0523 01:22:22.337649 18070 net.cpp:425] conv3_1_D <- conv3_2_D
I0523 01:22:22.337654 18070 net.cpp:399] conv3_1_D -> conv3_1_D
I0523 01:22:22.338862 18070 net.cpp:141] Setting up conv3_1_D
I0523 01:22:22.338872 18070 net.cpp:148] Top shape: 1 32 56 56 (100352)
I0523 01:22:22.338874 18070 net.cpp:156] Memory required for data: 60963840
I0523 01:22:22.338878 18070 layer_factory.hpp:77] Creating layer bn3_1_D
I0523 01:22:22.338883 18070 net.cpp:91] Creating Layer bn3_1_D
I0523 01:22:22.338886 18070 net.cpp:425] bn3_1_D <- conv3_1_D
I0523 01:22:22.338889 18070 net.cpp:386] bn3_1_D -> conv3_1_D (in-place)
I0523 01:22:22.339042 18070 net.cpp:141] Setting up bn3_1_D
I0523 01:22:22.339047 18070 net.cpp:148] Top shape: 1 32 56 56 (100352)
I0523 01:22:22.339056 18070 net.cpp:156] Memory required for data: 61365248
I0523 01:22:22.339062 18070 layer_factory.hpp:77] Creating layer scale3_1_D
I0523 01:22:22.339066 18070 net.cpp:91] Creating Layer scale3_1_D
I0523 01:22:22.339069 18070 net.cpp:425] scale3_1_D <- conv3_1_D
I0523 01:22:22.339072 18070 net.cpp:386] scale3_1_D -> conv3_1_D (in-place)
I0523 01:22:22.339102 18070 layer_factory.hpp:77] Creating layer scale3_1_D
I0523 01:22:22.339191 18070 net.cpp:141] Setting up scale3_1_D
I0523 01:22:22.339197 18070 net.cpp:148] Top shape: 1 32 56 56 (100352)
I0523 01:22:22.339200 18070 net.cpp:156] Memory required for data: 61766656
I0523 01:22:22.339203 18070 layer_factory.hpp:77] Creating layer relu3_1_D
I0523 01:22:22.339206 18070 net.cpp:91] Creating Layer relu3_1_D
I0523 01:22:22.339210 18070 net.cpp:425] relu3_1_D <- conv3_1_D
I0523 01:22:22.339211 18070 net.cpp:386] relu3_1_D -> conv3_1_D (in-place)
I0523 01:22:22.339424 18070 net.cpp:141] Setting up relu3_1_D
I0523 01:22:22.339432 18070 net.cpp:148] Top shape: 1 32 56 56 (100352)
I0523 01:22:22.339435 18070 net.cpp:156] Memory required for data: 62168064
I0523 01:22:22.339437 18070 layer_factory.hpp:77] Creating layer upsample2
I0523 01:22:22.339442 18070 net.cpp:91] Creating Layer upsample2
I0523 01:22:22.339444 18070 net.cpp:425] upsample2 <- conv3_1_D
I0523 01:22:22.339447 18070 net.cpp:425] upsample2 <- pool2_mask
I0523 01:22:22.339450 18070 net.cpp:399] upsample2 -> pool2_D
I0523 01:22:22.339471 18070 net.cpp:141] Setting up upsample2
I0523 01:22:22.339475 18070 net.cpp:148] Top shape: 1 32 112 112 (401408)
I0523 01:22:22.339478 18070 net.cpp:156] Memory required for data: 63773696
I0523 01:22:22.339479 18070 layer_factory.hpp:77] Creating layer conv2_2_D
I0523 01:22:22.339485 18070 net.cpp:91] Creating Layer conv2_2_D
I0523 01:22:22.339488 18070 net.cpp:425] conv2_2_D <- pool2_D
I0523 01:22:22.339493 18070 net.cpp:399] conv2_2_D -> conv2_2_D
I0523 01:22:22.340383 18070 net.cpp:141] Setting up conv2_2_D
I0523 01:22:22.340391 18070 net.cpp:148] Top shape: 1 32 112 112 (401408)
I0523 01:22:22.340394 18070 net.cpp:156] Memory required for data: 65379328
I0523 01:22:22.340397 18070 layer_factory.hpp:77] Creating layer bn2_2_D
I0523 01:22:22.340404 18070 net.cpp:91] Creating Layer bn2_2_D
I0523 01:22:22.340405 18070 net.cpp:425] bn2_2_D <- conv2_2_D
I0523 01:22:22.340409 18070 net.cpp:386] bn2_2_D -> conv2_2_D (in-place)
I0523 01:22:22.340566 18070 net.cpp:141] Setting up bn2_2_D
I0523 01:22:22.340571 18070 net.cpp:148] Top shape: 1 32 112 112 (401408)
I0523 01:22:22.340574 18070 net.cpp:156] Memory required for data: 66984960
I0523 01:22:22.340579 18070 layer_factory.hpp:77] Creating layer scale2_2_D
I0523 01:22:22.340582 18070 net.cpp:91] Creating Layer scale2_2_D
I0523 01:22:22.340584 18070 net.cpp:425] scale2_2_D <- conv2_2_D
I0523 01:22:22.340587 18070 net.cpp:386] scale2_2_D -> conv2_2_D (in-place)
I0523 01:22:22.340616 18070 layer_factory.hpp:77] Creating layer scale2_2_D
I0523 01:22:22.340714 18070 net.cpp:141] Setting up scale2_2_D
I0523 01:22:22.340719 18070 net.cpp:148] Top shape: 1 32 112 112 (401408)
I0523 01:22:22.340721 18070 net.cpp:156] Memory required for data: 68590592
I0523 01:22:22.340724 18070 layer_factory.hpp:77] Creating layer relu2_2_D
I0523 01:22:22.340728 18070 net.cpp:91] Creating Layer relu2_2_D
I0523 01:22:22.340730 18070 net.cpp:425] relu2_2_D <- conv2_2_D
I0523 01:22:22.340734 18070 net.cpp:386] relu2_2_D -> conv2_2_D (in-place)
I0523 01:22:22.340853 18070 net.cpp:141] Setting up relu2_2_D
I0523 01:22:22.340859 18070 net.cpp:148] Top shape: 1 32 112 112 (401408)
I0523 01:22:22.340862 18070 net.cpp:156] Memory required for data: 70196224
I0523 01:22:22.340863 18070 layer_factory.hpp:77] Creating layer conv2_1_D
I0523 01:22:22.340869 18070 net.cpp:91] Creating Layer conv2_1_D
I0523 01:22:22.340872 18070 net.cpp:425] conv2_1_D <- conv2_2_D
I0523 01:22:22.340878 18070 net.cpp:399] conv2_1_D -> conv2_1_D
I0523 01:22:22.341673 18070 net.cpp:141] Setting up conv2_1_D
I0523 01:22:22.341681 18070 net.cpp:148] Top shape: 1 16 112 112 (200704)
I0523 01:22:22.341691 18070 net.cpp:156] Memory required for data: 70999040
I0523 01:22:22.341696 18070 layer_factory.hpp:77] Creating layer bn2_1_D
I0523 01:22:22.341701 18070 net.cpp:91] Creating Layer bn2_1_D
I0523 01:22:22.341706 18070 net.cpp:425] bn2_1_D <- conv2_1_D
I0523 01:22:22.341719 18070 net.cpp:386] bn2_1_D -> conv2_1_D (in-place)
I0523 01:22:22.341913 18070 net.cpp:141] Setting up bn2_1_D
I0523 01:22:22.341918 18070 net.cpp:148] Top shape: 1 16 112 112 (200704)
I0523 01:22:22.341920 18070 net.cpp:156] Memory required for data: 71801856
I0523 01:22:22.341924 18070 layer_factory.hpp:77] Creating layer scale2_1_D
I0523 01:22:22.341929 18070 net.cpp:91] Creating Layer scale2_1_D
I0523 01:22:22.341933 18070 net.cpp:425] scale2_1_D <- conv2_1_D
I0523 01:22:22.341935 18070 net.cpp:386] scale2_1_D -> conv2_1_D (in-place)
I0523 01:22:22.341989 18070 layer_factory.hpp:77] Creating layer scale2_1_D
I0523 01:22:22.342108 18070 net.cpp:141] Setting up scale2_1_D
I0523 01:22:22.342113 18070 net.cpp:148] Top shape: 1 16 112 112 (200704)
I0523 01:22:22.342115 18070 net.cpp:156] Memory required for data: 72604672
I0523 01:22:22.342119 18070 layer_factory.hpp:77] Creating layer relu2_1_D
I0523 01:22:22.342133 18070 net.cpp:91] Creating Layer relu2_1_D
I0523 01:22:22.342134 18070 net.cpp:425] relu2_1_D <- conv2_1_D
I0523 01:22:22.342139 18070 net.cpp:386] relu2_1_D -> conv2_1_D (in-place)
I0523 01:22:22.342270 18070 net.cpp:141] Setting up relu2_1_D
I0523 01:22:22.342277 18070 net.cpp:148] Top shape: 1 16 112 112 (200704)
I0523 01:22:22.342288 18070 net.cpp:156] Memory required for data: 73407488
I0523 01:22:22.342290 18070 layer_factory.hpp:77] Creating layer upsample1
I0523 01:22:22.342294 18070 net.cpp:91] Creating Layer upsample1
I0523 01:22:22.342296 18070 net.cpp:425] upsample1 <- conv2_1_D
I0523 01:22:22.342299 18070 net.cpp:425] upsample1 <- pool1_mask
I0523 01:22:22.342303 18070 net.cpp:399] upsample1 -> pool1_D
I0523 01:22:22.342324 18070 net.cpp:141] Setting up upsample1
I0523 01:22:22.342329 18070 net.cpp:148] Top shape: 1 16 224 224 (802816)
I0523 01:22:22.342340 18070 net.cpp:156] Memory required for data: 76618752
I0523 01:22:22.342342 18070 layer_factory.hpp:77] Creating layer conv1_2_D
I0523 01:22:22.342358 18070 net.cpp:91] Creating Layer conv1_2_D
I0523 01:22:22.342360 18070 net.cpp:425] conv1_2_D <- pool1_D
I0523 01:22:22.342363 18070 net.cpp:399] conv1_2_D -> conv1_2_D
I0523 01:22:22.343219 18070 net.cpp:141] Setting up conv1_2_D
I0523 01:22:22.343228 18070 net.cpp:148] Top shape: 1 16 224 224 (802816)
I0523 01:22:22.343230 18070 net.cpp:156] Memory required for data: 79830016
I0523 01:22:22.343233 18070 layer_factory.hpp:77] Creating layer bn1_2_D
I0523 01:22:22.343240 18070 net.cpp:91] Creating Layer bn1_2_D
I0523 01:22:22.343242 18070 net.cpp:425] bn1_2_D <- conv1_2_D
I0523 01:22:22.343246 18070 net.cpp:386] bn1_2_D -> conv1_2_D (in-place)
I0523 01:22:22.343484 18070 net.cpp:141] Setting up bn1_2_D
I0523 01:22:22.343489 18070 net.cpp:148] Top shape: 1 16 224 224 (802816)
I0523 01:22:22.343492 18070 net.cpp:156] Memory required for data: 83041280
I0523 01:22:22.343497 18070 layer_factory.hpp:77] Creating layer scale1_2_D
I0523 01:22:22.343500 18070 net.cpp:91] Creating Layer scale1_2_D
I0523 01:22:22.343503 18070 net.cpp:425] scale1_2_D <- conv1_2_D
I0523 01:22:22.343507 18070 net.cpp:386] scale1_2_D -> conv1_2_D (in-place)
I0523 01:22:22.343545 18070 layer_factory.hpp:77] Creating layer scale1_2_D
I0523 01:22:22.343735 18070 net.cpp:141] Setting up scale1_2_D
I0523 01:22:22.343740 18070 net.cpp:148] Top shape: 1 16 224 224 (802816)
I0523 01:22:22.343742 18070 net.cpp:156] Memory required for data: 86252544
I0523 01:22:22.343746 18070 layer_factory.hpp:77] Creating layer relu1_2_D
I0523 01:22:22.343751 18070 net.cpp:91] Creating Layer relu1_2_D
I0523 01:22:22.343753 18070 net.cpp:425] relu1_2_D <- conv1_2_D
I0523 01:22:22.343756 18070 net.cpp:386] relu1_2_D -> conv1_2_D (in-place)
I0523 01:22:22.343987 18070 net.cpp:141] Setting up relu1_2_D
I0523 01:22:22.344002 18070 net.cpp:148] Top shape: 1 16 224 224 (802816)
I0523 01:22:22.344005 18070 net.cpp:156] Memory required for data: 89463808
I0523 01:22:22.344007 18070 layer_factory.hpp:77] Creating layer conv1_1_D
I0523 01:22:22.344014 18070 net.cpp:91] Creating Layer conv1_1_D
I0523 01:22:22.344017 18070 net.cpp:425] conv1_1_D <- conv1_2_D
I0523 01:22:22.344022 18070 net.cpp:399] conv1_1_D -> conv1_1_D
I0523 01:22:22.345168 18070 net.cpp:141] Setting up conv1_1_D
I0523 01:22:22.345177 18070 net.cpp:148] Top shape: 1 2 224 224 (100352)
I0523 01:22:22.345180 18070 net.cpp:156] Memory required for data: 89865216
I0523 01:22:22.345185 18070 layer_factory.hpp:77] Creating layer conv1_1_D_conv1_1_D_0_split
I0523 01:22:22.345190 18070 net.cpp:91] Creating Layer conv1_1_D_conv1_1_D_0_split
I0523 01:22:22.345192 18070 net.cpp:425] conv1_1_D_conv1_1_D_0_split <- conv1_1_D
I0523 01:22:22.345196 18070 net.cpp:399] conv1_1_D_conv1_1_D_0_split -> conv1_1_D_conv1_1_D_0_split_0
I0523 01:22:22.345201 18070 net.cpp:399] conv1_1_D_conv1_1_D_0_split -> conv1_1_D_conv1_1_D_0_split_1
I0523 01:22:22.345255 18070 net.cpp:141] Setting up conv1_1_D_conv1_1_D_0_split
I0523 01:22:22.345260 18070 net.cpp:148] Top shape: 1 2 224 224 (100352)
I0523 01:22:22.345263 18070 net.cpp:148] Top shape: 1 2 224 224 (100352)
I0523 01:22:22.345264 18070 net.cpp:156] Memory required for data: 90668032
I0523 01:22:22.345266 18070 layer_factory.hpp:77] Creating layer loss
I0523 01:22:22.345276 18070 net.cpp:91] Creating Layer loss
I0523 01:22:22.345278 18070 net.cpp:425] loss <- conv1_1_D_conv1_1_D_0_split_0
I0523 01:22:22.345281 18070 net.cpp:425] loss <- label_data_1_split_0
I0523 01:22:22.345284 18070 net.cpp:399] loss -> loss
…
