…
I0624 13:54:13.264941 18353 net.cpp:313] The NetState phase (0) differed from the phase (1) specified by a rule in layer data
I0624 13:54:13.265372 18353 net.cpp:49] Initializing net from parameters: 
name: "segnet"
state {
  phase: TRAIN
}
layer {
  name: "data"
  type: "DenseImageData"
  top: "data"
  top: "label"
  include {
    phase: TRAIN
  }
  transform_param {
    crop_size: 224
    mean_value: 100
  }
  dense_image_data_param {
    source: "data/train_seg.txt"
    batch_size: 32
    shuffle: true
    new_height: 224
    new_width: 310
    is_color: false
    root_folder: "data/raw/train/"
  }
}
layer {
  name: "conv1_1"
  type: "Convolution"
  bottom: "data"
  top: "conv1_1"
  param {
    lr_mult: 1
    decay_mult: 1
  }
  convolution_param {
    num_output: 32
    bias_term: false
    pad: 1
    kernel_size: 3
    weight_filler {
      type: "xavier"
    }
  }
}
layer {
  name: "bn1_1"
  type: "BatchNorm"
  bottom: "conv1_1"
  top: "conv1_1"
  param {
    lr_mult: 0
  }
  param {
    lr_mult: 0
  }
  param {
    lr_mult: 0
  }
  batch_norm_param {
    use_global_stats: false
  }
}
layer {
  name: "scale1_1"
  type: "Scale"
  bottom: "conv1_1"
  top: "conv1_1"
  param {
    lr_mult: 1
    decay_mult: 1
  }
  param {
    lr_mult: 1
    decay_mult: 1
  }
  scale_param {
    bias_term: true
    bias_filler {
      type: "constant"
      value: 0
    }
  }
}
layer {
  name: "relu1_1"
  type: "ReLU"
  bottom: "conv1_1"
  top: "conv1_1"
}
layer {
  name: "conv1_2"
  type: "Convolution"
  bottom: "conv1_1"
  top: "conv1_2"
  param {
    lr_mult: 1
    decay_mult: 1
  }
  convolution_param {
    num_output: 32
    bias_term: false
    pad: 1
    kernel_size: 3
    weight_filler {
      type: "xavier"
    }
  }
}
layer {
  name: "bn1_2"
  type: "BatchNorm"
  bottom: "conv1_2"
  top: "conv1_2"
  param {
    lr_mult: 0
  }
  param {
    lr_mult: 0
  }
  param {
    lr_mult: 0
  }
  batch_norm_param {
    use_global_stats: false
  }
}
layer {
  name: "scale1_2"
  type: "Scale"
  bottom: "conv1_2"
  top: "conv1_2"
  param {
    lr_mult: 1
    decay_mult: 1
  }
  param {
    lr_mult: 1
    decay_mult: 1
  }
  scale_param {
    bias_term: true
    bias_filler {
      type: "constant"
      value: 0
    }
  }
}
layer {
  name: "relu1_2"
  type: "ReLU"
  bottom: "conv1_2"
  top: "conv1_2"
}
layer {
  name: "pool1"
  type: "Pooling"
  bottom: "conv1_2"
  top: "pool1"
  top: "pool1_mask"
  pooling_param {
    pool: MAX
    kernel_size: 2
    stride: 2
  }
}
layer {
  name: "conv2_1"
  type: "Convolution"
  bottom: "pool1"
  top: "conv2_1"
  param {
    lr_mult: 1
    decay_mult: 1
  }
  convolution_param {
    num_output: 64
    bias_term: false
    pad: 1
    kernel_size: 3
    weight_filler {
      type: "xavier"
    }
  }
}
layer {
  name: "bn2_1"
  type: "BatchNorm"
  bottom: "conv2_1"
  top: "conv2_1"
  param {
    lr_mult: 0
  }
  param {
    lr_mult: 0
  }
  param {
    lr_mult: 0
  }
  batch_norm_param {
    use_global_stats: false
  }
}
layer {
  name: "scale2_1"
  type: "Scale"
  bottom: "conv2_1"
  top: "conv2_1"
  param {
    lr_mult: 1
    decay_mult: 1
  }
  param {
    lr_mult: 1
    decay_mult: 1
  }
  scale_param {
    bias_term: true
    bias_filler {
      type: "constant"
      value: 0
    }
  }
}
layer {
  name: "relu2_1"
  type: "ReLU"
  bottom: "conv2_1"
  top: "conv2_1"
}
layer {
  name: "conv2_2"
  type: "Convolution"
  bottom: "conv2_1"
  top: "conv2_2"
  param {
    lr_mult: 1
    decay_mult: 1
  }
  convolution_param {
    num_output: 64
    bias_term: false
    pad: 1
    kernel_size: 3
    weight_filler {
      type: "xavier"
    }
  }
}
layer {
  name: "bn2_2"
  type: "BatchNorm"
  bottom: "conv2_2"
  top: "conv2_2"
  param {
    lr_mult: 0
  }
  param {
    lr_mult: 0
  }
  param {
    lr_mult: 0
  }
  batch_norm_param {
    use_global_stats: false
  }
}
layer {
  name: "scale2_2"
  type: "Scale"
  bottom: "conv2_2"
  top: "conv2_2"
  param {
    lr_mult: 1
    decay_mult: 1
  }
  param {
    lr_mult: 1
    decay_mult: 1
  }
  scale_param {
    bias_term: true
    bias_filler {
      type: "constant"
      value: 0
    }
  }
}
layer {
  name: "relu2_2"
  type: "ReLU"
  bottom: "conv2_2"
  top: "conv2_2"
}
layer {
  name: "pool2"
  type: "Pooling"
  bottom: "conv2_2"
  top: "pool2"
  top: "pool2_mask"
  pooling_param {
    pool: MAX
    kernel_size: 2
    stride: 2
  }
}
layer {
  name: "conv3_1"
  type: "Convolution"
  bottom: "pool2"
  top: "conv3_1"
  param {
    lr_mult: 1
    decay_mult: 1
  }
  convolution_param {
    num_output: 128
    bias_term: false
    pad: 1
    kernel_size: 3
    weight_filler {
      type: "xavier"
    }
  }
}
layer {
  name: "bn3_1"
  type: "BatchNorm"
  bottom: "conv3_1"
  top: "conv3_1"
  param {
    lr_mult: 0
  }
  param {
    lr_mult: 0
  }
  param {
    lr_mult: 0
  }
  batch_norm_param {
    use_global_stats: false
  }
}
layer {
  name: "scale3_1"
  type: "Scale"
  bottom: "conv3_1"
  top: "conv3_1"
  param {
    lr_mult: 1
    decay_mult: 1
  }
  param {
    lr_mult: 1
    decay_mult: 1
  }
  scale_param {
    bias_term: true
    bias_filler {
      type: "constant"
      value: 0
    }
  }
}
layer {
  name: "relu3_1"
  type: "ReLU"
  bottom: "conv3_1"
  top: "conv3_1"
}
layer {
  name: "conv3_2"
  type: "Convolution"
  bottom: "conv3_1"
  top: "conv3_2"
  param {
    lr_mult: 1
    decay_mult: 1
  }
  convolution_param {
    num_output: 128
    bias_term: false
    pad: 1
    kernel_size: 3
    weight_filler {
      type: "xavier"
    }
  }
}
layer {
  name: "bn3_2"
  type: "BatchNorm"
  bottom: "conv3_2"
  top: "conv3_2"
  param {
    lr_mult: 0
  }
  param {
    lr_mult: 0
  }
  param {
    lr_mult: 0
  }
  batch_norm_param {
    use_global_stats: false
  }
}
layer {
  name: "scale3_2"
  type: "Scale"
  bottom: "conv3_2"
  top: "conv3_2"
  param {
    lr_mult: 1
    decay_mult: 1
  }
  param {
    lr_mult: 1
    decay_mult: 1
  }
  scale_param {
    bias_term: true
    bias_filler {
      type: "constant"
      value: 0
    }
  }
}
layer {
  name: "relu3_2"
  type: "ReLU"
  bottom: "conv3_2"
  top: "conv3_2"
}
layer {
  name: "pool3"
  type: "Pooling"
  bottom: "conv3_2"
  top: "pool3"
  top: "pool3_mask"
  pooling_param {
    pool: MAX
    kernel_size: 2
    stride: 2
  }
}
layer {
  name: "conv4_1"
  type: "Convolution"
  bottom: "pool3"
  top: "conv4_1"
  param {
    lr_mult: 1
    decay_mult: 1
  }
  convolution_param {
    num_output: 256
    bias_term: false
    pad: 1
    kernel_size: 3
    weight_filler {
      type: "xavier"
    }
  }
}
layer {
  name: "bn4_1"
  type: "BatchNorm"
  bottom: "conv4_1"
  top: "conv4_1"
  param {
    lr_mult: 0
  }
  param {
    lr_mult: 0
  }
  param {
    lr_mult: 0
  }
  batch_norm_param {
    use_global_stats: false
  }
}
layer {
  name: "scale4_1"
  type: "Scale"
  bottom: "conv4_1"
  top: "conv4_1"
  param {
    lr_mult: 1
    decay_mult: 1
  }
  param {
    lr_mult: 1
    decay_mult: 1
  }
  scale_param {
    bias_term: true
    bias_filler {
      type: "constant"
      value: 0
    }
  }
}
layer {
  name: "relu4_1"
  type: "ReLU"
  bottom: "conv4_1"
  top: "conv4_1"
}
layer {
  name: "conv4_2"
  type: "Convolution"
  bottom: "conv4_1"
  top: "conv4_2"
  param {
    lr_mult: 1
    decay_mult: 1
  }
  convolution_param {
    num_output: 256
    bias_term: false
    pad: 1
    kernel_size: 3
    weight_filler {
      type: "xavier"
    }
  }
}
layer {
  name: "bn4_2"
  type: "BatchNorm"
  bottom: "conv4_2"
  top: "conv4_2"
  param {
    lr_mult: 0
  }
  param {
    lr_mult: 0
  }
  param {
    lr_mult: 0
  }
  batch_norm_param {
    use_global_stats: false
  }
}
layer {
  name: "scale4_2"
  type: "Scale"
  bottom: "conv4_2"
  top: "conv4_2"
  param {
    lr_mult: 1
    decay_mult: 1
  }
  param {
    lr_mult: 1
    decay_mult: 1
  }
  scale_param {
    bias_term: true
    bias_filler {
      type: "constant"
      value: 0
    }
  }
}
layer {
  name: "relu4_2"
  type: "ReLU"
  bottom: "conv4_2"
  top: "conv4_2"
}
layer {
  name: "pool4"
  type: "Pooling"
  bottom: "conv4_2"
  top: "pool4"
  top: "pool4_mask"
  pooling_param {
    pool: MAX
    kernel_size: 2
    stride: 2
  }
}
layer {
  name: "conv5_1"
  type: "Convolution"
  bottom: "pool4"
  top: "conv5_1"
  param {
    lr_mult: 1
    decay_mult: 1
  }
  convolution_param {
    num_output: 256
    bias_term: false
    pad: 1
    kernel_size: 3
    weight_filler {
      type: "xavier"
    }
  }
}
layer {
  name: "bn5_1"
  type: "BatchNorm"
  bottom: "conv5_1"
  top: "conv5_1"
  param {
    lr_mult: 0
  }
  param {
    lr_mult: 0
  }
  param {
    lr_mult: 0
  }
  batch_norm_param {
    use_global_stats: false
  }
}
layer {
  name: "scale5_1"
  type: "Scale"
  bottom: "conv5_1"
  top: "conv5_1"
  param {
    lr_mult: 1
    decay_mult: 1
  }
  param {
    lr_mult: 1
    decay_mult: 1
  }
  scale_param {
    bias_term: true
    bias_filler {
      type: "constant"
      value: 0
    }
  }
}
layer {
  name: "relu5_1"
  type: "ReLU"
  bottom: "conv5_1"
  top: "conv5_1"
}
layer {
  name: "conv5_2"
  type: "Convolution"
  bottom: "conv5_1"
  top: "conv5_2"
  param {
    lr_mult: 1
    decay_mult: 1
  }
  convolution_param {
    num_output: 256
    bias_term: false
    pad: 1
    kernel_size: 3
    weight_filler {
      type: "xavier"
    }
  }
}
layer {
  name: "bn5_2"
  type: "BatchNorm"
  bottom: "conv5_2"
  top: "conv5_2"
  param {
    lr_mult: 0
  }
  param {
    lr_mult: 0
  }
  param {
    lr_mult: 0
  }
  batch_norm_param {
    use_global_stats: false
  }
}
layer {
  name: "scale5_2"
  type: "Scale"
  bottom: "conv5_2"
  top: "conv5_2"
  param {
    lr_mult: 1
    decay_mult: 1
  }
  param {
    lr_mult: 1
    decay_mult: 1
  }
  scale_param {
    bias_term: true
    bias_filler {
      type: "constant"
      value: 0
    }
  }
}
layer {
  name: "relu5_2"
  type: "ReLU"
  bottom: "conv5_2"
  top: "conv5_2"
}
layer {
  name: "pool5"
  type: "Pooling"
  bottom: "conv5_2"
  top: "pool5"
  top: "pool5_mask"
  pooling_param {
    pool: MAX
    kernel_size: 2
    stride: 2
  }
}
layer {
  name: "upsample5"
  type: "Upsample"
  bottom: "pool5"
  bottom: "pool5_mask"
  top: "pool5_D"
  upsample_param {
    scale: 2
    upsample_h: 14
    upsample_w: 14
  }
}
layer {
  name: "conv5_2_D"
  type: "Convolution"
  bottom: "pool5_D"
  top: "conv5_2_D"
  param {
    lr_mult: 1
    decay_mult: 1
  }
  convolution_param {
    num_output: 256
    bias_term: false
    pad: 1
    kernel_size: 3
    weight_filler {
      type: "xavier"
    }
  }
}
layer {
  name: "bn5_2_D"
  type: "BatchNorm"
  bottom: "conv5_2_D"
  top: "conv5_2_D"
  param {
    lr_mult: 0
  }
  param {
    lr_mult: 0
  }
  param {
    lr_mult: 0
  }
  batch_norm_param {
    use_global_stats: false
  }
}
layer {
  name: "scale5_2_D"
  type: "Scale"
  bottom: "conv5_2_D"
  top: "conv5_2_D"
  param {
    lr_mult: 1
    decay_mult: 1
  }
  param {
    lr_mult: 1
    decay_mult: 1
  }
  scale_param {
    bias_term: true
    bias_filler {
      type: "constant"
      value: 0
    }
  }
}
layer {
  name: "relu5_2_D"
  type: "ReLU"
  bottom: "conv5_2_D"
  top: "conv5_2_D"
}
layer {
  name: "conv5_1_D"
  type: "Convolution"
  bottom: "conv5_2_D"
  top: "conv5_1_D"
  param {
    lr_mult: 1
    decay_mult: 1
  }
  convolution_param {
    num_output: 256
    bias_term: false
    pad: 1
    kernel_size: 3
    weight_filler {
      type: "xavier"
    }
  }
}
layer {
  name: "bn5_1_D"
  type: "BatchNorm"
  bottom: "conv5_1_D"
  top: "conv5_1_D"
  param {
    lr_mult: 0
  }
  param {
    lr_mult: 0
  }
  param {
    lr_mult: 0
  }
  batch_norm_param {
    use_global_stats: false
  }
}
layer {
  name: "scale5_1_D"
  type: "Scale"
  bottom: "conv5_1_D"
  top: "conv5_1_D"
  param {
    lr_mult: 1
    decay_mult: 1
  }
  param {
    lr_mult: 1
    decay_mult: 1
  }
  scale_param {
    bias_term: true
    bias_filler {
      type: "constant"
      value: 0
    }
  }
}
layer {
  name: "relu5_1_D"
  type: "ReLU"
  bottom: "conv5_1_D"
  top: "conv5_1_D"
}
layer {
  name: "upsample4"
  type: "Upsample"
  bottom: "conv5_1_D"
  bottom: "pool4_mask"
  top: "pool4_D"
  upsample_param {
    scale: 2
    upsample_h: 28
    upsample_w: 28
  }
}
layer {
  name: "conv4_2_D"
  type: "Convolution"
  bottom: "pool4_D"
  top: "conv4_2_D"
  param {
    lr_mult: 1
    decay_mult: 1
  }
  convolution_param {
    num_output: 256
    bias_term: false
    pad: 1
    kernel_size: 3
    weight_filler {
      type: "xavier"
    }
  }
}
layer {
  name: "bn4_2_D"
  type: "BatchNorm"
  bottom: "conv4_2_D"
  top: "conv4_2_D"
  param {
    lr_mult: 0
  }
  param {
    lr_mult: 0
  }
  param {
    lr_mult: 0
  }
  batch_norm_param {
    use_global_stats: false
  }
}
layer {
  name: "scale4_2_D"
  type: "Scale"
  bottom: "conv4_2_D"
  top: "conv4_2_D"
  param {
    lr_mult: 1
    decay_mult: 1
  }
  param {
    lr_mult: 1
    decay_mult: 1
  }
  scale_param {
    bias_term: true
    bias_filler {
      type: "constant"
      value: 0
    }
  }
}
layer {
  name: "relu4_2_D"
  type: "ReLU"
  bottom: "conv4_2_D"
  top: "conv4_2_D"
}
layer {
  name: "conv4_1_D"
  type: "Convolution"
  bottom: "conv4_2_D"
  top: "conv4_1_D"
  param {
    lr_mult: 1
    decay_mult: 1
  }
  convolution_param {
    num_output: 128
    bias_term: false
    pad: 1
    kernel_size: 3
    weight_filler {
      type: "xavier"
    }
  }
}
layer {
  name: "bn4_1_D"
  type: "BatchNorm"
  bottom: "conv4_1_D"
  top: "conv4_1_D"
  param {
    lr_mult: 0
  }
  param {
    lr_mult: 0
  }
  param {
    lr_mult: 0
  }
  batch_norm_param {
    use_global_stats: false
  }
}
layer {
  name: "scale4_1_D"
  type: "Scale"
  bottom: "conv4_1_D"
  top: "conv4_1_D"
  param {
    lr_mult: 1
    decay_mult: 1
  }
  param {
    lr_mult: 1
    decay_mult: 1
  }
  scale_param {
    bias_term: true
    bias_filler {
      type: "constant"
      value: 0
    }
  }
}
layer {
  name: "relu4_1_D"
  type: "ReLU"
  bottom: "conv4_1_D"
  top: "conv4_1_D"
}
layer {
  name: "upsample3"
  type: "Upsample"
  bottom: "conv4_1_D"
  bottom: "pool3_mask"
  top: "pool3_D"
  upsample_param {
    scale: 2
    upsample_h: 56
    upsample_w: 56
  }
}
layer {
  name: "conv3_2_D"
  type: "Convolution"
  bottom: "pool3_D"
  top: "conv3_2_D"
  param {
    lr_mult: 1
    decay_mult: 1
  }
  param {
    lr_mult: 1
    decay_mult: 1
  }
  convolution_param {
    num_output: 128
    pad: 1
    kernel_size: 3
    weight_filler {
      type: "xavier"
    }
    bias_filler {
      type: "constant"
      value: 0
    }
  }
}
layer {
  name: "bn3_2_D"
  type: "BatchNorm"
  bottom: "conv3_2_D"
  top: "conv3_2_D"
  param {
    lr_mult: 0
  }
  param {
    lr_mult: 0
  }
  param {
    lr_mult: 0
  }
  batch_norm_param {
    use_global_stats: false
  }
}
layer {
  name: "scale3_2_D"
  type: "Scale"
  bottom: "conv3_2_D"
  top: "conv3_2_D"
  param {
    lr_mult: 1
    decay_mult: 1
  }
  param {
    lr_mult: 1
    decay_mult: 1
  }
  scale_param {
    bias_term: true
    bias_filler {
      type: "constant"
      value: 0
    }
  }
}
layer {
  name: "relu3_2_D"
  type: "ReLU"
  bottom: "conv3_2_D"
  top: "conv3_2_D"
}
layer {
  name: "conv3_1_D"
  type: "Convolution"
  bottom: "conv3_2_D"
  top: "conv3_1_D"
  param {
    lr_mult: 1
    decay_mult: 1
  }
  convolution_param {
    num_output: 64
    bias_term: false
    pad: 1
    kernel_size: 3
    weight_filler {
      type: "xavier"
    }
  }
}
layer {
  name: "bn3_1_D"
  type: "BatchNorm"
  bottom: "conv3_1_D"
  top: "conv3_1_D"
  param {
    lr_mult: 0
  }
  param {
    lr_mult: 0
  }
  param {
    lr_mult: 0
  }
  batch_norm_param {
    use_global_stats: false
  }
}
layer {
  name: "scale3_1_D"
  type: "Scale"
  bottom: "conv3_1_D"
  top: "conv3_1_D"
  param {
    lr_mult: 1
    decay_mult: 1
  }
  param {
    lr_mult: 1
    decay_mult: 1
  }
  scale_param {
    bias_term: true
    bias_filler {
      type: "constant"
      value: 0
    }
  }
}
layer {
  name: "relu3_1_D"
  type: "ReLU"
  bottom: "conv3_1_D"
  top: "conv3_1_D"
}
layer {
  name: "upsample2"
  type: "Upsample"
  bottom: "conv3_1_D"
  bottom: "pool2_mask"
  top: "pool2_D"
  upsample_param {
    scale: 2
    upsample_h: 112
    upsample_w: 112
  }
}
layer {
  name: "conv2_2_D"
  type: "Convolution"
  bottom: "pool2_D"
  top: "conv2_2_D"
  param {
    lr_mult: 1
    decay_mult: 1
  }
  convolution_param {
    num_output: 64
    bias_term: false
    pad: 1
    kernel_size: 3
    weight_filler {
      type: "xavier"
    }
  }
}
layer {
  name: "bn2_2_D"
  type: "BatchNorm"
  bottom: "conv2_2_D"
  top: "conv2_2_D"
  param {
    lr_mult: 0
  }
  param {
    lr_mult: 0
  }
  param {
    lr_mult: 0
  }
  batch_norm_param {
    use_global_stats: false
  }
}
layer {
  name: "scale2_2_D"
  type: "Scale"
  bottom: "conv2_2_D"
  top: "conv2_2_D"
  param {
    lr_mult: 1
    decay_mult: 1
  }
  param {
    lr_mult: 1
    decay_mult: 1
  }
  scale_param {
    bias_term: true
    bias_filler {
      type: "constant"
      value: 0
    }
  }
}
layer {
  name: "relu2_2_D"
  type: "ReLU"
  bottom: "conv2_2_D"
  top: "conv2_2_D"
}
layer {
  name: "conv2_1_D"
  type: "Convolution"
  bottom: "conv2_2_D"
  top: "conv2_1_D"
  param {
    lr_mult: 1
    decay_mult: 1
  }
  convolution_param {
    num_output: 32
    bias_term: false
    pad: 1
    kernel_size: 3
    weight_filler {
      type: "xavier"
    }
  }
}
layer {
  name: "bn2_1_D"
  type: "BatchNorm"
  bottom: "conv2_1_D"
  top: "conv2_1_D"
  param {
    lr_mult: 0
  }
  param {
    lr_mult: 0
  }
  param {
    lr_mult: 0
  }
  batch_norm_param {
    use_global_stats: false
  }
}
layer {
  name: "scale2_1_D"
  type: "Scale"
  bottom: "conv2_1_D"
  top: "conv2_1_D"
  param {
    lr_mult: 1
    decay_mult: 1
  }
  param {
    lr_mult: 1
    decay_mult: 1
  }
  scale_param {
    bias_term: true
    bias_filler {
      type: "constant"
      value: 0
    }
  }
}
layer {
  name: "relu2_1_D"
  type: "ReLU"
  bottom: "conv2_1_D"
  top: "conv2_1_D"
}
layer {
  name: "upsample1"
  type: "Upsample"
  bottom: "conv2_1_D"
  bottom: "pool1_mask"
  top: "pool1_D"
  upsample_param {
    scale: 2
    upsample_h: 224
    upsample_w: 224
  }
}
layer {
  name: "conv1_2_D"
  type: "Convolution"
  bottom: "pool1_D"
  top: "conv1_2_D"
  param {
    lr_mult: 1
    decay_mult: 1
  }
  convolution_param {
    num_output: 32
    bias_term: false
    pad: 1
    kernel_size: 3
    weight_filler {
      type: "xavier"
    }
  }
}
layer {
  name: "bn1_2_D"
  type: "BatchNorm"
  bottom: "conv1_2_D"
  top: "conv1_2_D"
  param {
    lr_mult: 0
  }
  param {
    lr_mult: 0
  }
  param {
    lr_mult: 0
  }
  batch_norm_param {
    use_global_stats: false
  }
}
layer {
  name: "scale1_2_D"
  type: "Scale"
  bottom: "conv1_2_D"
  top: "conv1_2_D"
  param {
    lr_mult: 1
    decay_mult: 1
  }
  param {
    lr_mult: 1
    decay_mult: 1
  }
  scale_param {
    bias_term: true
    bias_filler {
      type: "constant"
      value: 0
    }
  }
}
layer {
  name: "relu1_2_D"
  type: "ReLU"
  bottom: "conv1_2_D"
  top: "conv1_2_D"
}
layer {
  name: "conv1_1_D"
  type: "Convolution"
  bottom: "conv1_2_D"
  top: "conv1_1_D"
  param {
    lr_mult: 1
    decay_mult: 1
  }
  param {
    lr_mult: 1
    decay_mult: 1
  }
  convolution_param {
    num_output: 2
    bias_term: true
    pad: 1
    kernel_size: 3
    weight_filler {
      type: "xavier"
    }
    bias_filler {
      type: "constant"
    }
  }
}
layer {
  name: "loss"
  type: "SoftmaxWithLoss"
  bottom: "conv1_1_D"
  bottom: "label"
  top: "loss"
}
layer {
  name: "accuracy"
  type: "Accuracy"
  bottom: "conv1_1_D"
  bottom: "label"
  top: "accuracy"
}
I0624 13:54:13.265650 18353 layer_factory.hpp:77] Creating layer data
I0624 13:54:13.265681 18353 net.cpp:91] Creating Layer data
I0624 13:54:13.265686 18353 net.cpp:399] data -> data
I0624 13:54:13.265707 18353 net.cpp:399] data -> label
I0624 13:54:13.266022 18353 dense_image_data_layer.cpp:38] Opening file data/train_seg.txt
I0624 13:54:13.266911 18353 dense_image_data_layer.cpp:48] Shuffling data
I0624 13:54:13.267125 18353 dense_image_data_layer.cpp:53] A total of 2024 examples.
I0624 13:54:13.513574 18353 dense_image_data_layer.cpp:92] output data size: 1,1,224,224
I0624 13:54:13.515386 18353 net.cpp:141] Setting up data
I0624 13:54:13.515404 18353 net.cpp:148] Top shape: 1 1 224 224 (50176)
I0624 13:54:13.515409 18353 net.cpp:148] Top shape: 1 1 224 224 (50176)
I0624 13:54:13.515413 18353 net.cpp:156] Memory required for data: 401408
I0624 13:54:13.515419 18353 layer_factory.hpp:77] Creating layer label_data_1_split
I0624 13:54:13.515434 18353 net.cpp:91] Creating Layer label_data_1_split
I0624 13:54:13.515437 18353 net.cpp:425] label_data_1_split <- label
I0624 13:54:13.515446 18353 net.cpp:399] label_data_1_split -> label_data_1_split_0
I0624 13:54:13.515460 18353 net.cpp:399] label_data_1_split -> label_data_1_split_1
I0624 13:54:13.515521 18353 net.cpp:141] Setting up label_data_1_split
I0624 13:54:13.515528 18353 net.cpp:148] Top shape: 1 1 224 224 (50176)
I0624 13:54:13.515532 18353 net.cpp:148] Top shape: 1 1 224 224 (50176)
I0624 13:54:13.515533 18353 net.cpp:156] Memory required for data: 802816
I0624 13:54:13.515537 18353 layer_factory.hpp:77] Creating layer conv1_1
I0624 13:54:13.515549 18353 net.cpp:91] Creating Layer conv1_1
I0624 13:54:13.515552 18353 net.cpp:425] conv1_1 <- data
I0624 13:54:13.515558 18353 net.cpp:399] conv1_1 -> conv1_1
I0624 13:54:13.701439 18353 net.cpp:141] Setting up conv1_1
I0624 13:54:13.701464 18353 net.cpp:148] Top shape: 1 32 224 224 (1605632)
I0624 13:54:13.701467 18353 net.cpp:156] Memory required for data: 7225344
I0624 13:54:13.701480 18353 layer_factory.hpp:77] Creating layer bn1_1
I0624 13:54:13.701490 18353 net.cpp:91] Creating Layer bn1_1
I0624 13:54:13.701495 18353 net.cpp:425] bn1_1 <- conv1_1
I0624 13:54:13.701499 18353 net.cpp:386] bn1_1 -> conv1_1 (in-place)
I0624 13:54:13.701684 18353 net.cpp:141] Setting up bn1_1
I0624 13:54:13.701692 18353 net.cpp:148] Top shape: 1 32 224 224 (1605632)
I0624 13:54:13.701694 18353 net.cpp:156] Memory required for data: 13647872
I0624 13:54:13.701704 18353 layer_factory.hpp:77] Creating layer scale1_1
I0624 13:54:13.701714 18353 net.cpp:91] Creating Layer scale1_1
I0624 13:54:13.701716 18353 net.cpp:425] scale1_1 <- conv1_1
I0624 13:54:13.701720 18353 net.cpp:386] scale1_1 -> conv1_1 (in-place)
I0624 13:54:13.701756 18353 layer_factory.hpp:77] Creating layer scale1_1
I0624 13:54:13.701912 18353 net.cpp:141] Setting up scale1_1
I0624 13:54:13.701920 18353 net.cpp:148] Top shape: 1 32 224 224 (1605632)
I0624 13:54:13.701922 18353 net.cpp:156] Memory required for data: 20070400
I0624 13:54:13.701928 18353 layer_factory.hpp:77] Creating layer relu1_1
I0624 13:54:13.701933 18353 net.cpp:91] Creating Layer relu1_1
I0624 13:54:13.701936 18353 net.cpp:425] relu1_1 <- conv1_1
I0624 13:54:13.701939 18353 net.cpp:386] relu1_1 -> conv1_1 (in-place)
I0624 13:54:13.702198 18353 net.cpp:141] Setting up relu1_1
I0624 13:54:13.702209 18353 net.cpp:148] Top shape: 1 32 224 224 (1605632)
I0624 13:54:13.702213 18353 net.cpp:156] Memory required for data: 26492928
I0624 13:54:13.702214 18353 layer_factory.hpp:77] Creating layer conv1_2
I0624 13:54:13.702224 18353 net.cpp:91] Creating Layer conv1_2
I0624 13:54:13.702226 18353 net.cpp:425] conv1_2 <- conv1_1
I0624 13:54:13.702230 18353 net.cpp:399] conv1_2 -> conv1_2
I0624 13:54:13.703775 18353 net.cpp:141] Setting up conv1_2
I0624 13:54:13.703788 18353 net.cpp:148] Top shape: 1 32 224 224 (1605632)
I0624 13:54:13.703790 18353 net.cpp:156] Memory required for data: 32915456
I0624 13:54:13.703795 18353 layer_factory.hpp:77] Creating layer bn1_2
I0624 13:54:13.703801 18353 net.cpp:91] Creating Layer bn1_2
I0624 13:54:13.703804 18353 net.cpp:425] bn1_2 <- conv1_2
I0624 13:54:13.703809 18353 net.cpp:386] bn1_2 -> conv1_2 (in-place)
I0624 13:54:13.703979 18353 net.cpp:141] Setting up bn1_2
I0624 13:54:13.703986 18353 net.cpp:148] Top shape: 1 32 224 224 (1605632)
I0624 13:54:13.703989 18353 net.cpp:156] Memory required for data: 39337984
I0624 13:54:13.703996 18353 layer_factory.hpp:77] Creating layer scale1_2
I0624 13:54:13.704020 18353 net.cpp:91] Creating Layer scale1_2
I0624 13:54:13.704022 18353 net.cpp:425] scale1_2 <- conv1_2
I0624 13:54:13.704027 18353 net.cpp:386] scale1_2 -> conv1_2 (in-place)
I0624 13:54:13.704058 18353 layer_factory.hpp:77] Creating layer scale1_2
I0624 13:54:13.704216 18353 net.cpp:141] Setting up scale1_2
I0624 13:54:13.704223 18353 net.cpp:148] Top shape: 1 32 224 224 (1605632)
I0624 13:54:13.704226 18353 net.cpp:156] Memory required for data: 45760512
I0624 13:54:13.704231 18353 layer_factory.hpp:77] Creating layer relu1_2
I0624 13:54:13.704234 18353 net.cpp:91] Creating Layer relu1_2
I0624 13:54:13.704237 18353 net.cpp:425] relu1_2 <- conv1_2
I0624 13:54:13.704241 18353 net.cpp:386] relu1_2 -> conv1_2 (in-place)
I0624 13:54:13.704375 18353 net.cpp:141] Setting up relu1_2
I0624 13:54:13.704383 18353 net.cpp:148] Top shape: 1 32 224 224 (1605632)
I0624 13:54:13.704385 18353 net.cpp:156] Memory required for data: 52183040
I0624 13:54:13.704388 18353 layer_factory.hpp:77] Creating layer pool1
I0624 13:54:13.704391 18353 layer_factory.cpp:90] cuDNN does not support multiple tops. Using Caffe's own pooling layer.
I0624 13:54:13.704396 18353 net.cpp:91] Creating Layer pool1
I0624 13:54:13.704398 18353 net.cpp:425] pool1 <- conv1_2
I0624 13:54:13.704402 18353 net.cpp:399] pool1 -> pool1
I0624 13:54:13.704409 18353 net.cpp:399] pool1 -> pool1_mask
I0624 13:54:13.704450 18353 net.cpp:141] Setting up pool1
I0624 13:54:13.704457 18353 net.cpp:148] Top shape: 1 32 112 112 (401408)
I0624 13:54:13.704460 18353 net.cpp:148] Top shape: 1 32 112 112 (401408)
I0624 13:54:13.704463 18353 net.cpp:156] Memory required for data: 55394304
I0624 13:54:13.704464 18353 layer_factory.hpp:77] Creating layer conv2_1
I0624 13:54:13.704471 18353 net.cpp:91] Creating Layer conv2_1
I0624 13:54:13.704474 18353 net.cpp:425] conv2_1 <- pool1
I0624 13:54:13.704478 18353 net.cpp:399] conv2_1 -> conv2_1
I0624 13:54:13.706091 18353 net.cpp:141] Setting up conv2_1
I0624 13:54:13.706105 18353 net.cpp:148] Top shape: 1 64 112 112 (802816)
I0624 13:54:13.706109 18353 net.cpp:156] Memory required for data: 58605568
I0624 13:54:13.706112 18353 layer_factory.hpp:77] Creating layer bn2_1
I0624 13:54:13.706120 18353 net.cpp:91] Creating Layer bn2_1
I0624 13:54:13.706121 18353 net.cpp:425] bn2_1 <- conv2_1
I0624 13:54:13.706126 18353 net.cpp:386] bn2_1 -> conv2_1 (in-place)
I0624 13:54:13.706280 18353 net.cpp:141] Setting up bn2_1
I0624 13:54:13.706288 18353 net.cpp:148] Top shape: 1 64 112 112 (802816)
I0624 13:54:13.706290 18353 net.cpp:156] Memory required for data: 61816832
I0624 13:54:13.706295 18353 layer_factory.hpp:77] Creating layer scale2_1
I0624 13:54:13.706303 18353 net.cpp:91] Creating Layer scale2_1
I0624 13:54:13.706305 18353 net.cpp:425] scale2_1 <- conv2_1
I0624 13:54:13.706310 18353 net.cpp:386] scale2_1 -> conv2_1 (in-place)
I0624 13:54:13.706341 18353 layer_factory.hpp:77] Creating layer scale2_1
I0624 13:54:13.706439 18353 net.cpp:141] Setting up scale2_1
I0624 13:54:13.706445 18353 net.cpp:148] Top shape: 1 64 112 112 (802816)
I0624 13:54:13.706447 18353 net.cpp:156] Memory required for data: 65028096
I0624 13:54:13.706455 18353 layer_factory.hpp:77] Creating layer relu2_1
I0624 13:54:13.706460 18353 net.cpp:91] Creating Layer relu2_1
I0624 13:54:13.706462 18353 net.cpp:425] relu2_1 <- conv2_1
I0624 13:54:13.706467 18353 net.cpp:386] relu2_1 -> conv2_1 (in-place)
I0624 13:54:13.706728 18353 net.cpp:141] Setting up relu2_1
I0624 13:54:13.706740 18353 net.cpp:148] Top shape: 1 64 112 112 (802816)
I0624 13:54:13.706743 18353 net.cpp:156] Memory required for data: 68239360
I0624 13:54:13.706745 18353 layer_factory.hpp:77] Creating layer conv2_2
I0624 13:54:13.706754 18353 net.cpp:91] Creating Layer conv2_2
I0624 13:54:13.706758 18353 net.cpp:425] conv2_2 <- conv2_1
I0624 13:54:13.706763 18353 net.cpp:399] conv2_2 -> conv2_2
I0624 13:54:13.707770 18353 net.cpp:141] Setting up conv2_2
I0624 13:54:13.707783 18353 net.cpp:148] Top shape: 1 64 112 112 (802816)
I0624 13:54:13.707795 18353 net.cpp:156] Memory required for data: 71450624
I0624 13:54:13.707801 18353 layer_factory.hpp:77] Creating layer bn2_2
I0624 13:54:13.707809 18353 net.cpp:91] Creating Layer bn2_2
I0624 13:54:13.707813 18353 net.cpp:425] bn2_2 <- conv2_2
I0624 13:54:13.707818 18353 net.cpp:386] bn2_2 -> conv2_2 (in-place)
I0624 13:54:13.707973 18353 net.cpp:141] Setting up bn2_2
I0624 13:54:13.707980 18353 net.cpp:148] Top shape: 1 64 112 112 (802816)
I0624 13:54:13.707983 18353 net.cpp:156] Memory required for data: 74661888
I0624 13:54:13.707988 18353 layer_factory.hpp:77] Creating layer scale2_2
I0624 13:54:13.707994 18353 net.cpp:91] Creating Layer scale2_2
I0624 13:54:13.707998 18353 net.cpp:425] scale2_2 <- conv2_2
I0624 13:54:13.708001 18353 net.cpp:386] scale2_2 -> conv2_2 (in-place)
I0624 13:54:13.708031 18353 layer_factory.hpp:77] Creating layer scale2_2
I0624 13:54:13.708133 18353 net.cpp:141] Setting up scale2_2
I0624 13:54:13.708140 18353 net.cpp:148] Top shape: 1 64 112 112 (802816)
I0624 13:54:13.708142 18353 net.cpp:156] Memory required for data: 77873152
I0624 13:54:13.708148 18353 layer_factory.hpp:77] Creating layer relu2_2
I0624 13:54:13.708151 18353 net.cpp:91] Creating Layer relu2_2
I0624 13:54:13.708153 18353 net.cpp:425] relu2_2 <- conv2_2
I0624 13:54:13.708158 18353 net.cpp:386] relu2_2 -> conv2_2 (in-place)
I0624 13:54:13.708425 18353 net.cpp:141] Setting up relu2_2
I0624 13:54:13.708437 18353 net.cpp:148] Top shape: 1 64 112 112 (802816)
I0624 13:54:13.708441 18353 net.cpp:156] Memory required for data: 81084416
I0624 13:54:13.708443 18353 layer_factory.hpp:77] Creating layer pool2
I0624 13:54:13.708446 18353 layer_factory.cpp:90] cuDNN does not support multiple tops. Using Caffe's own pooling layer.
I0624 13:54:13.708451 18353 net.cpp:91] Creating Layer pool2
I0624 13:54:13.708453 18353 net.cpp:425] pool2 <- conv2_2
I0624 13:54:13.708457 18353 net.cpp:399] pool2 -> pool2
I0624 13:54:13.708463 18353 net.cpp:399] pool2 -> pool2_mask
I0624 13:54:13.708498 18353 net.cpp:141] Setting up pool2
I0624 13:54:13.708505 18353 net.cpp:148] Top shape: 1 64 56 56 (200704)
I0624 13:54:13.708508 18353 net.cpp:148] Top shape: 1 64 56 56 (200704)
I0624 13:54:13.708510 18353 net.cpp:156] Memory required for data: 82690048
I0624 13:54:13.708513 18353 layer_factory.hpp:77] Creating layer conv3_1
I0624 13:54:13.708520 18353 net.cpp:91] Creating Layer conv3_1
I0624 13:54:13.708523 18353 net.cpp:425] conv3_1 <- pool2
I0624 13:54:13.708528 18353 net.cpp:399] conv3_1 -> conv3_1
I0624 13:54:13.710465 18353 net.cpp:141] Setting up conv3_1
I0624 13:54:13.710477 18353 net.cpp:148] Top shape: 1 128 56 56 (401408)
I0624 13:54:13.710480 18353 net.cpp:156] Memory required for data: 84295680
I0624 13:54:13.710485 18353 layer_factory.hpp:77] Creating layer bn3_1
I0624 13:54:13.710491 18353 net.cpp:91] Creating Layer bn3_1
I0624 13:54:13.710494 18353 net.cpp:425] bn3_1 <- conv3_1
I0624 13:54:13.710499 18353 net.cpp:386] bn3_1 -> conv3_1 (in-place)
I0624 13:54:13.711262 18353 net.cpp:141] Setting up bn3_1
I0624 13:54:13.711273 18353 net.cpp:148] Top shape: 1 128 56 56 (401408)
I0624 13:54:13.711277 18353 net.cpp:156] Memory required for data: 85901312
I0624 13:54:13.711282 18353 layer_factory.hpp:77] Creating layer scale3_1
I0624 13:54:13.711289 18353 net.cpp:91] Creating Layer scale3_1
I0624 13:54:13.711292 18353 net.cpp:425] scale3_1 <- conv3_1
I0624 13:54:13.711297 18353 net.cpp:386] scale3_1 -> conv3_1 (in-place)
I0624 13:54:13.711331 18353 layer_factory.hpp:77] Creating layer scale3_1
I0624 13:54:13.711422 18353 net.cpp:141] Setting up scale3_1
I0624 13:54:13.711428 18353 net.cpp:148] Top shape: 1 128 56 56 (401408)
I0624 13:54:13.711431 18353 net.cpp:156] Memory required for data: 87506944
I0624 13:54:13.711436 18353 layer_factory.hpp:77] Creating layer relu3_1
I0624 13:54:13.711441 18353 net.cpp:91] Creating Layer relu3_1
I0624 13:54:13.711443 18353 net.cpp:425] relu3_1 <- conv3_1
I0624 13:54:13.711447 18353 net.cpp:386] relu3_1 -> conv3_1 (in-place)
I0624 13:54:13.711591 18353 net.cpp:141] Setting up relu3_1
I0624 13:54:13.711601 18353 net.cpp:148] Top shape: 1 128 56 56 (401408)
I0624 13:54:13.711614 18353 net.cpp:156] Memory required for data: 89112576
I0624 13:54:13.711617 18353 layer_factory.hpp:77] Creating layer conv3_2
I0624 13:54:13.711627 18353 net.cpp:91] Creating Layer conv3_2
I0624 13:54:13.711633 18353 net.cpp:425] conv3_2 <- conv3_1
I0624 13:54:13.711638 18353 net.cpp:399] conv3_2 -> conv3_2
I0624 13:54:13.713397 18353 net.cpp:141] Setting up conv3_2
I0624 13:54:13.713412 18353 net.cpp:148] Top shape: 1 128 56 56 (401408)
I0624 13:54:13.713414 18353 net.cpp:156] Memory required for data: 90718208
I0624 13:54:13.713418 18353 layer_factory.hpp:77] Creating layer bn3_2
I0624 13:54:13.713424 18353 net.cpp:91] Creating Layer bn3_2
I0624 13:54:13.713428 18353 net.cpp:425] bn3_2 <- conv3_2
I0624 13:54:13.713431 18353 net.cpp:386] bn3_2 -> conv3_2 (in-place)
I0624 13:54:13.713583 18353 net.cpp:141] Setting up bn3_2
I0624 13:54:13.713590 18353 net.cpp:148] Top shape: 1 128 56 56 (401408)
I0624 13:54:13.713593 18353 net.cpp:156] Memory required for data: 92323840
I0624 13:54:13.713601 18353 layer_factory.hpp:77] Creating layer scale3_2
I0624 13:54:13.713608 18353 net.cpp:91] Creating Layer scale3_2
I0624 13:54:13.713611 18353 net.cpp:425] scale3_2 <- conv3_2
I0624 13:54:13.713614 18353 net.cpp:386] scale3_2 -> conv3_2 (in-place)
I0624 13:54:13.713649 18353 layer_factory.hpp:77] Creating layer scale3_2
I0624 13:54:13.713738 18353 net.cpp:141] Setting up scale3_2
I0624 13:54:13.713744 18353 net.cpp:148] Top shape: 1 128 56 56 (401408)
I0624 13:54:13.713747 18353 net.cpp:156] Memory required for data: 93929472
I0624 13:54:13.713752 18353 layer_factory.hpp:77] Creating layer relu3_2
I0624 13:54:13.713755 18353 net.cpp:91] Creating Layer relu3_2
I0624 13:54:13.713758 18353 net.cpp:425] relu3_2 <- conv3_2
I0624 13:54:13.713763 18353 net.cpp:386] relu3_2 -> conv3_2 (in-place)
I0624 13:54:13.714032 18353 net.cpp:141] Setting up relu3_2
I0624 13:54:13.714042 18353 net.cpp:148] Top shape: 1 128 56 56 (401408)
I0624 13:54:13.714046 18353 net.cpp:156] Memory required for data: 95535104
I0624 13:54:13.714047 18353 layer_factory.hpp:77] Creating layer pool3
I0624 13:54:13.714051 18353 layer_factory.cpp:90] cuDNN does not support multiple tops. Using Caffe's own pooling layer.
I0624 13:54:13.714056 18353 net.cpp:91] Creating Layer pool3
I0624 13:54:13.714058 18353 net.cpp:425] pool3 <- conv3_2
I0624 13:54:13.714062 18353 net.cpp:399] pool3 -> pool3
I0624 13:54:13.714068 18353 net.cpp:399] pool3 -> pool3_mask
I0624 13:54:13.714105 18353 net.cpp:141] Setting up pool3
I0624 13:54:13.714114 18353 net.cpp:148] Top shape: 1 128 28 28 (100352)
I0624 13:54:13.714118 18353 net.cpp:148] Top shape: 1 128 28 28 (100352)
I0624 13:54:13.714119 18353 net.cpp:156] Memory required for data: 96337920
I0624 13:54:13.714121 18353 layer_factory.hpp:77] Creating layer conv4_1
I0624 13:54:13.714129 18353 net.cpp:91] Creating Layer conv4_1
I0624 13:54:13.714131 18353 net.cpp:425] conv4_1 <- pool3
I0624 13:54:13.714138 18353 net.cpp:399] conv4_1 -> conv4_1
I0624 13:54:13.717360 18353 net.cpp:141] Setting up conv4_1
I0624 13:54:13.717372 18353 net.cpp:148] Top shape: 1 256 28 28 (200704)
I0624 13:54:13.717375 18353 net.cpp:156] Memory required for data: 97140736
I0624 13:54:13.717381 18353 layer_factory.hpp:77] Creating layer bn4_1
I0624 13:54:13.717387 18353 net.cpp:91] Creating Layer bn4_1
I0624 13:54:13.717391 18353 net.cpp:425] bn4_1 <- conv4_1
I0624 13:54:13.717394 18353 net.cpp:386] bn4_1 -> conv4_1 (in-place)
I0624 13:54:13.717552 18353 net.cpp:141] Setting up bn4_1
I0624 13:54:13.717559 18353 net.cpp:148] Top shape: 1 256 28 28 (200704)
I0624 13:54:13.717562 18353 net.cpp:156] Memory required for data: 97943552
I0624 13:54:13.717567 18353 layer_factory.hpp:77] Creating layer scale4_1
I0624 13:54:13.717574 18353 net.cpp:91] Creating Layer scale4_1
I0624 13:54:13.717577 18353 net.cpp:425] scale4_1 <- conv4_1
I0624 13:54:13.717581 18353 net.cpp:386] scale4_1 -> conv4_1 (in-place)
I0624 13:54:13.717615 18353 layer_factory.hpp:77] Creating layer scale4_1
I0624 13:54:13.717716 18353 net.cpp:141] Setting up scale4_1
I0624 13:54:13.717732 18353 net.cpp:148] Top shape: 1 256 28 28 (200704)
I0624 13:54:13.717736 18353 net.cpp:156] Memory required for data: 98746368
I0624 13:54:13.717741 18353 layer_factory.hpp:77] Creating layer relu4_1
I0624 13:54:13.717748 18353 net.cpp:91] Creating Layer relu4_1
I0624 13:54:13.717751 18353 net.cpp:425] relu4_1 <- conv4_1
I0624 13:54:13.717756 18353 net.cpp:386] relu4_1 -> conv4_1 (in-place)
I0624 13:54:13.718031 18353 net.cpp:141] Setting up relu4_1
I0624 13:54:13.718044 18353 net.cpp:148] Top shape: 1 256 28 28 (200704)
I0624 13:54:13.718046 18353 net.cpp:156] Memory required for data: 99549184
I0624 13:54:13.718049 18353 layer_factory.hpp:77] Creating layer conv4_2
I0624 13:54:13.718057 18353 net.cpp:91] Creating Layer conv4_2
I0624 13:54:13.718060 18353 net.cpp:425] conv4_2 <- conv4_1
I0624 13:54:13.718065 18353 net.cpp:399] conv4_2 -> conv4_2
I0624 13:54:13.723716 18353 net.cpp:141] Setting up conv4_2
I0624 13:54:13.723728 18353 net.cpp:148] Top shape: 1 256 28 28 (200704)
I0624 13:54:13.723731 18353 net.cpp:156] Memory required for data: 100352000
I0624 13:54:13.723736 18353 layer_factory.hpp:77] Creating layer bn4_2
I0624 13:54:13.723743 18353 net.cpp:91] Creating Layer bn4_2
I0624 13:54:13.723747 18353 net.cpp:425] bn4_2 <- conv4_2
I0624 13:54:13.723750 18353 net.cpp:386] bn4_2 -> conv4_2 (in-place)
I0624 13:54:13.723914 18353 net.cpp:141] Setting up bn4_2
I0624 13:54:13.723922 18353 net.cpp:148] Top shape: 1 256 28 28 (200704)
I0624 13:54:13.723925 18353 net.cpp:156] Memory required for data: 101154816
I0624 13:54:13.723930 18353 layer_factory.hpp:77] Creating layer scale4_2
I0624 13:54:13.723937 18353 net.cpp:91] Creating Layer scale4_2
I0624 13:54:13.723939 18353 net.cpp:425] scale4_2 <- conv4_2
I0624 13:54:13.723944 18353 net.cpp:386] scale4_2 -> conv4_2 (in-place)
I0624 13:54:13.723978 18353 layer_factory.hpp:77] Creating layer scale4_2
I0624 13:54:13.724071 18353 net.cpp:141] Setting up scale4_2
I0624 13:54:13.724077 18353 net.cpp:148] Top shape: 1 256 28 28 (200704)
I0624 13:54:13.724081 18353 net.cpp:156] Memory required for data: 101957632
I0624 13:54:13.724084 18353 layer_factory.hpp:77] Creating layer relu4_2
I0624 13:54:13.724088 18353 net.cpp:91] Creating Layer relu4_2
I0624 13:54:13.724092 18353 net.cpp:425] relu4_2 <- conv4_2
I0624 13:54:13.724094 18353 net.cpp:386] relu4_2 -> conv4_2 (in-place)
I0624 13:54:13.724243 18353 net.cpp:141] Setting up relu4_2
I0624 13:54:13.724252 18353 net.cpp:148] Top shape: 1 256 28 28 (200704)
I0624 13:54:13.724254 18353 net.cpp:156] Memory required for data: 102760448
I0624 13:54:13.724257 18353 layer_factory.hpp:77] Creating layer pool4
I0624 13:54:13.724259 18353 layer_factory.cpp:90] cuDNN does not support multiple tops. Using Caffe's own pooling layer.
I0624 13:54:13.724266 18353 net.cpp:91] Creating Layer pool4
I0624 13:54:13.724267 18353 net.cpp:425] pool4 <- conv4_2
I0624 13:54:13.724272 18353 net.cpp:399] pool4 -> pool4
I0624 13:54:13.724277 18353 net.cpp:399] pool4 -> pool4_mask
I0624 13:54:13.724315 18353 net.cpp:141] Setting up pool4
I0624 13:54:13.724321 18353 net.cpp:148] Top shape: 1 256 14 14 (50176)
I0624 13:54:13.724324 18353 net.cpp:148] Top shape: 1 256 14 14 (50176)
I0624 13:54:13.724326 18353 net.cpp:156] Memory required for data: 103161856
I0624 13:54:13.724328 18353 layer_factory.hpp:77] Creating layer conv5_1
I0624 13:54:13.724336 18353 net.cpp:91] Creating Layer conv5_1
I0624 13:54:13.724339 18353 net.cpp:425] conv5_1 <- pool4
I0624 13:54:13.724350 18353 net.cpp:399] conv5_1 -> conv5_1
I0624 13:54:13.729848 18353 net.cpp:141] Setting up conv5_1
I0624 13:54:13.729862 18353 net.cpp:148] Top shape: 1 256 14 14 (50176)
I0624 13:54:13.729866 18353 net.cpp:156] Memory required for data: 103362560
I0624 13:54:13.729869 18353 layer_factory.hpp:77] Creating layer bn5_1
I0624 13:54:13.729876 18353 net.cpp:91] Creating Layer bn5_1
I0624 13:54:13.729878 18353 net.cpp:425] bn5_1 <- conv5_1
I0624 13:54:13.729883 18353 net.cpp:386] bn5_1 -> conv5_1 (in-place)
I0624 13:54:13.730049 18353 net.cpp:141] Setting up bn5_1
I0624 13:54:13.730067 18353 net.cpp:148] Top shape: 1 256 14 14 (50176)
I0624 13:54:13.730069 18353 net.cpp:156] Memory required for data: 103563264
I0624 13:54:13.730075 18353 layer_factory.hpp:77] Creating layer scale5_1
I0624 13:54:13.730082 18353 net.cpp:91] Creating Layer scale5_1
I0624 13:54:13.730083 18353 net.cpp:425] scale5_1 <- conv5_1
I0624 13:54:13.730087 18353 net.cpp:386] scale5_1 -> conv5_1 (in-place)
I0624 13:54:13.730124 18353 layer_factory.hpp:77] Creating layer scale5_1
I0624 13:54:13.730216 18353 net.cpp:141] Setting up scale5_1
I0624 13:54:13.730222 18353 net.cpp:148] Top shape: 1 256 14 14 (50176)
I0624 13:54:13.730224 18353 net.cpp:156] Memory required for data: 103763968
I0624 13:54:13.730228 18353 layer_factory.hpp:77] Creating layer relu5_1
I0624 13:54:13.730233 18353 net.cpp:91] Creating Layer relu5_1
I0624 13:54:13.730237 18353 net.cpp:425] relu5_1 <- conv5_1
I0624 13:54:13.730239 18353 net.cpp:386] relu5_1 -> conv5_1 (in-place)
I0624 13:54:13.730514 18353 net.cpp:141] Setting up relu5_1
I0624 13:54:13.730525 18353 net.cpp:148] Top shape: 1 256 14 14 (50176)
I0624 13:54:13.730526 18353 net.cpp:156] Memory required for data: 103964672
I0624 13:54:13.730530 18353 layer_factory.hpp:77] Creating layer conv5_2
I0624 13:54:13.730537 18353 net.cpp:91] Creating Layer conv5_2
I0624 13:54:13.730540 18353 net.cpp:425] conv5_2 <- conv5_1
I0624 13:54:13.730545 18353 net.cpp:399] conv5_2 -> conv5_2
I0624 13:54:13.735982 18353 net.cpp:141] Setting up conv5_2
I0624 13:54:13.735998 18353 net.cpp:148] Top shape: 1 256 14 14 (50176)
I0624 13:54:13.736001 18353 net.cpp:156] Memory required for data: 104165376
I0624 13:54:13.736006 18353 layer_factory.hpp:77] Creating layer bn5_2
I0624 13:54:13.736012 18353 net.cpp:91] Creating Layer bn5_2
I0624 13:54:13.736016 18353 net.cpp:425] bn5_2 <- conv5_2
I0624 13:54:13.736021 18353 net.cpp:386] bn5_2 -> conv5_2 (in-place)
I0624 13:54:13.736181 18353 net.cpp:141] Setting up bn5_2
I0624 13:54:13.736188 18353 net.cpp:148] Top shape: 1 256 14 14 (50176)
I0624 13:54:13.736191 18353 net.cpp:156] Memory required for data: 104366080
I0624 13:54:13.736197 18353 layer_factory.hpp:77] Creating layer scale5_2
I0624 13:54:13.736204 18353 net.cpp:91] Creating Layer scale5_2
I0624 13:54:13.736207 18353 net.cpp:425] scale5_2 <- conv5_2
I0624 13:54:13.736210 18353 net.cpp:386] scale5_2 -> conv5_2 (in-place)
I0624 13:54:13.736249 18353 layer_factory.hpp:77] Creating layer scale5_2
I0624 13:54:13.736343 18353 net.cpp:141] Setting up scale5_2
I0624 13:54:13.736351 18353 net.cpp:148] Top shape: 1 256 14 14 (50176)
I0624 13:54:13.736352 18353 net.cpp:156] Memory required for data: 104566784
I0624 13:54:13.736356 18353 layer_factory.hpp:77] Creating layer relu5_2
I0624 13:54:13.736362 18353 net.cpp:91] Creating Layer relu5_2
I0624 13:54:13.736366 18353 net.cpp:425] relu5_2 <- conv5_2
I0624 13:54:13.736368 18353 net.cpp:386] relu5_2 -> conv5_2 (in-place)
I0624 13:54:13.736780 18353 net.cpp:141] Setting up relu5_2
I0624 13:54:13.736790 18353 net.cpp:148] Top shape: 1 256 14 14 (50176)
I0624 13:54:13.736793 18353 net.cpp:156] Memory required for data: 104767488
I0624 13:54:13.736795 18353 layer_factory.hpp:77] Creating layer pool5
I0624 13:54:13.736799 18353 layer_factory.cpp:90] cuDNN does not support multiple tops. Using Caffe's own pooling layer.
I0624 13:54:13.736804 18353 net.cpp:91] Creating Layer pool5
I0624 13:54:13.736807 18353 net.cpp:425] pool5 <- conv5_2
I0624 13:54:13.736811 18353 net.cpp:399] pool5 -> pool5
I0624 13:54:13.736816 18353 net.cpp:399] pool5 -> pool5_mask
I0624 13:54:13.736857 18353 net.cpp:141] Setting up pool5
I0624 13:54:13.736865 18353 net.cpp:148] Top shape: 1 256 7 7 (12544)
I0624 13:54:13.736868 18353 net.cpp:148] Top shape: 1 256 7 7 (12544)
I0624 13:54:13.736871 18353 net.cpp:156] Memory required for data: 104867840
I0624 13:54:13.736873 18353 layer_factory.hpp:77] Creating layer upsample5
I0624 13:54:13.736881 18353 net.cpp:91] Creating Layer upsample5
I0624 13:54:13.736882 18353 net.cpp:425] upsample5 <- pool5
I0624 13:54:13.736886 18353 net.cpp:425] upsample5 <- pool5_mask
I0624 13:54:13.736901 18353 net.cpp:399] upsample5 -> pool5_D
I0624 13:54:13.736927 18353 net.cpp:141] Setting up upsample5
I0624 13:54:13.736934 18353 net.cpp:148] Top shape: 1 256 14 14 (50176)
I0624 13:54:13.736937 18353 net.cpp:156] Memory required for data: 105068544
I0624 13:54:13.736938 18353 layer_factory.hpp:77] Creating layer conv5_2_D
I0624 13:54:13.736948 18353 net.cpp:91] Creating Layer conv5_2_D
I0624 13:54:13.736951 18353 net.cpp:425] conv5_2_D <- pool5_D
I0624 13:54:13.736955 18353 net.cpp:399] conv5_2_D -> conv5_2_D
I0624 13:54:13.742444 18353 net.cpp:141] Setting up conv5_2_D
I0624 13:54:13.742456 18353 net.cpp:148] Top shape: 1 256 14 14 (50176)
I0624 13:54:13.742458 18353 net.cpp:156] Memory required for data: 105269248
I0624 13:54:13.742463 18353 layer_factory.hpp:77] Creating layer bn5_2_D
I0624 13:54:13.742470 18353 net.cpp:91] Creating Layer bn5_2_D
I0624 13:54:13.742473 18353 net.cpp:425] bn5_2_D <- conv5_2_D
I0624 13:54:13.742477 18353 net.cpp:386] bn5_2_D -> conv5_2_D (in-place)
I0624 13:54:13.742645 18353 net.cpp:141] Setting up bn5_2_D
I0624 13:54:13.742651 18353 net.cpp:148] Top shape: 1 256 14 14 (50176)
I0624 13:54:13.742655 18353 net.cpp:156] Memory required for data: 105469952
I0624 13:54:13.742660 18353 layer_factory.hpp:77] Creating layer scale5_2_D
I0624 13:54:13.742666 18353 net.cpp:91] Creating Layer scale5_2_D
I0624 13:54:13.742669 18353 net.cpp:425] scale5_2_D <- conv5_2_D
I0624 13:54:13.742672 18353 net.cpp:386] scale5_2_D -> conv5_2_D (in-place)
I0624 13:54:13.742709 18353 layer_factory.hpp:77] Creating layer scale5_2_D
I0624 13:54:13.742810 18353 net.cpp:141] Setting up scale5_2_D
I0624 13:54:13.742816 18353 net.cpp:148] Top shape: 1 256 14 14 (50176)
I0624 13:54:13.742820 18353 net.cpp:156] Memory required for data: 105670656
I0624 13:54:13.742832 18353 layer_factory.hpp:77] Creating layer relu5_2_D
I0624 13:54:13.742837 18353 net.cpp:91] Creating Layer relu5_2_D
I0624 13:54:13.742841 18353 net.cpp:425] relu5_2_D <- conv5_2_D
I0624 13:54:13.742844 18353 net.cpp:386] relu5_2_D -> conv5_2_D (in-place)
I0624 13:54:13.742990 18353 net.cpp:141] Setting up relu5_2_D
I0624 13:54:13.742998 18353 net.cpp:148] Top shape: 1 256 14 14 (50176)
I0624 13:54:13.743001 18353 net.cpp:156] Memory required for data: 105871360
I0624 13:54:13.743003 18353 layer_factory.hpp:77] Creating layer conv5_1_D
I0624 13:54:13.743011 18353 net.cpp:91] Creating Layer conv5_1_D
I0624 13:54:13.743015 18353 net.cpp:425] conv5_1_D <- conv5_2_D
I0624 13:54:13.743019 18353 net.cpp:399] conv5_1_D -> conv5_1_D
I0624 13:54:13.748525 18353 net.cpp:141] Setting up conv5_1_D
I0624 13:54:13.748538 18353 net.cpp:148] Top shape: 1 256 14 14 (50176)
I0624 13:54:13.748540 18353 net.cpp:156] Memory required for data: 106072064
I0624 13:54:13.748545 18353 layer_factory.hpp:77] Creating layer bn5_1_D
I0624 13:54:13.748551 18353 net.cpp:91] Creating Layer bn5_1_D
I0624 13:54:13.748553 18353 net.cpp:425] bn5_1_D <- conv5_1_D
I0624 13:54:13.748559 18353 net.cpp:386] bn5_1_D -> conv5_1_D (in-place)
I0624 13:54:13.748738 18353 net.cpp:141] Setting up bn5_1_D
I0624 13:54:13.748745 18353 net.cpp:148] Top shape: 1 256 14 14 (50176)
I0624 13:54:13.748747 18353 net.cpp:156] Memory required for data: 106272768
I0624 13:54:13.748754 18353 layer_factory.hpp:77] Creating layer scale5_1_D
I0624 13:54:13.748759 18353 net.cpp:91] Creating Layer scale5_1_D
I0624 13:54:13.748761 18353 net.cpp:425] scale5_1_D <- conv5_1_D
I0624 13:54:13.748764 18353 net.cpp:386] scale5_1_D -> conv5_1_D (in-place)
I0624 13:54:13.748798 18353 layer_factory.hpp:77] Creating layer scale5_1_D
I0624 13:54:13.748896 18353 net.cpp:141] Setting up scale5_1_D
I0624 13:54:13.748903 18353 net.cpp:148] Top shape: 1 256 14 14 (50176)
I0624 13:54:13.748905 18353 net.cpp:156] Memory required for data: 106473472
I0624 13:54:13.748909 18353 layer_factory.hpp:77] Creating layer relu5_1_D
I0624 13:54:13.748914 18353 net.cpp:91] Creating Layer relu5_1_D
I0624 13:54:13.748917 18353 net.cpp:425] relu5_1_D <- conv5_1_D
I0624 13:54:13.748920 18353 net.cpp:386] relu5_1_D -> conv5_1_D (in-place)
I0624 13:54:13.749228 18353 net.cpp:141] Setting up relu5_1_D
I0624 13:54:13.749240 18353 net.cpp:148] Top shape: 1 256 14 14 (50176)
I0624 13:54:13.749243 18353 net.cpp:156] Memory required for data: 106674176
I0624 13:54:13.749246 18353 layer_factory.hpp:77] Creating layer upsample4
I0624 13:54:13.749253 18353 net.cpp:91] Creating Layer upsample4
I0624 13:54:13.749258 18353 net.cpp:425] upsample4 <- conv5_1_D
I0624 13:54:13.749261 18353 net.cpp:425] upsample4 <- pool4_mask
I0624 13:54:13.749264 18353 net.cpp:399] upsample4 -> pool4_D
I0624 13:54:13.749297 18353 net.cpp:141] Setting up upsample4
I0624 13:54:13.749303 18353 net.cpp:148] Top shape: 1 256 28 28 (200704)
I0624 13:54:13.749305 18353 net.cpp:156] Memory required for data: 107476992
I0624 13:54:13.749308 18353 layer_factory.hpp:77] Creating layer conv4_2_D
I0624 13:54:13.749316 18353 net.cpp:91] Creating Layer conv4_2_D
I0624 13:54:13.749320 18353 net.cpp:425] conv4_2_D <- pool4_D
I0624 13:54:13.749325 18353 net.cpp:399] conv4_2_D -> conv4_2_D
I0624 13:54:13.754690 18353 net.cpp:141] Setting up conv4_2_D
I0624 13:54:13.754703 18353 net.cpp:148] Top shape: 1 256 28 28 (200704)
I0624 13:54:13.754705 18353 net.cpp:156] Memory required for data: 108279808
I0624 13:54:13.754710 18353 layer_factory.hpp:77] Creating layer bn4_2_D
I0624 13:54:13.754717 18353 net.cpp:91] Creating Layer bn4_2_D
I0624 13:54:13.754720 18353 net.cpp:425] bn4_2_D <- conv4_2_D
I0624 13:54:13.754725 18353 net.cpp:386] bn4_2_D -> conv4_2_D (in-place)
I0624 13:54:13.754904 18353 net.cpp:141] Setting up bn4_2_D
I0624 13:54:13.754912 18353 net.cpp:148] Top shape: 1 256 28 28 (200704)
I0624 13:54:13.754914 18353 net.cpp:156] Memory required for data: 109082624
I0624 13:54:13.754920 18353 layer_factory.hpp:77] Creating layer scale4_2_D
I0624 13:54:13.754926 18353 net.cpp:91] Creating Layer scale4_2_D
I0624 13:54:13.754930 18353 net.cpp:425] scale4_2_D <- conv4_2_D
I0624 13:54:13.754932 18353 net.cpp:386] scale4_2_D -> conv4_2_D (in-place)
I0624 13:54:13.754966 18353 layer_factory.hpp:77] Creating layer scale4_2_D
I0624 13:54:13.755067 18353 net.cpp:141] Setting up scale4_2_D
I0624 13:54:13.755074 18353 net.cpp:148] Top shape: 1 256 28 28 (200704)
I0624 13:54:13.755076 18353 net.cpp:156] Memory required for data: 109885440
I0624 13:54:13.755081 18353 layer_factory.hpp:77] Creating layer relu4_2_D
I0624 13:54:13.755085 18353 net.cpp:91] Creating Layer relu4_2_D
I0624 13:54:13.755087 18353 net.cpp:425] relu4_2_D <- conv4_2_D
I0624 13:54:13.755092 18353 net.cpp:386] relu4_2_D -> conv4_2_D (in-place)
I0624 13:54:13.755380 18353 net.cpp:141] Setting up relu4_2_D
I0624 13:54:13.755391 18353 net.cpp:148] Top shape: 1 256 28 28 (200704)
I0624 13:54:13.755394 18353 net.cpp:156] Memory required for data: 110688256
I0624 13:54:13.755396 18353 layer_factory.hpp:77] Creating layer conv4_1_D
I0624 13:54:13.755408 18353 net.cpp:91] Creating Layer conv4_1_D
I0624 13:54:13.755410 18353 net.cpp:425] conv4_1_D <- conv4_2_D
I0624 13:54:13.755416 18353 net.cpp:399] conv4_1_D -> conv4_1_D
I0624 13:54:13.758676 18353 net.cpp:141] Setting up conv4_1_D
I0624 13:54:13.758687 18353 net.cpp:148] Top shape: 1 128 28 28 (100352)
I0624 13:54:13.758688 18353 net.cpp:156] Memory required for data: 111089664
I0624 13:54:13.758693 18353 layer_factory.hpp:77] Creating layer bn4_1_D
I0624 13:54:13.758700 18353 net.cpp:91] Creating Layer bn4_1_D
I0624 13:54:13.758703 18353 net.cpp:425] bn4_1_D <- conv4_1_D
I0624 13:54:13.758708 18353 net.cpp:386] bn4_1_D -> conv4_1_D (in-place)
I0624 13:54:13.758882 18353 net.cpp:141] Setting up bn4_1_D
I0624 13:54:13.758889 18353 net.cpp:148] Top shape: 1 128 28 28 (100352)
I0624 13:54:13.758893 18353 net.cpp:156] Memory required for data: 111491072
I0624 13:54:13.758898 18353 layer_factory.hpp:77] Creating layer scale4_1_D
I0624 13:54:13.758903 18353 net.cpp:91] Creating Layer scale4_1_D
I0624 13:54:13.758905 18353 net.cpp:425] scale4_1_D <- conv4_1_D
I0624 13:54:13.758913 18353 net.cpp:386] scale4_1_D -> conv4_1_D (in-place)
I0624 13:54:13.758949 18353 layer_factory.hpp:77] Creating layer scale4_1_D
I0624 13:54:13.759066 18353 net.cpp:141] Setting up scale4_1_D
I0624 13:54:13.759073 18353 net.cpp:148] Top shape: 1 128 28 28 (100352)
I0624 13:54:13.759076 18353 net.cpp:156] Memory required for data: 111892480
I0624 13:54:13.759080 18353 layer_factory.hpp:77] Creating layer relu4_1_D
I0624 13:54:13.759090 18353 net.cpp:91] Creating Layer relu4_1_D
I0624 13:54:13.759095 18353 net.cpp:425] relu4_1_D <- conv4_1_D
I0624 13:54:13.759099 18353 net.cpp:386] relu4_1_D -> conv4_1_D (in-place)
I0624 13:54:13.759265 18353 net.cpp:141] Setting up relu4_1_D
I0624 13:54:13.759274 18353 net.cpp:148] Top shape: 1 128 28 28 (100352)
I0624 13:54:13.759277 18353 net.cpp:156] Memory required for data: 112293888
I0624 13:54:13.759280 18353 layer_factory.hpp:77] Creating layer upsample3
I0624 13:54:13.759285 18353 net.cpp:91] Creating Layer upsample3
I0624 13:54:13.759289 18353 net.cpp:425] upsample3 <- conv4_1_D
I0624 13:54:13.759292 18353 net.cpp:425] upsample3 <- pool3_mask
I0624 13:54:13.759296 18353 net.cpp:399] upsample3 -> pool3_D
I0624 13:54:13.759325 18353 net.cpp:141] Setting up upsample3
I0624 13:54:13.759331 18353 net.cpp:148] Top shape: 1 128 56 56 (401408)
I0624 13:54:13.759333 18353 net.cpp:156] Memory required for data: 113899520
I0624 13:54:13.759335 18353 layer_factory.hpp:77] Creating layer conv3_2_D
I0624 13:54:13.759343 18353 net.cpp:91] Creating Layer conv3_2_D
I0624 13:54:13.759346 18353 net.cpp:425] conv3_2_D <- pool3_D
I0624 13:54:13.759351 18353 net.cpp:399] conv3_2_D -> conv3_2_D
I0624 13:54:13.761837 18353 net.cpp:141] Setting up conv3_2_D
I0624 13:54:13.761850 18353 net.cpp:148] Top shape: 1 128 56 56 (401408)
I0624 13:54:13.761853 18353 net.cpp:156] Memory required for data: 115505152
I0624 13:54:13.761858 18353 layer_factory.hpp:77] Creating layer bn3_2_D
I0624 13:54:13.761868 18353 net.cpp:91] Creating Layer bn3_2_D
I0624 13:54:13.761871 18353 net.cpp:425] bn3_2_D <- conv3_2_D
I0624 13:54:13.761875 18353 net.cpp:386] bn3_2_D -> conv3_2_D (in-place)
I0624 13:54:13.762058 18353 net.cpp:141] Setting up bn3_2_D
I0624 13:54:13.762066 18353 net.cpp:148] Top shape: 1 128 56 56 (401408)
I0624 13:54:13.762069 18353 net.cpp:156] Memory required for data: 117110784
I0624 13:54:13.762075 18353 layer_factory.hpp:77] Creating layer scale3_2_D
I0624 13:54:13.762082 18353 net.cpp:91] Creating Layer scale3_2_D
I0624 13:54:13.762084 18353 net.cpp:425] scale3_2_D <- conv3_2_D
I0624 13:54:13.762089 18353 net.cpp:386] scale3_2_D -> conv3_2_D (in-place)
I0624 13:54:13.762125 18353 layer_factory.hpp:77] Creating layer scale3_2_D
I0624 13:54:13.762230 18353 net.cpp:141] Setting up scale3_2_D
I0624 13:54:13.762238 18353 net.cpp:148] Top shape: 1 128 56 56 (401408)
I0624 13:54:13.762240 18353 net.cpp:156] Memory required for data: 118716416
I0624 13:54:13.762244 18353 layer_factory.hpp:77] Creating layer relu3_2_D
I0624 13:54:13.762249 18353 net.cpp:91] Creating Layer relu3_2_D
I0624 13:54:13.762253 18353 net.cpp:425] relu3_2_D <- conv3_2_D
I0624 13:54:13.762255 18353 net.cpp:386] relu3_2_D -> conv3_2_D (in-place)
I0624 13:54:13.762543 18353 net.cpp:141] Setting up relu3_2_D
I0624 13:54:13.762554 18353 net.cpp:148] Top shape: 1 128 56 56 (401408)
I0624 13:54:13.762557 18353 net.cpp:156] Memory required for data: 120322048
I0624 13:54:13.762559 18353 layer_factory.hpp:77] Creating layer conv3_1_D
I0624 13:54:13.762568 18353 net.cpp:91] Creating Layer conv3_1_D
I0624 13:54:13.762572 18353 net.cpp:425] conv3_1_D <- conv3_2_D
I0624 13:54:13.762575 18353 net.cpp:399] conv3_1_D -> conv3_1_D
I0624 13:54:13.763978 18353 net.cpp:141] Setting up conv3_1_D
I0624 13:54:13.763990 18353 net.cpp:148] Top shape: 1 64 56 56 (200704)
I0624 13:54:13.763993 18353 net.cpp:156] Memory required for data: 121124864
I0624 13:54:13.763998 18353 layer_factory.hpp:77] Creating layer bn3_1_D
I0624 13:54:13.764004 18353 net.cpp:91] Creating Layer bn3_1_D
I0624 13:54:13.764008 18353 net.cpp:425] bn3_1_D <- conv3_1_D
I0624 13:54:13.764011 18353 net.cpp:386] bn3_1_D -> conv3_1_D (in-place)
I0624 13:54:13.764202 18353 net.cpp:141] Setting up bn3_1_D
I0624 13:54:13.764219 18353 net.cpp:148] Top shape: 1 64 56 56 (200704)
I0624 13:54:13.764221 18353 net.cpp:156] Memory required for data: 121927680
I0624 13:54:13.764226 18353 layer_factory.hpp:77] Creating layer scale3_1_D
I0624 13:54:13.764232 18353 net.cpp:91] Creating Layer scale3_1_D
I0624 13:54:13.764235 18353 net.cpp:425] scale3_1_D <- conv3_1_D
I0624 13:54:13.764240 18353 net.cpp:386] scale3_1_D -> conv3_1_D (in-place)
I0624 13:54:13.764282 18353 layer_factory.hpp:77] Creating layer scale3_1_D
I0624 13:54:13.764396 18353 net.cpp:141] Setting up scale3_1_D
I0624 13:54:13.764403 18353 net.cpp:148] Top shape: 1 64 56 56 (200704)
I0624 13:54:13.764406 18353 net.cpp:156] Memory required for data: 122730496
I0624 13:54:13.764410 18353 layer_factory.hpp:77] Creating layer relu3_1_D
I0624 13:54:13.764415 18353 net.cpp:91] Creating Layer relu3_1_D
I0624 13:54:13.764417 18353 net.cpp:425] relu3_1_D <- conv3_1_D
I0624 13:54:13.764421 18353 net.cpp:386] relu3_1_D -> conv3_1_D (in-place)
I0624 13:54:13.764737 18353 net.cpp:141] Setting up relu3_1_D
I0624 13:54:13.764750 18353 net.cpp:148] Top shape: 1 64 56 56 (200704)
I0624 13:54:13.764752 18353 net.cpp:156] Memory required for data: 123533312
I0624 13:54:13.764755 18353 layer_factory.hpp:77] Creating layer upsample2
I0624 13:54:13.764760 18353 net.cpp:91] Creating Layer upsample2
I0624 13:54:13.764763 18353 net.cpp:425] upsample2 <- conv3_1_D
I0624 13:54:13.764766 18353 net.cpp:425] upsample2 <- pool2_mask
I0624 13:54:13.764770 18353 net.cpp:399] upsample2 -> pool2_D
I0624 13:54:13.764803 18353 net.cpp:141] Setting up upsample2
I0624 13:54:13.764809 18353 net.cpp:148] Top shape: 1 64 112 112 (802816)
I0624 13:54:13.764811 18353 net.cpp:156] Memory required for data: 126744576
I0624 13:54:13.764814 18353 layer_factory.hpp:77] Creating layer conv2_2_D
I0624 13:54:13.764822 18353 net.cpp:91] Creating Layer conv2_2_D
I0624 13:54:13.764824 18353 net.cpp:425] conv2_2_D <- pool2_D
I0624 13:54:13.764828 18353 net.cpp:399] conv2_2_D -> conv2_2_D
I0624 13:54:13.766047 18353 net.cpp:141] Setting up conv2_2_D
I0624 13:54:13.766062 18353 net.cpp:148] Top shape: 1 64 112 112 (802816)
I0624 13:54:13.766065 18353 net.cpp:156] Memory required for data: 129955840
I0624 13:54:13.766072 18353 layer_factory.hpp:77] Creating layer bn2_2_D
I0624 13:54:13.766083 18353 net.cpp:91] Creating Layer bn2_2_D
I0624 13:54:13.766088 18353 net.cpp:425] bn2_2_D <- conv2_2_D
I0624 13:54:13.766098 18353 net.cpp:386] bn2_2_D -> conv2_2_D (in-place)
I0624 13:54:13.766311 18353 net.cpp:141] Setting up bn2_2_D
I0624 13:54:13.766321 18353 net.cpp:148] Top shape: 1 64 112 112 (802816)
I0624 13:54:13.766326 18353 net.cpp:156] Memory required for data: 133167104
I0624 13:54:13.766335 18353 layer_factory.hpp:77] Creating layer scale2_2_D
I0624 13:54:13.766347 18353 net.cpp:91] Creating Layer scale2_2_D
I0624 13:54:13.766353 18353 net.cpp:425] scale2_2_D <- conv2_2_D
I0624 13:54:13.766360 18353 net.cpp:386] scale2_2_D -> conv2_2_D (in-place)
I0624 13:54:13.766410 18353 layer_factory.hpp:77] Creating layer scale2_2_D
I0624 13:54:13.766551 18353 net.cpp:141] Setting up scale2_2_D
I0624 13:54:13.766561 18353 net.cpp:148] Top shape: 1 64 112 112 (802816)
I0624 13:54:13.766566 18353 net.cpp:156] Memory required for data: 136378368
I0624 13:54:13.766572 18353 layer_factory.hpp:77] Creating layer relu2_2_D
I0624 13:54:13.766580 18353 net.cpp:91] Creating Layer relu2_2_D
I0624 13:54:13.766584 18353 net.cpp:425] relu2_2_D <- conv2_2_D
I0624 13:54:13.766593 18353 net.cpp:386] relu2_2_D -> conv2_2_D (in-place)
I0624 13:54:13.766755 18353 net.cpp:141] Setting up relu2_2_D
I0624 13:54:13.766768 18353 net.cpp:148] Top shape: 1 64 112 112 (802816)
I0624 13:54:13.766773 18353 net.cpp:156] Memory required for data: 139589632
I0624 13:54:13.766777 18353 layer_factory.hpp:77] Creating layer conv2_1_D
I0624 13:54:13.766788 18353 net.cpp:91] Creating Layer conv2_1_D
I0624 13:54:13.766793 18353 net.cpp:425] conv2_1_D <- conv2_2_D
I0624 13:54:13.766801 18353 net.cpp:399] conv2_1_D -> conv2_1_D
I0624 13:54:13.768007 18353 net.cpp:141] Setting up conv2_1_D
I0624 13:54:13.768029 18353 net.cpp:148] Top shape: 1 32 112 112 (401408)
I0624 13:54:13.768034 18353 net.cpp:156] Memory required for data: 141195264
I0624 13:54:13.768041 18353 layer_factory.hpp:77] Creating layer bn2_1_D
I0624 13:54:13.768052 18353 net.cpp:91] Creating Layer bn2_1_D
I0624 13:54:13.768059 18353 net.cpp:425] bn2_1_D <- conv2_1_D
I0624 13:54:13.768069 18353 net.cpp:386] bn2_1_D -> conv2_1_D (in-place)
I0624 13:54:13.768271 18353 net.cpp:141] Setting up bn2_1_D
I0624 13:54:13.768282 18353 net.cpp:148] Top shape: 1 32 112 112 (401408)
I0624 13:54:13.768286 18353 net.cpp:156] Memory required for data: 142800896
I0624 13:54:13.768296 18353 layer_factory.hpp:77] Creating layer scale2_1_D
I0624 13:54:13.768307 18353 net.cpp:91] Creating Layer scale2_1_D
I0624 13:54:13.768312 18353 net.cpp:425] scale2_1_D <- conv2_1_D
I0624 13:54:13.768319 18353 net.cpp:386] scale2_1_D -> conv2_1_D (in-place)
I0624 13:54:13.768369 18353 layer_factory.hpp:77] Creating layer scale2_1_D
I0624 13:54:13.768512 18353 net.cpp:141] Setting up scale2_1_D
I0624 13:54:13.768522 18353 net.cpp:148] Top shape: 1 32 112 112 (401408)
I0624 13:54:13.768527 18353 net.cpp:156] Memory required for data: 144406528
I0624 13:54:13.768534 18353 layer_factory.hpp:77] Creating layer relu2_1_D
I0624 13:54:13.768542 18353 net.cpp:91] Creating Layer relu2_1_D
I0624 13:54:13.768546 18353 net.cpp:425] relu2_1_D <- conv2_1_D
I0624 13:54:13.768555 18353 net.cpp:386] relu2_1_D -> conv2_1_D (in-place)
I0624 13:54:13.768847 18353 net.cpp:141] Setting up relu2_1_D
I0624 13:54:13.768860 18353 net.cpp:148] Top shape: 1 32 112 112 (401408)
I0624 13:54:13.768864 18353 net.cpp:156] Memory required for data: 146012160
I0624 13:54:13.768936 18353 layer_factory.hpp:77] Creating layer upsample1
I0624 13:54:13.768947 18353 net.cpp:91] Creating Layer upsample1
I0624 13:54:13.768954 18353 net.cpp:425] upsample1 <- conv2_1_D
I0624 13:54:13.768959 18353 net.cpp:425] upsample1 <- pool1_mask
I0624 13:54:13.768966 18353 net.cpp:399] upsample1 -> pool1_D
I0624 13:54:13.769006 18353 net.cpp:141] Setting up upsample1
I0624 13:54:13.769016 18353 net.cpp:148] Top shape: 1 32 224 224 (1605632)
I0624 13:54:13.769019 18353 net.cpp:156] Memory required for data: 152434688
I0624 13:54:13.769023 18353 layer_factory.hpp:77] Creating layer conv1_2_D
I0624 13:54:13.769035 18353 net.cpp:91] Creating Layer conv1_2_D
I0624 13:54:13.769042 18353 net.cpp:425] conv1_2_D <- pool1_D
I0624 13:54:13.769050 18353 net.cpp:399] conv1_2_D -> conv1_2_D
I0624 13:54:13.770006 18353 net.cpp:141] Setting up conv1_2_D
I0624 13:54:13.770020 18353 net.cpp:148] Top shape: 1 32 224 224 (1605632)
I0624 13:54:13.770025 18353 net.cpp:156] Memory required for data: 158857216
I0624 13:54:13.770033 18353 layer_factory.hpp:77] Creating layer bn1_2_D
I0624 13:54:13.770045 18353 net.cpp:91] Creating Layer bn1_2_D
I0624 13:54:13.770051 18353 net.cpp:425] bn1_2_D <- conv1_2_D
I0624 13:54:13.770057 18353 net.cpp:386] bn1_2_D -> conv1_2_D (in-place)
I0624 13:54:13.770301 18353 net.cpp:141] Setting up bn1_2_D
I0624 13:54:13.770313 18353 net.cpp:148] Top shape: 1 32 224 224 (1605632)
I0624 13:54:13.770316 18353 net.cpp:156] Memory required for data: 165279744
I0624 13:54:13.770326 18353 layer_factory.hpp:77] Creating layer scale1_2_D
I0624 13:54:13.770337 18353 net.cpp:91] Creating Layer scale1_2_D
I0624 13:54:13.770344 18353 net.cpp:425] scale1_2_D <- conv1_2_D
I0624 13:54:13.770350 18353 net.cpp:386] scale1_2_D -> conv1_2_D (in-place)
I0624 13:54:13.770401 18353 layer_factory.hpp:77] Creating layer scale1_2_D
I0624 13:54:13.770606 18353 net.cpp:141] Setting up scale1_2_D
I0624 13:54:13.770615 18353 net.cpp:148] Top shape: 1 32 224 224 (1605632)
I0624 13:54:13.770619 18353 net.cpp:156] Memory required for data: 171702272
I0624 13:54:13.770627 18353 layer_factory.hpp:77] Creating layer relu1_2_D
I0624 13:54:13.770634 18353 net.cpp:91] Creating Layer relu1_2_D
I0624 13:54:13.770638 18353 net.cpp:425] relu1_2_D <- conv1_2_D
I0624 13:54:13.770647 18353 net.cpp:386] relu1_2_D -> conv1_2_D (in-place)
I0624 13:54:13.770954 18353 net.cpp:141] Setting up relu1_2_D
I0624 13:54:13.770967 18353 net.cpp:148] Top shape: 1 32 224 224 (1605632)
I0624 13:54:13.770972 18353 net.cpp:156] Memory required for data: 178124800
I0624 13:54:13.770975 18353 layer_factory.hpp:77] Creating layer conv1_1_D
I0624 13:54:13.770993 18353 net.cpp:91] Creating Layer conv1_1_D
I0624 13:54:13.771000 18353 net.cpp:425] conv1_1_D <- conv1_2_D
I0624 13:54:13.771009 18353 net.cpp:399] conv1_1_D -> conv1_1_D
I0624 13:54:13.773851 18353 net.cpp:141] Setting up conv1_1_D
I0624 13:54:13.773866 18353 net.cpp:148] Top shape: 1 2 224 224 (100352)
I0624 13:54:13.773870 18353 net.cpp:156] Memory required for data: 178526208
I0624 13:54:13.773880 18353 layer_factory.hpp:77] Creating layer conv1_1_D_conv1_1_D_0_split
I0624 13:54:13.773890 18353 net.cpp:91] Creating Layer conv1_1_D_conv1_1_D_0_split
I0624 13:54:13.773895 18353 net.cpp:425] conv1_1_D_conv1_1_D_0_split <- conv1_1_D
I0624 13:54:13.773902 18353 net.cpp:399] conv1_1_D_conv1_1_D_0_split -> conv1_1_D_conv1_1_D_0_split_0
I0624 13:54:13.773911 18353 net.cpp:399] conv1_1_D_conv1_1_D_0_split -> conv1_1_D_conv1_1_D_0_split_1
I0624 13:54:13.773965 18353 net.cpp:141] Setting up conv1_1_D_conv1_1_D_0_split
I0624 13:54:13.773975 18353 net.cpp:148] Top shape: 1 2 224 224 (100352)
I0624 13:54:13.773980 18353 net.cpp:148] Top shape: 1 2 224 224 (100352)
I0624 13:54:13.773984 18353 net.cpp:156] Memory required for data: 179329024
I0624 13:54:13.773988 18353 layer_factory.hpp:77] Creating layer loss
I0624 13:54:13.773998 18353 net.cpp:91] Creating Layer loss
I0624 13:54:13.774003 18353 net.cpp:425] loss <- conv1_1_D_conv1_1_D_0_split_0
I0624 13:54:13.774008 18353 net.cpp:425] loss <- label_data_1_split_0
I0624 13:54:13.774014 18353 net.cpp:399] loss -> loss
…
I0625 20:16:11.536218 18777 net.cpp:313] The NetState phase (0) differed from the phase (1) specified by a rule in layer data
I0625 20:16:11.536450 18777 net.cpp:49] Initializing net from parameters: 
name: "BPnet"
state {
  phase: TRAIN
}
layer {
  name: "data"
  type: "Data"
  top: "data"
  top: "label"
  include {
    phase: TRAIN
  }
  transform_param {
    mirror: true
    mean_value: 100
    crop_h: 196
    crop_w: 256
    rotation_range: 10
    scale_jitter_range: 0.1
    contrast_jitter_range: 0.3
  }
  data_param {
    source: "data/train_lmdb"
    batch_size: 32
    backend: LMDB
  }
}
layer {
  name: "conv1_1"
  type: "Convolution"
  bottom: "data"
  top: "conv1_1"
  param {
    lr_mult: 1
    decay_mult: 1
  }
  convolution_param {
    num_output: 32
    bias_term: false
    pad: 3
    kernel_size: 7
    stride: 2
    weight_filler {
      type: "xavier"
    }
  }
}
layer {
  name: "bn1_1"
  type: "BatchNorm"
  bottom: "conv1_1"
  top: "conv1_1"
  param {
    lr_mult: 0
  }
  param {
    lr_mult: 0
  }
  param {
    lr_mult: 0
  }
  batch_norm_param {
    use_global_stats: false
  }
}
layer {
  name: "scale1_1"
  type: "Scale"
  bottom: "conv1_1"
  top: "conv1_1"
  param {
    lr_mult: 1
    decay_mult: 1
  }
  param {
    lr_mult: 1
    decay_mult: 1
  }
  scale_param {
    bias_term: true
    bias_filler {
      type: "constant"
      value: 0
    }
  }
}
layer {
  name: "relu1_1"
  type: "ReLU"
  bottom: "conv1_1"
  top: "conv1_1"
}
layer {
  name: "conv1_2"
  type: "Convolution"
  bottom: "conv1_1"
  top: "conv1_2"
  param {
    lr_mult: 1
    decay_mult: 1
  }
  convolution_param {
    num_output: 32
    bias_term: false
    pad: 1
    kernel_size: 3
    weight_filler {
      type: "xavier"
    }
  }
}
layer {
  name: "bn1_2"
  type: "BatchNorm"
  bottom: "conv1_2"
  top: "conv1_2"
  param {
    lr_mult: 0
  }
  param {
    lr_mult: 0
  }
  param {
    lr_mult: 0
  }
  batch_norm_param {
    use_global_stats: false
  }
}
layer {
  name: "scale1_2"
  type: "Scale"
  bottom: "conv1_2"
  top: "conv1_2"
  param {
    lr_mult: 1
    decay_mult: 1
  }
  param {
    lr_mult: 1
    decay_mult: 1
  }
  scale_param {
    bias_term: true
    bias_filler {
      type: "constant"
      value: 0
    }
  }
}
layer {
  name: "relu1_2"
  type: "ReLU"
  bottom: "conv1_2"
  top: "conv1_2"
}
layer {
  name: "pool1"
  type: "Pooling"
  bottom: "conv1_2"
  top: "pool1"
  pooling_param {
    pool: MAX
    kernel_size: 2
    stride: 2
  }
}
layer {
  name: "conv2_1"
  type: "Convolution"
  bottom: "pool1"
  top: "conv2_1"
  param {
    lr_mult: 1
    decay_mult: 1
  }
  convolution_param {
    num_output: 64
    bias_term: false
    pad: 1
    kernel_size: 3
    weight_filler {
      type: "xavier"
    }
  }
}
layer {
  name: "bn2_1"
  type: "BatchNorm"
  bottom: "conv2_1"
  top: "conv2_1"
  param {
    lr_mult: 0
  }
  param {
    lr_mult: 0
  }
  param {
    lr_mult: 0
  }
  batch_norm_param {
    use_global_stats: false
  }
}
layer {
  name: "scale2_1"
  type: "Scale"
  bottom: "conv2_1"
  top: "conv2_1"
  param {
    lr_mult: 1
    decay_mult: 1
  }
  param {
    lr_mult: 1
    decay_mult: 1
  }
  scale_param {
    bias_term: true
    bias_filler {
      type: "constant"
      value: 0
    }
  }
}
layer {
  name: "relu2_1"
  type: "ReLU"
  bottom: "conv2_1"
  top: "conv2_1"
}
layer {
  name: "conv2_2"
  type: "Convolution"
  bottom: "conv2_1"
  top: "conv2_2"
  param {
    lr_mult: 1
    decay_mult: 1
  }
  convolution_param {
    num_output: 64
    bias_term: false
    pad: 1
    kernel_size: 3
    weight_filler {
      type: "xavier"
    }
  }
}
layer {
  name: "bn2_2"
  type: "BatchNorm"
  bottom: "conv2_2"
  top: "conv2_2"
  param {
    lr_mult: 0
  }
  param {
    lr_mult: 0
  }
  param {
    lr_mult: 0
  }
  batch_norm_param {
    use_global_stats: false
  }
}
layer {
  name: "scale2_2"
  type: "Scale"
  bottom: "conv2_2"
  top: "conv2_2"
  param {
    lr_mult: 1
    decay_mult: 1
  }
  param {
    lr_mult: 1
    decay_mult: 1
  }
  scale_param {
    bias_term: true
    bias_filler {
      type: "constant"
      value: 0
    }
  }
}
layer {
  name: "relu2_2"
  type: "ReLU"
  bottom: "conv2_2"
  top: "conv2_2"
}
layer {
  name: "pool2"
  type: "Pooling"
  bottom: "conv2_2"
  top: "pool2"
  pooling_param {
    pool: MAX
    kernel_size: 2
    stride: 2
  }
}
layer {
  name: "conv3_1"
  type: "Convolution"
  bottom: "pool2"
  top: "conv3_1"
  param {
    lr_mult: 1
    decay_mult: 1
  }
  convolution_param {
    num_output: 128
    bias_term: false
    pad: 1
    kernel_size: 3
    weight_filler {
      type: "xavier"
    }
  }
}
layer {
  name: "bn3_1"
  type: "BatchNorm"
  bottom: "conv3_1"
  top: "conv3_1"
  param {
    lr_mult: 0
  }
  param {
    lr_mult: 0
  }
  param {
    lr_mult: 0
  }
  batch_norm_param {
    use_global_stats: false
  }
}
layer {
  name: "scale3_1"
  type: "Scale"
  bottom: "conv3_1"
  top: "conv3_1"
  param {
    lr_mult: 1
    decay_mult: 1
  }
  param {
    lr_mult: 1
    decay_mult: 1
  }
  scale_param {
    bias_term: true
    bias_filler {
      type: "constant"
      value: 0
    }
  }
}
layer {
  name: "relu3_1"
  type: "ReLU"
  bottom: "conv3_1"
  top: "conv3_1"
}
layer {
  name: "conv3_2"
  type: "Convolution"
  bottom: "conv3_1"
  top: "conv3_2"
  param {
    lr_mult: 1
    decay_mult: 1
  }
  convolution_param {
    num_output: 128
    bias_term: false
    pad: 1
    kernel_size: 3
    weight_filler {
      type: "xavier"
    }
  }
}
layer {
  name: "bn3_2"
  type: "BatchNorm"
  bottom: "conv3_2"
  top: "conv3_2"
  param {
    lr_mult: 0
  }
  param {
    lr_mult: 0
  }
  param {
    lr_mult: 0
  }
  batch_norm_param {
    use_global_stats: false
  }
}
layer {
  name: "scale3_2"
  type: "Scale"
  bottom: "conv3_2"
  top: "conv3_2"
  param {
    lr_mult: 1
    decay_mult: 1
  }
  param {
    lr_mult: 1
    decay_mult: 1
  }
  scale_param {
    bias_term: true
    bias_filler {
      type: "constant"
      value: 0
    }
  }
}
layer {
  name: "relu3_2"
  type: "ReLU"
  bottom: "conv3_2"
  top: "conv3_2"
}
layer {
  name: "pool3"
  type: "Pooling"
  bottom: "conv3_2"
  top: "pool3"
  pooling_param {
    pool: MAX
    kernel_size: 2
    stride: 2
  }
}
layer {
  name: "conv4_1"
  type: "Convolution"
  bottom: "pool3"
  top: "conv4_1"
  param {
    lr_mult: 1
    decay_mult: 1
  }
  convolution_param {
    num_output: 256
    bias_term: false
    pad: 1
    kernel_size: 3
    weight_filler {
      type: "xavier"
    }
  }
}
layer {
  name: "bn4_1"
  type: "BatchNorm"
  bottom: "conv4_1"
  top: "conv4_1"
  param {
    lr_mult: 0
  }
  param {
    lr_mult: 0
  }
  param {
    lr_mult: 0
  }
  batch_norm_param {
    use_global_stats: false
  }
}
layer {
  name: "scale4_1"
  type: "Scale"
  bottom: "conv4_1"
  top: "conv4_1"
  param {
    lr_mult: 1
    decay_mult: 1
  }
  param {
    lr_mult: 1
    decay_mult: 1
  }
  scale_param {
    bias_term: true
    bias_filler {
      type: "constant"
      value: 0
    }
  }
}
layer {
  name: "relu4_1"
  type: "ReLU"
  bottom: "conv4_1"
  top: "conv4_1"
}
layer {
  name: "conv4_2"
  type: "Convolution"
  bottom: "conv4_1"
  top: "conv4_2"
  param {
    lr_mult: 1
    decay_mult: 1
  }
  convolution_param {
    num_output: 256
    bias_term: false
    pad: 1
    kernel_size: 3
    weight_filler {
      type: "xavier"
    }
  }
}
layer {
  name: "bn4_2"
  type: "BatchNorm"
  bottom: "conv4_2"
  top: "conv4_2"
  param {
    lr_mult: 0
  }
  param {
    lr_mult: 0
  }
  param {
    lr_mult: 0
  }
  batch_norm_param {
    use_global_stats: false
  }
}
layer {
  name: "scale4_2"
  type: "Scale"
  bottom: "conv4_2"
  top: "conv4_2"
  param {
    lr_mult: 1
    decay_mult: 1
  }
  param {
    lr_mult: 1
    decay_mult: 1
  }
  scale_param {
    bias_term: true
    bias_filler {
      type: "constant"
      value: 0
    }
  }
}
layer {
  name: "relu4_2"
  type: "ReLU"
  bottom: "conv4_2"
  top: "conv4_2"
}
layer {
  name: "pool4"
  type: "Pooling"
  bottom: "conv4_2"
  top: "pool4"
  pooling_param {
    pool: MAX
    kernel_size: 2
    stride: 2
  }
}
layer {
  name: "conv5_1"
  type: "Convolution"
  bottom: "pool4"
  top: "conv5_1"
  param {
    lr_mult: 1
    decay_mult: 1
  }
  convolution_param {
    num_output: 256
    bias_term: false
    pad: 1
    kernel_size: 3
    weight_filler {
      type: "xavier"
    }
  }
}
layer {
  name: "bn5_1"
  type: "BatchNorm"
  bottom: "conv5_1"
  top: "conv5_1"
  param {
    lr_mult: 0
  }
  param {
    lr_mult: 0
  }
  param {
    lr_mult: 0
  }
  batch_norm_param {
    use_global_stats: false
  }
}
layer {
  name: "scale5_1"
  type: "Scale"
  bottom: "conv5_1"
  top: "conv5_1"
  param {
    lr_mult: 1
    decay_mult: 1
  }
  param {
    lr_mult: 1
    decay_mult: 1
  }
  scale_param {
    bias_term: true
    bias_filler {
      type: "constant"
      value: 0
    }
  }
}
layer {
  name: "relu5_1"
  type: "ReLU"
  bottom: "conv5_1"
  top: "conv5_1"
}
layer {
  name: "conv5_2"
  type: "Convolution"
  bottom: "conv5_1"
  top: "conv5_2"
  param {
    lr_mult: 1
    decay_mult: 1
  }
  convolution_param {
    num_output: 256
    bias_term: false
    pad: 1
    kernel_size: 3
    weight_filler {
      type: "xavier"
    }
  }
}
layer {
  name: "bn5_2"
  type: "BatchNorm"
  bottom: "conv5_2"
  top: "conv5_2"
  param {
    lr_mult: 0
  }
  param {
    lr_mult: 0
  }
  param {
    lr_mult: 0
  }
  batch_norm_param {
    use_global_stats: false
  }
}
layer {
  name: "scale5_2"
  type: "Scale"
  bottom: "conv5_2"
  top: "conv5_2"
  param {
    lr_mult: 1
    decay_mult: 1
  }
  param {
    lr_mult: 1
    decay_mult: 1
  }
  scale_param {
    bias_term: true
    bias_filler {
      type: "constant"
      value: 0
    }
  }
}
layer {
  name: "relu5_2"
  type: "ReLU"
  bottom: "conv5_2"
  top: "conv5_2"
}
layer {
  name: "pool5"
  type: "Pooling"
  bottom: "conv5_2"
  top: "pool5"
  pooling_param {
    pool: AVE
    stride: 1
    kernel_h: 6
    kernel_w: 8
  }
}
layer {
  name: "fc2"
  type: "InnerProduct"
  bottom: "pool5"
  top: "fc2"
  inner_product_param {
    num_output: 2
  }
}
layer {
  name: "loss"
  type: "SoftmaxWithLoss"
  bottom: "fc2"
  bottom: "label"
  top: "loss"
}
layer {
  name: "accuracy"
  type: "Accuracy"
  bottom: "fc2"
  bottom: "label"
  top: "accuracy"
}
I0625 20:16:11.536618 18777 layer_factory.hpp:77] Creating layer data
I0625 20:16:11.537236 18777 net.cpp:91] Creating Layer data
I0625 20:16:11.537246 18777 net.cpp:399] data -> data
I0625 20:16:11.537267 18777 net.cpp:399] data -> label
I0625 20:16:11.538609 18781 db_lmdb.cpp:35] Opened lmdb data/train_lmdb
I0625 20:16:11.563078 18777 data_layer.cpp:42] output data size: 32,3,196,256
I0625 20:16:11.602191 18777 net.cpp:141] Setting up data
I0625 20:16:11.602219 18777 net.cpp:148] Top shape: 32 3 196 256 (4816896)
I0625 20:16:11.602224 18777 net.cpp:148] Top shape: 32 (32)
I0625 20:16:11.602226 18777 net.cpp:156] Memory required for data: 19267712
I0625 20:16:11.602234 18777 layer_factory.hpp:77] Creating layer label_data_1_split
I0625 20:16:11.602252 18777 net.cpp:91] Creating Layer label_data_1_split
I0625 20:16:11.602255 18777 net.cpp:425] label_data_1_split <- label
I0625 20:16:11.602265 18777 net.cpp:399] label_data_1_split -> label_data_1_split_0
I0625 20:16:11.602272 18777 net.cpp:399] label_data_1_split -> label_data_1_split_1
I0625 20:16:11.602318 18777 net.cpp:141] Setting up label_data_1_split
I0625 20:16:11.602322 18777 net.cpp:148] Top shape: 32 (32)
I0625 20:16:11.602325 18777 net.cpp:148] Top shape: 32 (32)
I0625 20:16:11.602327 18777 net.cpp:156] Memory required for data: 19267968
I0625 20:16:11.602330 18777 layer_factory.hpp:77] Creating layer conv1_1
I0625 20:16:11.602344 18777 net.cpp:91] Creating Layer conv1_1
I0625 20:16:11.602358 18777 net.cpp:425] conv1_1 <- data
I0625 20:16:11.602363 18777 net.cpp:399] conv1_1 -> conv1_1
I0625 20:16:11.885005 18777 net.cpp:141] Setting up conv1_1
I0625 20:16:11.885031 18777 net.cpp:148] Top shape: 32 32 98 128 (12845056)
I0625 20:16:11.885035 18777 net.cpp:156] Memory required for data: 70648192
I0625 20:16:11.885047 18777 layer_factory.hpp:77] Creating layer bn1_1
I0625 20:16:11.885063 18777 net.cpp:91] Creating Layer bn1_1
I0625 20:16:11.885067 18777 net.cpp:425] bn1_1 <- conv1_1
I0625 20:16:11.885071 18777 net.cpp:386] bn1_1 -> conv1_1 (in-place)
I0625 20:16:11.885222 18777 net.cpp:141] Setting up bn1_1
I0625 20:16:11.885231 18777 net.cpp:148] Top shape: 32 32 98 128 (12845056)
I0625 20:16:11.885232 18777 net.cpp:156] Memory required for data: 122028416
I0625 20:16:11.885241 18777 layer_factory.hpp:77] Creating layer scale1_1
I0625 20:16:11.885251 18777 net.cpp:91] Creating Layer scale1_1
I0625 20:16:11.885252 18777 net.cpp:425] scale1_1 <- conv1_1
I0625 20:16:11.885257 18777 net.cpp:386] scale1_1 -> conv1_1 (in-place)
I0625 20:16:11.885291 18777 layer_factory.hpp:77] Creating layer scale1_1
I0625 20:16:11.885391 18777 net.cpp:141] Setting up scale1_1
I0625 20:16:11.885399 18777 net.cpp:148] Top shape: 32 32 98 128 (12845056)
I0625 20:16:11.885401 18777 net.cpp:156] Memory required for data: 173408640
I0625 20:16:11.885407 18777 layer_factory.hpp:77] Creating layer relu1_1
I0625 20:16:11.885412 18777 net.cpp:91] Creating Layer relu1_1
I0625 20:16:11.885416 18777 net.cpp:425] relu1_1 <- conv1_1
I0625 20:16:11.885418 18777 net.cpp:386] relu1_1 -> conv1_1 (in-place)
I0625 20:16:11.885560 18777 net.cpp:141] Setting up relu1_1
I0625 20:16:11.885570 18777 net.cpp:148] Top shape: 32 32 98 128 (12845056)
I0625 20:16:11.885571 18777 net.cpp:156] Memory required for data: 224788864
I0625 20:16:11.885574 18777 layer_factory.hpp:77] Creating layer conv1_2
I0625 20:16:11.885582 18777 net.cpp:91] Creating Layer conv1_2
I0625 20:16:11.885586 18777 net.cpp:425] conv1_2 <- conv1_1
I0625 20:16:11.885589 18777 net.cpp:399] conv1_2 -> conv1_2
I0625 20:16:11.886401 18777 net.cpp:141] Setting up conv1_2
I0625 20:16:11.886414 18777 net.cpp:148] Top shape: 32 32 98 128 (12845056)
I0625 20:16:11.886416 18777 net.cpp:156] Memory required for data: 276169088
I0625 20:16:11.886420 18777 layer_factory.hpp:77] Creating layer bn1_2
I0625 20:16:11.886426 18777 net.cpp:91] Creating Layer bn1_2
I0625 20:16:11.886430 18777 net.cpp:425] bn1_2 <- conv1_2
I0625 20:16:11.886433 18777 net.cpp:386] bn1_2 -> conv1_2 (in-place)
I0625 20:16:11.886569 18777 net.cpp:141] Setting up bn1_2
I0625 20:16:11.886576 18777 net.cpp:148] Top shape: 32 32 98 128 (12845056)
I0625 20:16:11.886579 18777 net.cpp:156] Memory required for data: 327549312
I0625 20:16:11.886586 18777 layer_factory.hpp:77] Creating layer scale1_2
I0625 20:16:11.886593 18777 net.cpp:91] Creating Layer scale1_2
I0625 20:16:11.886596 18777 net.cpp:425] scale1_2 <- conv1_2
I0625 20:16:11.886600 18777 net.cpp:386] scale1_2 -> conv1_2 (in-place)
I0625 20:16:11.886628 18777 layer_factory.hpp:77] Creating layer scale1_2
I0625 20:16:11.886723 18777 net.cpp:141] Setting up scale1_2
I0625 20:16:11.886730 18777 net.cpp:148] Top shape: 32 32 98 128 (12845056)
I0625 20:16:11.886732 18777 net.cpp:156] Memory required for data: 378929536
I0625 20:16:11.886736 18777 layer_factory.hpp:77] Creating layer relu1_2
I0625 20:16:11.886740 18777 net.cpp:91] Creating Layer relu1_2
I0625 20:16:11.886744 18777 net.cpp:425] relu1_2 <- conv1_2
I0625 20:16:11.886746 18777 net.cpp:386] relu1_2 -> conv1_2 (in-place)
I0625 20:16:11.886870 18777 net.cpp:141] Setting up relu1_2
I0625 20:16:11.886883 18777 net.cpp:148] Top shape: 32 32 98 128 (12845056)
I0625 20:16:11.886885 18777 net.cpp:156] Memory required for data: 430309760
I0625 20:16:11.886888 18777 layer_factory.hpp:77] Creating layer pool1
I0625 20:16:11.886893 18777 net.cpp:91] Creating Layer pool1
I0625 20:16:11.886896 18777 net.cpp:425] pool1 <- conv1_2
I0625 20:16:11.886900 18777 net.cpp:399] pool1 -> pool1
I0625 20:16:11.886943 18777 net.cpp:141] Setting up pool1
I0625 20:16:11.886965 18777 net.cpp:148] Top shape: 32 32 49 64 (3211264)
I0625 20:16:11.886966 18777 net.cpp:156] Memory required for data: 443154816
I0625 20:16:11.886970 18777 layer_factory.hpp:77] Creating layer conv2_1
I0625 20:16:11.886976 18777 net.cpp:91] Creating Layer conv2_1
I0625 20:16:11.886979 18777 net.cpp:425] conv2_1 <- pool1
I0625 20:16:11.886983 18777 net.cpp:399] conv2_1 -> conv2_1
I0625 20:16:11.888959 18777 net.cpp:141] Setting up conv2_1
I0625 20:16:11.888973 18777 net.cpp:148] Top shape: 32 64 49 64 (6422528)
I0625 20:16:11.888977 18777 net.cpp:156] Memory required for data: 468844928
I0625 20:16:11.888980 18777 layer_factory.hpp:77] Creating layer bn2_1
I0625 20:16:11.888988 18777 net.cpp:91] Creating Layer bn2_1
I0625 20:16:11.888990 18777 net.cpp:425] bn2_1 <- conv2_1
I0625 20:16:11.888995 18777 net.cpp:386] bn2_1 -> conv2_1 (in-place)
I0625 20:16:11.890203 18777 net.cpp:141] Setting up bn2_1
I0625 20:16:11.890213 18777 net.cpp:148] Top shape: 32 64 49 64 (6422528)
I0625 20:16:11.890216 18777 net.cpp:156] Memory required for data: 494535040
I0625 20:16:11.890223 18777 layer_factory.hpp:77] Creating layer scale2_1
I0625 20:16:11.890229 18777 net.cpp:91] Creating Layer scale2_1
I0625 20:16:11.890231 18777 net.cpp:425] scale2_1 <- conv2_1
I0625 20:16:11.890239 18777 net.cpp:386] scale2_1 -> conv2_1 (in-place)
I0625 20:16:11.890275 18777 layer_factory.hpp:77] Creating layer scale2_1
I0625 20:16:11.890363 18777 net.cpp:141] Setting up scale2_1
I0625 20:16:11.890369 18777 net.cpp:148] Top shape: 32 64 49 64 (6422528)
I0625 20:16:11.890372 18777 net.cpp:156] Memory required for data: 520225152
I0625 20:16:11.890379 18777 layer_factory.hpp:77] Creating layer relu2_1
I0625 20:16:11.890388 18777 net.cpp:91] Creating Layer relu2_1
I0625 20:16:11.890389 18777 net.cpp:425] relu2_1 <- conv2_1
I0625 20:16:11.890393 18777 net.cpp:386] relu2_1 -> conv2_1 (in-place)
I0625 20:16:11.893370 18777 net.cpp:141] Setting up relu2_1
I0625 20:16:11.893383 18777 net.cpp:148] Top shape: 32 64 49 64 (6422528)
I0625 20:16:11.893386 18777 net.cpp:156] Memory required for data: 545915264
I0625 20:16:11.893388 18777 layer_factory.hpp:77] Creating layer conv2_2
I0625 20:16:11.893399 18777 net.cpp:91] Creating Layer conv2_2
I0625 20:16:11.893402 18777 net.cpp:425] conv2_2 <- conv2_1
I0625 20:16:11.893406 18777 net.cpp:399] conv2_2 -> conv2_2
I0625 20:16:11.894168 18777 net.cpp:141] Setting up conv2_2
I0625 20:16:11.894179 18777 net.cpp:148] Top shape: 32 64 49 64 (6422528)
I0625 20:16:11.894183 18777 net.cpp:156] Memory required for data: 571605376
I0625 20:16:11.894187 18777 layer_factory.hpp:77] Creating layer bn2_2
I0625 20:16:11.894196 18777 net.cpp:91] Creating Layer bn2_2
I0625 20:16:11.894199 18777 net.cpp:425] bn2_2 <- conv2_2
I0625 20:16:11.894203 18777 net.cpp:386] bn2_2 -> conv2_2 (in-place)
I0625 20:16:11.894343 18777 net.cpp:141] Setting up bn2_2
I0625 20:16:11.894351 18777 net.cpp:148] Top shape: 32 64 49 64 (6422528)
I0625 20:16:11.894353 18777 net.cpp:156] Memory required for data: 597295488
I0625 20:16:11.894359 18777 layer_factory.hpp:77] Creating layer scale2_2
I0625 20:16:11.894366 18777 net.cpp:91] Creating Layer scale2_2
I0625 20:16:11.894368 18777 net.cpp:425] scale2_2 <- conv2_2
I0625 20:16:11.894372 18777 net.cpp:386] scale2_2 -> conv2_2 (in-place)
I0625 20:16:11.894407 18777 layer_factory.hpp:77] Creating layer scale2_2
I0625 20:16:11.894493 18777 net.cpp:141] Setting up scale2_2
I0625 20:16:11.894500 18777 net.cpp:148] Top shape: 32 64 49 64 (6422528)
I0625 20:16:11.894502 18777 net.cpp:156] Memory required for data: 622985600
I0625 20:16:11.894506 18777 layer_factory.hpp:77] Creating layer relu2_2
I0625 20:16:11.894512 18777 net.cpp:91] Creating Layer relu2_2
I0625 20:16:11.894515 18777 net.cpp:425] relu2_2 <- conv2_2
I0625 20:16:11.894517 18777 net.cpp:386] relu2_2 -> conv2_2 (in-place)
I0625 20:16:11.894922 18777 net.cpp:141] Setting up relu2_2
I0625 20:16:11.894934 18777 net.cpp:148] Top shape: 32 64 49 64 (6422528)
I0625 20:16:11.894937 18777 net.cpp:156] Memory required for data: 648675712
I0625 20:16:11.894950 18777 layer_factory.hpp:77] Creating layer pool2
I0625 20:16:11.894958 18777 net.cpp:91] Creating Layer pool2
I0625 20:16:11.894960 18777 net.cpp:425] pool2 <- conv2_2
I0625 20:16:11.894964 18777 net.cpp:399] pool2 -> pool2
I0625 20:16:11.895001 18777 net.cpp:141] Setting up pool2
I0625 20:16:11.895009 18777 net.cpp:148] Top shape: 32 64 25 32 (1638400)
I0625 20:16:11.895010 18777 net.cpp:156] Memory required for data: 655229312
I0625 20:16:11.895012 18777 layer_factory.hpp:77] Creating layer conv3_1
I0625 20:16:11.895020 18777 net.cpp:91] Creating Layer conv3_1
I0625 20:16:11.895023 18777 net.cpp:425] conv3_1 <- pool2
I0625 20:16:11.895027 18777 net.cpp:399] conv3_1 -> conv3_1
I0625 20:16:11.897341 18777 net.cpp:141] Setting up conv3_1
I0625 20:16:11.897353 18777 net.cpp:148] Top shape: 32 128 25 32 (3276800)
I0625 20:16:11.897356 18777 net.cpp:156] Memory required for data: 668336512
I0625 20:16:11.897361 18777 layer_factory.hpp:77] Creating layer bn3_1
I0625 20:16:11.897368 18777 net.cpp:91] Creating Layer bn3_1
I0625 20:16:11.897372 18777 net.cpp:425] bn3_1 <- conv3_1
I0625 20:16:11.897375 18777 net.cpp:386] bn3_1 -> conv3_1 (in-place)
I0625 20:16:11.898613 18777 net.cpp:141] Setting up bn3_1
I0625 20:16:11.898625 18777 net.cpp:148] Top shape: 32 128 25 32 (3276800)
I0625 20:16:11.898627 18777 net.cpp:156] Memory required for data: 681443712
I0625 20:16:11.898633 18777 layer_factory.hpp:77] Creating layer scale3_1
I0625 20:16:11.898640 18777 net.cpp:91] Creating Layer scale3_1
I0625 20:16:11.898643 18777 net.cpp:425] scale3_1 <- conv3_1
I0625 20:16:11.898649 18777 net.cpp:386] scale3_1 -> conv3_1 (in-place)
I0625 20:16:11.898687 18777 layer_factory.hpp:77] Creating layer scale3_1
I0625 20:16:11.898769 18777 net.cpp:141] Setting up scale3_1
I0625 20:16:11.898777 18777 net.cpp:148] Top shape: 32 128 25 32 (3276800)
I0625 20:16:11.898779 18777 net.cpp:156] Memory required for data: 694550912
I0625 20:16:11.898783 18777 layer_factory.hpp:77] Creating layer relu3_1
I0625 20:16:11.898787 18777 net.cpp:91] Creating Layer relu3_1
I0625 20:16:11.898792 18777 net.cpp:425] relu3_1 <- conv3_1
I0625 20:16:11.898795 18777 net.cpp:386] relu3_1 -> conv3_1 (in-place)
I0625 20:16:11.898928 18777 net.cpp:141] Setting up relu3_1
I0625 20:16:11.898939 18777 net.cpp:148] Top shape: 32 128 25 32 (3276800)
I0625 20:16:11.898943 18777 net.cpp:156] Memory required for data: 707658112
I0625 20:16:11.898947 18777 layer_factory.hpp:77] Creating layer conv3_2
I0625 20:16:11.898960 18777 net.cpp:91] Creating Layer conv3_2
I0625 20:16:11.898965 18777 net.cpp:425] conv3_2 <- conv3_1
I0625 20:16:11.898974 18777 net.cpp:399] conv3_2 -> conv3_2
I0625 20:16:11.900918 18777 net.cpp:141] Setting up conv3_2
I0625 20:16:11.900933 18777 net.cpp:148] Top shape: 32 128 25 32 (3276800)
I0625 20:16:11.900936 18777 net.cpp:156] Memory required for data: 720765312
I0625 20:16:11.900943 18777 layer_factory.hpp:77] Creating layer bn3_2
I0625 20:16:11.900954 18777 net.cpp:91] Creating Layer bn3_2
I0625 20:16:11.900959 18777 net.cpp:425] bn3_2 <- conv3_2
I0625 20:16:11.900969 18777 net.cpp:386] bn3_2 -> conv3_2 (in-place)
I0625 20:16:11.901129 18777 net.cpp:141] Setting up bn3_2
I0625 20:16:11.901139 18777 net.cpp:148] Top shape: 32 128 25 32 (3276800)
I0625 20:16:11.901142 18777 net.cpp:156] Memory required for data: 733872512
I0625 20:16:11.901161 18777 layer_factory.hpp:77] Creating layer scale3_2
I0625 20:16:11.901171 18777 net.cpp:91] Creating Layer scale3_2
I0625 20:16:11.901180 18777 net.cpp:425] scale3_2 <- conv3_2
I0625 20:16:11.901187 18777 net.cpp:386] scale3_2 -> conv3_2 (in-place)
I0625 20:16:11.901235 18777 layer_factory.hpp:77] Creating layer scale3_2
I0625 20:16:11.901334 18777 net.cpp:141] Setting up scale3_2
I0625 20:16:11.901342 18777 net.cpp:148] Top shape: 32 128 25 32 (3276800)
I0625 20:16:11.901346 18777 net.cpp:156] Memory required for data: 746979712
I0625 20:16:11.901353 18777 layer_factory.hpp:77] Creating layer relu3_2
I0625 20:16:11.901361 18777 net.cpp:91] Creating Layer relu3_2
I0625 20:16:11.901365 18777 net.cpp:425] relu3_2 <- conv3_2
I0625 20:16:11.901386 18777 net.cpp:386] relu3_2 -> conv3_2 (in-place)
I0625 20:16:11.901540 18777 net.cpp:141] Setting up relu3_2
I0625 20:16:11.901551 18777 net.cpp:148] Top shape: 32 128 25 32 (3276800)
I0625 20:16:11.901556 18777 net.cpp:156] Memory required for data: 760086912
I0625 20:16:11.901561 18777 layer_factory.hpp:77] Creating layer pool3
I0625 20:16:11.901568 18777 net.cpp:91] Creating Layer pool3
I0625 20:16:11.901573 18777 net.cpp:425] pool3 <- conv3_2
I0625 20:16:11.901582 18777 net.cpp:399] pool3 -> pool3
I0625 20:16:11.901626 18777 net.cpp:141] Setting up pool3
I0625 20:16:11.901635 18777 net.cpp:148] Top shape: 32 128 13 16 (851968)
I0625 20:16:11.901638 18777 net.cpp:156] Memory required for data: 763494784
I0625 20:16:11.901643 18777 layer_factory.hpp:77] Creating layer conv4_1
I0625 20:16:11.901656 18777 net.cpp:91] Creating Layer conv4_1
I0625 20:16:11.901660 18777 net.cpp:425] conv4_1 <- pool3
I0625 20:16:11.901669 18777 net.cpp:399] conv4_1 -> conv4_1
I0625 20:16:11.904443 18777 net.cpp:141] Setting up conv4_1
I0625 20:16:11.904458 18777 net.cpp:148] Top shape: 32 256 13 16 (1703936)
I0625 20:16:11.904463 18777 net.cpp:156] Memory required for data: 770310528
I0625 20:16:11.904469 18777 layer_factory.hpp:77] Creating layer bn4_1
I0625 20:16:11.904479 18777 net.cpp:91] Creating Layer bn4_1
I0625 20:16:11.904485 18777 net.cpp:425] bn4_1 <- conv4_1
I0625 20:16:11.904494 18777 net.cpp:386] bn4_1 -> conv4_1 (in-place)
I0625 20:16:11.904650 18777 net.cpp:141] Setting up bn4_1
I0625 20:16:11.904660 18777 net.cpp:148] Top shape: 32 256 13 16 (1703936)
I0625 20:16:11.904664 18777 net.cpp:156] Memory required for data: 777126272
I0625 20:16:11.904673 18777 layer_factory.hpp:77] Creating layer scale4_1
I0625 20:16:11.904683 18777 net.cpp:91] Creating Layer scale4_1
I0625 20:16:11.904687 18777 net.cpp:425] scale4_1 <- conv4_1
I0625 20:16:11.904698 18777 net.cpp:386] scale4_1 -> conv4_1 (in-place)
I0625 20:16:11.904743 18777 layer_factory.hpp:77] Creating layer scale4_1
I0625 20:16:11.904840 18777 net.cpp:141] Setting up scale4_1
I0625 20:16:11.904850 18777 net.cpp:148] Top shape: 32 256 13 16 (1703936)
I0625 20:16:11.904853 18777 net.cpp:156] Memory required for data: 783942016
I0625 20:16:11.904860 18777 layer_factory.hpp:77] Creating layer relu4_1
I0625 20:16:11.904871 18777 net.cpp:91] Creating Layer relu4_1
I0625 20:16:11.904876 18777 net.cpp:425] relu4_1 <- conv4_1
I0625 20:16:11.904884 18777 net.cpp:386] relu4_1 -> conv4_1 (in-place)
I0625 20:16:11.905035 18777 net.cpp:141] Setting up relu4_1
I0625 20:16:11.905047 18777 net.cpp:148] Top shape: 32 256 13 16 (1703936)
I0625 20:16:11.905051 18777 net.cpp:156] Memory required for data: 790757760
I0625 20:16:11.905056 18777 layer_factory.hpp:77] Creating layer conv4_2
I0625 20:16:11.905066 18777 net.cpp:91] Creating Layer conv4_2
I0625 20:16:11.905071 18777 net.cpp:425] conv4_2 <- conv4_1
I0625 20:16:11.905079 18777 net.cpp:399] conv4_2 -> conv4_2
I0625 20:16:11.910622 18777 net.cpp:141] Setting up conv4_2
I0625 20:16:11.910640 18777 net.cpp:148] Top shape: 32 256 13 16 (1703936)
I0625 20:16:11.910645 18777 net.cpp:156] Memory required for data: 797573504
I0625 20:16:11.910652 18777 layer_factory.hpp:77] Creating layer bn4_2
I0625 20:16:11.910662 18777 net.cpp:91] Creating Layer bn4_2
I0625 20:16:11.910668 18777 net.cpp:425] bn4_2 <- conv4_2
I0625 20:16:11.910677 18777 net.cpp:386] bn4_2 -> conv4_2 (in-place)
I0625 20:16:11.910837 18777 net.cpp:141] Setting up bn4_2
I0625 20:16:11.910848 18777 net.cpp:148] Top shape: 32 256 13 16 (1703936)
I0625 20:16:11.910852 18777 net.cpp:156] Memory required for data: 804389248
I0625 20:16:11.910861 18777 layer_factory.hpp:77] Creating layer scale4_2
I0625 20:16:11.910871 18777 net.cpp:91] Creating Layer scale4_2
I0625 20:16:11.910876 18777 net.cpp:425] scale4_2 <- conv4_2
I0625 20:16:11.910887 18777 net.cpp:386] scale4_2 -> conv4_2 (in-place)
I0625 20:16:11.910931 18777 layer_factory.hpp:77] Creating layer scale4_2
I0625 20:16:11.911027 18777 net.cpp:141] Setting up scale4_2
I0625 20:16:11.911046 18777 net.cpp:148] Top shape: 32 256 13 16 (1703936)
I0625 20:16:11.911051 18777 net.cpp:156] Memory required for data: 811204992
I0625 20:16:11.911058 18777 layer_factory.hpp:77] Creating layer relu4_2
I0625 20:16:11.911067 18777 net.cpp:91] Creating Layer relu4_2
I0625 20:16:11.911070 18777 net.cpp:425] relu4_2 <- conv4_2
I0625 20:16:11.911077 18777 net.cpp:386] relu4_2 -> conv4_2 (in-place)
I0625 20:16:11.911234 18777 net.cpp:141] Setting up relu4_2
I0625 20:16:11.911247 18777 net.cpp:148] Top shape: 32 256 13 16 (1703936)
I0625 20:16:11.911250 18777 net.cpp:156] Memory required for data: 818020736
I0625 20:16:11.911254 18777 layer_factory.hpp:77] Creating layer pool4
I0625 20:16:11.911264 18777 net.cpp:91] Creating Layer pool4
I0625 20:16:11.911269 18777 net.cpp:425] pool4 <- conv4_2
I0625 20:16:11.911276 18777 net.cpp:399] pool4 -> pool4
I0625 20:16:11.911322 18777 net.cpp:141] Setting up pool4
I0625 20:16:11.911331 18777 net.cpp:148] Top shape: 32 256 7 8 (458752)
I0625 20:16:11.911335 18777 net.cpp:156] Memory required for data: 819855744
I0625 20:16:11.911339 18777 layer_factory.hpp:77] Creating layer conv5_1
I0625 20:16:11.911351 18777 net.cpp:91] Creating Layer conv5_1
I0625 20:16:11.911355 18777 net.cpp:425] conv5_1 <- pool4
I0625 20:16:11.911363 18777 net.cpp:399] conv5_1 -> conv5_1
I0625 20:16:11.916949 18777 net.cpp:141] Setting up conv5_1
I0625 20:16:11.916966 18777 net.cpp:148] Top shape: 32 256 7 8 (458752)
I0625 20:16:11.916970 18777 net.cpp:156] Memory required for data: 821690752
I0625 20:16:11.916977 18777 layer_factory.hpp:77] Creating layer bn5_1
I0625 20:16:11.916990 18777 net.cpp:91] Creating Layer bn5_1
I0625 20:16:11.916995 18777 net.cpp:425] bn5_1 <- conv5_1
I0625 20:16:11.917003 18777 net.cpp:386] bn5_1 -> conv5_1 (in-place)
I0625 20:16:11.917165 18777 net.cpp:141] Setting up bn5_1
I0625 20:16:11.917176 18777 net.cpp:148] Top shape: 32 256 7 8 (458752)
I0625 20:16:11.917179 18777 net.cpp:156] Memory required for data: 823525760
I0625 20:16:11.917188 18777 layer_factory.hpp:77] Creating layer scale5_1
I0625 20:16:11.917198 18777 net.cpp:91] Creating Layer scale5_1
I0625 20:16:11.917203 18777 net.cpp:425] scale5_1 <- conv5_1
I0625 20:16:11.917212 18777 net.cpp:386] scale5_1 -> conv5_1 (in-place)
I0625 20:16:11.917258 18777 layer_factory.hpp:77] Creating layer scale5_1
I0625 20:16:11.917358 18777 net.cpp:141] Setting up scale5_1
I0625 20:16:11.917367 18777 net.cpp:148] Top shape: 32 256 7 8 (458752)
I0625 20:16:11.917371 18777 net.cpp:156] Memory required for data: 825360768
I0625 20:16:11.917378 18777 layer_factory.hpp:77] Creating layer relu5_1
I0625 20:16:11.917387 18777 net.cpp:91] Creating Layer relu5_1
I0625 20:16:11.917390 18777 net.cpp:425] relu5_1 <- conv5_1
I0625 20:16:11.917397 18777 net.cpp:386] relu5_1 -> conv5_1 (in-place)
I0625 20:16:11.917870 18777 net.cpp:141] Setting up relu5_1
I0625 20:16:11.917882 18777 net.cpp:148] Top shape: 32 256 7 8 (458752)
I0625 20:16:11.917887 18777 net.cpp:156] Memory required for data: 827195776
I0625 20:16:11.917891 18777 layer_factory.hpp:77] Creating layer conv5_2
I0625 20:16:11.917906 18777 net.cpp:91] Creating Layer conv5_2
I0625 20:16:11.917912 18777 net.cpp:425] conv5_2 <- conv5_1
I0625 20:16:11.917920 18777 net.cpp:399] conv5_2 -> conv5_2
I0625 20:16:11.923346 18777 net.cpp:141] Setting up conv5_2
I0625 20:16:11.923364 18777 net.cpp:148] Top shape: 32 256 7 8 (458752)
I0625 20:16:11.923369 18777 net.cpp:156] Memory required for data: 829030784
I0625 20:16:11.923377 18777 layer_factory.hpp:77] Creating layer bn5_2
I0625 20:16:11.923388 18777 net.cpp:91] Creating Layer bn5_2
I0625 20:16:11.923394 18777 net.cpp:425] bn5_2 <- conv5_2
I0625 20:16:11.923403 18777 net.cpp:386] bn5_2 -> conv5_2 (in-place)
I0625 20:16:11.923575 18777 net.cpp:141] Setting up bn5_2
I0625 20:16:11.923586 18777 net.cpp:148] Top shape: 32 256 7 8 (458752)
I0625 20:16:11.923590 18777 net.cpp:156] Memory required for data: 830865792
I0625 20:16:11.923599 18777 layer_factory.hpp:77] Creating layer scale5_2
I0625 20:16:11.923609 18777 net.cpp:91] Creating Layer scale5_2
I0625 20:16:11.923629 18777 net.cpp:425] scale5_2 <- conv5_2
I0625 20:16:11.923640 18777 net.cpp:386] scale5_2 -> conv5_2 (in-place)
I0625 20:16:11.923686 18777 layer_factory.hpp:77] Creating layer scale5_2
I0625 20:16:11.923787 18777 net.cpp:141] Setting up scale5_2
I0625 20:16:11.923799 18777 net.cpp:148] Top shape: 32 256 7 8 (458752)
I0625 20:16:11.923802 18777 net.cpp:156] Memory required for data: 832700800
I0625 20:16:11.923810 18777 layer_factory.hpp:77] Creating layer relu5_2
I0625 20:16:11.923817 18777 net.cpp:91] Creating Layer relu5_2
I0625 20:16:11.923821 18777 net.cpp:425] relu5_2 <- conv5_2
I0625 20:16:11.923827 18777 net.cpp:386] relu5_2 -> conv5_2 (in-place)
I0625 20:16:11.924247 18777 net.cpp:141] Setting up relu5_2
I0625 20:16:11.924263 18777 net.cpp:148] Top shape: 32 256 7 8 (458752)
I0625 20:16:11.924268 18777 net.cpp:156] Memory required for data: 834535808
I0625 20:16:11.924271 18777 layer_factory.hpp:77] Creating layer pool5
I0625 20:16:11.924280 18777 net.cpp:91] Creating Layer pool5
I0625 20:16:11.924285 18777 net.cpp:425] pool5 <- conv5_2
I0625 20:16:11.924293 18777 net.cpp:399] pool5 -> pool5
I0625 20:16:11.924466 18777 net.cpp:141] Setting up pool5
I0625 20:16:11.924479 18777 net.cpp:148] Top shape: 32 256 2 1 (16384)
I0625 20:16:11.924482 18777 net.cpp:156] Memory required for data: 834601344
I0625 20:16:11.924486 18777 layer_factory.hpp:77] Creating layer fc2
I0625 20:16:11.924494 18777 net.cpp:91] Creating Layer fc2
I0625 20:16:11.924499 18777 net.cpp:425] fc2 <- pool5
I0625 20:16:11.924510 18777 net.cpp:399] fc2 -> fc2
I0625 20:16:11.924623 18777 net.cpp:141] Setting up fc2
I0625 20:16:11.924633 18777 net.cpp:148] Top shape: 32 2 (64)
I0625 20:16:11.924636 18777 net.cpp:156] Memory required for data: 834601600
I0625 20:16:11.924644 18777 layer_factory.hpp:77] Creating layer fc2_fc2_0_split
I0625 20:16:11.924652 18777 net.cpp:91] Creating Layer fc2_fc2_0_split
I0625 20:16:11.924656 18777 net.cpp:425] fc2_fc2_0_split <- fc2
I0625 20:16:11.924664 18777 net.cpp:399] fc2_fc2_0_split -> fc2_fc2_0_split_0
I0625 20:16:11.924672 18777 net.cpp:399] fc2_fc2_0_split -> fc2_fc2_0_split_1
I0625 20:16:11.924711 18777 net.cpp:141] Setting up fc2_fc2_0_split
I0625 20:16:11.924721 18777 net.cpp:148] Top shape: 32 2 (64)
I0625 20:16:11.924726 18777 net.cpp:148] Top shape: 32 2 (64)
I0625 20:16:11.924731 18777 net.cpp:156] Memory required for data: 834602112
I0625 20:16:11.924734 18777 layer_factory.hpp:77] Creating layer loss
I0625 20:16:11.924741 18777 net.cpp:91] Creating Layer loss
I0625 20:16:11.924746 18777 net.cpp:425] loss <- fc2_fc2_0_split_0
I0625 20:16:11.924751 18777 net.cpp:425] loss <- label_data_1_split_0
I0625 20:16:11.924757 18777 net.cpp:399] loss -> loss
…
I0625 20:16:11.926182 18777 solver.cpp:181] Creating test net (#0) specified by net file: models/bpnet/train_val.prototxt
I0625 20:16:11.926244 18777 net.cpp:313] The NetState phase (1) differed from the phase (0) specified by a rule in layer data
I0625 20:16:11.926471 18777 net.cpp:49] Initializing net from parameters: 
name: "BPnet"
state {
  phase: TEST
}
layer {
  name: "data"
  type: "Data"
  top: "data"
  top: "label"
  include {
    phase: TEST
  }
  transform_param {
    mirror: false
    mean_value: 100
    crop_h: 196
    crop_w: 256
  }
  data_param {
    source: "data/val_lmdb"
    batch_size: 64
    backend: LMDB
  }
}
layer {
  name: "conv1_1"
  type: "Convolution"
  bottom: "data"
  top: "conv1_1"
  param {
    lr_mult: 1
    decay_mult: 1
  }
  convolution_param {
    num_output: 32
    bias_term: false
    pad: 3
    kernel_size: 7
    stride: 2
    weight_filler {
      type: "xavier"
    }
  }
}
layer {
  name: "bn1_1"
  type: "BatchNorm"
  bottom: "conv1_1"
  top: "conv1_1"
  param {
    lr_mult: 0
  }
  param {
    lr_mult: 0
  }
  param {
    lr_mult: 0
  }
  batch_norm_param {
    use_global_stats: false
  }
}
layer {
  name: "scale1_1"
  type: "Scale"
  bottom: "conv1_1"
  top: "conv1_1"
  param {
    lr_mult: 1
    decay_mult: 1
  }
  param {
    lr_mult: 1
    decay_mult: 1
  }
  scale_param {
    bias_term: true
    bias_filler {
      type: "constant"
      value: 0
    }
  }
}
layer {
  name: "relu1_1"
  type: "ReLU"
  bottom: "conv1_1"
  top: "conv1_1"
}
layer {
  name: "conv1_2"
  type: "Convolution"
  bottom: "conv1_1"
  top: "conv1_2"
  param {
    lr_mult: 1
    decay_mult: 1
  }
  convolution_param {
    num_output: 32
    bias_term: false
    pad: 1
    kernel_size: 3
    weight_filler {
      type: "xavier"
    }
  }
}
layer {
  name: "bn1_2"
  type: "BatchNorm"
  bottom: "conv1_2"
  top: "conv1_2"
  param {
    lr_mult: 0
  }
  param {
    lr_mult: 0
  }
  param {
    lr_mult: 0
  }
  batch_norm_param {
    use_global_stats: false
  }
}
layer {
  name: "scale1_2"
  type: "Scale"
  bottom: "conv1_2"
  top: "conv1_2"
  param {
    lr_mult: 1
    decay_mult: 1
  }
  param {
    lr_mult: 1
    decay_mult: 1
  }
  scale_param {
    bias_term: true
    bias_filler {
      type: "constant"
      value: 0
    }
  }
}
layer {
  name: "relu1_2"
  type: "ReLU"
  bottom: "conv1_2"
  top: "conv1_2"
}
layer {
  name: "pool1"
  type: "Pooling"
  bottom: "conv1_2"
  top: "pool1"
  pooling_param {
    pool: MAX
    kernel_size: 2
    stride: 2
  }
}
layer {
  name: "conv2_1"
  type: "Convolution"
  bottom: "pool1"
  top: "conv2_1"
  param {
    lr_mult: 1
    decay_mult: 1
  }
  convolution_param {
    num_output: 64
    bias_term: false
    pad: 1
    kernel_size: 3
    weight_filler {
      type: "xavier"
    }
  }
}
layer {
  name: "bn2_1"
  type: "BatchNorm"
  bottom: "conv2_1"
  top: "conv2_1"
  param {
    lr_mult: 0
  }
  param {
    lr_mult: 0
  }
  param {
    lr_mult: 0
  }
  batch_norm_param {
    use_global_stats: false
  }
}
layer {
  name: "scale2_1"
  type: "Scale"
  bottom: "conv2_1"
  top: "conv2_1"
  param {
    lr_mult: 1
    decay_mult: 1
  }
  param {
    lr_mult: 1
    decay_mult: 1
  }
  scale_param {
    bias_term: true
    bias_filler {
      type: "constant"
      value: 0
    }
  }
}
layer {
  name: "relu2_1"
  type: "ReLU"
  bottom: "conv2_1"
  top: "conv2_1"
}
layer {
  name: "conv2_2"
  type: "Convolution"
  bottom: "conv2_1"
  top: "conv2_2"
  param {
    lr_mult: 1
    decay_mult: 1
  }
  convolution_param {
    num_output: 64
    bias_term: false
    pad: 1
    kernel_size: 3
    weight_filler {
      type: "xavier"
    }
  }
}
layer {
  name: "bn2_2"
  type: "BatchNorm"
  bottom: "conv2_2"
  top: "conv2_2"
  param {
    lr_mult: 0
  }
  param {
    lr_mult: 0
  }
  param {
    lr_mult: 0
  }
  batch_norm_param {
    use_global_stats: false
  }
}
layer {
  name: "scale2_2"
  type: "Scale"
  bottom: "conv2_2"
  top: "conv2_2"
  param {
    lr_mult: 1
    decay_mult: 1
  }
  param {
    lr_mult: 1
    decay_mult: 1
  }
  scale_param {
    bias_term: true
    bias_filler {
      type: "constant"
      value: 0
    }
  }
}
layer {
  name: "relu2_2"
  type: "ReLU"
  bottom: "conv2_2"
  top: "conv2_2"
}
layer {
  name: "pool2"
  type: "Pooling"
  bottom: "conv2_2"
  top: "pool2"
  pooling_param {
    pool: MAX
    kernel_size: 2
    stride: 2
  }
}
layer {
  name: "conv3_1"
  type: "Convolution"
  bottom: "pool2"
  top: "conv3_1"
  param {
    lr_mult: 1
    decay_mult: 1
  }
  convolution_param {
    num_output: 128
    bias_term: false
    pad: 1
    kernel_size: 3
    weight_filler {
      type: "xavier"
    }
  }
}
layer {
  name: "bn3_1"
  type: "BatchNorm"
  bottom: "conv3_1"
  top: "conv3_1"
  param {
    lr_mult: 0
  }
  param {
    lr_mult: 0
  }
  param {
    lr_mult: 0
  }
  batch_norm_param {
    use_global_stats: false
  }
}
layer {
  name: "scale3_1"
  type: "Scale"
  bottom: "conv3_1"
  top: "conv3_1"
  param {
    lr_mult: 1
    decay_mult: 1
  }
  param {
    lr_mult: 1
    decay_mult: 1
  }
  scale_param {
    bias_term: true
    bias_filler {
      type: "constant"
      value: 0
    }
  }
}
layer {
  name: "relu3_1"
  type: "ReLU"
  bottom: "conv3_1"
  top: "conv3_1"
}
layer {
  name: "conv3_2"
  type: "Convolution"
  bottom: "conv3_1"
  top: "conv3_2"
  param {
    lr_mult: 1
    decay_mult: 1
  }
  convolution_param {
    num_output: 128
    bias_term: false
    pad: 1
    kernel_size: 3
    weight_filler {
      type: "xavier"
    }
  }
}
layer {
  name: "bn3_2"
  type: "BatchNorm"
  bottom: "conv3_2"
  top: "conv3_2"
  param {
    lr_mult: 0
  }
  param {
    lr_mult: 0
  }
  param {
    lr_mult: 0
  }
  batch_norm_param {
    use_global_stats: false
  }
}
layer {
  name: "scale3_2"
  type: "Scale"
  bottom: "conv3_2"
  top: "conv3_2"
  param {
    lr_mult: 1
    decay_mult: 1
  }
  param {
    lr_mult: 1
    decay_mult: 1
  }
  scale_param {
    bias_term: true
    bias_filler {
      type: "constant"
      value: 0
    }
  }
}
layer {
  name: "relu3_2"
  type: "ReLU"
  bottom: "conv3_2"
  top: "conv3_2"
}
layer {
  name: "pool3"
  type: "Pooling"
  bottom: "conv3_2"
  top: "pool3"
  pooling_param {
    pool: MAX
    kernel_size: 2
    stride: 2
  }
}
layer {
  name: "conv4_1"
  type: "Convolution"
  bottom: "pool3"
  top: "conv4_1"
  param {
    lr_mult: 1
    decay_mult: 1
  }
  convolution_param {
    num_output: 256
    bias_term: false
    pad: 1
    kernel_size: 3
    weight_filler {
      type: "xavier"
    }
  }
}
layer {
  name: "bn4_1"
  type: "BatchNorm"
  bottom: "conv4_1"
  top: "conv4_1"
  param {
    lr_mult: 0
  }
  param {
    lr_mult: 0
  }
  param {
    lr_mult: 0
  }
  batch_norm_param {
    use_global_stats: false
  }
}
layer {
  name: "scale4_1"
  type: "Scale"
  bottom: "conv4_1"
  top: "conv4_1"
  param {
    lr_mult: 1
    decay_mult: 1
  }
  param {
    lr_mult: 1
    decay_mult: 1
  }
  scale_param {
    bias_term: true
    bias_filler {
      type: "constant"
      value: 0
    }
  }
}
layer {
  name: "relu4_1"
  type: "ReLU"
  bottom: "conv4_1"
  top: "conv4_1"
}
layer {
  name: "conv4_2"
  type: "Convolution"
  bottom: "conv4_1"
  top: "conv4_2"
  param {
    lr_mult: 1
    decay_mult: 1
  }
  convolution_param {
    num_output: 256
    bias_term: false
    pad: 1
    kernel_size: 3
    weight_filler {
      type: "xavier"
    }
  }
}
layer {
  name: "bn4_2"
  type: "BatchNorm"
  bottom: "conv4_2"
  top: "conv4_2"
  param {
    lr_mult: 0
  }
  param {
    lr_mult: 0
  }
  param {
    lr_mult: 0
  }
  batch_norm_param {
    use_global_stats: false
  }
}
layer {
  name: "scale4_2"
  type: "Scale"
  bottom: "conv4_2"
  top: "conv4_2"
  param {
    lr_mult: 1
    decay_mult: 1
  }
  param {
    lr_mult: 1
    decay_mult: 1
  }
  scale_param {
    bias_term: true
    bias_filler {
      type: "constant"
      value: 0
    }
  }
}
layer {
  name: "relu4_2"
  type: "ReLU"
  bottom: "conv4_2"
  top: "conv4_2"
}
layer {
  name: "pool4"
  type: "Pooling"
  bottom: "conv4_2"
  top: "pool4"
  pooling_param {
    pool: MAX
    kernel_size: 2
    stride: 2
  }
}
layer {
  name: "conv5_1"
  type: "Convolution"
  bottom: "pool4"
  top: "conv5_1"
  param {
    lr_mult: 1
    decay_mult: 1
  }
  convolution_param {
    num_output: 256
    bias_term: false
    pad: 1
    kernel_size: 3
    weight_filler {
      type: "xavier"
    }
  }
}
layer {
  name: "bn5_1"
  type: "BatchNorm"
  bottom: "conv5_1"
  top: "conv5_1"
  param {
    lr_mult: 0
  }
  param {
    lr_mult: 0
  }
  param {
    lr_mult: 0
  }
  batch_norm_param {
    use_global_stats: false
  }
}
layer {
  name: "scale5_1"
  type: "Scale"
  bottom: "conv5_1"
  top: "conv5_1"
  param {
    lr_mult: 1
    decay_mult: 1
  }
  param {
    lr_mult: 1
    decay_mult: 1
  }
  scale_param {
    bias_term: true
    bias_filler {
      type: "constant"
      value: 0
    }
  }
}
layer {
  name: "relu5_1"
  type: "ReLU"
  bottom: "conv5_1"
  top: "conv5_1"
}
layer {
  name: "conv5_2"
  type: "Convolution"
  bottom: "conv5_1"
  top: "conv5_2"
  param {
    lr_mult: 1
    decay_mult: 1
  }
  convolution_param {
    num_output: 256
    bias_term: false
    pad: 1
    kernel_size: 3
    weight_filler {
      type: "xavier"
    }
  }
}
layer {
  name: "bn5_2"
  type: "BatchNorm"
  bottom: "conv5_2"
  top: "conv5_2"
  param {
    lr_mult: 0
  }
  param {
    lr_mult: 0
  }
  param {
    lr_mult: 0
  }
  batch_norm_param {
    use_global_stats: false
  }
}
layer {
  name: "scale5_2"
  type: "Scale"
  bottom: "conv5_2"
  top: "conv5_2"
  param {
    lr_mult: 1
    decay_mult: 1
  }
  param {
    lr_mult: 1
    decay_mult: 1
  }
  scale_param {
    bias_term: true
    bias_filler {
      type: "constant"
      value: 0
    }
  }
}
layer {
  name: "relu5_2"
  type: "ReLU"
  bottom: "conv5_2"
  top: "conv5_2"
}
layer {
  name: "pool5"
  type: "Pooling"
  bottom: "conv5_2"
  top: "pool5"
  pooling_param {
    pool: AVE
    stride: 1
    kernel_h: 6
    kernel_w: 8
  }
}
layer {
  name: "fc2"
  type: "InnerProduct"
  bottom: "pool5"
  top: "fc2"
  inner_product_param {
    num_output: 2
  }
}
layer {
  name: "loss"
  type: "SoftmaxWithLoss"
  bottom: "fc2"
  bottom: "label"
  top: "loss"
}
layer {
  name: "accuracy"
  type: "Accuracy"
  bottom: "fc2"
  bottom: "label"
  top: "accuracy"
}
I0625 20:16:11.926697 18777 layer_factory.hpp:77] Creating layer data
I0625 20:16:11.926806 18777 net.cpp:91] Creating Layer data
I0625 20:16:11.926816 18777 net.cpp:399] data -> data
I0625 20:16:11.926827 18777 net.cpp:399] data -> label
I0625 20:16:11.929425 18790 db_lmdb.cpp:35] Opened lmdb data/val_lmdb
I0625 20:16:11.929807 18777 data_layer.cpp:42] output data size: 64,3,196,256
I0625 20:16:12.009420 18777 net.cpp:141] Setting up data
I0625 20:16:12.009446 18777 net.cpp:148] Top shape: 64 3 196 256 (9633792)
I0625 20:16:12.009476 18777 net.cpp:148] Top shape: 64 (64)
I0625 20:16:12.009481 18777 net.cpp:156] Memory required for data: 38535424
I0625 20:16:12.009490 18777 layer_factory.hpp:77] Creating layer label_data_1_split
I0625 20:16:12.009510 18777 net.cpp:91] Creating Layer label_data_1_split
I0625 20:16:12.009517 18777 net.cpp:425] label_data_1_split <- label
I0625 20:16:12.009526 18777 net.cpp:399] label_data_1_split -> label_data_1_split_0
I0625 20:16:12.009539 18777 net.cpp:399] label_data_1_split -> label_data_1_split_1
I0625 20:16:12.009603 18777 net.cpp:141] Setting up label_data_1_split
I0625 20:16:12.009613 18777 net.cpp:148] Top shape: 64 (64)
I0625 20:16:12.009618 18777 net.cpp:148] Top shape: 64 (64)
I0625 20:16:12.009621 18777 net.cpp:156] Memory required for data: 38535936
I0625 20:16:12.009625 18777 layer_factory.hpp:77] Creating layer conv1_1
I0625 20:16:12.009644 18777 net.cpp:91] Creating Layer conv1_1
I0625 20:16:12.009650 18777 net.cpp:425] conv1_1 <- data
I0625 20:16:12.009659 18777 net.cpp:399] conv1_1 -> conv1_1
I0625 20:16:12.010720 18777 net.cpp:141] Setting up conv1_1
I0625 20:16:12.010740 18777 net.cpp:148] Top shape: 64 32 98 128 (25690112)
I0625 20:16:12.010745 18777 net.cpp:156] Memory required for data: 141296384
I0625 20:16:12.010754 18777 layer_factory.hpp:77] Creating layer bn1_1
I0625 20:16:12.010768 18777 net.cpp:91] Creating Layer bn1_1
I0625 20:16:12.010773 18777 net.cpp:425] bn1_1 <- conv1_1
I0625 20:16:12.010783 18777 net.cpp:386] bn1_1 -> conv1_1 (in-place)
I0625 20:16:12.013909 18777 net.cpp:141] Setting up bn1_1
I0625 20:16:12.013926 18777 net.cpp:148] Top shape: 64 32 98 128 (25690112)
I0625 20:16:12.013929 18777 net.cpp:156] Memory required for data: 244056832
I0625 20:16:12.013945 18777 layer_factory.hpp:77] Creating layer scale1_1
I0625 20:16:12.013962 18777 net.cpp:91] Creating Layer scale1_1
I0625 20:16:12.013967 18777 net.cpp:425] scale1_1 <- conv1_1
I0625 20:16:12.013989 18777 net.cpp:386] scale1_1 -> conv1_1 (in-place)
I0625 20:16:12.014040 18777 layer_factory.hpp:77] Creating layer scale1_1
I0625 20:16:12.014166 18777 net.cpp:141] Setting up scale1_1
I0625 20:16:12.014175 18777 net.cpp:148] Top shape: 64 32 98 128 (25690112)
I0625 20:16:12.014179 18777 net.cpp:156] Memory required for data: 346817280
I0625 20:16:12.014189 18777 layer_factory.hpp:77] Creating layer relu1_1
I0625 20:16:12.014201 18777 net.cpp:91] Creating Layer relu1_1
I0625 20:16:12.014206 18777 net.cpp:425] relu1_1 <- conv1_1
I0625 20:16:12.014214 18777 net.cpp:386] relu1_1 -> conv1_1 (in-place)
I0625 20:16:12.014371 18777 net.cpp:141] Setting up relu1_1
I0625 20:16:12.014382 18777 net.cpp:148] Top shape: 64 32 98 128 (25690112)
I0625 20:16:12.014387 18777 net.cpp:156] Memory required for data: 449577728
I0625 20:16:12.014391 18777 layer_factory.hpp:77] Creating layer conv1_2
I0625 20:16:12.014403 18777 net.cpp:91] Creating Layer conv1_2
I0625 20:16:12.014408 18777 net.cpp:425] conv1_2 <- conv1_1
I0625 20:16:12.014416 18777 net.cpp:399] conv1_2 -> conv1_2
I0625 20:16:12.015359 18777 net.cpp:141] Setting up conv1_2
I0625 20:16:12.015373 18777 net.cpp:148] Top shape: 64 32 98 128 (25690112)
I0625 20:16:12.015378 18777 net.cpp:156] Memory required for data: 552338176
I0625 20:16:12.015385 18777 layer_factory.hpp:77] Creating layer bn1_2
I0625 20:16:12.015398 18777 net.cpp:91] Creating Layer bn1_2
I0625 20:16:12.015403 18777 net.cpp:425] bn1_2 <- conv1_2
I0625 20:16:12.015410 18777 net.cpp:386] bn1_2 -> conv1_2 (in-place)
I0625 20:16:12.015586 18777 net.cpp:141] Setting up bn1_2
I0625 20:16:12.015597 18777 net.cpp:148] Top shape: 64 32 98 128 (25690112)
I0625 20:16:12.015600 18777 net.cpp:156] Memory required for data: 655098624
I0625 20:16:12.015614 18777 layer_factory.hpp:77] Creating layer scale1_2
I0625 20:16:12.015625 18777 net.cpp:91] Creating Layer scale1_2
I0625 20:16:12.015630 18777 net.cpp:425] scale1_2 <- conv1_2
I0625 20:16:12.015637 18777 net.cpp:386] scale1_2 -> conv1_2 (in-place)
I0625 20:16:12.015684 18777 layer_factory.hpp:77] Creating layer scale1_2
I0625 20:16:12.015812 18777 net.cpp:141] Setting up scale1_2
I0625 20:16:12.015822 18777 net.cpp:148] Top shape: 64 32 98 128 (25690112)
I0625 20:16:12.015826 18777 net.cpp:156] Memory required for data: 757859072
I0625 20:16:12.015833 18777 layer_factory.hpp:77] Creating layer relu1_2
I0625 20:16:12.015841 18777 net.cpp:91] Creating Layer relu1_2
I0625 20:16:12.015846 18777 net.cpp:425] relu1_2 <- conv1_2
I0625 20:16:12.015851 18777 net.cpp:386] relu1_2 -> conv1_2 (in-place)
I0625 20:16:12.016273 18777 net.cpp:141] Setting up relu1_2
I0625 20:16:12.016285 18777 net.cpp:148] Top shape: 64 32 98 128 (25690112)
I0625 20:16:12.016289 18777 net.cpp:156] Memory required for data: 860619520
I0625 20:16:12.016294 18777 layer_factory.hpp:77] Creating layer pool1
I0625 20:16:12.016304 18777 net.cpp:91] Creating Layer pool1
I0625 20:16:12.016309 18777 net.cpp:425] pool1 <- conv1_2
I0625 20:16:12.016316 18777 net.cpp:399] pool1 -> pool1
I0625 20:16:12.016366 18777 net.cpp:141] Setting up pool1
I0625 20:16:12.016374 18777 net.cpp:148] Top shape: 64 32 49 64 (6422528)
I0625 20:16:12.016377 18777 net.cpp:156] Memory required for data: 886309632
I0625 20:16:12.016381 18777 layer_factory.hpp:77] Creating layer conv2_1
I0625 20:16:12.016393 18777 net.cpp:91] Creating Layer conv2_1
I0625 20:16:12.016398 18777 net.cpp:425] conv2_1 <- pool1
I0625 20:16:12.016405 18777 net.cpp:399] conv2_1 -> conv2_1
I0625 20:16:12.017374 18777 net.cpp:141] Setting up conv2_1
I0625 20:16:12.017387 18777 net.cpp:148] Top shape: 64 64 49 64 (12845056)
I0625 20:16:12.017391 18777 net.cpp:156] Memory required for data: 937689856
I0625 20:16:12.017398 18777 layer_factory.hpp:77] Creating layer bn2_1
I0625 20:16:12.017410 18777 net.cpp:91] Creating Layer bn2_1
I0625 20:16:12.017413 18777 net.cpp:425] bn2_1 <- conv2_1
I0625 20:16:12.017421 18777 net.cpp:386] bn2_1 -> conv2_1 (in-place)
I0625 20:16:12.017596 18777 net.cpp:141] Setting up bn2_1
I0625 20:16:12.017616 18777 net.cpp:148] Top shape: 64 64 49 64 (12845056)
I0625 20:16:12.017619 18777 net.cpp:156] Memory required for data: 989070080
I0625 20:16:12.017628 18777 layer_factory.hpp:77] Creating layer scale2_1
I0625 20:16:12.017639 18777 net.cpp:91] Creating Layer scale2_1
I0625 20:16:12.017644 18777 net.cpp:425] scale2_1 <- conv2_1
I0625 20:16:12.017650 18777 net.cpp:386] scale2_1 -> conv2_1 (in-place)
I0625 20:16:12.017694 18777 layer_factory.hpp:77] Creating layer scale2_1
I0625 20:16:12.017805 18777 net.cpp:141] Setting up scale2_1
I0625 20:16:12.017814 18777 net.cpp:148] Top shape: 64 64 49 64 (12845056)
I0625 20:16:12.017818 18777 net.cpp:156] Memory required for data: 1040450304
I0625 20:16:12.017829 18777 layer_factory.hpp:77] Creating layer relu2_1
I0625 20:16:12.017838 18777 net.cpp:91] Creating Layer relu2_1
I0625 20:16:12.017843 18777 net.cpp:425] relu2_1 <- conv2_1
I0625 20:16:12.017848 18777 net.cpp:386] relu2_1 -> conv2_1 (in-place)
I0625 20:16:12.017992 18777 net.cpp:141] Setting up relu2_1
I0625 20:16:12.018002 18777 net.cpp:148] Top shape: 64 64 49 64 (12845056)
I0625 20:16:12.018007 18777 net.cpp:156] Memory required for data: 1091830528
I0625 20:16:12.018010 18777 layer_factory.hpp:77] Creating layer conv2_2
I0625 20:16:12.018023 18777 net.cpp:91] Creating Layer conv2_2
I0625 20:16:12.018028 18777 net.cpp:425] conv2_2 <- conv2_1
I0625 20:16:12.018035 18777 net.cpp:399] conv2_2 -> conv2_2
I0625 20:16:12.019083 18777 net.cpp:141] Setting up conv2_2
I0625 20:16:12.019095 18777 net.cpp:148] Top shape: 64 64 49 64 (12845056)
I0625 20:16:12.019100 18777 net.cpp:156] Memory required for data: 1143210752
I0625 20:16:12.019107 18777 layer_factory.hpp:77] Creating layer bn2_2
I0625 20:16:12.019119 18777 net.cpp:91] Creating Layer bn2_2
I0625 20:16:12.019124 18777 net.cpp:425] bn2_2 <- conv2_2
I0625 20:16:12.019132 18777 net.cpp:386] bn2_2 -> conv2_2 (in-place)
I0625 20:16:12.019300 18777 net.cpp:141] Setting up bn2_2
I0625 20:16:12.019310 18777 net.cpp:148] Top shape: 64 64 49 64 (12845056)
I0625 20:16:12.019315 18777 net.cpp:156] Memory required for data: 1194590976
I0625 20:16:12.019323 18777 layer_factory.hpp:77] Creating layer scale2_2
I0625 20:16:12.019335 18777 net.cpp:91] Creating Layer scale2_2
I0625 20:16:12.019338 18777 net.cpp:425] scale2_2 <- conv2_2
I0625 20:16:12.019345 18777 net.cpp:386] scale2_2 -> conv2_2 (in-place)
I0625 20:16:12.019388 18777 layer_factory.hpp:77] Creating layer scale2_2
I0625 20:16:12.019496 18777 net.cpp:141] Setting up scale2_2
I0625 20:16:12.019507 18777 net.cpp:148] Top shape: 64 64 49 64 (12845056)
I0625 20:16:12.019511 18777 net.cpp:156] Memory required for data: 1245971200
I0625 20:16:12.019518 18777 layer_factory.hpp:77] Creating layer relu2_2
I0625 20:16:12.019526 18777 net.cpp:91] Creating Layer relu2_2
I0625 20:16:12.019529 18777 net.cpp:425] relu2_2 <- conv2_2
I0625 20:16:12.019536 18777 net.cpp:386] relu2_2 -> conv2_2 (in-place)
I0625 20:16:12.019695 18777 net.cpp:141] Setting up relu2_2
I0625 20:16:12.019706 18777 net.cpp:148] Top shape: 64 64 49 64 (12845056)
I0625 20:16:12.019709 18777 net.cpp:156] Memory required for data: 1297351424
I0625 20:16:12.019714 18777 layer_factory.hpp:77] Creating layer pool2
I0625 20:16:12.019721 18777 net.cpp:91] Creating Layer pool2
I0625 20:16:12.019726 18777 net.cpp:425] pool2 <- conv2_2
I0625 20:16:12.019731 18777 net.cpp:399] pool2 -> pool2
I0625 20:16:12.019778 18777 net.cpp:141] Setting up pool2
I0625 20:16:12.019786 18777 net.cpp:148] Top shape: 64 64 25 32 (3276800)
I0625 20:16:12.019790 18777 net.cpp:156] Memory required for data: 1310458624
I0625 20:16:12.019794 18777 layer_factory.hpp:77] Creating layer conv3_1
I0625 20:16:12.019805 18777 net.cpp:91] Creating Layer conv3_1
I0625 20:16:12.019809 18777 net.cpp:425] conv3_1 <- pool2
I0625 20:16:12.019819 18777 net.cpp:399] conv3_1 -> conv3_1
I0625 20:16:12.022322 18777 net.cpp:141] Setting up conv3_1
I0625 20:16:12.022336 18777 net.cpp:148] Top shape: 64 128 25 32 (6553600)
I0625 20:16:12.022341 18777 net.cpp:156] Memory required for data: 1336673024
I0625 20:16:12.022359 18777 layer_factory.hpp:77] Creating layer bn3_1
I0625 20:16:12.022372 18777 net.cpp:91] Creating Layer bn3_1
I0625 20:16:12.022379 18777 net.cpp:425] bn3_1 <- conv3_1
I0625 20:16:12.022387 18777 net.cpp:386] bn3_1 -> conv3_1 (in-place)
I0625 20:16:12.022545 18777 net.cpp:141] Setting up bn3_1
I0625 20:16:12.022554 18777 net.cpp:148] Top shape: 64 128 25 32 (6553600)
I0625 20:16:12.022558 18777 net.cpp:156] Memory required for data: 1362887424
I0625 20:16:12.022567 18777 layer_factory.hpp:77] Creating layer scale3_1
I0625 20:16:12.022577 18777 net.cpp:91] Creating Layer scale3_1
I0625 20:16:12.022581 18777 net.cpp:425] scale3_1 <- conv3_1
I0625 20:16:12.022589 18777 net.cpp:386] scale3_1 -> conv3_1 (in-place)
I0625 20:16:12.022629 18777 layer_factory.hpp:77] Creating layer scale3_1
I0625 20:16:12.022732 18777 net.cpp:141] Setting up scale3_1
I0625 20:16:12.022742 18777 net.cpp:148] Top shape: 64 128 25 32 (6553600)
I0625 20:16:12.022747 18777 net.cpp:156] Memory required for data: 1389101824
I0625 20:16:12.022753 18777 layer_factory.hpp:77] Creating layer relu3_1
I0625 20:16:12.022760 18777 net.cpp:91] Creating Layer relu3_1
I0625 20:16:12.022764 18777 net.cpp:425] relu3_1 <- conv3_1
I0625 20:16:12.022770 18777 net.cpp:386] relu3_1 -> conv3_1 (in-place)
I0625 20:16:12.022917 18777 net.cpp:141] Setting up relu3_1
I0625 20:16:12.022928 18777 net.cpp:148] Top shape: 64 128 25 32 (6553600)
I0625 20:16:12.022933 18777 net.cpp:156] Memory required for data: 1415316224
I0625 20:16:12.022936 18777 layer_factory.hpp:77] Creating layer conv3_2
I0625 20:16:12.022948 18777 net.cpp:91] Creating Layer conv3_2
I0625 20:16:12.022953 18777 net.cpp:425] conv3_2 <- conv3_1
I0625 20:16:12.022960 18777 net.cpp:399] conv3_2 -> conv3_2
I0625 20:16:12.024843 18777 net.cpp:141] Setting up conv3_2
I0625 20:16:12.024857 18777 net.cpp:148] Top shape: 64 128 25 32 (6553600)
I0625 20:16:12.024862 18777 net.cpp:156] Memory required for data: 1441530624
I0625 20:16:12.024868 18777 layer_factory.hpp:77] Creating layer bn3_2
I0625 20:16:12.024878 18777 net.cpp:91] Creating Layer bn3_2
I0625 20:16:12.024883 18777 net.cpp:425] bn3_2 <- conv3_2
I0625 20:16:12.024893 18777 net.cpp:386] bn3_2 -> conv3_2 (in-place)
I0625 20:16:12.025056 18777 net.cpp:141] Setting up bn3_2
I0625 20:16:12.025065 18777 net.cpp:148] Top shape: 64 128 25 32 (6553600)
I0625 20:16:12.025069 18777 net.cpp:156] Memory required for data: 1467745024
I0625 20:16:12.025087 18777 layer_factory.hpp:77] Creating layer scale3_2
I0625 20:16:12.025099 18777 net.cpp:91] Creating Layer scale3_2
I0625 20:16:12.025104 18777 net.cpp:425] scale3_2 <- conv3_2
I0625 20:16:12.025110 18777 net.cpp:386] scale3_2 -> conv3_2 (in-place)
I0625 20:16:12.025156 18777 layer_factory.hpp:77] Creating layer scale3_2
I0625 20:16:12.025255 18777 net.cpp:141] Setting up scale3_2
I0625 20:16:12.025264 18777 net.cpp:148] Top shape: 64 128 25 32 (6553600)
I0625 20:16:12.025269 18777 net.cpp:156] Memory required for data: 1493959424
I0625 20:16:12.025275 18777 layer_factory.hpp:77] Creating layer relu3_2
I0625 20:16:12.025282 18777 net.cpp:91] Creating Layer relu3_2
I0625 20:16:12.025286 18777 net.cpp:425] relu3_2 <- conv3_2
I0625 20:16:12.025295 18777 net.cpp:386] relu3_2 -> conv3_2 (in-place)
I0625 20:16:12.025439 18777 net.cpp:141] Setting up relu3_2
I0625 20:16:12.025450 18777 net.cpp:148] Top shape: 64 128 25 32 (6553600)
I0625 20:16:12.025454 18777 net.cpp:156] Memory required for data: 1520173824
I0625 20:16:12.025459 18777 layer_factory.hpp:77] Creating layer pool3
I0625 20:16:12.025465 18777 net.cpp:91] Creating Layer pool3
I0625 20:16:12.025470 18777 net.cpp:425] pool3 <- conv3_2
I0625 20:16:12.025478 18777 net.cpp:399] pool3 -> pool3
I0625 20:16:12.025524 18777 net.cpp:141] Setting up pool3
I0625 20:16:12.025533 18777 net.cpp:148] Top shape: 64 128 13 16 (1703936)
I0625 20:16:12.025537 18777 net.cpp:156] Memory required for data: 1526989568
I0625 20:16:12.025540 18777 layer_factory.hpp:77] Creating layer conv4_1
I0625 20:16:12.025552 18777 net.cpp:91] Creating Layer conv4_1
I0625 20:16:12.025568 18777 net.cpp:425] conv4_1 <- pool3
I0625 20:16:12.025576 18777 net.cpp:399] conv4_1 -> conv4_1
I0625 20:16:12.028240 18777 net.cpp:141] Setting up conv4_1
I0625 20:16:12.028254 18777 net.cpp:148] Top shape: 64 256 13 16 (3407872)
I0625 20:16:12.028259 18777 net.cpp:156] Memory required for data: 1540621056
I0625 20:16:12.028265 18777 layer_factory.hpp:77] Creating layer bn4_1
I0625 20:16:12.028275 18777 net.cpp:91] Creating Layer bn4_1
I0625 20:16:12.028280 18777 net.cpp:425] bn4_1 <- conv4_1
I0625 20:16:12.028288 18777 net.cpp:386] bn4_1 -> conv4_1 (in-place)
I0625 20:16:12.028456 18777 net.cpp:141] Setting up bn4_1
I0625 20:16:12.028466 18777 net.cpp:148] Top shape: 64 256 13 16 (3407872)
I0625 20:16:12.028470 18777 net.cpp:156] Memory required for data: 1554252544
I0625 20:16:12.028478 18777 layer_factory.hpp:77] Creating layer scale4_1
I0625 20:16:12.028487 18777 net.cpp:91] Creating Layer scale4_1
I0625 20:16:12.028492 18777 net.cpp:425] scale4_1 <- conv4_1
I0625 20:16:12.028501 18777 net.cpp:386] scale4_1 -> conv4_1 (in-place)
I0625 20:16:12.028542 18777 layer_factory.hpp:77] Creating layer scale4_1
I0625 20:16:12.028643 18777 net.cpp:141] Setting up scale4_1
I0625 20:16:12.028653 18777 net.cpp:148] Top shape: 64 256 13 16 (3407872)
I0625 20:16:12.028657 18777 net.cpp:156] Memory required for data: 1567884032
I0625 20:16:12.028666 18777 layer_factory.hpp:77] Creating layer relu4_1
I0625 20:16:12.028676 18777 net.cpp:91] Creating Layer relu4_1
I0625 20:16:12.028681 18777 net.cpp:425] relu4_1 <- conv4_1
I0625 20:16:12.028687 18777 net.cpp:386] relu4_1 -> conv4_1 (in-place)
I0625 20:16:12.028831 18777 net.cpp:141] Setting up relu4_1
I0625 20:16:12.028841 18777 net.cpp:148] Top shape: 64 256 13 16 (3407872)
I0625 20:16:12.028846 18777 net.cpp:156] Memory required for data: 1581515520
I0625 20:16:12.028849 18777 layer_factory.hpp:77] Creating layer conv4_2
I0625 20:16:12.028861 18777 net.cpp:91] Creating Layer conv4_2
I0625 20:16:12.028866 18777 net.cpp:425] conv4_2 <- conv4_1
I0625 20:16:12.028873 18777 net.cpp:399] conv4_2 -> conv4_2
I0625 20:16:12.034221 18777 net.cpp:141] Setting up conv4_2
I0625 20:16:12.034236 18777 net.cpp:148] Top shape: 64 256 13 16 (3407872)
I0625 20:16:12.034240 18777 net.cpp:156] Memory required for data: 1595147008
I0625 20:16:12.034247 18777 layer_factory.hpp:77] Creating layer bn4_2
I0625 20:16:12.034255 18777 net.cpp:91] Creating Layer bn4_2
I0625 20:16:12.034260 18777 net.cpp:425] bn4_2 <- conv4_2
I0625 20:16:12.034268 18777 net.cpp:386] bn4_2 -> conv4_2 (in-place)
I0625 20:16:12.034438 18777 net.cpp:141] Setting up bn4_2
I0625 20:16:12.034447 18777 net.cpp:148] Top shape: 64 256 13 16 (3407872)
I0625 20:16:12.034451 18777 net.cpp:156] Memory required for data: 1608778496
I0625 20:16:12.034461 18777 layer_factory.hpp:77] Creating layer scale4_2
I0625 20:16:12.034469 18777 net.cpp:91] Creating Layer scale4_2
I0625 20:16:12.034473 18777 net.cpp:425] scale4_2 <- conv4_2
I0625 20:16:12.034479 18777 net.cpp:386] scale4_2 -> conv4_2 (in-place)
I0625 20:16:12.034525 18777 layer_factory.hpp:77] Creating layer scale4_2
I0625 20:16:12.034627 18777 net.cpp:141] Setting up scale4_2
I0625 20:16:12.034638 18777 net.cpp:148] Top shape: 64 256 13 16 (3407872)
I0625 20:16:12.034642 18777 net.cpp:156] Memory required for data: 1622409984
I0625 20:16:12.034649 18777 layer_factory.hpp:77] Creating layer relu4_2
I0625 20:16:12.034657 18777 net.cpp:91] Creating Layer relu4_2
I0625 20:16:12.034660 18777 net.cpp:425] relu4_2 <- conv4_2
I0625 20:16:12.034667 18777 net.cpp:386] relu4_2 -> conv4_2 (in-place)
I0625 20:16:12.035086 18777 net.cpp:141] Setting up relu4_2
I0625 20:16:12.035099 18777 net.cpp:148] Top shape: 64 256 13 16 (3407872)
I0625 20:16:12.035104 18777 net.cpp:156] Memory required for data: 1636041472
I0625 20:16:12.035107 18777 layer_factory.hpp:77] Creating layer pool4
I0625 20:16:12.035115 18777 net.cpp:91] Creating Layer pool4
I0625 20:16:12.035120 18777 net.cpp:425] pool4 <- conv4_2
I0625 20:16:12.035127 18777 net.cpp:399] pool4 -> pool4
I0625 20:16:12.035182 18777 net.cpp:141] Setting up pool4
I0625 20:16:12.035202 18777 net.cpp:148] Top shape: 64 256 7 8 (917504)
I0625 20:16:12.035205 18777 net.cpp:156] Memory required for data: 1639711488
I0625 20:16:12.035209 18777 layer_factory.hpp:77] Creating layer conv5_1
I0625 20:16:12.035221 18777 net.cpp:91] Creating Layer conv5_1
I0625 20:16:12.035226 18777 net.cpp:425] conv5_1 <- pool4
I0625 20:16:12.035235 18777 net.cpp:399] conv5_1 -> conv5_1
I0625 20:16:12.040622 18777 net.cpp:141] Setting up conv5_1
I0625 20:16:12.040638 18777 net.cpp:148] Top shape: 64 256 7 8 (917504)
I0625 20:16:12.040642 18777 net.cpp:156] Memory required for data: 1643381504
I0625 20:16:12.040650 18777 layer_factory.hpp:77] Creating layer bn5_1
I0625 20:16:12.040663 18777 net.cpp:91] Creating Layer bn5_1
I0625 20:16:12.040668 18777 net.cpp:425] bn5_1 <- conv5_1
I0625 20:16:12.040674 18777 net.cpp:386] bn5_1 -> conv5_1 (in-place)
I0625 20:16:12.040849 18777 net.cpp:141] Setting up bn5_1
I0625 20:16:12.040859 18777 net.cpp:148] Top shape: 64 256 7 8 (917504)
I0625 20:16:12.040863 18777 net.cpp:156] Memory required for data: 1647051520
I0625 20:16:12.040871 18777 layer_factory.hpp:77] Creating layer scale5_1
I0625 20:16:12.040882 18777 net.cpp:91] Creating Layer scale5_1
I0625 20:16:12.040886 18777 net.cpp:425] scale5_1 <- conv5_1
I0625 20:16:12.040894 18777 net.cpp:386] scale5_1 -> conv5_1 (in-place)
I0625 20:16:12.040940 18777 layer_factory.hpp:77] Creating layer scale5_1
I0625 20:16:12.041043 18777 net.cpp:141] Setting up scale5_1
I0625 20:16:12.041052 18777 net.cpp:148] Top shape: 64 256 7 8 (917504)
I0625 20:16:12.041056 18777 net.cpp:156] Memory required for data: 1650721536
I0625 20:16:12.041064 18777 layer_factory.hpp:77] Creating layer relu5_1
I0625 20:16:12.041072 18777 net.cpp:91] Creating Layer relu5_1
I0625 20:16:12.041076 18777 net.cpp:425] relu5_1 <- conv5_1
I0625 20:16:12.041082 18777 net.cpp:386] relu5_1 -> conv5_1 (in-place)
I0625 20:16:12.041232 18777 net.cpp:141] Setting up relu5_1
I0625 20:16:12.041244 18777 net.cpp:148] Top shape: 64 256 7 8 (917504)
I0625 20:16:12.041247 18777 net.cpp:156] Memory required for data: 1654391552
I0625 20:16:12.041251 18777 layer_factory.hpp:77] Creating layer conv5_2
I0625 20:16:12.041263 18777 net.cpp:91] Creating Layer conv5_2
I0625 20:16:12.041268 18777 net.cpp:425] conv5_2 <- conv5_1
I0625 20:16:12.041275 18777 net.cpp:399] conv5_2 -> conv5_2
I0625 20:16:12.046778 18777 net.cpp:141] Setting up conv5_2
I0625 20:16:12.046797 18777 net.cpp:148] Top shape: 64 256 7 8 (917504)
I0625 20:16:12.046800 18777 net.cpp:156] Memory required for data: 1658061568
I0625 20:16:12.046808 18777 layer_factory.hpp:77] Creating layer bn5_2
I0625 20:16:12.046821 18777 net.cpp:91] Creating Layer bn5_2
I0625 20:16:12.046826 18777 net.cpp:425] bn5_2 <- conv5_2
I0625 20:16:12.046838 18777 net.cpp:386] bn5_2 -> conv5_2 (in-place)
I0625 20:16:12.047020 18777 net.cpp:141] Setting up bn5_2
I0625 20:16:12.047029 18777 net.cpp:148] Top shape: 64 256 7 8 (917504)
I0625 20:16:12.047034 18777 net.cpp:156] Memory required for data: 1661731584
I0625 20:16:12.047042 18777 layer_factory.hpp:77] Creating layer scale5_2
I0625 20:16:12.047055 18777 net.cpp:91] Creating Layer scale5_2
I0625 20:16:12.047060 18777 net.cpp:425] scale5_2 <- conv5_2
I0625 20:16:12.047065 18777 net.cpp:386] scale5_2 -> conv5_2 (in-place)
I0625 20:16:12.047114 18777 layer_factory.hpp:77] Creating layer scale5_2
I0625 20:16:12.047224 18777 net.cpp:141] Setting up scale5_2
I0625 20:16:12.047235 18777 net.cpp:148] Top shape: 64 256 7 8 (917504)
I0625 20:16:12.047237 18777 net.cpp:156] Memory required for data: 1665401600
I0625 20:16:12.047245 18777 layer_factory.hpp:77] Creating layer relu5_2
I0625 20:16:12.047252 18777 net.cpp:91] Creating Layer relu5_2
I0625 20:16:12.047257 18777 net.cpp:425] relu5_2 <- conv5_2
I0625 20:16:12.047265 18777 net.cpp:386] relu5_2 -> conv5_2 (in-place)
I0625 20:16:12.047415 18777 net.cpp:141] Setting up relu5_2
I0625 20:16:12.047425 18777 net.cpp:148] Top shape: 64 256 7 8 (917504)
I0625 20:16:12.047428 18777 net.cpp:156] Memory required for data: 1669071616
I0625 20:16:12.047444 18777 layer_factory.hpp:77] Creating layer pool5
I0625 20:16:12.047456 18777 net.cpp:91] Creating Layer pool5
I0625 20:16:12.047462 18777 net.cpp:425] pool5 <- conv5_2
I0625 20:16:12.047469 18777 net.cpp:399] pool5 -> pool5
I0625 20:16:12.047636 18777 net.cpp:141] Setting up pool5
I0625 20:16:12.047646 18777 net.cpp:148] Top shape: 64 256 2 1 (32768)
I0625 20:16:12.047649 18777 net.cpp:156] Memory required for data: 1669202688
I0625 20:16:12.047653 18777 layer_factory.hpp:77] Creating layer fc2
I0625 20:16:12.047662 18777 net.cpp:91] Creating Layer fc2
I0625 20:16:12.047665 18777 net.cpp:425] fc2 <- pool5
I0625 20:16:12.047673 18777 net.cpp:399] fc2 -> fc2
I0625 20:16:12.047791 18777 net.cpp:141] Setting up fc2
I0625 20:16:12.047799 18777 net.cpp:148] Top shape: 64 2 (128)
I0625 20:16:12.047802 18777 net.cpp:156] Memory required for data: 1669203200
I0625 20:16:12.047811 18777 layer_factory.hpp:77] Creating layer fc2_fc2_0_split
I0625 20:16:12.047817 18777 net.cpp:91] Creating Layer fc2_fc2_0_split
I0625 20:16:12.047822 18777 net.cpp:425] fc2_fc2_0_split <- fc2
I0625 20:16:12.047829 18777 net.cpp:399] fc2_fc2_0_split -> fc2_fc2_0_split_0
I0625 20:16:12.047837 18777 net.cpp:399] fc2_fc2_0_split -> fc2_fc2_0_split_1
I0625 20:16:12.047876 18777 net.cpp:141] Setting up fc2_fc2_0_split
I0625 20:16:12.047884 18777 net.cpp:148] Top shape: 64 2 (128)
I0625 20:16:12.047889 18777 net.cpp:148] Top shape: 64 2 (128)
I0625 20:16:12.047893 18777 net.cpp:156] Memory required for data: 1669204224
I0625 20:16:12.047896 18777 layer_factory.hpp:77] Creating layer loss
I0625 20:16:12.047904 18777 net.cpp:91] Creating Layer loss
I0625 20:16:12.047909 18777 net.cpp:425] loss <- fc2_fc2_0_split_0
I0625 20:16:12.047914 18777 net.cpp:425] loss <- label_data_1_split_0
I0625 20:16:12.047920 18777 net.cpp:399] loss -> loss
…
