…
I0525 12:57:03.788280 25608 net.cpp:313] The NetState phase (0) differed from the phase (1) specified by a rule in layer data
I0525 12:57:03.788542 25608 net.cpp:49] Initializing net from parameters: 
name: "segnet"
state {
  phase: TRAIN
}
layer {
  name: "data"
  type: "DenseImageData"
  top: "data"
  top: "label"
  include {
    phase: TRAIN
  }
  transform_param {
    crop_size: 224
    mean_value: 100
  }
  dense_image_data_param {
    source: "data/train.txt"
    batch_size: 64
    shuffle: true
    new_height: 224
    new_width: 310
    is_color: false
    root_folder: "data/raw/train/"
  }
}
layer {
  name: "conv1_1"
  type: "Convolution"
  bottom: "data"
  top: "conv1_1"
  param {
    lr_mult: 1
    decay_mult: 1
  }
  convolution_param {
    num_output: 32
    bias_term: false
    pad: 1
    kernel_size: 3
    weight_filler {
      type: "msra"
    }
  }
}
layer {
  name: "bn1_1"
  type: "BatchNorm"
  bottom: "conv1_1"
  top: "conv1_1"
  param {
    lr_mult: 0
  }
  param {
    lr_mult: 0
  }
  param {
    lr_mult: 0
  }
  batch_norm_param {
    use_global_stats: false
  }
}
layer {
  name: "scale1_1"
  type: "Scale"
  bottom: "conv1_1"
  top: "conv1_1"
  param {
    lr_mult: 1
    decay_mult: 1
  }
  param {
    lr_mult: 1
    decay_mult: 1
  }
  scale_param {
    bias_term: true
    bias_filler {
      type: "constant"
      value: 0
    }
  }
}
layer {
  name: "relu1_1"
  type: "ReLU"
  bottom: "conv1_1"
  top: "conv1_1"
}
layer {
  name: "pool1"
  type: "Pooling"
  bottom: "conv1_1"
  top: "pool1"
  top: "pool1_mask"
  pooling_param {
    pool: MAX
    kernel_size: 2
    stride: 2
  }
}
layer {
  name: "conv2_1"
  type: "Convolution"
  bottom: "pool1"
  top: "conv2_1"
  param {
    lr_mult: 1
    decay_mult: 1
  }
  convolution_param {
    num_output: 64
    bias_term: false
    pad: 1
    kernel_size: 3
    weight_filler {
      type: "msra"
    }
  }
}
layer {
  name: "bn2_1"
  type: "BatchNorm"
  bottom: "conv2_1"
  top: "conv2_1"
  param {
    lr_mult: 0
  }
  param {
    lr_mult: 0
  }
  param {
    lr_mult: 0
  }
  batch_norm_param {
    use_global_stats: false
  }
}
layer {
  name: "scale2_1"
  type: "Scale"
  bottom: "conv2_1"
  top: "conv2_1"
  param {
    lr_mult: 1
    decay_mult: 1
  }
  param {
    lr_mult: 1
    decay_mult: 1
  }
  scale_param {
    bias_term: true
    bias_filler {
      type: "constant"
      value: 0
    }
  }
}
layer {
  name: "relu2_1"
  type: "ReLU"
  bottom: "conv2_1"
  top: "conv2_1"
}
layer {
  name: "pool2"
  type: "Pooling"
  bottom: "conv2_1"
  top: "pool2"
  top: "pool2_mask"
  pooling_param {
    pool: MAX
    kernel_size: 2
    stride: 2
  }
}
layer {
  name: "conv3_1"
  type: "Convolution"
  bottom: "pool2"
  top: "conv3_1"
  param {
    lr_mult: 1
    decay_mult: 1
  }
  convolution_param {
    num_output: 128
    bias_term: false
    pad: 1
    kernel_size: 3
    weight_filler {
      type: "msra"
    }
  }
}
layer {
  name: "bn3_1"
  type: "BatchNorm"
  bottom: "conv3_1"
  top: "conv3_1"
  param {
    lr_mult: 0
  }
  param {
    lr_mult: 0
  }
  param {
    lr_mult: 0
  }
  batch_norm_param {
    use_global_stats: false
  }
}
layer {
  name: "scale3_1"
  type: "Scale"
  bottom: "conv3_1"
  top: "conv3_1"
  param {
    lr_mult: 1
    decay_mult: 1
  }
  param {
    lr_mult: 1
    decay_mult: 1
  }
  scale_param {
    bias_term: true
    bias_filler {
      type: "constant"
      value: 0
    }
  }
}
layer {
  name: "relu3_1"
  type: "ReLU"
  bottom: "conv3_1"
  top: "conv3_1"
}
layer {
  name: "pool3"
  type: "Pooling"
  bottom: "conv3_1"
  top: "pool3"
  top: "pool3_mask"
  pooling_param {
    pool: MAX
    kernel_size: 2
    stride: 2
  }
}
layer {
  name: "conv4_1"
  type: "Convolution"
  bottom: "pool3"
  top: "conv4_1"
  param {
    lr_mult: 1
    decay_mult: 1
  }
  convolution_param {
    num_output: 256
    bias_term: false
    pad: 1
    kernel_size: 3
    weight_filler {
      type: "msra"
    }
  }
}
layer {
  name: "bn4_1"
  type: "BatchNorm"
  bottom: "conv4_1"
  top: "conv4_1"
  param {
    lr_mult: 0
  }
  param {
    lr_mult: 0
  }
  param {
    lr_mult: 0
  }
  batch_norm_param {
    use_global_stats: false
  }
}
layer {
  name: "scale4_1"
  type: "Scale"
  bottom: "conv4_1"
  top: "conv4_1"
  param {
    lr_mult: 1
    decay_mult: 1
  }
  param {
    lr_mult: 1
    decay_mult: 1
  }
  scale_param {
    bias_term: true
    bias_filler {
      type: "constant"
      value: 0
    }
  }
}
layer {
  name: "relu4_1"
  type: "ReLU"
  bottom: "conv4_1"
  top: "conv4_1"
}
layer {
  name: "pool4"
  type: "Pooling"
  bottom: "conv4_1"
  top: "pool4"
  top: "pool4_mask"
  pooling_param {
    pool: MAX
    kernel_size: 2
    stride: 2
  }
}
layer {
  name: "conv5_1"
  type: "Convolution"
  bottom: "pool4"
  top: "conv5_1"
  param {
    lr_mult: 1
    decay_mult: 1
  }
  convolution_param {
    num_output: 256
    bias_term: false
    pad: 1
    kernel_size: 3
    weight_filler {
      type: "msra"
    }
  }
}
layer {
  name: "bn5_1"
  type: "BatchNorm"
  bottom: "conv5_1"
  top: "conv5_1"
  param {
    lr_mult: 0
  }
  param {
    lr_mult: 0
  }
  param {
    lr_mult: 0
  }
  batch_norm_param {
    use_global_stats: false
  }
}
layer {
  name: "scale5_1"
  type: "Scale"
  bottom: "conv5_1"
  top: "conv5_1"
  param {
    lr_mult: 1
    decay_mult: 1
  }
  param {
    lr_mult: 1
    decay_mult: 1
  }
  scale_param {
    bias_term: true
    bias_filler {
      type: "constant"
      value: 0
    }
  }
}
layer {
  name: "relu5_1"
  type: "ReLU"
  bottom: "conv5_1"
  top: "conv5_1"
}
layer {
  name: "pool5"
  type: "Pooling"
  bottom: "conv5_1"
  top: "pool5"
  top: "pool5_mask"
  pooling_param {
    pool: MAX
    kernel_size: 2
    stride: 2
  }
}
layer {
  name: "upsample5"
  type: "Upsample"
  bottom: "pool5"
  bottom: "pool5_mask"
  top: "pool5_D"
  upsample_param {
    scale: 2
    upsample_h: 14
    upsample_w: 14
  }
}
layer {
  name: "conv5_1_D"
  type: "Convolution"
  bottom: "pool5_D"
  top: "conv5_1_D"
  param {
    lr_mult: 1
    decay_mult: 1
  }
  convolution_param {
    num_output: 256
    bias_term: false
    pad: 1
    kernel_size: 3
    weight_filler {
      type: "msra"
    }
  }
}
layer {
  name: "bn5_1_D"
  type: "BatchNorm"
  bottom: "conv5_1_D"
  top: "conv5_1_D"
  param {
    lr_mult: 0
  }
  param {
    lr_mult: 0
  }
  param {
    lr_mult: 0
  }
  batch_norm_param {
    use_global_stats: false
  }
}
layer {
  name: "scale5_1_D"
  type: "Scale"
  bottom: "conv5_1_D"
  top: "conv5_1_D"
  param {
    lr_mult: 1
    decay_mult: 1
  }
  param {
    lr_mult: 1
    decay_mult: 1
  }
  scale_param {
    bias_term: true
    bias_filler {
      type: "constant"
      value: 0
    }
  }
}
layer {
  name: "relu5_1_D"
  type: "ReLU"
  bottom: "conv5_1_D"
  top: "conv5_1_D"
}
layer {
  name: "upsample4"
  type: "Upsample"
  bottom: "conv5_1_D"
  bottom: "pool4_mask"
  top: "pool4_D"
  upsample_param {
    scale: 2
    upsample_h: 28
    upsample_w: 28
  }
}
layer {
  name: "conv4_1_D"
  type: "Convolution"
  bottom: "pool4_D"
  top: "conv4_1_D"
  param {
    lr_mult: 1
    decay_mult: 1
  }
  convolution_param {
    num_output: 128
    bias_term: false
    pad: 1
    kernel_size: 3
    weight_filler {
      type: "msra"
    }
  }
}
layer {
  name: "bn4_1_D"
  type: "BatchNorm"
  bottom: "conv4_1_D"
  top: "conv4_1_D"
  param {
    lr_mult: 0
  }
  param {
    lr_mult: 0
  }
  param {
    lr_mult: 0
  }
  batch_norm_param {
    use_global_stats: false
  }
}
layer {
  name: "scale4_1_D"
  type: "Scale"
  bottom: "conv4_1_D"
  top: "conv4_1_D"
  param {
    lr_mult: 1
    decay_mult: 1
  }
  param {
    lr_mult: 1
    decay_mult: 1
  }
  scale_param {
    bias_term: true
    bias_filler {
      type: "constant"
      value: 0
    }
  }
}
layer {
  name: "relu4_1_D"
  type: "ReLU"
  bottom: "conv4_1_D"
  top: "conv4_1_D"
}
layer {
  name: "upsample3"
  type: "Upsample"
  bottom: "conv4_1_D"
  bottom: "pool3_mask"
  top: "pool3_D"
  upsample_param {
    scale: 2
    upsample_h: 56
    upsample_w: 56
  }
}
layer {
  name: "conv3_1_D"
  type: "Convolution"
  bottom: "pool3_D"
  top: "conv3_1_D"
  param {
    lr_mult: 1
    decay_mult: 1
  }
  convolution_param {
    num_output: 64
    bias_term: false
    pad: 1
    kernel_size: 3
    weight_filler {
      type: "msra"
    }
  }
}
layer {
  name: "bn3_1_D"
  type: "BatchNorm"
  bottom: "conv3_1_D"
  top: "conv3_1_D"
  param {
    lr_mult: 0
  }
  param {
    lr_mult: 0
  }
  param {
    lr_mult: 0
  }
  batch_norm_param {
    use_global_stats: false
  }
}
layer {
  name: "scale3_1_D"
  type: "Scale"
  bottom: "conv3_1_D"
  top: "conv3_1_D"
  param {
    lr_mult: 1
    decay_mult: 1
  }
  param {
    lr_mult: 1
    decay_mult: 1
  }
  scale_param {
    bias_term: true
    bias_filler {
      type: "constant"
      value: 0
    }
  }
}
layer {
  name: "relu3_1_D"
  type: "ReLU"
  bottom: "conv3_1_D"
  top: "conv3_1_D"
}
layer {
  name: "upsample2"
  type: "Upsample"
  bottom: "conv3_1_D"
  bottom: "pool2_mask"
  top: "pool2_D"
  upsample_param {
    scale: 2
    upsample_h: 112
    upsample_w: 112
  }
}
layer {
  name: "conv2_1_D"
  type: "Convolution"
  bottom: "pool2_D"
  top: "conv2_1_D"
  param {
    lr_mult: 1
    decay_mult: 1
  }
  convolution_param {
    num_output: 32
    bias_term: false
    pad: 1
    kernel_size: 3
    weight_filler {
      type: "msra"
    }
  }
}
layer {
  name: "bn2_1_D"
  type: "BatchNorm"
  bottom: "conv2_1_D"
  top: "conv2_1_D"
  param {
    lr_mult: 0
  }
  param {
    lr_mult: 0
  }
  param {
    lr_mult: 0
  }
  batch_norm_param {
    use_global_stats: false
  }
}
layer {
  name: "scale2_1_D"
  type: "Scale"
  bottom: "conv2_1_D"
  top: "conv2_1_D"
  param {
    lr_mult: 1
    decay_mult: 1
  }
  param {
    lr_mult: 1
    decay_mult: 1
  }
  scale_param {
    bias_term: true
    bias_filler {
      type: "constant"
      value: 0
    }
  }
}
layer {
  name: "relu2_1_D"
  type: "ReLU"
  bottom: "conv2_1_D"
  top: "conv2_1_D"
}
layer {
  name: "upsample1"
  type: "Upsample"
  bottom: "conv2_1_D"
  bottom: "pool1_mask"
  top: "pool1_D"
  upsample_param {
    scale: 2
    upsample_h: 224
    upsample_w: 224
  }
}
layer {
  name: "conv1_1_D"
  type: "Convolution"
  bottom: "pool1_D"
  top: "conv1_1_D"
  param {
    lr_mult: 1
    decay_mult: 1
  }
  param {
    lr_mult: 1
    decay_mult: 1
  }
  convolution_param {
    num_output: 2
    pad: 1
    kernel_size: 3
    weight_filler {
      type: "msra"
    }
    bias_filler {
      type: "constant"
    }
  }
}
layer {
  name: "loss"
  type: "SoftmaxWithLoss"
  bottom: "conv1_1_D"
  bottom: "label"
  top: "loss"
}
layer {
  name: "accuracy"
  type: "Accuracy"
  bottom: "conv1_1_D"
  bottom: "label"
  top: "accuracy"
}
I0525 12:57:03.788750 25608 layer_factory.hpp:77] Creating layer data
I0525 12:57:03.788784 25608 net.cpp:91] Creating Layer data
I0525 12:57:03.788791 25608 net.cpp:399] data -> data
I0525 12:57:03.788817 25608 net.cpp:399] data -> label
I0525 12:57:03.789172 25608 dense_image_data_layer.cpp:38] Opening file data/train.txt
I0525 12:57:03.791726 25608 dense_image_data_layer.cpp:48] Shuffling data
I0525 12:57:03.792259 25608 dense_image_data_layer.cpp:53] A total of 4930 examples.
I0525 12:57:03.962079 25608 dense_image_data_layer.cpp:92] output data size: 1,1,224,224
I0525 12:57:03.963289 25608 net.cpp:141] Setting up data
I0525 12:57:03.963307 25608 net.cpp:148] Top shape: 1 1 224 224 (50176)
I0525 12:57:03.963311 25608 net.cpp:148] Top shape: 1 1 224 224 (50176)
I0525 12:57:03.963315 25608 net.cpp:156] Memory required for data: 401408
I0525 12:57:03.963321 25608 layer_factory.hpp:77] Creating layer label_data_1_split
I0525 12:57:03.963352 25608 net.cpp:91] Creating Layer label_data_1_split
I0525 12:57:03.963371 25608 net.cpp:425] label_data_1_split <- label
I0525 12:57:03.963382 25608 net.cpp:399] label_data_1_split -> label_data_1_split_0
I0525 12:57:03.963390 25608 net.cpp:399] label_data_1_split -> label_data_1_split_1
I0525 12:57:03.963459 25608 net.cpp:141] Setting up label_data_1_split
I0525 12:57:03.963465 25608 net.cpp:148] Top shape: 1 1 224 224 (50176)
I0525 12:57:03.963469 25608 net.cpp:148] Top shape: 1 1 224 224 (50176)
I0525 12:57:03.963470 25608 net.cpp:156] Memory required for data: 802816
I0525 12:57:03.963474 25608 layer_factory.hpp:77] Creating layer conv1_1
I0525 12:57:03.963487 25608 net.cpp:91] Creating Layer conv1_1
I0525 12:57:03.963490 25608 net.cpp:425] conv1_1 <- data
I0525 12:57:03.963495 25608 net.cpp:399] conv1_1 -> conv1_1
I0525 12:57:04.123031 25608 net.cpp:141] Setting up conv1_1
I0525 12:57:04.123057 25608 net.cpp:148] Top shape: 1 32 224 224 (1605632)
I0525 12:57:04.123060 25608 net.cpp:156] Memory required for data: 7225344
I0525 12:57:04.123072 25608 layer_factory.hpp:77] Creating layer bn1_1
I0525 12:57:04.123085 25608 net.cpp:91] Creating Layer bn1_1
I0525 12:57:04.123090 25608 net.cpp:425] bn1_1 <- conv1_1
I0525 12:57:04.123095 25608 net.cpp:386] bn1_1 -> conv1_1 (in-place)
I0525 12:57:04.123286 25608 net.cpp:141] Setting up bn1_1
I0525 12:57:04.123293 25608 net.cpp:148] Top shape: 1 32 224 224 (1605632)
I0525 12:57:04.123296 25608 net.cpp:156] Memory required for data: 13647872
I0525 12:57:04.123304 25608 layer_factory.hpp:77] Creating layer scale1_1
I0525 12:57:04.123314 25608 net.cpp:91] Creating Layer scale1_1
I0525 12:57:04.123317 25608 net.cpp:425] scale1_1 <- conv1_1
I0525 12:57:04.123320 25608 net.cpp:386] scale1_1 -> conv1_1 (in-place)
I0525 12:57:04.123364 25608 layer_factory.hpp:77] Creating layer scale1_1
I0525 12:57:04.123536 25608 net.cpp:141] Setting up scale1_1
I0525 12:57:04.123544 25608 net.cpp:148] Top shape: 1 32 224 224 (1605632)
I0525 12:57:04.123548 25608 net.cpp:156] Memory required for data: 20070400
I0525 12:57:04.123553 25608 layer_factory.hpp:77] Creating layer relu1_1
I0525 12:57:04.123559 25608 net.cpp:91] Creating Layer relu1_1
I0525 12:57:04.123563 25608 net.cpp:425] relu1_1 <- conv1_1
I0525 12:57:04.123566 25608 net.cpp:386] relu1_1 -> conv1_1 (in-place)
I0525 12:57:04.123817 25608 net.cpp:141] Setting up relu1_1
I0525 12:57:04.123828 25608 net.cpp:148] Top shape: 1 32 224 224 (1605632)
I0525 12:57:04.123831 25608 net.cpp:156] Memory required for data: 26492928
I0525 12:57:04.123834 25608 layer_factory.hpp:77] Creating layer pool1
I0525 12:57:04.123838 25608 layer_factory.cpp:90] cuDNN does not support multiple tops. Using Caffe's own pooling layer.
I0525 12:57:04.123843 25608 net.cpp:91] Creating Layer pool1
I0525 12:57:04.123847 25608 net.cpp:425] pool1 <- conv1_1
I0525 12:57:04.123850 25608 net.cpp:399] pool1 -> pool1
I0525 12:57:04.123857 25608 net.cpp:399] pool1 -> pool1_mask
I0525 12:57:04.123899 25608 net.cpp:141] Setting up pool1
I0525 12:57:04.123908 25608 net.cpp:148] Top shape: 1 32 112 112 (401408)
I0525 12:57:04.123910 25608 net.cpp:148] Top shape: 1 32 112 112 (401408)
I0525 12:57:04.123913 25608 net.cpp:156] Memory required for data: 29704192
I0525 12:57:04.123914 25608 layer_factory.hpp:77] Creating layer conv2_1
I0525 12:57:04.123924 25608 net.cpp:91] Creating Layer conv2_1
I0525 12:57:04.123925 25608 net.cpp:425] conv2_1 <- pool1
I0525 12:57:04.123930 25608 net.cpp:399] conv2_1 -> conv2_1
I0525 12:57:04.125202 25608 net.cpp:141] Setting up conv2_1
I0525 12:57:04.125216 25608 net.cpp:148] Top shape: 1 64 112 112 (802816)
I0525 12:57:04.125218 25608 net.cpp:156] Memory required for data: 32915456
I0525 12:57:04.125222 25608 layer_factory.hpp:77] Creating layer bn2_1
I0525 12:57:04.125229 25608 net.cpp:91] Creating Layer bn2_1
I0525 12:57:04.125231 25608 net.cpp:425] bn2_1 <- conv2_1
I0525 12:57:04.125237 25608 net.cpp:386] bn2_1 -> conv2_1 (in-place)
I0525 12:57:04.125726 25608 net.cpp:141] Setting up bn2_1
I0525 12:57:04.125737 25608 net.cpp:148] Top shape: 1 64 112 112 (802816)
I0525 12:57:04.125740 25608 net.cpp:156] Memory required for data: 36126720
I0525 12:57:04.125762 25608 layer_factory.hpp:77] Creating layer scale2_1
I0525 12:57:04.125771 25608 net.cpp:91] Creating Layer scale2_1
I0525 12:57:04.125773 25608 net.cpp:425] scale2_1 <- conv2_1
I0525 12:57:04.125777 25608 net.cpp:386] scale2_1 -> conv2_1 (in-place)
I0525 12:57:04.125811 25608 layer_factory.hpp:77] Creating layer scale2_1
I0525 12:57:04.125906 25608 net.cpp:141] Setting up scale2_1
I0525 12:57:04.125915 25608 net.cpp:148] Top shape: 1 64 112 112 (802816)
I0525 12:57:04.125916 25608 net.cpp:156] Memory required for data: 39337984
I0525 12:57:04.125921 25608 layer_factory.hpp:77] Creating layer relu2_1
I0525 12:57:04.125926 25608 net.cpp:91] Creating Layer relu2_1
I0525 12:57:04.125928 25608 net.cpp:425] relu2_1 <- conv2_1
I0525 12:57:04.125931 25608 net.cpp:386] relu2_1 -> conv2_1 (in-place)
I0525 12:57:04.126068 25608 net.cpp:141] Setting up relu2_1
I0525 12:57:04.126076 25608 net.cpp:148] Top shape: 1 64 112 112 (802816)
I0525 12:57:04.126080 25608 net.cpp:156] Memory required for data: 42549248
I0525 12:57:04.126081 25608 layer_factory.hpp:77] Creating layer pool2
I0525 12:57:04.126085 25608 layer_factory.cpp:90] cuDNN does not support multiple tops. Using Caffe's own pooling layer.
I0525 12:57:04.126088 25608 net.cpp:91] Creating Layer pool2
I0525 12:57:04.126091 25608 net.cpp:425] pool2 <- conv2_1
I0525 12:57:04.126096 25608 net.cpp:399] pool2 -> pool2
I0525 12:57:04.126101 25608 net.cpp:399] pool2 -> pool2_mask
I0525 12:57:04.126132 25608 net.cpp:141] Setting up pool2
I0525 12:57:04.126138 25608 net.cpp:148] Top shape: 1 64 56 56 (200704)
I0525 12:57:04.126142 25608 net.cpp:148] Top shape: 1 64 56 56 (200704)
I0525 12:57:04.126143 25608 net.cpp:156] Memory required for data: 44154880
I0525 12:57:04.126145 25608 layer_factory.hpp:77] Creating layer conv3_1
I0525 12:57:04.126154 25608 net.cpp:91] Creating Layer conv3_1
I0525 12:57:04.126157 25608 net.cpp:425] conv3_1 <- pool2
I0525 12:57:04.126160 25608 net.cpp:399] conv3_1 -> conv3_1
I0525 12:57:04.129096 25608 net.cpp:141] Setting up conv3_1
I0525 12:57:04.129109 25608 net.cpp:148] Top shape: 1 128 56 56 (401408)
I0525 12:57:04.129112 25608 net.cpp:156] Memory required for data: 45760512
I0525 12:57:04.129117 25608 layer_factory.hpp:77] Creating layer bn3_1
I0525 12:57:04.129123 25608 net.cpp:91] Creating Layer bn3_1
I0525 12:57:04.129127 25608 net.cpp:425] bn3_1 <- conv3_1
I0525 12:57:04.129129 25608 net.cpp:386] bn3_1 -> conv3_1 (in-place)
I0525 12:57:04.129596 25608 net.cpp:141] Setting up bn3_1
I0525 12:57:04.129607 25608 net.cpp:148] Top shape: 1 128 56 56 (401408)
I0525 12:57:04.129609 25608 net.cpp:156] Memory required for data: 47366144
I0525 12:57:04.129616 25608 layer_factory.hpp:77] Creating layer scale3_1
I0525 12:57:04.129622 25608 net.cpp:91] Creating Layer scale3_1
I0525 12:57:04.129624 25608 net.cpp:425] scale3_1 <- conv3_1
I0525 12:57:04.129628 25608 net.cpp:386] scale3_1 -> conv3_1 (in-place)
I0525 12:57:04.129662 25608 layer_factory.hpp:77] Creating layer scale3_1
I0525 12:57:04.129750 25608 net.cpp:141] Setting up scale3_1
I0525 12:57:04.129757 25608 net.cpp:148] Top shape: 1 128 56 56 (401408)
I0525 12:57:04.129765 25608 net.cpp:156] Memory required for data: 48971776
I0525 12:57:04.129775 25608 layer_factory.hpp:77] Creating layer relu3_1
I0525 12:57:04.129778 25608 net.cpp:91] Creating Layer relu3_1
I0525 12:57:04.129781 25608 net.cpp:425] relu3_1 <- conv3_1
I0525 12:57:04.129784 25608 net.cpp:386] relu3_1 -> conv3_1 (in-place)
I0525 12:57:04.129925 25608 net.cpp:141] Setting up relu3_1
I0525 12:57:04.129933 25608 net.cpp:148] Top shape: 1 128 56 56 (401408)
I0525 12:57:04.129935 25608 net.cpp:156] Memory required for data: 50577408
I0525 12:57:04.129938 25608 layer_factory.hpp:77] Creating layer pool3
I0525 12:57:04.129941 25608 layer_factory.cpp:90] cuDNN does not support multiple tops. Using Caffe's own pooling layer.
I0525 12:57:04.129947 25608 net.cpp:91] Creating Layer pool3
I0525 12:57:04.129951 25608 net.cpp:425] pool3 <- conv3_1
I0525 12:57:04.129954 25608 net.cpp:399] pool3 -> pool3
I0525 12:57:04.129968 25608 net.cpp:399] pool3 -> pool3_mask
I0525 12:57:04.130004 25608 net.cpp:141] Setting up pool3
I0525 12:57:04.130010 25608 net.cpp:148] Top shape: 1 128 28 28 (100352)
I0525 12:57:04.130013 25608 net.cpp:148] Top shape: 1 128 28 28 (100352)
I0525 12:57:04.130015 25608 net.cpp:156] Memory required for data: 51380224
I0525 12:57:04.130017 25608 layer_factory.hpp:77] Creating layer conv4_1
I0525 12:57:04.130026 25608 net.cpp:91] Creating Layer conv4_1
I0525 12:57:04.130029 25608 net.cpp:425] conv4_1 <- pool3
I0525 12:57:04.130034 25608 net.cpp:399] conv4_1 -> conv4_1
I0525 12:57:04.138514 25608 net.cpp:141] Setting up conv4_1
I0525 12:57:04.138528 25608 net.cpp:148] Top shape: 1 256 28 28 (200704)
I0525 12:57:04.138532 25608 net.cpp:156] Memory required for data: 52183040
I0525 12:57:04.138538 25608 layer_factory.hpp:77] Creating layer bn4_1
I0525 12:57:04.138545 25608 net.cpp:91] Creating Layer bn4_1
I0525 12:57:04.138548 25608 net.cpp:425] bn4_1 <- conv4_1
I0525 12:57:04.138555 25608 net.cpp:386] bn4_1 -> conv4_1 (in-place)
I0525 12:57:04.138701 25608 net.cpp:141] Setting up bn4_1
I0525 12:57:04.138708 25608 net.cpp:148] Top shape: 1 256 28 28 (200704)
I0525 12:57:04.138711 25608 net.cpp:156] Memory required for data: 52985856
I0525 12:57:04.138716 25608 layer_factory.hpp:77] Creating layer scale4_1
I0525 12:57:04.138722 25608 net.cpp:91] Creating Layer scale4_1
I0525 12:57:04.138725 25608 net.cpp:425] scale4_1 <- conv4_1
I0525 12:57:04.138728 25608 net.cpp:386] scale4_1 -> conv4_1 (in-place)
I0525 12:57:04.138759 25608 layer_factory.hpp:77] Creating layer scale4_1
I0525 12:57:04.138846 25608 net.cpp:141] Setting up scale4_1
I0525 12:57:04.138852 25608 net.cpp:148] Top shape: 1 256 28 28 (200704)
I0525 12:57:04.138855 25608 net.cpp:156] Memory required for data: 53788672
I0525 12:57:04.138859 25608 layer_factory.hpp:77] Creating layer relu4_1
I0525 12:57:04.138864 25608 net.cpp:91] Creating Layer relu4_1
I0525 12:57:04.138866 25608 net.cpp:425] relu4_1 <- conv4_1
I0525 12:57:04.138870 25608 net.cpp:386] relu4_1 -> conv4_1 (in-place)
I0525 12:57:04.139118 25608 net.cpp:141] Setting up relu4_1
I0525 12:57:04.139129 25608 net.cpp:148] Top shape: 1 256 28 28 (200704)
I0525 12:57:04.139132 25608 net.cpp:156] Memory required for data: 54591488
I0525 12:57:04.139134 25608 layer_factory.hpp:77] Creating layer pool4
I0525 12:57:04.139137 25608 layer_factory.cpp:90] cuDNN does not support multiple tops. Using Caffe's own pooling layer.
I0525 12:57:04.139142 25608 net.cpp:91] Creating Layer pool4
I0525 12:57:04.139144 25608 net.cpp:425] pool4 <- conv4_1
I0525 12:57:04.139149 25608 net.cpp:399] pool4 -> pool4
I0525 12:57:04.139154 25608 net.cpp:399] pool4 -> pool4_mask
I0525 12:57:04.139189 25608 net.cpp:141] Setting up pool4
I0525 12:57:04.139196 25608 net.cpp:148] Top shape: 1 256 14 14 (50176)
I0525 12:57:04.139199 25608 net.cpp:148] Top shape: 1 256 14 14 (50176)
I0525 12:57:04.139201 25608 net.cpp:156] Memory required for data: 54992896
I0525 12:57:04.139204 25608 layer_factory.hpp:77] Creating layer conv5_1
I0525 12:57:04.139210 25608 net.cpp:91] Creating Layer conv5_1
I0525 12:57:04.139214 25608 net.cpp:425] conv5_1 <- pool4
I0525 12:57:04.139217 25608 net.cpp:399] conv5_1 -> conv5_1
I0525 12:57:04.154999 25608 net.cpp:141] Setting up conv5_1
I0525 12:57:04.155016 25608 net.cpp:148] Top shape: 1 256 14 14 (50176)
I0525 12:57:04.155019 25608 net.cpp:156] Memory required for data: 55193600
I0525 12:57:04.155025 25608 layer_factory.hpp:77] Creating layer bn5_1
I0525 12:57:04.155031 25608 net.cpp:91] Creating Layer bn5_1
I0525 12:57:04.155035 25608 net.cpp:425] bn5_1 <- conv5_1
I0525 12:57:04.155040 25608 net.cpp:386] bn5_1 -> conv5_1 (in-place)
I0525 12:57:04.155187 25608 net.cpp:141] Setting up bn5_1
I0525 12:57:04.155194 25608 net.cpp:148] Top shape: 1 256 14 14 (50176)
I0525 12:57:04.155196 25608 net.cpp:156] Memory required for data: 55394304
I0525 12:57:04.155202 25608 layer_factory.hpp:77] Creating layer scale5_1
I0525 12:57:04.155208 25608 net.cpp:91] Creating Layer scale5_1
I0525 12:57:04.155210 25608 net.cpp:425] scale5_1 <- conv5_1
I0525 12:57:04.155226 25608 net.cpp:386] scale5_1 -> conv5_1 (in-place)
I0525 12:57:04.155261 25608 layer_factory.hpp:77] Creating layer scale5_1
I0525 12:57:04.155351 25608 net.cpp:141] Setting up scale5_1
I0525 12:57:04.155359 25608 net.cpp:148] Top shape: 1 256 14 14 (50176)
I0525 12:57:04.155361 25608 net.cpp:156] Memory required for data: 55595008
I0525 12:57:04.155365 25608 layer_factory.hpp:77] Creating layer relu5_1
I0525 12:57:04.155371 25608 net.cpp:91] Creating Layer relu5_1
I0525 12:57:04.155375 25608 net.cpp:425] relu5_1 <- conv5_1
I0525 12:57:04.155377 25608 net.cpp:386] relu5_1 -> conv5_1 (in-place)
I0525 12:57:04.155521 25608 net.cpp:141] Setting up relu5_1
I0525 12:57:04.155529 25608 net.cpp:148] Top shape: 1 256 14 14 (50176)
I0525 12:57:04.155532 25608 net.cpp:156] Memory required for data: 55795712
I0525 12:57:04.155534 25608 layer_factory.hpp:77] Creating layer pool5
I0525 12:57:04.155537 25608 layer_factory.cpp:90] cuDNN does not support multiple tops. Using Caffe's own pooling layer.
I0525 12:57:04.155542 25608 net.cpp:91] Creating Layer pool5
I0525 12:57:04.155545 25608 net.cpp:425] pool5 <- conv5_1
I0525 12:57:04.155550 25608 net.cpp:399] pool5 -> pool5
I0525 12:57:04.155555 25608 net.cpp:399] pool5 -> pool5_mask
I0525 12:57:04.155587 25608 net.cpp:141] Setting up pool5
I0525 12:57:04.155593 25608 net.cpp:148] Top shape: 1 256 7 7 (12544)
I0525 12:57:04.155597 25608 net.cpp:148] Top shape: 1 256 7 7 (12544)
I0525 12:57:04.155599 25608 net.cpp:156] Memory required for data: 55896064
I0525 12:57:04.155601 25608 layer_factory.hpp:77] Creating layer upsample5
I0525 12:57:04.155607 25608 net.cpp:91] Creating Layer upsample5
I0525 12:57:04.155611 25608 net.cpp:425] upsample5 <- pool5
I0525 12:57:04.155613 25608 net.cpp:425] upsample5 <- pool5_mask
I0525 12:57:04.155616 25608 net.cpp:399] upsample5 -> pool5_D
I0525 12:57:04.155637 25608 net.cpp:141] Setting up upsample5
I0525 12:57:04.155643 25608 net.cpp:148] Top shape: 1 256 14 14 (50176)
I0525 12:57:04.155645 25608 net.cpp:156] Memory required for data: 56096768
I0525 12:57:04.155647 25608 layer_factory.hpp:77] Creating layer conv5_1_D
I0525 12:57:04.155656 25608 net.cpp:91] Creating Layer conv5_1_D
I0525 12:57:04.155658 25608 net.cpp:425] conv5_1_D <- pool5_D
I0525 12:57:04.155664 25608 net.cpp:399] conv5_1_D -> conv5_1_D
I0525 12:57:04.171511 25608 net.cpp:141] Setting up conv5_1_D
I0525 12:57:04.171532 25608 net.cpp:148] Top shape: 1 256 14 14 (50176)
I0525 12:57:04.171535 25608 net.cpp:156] Memory required for data: 56297472
I0525 12:57:04.171541 25608 layer_factory.hpp:77] Creating layer bn5_1_D
I0525 12:57:04.171552 25608 net.cpp:91] Creating Layer bn5_1_D
I0525 12:57:04.171556 25608 net.cpp:425] bn5_1_D <- conv5_1_D
I0525 12:57:04.171562 25608 net.cpp:386] bn5_1_D -> conv5_1_D (in-place)
I0525 12:57:04.171712 25608 net.cpp:141] Setting up bn5_1_D
I0525 12:57:04.171720 25608 net.cpp:148] Top shape: 1 256 14 14 (50176)
I0525 12:57:04.171723 25608 net.cpp:156] Memory required for data: 56498176
I0525 12:57:04.171737 25608 layer_factory.hpp:77] Creating layer scale5_1_D
I0525 12:57:04.171744 25608 net.cpp:91] Creating Layer scale5_1_D
I0525 12:57:04.171747 25608 net.cpp:425] scale5_1_D <- conv5_1_D
I0525 12:57:04.171751 25608 net.cpp:386] scale5_1_D -> conv5_1_D (in-place)
I0525 12:57:04.171785 25608 layer_factory.hpp:77] Creating layer scale5_1_D
I0525 12:57:04.171871 25608 net.cpp:141] Setting up scale5_1_D
I0525 12:57:04.171877 25608 net.cpp:148] Top shape: 1 256 14 14 (50176)
I0525 12:57:04.171880 25608 net.cpp:156] Memory required for data: 56698880
I0525 12:57:04.171885 25608 layer_factory.hpp:77] Creating layer relu5_1_D
I0525 12:57:04.171888 25608 net.cpp:91] Creating Layer relu5_1_D
I0525 12:57:04.171891 25608 net.cpp:425] relu5_1_D <- conv5_1_D
I0525 12:57:04.171897 25608 net.cpp:386] relu5_1_D -> conv5_1_D (in-place)
I0525 12:57:04.172039 25608 net.cpp:141] Setting up relu5_1_D
I0525 12:57:04.172045 25608 net.cpp:148] Top shape: 1 256 14 14 (50176)
I0525 12:57:04.172049 25608 net.cpp:156] Memory required for data: 56899584
I0525 12:57:04.172063 25608 layer_factory.hpp:77] Creating layer upsample4
I0525 12:57:04.172073 25608 net.cpp:91] Creating Layer upsample4
I0525 12:57:04.172076 25608 net.cpp:425] upsample4 <- conv5_1_D
I0525 12:57:04.172080 25608 net.cpp:425] upsample4 <- pool4_mask
I0525 12:57:04.172085 25608 net.cpp:399] upsample4 -> pool4_D
I0525 12:57:04.172111 25608 net.cpp:141] Setting up upsample4
I0525 12:57:04.172117 25608 net.cpp:148] Top shape: 1 256 28 28 (200704)
I0525 12:57:04.172119 25608 net.cpp:156] Memory required for data: 57702400
I0525 12:57:04.172122 25608 layer_factory.hpp:77] Creating layer conv4_1_D
I0525 12:57:04.172130 25608 net.cpp:91] Creating Layer conv4_1_D
I0525 12:57:04.172133 25608 net.cpp:425] conv4_1_D <- pool4_D
I0525 12:57:04.172137 25608 net.cpp:399] conv4_1_D -> conv4_1_D
I0525 12:57:04.180574 25608 net.cpp:141] Setting up conv4_1_D
I0525 12:57:04.180591 25608 net.cpp:148] Top shape: 1 128 28 28 (100352)
I0525 12:57:04.180593 25608 net.cpp:156] Memory required for data: 58103808
I0525 12:57:04.180598 25608 layer_factory.hpp:77] Creating layer bn4_1_D
I0525 12:57:04.180605 25608 net.cpp:91] Creating Layer bn4_1_D
I0525 12:57:04.180609 25608 net.cpp:425] bn4_1_D <- conv4_1_D
I0525 12:57:04.180614 25608 net.cpp:386] bn4_1_D -> conv4_1_D (in-place)
I0525 12:57:04.180768 25608 net.cpp:141] Setting up bn4_1_D
I0525 12:57:04.180775 25608 net.cpp:148] Top shape: 1 128 28 28 (100352)
I0525 12:57:04.180778 25608 net.cpp:156] Memory required for data: 58505216
I0525 12:57:04.180783 25608 layer_factory.hpp:77] Creating layer scale4_1_D
I0525 12:57:04.180789 25608 net.cpp:91] Creating Layer scale4_1_D
I0525 12:57:04.180793 25608 net.cpp:425] scale4_1_D <- conv4_1_D
I0525 12:57:04.180796 25608 net.cpp:386] scale4_1_D -> conv4_1_D (in-place)
I0525 12:57:04.180827 25608 layer_factory.hpp:77] Creating layer scale4_1_D
I0525 12:57:04.180913 25608 net.cpp:141] Setting up scale4_1_D
I0525 12:57:04.180922 25608 net.cpp:148] Top shape: 1 128 28 28 (100352)
I0525 12:57:04.180923 25608 net.cpp:156] Memory required for data: 58906624
I0525 12:57:04.180927 25608 layer_factory.hpp:77] Creating layer relu4_1_D
I0525 12:57:04.180932 25608 net.cpp:91] Creating Layer relu4_1_D
I0525 12:57:04.180934 25608 net.cpp:425] relu4_1_D <- conv4_1_D
I0525 12:57:04.180938 25608 net.cpp:386] relu4_1_D -> conv4_1_D (in-place)
I0525 12:57:04.181182 25608 net.cpp:141] Setting up relu4_1_D
I0525 12:57:04.181193 25608 net.cpp:148] Top shape: 1 128 28 28 (100352)
I0525 12:57:04.181195 25608 net.cpp:156] Memory required for data: 59308032
I0525 12:57:04.181198 25608 layer_factory.hpp:77] Creating layer upsample3
I0525 12:57:04.181205 25608 net.cpp:91] Creating Layer upsample3
I0525 12:57:04.181208 25608 net.cpp:425] upsample3 <- conv4_1_D
I0525 12:57:04.181212 25608 net.cpp:425] upsample3 <- pool3_mask
I0525 12:57:04.181216 25608 net.cpp:399] upsample3 -> pool3_D
I0525 12:57:04.181241 25608 net.cpp:141] Setting up upsample3
I0525 12:57:04.181246 25608 net.cpp:148] Top shape: 1 128 56 56 (401408)
I0525 12:57:04.181247 25608 net.cpp:156] Memory required for data: 60913664
I0525 12:57:04.181249 25608 layer_factory.hpp:77] Creating layer conv3_1_D
I0525 12:57:04.181259 25608 net.cpp:91] Creating Layer conv3_1_D
I0525 12:57:04.181262 25608 net.cpp:425] conv3_1_D <- pool3_D
I0525 12:57:04.181267 25608 net.cpp:399] conv3_1_D -> conv3_1_D
I0525 12:57:04.184018 25608 net.cpp:141] Setting up conv3_1_D
I0525 12:57:04.184031 25608 net.cpp:148] Top shape: 1 64 56 56 (200704)
I0525 12:57:04.184033 25608 net.cpp:156] Memory required for data: 61716480
I0525 12:57:04.184039 25608 layer_factory.hpp:77] Creating layer bn3_1_D
I0525 12:57:04.184044 25608 net.cpp:91] Creating Layer bn3_1_D
I0525 12:57:04.184047 25608 net.cpp:425] bn3_1_D <- conv3_1_D
I0525 12:57:04.184052 25608 net.cpp:386] bn3_1_D -> conv3_1_D (in-place)
I0525 12:57:04.184216 25608 net.cpp:141] Setting up bn3_1_D
I0525 12:57:04.184222 25608 net.cpp:148] Top shape: 1 64 56 56 (200704)
I0525 12:57:04.184224 25608 net.cpp:156] Memory required for data: 62519296
I0525 12:57:04.184231 25608 layer_factory.hpp:77] Creating layer scale3_1_D
I0525 12:57:04.184248 25608 net.cpp:91] Creating Layer scale3_1_D
I0525 12:57:04.184252 25608 net.cpp:425] scale3_1_D <- conv3_1_D
I0525 12:57:04.184255 25608 net.cpp:386] scale3_1_D -> conv3_1_D (in-place)
I0525 12:57:04.184291 25608 layer_factory.hpp:77] Creating layer scale3_1_D
I0525 12:57:04.184391 25608 net.cpp:141] Setting up scale3_1_D
I0525 12:57:04.184399 25608 net.cpp:148] Top shape: 1 64 56 56 (200704)
I0525 12:57:04.184402 25608 net.cpp:156] Memory required for data: 63322112
I0525 12:57:04.184406 25608 layer_factory.hpp:77] Creating layer relu3_1_D
I0525 12:57:04.184411 25608 net.cpp:91] Creating Layer relu3_1_D
I0525 12:57:04.184413 25608 net.cpp:425] relu3_1_D <- conv3_1_D
I0525 12:57:04.184417 25608 net.cpp:386] relu3_1_D -> conv3_1_D (in-place)
I0525 12:57:04.184559 25608 net.cpp:141] Setting up relu3_1_D
I0525 12:57:04.184567 25608 net.cpp:148] Top shape: 1 64 56 56 (200704)
I0525 12:57:04.184571 25608 net.cpp:156] Memory required for data: 64124928
I0525 12:57:04.184572 25608 layer_factory.hpp:77] Creating layer upsample2
I0525 12:57:04.184578 25608 net.cpp:91] Creating Layer upsample2
I0525 12:57:04.184581 25608 net.cpp:425] upsample2 <- conv3_1_D
I0525 12:57:04.184584 25608 net.cpp:425] upsample2 <- pool2_mask
I0525 12:57:04.184592 25608 net.cpp:399] upsample2 -> pool2_D
I0525 12:57:04.184619 25608 net.cpp:141] Setting up upsample2
I0525 12:57:04.184625 25608 net.cpp:148] Top shape: 1 64 112 112 (802816)
I0525 12:57:04.184628 25608 net.cpp:156] Memory required for data: 67336192
I0525 12:57:04.184630 25608 layer_factory.hpp:77] Creating layer conv2_1_D
I0525 12:57:04.184639 25608 net.cpp:91] Creating Layer conv2_1_D
I0525 12:57:04.184641 25608 net.cpp:425] conv2_1_D <- pool2_D
I0525 12:57:04.184646 25608 net.cpp:399] conv2_1_D -> conv2_1_D
I0525 12:57:04.185868 25608 net.cpp:141] Setting up conv2_1_D
I0525 12:57:04.185879 25608 net.cpp:148] Top shape: 1 32 112 112 (401408)
I0525 12:57:04.185881 25608 net.cpp:156] Memory required for data: 68941824
I0525 12:57:04.185886 25608 layer_factory.hpp:77] Creating layer bn2_1_D
I0525 12:57:04.185892 25608 net.cpp:91] Creating Layer bn2_1_D
I0525 12:57:04.185895 25608 net.cpp:425] bn2_1_D <- conv2_1_D
I0525 12:57:04.185901 25608 net.cpp:386] bn2_1_D -> conv2_1_D (in-place)
I0525 12:57:04.186063 25608 net.cpp:141] Setting up bn2_1_D
I0525 12:57:04.186070 25608 net.cpp:148] Top shape: 1 32 112 112 (401408)
I0525 12:57:04.186072 25608 net.cpp:156] Memory required for data: 70547456
I0525 12:57:04.186077 25608 layer_factory.hpp:77] Creating layer scale2_1_D
I0525 12:57:04.186084 25608 net.cpp:91] Creating Layer scale2_1_D
I0525 12:57:04.186087 25608 net.cpp:425] scale2_1_D <- conv2_1_D
I0525 12:57:04.186090 25608 net.cpp:386] scale2_1_D -> conv2_1_D (in-place)
I0525 12:57:04.186125 25608 layer_factory.hpp:77] Creating layer scale2_1_D
I0525 12:57:04.186264 25608 net.cpp:141] Setting up scale2_1_D
I0525 12:57:04.186275 25608 net.cpp:148] Top shape: 1 32 112 112 (401408)
I0525 12:57:04.186277 25608 net.cpp:156] Memory required for data: 72153088
I0525 12:57:04.186282 25608 layer_factory.hpp:77] Creating layer relu2_1_D
I0525 12:57:04.186287 25608 net.cpp:91] Creating Layer relu2_1_D
I0525 12:57:04.186290 25608 net.cpp:425] relu2_1_D <- conv2_1_D
I0525 12:57:04.186295 25608 net.cpp:386] relu2_1_D -> conv2_1_D (in-place)
I0525 12:57:04.186434 25608 net.cpp:141] Setting up relu2_1_D
I0525 12:57:04.186442 25608 net.cpp:148] Top shape: 1 32 112 112 (401408)
I0525 12:57:04.186445 25608 net.cpp:156] Memory required for data: 73758720
I0525 12:57:04.186449 25608 layer_factory.hpp:77] Creating layer upsample1
I0525 12:57:04.186452 25608 net.cpp:91] Creating Layer upsample1
I0525 12:57:04.186455 25608 net.cpp:425] upsample1 <- conv2_1_D
I0525 12:57:04.186458 25608 net.cpp:425] upsample1 <- pool1_mask
I0525 12:57:04.186462 25608 net.cpp:399] upsample1 -> pool1_D
I0525 12:57:04.186486 25608 net.cpp:141] Setting up upsample1
I0525 12:57:04.186492 25608 net.cpp:148] Top shape: 1 32 224 224 (1605632)
I0525 12:57:04.186494 25608 net.cpp:156] Memory required for data: 80181248
I0525 12:57:04.186506 25608 layer_factory.hpp:77] Creating layer conv1_1_D
I0525 12:57:04.186513 25608 net.cpp:91] Creating Layer conv1_1_D
I0525 12:57:04.186517 25608 net.cpp:425] conv1_1_D <- pool1_D
I0525 12:57:04.186522 25608 net.cpp:399] conv1_1_D -> conv1_1_D
I0525 12:57:04.187553 25608 net.cpp:141] Setting up conv1_1_D
I0525 12:57:04.187566 25608 net.cpp:148] Top shape: 1 2 224 224 (100352)
I0525 12:57:04.187569 25608 net.cpp:156] Memory required for data: 80582656
I0525 12:57:04.187574 25608 layer_factory.hpp:77] Creating layer conv1_1_D_conv1_1_D_0_split
I0525 12:57:04.187580 25608 net.cpp:91] Creating Layer conv1_1_D_conv1_1_D_0_split
I0525 12:57:04.187582 25608 net.cpp:425] conv1_1_D_conv1_1_D_0_split <- conv1_1_D
I0525 12:57:04.187589 25608 net.cpp:399] conv1_1_D_conv1_1_D_0_split -> conv1_1_D_conv1_1_D_0_split_0
I0525 12:57:04.187594 25608 net.cpp:399] conv1_1_D_conv1_1_D_0_split -> conv1_1_D_conv1_1_D_0_split_1
I0525 12:57:04.187634 25608 net.cpp:141] Setting up conv1_1_D_conv1_1_D_0_split
I0525 12:57:04.187641 25608 net.cpp:148] Top shape: 1 2 224 224 (100352)
I0525 12:57:04.187644 25608 net.cpp:148] Top shape: 1 2 224 224 (100352)
I0525 12:57:04.187646 25608 net.cpp:156] Memory required for data: 81385472
I0525 12:57:04.187649 25608 layer_factory.hpp:77] Creating layer loss
I0525 12:57:04.187652 25608 net.cpp:91] Creating Layer loss
I0525 12:57:04.187655 25608 net.cpp:425] loss <- conv1_1_D_conv1_1_D_0_split_0
I0525 12:57:04.187659 25608 net.cpp:425] loss <- label_data_1_split_0
I0525 12:57:04.187662 25608 net.cpp:399] loss -> loss
…
