…
I0623 20:33:05.702114  3303 net.cpp:313] The NetState phase (0) differed from the phase (1) specified by a rule in layer data
I0623 20:33:05.702656  3303 net.cpp:49] Initializing net from parameters: 
name: "segnet"
state {
  phase: TRAIN
}
layer {
  name: "data"
  type: "DenseImageData"
  top: "data"
  top: "label"
  include {
    phase: TRAIN
  }
  transform_param {
    crop_size: 224
    mean_value: 100
  }
  dense_image_data_param {
    source: "data/train.txt"
    batch_size: 16
    shuffle: true
    new_height: 224
    new_width: 310
    is_color: false
    root_folder: "data/raw/train/"
  }
}
layer {
  name: "conv1_1"
  type: "Convolution"
  bottom: "data"
  top: "conv1_1"
  param {
    lr_mult: 1
    decay_mult: 1
  }
  convolution_param {
    num_output: 64
    bias_term: false
    pad: 1
    kernel_size: 3
    weight_filler {
      type: "xavier"
    }
  }
}
layer {
  name: "bn1_1"
  type: "BatchNorm"
  bottom: "conv1_1"
  top: "conv1_1"
  param {
    lr_mult: 0
  }
  param {
    lr_mult: 0
  }
  param {
    lr_mult: 0
  }
  batch_norm_param {
    use_global_stats: false
  }
}
layer {
  name: "scale1_1"
  type: "Scale"
  bottom: "conv1_1"
  top: "conv1_1"
  param {
    lr_mult: 1
    decay_mult: 1
  }
  param {
    lr_mult: 1
    decay_mult: 1
  }
  scale_param {
    bias_term: true
    bias_filler {
      type: "constant"
      value: 0
    }
  }
}
layer {
  name: "relu1_1"
  type: "ReLU"
  bottom: "conv1_1"
  top: "conv1_1"
}
layer {
  name: "conv1_2"
  type: "Convolution"
  bottom: "conv1_1"
  top: "conv1_2"
  param {
    lr_mult: 1
    decay_mult: 1
  }
  convolution_param {
    num_output: 64
    bias_term: false
    pad: 1
    kernel_size: 3
    weight_filler {
      type: "xavier"
    }
  }
}
layer {
  name: "bn1_2"
  type: "BatchNorm"
  bottom: "conv1_2"
  top: "conv1_2"
  param {
    lr_mult: 0
  }
  param {
    lr_mult: 0
  }
  param {
    lr_mult: 0
  }
  batch_norm_param {
    use_global_stats: false
  }
}
layer {
  name: "scale1_2"
  type: "Scale"
  bottom: "conv1_2"
  top: "conv1_2"
  param {
    lr_mult: 1
    decay_mult: 1
  }
  param {
    lr_mult: 1
    decay_mult: 1
  }
  scale_param {
    bias_term: true
    bias_filler {
      type: "constant"
      value: 0
    }
  }
}
layer {
  name: "relu1_2"
  type: "ReLU"
  bottom: "conv1_2"
  top: "conv1_2"
}
layer {
  name: "pool1"
  type: "Pooling"
  bottom: "conv1_2"
  top: "pool1"
  top: "pool1_mask"
  pooling_param {
    pool: MAX
    kernel_size: 2
    stride: 2
  }
}
layer {
  name: "conv2_1"
  type: "Convolution"
  bottom: "pool1"
  top: "conv2_1"
  param {
    lr_mult: 1
    decay_mult: 1
  }
  convolution_param {
    num_output: 64
    bias_term: false
    pad: 1
    kernel_size: 3
    weight_filler {
      type: "xavier"
    }
  }
}
layer {
  name: "bn2_1"
  type: "BatchNorm"
  bottom: "conv2_1"
  top: "conv2_1"
  param {
    lr_mult: 0
  }
  param {
    lr_mult: 0
  }
  param {
    lr_mult: 0
  }
  batch_norm_param {
    use_global_stats: false
  }
}
layer {
  name: "scale2_1"
  type: "Scale"
  bottom: "conv2_1"
  top: "conv2_1"
  param {
    lr_mult: 1
    decay_mult: 1
  }
  param {
    lr_mult: 1
    decay_mult: 1
  }
  scale_param {
    bias_term: true
    bias_filler {
      type: "constant"
      value: 0
    }
  }
}
layer {
  name: "relu2_1"
  type: "ReLU"
  bottom: "conv2_1"
  top: "conv2_1"
}
layer {
  name: "conv2_2"
  type: "Convolution"
  bottom: "conv2_1"
  top: "conv2_2"
  param {
    lr_mult: 1
    decay_mult: 1
  }
  convolution_param {
    num_output: 64
    bias_term: false
    pad: 1
    kernel_size: 3
    weight_filler {
      type: "xavier"
    }
  }
}
layer {
  name: "bn2_2"
  type: "BatchNorm"
  bottom: "conv2_2"
  top: "conv2_2"
  param {
    lr_mult: 0
  }
  param {
    lr_mult: 0
  }
  param {
    lr_mult: 0
  }
  batch_norm_param {
    use_global_stats: false
  }
}
layer {
  name: "scale2_2"
  type: "Scale"
  bottom: "conv2_2"
  top: "conv2_2"
  param {
    lr_mult: 1
    decay_mult: 1
  }
  param {
    lr_mult: 1
    decay_mult: 1
  }
  scale_param {
    bias_term: true
    bias_filler {
      type: "constant"
      value: 0
    }
  }
}
layer {
  name: "relu2_2"
  type: "ReLU"
  bottom: "conv2_2"
  top: "conv2_2"
}
layer {
  name: "pool2"
  type: "Pooling"
  bottom: "conv2_2"
  top: "pool2"
  top: "pool2_mask"
  pooling_param {
    pool: MAX
    kernel_size: 2
    stride: 2
  }
}
layer {
  name: "conv3_1"
  type: "Convolution"
  bottom: "pool2"
  top: "conv3_1"
  param {
    lr_mult: 1
    decay_mult: 1
  }
  convolution_param {
    num_output: 64
    bias_term: false
    pad: 1
    kernel_size: 3
    weight_filler {
      type: "xavier"
    }
  }
}
layer {
  name: "bn3_1"
  type: "BatchNorm"
  bottom: "conv3_1"
  top: "conv3_1"
  param {
    lr_mult: 0
  }
  param {
    lr_mult: 0
  }
  param {
    lr_mult: 0
  }
  batch_norm_param {
    use_global_stats: false
  }
}
layer {
  name: "scale3_1"
  type: "Scale"
  bottom: "conv3_1"
  top: "conv3_1"
  param {
    lr_mult: 1
    decay_mult: 1
  }
  param {
    lr_mult: 1
    decay_mult: 1
  }
  scale_param {
    bias_term: true
    bias_filler {
      type: "constant"
      value: 0
    }
  }
}
layer {
  name: "relu3_1"
  type: "ReLU"
  bottom: "conv3_1"
  top: "conv3_1"
}
layer {
  name: "conv3_2"
  type: "Convolution"
  bottom: "conv3_1"
  top: "conv3_2"
  param {
    lr_mult: 1
    decay_mult: 1
  }
  convolution_param {
    num_output: 64
    bias_term: false
    pad: 1
    kernel_size: 3
    weight_filler {
      type: "xavier"
    }
  }
}
layer {
  name: "bn3_2"
  type: "BatchNorm"
  bottom: "conv3_2"
  top: "conv3_2"
  param {
    lr_mult: 0
  }
  param {
    lr_mult: 0
  }
  param {
    lr_mult: 0
  }
  batch_norm_param {
    use_global_stats: false
  }
}
layer {
  name: "scale3_2"
  type: "Scale"
  bottom: "conv3_2"
  top: "conv3_2"
  param {
    lr_mult: 1
    decay_mult: 1
  }
  param {
    lr_mult: 1
    decay_mult: 1
  }
  scale_param {
    bias_term: true
    bias_filler {
      type: "constant"
      value: 0
    }
  }
}
layer {
  name: "relu3_2"
  type: "ReLU"
  bottom: "conv3_2"
  top: "conv3_2"
}
layer {
  name: "pool3"
  type: "Pooling"
  bottom: "conv3_2"
  top: "pool3"
  top: "pool3_mask"
  pooling_param {
    pool: MAX
    kernel_size: 2
    stride: 2
  }
}
layer {
  name: "conv4_1"
  type: "Convolution"
  bottom: "pool3"
  top: "conv4_1"
  param {
    lr_mult: 1
    decay_mult: 1
  }
  convolution_param {
    num_output: 64
    bias_term: false
    pad: 1
    kernel_size: 3
    weight_filler {
      type: "xavier"
    }
  }
}
layer {
  name: "bn4_1"
  type: "BatchNorm"
  bottom: "conv4_1"
  top: "conv4_1"
  param {
    lr_mult: 0
  }
  param {
    lr_mult: 0
  }
  param {
    lr_mult: 0
  }
  batch_norm_param {
    use_global_stats: false
  }
}
layer {
  name: "scale4_1"
  type: "Scale"
  bottom: "conv4_1"
  top: "conv4_1"
  param {
    lr_mult: 1
    decay_mult: 1
  }
  param {
    lr_mult: 1
    decay_mult: 1
  }
  scale_param {
    bias_term: true
    bias_filler {
      type: "constant"
      value: 0
    }
  }
}
layer {
  name: "relu4_1"
  type: "ReLU"
  bottom: "conv4_1"
  top: "conv4_1"
}
layer {
  name: "conv4_2"
  type: "Convolution"
  bottom: "conv4_1"
  top: "conv4_2"
  param {
    lr_mult: 1
    decay_mult: 1
  }
  convolution_param {
    num_output: 64
    bias_term: false
    pad: 1
    kernel_size: 3
    weight_filler {
      type: "xavier"
    }
  }
}
layer {
  name: "bn4_2"
  type: "BatchNorm"
  bottom: "conv4_2"
  top: "conv4_2"
  param {
    lr_mult: 0
  }
  param {
    lr_mult: 0
  }
  param {
    lr_mult: 0
  }
  batch_norm_param {
    use_global_stats: false
  }
}
layer {
  name: "scale4_2"
  type: "Scale"
  bottom: "conv4_2"
  top: "conv4_2"
  param {
    lr_mult: 1
    decay_mult: 1
  }
  param {
    lr_mult: 1
    decay_mult: 1
  }
  scale_param {
    bias_term: true
    bias_filler {
      type: "constant"
      value: 0
    }
  }
}
layer {
  name: "relu4_2"
  type: "ReLU"
  bottom: "conv4_2"
  top: "conv4_2"
}
layer {
  name: "pool4"
  type: "Pooling"
  bottom: "conv4_2"
  top: "pool4"
  top: "pool4_mask"
  pooling_param {
    pool: MAX
    kernel_size: 2
    stride: 2
  }
}
layer {
  name: "conv5_1"
  type: "Convolution"
  bottom: "pool4"
  top: "conv5_1"
  param {
    lr_mult: 1
    decay_mult: 1
  }
  convolution_param {
    num_output: 64
    bias_term: false
    pad: 1
    kernel_size: 3
    weight_filler {
      type: "xavier"
    }
  }
}
layer {
  name: "bn5_1"
  type: "BatchNorm"
  bottom: "conv5_1"
  top: "conv5_1"
  param {
    lr_mult: 0
  }
  param {
    lr_mult: 0
  }
  param {
    lr_mult: 0
  }
  batch_norm_param {
    use_global_stats: false
  }
}
layer {
  name: "scale5_1"
  type: "Scale"
  bottom: "conv5_1"
  top: "conv5_1"
  param {
    lr_mult: 1
    decay_mult: 1
  }
  param {
    lr_mult: 1
    decay_mult: 1
  }
  scale_param {
    bias_term: true
    bias_filler {
      type: "constant"
      value: 0
    }
  }
}
layer {
  name: "relu5_1"
  type: "ReLU"
  bottom: "conv5_1"
  top: "conv5_1"
}
layer {
  name: "conv5_2"
  type: "Convolution"
  bottom: "conv5_1"
  top: "conv5_2"
  param {
    lr_mult: 1
    decay_mult: 1
  }
  convolution_param {
    num_output: 64
    bias_term: false
    pad: 1
    kernel_size: 3
    weight_filler {
      type: "xavier"
    }
  }
}
layer {
  name: "bn5_2"
  type: "BatchNorm"
  bottom: "conv5_2"
  top: "conv5_2"
  param {
    lr_mult: 0
  }
  param {
    lr_mult: 0
  }
  param {
    lr_mult: 0
  }
  batch_norm_param {
    use_global_stats: false
  }
}
layer {
  name: "scale5_2"
  type: "Scale"
  bottom: "conv5_2"
  top: "conv5_2"
  param {
    lr_mult: 1
    decay_mult: 1
  }
  param {
    lr_mult: 1
    decay_mult: 1
  }
  scale_param {
    bias_term: true
    bias_filler {
      type: "constant"
      value: 0
    }
  }
}
layer {
  name: "relu5_2"
  type: "ReLU"
  bottom: "conv5_2"
  top: "conv5_2"
}
layer {
  name: "pool5"
  type: "Pooling"
  bottom: "conv5_2"
  top: "pool5"
  top: "pool5_mask"
  pooling_param {
    pool: MAX
    kernel_size: 2
    stride: 2
  }
}
layer {
  name: "upsample5"
  type: "Upsample"
  bottom: "pool5"
  bottom: "pool5_mask"
  top: "pool5_D"
  upsample_param {
    scale: 2
    upsample_h: 14
    upsample_w: 14
  }
}
layer {
  name: "conv5_2_D"
  type: "Convolution"
  bottom: "pool5_D"
  top: "conv5_2_D"
  param {
    lr_mult: 1
    decay_mult: 1
  }
  convolution_param {
    num_output: 64
    bias_term: false
    pad: 1
    kernel_size: 3
    weight_filler {
      type: "xavier"
    }
  }
}
layer {
  name: "bn5_2_D"
  type: "BatchNorm"
  bottom: "conv5_2_D"
  top: "conv5_2_D"
  param {
    lr_mult: 0
  }
  param {
    lr_mult: 0
  }
  param {
    lr_mult: 0
  }
  batch_norm_param {
    use_global_stats: false
  }
}
layer {
  name: "scale5_2_D"
  type: "Scale"
  bottom: "conv5_2_D"
  top: "conv5_2_D"
  param {
    lr_mult: 1
    decay_mult: 1
  }
  param {
    lr_mult: 1
    decay_mult: 1
  }
  scale_param {
    bias_term: true
    bias_filler {
      type: "constant"
      value: 0
    }
  }
}
layer {
  name: "relu5_2_D"
  type: "ReLU"
  bottom: "conv5_2_D"
  top: "conv5_2_D"
}
layer {
  name: "conv5_1_D"
  type: "Convolution"
  bottom: "conv5_2_D"
  top: "conv5_1_D"
  param {
    lr_mult: 1
    decay_mult: 1
  }
  convolution_param {
    num_output: 64
    bias_term: false
    pad: 1
    kernel_size: 3
    weight_filler {
      type: "xavier"
    }
  }
}
layer {
  name: "bn5_1_D"
  type: "BatchNorm"
  bottom: "conv5_1_D"
  top: "conv5_1_D"
  param {
    lr_mult: 0
  }
  param {
    lr_mult: 0
  }
  param {
    lr_mult: 0
  }
  batch_norm_param {
    use_global_stats: false
  }
}
layer {
  name: "scale5_1_D"
  type: "Scale"
  bottom: "conv5_1_D"
  top: "conv5_1_D"
  param {
    lr_mult: 1
    decay_mult: 1
  }
  param {
    lr_mult: 1
    decay_mult: 1
  }
  scale_param {
    bias_term: true
    bias_filler {
      type: "constant"
      value: 0
    }
  }
}
layer {
  name: "relu5_1_D"
  type: "ReLU"
  bottom: "conv5_1_D"
  top: "conv5_1_D"
}
layer {
  name: "upsample4"
  type: "Upsample"
  bottom: "conv5_1_D"
  bottom: "pool4_mask"
  top: "pool4_D"
  upsample_param {
    scale: 2
    upsample_h: 28
    upsample_w: 28
  }
}
layer {
  name: "conv4_2_D"
  type: "Convolution"
  bottom: "pool4_D"
  top: "conv4_2_D"
  param {
    lr_mult: 1
    decay_mult: 1
  }
  convolution_param {
    num_output: 64
    bias_term: false
    pad: 1
    kernel_size: 3
    weight_filler {
      type: "xavier"
    }
  }
}
layer {
  name: "bn4_2_D"
  type: "BatchNorm"
  bottom: "conv4_2_D"
  top: "conv4_2_D"
  param {
    lr_mult: 0
  }
  param {
    lr_mult: 0
  }
  param {
    lr_mult: 0
  }
  batch_norm_param {
    use_global_stats: false
  }
}
layer {
  name: "scale4_2_D"
  type: "Scale"
  bottom: "conv4_2_D"
  top: "conv4_2_D"
  param {
    lr_mult: 1
    decay_mult: 1
  }
  param {
    lr_mult: 1
    decay_mult: 1
  }
  scale_param {
    bias_term: true
    bias_filler {
      type: "constant"
      value: 0
    }
  }
}
layer {
  name: "relu4_2_D"
  type: "ReLU"
  bottom: "conv4_2_D"
  top: "conv4_2_D"
}
layer {
  name: "conv4_1_D"
  type: "Convolution"
  bottom: "conv4_2_D"
  top: "conv4_1_D"
  param {
    lr_mult: 1
    decay_mult: 1
  }
  convolution_param {
    num_output: 64
    bias_term: false
    pad: 1
    kernel_size: 3
    weight_filler {
      type: "xavier"
    }
  }
}
layer {
  name: "bn4_1_D"
  type: "BatchNorm"
  bottom: "conv4_1_D"
  top: "conv4_1_D"
  param {
    lr_mult: 0
  }
  param {
    lr_mult: 0
  }
  param {
    lr_mult: 0
  }
  batch_norm_param {
    use_global_stats: false
  }
}
layer {
  name: "scale4_1_D"
  type: "Scale"
  bottom: "conv4_1_D"
  top: "conv4_1_D"
  param {
    lr_mult: 1
    decay_mult: 1
  }
  param {
    lr_mult: 1
    decay_mult: 1
  }
  scale_param {
    bias_term: true
    bias_filler {
      type: "constant"
      value: 0
    }
  }
}
layer {
  name: "relu4_1_D"
  type: "ReLU"
  bottom: "conv4_1_D"
  top: "conv4_1_D"
}
layer {
  name: "upsample3"
  type: "Upsample"
  bottom: "conv4_1_D"
  bottom: "pool3_mask"
  top: "pool3_D"
  upsample_param {
    scale: 2
    upsample_h: 56
    upsample_w: 56
  }
}
layer {
  name: "conv3_2_D"
  type: "Convolution"
  bottom: "pool3_D"
  top: "conv3_2_D"
  param {
    lr_mult: 1
    decay_mult: 1
  }
  param {
    lr_mult: 1
    decay_mult: 1
  }
  convolution_param {
    num_output: 64
    pad: 1
    kernel_size: 3
    weight_filler {
      type: "xavier"
    }
    bias_filler {
      type: "constant"
      value: 0
    }
  }
}
layer {
  name: "bn3_2_D"
  type: "BatchNorm"
  bottom: "conv3_2_D"
  top: "conv3_2_D"
  param {
    lr_mult: 0
  }
  param {
    lr_mult: 0
  }
  param {
    lr_mult: 0
  }
  batch_norm_param {
    use_global_stats: false
  }
}
layer {
  name: "scale3_2_D"
  type: "Scale"
  bottom: "conv3_2_D"
  top: "conv3_2_D"
  param {
    lr_mult: 1
    decay_mult: 1
  }
  param {
    lr_mult: 1
    decay_mult: 1
  }
  scale_param {
    bias_term: true
    bias_filler {
      type: "constant"
      value: 0
    }
  }
}
layer {
  name: "relu3_2_D"
  type: "ReLU"
  bottom: "conv3_2_D"
  top: "conv3_2_D"
}
layer {
  name: "conv3_1_D"
  type: "Convolution"
  bottom: "conv3_2_D"
  top: "conv3_1_D"
  param {
    lr_mult: 1
    decay_mult: 1
  }
  convolution_param {
    num_output: 64
    bias_term: false
    pad: 1
    kernel_size: 3
    weight_filler {
      type: "xavier"
    }
  }
}
layer {
  name: "bn3_1_D"
  type: "BatchNorm"
  bottom: "conv3_1_D"
  top: "conv3_1_D"
  param {
    lr_mult: 0
  }
  param {
    lr_mult: 0
  }
  param {
    lr_mult: 0
  }
  batch_norm_param {
    use_global_stats: false
  }
}
layer {
  name: "scale3_1_D"
  type: "Scale"
  bottom: "conv3_1_D"
  top: "conv3_1_D"
  param {
    lr_mult: 1
    decay_mult: 1
  }
  param {
    lr_mult: 1
    decay_mult: 1
  }
  scale_param {
    bias_term: true
    bias_filler {
      type: "constant"
      value: 0
    }
  }
}
layer {
  name: "relu3_1_D"
  type: "ReLU"
  bottom: "conv3_1_D"
  top: "conv3_1_D"
}
layer {
  name: "upsample2"
  type: "Upsample"
  bottom: "conv3_1_D"
  bottom: "pool2_mask"
  top: "pool2_D"
  upsample_param {
    scale: 2
    upsample_h: 112
    upsample_w: 112
  }
}
layer {
  name: "conv2_2_D"
  type: "Convolution"
  bottom: "pool2_D"
  top: "conv2_2_D"
  param {
    lr_mult: 1
    decay_mult: 1
  }
  convolution_param {
    num_output: 64
    bias_term: false
    pad: 1
    kernel_size: 3
    weight_filler {
      type: "xavier"
    }
  }
}
layer {
  name: "bn2_2_D"
  type: "BatchNorm"
  bottom: "conv2_2_D"
  top: "conv2_2_D"
  param {
    lr_mult: 0
  }
  param {
    lr_mult: 0
  }
  param {
    lr_mult: 0
  }
  batch_norm_param {
    use_global_stats: false
  }
}
layer {
  name: "scale2_2_D"
  type: "Scale"
  bottom: "conv2_2_D"
  top: "conv2_2_D"
  param {
    lr_mult: 1
    decay_mult: 1
  }
  param {
    lr_mult: 1
    decay_mult: 1
  }
  scale_param {
    bias_term: true
    bias_filler {
      type: "constant"
      value: 0
    }
  }
}
layer {
  name: "relu2_2_D"
  type: "ReLU"
  bottom: "conv2_2_D"
  top: "conv2_2_D"
}
layer {
  name: "conv2_1_D"
  type: "Convolution"
  bottom: "conv2_2_D"
  top: "conv2_1_D"
  param {
    lr_mult: 1
    decay_mult: 1
  }
  convolution_param {
    num_output: 64
    bias_term: false
    pad: 1
    kernel_size: 3
    weight_filler {
      type: "xavier"
    }
  }
}
layer {
  name: "bn2_1_D"
  type: "BatchNorm"
  bottom: "conv2_1_D"
  top: "conv2_1_D"
  param {
    lr_mult: 0
  }
  param {
    lr_mult: 0
  }
  param {
    lr_mult: 0
  }
  batch_norm_param {
    use_global_stats: false
  }
}
layer {
  name: "scale2_1_D"
  type: "Scale"
  bottom: "conv2_1_D"
  top: "conv2_1_D"
  param {
    lr_mult: 1
    decay_mult: 1
  }
  param {
    lr_mult: 1
    decay_mult: 1
  }
  scale_param {
    bias_term: true
    bias_filler {
      type: "constant"
      value: 0
    }
  }
}
layer {
  name: "relu2_1_D"
  type: "ReLU"
  bottom: "conv2_1_D"
  top: "conv2_1_D"
}
layer {
  name: "upsample1"
  type: "Upsample"
  bottom: "conv2_1_D"
  bottom: "pool1_mask"
  top: "pool1_D"
  upsample_param {
    scale: 2
    upsample_h: 224
    upsample_w: 224
  }
}
layer {
  name: "conv1_2_D"
  type: "Convolution"
  bottom: "pool1_D"
  top: "conv1_2_D"
  param {
    lr_mult: 1
    decay_mult: 1
  }
  convolution_param {
    num_output: 64
    bias_term: false
    pad: 1
    kernel_size: 3
    weight_filler {
      type: "xavier"
    }
  }
}
layer {
  name: "bn1_2_D"
  type: "BatchNorm"
  bottom: "conv1_2_D"
  top: "conv1_2_D"
  param {
    lr_mult: 0
  }
  param {
    lr_mult: 0
  }
  param {
    lr_mult: 0
  }
  batch_norm_param {
    use_global_stats: false
  }
}
layer {
  name: "scale1_2_D"
  type: "Scale"
  bottom: "conv1_2_D"
  top: "conv1_2_D"
  param {
    lr_mult: 1
    decay_mult: 1
  }
  param {
    lr_mult: 1
    decay_mult: 1
  }
  scale_param {
    bias_term: true
    bias_filler {
      type: "constant"
      value: 0
    }
  }
}
layer {
  name: "relu1_2_D"
  type: "ReLU"
  bottom: "conv1_2_D"
  top: "conv1_2_D"
}
layer {
  name: "conv1_1_D"
  type: "Convolution"
  bottom: "conv1_2_D"
  top: "conv1_1_D"
  param {
    lr_mult: 1
    decay_mult: 1
  }
  param {
    lr_mult: 1
    decay_mult: 1
  }
  convolution_param {
    num_output: 2
    bias_term: true
    pad: 1
    kernel_size: 3
    weight_filler {
      type: "xavier"
    }
    bias_filler {
      type: "constant"
    }
  }
}
layer {
  name: "loss"
  type: "SoftmaxWithLoss"
  bottom: "conv1_1_D"
  bottom: "label"
  top: "loss"
}
layer {
  name: "accuracy"
  type: "Accuracy"
  bottom: "conv1_1_D"
  bottom: "label"
  top: "accuracy"
}
I0623 20:33:05.703021  3303 layer_factory.hpp:77] Creating layer data
I0623 20:33:05.703058  3303 net.cpp:91] Creating Layer data
I0623 20:33:05.703065  3303 net.cpp:399] data -> data
I0623 20:33:05.703090  3303 net.cpp:399] data -> label
I0623 20:33:05.703508  3303 dense_image_data_layer.cpp:38] Opening file data/train.txt
I0623 20:33:05.706504  3303 dense_image_data_layer.cpp:48] Shuffling data
I0623 20:33:05.707175  3303 dense_image_data_layer.cpp:53] A total of 4930 examples.
I0623 20:33:06.023789  3303 dense_image_data_layer.cpp:92] output data size: 1,1,224,224
I0623 20:33:06.026675  3303 net.cpp:141] Setting up data
I0623 20:33:06.026715  3303 net.cpp:148] Top shape: 1 1 224 224 (50176)
I0623 20:33:06.026731  3303 net.cpp:148] Top shape: 1 1 224 224 (50176)
I0623 20:33:06.026741  3303 net.cpp:156] Memory required for data: 401408
I0623 20:33:06.026758  3303 layer_factory.hpp:77] Creating layer label_data_1_split
I0623 20:33:06.026790  3303 net.cpp:91] Creating Layer label_data_1_split
I0623 20:33:06.026810  3303 net.cpp:425] label_data_1_split <- label
I0623 20:33:06.026835  3303 net.cpp:399] label_data_1_split -> label_data_1_split_0
I0623 20:33:06.026861  3303 net.cpp:399] label_data_1_split -> label_data_1_split_1
I0623 20:33:06.026958  3303 net.cpp:141] Setting up label_data_1_split
I0623 20:33:06.026979  3303 net.cpp:148] Top shape: 1 1 224 224 (50176)
I0623 20:33:06.026998  3303 net.cpp:148] Top shape: 1 1 224 224 (50176)
I0623 20:33:06.027005  3303 net.cpp:156] Memory required for data: 802816
I0623 20:33:06.027016  3303 layer_factory.hpp:77] Creating layer conv1_1
I0623 20:33:06.027050  3303 net.cpp:91] Creating Layer conv1_1
I0623 20:33:06.027061  3303 net.cpp:425] conv1_1 <- data
I0623 20:33:06.027077  3303 net.cpp:399] conv1_1 -> conv1_1
I0623 20:33:06.295020  3303 net.cpp:141] Setting up conv1_1
I0623 20:33:06.295047  3303 net.cpp:148] Top shape: 1 64 224 224 (3211264)
I0623 20:33:06.295050  3303 net.cpp:156] Memory required for data: 13647872
I0623 20:33:06.295061  3303 layer_factory.hpp:77] Creating layer bn1_1
I0623 20:33:06.295079  3303 net.cpp:91] Creating Layer bn1_1
I0623 20:33:06.295085  3303 net.cpp:425] bn1_1 <- conv1_1
I0623 20:33:06.295092  3303 net.cpp:386] bn1_1 -> conv1_1 (in-place)
I0623 20:33:06.295295  3303 net.cpp:141] Setting up bn1_1
I0623 20:33:06.295322  3303 net.cpp:148] Top shape: 1 64 224 224 (3211264)
I0623 20:33:06.295325  3303 net.cpp:156] Memory required for data: 26492928
I0623 20:33:06.295337  3303 layer_factory.hpp:77] Creating layer scale1_1
I0623 20:33:06.295351  3303 net.cpp:91] Creating Layer scale1_1
I0623 20:33:06.295356  3303 net.cpp:425] scale1_1 <- conv1_1
I0623 20:33:06.295363  3303 net.cpp:386] scale1_1 -> conv1_1 (in-place)
I0623 20:33:06.295413  3303 layer_factory.hpp:77] Creating layer scale1_1
I0623 20:33:06.295586  3303 net.cpp:141] Setting up scale1_1
I0623 20:33:06.295595  3303 net.cpp:148] Top shape: 1 64 224 224 (3211264)
I0623 20:33:06.295598  3303 net.cpp:156] Memory required for data: 39337984
I0623 20:33:06.295606  3303 layer_factory.hpp:77] Creating layer relu1_1
I0623 20:33:06.295614  3303 net.cpp:91] Creating Layer relu1_1
I0623 20:33:06.295619  3303 net.cpp:425] relu1_1 <- conv1_1
I0623 20:33:06.295625  3303 net.cpp:386] relu1_1 -> conv1_1 (in-place)
I0623 20:33:06.295904  3303 net.cpp:141] Setting up relu1_1
I0623 20:33:06.295917  3303 net.cpp:148] Top shape: 1 64 224 224 (3211264)
I0623 20:33:06.295919  3303 net.cpp:156] Memory required for data: 52183040
I0623 20:33:06.295922  3303 layer_factory.hpp:77] Creating layer conv1_2
I0623 20:33:06.295935  3303 net.cpp:91] Creating Layer conv1_2
I0623 20:33:06.295939  3303 net.cpp:425] conv1_2 <- conv1_1
I0623 20:33:06.295948  3303 net.cpp:399] conv1_2 -> conv1_2
I0623 20:33:06.297054  3303 net.cpp:141] Setting up conv1_2
I0623 20:33:06.297065  3303 net.cpp:148] Top shape: 1 64 224 224 (3211264)
I0623 20:33:06.297068  3303 net.cpp:156] Memory required for data: 65028096
I0623 20:33:06.297073  3303 layer_factory.hpp:77] Creating layer bn1_2
I0623 20:33:06.297082  3303 net.cpp:91] Creating Layer bn1_2
I0623 20:33:06.297086  3303 net.cpp:425] bn1_2 <- conv1_2
I0623 20:33:06.297093  3303 net.cpp:386] bn1_2 -> conv1_2 (in-place)
I0623 20:33:06.297281  3303 net.cpp:141] Setting up bn1_2
I0623 20:33:06.297291  3303 net.cpp:148] Top shape: 1 64 224 224 (3211264)
I0623 20:33:06.297293  3303 net.cpp:156] Memory required for data: 77873152
I0623 20:33:06.297305  3303 layer_factory.hpp:77] Creating layer scale1_2
I0623 20:33:06.297335  3303 net.cpp:91] Creating Layer scale1_2
I0623 20:33:06.297341  3303 net.cpp:425] scale1_2 <- conv1_2
I0623 20:33:06.297348  3303 net.cpp:386] scale1_2 -> conv1_2 (in-place)
I0623 20:33:06.297396  3303 layer_factory.hpp:77] Creating layer scale1_2
I0623 20:33:06.297572  3303 net.cpp:141] Setting up scale1_2
I0623 20:33:06.297581  3303 net.cpp:148] Top shape: 1 64 224 224 (3211264)
I0623 20:33:06.297585  3303 net.cpp:156] Memory required for data: 90718208
I0623 20:33:06.297591  3303 layer_factory.hpp:77] Creating layer relu1_2
I0623 20:33:06.297598  3303 net.cpp:91] Creating Layer relu1_2
I0623 20:33:06.297603  3303 net.cpp:425] relu1_2 <- conv1_2
I0623 20:33:06.297610  3303 net.cpp:386] relu1_2 -> conv1_2 (in-place)
I0623 20:33:06.297754  3303 net.cpp:141] Setting up relu1_2
I0623 20:33:06.297763  3303 net.cpp:148] Top shape: 1 64 224 224 (3211264)
I0623 20:33:06.297766  3303 net.cpp:156] Memory required for data: 103563264
I0623 20:33:06.297771  3303 layer_factory.hpp:77] Creating layer pool1
I0623 20:33:06.297775  3303 layer_factory.cpp:90] cuDNN does not support multiple tops. Using Caffe's own pooling layer.
I0623 20:33:06.297782  3303 net.cpp:91] Creating Layer pool1
I0623 20:33:06.297787  3303 net.cpp:425] pool1 <- conv1_2
I0623 20:33:06.297793  3303 net.cpp:399] pool1 -> pool1
I0623 20:33:06.297803  3303 net.cpp:399] pool1 -> pool1_mask
I0623 20:33:06.297855  3303 net.cpp:141] Setting up pool1
I0623 20:33:06.297863  3303 net.cpp:148] Top shape: 1 64 112 112 (802816)
I0623 20:33:06.297866  3303 net.cpp:148] Top shape: 1 64 112 112 (802816)
I0623 20:33:06.297868  3303 net.cpp:156] Memory required for data: 109985792
I0623 20:33:06.297870  3303 layer_factory.hpp:77] Creating layer conv2_1
I0623 20:33:06.297878  3303 net.cpp:91] Creating Layer conv2_1
I0623 20:33:06.297880  3303 net.cpp:425] conv2_1 <- pool1
I0623 20:33:06.297884  3303 net.cpp:399] conv2_1 -> conv2_1
I0623 20:33:06.298984  3303 net.cpp:141] Setting up conv2_1
I0623 20:33:06.298995  3303 net.cpp:148] Top shape: 1 64 112 112 (802816)
I0623 20:33:06.298998  3303 net.cpp:156] Memory required for data: 113197056
I0623 20:33:06.299002  3303 layer_factory.hpp:77] Creating layer bn2_1
I0623 20:33:06.299008  3303 net.cpp:91] Creating Layer bn2_1
I0623 20:33:06.299011  3303 net.cpp:425] bn2_1 <- conv2_1
I0623 20:33:06.299015  3303 net.cpp:386] bn2_1 -> conv2_1 (in-place)
I0623 20:33:06.299803  3303 net.cpp:141] Setting up bn2_1
I0623 20:33:06.299813  3303 net.cpp:148] Top shape: 1 64 112 112 (802816)
I0623 20:33:06.299816  3303 net.cpp:156] Memory required for data: 116408320
I0623 20:33:06.299823  3303 layer_factory.hpp:77] Creating layer scale2_1
I0623 20:33:06.299829  3303 net.cpp:91] Creating Layer scale2_1
I0623 20:33:06.299831  3303 net.cpp:425] scale2_1 <- conv2_1
I0623 20:33:06.299835  3303 net.cpp:386] scale2_1 -> conv2_1 (in-place)
I0623 20:33:06.299868  3303 layer_factory.hpp:77] Creating layer scale2_1
I0623 20:33:06.299960  3303 net.cpp:141] Setting up scale2_1
I0623 20:33:06.299968  3303 net.cpp:148] Top shape: 1 64 112 112 (802816)
I0623 20:33:06.299969  3303 net.cpp:156] Memory required for data: 119619584
I0623 20:33:06.299978  3303 layer_factory.hpp:77] Creating layer relu2_1
I0623 20:33:06.299983  3303 net.cpp:91] Creating Layer relu2_1
I0623 20:33:06.299986  3303 net.cpp:425] relu2_1 <- conv2_1
I0623 20:33:06.299989  3303 net.cpp:386] relu2_1 -> conv2_1 (in-place)
I0623 20:33:06.300268  3303 net.cpp:141] Setting up relu2_1
I0623 20:33:06.300282  3303 net.cpp:148] Top shape: 1 64 112 112 (802816)
I0623 20:33:06.300284  3303 net.cpp:156] Memory required for data: 122830848
I0623 20:33:06.300287  3303 layer_factory.hpp:77] Creating layer conv2_2
I0623 20:33:06.300295  3303 net.cpp:91] Creating Layer conv2_2
I0623 20:33:06.300298  3303 net.cpp:425] conv2_2 <- conv2_1
I0623 20:33:06.300303  3303 net.cpp:399] conv2_2 -> conv2_2
I0623 20:33:06.301918  3303 net.cpp:141] Setting up conv2_2
I0623 20:33:06.301931  3303 net.cpp:148] Top shape: 1 64 112 112 (802816)
I0623 20:33:06.301934  3303 net.cpp:156] Memory required for data: 126042112
I0623 20:33:06.301947  3303 layer_factory.hpp:77] Creating layer bn2_2
I0623 20:33:06.301956  3303 net.cpp:91] Creating Layer bn2_2
I0623 20:33:06.301959  3303 net.cpp:425] bn2_2 <- conv2_2
I0623 20:33:06.301964  3303 net.cpp:386] bn2_2 -> conv2_2 (in-place)
I0623 20:33:06.302122  3303 net.cpp:141] Setting up bn2_2
I0623 20:33:06.302130  3303 net.cpp:148] Top shape: 1 64 112 112 (802816)
I0623 20:33:06.302132  3303 net.cpp:156] Memory required for data: 129253376
I0623 20:33:06.302139  3303 layer_factory.hpp:77] Creating layer scale2_2
I0623 20:33:06.302144  3303 net.cpp:91] Creating Layer scale2_2
I0623 20:33:06.302146  3303 net.cpp:425] scale2_2 <- conv2_2
I0623 20:33:06.302150  3303 net.cpp:386] scale2_2 -> conv2_2 (in-place)
I0623 20:33:06.302184  3303 layer_factory.hpp:77] Creating layer scale2_2
I0623 20:33:06.302283  3303 net.cpp:141] Setting up scale2_2
I0623 20:33:06.302289  3303 net.cpp:148] Top shape: 1 64 112 112 (802816)
I0623 20:33:06.302291  3303 net.cpp:156] Memory required for data: 132464640
I0623 20:33:06.302296  3303 layer_factory.hpp:77] Creating layer relu2_2
I0623 20:33:06.302301  3303 net.cpp:91] Creating Layer relu2_2
I0623 20:33:06.302304  3303 net.cpp:425] relu2_2 <- conv2_2
I0623 20:33:06.302307  3303 net.cpp:386] relu2_2 -> conv2_2 (in-place)
I0623 20:33:06.302582  3303 net.cpp:141] Setting up relu2_2
I0623 20:33:06.302592  3303 net.cpp:148] Top shape: 1 64 112 112 (802816)
I0623 20:33:06.302594  3303 net.cpp:156] Memory required for data: 135675904
I0623 20:33:06.302597  3303 layer_factory.hpp:77] Creating layer pool2
I0623 20:33:06.302600  3303 layer_factory.cpp:90] cuDNN does not support multiple tops. Using Caffe's own pooling layer.
I0623 20:33:06.302606  3303 net.cpp:91] Creating Layer pool2
I0623 20:33:06.302608  3303 net.cpp:425] pool2 <- conv2_2
I0623 20:33:06.302613  3303 net.cpp:399] pool2 -> pool2
I0623 20:33:06.302618  3303 net.cpp:399] pool2 -> pool2_mask
I0623 20:33:06.302654  3303 net.cpp:141] Setting up pool2
I0623 20:33:06.302659  3303 net.cpp:148] Top shape: 1 64 56 56 (200704)
I0623 20:33:06.302664  3303 net.cpp:148] Top shape: 1 64 56 56 (200704)
I0623 20:33:06.302666  3303 net.cpp:156] Memory required for data: 137281536
I0623 20:33:06.302669  3303 layer_factory.hpp:77] Creating layer conv3_1
I0623 20:33:06.302675  3303 net.cpp:91] Creating Layer conv3_1
I0623 20:33:06.302678  3303 net.cpp:425] conv3_1 <- pool2
I0623 20:33:06.302683  3303 net.cpp:399] conv3_1 -> conv3_1
I0623 20:33:06.303825  3303 net.cpp:141] Setting up conv3_1
I0623 20:33:06.303838  3303 net.cpp:148] Top shape: 1 64 56 56 (200704)
I0623 20:33:06.303840  3303 net.cpp:156] Memory required for data: 138084352
I0623 20:33:06.303845  3303 layer_factory.hpp:77] Creating layer bn3_1
I0623 20:33:06.303851  3303 net.cpp:91] Creating Layer bn3_1
I0623 20:33:06.303853  3303 net.cpp:425] bn3_1 <- conv3_1
I0623 20:33:06.303858  3303 net.cpp:386] bn3_1 -> conv3_1 (in-place)
I0623 20:33:06.304617  3303 net.cpp:141] Setting up bn3_1
I0623 20:33:06.304628  3303 net.cpp:148] Top shape: 1 64 56 56 (200704)
I0623 20:33:06.304630  3303 net.cpp:156] Memory required for data: 138887168
I0623 20:33:06.304636  3303 layer_factory.hpp:77] Creating layer scale3_1
I0623 20:33:06.304643  3303 net.cpp:91] Creating Layer scale3_1
I0623 20:33:06.304646  3303 net.cpp:425] scale3_1 <- conv3_1
I0623 20:33:06.304651  3303 net.cpp:386] scale3_1 -> conv3_1 (in-place)
I0623 20:33:06.304685  3303 layer_factory.hpp:77] Creating layer scale3_1
I0623 20:33:06.304786  3303 net.cpp:141] Setting up scale3_1
I0623 20:33:06.304793  3303 net.cpp:148] Top shape: 1 64 56 56 (200704)
I0623 20:33:06.304795  3303 net.cpp:156] Memory required for data: 139689984
I0623 20:33:06.304800  3303 layer_factory.hpp:77] Creating layer relu3_1
I0623 20:33:06.304803  3303 net.cpp:91] Creating Layer relu3_1
I0623 20:33:06.304806  3303 net.cpp:425] relu3_1 <- conv3_1
I0623 20:33:06.304811  3303 net.cpp:386] relu3_1 -> conv3_1 (in-place)
I0623 20:33:06.304957  3303 net.cpp:141] Setting up relu3_1
I0623 20:33:06.304966  3303 net.cpp:148] Top shape: 1 64 56 56 (200704)
I0623 20:33:06.304977  3303 net.cpp:156] Memory required for data: 140492800
I0623 20:33:06.304980  3303 layer_factory.hpp:77] Creating layer conv3_2
I0623 20:33:06.304988  3303 net.cpp:91] Creating Layer conv3_2
I0623 20:33:06.304992  3303 net.cpp:425] conv3_2 <- conv3_1
I0623 20:33:06.304996  3303 net.cpp:399] conv3_2 -> conv3_2
I0623 20:33:06.306260  3303 net.cpp:141] Setting up conv3_2
I0623 20:33:06.306278  3303 net.cpp:148] Top shape: 1 64 56 56 (200704)
I0623 20:33:06.306282  3303 net.cpp:156] Memory required for data: 141295616
I0623 20:33:06.306289  3303 layer_factory.hpp:77] Creating layer bn3_2
I0623 20:33:06.306298  3303 net.cpp:91] Creating Layer bn3_2
I0623 20:33:06.306303  3303 net.cpp:425] bn3_2 <- conv3_2
I0623 20:33:06.306311  3303 net.cpp:386] bn3_2 -> conv3_2 (in-place)
I0623 20:33:06.306548  3303 net.cpp:141] Setting up bn3_2
I0623 20:33:06.306560  3303 net.cpp:148] Top shape: 1 64 56 56 (200704)
I0623 20:33:06.306565  3303 net.cpp:156] Memory required for data: 142098432
I0623 20:33:06.306581  3303 layer_factory.hpp:77] Creating layer scale3_2
I0623 20:33:06.306588  3303 net.cpp:91] Creating Layer scale3_2
I0623 20:33:06.306592  3303 net.cpp:425] scale3_2 <- conv3_2
I0623 20:33:06.306599  3303 net.cpp:386] scale3_2 -> conv3_2 (in-place)
I0623 20:33:06.306649  3303 layer_factory.hpp:77] Creating layer scale3_2
I0623 20:33:06.306788  3303 net.cpp:141] Setting up scale3_2
I0623 20:33:06.306798  3303 net.cpp:148] Top shape: 1 64 56 56 (200704)
I0623 20:33:06.306802  3303 net.cpp:156] Memory required for data: 142901248
I0623 20:33:06.306809  3303 layer_factory.hpp:77] Creating layer relu3_2
I0623 20:33:06.306818  3303 net.cpp:91] Creating Layer relu3_2
I0623 20:33:06.306821  3303 net.cpp:425] relu3_2 <- conv3_2
I0623 20:33:06.306828  3303 net.cpp:386] relu3_2 -> conv3_2 (in-place)
I0623 20:33:06.307204  3303 net.cpp:141] Setting up relu3_2
I0623 20:33:06.307220  3303 net.cpp:148] Top shape: 1 64 56 56 (200704)
I0623 20:33:06.307224  3303 net.cpp:156] Memory required for data: 143704064
I0623 20:33:06.307229  3303 layer_factory.hpp:77] Creating layer pool3
I0623 20:33:06.307232  3303 layer_factory.cpp:90] cuDNN does not support multiple tops. Using Caffe's own pooling layer.
I0623 20:33:06.307240  3303 net.cpp:91] Creating Layer pool3
I0623 20:33:06.307245  3303 net.cpp:425] pool3 <- conv3_2
I0623 20:33:06.307251  3303 net.cpp:399] pool3 -> pool3
I0623 20:33:06.307258  3303 net.cpp:399] pool3 -> pool3_mask
I0623 20:33:06.307301  3303 net.cpp:141] Setting up pool3
I0623 20:33:06.307308  3303 net.cpp:148] Top shape: 1 64 28 28 (50176)
I0623 20:33:06.307312  3303 net.cpp:148] Top shape: 1 64 28 28 (50176)
I0623 20:33:06.307313  3303 net.cpp:156] Memory required for data: 144105472
I0623 20:33:06.307317  3303 layer_factory.hpp:77] Creating layer conv4_1
I0623 20:33:06.307324  3303 net.cpp:91] Creating Layer conv4_1
I0623 20:33:06.307327  3303 net.cpp:425] conv4_1 <- pool3
I0623 20:33:06.307333  3303 net.cpp:399] conv4_1 -> conv4_1
I0623 20:33:06.308501  3303 net.cpp:141] Setting up conv4_1
I0623 20:33:06.308514  3303 net.cpp:148] Top shape: 1 64 28 28 (50176)
I0623 20:33:06.308517  3303 net.cpp:156] Memory required for data: 144306176
I0623 20:33:06.308522  3303 layer_factory.hpp:77] Creating layer bn4_1
I0623 20:33:06.308529  3303 net.cpp:91] Creating Layer bn4_1
I0623 20:33:06.308532  3303 net.cpp:425] bn4_1 <- conv4_1
I0623 20:33:06.308536  3303 net.cpp:386] bn4_1 -> conv4_1 (in-place)
I0623 20:33:06.308699  3303 net.cpp:141] Setting up bn4_1
I0623 20:33:06.308706  3303 net.cpp:148] Top shape: 1 64 28 28 (50176)
I0623 20:33:06.308708  3303 net.cpp:156] Memory required for data: 144506880
I0623 20:33:06.308714  3303 layer_factory.hpp:77] Creating layer scale4_1
I0623 20:33:06.308720  3303 net.cpp:91] Creating Layer scale4_1
I0623 20:33:06.308722  3303 net.cpp:425] scale4_1 <- conv4_1
I0623 20:33:06.308727  3303 net.cpp:386] scale4_1 -> conv4_1 (in-place)
I0623 20:33:06.308768  3303 layer_factory.hpp:77] Creating layer scale4_1
I0623 20:33:06.308893  3303 net.cpp:141] Setting up scale4_1
I0623 20:33:06.308910  3303 net.cpp:148] Top shape: 1 64 28 28 (50176)
I0623 20:33:06.308912  3303 net.cpp:156] Memory required for data: 144707584
I0623 20:33:06.308917  3303 layer_factory.hpp:77] Creating layer relu4_1
I0623 20:33:06.308923  3303 net.cpp:91] Creating Layer relu4_1
I0623 20:33:06.308926  3303 net.cpp:425] relu4_1 <- conv4_1
I0623 20:33:06.308931  3303 net.cpp:386] relu4_1 -> conv4_1 (in-place)
I0623 20:33:06.309402  3303 net.cpp:141] Setting up relu4_1
I0623 20:33:06.309413  3303 net.cpp:148] Top shape: 1 64 28 28 (50176)
I0623 20:33:06.309417  3303 net.cpp:156] Memory required for data: 144908288
I0623 20:33:06.309418  3303 layer_factory.hpp:77] Creating layer conv4_2
I0623 20:33:06.309427  3303 net.cpp:91] Creating Layer conv4_2
I0623 20:33:06.309430  3303 net.cpp:425] conv4_2 <- conv4_1
I0623 20:33:06.309435  3303 net.cpp:399] conv4_2 -> conv4_2
I0623 20:33:06.310724  3303 net.cpp:141] Setting up conv4_2
I0623 20:33:06.310736  3303 net.cpp:148] Top shape: 1 64 28 28 (50176)
I0623 20:33:06.310739  3303 net.cpp:156] Memory required for data: 145108992
I0623 20:33:06.310745  3303 layer_factory.hpp:77] Creating layer bn4_2
I0623 20:33:06.310752  3303 net.cpp:91] Creating Layer bn4_2
I0623 20:33:06.310755  3303 net.cpp:425] bn4_2 <- conv4_2
I0623 20:33:06.310758  3303 net.cpp:386] bn4_2 -> conv4_2 (in-place)
I0623 20:33:06.310922  3303 net.cpp:141] Setting up bn4_2
I0623 20:33:06.310930  3303 net.cpp:148] Top shape: 1 64 28 28 (50176)
I0623 20:33:06.310931  3303 net.cpp:156] Memory required for data: 145309696
I0623 20:33:06.310937  3303 layer_factory.hpp:77] Creating layer scale4_2
I0623 20:33:06.310942  3303 net.cpp:91] Creating Layer scale4_2
I0623 20:33:06.310945  3303 net.cpp:425] scale4_2 <- conv4_2
I0623 20:33:06.310948  3303 net.cpp:386] scale4_2 -> conv4_2 (in-place)
I0623 20:33:06.310986  3303 layer_factory.hpp:77] Creating layer scale4_2
I0623 20:33:06.311084  3303 net.cpp:141] Setting up scale4_2
I0623 20:33:06.311091  3303 net.cpp:148] Top shape: 1 64 28 28 (50176)
I0623 20:33:06.311094  3303 net.cpp:156] Memory required for data: 145510400
I0623 20:33:06.311097  3303 layer_factory.hpp:77] Creating layer relu4_2
I0623 20:33:06.311102  3303 net.cpp:91] Creating Layer relu4_2
I0623 20:33:06.311105  3303 net.cpp:425] relu4_2 <- conv4_2
I0623 20:33:06.311107  3303 net.cpp:386] relu4_2 -> conv4_2 (in-place)
I0623 20:33:06.311265  3303 net.cpp:141] Setting up relu4_2
I0623 20:33:06.311275  3303 net.cpp:148] Top shape: 1 64 28 28 (50176)
I0623 20:33:06.311276  3303 net.cpp:156] Memory required for data: 145711104
I0623 20:33:06.311280  3303 layer_factory.hpp:77] Creating layer pool4
I0623 20:33:06.311282  3303 layer_factory.cpp:90] cuDNN does not support multiple tops. Using Caffe's own pooling layer.
I0623 20:33:06.311286  3303 net.cpp:91] Creating Layer pool4
I0623 20:33:06.311290  3303 net.cpp:425] pool4 <- conv4_2
I0623 20:33:06.311295  3303 net.cpp:399] pool4 -> pool4
I0623 20:33:06.311300  3303 net.cpp:399] pool4 -> pool4_mask
I0623 20:33:06.311336  3303 net.cpp:141] Setting up pool4
I0623 20:33:06.311344  3303 net.cpp:148] Top shape: 1 64 14 14 (12544)
I0623 20:33:06.311347  3303 net.cpp:148] Top shape: 1 64 14 14 (12544)
I0623 20:33:06.311349  3303 net.cpp:156] Memory required for data: 145811456
I0623 20:33:06.311352  3303 layer_factory.hpp:77] Creating layer conv5_1
I0623 20:33:06.311359  3303 net.cpp:91] Creating Layer conv5_1
I0623 20:33:06.311362  3303 net.cpp:425] conv5_1 <- pool4
I0623 20:33:06.311367  3303 net.cpp:399] conv5_1 -> conv5_1
I0623 20:33:06.312533  3303 net.cpp:141] Setting up conv5_1
I0623 20:33:06.312546  3303 net.cpp:148] Top shape: 1 64 14 14 (12544)
I0623 20:33:06.312547  3303 net.cpp:156] Memory required for data: 145861632
I0623 20:33:06.312553  3303 layer_factory.hpp:77] Creating layer bn5_1
I0623 20:33:06.312561  3303 net.cpp:91] Creating Layer bn5_1
I0623 20:33:06.312563  3303 net.cpp:425] bn5_1 <- conv5_1
I0623 20:33:06.312566  3303 net.cpp:386] bn5_1 -> conv5_1 (in-place)
I0623 20:33:06.312747  3303 net.cpp:141] Setting up bn5_1
I0623 20:33:06.312753  3303 net.cpp:148] Top shape: 1 64 14 14 (12544)
I0623 20:33:06.312764  3303 net.cpp:156] Memory required for data: 145911808
I0623 20:33:06.312770  3303 layer_factory.hpp:77] Creating layer scale5_1
I0623 20:33:06.312777  3303 net.cpp:91] Creating Layer scale5_1
I0623 20:33:06.312779  3303 net.cpp:425] scale5_1 <- conv5_1
I0623 20:33:06.312783  3303 net.cpp:386] scale5_1 -> conv5_1 (in-place)
I0623 20:33:06.312821  3303 layer_factory.hpp:77] Creating layer scale5_1
I0623 20:33:06.312918  3303 net.cpp:141] Setting up scale5_1
I0623 20:33:06.312924  3303 net.cpp:148] Top shape: 1 64 14 14 (12544)
I0623 20:33:06.312927  3303 net.cpp:156] Memory required for data: 145961984
I0623 20:33:06.312930  3303 layer_factory.hpp:77] Creating layer relu5_1
I0623 20:33:06.312934  3303 net.cpp:91] Creating Layer relu5_1
I0623 20:33:06.312937  3303 net.cpp:425] relu5_1 <- conv5_1
I0623 20:33:06.312940  3303 net.cpp:386] relu5_1 -> conv5_1 (in-place)
I0623 20:33:06.313218  3303 net.cpp:141] Setting up relu5_1
I0623 20:33:06.313230  3303 net.cpp:148] Top shape: 1 64 14 14 (12544)
I0623 20:33:06.313233  3303 net.cpp:156] Memory required for data: 146012160
I0623 20:33:06.313235  3303 layer_factory.hpp:77] Creating layer conv5_2
I0623 20:33:06.313243  3303 net.cpp:91] Creating Layer conv5_2
I0623 20:33:06.313246  3303 net.cpp:425] conv5_2 <- conv5_1
I0623 20:33:06.313251  3303 net.cpp:399] conv5_2 -> conv5_2
I0623 20:33:06.314322  3303 net.cpp:141] Setting up conv5_2
I0623 20:33:06.314334  3303 net.cpp:148] Top shape: 1 64 14 14 (12544)
I0623 20:33:06.314337  3303 net.cpp:156] Memory required for data: 146062336
I0623 20:33:06.314342  3303 layer_factory.hpp:77] Creating layer bn5_2
I0623 20:33:06.314348  3303 net.cpp:91] Creating Layer bn5_2
I0623 20:33:06.314352  3303 net.cpp:425] bn5_2 <- conv5_2
I0623 20:33:06.314357  3303 net.cpp:386] bn5_2 -> conv5_2 (in-place)
I0623 20:33:06.314522  3303 net.cpp:141] Setting up bn5_2
I0623 20:33:06.314529  3303 net.cpp:148] Top shape: 1 64 14 14 (12544)
I0623 20:33:06.314532  3303 net.cpp:156] Memory required for data: 146112512
I0623 20:33:06.314537  3303 layer_factory.hpp:77] Creating layer scale5_2
I0623 20:33:06.314543  3303 net.cpp:91] Creating Layer scale5_2
I0623 20:33:06.314545  3303 net.cpp:425] scale5_2 <- conv5_2
I0623 20:33:06.314549  3303 net.cpp:386] scale5_2 -> conv5_2 (in-place)
I0623 20:33:06.314584  3303 layer_factory.hpp:77] Creating layer scale5_2
I0623 20:33:06.314683  3303 net.cpp:141] Setting up scale5_2
I0623 20:33:06.314690  3303 net.cpp:148] Top shape: 1 64 14 14 (12544)
I0623 20:33:06.314692  3303 net.cpp:156] Memory required for data: 146162688
I0623 20:33:06.314697  3303 layer_factory.hpp:77] Creating layer relu5_2
I0623 20:33:06.314702  3303 net.cpp:91] Creating Layer relu5_2
I0623 20:33:06.314704  3303 net.cpp:425] relu5_2 <- conv5_2
I0623 20:33:06.314708  3303 net.cpp:386] relu5_2 -> conv5_2 (in-place)
I0623 20:33:06.314982  3303 net.cpp:141] Setting up relu5_2
I0623 20:33:06.314993  3303 net.cpp:148] Top shape: 1 64 14 14 (12544)
I0623 20:33:06.314996  3303 net.cpp:156] Memory required for data: 146212864
I0623 20:33:06.314999  3303 layer_factory.hpp:77] Creating layer pool5
I0623 20:33:06.315002  3303 layer_factory.cpp:90] cuDNN does not support multiple tops. Using Caffe's own pooling layer.
I0623 20:33:06.315007  3303 net.cpp:91] Creating Layer pool5
I0623 20:33:06.315011  3303 net.cpp:425] pool5 <- conv5_2
I0623 20:33:06.315014  3303 net.cpp:399] pool5 -> pool5
I0623 20:33:06.315019  3303 net.cpp:399] pool5 -> pool5_mask
I0623 20:33:06.315060  3303 net.cpp:141] Setting up pool5
I0623 20:33:06.315066  3303 net.cpp:148] Top shape: 1 64 7 7 (3136)
I0623 20:33:06.315069  3303 net.cpp:148] Top shape: 1 64 7 7 (3136)
I0623 20:33:06.315071  3303 net.cpp:156] Memory required for data: 146237952
I0623 20:33:06.315073  3303 layer_factory.hpp:77] Creating layer upsample5
I0623 20:33:06.315079  3303 net.cpp:91] Creating Layer upsample5
I0623 20:33:06.315081  3303 net.cpp:425] upsample5 <- pool5
I0623 20:33:06.315084  3303 net.cpp:425] upsample5 <- pool5_mask
I0623 20:33:06.315099  3303 net.cpp:399] upsample5 -> pool5_D
I0623 20:33:06.315131  3303 net.cpp:141] Setting up upsample5
I0623 20:33:06.315137  3303 net.cpp:148] Top shape: 1 64 14 14 (12544)
I0623 20:33:06.315140  3303 net.cpp:156] Memory required for data: 146288128
I0623 20:33:06.315141  3303 layer_factory.hpp:77] Creating layer conv5_2_D
I0623 20:33:06.315155  3303 net.cpp:91] Creating Layer conv5_2_D
I0623 20:33:06.315157  3303 net.cpp:425] conv5_2_D <- pool5_D
I0623 20:33:06.315161  3303 net.cpp:399] conv5_2_D -> conv5_2_D
I0623 20:33:06.319525  3303 net.cpp:141] Setting up conv5_2_D
I0623 20:33:06.319542  3303 net.cpp:148] Top shape: 1 64 14 14 (12544)
I0623 20:33:06.319545  3303 net.cpp:156] Memory required for data: 146338304
I0623 20:33:06.319550  3303 layer_factory.hpp:77] Creating layer bn5_2_D
I0623 20:33:06.319556  3303 net.cpp:91] Creating Layer bn5_2_D
I0623 20:33:06.319560  3303 net.cpp:425] bn5_2_D <- conv5_2_D
I0623 20:33:06.319566  3303 net.cpp:386] bn5_2_D -> conv5_2_D (in-place)
I0623 20:33:06.319736  3303 net.cpp:141] Setting up bn5_2_D
I0623 20:33:06.319743  3303 net.cpp:148] Top shape: 1 64 14 14 (12544)
I0623 20:33:06.319746  3303 net.cpp:156] Memory required for data: 146388480
I0623 20:33:06.319751  3303 layer_factory.hpp:77] Creating layer scale5_2_D
I0623 20:33:06.319757  3303 net.cpp:91] Creating Layer scale5_2_D
I0623 20:33:06.319759  3303 net.cpp:425] scale5_2_D <- conv5_2_D
I0623 20:33:06.319764  3303 net.cpp:386] scale5_2_D -> conv5_2_D (in-place)
I0623 20:33:06.319800  3303 layer_factory.hpp:77] Creating layer scale5_2_D
I0623 20:33:06.319900  3303 net.cpp:141] Setting up scale5_2_D
I0623 20:33:06.319906  3303 net.cpp:148] Top shape: 1 64 14 14 (12544)
I0623 20:33:06.319908  3303 net.cpp:156] Memory required for data: 146438656
I0623 20:33:06.319921  3303 layer_factory.hpp:77] Creating layer relu5_2_D
I0623 20:33:06.319927  3303 net.cpp:91] Creating Layer relu5_2_D
I0623 20:33:06.319931  3303 net.cpp:425] relu5_2_D <- conv5_2_D
I0623 20:33:06.319933  3303 net.cpp:386] relu5_2_D -> conv5_2_D (in-place)
I0623 20:33:06.320086  3303 net.cpp:141] Setting up relu5_2_D
I0623 20:33:06.320097  3303 net.cpp:148] Top shape: 1 64 14 14 (12544)
I0623 20:33:06.320101  3303 net.cpp:156] Memory required for data: 146488832
I0623 20:33:06.320103  3303 layer_factory.hpp:77] Creating layer conv5_1_D
I0623 20:33:06.320111  3303 net.cpp:91] Creating Layer conv5_1_D
I0623 20:33:06.320112  3303 net.cpp:425] conv5_1_D <- conv5_2_D
I0623 20:33:06.320118  3303 net.cpp:399] conv5_1_D -> conv5_1_D
I0623 20:33:06.321307  3303 net.cpp:141] Setting up conv5_1_D
I0623 20:33:06.321319  3303 net.cpp:148] Top shape: 1 64 14 14 (12544)
I0623 20:33:06.321322  3303 net.cpp:156] Memory required for data: 146539008
I0623 20:33:06.321328  3303 layer_factory.hpp:77] Creating layer bn5_1_D
I0623 20:33:06.321333  3303 net.cpp:91] Creating Layer bn5_1_D
I0623 20:33:06.321336  3303 net.cpp:425] bn5_1_D <- conv5_1_D
I0623 20:33:06.321341  3303 net.cpp:386] bn5_1_D -> conv5_1_D (in-place)
I0623 20:33:06.321517  3303 net.cpp:141] Setting up bn5_1_D
I0623 20:33:06.321524  3303 net.cpp:148] Top shape: 1 64 14 14 (12544)
I0623 20:33:06.321527  3303 net.cpp:156] Memory required for data: 146589184
I0623 20:33:06.321533  3303 layer_factory.hpp:77] Creating layer scale5_1_D
I0623 20:33:06.321539  3303 net.cpp:91] Creating Layer scale5_1_D
I0623 20:33:06.321542  3303 net.cpp:425] scale5_1_D <- conv5_1_D
I0623 20:33:06.321545  3303 net.cpp:386] scale5_1_D -> conv5_1_D (in-place)
I0623 20:33:06.321581  3303 layer_factory.hpp:77] Creating layer scale5_1_D
I0623 20:33:06.321678  3303 net.cpp:141] Setting up scale5_1_D
I0623 20:33:06.321686  3303 net.cpp:148] Top shape: 1 64 14 14 (12544)
I0623 20:33:06.321687  3303 net.cpp:156] Memory required for data: 146639360
I0623 20:33:06.321692  3303 layer_factory.hpp:77] Creating layer relu5_1_D
I0623 20:33:06.321696  3303 net.cpp:91] Creating Layer relu5_1_D
I0623 20:33:06.321698  3303 net.cpp:425] relu5_1_D <- conv5_1_D
I0623 20:33:06.321702  3303 net.cpp:386] relu5_1_D -> conv5_1_D (in-place)
I0623 20:33:06.322031  3303 net.cpp:141] Setting up relu5_1_D
I0623 20:33:06.322060  3303 net.cpp:148] Top shape: 1 64 14 14 (12544)
I0623 20:33:06.322064  3303 net.cpp:156] Memory required for data: 146689536
I0623 20:33:06.322069  3303 layer_factory.hpp:77] Creating layer upsample4
I0623 20:33:06.322077  3303 net.cpp:91] Creating Layer upsample4
I0623 20:33:06.322082  3303 net.cpp:425] upsample4 <- conv5_1_D
I0623 20:33:06.322088  3303 net.cpp:425] upsample4 <- pool4_mask
I0623 20:33:06.322093  3303 net.cpp:399] upsample4 -> pool4_D
I0623 20:33:06.322134  3303 net.cpp:141] Setting up upsample4
I0623 20:33:06.322142  3303 net.cpp:148] Top shape: 1 64 28 28 (50176)
I0623 20:33:06.322146  3303 net.cpp:156] Memory required for data: 146890240
I0623 20:33:06.322150  3303 layer_factory.hpp:77] Creating layer conv4_2_D
I0623 20:33:06.322161  3303 net.cpp:91] Creating Layer conv4_2_D
I0623 20:33:06.322165  3303 net.cpp:425] conv4_2_D <- pool4_D
I0623 20:33:06.322173  3303 net.cpp:399] conv4_2_D -> conv4_2_D
I0623 20:33:06.323683  3303 net.cpp:141] Setting up conv4_2_D
I0623 20:33:06.323701  3303 net.cpp:148] Top shape: 1 64 28 28 (50176)
I0623 20:33:06.323706  3303 net.cpp:156] Memory required for data: 147090944
I0623 20:33:06.323714  3303 layer_factory.hpp:77] Creating layer bn4_2_D
I0623 20:33:06.323724  3303 net.cpp:91] Creating Layer bn4_2_D
I0623 20:33:06.323729  3303 net.cpp:425] bn4_2_D <- conv4_2_D
I0623 20:33:06.323735  3303 net.cpp:386] bn4_2_D -> conv4_2_D (in-place)
I0623 20:33:06.323937  3303 net.cpp:141] Setting up bn4_2_D
I0623 20:33:06.323951  3303 net.cpp:148] Top shape: 1 64 28 28 (50176)
I0623 20:33:06.323954  3303 net.cpp:156] Memory required for data: 147291648
I0623 20:33:06.323964  3303 layer_factory.hpp:77] Creating layer scale4_2_D
I0623 20:33:06.323976  3303 net.cpp:91] Creating Layer scale4_2_D
I0623 20:33:06.323982  3303 net.cpp:425] scale4_2_D <- conv4_2_D
I0623 20:33:06.323989  3303 net.cpp:386] scale4_2_D -> conv4_2_D (in-place)
I0623 20:33:06.324033  3303 layer_factory.hpp:77] Creating layer scale4_2_D
I0623 20:33:06.324143  3303 net.cpp:141] Setting up scale4_2_D
I0623 20:33:06.324151  3303 net.cpp:148] Top shape: 1 64 28 28 (50176)
I0623 20:33:06.324153  3303 net.cpp:156] Memory required for data: 147492352
I0623 20:33:06.324157  3303 layer_factory.hpp:77] Creating layer relu4_2_D
I0623 20:33:06.324162  3303 net.cpp:91] Creating Layer relu4_2_D
I0623 20:33:06.324164  3303 net.cpp:425] relu4_2_D <- conv4_2_D
I0623 20:33:06.324169  3303 net.cpp:386] relu4_2_D -> conv4_2_D (in-place)
I0623 20:33:06.324481  3303 net.cpp:141] Setting up relu4_2_D
I0623 20:33:06.324493  3303 net.cpp:148] Top shape: 1 64 28 28 (50176)
I0623 20:33:06.324496  3303 net.cpp:156] Memory required for data: 147693056
I0623 20:33:06.324498  3303 layer_factory.hpp:77] Creating layer conv4_1_D
I0623 20:33:06.324507  3303 net.cpp:91] Creating Layer conv4_1_D
I0623 20:33:06.324511  3303 net.cpp:425] conv4_1_D <- conv4_2_D
I0623 20:33:06.324515  3303 net.cpp:399] conv4_1_D -> conv4_1_D
I0623 20:33:06.326359  3303 net.cpp:141] Setting up conv4_1_D
I0623 20:33:06.326371  3303 net.cpp:148] Top shape: 1 64 28 28 (50176)
I0623 20:33:06.326375  3303 net.cpp:156] Memory required for data: 147893760
I0623 20:33:06.326378  3303 layer_factory.hpp:77] Creating layer bn4_1_D
I0623 20:33:06.326385  3303 net.cpp:91] Creating Layer bn4_1_D
I0623 20:33:06.326388  3303 net.cpp:425] bn4_1_D <- conv4_1_D
I0623 20:33:06.326392  3303 net.cpp:386] bn4_1_D -> conv4_1_D (in-place)
I0623 20:33:06.326567  3303 net.cpp:141] Setting up bn4_1_D
I0623 20:33:06.326575  3303 net.cpp:148] Top shape: 1 64 28 28 (50176)
I0623 20:33:06.326578  3303 net.cpp:156] Memory required for data: 148094464
I0623 20:33:06.326584  3303 layer_factory.hpp:77] Creating layer scale4_1_D
I0623 20:33:06.326591  3303 net.cpp:91] Creating Layer scale4_1_D
I0623 20:33:06.326593  3303 net.cpp:425] scale4_1_D <- conv4_1_D
I0623 20:33:06.326596  3303 net.cpp:386] scale4_1_D -> conv4_1_D (in-place)
I0623 20:33:06.326635  3303 layer_factory.hpp:77] Creating layer scale4_1_D
I0623 20:33:06.326745  3303 net.cpp:141] Setting up scale4_1_D
I0623 20:33:06.326762  3303 net.cpp:148] Top shape: 1 64 28 28 (50176)
I0623 20:33:06.326766  3303 net.cpp:156] Memory required for data: 148295168
I0623 20:33:06.326769  3303 layer_factory.hpp:77] Creating layer relu4_1_D
I0623 20:33:06.326781  3303 net.cpp:91] Creating Layer relu4_1_D
I0623 20:33:06.326784  3303 net.cpp:425] relu4_1_D <- conv4_1_D
I0623 20:33:06.326788  3303 net.cpp:386] relu4_1_D -> conv4_1_D (in-place)
I0623 20:33:06.326946  3303 net.cpp:141] Setting up relu4_1_D
I0623 20:33:06.326954  3303 net.cpp:148] Top shape: 1 64 28 28 (50176)
I0623 20:33:06.326956  3303 net.cpp:156] Memory required for data: 148495872
I0623 20:33:06.326959  3303 layer_factory.hpp:77] Creating layer upsample3
I0623 20:33:06.326966  3303 net.cpp:91] Creating Layer upsample3
I0623 20:33:06.326967  3303 net.cpp:425] upsample3 <- conv4_1_D
I0623 20:33:06.326972  3303 net.cpp:425] upsample3 <- pool3_mask
I0623 20:33:06.326977  3303 net.cpp:399] upsample3 -> pool3_D
I0623 20:33:06.327003  3303 net.cpp:141] Setting up upsample3
I0623 20:33:06.327010  3303 net.cpp:148] Top shape: 1 64 56 56 (200704)
I0623 20:33:06.327013  3303 net.cpp:156] Memory required for data: 149298688
I0623 20:33:06.327015  3303 layer_factory.hpp:77] Creating layer conv3_2_D
I0623 20:33:06.327023  3303 net.cpp:91] Creating Layer conv3_2_D
I0623 20:33:06.327026  3303 net.cpp:425] conv3_2_D <- pool3_D
I0623 20:33:06.327030  3303 net.cpp:399] conv3_2_D -> conv3_2_D
I0623 20:33:06.328367  3303 net.cpp:141] Setting up conv3_2_D
I0623 20:33:06.328379  3303 net.cpp:148] Top shape: 1 64 56 56 (200704)
I0623 20:33:06.328382  3303 net.cpp:156] Memory required for data: 150101504
I0623 20:33:06.328388  3303 layer_factory.hpp:77] Creating layer bn3_2_D
I0623 20:33:06.328395  3303 net.cpp:91] Creating Layer bn3_2_D
I0623 20:33:06.328398  3303 net.cpp:425] bn3_2_D <- conv3_2_D
I0623 20:33:06.328403  3303 net.cpp:386] bn3_2_D -> conv3_2_D (in-place)
I0623 20:33:06.328582  3303 net.cpp:141] Setting up bn3_2_D
I0623 20:33:06.328588  3303 net.cpp:148] Top shape: 1 64 56 56 (200704)
I0623 20:33:06.328590  3303 net.cpp:156] Memory required for data: 150904320
I0623 20:33:06.328596  3303 layer_factory.hpp:77] Creating layer scale3_2_D
I0623 20:33:06.328603  3303 net.cpp:91] Creating Layer scale3_2_D
I0623 20:33:06.328606  3303 net.cpp:425] scale3_2_D <- conv3_2_D
I0623 20:33:06.328609  3303 net.cpp:386] scale3_2_D -> conv3_2_D (in-place)
I0623 20:33:06.328647  3303 layer_factory.hpp:77] Creating layer scale3_2_D
I0623 20:33:06.328755  3303 net.cpp:141] Setting up scale3_2_D
I0623 20:33:06.328763  3303 net.cpp:148] Top shape: 1 64 56 56 (200704)
I0623 20:33:06.328765  3303 net.cpp:156] Memory required for data: 151707136
I0623 20:33:06.328769  3303 layer_factory.hpp:77] Creating layer relu3_2_D
I0623 20:33:06.328773  3303 net.cpp:91] Creating Layer relu3_2_D
I0623 20:33:06.328776  3303 net.cpp:425] relu3_2_D <- conv3_2_D
I0623 20:33:06.328779  3303 net.cpp:386] relu3_2_D -> conv3_2_D (in-place)
I0623 20:33:06.329066  3303 net.cpp:141] Setting up relu3_2_D
I0623 20:33:06.329076  3303 net.cpp:148] Top shape: 1 64 56 56 (200704)
I0623 20:33:06.329078  3303 net.cpp:156] Memory required for data: 152509952
I0623 20:33:06.329082  3303 layer_factory.hpp:77] Creating layer conv3_1_D
I0623 20:33:06.329089  3303 net.cpp:91] Creating Layer conv3_1_D
I0623 20:33:06.329092  3303 net.cpp:425] conv3_1_D <- conv3_2_D
I0623 20:33:06.329097  3303 net.cpp:399] conv3_1_D -> conv3_1_D
I0623 20:33:06.330291  3303 net.cpp:141] Setting up conv3_1_D
I0623 20:33:06.330304  3303 net.cpp:148] Top shape: 1 64 56 56 (200704)
I0623 20:33:06.330307  3303 net.cpp:156] Memory required for data: 153312768
I0623 20:33:06.330312  3303 layer_factory.hpp:77] Creating layer bn3_1_D
I0623 20:33:06.330317  3303 net.cpp:91] Creating Layer bn3_1_D
I0623 20:33:06.330319  3303 net.cpp:425] bn3_1_D <- conv3_1_D
I0623 20:33:06.330327  3303 net.cpp:386] bn3_1_D -> conv3_1_D (in-place)
I0623 20:33:06.330507  3303 net.cpp:141] Setting up bn3_1_D
I0623 20:33:06.330515  3303 net.cpp:148] Top shape: 1 64 56 56 (200704)
I0623 20:33:06.330526  3303 net.cpp:156] Memory required for data: 154115584
I0623 20:33:06.330538  3303 layer_factory.hpp:77] Creating layer scale3_1_D
I0623 20:33:06.330543  3303 net.cpp:91] Creating Layer scale3_1_D
I0623 20:33:06.330545  3303 net.cpp:425] scale3_1_D <- conv3_1_D
I0623 20:33:06.330549  3303 net.cpp:386] scale3_1_D -> conv3_1_D (in-place)
I0623 20:33:06.330588  3303 layer_factory.hpp:77] Creating layer scale3_1_D
I0623 20:33:06.330698  3303 net.cpp:141] Setting up scale3_1_D
I0623 20:33:06.330705  3303 net.cpp:148] Top shape: 1 64 56 56 (200704)
I0623 20:33:06.330708  3303 net.cpp:156] Memory required for data: 154918400
I0623 20:33:06.330713  3303 layer_factory.hpp:77] Creating layer relu3_1_D
I0623 20:33:06.330718  3303 net.cpp:91] Creating Layer relu3_1_D
I0623 20:33:06.330720  3303 net.cpp:425] relu3_1_D <- conv3_1_D
I0623 20:33:06.330724  3303 net.cpp:386] relu3_1_D -> conv3_1_D (in-place)
I0623 20:33:06.331004  3303 net.cpp:141] Setting up relu3_1_D
I0623 20:33:06.331015  3303 net.cpp:148] Top shape: 1 64 56 56 (200704)
I0623 20:33:06.331018  3303 net.cpp:156] Memory required for data: 155721216
I0623 20:33:06.331020  3303 layer_factory.hpp:77] Creating layer upsample2
I0623 20:33:06.331027  3303 net.cpp:91] Creating Layer upsample2
I0623 20:33:06.331029  3303 net.cpp:425] upsample2 <- conv3_1_D
I0623 20:33:06.331033  3303 net.cpp:425] upsample2 <- pool2_mask
I0623 20:33:06.331037  3303 net.cpp:399] upsample2 -> pool2_D
I0623 20:33:06.331068  3303 net.cpp:141] Setting up upsample2
I0623 20:33:06.331073  3303 net.cpp:148] Top shape: 1 64 112 112 (802816)
I0623 20:33:06.331074  3303 net.cpp:156] Memory required for data: 158932480
I0623 20:33:06.331078  3303 layer_factory.hpp:77] Creating layer conv2_2_D
I0623 20:33:06.331084  3303 net.cpp:91] Creating Layer conv2_2_D
I0623 20:33:06.331087  3303 net.cpp:425] conv2_2_D <- pool2_D
I0623 20:33:06.331091  3303 net.cpp:399] conv2_2_D -> conv2_2_D
I0623 20:33:06.332325  3303 net.cpp:141] Setting up conv2_2_D
I0623 20:33:06.332339  3303 net.cpp:148] Top shape: 1 64 112 112 (802816)
I0623 20:33:06.332341  3303 net.cpp:156] Memory required for data: 162143744
I0623 20:33:06.332345  3303 layer_factory.hpp:77] Creating layer bn2_2_D
I0623 20:33:06.332352  3303 net.cpp:91] Creating Layer bn2_2_D
I0623 20:33:06.332355  3303 net.cpp:425] bn2_2_D <- conv2_2_D
I0623 20:33:06.332361  3303 net.cpp:386] bn2_2_D -> conv2_2_D (in-place)
I0623 20:33:06.332559  3303 net.cpp:141] Setting up bn2_2_D
I0623 20:33:06.332567  3303 net.cpp:148] Top shape: 1 64 112 112 (802816)
I0623 20:33:06.332569  3303 net.cpp:156] Memory required for data: 165355008
I0623 20:33:06.332576  3303 layer_factory.hpp:77] Creating layer scale2_2_D
I0623 20:33:06.332581  3303 net.cpp:91] Creating Layer scale2_2_D
I0623 20:33:06.332583  3303 net.cpp:425] scale2_2_D <- conv2_2_D
I0623 20:33:06.332587  3303 net.cpp:386] scale2_2_D -> conv2_2_D (in-place)
I0623 20:33:06.332633  3303 layer_factory.hpp:77] Creating layer scale2_2_D
I0623 20:33:06.332767  3303 net.cpp:141] Setting up scale2_2_D
I0623 20:33:06.332774  3303 net.cpp:148] Top shape: 1 64 112 112 (802816)
I0623 20:33:06.332777  3303 net.cpp:156] Memory required for data: 168566272
I0623 20:33:06.332782  3303 layer_factory.hpp:77] Creating layer relu2_2_D
I0623 20:33:06.332787  3303 net.cpp:91] Creating Layer relu2_2_D
I0623 20:33:06.332790  3303 net.cpp:425] relu2_2_D <- conv2_2_D
I0623 20:33:06.332793  3303 net.cpp:386] relu2_2_D -> conv2_2_D (in-place)
I0623 20:33:06.332948  3303 net.cpp:141] Setting up relu2_2_D
I0623 20:33:06.332957  3303 net.cpp:148] Top shape: 1 64 112 112 (802816)
I0623 20:33:06.332959  3303 net.cpp:156] Memory required for data: 171777536
I0623 20:33:06.332962  3303 layer_factory.hpp:77] Creating layer conv2_1_D
I0623 20:33:06.332970  3303 net.cpp:91] Creating Layer conv2_1_D
I0623 20:33:06.332973  3303 net.cpp:425] conv2_1_D <- conv2_2_D
I0623 20:33:06.332978  3303 net.cpp:399] conv2_1_D -> conv2_1_D
I0623 20:33:06.334214  3303 net.cpp:141] Setting up conv2_1_D
I0623 20:33:06.334226  3303 net.cpp:148] Top shape: 1 64 112 112 (802816)
I0623 20:33:06.334239  3303 net.cpp:156] Memory required for data: 174988800
I0623 20:33:06.334244  3303 layer_factory.hpp:77] Creating layer bn2_1_D
I0623 20:33:06.334250  3303 net.cpp:91] Creating Layer bn2_1_D
I0623 20:33:06.334254  3303 net.cpp:425] bn2_1_D <- conv2_1_D
I0623 20:33:06.334256  3303 net.cpp:386] bn2_1_D -> conv2_1_D (in-place)
I0623 20:33:06.334449  3303 net.cpp:141] Setting up bn2_1_D
I0623 20:33:06.334455  3303 net.cpp:148] Top shape: 1 64 112 112 (802816)
I0623 20:33:06.334458  3303 net.cpp:156] Memory required for data: 178200064
I0623 20:33:06.334463  3303 layer_factory.hpp:77] Creating layer scale2_1_D
I0623 20:33:06.334470  3303 net.cpp:91] Creating Layer scale2_1_D
I0623 20:33:06.334471  3303 net.cpp:425] scale2_1_D <- conv2_1_D
I0623 20:33:06.334476  3303 net.cpp:386] scale2_1_D -> conv2_1_D (in-place)
I0623 20:33:06.334514  3303 layer_factory.hpp:77] Creating layer scale2_1_D
I0623 20:33:06.334642  3303 net.cpp:141] Setting up scale2_1_D
I0623 20:33:06.334650  3303 net.cpp:148] Top shape: 1 64 112 112 (802816)
I0623 20:33:06.334651  3303 net.cpp:156] Memory required for data: 181411328
I0623 20:33:06.334656  3303 layer_factory.hpp:77] Creating layer relu2_1_D
I0623 20:33:06.334659  3303 net.cpp:91] Creating Layer relu2_1_D
I0623 20:33:06.334662  3303 net.cpp:425] relu2_1_D <- conv2_1_D
I0623 20:33:06.334667  3303 net.cpp:386] relu2_1_D -> conv2_1_D (in-place)
I0623 20:33:06.334952  3303 net.cpp:141] Setting up relu2_1_D
I0623 20:33:06.334964  3303 net.cpp:148] Top shape: 1 64 112 112 (802816)
I0623 20:33:06.334966  3303 net.cpp:156] Memory required for data: 184622592
I0623 20:33:06.334969  3303 layer_factory.hpp:77] Creating layer upsample1
I0623 20:33:06.334975  3303 net.cpp:91] Creating Layer upsample1
I0623 20:33:06.334977  3303 net.cpp:425] upsample1 <- conv2_1_D
I0623 20:33:06.334980  3303 net.cpp:425] upsample1 <- pool1_mask
I0623 20:33:06.334985  3303 net.cpp:399] upsample1 -> pool1_D
I0623 20:33:06.335029  3303 net.cpp:141] Setting up upsample1
I0623 20:33:06.335036  3303 net.cpp:148] Top shape: 1 64 224 224 (3211264)
I0623 20:33:06.335037  3303 net.cpp:156] Memory required for data: 197467648
I0623 20:33:06.335041  3303 layer_factory.hpp:77] Creating layer conv1_2_D
I0623 20:33:06.335049  3303 net.cpp:91] Creating Layer conv1_2_D
I0623 20:33:06.335052  3303 net.cpp:425] conv1_2_D <- pool1_D
I0623 20:33:06.335057  3303 net.cpp:399] conv1_2_D -> conv1_2_D
I0623 20:33:06.336168  3303 net.cpp:141] Setting up conv1_2_D
I0623 20:33:06.336179  3303 net.cpp:148] Top shape: 1 64 224 224 (3211264)
I0623 20:33:06.336182  3303 net.cpp:156] Memory required for data: 210312704
I0623 20:33:06.336186  3303 layer_factory.hpp:77] Creating layer bn1_2_D
I0623 20:33:06.336194  3303 net.cpp:91] Creating Layer bn1_2_D
I0623 20:33:06.336196  3303 net.cpp:425] bn1_2_D <- conv1_2_D
I0623 20:33:06.336201  3303 net.cpp:386] bn1_2_D -> conv1_2_D (in-place)
I0623 20:33:06.336984  3303 net.cpp:141] Setting up bn1_2_D
I0623 20:33:06.337007  3303 net.cpp:148] Top shape: 1 64 224 224 (3211264)
I0623 20:33:06.337010  3303 net.cpp:156] Memory required for data: 223157760
I0623 20:33:06.337016  3303 layer_factory.hpp:77] Creating layer scale1_2_D
I0623 20:33:06.337023  3303 net.cpp:91] Creating Layer scale1_2_D
I0623 20:33:06.337025  3303 net.cpp:425] scale1_2_D <- conv1_2_D
I0623 20:33:06.337033  3303 net.cpp:386] scale1_2_D -> conv1_2_D (in-place)
I0623 20:33:06.337080  3303 layer_factory.hpp:77] Creating layer scale1_2_D
I0623 20:33:06.337235  3303 net.cpp:141] Setting up scale1_2_D
I0623 20:33:06.337244  3303 net.cpp:148] Top shape: 1 64 224 224 (3211264)
I0623 20:33:06.337247  3303 net.cpp:156] Memory required for data: 236002816
I0623 20:33:06.337251  3303 layer_factory.hpp:77] Creating layer relu1_2_D
I0623 20:33:06.337255  3303 net.cpp:91] Creating Layer relu1_2_D
I0623 20:33:06.337258  3303 net.cpp:425] relu1_2_D <- conv1_2_D
I0623 20:33:06.337261  3303 net.cpp:386] relu1_2_D -> conv1_2_D (in-place)
I0623 20:33:06.337550  3303 net.cpp:141] Setting up relu1_2_D
I0623 20:33:06.337563  3303 net.cpp:148] Top shape: 1 64 224 224 (3211264)
I0623 20:33:06.337574  3303 net.cpp:156] Memory required for data: 248847872
I0623 20:33:06.337577  3303 layer_factory.hpp:77] Creating layer conv1_1_D
I0623 20:33:06.337590  3303 net.cpp:91] Creating Layer conv1_1_D
I0623 20:33:06.337594  3303 net.cpp:425] conv1_1_D <- conv1_2_D
I0623 20:33:06.337599  3303 net.cpp:399] conv1_1_D -> conv1_1_D
I0623 20:33:06.338729  3303 net.cpp:141] Setting up conv1_1_D
I0623 20:33:06.338742  3303 net.cpp:148] Top shape: 1 2 224 224 (100352)
I0623 20:33:06.338743  3303 net.cpp:156] Memory required for data: 249249280
I0623 20:33:06.338749  3303 layer_factory.hpp:77] Creating layer conv1_1_D_conv1_1_D_0_split
I0623 20:33:06.338754  3303 net.cpp:91] Creating Layer conv1_1_D_conv1_1_D_0_split
I0623 20:33:06.338757  3303 net.cpp:425] conv1_1_D_conv1_1_D_0_split <- conv1_1_D
I0623 20:33:06.338762  3303 net.cpp:399] conv1_1_D_conv1_1_D_0_split -> conv1_1_D_conv1_1_D_0_split_0
I0623 20:33:06.338768  3303 net.cpp:399] conv1_1_D_conv1_1_D_0_split -> conv1_1_D_conv1_1_D_0_split_1
I0623 20:33:06.338811  3303 net.cpp:141] Setting up conv1_1_D_conv1_1_D_0_split
I0623 20:33:06.338816  3303 net.cpp:148] Top shape: 1 2 224 224 (100352)
I0623 20:33:06.338819  3303 net.cpp:148] Top shape: 1 2 224 224 (100352)
I0623 20:33:06.338821  3303 net.cpp:156] Memory required for data: 250052096
I0623 20:33:06.338824  3303 layer_factory.hpp:77] Creating layer loss
I0623 20:33:06.338829  3303 net.cpp:91] Creating Layer loss
I0623 20:33:06.338831  3303 net.cpp:425] loss <- conv1_1_D_conv1_1_D_0_split_0
I0623 20:33:06.338835  3303 net.cpp:425] loss <- label_data_1_split_0
I0623 20:33:06.338838  3303 net.cpp:399] loss -> loss
…
