…
I0627 12:56:27.270309  4724 net.cpp:313] The NetState phase (0) differed from the phase (1) specified by a rule in layer data
I0627 12:56:27.270457  4724 net.cpp:49] Initializing net from parameters: 
name: "BPnet"
state {
  phase: TRAIN
}
layer {
  name: "data"
  type: "Data"
  top: "data"
  top: "label"
  include {
    phase: TRAIN
  }
  transform_param {
    mirror: true
    mean_value: 100
    crop_h: 196
    crop_w: 256
    rotation_range: 20
    scale_jitter_range: 0.2
    contrast_jitter_range: 0.3
  }
  data_param {
    source: "data/train_lmdb"
    batch_size: 32
    backend: LMDB
  }
}
layer {
  name: "conv1_1"
  type: "Convolution"
  bottom: "data"
  top: "conv1_1"
  param {
    lr_mult: 1
    decay_mult: 1
  }
  convolution_param {
    num_output: 32
    bias_term: false
    pad: 3
    kernel_size: 7
    stride: 2
    weight_filler {
      type: "xavier"
    }
  }
}
layer {
  name: "bn1_1"
  type: "BatchNorm"
  bottom: "conv1_1"
  top: "conv1_1"
  param {
    lr_mult: 0
  }
  param {
    lr_mult: 0
  }
  param {
    lr_mult: 0
  }
  batch_norm_param {
    use_global_stats: false
  }
}
layer {
  name: "scale1_1"
  type: "Scale"
  bottom: "conv1_1"
  top: "conv1_1"
  param {
    lr_mult: 1
    decay_mult: 1
  }
  param {
    lr_mult: 1
    decay_mult: 1
  }
  scale_param {
    bias_term: true
    bias_filler {
      type: "constant"
      value: 0
    }
  }
}
layer {
  name: "relu1_1"
  type: "ReLU"
  bottom: "conv1_1"
  top: "conv1_1"
}
layer {
  name: "pool1"
  type: "Pooling"
  bottom: "conv1_1"
  top: "pool1"
  pooling_param {
    pool: MAX
    kernel_size: 2
    stride: 2
  }
}
layer {
  name: "conv2_1"
  type: "Convolution"
  bottom: "pool1"
  top: "conv2_1"
  param {
    lr_mult: 1
    decay_mult: 1
  }
  convolution_param {
    num_output: 64
    bias_term: false
    pad: 1
    kernel_size: 3
    weight_filler {
      type: "xavier"
    }
  }
}
layer {
  name: "bn2_1"
  type: "BatchNorm"
  bottom: "conv2_1"
  top: "conv2_1"
  param {
    lr_mult: 0
  }
  param {
    lr_mult: 0
  }
  param {
    lr_mult: 0
  }
  batch_norm_param {
    use_global_stats: false
  }
}
layer {
  name: "scale2_1"
  type: "Scale"
  bottom: "conv2_1"
  top: "conv2_1"
  param {
    lr_mult: 1
    decay_mult: 1
  }
  param {
    lr_mult: 1
    decay_mult: 1
  }
  scale_param {
    bias_term: true
    bias_filler {
      type: "constant"
      value: 0
    }
  }
}
layer {
  name: "relu2_1"
  type: "ReLU"
  bottom: "conv2_1"
  top: "conv2_1"
}
layer {
  name: "pool2"
  type: "Pooling"
  bottom: "conv2_1"
  top: "pool2"
  pooling_param {
    pool: MAX
    kernel_size: 2
    stride: 2
  }
}
layer {
  name: "conv3_1"
  type: "Convolution"
  bottom: "pool2"
  top: "conv3_1"
  param {
    lr_mult: 1
    decay_mult: 1
  }
  convolution_param {
    num_output: 128
    bias_term: false
    pad: 1
    kernel_size: 3
    weight_filler {
      type: "xavier"
    }
  }
}
layer {
  name: "bn3_1"
  type: "BatchNorm"
  bottom: "conv3_1"
  top: "conv3_1"
  param {
    lr_mult: 0
  }
  param {
    lr_mult: 0
  }
  param {
    lr_mult: 0
  }
  batch_norm_param {
    use_global_stats: false
  }
}
layer {
  name: "scale3_1"
  type: "Scale"
  bottom: "conv3_1"
  top: "conv3_1"
  param {
    lr_mult: 1
    decay_mult: 1
  }
  param {
    lr_mult: 1
    decay_mult: 1
  }
  scale_param {
    bias_term: true
    bias_filler {
      type: "constant"
      value: 0
    }
  }
}
layer {
  name: "relu3_1"
  type: "ReLU"
  bottom: "conv3_1"
  top: "conv3_1"
}
layer {
  name: "pool3"
  type: "Pooling"
  bottom: "conv3_1"
  top: "pool3"
  pooling_param {
    pool: MAX
    kernel_size: 2
    stride: 2
  }
}
layer {
  name: "conv4_1"
  type: "Convolution"
  bottom: "pool3"
  top: "conv4_1"
  param {
    lr_mult: 1
    decay_mult: 1
  }
  convolution_param {
    num_output: 256
    bias_term: false
    pad: 1
    kernel_size: 3
    weight_filler {
      type: "xavier"
    }
  }
}
layer {
  name: "bn4_1"
  type: "BatchNorm"
  bottom: "conv4_1"
  top: "conv4_1"
  param {
    lr_mult: 0
  }
  param {
    lr_mult: 0
  }
  param {
    lr_mult: 0
  }
  batch_norm_param {
    use_global_stats: false
  }
}
layer {
  name: "scale4_1"
  type: "Scale"
  bottom: "conv4_1"
  top: "conv4_1"
  param {
    lr_mult: 1
    decay_mult: 1
  }
  param {
    lr_mult: 1
    decay_mult: 1
  }
  scale_param {
    bias_term: true
    bias_filler {
      type: "constant"
      value: 0
    }
  }
}
layer {
  name: "relu4_1"
  type: "ReLU"
  bottom: "conv4_1"
  top: "conv4_1"
}
layer {
  name: "pool4"
  type: "Pooling"
  bottom: "conv4_1"
  top: "pool4"
  pooling_param {
    pool: MAX
    kernel_size: 2
    stride: 2
  }
}
layer {
  name: "conv5_1"
  type: "Convolution"
  bottom: "pool4"
  top: "conv5_1"
  param {
    lr_mult: 1
    decay_mult: 1
  }
  convolution_param {
    num_output: 256
    bias_term: false
    pad: 1
    kernel_size: 3
    weight_filler {
      type: "xavier"
    }
  }
}
layer {
  name: "bn5_1"
  type: "BatchNorm"
  bottom: "conv5_1"
  top: "conv5_1"
  param {
    lr_mult: 0
  }
  param {
    lr_mult: 0
  }
  param {
    lr_mult: 0
  }
  batch_norm_param {
    use_global_stats: false
  }
}
layer {
  name: "scale5_1"
  type: "Scale"
  bottom: "conv5_1"
  top: "conv5_1"
  param {
    lr_mult: 1
    decay_mult: 1
  }
  param {
    lr_mult: 1
    decay_mult: 1
  }
  scale_param {
    bias_term: true
    bias_filler {
      type: "constant"
      value: 0
    }
  }
}
layer {
  name: "relu5_1"
  type: "ReLU"
  bottom: "conv5_1"
  top: "conv5_1"
}
layer {
  name: "pool5"
  type: "Pooling"
  bottom: "conv5_1"
  top: "pool5"
  pooling_param {
    pool: AVE
    stride: 1
    kernel_h: 6
    kernel_w: 8
  }
}
layer {
  name: "fc2"
  type: "InnerProduct"
  bottom: "pool5"
  top: "fc2"
  inner_product_param {
    num_output: 2
  }
}
layer {
  name: "loss"
  type: "SoftmaxWithLoss"
  bottom: "fc2"
  bottom: "label"
  top: "loss"
}
layer {
  name: "accuracy"
  type: "Accuracy"
  bottom: "fc2"
  bottom: "label"
  top: "accuracy"
}
I0627 12:56:27.270572  4724 layer_factory.hpp:77] Creating layer data
I0627 12:56:27.270956  4724 net.cpp:91] Creating Layer data
I0627 12:56:27.270965  4724 net.cpp:399] data -> data
I0627 12:56:27.270987  4724 net.cpp:399] data -> label
I0627 12:56:27.272341  4728 db_lmdb.cpp:35] Opened lmdb data/train_lmdb
I0627 12:56:27.295554  4724 data_layer.cpp:42] output data size: 32,3,196,256
I0627 12:56:27.334656  4724 net.cpp:141] Setting up data
I0627 12:56:27.334687  4724 net.cpp:148] Top shape: 32 3 196 256 (4816896)
I0627 12:56:27.334692  4724 net.cpp:148] Top shape: 32 (32)
I0627 12:56:27.334694  4724 net.cpp:156] Memory required for data: 19267712
I0627 12:56:27.334703  4724 layer_factory.hpp:77] Creating layer label_data_1_split
I0627 12:56:27.334718  4724 net.cpp:91] Creating Layer label_data_1_split
I0627 12:56:27.334723  4724 net.cpp:425] label_data_1_split <- label
I0627 12:56:27.334733  4724 net.cpp:399] label_data_1_split -> label_data_1_split_0
I0627 12:56:27.334741  4724 net.cpp:399] label_data_1_split -> label_data_1_split_1
I0627 12:56:27.334790  4724 net.cpp:141] Setting up label_data_1_split
I0627 12:56:27.334796  4724 net.cpp:148] Top shape: 32 (32)
I0627 12:56:27.334800  4724 net.cpp:148] Top shape: 32 (32)
I0627 12:56:27.334801  4724 net.cpp:156] Memory required for data: 19267968
I0627 12:56:27.334805  4724 layer_factory.hpp:77] Creating layer conv1_1
I0627 12:56:27.334820  4724 net.cpp:91] Creating Layer conv1_1
I0627 12:56:27.334821  4724 net.cpp:425] conv1_1 <- data
I0627 12:56:27.334825  4724 net.cpp:399] conv1_1 -> conv1_1
I0627 12:56:27.651186  4724 net.cpp:141] Setting up conv1_1
I0627 12:56:27.651219  4724 net.cpp:148] Top shape: 32 32 98 128 (12845056)
I0627 12:56:27.651253  4724 net.cpp:156] Memory required for data: 70648192
I0627 12:56:27.651271  4724 layer_factory.hpp:77] Creating layer bn1_1
I0627 12:56:27.651290  4724 net.cpp:91] Creating Layer bn1_1
I0627 12:56:27.651301  4724 net.cpp:425] bn1_1 <- conv1_1
I0627 12:56:27.651309  4724 net.cpp:386] bn1_1 -> conv1_1 (in-place)
I0627 12:56:27.651548  4724 net.cpp:141] Setting up bn1_1
I0627 12:56:27.651562  4724 net.cpp:148] Top shape: 32 32 98 128 (12845056)
I0627 12:56:27.651566  4724 net.cpp:156] Memory required for data: 122028416
I0627 12:56:27.651582  4724 layer_factory.hpp:77] Creating layer scale1_1
I0627 12:56:27.651594  4724 net.cpp:91] Creating Layer scale1_1
I0627 12:56:27.651602  4724 net.cpp:425] scale1_1 <- conv1_1
I0627 12:56:27.651609  4724 net.cpp:386] scale1_1 -> conv1_1 (in-place)
I0627 12:56:27.651661  4724 layer_factory.hpp:77] Creating layer scale1_1
I0627 12:56:27.651808  4724 net.cpp:141] Setting up scale1_1
I0627 12:56:27.651818  4724 net.cpp:148] Top shape: 32 32 98 128 (12845056)
I0627 12:56:27.651823  4724 net.cpp:156] Memory required for data: 173408640
I0627 12:56:27.651832  4724 layer_factory.hpp:77] Creating layer relu1_1
I0627 12:56:27.651842  4724 net.cpp:91] Creating Layer relu1_1
I0627 12:56:27.651846  4724 net.cpp:425] relu1_1 <- conv1_1
I0627 12:56:27.651852  4724 net.cpp:386] relu1_1 -> conv1_1 (in-place)
I0627 12:56:27.652030  4724 net.cpp:141] Setting up relu1_1
I0627 12:56:27.652043  4724 net.cpp:148] Top shape: 32 32 98 128 (12845056)
I0627 12:56:27.652047  4724 net.cpp:156] Memory required for data: 224788864
I0627 12:56:27.652051  4724 layer_factory.hpp:77] Creating layer pool1
I0627 12:56:27.652060  4724 net.cpp:91] Creating Layer pool1
I0627 12:56:27.652063  4724 net.cpp:425] pool1 <- conv1_1
I0627 12:56:27.652070  4724 net.cpp:399] pool1 -> pool1
I0627 12:56:27.652129  4724 net.cpp:141] Setting up pool1
I0627 12:56:27.652139  4724 net.cpp:148] Top shape: 32 32 49 64 (3211264)
I0627 12:56:27.652143  4724 net.cpp:156] Memory required for data: 237633920
I0627 12:56:27.652148  4724 layer_factory.hpp:77] Creating layer conv2_1
I0627 12:56:27.652158  4724 net.cpp:91] Creating Layer conv2_1
I0627 12:56:27.652163  4724 net.cpp:425] conv2_1 <- pool1
I0627 12:56:27.652168  4724 net.cpp:399] conv2_1 -> conv2_1
I0627 12:56:27.654727  4724 net.cpp:141] Setting up conv2_1
I0627 12:56:27.654743  4724 net.cpp:148] Top shape: 32 64 49 64 (6422528)
I0627 12:56:27.654748  4724 net.cpp:156] Memory required for data: 263324032
I0627 12:56:27.654755  4724 layer_factory.hpp:77] Creating layer bn2_1
I0627 12:56:27.654765  4724 net.cpp:91] Creating Layer bn2_1
I0627 12:56:27.654770  4724 net.cpp:425] bn2_1 <- conv2_1
I0627 12:56:27.654777  4724 net.cpp:386] bn2_1 -> conv2_1 (in-place)
I0627 12:56:27.656390  4724 net.cpp:141] Setting up bn2_1
I0627 12:56:27.656405  4724 net.cpp:148] Top shape: 32 64 49 64 (6422528)
I0627 12:56:27.656410  4724 net.cpp:156] Memory required for data: 289014144
I0627 12:56:27.656424  4724 layer_factory.hpp:77] Creating layer scale2_1
I0627 12:56:27.656435  4724 net.cpp:91] Creating Layer scale2_1
I0627 12:56:27.656438  4724 net.cpp:425] scale2_1 <- conv2_1
I0627 12:56:27.656445  4724 net.cpp:386] scale2_1 -> conv2_1 (in-place)
I0627 12:56:27.657945  4724 layer_factory.hpp:77] Creating layer scale2_1
I0627 12:56:27.658097  4724 net.cpp:141] Setting up scale2_1
I0627 12:56:27.658107  4724 net.cpp:148] Top shape: 32 64 49 64 (6422528)
I0627 12:56:27.658112  4724 net.cpp:156] Memory required for data: 314704256
I0627 12:56:27.658118  4724 layer_factory.hpp:77] Creating layer relu2_1
I0627 12:56:27.658125  4724 net.cpp:91] Creating Layer relu2_1
I0627 12:56:27.658130  4724 net.cpp:425] relu2_1 <- conv2_1
I0627 12:56:27.658138  4724 net.cpp:386] relu2_1 -> conv2_1 (in-place)
I0627 12:56:27.658339  4724 net.cpp:141] Setting up relu2_1
I0627 12:56:27.658352  4724 net.cpp:148] Top shape: 32 64 49 64 (6422528)
I0627 12:56:27.658356  4724 net.cpp:156] Memory required for data: 340394368
I0627 12:56:27.658360  4724 layer_factory.hpp:77] Creating layer pool2
I0627 12:56:27.658382  4724 net.cpp:91] Creating Layer pool2
I0627 12:56:27.658391  4724 net.cpp:425] pool2 <- conv2_1
I0627 12:56:27.658399  4724 net.cpp:399] pool2 -> pool2
I0627 12:56:27.658448  4724 net.cpp:141] Setting up pool2
I0627 12:56:27.658457  4724 net.cpp:148] Top shape: 32 64 25 32 (1638400)
I0627 12:56:27.658459  4724 net.cpp:156] Memory required for data: 346947968
I0627 12:56:27.658463  4724 layer_factory.hpp:77] Creating layer conv3_1
I0627 12:56:27.658478  4724 net.cpp:91] Creating Layer conv3_1
I0627 12:56:27.658483  4724 net.cpp:425] conv3_1 <- pool2
I0627 12:56:27.658488  4724 net.cpp:399] conv3_1 -> conv3_1
I0627 12:56:27.661478  4724 net.cpp:141] Setting up conv3_1
I0627 12:56:27.661495  4724 net.cpp:148] Top shape: 32 128 25 32 (3276800)
I0627 12:56:27.661500  4724 net.cpp:156] Memory required for data: 360055168
I0627 12:56:27.661506  4724 layer_factory.hpp:77] Creating layer bn3_1
I0627 12:56:27.661520  4724 net.cpp:91] Creating Layer bn3_1
I0627 12:56:27.661525  4724 net.cpp:425] bn3_1 <- conv3_1
I0627 12:56:27.661531  4724 net.cpp:386] bn3_1 -> conv3_1 (in-place)
I0627 12:56:27.663127  4724 net.cpp:141] Setting up bn3_1
I0627 12:56:27.663143  4724 net.cpp:148] Top shape: 32 128 25 32 (3276800)
I0627 12:56:27.663148  4724 net.cpp:156] Memory required for data: 373162368
I0627 12:56:27.663158  4724 layer_factory.hpp:77] Creating layer scale3_1
I0627 12:56:27.663169  4724 net.cpp:91] Creating Layer scale3_1
I0627 12:56:27.663174  4724 net.cpp:425] scale3_1 <- conv3_1
I0627 12:56:27.663182  4724 net.cpp:386] scale3_1 -> conv3_1 (in-place)
I0627 12:56:27.663233  4724 layer_factory.hpp:77] Creating layer scale3_1
I0627 12:56:27.663367  4724 net.cpp:141] Setting up scale3_1
I0627 12:56:27.663378  4724 net.cpp:148] Top shape: 32 128 25 32 (3276800)
I0627 12:56:27.663383  4724 net.cpp:156] Memory required for data: 386269568
I0627 12:56:27.663395  4724 layer_factory.hpp:77] Creating layer relu3_1
I0627 12:56:27.663406  4724 net.cpp:91] Creating Layer relu3_1
I0627 12:56:27.663411  4724 net.cpp:425] relu3_1 <- conv3_1
I0627 12:56:27.663422  4724 net.cpp:386] relu3_1 -> conv3_1 (in-place)
I0627 12:56:27.664024  4724 net.cpp:141] Setting up relu3_1
I0627 12:56:27.664041  4724 net.cpp:148] Top shape: 32 128 25 32 (3276800)
I0627 12:56:27.664046  4724 net.cpp:156] Memory required for data: 399376768
I0627 12:56:27.664049  4724 layer_factory.hpp:77] Creating layer pool3
I0627 12:56:27.664059  4724 net.cpp:91] Creating Layer pool3
I0627 12:56:27.664063  4724 net.cpp:425] pool3 <- conv3_1
I0627 12:56:27.664072  4724 net.cpp:399] pool3 -> pool3
I0627 12:56:27.664119  4724 net.cpp:141] Setting up pool3
I0627 12:56:27.664126  4724 net.cpp:148] Top shape: 32 128 13 16 (851968)
I0627 12:56:27.664129  4724 net.cpp:156] Memory required for data: 402784640
I0627 12:56:27.664132  4724 layer_factory.hpp:77] Creating layer conv4_1
I0627 12:56:27.664145  4724 net.cpp:91] Creating Layer conv4_1
I0627 12:56:27.664149  4724 net.cpp:425] conv4_1 <- pool3
I0627 12:56:27.664156  4724 net.cpp:399] conv4_1 -> conv4_1
I0627 12:56:27.667608  4724 net.cpp:141] Setting up conv4_1
I0627 12:56:27.667624  4724 net.cpp:148] Top shape: 32 256 13 16 (1703936)
I0627 12:56:27.667629  4724 net.cpp:156] Memory required for data: 409600384
I0627 12:56:27.667634  4724 layer_factory.hpp:77] Creating layer bn4_1
I0627 12:56:27.667644  4724 net.cpp:91] Creating Layer bn4_1
I0627 12:56:27.667650  4724 net.cpp:425] bn4_1 <- conv4_1
I0627 12:56:27.667657  4724 net.cpp:386] bn4_1 -> conv4_1 (in-place)
I0627 12:56:27.667858  4724 net.cpp:141] Setting up bn4_1
I0627 12:56:27.667868  4724 net.cpp:148] Top shape: 32 256 13 16 (1703936)
I0627 12:56:27.667872  4724 net.cpp:156] Memory required for data: 416416128
I0627 12:56:27.667881  4724 layer_factory.hpp:77] Creating layer scale4_1
I0627 12:56:27.667907  4724 net.cpp:91] Creating Layer scale4_1
I0627 12:56:27.667912  4724 net.cpp:425] scale4_1 <- conv4_1
I0627 12:56:27.667917  4724 net.cpp:386] scale4_1 -> conv4_1 (in-place)
I0627 12:56:27.667961  4724 layer_factory.hpp:77] Creating layer scale4_1
I0627 12:56:27.668105  4724 net.cpp:141] Setting up scale4_1
I0627 12:56:27.668118  4724 net.cpp:148] Top shape: 32 256 13 16 (1703936)
I0627 12:56:27.668121  4724 net.cpp:156] Memory required for data: 423231872
I0627 12:56:27.668128  4724 layer_factory.hpp:77] Creating layer relu4_1
I0627 12:56:27.668134  4724 net.cpp:91] Creating Layer relu4_1
I0627 12:56:27.668139  4724 net.cpp:425] relu4_1 <- conv4_1
I0627 12:56:27.668146  4724 net.cpp:386] relu4_1 -> conv4_1 (in-place)
I0627 12:56:27.668720  4724 net.cpp:141] Setting up relu4_1
I0627 12:56:27.668735  4724 net.cpp:148] Top shape: 32 256 13 16 (1703936)
I0627 12:56:27.668740  4724 net.cpp:156] Memory required for data: 430047616
I0627 12:56:27.668745  4724 layer_factory.hpp:77] Creating layer pool4
I0627 12:56:27.668752  4724 net.cpp:91] Creating Layer pool4
I0627 12:56:27.668757  4724 net.cpp:425] pool4 <- conv4_1
I0627 12:56:27.668764  4724 net.cpp:399] pool4 -> pool4
I0627 12:56:27.668812  4724 net.cpp:141] Setting up pool4
I0627 12:56:27.668820  4724 net.cpp:148] Top shape: 32 256 7 8 (458752)
I0627 12:56:27.668823  4724 net.cpp:156] Memory required for data: 431882624
I0627 12:56:27.668828  4724 layer_factory.hpp:77] Creating layer conv5_1
I0627 12:56:27.668838  4724 net.cpp:91] Creating Layer conv5_1
I0627 12:56:27.668841  4724 net.cpp:425] conv5_1 <- pool4
I0627 12:56:27.668849  4724 net.cpp:399] conv5_1 -> conv5_1
I0627 12:56:27.676260  4724 net.cpp:141] Setting up conv5_1
I0627 12:56:27.676281  4724 net.cpp:148] Top shape: 32 256 7 8 (458752)
I0627 12:56:27.676286  4724 net.cpp:156] Memory required for data: 433717632
I0627 12:56:27.676293  4724 layer_factory.hpp:77] Creating layer bn5_1
I0627 12:56:27.676303  4724 net.cpp:91] Creating Layer bn5_1
I0627 12:56:27.676309  4724 net.cpp:425] bn5_1 <- conv5_1
I0627 12:56:27.676319  4724 net.cpp:386] bn5_1 -> conv5_1 (in-place)
I0627 12:56:27.676548  4724 net.cpp:141] Setting up bn5_1
I0627 12:56:27.676558  4724 net.cpp:148] Top shape: 32 256 7 8 (458752)
I0627 12:56:27.676563  4724 net.cpp:156] Memory required for data: 435552640
I0627 12:56:27.676571  4724 layer_factory.hpp:77] Creating layer scale5_1
I0627 12:56:27.676580  4724 net.cpp:91] Creating Layer scale5_1
I0627 12:56:27.676584  4724 net.cpp:425] scale5_1 <- conv5_1
I0627 12:56:27.676590  4724 net.cpp:386] scale5_1 -> conv5_1 (in-place)
I0627 12:56:27.676640  4724 layer_factory.hpp:77] Creating layer scale5_1
I0627 12:56:27.676764  4724 net.cpp:141] Setting up scale5_1
I0627 12:56:27.676776  4724 net.cpp:148] Top shape: 32 256 7 8 (458752)
I0627 12:56:27.676779  4724 net.cpp:156] Memory required for data: 437387648
I0627 12:56:27.676786  4724 layer_factory.hpp:77] Creating layer relu5_1
I0627 12:56:27.676795  4724 net.cpp:91] Creating Layer relu5_1
I0627 12:56:27.676798  4724 net.cpp:425] relu5_1 <- conv5_1
I0627 12:56:27.676805  4724 net.cpp:386] relu5_1 -> conv5_1 (in-place)
I0627 12:56:27.677000  4724 net.cpp:141] Setting up relu5_1
I0627 12:56:27.677012  4724 net.cpp:148] Top shape: 32 256 7 8 (458752)
I0627 12:56:27.677016  4724 net.cpp:156] Memory required for data: 439222656
I0627 12:56:27.677021  4724 layer_factory.hpp:77] Creating layer pool5
I0627 12:56:27.677029  4724 net.cpp:91] Creating Layer pool5
I0627 12:56:27.677033  4724 net.cpp:425] pool5 <- conv5_1
I0627 12:56:27.677040  4724 net.cpp:399] pool5 -> pool5
I0627 12:56:27.677258  4724 net.cpp:141] Setting up pool5
I0627 12:56:27.677271  4724 net.cpp:148] Top shape: 32 256 2 1 (16384)
I0627 12:56:27.677274  4724 net.cpp:156] Memory required for data: 439288192
I0627 12:56:27.677278  4724 layer_factory.hpp:77] Creating layer fc2
I0627 12:56:27.677287  4724 net.cpp:91] Creating Layer fc2
I0627 12:56:27.677292  4724 net.cpp:425] fc2 <- pool5
I0627 12:56:27.677297  4724 net.cpp:399] fc2 -> fc2
I0627 12:56:27.677415  4724 net.cpp:141] Setting up fc2
I0627 12:56:27.677425  4724 net.cpp:148] Top shape: 32 2 (64)
I0627 12:56:27.677429  4724 net.cpp:156] Memory required for data: 439288448
I0627 12:56:27.677436  4724 layer_factory.hpp:77] Creating layer fc2_fc2_0_split
I0627 12:56:27.677455  4724 net.cpp:91] Creating Layer fc2_fc2_0_split
I0627 12:56:27.677460  4724 net.cpp:425] fc2_fc2_0_split <- fc2
I0627 12:56:27.677469  4724 net.cpp:399] fc2_fc2_0_split -> fc2_fc2_0_split_0
I0627 12:56:27.677474  4724 net.cpp:399] fc2_fc2_0_split -> fc2_fc2_0_split_1
I0627 12:56:27.677520  4724 net.cpp:141] Setting up fc2_fc2_0_split
I0627 12:56:27.677534  4724 net.cpp:148] Top shape: 32 2 (64)
I0627 12:56:27.677541  4724 net.cpp:148] Top shape: 32 2 (64)
I0627 12:56:27.677543  4724 net.cpp:156] Memory required for data: 439288960
I0627 12:56:27.677547  4724 layer_factory.hpp:77] Creating layer loss
I0627 12:56:27.677558  4724 net.cpp:91] Creating Layer loss
I0627 12:56:27.677579  4724 net.cpp:425] loss <- fc2_fc2_0_split_0
I0627 12:56:27.677584  4724 net.cpp:425] loss <- label_data_1_split_0
I0627 12:56:27.677592  4724 net.cpp:399] loss -> loss
…
I0627 12:56:27.679044  4724 solver.cpp:181] Creating test net (#0) specified by net file: models/bpnet/train_val.prototxt
I0627 12:56:27.679101  4724 net.cpp:313] The NetState phase (1) differed from the phase (0) specified by a rule in layer data
I0627 12:56:27.679321  4724 net.cpp:49] Initializing net from parameters: 
name: "BPnet"
state {
  phase: TEST
}
layer {
  name: "data"
  type: "Data"
  top: "data"
  top: "label"
  include {
    phase: TEST
  }
  transform_param {
    mirror: false
    mean_value: 100
    crop_h: 196
    crop_w: 256
  }
  data_param {
    source: "data/val_lmdb"
    batch_size: 64
    backend: LMDB
  }
}
layer {
  name: "conv1_1"
  type: "Convolution"
  bottom: "data"
  top: "conv1_1"
  param {
    lr_mult: 1
    decay_mult: 1
  }
  convolution_param {
    num_output: 32
    bias_term: false
    pad: 3
    kernel_size: 7
    stride: 2
    weight_filler {
      type: "xavier"
    }
  }
}
layer {
  name: "bn1_1"
  type: "BatchNorm"
  bottom: "conv1_1"
  top: "conv1_1"
  param {
    lr_mult: 0
  }
  param {
    lr_mult: 0
  }
  param {
    lr_mult: 0
  }
  batch_norm_param {
    use_global_stats: false
  }
}
layer {
  name: "scale1_1"
  type: "Scale"
  bottom: "conv1_1"
  top: "conv1_1"
  param {
    lr_mult: 1
    decay_mult: 1
  }
  param {
    lr_mult: 1
    decay_mult: 1
  }
  scale_param {
    bias_term: true
    bias_filler {
      type: "constant"
      value: 0
    }
  }
}
layer {
  name: "relu1_1"
  type: "ReLU"
  bottom: "conv1_1"
  top: "conv1_1"
}
layer {
  name: "pool1"
  type: "Pooling"
  bottom: "conv1_1"
  top: "pool1"
  pooling_param {
    pool: MAX
    kernel_size: 2
    stride: 2
  }
}
layer {
  name: "conv2_1"
  type: "Convolution"
  bottom: "pool1"
  top: "conv2_1"
  param {
    lr_mult: 1
    decay_mult: 1
  }
  convolution_param {
    num_output: 64
    bias_term: false
    pad: 1
    kernel_size: 3
    weight_filler {
      type: "xavier"
    }
  }
}
layer {
  name: "bn2_1"
  type: "BatchNorm"
  bottom: "conv2_1"
  top: "conv2_1"
  param {
    lr_mult: 0
  }
  param {
    lr_mult: 0
  }
  param {
    lr_mult: 0
  }
  batch_norm_param {
    use_global_stats: false
  }
}
layer {
  name: "scale2_1"
  type: "Scale"
  bottom: "conv2_1"
  top: "conv2_1"
  param {
    lr_mult: 1
    decay_mult: 1
  }
  param {
    lr_mult: 1
    decay_mult: 1
  }
  scale_param {
    bias_term: true
    bias_filler {
      type: "constant"
      value: 0
    }
  }
}
layer {
  name: "relu2_1"
  type: "ReLU"
  bottom: "conv2_1"
  top: "conv2_1"
}
layer {
  name: "pool2"
  type: "Pooling"
  bottom: "conv2_1"
  top: "pool2"
  pooling_param {
    pool: MAX
    kernel_size: 2
    stride: 2
  }
}
layer {
  name: "conv3_1"
  type: "Convolution"
  bottom: "pool2"
  top: "conv3_1"
  param {
    lr_mult: 1
    decay_mult: 1
  }
  convolution_param {
    num_output: 128
    bias_term: false
    pad: 1
    kernel_size: 3
    weight_filler {
      type: "xavier"
    }
  }
}
layer {
  name: "bn3_1"
  type: "BatchNorm"
  bottom: "conv3_1"
  top: "conv3_1"
  param {
    lr_mult: 0
  }
  param {
    lr_mult: 0
  }
  param {
    lr_mult: 0
  }
  batch_norm_param {
    use_global_stats: false
  }
}
layer {
  name: "scale3_1"
  type: "Scale"
  bottom: "conv3_1"
  top: "conv3_1"
  param {
    lr_mult: 1
    decay_mult: 1
  }
  param {
    lr_mult: 1
    decay_mult: 1
  }
  scale_param {
    bias_term: true
    bias_filler {
      type: "constant"
      value: 0
    }
  }
}
layer {
  name: "relu3_1"
  type: "ReLU"
  bottom: "conv3_1"
  top: "conv3_1"
}
layer {
  name: "pool3"
  type: "Pooling"
  bottom: "conv3_1"
  top: "pool3"
  pooling_param {
    pool: MAX
    kernel_size: 2
    stride: 2
  }
}
layer {
  name: "conv4_1"
  type: "Convolution"
  bottom: "pool3"
  top: "conv4_1"
  param {
    lr_mult: 1
    decay_mult: 1
  }
  convolution_param {
    num_output: 256
    bias_term: false
    pad: 1
    kernel_size: 3
    weight_filler {
      type: "xavier"
    }
  }
}
layer {
  name: "bn4_1"
  type: "BatchNorm"
  bottom: "conv4_1"
  top: "conv4_1"
  param {
    lr_mult: 0
  }
  param {
    lr_mult: 0
  }
  param {
    lr_mult: 0
  }
  batch_norm_param {
    use_global_stats: false
  }
}
layer {
  name: "scale4_1"
  type: "Scale"
  bottom: "conv4_1"
  top: "conv4_1"
  param {
    lr_mult: 1
    decay_mult: 1
  }
  param {
    lr_mult: 1
    decay_mult: 1
  }
  scale_param {
    bias_term: true
    bias_filler {
      type: "constant"
      value: 0
    }
  }
}
layer {
  name: "relu4_1"
  type: "ReLU"
  bottom: "conv4_1"
  top: "conv4_1"
}
layer {
  name: "pool4"
  type: "Pooling"
  bottom: "conv4_1"
  top: "pool4"
  pooling_param {
    pool: MAX
    kernel_size: 2
    stride: 2
  }
}
layer {
  name: "conv5_1"
  type: "Convolution"
  bottom: "pool4"
  top: "conv5_1"
  param {
    lr_mult: 1
    decay_mult: 1
  }
  convolution_param {
    num_output: 256
    bias_term: false
    pad: 1
    kernel_size: 3
    weight_filler {
      type: "xavier"
    }
  }
}
layer {
  name: "bn5_1"
  type: "BatchNorm"
  bottom: "conv5_1"
  top: "conv5_1"
  param {
    lr_mult: 0
  }
  param {
    lr_mult: 0
  }
  param {
    lr_mult: 0
  }
  batch_norm_param {
    use_global_stats: false
  }
}
layer {
  name: "scale5_1"
  type: "Scale"
  bottom: "conv5_1"
  top: "conv5_1"
  param {
    lr_mult: 1
    decay_mult: 1
  }
  param {
    lr_mult: 1
    decay_mult: 1
  }
  scale_param {
    bias_term: true
    bias_filler {
      type: "constant"
      value: 0
    }
  }
}
layer {
  name: "relu5_1"
  type: "ReLU"
  bottom: "conv5_1"
  top: "conv5_1"
}
layer {
  name: "pool5"
  type: "Pooling"
  bottom: "conv5_1"
  top: "pool5"
  pooling_param {
    pool: AVE
    stride: 1
    kernel_h: 6
    kernel_w: 8
  }
}
layer {
  name: "fc2"
  type: "InnerProduct"
  bottom: "pool5"
  top: "fc2"
  inner_product_param {
    num_output: 2
  }
}
layer {
  name: "loss"
  type: "SoftmaxWithLoss"
  bottom: "fc2"
  bottom: "label"
  top: "loss"
}
layer {
  name: "accuracy"
  type: "Accuracy"
  bottom: "fc2"
  bottom: "label"
  top: "accuracy"
}
I0627 12:56:27.679481  4724 layer_factory.hpp:77] Creating layer data
I0627 12:56:27.679586  4724 net.cpp:91] Creating Layer data
I0627 12:56:27.679599  4724 net.cpp:399] data -> data
I0627 12:56:27.679610  4724 net.cpp:399] data -> label
I0627 12:56:27.680910  4737 db_lmdb.cpp:35] Opened lmdb data/val_lmdb
I0627 12:56:27.681288  4724 data_layer.cpp:42] output data size: 64,3,196,256
I0627 12:56:27.765439  4724 net.cpp:141] Setting up data
I0627 12:56:27.765470  4724 net.cpp:148] Top shape: 64 3 196 256 (9633792)
I0627 12:56:27.765476  4724 net.cpp:148] Top shape: 64 (64)
I0627 12:56:27.765480  4724 net.cpp:156] Memory required for data: 38535424
I0627 12:56:27.765489  4724 layer_factory.hpp:77] Creating layer label_data_1_split
I0627 12:56:27.765502  4724 net.cpp:91] Creating Layer label_data_1_split
I0627 12:56:27.765507  4724 net.cpp:425] label_data_1_split <- label
I0627 12:56:27.765516  4724 net.cpp:399] label_data_1_split -> label_data_1_split_0
I0627 12:56:27.765527  4724 net.cpp:399] label_data_1_split -> label_data_1_split_1
I0627 12:56:27.765668  4724 net.cpp:141] Setting up label_data_1_split
I0627 12:56:27.765681  4724 net.cpp:148] Top shape: 64 (64)
I0627 12:56:27.765684  4724 net.cpp:148] Top shape: 64 (64)
I0627 12:56:27.765688  4724 net.cpp:156] Memory required for data: 38535936
I0627 12:56:27.765692  4724 layer_factory.hpp:77] Creating layer conv1_1
I0627 12:56:27.765707  4724 net.cpp:91] Creating Layer conv1_1
I0627 12:56:27.765712  4724 net.cpp:425] conv1_1 <- data
I0627 12:56:27.765719  4724 net.cpp:399] conv1_1 -> conv1_1
I0627 12:56:27.770349  4724 net.cpp:141] Setting up conv1_1
I0627 12:56:27.770367  4724 net.cpp:148] Top shape: 64 32 98 128 (25690112)
I0627 12:56:27.770372  4724 net.cpp:156] Memory required for data: 141296384
I0627 12:56:27.770382  4724 layer_factory.hpp:77] Creating layer bn1_1
I0627 12:56:27.770395  4724 net.cpp:91] Creating Layer bn1_1
I0627 12:56:27.770417  4724 net.cpp:425] bn1_1 <- conv1_1
I0627 12:56:27.770426  4724 net.cpp:386] bn1_1 -> conv1_1 (in-place)
I0627 12:56:27.770673  4724 net.cpp:141] Setting up bn1_1
I0627 12:56:27.770683  4724 net.cpp:148] Top shape: 64 32 98 128 (25690112)
I0627 12:56:27.770686  4724 net.cpp:156] Memory required for data: 244056832
I0627 12:56:27.770699  4724 layer_factory.hpp:77] Creating layer scale1_1
I0627 12:56:27.770712  4724 net.cpp:91] Creating Layer scale1_1
I0627 12:56:27.770716  4724 net.cpp:425] scale1_1 <- conv1_1
I0627 12:56:27.770722  4724 net.cpp:386] scale1_1 -> conv1_1 (in-place)
I0627 12:56:27.770772  4724 layer_factory.hpp:77] Creating layer scale1_1
I0627 12:56:27.770926  4724 net.cpp:141] Setting up scale1_1
I0627 12:56:27.770936  4724 net.cpp:148] Top shape: 64 32 98 128 (25690112)
I0627 12:56:27.770941  4724 net.cpp:156] Memory required for data: 346817280
I0627 12:56:27.770949  4724 layer_factory.hpp:77] Creating layer relu1_1
I0627 12:56:27.770961  4724 net.cpp:91] Creating Layer relu1_1
I0627 12:56:27.770965  4724 net.cpp:425] relu1_1 <- conv1_1
I0627 12:56:27.770972  4724 net.cpp:386] relu1_1 -> conv1_1 (in-place)
I0627 12:56:27.771647  4724 net.cpp:141] Setting up relu1_1
I0627 12:56:27.771663  4724 net.cpp:148] Top shape: 64 32 98 128 (25690112)
I0627 12:56:27.771667  4724 net.cpp:156] Memory required for data: 449577728
I0627 12:56:27.771672  4724 layer_factory.hpp:77] Creating layer pool1
I0627 12:56:27.771682  4724 net.cpp:91] Creating Layer pool1
I0627 12:56:27.771687  4724 net.cpp:425] pool1 <- conv1_1
I0627 12:56:27.771693  4724 net.cpp:399] pool1 -> pool1
I0627 12:56:27.771749  4724 net.cpp:141] Setting up pool1
I0627 12:56:27.771757  4724 net.cpp:148] Top shape: 64 32 49 64 (6422528)
I0627 12:56:27.771760  4724 net.cpp:156] Memory required for data: 475267840
I0627 12:56:27.771764  4724 layer_factory.hpp:77] Creating layer conv2_1
I0627 12:56:27.771777  4724 net.cpp:91] Creating Layer conv2_1
I0627 12:56:27.771781  4724 net.cpp:425] conv2_1 <- pool1
I0627 12:56:27.771788  4724 net.cpp:399] conv2_1 -> conv2_1
I0627 12:56:27.773236  4724 net.cpp:141] Setting up conv2_1
I0627 12:56:27.773254  4724 net.cpp:148] Top shape: 64 64 49 64 (12845056)
I0627 12:56:27.773259  4724 net.cpp:156] Memory required for data: 526648064
I0627 12:56:27.773267  4724 layer_factory.hpp:77] Creating layer bn2_1
I0627 12:56:27.773279  4724 net.cpp:91] Creating Layer bn2_1
I0627 12:56:27.773285  4724 net.cpp:425] bn2_1 <- conv2_1
I0627 12:56:27.773293  4724 net.cpp:386] bn2_1 -> conv2_1 (in-place)
I0627 12:56:27.773542  4724 net.cpp:141] Setting up bn2_1
I0627 12:56:27.773553  4724 net.cpp:148] Top shape: 64 64 49 64 (12845056)
I0627 12:56:27.773557  4724 net.cpp:156] Memory required for data: 578028288
I0627 12:56:27.773571  4724 layer_factory.hpp:77] Creating layer scale2_1
I0627 12:56:27.773584  4724 net.cpp:91] Creating Layer scale2_1
I0627 12:56:27.773589  4724 net.cpp:425] scale2_1 <- conv2_1
I0627 12:56:27.773596  4724 net.cpp:386] scale2_1 -> conv2_1 (in-place)
I0627 12:56:27.773646  4724 layer_factory.hpp:77] Creating layer scale2_1
I0627 12:56:27.773797  4724 net.cpp:141] Setting up scale2_1
I0627 12:56:27.773808  4724 net.cpp:148] Top shape: 64 64 49 64 (12845056)
I0627 12:56:27.773813  4724 net.cpp:156] Memory required for data: 629408512
I0627 12:56:27.773819  4724 layer_factory.hpp:77] Creating layer relu2_1
I0627 12:56:27.773825  4724 net.cpp:91] Creating Layer relu2_1
I0627 12:56:27.773829  4724 net.cpp:425] relu2_1 <- conv2_1
I0627 12:56:27.773836  4724 net.cpp:386] relu2_1 -> conv2_1 (in-place)
I0627 12:56:27.774029  4724 net.cpp:141] Setting up relu2_1
I0627 12:56:27.774039  4724 net.cpp:148] Top shape: 64 64 49 64 (12845056)
I0627 12:56:27.774044  4724 net.cpp:156] Memory required for data: 680788736
I0627 12:56:27.774047  4724 layer_factory.hpp:77] Creating layer pool2
I0627 12:56:27.774057  4724 net.cpp:91] Creating Layer pool2
I0627 12:56:27.774061  4724 net.cpp:425] pool2 <- conv2_1
I0627 12:56:27.774066  4724 net.cpp:399] pool2 -> pool2
I0627 12:56:27.774114  4724 net.cpp:141] Setting up pool2
I0627 12:56:27.774137  4724 net.cpp:148] Top shape: 64 64 25 32 (3276800)
I0627 12:56:27.774142  4724 net.cpp:156] Memory required for data: 693895936
I0627 12:56:27.774145  4724 layer_factory.hpp:77] Creating layer conv3_1
I0627 12:56:27.774158  4724 net.cpp:91] Creating Layer conv3_1
I0627 12:56:27.774161  4724 net.cpp:425] conv3_1 <- pool2
I0627 12:56:27.774169  4724 net.cpp:399] conv3_1 -> conv3_1
I0627 12:56:27.776111  4724 net.cpp:141] Setting up conv3_1
I0627 12:56:27.776131  4724 net.cpp:148] Top shape: 64 128 25 32 (6553600)
I0627 12:56:27.776137  4724 net.cpp:156] Memory required for data: 720110336
I0627 12:56:27.776145  4724 layer_factory.hpp:77] Creating layer bn3_1
I0627 12:56:27.776154  4724 net.cpp:91] Creating Layer bn3_1
I0627 12:56:27.776159  4724 net.cpp:425] bn3_1 <- conv3_1
I0627 12:56:27.776166  4724 net.cpp:386] bn3_1 -> conv3_1 (in-place)
I0627 12:56:27.776376  4724 net.cpp:141] Setting up bn3_1
I0627 12:56:27.776387  4724 net.cpp:148] Top shape: 64 128 25 32 (6553600)
I0627 12:56:27.776391  4724 net.cpp:156] Memory required for data: 746324736
I0627 12:56:27.776401  4724 layer_factory.hpp:77] Creating layer scale3_1
I0627 12:56:27.776412  4724 net.cpp:91] Creating Layer scale3_1
I0627 12:56:27.776415  4724 net.cpp:425] scale3_1 <- conv3_1
I0627 12:56:27.776422  4724 net.cpp:386] scale3_1 -> conv3_1 (in-place)
I0627 12:56:27.776468  4724 layer_factory.hpp:77] Creating layer scale3_1
I0627 12:56:27.776608  4724 net.cpp:141] Setting up scale3_1
I0627 12:56:27.776620  4724 net.cpp:148] Top shape: 64 128 25 32 (6553600)
I0627 12:56:27.776624  4724 net.cpp:156] Memory required for data: 772539136
I0627 12:56:27.776636  4724 layer_factory.hpp:77] Creating layer relu3_1
I0627 12:56:27.776648  4724 net.cpp:91] Creating Layer relu3_1
I0627 12:56:27.776653  4724 net.cpp:425] relu3_1 <- conv3_1
I0627 12:56:27.776659  4724 net.cpp:386] relu3_1 -> conv3_1 (in-place)
I0627 12:56:27.776862  4724 net.cpp:141] Setting up relu3_1
I0627 12:56:27.776875  4724 net.cpp:148] Top shape: 64 128 25 32 (6553600)
I0627 12:56:27.776878  4724 net.cpp:156] Memory required for data: 798753536
I0627 12:56:27.776882  4724 layer_factory.hpp:77] Creating layer pool3
I0627 12:56:27.776895  4724 net.cpp:91] Creating Layer pool3
I0627 12:56:27.776901  4724 net.cpp:425] pool3 <- conv3_1
I0627 12:56:27.776909  4724 net.cpp:399] pool3 -> pool3
I0627 12:56:27.776962  4724 net.cpp:141] Setting up pool3
I0627 12:56:27.776971  4724 net.cpp:148] Top shape: 64 128 13 16 (1703936)
I0627 12:56:27.776975  4724 net.cpp:156] Memory required for data: 805569280
I0627 12:56:27.776978  4724 layer_factory.hpp:77] Creating layer conv4_1
I0627 12:56:27.776991  4724 net.cpp:91] Creating Layer conv4_1
I0627 12:56:27.777027  4724 net.cpp:425] conv4_1 <- pool3
I0627 12:56:27.777041  4724 net.cpp:399] conv4_1 -> conv4_1
I0627 12:56:27.782414  4724 net.cpp:141] Setting up conv4_1
I0627 12:56:27.782438  4724 net.cpp:148] Top shape: 64 256 13 16 (3407872)
I0627 12:56:27.782444  4724 net.cpp:156] Memory required for data: 819200768
I0627 12:56:27.782451  4724 layer_factory.hpp:77] Creating layer bn4_1
I0627 12:56:27.782461  4724 net.cpp:91] Creating Layer bn4_1
I0627 12:56:27.782466  4724 net.cpp:425] bn4_1 <- conv4_1
I0627 12:56:27.782476  4724 net.cpp:386] bn4_1 -> conv4_1 (in-place)
I0627 12:56:27.782699  4724 net.cpp:141] Setting up bn4_1
I0627 12:56:27.782709  4724 net.cpp:148] Top shape: 64 256 13 16 (3407872)
I0627 12:56:27.782713  4724 net.cpp:156] Memory required for data: 832832256
I0627 12:56:27.782722  4724 layer_factory.hpp:77] Creating layer scale4_1
I0627 12:56:27.782732  4724 net.cpp:91] Creating Layer scale4_1
I0627 12:56:27.782738  4724 net.cpp:425] scale4_1 <- conv4_1
I0627 12:56:27.782744  4724 net.cpp:386] scale4_1 -> conv4_1 (in-place)
I0627 12:56:27.782794  4724 layer_factory.hpp:77] Creating layer scale4_1
I0627 12:56:27.782915  4724 net.cpp:141] Setting up scale4_1
I0627 12:56:27.782925  4724 net.cpp:148] Top shape: 64 256 13 16 (3407872)
I0627 12:56:27.782929  4724 net.cpp:156] Memory required for data: 846463744
I0627 12:56:27.782954  4724 layer_factory.hpp:77] Creating layer relu4_1
I0627 12:56:27.782964  4724 net.cpp:91] Creating Layer relu4_1
I0627 12:56:27.782968  4724 net.cpp:425] relu4_1 <- conv4_1
I0627 12:56:27.782974  4724 net.cpp:386] relu4_1 -> conv4_1 (in-place)
I0627 12:56:27.783166  4724 net.cpp:141] Setting up relu4_1
I0627 12:56:27.783179  4724 net.cpp:148] Top shape: 64 256 13 16 (3407872)
I0627 12:56:27.783182  4724 net.cpp:156] Memory required for data: 860095232
I0627 12:56:27.783185  4724 layer_factory.hpp:77] Creating layer pool4
I0627 12:56:27.783195  4724 net.cpp:91] Creating Layer pool4
I0627 12:56:27.783198  4724 net.cpp:425] pool4 <- conv4_1
I0627 12:56:27.783210  4724 net.cpp:399] pool4 -> pool4
I0627 12:56:27.783265  4724 net.cpp:141] Setting up pool4
I0627 12:56:27.783277  4724 net.cpp:148] Top shape: 64 256 7 8 (917504)
I0627 12:56:27.783279  4724 net.cpp:156] Memory required for data: 863765248
I0627 12:56:27.783283  4724 layer_factory.hpp:77] Creating layer conv5_1
I0627 12:56:27.783295  4724 net.cpp:91] Creating Layer conv5_1
I0627 12:56:27.783300  4724 net.cpp:425] conv5_1 <- pool4
I0627 12:56:27.783308  4724 net.cpp:399] conv5_1 -> conv5_1
I0627 12:56:27.790515  4724 net.cpp:141] Setting up conv5_1
I0627 12:56:27.790534  4724 net.cpp:148] Top shape: 64 256 7 8 (917504)
I0627 12:56:27.790536  4724 net.cpp:156] Memory required for data: 867435264
I0627 12:56:27.790542  4724 layer_factory.hpp:77] Creating layer bn5_1
I0627 12:56:27.790550  4724 net.cpp:91] Creating Layer bn5_1
I0627 12:56:27.790554  4724 net.cpp:425] bn5_1 <- conv5_1
I0627 12:56:27.790558  4724 net.cpp:386] bn5_1 -> conv5_1 (in-place)
I0627 12:56:27.790721  4724 net.cpp:141] Setting up bn5_1
I0627 12:56:27.790729  4724 net.cpp:148] Top shape: 64 256 7 8 (917504)
I0627 12:56:27.790732  4724 net.cpp:156] Memory required for data: 871105280
I0627 12:56:27.790737  4724 layer_factory.hpp:77] Creating layer scale5_1
I0627 12:56:27.790745  4724 net.cpp:91] Creating Layer scale5_1
I0627 12:56:27.790746  4724 net.cpp:425] scale5_1 <- conv5_1
I0627 12:56:27.790751  4724 net.cpp:386] scale5_1 -> conv5_1 (in-place)
I0627 12:56:27.790783  4724 layer_factory.hpp:77] Creating layer scale5_1
I0627 12:56:27.790869  4724 net.cpp:141] Setting up scale5_1
I0627 12:56:27.790876  4724 net.cpp:148] Top shape: 64 256 7 8 (917504)
I0627 12:56:27.790879  4724 net.cpp:156] Memory required for data: 874775296
I0627 12:56:27.790882  4724 layer_factory.hpp:77] Creating layer relu5_1
I0627 12:56:27.790887  4724 net.cpp:91] Creating Layer relu5_1
I0627 12:56:27.790889  4724 net.cpp:425] relu5_1 <- conv5_1
I0627 12:56:27.790894  4724 net.cpp:386] relu5_1 -> conv5_1 (in-place)
I0627 12:56:27.791039  4724 net.cpp:141] Setting up relu5_1
I0627 12:56:27.791049  4724 net.cpp:148] Top shape: 64 256 7 8 (917504)
I0627 12:56:27.791051  4724 net.cpp:156] Memory required for data: 878445312
I0627 12:56:27.791054  4724 layer_factory.hpp:77] Creating layer pool5
I0627 12:56:27.791059  4724 net.cpp:91] Creating Layer pool5
I0627 12:56:27.791061  4724 net.cpp:425] pool5 <- conv5_1
I0627 12:56:27.791066  4724 net.cpp:399] pool5 -> pool5
I0627 12:56:27.791518  4724 net.cpp:141] Setting up pool5
I0627 12:56:27.791532  4724 net.cpp:148] Top shape: 64 256 2 1 (32768)
I0627 12:56:27.791534  4724 net.cpp:156] Memory required for data: 878576384
I0627 12:56:27.791538  4724 layer_factory.hpp:77] Creating layer fc2
I0627 12:56:27.791543  4724 net.cpp:91] Creating Layer fc2
I0627 12:56:27.791546  4724 net.cpp:425] fc2 <- pool5
I0627 12:56:27.791550  4724 net.cpp:399] fc2 -> fc2
I0627 12:56:27.791647  4724 net.cpp:141] Setting up fc2
I0627 12:56:27.791654  4724 net.cpp:148] Top shape: 64 2 (128)
I0627 12:56:27.791657  4724 net.cpp:156] Memory required for data: 878576896
I0627 12:56:27.791661  4724 layer_factory.hpp:77] Creating layer fc2_fc2_0_split
I0627 12:56:27.791667  4724 net.cpp:91] Creating Layer fc2_fc2_0_split
I0627 12:56:27.791671  4724 net.cpp:425] fc2_fc2_0_split <- fc2
I0627 12:56:27.791673  4724 net.cpp:399] fc2_fc2_0_split -> fc2_fc2_0_split_0
I0627 12:56:27.791678  4724 net.cpp:399] fc2_fc2_0_split -> fc2_fc2_0_split_1
I0627 12:56:27.791724  4724 net.cpp:141] Setting up fc2_fc2_0_split
I0627 12:56:27.791729  4724 net.cpp:148] Top shape: 64 2 (128)
I0627 12:56:27.791733  4724 net.cpp:148] Top shape: 64 2 (128)
I0627 12:56:27.791734  4724 net.cpp:156] Memory required for data: 878577920
I0627 12:56:27.791738  4724 layer_factory.hpp:77] Creating layer loss
I0627 12:56:27.791743  4724 net.cpp:91] Creating Layer loss
I0627 12:56:27.791744  4724 net.cpp:425] loss <- fc2_fc2_0_split_0
I0627 12:56:27.791748  4724 net.cpp:425] loss <- label_data_1_split_0
I0627 12:56:27.791751  4724 net.cpp:399] loss -> loss
…
