…
I0623 21:38:39.603807  4805 net.cpp:313] The NetState phase (0) differed from the phase (1) specified by a rule in layer data
I0623 21:38:39.604226  4805 net.cpp:49] Initializing net from parameters: 
name: "segnet"
state {
  phase: TRAIN
}
layer {
  name: "data"
  type: "DenseImageData"
  top: "data"
  top: "label"
  include {
    phase: TRAIN
  }
  transform_param {
    crop_size: 224
    mean_value: 100
  }
  dense_image_data_param {
    source: "data/train.txt"
    batch_size: 32
    shuffle: true
    new_height: 224
    new_width: 310
    is_color: false
    root_folder: "data/raw/train/"
  }
}
layer {
  name: "conv1_1"
  type: "Convolution"
  bottom: "data"
  top: "conv1_1"
  param {
    lr_mult: 1
    decay_mult: 1
  }
  convolution_param {
    num_output: 32
    bias_term: false
    pad: 1
    kernel_size: 3
    weight_filler {
      type: "xavier"
    }
  }
}
layer {
  name: "bn1_1"
  type: "BatchNorm"
  bottom: "conv1_1"
  top: "conv1_1"
  param {
    lr_mult: 0
  }
  param {
    lr_mult: 0
  }
  param {
    lr_mult: 0
  }
  batch_norm_param {
    use_global_stats: false
  }
}
layer {
  name: "scale1_1"
  type: "Scale"
  bottom: "conv1_1"
  top: "conv1_1"
  param {
    lr_mult: 1
    decay_mult: 1
  }
  param {
    lr_mult: 1
    decay_mult: 1
  }
  scale_param {
    bias_term: true
    bias_filler {
      type: "constant"
      value: 0
    }
  }
}
layer {
  name: "relu1_1"
  type: "ReLU"
  bottom: "conv1_1"
  top: "conv1_1"
}
layer {
  name: "conv1_2"
  type: "Convolution"
  bottom: "conv1_1"
  top: "conv1_2"
  param {
    lr_mult: 1
    decay_mult: 1
  }
  convolution_param {
    num_output: 32
    bias_term: false
    pad: 1
    kernel_size: 3
    weight_filler {
      type: "xavier"
    }
  }
}
layer {
  name: "bn1_2"
  type: "BatchNorm"
  bottom: "conv1_2"
  top: "conv1_2"
  param {
    lr_mult: 0
  }
  param {
    lr_mult: 0
  }
  param {
    lr_mult: 0
  }
  batch_norm_param {
    use_global_stats: false
  }
}
layer {
  name: "scale1_2"
  type: "Scale"
  bottom: "conv1_2"
  top: "conv1_2"
  param {
    lr_mult: 1
    decay_mult: 1
  }
  param {
    lr_mult: 1
    decay_mult: 1
  }
  scale_param {
    bias_term: true
    bias_filler {
      type: "constant"
      value: 0
    }
  }
}
layer {
  name: "relu1_2"
  type: "ReLU"
  bottom: "conv1_2"
  top: "conv1_2"
}
layer {
  name: "pool1"
  type: "Pooling"
  bottom: "conv1_2"
  top: "pool1"
  top: "pool1_mask"
  pooling_param {
    pool: MAX
    kernel_size: 2
    stride: 2
  }
}
layer {
  name: "conv2_1"
  type: "Convolution"
  bottom: "pool1"
  top: "conv2_1"
  param {
    lr_mult: 1
    decay_mult: 1
  }
  convolution_param {
    num_output: 32
    bias_term: false
    pad: 1
    kernel_size: 3
    weight_filler {
      type: "xavier"
    }
  }
}
layer {
  name: "bn2_1"
  type: "BatchNorm"
  bottom: "conv2_1"
  top: "conv2_1"
  param {
    lr_mult: 0
  }
  param {
    lr_mult: 0
  }
  param {
    lr_mult: 0
  }
  batch_norm_param {
    use_global_stats: false
  }
}
layer {
  name: "scale2_1"
  type: "Scale"
  bottom: "conv2_1"
  top: "conv2_1"
  param {
    lr_mult: 1
    decay_mult: 1
  }
  param {
    lr_mult: 1
    decay_mult: 1
  }
  scale_param {
    bias_term: true
    bias_filler {
      type: "constant"
      value: 0
    }
  }
}
layer {
  name: "relu2_1"
  type: "ReLU"
  bottom: "conv2_1"
  top: "conv2_1"
}
layer {
  name: "conv2_2"
  type: "Convolution"
  bottom: "conv2_1"
  top: "conv2_2"
  param {
    lr_mult: 1
    decay_mult: 1
  }
  convolution_param {
    num_output: 32
    bias_term: false
    pad: 1
    kernel_size: 3
    weight_filler {
      type: "xavier"
    }
  }
}
layer {
  name: "bn2_2"
  type: "BatchNorm"
  bottom: "conv2_2"
  top: "conv2_2"
  param {
    lr_mult: 0
  }
  param {
    lr_mult: 0
  }
  param {
    lr_mult: 0
  }
  batch_norm_param {
    use_global_stats: false
  }
}
layer {
  name: "scale2_2"
  type: "Scale"
  bottom: "conv2_2"
  top: "conv2_2"
  param {
    lr_mult: 1
    decay_mult: 1
  }
  param {
    lr_mult: 1
    decay_mult: 1
  }
  scale_param {
    bias_term: true
    bias_filler {
      type: "constant"
      value: 0
    }
  }
}
layer {
  name: "relu2_2"
  type: "ReLU"
  bottom: "conv2_2"
  top: "conv2_2"
}
layer {
  name: "pool2"
  type: "Pooling"
  bottom: "conv2_2"
  top: "pool2"
  top: "pool2_mask"
  pooling_param {
    pool: MAX
    kernel_size: 2
    stride: 2
  }
}
layer {
  name: "conv3_1"
  type: "Convolution"
  bottom: "pool2"
  top: "conv3_1"
  param {
    lr_mult: 1
    decay_mult: 1
  }
  convolution_param {
    num_output: 32
    bias_term: false
    pad: 1
    kernel_size: 3
    weight_filler {
      type: "xavier"
    }
  }
}
layer {
  name: "bn3_1"
  type: "BatchNorm"
  bottom: "conv3_1"
  top: "conv3_1"
  param {
    lr_mult: 0
  }
  param {
    lr_mult: 0
  }
  param {
    lr_mult: 0
  }
  batch_norm_param {
    use_global_stats: false
  }
}
layer {
  name: "scale3_1"
  type: "Scale"
  bottom: "conv3_1"
  top: "conv3_1"
  param {
    lr_mult: 1
    decay_mult: 1
  }
  param {
    lr_mult: 1
    decay_mult: 1
  }
  scale_param {
    bias_term: true
    bias_filler {
      type: "constant"
      value: 0
    }
  }
}
layer {
  name: "relu3_1"
  type: "ReLU"
  bottom: "conv3_1"
  top: "conv3_1"
}
layer {
  name: "conv3_2"
  type: "Convolution"
  bottom: "conv3_1"
  top: "conv3_2"
  param {
    lr_mult: 1
    decay_mult: 1
  }
  convolution_param {
    num_output: 32
    bias_term: false
    pad: 1
    kernel_size: 3
    weight_filler {
      type: "xavier"
    }
  }
}
layer {
  name: "bn3_2"
  type: "BatchNorm"
  bottom: "conv3_2"
  top: "conv3_2"
  param {
    lr_mult: 0
  }
  param {
    lr_mult: 0
  }
  param {
    lr_mult: 0
  }
  batch_norm_param {
    use_global_stats: false
  }
}
layer {
  name: "scale3_2"
  type: "Scale"
  bottom: "conv3_2"
  top: "conv3_2"
  param {
    lr_mult: 1
    decay_mult: 1
  }
  param {
    lr_mult: 1
    decay_mult: 1
  }
  scale_param {
    bias_term: true
    bias_filler {
      type: "constant"
      value: 0
    }
  }
}
layer {
  name: "relu3_2"
  type: "ReLU"
  bottom: "conv3_2"
  top: "conv3_2"
}
layer {
  name: "pool3"
  type: "Pooling"
  bottom: "conv3_2"
  top: "pool3"
  top: "pool3_mask"
  pooling_param {
    pool: MAX
    kernel_size: 2
    stride: 2
  }
}
layer {
  name: "conv4_1"
  type: "Convolution"
  bottom: "pool3"
  top: "conv4_1"
  param {
    lr_mult: 1
    decay_mult: 1
  }
  convolution_param {
    num_output: 32
    bias_term: false
    pad: 1
    kernel_size: 3
    weight_filler {
      type: "xavier"
    }
  }
}
layer {
  name: "bn4_1"
  type: "BatchNorm"
  bottom: "conv4_1"
  top: "conv4_1"
  param {
    lr_mult: 0
  }
  param {
    lr_mult: 0
  }
  param {
    lr_mult: 0
  }
  batch_norm_param {
    use_global_stats: false
  }
}
layer {
  name: "scale4_1"
  type: "Scale"
  bottom: "conv4_1"
  top: "conv4_1"
  param {
    lr_mult: 1
    decay_mult: 1
  }
  param {
    lr_mult: 1
    decay_mult: 1
  }
  scale_param {
    bias_term: true
    bias_filler {
      type: "constant"
      value: 0
    }
  }
}
layer {
  name: "relu4_1"
  type: "ReLU"
  bottom: "conv4_1"
  top: "conv4_1"
}
layer {
  name: "conv4_2"
  type: "Convolution"
  bottom: "conv4_1"
  top: "conv4_2"
  param {
    lr_mult: 1
    decay_mult: 1
  }
  convolution_param {
    num_output: 32
    bias_term: false
    pad: 1
    kernel_size: 3
    weight_filler {
      type: "xavier"
    }
  }
}
layer {
  name: "bn4_2"
  type: "BatchNorm"
  bottom: "conv4_2"
  top: "conv4_2"
  param {
    lr_mult: 0
  }
  param {
    lr_mult: 0
  }
  param {
    lr_mult: 0
  }
  batch_norm_param {
    use_global_stats: false
  }
}
layer {
  name: "scale4_2"
  type: "Scale"
  bottom: "conv4_2"
  top: "conv4_2"
  param {
    lr_mult: 1
    decay_mult: 1
  }
  param {
    lr_mult: 1
    decay_mult: 1
  }
  scale_param {
    bias_term: true
    bias_filler {
      type: "constant"
      value: 0
    }
  }
}
layer {
  name: "relu4_2"
  type: "ReLU"
  bottom: "conv4_2"
  top: "conv4_2"
}
layer {
  name: "pool4"
  type: "Pooling"
  bottom: "conv4_2"
  top: "pool4"
  top: "pool4_mask"
  pooling_param {
    pool: MAX
    kernel_size: 2
    stride: 2
  }
}
layer {
  name: "conv5_1"
  type: "Convolution"
  bottom: "pool4"
  top: "conv5_1"
  param {
    lr_mult: 1
    decay_mult: 1
  }
  convolution_param {
    num_output: 32
    bias_term: false
    pad: 1
    kernel_size: 3
    weight_filler {
      type: "xavier"
    }
  }
}
layer {
  name: "bn5_1"
  type: "BatchNorm"
  bottom: "conv5_1"
  top: "conv5_1"
  param {
    lr_mult: 0
  }
  param {
    lr_mult: 0
  }
  param {
    lr_mult: 0
  }
  batch_norm_param {
    use_global_stats: false
  }
}
layer {
  name: "scale5_1"
  type: "Scale"
  bottom: "conv5_1"
  top: "conv5_1"
  param {
    lr_mult: 1
    decay_mult: 1
  }
  param {
    lr_mult: 1
    decay_mult: 1
  }
  scale_param {
    bias_term: true
    bias_filler {
      type: "constant"
      value: 0
    }
  }
}
layer {
  name: "relu5_1"
  type: "ReLU"
  bottom: "conv5_1"
  top: "conv5_1"
}
layer {
  name: "conv5_2"
  type: "Convolution"
  bottom: "conv5_1"
  top: "conv5_2"
  param {
    lr_mult: 1
    decay_mult: 1
  }
  convolution_param {
    num_output: 32
    bias_term: false
    pad: 1
    kernel_size: 3
    weight_filler {
      type: "xavier"
    }
  }
}
layer {
  name: "bn5_2"
  type: "BatchNorm"
  bottom: "conv5_2"
  top: "conv5_2"
  param {
    lr_mult: 0
  }
  param {
    lr_mult: 0
  }
  param {
    lr_mult: 0
  }
  batch_norm_param {
    use_global_stats: false
  }
}
layer {
  name: "scale5_2"
  type: "Scale"
  bottom: "conv5_2"
  top: "conv5_2"
  param {
    lr_mult: 1
    decay_mult: 1
  }
  param {
    lr_mult: 1
    decay_mult: 1
  }
  scale_param {
    bias_term: true
    bias_filler {
      type: "constant"
      value: 0
    }
  }
}
layer {
  name: "relu5_2"
  type: "ReLU"
  bottom: "conv5_2"
  top: "conv5_2"
}
layer {
  name: "pool5"
  type: "Pooling"
  bottom: "conv5_2"
  top: "pool5"
  top: "pool5_mask"
  pooling_param {
    pool: MAX
    kernel_size: 2
    stride: 2
  }
}
layer {
  name: "upsample5"
  type: "Upsample"
  bottom: "pool5"
  bottom: "pool5_mask"
  top: "pool5_D"
  upsample_param {
    scale: 2
    upsample_h: 14
    upsample_w: 14
  }
}
layer {
  name: "conv5_2_D"
  type: "Convolution"
  bottom: "pool5_D"
  top: "conv5_2_D"
  param {
    lr_mult: 1
    decay_mult: 1
  }
  convolution_param {
    num_output: 32
    bias_term: false
    pad: 1
    kernel_size: 3
    weight_filler {
      type: "xavier"
    }
  }
}
layer {
  name: "bn5_2_D"
  type: "BatchNorm"
  bottom: "conv5_2_D"
  top: "conv5_2_D"
  param {
    lr_mult: 0
  }
  param {
    lr_mult: 0
  }
  param {
    lr_mult: 0
  }
  batch_norm_param {
    use_global_stats: false
  }
}
layer {
  name: "scale5_2_D"
  type: "Scale"
  bottom: "conv5_2_D"
  top: "conv5_2_D"
  param {
    lr_mult: 1
    decay_mult: 1
  }
  param {
    lr_mult: 1
    decay_mult: 1
  }
  scale_param {
    bias_term: true
    bias_filler {
      type: "constant"
      value: 0
    }
  }
}
layer {
  name: "relu5_2_D"
  type: "ReLU"
  bottom: "conv5_2_D"
  top: "conv5_2_D"
}
layer {
  name: "conv5_1_D"
  type: "Convolution"
  bottom: "conv5_2_D"
  top: "conv5_1_D"
  param {
    lr_mult: 1
    decay_mult: 1
  }
  convolution_param {
    num_output: 32
    bias_term: false
    pad: 1
    kernel_size: 3
    weight_filler {
      type: "xavier"
    }
  }
}
layer {
  name: "bn5_1_D"
  type: "BatchNorm"
  bottom: "conv5_1_D"
  top: "conv5_1_D"
  param {
    lr_mult: 0
  }
  param {
    lr_mult: 0
  }
  param {
    lr_mult: 0
  }
  batch_norm_param {
    use_global_stats: false
  }
}
layer {
  name: "scale5_1_D"
  type: "Scale"
  bottom: "conv5_1_D"
  top: "conv5_1_D"
  param {
    lr_mult: 1
    decay_mult: 1
  }
  param {
    lr_mult: 1
    decay_mult: 1
  }
  scale_param {
    bias_term: true
    bias_filler {
      type: "constant"
      value: 0
    }
  }
}
layer {
  name: "relu5_1_D"
  type: "ReLU"
  bottom: "conv5_1_D"
  top: "conv5_1_D"
}
layer {
  name: "upsample4"
  type: "Upsample"
  bottom: "conv5_1_D"
  bottom: "pool4_mask"
  top: "pool4_D"
  upsample_param {
    scale: 2
    upsample_h: 28
    upsample_w: 28
  }
}
layer {
  name: "conv4_2_D"
  type: "Convolution"
  bottom: "pool4_D"
  top: "conv4_2_D"
  param {
    lr_mult: 1
    decay_mult: 1
  }
  convolution_param {
    num_output: 32
    bias_term: false
    pad: 1
    kernel_size: 3
    weight_filler {
      type: "xavier"
    }
  }
}
layer {
  name: "bn4_2_D"
  type: "BatchNorm"
  bottom: "conv4_2_D"
  top: "conv4_2_D"
  param {
    lr_mult: 0
  }
  param {
    lr_mult: 0
  }
  param {
    lr_mult: 0
  }
  batch_norm_param {
    use_global_stats: false
  }
}
layer {
  name: "scale4_2_D"
  type: "Scale"
  bottom: "conv4_2_D"
  top: "conv4_2_D"
  param {
    lr_mult: 1
    decay_mult: 1
  }
  param {
    lr_mult: 1
    decay_mult: 1
  }
  scale_param {
    bias_term: true
    bias_filler {
      type: "constant"
      value: 0
    }
  }
}
layer {
  name: "relu4_2_D"
  type: "ReLU"
  bottom: "conv4_2_D"
  top: "conv4_2_D"
}
layer {
  name: "conv4_1_D"
  type: "Convolution"
  bottom: "conv4_2_D"
  top: "conv4_1_D"
  param {
    lr_mult: 1
    decay_mult: 1
  }
  convolution_param {
    num_output: 32
    bias_term: false
    pad: 1
    kernel_size: 3
    weight_filler {
      type: "xavier"
    }
  }
}
layer {
  name: "bn4_1_D"
  type: "BatchNorm"
  bottom: "conv4_1_D"
  top: "conv4_1_D"
  param {
    lr_mult: 0
  }
  param {
    lr_mult: 0
  }
  param {
    lr_mult: 0
  }
  batch_norm_param {
    use_global_stats: false
  }
}
layer {
  name: "scale4_1_D"
  type: "Scale"
  bottom: "conv4_1_D"
  top: "conv4_1_D"
  param {
    lr_mult: 1
    decay_mult: 1
  }
  param {
    lr_mult: 1
    decay_mult: 1
  }
  scale_param {
    bias_term: true
    bias_filler {
      type: "constant"
      value: 0
    }
  }
}
layer {
  name: "relu4_1_D"
  type: "ReLU"
  bottom: "conv4_1_D"
  top: "conv4_1_D"
}
layer {
  name: "upsample3"
  type: "Upsample"
  bottom: "conv4_1_D"
  bottom: "pool3_mask"
  top: "pool3_D"
  upsample_param {
    scale: 2
    upsample_h: 56
    upsample_w: 56
  }
}
layer {
  name: "conv3_2_D"
  type: "Convolution"
  bottom: "pool3_D"
  top: "conv3_2_D"
  param {
    lr_mult: 1
    decay_mult: 1
  }
  param {
    lr_mult: 1
    decay_mult: 1
  }
  convolution_param {
    num_output: 32
    pad: 1
    kernel_size: 3
    weight_filler {
      type: "xavier"
    }
    bias_filler {
      type: "constant"
      value: 0
    }
  }
}
layer {
  name: "bn3_2_D"
  type: "BatchNorm"
  bottom: "conv3_2_D"
  top: "conv3_2_D"
  param {
    lr_mult: 0
  }
  param {
    lr_mult: 0
  }
  param {
    lr_mult: 0
  }
  batch_norm_param {
    use_global_stats: false
  }
}
layer {
  name: "scale3_2_D"
  type: "Scale"
  bottom: "conv3_2_D"
  top: "conv3_2_D"
  param {
    lr_mult: 1
    decay_mult: 1
  }
  param {
    lr_mult: 1
    decay_mult: 1
  }
  scale_param {
    bias_term: true
    bias_filler {
      type: "constant"
      value: 0
    }
  }
}
layer {
  name: "relu3_2_D"
  type: "ReLU"
  bottom: "conv3_2_D"
  top: "conv3_2_D"
}
layer {
  name: "conv3_1_D"
  type: "Convolution"
  bottom: "conv3_2_D"
  top: "conv3_1_D"
  param {
    lr_mult: 1
    decay_mult: 1
  }
  convolution_param {
    num_output: 32
    bias_term: false
    pad: 1
    kernel_size: 3
    weight_filler {
      type: "xavier"
    }
  }
}
layer {
  name: "bn3_1_D"
  type: "BatchNorm"
  bottom: "conv3_1_D"
  top: "conv3_1_D"
  param {
    lr_mult: 0
  }
  param {
    lr_mult: 0
  }
  param {
    lr_mult: 0
  }
  batch_norm_param {
    use_global_stats: false
  }
}
layer {
  name: "scale3_1_D"
  type: "Scale"
  bottom: "conv3_1_D"
  top: "conv3_1_D"
  param {
    lr_mult: 1
    decay_mult: 1
  }
  param {
    lr_mult: 1
    decay_mult: 1
  }
  scale_param {
    bias_term: true
    bias_filler {
      type: "constant"
      value: 0
    }
  }
}
layer {
  name: "relu3_1_D"
  type: "ReLU"
  bottom: "conv3_1_D"
  top: "conv3_1_D"
}
layer {
  name: "upsample2"
  type: "Upsample"
  bottom: "conv3_1_D"
  bottom: "pool2_mask"
  top: "pool2_D"
  upsample_param {
    scale: 2
    upsample_h: 112
    upsample_w: 112
  }
}
layer {
  name: "conv2_2_D"
  type: "Convolution"
  bottom: "pool2_D"
  top: "conv2_2_D"
  param {
    lr_mult: 1
    decay_mult: 1
  }
  convolution_param {
    num_output: 32
    bias_term: false
    pad: 1
    kernel_size: 3
    weight_filler {
      type: "xavier"
    }
  }
}
layer {
  name: "bn2_2_D"
  type: "BatchNorm"
  bottom: "conv2_2_D"
  top: "conv2_2_D"
  param {
    lr_mult: 0
  }
  param {
    lr_mult: 0
  }
  param {
    lr_mult: 0
  }
  batch_norm_param {
    use_global_stats: false
  }
}
layer {
  name: "scale2_2_D"
  type: "Scale"
  bottom: "conv2_2_D"
  top: "conv2_2_D"
  param {
    lr_mult: 1
    decay_mult: 1
  }
  param {
    lr_mult: 1
    decay_mult: 1
  }
  scale_param {
    bias_term: true
    bias_filler {
      type: "constant"
      value: 0
    }
  }
}
layer {
  name: "relu2_2_D"
  type: "ReLU"
  bottom: "conv2_2_D"
  top: "conv2_2_D"
}
layer {
  name: "conv2_1_D"
  type: "Convolution"
  bottom: "conv2_2_D"
  top: "conv2_1_D"
  param {
    lr_mult: 1
    decay_mult: 1
  }
  convolution_param {
    num_output: 32
    bias_term: false
    pad: 1
    kernel_size: 3
    weight_filler {
      type: "xavier"
    }
  }
}
layer {
  name: "bn2_1_D"
  type: "BatchNorm"
  bottom: "conv2_1_D"
  top: "conv2_1_D"
  param {
    lr_mult: 0
  }
  param {
    lr_mult: 0
  }
  param {
    lr_mult: 0
  }
  batch_norm_param {
    use_global_stats: false
  }
}
layer {
  name: "scale2_1_D"
  type: "Scale"
  bottom: "conv2_1_D"
  top: "conv2_1_D"
  param {
    lr_mult: 1
    decay_mult: 1
  }
  param {
    lr_mult: 1
    decay_mult: 1
  }
  scale_param {
    bias_term: true
    bias_filler {
      type: "constant"
      value: 0
    }
  }
}
layer {
  name: "relu2_1_D"
  type: "ReLU"
  bottom: "conv2_1_D"
  top: "conv2_1_D"
}
layer {
  name: "upsample1"
  type: "Upsample"
  bottom: "conv2_1_D"
  bottom: "pool1_mask"
  top: "pool1_D"
  upsample_param {
    scale: 2
    upsample_h: 224
    upsample_w: 224
  }
}
layer {
  name: "conv1_2_D"
  type: "Convolution"
  bottom: "pool1_D"
  top: "conv1_2_D"
  param {
    lr_mult: 1
    decay_mult: 1
  }
  convolution_param {
    num_output: 32
    bias_term: false
    pad: 1
    kernel_size: 3
    weight_filler {
      type: "xavier"
    }
  }
}
layer {
  name: "bn1_2_D"
  type: "BatchNorm"
  bottom: "conv1_2_D"
  top: "conv1_2_D"
  param {
    lr_mult: 0
  }
  param {
    lr_mult: 0
  }
  param {
    lr_mult: 0
  }
  batch_norm_param {
    use_global_stats: false
  }
}
layer {
  name: "scale1_2_D"
  type: "Scale"
  bottom: "conv1_2_D"
  top: "conv1_2_D"
  param {
    lr_mult: 1
    decay_mult: 1
  }
  param {
    lr_mult: 1
    decay_mult: 1
  }
  scale_param {
    bias_term: true
    bias_filler {
      type: "constant"
      value: 0
    }
  }
}
layer {
  name: "relu1_2_D"
  type: "ReLU"
  bottom: "conv1_2_D"
  top: "conv1_2_D"
}
layer {
  name: "conv1_1_D"
  type: "Convolution"
  bottom: "conv1_2_D"
  top: "conv1_1_D"
  param {
    lr_mult: 1
    decay_mult: 1
  }
  param {
    lr_mult: 0.1
    decay_mult: 1
  }
  convolution_param {
    num_output: 2
    bias_term: true
    pad: 1
    kernel_size: 3
    weight_filler {
      type: "xavier"
    }
    bias_filler {
      type: "constant"
    }
  }
}
layer {
  name: "loss"
  type: "SoftmaxWithLoss"
  bottom: "conv1_1_D"
  bottom: "label"
  top: "loss"
}
layer {
  name: "accuracy"
  type: "Accuracy"
  bottom: "conv1_1_D"
  bottom: "label"
  top: "accuracy"
}
I0623 21:38:39.604506  4805 layer_factory.hpp:77] Creating layer data
I0623 21:38:39.604537  4805 net.cpp:91] Creating Layer data
I0623 21:38:39.604542  4805 net.cpp:399] data -> data
I0623 21:38:39.604562  4805 net.cpp:399] data -> label
I0623 21:38:39.604873  4805 dense_image_data_layer.cpp:38] Opening file data/train.txt
I0623 21:38:39.607102  4805 dense_image_data_layer.cpp:48] Shuffling data
I0623 21:38:39.607604  4805 dense_image_data_layer.cpp:53] A total of 4930 examples.
I0623 21:38:39.863762  4805 dense_image_data_layer.cpp:92] output data size: 1,1,224,224
I0623 21:38:39.865490  4805 net.cpp:141] Setting up data
I0623 21:38:39.865509  4805 net.cpp:148] Top shape: 1 1 224 224 (50176)
I0623 21:38:39.865514  4805 net.cpp:148] Top shape: 1 1 224 224 (50176)
I0623 21:38:39.865516  4805 net.cpp:156] Memory required for data: 401408
I0623 21:38:39.865523  4805 layer_factory.hpp:77] Creating layer label_data_1_split
I0623 21:38:39.865536  4805 net.cpp:91] Creating Layer label_data_1_split
I0623 21:38:39.865541  4805 net.cpp:425] label_data_1_split <- label
I0623 21:38:39.865551  4805 net.cpp:399] label_data_1_split -> label_data_1_split_0
I0623 21:38:39.865559  4805 net.cpp:399] label_data_1_split -> label_data_1_split_1
I0623 21:38:39.865612  4805 net.cpp:141] Setting up label_data_1_split
I0623 21:38:39.865619  4805 net.cpp:148] Top shape: 1 1 224 224 (50176)
I0623 21:38:39.865622  4805 net.cpp:148] Top shape: 1 1 224 224 (50176)
I0623 21:38:39.865624  4805 net.cpp:156] Memory required for data: 802816
I0623 21:38:39.865628  4805 layer_factory.hpp:77] Creating layer conv1_1
I0623 21:38:39.865641  4805 net.cpp:91] Creating Layer conv1_1
I0623 21:38:39.865645  4805 net.cpp:425] conv1_1 <- data
I0623 21:38:39.865649  4805 net.cpp:399] conv1_1 -> conv1_1
I0623 21:38:40.053925  4805 net.cpp:141] Setting up conv1_1
I0623 21:38:40.053951  4805 net.cpp:148] Top shape: 1 32 224 224 (1605632)
I0623 21:38:40.053954  4805 net.cpp:156] Memory required for data: 7225344
I0623 21:38:40.053967  4805 layer_factory.hpp:77] Creating layer bn1_1
I0623 21:38:40.053983  4805 net.cpp:91] Creating Layer bn1_1
I0623 21:38:40.053987  4805 net.cpp:425] bn1_1 <- conv1_1
I0623 21:38:40.053992  4805 net.cpp:386] bn1_1 -> conv1_1 (in-place)
I0623 21:38:40.054174  4805 net.cpp:141] Setting up bn1_1
I0623 21:38:40.054183  4805 net.cpp:148] Top shape: 1 32 224 224 (1605632)
I0623 21:38:40.054185  4805 net.cpp:156] Memory required for data: 13647872
I0623 21:38:40.054195  4805 layer_factory.hpp:77] Creating layer scale1_1
I0623 21:38:40.054203  4805 net.cpp:91] Creating Layer scale1_1
I0623 21:38:40.054206  4805 net.cpp:425] scale1_1 <- conv1_1
I0623 21:38:40.054210  4805 net.cpp:386] scale1_1 -> conv1_1 (in-place)
I0623 21:38:40.054244  4805 layer_factory.hpp:77] Creating layer scale1_1
I0623 21:38:40.054405  4805 net.cpp:141] Setting up scale1_1
I0623 21:38:40.054412  4805 net.cpp:148] Top shape: 1 32 224 224 (1605632)
I0623 21:38:40.054414  4805 net.cpp:156] Memory required for data: 20070400
I0623 21:38:40.054420  4805 layer_factory.hpp:77] Creating layer relu1_1
I0623 21:38:40.054426  4805 net.cpp:91] Creating Layer relu1_1
I0623 21:38:40.054430  4805 net.cpp:425] relu1_1 <- conv1_1
I0623 21:38:40.054432  4805 net.cpp:386] relu1_1 -> conv1_1 (in-place)
I0623 21:38:40.054702  4805 net.cpp:141] Setting up relu1_1
I0623 21:38:40.054713  4805 net.cpp:148] Top shape: 1 32 224 224 (1605632)
I0623 21:38:40.054716  4805 net.cpp:156] Memory required for data: 26492928
I0623 21:38:40.054719  4805 layer_factory.hpp:77] Creating layer conv1_2
I0623 21:38:40.054728  4805 net.cpp:91] Creating Layer conv1_2
I0623 21:38:40.054730  4805 net.cpp:425] conv1_2 <- conv1_1
I0623 21:38:40.054735  4805 net.cpp:399] conv1_2 -> conv1_2
I0623 21:38:40.056298  4805 net.cpp:141] Setting up conv1_2
I0623 21:38:40.056310  4805 net.cpp:148] Top shape: 1 32 224 224 (1605632)
I0623 21:38:40.056313  4805 net.cpp:156] Memory required for data: 32915456
I0623 21:38:40.056318  4805 layer_factory.hpp:77] Creating layer bn1_2
I0623 21:38:40.056324  4805 net.cpp:91] Creating Layer bn1_2
I0623 21:38:40.056327  4805 net.cpp:425] bn1_2 <- conv1_2
I0623 21:38:40.056331  4805 net.cpp:386] bn1_2 -> conv1_2 (in-place)
I0623 21:38:40.056547  4805 net.cpp:141] Setting up bn1_2
I0623 21:38:40.056555  4805 net.cpp:148] Top shape: 1 32 224 224 (1605632)
I0623 21:38:40.056558  4805 net.cpp:156] Memory required for data: 39337984
I0623 21:38:40.056566  4805 layer_factory.hpp:77] Creating layer scale1_2
I0623 21:38:40.056589  4805 net.cpp:91] Creating Layer scale1_2
I0623 21:38:40.056593  4805 net.cpp:425] scale1_2 <- conv1_2
I0623 21:38:40.056597  4805 net.cpp:386] scale1_2 -> conv1_2 (in-place)
I0623 21:38:40.056632  4805 layer_factory.hpp:77] Creating layer scale1_2
I0623 21:38:40.056800  4805 net.cpp:141] Setting up scale1_2
I0623 21:38:40.056808  4805 net.cpp:148] Top shape: 1 32 224 224 (1605632)
I0623 21:38:40.056810  4805 net.cpp:156] Memory required for data: 45760512
I0623 21:38:40.056815  4805 layer_factory.hpp:77] Creating layer relu1_2
I0623 21:38:40.056819  4805 net.cpp:91] Creating Layer relu1_2
I0623 21:38:40.056823  4805 net.cpp:425] relu1_2 <- conv1_2
I0623 21:38:40.056826  4805 net.cpp:386] relu1_2 -> conv1_2 (in-place)
I0623 21:38:40.056969  4805 net.cpp:141] Setting up relu1_2
I0623 21:38:40.056977  4805 net.cpp:148] Top shape: 1 32 224 224 (1605632)
I0623 21:38:40.056980  4805 net.cpp:156] Memory required for data: 52183040
I0623 21:38:40.056982  4805 layer_factory.hpp:77] Creating layer pool1
I0623 21:38:40.056985  4805 layer_factory.cpp:90] cuDNN does not support multiple tops. Using Caffe's own pooling layer.
I0623 21:38:40.056990  4805 net.cpp:91] Creating Layer pool1
I0623 21:38:40.056993  4805 net.cpp:425] pool1 <- conv1_2
I0623 21:38:40.056998  4805 net.cpp:399] pool1 -> pool1
I0623 21:38:40.057005  4805 net.cpp:399] pool1 -> pool1_mask
I0623 21:38:40.057049  4805 net.cpp:141] Setting up pool1
I0623 21:38:40.057055  4805 net.cpp:148] Top shape: 1 32 112 112 (401408)
I0623 21:38:40.057059  4805 net.cpp:148] Top shape: 1 32 112 112 (401408)
I0623 21:38:40.057061  4805 net.cpp:156] Memory required for data: 55394304
I0623 21:38:40.057063  4805 layer_factory.hpp:77] Creating layer conv2_1
I0623 21:38:40.057070  4805 net.cpp:91] Creating Layer conv2_1
I0623 21:38:40.057073  4805 net.cpp:425] conv2_1 <- pool1
I0623 21:38:40.057077  4805 net.cpp:399] conv2_1 -> conv2_1
I0623 21:38:40.057947  4805 net.cpp:141] Setting up conv2_1
I0623 21:38:40.057961  4805 net.cpp:148] Top shape: 1 32 112 112 (401408)
I0623 21:38:40.057963  4805 net.cpp:156] Memory required for data: 56999936
I0623 21:38:40.057968  4805 layer_factory.hpp:77] Creating layer bn2_1
I0623 21:38:40.057973  4805 net.cpp:91] Creating Layer bn2_1
I0623 21:38:40.057976  4805 net.cpp:425] bn2_1 <- conv2_1
I0623 21:38:40.057981  4805 net.cpp:386] bn2_1 -> conv2_1 (in-place)
I0623 21:38:40.058138  4805 net.cpp:141] Setting up bn2_1
I0623 21:38:40.058145  4805 net.cpp:148] Top shape: 1 32 112 112 (401408)
I0623 21:38:40.058147  4805 net.cpp:156] Memory required for data: 58605568
I0623 21:38:40.058152  4805 layer_factory.hpp:77] Creating layer scale2_1
I0623 21:38:40.058158  4805 net.cpp:91] Creating Layer scale2_1
I0623 21:38:40.058161  4805 net.cpp:425] scale2_1 <- conv2_1
I0623 21:38:40.058166  4805 net.cpp:386] scale2_1 -> conv2_1 (in-place)
I0623 21:38:40.058195  4805 layer_factory.hpp:77] Creating layer scale2_1
I0623 21:38:40.058298  4805 net.cpp:141] Setting up scale2_1
I0623 21:38:40.058305  4805 net.cpp:148] Top shape: 1 32 112 112 (401408)
I0623 21:38:40.058307  4805 net.cpp:156] Memory required for data: 60211200
I0623 21:38:40.058315  4805 layer_factory.hpp:77] Creating layer relu2_1
I0623 21:38:40.058320  4805 net.cpp:91] Creating Layer relu2_1
I0623 21:38:40.058322  4805 net.cpp:425] relu2_1 <- conv2_1
I0623 21:38:40.058326  4805 net.cpp:386] relu2_1 -> conv2_1 (in-place)
I0623 21:38:40.058593  4805 net.cpp:141] Setting up relu2_1
I0623 21:38:40.058604  4805 net.cpp:148] Top shape: 1 32 112 112 (401408)
I0623 21:38:40.058607  4805 net.cpp:156] Memory required for data: 61816832
I0623 21:38:40.058609  4805 layer_factory.hpp:77] Creating layer conv2_2
I0623 21:38:40.058619  4805 net.cpp:91] Creating Layer conv2_2
I0623 21:38:40.058620  4805 net.cpp:425] conv2_2 <- conv2_1
I0623 21:38:40.058626  4805 net.cpp:399] conv2_2 -> conv2_2
I0623 21:38:40.059382  4805 net.cpp:141] Setting up conv2_2
I0623 21:38:40.059397  4805 net.cpp:148] Top shape: 1 32 112 112 (401408)
I0623 21:38:40.059399  4805 net.cpp:156] Memory required for data: 63422464
I0623 21:38:40.059414  4805 layer_factory.hpp:77] Creating layer bn2_2
I0623 21:38:40.059422  4805 net.cpp:91] Creating Layer bn2_2
I0623 21:38:40.059424  4805 net.cpp:425] bn2_2 <- conv2_2
I0623 21:38:40.059429  4805 net.cpp:386] bn2_2 -> conv2_2 (in-place)
I0623 21:38:40.059588  4805 net.cpp:141] Setting up bn2_2
I0623 21:38:40.059597  4805 net.cpp:148] Top shape: 1 32 112 112 (401408)
I0623 21:38:40.059598  4805 net.cpp:156] Memory required for data: 65028096
I0623 21:38:40.059603  4805 layer_factory.hpp:77] Creating layer scale2_2
I0623 21:38:40.059609  4805 net.cpp:91] Creating Layer scale2_2
I0623 21:38:40.059612  4805 net.cpp:425] scale2_2 <- conv2_2
I0623 21:38:40.059617  4805 net.cpp:386] scale2_2 -> conv2_2 (in-place)
I0623 21:38:40.059648  4805 layer_factory.hpp:77] Creating layer scale2_2
I0623 21:38:40.059748  4805 net.cpp:141] Setting up scale2_2
I0623 21:38:40.059754  4805 net.cpp:148] Top shape: 1 32 112 112 (401408)
I0623 21:38:40.059757  4805 net.cpp:156] Memory required for data: 66633728
I0623 21:38:40.059762  4805 layer_factory.hpp:77] Creating layer relu2_2
I0623 21:38:40.059765  4805 net.cpp:91] Creating Layer relu2_2
I0623 21:38:40.059768  4805 net.cpp:425] relu2_2 <- conv2_2
I0623 21:38:40.059772  4805 net.cpp:386] relu2_2 -> conv2_2 (in-place)
I0623 21:38:40.060042  4805 net.cpp:141] Setting up relu2_2
I0623 21:38:40.060053  4805 net.cpp:148] Top shape: 1 32 112 112 (401408)
I0623 21:38:40.060055  4805 net.cpp:156] Memory required for data: 68239360
I0623 21:38:40.060058  4805 layer_factory.hpp:77] Creating layer pool2
I0623 21:38:40.060061  4805 layer_factory.cpp:90] cuDNN does not support multiple tops. Using Caffe's own pooling layer.
I0623 21:38:40.060065  4805 net.cpp:91] Creating Layer pool2
I0623 21:38:40.060067  4805 net.cpp:425] pool2 <- conv2_2
I0623 21:38:40.060072  4805 net.cpp:399] pool2 -> pool2
I0623 21:38:40.060078  4805 net.cpp:399] pool2 -> pool2_mask
I0623 21:38:40.060112  4805 net.cpp:141] Setting up pool2
I0623 21:38:40.060117  4805 net.cpp:148] Top shape: 1 32 56 56 (100352)
I0623 21:38:40.060120  4805 net.cpp:148] Top shape: 1 32 56 56 (100352)
I0623 21:38:40.060122  4805 net.cpp:156] Memory required for data: 69042176
I0623 21:38:40.060124  4805 layer_factory.hpp:77] Creating layer conv3_1
I0623 21:38:40.060133  4805 net.cpp:91] Creating Layer conv3_1
I0623 21:38:40.060137  4805 net.cpp:425] conv3_1 <- pool2
I0623 21:38:40.060140  4805 net.cpp:399] conv3_1 -> conv3_1
I0623 21:38:40.061015  4805 net.cpp:141] Setting up conv3_1
I0623 21:38:40.061027  4805 net.cpp:148] Top shape: 1 32 56 56 (100352)
I0623 21:38:40.061029  4805 net.cpp:156] Memory required for data: 69443584
I0623 21:38:40.061033  4805 layer_factory.hpp:77] Creating layer bn3_1
I0623 21:38:40.061040  4805 net.cpp:91] Creating Layer bn3_1
I0623 21:38:40.061043  4805 net.cpp:425] bn3_1 <- conv3_1
I0623 21:38:40.061046  4805 net.cpp:386] bn3_1 -> conv3_1 (in-place)
I0623 21:38:40.061791  4805 net.cpp:141] Setting up bn3_1
I0623 21:38:40.061801  4805 net.cpp:148] Top shape: 1 32 56 56 (100352)
I0623 21:38:40.061805  4805 net.cpp:156] Memory required for data: 69844992
I0623 21:38:40.061810  4805 layer_factory.hpp:77] Creating layer scale3_1
I0623 21:38:40.061817  4805 net.cpp:91] Creating Layer scale3_1
I0623 21:38:40.061820  4805 net.cpp:425] scale3_1 <- conv3_1
I0623 21:38:40.061825  4805 net.cpp:386] scale3_1 -> conv3_1 (in-place)
I0623 21:38:40.061861  4805 layer_factory.hpp:77] Creating layer scale3_1
I0623 21:38:40.061959  4805 net.cpp:141] Setting up scale3_1
I0623 21:38:40.061966  4805 net.cpp:148] Top shape: 1 32 56 56 (100352)
I0623 21:38:40.061969  4805 net.cpp:156] Memory required for data: 70246400
I0623 21:38:40.061974  4805 layer_factory.hpp:77] Creating layer relu3_1
I0623 21:38:40.061980  4805 net.cpp:91] Creating Layer relu3_1
I0623 21:38:40.061982  4805 net.cpp:425] relu3_1 <- conv3_1
I0623 21:38:40.061985  4805 net.cpp:386] relu3_1 -> conv3_1 (in-place)
I0623 21:38:40.062124  4805 net.cpp:141] Setting up relu3_1
I0623 21:38:40.062132  4805 net.cpp:148] Top shape: 1 32 56 56 (100352)
I0623 21:38:40.062144  4805 net.cpp:156] Memory required for data: 70647808
I0623 21:38:40.062147  4805 layer_factory.hpp:77] Creating layer conv3_2
I0623 21:38:40.062155  4805 net.cpp:91] Creating Layer conv3_2
I0623 21:38:40.062158  4805 net.cpp:425] conv3_2 <- conv3_1
I0623 21:38:40.062163  4805 net.cpp:399] conv3_2 -> conv3_2
I0623 21:38:40.063041  4805 net.cpp:141] Setting up conv3_2
I0623 21:38:40.063053  4805 net.cpp:148] Top shape: 1 32 56 56 (100352)
I0623 21:38:40.063055  4805 net.cpp:156] Memory required for data: 71049216
I0623 21:38:40.063060  4805 layer_factory.hpp:77] Creating layer bn3_2
I0623 21:38:40.063067  4805 net.cpp:91] Creating Layer bn3_2
I0623 21:38:40.063071  4805 net.cpp:425] bn3_2 <- conv3_2
I0623 21:38:40.063076  4805 net.cpp:386] bn3_2 -> conv3_2 (in-place)
I0623 21:38:40.063238  4805 net.cpp:141] Setting up bn3_2
I0623 21:38:40.063246  4805 net.cpp:148] Top shape: 1 32 56 56 (100352)
I0623 21:38:40.063249  4805 net.cpp:156] Memory required for data: 71450624
I0623 21:38:40.063259  4805 layer_factory.hpp:77] Creating layer scale3_2
I0623 21:38:40.063266  4805 net.cpp:91] Creating Layer scale3_2
I0623 21:38:40.063267  4805 net.cpp:425] scale3_2 <- conv3_2
I0623 21:38:40.063271  4805 net.cpp:386] scale3_2 -> conv3_2 (in-place)
I0623 21:38:40.063307  4805 layer_factory.hpp:77] Creating layer scale3_2
I0623 21:38:40.063407  4805 net.cpp:141] Setting up scale3_2
I0623 21:38:40.063415  4805 net.cpp:148] Top shape: 1 32 56 56 (100352)
I0623 21:38:40.063416  4805 net.cpp:156] Memory required for data: 71852032
I0623 21:38:40.063421  4805 layer_factory.hpp:77] Creating layer relu3_2
I0623 21:38:40.063426  4805 net.cpp:91] Creating Layer relu3_2
I0623 21:38:40.063427  4805 net.cpp:425] relu3_2 <- conv3_2
I0623 21:38:40.063432  4805 net.cpp:386] relu3_2 -> conv3_2 (in-place)
I0623 21:38:40.063700  4805 net.cpp:141] Setting up relu3_2
I0623 21:38:40.063711  4805 net.cpp:148] Top shape: 1 32 56 56 (100352)
I0623 21:38:40.063714  4805 net.cpp:156] Memory required for data: 72253440
I0623 21:38:40.063716  4805 layer_factory.hpp:77] Creating layer pool3
I0623 21:38:40.063719  4805 layer_factory.cpp:90] cuDNN does not support multiple tops. Using Caffe's own pooling layer.
I0623 21:38:40.063724  4805 net.cpp:91] Creating Layer pool3
I0623 21:38:40.063725  4805 net.cpp:425] pool3 <- conv3_2
I0623 21:38:40.063730  4805 net.cpp:399] pool3 -> pool3
I0623 21:38:40.063735  4805 net.cpp:399] pool3 -> pool3_mask
I0623 21:38:40.063772  4805 net.cpp:141] Setting up pool3
I0623 21:38:40.063779  4805 net.cpp:148] Top shape: 1 32 28 28 (25088)
I0623 21:38:40.063782  4805 net.cpp:148] Top shape: 1 32 28 28 (25088)
I0623 21:38:40.063784  4805 net.cpp:156] Memory required for data: 72454144
I0623 21:38:40.063786  4805 layer_factory.hpp:77] Creating layer conv4_1
I0623 21:38:40.063796  4805 net.cpp:91] Creating Layer conv4_1
I0623 21:38:40.063797  4805 net.cpp:425] conv4_1 <- pool3
I0623 21:38:40.063802  4805 net.cpp:399] conv4_1 -> conv4_1
I0623 21:38:40.064576  4805 net.cpp:141] Setting up conv4_1
I0623 21:38:40.064589  4805 net.cpp:148] Top shape: 1 32 28 28 (25088)
I0623 21:38:40.064591  4805 net.cpp:156] Memory required for data: 72554496
I0623 21:38:40.064595  4805 layer_factory.hpp:77] Creating layer bn4_1
I0623 21:38:40.064602  4805 net.cpp:91] Creating Layer bn4_1
I0623 21:38:40.064604  4805 net.cpp:425] bn4_1 <- conv4_1
I0623 21:38:40.064609  4805 net.cpp:386] bn4_1 -> conv4_1 (in-place)
I0623 21:38:40.064770  4805 net.cpp:141] Setting up bn4_1
I0623 21:38:40.064777  4805 net.cpp:148] Top shape: 1 32 28 28 (25088)
I0623 21:38:40.064780  4805 net.cpp:156] Memory required for data: 72654848
I0623 21:38:40.064785  4805 layer_factory.hpp:77] Creating layer scale4_1
I0623 21:38:40.064791  4805 net.cpp:91] Creating Layer scale4_1
I0623 21:38:40.064793  4805 net.cpp:425] scale4_1 <- conv4_1
I0623 21:38:40.064797  4805 net.cpp:386] scale4_1 -> conv4_1 (in-place)
I0623 21:38:40.064831  4805 layer_factory.hpp:77] Creating layer scale4_1
I0623 21:38:40.064931  4805 net.cpp:141] Setting up scale4_1
I0623 21:38:40.064947  4805 net.cpp:148] Top shape: 1 32 28 28 (25088)
I0623 21:38:40.064954  4805 net.cpp:156] Memory required for data: 72755200
I0623 21:38:40.064957  4805 layer_factory.hpp:77] Creating layer relu4_1
I0623 21:38:40.064965  4805 net.cpp:91] Creating Layer relu4_1
I0623 21:38:40.064967  4805 net.cpp:425] relu4_1 <- conv4_1
I0623 21:38:40.064972  4805 net.cpp:386] relu4_1 -> conv4_1 (in-place)
I0623 21:38:40.065243  4805 net.cpp:141] Setting up relu4_1
I0623 21:38:40.065254  4805 net.cpp:148] Top shape: 1 32 28 28 (25088)
I0623 21:38:40.065256  4805 net.cpp:156] Memory required for data: 72855552
I0623 21:38:40.065259  4805 layer_factory.hpp:77] Creating layer conv4_2
I0623 21:38:40.065268  4805 net.cpp:91] Creating Layer conv4_2
I0623 21:38:40.065271  4805 net.cpp:425] conv4_2 <- conv4_1
I0623 21:38:40.065276  4805 net.cpp:399] conv4_2 -> conv4_2
I0623 21:38:40.066284  4805 net.cpp:141] Setting up conv4_2
I0623 21:38:40.066296  4805 net.cpp:148] Top shape: 1 32 28 28 (25088)
I0623 21:38:40.066299  4805 net.cpp:156] Memory required for data: 72955904
I0623 21:38:40.066304  4805 layer_factory.hpp:77] Creating layer bn4_2
I0623 21:38:40.066309  4805 net.cpp:91] Creating Layer bn4_2
I0623 21:38:40.066313  4805 net.cpp:425] bn4_2 <- conv4_2
I0623 21:38:40.066318  4805 net.cpp:386] bn4_2 -> conv4_2 (in-place)
I0623 21:38:40.066480  4805 net.cpp:141] Setting up bn4_2
I0623 21:38:40.066488  4805 net.cpp:148] Top shape: 1 32 28 28 (25088)
I0623 21:38:40.066489  4805 net.cpp:156] Memory required for data: 73056256
I0623 21:38:40.066495  4805 layer_factory.hpp:77] Creating layer scale4_2
I0623 21:38:40.066504  4805 net.cpp:91] Creating Layer scale4_2
I0623 21:38:40.066505  4805 net.cpp:425] scale4_2 <- conv4_2
I0623 21:38:40.066510  4805 net.cpp:386] scale4_2 -> conv4_2 (in-place)
I0623 21:38:40.066543  4805 layer_factory.hpp:77] Creating layer scale4_2
I0623 21:38:40.066665  4805 net.cpp:141] Setting up scale4_2
I0623 21:38:40.066673  4805 net.cpp:148] Top shape: 1 32 28 28 (25088)
I0623 21:38:40.066675  4805 net.cpp:156] Memory required for data: 73156608
I0623 21:38:40.066680  4805 layer_factory.hpp:77] Creating layer relu4_2
I0623 21:38:40.066685  4805 net.cpp:91] Creating Layer relu4_2
I0623 21:38:40.066689  4805 net.cpp:425] relu4_2 <- conv4_2
I0623 21:38:40.066691  4805 net.cpp:386] relu4_2 -> conv4_2 (in-place)
I0623 21:38:40.066838  4805 net.cpp:141] Setting up relu4_2
I0623 21:38:40.066845  4805 net.cpp:148] Top shape: 1 32 28 28 (25088)
I0623 21:38:40.066848  4805 net.cpp:156] Memory required for data: 73256960
I0623 21:38:40.066850  4805 layer_factory.hpp:77] Creating layer pool4
I0623 21:38:40.066854  4805 layer_factory.cpp:90] cuDNN does not support multiple tops. Using Caffe's own pooling layer.
I0623 21:38:40.066859  4805 net.cpp:91] Creating Layer pool4
I0623 21:38:40.066860  4805 net.cpp:425] pool4 <- conv4_2
I0623 21:38:40.066865  4805 net.cpp:399] pool4 -> pool4
I0623 21:38:40.066870  4805 net.cpp:399] pool4 -> pool4_mask
I0623 21:38:40.066911  4805 net.cpp:141] Setting up pool4
I0623 21:38:40.066918  4805 net.cpp:148] Top shape: 1 32 14 14 (6272)
I0623 21:38:40.066921  4805 net.cpp:148] Top shape: 1 32 14 14 (6272)
I0623 21:38:40.066923  4805 net.cpp:156] Memory required for data: 73307136
I0623 21:38:40.066926  4805 layer_factory.hpp:77] Creating layer conv5_1
I0623 21:38:40.066936  4805 net.cpp:91] Creating Layer conv5_1
I0623 21:38:40.066938  4805 net.cpp:425] conv5_1 <- pool4
I0623 21:38:40.066942  4805 net.cpp:399] conv5_1 -> conv5_1
I0623 21:38:40.067957  4805 net.cpp:141] Setting up conv5_1
I0623 21:38:40.067970  4805 net.cpp:148] Top shape: 1 32 14 14 (6272)
I0623 21:38:40.067972  4805 net.cpp:156] Memory required for data: 73332224
I0623 21:38:40.067978  4805 layer_factory.hpp:77] Creating layer bn5_1
I0623 21:38:40.067983  4805 net.cpp:91] Creating Layer bn5_1
I0623 21:38:40.067986  4805 net.cpp:425] bn5_1 <- conv5_1
I0623 21:38:40.067991  4805 net.cpp:386] bn5_1 -> conv5_1 (in-place)
I0623 21:38:40.068162  4805 net.cpp:141] Setting up bn5_1
I0623 21:38:40.068169  4805 net.cpp:148] Top shape: 1 32 14 14 (6272)
I0623 21:38:40.068181  4805 net.cpp:156] Memory required for data: 73357312
I0623 21:38:40.068187  4805 layer_factory.hpp:77] Creating layer scale5_1
I0623 21:38:40.068197  4805 net.cpp:91] Creating Layer scale5_1
I0623 21:38:40.068199  4805 net.cpp:425] scale5_1 <- conv5_1
I0623 21:38:40.068203  4805 net.cpp:386] scale5_1 -> conv5_1 (in-place)
I0623 21:38:40.068239  4805 layer_factory.hpp:77] Creating layer scale5_1
I0623 21:38:40.068338  4805 net.cpp:141] Setting up scale5_1
I0623 21:38:40.068348  4805 net.cpp:148] Top shape: 1 32 14 14 (6272)
I0623 21:38:40.068351  4805 net.cpp:156] Memory required for data: 73382400
I0623 21:38:40.068358  4805 layer_factory.hpp:77] Creating layer relu5_1
I0623 21:38:40.068367  4805 net.cpp:91] Creating Layer relu5_1
I0623 21:38:40.068372  4805 net.cpp:425] relu5_1 <- conv5_1
I0623 21:38:40.068377  4805 net.cpp:386] relu5_1 -> conv5_1 (in-place)
I0623 21:38:40.068666  4805 net.cpp:141] Setting up relu5_1
I0623 21:38:40.068680  4805 net.cpp:148] Top shape: 1 32 14 14 (6272)
I0623 21:38:40.068683  4805 net.cpp:156] Memory required for data: 73407488
I0623 21:38:40.068688  4805 layer_factory.hpp:77] Creating layer conv5_2
I0623 21:38:40.068702  4805 net.cpp:91] Creating Layer conv5_2
I0623 21:38:40.068708  4805 net.cpp:425] conv5_2 <- conv5_1
I0623 21:38:40.068716  4805 net.cpp:399] conv5_2 -> conv5_2
I0623 21:38:40.069584  4805 net.cpp:141] Setting up conv5_2
I0623 21:38:40.069597  4805 net.cpp:148] Top shape: 1 32 14 14 (6272)
I0623 21:38:40.069602  4805 net.cpp:156] Memory required for data: 73432576
I0623 21:38:40.069608  4805 layer_factory.hpp:77] Creating layer bn5_2
I0623 21:38:40.069619  4805 net.cpp:91] Creating Layer bn5_2
I0623 21:38:40.069625  4805 net.cpp:425] bn5_2 <- conv5_2
I0623 21:38:40.069633  4805 net.cpp:386] bn5_2 -> conv5_2 (in-place)
I0623 21:38:40.069807  4805 net.cpp:141] Setting up bn5_2
I0623 21:38:40.069816  4805 net.cpp:148] Top shape: 1 32 14 14 (6272)
I0623 21:38:40.069820  4805 net.cpp:156] Memory required for data: 73457664
I0623 21:38:40.069830  4805 layer_factory.hpp:77] Creating layer scale5_2
I0623 21:38:40.069841  4805 net.cpp:91] Creating Layer scale5_2
I0623 21:38:40.069847  4805 net.cpp:425] scale5_2 <- conv5_2
I0623 21:38:40.069854  4805 net.cpp:386] scale5_2 -> conv5_2 (in-place)
I0623 21:38:40.069901  4805 layer_factory.hpp:77] Creating layer scale5_2
I0623 21:38:40.070013  4805 net.cpp:141] Setting up scale5_2
I0623 21:38:40.070024  4805 net.cpp:148] Top shape: 1 32 14 14 (6272)
I0623 21:38:40.070027  4805 net.cpp:156] Memory required for data: 73482752
I0623 21:38:40.070035  4805 layer_factory.hpp:77] Creating layer relu5_2
I0623 21:38:40.070042  4805 net.cpp:91] Creating Layer relu5_2
I0623 21:38:40.070047  4805 net.cpp:425] relu5_2 <- conv5_2
I0623 21:38:40.070053  4805 net.cpp:386] relu5_2 -> conv5_2 (in-place)
I0623 21:38:40.070340  4805 net.cpp:141] Setting up relu5_2
I0623 21:38:40.070353  4805 net.cpp:148] Top shape: 1 32 14 14 (6272)
I0623 21:38:40.070359  4805 net.cpp:156] Memory required for data: 73507840
I0623 21:38:40.070364  4805 layer_factory.hpp:77] Creating layer pool5
I0623 21:38:40.070369  4805 layer_factory.cpp:90] cuDNN does not support multiple tops. Using Caffe's own pooling layer.
I0623 21:38:40.070376  4805 net.cpp:91] Creating Layer pool5
I0623 21:38:40.070380  4805 net.cpp:425] pool5 <- conv5_2
I0623 21:38:40.070387  4805 net.cpp:399] pool5 -> pool5
I0623 21:38:40.070396  4805 net.cpp:399] pool5 -> pool5_mask
I0623 21:38:40.070446  4805 net.cpp:141] Setting up pool5
I0623 21:38:40.070456  4805 net.cpp:148] Top shape: 1 32 7 7 (1568)
I0623 21:38:40.070461  4805 net.cpp:148] Top shape: 1 32 7 7 (1568)
I0623 21:38:40.070466  4805 net.cpp:156] Memory required for data: 73520384
I0623 21:38:40.070469  4805 layer_factory.hpp:77] Creating layer upsample5
I0623 21:38:40.070478  4805 net.cpp:91] Creating Layer upsample5
I0623 21:38:40.070482  4805 net.cpp:425] upsample5 <- pool5
I0623 21:38:40.070489  4805 net.cpp:425] upsample5 <- pool5_mask
I0623 21:38:40.070497  4805 net.cpp:399] upsample5 -> pool5_D
I0623 21:38:40.070544  4805 net.cpp:141] Setting up upsample5
I0623 21:38:40.070554  4805 net.cpp:148] Top shape: 1 32 14 14 (6272)
I0623 21:38:40.070557  4805 net.cpp:156] Memory required for data: 73545472
I0623 21:38:40.070561  4805 layer_factory.hpp:77] Creating layer conv5_2_D
I0623 21:38:40.070574  4805 net.cpp:91] Creating Layer conv5_2_D
I0623 21:38:40.070579  4805 net.cpp:425] conv5_2_D <- pool5_D
I0623 21:38:40.070587  4805 net.cpp:399] conv5_2_D -> conv5_2_D
I0623 21:38:40.071521  4805 net.cpp:141] Setting up conv5_2_D
I0623 21:38:40.071534  4805 net.cpp:148] Top shape: 1 32 14 14 (6272)
I0623 21:38:40.071539  4805 net.cpp:156] Memory required for data: 73570560
I0623 21:38:40.071547  4805 layer_factory.hpp:77] Creating layer bn5_2_D
I0623 21:38:40.071557  4805 net.cpp:91] Creating Layer bn5_2_D
I0623 21:38:40.071563  4805 net.cpp:425] bn5_2_D <- conv5_2_D
I0623 21:38:40.071571  4805 net.cpp:386] bn5_2_D -> conv5_2_D (in-place)
I0623 21:38:40.071750  4805 net.cpp:141] Setting up bn5_2_D
I0623 21:38:40.071763  4805 net.cpp:148] Top shape: 1 32 14 14 (6272)
I0623 21:38:40.071768  4805 net.cpp:156] Memory required for data: 73595648
I0623 21:38:40.071776  4805 layer_factory.hpp:77] Creating layer scale5_2_D
I0623 21:38:40.071789  4805 net.cpp:91] Creating Layer scale5_2_D
I0623 21:38:40.071795  4805 net.cpp:425] scale5_2_D <- conv5_2_D
I0623 21:38:40.071804  4805 net.cpp:386] scale5_2_D -> conv5_2_D (in-place)
I0623 21:38:40.071852  4805 layer_factory.hpp:77] Creating layer scale5_2_D
I0623 21:38:40.072007  4805 net.cpp:141] Setting up scale5_2_D
I0623 21:38:40.072021  4805 net.cpp:148] Top shape: 1 32 14 14 (6272)
I0623 21:38:40.072024  4805 net.cpp:156] Memory required for data: 73620736
I0623 21:38:40.072046  4805 layer_factory.hpp:77] Creating layer relu5_2_D
I0623 21:38:40.072057  4805 net.cpp:91] Creating Layer relu5_2_D
I0623 21:38:40.072062  4805 net.cpp:425] relu5_2_D <- conv5_2_D
I0623 21:38:40.072067  4805 net.cpp:386] relu5_2_D -> conv5_2_D (in-place)
I0623 21:38:40.072227  4805 net.cpp:141] Setting up relu5_2_D
I0623 21:38:40.072237  4805 net.cpp:148] Top shape: 1 32 14 14 (6272)
I0623 21:38:40.072242  4805 net.cpp:156] Memory required for data: 73645824
I0623 21:38:40.072245  4805 layer_factory.hpp:77] Creating layer conv5_1_D
I0623 21:38:40.072257  4805 net.cpp:91] Creating Layer conv5_1_D
I0623 21:38:40.072263  4805 net.cpp:425] conv5_1_D <- conv5_2_D
I0623 21:38:40.072271  4805 net.cpp:399] conv5_1_D -> conv5_1_D
I0623 21:38:40.073190  4805 net.cpp:141] Setting up conv5_1_D
I0623 21:38:40.073204  4805 net.cpp:148] Top shape: 1 32 14 14 (6272)
I0623 21:38:40.073209  4805 net.cpp:156] Memory required for data: 73670912
I0623 21:38:40.073215  4805 layer_factory.hpp:77] Creating layer bn5_1_D
I0623 21:38:40.073226  4805 net.cpp:91] Creating Layer bn5_1_D
I0623 21:38:40.073232  4805 net.cpp:425] bn5_1_D <- conv5_1_D
I0623 21:38:40.073241  4805 net.cpp:386] bn5_1_D -> conv5_1_D (in-place)
I0623 21:38:40.073415  4805 net.cpp:141] Setting up bn5_1_D
I0623 21:38:40.073424  4805 net.cpp:148] Top shape: 1 32 14 14 (6272)
I0623 21:38:40.073428  4805 net.cpp:156] Memory required for data: 73696000
I0623 21:38:40.073438  4805 layer_factory.hpp:77] Creating layer scale5_1_D
I0623 21:38:40.073449  4805 net.cpp:91] Creating Layer scale5_1_D
I0623 21:38:40.073454  4805 net.cpp:425] scale5_1_D <- conv5_1_D
I0623 21:38:40.073460  4805 net.cpp:386] scale5_1_D -> conv5_1_D (in-place)
I0623 21:38:40.073510  4805 layer_factory.hpp:77] Creating layer scale5_1_D
I0623 21:38:40.073622  4805 net.cpp:141] Setting up scale5_1_D
I0623 21:38:40.073633  4805 net.cpp:148] Top shape: 1 32 14 14 (6272)
I0623 21:38:40.073637  4805 net.cpp:156] Memory required for data: 73721088
I0623 21:38:40.073644  4805 layer_factory.hpp:77] Creating layer relu5_1_D
I0623 21:38:40.073652  4805 net.cpp:91] Creating Layer relu5_1_D
I0623 21:38:40.073657  4805 net.cpp:425] relu5_1_D <- conv5_1_D
I0623 21:38:40.073662  4805 net.cpp:386] relu5_1_D -> conv5_1_D (in-place)
I0623 21:38:40.073945  4805 net.cpp:141] Setting up relu5_1_D
I0623 21:38:40.073966  4805 net.cpp:148] Top shape: 1 32 14 14 (6272)
I0623 21:38:40.073971  4805 net.cpp:156] Memory required for data: 73746176
I0623 21:38:40.073976  4805 layer_factory.hpp:77] Creating layer upsample4
I0623 21:38:40.073985  4805 net.cpp:91] Creating Layer upsample4
I0623 21:38:40.073992  4805 net.cpp:425] upsample4 <- conv5_1_D
I0623 21:38:40.073997  4805 net.cpp:425] upsample4 <- pool4_mask
I0623 21:38:40.074003  4805 net.cpp:399] upsample4 -> pool4_D
I0623 21:38:40.074041  4805 net.cpp:141] Setting up upsample4
I0623 21:38:40.074050  4805 net.cpp:148] Top shape: 1 32 28 28 (25088)
I0623 21:38:40.074054  4805 net.cpp:156] Memory required for data: 73846528
I0623 21:38:40.074059  4805 layer_factory.hpp:77] Creating layer conv4_2_D
I0623 21:38:40.074070  4805 net.cpp:91] Creating Layer conv4_2_D
I0623 21:38:40.074076  4805 net.cpp:425] conv4_2_D <- pool4_D
I0623 21:38:40.074084  4805 net.cpp:399] conv4_2_D -> conv4_2_D
I0623 21:38:40.074887  4805 net.cpp:141] Setting up conv4_2_D
I0623 21:38:40.074900  4805 net.cpp:148] Top shape: 1 32 28 28 (25088)
I0623 21:38:40.074905  4805 net.cpp:156] Memory required for data: 73946880
I0623 21:38:40.074913  4805 layer_factory.hpp:77] Creating layer bn4_2_D
I0623 21:38:40.074923  4805 net.cpp:91] Creating Layer bn4_2_D
I0623 21:38:40.074928  4805 net.cpp:425] bn4_2_D <- conv4_2_D
I0623 21:38:40.074935  4805 net.cpp:386] bn4_2_D -> conv4_2_D (in-place)
I0623 21:38:40.075114  4805 net.cpp:141] Setting up bn4_2_D
I0623 21:38:40.075122  4805 net.cpp:148] Top shape: 1 32 28 28 (25088)
I0623 21:38:40.075126  4805 net.cpp:156] Memory required for data: 74047232
I0623 21:38:40.075136  4805 layer_factory.hpp:77] Creating layer scale4_2_D
I0623 21:38:40.075145  4805 net.cpp:91] Creating Layer scale4_2_D
I0623 21:38:40.075156  4805 net.cpp:425] scale4_2_D <- conv4_2_D
I0623 21:38:40.075163  4805 net.cpp:386] scale4_2_D -> conv4_2_D (in-place)
I0623 21:38:40.075213  4805 layer_factory.hpp:77] Creating layer scale4_2_D
I0623 21:38:40.075331  4805 net.cpp:141] Setting up scale4_2_D
I0623 21:38:40.075341  4805 net.cpp:148] Top shape: 1 32 28 28 (25088)
I0623 21:38:40.075345  4805 net.cpp:156] Memory required for data: 74147584
I0623 21:38:40.075352  4805 layer_factory.hpp:77] Creating layer relu4_2_D
I0623 21:38:40.075359  4805 net.cpp:91] Creating Layer relu4_2_D
I0623 21:38:40.075364  4805 net.cpp:425] relu4_2_D <- conv4_2_D
I0623 21:38:40.075371  4805 net.cpp:386] relu4_2_D -> conv4_2_D (in-place)
I0623 21:38:40.075657  4805 net.cpp:141] Setting up relu4_2_D
I0623 21:38:40.075670  4805 net.cpp:148] Top shape: 1 32 28 28 (25088)
I0623 21:38:40.075675  4805 net.cpp:156] Memory required for data: 74247936
I0623 21:38:40.075678  4805 layer_factory.hpp:77] Creating layer conv4_1_D
I0623 21:38:40.075691  4805 net.cpp:91] Creating Layer conv4_1_D
I0623 21:38:40.075697  4805 net.cpp:425] conv4_1_D <- conv4_2_D
I0623 21:38:40.075706  4805 net.cpp:399] conv4_1_D -> conv4_1_D
I0623 21:38:40.076762  4805 net.cpp:141] Setting up conv4_1_D
I0623 21:38:40.076776  4805 net.cpp:148] Top shape: 1 32 28 28 (25088)
I0623 21:38:40.076781  4805 net.cpp:156] Memory required for data: 74348288
I0623 21:38:40.076787  4805 layer_factory.hpp:77] Creating layer bn4_1_D
I0623 21:38:40.076798  4805 net.cpp:91] Creating Layer bn4_1_D
I0623 21:38:40.076804  4805 net.cpp:425] bn4_1_D <- conv4_1_D
I0623 21:38:40.076812  4805 net.cpp:386] bn4_1_D -> conv4_1_D (in-place)
I0623 21:38:40.077006  4805 net.cpp:141] Setting up bn4_1_D
I0623 21:38:40.077016  4805 net.cpp:148] Top shape: 1 32 28 28 (25088)
I0623 21:38:40.077020  4805 net.cpp:156] Memory required for data: 74448640
I0623 21:38:40.077030  4805 layer_factory.hpp:77] Creating layer scale4_1_D
I0623 21:38:40.077039  4805 net.cpp:91] Creating Layer scale4_1_D
I0623 21:38:40.077044  4805 net.cpp:425] scale4_1_D <- conv4_1_D
I0623 21:38:40.077051  4805 net.cpp:386] scale4_1_D -> conv4_1_D (in-place)
I0623 21:38:40.077100  4805 layer_factory.hpp:77] Creating layer scale4_1_D
I0623 21:38:40.077225  4805 net.cpp:141] Setting up scale4_1_D
I0623 21:38:40.077234  4805 net.cpp:148] Top shape: 1 32 28 28 (25088)
I0623 21:38:40.077250  4805 net.cpp:156] Memory required for data: 74548992
I0623 21:38:40.077260  4805 layer_factory.hpp:77] Creating layer relu4_1_D
I0623 21:38:40.077276  4805 net.cpp:91] Creating Layer relu4_1_D
I0623 21:38:40.077283  4805 net.cpp:425] relu4_1_D <- conv4_1_D
I0623 21:38:40.077291  4805 net.cpp:386] relu4_1_D -> conv4_1_D (in-place)
I0623 21:38:40.077448  4805 net.cpp:141] Setting up relu4_1_D
I0623 21:38:40.077460  4805 net.cpp:148] Top shape: 1 32 28 28 (25088)
I0623 21:38:40.077463  4805 net.cpp:156] Memory required for data: 74649344
I0623 21:38:40.077468  4805 layer_factory.hpp:77] Creating layer upsample3
I0623 21:38:40.077476  4805 net.cpp:91] Creating Layer upsample3
I0623 21:38:40.077481  4805 net.cpp:425] upsample3 <- conv4_1_D
I0623 21:38:40.077486  4805 net.cpp:425] upsample3 <- pool3_mask
I0623 21:38:40.077494  4805 net.cpp:399] upsample3 -> pool3_D
I0623 21:38:40.077527  4805 net.cpp:141] Setting up upsample3
I0623 21:38:40.077538  4805 net.cpp:148] Top shape: 1 32 56 56 (100352)
I0623 21:38:40.077543  4805 net.cpp:156] Memory required for data: 75050752
I0623 21:38:40.077546  4805 layer_factory.hpp:77] Creating layer conv3_2_D
I0623 21:38:40.077559  4805 net.cpp:91] Creating Layer conv3_2_D
I0623 21:38:40.077564  4805 net.cpp:425] conv3_2_D <- pool3_D
I0623 21:38:40.077572  4805 net.cpp:399] conv3_2_D -> conv3_2_D
I0623 21:38:40.078567  4805 net.cpp:141] Setting up conv3_2_D
I0623 21:38:40.078582  4805 net.cpp:148] Top shape: 1 32 56 56 (100352)
I0623 21:38:40.078585  4805 net.cpp:156] Memory required for data: 75452160
I0623 21:38:40.078594  4805 layer_factory.hpp:77] Creating layer bn3_2_D
I0623 21:38:40.078603  4805 net.cpp:91] Creating Layer bn3_2_D
I0623 21:38:40.078608  4805 net.cpp:425] bn3_2_D <- conv3_2_D
I0623 21:38:40.078618  4805 net.cpp:386] bn3_2_D -> conv3_2_D (in-place)
I0623 21:38:40.078804  4805 net.cpp:141] Setting up bn3_2_D
I0623 21:38:40.078814  4805 net.cpp:148] Top shape: 1 32 56 56 (100352)
I0623 21:38:40.078817  4805 net.cpp:156] Memory required for data: 75853568
I0623 21:38:40.078826  4805 layer_factory.hpp:77] Creating layer scale3_2_D
I0623 21:38:40.078835  4805 net.cpp:91] Creating Layer scale3_2_D
I0623 21:38:40.078840  4805 net.cpp:425] scale3_2_D <- conv3_2_D
I0623 21:38:40.078850  4805 net.cpp:386] scale3_2_D -> conv3_2_D (in-place)
I0623 21:38:40.078896  4805 layer_factory.hpp:77] Creating layer scale3_2_D
I0623 21:38:40.079017  4805 net.cpp:141] Setting up scale3_2_D
I0623 21:38:40.079027  4805 net.cpp:148] Top shape: 1 32 56 56 (100352)
I0623 21:38:40.079031  4805 net.cpp:156] Memory required for data: 76254976
I0623 21:38:40.079038  4805 layer_factory.hpp:77] Creating layer relu3_2_D
I0623 21:38:40.079047  4805 net.cpp:91] Creating Layer relu3_2_D
I0623 21:38:40.079052  4805 net.cpp:425] relu3_2_D <- conv3_2_D
I0623 21:38:40.079058  4805 net.cpp:386] relu3_2_D -> conv3_2_D (in-place)
I0623 21:38:40.079354  4805 net.cpp:141] Setting up relu3_2_D
I0623 21:38:40.079366  4805 net.cpp:148] Top shape: 1 32 56 56 (100352)
I0623 21:38:40.079370  4805 net.cpp:156] Memory required for data: 76656384
I0623 21:38:40.079375  4805 layer_factory.hpp:77] Creating layer conv3_1_D
I0623 21:38:40.079401  4805 net.cpp:91] Creating Layer conv3_1_D
I0623 21:38:40.079408  4805 net.cpp:425] conv3_1_D <- conv3_2_D
I0623 21:38:40.079417  4805 net.cpp:399] conv3_1_D -> conv3_1_D
I0623 21:38:40.080345  4805 net.cpp:141] Setting up conv3_1_D
I0623 21:38:40.080359  4805 net.cpp:148] Top shape: 1 32 56 56 (100352)
I0623 21:38:40.080364  4805 net.cpp:156] Memory required for data: 77057792
I0623 21:38:40.080371  4805 layer_factory.hpp:77] Creating layer bn3_1_D
I0623 21:38:40.080379  4805 net.cpp:91] Creating Layer bn3_1_D
I0623 21:38:40.080384  4805 net.cpp:425] bn3_1_D <- conv3_1_D
I0623 21:38:40.080394  4805 net.cpp:386] bn3_1_D -> conv3_1_D (in-place)
I0623 21:38:40.080579  4805 net.cpp:141] Setting up bn3_1_D
I0623 21:38:40.080590  4805 net.cpp:148] Top shape: 1 32 56 56 (100352)
I0623 21:38:40.080593  4805 net.cpp:156] Memory required for data: 77459200
I0623 21:38:40.080615  4805 layer_factory.hpp:77] Creating layer scale3_1_D
I0623 21:38:40.080626  4805 net.cpp:91] Creating Layer scale3_1_D
I0623 21:38:40.080632  4805 net.cpp:425] scale3_1_D <- conv3_1_D
I0623 21:38:40.080643  4805 net.cpp:386] scale3_1_D -> conv3_1_D (in-place)
I0623 21:38:40.080691  4805 layer_factory.hpp:77] Creating layer scale3_1_D
I0623 21:38:40.080814  4805 net.cpp:141] Setting up scale3_1_D
I0623 21:38:40.080823  4805 net.cpp:148] Top shape: 1 32 56 56 (100352)
I0623 21:38:40.080827  4805 net.cpp:156] Memory required for data: 77860608
I0623 21:38:40.080834  4805 layer_factory.hpp:77] Creating layer relu3_1_D
I0623 21:38:40.080844  4805 net.cpp:91] Creating Layer relu3_1_D
I0623 21:38:40.080848  4805 net.cpp:425] relu3_1_D <- conv3_1_D
I0623 21:38:40.080855  4805 net.cpp:386] relu3_1_D -> conv3_1_D (in-place)
I0623 21:38:40.081148  4805 net.cpp:141] Setting up relu3_1_D
I0623 21:38:40.081159  4805 net.cpp:148] Top shape: 1 32 56 56 (100352)
I0623 21:38:40.081163  4805 net.cpp:156] Memory required for data: 78262016
I0623 21:38:40.081168  4805 layer_factory.hpp:77] Creating layer upsample2
I0623 21:38:40.081177  4805 net.cpp:91] Creating Layer upsample2
I0623 21:38:40.081182  4805 net.cpp:425] upsample2 <- conv3_1_D
I0623 21:38:40.081187  4805 net.cpp:425] upsample2 <- pool2_mask
I0623 21:38:40.081194  4805 net.cpp:399] upsample2 -> pool2_D
I0623 21:38:40.081233  4805 net.cpp:141] Setting up upsample2
I0623 21:38:40.081241  4805 net.cpp:148] Top shape: 1 32 112 112 (401408)
I0623 21:38:40.081245  4805 net.cpp:156] Memory required for data: 79867648
I0623 21:38:40.081249  4805 layer_factory.hpp:77] Creating layer conv2_2_D
I0623 21:38:40.081262  4805 net.cpp:91] Creating Layer conv2_2_D
I0623 21:38:40.081267  4805 net.cpp:425] conv2_2_D <- pool2_D
I0623 21:38:40.081277  4805 net.cpp:399] conv2_2_D -> conv2_2_D
I0623 21:38:40.082243  4805 net.cpp:141] Setting up conv2_2_D
I0623 21:38:40.082257  4805 net.cpp:148] Top shape: 1 32 112 112 (401408)
I0623 21:38:40.082262  4805 net.cpp:156] Memory required for data: 81473280
I0623 21:38:40.082268  4805 layer_factory.hpp:77] Creating layer bn2_2_D
I0623 21:38:40.082278  4805 net.cpp:91] Creating Layer bn2_2_D
I0623 21:38:40.082284  4805 net.cpp:425] bn2_2_D <- conv2_2_D
I0623 21:38:40.082293  4805 net.cpp:386] bn2_2_D -> conv2_2_D (in-place)
I0623 21:38:40.082489  4805 net.cpp:141] Setting up bn2_2_D
I0623 21:38:40.082499  4805 net.cpp:148] Top shape: 1 32 112 112 (401408)
I0623 21:38:40.082502  4805 net.cpp:156] Memory required for data: 83078912
I0623 21:38:40.082512  4805 layer_factory.hpp:77] Creating layer scale2_2_D
I0623 21:38:40.082523  4805 net.cpp:91] Creating Layer scale2_2_D
I0623 21:38:40.082528  4805 net.cpp:425] scale2_2_D <- conv2_2_D
I0623 21:38:40.082535  4805 net.cpp:386] scale2_2_D -> conv2_2_D (in-place)
I0623 21:38:40.082584  4805 layer_factory.hpp:77] Creating layer scale2_2_D
I0623 21:38:40.082718  4805 net.cpp:141] Setting up scale2_2_D
I0623 21:38:40.082727  4805 net.cpp:148] Top shape: 1 32 112 112 (401408)
I0623 21:38:40.082731  4805 net.cpp:156] Memory required for data: 84684544
I0623 21:38:40.082739  4805 layer_factory.hpp:77] Creating layer relu2_2_D
I0623 21:38:40.082748  4805 net.cpp:91] Creating Layer relu2_2_D
I0623 21:38:40.082753  4805 net.cpp:425] relu2_2_D <- conv2_2_D
I0623 21:38:40.082759  4805 net.cpp:386] relu2_2_D -> conv2_2_D (in-place)
I0623 21:38:40.082914  4805 net.cpp:141] Setting up relu2_2_D
I0623 21:38:40.082926  4805 net.cpp:148] Top shape: 1 32 112 112 (401408)
I0623 21:38:40.082929  4805 net.cpp:156] Memory required for data: 86290176
I0623 21:38:40.082933  4805 layer_factory.hpp:77] Creating layer conv2_1_D
I0623 21:38:40.082945  4805 net.cpp:91] Creating Layer conv2_1_D
I0623 21:38:40.082950  4805 net.cpp:425] conv2_1_D <- conv2_2_D
I0623 21:38:40.082958  4805 net.cpp:399] conv2_1_D -> conv2_1_D
I0623 21:38:40.084484  4805 net.cpp:141] Setting up conv2_1_D
I0623 21:38:40.084498  4805 net.cpp:148] Top shape: 1 32 112 112 (401408)
I0623 21:38:40.084502  4805 net.cpp:156] Memory required for data: 87895808
I0623 21:38:40.084522  4805 layer_factory.hpp:77] Creating layer bn2_1_D
I0623 21:38:40.084534  4805 net.cpp:91] Creating Layer bn2_1_D
I0623 21:38:40.084540  4805 net.cpp:425] bn2_1_D <- conv2_1_D
I0623 21:38:40.084548  4805 net.cpp:386] bn2_1_D -> conv2_1_D (in-place)
I0623 21:38:40.084738  4805 net.cpp:141] Setting up bn2_1_D
I0623 21:38:40.084748  4805 net.cpp:148] Top shape: 1 32 112 112 (401408)
I0623 21:38:40.084753  4805 net.cpp:156] Memory required for data: 89501440
I0623 21:38:40.084763  4805 layer_factory.hpp:77] Creating layer scale2_1_D
I0623 21:38:40.084772  4805 net.cpp:91] Creating Layer scale2_1_D
I0623 21:38:40.084777  4805 net.cpp:425] scale2_1_D <- conv2_1_D
I0623 21:38:40.084784  4805 net.cpp:386] scale2_1_D -> conv2_1_D (in-place)
I0623 21:38:40.084832  4805 layer_factory.hpp:77] Creating layer scale2_1_D
I0623 21:38:40.084964  4805 net.cpp:141] Setting up scale2_1_D
I0623 21:38:40.084974  4805 net.cpp:148] Top shape: 1 32 112 112 (401408)
I0623 21:38:40.084977  4805 net.cpp:156] Memory required for data: 91107072
I0623 21:38:40.084985  4805 layer_factory.hpp:77] Creating layer relu2_1_D
I0623 21:38:40.084995  4805 net.cpp:91] Creating Layer relu2_1_D
I0623 21:38:40.085000  4805 net.cpp:425] relu2_1_D <- conv2_1_D
I0623 21:38:40.085006  4805 net.cpp:386] relu2_1_D -> conv2_1_D (in-place)
I0623 21:38:40.085295  4805 net.cpp:141] Setting up relu2_1_D
I0623 21:38:40.085309  4805 net.cpp:148] Top shape: 1 32 112 112 (401408)
I0623 21:38:40.085312  4805 net.cpp:156] Memory required for data: 92712704
I0623 21:38:40.085317  4805 layer_factory.hpp:77] Creating layer upsample1
I0623 21:38:40.085327  4805 net.cpp:91] Creating Layer upsample1
I0623 21:38:40.085332  4805 net.cpp:425] upsample1 <- conv2_1_D
I0623 21:38:40.085338  4805 net.cpp:425] upsample1 <- pool1_mask
I0623 21:38:40.085345  4805 net.cpp:399] upsample1 -> pool1_D
I0623 21:38:40.085382  4805 net.cpp:141] Setting up upsample1
I0623 21:38:40.085391  4805 net.cpp:148] Top shape: 1 32 224 224 (1605632)
I0623 21:38:40.085396  4805 net.cpp:156] Memory required for data: 99135232
I0623 21:38:40.085399  4805 layer_factory.hpp:77] Creating layer conv1_2_D
I0623 21:38:40.085412  4805 net.cpp:91] Creating Layer conv1_2_D
I0623 21:38:40.085417  4805 net.cpp:425] conv1_2_D <- pool1_D
I0623 21:38:40.085424  4805 net.cpp:399] conv1_2_D -> conv1_2_D
I0623 21:38:40.086365  4805 net.cpp:141] Setting up conv1_2_D
I0623 21:38:40.086381  4805 net.cpp:148] Top shape: 1 32 224 224 (1605632)
I0623 21:38:40.086386  4805 net.cpp:156] Memory required for data: 105557760
I0623 21:38:40.086393  4805 layer_factory.hpp:77] Creating layer bn1_2_D
I0623 21:38:40.086402  4805 net.cpp:91] Creating Layer bn1_2_D
I0623 21:38:40.086407  4805 net.cpp:425] bn1_2_D <- conv1_2_D
I0623 21:38:40.086416  4805 net.cpp:386] bn1_2_D -> conv1_2_D (in-place)
I0623 21:38:40.087226  4805 net.cpp:141] Setting up bn1_2_D
I0623 21:38:40.087239  4805 net.cpp:148] Top shape: 1 32 224 224 (1605632)
I0623 21:38:40.087244  4805 net.cpp:156] Memory required for data: 111980288
I0623 21:38:40.087254  4805 layer_factory.hpp:77] Creating layer scale1_2_D
I0623 21:38:40.087267  4805 net.cpp:91] Creating Layer scale1_2_D
I0623 21:38:40.087272  4805 net.cpp:425] scale1_2_D <- conv1_2_D
I0623 21:38:40.087280  4805 net.cpp:386] scale1_2_D -> conv1_2_D (in-place)
I0623 21:38:40.087332  4805 layer_factory.hpp:77] Creating layer scale1_2_D
I0623 21:38:40.087499  4805 net.cpp:141] Setting up scale1_2_D
I0623 21:38:40.087509  4805 net.cpp:148] Top shape: 1 32 224 224 (1605632)
I0623 21:38:40.087513  4805 net.cpp:156] Memory required for data: 118402816
I0623 21:38:40.087520  4805 layer_factory.hpp:77] Creating layer relu1_2_D
I0623 21:38:40.087528  4805 net.cpp:91] Creating Layer relu1_2_D
I0623 21:38:40.087532  4805 net.cpp:425] relu1_2_D <- conv1_2_D
I0623 21:38:40.087540  4805 net.cpp:386] relu1_2_D -> conv1_2_D (in-place)
I0623 21:38:40.087888  4805 net.cpp:141] Setting up relu1_2_D
I0623 21:38:40.087905  4805 net.cpp:148] Top shape: 1 32 224 224 (1605632)
I0623 21:38:40.087910  4805 net.cpp:156] Memory required for data: 124825344
I0623 21:38:40.087925  4805 layer_factory.hpp:77] Creating layer conv1_1_D
I0623 21:38:40.087939  4805 net.cpp:91] Creating Layer conv1_1_D
I0623 21:38:40.087946  4805 net.cpp:425] conv1_1_D <- conv1_2_D
I0623 21:38:40.087955  4805 net.cpp:399] conv1_1_D -> conv1_1_D
I0623 21:38:40.089054  4805 net.cpp:141] Setting up conv1_1_D
I0623 21:38:40.089067  4805 net.cpp:148] Top shape: 1 2 224 224 (100352)
I0623 21:38:40.089076  4805 net.cpp:156] Memory required for data: 125226752
I0623 21:38:40.089084  4805 layer_factory.hpp:77] Creating layer conv1_1_D_conv1_1_D_0_split
I0623 21:38:40.089092  4805 net.cpp:91] Creating Layer conv1_1_D_conv1_1_D_0_split
I0623 21:38:40.089097  4805 net.cpp:425] conv1_1_D_conv1_1_D_0_split <- conv1_1_D
I0623 21:38:40.089104  4805 net.cpp:399] conv1_1_D_conv1_1_D_0_split -> conv1_1_D_conv1_1_D_0_split_0
I0623 21:38:40.089113  4805 net.cpp:399] conv1_1_D_conv1_1_D_0_split -> conv1_1_D_conv1_1_D_0_split_1
I0623 21:38:40.089164  4805 net.cpp:141] Setting up conv1_1_D_conv1_1_D_0_split
I0623 21:38:40.089174  4805 net.cpp:148] Top shape: 1 2 224 224 (100352)
I0623 21:38:40.089179  4805 net.cpp:148] Top shape: 1 2 224 224 (100352)
I0623 21:38:40.089184  4805 net.cpp:156] Memory required for data: 126029568
I0623 21:38:40.089187  4805 layer_factory.hpp:77] Creating layer loss
I0623 21:38:40.089197  4805 net.cpp:91] Creating Layer loss
I0623 21:38:40.089202  4805 net.cpp:425] loss <- conv1_1_D_conv1_1_D_0_split_0
I0623 21:38:40.089210  4805 net.cpp:425] loss <- label_data_1_split_0
I0623 21:38:40.089216  4805 net.cpp:399] loss -> loss
…
