…
I0627 12:48:25.556335  4639 net.cpp:313] The NetState phase (0) differed from the phase (1) specified by a rule in layer data
I0627 12:48:25.556484  4639 net.cpp:49] Initializing net from parameters: 
name: "BPnet"
state {
  phase: TRAIN
}
layer {
  name: "data"
  type: "Data"
  top: "data"
  top: "label"
  include {
    phase: TRAIN
  }
  transform_param {
    mirror: true
    mean_value: 100
    crop_h: 196
    crop_w: 256
    rotation_range: 4
    scale_jitter_range: 0.04
    contrast_jitter_range: 0.1
  }
  data_param {
    source: "data/train_lmdb"
    batch_size: 32
    backend: LMDB
  }
}
layer {
  name: "conv1_1"
  type: "Convolution"
  bottom: "data"
  top: "conv1_1"
  param {
    lr_mult: 1
    decay_mult: 1
  }
  convolution_param {
    num_output: 32
    bias_term: false
    pad: 3
    kernel_size: 7
    stride: 2
    weight_filler {
      type: "xavier"
    }
  }
}
layer {
  name: "bn1_1"
  type: "BatchNorm"
  bottom: "conv1_1"
  top: "conv1_1"
  param {
    lr_mult: 0
  }
  param {
    lr_mult: 0
  }
  param {
    lr_mult: 0
  }
  batch_norm_param {
    use_global_stats: false
  }
}
layer {
  name: "scale1_1"
  type: "Scale"
  bottom: "conv1_1"
  top: "conv1_1"
  param {
    lr_mult: 1
    decay_mult: 1
  }
  param {
    lr_mult: 1
    decay_mult: 1
  }
  scale_param {
    bias_term: true
    bias_filler {
      type: "constant"
      value: 0
    }
  }
}
layer {
  name: "relu1_1"
  type: "ReLU"
  bottom: "conv1_1"
  top: "conv1_1"
}
layer {
  name: "pool1"
  type: "Pooling"
  bottom: "conv1_1"
  top: "pool1"
  pooling_param {
    pool: MAX
    kernel_size: 2
    stride: 2
  }
}
layer {
  name: "conv2_1"
  type: "Convolution"
  bottom: "pool1"
  top: "conv2_1"
  param {
    lr_mult: 1
    decay_mult: 1
  }
  convolution_param {
    num_output: 64
    bias_term: false
    pad: 1
    kernel_size: 3
    weight_filler {
      type: "xavier"
    }
  }
}
layer {
  name: "bn2_1"
  type: "BatchNorm"
  bottom: "conv2_1"
  top: "conv2_1"
  param {
    lr_mult: 0
  }
  param {
    lr_mult: 0
  }
  param {
    lr_mult: 0
  }
  batch_norm_param {
    use_global_stats: false
  }
}
layer {
  name: "scale2_1"
  type: "Scale"
  bottom: "conv2_1"
  top: "conv2_1"
  param {
    lr_mult: 1
    decay_mult: 1
  }
  param {
    lr_mult: 1
    decay_mult: 1
  }
  scale_param {
    bias_term: true
    bias_filler {
      type: "constant"
      value: 0
    }
  }
}
layer {
  name: "relu2_1"
  type: "ReLU"
  bottom: "conv2_1"
  top: "conv2_1"
}
layer {
  name: "pool2"
  type: "Pooling"
  bottom: "conv2_1"
  top: "pool2"
  pooling_param {
    pool: MAX
    kernel_size: 2
    stride: 2
  }
}
layer {
  name: "conv3_1"
  type: "Convolution"
  bottom: "pool2"
  top: "conv3_1"
  param {
    lr_mult: 1
    decay_mult: 1
  }
  convolution_param {
    num_output: 128
    bias_term: false
    pad: 1
    kernel_size: 3
    weight_filler {
      type: "xavier"
    }
  }
}
layer {
  name: "bn3_1"
  type: "BatchNorm"
  bottom: "conv3_1"
  top: "conv3_1"
  param {
    lr_mult: 0
  }
  param {
    lr_mult: 0
  }
  param {
    lr_mult: 0
  }
  batch_norm_param {
    use_global_stats: false
  }
}
layer {
  name: "scale3_1"
  type: "Scale"
  bottom: "conv3_1"
  top: "conv3_1"
  param {
    lr_mult: 1
    decay_mult: 1
  }
  param {
    lr_mult: 1
    decay_mult: 1
  }
  scale_param {
    bias_term: true
    bias_filler {
      type: "constant"
      value: 0
    }
  }
}
layer {
  name: "relu3_1"
  type: "ReLU"
  bottom: "conv3_1"
  top: "conv3_1"
}
layer {
  name: "pool3"
  type: "Pooling"
  bottom: "conv3_1"
  top: "pool3"
  pooling_param {
    pool: MAX
    kernel_size: 2
    stride: 2
  }
}
layer {
  name: "conv4_1"
  type: "Convolution"
  bottom: "pool3"
  top: "conv4_1"
  param {
    lr_mult: 1
    decay_mult: 1
  }
  convolution_param {
    num_output: 256
    bias_term: false
    pad: 1
    kernel_size: 3
    weight_filler {
      type: "xavier"
    }
  }
}
layer {
  name: "bn4_1"
  type: "BatchNorm"
  bottom: "conv4_1"
  top: "conv4_1"
  param {
    lr_mult: 0
  }
  param {
    lr_mult: 0
  }
  param {
    lr_mult: 0
  }
  batch_norm_param {
    use_global_stats: false
  }
}
layer {
  name: "scale4_1"
  type: "Scale"
  bottom: "conv4_1"
  top: "conv4_1"
  param {
    lr_mult: 1
    decay_mult: 1
  }
  param {
    lr_mult: 1
    decay_mult: 1
  }
  scale_param {
    bias_term: true
    bias_filler {
      type: "constant"
      value: 0
    }
  }
}
layer {
  name: "relu4_1"
  type: "ReLU"
  bottom: "conv4_1"
  top: "conv4_1"
}
layer {
  name: "pool4"
  type: "Pooling"
  bottom: "conv4_1"
  top: "pool4"
  pooling_param {
    pool: MAX
    kernel_size: 2
    stride: 2
  }
}
layer {
  name: "conv5_1"
  type: "Convolution"
  bottom: "pool4"
  top: "conv5_1"
  param {
    lr_mult: 1
    decay_mult: 1
  }
  convolution_param {
    num_output: 256
    bias_term: false
    pad: 1
    kernel_size: 3
    weight_filler {
      type: "xavier"
    }
  }
}
layer {
  name: "bn5_1"
  type: "BatchNorm"
  bottom: "conv5_1"
  top: "conv5_1"
  param {
    lr_mult: 0
  }
  param {
    lr_mult: 0
  }
  param {
    lr_mult: 0
  }
  batch_norm_param {
    use_global_stats: false
  }
}
layer {
  name: "scale5_1"
  type: "Scale"
  bottom: "conv5_1"
  top: "conv5_1"
  param {
    lr_mult: 1
    decay_mult: 1
  }
  param {
    lr_mult: 1
    decay_mult: 1
  }
  scale_param {
    bias_term: true
    bias_filler {
      type: "constant"
      value: 0
    }
  }
}
layer {
  name: "relu5_1"
  type: "ReLU"
  bottom: "conv5_1"
  top: "conv5_1"
}
layer {
  name: "pool5"
  type: "Pooling"
  bottom: "conv5_1"
  top: "pool5"
  pooling_param {
    pool: AVE
    stride: 1
    kernel_h: 6
    kernel_w: 8
  }
}
layer {
  name: "fc2"
  type: "InnerProduct"
  bottom: "pool5"
  top: "fc2"
  inner_product_param {
    num_output: 2
  }
}
layer {
  name: "loss"
  type: "SoftmaxWithLoss"
  bottom: "fc2"
  bottom: "label"
  top: "loss"
}
layer {
  name: "accuracy"
  type: "Accuracy"
  bottom: "fc2"
  bottom: "label"
  top: "accuracy"
}
I0627 12:48:25.556602  4639 layer_factory.hpp:77] Creating layer data
I0627 12:48:25.556989  4639 net.cpp:91] Creating Layer data
I0627 12:48:25.557000  4639 net.cpp:399] data -> data
I0627 12:48:25.557021  4639 net.cpp:399] data -> label
I0627 12:48:25.558275  4643 db_lmdb.cpp:35] Opened lmdb data/train_lmdb
I0627 12:48:25.582422  4639 data_layer.cpp:42] output data size: 32,3,196,256
I0627 12:48:25.621209  4639 net.cpp:141] Setting up data
I0627 12:48:25.621242  4639 net.cpp:148] Top shape: 32 3 196 256 (4816896)
I0627 12:48:25.621245  4639 net.cpp:148] Top shape: 32 (32)
I0627 12:48:25.621248  4639 net.cpp:156] Memory required for data: 19267712
I0627 12:48:25.621256  4639 layer_factory.hpp:77] Creating layer label_data_1_split
I0627 12:48:25.621273  4639 net.cpp:91] Creating Layer label_data_1_split
I0627 12:48:25.621276  4639 net.cpp:425] label_data_1_split <- label
I0627 12:48:25.621285  4639 net.cpp:399] label_data_1_split -> label_data_1_split_0
I0627 12:48:25.621294  4639 net.cpp:399] label_data_1_split -> label_data_1_split_1
I0627 12:48:25.621366  4639 net.cpp:141] Setting up label_data_1_split
I0627 12:48:25.621373  4639 net.cpp:148] Top shape: 32 (32)
I0627 12:48:25.621377  4639 net.cpp:148] Top shape: 32 (32)
I0627 12:48:25.621379  4639 net.cpp:156] Memory required for data: 19267968
I0627 12:48:25.621381  4639 layer_factory.hpp:77] Creating layer conv1_1
I0627 12:48:25.621397  4639 net.cpp:91] Creating Layer conv1_1
I0627 12:48:25.621399  4639 net.cpp:425] conv1_1 <- data
I0627 12:48:25.621403  4639 net.cpp:399] conv1_1 -> conv1_1
I0627 12:48:25.945776  4639 net.cpp:141] Setting up conv1_1
I0627 12:48:25.945809  4639 net.cpp:148] Top shape: 32 32 98 128 (12845056)
I0627 12:48:25.945838  4639 net.cpp:156] Memory required for data: 70648192
I0627 12:48:25.945855  4639 layer_factory.hpp:77] Creating layer bn1_1
I0627 12:48:25.945883  4639 net.cpp:91] Creating Layer bn1_1
I0627 12:48:25.945893  4639 net.cpp:425] bn1_1 <- conv1_1
I0627 12:48:25.945904  4639 net.cpp:386] bn1_1 -> conv1_1 (in-place)
I0627 12:48:25.946158  4639 net.cpp:141] Setting up bn1_1
I0627 12:48:25.946171  4639 net.cpp:148] Top shape: 32 32 98 128 (12845056)
I0627 12:48:25.946174  4639 net.cpp:156] Memory required for data: 122028416
I0627 12:48:25.946189  4639 layer_factory.hpp:77] Creating layer scale1_1
I0627 12:48:25.946203  4639 net.cpp:91] Creating Layer scale1_1
I0627 12:48:25.946209  4639 net.cpp:425] scale1_1 <- conv1_1
I0627 12:48:25.946216  4639 net.cpp:386] scale1_1 -> conv1_1 (in-place)
I0627 12:48:25.946269  4639 layer_factory.hpp:77] Creating layer scale1_1
I0627 12:48:25.946415  4639 net.cpp:141] Setting up scale1_1
I0627 12:48:25.946427  4639 net.cpp:148] Top shape: 32 32 98 128 (12845056)
I0627 12:48:25.946434  4639 net.cpp:156] Memory required for data: 173408640
I0627 12:48:25.946442  4639 layer_factory.hpp:77] Creating layer relu1_1
I0627 12:48:25.946451  4639 net.cpp:91] Creating Layer relu1_1
I0627 12:48:25.946457  4639 net.cpp:425] relu1_1 <- conv1_1
I0627 12:48:25.946463  4639 net.cpp:386] relu1_1 -> conv1_1 (in-place)
I0627 12:48:25.946677  4639 net.cpp:141] Setting up relu1_1
I0627 12:48:25.946689  4639 net.cpp:148] Top shape: 32 32 98 128 (12845056)
I0627 12:48:25.946694  4639 net.cpp:156] Memory required for data: 224788864
I0627 12:48:25.946698  4639 layer_factory.hpp:77] Creating layer pool1
I0627 12:48:25.946707  4639 net.cpp:91] Creating Layer pool1
I0627 12:48:25.946712  4639 net.cpp:425] pool1 <- conv1_1
I0627 12:48:25.946718  4639 net.cpp:399] pool1 -> pool1
I0627 12:48:25.946779  4639 net.cpp:141] Setting up pool1
I0627 12:48:25.946789  4639 net.cpp:148] Top shape: 32 32 49 64 (3211264)
I0627 12:48:25.946791  4639 net.cpp:156] Memory required for data: 237633920
I0627 12:48:25.946795  4639 layer_factory.hpp:77] Creating layer conv2_1
I0627 12:48:25.946807  4639 net.cpp:91] Creating Layer conv2_1
I0627 12:48:25.946812  4639 net.cpp:425] conv2_1 <- pool1
I0627 12:48:25.946818  4639 net.cpp:399] conv2_1 -> conv2_1
I0627 12:48:25.949532  4639 net.cpp:141] Setting up conv2_1
I0627 12:48:25.949549  4639 net.cpp:148] Top shape: 32 64 49 64 (6422528)
I0627 12:48:25.949554  4639 net.cpp:156] Memory required for data: 263324032
I0627 12:48:25.949561  4639 layer_factory.hpp:77] Creating layer bn2_1
I0627 12:48:25.949575  4639 net.cpp:91] Creating Layer bn2_1
I0627 12:48:25.949581  4639 net.cpp:425] bn2_1 <- conv2_1
I0627 12:48:25.949589  4639 net.cpp:386] bn2_1 -> conv2_1 (in-place)
I0627 12:48:25.951136  4639 net.cpp:141] Setting up bn2_1
I0627 12:48:25.951153  4639 net.cpp:148] Top shape: 32 64 49 64 (6422528)
I0627 12:48:25.951159  4639 net.cpp:156] Memory required for data: 289014144
I0627 12:48:25.951172  4639 layer_factory.hpp:77] Creating layer scale2_1
I0627 12:48:25.951182  4639 net.cpp:91] Creating Layer scale2_1
I0627 12:48:25.951186  4639 net.cpp:425] scale2_1 <- conv2_1
I0627 12:48:25.951195  4639 net.cpp:386] scale2_1 -> conv2_1 (in-place)
I0627 12:48:25.951247  4639 layer_factory.hpp:77] Creating layer scale2_1
I0627 12:48:25.951400  4639 net.cpp:141] Setting up scale2_1
I0627 12:48:25.951409  4639 net.cpp:148] Top shape: 32 64 49 64 (6422528)
I0627 12:48:25.951412  4639 net.cpp:156] Memory required for data: 314704256
I0627 12:48:25.951426  4639 layer_factory.hpp:77] Creating layer relu2_1
I0627 12:48:25.951433  4639 net.cpp:91] Creating Layer relu2_1
I0627 12:48:25.951438  4639 net.cpp:425] relu2_1 <- conv2_1
I0627 12:48:25.951447  4639 net.cpp:386] relu2_1 -> conv2_1 (in-place)
I0627 12:48:25.951660  4639 net.cpp:141] Setting up relu2_1
I0627 12:48:25.951673  4639 net.cpp:148] Top shape: 32 64 49 64 (6422528)
I0627 12:48:25.951676  4639 net.cpp:156] Memory required for data: 340394368
I0627 12:48:25.951680  4639 layer_factory.hpp:77] Creating layer pool2
I0627 12:48:25.951706  4639 net.cpp:91] Creating Layer pool2
I0627 12:48:25.951710  4639 net.cpp:425] pool2 <- conv2_1
I0627 12:48:25.951717  4639 net.cpp:399] pool2 -> pool2
I0627 12:48:25.951768  4639 net.cpp:141] Setting up pool2
I0627 12:48:25.951779  4639 net.cpp:148] Top shape: 32 64 25 32 (1638400)
I0627 12:48:25.951782  4639 net.cpp:156] Memory required for data: 346947968
I0627 12:48:25.951786  4639 layer_factory.hpp:77] Creating layer conv3_1
I0627 12:48:25.951798  4639 net.cpp:91] Creating Layer conv3_1
I0627 12:48:25.951803  4639 net.cpp:425] conv3_1 <- pool2
I0627 12:48:25.951812  4639 net.cpp:399] conv3_1 -> conv3_1
I0627 12:48:25.955099  4639 net.cpp:141] Setting up conv3_1
I0627 12:48:25.955128  4639 net.cpp:148] Top shape: 32 128 25 32 (3276800)
I0627 12:48:25.955137  4639 net.cpp:156] Memory required for data: 360055168
I0627 12:48:25.955147  4639 layer_factory.hpp:77] Creating layer bn3_1
I0627 12:48:25.955158  4639 net.cpp:91] Creating Layer bn3_1
I0627 12:48:25.955165  4639 net.cpp:425] bn3_1 <- conv3_1
I0627 12:48:25.955180  4639 net.cpp:386] bn3_1 -> conv3_1 (in-place)
I0627 12:48:25.956811  4639 net.cpp:141] Setting up bn3_1
I0627 12:48:25.956830  4639 net.cpp:148] Top shape: 32 128 25 32 (3276800)
I0627 12:48:25.956835  4639 net.cpp:156] Memory required for data: 373162368
I0627 12:48:25.956845  4639 layer_factory.hpp:77] Creating layer scale3_1
I0627 12:48:25.956859  4639 net.cpp:91] Creating Layer scale3_1
I0627 12:48:25.956863  4639 net.cpp:425] scale3_1 <- conv3_1
I0627 12:48:25.956871  4639 net.cpp:386] scale3_1 -> conv3_1 (in-place)
I0627 12:48:25.956921  4639 layer_factory.hpp:77] Creating layer scale3_1
I0627 12:48:25.957054  4639 net.cpp:141] Setting up scale3_1
I0627 12:48:25.957064  4639 net.cpp:148] Top shape: 32 128 25 32 (3276800)
I0627 12:48:25.957067  4639 net.cpp:156] Memory required for data: 386269568
I0627 12:48:25.957080  4639 layer_factory.hpp:77] Creating layer relu3_1
I0627 12:48:25.957089  4639 net.cpp:91] Creating Layer relu3_1
I0627 12:48:25.957093  4639 net.cpp:425] relu3_1 <- conv3_1
I0627 12:48:25.957100  4639 net.cpp:386] relu3_1 -> conv3_1 (in-place)
I0627 12:48:25.957687  4639 net.cpp:141] Setting up relu3_1
I0627 12:48:25.957703  4639 net.cpp:148] Top shape: 32 128 25 32 (3276800)
I0627 12:48:25.957707  4639 net.cpp:156] Memory required for data: 399376768
I0627 12:48:25.957712  4639 layer_factory.hpp:77] Creating layer pool3
I0627 12:48:25.957725  4639 net.cpp:91] Creating Layer pool3
I0627 12:48:25.957728  4639 net.cpp:425] pool3 <- conv3_1
I0627 12:48:25.957736  4639 net.cpp:399] pool3 -> pool3
I0627 12:48:25.957789  4639 net.cpp:141] Setting up pool3
I0627 12:48:25.957797  4639 net.cpp:148] Top shape: 32 128 13 16 (851968)
I0627 12:48:25.957800  4639 net.cpp:156] Memory required for data: 402784640
I0627 12:48:25.957803  4639 layer_factory.hpp:77] Creating layer conv4_1
I0627 12:48:25.957815  4639 net.cpp:91] Creating Layer conv4_1
I0627 12:48:25.957819  4639 net.cpp:425] conv4_1 <- pool3
I0627 12:48:25.957826  4639 net.cpp:399] conv4_1 -> conv4_1
I0627 12:48:25.961815  4639 net.cpp:141] Setting up conv4_1
I0627 12:48:25.961835  4639 net.cpp:148] Top shape: 32 256 13 16 (1703936)
I0627 12:48:25.961839  4639 net.cpp:156] Memory required for data: 409600384
I0627 12:48:25.961848  4639 layer_factory.hpp:77] Creating layer bn4_1
I0627 12:48:25.961858  4639 net.cpp:91] Creating Layer bn4_1
I0627 12:48:25.961863  4639 net.cpp:425] bn4_1 <- conv4_1
I0627 12:48:25.961869  4639 net.cpp:386] bn4_1 -> conv4_1 (in-place)
I0627 12:48:25.962100  4639 net.cpp:141] Setting up bn4_1
I0627 12:48:25.962110  4639 net.cpp:148] Top shape: 32 256 13 16 (1703936)
I0627 12:48:25.962113  4639 net.cpp:156] Memory required for data: 416416128
I0627 12:48:25.962122  4639 layer_factory.hpp:77] Creating layer scale4_1
I0627 12:48:25.962131  4639 net.cpp:91] Creating Layer scale4_1
I0627 12:48:25.962134  4639 net.cpp:425] scale4_1 <- conv4_1
I0627 12:48:25.962141  4639 net.cpp:386] scale4_1 -> conv4_1 (in-place)
I0627 12:48:25.962185  4639 layer_factory.hpp:77] Creating layer scale4_1
I0627 12:48:25.962332  4639 net.cpp:141] Setting up scale4_1
I0627 12:48:25.962342  4639 net.cpp:148] Top shape: 32 256 13 16 (1703936)
I0627 12:48:25.962345  4639 net.cpp:156] Memory required for data: 423231872
I0627 12:48:25.962352  4639 layer_factory.hpp:77] Creating layer relu4_1
I0627 12:48:25.962358  4639 net.cpp:91] Creating Layer relu4_1
I0627 12:48:25.962363  4639 net.cpp:425] relu4_1 <- conv4_1
I0627 12:48:25.962368  4639 net.cpp:386] relu4_1 -> conv4_1 (in-place)
I0627 12:48:25.962991  4639 net.cpp:141] Setting up relu4_1
I0627 12:48:25.963008  4639 net.cpp:148] Top shape: 32 256 13 16 (1703936)
I0627 12:48:25.963012  4639 net.cpp:156] Memory required for data: 430047616
I0627 12:48:25.963016  4639 layer_factory.hpp:77] Creating layer pool4
I0627 12:48:25.963026  4639 net.cpp:91] Creating Layer pool4
I0627 12:48:25.963029  4639 net.cpp:425] pool4 <- conv4_1
I0627 12:48:25.963037  4639 net.cpp:399] pool4 -> pool4
I0627 12:48:25.963090  4639 net.cpp:141] Setting up pool4
I0627 12:48:25.963098  4639 net.cpp:148] Top shape: 32 256 7 8 (458752)
I0627 12:48:25.963100  4639 net.cpp:156] Memory required for data: 431882624
I0627 12:48:25.963104  4639 layer_factory.hpp:77] Creating layer conv5_1
I0627 12:48:25.963117  4639 net.cpp:91] Creating Layer conv5_1
I0627 12:48:25.963121  4639 net.cpp:425] conv5_1 <- pool4
I0627 12:48:25.963127  4639 net.cpp:399] conv5_1 -> conv5_1
I0627 12:48:25.971300  4639 net.cpp:141] Setting up conv5_1
I0627 12:48:25.971318  4639 net.cpp:148] Top shape: 32 256 7 8 (458752)
I0627 12:48:25.971323  4639 net.cpp:156] Memory required for data: 433717632
I0627 12:48:25.971330  4639 layer_factory.hpp:77] Creating layer bn5_1
I0627 12:48:25.971340  4639 net.cpp:91] Creating Layer bn5_1
I0627 12:48:25.971344  4639 net.cpp:425] bn5_1 <- conv5_1
I0627 12:48:25.971350  4639 net.cpp:386] bn5_1 -> conv5_1 (in-place)
I0627 12:48:25.971590  4639 net.cpp:141] Setting up bn5_1
I0627 12:48:25.971601  4639 net.cpp:148] Top shape: 32 256 7 8 (458752)
I0627 12:48:25.971604  4639 net.cpp:156] Memory required for data: 435552640
I0627 12:48:25.971614  4639 layer_factory.hpp:77] Creating layer scale5_1
I0627 12:48:25.971622  4639 net.cpp:91] Creating Layer scale5_1
I0627 12:48:25.971626  4639 net.cpp:425] scale5_1 <- conv5_1
I0627 12:48:25.971632  4639 net.cpp:386] scale5_1 -> conv5_1 (in-place)
I0627 12:48:25.971678  4639 layer_factory.hpp:77] Creating layer scale5_1
I0627 12:48:25.971801  4639 net.cpp:141] Setting up scale5_1
I0627 12:48:25.971810  4639 net.cpp:148] Top shape: 32 256 7 8 (458752)
I0627 12:48:25.971813  4639 net.cpp:156] Memory required for data: 437387648
I0627 12:48:25.971820  4639 layer_factory.hpp:77] Creating layer relu5_1
I0627 12:48:25.971827  4639 net.cpp:91] Creating Layer relu5_1
I0627 12:48:25.971830  4639 net.cpp:425] relu5_1 <- conv5_1
I0627 12:48:25.971837  4639 net.cpp:386] relu5_1 -> conv5_1 (in-place)
I0627 12:48:25.972041  4639 net.cpp:141] Setting up relu5_1
I0627 12:48:25.972053  4639 net.cpp:148] Top shape: 32 256 7 8 (458752)
I0627 12:48:25.972056  4639 net.cpp:156] Memory required for data: 439222656
I0627 12:48:25.972060  4639 layer_factory.hpp:77] Creating layer pool5
I0627 12:48:25.972069  4639 net.cpp:91] Creating Layer pool5
I0627 12:48:25.972072  4639 net.cpp:425] pool5 <- conv5_1
I0627 12:48:25.972077  4639 net.cpp:399] pool5 -> pool5
I0627 12:48:25.972303  4639 net.cpp:141] Setting up pool5
I0627 12:48:25.972316  4639 net.cpp:148] Top shape: 32 256 2 1 (16384)
I0627 12:48:25.972319  4639 net.cpp:156] Memory required for data: 439288192
I0627 12:48:25.972322  4639 layer_factory.hpp:77] Creating layer fc2
I0627 12:48:25.972332  4639 net.cpp:91] Creating Layer fc2
I0627 12:48:25.972335  4639 net.cpp:425] fc2 <- pool5
I0627 12:48:25.972342  4639 net.cpp:399] fc2 -> fc2
I0627 12:48:25.972470  4639 net.cpp:141] Setting up fc2
I0627 12:48:25.972479  4639 net.cpp:148] Top shape: 32 2 (64)
I0627 12:48:25.972483  4639 net.cpp:156] Memory required for data: 439288448
I0627 12:48:25.972491  4639 layer_factory.hpp:77] Creating layer fc2_fc2_0_split
I0627 12:48:25.972510  4639 net.cpp:91] Creating Layer fc2_fc2_0_split
I0627 12:48:25.972514  4639 net.cpp:425] fc2_fc2_0_split <- fc2
I0627 12:48:25.972520  4639 net.cpp:399] fc2_fc2_0_split -> fc2_fc2_0_split_0
I0627 12:48:25.972527  4639 net.cpp:399] fc2_fc2_0_split -> fc2_fc2_0_split_1
I0627 12:48:25.972573  4639 net.cpp:141] Setting up fc2_fc2_0_split
I0627 12:48:25.972581  4639 net.cpp:148] Top shape: 32 2 (64)
I0627 12:48:25.972586  4639 net.cpp:148] Top shape: 32 2 (64)
I0627 12:48:25.972590  4639 net.cpp:156] Memory required for data: 439288960
I0627 12:48:25.972594  4639 layer_factory.hpp:77] Creating layer loss
I0627 12:48:25.972601  4639 net.cpp:91] Creating Layer loss
I0627 12:48:25.972605  4639 net.cpp:425] loss <- fc2_fc2_0_split_0
I0627 12:48:25.972609  4639 net.cpp:425] loss <- label_data_1_split_0
I0627 12:48:25.972615  4639 net.cpp:399] loss -> loss
…
I0627 12:48:25.973978  4639 solver.cpp:181] Creating test net (#0) specified by net file: models/bpnet/train_val.prototxt
I0627 12:48:25.974030  4639 net.cpp:313] The NetState phase (1) differed from the phase (0) specified by a rule in layer data
I0627 12:48:25.974270  4639 net.cpp:49] Initializing net from parameters: 
name: "BPnet"
state {
  phase: TEST
}
layer {
  name: "data"
  type: "Data"
  top: "data"
  top: "label"
  include {
    phase: TEST
  }
  transform_param {
    mirror: false
    mean_value: 100
    crop_h: 196
    crop_w: 256
  }
  data_param {
    source: "data/val_lmdb"
    batch_size: 64
    backend: LMDB
  }
}
layer {
  name: "conv1_1"
  type: "Convolution"
  bottom: "data"
  top: "conv1_1"
  param {
    lr_mult: 1
    decay_mult: 1
  }
  convolution_param {
    num_output: 32
    bias_term: false
    pad: 3
    kernel_size: 7
    stride: 2
    weight_filler {
      type: "xavier"
    }
  }
}
layer {
  name: "bn1_1"
  type: "BatchNorm"
  bottom: "conv1_1"
  top: "conv1_1"
  param {
    lr_mult: 0
  }
  param {
    lr_mult: 0
  }
  param {
    lr_mult: 0
  }
  batch_norm_param {
    use_global_stats: false
  }
}
layer {
  name: "scale1_1"
  type: "Scale"
  bottom: "conv1_1"
  top: "conv1_1"
  param {
    lr_mult: 1
    decay_mult: 1
  }
  param {
    lr_mult: 1
    decay_mult: 1
  }
  scale_param {
    bias_term: true
    bias_filler {
      type: "constant"
      value: 0
    }
  }
}
layer {
  name: "relu1_1"
  type: "ReLU"
  bottom: "conv1_1"
  top: "conv1_1"
}
layer {
  name: "pool1"
  type: "Pooling"
  bottom: "conv1_1"
  top: "pool1"
  pooling_param {
    pool: MAX
    kernel_size: 2
    stride: 2
  }
}
layer {
  name: "conv2_1"
  type: "Convolution"
  bottom: "pool1"
  top: "conv2_1"
  param {
    lr_mult: 1
    decay_mult: 1
  }
  convolution_param {
    num_output: 64
    bias_term: false
    pad: 1
    kernel_size: 3
    weight_filler {
      type: "xavier"
    }
  }
}
layer {
  name: "bn2_1"
  type: "BatchNorm"
  bottom: "conv2_1"
  top: "conv2_1"
  param {
    lr_mult: 0
  }
  param {
    lr_mult: 0
  }
  param {
    lr_mult: 0
  }
  batch_norm_param {
    use_global_stats: false
  }
}
layer {
  name: "scale2_1"
  type: "Scale"
  bottom: "conv2_1"
  top: "conv2_1"
  param {
    lr_mult: 1
    decay_mult: 1
  }
  param {
    lr_mult: 1
    decay_mult: 1
  }
  scale_param {
    bias_term: true
    bias_filler {
      type: "constant"
      value: 0
    }
  }
}
layer {
  name: "relu2_1"
  type: "ReLU"
  bottom: "conv2_1"
  top: "conv2_1"
}
layer {
  name: "pool2"
  type: "Pooling"
  bottom: "conv2_1"
  top: "pool2"
  pooling_param {
    pool: MAX
    kernel_size: 2
    stride: 2
  }
}
layer {
  name: "conv3_1"
  type: "Convolution"
  bottom: "pool2"
  top: "conv3_1"
  param {
    lr_mult: 1
    decay_mult: 1
  }
  convolution_param {
    num_output: 128
    bias_term: false
    pad: 1
    kernel_size: 3
    weight_filler {
      type: "xavier"
    }
  }
}
layer {
  name: "bn3_1"
  type: "BatchNorm"
  bottom: "conv3_1"
  top: "conv3_1"
  param {
    lr_mult: 0
  }
  param {
    lr_mult: 0
  }
  param {
    lr_mult: 0
  }
  batch_norm_param {
    use_global_stats: false
  }
}
layer {
  name: "scale3_1"
  type: "Scale"
  bottom: "conv3_1"
  top: "conv3_1"
  param {
    lr_mult: 1
    decay_mult: 1
  }
  param {
    lr_mult: 1
    decay_mult: 1
  }
  scale_param {
    bias_term: true
    bias_filler {
      type: "constant"
      value: 0
    }
  }
}
layer {
  name: "relu3_1"
  type: "ReLU"
  bottom: "conv3_1"
  top: "conv3_1"
}
layer {
  name: "pool3"
  type: "Pooling"
  bottom: "conv3_1"
  top: "pool3"
  pooling_param {
    pool: MAX
    kernel_size: 2
    stride: 2
  }
}
layer {
  name: "conv4_1"
  type: "Convolution"
  bottom: "pool3"
  top: "conv4_1"
  param {
    lr_mult: 1
    decay_mult: 1
  }
  convolution_param {
    num_output: 256
    bias_term: false
    pad: 1
    kernel_size: 3
    weight_filler {
      type: "xavier"
    }
  }
}
layer {
  name: "bn4_1"
  type: "BatchNorm"
  bottom: "conv4_1"
  top: "conv4_1"
  param {
    lr_mult: 0
  }
  param {
    lr_mult: 0
  }
  param {
    lr_mult: 0
  }
  batch_norm_param {
    use_global_stats: false
  }
}
layer {
  name: "scale4_1"
  type: "Scale"
  bottom: "conv4_1"
  top: "conv4_1"
  param {
    lr_mult: 1
    decay_mult: 1
  }
  param {
    lr_mult: 1
    decay_mult: 1
  }
  scale_param {
    bias_term: true
    bias_filler {
      type: "constant"
      value: 0
    }
  }
}
layer {
  name: "relu4_1"
  type: "ReLU"
  bottom: "conv4_1"
  top: "conv4_1"
}
layer {
  name: "pool4"
  type: "Pooling"
  bottom: "conv4_1"
  top: "pool4"
  pooling_param {
    pool: MAX
    kernel_size: 2
    stride: 2
  }
}
layer {
  name: "conv5_1"
  type: "Convolution"
  bottom: "pool4"
  top: "conv5_1"
  param {
    lr_mult: 1
    decay_mult: 1
  }
  convolution_param {
    num_output: 256
    bias_term: false
    pad: 1
    kernel_size: 3
    weight_filler {
      type: "xavier"
    }
  }
}
layer {
  name: "bn5_1"
  type: "BatchNorm"
  bottom: "conv5_1"
  top: "conv5_1"
  param {
    lr_mult: 0
  }
  param {
    lr_mult: 0
  }
  param {
    lr_mult: 0
  }
  batch_norm_param {
    use_global_stats: false
  }
}
layer {
  name: "scale5_1"
  type: "Scale"
  bottom: "conv5_1"
  top: "conv5_1"
  param {
    lr_mult: 1
    decay_mult: 1
  }
  param {
    lr_mult: 1
    decay_mult: 1
  }
  scale_param {
    bias_term: true
    bias_filler {
      type: "constant"
      value: 0
    }
  }
}
layer {
  name: "relu5_1"
  type: "ReLU"
  bottom: "conv5_1"
  top: "conv5_1"
}
layer {
  name: "pool5"
  type: "Pooling"
  bottom: "conv5_1"
  top: "pool5"
  pooling_param {
    pool: AVE
    stride: 1
    kernel_h: 6
    kernel_w: 8
  }
}
layer {
  name: "fc2"
  type: "InnerProduct"
  bottom: "pool5"
  top: "fc2"
  inner_product_param {
    num_output: 2
  }
}
layer {
  name: "loss"
  type: "SoftmaxWithLoss"
  bottom: "fc2"
  bottom: "label"
  top: "loss"
}
layer {
  name: "accuracy"
  type: "Accuracy"
  bottom: "fc2"
  bottom: "label"
  top: "accuracy"
}
I0627 12:48:25.974422  4639 layer_factory.hpp:77] Creating layer data
I0627 12:48:25.974735  4639 net.cpp:91] Creating Layer data
I0627 12:48:25.974746  4639 net.cpp:399] data -> data
I0627 12:48:25.974758  4639 net.cpp:399] data -> label
I0627 12:48:25.975991  4652 db_lmdb.cpp:35] Opened lmdb data/val_lmdb
I0627 12:48:25.976397  4639 data_layer.cpp:42] output data size: 64,3,196,256
I0627 12:48:26.059471  4639 net.cpp:141] Setting up data
I0627 12:48:26.059497  4639 net.cpp:148] Top shape: 64 3 196 256 (9633792)
I0627 12:48:26.059504  4639 net.cpp:148] Top shape: 64 (64)
I0627 12:48:26.059507  4639 net.cpp:156] Memory required for data: 38535424
I0627 12:48:26.059514  4639 layer_factory.hpp:77] Creating layer label_data_1_split
I0627 12:48:26.059526  4639 net.cpp:91] Creating Layer label_data_1_split
I0627 12:48:26.059530  4639 net.cpp:425] label_data_1_split <- label
I0627 12:48:26.059536  4639 net.cpp:399] label_data_1_split -> label_data_1_split_0
I0627 12:48:26.059545  4639 net.cpp:399] label_data_1_split -> label_data_1_split_1
I0627 12:48:26.059671  4639 net.cpp:141] Setting up label_data_1_split
I0627 12:48:26.059679  4639 net.cpp:148] Top shape: 64 (64)
I0627 12:48:26.059681  4639 net.cpp:148] Top shape: 64 (64)
I0627 12:48:26.059684  4639 net.cpp:156] Memory required for data: 38535936
I0627 12:48:26.059686  4639 layer_factory.hpp:77] Creating layer conv1_1
I0627 12:48:26.059700  4639 net.cpp:91] Creating Layer conv1_1
I0627 12:48:26.059703  4639 net.cpp:425] conv1_1 <- data
I0627 12:48:26.059710  4639 net.cpp:399] conv1_1 -> conv1_1
I0627 12:48:26.060922  4639 net.cpp:141] Setting up conv1_1
I0627 12:48:26.060937  4639 net.cpp:148] Top shape: 64 32 98 128 (25690112)
I0627 12:48:26.060940  4639 net.cpp:156] Memory required for data: 141296384
I0627 12:48:26.060948  4639 layer_factory.hpp:77] Creating layer bn1_1
I0627 12:48:26.060957  4639 net.cpp:91] Creating Layer bn1_1
I0627 12:48:26.060977  4639 net.cpp:425] bn1_1 <- conv1_1
I0627 12:48:26.060984  4639 net.cpp:386] bn1_1 -> conv1_1 (in-place)
I0627 12:48:26.061209  4639 net.cpp:141] Setting up bn1_1
I0627 12:48:26.061218  4639 net.cpp:148] Top shape: 64 32 98 128 (25690112)
I0627 12:48:26.061220  4639 net.cpp:156] Memory required for data: 244056832
I0627 12:48:26.061230  4639 layer_factory.hpp:77] Creating layer scale1_1
I0627 12:48:26.061240  4639 net.cpp:91] Creating Layer scale1_1
I0627 12:48:26.061244  4639 net.cpp:425] scale1_1 <- conv1_1
I0627 12:48:26.061247  4639 net.cpp:386] scale1_1 -> conv1_1 (in-place)
I0627 12:48:26.064218  4639 layer_factory.hpp:77] Creating layer scale1_1
I0627 12:48:26.064345  4639 net.cpp:141] Setting up scale1_1
I0627 12:48:26.064354  4639 net.cpp:148] Top shape: 64 32 98 128 (25690112)
I0627 12:48:26.064357  4639 net.cpp:156] Memory required for data: 346817280
I0627 12:48:26.064364  4639 layer_factory.hpp:77] Creating layer relu1_1
I0627 12:48:26.064371  4639 net.cpp:91] Creating Layer relu1_1
I0627 12:48:26.064374  4639 net.cpp:425] relu1_1 <- conv1_1
I0627 12:48:26.064379  4639 net.cpp:386] relu1_1 -> conv1_1 (in-place)
I0627 12:48:26.064868  4639 net.cpp:141] Setting up relu1_1
I0627 12:48:26.064882  4639 net.cpp:148] Top shape: 64 32 98 128 (25690112)
I0627 12:48:26.064884  4639 net.cpp:156] Memory required for data: 449577728
I0627 12:48:26.064888  4639 layer_factory.hpp:77] Creating layer pool1
I0627 12:48:26.064895  4639 net.cpp:91] Creating Layer pool1
I0627 12:48:26.064898  4639 net.cpp:425] pool1 <- conv1_1
I0627 12:48:26.064903  4639 net.cpp:399] pool1 -> pool1
I0627 12:48:26.064947  4639 net.cpp:141] Setting up pool1
I0627 12:48:26.064954  4639 net.cpp:148] Top shape: 64 32 49 64 (6422528)
I0627 12:48:26.064955  4639 net.cpp:156] Memory required for data: 475267840
I0627 12:48:26.064959  4639 layer_factory.hpp:77] Creating layer conv2_1
I0627 12:48:26.064968  4639 net.cpp:91] Creating Layer conv2_1
I0627 12:48:26.064971  4639 net.cpp:425] conv2_1 <- pool1
I0627 12:48:26.064976  4639 net.cpp:399] conv2_1 -> conv2_1
I0627 12:48:26.066074  4639 net.cpp:141] Setting up conv2_1
I0627 12:48:26.066087  4639 net.cpp:148] Top shape: 64 64 49 64 (12845056)
I0627 12:48:26.066090  4639 net.cpp:156] Memory required for data: 526648064
I0627 12:48:26.066095  4639 layer_factory.hpp:77] Creating layer bn2_1
I0627 12:48:26.066104  4639 net.cpp:91] Creating Layer bn2_1
I0627 12:48:26.066107  4639 net.cpp:425] bn2_1 <- conv2_1
I0627 12:48:26.066112  4639 net.cpp:386] bn2_1 -> conv2_1 (in-place)
I0627 12:48:26.066298  4639 net.cpp:141] Setting up bn2_1
I0627 12:48:26.066305  4639 net.cpp:148] Top shape: 64 64 49 64 (12845056)
I0627 12:48:26.066308  4639 net.cpp:156] Memory required for data: 578028288
I0627 12:48:26.066318  4639 layer_factory.hpp:77] Creating layer scale2_1
I0627 12:48:26.066324  4639 net.cpp:91] Creating Layer scale2_1
I0627 12:48:26.066328  4639 net.cpp:425] scale2_1 <- conv2_1
I0627 12:48:26.066331  4639 net.cpp:386] scale2_1 -> conv2_1 (in-place)
I0627 12:48:26.066368  4639 layer_factory.hpp:77] Creating layer scale2_1
I0627 12:48:26.066475  4639 net.cpp:141] Setting up scale2_1
I0627 12:48:26.066483  4639 net.cpp:148] Top shape: 64 64 49 64 (12845056)
I0627 12:48:26.066486  4639 net.cpp:156] Memory required for data: 629408512
I0627 12:48:26.066490  4639 layer_factory.hpp:77] Creating layer relu2_1
I0627 12:48:26.066495  4639 net.cpp:91] Creating Layer relu2_1
I0627 12:48:26.066498  4639 net.cpp:425] relu2_1 <- conv2_1
I0627 12:48:26.066504  4639 net.cpp:386] relu2_1 -> conv2_1 (in-place)
I0627 12:48:26.066660  4639 net.cpp:141] Setting up relu2_1
I0627 12:48:26.066669  4639 net.cpp:148] Top shape: 64 64 49 64 (12845056)
I0627 12:48:26.066673  4639 net.cpp:156] Memory required for data: 680788736
I0627 12:48:26.066675  4639 layer_factory.hpp:77] Creating layer pool2
I0627 12:48:26.066682  4639 net.cpp:91] Creating Layer pool2
I0627 12:48:26.066685  4639 net.cpp:425] pool2 <- conv2_1
I0627 12:48:26.066690  4639 net.cpp:399] pool2 -> pool2
I0627 12:48:26.066730  4639 net.cpp:141] Setting up pool2
I0627 12:48:26.066747  4639 net.cpp:148] Top shape: 64 64 25 32 (3276800)
I0627 12:48:26.066751  4639 net.cpp:156] Memory required for data: 693895936
I0627 12:48:26.066752  4639 layer_factory.hpp:77] Creating layer conv3_1
I0627 12:48:26.066761  4639 net.cpp:91] Creating Layer conv3_1
I0627 12:48:26.066764  4639 net.cpp:425] conv3_1 <- pool2
I0627 12:48:26.066771  4639 net.cpp:399] conv3_1 -> conv3_1
I0627 12:48:26.068233  4639 net.cpp:141] Setting up conv3_1
I0627 12:48:26.068248  4639 net.cpp:148] Top shape: 64 128 25 32 (6553600)
I0627 12:48:26.068251  4639 net.cpp:156] Memory required for data: 720110336
I0627 12:48:26.068256  4639 layer_factory.hpp:77] Creating layer bn3_1
I0627 12:48:26.068262  4639 net.cpp:91] Creating Layer bn3_1
I0627 12:48:26.068265  4639 net.cpp:425] bn3_1 <- conv3_1
I0627 12:48:26.068271  4639 net.cpp:386] bn3_1 -> conv3_1 (in-place)
I0627 12:48:26.068436  4639 net.cpp:141] Setting up bn3_1
I0627 12:48:26.068444  4639 net.cpp:148] Top shape: 64 128 25 32 (6553600)
I0627 12:48:26.068446  4639 net.cpp:156] Memory required for data: 746324736
I0627 12:48:26.068452  4639 layer_factory.hpp:77] Creating layer scale3_1
I0627 12:48:26.068459  4639 net.cpp:91] Creating Layer scale3_1
I0627 12:48:26.068462  4639 net.cpp:425] scale3_1 <- conv3_1
I0627 12:48:26.068466  4639 net.cpp:386] scale3_1 -> conv3_1 (in-place)
I0627 12:48:26.068501  4639 layer_factory.hpp:77] Creating layer scale3_1
I0627 12:48:26.068600  4639 net.cpp:141] Setting up scale3_1
I0627 12:48:26.068608  4639 net.cpp:148] Top shape: 64 128 25 32 (6553600)
I0627 12:48:26.068609  4639 net.cpp:156] Memory required for data: 772539136
I0627 12:48:26.068617  4639 layer_factory.hpp:77] Creating layer relu3_1
I0627 12:48:26.068624  4639 net.cpp:91] Creating Layer relu3_1
I0627 12:48:26.068626  4639 net.cpp:425] relu3_1 <- conv3_1
I0627 12:48:26.068630  4639 net.cpp:386] relu3_1 -> conv3_1 (in-place)
I0627 12:48:26.068789  4639 net.cpp:141] Setting up relu3_1
I0627 12:48:26.068799  4639 net.cpp:148] Top shape: 64 128 25 32 (6553600)
I0627 12:48:26.068801  4639 net.cpp:156] Memory required for data: 798753536
I0627 12:48:26.068804  4639 layer_factory.hpp:77] Creating layer pool3
I0627 12:48:26.068814  4639 net.cpp:91] Creating Layer pool3
I0627 12:48:26.068816  4639 net.cpp:425] pool3 <- conv3_1
I0627 12:48:26.068821  4639 net.cpp:399] pool3 -> pool3
I0627 12:48:26.068861  4639 net.cpp:141] Setting up pool3
I0627 12:48:26.068867  4639 net.cpp:148] Top shape: 64 128 13 16 (1703936)
I0627 12:48:26.068869  4639 net.cpp:156] Memory required for data: 805569280
I0627 12:48:26.068872  4639 layer_factory.hpp:77] Creating layer conv4_1
I0627 12:48:26.068881  4639 net.cpp:91] Creating Layer conv4_1
I0627 12:48:26.068883  4639 net.cpp:425] conv4_1 <- pool3
I0627 12:48:26.068888  4639 net.cpp:399] conv4_1 -> conv4_1
I0627 12:48:26.073073  4639 net.cpp:141] Setting up conv4_1
I0627 12:48:26.073089  4639 net.cpp:148] Top shape: 64 256 13 16 (3407872)
I0627 12:48:26.073093  4639 net.cpp:156] Memory required for data: 819200768
I0627 12:48:26.073098  4639 layer_factory.hpp:77] Creating layer bn4_1
I0627 12:48:26.073112  4639 net.cpp:91] Creating Layer bn4_1
I0627 12:48:26.073114  4639 net.cpp:425] bn4_1 <- conv4_1
I0627 12:48:26.073120  4639 net.cpp:386] bn4_1 -> conv4_1 (in-place)
I0627 12:48:26.073297  4639 net.cpp:141] Setting up bn4_1
I0627 12:48:26.073304  4639 net.cpp:148] Top shape: 64 256 13 16 (3407872)
I0627 12:48:26.073307  4639 net.cpp:156] Memory required for data: 832832256
I0627 12:48:26.073313  4639 layer_factory.hpp:77] Creating layer scale4_1
I0627 12:48:26.073320  4639 net.cpp:91] Creating Layer scale4_1
I0627 12:48:26.073323  4639 net.cpp:425] scale4_1 <- conv4_1
I0627 12:48:26.073328  4639 net.cpp:386] scale4_1 -> conv4_1 (in-place)
I0627 12:48:26.073362  4639 layer_factory.hpp:77] Creating layer scale4_1
I0627 12:48:26.073457  4639 net.cpp:141] Setting up scale4_1
I0627 12:48:26.073463  4639 net.cpp:148] Top shape: 64 256 13 16 (3407872)
I0627 12:48:26.073465  4639 net.cpp:156] Memory required for data: 846463744
I0627 12:48:26.073484  4639 layer_factory.hpp:77] Creating layer relu4_1
I0627 12:48:26.073492  4639 net.cpp:91] Creating Layer relu4_1
I0627 12:48:26.073494  4639 net.cpp:425] relu4_1 <- conv4_1
I0627 12:48:26.073498  4639 net.cpp:386] relu4_1 -> conv4_1 (in-place)
I0627 12:48:26.073659  4639 net.cpp:141] Setting up relu4_1
I0627 12:48:26.073668  4639 net.cpp:148] Top shape: 64 256 13 16 (3407872)
I0627 12:48:26.073671  4639 net.cpp:156] Memory required for data: 860095232
I0627 12:48:26.073674  4639 layer_factory.hpp:77] Creating layer pool4
I0627 12:48:26.073681  4639 net.cpp:91] Creating Layer pool4
I0627 12:48:26.073684  4639 net.cpp:425] pool4 <- conv4_1
I0627 12:48:26.073689  4639 net.cpp:399] pool4 -> pool4
I0627 12:48:26.073729  4639 net.cpp:141] Setting up pool4
I0627 12:48:26.073734  4639 net.cpp:148] Top shape: 64 256 7 8 (917504)
I0627 12:48:26.073737  4639 net.cpp:156] Memory required for data: 863765248
I0627 12:48:26.073740  4639 layer_factory.hpp:77] Creating layer conv5_1
I0627 12:48:26.073747  4639 net.cpp:91] Creating Layer conv5_1
I0627 12:48:26.073750  4639 net.cpp:425] conv5_1 <- pool4
I0627 12:48:26.073756  4639 net.cpp:399] conv5_1 -> conv5_1
I0627 12:48:26.080076  4639 net.cpp:141] Setting up conv5_1
I0627 12:48:26.080093  4639 net.cpp:148] Top shape: 64 256 7 8 (917504)
I0627 12:48:26.080096  4639 net.cpp:156] Memory required for data: 867435264
I0627 12:48:26.080101  4639 layer_factory.hpp:77] Creating layer bn5_1
I0627 12:48:26.080109  4639 net.cpp:91] Creating Layer bn5_1
I0627 12:48:26.080112  4639 net.cpp:425] bn5_1 <- conv5_1
I0627 12:48:26.080118  4639 net.cpp:386] bn5_1 -> conv5_1 (in-place)
I0627 12:48:26.080299  4639 net.cpp:141] Setting up bn5_1
I0627 12:48:26.080307  4639 net.cpp:148] Top shape: 64 256 7 8 (917504)
I0627 12:48:26.080309  4639 net.cpp:156] Memory required for data: 871105280
I0627 12:48:26.080315  4639 layer_factory.hpp:77] Creating layer scale5_1
I0627 12:48:26.080322  4639 net.cpp:91] Creating Layer scale5_1
I0627 12:48:26.080324  4639 net.cpp:425] scale5_1 <- conv5_1
I0627 12:48:26.080329  4639 net.cpp:386] scale5_1 -> conv5_1 (in-place)
I0627 12:48:26.080364  4639 layer_factory.hpp:77] Creating layer scale5_1
I0627 12:48:26.080461  4639 net.cpp:141] Setting up scale5_1
I0627 12:48:26.080469  4639 net.cpp:148] Top shape: 64 256 7 8 (917504)
I0627 12:48:26.080472  4639 net.cpp:156] Memory required for data: 874775296
I0627 12:48:26.080477  4639 layer_factory.hpp:77] Creating layer relu5_1
I0627 12:48:26.080482  4639 net.cpp:91] Creating Layer relu5_1
I0627 12:48:26.080484  4639 net.cpp:425] relu5_1 <- conv5_1
I0627 12:48:26.080488  4639 net.cpp:386] relu5_1 -> conv5_1 (in-place)
I0627 12:48:26.080647  4639 net.cpp:141] Setting up relu5_1
I0627 12:48:26.080657  4639 net.cpp:148] Top shape: 64 256 7 8 (917504)
I0627 12:48:26.080658  4639 net.cpp:156] Memory required for data: 878445312
I0627 12:48:26.080662  4639 layer_factory.hpp:77] Creating layer pool5
I0627 12:48:26.080667  4639 net.cpp:91] Creating Layer pool5
I0627 12:48:26.080670  4639 net.cpp:425] pool5 <- conv5_1
I0627 12:48:26.080675  4639 net.cpp:399] pool5 -> pool5
I0627 12:48:26.081156  4639 net.cpp:141] Setting up pool5
I0627 12:48:26.081168  4639 net.cpp:148] Top shape: 64 256 2 1 (32768)
I0627 12:48:26.081171  4639 net.cpp:156] Memory required for data: 878576384
I0627 12:48:26.081174  4639 layer_factory.hpp:77] Creating layer fc2
I0627 12:48:26.081182  4639 net.cpp:91] Creating Layer fc2
I0627 12:48:26.081185  4639 net.cpp:425] fc2 <- pool5
I0627 12:48:26.081189  4639 net.cpp:399] fc2 -> fc2
I0627 12:48:26.081292  4639 net.cpp:141] Setting up fc2
I0627 12:48:26.081300  4639 net.cpp:148] Top shape: 64 2 (128)
I0627 12:48:26.081302  4639 net.cpp:156] Memory required for data: 878576896
I0627 12:48:26.081307  4639 layer_factory.hpp:77] Creating layer fc2_fc2_0_split
I0627 12:48:26.081313  4639 net.cpp:91] Creating Layer fc2_fc2_0_split
I0627 12:48:26.081316  4639 net.cpp:425] fc2_fc2_0_split <- fc2
I0627 12:48:26.081321  4639 net.cpp:399] fc2_fc2_0_split -> fc2_fc2_0_split_0
I0627 12:48:26.081326  4639 net.cpp:399] fc2_fc2_0_split -> fc2_fc2_0_split_1
I0627 12:48:26.081377  4639 net.cpp:141] Setting up fc2_fc2_0_split
I0627 12:48:26.081387  4639 net.cpp:148] Top shape: 64 2 (128)
I0627 12:48:26.081393  4639 net.cpp:148] Top shape: 64 2 (128)
I0627 12:48:26.081395  4639 net.cpp:156] Memory required for data: 878577920
I0627 12:48:26.081400  4639 layer_factory.hpp:77] Creating layer loss
I0627 12:48:26.081408  4639 net.cpp:91] Creating Layer loss
I0627 12:48:26.081413  4639 net.cpp:425] loss <- fc2_fc2_0_split_0
I0627 12:48:26.081420  4639 net.cpp:425] loss <- label_data_1_split_0
I0627 12:48:26.081426  4639 net.cpp:399] loss -> loss
…
