…
I0623 21:15:04.898564  4601 net.cpp:313] The NetState phase (0) differed from the phase (1) specified by a rule in layer data
I0623 21:15:04.898973  4601 net.cpp:49] Initializing net from parameters: 
name: "segnet"
state {
  phase: TRAIN
}
layer {
  name: "data"
  type: "DenseImageData"
  top: "data"
  top: "label"
  include {
    phase: TRAIN
  }
  transform_param {
    crop_size: 224
    mean_value: 100
  }
  dense_image_data_param {
    source: "data/train.txt"
    batch_size: 32
    shuffle: true
    new_height: 224
    new_width: 310
    is_color: false
    root_folder: "data/raw/train/"
  }
}
layer {
  name: "conv1_1"
  type: "Convolution"
  bottom: "data"
  top: "conv1_1"
  param {
    lr_mult: 1
    decay_mult: 1
  }
  convolution_param {
    num_output: 32
    bias_term: false
    pad: 1
    kernel_size: 3
    weight_filler {
      type: "xavier"
    }
  }
}
layer {
  name: "bn1_1"
  type: "BatchNorm"
  bottom: "conv1_1"
  top: "conv1_1"
  param {
    lr_mult: 0
  }
  param {
    lr_mult: 0
  }
  param {
    lr_mult: 0
  }
  batch_norm_param {
    use_global_stats: false
  }
}
layer {
  name: "scale1_1"
  type: "Scale"
  bottom: "conv1_1"
  top: "conv1_1"
  param {
    lr_mult: 1
    decay_mult: 1
  }
  param {
    lr_mult: 1
    decay_mult: 1
  }
  scale_param {
    bias_term: true
    bias_filler {
      type: "constant"
      value: 0
    }
  }
}
layer {
  name: "relu1_1"
  type: "ReLU"
  bottom: "conv1_1"
  top: "conv1_1"
}
layer {
  name: "conv1_2"
  type: "Convolution"
  bottom: "conv1_1"
  top: "conv1_2"
  param {
    lr_mult: 1
    decay_mult: 1
  }
  convolution_param {
    num_output: 32
    bias_term: false
    pad: 1
    kernel_size: 3
    weight_filler {
      type: "xavier"
    }
  }
}
layer {
  name: "bn1_2"
  type: "BatchNorm"
  bottom: "conv1_2"
  top: "conv1_2"
  param {
    lr_mult: 0
  }
  param {
    lr_mult: 0
  }
  param {
    lr_mult: 0
  }
  batch_norm_param {
    use_global_stats: false
  }
}
layer {
  name: "scale1_2"
  type: "Scale"
  bottom: "conv1_2"
  top: "conv1_2"
  param {
    lr_mult: 1
    decay_mult: 1
  }
  param {
    lr_mult: 1
    decay_mult: 1
  }
  scale_param {
    bias_term: true
    bias_filler {
      type: "constant"
      value: 0
    }
  }
}
layer {
  name: "relu1_2"
  type: "ReLU"
  bottom: "conv1_2"
  top: "conv1_2"
}
layer {
  name: "pool1"
  type: "Pooling"
  bottom: "conv1_2"
  top: "pool1"
  top: "pool1_mask"
  pooling_param {
    pool: MAX
    kernel_size: 2
    stride: 2
  }
}
layer {
  name: "conv2_1"
  type: "Convolution"
  bottom: "pool1"
  top: "conv2_1"
  param {
    lr_mult: 1
    decay_mult: 1
  }
  convolution_param {
    num_output: 32
    bias_term: false
    pad: 1
    kernel_size: 3
    weight_filler {
      type: "xavier"
    }
  }
}
layer {
  name: "bn2_1"
  type: "BatchNorm"
  bottom: "conv2_1"
  top: "conv2_1"
  param {
    lr_mult: 0
  }
  param {
    lr_mult: 0
  }
  param {
    lr_mult: 0
  }
  batch_norm_param {
    use_global_stats: false
  }
}
layer {
  name: "scale2_1"
  type: "Scale"
  bottom: "conv2_1"
  top: "conv2_1"
  param {
    lr_mult: 1
    decay_mult: 1
  }
  param {
    lr_mult: 1
    decay_mult: 1
  }
  scale_param {
    bias_term: true
    bias_filler {
      type: "constant"
      value: 0
    }
  }
}
layer {
  name: "relu2_1"
  type: "ReLU"
  bottom: "conv2_1"
  top: "conv2_1"
}
layer {
  name: "conv2_2"
  type: "Convolution"
  bottom: "conv2_1"
  top: "conv2_2"
  param {
    lr_mult: 1
    decay_mult: 1
  }
  convolution_param {
    num_output: 32
    bias_term: false
    pad: 1
    kernel_size: 3
    weight_filler {
      type: "xavier"
    }
  }
}
layer {
  name: "bn2_2"
  type: "BatchNorm"
  bottom: "conv2_2"
  top: "conv2_2"
  param {
    lr_mult: 0
  }
  param {
    lr_mult: 0
  }
  param {
    lr_mult: 0
  }
  batch_norm_param {
    use_global_stats: false
  }
}
layer {
  name: "scale2_2"
  type: "Scale"
  bottom: "conv2_2"
  top: "conv2_2"
  param {
    lr_mult: 1
    decay_mult: 1
  }
  param {
    lr_mult: 1
    decay_mult: 1
  }
  scale_param {
    bias_term: true
    bias_filler {
      type: "constant"
      value: 0
    }
  }
}
layer {
  name: "relu2_2"
  type: "ReLU"
  bottom: "conv2_2"
  top: "conv2_2"
}
layer {
  name: "pool2"
  type: "Pooling"
  bottom: "conv2_2"
  top: "pool2"
  top: "pool2_mask"
  pooling_param {
    pool: MAX
    kernel_size: 2
    stride: 2
  }
}
layer {
  name: "conv3_1"
  type: "Convolution"
  bottom: "pool2"
  top: "conv3_1"
  param {
    lr_mult: 1
    decay_mult: 1
  }
  convolution_param {
    num_output: 32
    bias_term: false
    pad: 1
    kernel_size: 3
    weight_filler {
      type: "xavier"
    }
  }
}
layer {
  name: "bn3_1"
  type: "BatchNorm"
  bottom: "conv3_1"
  top: "conv3_1"
  param {
    lr_mult: 0
  }
  param {
    lr_mult: 0
  }
  param {
    lr_mult: 0
  }
  batch_norm_param {
    use_global_stats: false
  }
}
layer {
  name: "scale3_1"
  type: "Scale"
  bottom: "conv3_1"
  top: "conv3_1"
  param {
    lr_mult: 1
    decay_mult: 1
  }
  param {
    lr_mult: 1
    decay_mult: 1
  }
  scale_param {
    bias_term: true
    bias_filler {
      type: "constant"
      value: 0
    }
  }
}
layer {
  name: "relu3_1"
  type: "ReLU"
  bottom: "conv3_1"
  top: "conv3_1"
}
layer {
  name: "conv3_2"
  type: "Convolution"
  bottom: "conv3_1"
  top: "conv3_2"
  param {
    lr_mult: 1
    decay_mult: 1
  }
  convolution_param {
    num_output: 32
    bias_term: false
    pad: 1
    kernel_size: 3
    weight_filler {
      type: "xavier"
    }
  }
}
layer {
  name: "bn3_2"
  type: "BatchNorm"
  bottom: "conv3_2"
  top: "conv3_2"
  param {
    lr_mult: 0
  }
  param {
    lr_mult: 0
  }
  param {
    lr_mult: 0
  }
  batch_norm_param {
    use_global_stats: false
  }
}
layer {
  name: "scale3_2"
  type: "Scale"
  bottom: "conv3_2"
  top: "conv3_2"
  param {
    lr_mult: 1
    decay_mult: 1
  }
  param {
    lr_mult: 1
    decay_mult: 1
  }
  scale_param {
    bias_term: true
    bias_filler {
      type: "constant"
      value: 0
    }
  }
}
layer {
  name: "relu3_2"
  type: "ReLU"
  bottom: "conv3_2"
  top: "conv3_2"
}
layer {
  name: "pool3"
  type: "Pooling"
  bottom: "conv3_2"
  top: "pool3"
  top: "pool3_mask"
  pooling_param {
    pool: MAX
    kernel_size: 2
    stride: 2
  }
}
layer {
  name: "conv4_1"
  type: "Convolution"
  bottom: "pool3"
  top: "conv4_1"
  param {
    lr_mult: 1
    decay_mult: 1
  }
  convolution_param {
    num_output: 32
    bias_term: false
    pad: 1
    kernel_size: 3
    weight_filler {
      type: "xavier"
    }
  }
}
layer {
  name: "bn4_1"
  type: "BatchNorm"
  bottom: "conv4_1"
  top: "conv4_1"
  param {
    lr_mult: 0
  }
  param {
    lr_mult: 0
  }
  param {
    lr_mult: 0
  }
  batch_norm_param {
    use_global_stats: false
  }
}
layer {
  name: "scale4_1"
  type: "Scale"
  bottom: "conv4_1"
  top: "conv4_1"
  param {
    lr_mult: 1
    decay_mult: 1
  }
  param {
    lr_mult: 1
    decay_mult: 1
  }
  scale_param {
    bias_term: true
    bias_filler {
      type: "constant"
      value: 0
    }
  }
}
layer {
  name: "relu4_1"
  type: "ReLU"
  bottom: "conv4_1"
  top: "conv4_1"
}
layer {
  name: "conv4_2"
  type: "Convolution"
  bottom: "conv4_1"
  top: "conv4_2"
  param {
    lr_mult: 1
    decay_mult: 1
  }
  convolution_param {
    num_output: 32
    bias_term: false
    pad: 1
    kernel_size: 3
    weight_filler {
      type: "xavier"
    }
  }
}
layer {
  name: "bn4_2"
  type: "BatchNorm"
  bottom: "conv4_2"
  top: "conv4_2"
  param {
    lr_mult: 0
  }
  param {
    lr_mult: 0
  }
  param {
    lr_mult: 0
  }
  batch_norm_param {
    use_global_stats: false
  }
}
layer {
  name: "scale4_2"
  type: "Scale"
  bottom: "conv4_2"
  top: "conv4_2"
  param {
    lr_mult: 1
    decay_mult: 1
  }
  param {
    lr_mult: 1
    decay_mult: 1
  }
  scale_param {
    bias_term: true
    bias_filler {
      type: "constant"
      value: 0
    }
  }
}
layer {
  name: "relu4_2"
  type: "ReLU"
  bottom: "conv4_2"
  top: "conv4_2"
}
layer {
  name: "pool4"
  type: "Pooling"
  bottom: "conv4_2"
  top: "pool4"
  top: "pool4_mask"
  pooling_param {
    pool: MAX
    kernel_size: 2
    stride: 2
  }
}
layer {
  name: "conv5_1"
  type: "Convolution"
  bottom: "pool4"
  top: "conv5_1"
  param {
    lr_mult: 1
    decay_mult: 1
  }
  convolution_param {
    num_output: 32
    bias_term: false
    pad: 1
    kernel_size: 3
    weight_filler {
      type: "xavier"
    }
  }
}
layer {
  name: "bn5_1"
  type: "BatchNorm"
  bottom: "conv5_1"
  top: "conv5_1"
  param {
    lr_mult: 0
  }
  param {
    lr_mult: 0
  }
  param {
    lr_mult: 0
  }
  batch_norm_param {
    use_global_stats: false
  }
}
layer {
  name: "scale5_1"
  type: "Scale"
  bottom: "conv5_1"
  top: "conv5_1"
  param {
    lr_mult: 1
    decay_mult: 1
  }
  param {
    lr_mult: 1
    decay_mult: 1
  }
  scale_param {
    bias_term: true
    bias_filler {
      type: "constant"
      value: 0
    }
  }
}
layer {
  name: "relu5_1"
  type: "ReLU"
  bottom: "conv5_1"
  top: "conv5_1"
}
layer {
  name: "conv5_2"
  type: "Convolution"
  bottom: "conv5_1"
  top: "conv5_2"
  param {
    lr_mult: 1
    decay_mult: 1
  }
  convolution_param {
    num_output: 32
    bias_term: false
    pad: 1
    kernel_size: 3
    weight_filler {
      type: "xavier"
    }
  }
}
layer {
  name: "bn5_2"
  type: "BatchNorm"
  bottom: "conv5_2"
  top: "conv5_2"
  param {
    lr_mult: 0
  }
  param {
    lr_mult: 0
  }
  param {
    lr_mult: 0
  }
  batch_norm_param {
    use_global_stats: false
  }
}
layer {
  name: "scale5_2"
  type: "Scale"
  bottom: "conv5_2"
  top: "conv5_2"
  param {
    lr_mult: 1
    decay_mult: 1
  }
  param {
    lr_mult: 1
    decay_mult: 1
  }
  scale_param {
    bias_term: true
    bias_filler {
      type: "constant"
      value: 0
    }
  }
}
layer {
  name: "relu5_2"
  type: "ReLU"
  bottom: "conv5_2"
  top: "conv5_2"
}
layer {
  name: "pool5"
  type: "Pooling"
  bottom: "conv5_2"
  top: "pool5"
  top: "pool5_mask"
  pooling_param {
    pool: MAX
    kernel_size: 2
    stride: 2
  }
}
layer {
  name: "upsample5"
  type: "Upsample"
  bottom: "pool5"
  bottom: "pool5_mask"
  top: "pool5_D"
  upsample_param {
    scale: 2
    upsample_h: 14
    upsample_w: 14
  }
}
layer {
  name: "conv5_2_D"
  type: "Convolution"
  bottom: "pool5_D"
  top: "conv5_2_D"
  param {
    lr_mult: 1
    decay_mult: 1
  }
  convolution_param {
    num_output: 32
    bias_term: false
    pad: 1
    kernel_size: 3
    weight_filler {
      type: "xavier"
    }
  }
}
layer {
  name: "bn5_2_D"
  type: "BatchNorm"
  bottom: "conv5_2_D"
  top: "conv5_2_D"
  param {
    lr_mult: 0
  }
  param {
    lr_mult: 0
  }
  param {
    lr_mult: 0
  }
  batch_norm_param {
    use_global_stats: false
  }
}
layer {
  name: "scale5_2_D"
  type: "Scale"
  bottom: "conv5_2_D"
  top: "conv5_2_D"
  param {
    lr_mult: 1
    decay_mult: 1
  }
  param {
    lr_mult: 1
    decay_mult: 1
  }
  scale_param {
    bias_term: true
    bias_filler {
      type: "constant"
      value: 0
    }
  }
}
layer {
  name: "relu5_2_D"
  type: "ReLU"
  bottom: "conv5_2_D"
  top: "conv5_2_D"
}
layer {
  name: "conv5_1_D"
  type: "Convolution"
  bottom: "conv5_2_D"
  top: "conv5_1_D"
  param {
    lr_mult: 1
    decay_mult: 1
  }
  convolution_param {
    num_output: 32
    bias_term: false
    pad: 1
    kernel_size: 3
    weight_filler {
      type: "xavier"
    }
  }
}
layer {
  name: "bn5_1_D"
  type: "BatchNorm"
  bottom: "conv5_1_D"
  top: "conv5_1_D"
  param {
    lr_mult: 0
  }
  param {
    lr_mult: 0
  }
  param {
    lr_mult: 0
  }
  batch_norm_param {
    use_global_stats: false
  }
}
layer {
  name: "scale5_1_D"
  type: "Scale"
  bottom: "conv5_1_D"
  top: "conv5_1_D"
  param {
    lr_mult: 1
    decay_mult: 1
  }
  param {
    lr_mult: 1
    decay_mult: 1
  }
  scale_param {
    bias_term: true
    bias_filler {
      type: "constant"
      value: 0
    }
  }
}
layer {
  name: "relu5_1_D"
  type: "ReLU"
  bottom: "conv5_1_D"
  top: "conv5_1_D"
}
layer {
  name: "upsample4"
  type: "Upsample"
  bottom: "conv5_1_D"
  bottom: "pool4_mask"
  top: "pool4_D"
  upsample_param {
    scale: 2
    upsample_h: 28
    upsample_w: 28
  }
}
layer {
  name: "conv4_2_D"
  type: "Convolution"
  bottom: "pool4_D"
  top: "conv4_2_D"
  param {
    lr_mult: 1
    decay_mult: 1
  }
  convolution_param {
    num_output: 32
    bias_term: false
    pad: 1
    kernel_size: 3
    weight_filler {
      type: "xavier"
    }
  }
}
layer {
  name: "bn4_2_D"
  type: "BatchNorm"
  bottom: "conv4_2_D"
  top: "conv4_2_D"
  param {
    lr_mult: 0
  }
  param {
    lr_mult: 0
  }
  param {
    lr_mult: 0
  }
  batch_norm_param {
    use_global_stats: false
  }
}
layer {
  name: "scale4_2_D"
  type: "Scale"
  bottom: "conv4_2_D"
  top: "conv4_2_D"
  param {
    lr_mult: 1
    decay_mult: 1
  }
  param {
    lr_mult: 1
    decay_mult: 1
  }
  scale_param {
    bias_term: true
    bias_filler {
      type: "constant"
      value: 0
    }
  }
}
layer {
  name: "relu4_2_D"
  type: "ReLU"
  bottom: "conv4_2_D"
  top: "conv4_2_D"
}
layer {
  name: "conv4_1_D"
  type: "Convolution"
  bottom: "conv4_2_D"
  top: "conv4_1_D"
  param {
    lr_mult: 1
    decay_mult: 1
  }
  convolution_param {
    num_output: 32
    bias_term: false
    pad: 1
    kernel_size: 3
    weight_filler {
      type: "xavier"
    }
  }
}
layer {
  name: "bn4_1_D"
  type: "BatchNorm"
  bottom: "conv4_1_D"
  top: "conv4_1_D"
  param {
    lr_mult: 0
  }
  param {
    lr_mult: 0
  }
  param {
    lr_mult: 0
  }
  batch_norm_param {
    use_global_stats: false
  }
}
layer {
  name: "scale4_1_D"
  type: "Scale"
  bottom: "conv4_1_D"
  top: "conv4_1_D"
  param {
    lr_mult: 1
    decay_mult: 1
  }
  param {
    lr_mult: 1
    decay_mult: 1
  }
  scale_param {
    bias_term: true
    bias_filler {
      type: "constant"
      value: 0
    }
  }
}
layer {
  name: "relu4_1_D"
  type: "ReLU"
  bottom: "conv4_1_D"
  top: "conv4_1_D"
}
layer {
  name: "upsample3"
  type: "Upsample"
  bottom: "conv4_1_D"
  bottom: "pool3_mask"
  top: "pool3_D"
  upsample_param {
    scale: 2
    upsample_h: 56
    upsample_w: 56
  }
}
layer {
  name: "conv3_2_D"
  type: "Convolution"
  bottom: "pool3_D"
  top: "conv3_2_D"
  param {
    lr_mult: 1
    decay_mult: 1
  }
  param {
    lr_mult: 1
    decay_mult: 1
  }
  convolution_param {
    num_output: 32
    pad: 1
    kernel_size: 3
    weight_filler {
      type: "xavier"
    }
    bias_filler {
      type: "constant"
      value: 0
    }
  }
}
layer {
  name: "bn3_2_D"
  type: "BatchNorm"
  bottom: "conv3_2_D"
  top: "conv3_2_D"
  param {
    lr_mult: 0
  }
  param {
    lr_mult: 0
  }
  param {
    lr_mult: 0
  }
  batch_norm_param {
    use_global_stats: false
  }
}
layer {
  name: "scale3_2_D"
  type: "Scale"
  bottom: "conv3_2_D"
  top: "conv3_2_D"
  param {
    lr_mult: 1
    decay_mult: 1
  }
  param {
    lr_mult: 1
    decay_mult: 1
  }
  scale_param {
    bias_term: true
    bias_filler {
      type: "constant"
      value: 0
    }
  }
}
layer {
  name: "relu3_2_D"
  type: "ReLU"
  bottom: "conv3_2_D"
  top: "conv3_2_D"
}
layer {
  name: "conv3_1_D"
  type: "Convolution"
  bottom: "conv3_2_D"
  top: "conv3_1_D"
  param {
    lr_mult: 1
    decay_mult: 1
  }
  convolution_param {
    num_output: 32
    bias_term: false
    pad: 1
    kernel_size: 3
    weight_filler {
      type: "xavier"
    }
  }
}
layer {
  name: "bn3_1_D"
  type: "BatchNorm"
  bottom: "conv3_1_D"
  top: "conv3_1_D"
  param {
    lr_mult: 0
  }
  param {
    lr_mult: 0
  }
  param {
    lr_mult: 0
  }
  batch_norm_param {
    use_global_stats: false
  }
}
layer {
  name: "scale3_1_D"
  type: "Scale"
  bottom: "conv3_1_D"
  top: "conv3_1_D"
  param {
    lr_mult: 1
    decay_mult: 1
  }
  param {
    lr_mult: 1
    decay_mult: 1
  }
  scale_param {
    bias_term: true
    bias_filler {
      type: "constant"
      value: 0
    }
  }
}
layer {
  name: "relu3_1_D"
  type: "ReLU"
  bottom: "conv3_1_D"
  top: "conv3_1_D"
}
layer {
  name: "upsample2"
  type: "Upsample"
  bottom: "conv3_1_D"
  bottom: "pool2_mask"
  top: "pool2_D"
  upsample_param {
    scale: 2
    upsample_h: 112
    upsample_w: 112
  }
}
layer {
  name: "conv2_2_D"
  type: "Convolution"
  bottom: "pool2_D"
  top: "conv2_2_D"
  param {
    lr_mult: 1
    decay_mult: 1
  }
  convolution_param {
    num_output: 32
    bias_term: false
    pad: 1
    kernel_size: 3
    weight_filler {
      type: "xavier"
    }
  }
}
layer {
  name: "bn2_2_D"
  type: "BatchNorm"
  bottom: "conv2_2_D"
  top: "conv2_2_D"
  param {
    lr_mult: 0
  }
  param {
    lr_mult: 0
  }
  param {
    lr_mult: 0
  }
  batch_norm_param {
    use_global_stats: false
  }
}
layer {
  name: "scale2_2_D"
  type: "Scale"
  bottom: "conv2_2_D"
  top: "conv2_2_D"
  param {
    lr_mult: 1
    decay_mult: 1
  }
  param {
    lr_mult: 1
    decay_mult: 1
  }
  scale_param {
    bias_term: true
    bias_filler {
      type: "constant"
      value: 0
    }
  }
}
layer {
  name: "relu2_2_D"
  type: "ReLU"
  bottom: "conv2_2_D"
  top: "conv2_2_D"
}
layer {
  name: "conv2_1_D"
  type: "Convolution"
  bottom: "conv2_2_D"
  top: "conv2_1_D"
  param {
    lr_mult: 1
    decay_mult: 1
  }
  convolution_param {
    num_output: 32
    bias_term: false
    pad: 1
    kernel_size: 3
    weight_filler {
      type: "xavier"
    }
  }
}
layer {
  name: "bn2_1_D"
  type: "BatchNorm"
  bottom: "conv2_1_D"
  top: "conv2_1_D"
  param {
    lr_mult: 0
  }
  param {
    lr_mult: 0
  }
  param {
    lr_mult: 0
  }
  batch_norm_param {
    use_global_stats: false
  }
}
layer {
  name: "scale2_1_D"
  type: "Scale"
  bottom: "conv2_1_D"
  top: "conv2_1_D"
  param {
    lr_mult: 1
    decay_mult: 1
  }
  param {
    lr_mult: 1
    decay_mult: 1
  }
  scale_param {
    bias_term: true
    bias_filler {
      type: "constant"
      value: 0
    }
  }
}
layer {
  name: "relu2_1_D"
  type: "ReLU"
  bottom: "conv2_1_D"
  top: "conv2_1_D"
}
layer {
  name: "upsample1"
  type: "Upsample"
  bottom: "conv2_1_D"
  bottom: "pool1_mask"
  top: "pool1_D"
  upsample_param {
    scale: 2
    upsample_h: 224
    upsample_w: 224
  }
}
layer {
  name: "conv1_2_D"
  type: "Convolution"
  bottom: "pool1_D"
  top: "conv1_2_D"
  param {
    lr_mult: 1
    decay_mult: 1
  }
  convolution_param {
    num_output: 32
    bias_term: false
    pad: 1
    kernel_size: 3
    weight_filler {
      type: "xavier"
    }
  }
}
layer {
  name: "bn1_2_D"
  type: "BatchNorm"
  bottom: "conv1_2_D"
  top: "conv1_2_D"
  param {
    lr_mult: 0
  }
  param {
    lr_mult: 0
  }
  param {
    lr_mult: 0
  }
  batch_norm_param {
    use_global_stats: false
  }
}
layer {
  name: "scale1_2_D"
  type: "Scale"
  bottom: "conv1_2_D"
  top: "conv1_2_D"
  param {
    lr_mult: 1
    decay_mult: 1
  }
  param {
    lr_mult: 1
    decay_mult: 1
  }
  scale_param {
    bias_term: true
    bias_filler {
      type: "constant"
      value: 0
    }
  }
}
layer {
  name: "relu1_2_D"
  type: "ReLU"
  bottom: "conv1_2_D"
  top: "conv1_2_D"
}
layer {
  name: "conv1_1_D"
  type: "Convolution"
  bottom: "conv1_2_D"
  top: "conv1_1_D"
  param {
    lr_mult: 1
    decay_mult: 1
  }
  param {
    lr_mult: 0.1
    decay_mult: 1
  }
  convolution_param {
    num_output: 2
    bias_term: true
    pad: 1
    kernel_size: 3
    weight_filler {
      type: "xavier"
    }
    bias_filler {
      type: "constant"
    }
  }
}
layer {
  name: "loss"
  type: "SoftmaxWithLoss"
  bottom: "conv1_1_D"
  bottom: "label"
  top: "loss"
}
layer {
  name: "accuracy"
  type: "Accuracy"
  bottom: "conv1_1_D"
  bottom: "label"
  top: "accuracy"
}
I0623 21:15:04.899255  4601 layer_factory.hpp:77] Creating layer data
I0623 21:15:04.899284  4601 net.cpp:91] Creating Layer data
I0623 21:15:04.899291  4601 net.cpp:399] data -> data
I0623 21:15:04.899310  4601 net.cpp:399] data -> label
I0623 21:15:04.899622  4601 dense_image_data_layer.cpp:38] Opening file data/train.txt
I0623 21:15:04.901846  4601 dense_image_data_layer.cpp:48] Shuffling data
I0623 21:15:04.902338  4601 dense_image_data_layer.cpp:53] A total of 4930 examples.
I0623 21:15:05.149922  4601 dense_image_data_layer.cpp:92] output data size: 1,1,224,224
I0623 21:15:05.151681  4601 net.cpp:141] Setting up data
I0623 21:15:05.151700  4601 net.cpp:148] Top shape: 1 1 224 224 (50176)
I0623 21:15:05.151705  4601 net.cpp:148] Top shape: 1 1 224 224 (50176)
I0623 21:15:05.151706  4601 net.cpp:156] Memory required for data: 401408
I0623 21:15:05.151713  4601 layer_factory.hpp:77] Creating layer label_data_1_split
I0623 21:15:05.151743  4601 net.cpp:91] Creating Layer label_data_1_split
I0623 21:15:05.151749  4601 net.cpp:425] label_data_1_split <- label
I0623 21:15:05.151757  4601 net.cpp:399] label_data_1_split -> label_data_1_split_0
I0623 21:15:05.151767  4601 net.cpp:399] label_data_1_split -> label_data_1_split_1
I0623 21:15:05.151805  4601 net.cpp:141] Setting up label_data_1_split
I0623 21:15:05.151811  4601 net.cpp:148] Top shape: 1 1 224 224 (50176)
I0623 21:15:05.151814  4601 net.cpp:148] Top shape: 1 1 224 224 (50176)
I0623 21:15:05.151816  4601 net.cpp:156] Memory required for data: 802816
I0623 21:15:05.151818  4601 layer_factory.hpp:77] Creating layer conv1_1
I0623 21:15:05.151832  4601 net.cpp:91] Creating Layer conv1_1
I0623 21:15:05.151834  4601 net.cpp:425] conv1_1 <- data
I0623 21:15:05.151839  4601 net.cpp:399] conv1_1 -> conv1_1
I0623 21:15:05.335919  4601 net.cpp:141] Setting up conv1_1
I0623 21:15:05.335945  4601 net.cpp:148] Top shape: 1 32 224 224 (1605632)
I0623 21:15:05.335948  4601 net.cpp:156] Memory required for data: 7225344
I0623 21:15:05.335960  4601 layer_factory.hpp:77] Creating layer bn1_1
I0623 21:15:05.335974  4601 net.cpp:91] Creating Layer bn1_1
I0623 21:15:05.335978  4601 net.cpp:425] bn1_1 <- conv1_1
I0623 21:15:05.335983  4601 net.cpp:386] bn1_1 -> conv1_1 (in-place)
I0623 21:15:05.336168  4601 net.cpp:141] Setting up bn1_1
I0623 21:15:05.336175  4601 net.cpp:148] Top shape: 1 32 224 224 (1605632)
I0623 21:15:05.336180  4601 net.cpp:156] Memory required for data: 13647872
I0623 21:15:05.336190  4601 layer_factory.hpp:77] Creating layer scale1_1
I0623 21:15:05.336199  4601 net.cpp:91] Creating Layer scale1_1
I0623 21:15:05.336201  4601 net.cpp:425] scale1_1 <- conv1_1
I0623 21:15:05.336205  4601 net.cpp:386] scale1_1 -> conv1_1 (in-place)
I0623 21:15:05.336238  4601 layer_factory.hpp:77] Creating layer scale1_1
I0623 21:15:05.336396  4601 net.cpp:141] Setting up scale1_1
I0623 21:15:05.336403  4601 net.cpp:148] Top shape: 1 32 224 224 (1605632)
I0623 21:15:05.336406  4601 net.cpp:156] Memory required for data: 20070400
I0623 21:15:05.336412  4601 layer_factory.hpp:77] Creating layer relu1_1
I0623 21:15:05.336418  4601 net.cpp:91] Creating Layer relu1_1
I0623 21:15:05.336421  4601 net.cpp:425] relu1_1 <- conv1_1
I0623 21:15:05.336424  4601 net.cpp:386] relu1_1 -> conv1_1 (in-place)
I0623 21:15:05.336689  4601 net.cpp:141] Setting up relu1_1
I0623 21:15:05.336700  4601 net.cpp:148] Top shape: 1 32 224 224 (1605632)
I0623 21:15:05.336704  4601 net.cpp:156] Memory required for data: 26492928
I0623 21:15:05.336706  4601 layer_factory.hpp:77] Creating layer conv1_2
I0623 21:15:05.336715  4601 net.cpp:91] Creating Layer conv1_2
I0623 21:15:05.336717  4601 net.cpp:425] conv1_2 <- conv1_1
I0623 21:15:05.336721  4601 net.cpp:399] conv1_2 -> conv1_2
I0623 21:15:05.338291  4601 net.cpp:141] Setting up conv1_2
I0623 21:15:05.338304  4601 net.cpp:148] Top shape: 1 32 224 224 (1605632)
I0623 21:15:05.338307  4601 net.cpp:156] Memory required for data: 32915456
I0623 21:15:05.338311  4601 layer_factory.hpp:77] Creating layer bn1_2
I0623 21:15:05.338318  4601 net.cpp:91] Creating Layer bn1_2
I0623 21:15:05.338321  4601 net.cpp:425] bn1_2 <- conv1_2
I0623 21:15:05.338325  4601 net.cpp:386] bn1_2 -> conv1_2 (in-place)
I0623 21:15:05.338508  4601 net.cpp:141] Setting up bn1_2
I0623 21:15:05.338516  4601 net.cpp:148] Top shape: 1 32 224 224 (1605632)
I0623 21:15:05.338518  4601 net.cpp:156] Memory required for data: 39337984
I0623 21:15:05.338526  4601 layer_factory.hpp:77] Creating layer scale1_2
I0623 21:15:05.338548  4601 net.cpp:91] Creating Layer scale1_2
I0623 21:15:05.338551  4601 net.cpp:425] scale1_2 <- conv1_2
I0623 21:15:05.338556  4601 net.cpp:386] scale1_2 -> conv1_2 (in-place)
I0623 21:15:05.338592  4601 layer_factory.hpp:77] Creating layer scale1_2
I0623 21:15:05.338755  4601 net.cpp:141] Setting up scale1_2
I0623 21:15:05.338763  4601 net.cpp:148] Top shape: 1 32 224 224 (1605632)
I0623 21:15:05.338765  4601 net.cpp:156] Memory required for data: 45760512
I0623 21:15:05.338770  4601 layer_factory.hpp:77] Creating layer relu1_2
I0623 21:15:05.338775  4601 net.cpp:91] Creating Layer relu1_2
I0623 21:15:05.338778  4601 net.cpp:425] relu1_2 <- conv1_2
I0623 21:15:05.338780  4601 net.cpp:386] relu1_2 -> conv1_2 (in-place)
I0623 21:15:05.338917  4601 net.cpp:141] Setting up relu1_2
I0623 21:15:05.338925  4601 net.cpp:148] Top shape: 1 32 224 224 (1605632)
I0623 21:15:05.338928  4601 net.cpp:156] Memory required for data: 52183040
I0623 21:15:05.338930  4601 layer_factory.hpp:77] Creating layer pool1
I0623 21:15:05.338933  4601 layer_factory.cpp:90] cuDNN does not support multiple tops. Using Caffe's own pooling layer.
I0623 21:15:05.338938  4601 net.cpp:91] Creating Layer pool1
I0623 21:15:05.338942  4601 net.cpp:425] pool1 <- conv1_2
I0623 21:15:05.338945  4601 net.cpp:399] pool1 -> pool1
I0623 21:15:05.338953  4601 net.cpp:399] pool1 -> pool1_mask
I0623 21:15:05.338994  4601 net.cpp:141] Setting up pool1
I0623 21:15:05.339001  4601 net.cpp:148] Top shape: 1 32 112 112 (401408)
I0623 21:15:05.339004  4601 net.cpp:148] Top shape: 1 32 112 112 (401408)
I0623 21:15:05.339006  4601 net.cpp:156] Memory required for data: 55394304
I0623 21:15:05.339009  4601 layer_factory.hpp:77] Creating layer conv2_1
I0623 21:15:05.339018  4601 net.cpp:91] Creating Layer conv2_1
I0623 21:15:05.339023  4601 net.cpp:425] conv2_1 <- pool1
I0623 21:15:05.339027  4601 net.cpp:399] conv2_1 -> conv2_1
I0623 21:15:05.339917  4601 net.cpp:141] Setting up conv2_1
I0623 21:15:05.339931  4601 net.cpp:148] Top shape: 1 32 112 112 (401408)
I0623 21:15:05.339933  4601 net.cpp:156] Memory required for data: 56999936
I0623 21:15:05.339937  4601 layer_factory.hpp:77] Creating layer bn2_1
I0623 21:15:05.339943  4601 net.cpp:91] Creating Layer bn2_1
I0623 21:15:05.339946  4601 net.cpp:425] bn2_1 <- conv2_1
I0623 21:15:05.339951  4601 net.cpp:386] bn2_1 -> conv2_1 (in-place)
I0623 21:15:05.340108  4601 net.cpp:141] Setting up bn2_1
I0623 21:15:05.340116  4601 net.cpp:148] Top shape: 1 32 112 112 (401408)
I0623 21:15:05.340119  4601 net.cpp:156] Memory required for data: 58605568
I0623 21:15:05.340124  4601 layer_factory.hpp:77] Creating layer scale2_1
I0623 21:15:05.340129  4601 net.cpp:91] Creating Layer scale2_1
I0623 21:15:05.340132  4601 net.cpp:425] scale2_1 <- conv2_1
I0623 21:15:05.340138  4601 net.cpp:386] scale2_1 -> conv2_1 (in-place)
I0623 21:15:05.340168  4601 layer_factory.hpp:77] Creating layer scale2_1
I0623 21:15:05.340266  4601 net.cpp:141] Setting up scale2_1
I0623 21:15:05.340275  4601 net.cpp:148] Top shape: 1 32 112 112 (401408)
I0623 21:15:05.340276  4601 net.cpp:156] Memory required for data: 60211200
I0623 21:15:05.340283  4601 layer_factory.hpp:77] Creating layer relu2_1
I0623 21:15:05.340288  4601 net.cpp:91] Creating Layer relu2_1
I0623 21:15:05.340291  4601 net.cpp:425] relu2_1 <- conv2_1
I0623 21:15:05.340293  4601 net.cpp:386] relu2_1 -> conv2_1 (in-place)
I0623 21:15:05.340558  4601 net.cpp:141] Setting up relu2_1
I0623 21:15:05.340569  4601 net.cpp:148] Top shape: 1 32 112 112 (401408)
I0623 21:15:05.340571  4601 net.cpp:156] Memory required for data: 61816832
I0623 21:15:05.340574  4601 layer_factory.hpp:77] Creating layer conv2_2
I0623 21:15:05.340581  4601 net.cpp:91] Creating Layer conv2_2
I0623 21:15:05.340584  4601 net.cpp:425] conv2_2 <- conv2_1
I0623 21:15:05.340590  4601 net.cpp:399] conv2_2 -> conv2_2
I0623 21:15:05.341325  4601 net.cpp:141] Setting up conv2_2
I0623 21:15:05.341336  4601 net.cpp:148] Top shape: 1 32 112 112 (401408)
I0623 21:15:05.341339  4601 net.cpp:156] Memory required for data: 63422464
I0623 21:15:05.341353  4601 layer_factory.hpp:77] Creating layer bn2_2
I0623 21:15:05.341361  4601 net.cpp:91] Creating Layer bn2_2
I0623 21:15:05.341363  4601 net.cpp:425] bn2_2 <- conv2_2
I0623 21:15:05.341368  4601 net.cpp:386] bn2_2 -> conv2_2 (in-place)
I0623 21:15:05.341521  4601 net.cpp:141] Setting up bn2_2
I0623 21:15:05.341529  4601 net.cpp:148] Top shape: 1 32 112 112 (401408)
I0623 21:15:05.341532  4601 net.cpp:156] Memory required for data: 65028096
I0623 21:15:05.341537  4601 layer_factory.hpp:77] Creating layer scale2_2
I0623 21:15:05.341543  4601 net.cpp:91] Creating Layer scale2_2
I0623 21:15:05.341547  4601 net.cpp:425] scale2_2 <- conv2_2
I0623 21:15:05.341550  4601 net.cpp:386] scale2_2 -> conv2_2 (in-place)
I0623 21:15:05.341581  4601 layer_factory.hpp:77] Creating layer scale2_2
I0623 21:15:05.341680  4601 net.cpp:141] Setting up scale2_2
I0623 21:15:05.341686  4601 net.cpp:148] Top shape: 1 32 112 112 (401408)
I0623 21:15:05.341688  4601 net.cpp:156] Memory required for data: 66633728
I0623 21:15:05.341692  4601 layer_factory.hpp:77] Creating layer relu2_2
I0623 21:15:05.341697  4601 net.cpp:91] Creating Layer relu2_2
I0623 21:15:05.341699  4601 net.cpp:425] relu2_2 <- conv2_2
I0623 21:15:05.341702  4601 net.cpp:386] relu2_2 -> conv2_2 (in-place)
I0623 21:15:05.341967  4601 net.cpp:141] Setting up relu2_2
I0623 21:15:05.341981  4601 net.cpp:148] Top shape: 1 32 112 112 (401408)
I0623 21:15:05.341984  4601 net.cpp:156] Memory required for data: 68239360
I0623 21:15:05.341986  4601 layer_factory.hpp:77] Creating layer pool2
I0623 21:15:05.341989  4601 layer_factory.cpp:90] cuDNN does not support multiple tops. Using Caffe's own pooling layer.
I0623 21:15:05.341994  4601 net.cpp:91] Creating Layer pool2
I0623 21:15:05.341996  4601 net.cpp:425] pool2 <- conv2_2
I0623 21:15:05.342000  4601 net.cpp:399] pool2 -> pool2
I0623 21:15:05.342006  4601 net.cpp:399] pool2 -> pool2_mask
I0623 21:15:05.342043  4601 net.cpp:141] Setting up pool2
I0623 21:15:05.342053  4601 net.cpp:148] Top shape: 1 32 56 56 (100352)
I0623 21:15:05.342056  4601 net.cpp:148] Top shape: 1 32 56 56 (100352)
I0623 21:15:05.342058  4601 net.cpp:156] Memory required for data: 69042176
I0623 21:15:05.342061  4601 layer_factory.hpp:77] Creating layer conv3_1
I0623 21:15:05.342068  4601 net.cpp:91] Creating Layer conv3_1
I0623 21:15:05.342072  4601 net.cpp:425] conv3_1 <- pool2
I0623 21:15:05.342075  4601 net.cpp:399] conv3_1 -> conv3_1
I0623 21:15:05.342949  4601 net.cpp:141] Setting up conv3_1
I0623 21:15:05.342962  4601 net.cpp:148] Top shape: 1 32 56 56 (100352)
I0623 21:15:05.342964  4601 net.cpp:156] Memory required for data: 69443584
I0623 21:15:05.342968  4601 layer_factory.hpp:77] Creating layer bn3_1
I0623 21:15:05.342975  4601 net.cpp:91] Creating Layer bn3_1
I0623 21:15:05.342978  4601 net.cpp:425] bn3_1 <- conv3_1
I0623 21:15:05.342983  4601 net.cpp:386] bn3_1 -> conv3_1 (in-place)
I0623 21:15:05.343716  4601 net.cpp:141] Setting up bn3_1
I0623 21:15:05.343729  4601 net.cpp:148] Top shape: 1 32 56 56 (100352)
I0623 21:15:05.343731  4601 net.cpp:156] Memory required for data: 69844992
I0623 21:15:05.343737  4601 layer_factory.hpp:77] Creating layer scale3_1
I0623 21:15:05.343744  4601 net.cpp:91] Creating Layer scale3_1
I0623 21:15:05.343746  4601 net.cpp:425] scale3_1 <- conv3_1
I0623 21:15:05.343751  4601 net.cpp:386] scale3_1 -> conv3_1 (in-place)
I0623 21:15:05.343791  4601 layer_factory.hpp:77] Creating layer scale3_1
I0623 21:15:05.343888  4601 net.cpp:141] Setting up scale3_1
I0623 21:15:05.343894  4601 net.cpp:148] Top shape: 1 32 56 56 (100352)
I0623 21:15:05.343897  4601 net.cpp:156] Memory required for data: 70246400
I0623 21:15:05.343901  4601 layer_factory.hpp:77] Creating layer relu3_1
I0623 21:15:05.343907  4601 net.cpp:91] Creating Layer relu3_1
I0623 21:15:05.343910  4601 net.cpp:425] relu3_1 <- conv3_1
I0623 21:15:05.343914  4601 net.cpp:386] relu3_1 -> conv3_1 (in-place)
I0623 21:15:05.344053  4601 net.cpp:141] Setting up relu3_1
I0623 21:15:05.344060  4601 net.cpp:148] Top shape: 1 32 56 56 (100352)
I0623 21:15:05.344074  4601 net.cpp:156] Memory required for data: 70647808
I0623 21:15:05.344076  4601 layer_factory.hpp:77] Creating layer conv3_2
I0623 21:15:05.344084  4601 net.cpp:91] Creating Layer conv3_2
I0623 21:15:05.344087  4601 net.cpp:425] conv3_2 <- conv3_1
I0623 21:15:05.344094  4601 net.cpp:399] conv3_2 -> conv3_2
I0623 21:15:05.344969  4601 net.cpp:141] Setting up conv3_2
I0623 21:15:05.344981  4601 net.cpp:148] Top shape: 1 32 56 56 (100352)
I0623 21:15:05.344985  4601 net.cpp:156] Memory required for data: 71049216
I0623 21:15:05.344988  4601 layer_factory.hpp:77] Creating layer bn3_2
I0623 21:15:05.344996  4601 net.cpp:91] Creating Layer bn3_2
I0623 21:15:05.345000  4601 net.cpp:425] bn3_2 <- conv3_2
I0623 21:15:05.345003  4601 net.cpp:386] bn3_2 -> conv3_2 (in-place)
I0623 21:15:05.345157  4601 net.cpp:141] Setting up bn3_2
I0623 21:15:05.345165  4601 net.cpp:148] Top shape: 1 32 56 56 (100352)
I0623 21:15:05.345166  4601 net.cpp:156] Memory required for data: 71450624
I0623 21:15:05.345176  4601 layer_factory.hpp:77] Creating layer scale3_2
I0623 21:15:05.345182  4601 net.cpp:91] Creating Layer scale3_2
I0623 21:15:05.345185  4601 net.cpp:425] scale3_2 <- conv3_2
I0623 21:15:05.345188  4601 net.cpp:386] scale3_2 -> conv3_2 (in-place)
I0623 21:15:05.345222  4601 layer_factory.hpp:77] Creating layer scale3_2
I0623 21:15:05.345319  4601 net.cpp:141] Setting up scale3_2
I0623 21:15:05.345326  4601 net.cpp:148] Top shape: 1 32 56 56 (100352)
I0623 21:15:05.345329  4601 net.cpp:156] Memory required for data: 71852032
I0623 21:15:05.345332  4601 layer_factory.hpp:77] Creating layer relu3_2
I0623 21:15:05.345336  4601 net.cpp:91] Creating Layer relu3_2
I0623 21:15:05.345340  4601 net.cpp:425] relu3_2 <- conv3_2
I0623 21:15:05.345342  4601 net.cpp:386] relu3_2 -> conv3_2 (in-place)
I0623 21:15:05.345608  4601 net.cpp:141] Setting up relu3_2
I0623 21:15:05.345618  4601 net.cpp:148] Top shape: 1 32 56 56 (100352)
I0623 21:15:05.345621  4601 net.cpp:156] Memory required for data: 72253440
I0623 21:15:05.345624  4601 layer_factory.hpp:77] Creating layer pool3
I0623 21:15:05.345626  4601 layer_factory.cpp:90] cuDNN does not support multiple tops. Using Caffe's own pooling layer.
I0623 21:15:05.345631  4601 net.cpp:91] Creating Layer pool3
I0623 21:15:05.345634  4601 net.cpp:425] pool3 <- conv3_2
I0623 21:15:05.345640  4601 net.cpp:399] pool3 -> pool3
I0623 21:15:05.345645  4601 net.cpp:399] pool3 -> pool3_mask
I0623 21:15:05.345680  4601 net.cpp:141] Setting up pool3
I0623 21:15:05.345687  4601 net.cpp:148] Top shape: 1 32 28 28 (25088)
I0623 21:15:05.345690  4601 net.cpp:148] Top shape: 1 32 28 28 (25088)
I0623 21:15:05.345692  4601 net.cpp:156] Memory required for data: 72454144
I0623 21:15:05.345695  4601 layer_factory.hpp:77] Creating layer conv4_1
I0623 21:15:05.345703  4601 net.cpp:91] Creating Layer conv4_1
I0623 21:15:05.345706  4601 net.cpp:425] conv4_1 <- pool3
I0623 21:15:05.345710  4601 net.cpp:399] conv4_1 -> conv4_1
I0623 21:15:05.346467  4601 net.cpp:141] Setting up conv4_1
I0623 21:15:05.346478  4601 net.cpp:148] Top shape: 1 32 28 28 (25088)
I0623 21:15:05.346482  4601 net.cpp:156] Memory required for data: 72554496
I0623 21:15:05.346485  4601 layer_factory.hpp:77] Creating layer bn4_1
I0623 21:15:05.346492  4601 net.cpp:91] Creating Layer bn4_1
I0623 21:15:05.346494  4601 net.cpp:425] bn4_1 <- conv4_1
I0623 21:15:05.346498  4601 net.cpp:386] bn4_1 -> conv4_1 (in-place)
I0623 21:15:05.346657  4601 net.cpp:141] Setting up bn4_1
I0623 21:15:05.346664  4601 net.cpp:148] Top shape: 1 32 28 28 (25088)
I0623 21:15:05.346668  4601 net.cpp:156] Memory required for data: 72654848
I0623 21:15:05.346673  4601 layer_factory.hpp:77] Creating layer scale4_1
I0623 21:15:05.346679  4601 net.cpp:91] Creating Layer scale4_1
I0623 21:15:05.346681  4601 net.cpp:425] scale4_1 <- conv4_1
I0623 21:15:05.346685  4601 net.cpp:386] scale4_1 -> conv4_1 (in-place)
I0623 21:15:05.346722  4601 layer_factory.hpp:77] Creating layer scale4_1
I0623 21:15:05.346822  4601 net.cpp:141] Setting up scale4_1
I0623 21:15:05.346838  4601 net.cpp:148] Top shape: 1 32 28 28 (25088)
I0623 21:15:05.346840  4601 net.cpp:156] Memory required for data: 72755200
I0623 21:15:05.346844  4601 layer_factory.hpp:77] Creating layer relu4_1
I0623 21:15:05.346851  4601 net.cpp:91] Creating Layer relu4_1
I0623 21:15:05.346854  4601 net.cpp:425] relu4_1 <- conv4_1
I0623 21:15:05.346858  4601 net.cpp:386] relu4_1 -> conv4_1 (in-place)
I0623 21:15:05.347126  4601 net.cpp:141] Setting up relu4_1
I0623 21:15:05.347136  4601 net.cpp:148] Top shape: 1 32 28 28 (25088)
I0623 21:15:05.347138  4601 net.cpp:156] Memory required for data: 72855552
I0623 21:15:05.347141  4601 layer_factory.hpp:77] Creating layer conv4_2
I0623 21:15:05.347154  4601 net.cpp:91] Creating Layer conv4_2
I0623 21:15:05.347158  4601 net.cpp:425] conv4_2 <- conv4_1
I0623 21:15:05.347163  4601 net.cpp:399] conv4_2 -> conv4_2
I0623 21:15:05.348196  4601 net.cpp:141] Setting up conv4_2
I0623 21:15:05.348208  4601 net.cpp:148] Top shape: 1 32 28 28 (25088)
I0623 21:15:05.348212  4601 net.cpp:156] Memory required for data: 72955904
I0623 21:15:05.348215  4601 layer_factory.hpp:77] Creating layer bn4_2
I0623 21:15:05.348220  4601 net.cpp:91] Creating Layer bn4_2
I0623 21:15:05.348223  4601 net.cpp:425] bn4_2 <- conv4_2
I0623 21:15:05.348228  4601 net.cpp:386] bn4_2 -> conv4_2 (in-place)
I0623 21:15:05.348390  4601 net.cpp:141] Setting up bn4_2
I0623 21:15:05.348398  4601 net.cpp:148] Top shape: 1 32 28 28 (25088)
I0623 21:15:05.348402  4601 net.cpp:156] Memory required for data: 73056256
I0623 21:15:05.348407  4601 layer_factory.hpp:77] Creating layer scale4_2
I0623 21:15:05.348412  4601 net.cpp:91] Creating Layer scale4_2
I0623 21:15:05.348414  4601 net.cpp:425] scale4_2 <- conv4_2
I0623 21:15:05.348419  4601 net.cpp:386] scale4_2 -> conv4_2 (in-place)
I0623 21:15:05.348454  4601 layer_factory.hpp:77] Creating layer scale4_2
I0623 21:15:05.348553  4601 net.cpp:141] Setting up scale4_2
I0623 21:15:05.348561  4601 net.cpp:148] Top shape: 1 32 28 28 (25088)
I0623 21:15:05.348563  4601 net.cpp:156] Memory required for data: 73156608
I0623 21:15:05.348567  4601 layer_factory.hpp:77] Creating layer relu4_2
I0623 21:15:05.348572  4601 net.cpp:91] Creating Layer relu4_2
I0623 21:15:05.348574  4601 net.cpp:425] relu4_2 <- conv4_2
I0623 21:15:05.348577  4601 net.cpp:386] relu4_2 -> conv4_2 (in-place)
I0623 21:15:05.348719  4601 net.cpp:141] Setting up relu4_2
I0623 21:15:05.348727  4601 net.cpp:148] Top shape: 1 32 28 28 (25088)
I0623 21:15:05.348729  4601 net.cpp:156] Memory required for data: 73256960
I0623 21:15:05.348732  4601 layer_factory.hpp:77] Creating layer pool4
I0623 21:15:05.348736  4601 layer_factory.cpp:90] cuDNN does not support multiple tops. Using Caffe's own pooling layer.
I0623 21:15:05.348739  4601 net.cpp:91] Creating Layer pool4
I0623 21:15:05.348742  4601 net.cpp:425] pool4 <- conv4_2
I0623 21:15:05.348747  4601 net.cpp:399] pool4 -> pool4
I0623 21:15:05.348752  4601 net.cpp:399] pool4 -> pool4_mask
I0623 21:15:05.348785  4601 net.cpp:141] Setting up pool4
I0623 21:15:05.348791  4601 net.cpp:148] Top shape: 1 32 14 14 (6272)
I0623 21:15:05.348794  4601 net.cpp:148] Top shape: 1 32 14 14 (6272)
I0623 21:15:05.348796  4601 net.cpp:156] Memory required for data: 73307136
I0623 21:15:05.348798  4601 layer_factory.hpp:77] Creating layer conv5_1
I0623 21:15:05.348808  4601 net.cpp:91] Creating Layer conv5_1
I0623 21:15:05.348810  4601 net.cpp:425] conv5_1 <- pool4
I0623 21:15:05.348814  4601 net.cpp:399] conv5_1 -> conv5_1
I0623 21:15:05.349833  4601 net.cpp:141] Setting up conv5_1
I0623 21:15:05.349846  4601 net.cpp:148] Top shape: 1 32 14 14 (6272)
I0623 21:15:05.349849  4601 net.cpp:156] Memory required for data: 73332224
I0623 21:15:05.349854  4601 layer_factory.hpp:77] Creating layer bn5_1
I0623 21:15:05.349859  4601 net.cpp:91] Creating Layer bn5_1
I0623 21:15:05.349863  4601 net.cpp:425] bn5_1 <- conv5_1
I0623 21:15:05.349867  4601 net.cpp:386] bn5_1 -> conv5_1 (in-place)
I0623 21:15:05.350039  4601 net.cpp:141] Setting up bn5_1
I0623 21:15:05.350047  4601 net.cpp:148] Top shape: 1 32 14 14 (6272)
I0623 21:15:05.350059  4601 net.cpp:156] Memory required for data: 73357312
I0623 21:15:05.350064  4601 layer_factory.hpp:77] Creating layer scale5_1
I0623 21:15:05.350069  4601 net.cpp:91] Creating Layer scale5_1
I0623 21:15:05.350072  4601 net.cpp:425] scale5_1 <- conv5_1
I0623 21:15:05.350077  4601 net.cpp:386] scale5_1 -> conv5_1 (in-place)
I0623 21:15:05.350112  4601 layer_factory.hpp:77] Creating layer scale5_1
I0623 21:15:05.350208  4601 net.cpp:141] Setting up scale5_1
I0623 21:15:05.350214  4601 net.cpp:148] Top shape: 1 32 14 14 (6272)
I0623 21:15:05.350216  4601 net.cpp:156] Memory required for data: 73382400
I0623 21:15:05.350220  4601 layer_factory.hpp:77] Creating layer relu5_1
I0623 21:15:05.350225  4601 net.cpp:91] Creating Layer relu5_1
I0623 21:15:05.350229  4601 net.cpp:425] relu5_1 <- conv5_1
I0623 21:15:05.350231  4601 net.cpp:386] relu5_1 -> conv5_1 (in-place)
I0623 21:15:05.350502  4601 net.cpp:141] Setting up relu5_1
I0623 21:15:05.350513  4601 net.cpp:148] Top shape: 1 32 14 14 (6272)
I0623 21:15:05.350517  4601 net.cpp:156] Memory required for data: 73407488
I0623 21:15:05.350519  4601 layer_factory.hpp:77] Creating layer conv5_2
I0623 21:15:05.350528  4601 net.cpp:91] Creating Layer conv5_2
I0623 21:15:05.350530  4601 net.cpp:425] conv5_2 <- conv5_1
I0623 21:15:05.350534  4601 net.cpp:399] conv5_2 -> conv5_2
I0623 21:15:05.351384  4601 net.cpp:141] Setting up conv5_2
I0623 21:15:05.351394  4601 net.cpp:148] Top shape: 1 32 14 14 (6272)
I0623 21:15:05.351397  4601 net.cpp:156] Memory required for data: 73432576
I0623 21:15:05.351402  4601 layer_factory.hpp:77] Creating layer bn5_2
I0623 21:15:05.351408  4601 net.cpp:91] Creating Layer bn5_2
I0623 21:15:05.351411  4601 net.cpp:425] bn5_2 <- conv5_2
I0623 21:15:05.351418  4601 net.cpp:386] bn5_2 -> conv5_2 (in-place)
I0623 21:15:05.351582  4601 net.cpp:141] Setting up bn5_2
I0623 21:15:05.351588  4601 net.cpp:148] Top shape: 1 32 14 14 (6272)
I0623 21:15:05.351591  4601 net.cpp:156] Memory required for data: 73457664
I0623 21:15:05.351596  4601 layer_factory.hpp:77] Creating layer scale5_2
I0623 21:15:05.351604  4601 net.cpp:91] Creating Layer scale5_2
I0623 21:15:05.351608  4601 net.cpp:425] scale5_2 <- conv5_2
I0623 21:15:05.351610  4601 net.cpp:386] scale5_2 -> conv5_2 (in-place)
I0623 21:15:05.351645  4601 layer_factory.hpp:77] Creating layer scale5_2
I0623 21:15:05.351739  4601 net.cpp:141] Setting up scale5_2
I0623 21:15:05.351747  4601 net.cpp:148] Top shape: 1 32 14 14 (6272)
I0623 21:15:05.351748  4601 net.cpp:156] Memory required for data: 73482752
I0623 21:15:05.351752  4601 layer_factory.hpp:77] Creating layer relu5_2
I0623 21:15:05.351758  4601 net.cpp:91] Creating Layer relu5_2
I0623 21:15:05.351760  4601 net.cpp:425] relu5_2 <- conv5_2
I0623 21:15:05.351763  4601 net.cpp:386] relu5_2 -> conv5_2 (in-place)
I0623 21:15:05.352038  4601 net.cpp:141] Setting up relu5_2
I0623 21:15:05.352049  4601 net.cpp:148] Top shape: 1 32 14 14 (6272)
I0623 21:15:05.352052  4601 net.cpp:156] Memory required for data: 73507840
I0623 21:15:05.352054  4601 layer_factory.hpp:77] Creating layer pool5
I0623 21:15:05.352057  4601 layer_factory.cpp:90] cuDNN does not support multiple tops. Using Caffe's own pooling layer.
I0623 21:15:05.352063  4601 net.cpp:91] Creating Layer pool5
I0623 21:15:05.352066  4601 net.cpp:425] pool5 <- conv5_2
I0623 21:15:05.352071  4601 net.cpp:399] pool5 -> pool5
I0623 21:15:05.352075  4601 net.cpp:399] pool5 -> pool5_mask
I0623 21:15:05.352114  4601 net.cpp:141] Setting up pool5
I0623 21:15:05.352121  4601 net.cpp:148] Top shape: 1 32 7 7 (1568)
I0623 21:15:05.352124  4601 net.cpp:148] Top shape: 1 32 7 7 (1568)
I0623 21:15:05.352126  4601 net.cpp:156] Memory required for data: 73520384
I0623 21:15:05.352128  4601 layer_factory.hpp:77] Creating layer upsample5
I0623 21:15:05.352134  4601 net.cpp:91] Creating Layer upsample5
I0623 21:15:05.352138  4601 net.cpp:425] upsample5 <- pool5
I0623 21:15:05.352141  4601 net.cpp:425] upsample5 <- pool5_mask
I0623 21:15:05.352146  4601 net.cpp:399] upsample5 -> pool5_D
I0623 21:15:05.352187  4601 net.cpp:141] Setting up upsample5
I0623 21:15:05.352195  4601 net.cpp:148] Top shape: 1 32 14 14 (6272)
I0623 21:15:05.352196  4601 net.cpp:156] Memory required for data: 73545472
I0623 21:15:05.352200  4601 layer_factory.hpp:77] Creating layer conv5_2_D
I0623 21:15:05.352206  4601 net.cpp:91] Creating Layer conv5_2_D
I0623 21:15:05.352210  4601 net.cpp:425] conv5_2_D <- pool5_D
I0623 21:15:05.352213  4601 net.cpp:399] conv5_2_D -> conv5_2_D
I0623 21:15:05.353097  4601 net.cpp:141] Setting up conv5_2_D
I0623 21:15:05.353109  4601 net.cpp:148] Top shape: 1 32 14 14 (6272)
I0623 21:15:05.353111  4601 net.cpp:156] Memory required for data: 73570560
I0623 21:15:05.353116  4601 layer_factory.hpp:77] Creating layer bn5_2_D
I0623 21:15:05.353122  4601 net.cpp:91] Creating Layer bn5_2_D
I0623 21:15:05.353124  4601 net.cpp:425] bn5_2_D <- conv5_2_D
I0623 21:15:05.353129  4601 net.cpp:386] bn5_2_D -> conv5_2_D (in-place)
I0623 21:15:05.353291  4601 net.cpp:141] Setting up bn5_2_D
I0623 21:15:05.353297  4601 net.cpp:148] Top shape: 1 32 14 14 (6272)
I0623 21:15:05.353304  4601 net.cpp:156] Memory required for data: 73595648
I0623 21:15:05.353309  4601 layer_factory.hpp:77] Creating layer scale5_2_D
I0623 21:15:05.353318  4601 net.cpp:91] Creating Layer scale5_2_D
I0623 21:15:05.353320  4601 net.cpp:425] scale5_2_D <- conv5_2_D
I0623 21:15:05.353324  4601 net.cpp:386] scale5_2_D -> conv5_2_D (in-place)
I0623 21:15:05.353358  4601 layer_factory.hpp:77] Creating layer scale5_2_D
I0623 21:15:05.353502  4601 net.cpp:141] Setting up scale5_2_D
I0623 21:15:05.353510  4601 net.cpp:148] Top shape: 1 32 14 14 (6272)
I0623 21:15:05.353513  4601 net.cpp:156] Memory required for data: 73620736
I0623 21:15:05.353525  4601 layer_factory.hpp:77] Creating layer relu5_2_D
I0623 21:15:05.353531  4601 net.cpp:91] Creating Layer relu5_2_D
I0623 21:15:05.353534  4601 net.cpp:425] relu5_2_D <- conv5_2_D
I0623 21:15:05.353538  4601 net.cpp:386] relu5_2_D -> conv5_2_D (in-place)
I0623 21:15:05.353680  4601 net.cpp:141] Setting up relu5_2_D
I0623 21:15:05.353688  4601 net.cpp:148] Top shape: 1 32 14 14 (6272)
I0623 21:15:05.353691  4601 net.cpp:156] Memory required for data: 73645824
I0623 21:15:05.353693  4601 layer_factory.hpp:77] Creating layer conv5_1_D
I0623 21:15:05.353701  4601 net.cpp:91] Creating Layer conv5_1_D
I0623 21:15:05.353704  4601 net.cpp:425] conv5_1_D <- conv5_2_D
I0623 21:15:05.353709  4601 net.cpp:399] conv5_1_D -> conv5_1_D
I0623 21:15:05.354619  4601 net.cpp:141] Setting up conv5_1_D
I0623 21:15:05.354629  4601 net.cpp:148] Top shape: 1 32 14 14 (6272)
I0623 21:15:05.354632  4601 net.cpp:156] Memory required for data: 73670912
I0623 21:15:05.354636  4601 layer_factory.hpp:77] Creating layer bn5_1_D
I0623 21:15:05.354643  4601 net.cpp:91] Creating Layer bn5_1_D
I0623 21:15:05.354646  4601 net.cpp:425] bn5_1_D <- conv5_1_D
I0623 21:15:05.354651  4601 net.cpp:386] bn5_1_D -> conv5_1_D (in-place)
I0623 21:15:05.354815  4601 net.cpp:141] Setting up bn5_1_D
I0623 21:15:05.354822  4601 net.cpp:148] Top shape: 1 32 14 14 (6272)
I0623 21:15:05.354825  4601 net.cpp:156] Memory required for data: 73696000
I0623 21:15:05.354830  4601 layer_factory.hpp:77] Creating layer scale5_1_D
I0623 21:15:05.354836  4601 net.cpp:91] Creating Layer scale5_1_D
I0623 21:15:05.354840  4601 net.cpp:425] scale5_1_D <- conv5_1_D
I0623 21:15:05.354843  4601 net.cpp:386] scale5_1_D -> conv5_1_D (in-place)
I0623 21:15:05.354877  4601 layer_factory.hpp:77] Creating layer scale5_1_D
I0623 21:15:05.354972  4601 net.cpp:141] Setting up scale5_1_D
I0623 21:15:05.354979  4601 net.cpp:148] Top shape: 1 32 14 14 (6272)
I0623 21:15:05.354981  4601 net.cpp:156] Memory required for data: 73721088
I0623 21:15:05.354985  4601 layer_factory.hpp:77] Creating layer relu5_1_D
I0623 21:15:05.354991  4601 net.cpp:91] Creating Layer relu5_1_D
I0623 21:15:05.354993  4601 net.cpp:425] relu5_1_D <- conv5_1_D
I0623 21:15:05.354997  4601 net.cpp:386] relu5_1_D -> conv5_1_D (in-place)
I0623 21:15:05.355300  4601 net.cpp:141] Setting up relu5_1_D
I0623 21:15:05.355311  4601 net.cpp:148] Top shape: 1 32 14 14 (6272)
I0623 21:15:05.355324  4601 net.cpp:156] Memory required for data: 73746176
I0623 21:15:05.355326  4601 layer_factory.hpp:77] Creating layer upsample4
I0623 21:15:05.355334  4601 net.cpp:91] Creating Layer upsample4
I0623 21:15:05.355336  4601 net.cpp:425] upsample4 <- conv5_1_D
I0623 21:15:05.355340  4601 net.cpp:425] upsample4 <- pool4_mask
I0623 21:15:05.355345  4601 net.cpp:399] upsample4 -> pool4_D
I0623 21:15:05.355373  4601 net.cpp:141] Setting up upsample4
I0623 21:15:05.355379  4601 net.cpp:148] Top shape: 1 32 28 28 (25088)
I0623 21:15:05.355382  4601 net.cpp:156] Memory required for data: 73846528
I0623 21:15:05.355384  4601 layer_factory.hpp:77] Creating layer conv4_2_D
I0623 21:15:05.355391  4601 net.cpp:91] Creating Layer conv4_2_D
I0623 21:15:05.355394  4601 net.cpp:425] conv4_2_D <- pool4_D
I0623 21:15:05.355398  4601 net.cpp:399] conv4_2_D -> conv4_2_D
I0623 21:15:05.356175  4601 net.cpp:141] Setting up conv4_2_D
I0623 21:15:05.356187  4601 net.cpp:148] Top shape: 1 32 28 28 (25088)
I0623 21:15:05.356190  4601 net.cpp:156] Memory required for data: 73946880
I0623 21:15:05.356194  4601 layer_factory.hpp:77] Creating layer bn4_2_D
I0623 21:15:05.356201  4601 net.cpp:91] Creating Layer bn4_2_D
I0623 21:15:05.356204  4601 net.cpp:425] bn4_2_D <- conv4_2_D
I0623 21:15:05.356209  4601 net.cpp:386] bn4_2_D -> conv4_2_D (in-place)
I0623 21:15:05.356379  4601 net.cpp:141] Setting up bn4_2_D
I0623 21:15:05.356385  4601 net.cpp:148] Top shape: 1 32 28 28 (25088)
I0623 21:15:05.356387  4601 net.cpp:156] Memory required for data: 74047232
I0623 21:15:05.356394  4601 layer_factory.hpp:77] Creating layer scale4_2_D
I0623 21:15:05.356400  4601 net.cpp:91] Creating Layer scale4_2_D
I0623 21:15:05.356401  4601 net.cpp:425] scale4_2_D <- conv4_2_D
I0623 21:15:05.356405  4601 net.cpp:386] scale4_2_D -> conv4_2_D (in-place)
I0623 21:15:05.356441  4601 layer_factory.hpp:77] Creating layer scale4_2_D
I0623 21:15:05.356544  4601 net.cpp:141] Setting up scale4_2_D
I0623 21:15:05.356551  4601 net.cpp:148] Top shape: 1 32 28 28 (25088)
I0623 21:15:05.356554  4601 net.cpp:156] Memory required for data: 74147584
I0623 21:15:05.356557  4601 layer_factory.hpp:77] Creating layer relu4_2_D
I0623 21:15:05.356564  4601 net.cpp:91] Creating Layer relu4_2_D
I0623 21:15:05.356565  4601 net.cpp:425] relu4_2_D <- conv4_2_D
I0623 21:15:05.356570  4601 net.cpp:386] relu4_2_D -> conv4_2_D (in-place)
I0623 21:15:05.356847  4601 net.cpp:141] Setting up relu4_2_D
I0623 21:15:05.356858  4601 net.cpp:148] Top shape: 1 32 28 28 (25088)
I0623 21:15:05.356860  4601 net.cpp:156] Memory required for data: 74247936
I0623 21:15:05.356863  4601 layer_factory.hpp:77] Creating layer conv4_1_D
I0623 21:15:05.356871  4601 net.cpp:91] Creating Layer conv4_1_D
I0623 21:15:05.356874  4601 net.cpp:425] conv4_1_D <- conv4_2_D
I0623 21:15:05.356878  4601 net.cpp:399] conv4_1_D -> conv4_1_D
I0623 21:15:05.357908  4601 net.cpp:141] Setting up conv4_1_D
I0623 21:15:05.357919  4601 net.cpp:148] Top shape: 1 32 28 28 (25088)
I0623 21:15:05.357923  4601 net.cpp:156] Memory required for data: 74348288
I0623 21:15:05.357928  4601 layer_factory.hpp:77] Creating layer bn4_1_D
I0623 21:15:05.357934  4601 net.cpp:91] Creating Layer bn4_1_D
I0623 21:15:05.357938  4601 net.cpp:425] bn4_1_D <- conv4_1_D
I0623 21:15:05.357941  4601 net.cpp:386] bn4_1_D -> conv4_1_D (in-place)
I0623 21:15:05.358121  4601 net.cpp:141] Setting up bn4_1_D
I0623 21:15:05.358129  4601 net.cpp:148] Top shape: 1 32 28 28 (25088)
I0623 21:15:05.358130  4601 net.cpp:156] Memory required for data: 74448640
I0623 21:15:05.358136  4601 layer_factory.hpp:77] Creating layer scale4_1_D
I0623 21:15:05.358142  4601 net.cpp:91] Creating Layer scale4_1_D
I0623 21:15:05.358144  4601 net.cpp:425] scale4_1_D <- conv4_1_D
I0623 21:15:05.358149  4601 net.cpp:386] scale4_1_D -> conv4_1_D (in-place)
I0623 21:15:05.358186  4601 layer_factory.hpp:77] Creating layer scale4_1_D
I0623 21:15:05.358290  4601 net.cpp:141] Setting up scale4_1_D
I0623 21:15:05.358297  4601 net.cpp:148] Top shape: 1 32 28 28 (25088)
I0623 21:15:05.358309  4601 net.cpp:156] Memory required for data: 74548992
I0623 21:15:05.358314  4601 layer_factory.hpp:77] Creating layer relu4_1_D
I0623 21:15:05.358322  4601 net.cpp:91] Creating Layer relu4_1_D
I0623 21:15:05.358325  4601 net.cpp:425] relu4_1_D <- conv4_1_D
I0623 21:15:05.358330  4601 net.cpp:386] relu4_1_D -> conv4_1_D (in-place)
I0623 21:15:05.358475  4601 net.cpp:141] Setting up relu4_1_D
I0623 21:15:05.358484  4601 net.cpp:148] Top shape: 1 32 28 28 (25088)
I0623 21:15:05.358487  4601 net.cpp:156] Memory required for data: 74649344
I0623 21:15:05.358490  4601 layer_factory.hpp:77] Creating layer upsample3
I0623 21:15:05.358494  4601 net.cpp:91] Creating Layer upsample3
I0623 21:15:05.358497  4601 net.cpp:425] upsample3 <- conv4_1_D
I0623 21:15:05.358500  4601 net.cpp:425] upsample3 <- pool3_mask
I0623 21:15:05.358505  4601 net.cpp:399] upsample3 -> pool3_D
I0623 21:15:05.358530  4601 net.cpp:141] Setting up upsample3
I0623 21:15:05.358535  4601 net.cpp:148] Top shape: 1 32 56 56 (100352)
I0623 21:15:05.358536  4601 net.cpp:156] Memory required for data: 75050752
I0623 21:15:05.358539  4601 layer_factory.hpp:77] Creating layer conv3_2_D
I0623 21:15:05.358546  4601 net.cpp:91] Creating Layer conv3_2_D
I0623 21:15:05.358549  4601 net.cpp:425] conv3_2_D <- pool3_D
I0623 21:15:05.358554  4601 net.cpp:399] conv3_2_D -> conv3_2_D
I0623 21:15:05.359537  4601 net.cpp:141] Setting up conv3_2_D
I0623 21:15:05.359550  4601 net.cpp:148] Top shape: 1 32 56 56 (100352)
I0623 21:15:05.359554  4601 net.cpp:156] Memory required for data: 75452160
I0623 21:15:05.359558  4601 layer_factory.hpp:77] Creating layer bn3_2_D
I0623 21:15:05.359565  4601 net.cpp:91] Creating Layer bn3_2_D
I0623 21:15:05.359567  4601 net.cpp:425] bn3_2_D <- conv3_2_D
I0623 21:15:05.359571  4601 net.cpp:386] bn3_2_D -> conv3_2_D (in-place)
I0623 21:15:05.359745  4601 net.cpp:141] Setting up bn3_2_D
I0623 21:15:05.359751  4601 net.cpp:148] Top shape: 1 32 56 56 (100352)
I0623 21:15:05.359753  4601 net.cpp:156] Memory required for data: 75853568
I0623 21:15:05.359758  4601 layer_factory.hpp:77] Creating layer scale3_2_D
I0623 21:15:05.359765  4601 net.cpp:91] Creating Layer scale3_2_D
I0623 21:15:05.359767  4601 net.cpp:425] scale3_2_D <- conv3_2_D
I0623 21:15:05.359771  4601 net.cpp:386] scale3_2_D -> conv3_2_D (in-place)
I0623 21:15:05.359805  4601 layer_factory.hpp:77] Creating layer scale3_2_D
I0623 21:15:05.359910  4601 net.cpp:141] Setting up scale3_2_D
I0623 21:15:05.359917  4601 net.cpp:148] Top shape: 1 32 56 56 (100352)
I0623 21:15:05.359920  4601 net.cpp:156] Memory required for data: 76254976
I0623 21:15:05.359923  4601 layer_factory.hpp:77] Creating layer relu3_2_D
I0623 21:15:05.359931  4601 net.cpp:91] Creating Layer relu3_2_D
I0623 21:15:05.359935  4601 net.cpp:425] relu3_2_D <- conv3_2_D
I0623 21:15:05.359937  4601 net.cpp:386] relu3_2_D -> conv3_2_D (in-place)
I0623 21:15:05.360208  4601 net.cpp:141] Setting up relu3_2_D
I0623 21:15:05.360219  4601 net.cpp:148] Top shape: 1 32 56 56 (100352)
I0623 21:15:05.360222  4601 net.cpp:156] Memory required for data: 76656384
I0623 21:15:05.360224  4601 layer_factory.hpp:77] Creating layer conv3_1_D
I0623 21:15:05.360234  4601 net.cpp:91] Creating Layer conv3_1_D
I0623 21:15:05.360236  4601 net.cpp:425] conv3_1_D <- conv3_2_D
I0623 21:15:05.360241  4601 net.cpp:399] conv3_1_D -> conv3_1_D
I0623 21:15:05.361146  4601 net.cpp:141] Setting up conv3_1_D
I0623 21:15:05.361160  4601 net.cpp:148] Top shape: 1 32 56 56 (100352)
I0623 21:15:05.361162  4601 net.cpp:156] Memory required for data: 77057792
I0623 21:15:05.361166  4601 layer_factory.hpp:77] Creating layer bn3_1_D
I0623 21:15:05.361171  4601 net.cpp:91] Creating Layer bn3_1_D
I0623 21:15:05.361174  4601 net.cpp:425] bn3_1_D <- conv3_1_D
I0623 21:15:05.361179  4601 net.cpp:386] bn3_1_D -> conv3_1_D (in-place)
I0623 21:15:05.361363  4601 net.cpp:141] Setting up bn3_1_D
I0623 21:15:05.361371  4601 net.cpp:148] Top shape: 1 32 56 56 (100352)
I0623 21:15:05.361373  4601 net.cpp:156] Memory required for data: 77459200
I0623 21:15:05.361388  4601 layer_factory.hpp:77] Creating layer scale3_1_D
I0623 21:15:05.361394  4601 net.cpp:91] Creating Layer scale3_1_D
I0623 21:15:05.361397  4601 net.cpp:425] scale3_1_D <- conv3_1_D
I0623 21:15:05.361402  4601 net.cpp:386] scale3_1_D -> conv3_1_D (in-place)
I0623 21:15:05.361438  4601 layer_factory.hpp:77] Creating layer scale3_1_D
I0623 21:15:05.361555  4601 net.cpp:141] Setting up scale3_1_D
I0623 21:15:05.361562  4601 net.cpp:148] Top shape: 1 32 56 56 (100352)
I0623 21:15:05.361565  4601 net.cpp:156] Memory required for data: 77860608
I0623 21:15:05.361569  4601 layer_factory.hpp:77] Creating layer relu3_1_D
I0623 21:15:05.361574  4601 net.cpp:91] Creating Layer relu3_1_D
I0623 21:15:05.361577  4601 net.cpp:425] relu3_1_D <- conv3_1_D
I0623 21:15:05.361580  4601 net.cpp:386] relu3_1_D -> conv3_1_D (in-place)
I0623 21:15:05.361857  4601 net.cpp:141] Setting up relu3_1_D
I0623 21:15:05.361867  4601 net.cpp:148] Top shape: 1 32 56 56 (100352)
I0623 21:15:05.361871  4601 net.cpp:156] Memory required for data: 78262016
I0623 21:15:05.361872  4601 layer_factory.hpp:77] Creating layer upsample2
I0623 21:15:05.361879  4601 net.cpp:91] Creating Layer upsample2
I0623 21:15:05.361881  4601 net.cpp:425] upsample2 <- conv3_1_D
I0623 21:15:05.361886  4601 net.cpp:425] upsample2 <- pool2_mask
I0623 21:15:05.361888  4601 net.cpp:399] upsample2 -> pool2_D
I0623 21:15:05.361917  4601 net.cpp:141] Setting up upsample2
I0623 21:15:05.361922  4601 net.cpp:148] Top shape: 1 32 112 112 (401408)
I0623 21:15:05.361924  4601 net.cpp:156] Memory required for data: 79867648
I0623 21:15:05.361927  4601 layer_factory.hpp:77] Creating layer conv2_2_D
I0623 21:15:05.361937  4601 net.cpp:91] Creating Layer conv2_2_D
I0623 21:15:05.361938  4601 net.cpp:425] conv2_2_D <- pool2_D
I0623 21:15:05.361943  4601 net.cpp:399] conv2_2_D -> conv2_2_D
I0623 21:15:05.362855  4601 net.cpp:141] Setting up conv2_2_D
I0623 21:15:05.362867  4601 net.cpp:148] Top shape: 1 32 112 112 (401408)
I0623 21:15:05.362870  4601 net.cpp:156] Memory required for data: 81473280
I0623 21:15:05.362875  4601 layer_factory.hpp:77] Creating layer bn2_2_D
I0623 21:15:05.362881  4601 net.cpp:91] Creating Layer bn2_2_D
I0623 21:15:05.362884  4601 net.cpp:425] bn2_2_D <- conv2_2_D
I0623 21:15:05.362890  4601 net.cpp:386] bn2_2_D -> conv2_2_D (in-place)
I0623 21:15:05.363072  4601 net.cpp:141] Setting up bn2_2_D
I0623 21:15:05.363080  4601 net.cpp:148] Top shape: 1 32 112 112 (401408)
I0623 21:15:05.363082  4601 net.cpp:156] Memory required for data: 83078912
I0623 21:15:05.363087  4601 layer_factory.hpp:77] Creating layer scale2_2_D
I0623 21:15:05.363093  4601 net.cpp:91] Creating Layer scale2_2_D
I0623 21:15:05.363096  4601 net.cpp:425] scale2_2_D <- conv2_2_D
I0623 21:15:05.363101  4601 net.cpp:386] scale2_2_D -> conv2_2_D (in-place)
I0623 21:15:05.363137  4601 layer_factory.hpp:77] Creating layer scale2_2_D
I0623 21:15:05.363263  4601 net.cpp:141] Setting up scale2_2_D
I0623 21:15:05.363272  4601 net.cpp:148] Top shape: 1 32 112 112 (401408)
I0623 21:15:05.363275  4601 net.cpp:156] Memory required for data: 84684544
I0623 21:15:05.363278  4601 layer_factory.hpp:77] Creating layer relu2_2_D
I0623 21:15:05.363283  4601 net.cpp:91] Creating Layer relu2_2_D
I0623 21:15:05.363286  4601 net.cpp:425] relu2_2_D <- conv2_2_D
I0623 21:15:05.363291  4601 net.cpp:386] relu2_2_D -> conv2_2_D (in-place)
I0623 21:15:05.363441  4601 net.cpp:141] Setting up relu2_2_D
I0623 21:15:05.363451  4601 net.cpp:148] Top shape: 1 32 112 112 (401408)
I0623 21:15:05.363453  4601 net.cpp:156] Memory required for data: 86290176
I0623 21:15:05.363456  4601 layer_factory.hpp:77] Creating layer conv2_1_D
I0623 21:15:05.363462  4601 net.cpp:91] Creating Layer conv2_1_D
I0623 21:15:05.363466  4601 net.cpp:425] conv2_1_D <- conv2_2_D
I0623 21:15:05.363471  4601 net.cpp:399] conv2_1_D -> conv2_1_D
I0623 21:15:05.365548  4601 net.cpp:141] Setting up conv2_1_D
I0623 21:15:05.365561  4601 net.cpp:148] Top shape: 1 32 112 112 (401408)
I0623 21:15:05.365563  4601 net.cpp:156] Memory required for data: 87895808
I0623 21:15:05.365576  4601 layer_factory.hpp:77] Creating layer bn2_1_D
I0623 21:15:05.365583  4601 net.cpp:91] Creating Layer bn2_1_D
I0623 21:15:05.365587  4601 net.cpp:425] bn2_1_D <- conv2_1_D
I0623 21:15:05.365592  4601 net.cpp:386] bn2_1_D -> conv2_1_D (in-place)
I0623 21:15:05.365775  4601 net.cpp:141] Setting up bn2_1_D
I0623 21:15:05.365783  4601 net.cpp:148] Top shape: 1 32 112 112 (401408)
I0623 21:15:05.365785  4601 net.cpp:156] Memory required for data: 89501440
I0623 21:15:05.365792  4601 layer_factory.hpp:77] Creating layer scale2_1_D
I0623 21:15:05.365797  4601 net.cpp:91] Creating Layer scale2_1_D
I0623 21:15:05.365799  4601 net.cpp:425] scale2_1_D <- conv2_1_D
I0623 21:15:05.365803  4601 net.cpp:386] scale2_1_D -> conv2_1_D (in-place)
I0623 21:15:05.365840  4601 layer_factory.hpp:77] Creating layer scale2_1_D
I0623 21:15:05.365950  4601 net.cpp:141] Setting up scale2_1_D
I0623 21:15:05.365958  4601 net.cpp:148] Top shape: 1 32 112 112 (401408)
I0623 21:15:05.365962  4601 net.cpp:156] Memory required for data: 91107072
I0623 21:15:05.365967  4601 layer_factory.hpp:77] Creating layer relu2_1_D
I0623 21:15:05.365970  4601 net.cpp:91] Creating Layer relu2_1_D
I0623 21:15:05.365974  4601 net.cpp:425] relu2_1_D <- conv2_1_D
I0623 21:15:05.365978  4601 net.cpp:386] relu2_1_D -> conv2_1_D (in-place)
I0623 21:15:05.366255  4601 net.cpp:141] Setting up relu2_1_D
I0623 21:15:05.366266  4601 net.cpp:148] Top shape: 1 32 112 112 (401408)
I0623 21:15:05.366269  4601 net.cpp:156] Memory required for data: 92712704
I0623 21:15:05.366272  4601 layer_factory.hpp:77] Creating layer upsample1
I0623 21:15:05.366278  4601 net.cpp:91] Creating Layer upsample1
I0623 21:15:05.366281  4601 net.cpp:425] upsample1 <- conv2_1_D
I0623 21:15:05.366284  4601 net.cpp:425] upsample1 <- pool1_mask
I0623 21:15:05.366288  4601 net.cpp:399] upsample1 -> pool1_D
I0623 21:15:05.366317  4601 net.cpp:141] Setting up upsample1
I0623 21:15:05.366324  4601 net.cpp:148] Top shape: 1 32 224 224 (1605632)
I0623 21:15:05.366328  4601 net.cpp:156] Memory required for data: 99135232
I0623 21:15:05.366329  4601 layer_factory.hpp:77] Creating layer conv1_2_D
I0623 21:15:05.366336  4601 net.cpp:91] Creating Layer conv1_2_D
I0623 21:15:05.366339  4601 net.cpp:425] conv1_2_D <- pool1_D
I0623 21:15:05.366343  4601 net.cpp:399] conv1_2_D -> conv1_2_D
I0623 21:15:05.367261  4601 net.cpp:141] Setting up conv1_2_D
I0623 21:15:05.367275  4601 net.cpp:148] Top shape: 1 32 224 224 (1605632)
I0623 21:15:05.367279  4601 net.cpp:156] Memory required for data: 105557760
I0623 21:15:05.367282  4601 layer_factory.hpp:77] Creating layer bn1_2_D
I0623 21:15:05.367288  4601 net.cpp:91] Creating Layer bn1_2_D
I0623 21:15:05.367291  4601 net.cpp:425] bn1_2_D <- conv1_2_D
I0623 21:15:05.367296  4601 net.cpp:386] bn1_2_D -> conv1_2_D (in-place)
I0623 21:15:05.368091  4601 net.cpp:141] Setting up bn1_2_D
I0623 21:15:05.368101  4601 net.cpp:148] Top shape: 1 32 224 224 (1605632)
I0623 21:15:05.368104  4601 net.cpp:156] Memory required for data: 111980288
I0623 21:15:05.368110  4601 layer_factory.hpp:77] Creating layer scale1_2_D
I0623 21:15:05.368118  4601 net.cpp:91] Creating Layer scale1_2_D
I0623 21:15:05.368120  4601 net.cpp:425] scale1_2_D <- conv1_2_D
I0623 21:15:05.368124  4601 net.cpp:386] scale1_2_D -> conv1_2_D (in-place)
I0623 21:15:05.368165  4601 layer_factory.hpp:77] Creating layer scale1_2_D
I0623 21:15:05.368382  4601 net.cpp:141] Setting up scale1_2_D
I0623 21:15:05.368391  4601 net.cpp:148] Top shape: 1 32 224 224 (1605632)
I0623 21:15:05.368394  4601 net.cpp:156] Memory required for data: 118402816
I0623 21:15:05.368399  4601 layer_factory.hpp:77] Creating layer relu1_2_D
I0623 21:15:05.368404  4601 net.cpp:91] Creating Layer relu1_2_D
I0623 21:15:05.368407  4601 net.cpp:425] relu1_2_D <- conv1_2_D
I0623 21:15:05.368410  4601 net.cpp:386] relu1_2_D -> conv1_2_D (in-place)
I0623 21:15:05.368695  4601 net.cpp:141] Setting up relu1_2_D
I0623 21:15:05.368705  4601 net.cpp:148] Top shape: 1 32 224 224 (1605632)
I0623 21:15:05.368708  4601 net.cpp:156] Memory required for data: 124825344
I0623 21:15:05.368721  4601 layer_factory.hpp:77] Creating layer conv1_1_D
I0623 21:15:05.368731  4601 net.cpp:91] Creating Layer conv1_1_D
I0623 21:15:05.368736  4601 net.cpp:425] conv1_1_D <- conv1_2_D
I0623 21:15:05.368739  4601 net.cpp:399] conv1_1_D -> conv1_1_D
I0623 21:15:05.372802  4601 net.cpp:141] Setting up conv1_1_D
I0623 21:15:05.372817  4601 net.cpp:148] Top shape: 1 2 224 224 (100352)
I0623 21:15:05.372819  4601 net.cpp:156] Memory required for data: 125226752
I0623 21:15:05.372825  4601 layer_factory.hpp:77] Creating layer conv1_1_D_conv1_1_D_0_split
I0623 21:15:05.372831  4601 net.cpp:91] Creating Layer conv1_1_D_conv1_1_D_0_split
I0623 21:15:05.372834  4601 net.cpp:425] conv1_1_D_conv1_1_D_0_split <- conv1_1_D
I0623 21:15:05.372838  4601 net.cpp:399] conv1_1_D_conv1_1_D_0_split -> conv1_1_D_conv1_1_D_0_split_0
I0623 21:15:05.372845  4601 net.cpp:399] conv1_1_D_conv1_1_D_0_split -> conv1_1_D_conv1_1_D_0_split_1
I0623 21:15:05.372892  4601 net.cpp:141] Setting up conv1_1_D_conv1_1_D_0_split
I0623 21:15:05.372900  4601 net.cpp:148] Top shape: 1 2 224 224 (100352)
I0623 21:15:05.372902  4601 net.cpp:148] Top shape: 1 2 224 224 (100352)
I0623 21:15:05.372905  4601 net.cpp:156] Memory required for data: 126029568
I0623 21:15:05.372907  4601 layer_factory.hpp:77] Creating layer loss
I0623 21:15:05.372923  4601 net.cpp:91] Creating Layer loss
I0623 21:15:05.372928  4601 net.cpp:425] loss <- conv1_1_D_conv1_1_D_0_split_0
I0623 21:15:05.372931  4601 net.cpp:425] loss <- label_data_1_split_0
I0623 21:15:05.372936  4601 net.cpp:399] loss -> loss
…
