…
I0624 16:51:51.954799 21219 solver.cpp:91] Creating training net from net file: models/bpnet/train_val.prototxt
I0624 16:51:51.955658 21219 net.cpp:313] The NetState phase (0) differed from the phase (1) specified by a rule in layer data
I0624 16:51:51.955883 21219 net.cpp:49] Initializing net from parameters: 
name: "BPnet"
state {
  phase: TRAIN
}
layer {
  name: "data"
  type: "Data"
  top: "data"
  top: "label"
  include {
    phase: TRAIN
  }
  transform_param {
    mirror: false
    crop_size: 224
    mean_value: 100
    contrast_jitter_range: 0.1
  }
  data_param {
    source: "data/train_lmdb"
    batch_size: 32
    backend: LMDB
  }
}
layer {
  name: "conv1_1"
  type: "Convolution"
  bottom: "data"
  top: "conv1_1"
  param {
    lr_mult: 1
    decay_mult: 1
  }
  convolution_param {
    num_output: 32
    bias_term: false
    pad: 3
    kernel_size: 7
    stride: 2
    weight_filler {
      type: "xavier"
    }
  }
}
layer {
  name: "bn1_1"
  type: "BatchNorm"
  bottom: "conv1_1"
  top: "conv1_1"
  param {
    lr_mult: 0
  }
  param {
    lr_mult: 0
  }
  param {
    lr_mult: 0
  }
  batch_norm_param {
    use_global_stats: false
  }
}
layer {
  name: "scale1_1"
  type: "Scale"
  bottom: "conv1_1"
  top: "conv1_1"
  param {
    lr_mult: 1
    decay_mult: 1
  }
  param {
    lr_mult: 1
    decay_mult: 1
  }
  scale_param {
    bias_term: true
    bias_filler {
      type: "constant"
      value: 0
    }
  }
}
layer {
  name: "relu1_1"
  type: "ReLU"
  bottom: "conv1_1"
  top: "conv1_1"
}
layer {
  name: "conv1_2"
  type: "Convolution"
  bottom: "conv1_1"
  top: "conv1_2"
  param {
    lr_mult: 1
    decay_mult: 1
  }
  convolution_param {
    num_output: 32
    bias_term: false
    pad: 1
    kernel_size: 3
    weight_filler {
      type: "xavier"
    }
  }
}
layer {
  name: "bn1_2"
  type: "BatchNorm"
  bottom: "conv1_2"
  top: "conv1_2"
  param {
    lr_mult: 0
  }
  param {
    lr_mult: 0
  }
  param {
    lr_mult: 0
  }
  batch_norm_param {
    use_global_stats: false
  }
}
layer {
  name: "scale1_2"
  type: "Scale"
  bottom: "conv1_2"
  top: "conv1_2"
  param {
    lr_mult: 1
    decay_mult: 1
  }
  param {
    lr_mult: 1
    decay_mult: 1
  }
  scale_param {
    bias_term: true
    bias_filler {
      type: "constant"
      value: 0
    }
  }
}
layer {
  name: "relu1_2"
  type: "ReLU"
  bottom: "conv1_2"
  top: "conv1_2"
}
layer {
  name: "pool1"
  type: "Pooling"
  bottom: "conv1_2"
  top: "pool1"
  pooling_param {
    pool: MAX
    kernel_size: 2
    stride: 2
  }
}
layer {
  name: "conv2_1"
  type: "Convolution"
  bottom: "pool1"
  top: "conv2_1"
  param {
    lr_mult: 1
    decay_mult: 1
  }
  convolution_param {
    num_output: 64
    bias_term: false
    pad: 1
    kernel_size: 3
    weight_filler {
      type: "xavier"
    }
  }
}
layer {
  name: "bn2_1"
  type: "BatchNorm"
  bottom: "conv2_1"
  top: "conv2_1"
  param {
    lr_mult: 0
  }
  param {
    lr_mult: 0
  }
  param {
    lr_mult: 0
  }
  batch_norm_param {
    use_global_stats: false
  }
}
layer {
  name: "scale2_1"
  type: "Scale"
  bottom: "conv2_1"
  top: "conv2_1"
  param {
    lr_mult: 1
    decay_mult: 1
  }
  param {
    lr_mult: 1
    decay_mult: 1
  }
  scale_param {
    bias_term: true
    bias_filler {
      type: "constant"
      value: 0
    }
  }
}
layer {
  name: "relu2_1"
  type: "ReLU"
  bottom: "conv2_1"
  top: "conv2_1"
}
layer {
  name: "conv2_2"
  type: "Convolution"
  bottom: "conv2_1"
  top: "conv2_2"
  param {
    lr_mult: 1
    decay_mult: 1
  }
  convolution_param {
    num_output: 64
    bias_term: false
    pad: 1
    kernel_size: 3
    weight_filler {
      type: "xavier"
    }
  }
}
layer {
  name: "bn2_2"
  type: "BatchNorm"
  bottom: "conv2_2"
  top: "conv2_2"
  param {
    lr_mult: 0
  }
  param {
    lr_mult: 0
  }
  param {
    lr_mult: 0
  }
  batch_norm_param {
    use_global_stats: false
  }
}
layer {
  name: "scale2_2"
  type: "Scale"
  bottom: "conv2_2"
  top: "conv2_2"
  param {
    lr_mult: 1
    decay_mult: 1
  }
  param {
    lr_mult: 1
    decay_mult: 1
  }
  scale_param {
    bias_term: true
    bias_filler {
      type: "constant"
      value: 0
    }
  }
}
layer {
  name: "relu2_2"
  type: "ReLU"
  bottom: "conv2_2"
  top: "conv2_2"
}
layer {
  name: "pool2"
  type: "Pooling"
  bottom: "conv2_2"
  top: "pool2"
  pooling_param {
    pool: MAX
    kernel_size: 2
    stride: 2
  }
}
layer {
  name: "conv3_1"
  type: "Convolution"
  bottom: "pool2"
  top: "conv3_1"
  param {
    lr_mult: 1
    decay_mult: 1
  }
  convolution_param {
    num_output: 64
    bias_term: false
    pad: 1
    kernel_size: 3
    weight_filler {
      type: "xavier"
    }
  }
}
layer {
  name: "bn3_1"
  type: "BatchNorm"
  bottom: "conv3_1"
  top: "conv3_1"
  param {
    lr_mult: 0
  }
  param {
    lr_mult: 0
  }
  param {
    lr_mult: 0
  }
  batch_norm_param {
    use_global_stats: false
  }
}
layer {
  name: "scale3_1"
  type: "Scale"
  bottom: "conv3_1"
  top: "conv3_1"
  param {
    lr_mult: 1
    decay_mult: 1
  }
  param {
    lr_mult: 1
    decay_mult: 1
  }
  scale_param {
    bias_term: true
    bias_filler {
      type: "constant"
      value: 0
    }
  }
}
layer {
  name: "relu3_1"
  type: "ReLU"
  bottom: "conv3_1"
  top: "conv3_1"
}
layer {
  name: "conv3_2"
  type: "Convolution"
  bottom: "conv3_1"
  top: "conv3_2"
  param {
    lr_mult: 1
    decay_mult: 1
  }
  convolution_param {
    num_output: 64
    bias_term: false
    pad: 1
    kernel_size: 3
    weight_filler {
      type: "xavier"
    }
  }
}
layer {
  name: "bn3_2"
  type: "BatchNorm"
  bottom: "conv3_2"
  top: "conv3_2"
  param {
    lr_mult: 0
  }
  param {
    lr_mult: 0
  }
  param {
    lr_mult: 0
  }
  batch_norm_param {
    use_global_stats: false
  }
}
layer {
  name: "scale3_2"
  type: "Scale"
  bottom: "conv3_2"
  top: "conv3_2"
  param {
    lr_mult: 1
    decay_mult: 1
  }
  param {
    lr_mult: 1
    decay_mult: 1
  }
  scale_param {
    bias_term: true
    bias_filler {
      type: "constant"
      value: 0
    }
  }
}
layer {
  name: "relu3_2"
  type: "ReLU"
  bottom: "conv3_2"
  top: "conv3_2"
}
layer {
  name: "pool3"
  type: "Pooling"
  bottom: "conv3_2"
  top: "pool3"
  pooling_param {
    pool: MAX
    kernel_size: 2
    stride: 2
  }
}
layer {
  name: "conv4_1"
  type: "Convolution"
  bottom: "pool3"
  top: "conv4_1"
  param {
    lr_mult: 1
    decay_mult: 1
  }
  convolution_param {
    num_output: 128
    bias_term: false
    pad: 1
    kernel_size: 3
    weight_filler {
      type: "xavier"
    }
  }
}
layer {
  name: "bn4_1"
  type: "BatchNorm"
  bottom: "conv4_1"
  top: "conv4_1"
  param {
    lr_mult: 0
  }
  param {
    lr_mult: 0
  }
  param {
    lr_mult: 0
  }
  batch_norm_param {
    use_global_stats: false
  }
}
layer {
  name: "scale4_1"
  type: "Scale"
  bottom: "conv4_1"
  top: "conv4_1"
  param {
    lr_mult: 1
    decay_mult: 1
  }
  param {
    lr_mult: 1
    decay_mult: 1
  }
  scale_param {
    bias_term: true
    bias_filler {
      type: "constant"
      value: 0
    }
  }
}
layer {
  name: "relu4_1"
  type: "ReLU"
  bottom: "conv4_1"
  top: "conv4_1"
}
layer {
  name: "conv4_2"
  type: "Convolution"
  bottom: "conv4_1"
  top: "conv4_2"
  param {
    lr_mult: 1
    decay_mult: 1
  }
  convolution_param {
    num_output: 128
    bias_term: false
    pad: 1
    kernel_size: 3
    weight_filler {
      type: "xavier"
    }
  }
}
layer {
  name: "bn4_2"
  type: "BatchNorm"
  bottom: "conv4_2"
  top: "conv4_2"
  param {
    lr_mult: 0
  }
  param {
    lr_mult: 0
  }
  param {
    lr_mult: 0
  }
  batch_norm_param {
    use_global_stats: false
  }
}
layer {
  name: "scale4_2"
  type: "Scale"
  bottom: "conv4_2"
  top: "conv4_2"
  param {
    lr_mult: 1
    decay_mult: 1
  }
  param {
    lr_mult: 1
    decay_mult: 1
  }
  scale_param {
    bias_term: true
    bias_filler {
      type: "constant"
      value: 0
    }
  }
}
layer {
  name: "relu4_2"
  type: "ReLU"
  bottom: "conv4_2"
  top: "conv4_2"
}
layer {
  name: "pool4"
  type: "Pooling"
  bottom: "conv4_2"
  top: "pool4"
  pooling_param {
    pool: MAX
    kernel_size: 2
    stride: 2
  }
}
layer {
  name: "conv5_1"
  type: "Convolution"
  bottom: "pool4"
  top: "conv5_1"
  param {
    lr_mult: 1
    decay_mult: 1
  }
  convolution_param {
    num_output: 128
    bias_term: false
    pad: 1
    kernel_size: 3
    weight_filler {
      type: "xavier"
    }
  }
}
layer {
  name: "bn5_1"
  type: "BatchNorm"
  bottom: "conv5_1"
  top: "conv5_1"
  param {
    lr_mult: 0
  }
  param {
    lr_mult: 0
  }
  param {
    lr_mult: 0
  }
  batch_norm_param {
    use_global_stats: false
  }
}
layer {
  name: "scale5_1"
  type: "Scale"
  bottom: "conv5_1"
  top: "conv5_1"
  param {
    lr_mult: 1
    decay_mult: 1
  }
  param {
    lr_mult: 1
    decay_mult: 1
  }
  scale_param {
    bias_term: true
    bias_filler {
      type: "constant"
      value: 0
    }
  }
}
layer {
  name: "relu5_1"
  type: "ReLU"
  bottom: "conv5_1"
  top: "conv5_1"
}
layer {
  name: "conv5_2"
  type: "Convolution"
  bottom: "conv5_1"
  top: "conv5_2"
  param {
    lr_mult: 1
    decay_mult: 1
  }
  convolution_param {
    num_output: 128
    bias_term: false
    pad: 1
    kernel_size: 3
    weight_filler {
      type: "xavier"
    }
  }
}
layer {
  name: "bn5_2"
  type: "BatchNorm"
  bottom: "conv5_2"
  top: "conv5_2"
  param {
    lr_mult: 0
  }
  param {
    lr_mult: 0
  }
  param {
    lr_mult: 0
  }
  batch_norm_param {
    use_global_stats: false
  }
}
layer {
  name: "scale5_2"
  type: "Scale"
  bottom: "conv5_2"
  top: "conv5_2"
  param {
    lr_mult: 1
    decay_mult: 1
  }
  param {
    lr_mult: 1
    decay_mult: 1
  }
  scale_param {
    bias_term: true
    bias_filler {
      type: "constant"
      value: 0
    }
  }
}
layer {
  name: "relu5_2"
  type: "ReLU"
  bottom: "conv5_2"
  top: "conv5_2"
}
layer {
  name: "pool5"
  type: "Pooling"
  bottom: "conv5_2"
  top: "pool5"
  pooling_param {
    pool: AVE
    kernel_size: 7
    stride: 1
  }
}
layer {
  name: "fc2"
  type: "InnerProduct"
  bottom: "pool5"
  top: "fc2"
  inner_product_param {
    num_output: 2
  }
}
layer {
  name: "loss"
  type: "SoftmaxWithLoss"
  bottom: "fc2"
  bottom: "label"
  top: "loss"
}
layer {
  name: "accuracy"
  type: "Accuracy"
  bottom: "fc2"
  bottom: "label"
  top: "accuracy"
}
I0624 16:51:51.956048 21219 layer_factory.hpp:77] Creating layer data
I0624 16:51:51.956444 21219 net.cpp:91] Creating Layer data
I0624 16:51:51.956455 21219 net.cpp:399] data -> data
I0624 16:51:51.956477 21219 net.cpp:399] data -> label
I0624 16:51:51.957821 21223 db_lmdb.cpp:35] Opened lmdb data/train_lmdb
I0624 16:51:51.982499 21219 data_layer.cpp:42] output data size: 32,3,224,224
I0624 16:51:52.023042 21219 net.cpp:141] Setting up data
I0624 16:51:52.023071 21219 net.cpp:148] Top shape: 32 3 224 224 (4816896)
I0624 16:51:52.023075 21219 net.cpp:148] Top shape: 32 (32)
I0624 16:51:52.023077 21219 net.cpp:156] Memory required for data: 19267712
I0624 16:51:52.023085 21219 layer_factory.hpp:77] Creating layer label_data_1_split
I0624 16:51:52.023102 21219 net.cpp:91] Creating Layer label_data_1_split
I0624 16:51:52.023107 21219 net.cpp:425] label_data_1_split <- label
I0624 16:51:52.023116 21219 net.cpp:399] label_data_1_split -> label_data_1_split_0
I0624 16:51:52.023125 21219 net.cpp:399] label_data_1_split -> label_data_1_split_1
I0624 16:51:52.023175 21219 net.cpp:141] Setting up label_data_1_split
I0624 16:51:52.023185 21219 net.cpp:148] Top shape: 32 (32)
I0624 16:51:52.023188 21219 net.cpp:148] Top shape: 32 (32)
I0624 16:51:52.023190 21219 net.cpp:156] Memory required for data: 19267968
I0624 16:51:52.023193 21219 layer_factory.hpp:77] Creating layer conv1_1
I0624 16:51:52.023207 21219 net.cpp:91] Creating Layer conv1_1
I0624 16:51:52.023211 21219 net.cpp:425] conv1_1 <- data
I0624 16:51:52.023214 21219 net.cpp:399] conv1_1 -> conv1_1
I0624 16:51:52.203830 21219 net.cpp:141] Setting up conv1_1
I0624 16:51:52.203856 21219 net.cpp:148] Top shape: 32 32 112 112 (12845056)
I0624 16:51:52.203860 21219 net.cpp:156] Memory required for data: 70648192
I0624 16:51:52.203872 21219 layer_factory.hpp:77] Creating layer bn1_1
I0624 16:51:52.203883 21219 net.cpp:91] Creating Layer bn1_1
I0624 16:51:52.203887 21219 net.cpp:425] bn1_1 <- conv1_1
I0624 16:51:52.203892 21219 net.cpp:386] bn1_1 -> conv1_1 (in-place)
I0624 16:51:52.204049 21219 net.cpp:141] Setting up bn1_1
I0624 16:51:52.204057 21219 net.cpp:148] Top shape: 32 32 112 112 (12845056)
I0624 16:51:52.204059 21219 net.cpp:156] Memory required for data: 122028416
I0624 16:51:52.204069 21219 layer_factory.hpp:77] Creating layer scale1_1
I0624 16:51:52.204078 21219 net.cpp:91] Creating Layer scale1_1
I0624 16:51:52.204080 21219 net.cpp:425] scale1_1 <- conv1_1
I0624 16:51:52.204084 21219 net.cpp:386] scale1_1 -> conv1_1 (in-place)
I0624 16:51:52.204119 21219 layer_factory.hpp:77] Creating layer scale1_1
I0624 16:51:52.204219 21219 net.cpp:141] Setting up scale1_1
I0624 16:51:52.204226 21219 net.cpp:148] Top shape: 32 32 112 112 (12845056)
I0624 16:51:52.204228 21219 net.cpp:156] Memory required for data: 173408640
I0624 16:51:52.204234 21219 layer_factory.hpp:77] Creating layer relu1_1
I0624 16:51:52.204239 21219 net.cpp:91] Creating Layer relu1_1
I0624 16:51:52.204242 21219 net.cpp:425] relu1_1 <- conv1_1
I0624 16:51:52.204246 21219 net.cpp:386] relu1_1 -> conv1_1 (in-place)
I0624 16:51:52.204376 21219 net.cpp:141] Setting up relu1_1
I0624 16:51:52.204385 21219 net.cpp:148] Top shape: 32 32 112 112 (12845056)
I0624 16:51:52.204388 21219 net.cpp:156] Memory required for data: 224788864
I0624 16:51:52.204391 21219 layer_factory.hpp:77] Creating layer conv1_2
I0624 16:51:52.204399 21219 net.cpp:91] Creating Layer conv1_2
I0624 16:51:52.204402 21219 net.cpp:425] conv1_2 <- conv1_1
I0624 16:51:52.204406 21219 net.cpp:399] conv1_2 -> conv1_2
I0624 16:51:52.205183 21219 net.cpp:141] Setting up conv1_2
I0624 16:51:52.205196 21219 net.cpp:148] Top shape: 32 32 112 112 (12845056)
I0624 16:51:52.205199 21219 net.cpp:156] Memory required for data: 276169088
I0624 16:51:52.205204 21219 layer_factory.hpp:77] Creating layer bn1_2
I0624 16:51:52.205209 21219 net.cpp:91] Creating Layer bn1_2
I0624 16:51:52.205212 21219 net.cpp:425] bn1_2 <- conv1_2
I0624 16:51:52.205216 21219 net.cpp:386] bn1_2 -> conv1_2 (in-place)
I0624 16:51:52.205363 21219 net.cpp:141] Setting up bn1_2
I0624 16:51:52.205370 21219 net.cpp:148] Top shape: 32 32 112 112 (12845056)
I0624 16:51:52.205373 21219 net.cpp:156] Memory required for data: 327549312
I0624 16:51:52.205380 21219 layer_factory.hpp:77] Creating layer scale1_2
I0624 16:51:52.205387 21219 net.cpp:91] Creating Layer scale1_2
I0624 16:51:52.205389 21219 net.cpp:425] scale1_2 <- conv1_2
I0624 16:51:52.205394 21219 net.cpp:386] scale1_2 -> conv1_2 (in-place)
I0624 16:51:52.205422 21219 layer_factory.hpp:77] Creating layer scale1_2
I0624 16:51:52.205521 21219 net.cpp:141] Setting up scale1_2
I0624 16:51:52.205528 21219 net.cpp:148] Top shape: 32 32 112 112 (12845056)
I0624 16:51:52.205530 21219 net.cpp:156] Memory required for data: 378929536
I0624 16:51:52.205534 21219 layer_factory.hpp:77] Creating layer relu1_2
I0624 16:51:52.205539 21219 net.cpp:91] Creating Layer relu1_2
I0624 16:51:52.205541 21219 net.cpp:425] relu1_2 <- conv1_2
I0624 16:51:52.205544 21219 net.cpp:386] relu1_2 -> conv1_2 (in-place)
I0624 16:51:52.205675 21219 net.cpp:141] Setting up relu1_2
I0624 16:51:52.205683 21219 net.cpp:148] Top shape: 32 32 112 112 (12845056)
I0624 16:51:52.205687 21219 net.cpp:156] Memory required for data: 430309760
I0624 16:51:52.205688 21219 layer_factory.hpp:77] Creating layer pool1
I0624 16:51:52.205695 21219 net.cpp:91] Creating Layer pool1
I0624 16:51:52.205698 21219 net.cpp:425] pool1 <- conv1_2
I0624 16:51:52.205703 21219 net.cpp:399] pool1 -> pool1
I0624 16:51:52.205749 21219 net.cpp:141] Setting up pool1
I0624 16:51:52.205755 21219 net.cpp:148] Top shape: 32 32 56 56 (3211264)
I0624 16:51:52.205771 21219 net.cpp:156] Memory required for data: 443154816
I0624 16:51:52.205775 21219 layer_factory.hpp:77] Creating layer conv2_1
I0624 16:51:52.205782 21219 net.cpp:91] Creating Layer conv2_1
I0624 16:51:52.205785 21219 net.cpp:425] conv2_1 <- pool1
I0624 16:51:52.205790 21219 net.cpp:399] conv2_1 -> conv2_1
I0624 16:51:52.207769 21219 net.cpp:141] Setting up conv2_1
I0624 16:51:52.207782 21219 net.cpp:148] Top shape: 32 64 56 56 (6422528)
I0624 16:51:52.207784 21219 net.cpp:156] Memory required for data: 468844928
I0624 16:51:52.207788 21219 layer_factory.hpp:77] Creating layer bn2_1
I0624 16:51:52.207795 21219 net.cpp:91] Creating Layer bn2_1
I0624 16:51:52.207798 21219 net.cpp:425] bn2_1 <- conv2_1
I0624 16:51:52.207803 21219 net.cpp:386] bn2_1 -> conv2_1 (in-place)
I0624 16:51:52.209002 21219 net.cpp:141] Setting up bn2_1
I0624 16:51:52.209014 21219 net.cpp:148] Top shape: 32 64 56 56 (6422528)
I0624 16:51:52.209017 21219 net.cpp:156] Memory required for data: 494535040
I0624 16:51:52.209022 21219 layer_factory.hpp:77] Creating layer scale2_1
I0624 16:51:52.209030 21219 net.cpp:91] Creating Layer scale2_1
I0624 16:51:52.209033 21219 net.cpp:425] scale2_1 <- conv2_1
I0624 16:51:52.209038 21219 net.cpp:386] scale2_1 -> conv2_1 (in-place)
I0624 16:51:52.209074 21219 layer_factory.hpp:77] Creating layer scale2_1
I0624 16:51:52.209164 21219 net.cpp:141] Setting up scale2_1
I0624 16:51:52.209172 21219 net.cpp:148] Top shape: 32 64 56 56 (6422528)
I0624 16:51:52.209173 21219 net.cpp:156] Memory required for data: 520225152
I0624 16:51:52.209182 21219 layer_factory.hpp:77] Creating layer relu2_1
I0624 16:51:52.209185 21219 net.cpp:91] Creating Layer relu2_1
I0624 16:51:52.209188 21219 net.cpp:425] relu2_1 <- conv2_1
I0624 16:51:52.209192 21219 net.cpp:386] relu2_1 -> conv2_1 (in-place)
I0624 16:51:52.209543 21219 net.cpp:141] Setting up relu2_1
I0624 16:51:52.209555 21219 net.cpp:148] Top shape: 32 64 56 56 (6422528)
I0624 16:51:52.209558 21219 net.cpp:156] Memory required for data: 545915264
I0624 16:51:52.209560 21219 layer_factory.hpp:77] Creating layer conv2_2
I0624 16:51:52.209568 21219 net.cpp:91] Creating Layer conv2_2
I0624 16:51:52.209571 21219 net.cpp:425] conv2_2 <- conv2_1
I0624 16:51:52.209576 21219 net.cpp:399] conv2_2 -> conv2_2
I0624 16:51:52.210325 21219 net.cpp:141] Setting up conv2_2
I0624 16:51:52.210335 21219 net.cpp:148] Top shape: 32 64 56 56 (6422528)
I0624 16:51:52.210338 21219 net.cpp:156] Memory required for data: 571605376
I0624 16:51:52.210342 21219 layer_factory.hpp:77] Creating layer bn2_2
I0624 16:51:52.210350 21219 net.cpp:91] Creating Layer bn2_2
I0624 16:51:52.210353 21219 net.cpp:425] bn2_2 <- conv2_2
I0624 16:51:52.210357 21219 net.cpp:386] bn2_2 -> conv2_2 (in-place)
I0624 16:51:52.210500 21219 net.cpp:141] Setting up bn2_2
I0624 16:51:52.210507 21219 net.cpp:148] Top shape: 32 64 56 56 (6422528)
I0624 16:51:52.210510 21219 net.cpp:156] Memory required for data: 597295488
I0624 16:51:52.210515 21219 layer_factory.hpp:77] Creating layer scale2_2
I0624 16:51:52.210520 21219 net.cpp:91] Creating Layer scale2_2
I0624 16:51:52.210522 21219 net.cpp:425] scale2_2 <- conv2_2
I0624 16:51:52.210525 21219 net.cpp:386] scale2_2 -> conv2_2 (in-place)
I0624 16:51:52.210557 21219 layer_factory.hpp:77] Creating layer scale2_2
I0624 16:51:52.210646 21219 net.cpp:141] Setting up scale2_2
I0624 16:51:52.210654 21219 net.cpp:148] Top shape: 32 64 56 56 (6422528)
I0624 16:51:52.210655 21219 net.cpp:156] Memory required for data: 622985600
I0624 16:51:52.210659 21219 layer_factory.hpp:77] Creating layer relu2_2
I0624 16:51:52.210664 21219 net.cpp:91] Creating Layer relu2_2
I0624 16:51:52.210665 21219 net.cpp:425] relu2_2 <- conv2_2
I0624 16:51:52.210669 21219 net.cpp:386] relu2_2 -> conv2_2 (in-place)
I0624 16:51:52.211019 21219 net.cpp:141] Setting up relu2_2
I0624 16:51:52.211030 21219 net.cpp:148] Top shape: 32 64 56 56 (6422528)
I0624 16:51:52.211032 21219 net.cpp:156] Memory required for data: 648675712
I0624 16:51:52.211035 21219 layer_factory.hpp:77] Creating layer pool2
I0624 16:51:52.211050 21219 net.cpp:91] Creating Layer pool2
I0624 16:51:52.211052 21219 net.cpp:425] pool2 <- conv2_2
I0624 16:51:52.211057 21219 net.cpp:399] pool2 -> pool2
I0624 16:51:52.211093 21219 net.cpp:141] Setting up pool2
I0624 16:51:52.211098 21219 net.cpp:148] Top shape: 32 64 28 28 (1605632)
I0624 16:51:52.211100 21219 net.cpp:156] Memory required for data: 655098240
I0624 16:51:52.211102 21219 layer_factory.hpp:77] Creating layer conv3_1
I0624 16:51:52.211112 21219 net.cpp:91] Creating Layer conv3_1
I0624 16:51:52.211113 21219 net.cpp:425] conv3_1 <- pool2
I0624 16:51:52.211117 21219 net.cpp:399] conv3_1 -> conv3_1
I0624 16:51:52.212083 21219 net.cpp:141] Setting up conv3_1
I0624 16:51:52.212095 21219 net.cpp:148] Top shape: 32 64 28 28 (1605632)
I0624 16:51:52.212098 21219 net.cpp:156] Memory required for data: 661520768
I0624 16:51:52.212102 21219 layer_factory.hpp:77] Creating layer bn3_1
I0624 16:51:52.212110 21219 net.cpp:91] Creating Layer bn3_1
I0624 16:51:52.212112 21219 net.cpp:425] bn3_1 <- conv3_1
I0624 16:51:52.212116 21219 net.cpp:386] bn3_1 -> conv3_1 (in-place)
I0624 16:51:52.213311 21219 net.cpp:141] Setting up bn3_1
I0624 16:51:52.213322 21219 net.cpp:148] Top shape: 32 64 28 28 (1605632)
I0624 16:51:52.213325 21219 net.cpp:156] Memory required for data: 667943296
I0624 16:51:52.213330 21219 layer_factory.hpp:77] Creating layer scale3_1
I0624 16:51:52.213338 21219 net.cpp:91] Creating Layer scale3_1
I0624 16:51:52.213341 21219 net.cpp:425] scale3_1 <- conv3_1
I0624 16:51:52.213346 21219 net.cpp:386] scale3_1 -> conv3_1 (in-place)
I0624 16:51:52.213379 21219 layer_factory.hpp:77] Creating layer scale3_1
I0624 16:51:52.213469 21219 net.cpp:141] Setting up scale3_1
I0624 16:51:52.213475 21219 net.cpp:148] Top shape: 32 64 28 28 (1605632)
I0624 16:51:52.213477 21219 net.cpp:156] Memory required for data: 674365824
I0624 16:51:52.213481 21219 layer_factory.hpp:77] Creating layer relu3_1
I0624 16:51:52.213485 21219 net.cpp:91] Creating Layer relu3_1
I0624 16:51:52.213487 21219 net.cpp:425] relu3_1 <- conv3_1
I0624 16:51:52.213493 21219 net.cpp:386] relu3_1 -> conv3_1 (in-place)
I0624 16:51:52.213626 21219 net.cpp:141] Setting up relu3_1
I0624 16:51:52.213635 21219 net.cpp:148] Top shape: 32 64 28 28 (1605632)
I0624 16:51:52.213637 21219 net.cpp:156] Memory required for data: 680788352
I0624 16:51:52.213640 21219 layer_factory.hpp:77] Creating layer conv3_2
I0624 16:51:52.213647 21219 net.cpp:91] Creating Layer conv3_2
I0624 16:51:52.213650 21219 net.cpp:425] conv3_2 <- conv3_1
I0624 16:51:52.213656 21219 net.cpp:399] conv3_2 -> conv3_2
I0624 16:51:52.214632 21219 net.cpp:141] Setting up conv3_2
I0624 16:51:52.214645 21219 net.cpp:148] Top shape: 32 64 28 28 (1605632)
I0624 16:51:52.214648 21219 net.cpp:156] Memory required for data: 687210880
I0624 16:51:52.214651 21219 layer_factory.hpp:77] Creating layer bn3_2
I0624 16:51:52.214658 21219 net.cpp:91] Creating Layer bn3_2
I0624 16:51:52.214661 21219 net.cpp:425] bn3_2 <- conv3_2
I0624 16:51:52.214665 21219 net.cpp:386] bn3_2 -> conv3_2 (in-place)
I0624 16:51:52.214807 21219 net.cpp:141] Setting up bn3_2
I0624 16:51:52.214814 21219 net.cpp:148] Top shape: 32 64 28 28 (1605632)
I0624 16:51:52.214818 21219 net.cpp:156] Memory required for data: 693633408
I0624 16:51:52.214828 21219 layer_factory.hpp:77] Creating layer scale3_2
I0624 16:51:52.214833 21219 net.cpp:91] Creating Layer scale3_2
I0624 16:51:52.214836 21219 net.cpp:425] scale3_2 <- conv3_2
I0624 16:51:52.214839 21219 net.cpp:386] scale3_2 -> conv3_2 (in-place)
I0624 16:51:52.214874 21219 layer_factory.hpp:77] Creating layer scale3_2
I0624 16:51:52.214968 21219 net.cpp:141] Setting up scale3_2
I0624 16:51:52.214975 21219 net.cpp:148] Top shape: 32 64 28 28 (1605632)
I0624 16:51:52.214978 21219 net.cpp:156] Memory required for data: 700055936
I0624 16:51:52.214982 21219 layer_factory.hpp:77] Creating layer relu3_2
I0624 16:51:52.214987 21219 net.cpp:91] Creating Layer relu3_2
I0624 16:51:52.214989 21219 net.cpp:425] relu3_2 <- conv3_2
I0624 16:51:52.214994 21219 net.cpp:386] relu3_2 -> conv3_2 (in-place)
I0624 16:51:52.215140 21219 net.cpp:141] Setting up relu3_2
I0624 16:51:52.215155 21219 net.cpp:148] Top shape: 32 64 28 28 (1605632)
I0624 16:51:52.215157 21219 net.cpp:156] Memory required for data: 706478464
I0624 16:51:52.215160 21219 layer_factory.hpp:77] Creating layer pool3
I0624 16:51:52.215165 21219 net.cpp:91] Creating Layer pool3
I0624 16:51:52.215167 21219 net.cpp:425] pool3 <- conv3_2
I0624 16:51:52.215173 21219 net.cpp:399] pool3 -> pool3
I0624 16:51:52.215207 21219 net.cpp:141] Setting up pool3
I0624 16:51:52.215215 21219 net.cpp:148] Top shape: 32 64 14 14 (401408)
I0624 16:51:52.215219 21219 net.cpp:156] Memory required for data: 708084096
I0624 16:51:52.215220 21219 layer_factory.hpp:77] Creating layer conv4_1
I0624 16:51:52.215227 21219 net.cpp:91] Creating Layer conv4_1
I0624 16:51:52.215229 21219 net.cpp:425] conv4_1 <- pool3
I0624 16:51:52.215234 21219 net.cpp:399] conv4_1 -> conv4_1
I0624 16:51:52.217548 21219 net.cpp:141] Setting up conv4_1
I0624 16:51:52.217561 21219 net.cpp:148] Top shape: 32 128 14 14 (802816)
I0624 16:51:52.217564 21219 net.cpp:156] Memory required for data: 711295360
I0624 16:51:52.217568 21219 layer_factory.hpp:77] Creating layer bn4_1
I0624 16:51:52.217576 21219 net.cpp:91] Creating Layer bn4_1
I0624 16:51:52.217578 21219 net.cpp:425] bn4_1 <- conv4_1
I0624 16:51:52.217582 21219 net.cpp:386] bn4_1 -> conv4_1 (in-place)
I0624 16:51:52.217726 21219 net.cpp:141] Setting up bn4_1
I0624 16:51:52.217735 21219 net.cpp:148] Top shape: 32 128 14 14 (802816)
I0624 16:51:52.217737 21219 net.cpp:156] Memory required for data: 714506624
I0624 16:51:52.217743 21219 layer_factory.hpp:77] Creating layer scale4_1
I0624 16:51:52.217749 21219 net.cpp:91] Creating Layer scale4_1
I0624 16:51:52.217752 21219 net.cpp:425] scale4_1 <- conv4_1
I0624 16:51:52.217756 21219 net.cpp:386] scale4_1 -> conv4_1 (in-place)
I0624 16:51:52.217788 21219 layer_factory.hpp:77] Creating layer scale4_1
I0624 16:51:52.217870 21219 net.cpp:141] Setting up scale4_1
I0624 16:51:52.217876 21219 net.cpp:148] Top shape: 32 128 14 14 (802816)
I0624 16:51:52.217880 21219 net.cpp:156] Memory required for data: 717717888
I0624 16:51:52.217883 21219 layer_factory.hpp:77] Creating layer relu4_1
I0624 16:51:52.217890 21219 net.cpp:91] Creating Layer relu4_1
I0624 16:51:52.217893 21219 net.cpp:425] relu4_1 <- conv4_1
I0624 16:51:52.217896 21219 net.cpp:386] relu4_1 -> conv4_1 (in-place)
I0624 16:51:52.218032 21219 net.cpp:141] Setting up relu4_1
I0624 16:51:52.218041 21219 net.cpp:148] Top shape: 32 128 14 14 (802816)
I0624 16:51:52.218044 21219 net.cpp:156] Memory required for data: 720929152
I0624 16:51:52.218046 21219 layer_factory.hpp:77] Creating layer conv4_2
I0624 16:51:52.218055 21219 net.cpp:91] Creating Layer conv4_2
I0624 16:51:52.218057 21219 net.cpp:425] conv4_2 <- conv4_1
I0624 16:51:52.218061 21219 net.cpp:399] conv4_2 -> conv4_2
I0624 16:51:52.219866 21219 net.cpp:141] Setting up conv4_2
I0624 16:51:52.219880 21219 net.cpp:148] Top shape: 32 128 14 14 (802816)
I0624 16:51:52.219883 21219 net.cpp:156] Memory required for data: 724140416
I0624 16:51:52.219887 21219 layer_factory.hpp:77] Creating layer bn4_2
I0624 16:51:52.219894 21219 net.cpp:91] Creating Layer bn4_2
I0624 16:51:52.219897 21219 net.cpp:425] bn4_2 <- conv4_2
I0624 16:51:52.219902 21219 net.cpp:386] bn4_2 -> conv4_2 (in-place)
I0624 16:51:52.220053 21219 net.cpp:141] Setting up bn4_2
I0624 16:51:52.220060 21219 net.cpp:148] Top shape: 32 128 14 14 (802816)
I0624 16:51:52.220062 21219 net.cpp:156] Memory required for data: 727351680
I0624 16:51:52.220068 21219 layer_factory.hpp:77] Creating layer scale4_2
I0624 16:51:52.220073 21219 net.cpp:91] Creating Layer scale4_2
I0624 16:51:52.220077 21219 net.cpp:425] scale4_2 <- conv4_2
I0624 16:51:52.220082 21219 net.cpp:386] scale4_2 -> conv4_2 (in-place)
I0624 16:51:52.220111 21219 layer_factory.hpp:77] Creating layer scale4_2
I0624 16:51:52.220196 21219 net.cpp:141] Setting up scale4_2
I0624 16:51:52.220202 21219 net.cpp:148] Top shape: 32 128 14 14 (802816)
I0624 16:51:52.220204 21219 net.cpp:156] Memory required for data: 730562944
I0624 16:51:52.220218 21219 layer_factory.hpp:77] Creating layer relu4_2
I0624 16:51:52.220223 21219 net.cpp:91] Creating Layer relu4_2
I0624 16:51:52.220226 21219 net.cpp:425] relu4_2 <- conv4_2
I0624 16:51:52.220228 21219 net.cpp:386] relu4_2 -> conv4_2 (in-place)
I0624 16:51:52.220376 21219 net.cpp:141] Setting up relu4_2
I0624 16:51:52.220384 21219 net.cpp:148] Top shape: 32 128 14 14 (802816)
I0624 16:51:52.220387 21219 net.cpp:156] Memory required for data: 733774208
I0624 16:51:52.220391 21219 layer_factory.hpp:77] Creating layer pool4
I0624 16:51:52.220394 21219 net.cpp:91] Creating Layer pool4
I0624 16:51:52.220397 21219 net.cpp:425] pool4 <- conv4_2
I0624 16:51:52.220402 21219 net.cpp:399] pool4 -> pool4
I0624 16:51:52.220438 21219 net.cpp:141] Setting up pool4
I0624 16:51:52.220445 21219 net.cpp:148] Top shape: 32 128 7 7 (200704)
I0624 16:51:52.220448 21219 net.cpp:156] Memory required for data: 734577024
I0624 16:51:52.220449 21219 layer_factory.hpp:77] Creating layer conv5_1
I0624 16:51:52.220456 21219 net.cpp:91] Creating Layer conv5_1
I0624 16:51:52.220458 21219 net.cpp:425] conv5_1 <- pool4
I0624 16:51:52.220463 21219 net.cpp:399] conv5_1 -> conv5_1
I0624 16:51:52.222256 21219 net.cpp:141] Setting up conv5_1
I0624 16:51:52.222268 21219 net.cpp:148] Top shape: 32 128 7 7 (200704)
I0624 16:51:52.222271 21219 net.cpp:156] Memory required for data: 735379840
I0624 16:51:52.222275 21219 layer_factory.hpp:77] Creating layer bn5_1
I0624 16:51:52.222283 21219 net.cpp:91] Creating Layer bn5_1
I0624 16:51:52.222286 21219 net.cpp:425] bn5_1 <- conv5_1
I0624 16:51:52.222290 21219 net.cpp:386] bn5_1 -> conv5_1 (in-place)
I0624 16:51:52.222440 21219 net.cpp:141] Setting up bn5_1
I0624 16:51:52.222448 21219 net.cpp:148] Top shape: 32 128 7 7 (200704)
I0624 16:51:52.222450 21219 net.cpp:156] Memory required for data: 736182656
I0624 16:51:52.222456 21219 layer_factory.hpp:77] Creating layer scale5_1
I0624 16:51:52.222462 21219 net.cpp:91] Creating Layer scale5_1
I0624 16:51:52.222465 21219 net.cpp:425] scale5_1 <- conv5_1
I0624 16:51:52.222468 21219 net.cpp:386] scale5_1 -> conv5_1 (in-place)
I0624 16:51:52.222503 21219 layer_factory.hpp:77] Creating layer scale5_1
I0624 16:51:52.222589 21219 net.cpp:141] Setting up scale5_1
I0624 16:51:52.222595 21219 net.cpp:148] Top shape: 32 128 7 7 (200704)
I0624 16:51:52.222599 21219 net.cpp:156] Memory required for data: 736985472
I0624 16:51:52.222602 21219 layer_factory.hpp:77] Creating layer relu5_1
I0624 16:51:52.222609 21219 net.cpp:91] Creating Layer relu5_1
I0624 16:51:52.222610 21219 net.cpp:425] relu5_1 <- conv5_1
I0624 16:51:52.222615 21219 net.cpp:386] relu5_1 -> conv5_1 (in-place)
I0624 16:51:52.222971 21219 net.cpp:141] Setting up relu5_1
I0624 16:51:52.222982 21219 net.cpp:148] Top shape: 32 128 7 7 (200704)
I0624 16:51:52.222985 21219 net.cpp:156] Memory required for data: 737788288
I0624 16:51:52.222987 21219 layer_factory.hpp:77] Creating layer conv5_2
I0624 16:51:52.222997 21219 net.cpp:91] Creating Layer conv5_2
I0624 16:51:52.223001 21219 net.cpp:425] conv5_2 <- conv5_1
I0624 16:51:52.223006 21219 net.cpp:399] conv5_2 -> conv5_2
I0624 16:51:52.224588 21219 net.cpp:141] Setting up conv5_2
I0624 16:51:52.224601 21219 net.cpp:148] Top shape: 32 128 7 7 (200704)
I0624 16:51:52.224603 21219 net.cpp:156] Memory required for data: 738591104
I0624 16:51:52.224607 21219 layer_factory.hpp:77] Creating layer bn5_2
I0624 16:51:52.224614 21219 net.cpp:91] Creating Layer bn5_2
I0624 16:51:52.224617 21219 net.cpp:425] bn5_2 <- conv5_2
I0624 16:51:52.224622 21219 net.cpp:386] bn5_2 -> conv5_2 (in-place)
I0624 16:51:52.224771 21219 net.cpp:141] Setting up bn5_2
I0624 16:51:52.224777 21219 net.cpp:148] Top shape: 32 128 7 7 (200704)
I0624 16:51:52.224779 21219 net.cpp:156] Memory required for data: 739393920
I0624 16:51:52.224786 21219 layer_factory.hpp:77] Creating layer scale5_2
I0624 16:51:52.224791 21219 net.cpp:91] Creating Layer scale5_2
I0624 16:51:52.224793 21219 net.cpp:425] scale5_2 <- conv5_2
I0624 16:51:52.224797 21219 net.cpp:386] scale5_2 -> conv5_2 (in-place)
I0624 16:51:52.224843 21219 layer_factory.hpp:77] Creating layer scale5_2
I0624 16:51:52.224926 21219 net.cpp:141] Setting up scale5_2
I0624 16:51:52.224932 21219 net.cpp:148] Top shape: 32 128 7 7 (200704)
I0624 16:51:52.224936 21219 net.cpp:156] Memory required for data: 740196736
I0624 16:51:52.224939 21219 layer_factory.hpp:77] Creating layer relu5_2
I0624 16:51:52.224943 21219 net.cpp:91] Creating Layer relu5_2
I0624 16:51:52.224946 21219 net.cpp:425] relu5_2 <- conv5_2
I0624 16:51:52.224951 21219 net.cpp:386] relu5_2 -> conv5_2 (in-place)
I0624 16:51:52.225303 21219 net.cpp:141] Setting up relu5_2
I0624 16:51:52.225316 21219 net.cpp:148] Top shape: 32 128 7 7 (200704)
I0624 16:51:52.225317 21219 net.cpp:156] Memory required for data: 740999552
I0624 16:51:52.225320 21219 layer_factory.hpp:77] Creating layer pool5
I0624 16:51:52.225327 21219 net.cpp:91] Creating Layer pool5
I0624 16:51:52.225329 21219 net.cpp:425] pool5 <- conv5_2
I0624 16:51:52.225333 21219 net.cpp:399] pool5 -> pool5
I0624 16:51:52.225493 21219 net.cpp:141] Setting up pool5
I0624 16:51:52.225503 21219 net.cpp:148] Top shape: 32 128 1 1 (4096)
I0624 16:51:52.225505 21219 net.cpp:156] Memory required for data: 741015936
I0624 16:51:52.225508 21219 layer_factory.hpp:77] Creating layer fc2
I0624 16:51:52.225514 21219 net.cpp:91] Creating Layer fc2
I0624 16:51:52.225517 21219 net.cpp:425] fc2 <- pool5
I0624 16:51:52.225522 21219 net.cpp:399] fc2 -> fc2
I0624 16:51:52.225605 21219 net.cpp:141] Setting up fc2
I0624 16:51:52.225612 21219 net.cpp:148] Top shape: 32 2 (64)
I0624 16:51:52.225615 21219 net.cpp:156] Memory required for data: 741016192
I0624 16:51:52.225620 21219 layer_factory.hpp:77] Creating layer fc2_fc2_0_split
I0624 16:51:52.225625 21219 net.cpp:91] Creating Layer fc2_fc2_0_split
I0624 16:51:52.225627 21219 net.cpp:425] fc2_fc2_0_split <- fc2
I0624 16:51:52.225630 21219 net.cpp:399] fc2_fc2_0_split -> fc2_fc2_0_split_0
I0624 16:51:52.225636 21219 net.cpp:399] fc2_fc2_0_split -> fc2_fc2_0_split_1
I0624 16:51:52.225666 21219 net.cpp:141] Setting up fc2_fc2_0_split
I0624 16:51:52.225672 21219 net.cpp:148] Top shape: 32 2 (64)
I0624 16:51:52.225674 21219 net.cpp:148] Top shape: 32 2 (64)
I0624 16:51:52.225677 21219 net.cpp:156] Memory required for data: 741016704
I0624 16:51:52.225678 21219 layer_factory.hpp:77] Creating layer loss
I0624 16:51:52.225687 21219 net.cpp:91] Creating Layer loss
I0624 16:51:52.225690 21219 net.cpp:425] loss <- fc2_fc2_0_split_0
I0624 16:51:52.225693 21219 net.cpp:425] loss <- label_data_1_split_0
I0624 16:51:52.225697 21219 net.cpp:399] loss -> loss
…
I0624 16:51:52.226940 21219 solver.cpp:181] Creating test net (#0) specified by net file: models/bpnet/train_val.prototxt
I0624 16:51:52.226992 21219 net.cpp:313] The NetState phase (1) differed from the phase (0) specified by a rule in layer data
I0624 16:51:52.227216 21219 net.cpp:49] Initializing net from parameters: 
name: "BPnet"
state {
  phase: TEST
}
layer {
  name: "data"
  type: "Data"
  top: "data"
  top: "label"
  include {
    phase: TEST
  }
  transform_param {
    mirror: false
    crop_size: 224
    mean_value: 100
    contrast_jitter_range: 0.1
  }
  data_param {
    source: "data/val_lmdb"
    batch_size: 16
    backend: LMDB
  }
}
layer {
  name: "conv1_1"
  type: "Convolution"
  bottom: "data"
  top: "conv1_1"
  param {
    lr_mult: 1
    decay_mult: 1
  }
  convolution_param {
    num_output: 32
    bias_term: false
    pad: 3
    kernel_size: 7
    stride: 2
    weight_filler {
      type: "xavier"
    }
  }
}
layer {
  name: "bn1_1"
  type: "BatchNorm"
  bottom: "conv1_1"
  top: "conv1_1"
  param {
    lr_mult: 0
  }
  param {
    lr_mult: 0
  }
  param {
    lr_mult: 0
  }
  batch_norm_param {
    use_global_stats: false
  }
}
layer {
  name: "scale1_1"
  type: "Scale"
  bottom: "conv1_1"
  top: "conv1_1"
  param {
    lr_mult: 1
    decay_mult: 1
  }
  param {
    lr_mult: 1
    decay_mult: 1
  }
  scale_param {
    bias_term: true
    bias_filler {
      type: "constant"
      value: 0
    }
  }
}
layer {
  name: "relu1_1"
  type: "ReLU"
  bottom: "conv1_1"
  top: "conv1_1"
}
layer {
  name: "conv1_2"
  type: "Convolution"
  bottom: "conv1_1"
  top: "conv1_2"
  param {
    lr_mult: 1
    decay_mult: 1
  }
  convolution_param {
    num_output: 32
    bias_term: false
    pad: 1
    kernel_size: 3
    weight_filler {
      type: "xavier"
    }
  }
}
layer {
  name: "bn1_2"
  type: "BatchNorm"
  bottom: "conv1_2"
  top: "conv1_2"
  param {
    lr_mult: 0
  }
  param {
    lr_mult: 0
  }
  param {
    lr_mult: 0
  }
  batch_norm_param {
    use_global_stats: false
  }
}
layer {
  name: "scale1_2"
  type: "Scale"
  bottom: "conv1_2"
  top: "conv1_2"
  param {
    lr_mult: 1
    decay_mult: 1
  }
  param {
    lr_mult: 1
    decay_mult: 1
  }
  scale_param {
    bias_term: true
    bias_filler {
      type: "constant"
      value: 0
    }
  }
}
layer {
  name: "relu1_2"
  type: "ReLU"
  bottom: "conv1_2"
  top: "conv1_2"
}
layer {
  name: "pool1"
  type: "Pooling"
  bottom: "conv1_2"
  top: "pool1"
  pooling_param {
    pool: MAX
    kernel_size: 2
    stride: 2
  }
}
layer {
  name: "conv2_1"
  type: "Convolution"
  bottom: "pool1"
  top: "conv2_1"
  param {
    lr_mult: 1
    decay_mult: 1
  }
  convolution_param {
    num_output: 64
    bias_term: false
    pad: 1
    kernel_size: 3
    weight_filler {
      type: "xavier"
    }
  }
}
layer {
  name: "bn2_1"
  type: "BatchNorm"
  bottom: "conv2_1"
  top: "conv2_1"
  param {
    lr_mult: 0
  }
  param {
    lr_mult: 0
  }
  param {
    lr_mult: 0
  }
  batch_norm_param {
    use_global_stats: false
  }
}
layer {
  name: "scale2_1"
  type: "Scale"
  bottom: "conv2_1"
  top: "conv2_1"
  param {
    lr_mult: 1
    decay_mult: 1
  }
  param {
    lr_mult: 1
    decay_mult: 1
  }
  scale_param {
    bias_term: true
    bias_filler {
      type: "constant"
      value: 0
    }
  }
}
layer {
  name: "relu2_1"
  type: "ReLU"
  bottom: "conv2_1"
  top: "conv2_1"
}
layer {
  name: "conv2_2"
  type: "Convolution"
  bottom: "conv2_1"
  top: "conv2_2"
  param {
    lr_mult: 1
    decay_mult: 1
  }
  convolution_param {
    num_output: 64
    bias_term: false
    pad: 1
    kernel_size: 3
    weight_filler {
      type: "xavier"
    }
  }
}
layer {
  name: "bn2_2"
  type: "BatchNorm"
  bottom: "conv2_2"
  top: "conv2_2"
  param {
    lr_mult: 0
  }
  param {
    lr_mult: 0
  }
  param {
    lr_mult: 0
  }
  batch_norm_param {
    use_global_stats: false
  }
}
layer {
  name: "scale2_2"
  type: "Scale"
  bottom: "conv2_2"
  top: "conv2_2"
  param {
    lr_mult: 1
    decay_mult: 1
  }
  param {
    lr_mult: 1
    decay_mult: 1
  }
  scale_param {
    bias_term: true
    bias_filler {
      type: "constant"
      value: 0
    }
  }
}
layer {
  name: "relu2_2"
  type: "ReLU"
  bottom: "conv2_2"
  top: "conv2_2"
}
layer {
  name: "pool2"
  type: "Pooling"
  bottom: "conv2_2"
  top: "pool2"
  pooling_param {
    pool: MAX
    kernel_size: 2
    stride: 2
  }
}
layer {
  name: "conv3_1"
  type: "Convolution"
  bottom: "pool2"
  top: "conv3_1"
  param {
    lr_mult: 1
    decay_mult: 1
  }
  convolution_param {
    num_output: 64
    bias_term: false
    pad: 1
    kernel_size: 3
    weight_filler {
      type: "xavier"
    }
  }
}
layer {
  name: "bn3_1"
  type: "BatchNorm"
  bottom: "conv3_1"
  top: "conv3_1"
  param {
    lr_mult: 0
  }
  param {
    lr_mult: 0
  }
  param {
    lr_mult: 0
  }
  batch_norm_param {
    use_global_stats: false
  }
}
layer {
  name: "scale3_1"
  type: "Scale"
  bottom: "conv3_1"
  top: "conv3_1"
  param {
    lr_mult: 1
    decay_mult: 1
  }
  param {
    lr_mult: 1
    decay_mult: 1
  }
  scale_param {
    bias_term: true
    bias_filler {
      type: "constant"
      value: 0
    }
  }
}
layer {
  name: "relu3_1"
  type: "ReLU"
  bottom: "conv3_1"
  top: "conv3_1"
}
layer {
  name: "conv3_2"
  type: "Convolution"
  bottom: "conv3_1"
  top: "conv3_2"
  param {
    lr_mult: 1
    decay_mult: 1
  }
  convolution_param {
    num_output: 64
    bias_term: false
    pad: 1
    kernel_size: 3
    weight_filler {
      type: "xavier"
    }
  }
}
layer {
  name: "bn3_2"
  type: "BatchNorm"
  bottom: "conv3_2"
  top: "conv3_2"
  param {
    lr_mult: 0
  }
  param {
    lr_mult: 0
  }
  param {
    lr_mult: 0
  }
  batch_norm_param {
    use_global_stats: false
  }
}
layer {
  name: "scale3_2"
  type: "Scale"
  bottom: "conv3_2"
  top: "conv3_2"
  param {
    lr_mult: 1
    decay_mult: 1
  }
  param {
    lr_mult: 1
    decay_mult: 1
  }
  scale_param {
    bias_term: true
    bias_filler {
      type: "constant"
      value: 0
    }
  }
}
layer {
  name: "relu3_2"
  type: "ReLU"
  bottom: "conv3_2"
  top: "conv3_2"
}
layer {
  name: "pool3"
  type: "Pooling"
  bottom: "conv3_2"
  top: "pool3"
  pooling_param {
    pool: MAX
    kernel_size: 2
    stride: 2
  }
}
layer {
  name: "conv4_1"
  type: "Convolution"
  bottom: "pool3"
  top: "conv4_1"
  param {
    lr_mult: 1
    decay_mult: 1
  }
  convolution_param {
    num_output: 128
    bias_term: false
    pad: 1
    kernel_size: 3
    weight_filler {
      type: "xavier"
    }
  }
}
layer {
  name: "bn4_1"
  type: "BatchNorm"
  bottom: "conv4_1"
  top: "conv4_1"
  param {
    lr_mult: 0
  }
  param {
    lr_mult: 0
  }
  param {
    lr_mult: 0
  }
  batch_norm_param {
    use_global_stats: false
  }
}
layer {
  name: "scale4_1"
  type: "Scale"
  bottom: "conv4_1"
  top: "conv4_1"
  param {
    lr_mult: 1
    decay_mult: 1
  }
  param {
    lr_mult: 1
    decay_mult: 1
  }
  scale_param {
    bias_term: true
    bias_filler {
      type: "constant"
      value: 0
    }
  }
}
layer {
  name: "relu4_1"
  type: "ReLU"
  bottom: "conv4_1"
  top: "conv4_1"
}
layer {
  name: "conv4_2"
  type: "Convolution"
  bottom: "conv4_1"
  top: "conv4_2"
  param {
    lr_mult: 1
    decay_mult: 1
  }
  convolution_param {
    num_output: 128
    bias_term: false
    pad: 1
    kernel_size: 3
    weight_filler {
      type: "xavier"
    }
  }
}
layer {
  name: "bn4_2"
  type: "BatchNorm"
  bottom: "conv4_2"
  top: "conv4_2"
  param {
    lr_mult: 0
  }
  param {
    lr_mult: 0
  }
  param {
    lr_mult: 0
  }
  batch_norm_param {
    use_global_stats: false
  }
}
layer {
  name: "scale4_2"
  type: "Scale"
  bottom: "conv4_2"
  top: "conv4_2"
  param {
    lr_mult: 1
    decay_mult: 1
  }
  param {
    lr_mult: 1
    decay_mult: 1
  }
  scale_param {
    bias_term: true
    bias_filler {
      type: "constant"
      value: 0
    }
  }
}
layer {
  name: "relu4_2"
  type: "ReLU"
  bottom: "conv4_2"
  top: "conv4_2"
}
layer {
  name: "pool4"
  type: "Pooling"
  bottom: "conv4_2"
  top: "pool4"
  pooling_param {
    pool: MAX
    kernel_size: 2
    stride: 2
  }
}
layer {
  name: "conv5_1"
  type: "Convolution"
  bottom: "pool4"
  top: "conv5_1"
  param {
    lr_mult: 1
    decay_mult: 1
  }
  convolution_param {
    num_output: 128
    bias_term: false
    pad: 1
    kernel_size: 3
    weight_filler {
      type: "xavier"
    }
  }
}
layer {
  name: "bn5_1"
  type: "BatchNorm"
  bottom: "conv5_1"
  top: "conv5_1"
  param {
    lr_mult: 0
  }
  param {
    lr_mult: 0
  }
  param {
    lr_mult: 0
  }
  batch_norm_param {
    use_global_stats: false
  }
}
layer {
  name: "scale5_1"
  type: "Scale"
  bottom: "conv5_1"
  top: "conv5_1"
  param {
    lr_mult: 1
    decay_mult: 1
  }
  param {
    lr_mult: 1
    decay_mult: 1
  }
  scale_param {
    bias_term: true
    bias_filler {
      type: "constant"
      value: 0
    }
  }
}
layer {
  name: "relu5_1"
  type: "ReLU"
  bottom: "conv5_1"
  top: "conv5_1"
}
layer {
  name: "conv5_2"
  type: "Convolution"
  bottom: "conv5_1"
  top: "conv5_2"
  param {
    lr_mult: 1
    decay_mult: 1
  }
  convolution_param {
    num_output: 128
    bias_term: false
    pad: 1
    kernel_size: 3
    weight_filler {
      type: "xavier"
    }
  }
}
layer {
  name: "bn5_2"
  type: "BatchNorm"
  bottom: "conv5_2"
  top: "conv5_2"
  param {
    lr_mult: 0
  }
  param {
    lr_mult: 0
  }
  param {
    lr_mult: 0
  }
  batch_norm_param {
    use_global_stats: false
  }
}
layer {
  name: "scale5_2"
  type: "Scale"
  bottom: "conv5_2"
  top: "conv5_2"
  param {
    lr_mult: 1
    decay_mult: 1
  }
  param {
    lr_mult: 1
    decay_mult: 1
  }
  scale_param {
    bias_term: true
    bias_filler {
      type: "constant"
      value: 0
    }
  }
}
layer {
  name: "relu5_2"
  type: "ReLU"
  bottom: "conv5_2"
  top: "conv5_2"
}
layer {
  name: "pool5"
  type: "Pooling"
  bottom: "conv5_2"
  top: "pool5"
  pooling_param {
    pool: AVE
    kernel_size: 7
    stride: 1
  }
}
layer {
  name: "fc2"
  type: "InnerProduct"
  bottom: "pool5"
  top: "fc2"
  inner_product_param {
    num_output: 2
  }
}
layer {
  name: "loss"
  type: "SoftmaxWithLoss"
  bottom: "fc2"
  bottom: "label"
  top: "loss"
}
layer {
  name: "accuracy"
  type: "Accuracy"
  bottom: "fc2"
  bottom: "label"
  top: "accuracy"
}
I0624 16:51:52.227360 21219 layer_factory.hpp:77] Creating layer data
I0624 16:51:52.227413 21219 net.cpp:91] Creating Layer data
I0624 16:51:52.227419 21219 net.cpp:399] data -> data
I0624 16:51:52.227427 21219 net.cpp:399] data -> label
I0624 16:51:52.228317 21225 db_lmdb.cpp:35] Opened lmdb data/val_lmdb
I0624 16:51:52.228587 21219 data_layer.cpp:42] output data size: 16,3,224,224
I0624 16:51:52.249119 21219 net.cpp:141] Setting up data
I0624 16:51:52.249141 21219 net.cpp:148] Top shape: 16 3 224 224 (2408448)
I0624 16:51:52.249145 21219 net.cpp:148] Top shape: 16 (16)
I0624 16:51:52.249148 21219 net.cpp:156] Memory required for data: 9633856
I0624 16:51:52.249153 21219 layer_factory.hpp:77] Creating layer label_data_1_split
I0624 16:51:52.249163 21219 net.cpp:91] Creating Layer label_data_1_split
I0624 16:51:52.249167 21219 net.cpp:425] label_data_1_split <- label
I0624 16:51:52.249172 21219 net.cpp:399] label_data_1_split -> label_data_1_split_0
I0624 16:51:52.249181 21219 net.cpp:399] label_data_1_split -> label_data_1_split_1
I0624 16:51:52.249230 21219 net.cpp:141] Setting up label_data_1_split
I0624 16:51:52.249238 21219 net.cpp:148] Top shape: 16 (16)
I0624 16:51:52.249240 21219 net.cpp:148] Top shape: 16 (16)
I0624 16:51:52.249243 21219 net.cpp:156] Memory required for data: 9633984
I0624 16:51:52.249244 21219 layer_factory.hpp:77] Creating layer conv1_1
I0624 16:51:52.249255 21219 net.cpp:91] Creating Layer conv1_1
I0624 16:51:52.249258 21219 net.cpp:425] conv1_1 <- data
I0624 16:51:52.249263 21219 net.cpp:399] conv1_1 -> conv1_1
I0624 16:51:52.251075 21219 net.cpp:141] Setting up conv1_1
I0624 16:51:52.251090 21219 net.cpp:148] Top shape: 16 32 112 112 (6422528)
I0624 16:51:52.251092 21219 net.cpp:156] Memory required for data: 35324096
I0624 16:51:52.251099 21219 layer_factory.hpp:77] Creating layer bn1_1
I0624 16:51:52.251107 21219 net.cpp:91] Creating Layer bn1_1
I0624 16:51:52.251111 21219 net.cpp:425] bn1_1 <- conv1_1
I0624 16:51:52.251114 21219 net.cpp:386] bn1_1 -> conv1_1 (in-place)
I0624 16:51:52.251302 21219 net.cpp:141] Setting up bn1_1
I0624 16:51:52.251309 21219 net.cpp:148] Top shape: 16 32 112 112 (6422528)
I0624 16:51:52.251312 21219 net.cpp:156] Memory required for data: 61014208
I0624 16:51:52.251320 21219 layer_factory.hpp:77] Creating layer scale1_1
I0624 16:51:52.251329 21219 net.cpp:91] Creating Layer scale1_1
I0624 16:51:52.251332 21219 net.cpp:425] scale1_1 <- conv1_1
I0624 16:51:52.251337 21219 net.cpp:386] scale1_1 -> conv1_1 (in-place)
I0624 16:51:52.251389 21219 layer_factory.hpp:77] Creating layer scale1_1
I0624 16:51:52.251504 21219 net.cpp:141] Setting up scale1_1
I0624 16:51:52.251512 21219 net.cpp:148] Top shape: 16 32 112 112 (6422528)
I0624 16:51:52.251513 21219 net.cpp:156] Memory required for data: 86704320
I0624 16:51:52.251524 21219 layer_factory.hpp:77] Creating layer relu1_1
I0624 16:51:52.251530 21219 net.cpp:91] Creating Layer relu1_1
I0624 16:51:52.251533 21219 net.cpp:425] relu1_1 <- conv1_1
I0624 16:51:52.251536 21219 net.cpp:386] relu1_1 -> conv1_1 (in-place)
I0624 16:51:52.251684 21219 net.cpp:141] Setting up relu1_1
I0624 16:51:52.251693 21219 net.cpp:148] Top shape: 16 32 112 112 (6422528)
I0624 16:51:52.251695 21219 net.cpp:156] Memory required for data: 112394432
I0624 16:51:52.251698 21219 layer_factory.hpp:77] Creating layer conv1_2
I0624 16:51:52.251706 21219 net.cpp:91] Creating Layer conv1_2
I0624 16:51:52.251709 21219 net.cpp:425] conv1_2 <- conv1_1
I0624 16:51:52.251713 21219 net.cpp:399] conv1_2 -> conv1_2
I0624 16:51:52.252593 21219 net.cpp:141] Setting up conv1_2
I0624 16:51:52.252606 21219 net.cpp:148] Top shape: 16 32 112 112 (6422528)
I0624 16:51:52.252609 21219 net.cpp:156] Memory required for data: 138084544
I0624 16:51:52.252614 21219 layer_factory.hpp:77] Creating layer bn1_2
I0624 16:51:52.252620 21219 net.cpp:91] Creating Layer bn1_2
I0624 16:51:52.252624 21219 net.cpp:425] bn1_2 <- conv1_2
I0624 16:51:52.252629 21219 net.cpp:386] bn1_2 -> conv1_2 (in-place)
I0624 16:51:52.252790 21219 net.cpp:141] Setting up bn1_2
I0624 16:51:52.252797 21219 net.cpp:148] Top shape: 16 32 112 112 (6422528)
I0624 16:51:52.252800 21219 net.cpp:156] Memory required for data: 163774656
I0624 16:51:52.252809 21219 layer_factory.hpp:77] Creating layer scale1_2
I0624 16:51:52.252815 21219 net.cpp:91] Creating Layer scale1_2
I0624 16:51:52.252818 21219 net.cpp:425] scale1_2 <- conv1_2
I0624 16:51:52.252821 21219 net.cpp:386] scale1_2 -> conv1_2 (in-place)
I0624 16:51:52.252856 21219 layer_factory.hpp:77] Creating layer scale1_2
I0624 16:51:52.252964 21219 net.cpp:141] Setting up scale1_2
I0624 16:51:52.252970 21219 net.cpp:148] Top shape: 16 32 112 112 (6422528)
I0624 16:51:52.252972 21219 net.cpp:156] Memory required for data: 189464768
I0624 16:51:52.252977 21219 layer_factory.hpp:77] Creating layer relu1_2
I0624 16:51:52.252982 21219 net.cpp:91] Creating Layer relu1_2
I0624 16:51:52.252985 21219 net.cpp:425] relu1_2 <- conv1_2
I0624 16:51:52.252988 21219 net.cpp:386] relu1_2 -> conv1_2 (in-place)
I0624 16:51:52.253366 21219 net.cpp:141] Setting up relu1_2
I0624 16:51:52.253379 21219 net.cpp:148] Top shape: 16 32 112 112 (6422528)
I0624 16:51:52.253382 21219 net.cpp:156] Memory required for data: 215154880
I0624 16:51:52.253384 21219 layer_factory.hpp:77] Creating layer pool1
I0624 16:51:52.253391 21219 net.cpp:91] Creating Layer pool1
I0624 16:51:52.253393 21219 net.cpp:425] pool1 <- conv1_2
I0624 16:51:52.253398 21219 net.cpp:399] pool1 -> pool1
I0624 16:51:52.253437 21219 net.cpp:141] Setting up pool1
I0624 16:51:52.253448 21219 net.cpp:148] Top shape: 16 32 56 56 (1605632)
I0624 16:51:52.253449 21219 net.cpp:156] Memory required for data: 221577408
I0624 16:51:52.253451 21219 layer_factory.hpp:77] Creating layer conv2_1
I0624 16:51:52.253458 21219 net.cpp:91] Creating Layer conv2_1
I0624 16:51:52.253460 21219 net.cpp:425] conv2_1 <- pool1
I0624 16:51:52.253464 21219 net.cpp:399] conv2_1 -> conv2_1
I0624 16:51:52.254379 21219 net.cpp:141] Setting up conv2_1
I0624 16:51:52.254391 21219 net.cpp:148] Top shape: 16 64 56 56 (3211264)
I0624 16:51:52.254395 21219 net.cpp:156] Memory required for data: 234422464
I0624 16:51:52.254398 21219 layer_factory.hpp:77] Creating layer bn2_1
I0624 16:51:52.254405 21219 net.cpp:91] Creating Layer bn2_1
I0624 16:51:52.254406 21219 net.cpp:425] bn2_1 <- conv2_1
I0624 16:51:52.254411 21219 net.cpp:386] bn2_1 -> conv2_1 (in-place)
I0624 16:51:52.254576 21219 net.cpp:141] Setting up bn2_1
I0624 16:51:52.254583 21219 net.cpp:148] Top shape: 16 64 56 56 (3211264)
I0624 16:51:52.254595 21219 net.cpp:156] Memory required for data: 247267520
I0624 16:51:52.254601 21219 layer_factory.hpp:77] Creating layer scale2_1
I0624 16:51:52.254606 21219 net.cpp:91] Creating Layer scale2_1
I0624 16:51:52.254609 21219 net.cpp:425] scale2_1 <- conv2_1
I0624 16:51:52.254613 21219 net.cpp:386] scale2_1 -> conv2_1 (in-place)
I0624 16:51:52.254652 21219 layer_factory.hpp:77] Creating layer scale2_1
I0624 16:51:52.254760 21219 net.cpp:141] Setting up scale2_1
I0624 16:51:52.254767 21219 net.cpp:148] Top shape: 16 64 56 56 (3211264)
I0624 16:51:52.254770 21219 net.cpp:156] Memory required for data: 260112576
I0624 16:51:52.254777 21219 layer_factory.hpp:77] Creating layer relu2_1
I0624 16:51:52.254782 21219 net.cpp:91] Creating Layer relu2_1
I0624 16:51:52.254784 21219 net.cpp:425] relu2_1 <- conv2_1
I0624 16:51:52.254789 21219 net.cpp:386] relu2_1 -> conv2_1 (in-place)
I0624 16:51:52.254930 21219 net.cpp:141] Setting up relu2_1
I0624 16:51:52.254938 21219 net.cpp:148] Top shape: 16 64 56 56 (3211264)
I0624 16:51:52.254941 21219 net.cpp:156] Memory required for data: 272957632
I0624 16:51:52.254943 21219 layer_factory.hpp:77] Creating layer conv2_2
I0624 16:51:52.254951 21219 net.cpp:91] Creating Layer conv2_2
I0624 16:51:52.254954 21219 net.cpp:425] conv2_2 <- conv2_1
I0624 16:51:52.254959 21219 net.cpp:399] conv2_2 -> conv2_2
I0624 16:51:52.255997 21219 net.cpp:141] Setting up conv2_2
I0624 16:51:52.256011 21219 net.cpp:148] Top shape: 16 64 56 56 (3211264)
I0624 16:51:52.256013 21219 net.cpp:156] Memory required for data: 285802688
I0624 16:51:52.256017 21219 layer_factory.hpp:77] Creating layer bn2_2
I0624 16:51:52.256026 21219 net.cpp:91] Creating Layer bn2_2
I0624 16:51:52.256028 21219 net.cpp:425] bn2_2 <- conv2_2
I0624 16:51:52.256033 21219 net.cpp:386] bn2_2 -> conv2_2 (in-place)
I0624 16:51:52.256194 21219 net.cpp:141] Setting up bn2_2
I0624 16:51:52.256201 21219 net.cpp:148] Top shape: 16 64 56 56 (3211264)
I0624 16:51:52.256203 21219 net.cpp:156] Memory required for data: 298647744
I0624 16:51:52.256209 21219 layer_factory.hpp:77] Creating layer scale2_2
I0624 16:51:52.256216 21219 net.cpp:91] Creating Layer scale2_2
I0624 16:51:52.256218 21219 net.cpp:425] scale2_2 <- conv2_2
I0624 16:51:52.256222 21219 net.cpp:386] scale2_2 -> conv2_2 (in-place)
I0624 16:51:52.256255 21219 layer_factory.hpp:77] Creating layer scale2_2
I0624 16:51:52.256351 21219 net.cpp:141] Setting up scale2_2
I0624 16:51:52.256358 21219 net.cpp:148] Top shape: 16 64 56 56 (3211264)
I0624 16:51:52.256361 21219 net.cpp:156] Memory required for data: 311492800
I0624 16:51:52.256366 21219 layer_factory.hpp:77] Creating layer relu2_2
I0624 16:51:52.256371 21219 net.cpp:91] Creating Layer relu2_2
I0624 16:51:52.256372 21219 net.cpp:425] relu2_2 <- conv2_2
I0624 16:51:52.256376 21219 net.cpp:386] relu2_2 -> conv2_2 (in-place)
I0624 16:51:52.256534 21219 net.cpp:141] Setting up relu2_2
I0624 16:51:52.256543 21219 net.cpp:148] Top shape: 16 64 56 56 (3211264)
I0624 16:51:52.256546 21219 net.cpp:156] Memory required for data: 324337856
I0624 16:51:52.256548 21219 layer_factory.hpp:77] Creating layer pool2
I0624 16:51:52.256553 21219 net.cpp:91] Creating Layer pool2
I0624 16:51:52.256556 21219 net.cpp:425] pool2 <- conv2_2
I0624 16:51:52.256559 21219 net.cpp:399] pool2 -> pool2
I0624 16:51:52.256595 21219 net.cpp:141] Setting up pool2
I0624 16:51:52.256600 21219 net.cpp:148] Top shape: 16 64 28 28 (802816)
I0624 16:51:52.256603 21219 net.cpp:156] Memory required for data: 327549120
I0624 16:51:52.256604 21219 layer_factory.hpp:77] Creating layer conv3_1
I0624 16:51:52.256611 21219 net.cpp:91] Creating Layer conv3_1
I0624 16:51:52.256614 21219 net.cpp:425] conv3_1 <- pool2
I0624 16:51:52.256618 21219 net.cpp:399] conv3_1 -> conv3_1
I0624 16:51:52.257868 21219 net.cpp:141] Setting up conv3_1
I0624 16:51:52.257879 21219 net.cpp:148] Top shape: 16 64 28 28 (802816)
I0624 16:51:52.257882 21219 net.cpp:156] Memory required for data: 330760384
I0624 16:51:52.257886 21219 layer_factory.hpp:77] Creating layer bn3_1
I0624 16:51:52.257894 21219 net.cpp:91] Creating Layer bn3_1
I0624 16:51:52.257906 21219 net.cpp:425] bn3_1 <- conv3_1
I0624 16:51:52.257911 21219 net.cpp:386] bn3_1 -> conv3_1 (in-place)
I0624 16:51:52.258076 21219 net.cpp:141] Setting up bn3_1
I0624 16:51:52.258083 21219 net.cpp:148] Top shape: 16 64 28 28 (802816)
I0624 16:51:52.258090 21219 net.cpp:156] Memory required for data: 333971648
I0624 16:51:52.258095 21219 layer_factory.hpp:77] Creating layer scale3_1
I0624 16:51:52.258101 21219 net.cpp:91] Creating Layer scale3_1
I0624 16:51:52.258105 21219 net.cpp:425] scale3_1 <- conv3_1
I0624 16:51:52.258108 21219 net.cpp:386] scale3_1 -> conv3_1 (in-place)
I0624 16:51:52.258142 21219 layer_factory.hpp:77] Creating layer scale3_1
I0624 16:51:52.258236 21219 net.cpp:141] Setting up scale3_1
I0624 16:51:52.258244 21219 net.cpp:148] Top shape: 16 64 28 28 (802816)
I0624 16:51:52.258245 21219 net.cpp:156] Memory required for data: 337182912
I0624 16:51:52.258250 21219 layer_factory.hpp:77] Creating layer relu3_1
I0624 16:51:52.258255 21219 net.cpp:91] Creating Layer relu3_1
I0624 16:51:52.258258 21219 net.cpp:425] relu3_1 <- conv3_1
I0624 16:51:52.258261 21219 net.cpp:386] relu3_1 -> conv3_1 (in-place)
I0624 16:51:52.258405 21219 net.cpp:141] Setting up relu3_1
I0624 16:51:52.258414 21219 net.cpp:148] Top shape: 16 64 28 28 (802816)
I0624 16:51:52.258416 21219 net.cpp:156] Memory required for data: 340394176
I0624 16:51:52.258419 21219 layer_factory.hpp:77] Creating layer conv3_2
I0624 16:51:52.258427 21219 net.cpp:91] Creating Layer conv3_2
I0624 16:51:52.258430 21219 net.cpp:425] conv3_2 <- conv3_1
I0624 16:51:52.258435 21219 net.cpp:399] conv3_2 -> conv3_2
I0624 16:51:52.259518 21219 net.cpp:141] Setting up conv3_2
I0624 16:51:52.259531 21219 net.cpp:148] Top shape: 16 64 28 28 (802816)
I0624 16:51:52.259533 21219 net.cpp:156] Memory required for data: 343605440
I0624 16:51:52.259538 21219 layer_factory.hpp:77] Creating layer bn3_2
I0624 16:51:52.259546 21219 net.cpp:91] Creating Layer bn3_2
I0624 16:51:52.259548 21219 net.cpp:425] bn3_2 <- conv3_2
I0624 16:51:52.259552 21219 net.cpp:386] bn3_2 -> conv3_2 (in-place)
I0624 16:51:52.259717 21219 net.cpp:141] Setting up bn3_2
I0624 16:51:52.259724 21219 net.cpp:148] Top shape: 16 64 28 28 (802816)
I0624 16:51:52.259727 21219 net.cpp:156] Memory required for data: 346816704
I0624 16:51:52.259737 21219 layer_factory.hpp:77] Creating layer scale3_2
I0624 16:51:52.259745 21219 net.cpp:91] Creating Layer scale3_2
I0624 16:51:52.259748 21219 net.cpp:425] scale3_2 <- conv3_2
I0624 16:51:52.259752 21219 net.cpp:386] scale3_2 -> conv3_2 (in-place)
I0624 16:51:52.259789 21219 layer_factory.hpp:77] Creating layer scale3_2
I0624 16:51:52.259887 21219 net.cpp:141] Setting up scale3_2
I0624 16:51:52.259894 21219 net.cpp:148] Top shape: 16 64 28 28 (802816)
I0624 16:51:52.259897 21219 net.cpp:156] Memory required for data: 350027968
I0624 16:51:52.259902 21219 layer_factory.hpp:77] Creating layer relu3_2
I0624 16:51:52.259907 21219 net.cpp:91] Creating Layer relu3_2
I0624 16:51:52.259909 21219 net.cpp:425] relu3_2 <- conv3_2
I0624 16:51:52.259912 21219 net.cpp:386] relu3_2 -> conv3_2 (in-place)
I0624 16:51:52.260052 21219 net.cpp:141] Setting up relu3_2
I0624 16:51:52.260061 21219 net.cpp:148] Top shape: 16 64 28 28 (802816)
I0624 16:51:52.260063 21219 net.cpp:156] Memory required for data: 353239232
I0624 16:51:52.260066 21219 layer_factory.hpp:77] Creating layer pool3
I0624 16:51:52.260071 21219 net.cpp:91] Creating Layer pool3
I0624 16:51:52.260072 21219 net.cpp:425] pool3 <- conv3_2
I0624 16:51:52.260079 21219 net.cpp:399] pool3 -> pool3
I0624 16:51:52.260116 21219 net.cpp:141] Setting up pool3
I0624 16:51:52.260121 21219 net.cpp:148] Top shape: 16 64 14 14 (200704)
I0624 16:51:52.260123 21219 net.cpp:156] Memory required for data: 354042048
I0624 16:51:52.260125 21219 layer_factory.hpp:77] Creating layer conv4_1
I0624 16:51:52.260133 21219 net.cpp:91] Creating Layer conv4_1
I0624 16:51:52.260135 21219 net.cpp:425] conv4_1 <- pool3
I0624 16:51:52.260139 21219 net.cpp:399] conv4_1 -> conv4_1
I0624 16:51:52.263630 21219 net.cpp:141] Setting up conv4_1
I0624 16:51:52.263654 21219 net.cpp:148] Top shape: 16 128 14 14 (401408)
I0624 16:51:52.263659 21219 net.cpp:156] Memory required for data: 355647680
I0624 16:51:52.263662 21219 layer_factory.hpp:77] Creating layer bn4_1
I0624 16:51:52.263670 21219 net.cpp:91] Creating Layer bn4_1
I0624 16:51:52.263674 21219 net.cpp:425] bn4_1 <- conv4_1
I0624 16:51:52.263677 21219 net.cpp:386] bn4_1 -> conv4_1 (in-place)
I0624 16:51:52.263839 21219 net.cpp:141] Setting up bn4_1
I0624 16:51:52.263847 21219 net.cpp:148] Top shape: 16 128 14 14 (401408)
I0624 16:51:52.263849 21219 net.cpp:156] Memory required for data: 357253312
I0624 16:51:52.263855 21219 layer_factory.hpp:77] Creating layer scale4_1
I0624 16:51:52.263862 21219 net.cpp:91] Creating Layer scale4_1
I0624 16:51:52.263864 21219 net.cpp:425] scale4_1 <- conv4_1
I0624 16:51:52.263869 21219 net.cpp:386] scale4_1 -> conv4_1 (in-place)
I0624 16:51:52.263902 21219 layer_factory.hpp:77] Creating layer scale4_1
I0624 16:51:52.263988 21219 net.cpp:141] Setting up scale4_1
I0624 16:51:52.263994 21219 net.cpp:148] Top shape: 16 128 14 14 (401408)
I0624 16:51:52.263998 21219 net.cpp:156] Memory required for data: 358858944
I0624 16:51:52.264001 21219 layer_factory.hpp:77] Creating layer relu4_1
I0624 16:51:52.264009 21219 net.cpp:91] Creating Layer relu4_1
I0624 16:51:52.264013 21219 net.cpp:425] relu4_1 <- conv4_1
I0624 16:51:52.264021 21219 net.cpp:386] relu4_1 -> conv4_1 (in-place)
I0624 16:51:52.264173 21219 net.cpp:141] Setting up relu4_1
I0624 16:51:52.264183 21219 net.cpp:148] Top shape: 16 128 14 14 (401408)
I0624 16:51:52.264185 21219 net.cpp:156] Memory required for data: 360464576
I0624 16:51:52.264189 21219 layer_factory.hpp:77] Creating layer conv4_2
I0624 16:51:52.264196 21219 net.cpp:91] Creating Layer conv4_2
I0624 16:51:52.264199 21219 net.cpp:425] conv4_2 <- conv4_1
I0624 16:51:52.264205 21219 net.cpp:399] conv4_2 -> conv4_2
I0624 16:51:52.266043 21219 net.cpp:141] Setting up conv4_2
I0624 16:51:52.266055 21219 net.cpp:148] Top shape: 16 128 14 14 (401408)
I0624 16:51:52.266058 21219 net.cpp:156] Memory required for data: 362070208
I0624 16:51:52.266062 21219 layer_factory.hpp:77] Creating layer bn4_2
I0624 16:51:52.266068 21219 net.cpp:91] Creating Layer bn4_2
I0624 16:51:52.266072 21219 net.cpp:425] bn4_2 <- conv4_2
I0624 16:51:52.266077 21219 net.cpp:386] bn4_2 -> conv4_2 (in-place)
I0624 16:51:52.266239 21219 net.cpp:141] Setting up bn4_2
I0624 16:51:52.266247 21219 net.cpp:148] Top shape: 16 128 14 14 (401408)
I0624 16:51:52.266248 21219 net.cpp:156] Memory required for data: 363675840
I0624 16:51:52.266254 21219 layer_factory.hpp:77] Creating layer scale4_2
I0624 16:51:52.266259 21219 net.cpp:91] Creating Layer scale4_2
I0624 16:51:52.266263 21219 net.cpp:425] scale4_2 <- conv4_2
I0624 16:51:52.266266 21219 net.cpp:386] scale4_2 -> conv4_2 (in-place)
I0624 16:51:52.266300 21219 layer_factory.hpp:77] Creating layer scale4_2
I0624 16:51:52.266386 21219 net.cpp:141] Setting up scale4_2
I0624 16:51:52.266393 21219 net.cpp:148] Top shape: 16 128 14 14 (401408)
I0624 16:51:52.266396 21219 net.cpp:156] Memory required for data: 365281472
I0624 16:51:52.266399 21219 layer_factory.hpp:77] Creating layer relu4_2
I0624 16:51:52.266404 21219 net.cpp:91] Creating Layer relu4_2
I0624 16:51:52.266407 21219 net.cpp:425] relu4_2 <- conv4_2
I0624 16:51:52.266410 21219 net.cpp:386] relu4_2 -> conv4_2 (in-place)
I0624 16:51:52.266795 21219 net.cpp:141] Setting up relu4_2
I0624 16:51:52.266806 21219 net.cpp:148] Top shape: 16 128 14 14 (401408)
I0624 16:51:52.266809 21219 net.cpp:156] Memory required for data: 366887104
I0624 16:51:52.266813 21219 layer_factory.hpp:77] Creating layer pool4
I0624 16:51:52.266818 21219 net.cpp:91] Creating Layer pool4
I0624 16:51:52.266820 21219 net.cpp:425] pool4 <- conv4_2
I0624 16:51:52.266825 21219 net.cpp:399] pool4 -> pool4
I0624 16:51:52.266867 21219 net.cpp:141] Setting up pool4
I0624 16:51:52.266872 21219 net.cpp:148] Top shape: 16 128 7 7 (100352)
I0624 16:51:52.266875 21219 net.cpp:156] Memory required for data: 367288512
I0624 16:51:52.266885 21219 layer_factory.hpp:77] Creating layer conv5_1
I0624 16:51:52.266893 21219 net.cpp:91] Creating Layer conv5_1
I0624 16:51:52.266896 21219 net.cpp:425] conv5_1 <- pool4
I0624 16:51:52.266901 21219 net.cpp:399] conv5_1 -> conv5_1
I0624 16:51:52.268792 21219 net.cpp:141] Setting up conv5_1
I0624 16:51:52.268810 21219 net.cpp:148] Top shape: 16 128 7 7 (100352)
I0624 16:51:52.268813 21219 net.cpp:156] Memory required for data: 367689920
I0624 16:51:52.268817 21219 layer_factory.hpp:77] Creating layer bn5_1
I0624 16:51:52.268823 21219 net.cpp:91] Creating Layer bn5_1
I0624 16:51:52.268826 21219 net.cpp:425] bn5_1 <- conv5_1
I0624 16:51:52.268831 21219 net.cpp:386] bn5_1 -> conv5_1 (in-place)
I0624 16:51:52.269003 21219 net.cpp:141] Setting up bn5_1
I0624 16:51:52.269011 21219 net.cpp:148] Top shape: 16 128 7 7 (100352)
I0624 16:51:52.269013 21219 net.cpp:156] Memory required for data: 368091328
I0624 16:51:52.269019 21219 layer_factory.hpp:77] Creating layer scale5_1
I0624 16:51:52.269026 21219 net.cpp:91] Creating Layer scale5_1
I0624 16:51:52.269028 21219 net.cpp:425] scale5_1 <- conv5_1
I0624 16:51:52.269032 21219 net.cpp:386] scale5_1 -> conv5_1 (in-place)
I0624 16:51:52.269067 21219 layer_factory.hpp:77] Creating layer scale5_1
I0624 16:51:52.269176 21219 net.cpp:141] Setting up scale5_1
I0624 16:51:52.269183 21219 net.cpp:148] Top shape: 16 128 7 7 (100352)
I0624 16:51:52.269186 21219 net.cpp:156] Memory required for data: 368492736
I0624 16:51:52.269191 21219 layer_factory.hpp:77] Creating layer relu5_1
I0624 16:51:52.269196 21219 net.cpp:91] Creating Layer relu5_1
I0624 16:51:52.269198 21219 net.cpp:425] relu5_1 <- conv5_1
I0624 16:51:52.269202 21219 net.cpp:386] relu5_1 -> conv5_1 (in-place)
I0624 16:51:52.269351 21219 net.cpp:141] Setting up relu5_1
I0624 16:51:52.269361 21219 net.cpp:148] Top shape: 16 128 7 7 (100352)
I0624 16:51:52.269366 21219 net.cpp:156] Memory required for data: 368894144
I0624 16:51:52.269369 21219 layer_factory.hpp:77] Creating layer conv5_2
I0624 16:51:52.269382 21219 net.cpp:91] Creating Layer conv5_2
I0624 16:51:52.269387 21219 net.cpp:425] conv5_2 <- conv5_1
I0624 16:51:52.269395 21219 net.cpp:399] conv5_2 -> conv5_2
I0624 16:51:52.271989 21219 net.cpp:141] Setting up conv5_2
I0624 16:51:52.272002 21219 net.cpp:148] Top shape: 16 128 7 7 (100352)
I0624 16:51:52.272006 21219 net.cpp:156] Memory required for data: 369295552
I0624 16:51:52.272009 21219 layer_factory.hpp:77] Creating layer bn5_2
I0624 16:51:52.272017 21219 net.cpp:91] Creating Layer bn5_2
I0624 16:51:52.272020 21219 net.cpp:425] bn5_2 <- conv5_2
I0624 16:51:52.272024 21219 net.cpp:386] bn5_2 -> conv5_2 (in-place)
I0624 16:51:52.272191 21219 net.cpp:141] Setting up bn5_2
I0624 16:51:52.272197 21219 net.cpp:148] Top shape: 16 128 7 7 (100352)
I0624 16:51:52.272204 21219 net.cpp:156] Memory required for data: 369696960
I0624 16:51:52.272210 21219 layer_factory.hpp:77] Creating layer scale5_2
I0624 16:51:52.272217 21219 net.cpp:91] Creating Layer scale5_2
I0624 16:51:52.272218 21219 net.cpp:425] scale5_2 <- conv5_2
I0624 16:51:52.272223 21219 net.cpp:386] scale5_2 -> conv5_2 (in-place)
I0624 16:51:52.272256 21219 layer_factory.hpp:77] Creating layer scale5_2
I0624 16:51:52.272343 21219 net.cpp:141] Setting up scale5_2
I0624 16:51:52.272351 21219 net.cpp:148] Top shape: 16 128 7 7 (100352)
I0624 16:51:52.272353 21219 net.cpp:156] Memory required for data: 370098368
I0624 16:51:52.272357 21219 layer_factory.hpp:77] Creating layer relu5_2
I0624 16:51:52.272361 21219 net.cpp:91] Creating Layer relu5_2
I0624 16:51:52.272363 21219 net.cpp:425] relu5_2 <- conv5_2
I0624 16:51:52.272367 21219 net.cpp:386] relu5_2 -> conv5_2 (in-place)
I0624 16:51:52.272519 21219 net.cpp:141] Setting up relu5_2
I0624 16:51:52.272528 21219 net.cpp:148] Top shape: 16 128 7 7 (100352)
I0624 16:51:52.272531 21219 net.cpp:156] Memory required for data: 370499776
I0624 16:51:52.272533 21219 layer_factory.hpp:77] Creating layer pool5
I0624 16:51:52.272539 21219 net.cpp:91] Creating Layer pool5
I0624 16:51:52.272542 21219 net.cpp:425] pool5 <- conv5_2
I0624 16:51:52.272557 21219 net.cpp:399] pool5 -> pool5
I0624 16:51:52.272721 21219 net.cpp:141] Setting up pool5
I0624 16:51:52.272732 21219 net.cpp:148] Top shape: 16 128 1 1 (2048)
I0624 16:51:52.272733 21219 net.cpp:156] Memory required for data: 370507968
I0624 16:51:52.272737 21219 layer_factory.hpp:77] Creating layer fc2
I0624 16:51:52.272742 21219 net.cpp:91] Creating Layer fc2
I0624 16:51:52.272744 21219 net.cpp:425] fc2 <- pool5
I0624 16:51:52.272748 21219 net.cpp:399] fc2 -> fc2
I0624 16:51:52.272843 21219 net.cpp:141] Setting up fc2
I0624 16:51:52.272850 21219 net.cpp:148] Top shape: 16 2 (32)
I0624 16:51:52.272853 21219 net.cpp:156] Memory required for data: 370508096
I0624 16:51:52.272857 21219 layer_factory.hpp:77] Creating layer fc2_fc2_0_split
I0624 16:51:52.272862 21219 net.cpp:91] Creating Layer fc2_fc2_0_split
I0624 16:51:52.272864 21219 net.cpp:425] fc2_fc2_0_split <- fc2
I0624 16:51:52.272869 21219 net.cpp:399] fc2_fc2_0_split -> fc2_fc2_0_split_0
I0624 16:51:52.272873 21219 net.cpp:399] fc2_fc2_0_split -> fc2_fc2_0_split_1
I0624 16:51:52.272907 21219 net.cpp:141] Setting up fc2_fc2_0_split
I0624 16:51:52.272914 21219 net.cpp:148] Top shape: 16 2 (32)
I0624 16:51:52.272917 21219 net.cpp:148] Top shape: 16 2 (32)
I0624 16:51:52.272919 21219 net.cpp:156] Memory required for data: 370508352
I0624 16:51:52.272922 21219 layer_factory.hpp:77] Creating layer loss
I0624 16:51:52.272925 21219 net.cpp:91] Creating Layer loss
I0624 16:51:52.272927 21219 net.cpp:425] loss <- fc2_fc2_0_split_0
I0624 16:51:52.272930 21219 net.cpp:425] loss <- label_data_1_split_0
I0624 16:51:52.272935 21219 net.cpp:399] loss -> loss
…
