…
I0625 13:37:52.830127 29029 net.cpp:313] The NetState phase (0) differed from the phase (1) specified by a rule in layer data
I0625 13:37:52.830534 29029 net.cpp:49] Initializing net from parameters: 
name: "segnet"
state {
  phase: TRAIN
}
layer {
  name: "data"
  type: "DenseImageData"
  top: "data"
  top: "label"
  include {
    phase: TRAIN
  }
  transform_param {
    mean_value: 100
    crop_h: 224
    crop_w: 288
  }
  dense_image_data_param {
    source: "data/train_seg.txt"
    batch_size: 32
    shuffle: true
    new_height: 224
    new_width: 310
    is_color: false
    root_folder: "data/raw/train/"
  }
}
layer {
  name: "conv1_1"
  type: "Convolution"
  bottom: "data"
  top: "conv1_1"
  param {
    lr_mult: 1
    decay_mult: 1
  }
  convolution_param {
    num_output: 32
    bias_term: false
    pad: 1
    kernel_size: 3
    weight_filler {
      type: "xavier"
    }
  }
}
layer {
  name: "bn1_1"
  type: "BatchNorm"
  bottom: "conv1_1"
  top: "conv1_1"
  param {
    lr_mult: 0
  }
  param {
    lr_mult: 0
  }
  param {
    lr_mult: 0
  }
  batch_norm_param {
    use_global_stats: false
  }
}
layer {
  name: "scale1_1"
  type: "Scale"
  bottom: "conv1_1"
  top: "conv1_1"
  param {
    lr_mult: 1
    decay_mult: 1
  }
  param {
    lr_mult: 1
    decay_mult: 1
  }
  scale_param {
    bias_term: true
    bias_filler {
      type: "constant"
      value: 0
    }
  }
}
layer {
  name: "relu1_1"
  type: "ReLU"
  bottom: "conv1_1"
  top: "conv1_1"
}
layer {
  name: "conv1_2"
  type: "Convolution"
  bottom: "conv1_1"
  top: "conv1_2"
  param {
    lr_mult: 1
    decay_mult: 1
  }
  convolution_param {
    num_output: 32
    bias_term: false
    pad: 1
    kernel_size: 3
    weight_filler {
      type: "xavier"
    }
  }
}
layer {
  name: "bn1_2"
  type: "BatchNorm"
  bottom: "conv1_2"
  top: "conv1_2"
  param {
    lr_mult: 0
  }
  param {
    lr_mult: 0
  }
  param {
    lr_mult: 0
  }
  batch_norm_param {
    use_global_stats: false
  }
}
layer {
  name: "scale1_2"
  type: "Scale"
  bottom: "conv1_2"
  top: "conv1_2"
  param {
    lr_mult: 1
    decay_mult: 1
  }
  param {
    lr_mult: 1
    decay_mult: 1
  }
  scale_param {
    bias_term: true
    bias_filler {
      type: "constant"
      value: 0
    }
  }
}
layer {
  name: "relu1_2"
  type: "ReLU"
  bottom: "conv1_2"
  top: "conv1_2"
}
layer {
  name: "pool1"
  type: "Pooling"
  bottom: "conv1_2"
  top: "pool1"
  top: "pool1_mask"
  pooling_param {
    pool: MAX
    kernel_size: 2
    stride: 2
  }
}
layer {
  name: "conv2_1"
  type: "Convolution"
  bottom: "pool1"
  top: "conv2_1"
  param {
    lr_mult: 1
    decay_mult: 1
  }
  convolution_param {
    num_output: 64
    bias_term: false
    pad: 1
    kernel_size: 3
    weight_filler {
      type: "xavier"
    }
  }
}
layer {
  name: "bn2_1"
  type: "BatchNorm"
  bottom: "conv2_1"
  top: "conv2_1"
  param {
    lr_mult: 0
  }
  param {
    lr_mult: 0
  }
  param {
    lr_mult: 0
  }
  batch_norm_param {
    use_global_stats: false
  }
}
layer {
  name: "scale2_1"
  type: "Scale"
  bottom: "conv2_1"
  top: "conv2_1"
  param {
    lr_mult: 1
    decay_mult: 1
  }
  param {
    lr_mult: 1
    decay_mult: 1
  }
  scale_param {
    bias_term: true
    bias_filler {
      type: "constant"
      value: 0
    }
  }
}
layer {
  name: "relu2_1"
  type: "ReLU"
  bottom: "conv2_1"
  top: "conv2_1"
}
layer {
  name: "conv2_2"
  type: "Convolution"
  bottom: "conv2_1"
  top: "conv2_2"
  param {
    lr_mult: 1
    decay_mult: 1
  }
  convolution_param {
    num_output: 64
    bias_term: false
    pad: 1
    kernel_size: 3
    weight_filler {
      type: "xavier"
    }
  }
}
layer {
  name: "bn2_2"
  type: "BatchNorm"
  bottom: "conv2_2"
  top: "conv2_2"
  param {
    lr_mult: 0
  }
  param {
    lr_mult: 0
  }
  param {
    lr_mult: 0
  }
  batch_norm_param {
    use_global_stats: false
  }
}
layer {
  name: "scale2_2"
  type: "Scale"
  bottom: "conv2_2"
  top: "conv2_2"
  param {
    lr_mult: 1
    decay_mult: 1
  }
  param {
    lr_mult: 1
    decay_mult: 1
  }
  scale_param {
    bias_term: true
    bias_filler {
      type: "constant"
      value: 0
    }
  }
}
layer {
  name: "relu2_2"
  type: "ReLU"
  bottom: "conv2_2"
  top: "conv2_2"
}
layer {
  name: "pool2"
  type: "Pooling"
  bottom: "conv2_2"
  top: "pool2"
  top: "pool2_mask"
  pooling_param {
    pool: MAX
    kernel_size: 2
    stride: 2
  }
}
layer {
  name: "conv3_1"
  type: "Convolution"
  bottom: "pool2"
  top: "conv3_1"
  param {
    lr_mult: 1
    decay_mult: 1
  }
  convolution_param {
    num_output: 128
    bias_term: false
    pad: 1
    kernel_size: 3
    weight_filler {
      type: "xavier"
    }
  }
}
layer {
  name: "bn3_1"
  type: "BatchNorm"
  bottom: "conv3_1"
  top: "conv3_1"
  param {
    lr_mult: 0
  }
  param {
    lr_mult: 0
  }
  param {
    lr_mult: 0
  }
  batch_norm_param {
    use_global_stats: false
  }
}
layer {
  name: "scale3_1"
  type: "Scale"
  bottom: "conv3_1"
  top: "conv3_1"
  param {
    lr_mult: 1
    decay_mult: 1
  }
  param {
    lr_mult: 1
    decay_mult: 1
  }
  scale_param {
    bias_term: true
    bias_filler {
      type: "constant"
      value: 0
    }
  }
}
layer {
  name: "relu3_1"
  type: "ReLU"
  bottom: "conv3_1"
  top: "conv3_1"
}
layer {
  name: "conv3_2"
  type: "Convolution"
  bottom: "conv3_1"
  top: "conv3_2"
  param {
    lr_mult: 1
    decay_mult: 1
  }
  convolution_param {
    num_output: 128
    bias_term: false
    pad: 1
    kernel_size: 3
    weight_filler {
      type: "xavier"
    }
  }
}
layer {
  name: "bn3_2"
  type: "BatchNorm"
  bottom: "conv3_2"
  top: "conv3_2"
  param {
    lr_mult: 0
  }
  param {
    lr_mult: 0
  }
  param {
    lr_mult: 0
  }
  batch_norm_param {
    use_global_stats: false
  }
}
layer {
  name: "scale3_2"
  type: "Scale"
  bottom: "conv3_2"
  top: "conv3_2"
  param {
    lr_mult: 1
    decay_mult: 1
  }
  param {
    lr_mult: 1
    decay_mult: 1
  }
  scale_param {
    bias_term: true
    bias_filler {
      type: "constant"
      value: 0
    }
  }
}
layer {
  name: "relu3_2"
  type: "ReLU"
  bottom: "conv3_2"
  top: "conv3_2"
}
layer {
  name: "pool3"
  type: "Pooling"
  bottom: "conv3_2"
  top: "pool3"
  top: "pool3_mask"
  pooling_param {
    pool: MAX
    kernel_size: 2
    stride: 2
  }
}
layer {
  name: "conv4_1"
  type: "Convolution"
  bottom: "pool3"
  top: "conv4_1"
  param {
    lr_mult: 1
    decay_mult: 1
  }
  convolution_param {
    num_output: 256
    bias_term: false
    pad: 1
    kernel_size: 3
    weight_filler {
      type: "xavier"
    }
  }
}
layer {
  name: "bn4_1"
  type: "BatchNorm"
  bottom: "conv4_1"
  top: "conv4_1"
  param {
    lr_mult: 0
  }
  param {
    lr_mult: 0
  }
  param {
    lr_mult: 0
  }
  batch_norm_param {
    use_global_stats: false
  }
}
layer {
  name: "scale4_1"
  type: "Scale"
  bottom: "conv4_1"
  top: "conv4_1"
  param {
    lr_mult: 1
    decay_mult: 1
  }
  param {
    lr_mult: 1
    decay_mult: 1
  }
  scale_param {
    bias_term: true
    bias_filler {
      type: "constant"
      value: 0
    }
  }
}
layer {
  name: "relu4_1"
  type: "ReLU"
  bottom: "conv4_1"
  top: "conv4_1"
}
layer {
  name: "conv4_2"
  type: "Convolution"
  bottom: "conv4_1"
  top: "conv4_2"
  param {
    lr_mult: 1
    decay_mult: 1
  }
  convolution_param {
    num_output: 256
    bias_term: false
    pad: 1
    kernel_size: 3
    weight_filler {
      type: "xavier"
    }
  }
}
layer {
  name: "bn4_2"
  type: "BatchNorm"
  bottom: "conv4_2"
  top: "conv4_2"
  param {
    lr_mult: 0
  }
  param {
    lr_mult: 0
  }
  param {
    lr_mult: 0
  }
  batch_norm_param {
    use_global_stats: false
  }
}
layer {
  name: "scale4_2"
  type: "Scale"
  bottom: "conv4_2"
  top: "conv4_2"
  param {
    lr_mult: 1
    decay_mult: 1
  }
  param {
    lr_mult: 1
    decay_mult: 1
  }
  scale_param {
    bias_term: true
    bias_filler {
      type: "constant"
      value: 0
    }
  }
}
layer {
  name: "relu4_2"
  type: "ReLU"
  bottom: "conv4_2"
  top: "conv4_2"
}
layer {
  name: "pool4"
  type: "Pooling"
  bottom: "conv4_2"
  top: "pool4"
  top: "pool4_mask"
  pooling_param {
    pool: MAX
    kernel_size: 2
    stride: 2
  }
}
layer {
  name: "conv5_1"
  type: "Convolution"
  bottom: "pool4"
  top: "conv5_1"
  param {
    lr_mult: 1
    decay_mult: 1
  }
  convolution_param {
    num_output: 256
    bias_term: false
    pad: 1
    kernel_size: 3
    weight_filler {
      type: "xavier"
    }
  }
}
layer {
  name: "bn5_1"
  type: "BatchNorm"
  bottom: "conv5_1"
  top: "conv5_1"
  param {
    lr_mult: 0
  }
  param {
    lr_mult: 0
  }
  param {
    lr_mult: 0
  }
  batch_norm_param {
    use_global_stats: false
  }
}
layer {
  name: "scale5_1"
  type: "Scale"
  bottom: "conv5_1"
  top: "conv5_1"
  param {
    lr_mult: 1
    decay_mult: 1
  }
  param {
    lr_mult: 1
    decay_mult: 1
  }
  scale_param {
    bias_term: true
    bias_filler {
      type: "constant"
      value: 0
    }
  }
}
layer {
  name: "relu5_1"
  type: "ReLU"
  bottom: "conv5_1"
  top: "conv5_1"
}
layer {
  name: "conv5_2"
  type: "Convolution"
  bottom: "conv5_1"
  top: "conv5_2"
  param {
    lr_mult: 1
    decay_mult: 1
  }
  convolution_param {
    num_output: 256
    bias_term: false
    pad: 1
    kernel_size: 3
    weight_filler {
      type: "xavier"
    }
  }
}
layer {
  name: "bn5_2"
  type: "BatchNorm"
  bottom: "conv5_2"
  top: "conv5_2"
  param {
    lr_mult: 0
  }
  param {
    lr_mult: 0
  }
  param {
    lr_mult: 0
  }
  batch_norm_param {
    use_global_stats: false
  }
}
layer {
  name: "scale5_2"
  type: "Scale"
  bottom: "conv5_2"
  top: "conv5_2"
  param {
    lr_mult: 1
    decay_mult: 1
  }
  param {
    lr_mult: 1
    decay_mult: 1
  }
  scale_param {
    bias_term: true
    bias_filler {
      type: "constant"
      value: 0
    }
  }
}
layer {
  name: "relu5_2"
  type: "ReLU"
  bottom: "conv5_2"
  top: "conv5_2"
}
layer {
  name: "pool5"
  type: "Pooling"
  bottom: "conv5_2"
  top: "pool5"
  top: "pool5_mask"
  pooling_param {
    pool: MAX
    kernel_size: 2
    stride: 2
  }
}
layer {
  name: "upsample5"
  type: "Upsample"
  bottom: "pool5"
  bottom: "pool5_mask"
  top: "pool5_D"
  upsample_param {
    scale: 2
  }
}
layer {
  name: "conv5_2_D"
  type: "Convolution"
  bottom: "pool5_D"
  top: "conv5_2_D"
  param {
    lr_mult: 1
    decay_mult: 1
  }
  convolution_param {
    num_output: 256
    bias_term: false
    pad: 1
    kernel_size: 3
    weight_filler {
      type: "xavier"
    }
  }
}
layer {
  name: "bn5_2_D"
  type: "BatchNorm"
  bottom: "conv5_2_D"
  top: "conv5_2_D"
  param {
    lr_mult: 0
  }
  param {
    lr_mult: 0
  }
  param {
    lr_mult: 0
  }
  batch_norm_param {
    use_global_stats: false
  }
}
layer {
  name: "scale5_2_D"
  type: "Scale"
  bottom: "conv5_2_D"
  top: "conv5_2_D"
  param {
    lr_mult: 1
    decay_mult: 1
  }
  param {
    lr_mult: 1
    decay_mult: 1
  }
  scale_param {
    bias_term: true
    bias_filler {
      type: "constant"
      value: 0
    }
  }
}
layer {
  name: "relu5_2_D"
  type: "ReLU"
  bottom: "conv5_2_D"
  top: "conv5_2_D"
}
layer {
  name: "conv5_1_D"
  type: "Convolution"
  bottom: "conv5_2_D"
  top: "conv5_1_D"
  param {
    lr_mult: 1
    decay_mult: 1
  }
  convolution_param {
    num_output: 256
    bias_term: false
    pad: 1
    kernel_size: 3
    weight_filler {
      type: "xavier"
    }
  }
}
layer {
  name: "bn5_1_D"
  type: "BatchNorm"
  bottom: "conv5_1_D"
  top: "conv5_1_D"
  param {
    lr_mult: 0
  }
  param {
    lr_mult: 0
  }
  param {
    lr_mult: 0
  }
  batch_norm_param {
    use_global_stats: false
  }
}
layer {
  name: "scale5_1_D"
  type: "Scale"
  bottom: "conv5_1_D"
  top: "conv5_1_D"
  param {
    lr_mult: 1
    decay_mult: 1
  }
  param {
    lr_mult: 1
    decay_mult: 1
  }
  scale_param {
    bias_term: true
    bias_filler {
      type: "constant"
      value: 0
    }
  }
}
layer {
  name: "relu5_1_D"
  type: "ReLU"
  bottom: "conv5_1_D"
  top: "conv5_1_D"
}
layer {
  name: "upsample4"
  type: "Upsample"
  bottom: "conv5_1_D"
  bottom: "pool4_mask"
  top: "pool4_D"
  upsample_param {
    scale: 2
  }
}
layer {
  name: "conv4_2_D"
  type: "Convolution"
  bottom: "pool4_D"
  top: "conv4_2_D"
  param {
    lr_mult: 1
    decay_mult: 1
  }
  convolution_param {
    num_output: 256
    bias_term: false
    pad: 1
    kernel_size: 3
    weight_filler {
      type: "xavier"
    }
  }
}
layer {
  name: "bn4_2_D"
  type: "BatchNorm"
  bottom: "conv4_2_D"
  top: "conv4_2_D"
  param {
    lr_mult: 0
  }
  param {
    lr_mult: 0
  }
  param {
    lr_mult: 0
  }
  batch_norm_param {
    use_global_stats: false
  }
}
layer {
  name: "scale4_2_D"
  type: "Scale"
  bottom: "conv4_2_D"
  top: "conv4_2_D"
  param {
    lr_mult: 1
    decay_mult: 1
  }
  param {
    lr_mult: 1
    decay_mult: 1
  }
  scale_param {
    bias_term: true
    bias_filler {
      type: "constant"
      value: 0
    }
  }
}
layer {
  name: "relu4_2_D"
  type: "ReLU"
  bottom: "conv4_2_D"
  top: "conv4_2_D"
}
layer {
  name: "conv4_1_D"
  type: "Convolution"
  bottom: "conv4_2_D"
  top: "conv4_1_D"
  param {
    lr_mult: 1
    decay_mult: 1
  }
  convolution_param {
    num_output: 128
    bias_term: false
    pad: 1
    kernel_size: 3
    weight_filler {
      type: "xavier"
    }
  }
}
layer {
  name: "bn4_1_D"
  type: "BatchNorm"
  bottom: "conv4_1_D"
  top: "conv4_1_D"
  param {
    lr_mult: 0
  }
  param {
    lr_mult: 0
  }
  param {
    lr_mult: 0
  }
  batch_norm_param {
    use_global_stats: false
  }
}
layer {
  name: "scale4_1_D"
  type: "Scale"
  bottom: "conv4_1_D"
  top: "conv4_1_D"
  param {
    lr_mult: 1
    decay_mult: 1
  }
  param {
    lr_mult: 1
    decay_mult: 1
  }
  scale_param {
    bias_term: true
    bias_filler {
      type: "constant"
      value: 0
    }
  }
}
layer {
  name: "relu4_1_D"
  type: "ReLU"
  bottom: "conv4_1_D"
  top: "conv4_1_D"
}
layer {
  name: "upsample3"
  type: "Upsample"
  bottom: "conv4_1_D"
  bottom: "pool3_mask"
  top: "pool3_D"
  upsample_param {
    scale: 2
  }
}
layer {
  name: "conv3_2_D"
  type: "Convolution"
  bottom: "pool3_D"
  top: "conv3_2_D"
  param {
    lr_mult: 1
    decay_mult: 1
  }
  param {
    lr_mult: 1
    decay_mult: 1
  }
  convolution_param {
    num_output: 128
    pad: 1
    kernel_size: 3
    weight_filler {
      type: "xavier"
    }
    bias_filler {
      type: "constant"
      value: 0
    }
  }
}
layer {
  name: "bn3_2_D"
  type: "BatchNorm"
  bottom: "conv3_2_D"
  top: "conv3_2_D"
  param {
    lr_mult: 0
  }
  param {
    lr_mult: 0
  }
  param {
    lr_mult: 0
  }
  batch_norm_param {
    use_global_stats: false
  }
}
layer {
  name: "scale3_2_D"
  type: "Scale"
  bottom: "conv3_2_D"
  top: "conv3_2_D"
  param {
    lr_mult: 1
    decay_mult: 1
  }
  param {
    lr_mult: 1
    decay_mult: 1
  }
  scale_param {
    bias_term: true
    bias_filler {
      type: "constant"
      value: 0
    }
  }
}
layer {
  name: "relu3_2_D"
  type: "ReLU"
  bottom: "conv3_2_D"
  top: "conv3_2_D"
}
layer {
  name: "conv3_1_D"
  type: "Convolution"
  bottom: "conv3_2_D"
  top: "conv3_1_D"
  param {
    lr_mult: 1
    decay_mult: 1
  }
  convolution_param {
    num_output: 64
    bias_term: false
    pad: 1
    kernel_size: 3
    weight_filler {
      type: "xavier"
    }
  }
}
layer {
  name: "bn3_1_D"
  type: "BatchNorm"
  bottom: "conv3_1_D"
  top: "conv3_1_D"
  param {
    lr_mult: 0
  }
  param {
    lr_mult: 0
  }
  param {
    lr_mult: 0
  }
  batch_norm_param {
    use_global_stats: false
  }
}
layer {
  name: "scale3_1_D"
  type: "Scale"
  bottom: "conv3_1_D"
  top: "conv3_1_D"
  param {
    lr_mult: 1
    decay_mult: 1
  }
  param {
    lr_mult: 1
    decay_mult: 1
  }
  scale_param {
    bias_term: true
    bias_filler {
      type: "constant"
      value: 0
    }
  }
}
layer {
  name: "relu3_1_D"
  type: "ReLU"
  bottom: "conv3_1_D"
  top: "conv3_1_D"
}
layer {
  name: "upsample2"
  type: "Upsample"
  bottom: "conv3_1_D"
  bottom: "pool2_mask"
  top: "pool2_D"
  upsample_param {
    scale: 2
  }
}
layer {
  name: "conv2_2_D"
  type: "Convolution"
  bottom: "pool2_D"
  top: "conv2_2_D"
  param {
    lr_mult: 1
    decay_mult: 1
  }
  convolution_param {
    num_output: 64
    bias_term: false
    pad: 1
    kernel_size: 3
    weight_filler {
      type: "xavier"
    }
  }
}
layer {
  name: "bn2_2_D"
  type: "BatchNorm"
  bottom: "conv2_2_D"
  top: "conv2_2_D"
  param {
    lr_mult: 0
  }
  param {
    lr_mult: 0
  }
  param {
    lr_mult: 0
  }
  batch_norm_param {
    use_global_stats: false
  }
}
layer {
  name: "scale2_2_D"
  type: "Scale"
  bottom: "conv2_2_D"
  top: "conv2_2_D"
  param {
    lr_mult: 1
    decay_mult: 1
  }
  param {
    lr_mult: 1
    decay_mult: 1
  }
  scale_param {
    bias_term: true
    bias_filler {
      type: "constant"
      value: 0
    }
  }
}
layer {
  name: "relu2_2_D"
  type: "ReLU"
  bottom: "conv2_2_D"
  top: "conv2_2_D"
}
layer {
  name: "conv2_1_D"
  type: "Convolution"
  bottom: "conv2_2_D"
  top: "conv2_1_D"
  param {
    lr_mult: 1
    decay_mult: 1
  }
  convolution_param {
    num_output: 32
    bias_term: false
    pad: 1
    kernel_size: 3
    weight_filler {
      type: "xavier"
    }
  }
}
layer {
  name: "bn2_1_D"
  type: "BatchNorm"
  bottom: "conv2_1_D"
  top: "conv2_1_D"
  param {
    lr_mult: 0
  }
  param {
    lr_mult: 0
  }
  param {
    lr_mult: 0
  }
  batch_norm_param {
    use_global_stats: false
  }
}
layer {
  name: "scale2_1_D"
  type: "Scale"
  bottom: "conv2_1_D"
  top: "conv2_1_D"
  param {
    lr_mult: 1
    decay_mult: 1
  }
  param {
    lr_mult: 1
    decay_mult: 1
  }
  scale_param {
    bias_term: true
    bias_filler {
      type: "constant"
      value: 0
    }
  }
}
layer {
  name: "relu2_1_D"
  type: "ReLU"
  bottom: "conv2_1_D"
  top: "conv2_1_D"
}
layer {
  name: "upsample1"
  type: "Upsample"
  bottom: "conv2_1_D"
  bottom: "pool1_mask"
  top: "pool1_D"
  upsample_param {
    scale: 2
  }
}
layer {
  name: "conv1_2_D"
  type: "Convolution"
  bottom: "pool1_D"
  top: "conv1_2_D"
  param {
    lr_mult: 1
    decay_mult: 1
  }
  convolution_param {
    num_output: 32
    bias_term: false
    pad: 1
    kernel_size: 3
    weight_filler {
      type: "xavier"
    }
  }
}
layer {
  name: "bn1_2_D"
  type: "BatchNorm"
  bottom: "conv1_2_D"
  top: "conv1_2_D"
  param {
    lr_mult: 0
  }
  param {
    lr_mult: 0
  }
  param {
    lr_mult: 0
  }
  batch_norm_param {
    use_global_stats: false
  }
}
layer {
  name: "scale1_2_D"
  type: "Scale"
  bottom: "conv1_2_D"
  top: "conv1_2_D"
  param {
    lr_mult: 1
    decay_mult: 1
  }
  param {
    lr_mult: 1
    decay_mult: 1
  }
  scale_param {
    bias_term: true
    bias_filler {
      type: "constant"
      value: 0
    }
  }
}
layer {
  name: "relu1_2_D"
  type: "ReLU"
  bottom: "conv1_2_D"
  top: "conv1_2_D"
}
layer {
  name: "conv1_1_D"
  type: "Convolution"
  bottom: "conv1_2_D"
  top: "conv1_1_D"
  param {
    lr_mult: 1
    decay_mult: 1
  }
  param {
    lr_mult: 1
    decay_mult: 1
  }
  convolution_param {
    num_output: 2
    bias_term: true
    pad: 1
    kernel_size: 3
    weight_filler {
      type: "xavier"
    }
    bias_filler {
      type: "constant"
    }
  }
}
layer {
  name: "loss"
  type: "SoftmaxWithLoss"
  bottom: "conv1_1_D"
  bottom: "label"
  top: "loss"
}
layer {
  name: "accuracy"
  type: "Accuracy"
  bottom: "conv1_1_D"
  bottom: "label"
  top: "accuracy"
}
I0625 13:37:52.830818 29029 layer_factory.hpp:77] Creating layer data
I0625 13:37:52.830852 29029 net.cpp:91] Creating Layer data
I0625 13:37:52.830857 29029 net.cpp:399] data -> data
I0625 13:37:52.830878 29029 net.cpp:399] data -> label
I0625 13:37:52.831204 29029 dense_image_data_layer.cpp:38] Opening file data/train_seg.txt
I0625 13:37:52.832089 29029 dense_image_data_layer.cpp:48] Shuffling data
I0625 13:37:52.832295 29029 dense_image_data_layer.cpp:53] A total of 2024 examples.
I0625 13:37:53.076050 29029 dense_image_data_layer.cpp:92] output data size: 1,1,224,288
I0625 13:37:53.077930 29029 net.cpp:141] Setting up data
I0625 13:37:53.077950 29029 net.cpp:148] Top shape: 1 1 224 288 (64512)
I0625 13:37:53.077955 29029 net.cpp:148] Top shape: 1 1 224 288 (64512)
I0625 13:37:53.077957 29029 net.cpp:156] Memory required for data: 516096
I0625 13:37:53.077965 29029 layer_factory.hpp:77] Creating layer label_data_1_split
I0625 13:37:53.077982 29029 net.cpp:91] Creating Layer label_data_1_split
I0625 13:37:53.077988 29029 net.cpp:425] label_data_1_split <- label
I0625 13:37:53.077998 29029 net.cpp:399] label_data_1_split -> label_data_1_split_0
I0625 13:37:53.078007 29029 net.cpp:399] label_data_1_split -> label_data_1_split_1
I0625 13:37:53.078094 29029 net.cpp:141] Setting up label_data_1_split
I0625 13:37:53.078101 29029 net.cpp:148] Top shape: 1 1 224 288 (64512)
I0625 13:37:53.078104 29029 net.cpp:148] Top shape: 1 1 224 288 (64512)
I0625 13:37:53.078107 29029 net.cpp:156] Memory required for data: 1032192
I0625 13:37:53.078109 29029 layer_factory.hpp:77] Creating layer conv1_1
I0625 13:37:53.078125 29029 net.cpp:91] Creating Layer conv1_1
I0625 13:37:53.078130 29029 net.cpp:425] conv1_1 <- data
I0625 13:37:53.078135 29029 net.cpp:399] conv1_1 -> conv1_1
I0625 13:37:53.269722 29029 net.cpp:141] Setting up conv1_1
I0625 13:37:53.269747 29029 net.cpp:148] Top shape: 1 32 224 288 (2064384)
I0625 13:37:53.269750 29029 net.cpp:156] Memory required for data: 9289728
I0625 13:37:53.269762 29029 layer_factory.hpp:77] Creating layer bn1_1
I0625 13:37:53.269778 29029 net.cpp:91] Creating Layer bn1_1
I0625 13:37:53.269781 29029 net.cpp:425] bn1_1 <- conv1_1
I0625 13:37:53.269786 29029 net.cpp:386] bn1_1 -> conv1_1 (in-place)
I0625 13:37:53.269976 29029 net.cpp:141] Setting up bn1_1
I0625 13:37:53.269985 29029 net.cpp:148] Top shape: 1 32 224 288 (2064384)
I0625 13:37:53.269987 29029 net.cpp:156] Memory required for data: 17547264
I0625 13:37:53.269996 29029 layer_factory.hpp:77] Creating layer scale1_1
I0625 13:37:53.270005 29029 net.cpp:91] Creating Layer scale1_1
I0625 13:37:53.270009 29029 net.cpp:425] scale1_1 <- conv1_1
I0625 13:37:53.270014 29029 net.cpp:386] scale1_1 -> conv1_1 (in-place)
I0625 13:37:53.270047 29029 layer_factory.hpp:77] Creating layer scale1_1
I0625 13:37:53.270229 29029 net.cpp:141] Setting up scale1_1
I0625 13:37:53.270237 29029 net.cpp:148] Top shape: 1 32 224 288 (2064384)
I0625 13:37:53.270241 29029 net.cpp:156] Memory required for data: 25804800
I0625 13:37:53.270246 29029 layer_factory.hpp:77] Creating layer relu1_1
I0625 13:37:53.270253 29029 net.cpp:91] Creating Layer relu1_1
I0625 13:37:53.270256 29029 net.cpp:425] relu1_1 <- conv1_1
I0625 13:37:53.270259 29029 net.cpp:386] relu1_1 -> conv1_1 (in-place)
I0625 13:37:53.270524 29029 net.cpp:141] Setting up relu1_1
I0625 13:37:53.270535 29029 net.cpp:148] Top shape: 1 32 224 288 (2064384)
I0625 13:37:53.270539 29029 net.cpp:156] Memory required for data: 34062336
I0625 13:37:53.270541 29029 layer_factory.hpp:77] Creating layer conv1_2
I0625 13:37:53.270550 29029 net.cpp:91] Creating Layer conv1_2
I0625 13:37:53.270553 29029 net.cpp:425] conv1_2 <- conv1_1
I0625 13:37:53.270557 29029 net.cpp:399] conv1_2 -> conv1_2
I0625 13:37:53.272127 29029 net.cpp:141] Setting up conv1_2
I0625 13:37:53.272140 29029 net.cpp:148] Top shape: 1 32 224 288 (2064384)
I0625 13:37:53.272143 29029 net.cpp:156] Memory required for data: 42319872
I0625 13:37:53.272148 29029 layer_factory.hpp:77] Creating layer bn1_2
I0625 13:37:53.272155 29029 net.cpp:91] Creating Layer bn1_2
I0625 13:37:53.272157 29029 net.cpp:425] bn1_2 <- conv1_2
I0625 13:37:53.272161 29029 net.cpp:386] bn1_2 -> conv1_2 (in-place)
I0625 13:37:53.272346 29029 net.cpp:141] Setting up bn1_2
I0625 13:37:53.272353 29029 net.cpp:148] Top shape: 1 32 224 288 (2064384)
I0625 13:37:53.272356 29029 net.cpp:156] Memory required for data: 50577408
I0625 13:37:53.272366 29029 layer_factory.hpp:77] Creating layer scale1_2
I0625 13:37:53.272372 29029 net.cpp:91] Creating Layer scale1_2
I0625 13:37:53.272377 29029 net.cpp:425] scale1_2 <- conv1_2
I0625 13:37:53.272397 29029 net.cpp:386] scale1_2 -> conv1_2 (in-place)
I0625 13:37:53.272430 29029 layer_factory.hpp:77] Creating layer scale1_2
I0625 13:37:53.273167 29029 net.cpp:141] Setting up scale1_2
I0625 13:37:53.273178 29029 net.cpp:148] Top shape: 1 32 224 288 (2064384)
I0625 13:37:53.273181 29029 net.cpp:156] Memory required for data: 58834944
I0625 13:37:53.273186 29029 layer_factory.hpp:77] Creating layer relu1_2
I0625 13:37:53.273191 29029 net.cpp:91] Creating Layer relu1_2
I0625 13:37:53.273195 29029 net.cpp:425] relu1_2 <- conv1_2
I0625 13:37:53.273198 29029 net.cpp:386] relu1_2 -> conv1_2 (in-place)
I0625 13:37:53.273334 29029 net.cpp:141] Setting up relu1_2
I0625 13:37:53.273344 29029 net.cpp:148] Top shape: 1 32 224 288 (2064384)
I0625 13:37:53.273346 29029 net.cpp:156] Memory required for data: 67092480
I0625 13:37:53.273350 29029 layer_factory.hpp:77] Creating layer pool1
I0625 13:37:53.273352 29029 layer_factory.cpp:90] cuDNN does not support multiple tops. Using Caffe's own pooling layer.
I0625 13:37:53.273357 29029 net.cpp:91] Creating Layer pool1
I0625 13:37:53.273360 29029 net.cpp:425] pool1 <- conv1_2
I0625 13:37:53.273363 29029 net.cpp:399] pool1 -> pool1
I0625 13:37:53.273371 29029 net.cpp:399] pool1 -> pool1_mask
I0625 13:37:53.273416 29029 net.cpp:141] Setting up pool1
I0625 13:37:53.273422 29029 net.cpp:148] Top shape: 1 32 112 144 (516096)
I0625 13:37:53.273425 29029 net.cpp:148] Top shape: 1 32 112 144 (516096)
I0625 13:37:53.273427 29029 net.cpp:156] Memory required for data: 71221248
I0625 13:37:53.273430 29029 layer_factory.hpp:77] Creating layer conv2_1
I0625 13:37:53.273437 29029 net.cpp:91] Creating Layer conv2_1
I0625 13:37:53.273440 29029 net.cpp:425] conv2_1 <- pool1
I0625 13:37:53.273445 29029 net.cpp:399] conv2_1 -> conv2_1
I0625 13:37:53.274416 29029 net.cpp:141] Setting up conv2_1
I0625 13:37:53.274428 29029 net.cpp:148] Top shape: 1 64 112 144 (1032192)
I0625 13:37:53.274432 29029 net.cpp:156] Memory required for data: 75350016
I0625 13:37:53.274436 29029 layer_factory.hpp:77] Creating layer bn2_1
I0625 13:37:53.274442 29029 net.cpp:91] Creating Layer bn2_1
I0625 13:37:53.274446 29029 net.cpp:425] bn2_1 <- conv2_1
I0625 13:37:53.274449 29029 net.cpp:386] bn2_1 -> conv2_1 (in-place)
I0625 13:37:53.274596 29029 net.cpp:141] Setting up bn2_1
I0625 13:37:53.274605 29029 net.cpp:148] Top shape: 1 64 112 144 (1032192)
I0625 13:37:53.274607 29029 net.cpp:156] Memory required for data: 79478784
I0625 13:37:53.274612 29029 layer_factory.hpp:77] Creating layer scale2_1
I0625 13:37:53.274618 29029 net.cpp:91] Creating Layer scale2_1
I0625 13:37:53.274621 29029 net.cpp:425] scale2_1 <- conv2_1
I0625 13:37:53.274626 29029 net.cpp:386] scale2_1 -> conv2_1 (in-place)
I0625 13:37:53.274657 29029 layer_factory.hpp:77] Creating layer scale2_1
I0625 13:37:53.274751 29029 net.cpp:141] Setting up scale2_1
I0625 13:37:53.274760 29029 net.cpp:148] Top shape: 1 64 112 144 (1032192)
I0625 13:37:53.274763 29029 net.cpp:156] Memory required for data: 83607552
I0625 13:37:53.274771 29029 layer_factory.hpp:77] Creating layer relu2_1
I0625 13:37:53.274776 29029 net.cpp:91] Creating Layer relu2_1
I0625 13:37:53.274780 29029 net.cpp:425] relu2_1 <- conv2_1
I0625 13:37:53.274783 29029 net.cpp:386] relu2_1 -> conv2_1 (in-place)
I0625 13:37:53.275043 29029 net.cpp:141] Setting up relu2_1
I0625 13:37:53.275054 29029 net.cpp:148] Top shape: 1 64 112 144 (1032192)
I0625 13:37:53.275056 29029 net.cpp:156] Memory required for data: 87736320
I0625 13:37:53.275060 29029 layer_factory.hpp:77] Creating layer conv2_2
I0625 13:37:53.275068 29029 net.cpp:91] Creating Layer conv2_2
I0625 13:37:53.275071 29029 net.cpp:425] conv2_2 <- conv2_1
I0625 13:37:53.275076 29029 net.cpp:399] conv2_2 -> conv2_2
I0625 13:37:53.276052 29029 net.cpp:141] Setting up conv2_2
I0625 13:37:53.276065 29029 net.cpp:148] Top shape: 1 64 112 144 (1032192)
I0625 13:37:53.276068 29029 net.cpp:156] Memory required for data: 91865088
I0625 13:37:53.276072 29029 layer_factory.hpp:77] Creating layer bn2_2
I0625 13:37:53.276080 29029 net.cpp:91] Creating Layer bn2_2
I0625 13:37:53.276093 29029 net.cpp:425] bn2_2 <- conv2_2
I0625 13:37:53.276098 29029 net.cpp:386] bn2_2 -> conv2_2 (in-place)
I0625 13:37:53.276252 29029 net.cpp:141] Setting up bn2_2
I0625 13:37:53.276260 29029 net.cpp:148] Top shape: 1 64 112 144 (1032192)
I0625 13:37:53.276262 29029 net.cpp:156] Memory required for data: 95993856
I0625 13:37:53.276268 29029 layer_factory.hpp:77] Creating layer scale2_2
I0625 13:37:53.276274 29029 net.cpp:91] Creating Layer scale2_2
I0625 13:37:53.276278 29029 net.cpp:425] scale2_2 <- conv2_2
I0625 13:37:53.276281 29029 net.cpp:386] scale2_2 -> conv2_2 (in-place)
I0625 13:37:53.276311 29029 layer_factory.hpp:77] Creating layer scale2_2
I0625 13:37:53.276409 29029 net.cpp:141] Setting up scale2_2
I0625 13:37:53.276417 29029 net.cpp:148] Top shape: 1 64 112 144 (1032192)
I0625 13:37:53.276418 29029 net.cpp:156] Memory required for data: 100122624
I0625 13:37:53.276423 29029 layer_factory.hpp:77] Creating layer relu2_2
I0625 13:37:53.276427 29029 net.cpp:91] Creating Layer relu2_2
I0625 13:37:53.276430 29029 net.cpp:425] relu2_2 <- conv2_2
I0625 13:37:53.276434 29029 net.cpp:386] relu2_2 -> conv2_2 (in-place)
I0625 13:37:53.276693 29029 net.cpp:141] Setting up relu2_2
I0625 13:37:53.276705 29029 net.cpp:148] Top shape: 1 64 112 144 (1032192)
I0625 13:37:53.276707 29029 net.cpp:156] Memory required for data: 104251392
I0625 13:37:53.276710 29029 layer_factory.hpp:77] Creating layer pool2
I0625 13:37:53.276713 29029 layer_factory.cpp:90] cuDNN does not support multiple tops. Using Caffe's own pooling layer.
I0625 13:37:53.276717 29029 net.cpp:91] Creating Layer pool2
I0625 13:37:53.276721 29029 net.cpp:425] pool2 <- conv2_2
I0625 13:37:53.276724 29029 net.cpp:399] pool2 -> pool2
I0625 13:37:53.276729 29029 net.cpp:399] pool2 -> pool2_mask
I0625 13:37:53.276763 29029 net.cpp:141] Setting up pool2
I0625 13:37:53.276768 29029 net.cpp:148] Top shape: 1 64 56 72 (258048)
I0625 13:37:53.276772 29029 net.cpp:148] Top shape: 1 64 56 72 (258048)
I0625 13:37:53.276773 29029 net.cpp:156] Memory required for data: 106315776
I0625 13:37:53.276777 29029 layer_factory.hpp:77] Creating layer conv3_1
I0625 13:37:53.276783 29029 net.cpp:91] Creating Layer conv3_1
I0625 13:37:53.276787 29029 net.cpp:425] conv3_1 <- pool2
I0625 13:37:53.276790 29029 net.cpp:399] conv3_1 -> conv3_1
I0625 13:37:53.278641 29029 net.cpp:141] Setting up conv3_1
I0625 13:37:53.278655 29029 net.cpp:148] Top shape: 1 128 56 72 (516096)
I0625 13:37:53.278657 29029 net.cpp:156] Memory required for data: 108380160
I0625 13:37:53.278661 29029 layer_factory.hpp:77] Creating layer bn3_1
I0625 13:37:53.278667 29029 net.cpp:91] Creating Layer bn3_1
I0625 13:37:53.278671 29029 net.cpp:425] bn3_1 <- conv3_1
I0625 13:37:53.278676 29029 net.cpp:386] bn3_1 -> conv3_1 (in-place)
I0625 13:37:53.279402 29029 net.cpp:141] Setting up bn3_1
I0625 13:37:53.279413 29029 net.cpp:148] Top shape: 1 128 56 72 (516096)
I0625 13:37:53.279417 29029 net.cpp:156] Memory required for data: 110444544
I0625 13:37:53.279422 29029 layer_factory.hpp:77] Creating layer scale3_1
I0625 13:37:53.279429 29029 net.cpp:91] Creating Layer scale3_1
I0625 13:37:53.279431 29029 net.cpp:425] scale3_1 <- conv3_1
I0625 13:37:53.279436 29029 net.cpp:386] scale3_1 -> conv3_1 (in-place)
I0625 13:37:53.279469 29029 layer_factory.hpp:77] Creating layer scale3_1
I0625 13:37:53.279553 29029 net.cpp:141] Setting up scale3_1
I0625 13:37:53.279561 29029 net.cpp:148] Top shape: 1 128 56 72 (516096)
I0625 13:37:53.279563 29029 net.cpp:156] Memory required for data: 112508928
I0625 13:37:53.279567 29029 layer_factory.hpp:77] Creating layer relu3_1
I0625 13:37:53.279572 29029 net.cpp:91] Creating Layer relu3_1
I0625 13:37:53.279575 29029 net.cpp:425] relu3_1 <- conv3_1
I0625 13:37:53.279579 29029 net.cpp:386] relu3_1 -> conv3_1 (in-place)
I0625 13:37:53.279713 29029 net.cpp:141] Setting up relu3_1
I0625 13:37:53.279723 29029 net.cpp:148] Top shape: 1 128 56 72 (516096)
I0625 13:37:53.279726 29029 net.cpp:156] Memory required for data: 114573312
I0625 13:37:53.279728 29029 layer_factory.hpp:77] Creating layer conv3_2
I0625 13:37:53.279745 29029 net.cpp:91] Creating Layer conv3_2
I0625 13:37:53.279749 29029 net.cpp:425] conv3_2 <- conv3_1
I0625 13:37:53.279753 29029 net.cpp:399] conv3_2 -> conv3_2
I0625 13:37:53.281487 29029 net.cpp:141] Setting up conv3_2
I0625 13:37:53.281499 29029 net.cpp:148] Top shape: 1 128 56 72 (516096)
I0625 13:37:53.281502 29029 net.cpp:156] Memory required for data: 116637696
I0625 13:37:53.281507 29029 layer_factory.hpp:77] Creating layer bn3_2
I0625 13:37:53.281513 29029 net.cpp:91] Creating Layer bn3_2
I0625 13:37:53.281517 29029 net.cpp:425] bn3_2 <- conv3_2
I0625 13:37:53.281520 29029 net.cpp:386] bn3_2 -> conv3_2 (in-place)
I0625 13:37:53.281675 29029 net.cpp:141] Setting up bn3_2
I0625 13:37:53.281682 29029 net.cpp:148] Top shape: 1 128 56 72 (516096)
I0625 13:37:53.281685 29029 net.cpp:156] Memory required for data: 118702080
I0625 13:37:53.281694 29029 layer_factory.hpp:77] Creating layer scale3_2
I0625 13:37:53.281700 29029 net.cpp:91] Creating Layer scale3_2
I0625 13:37:53.281703 29029 net.cpp:425] scale3_2 <- conv3_2
I0625 13:37:53.281708 29029 net.cpp:386] scale3_2 -> conv3_2 (in-place)
I0625 13:37:53.281738 29029 layer_factory.hpp:77] Creating layer scale3_2
I0625 13:37:53.281821 29029 net.cpp:141] Setting up scale3_2
I0625 13:37:53.281827 29029 net.cpp:148] Top shape: 1 128 56 72 (516096)
I0625 13:37:53.281831 29029 net.cpp:156] Memory required for data: 120766464
I0625 13:37:53.281834 29029 layer_factory.hpp:77] Creating layer relu3_2
I0625 13:37:53.281839 29029 net.cpp:91] Creating Layer relu3_2
I0625 13:37:53.281841 29029 net.cpp:425] relu3_2 <- conv3_2
I0625 13:37:53.281846 29029 net.cpp:386] relu3_2 -> conv3_2 (in-place)
I0625 13:37:53.282110 29029 net.cpp:141] Setting up relu3_2
I0625 13:37:53.282121 29029 net.cpp:148] Top shape: 1 128 56 72 (516096)
I0625 13:37:53.282124 29029 net.cpp:156] Memory required for data: 122830848
I0625 13:37:53.282127 29029 layer_factory.hpp:77] Creating layer pool3
I0625 13:37:53.282130 29029 layer_factory.cpp:90] cuDNN does not support multiple tops. Using Caffe's own pooling layer.
I0625 13:37:53.282135 29029 net.cpp:91] Creating Layer pool3
I0625 13:37:53.282137 29029 net.cpp:425] pool3 <- conv3_2
I0625 13:37:53.282142 29029 net.cpp:399] pool3 -> pool3
I0625 13:37:53.282147 29029 net.cpp:399] pool3 -> pool3_mask
I0625 13:37:53.282181 29029 net.cpp:141] Setting up pool3
I0625 13:37:53.282186 29029 net.cpp:148] Top shape: 1 128 28 36 (129024)
I0625 13:37:53.282189 29029 net.cpp:148] Top shape: 1 128 28 36 (129024)
I0625 13:37:53.282191 29029 net.cpp:156] Memory required for data: 123863040
I0625 13:37:53.282194 29029 layer_factory.hpp:77] Creating layer conv4_1
I0625 13:37:53.282202 29029 net.cpp:91] Creating Layer conv4_1
I0625 13:37:53.282203 29029 net.cpp:425] conv4_1 <- pool3
I0625 13:37:53.282208 29029 net.cpp:399] conv4_1 -> conv4_1
I0625 13:37:53.285717 29029 net.cpp:141] Setting up conv4_1
I0625 13:37:53.285735 29029 net.cpp:148] Top shape: 1 256 28 36 (258048)
I0625 13:37:53.285742 29029 net.cpp:156] Memory required for data: 124895232
I0625 13:37:53.285748 29029 layer_factory.hpp:77] Creating layer bn4_1
I0625 13:37:53.285759 29029 net.cpp:91] Creating Layer bn4_1
I0625 13:37:53.285766 29029 net.cpp:425] bn4_1 <- conv4_1
I0625 13:37:53.285773 29029 net.cpp:386] bn4_1 -> conv4_1 (in-place)
I0625 13:37:53.286051 29029 net.cpp:141] Setting up bn4_1
I0625 13:37:53.286067 29029 net.cpp:148] Top shape: 1 256 28 36 (258048)
I0625 13:37:53.286072 29029 net.cpp:156] Memory required for data: 125927424
I0625 13:37:53.286080 29029 layer_factory.hpp:77] Creating layer scale4_1
I0625 13:37:53.286087 29029 net.cpp:91] Creating Layer scale4_1
I0625 13:37:53.286089 29029 net.cpp:425] scale4_1 <- conv4_1
I0625 13:37:53.286097 29029 net.cpp:386] scale4_1 -> conv4_1 (in-place)
I0625 13:37:53.286151 29029 layer_factory.hpp:77] Creating layer scale4_1
I0625 13:37:53.286341 29029 net.cpp:141] Setting up scale4_1
I0625 13:37:53.286357 29029 net.cpp:148] Top shape: 1 256 28 36 (258048)
I0625 13:37:53.286362 29029 net.cpp:156] Memory required for data: 126959616
I0625 13:37:53.286383 29029 layer_factory.hpp:77] Creating layer relu4_1
I0625 13:37:53.286398 29029 net.cpp:91] Creating Layer relu4_1
I0625 13:37:53.286403 29029 net.cpp:425] relu4_1 <- conv4_1
I0625 13:37:53.286412 29029 net.cpp:386] relu4_1 -> conv4_1 (in-place)
I0625 13:37:53.286794 29029 net.cpp:141] Setting up relu4_1
I0625 13:37:53.286806 29029 net.cpp:148] Top shape: 1 256 28 36 (258048)
I0625 13:37:53.286809 29029 net.cpp:156] Memory required for data: 127991808
I0625 13:37:53.286813 29029 layer_factory.hpp:77] Creating layer conv4_2
I0625 13:37:53.286823 29029 net.cpp:91] Creating Layer conv4_2
I0625 13:37:53.286825 29029 net.cpp:425] conv4_2 <- conv4_1
I0625 13:37:53.286830 29029 net.cpp:399] conv4_2 -> conv4_2
I0625 13:37:53.292340 29029 net.cpp:141] Setting up conv4_2
I0625 13:37:53.292353 29029 net.cpp:148] Top shape: 1 256 28 36 (258048)
I0625 13:37:53.292356 29029 net.cpp:156] Memory required for data: 129024000
I0625 13:37:53.292361 29029 layer_factory.hpp:77] Creating layer bn4_2
I0625 13:37:53.292368 29029 net.cpp:91] Creating Layer bn4_2
I0625 13:37:53.292371 29029 net.cpp:425] bn4_2 <- conv4_2
I0625 13:37:53.292376 29029 net.cpp:386] bn4_2 -> conv4_2 (in-place)
I0625 13:37:53.292537 29029 net.cpp:141] Setting up bn4_2
I0625 13:37:53.292544 29029 net.cpp:148] Top shape: 1 256 28 36 (258048)
I0625 13:37:53.292546 29029 net.cpp:156] Memory required for data: 130056192
I0625 13:37:53.292552 29029 layer_factory.hpp:77] Creating layer scale4_2
I0625 13:37:53.292560 29029 net.cpp:91] Creating Layer scale4_2
I0625 13:37:53.292563 29029 net.cpp:425] scale4_2 <- conv4_2
I0625 13:37:53.292567 29029 net.cpp:386] scale4_2 -> conv4_2 (in-place)
I0625 13:37:53.292601 29029 layer_factory.hpp:77] Creating layer scale4_2
I0625 13:37:53.292695 29029 net.cpp:141] Setting up scale4_2
I0625 13:37:53.292701 29029 net.cpp:148] Top shape: 1 256 28 36 (258048)
I0625 13:37:53.292703 29029 net.cpp:156] Memory required for data: 131088384
I0625 13:37:53.292708 29029 layer_factory.hpp:77] Creating layer relu4_2
I0625 13:37:53.292712 29029 net.cpp:91] Creating Layer relu4_2
I0625 13:37:53.292716 29029 net.cpp:425] relu4_2 <- conv4_2
I0625 13:37:53.292719 29029 net.cpp:386] relu4_2 -> conv4_2 (in-place)
I0625 13:37:53.292870 29029 net.cpp:141] Setting up relu4_2
I0625 13:37:53.292879 29029 net.cpp:148] Top shape: 1 256 28 36 (258048)
I0625 13:37:53.292882 29029 net.cpp:156] Memory required for data: 132120576
I0625 13:37:53.292884 29029 layer_factory.hpp:77] Creating layer pool4
I0625 13:37:53.292887 29029 layer_factory.cpp:90] cuDNN does not support multiple tops. Using Caffe's own pooling layer.
I0625 13:37:53.292892 29029 net.cpp:91] Creating Layer pool4
I0625 13:37:53.292894 29029 net.cpp:425] pool4 <- conv4_2
I0625 13:37:53.292901 29029 net.cpp:399] pool4 -> pool4
I0625 13:37:53.292906 29029 net.cpp:399] pool4 -> pool4_mask
I0625 13:37:53.292946 29029 net.cpp:141] Setting up pool4
I0625 13:37:53.292953 29029 net.cpp:148] Top shape: 1 256 14 18 (64512)
I0625 13:37:53.292956 29029 net.cpp:148] Top shape: 1 256 14 18 (64512)
I0625 13:37:53.292958 29029 net.cpp:156] Memory required for data: 132636672
I0625 13:37:53.292960 29029 layer_factory.hpp:77] Creating layer conv5_1
I0625 13:37:53.292968 29029 net.cpp:91] Creating Layer conv5_1
I0625 13:37:53.292971 29029 net.cpp:425] conv5_1 <- pool4
I0625 13:37:53.292976 29029 net.cpp:399] conv5_1 -> conv5_1
I0625 13:37:53.298410 29029 net.cpp:141] Setting up conv5_1
I0625 13:37:53.298424 29029 net.cpp:148] Top shape: 1 256 14 18 (64512)
I0625 13:37:53.298427 29029 net.cpp:156] Memory required for data: 132894720
I0625 13:37:53.298434 29029 layer_factory.hpp:77] Creating layer bn5_1
I0625 13:37:53.298439 29029 net.cpp:91] Creating Layer bn5_1
I0625 13:37:53.298444 29029 net.cpp:425] bn5_1 <- conv5_1
I0625 13:37:53.298449 29029 net.cpp:386] bn5_1 -> conv5_1 (in-place)
I0625 13:37:53.298606 29029 net.cpp:141] Setting up bn5_1
I0625 13:37:53.298614 29029 net.cpp:148] Top shape: 1 256 14 18 (64512)
I0625 13:37:53.298616 29029 net.cpp:156] Memory required for data: 133152768
I0625 13:37:53.298632 29029 layer_factory.hpp:77] Creating layer scale5_1
I0625 13:37:53.298640 29029 net.cpp:91] Creating Layer scale5_1
I0625 13:37:53.298643 29029 net.cpp:425] scale5_1 <- conv5_1
I0625 13:37:53.298647 29029 net.cpp:386] scale5_1 -> conv5_1 (in-place)
I0625 13:37:53.298686 29029 layer_factory.hpp:77] Creating layer scale5_1
I0625 13:37:53.298799 29029 net.cpp:141] Setting up scale5_1
I0625 13:37:53.298809 29029 net.cpp:148] Top shape: 1 256 14 18 (64512)
I0625 13:37:53.298812 29029 net.cpp:156] Memory required for data: 133410816
I0625 13:37:53.298820 29029 layer_factory.hpp:77] Creating layer relu5_1
I0625 13:37:53.298832 29029 net.cpp:91] Creating Layer relu5_1
I0625 13:37:53.298836 29029 net.cpp:425] relu5_1 <- conv5_1
I0625 13:37:53.298840 29029 net.cpp:386] relu5_1 -> conv5_1 (in-place)
I0625 13:37:53.299115 29029 net.cpp:141] Setting up relu5_1
I0625 13:37:53.299127 29029 net.cpp:148] Top shape: 1 256 14 18 (64512)
I0625 13:37:53.299130 29029 net.cpp:156] Memory required for data: 133668864
I0625 13:37:53.299134 29029 layer_factory.hpp:77] Creating layer conv5_2
I0625 13:37:53.299144 29029 net.cpp:91] Creating Layer conv5_2
I0625 13:37:53.299146 29029 net.cpp:425] conv5_2 <- conv5_1
I0625 13:37:53.299157 29029 net.cpp:399] conv5_2 -> conv5_2
I0625 13:37:53.304872 29029 net.cpp:141] Setting up conv5_2
I0625 13:37:53.304885 29029 net.cpp:148] Top shape: 1 256 14 18 (64512)
I0625 13:37:53.304888 29029 net.cpp:156] Memory required for data: 133926912
I0625 13:37:53.304893 29029 layer_factory.hpp:77] Creating layer bn5_2
I0625 13:37:53.304901 29029 net.cpp:91] Creating Layer bn5_2
I0625 13:37:53.304904 29029 net.cpp:425] bn5_2 <- conv5_2
I0625 13:37:53.304910 29029 net.cpp:386] bn5_2 -> conv5_2 (in-place)
I0625 13:37:53.305070 29029 net.cpp:141] Setting up bn5_2
I0625 13:37:53.305078 29029 net.cpp:148] Top shape: 1 256 14 18 (64512)
I0625 13:37:53.305079 29029 net.cpp:156] Memory required for data: 134184960
I0625 13:37:53.305085 29029 layer_factory.hpp:77] Creating layer scale5_2
I0625 13:37:53.305091 29029 net.cpp:91] Creating Layer scale5_2
I0625 13:37:53.305094 29029 net.cpp:425] scale5_2 <- conv5_2
I0625 13:37:53.305099 29029 net.cpp:386] scale5_2 -> conv5_2 (in-place)
I0625 13:37:53.305132 29029 layer_factory.hpp:77] Creating layer scale5_2
I0625 13:37:53.305233 29029 net.cpp:141] Setting up scale5_2
I0625 13:37:53.305243 29029 net.cpp:148] Top shape: 1 256 14 18 (64512)
I0625 13:37:53.305245 29029 net.cpp:156] Memory required for data: 134443008
I0625 13:37:53.305249 29029 layer_factory.hpp:77] Creating layer relu5_2
I0625 13:37:53.305254 29029 net.cpp:91] Creating Layer relu5_2
I0625 13:37:53.305258 29029 net.cpp:425] relu5_2 <- conv5_2
I0625 13:37:53.305261 29029 net.cpp:386] relu5_2 -> conv5_2 (in-place)
I0625 13:37:53.305541 29029 net.cpp:141] Setting up relu5_2
I0625 13:37:53.305552 29029 net.cpp:148] Top shape: 1 256 14 18 (64512)
I0625 13:37:53.305555 29029 net.cpp:156] Memory required for data: 134701056
I0625 13:37:53.305558 29029 layer_factory.hpp:77] Creating layer pool5
I0625 13:37:53.305562 29029 layer_factory.cpp:90] cuDNN does not support multiple tops. Using Caffe's own pooling layer.
I0625 13:37:53.305568 29029 net.cpp:91] Creating Layer pool5
I0625 13:37:53.305572 29029 net.cpp:425] pool5 <- conv5_2
I0625 13:37:53.305575 29029 net.cpp:399] pool5 -> pool5
I0625 13:37:53.305582 29029 net.cpp:399] pool5 -> pool5_mask
I0625 13:37:53.305621 29029 net.cpp:141] Setting up pool5
I0625 13:37:53.305626 29029 net.cpp:148] Top shape: 1 256 7 9 (16128)
I0625 13:37:53.305629 29029 net.cpp:148] Top shape: 1 256 7 9 (16128)
I0625 13:37:53.305631 29029 net.cpp:156] Memory required for data: 134830080
I0625 13:37:53.305634 29029 layer_factory.hpp:77] Creating layer upsample5
I0625 13:37:53.305644 29029 net.cpp:91] Creating Layer upsample5
I0625 13:37:53.305647 29029 net.cpp:425] upsample5 <- pool5
I0625 13:37:53.305650 29029 net.cpp:425] upsample5 <- pool5_mask
I0625 13:37:53.305655 29029 net.cpp:399] upsample5 -> pool5_D
I0625 13:37:53.305663 29029 upsample_layer.cpp:31] Params 'pad_out_{}_' are deprecated. Please declare upsample height and width useing the upsample_h, upsample_w parameters.
I0625 13:37:53.305698 29029 net.cpp:141] Setting up upsample5
I0625 13:37:53.305703 29029 net.cpp:148] Top shape: 1 256 14 18 (64512)
I0625 13:37:53.305706 29029 net.cpp:156] Memory required for data: 135088128
I0625 13:37:53.305708 29029 layer_factory.hpp:77] Creating layer conv5_2_D
I0625 13:37:53.305716 29029 net.cpp:91] Creating Layer conv5_2_D
I0625 13:37:53.305719 29029 net.cpp:425] conv5_2_D <- pool5_D
I0625 13:37:53.305723 29029 net.cpp:399] conv5_2_D -> conv5_2_D
I0625 13:37:53.311144 29029 net.cpp:141] Setting up conv5_2_D
I0625 13:37:53.311161 29029 net.cpp:148] Top shape: 1 256 14 18 (64512)
I0625 13:37:53.311164 29029 net.cpp:156] Memory required for data: 135346176
I0625 13:37:53.311168 29029 layer_factory.hpp:77] Creating layer bn5_2_D
I0625 13:37:53.311177 29029 net.cpp:91] Creating Layer bn5_2_D
I0625 13:37:53.311179 29029 net.cpp:425] bn5_2_D <- conv5_2_D
I0625 13:37:53.311184 29029 net.cpp:386] bn5_2_D -> conv5_2_D (in-place)
I0625 13:37:53.311352 29029 net.cpp:141] Setting up bn5_2_D
I0625 13:37:53.311359 29029 net.cpp:148] Top shape: 1 256 14 18 (64512)
I0625 13:37:53.311362 29029 net.cpp:156] Memory required for data: 135604224
I0625 13:37:53.311368 29029 layer_factory.hpp:77] Creating layer scale5_2_D
I0625 13:37:53.311373 29029 net.cpp:91] Creating Layer scale5_2_D
I0625 13:37:53.311377 29029 net.cpp:425] scale5_2_D <- conv5_2_D
I0625 13:37:53.311381 29029 net.cpp:386] scale5_2_D -> conv5_2_D (in-place)
I0625 13:37:53.311416 29029 layer_factory.hpp:77] Creating layer scale5_2_D
I0625 13:37:53.311506 29029 net.cpp:141] Setting up scale5_2_D
I0625 13:37:53.311511 29029 net.cpp:148] Top shape: 1 256 14 18 (64512)
I0625 13:37:53.311514 29029 net.cpp:156] Memory required for data: 135862272
I0625 13:37:53.311528 29029 layer_factory.hpp:77] Creating layer relu5_2_D
I0625 13:37:53.311533 29029 net.cpp:91] Creating Layer relu5_2_D
I0625 13:37:53.311535 29029 net.cpp:425] relu5_2_D <- conv5_2_D
I0625 13:37:53.311539 29029 net.cpp:386] relu5_2_D -> conv5_2_D (in-place)
I0625 13:37:53.311694 29029 net.cpp:141] Setting up relu5_2_D
I0625 13:37:53.311704 29029 net.cpp:148] Top shape: 1 256 14 18 (64512)
I0625 13:37:53.311707 29029 net.cpp:156] Memory required for data: 136120320
I0625 13:37:53.311709 29029 layer_factory.hpp:77] Creating layer conv5_1_D
I0625 13:37:53.311717 29029 net.cpp:91] Creating Layer conv5_1_D
I0625 13:37:53.311720 29029 net.cpp:425] conv5_1_D <- conv5_2_D
I0625 13:37:53.311725 29029 net.cpp:399] conv5_1_D -> conv5_1_D
I0625 13:37:53.317144 29029 net.cpp:141] Setting up conv5_1_D
I0625 13:37:53.317157 29029 net.cpp:148] Top shape: 1 256 14 18 (64512)
I0625 13:37:53.317159 29029 net.cpp:156] Memory required for data: 136378368
I0625 13:37:53.317165 29029 layer_factory.hpp:77] Creating layer bn5_1_D
I0625 13:37:53.317173 29029 net.cpp:91] Creating Layer bn5_1_D
I0625 13:37:53.317175 29029 net.cpp:425] bn5_1_D <- conv5_1_D
I0625 13:37:53.317180 29029 net.cpp:386] bn5_1_D -> conv5_1_D (in-place)
I0625 13:37:53.317345 29029 net.cpp:141] Setting up bn5_1_D
I0625 13:37:53.317353 29029 net.cpp:148] Top shape: 1 256 14 18 (64512)
I0625 13:37:53.317355 29029 net.cpp:156] Memory required for data: 136636416
I0625 13:37:53.317361 29029 layer_factory.hpp:77] Creating layer scale5_1_D
I0625 13:37:53.317368 29029 net.cpp:91] Creating Layer scale5_1_D
I0625 13:37:53.317371 29029 net.cpp:425] scale5_1_D <- conv5_1_D
I0625 13:37:53.317374 29029 net.cpp:386] scale5_1_D -> conv5_1_D (in-place)
I0625 13:37:53.317409 29029 layer_factory.hpp:77] Creating layer scale5_1_D
I0625 13:37:53.317500 29029 net.cpp:141] Setting up scale5_1_D
I0625 13:37:53.317507 29029 net.cpp:148] Top shape: 1 256 14 18 (64512)
I0625 13:37:53.317509 29029 net.cpp:156] Memory required for data: 136894464
I0625 13:37:53.317513 29029 layer_factory.hpp:77] Creating layer relu5_1_D
I0625 13:37:53.317519 29029 net.cpp:91] Creating Layer relu5_1_D
I0625 13:37:53.317523 29029 net.cpp:425] relu5_1_D <- conv5_1_D
I0625 13:37:53.317525 29029 net.cpp:386] relu5_1_D -> conv5_1_D (in-place)
I0625 13:37:53.317821 29029 net.cpp:141] Setting up relu5_1_D
I0625 13:37:53.317833 29029 net.cpp:148] Top shape: 1 256 14 18 (64512)
I0625 13:37:53.317836 29029 net.cpp:156] Memory required for data: 137152512
I0625 13:37:53.317839 29029 layer_factory.hpp:77] Creating layer upsample4
I0625 13:37:53.317845 29029 net.cpp:91] Creating Layer upsample4
I0625 13:37:53.317847 29029 net.cpp:425] upsample4 <- conv5_1_D
I0625 13:37:53.317853 29029 net.cpp:425] upsample4 <- pool4_mask
I0625 13:37:53.317858 29029 net.cpp:399] upsample4 -> pool4_D
I0625 13:37:53.317863 29029 upsample_layer.cpp:31] Params 'pad_out_{}_' are deprecated. Please declare upsample height and width useing the upsample_h, upsample_w parameters.
I0625 13:37:53.317890 29029 net.cpp:141] Setting up upsample4
I0625 13:37:53.317894 29029 net.cpp:148] Top shape: 1 256 28 36 (258048)
I0625 13:37:53.317898 29029 net.cpp:156] Memory required for data: 138184704
I0625 13:37:53.317899 29029 layer_factory.hpp:77] Creating layer conv4_2_D
I0625 13:37:53.317909 29029 net.cpp:91] Creating Layer conv4_2_D
I0625 13:37:53.317911 29029 net.cpp:425] conv4_2_D <- pool4_D
I0625 13:37:53.317916 29029 net.cpp:399] conv4_2_D -> conv4_2_D
I0625 13:37:53.323223 29029 net.cpp:141] Setting up conv4_2_D
I0625 13:37:53.323237 29029 net.cpp:148] Top shape: 1 256 28 36 (258048)
I0625 13:37:53.323240 29029 net.cpp:156] Memory required for data: 139216896
I0625 13:37:53.323246 29029 layer_factory.hpp:77] Creating layer bn4_2_D
I0625 13:37:53.323251 29029 net.cpp:91] Creating Layer bn4_2_D
I0625 13:37:53.323254 29029 net.cpp:425] bn4_2_D <- conv4_2_D
I0625 13:37:53.323259 29029 net.cpp:386] bn4_2_D -> conv4_2_D (in-place)
I0625 13:37:53.323446 29029 net.cpp:141] Setting up bn4_2_D
I0625 13:37:53.323452 29029 net.cpp:148] Top shape: 1 256 28 36 (258048)
I0625 13:37:53.323456 29029 net.cpp:156] Memory required for data: 140249088
I0625 13:37:53.323462 29029 layer_factory.hpp:77] Creating layer scale4_2_D
I0625 13:37:53.323467 29029 net.cpp:91] Creating Layer scale4_2_D
I0625 13:37:53.323470 29029 net.cpp:425] scale4_2_D <- conv4_2_D
I0625 13:37:53.323473 29029 net.cpp:386] scale4_2_D -> conv4_2_D (in-place)
I0625 13:37:53.323509 29029 layer_factory.hpp:77] Creating layer scale4_2_D
I0625 13:37:53.323608 29029 net.cpp:141] Setting up scale4_2_D
I0625 13:37:53.323616 29029 net.cpp:148] Top shape: 1 256 28 36 (258048)
I0625 13:37:53.323618 29029 net.cpp:156] Memory required for data: 141281280
I0625 13:37:53.323623 29029 layer_factory.hpp:77] Creating layer relu4_2_D
I0625 13:37:53.323629 29029 net.cpp:91] Creating Layer relu4_2_D
I0625 13:37:53.323632 29029 net.cpp:425] relu4_2_D <- conv4_2_D
I0625 13:37:53.323635 29029 net.cpp:386] relu4_2_D -> conv4_2_D (in-place)
I0625 13:37:53.323921 29029 net.cpp:141] Setting up relu4_2_D
I0625 13:37:53.323933 29029 net.cpp:148] Top shape: 1 256 28 36 (258048)
I0625 13:37:53.323936 29029 net.cpp:156] Memory required for data: 142313472
I0625 13:37:53.323940 29029 layer_factory.hpp:77] Creating layer conv4_1_D
I0625 13:37:53.323947 29029 net.cpp:91] Creating Layer conv4_1_D
I0625 13:37:53.323951 29029 net.cpp:425] conv4_1_D <- conv4_2_D
I0625 13:37:53.323956 29029 net.cpp:399] conv4_1_D -> conv4_1_D
I0625 13:37:53.327253 29029 net.cpp:141] Setting up conv4_1_D
I0625 13:37:53.327266 29029 net.cpp:148] Top shape: 1 128 28 36 (129024)
I0625 13:37:53.327270 29029 net.cpp:156] Memory required for data: 142829568
I0625 13:37:53.327273 29029 layer_factory.hpp:77] Creating layer bn4_1_D
I0625 13:37:53.327281 29029 net.cpp:91] Creating Layer bn4_1_D
I0625 13:37:53.327285 29029 net.cpp:425] bn4_1_D <- conv4_1_D
I0625 13:37:53.327288 29029 net.cpp:386] bn4_1_D -> conv4_1_D (in-place)
I0625 13:37:53.327467 29029 net.cpp:141] Setting up bn4_1_D
I0625 13:37:53.327474 29029 net.cpp:148] Top shape: 1 128 28 36 (129024)
I0625 13:37:53.327476 29029 net.cpp:156] Memory required for data: 143345664
I0625 13:37:53.327482 29029 layer_factory.hpp:77] Creating layer scale4_1_D
I0625 13:37:53.327489 29029 net.cpp:91] Creating Layer scale4_1_D
I0625 13:37:53.327502 29029 net.cpp:425] scale4_1_D <- conv4_1_D
I0625 13:37:53.327507 29029 net.cpp:386] scale4_1_D -> conv4_1_D (in-place)
I0625 13:37:53.327546 29029 layer_factory.hpp:77] Creating layer scale4_1_D
I0625 13:37:53.327646 29029 net.cpp:141] Setting up scale4_1_D
I0625 13:37:53.327652 29029 net.cpp:148] Top shape: 1 128 28 36 (129024)
I0625 13:37:53.327656 29029 net.cpp:156] Memory required for data: 143861760
I0625 13:37:53.327661 29029 layer_factory.hpp:77] Creating layer relu4_1_D
I0625 13:37:53.327672 29029 net.cpp:91] Creating Layer relu4_1_D
I0625 13:37:53.327674 29029 net.cpp:425] relu4_1_D <- conv4_1_D
I0625 13:37:53.327678 29029 net.cpp:386] relu4_1_D -> conv4_1_D (in-place)
I0625 13:37:53.327831 29029 net.cpp:141] Setting up relu4_1_D
I0625 13:37:53.327839 29029 net.cpp:148] Top shape: 1 128 28 36 (129024)
I0625 13:37:53.327842 29029 net.cpp:156] Memory required for data: 144377856
I0625 13:37:53.327846 29029 layer_factory.hpp:77] Creating layer upsample3
I0625 13:37:53.327854 29029 net.cpp:91] Creating Layer upsample3
I0625 13:37:53.327857 29029 net.cpp:425] upsample3 <- conv4_1_D
I0625 13:37:53.327862 29029 net.cpp:425] upsample3 <- pool3_mask
I0625 13:37:53.327867 29029 net.cpp:399] upsample3 -> pool3_D
I0625 13:37:53.327872 29029 upsample_layer.cpp:31] Params 'pad_out_{}_' are deprecated. Please declare upsample height and width useing the upsample_h, upsample_w parameters.
I0625 13:37:53.327898 29029 net.cpp:141] Setting up upsample3
I0625 13:37:53.327901 29029 net.cpp:148] Top shape: 1 128 56 72 (516096)
I0625 13:37:53.327903 29029 net.cpp:156] Memory required for data: 146442240
I0625 13:37:53.327906 29029 layer_factory.hpp:77] Creating layer conv3_2_D
I0625 13:37:53.327915 29029 net.cpp:91] Creating Layer conv3_2_D
I0625 13:37:53.327919 29029 net.cpp:425] conv3_2_D <- pool3_D
I0625 13:37:53.327922 29029 net.cpp:399] conv3_2_D -> conv3_2_D
I0625 13:37:53.330418 29029 net.cpp:141] Setting up conv3_2_D
I0625 13:37:53.330431 29029 net.cpp:148] Top shape: 1 128 56 72 (516096)
I0625 13:37:53.330435 29029 net.cpp:156] Memory required for data: 148506624
I0625 13:37:53.330440 29029 layer_factory.hpp:77] Creating layer bn3_2_D
I0625 13:37:53.330447 29029 net.cpp:91] Creating Layer bn3_2_D
I0625 13:37:53.330451 29029 net.cpp:425] bn3_2_D <- conv3_2_D
I0625 13:37:53.330454 29029 net.cpp:386] bn3_2_D -> conv3_2_D (in-place)
I0625 13:37:53.330636 29029 net.cpp:141] Setting up bn3_2_D
I0625 13:37:53.330642 29029 net.cpp:148] Top shape: 1 128 56 72 (516096)
I0625 13:37:53.330646 29029 net.cpp:156] Memory required for data: 150571008
I0625 13:37:53.330651 29029 layer_factory.hpp:77] Creating layer scale3_2_D
I0625 13:37:53.330657 29029 net.cpp:91] Creating Layer scale3_2_D
I0625 13:37:53.330659 29029 net.cpp:425] scale3_2_D <- conv3_2_D
I0625 13:37:53.330664 29029 net.cpp:386] scale3_2_D -> conv3_2_D (in-place)
I0625 13:37:53.330699 29029 layer_factory.hpp:77] Creating layer scale3_2_D
I0625 13:37:53.330802 29029 net.cpp:141] Setting up scale3_2_D
I0625 13:37:53.330808 29029 net.cpp:148] Top shape: 1 128 56 72 (516096)
I0625 13:37:53.330811 29029 net.cpp:156] Memory required for data: 152635392
I0625 13:37:53.330816 29029 layer_factory.hpp:77] Creating layer relu3_2_D
I0625 13:37:53.330821 29029 net.cpp:91] Creating Layer relu3_2_D
I0625 13:37:53.330822 29029 net.cpp:425] relu3_2_D <- conv3_2_D
I0625 13:37:53.330826 29029 net.cpp:386] relu3_2_D -> conv3_2_D (in-place)
I0625 13:37:53.331111 29029 net.cpp:141] Setting up relu3_2_D
I0625 13:37:53.331123 29029 net.cpp:148] Top shape: 1 128 56 72 (516096)
I0625 13:37:53.331125 29029 net.cpp:156] Memory required for data: 154699776
I0625 13:37:53.331128 29029 layer_factory.hpp:77] Creating layer conv3_1_D
I0625 13:37:53.331137 29029 net.cpp:91] Creating Layer conv3_1_D
I0625 13:37:53.331140 29029 net.cpp:425] conv3_1_D <- conv3_2_D
I0625 13:37:53.331146 29029 net.cpp:399] conv3_1_D -> conv3_1_D
I0625 13:37:53.332566 29029 net.cpp:141] Setting up conv3_1_D
I0625 13:37:53.332581 29029 net.cpp:148] Top shape: 1 64 56 72 (258048)
I0625 13:37:53.332583 29029 net.cpp:156] Memory required for data: 155731968
I0625 13:37:53.332598 29029 layer_factory.hpp:77] Creating layer bn3_1_D
I0625 13:37:53.332604 29029 net.cpp:91] Creating Layer bn3_1_D
I0625 13:37:53.332608 29029 net.cpp:425] bn3_1_D <- conv3_1_D
I0625 13:37:53.332613 29029 net.cpp:386] bn3_1_D -> conv3_1_D (in-place)
I0625 13:37:53.332813 29029 net.cpp:141] Setting up bn3_1_D
I0625 13:37:53.332821 29029 net.cpp:148] Top shape: 1 64 56 72 (258048)
I0625 13:37:53.332823 29029 net.cpp:156] Memory required for data: 156764160
I0625 13:37:53.332829 29029 layer_factory.hpp:77] Creating layer scale3_1_D
I0625 13:37:53.332835 29029 net.cpp:91] Creating Layer scale3_1_D
I0625 13:37:53.332839 29029 net.cpp:425] scale3_1_D <- conv3_1_D
I0625 13:37:53.332851 29029 net.cpp:386] scale3_1_D -> conv3_1_D (in-place)
I0625 13:37:53.332911 29029 layer_factory.hpp:77] Creating layer scale3_1_D
I0625 13:37:53.333041 29029 net.cpp:141] Setting up scale3_1_D
I0625 13:37:53.333051 29029 net.cpp:148] Top shape: 1 64 56 72 (258048)
I0625 13:37:53.333055 29029 net.cpp:156] Memory required for data: 157796352
I0625 13:37:53.333063 29029 layer_factory.hpp:77] Creating layer relu3_1_D
I0625 13:37:53.333076 29029 net.cpp:91] Creating Layer relu3_1_D
I0625 13:37:53.333079 29029 net.cpp:425] relu3_1_D <- conv3_1_D
I0625 13:37:53.333083 29029 net.cpp:386] relu3_1_D -> conv3_1_D (in-place)
I0625 13:37:53.333372 29029 net.cpp:141] Setting up relu3_1_D
I0625 13:37:53.333384 29029 net.cpp:148] Top shape: 1 64 56 72 (258048)
I0625 13:37:53.333386 29029 net.cpp:156] Memory required for data: 158828544
I0625 13:37:53.333389 29029 layer_factory.hpp:77] Creating layer upsample2
I0625 13:37:53.333396 29029 net.cpp:91] Creating Layer upsample2
I0625 13:37:53.333400 29029 net.cpp:425] upsample2 <- conv3_1_D
I0625 13:37:53.333403 29029 net.cpp:425] upsample2 <- pool2_mask
I0625 13:37:53.333407 29029 net.cpp:399] upsample2 -> pool2_D
I0625 13:37:53.333413 29029 upsample_layer.cpp:31] Params 'pad_out_{}_' are deprecated. Please declare upsample height and width useing the upsample_h, upsample_w parameters.
I0625 13:37:53.333439 29029 net.cpp:141] Setting up upsample2
I0625 13:37:53.333444 29029 net.cpp:148] Top shape: 1 64 112 144 (1032192)
I0625 13:37:53.333446 29029 net.cpp:156] Memory required for data: 162957312
I0625 13:37:53.333449 29029 layer_factory.hpp:77] Creating layer conv2_2_D
I0625 13:37:53.333457 29029 net.cpp:91] Creating Layer conv2_2_D
I0625 13:37:53.333464 29029 net.cpp:425] conv2_2_D <- pool2_D
I0625 13:37:53.333469 29029 net.cpp:399] conv2_2_D -> conv2_2_D
I0625 13:37:53.334720 29029 net.cpp:141] Setting up conv2_2_D
I0625 13:37:53.334733 29029 net.cpp:148] Top shape: 1 64 112 144 (1032192)
I0625 13:37:53.334735 29029 net.cpp:156] Memory required for data: 167086080
I0625 13:37:53.334740 29029 layer_factory.hpp:77] Creating layer bn2_2_D
I0625 13:37:53.334748 29029 net.cpp:91] Creating Layer bn2_2_D
I0625 13:37:53.334750 29029 net.cpp:425] bn2_2_D <- conv2_2_D
I0625 13:37:53.334755 29029 net.cpp:386] bn2_2_D -> conv2_2_D (in-place)
I0625 13:37:53.334961 29029 net.cpp:141] Setting up bn2_2_D
I0625 13:37:53.334969 29029 net.cpp:148] Top shape: 1 64 112 144 (1032192)
I0625 13:37:53.334971 29029 net.cpp:156] Memory required for data: 171214848
I0625 13:37:53.334977 29029 layer_factory.hpp:77] Creating layer scale2_2_D
I0625 13:37:53.334985 29029 net.cpp:91] Creating Layer scale2_2_D
I0625 13:37:53.334987 29029 net.cpp:425] scale2_2_D <- conv2_2_D
I0625 13:37:53.334991 29029 net.cpp:386] scale2_2_D -> conv2_2_D (in-place)
I0625 13:37:53.335033 29029 layer_factory.hpp:77] Creating layer scale2_2_D
I0625 13:37:53.335324 29029 net.cpp:141] Setting up scale2_2_D
I0625 13:37:53.335353 29029 net.cpp:148] Top shape: 1 64 112 144 (1032192)
I0625 13:37:53.335366 29029 net.cpp:156] Memory required for data: 175343616
I0625 13:37:53.335386 29029 layer_factory.hpp:77] Creating layer relu2_2_D
I0625 13:37:53.335412 29029 net.cpp:91] Creating Layer relu2_2_D
I0625 13:37:53.335427 29029 net.cpp:425] relu2_2_D <- conv2_2_D
I0625 13:37:53.335444 29029 net.cpp:386] relu2_2_D -> conv2_2_D (in-place)
I0625 13:37:53.335871 29029 net.cpp:141] Setting up relu2_2_D
I0625 13:37:53.335896 29029 net.cpp:148] Top shape: 1 64 112 144 (1032192)
I0625 13:37:53.335906 29029 net.cpp:156] Memory required for data: 179472384
I0625 13:37:53.335916 29029 layer_factory.hpp:77] Creating layer conv2_1_D
I0625 13:37:53.335947 29029 net.cpp:91] Creating Layer conv2_1_D
I0625 13:37:53.335958 29029 net.cpp:425] conv2_1_D <- conv2_2_D
I0625 13:37:53.335976 29029 net.cpp:399] conv2_1_D -> conv2_1_D
I0625 13:37:53.338079 29029 net.cpp:141] Setting up conv2_1_D
I0625 13:37:53.338105 29029 net.cpp:148] Top shape: 1 32 112 144 (516096)
I0625 13:37:53.338116 29029 net.cpp:156] Memory required for data: 181536768
I0625 13:37:53.338132 29029 layer_factory.hpp:77] Creating layer bn2_1_D
I0625 13:37:53.338156 29029 net.cpp:91] Creating Layer bn2_1_D
I0625 13:37:53.338171 29029 net.cpp:425] bn2_1_D <- conv2_1_D
I0625 13:37:53.338189 29029 net.cpp:386] bn2_1_D -> conv2_1_D (in-place)
I0625 13:37:53.338642 29029 net.cpp:141] Setting up bn2_1_D
I0625 13:37:53.338661 29029 net.cpp:148] Top shape: 1 32 112 144 (516096)
I0625 13:37:53.338671 29029 net.cpp:156] Memory required for data: 183601152
I0625 13:37:53.338692 29029 layer_factory.hpp:77] Creating layer scale2_1_D
I0625 13:37:53.338714 29029 net.cpp:91] Creating Layer scale2_1_D
I0625 13:37:53.338727 29029 net.cpp:425] scale2_1_D <- conv2_1_D
I0625 13:37:53.338743 29029 net.cpp:386] scale2_1_D -> conv2_1_D (in-place)
I0625 13:37:53.338842 29029 layer_factory.hpp:77] Creating layer scale2_1_D
I0625 13:37:53.339128 29029 net.cpp:141] Setting up scale2_1_D
I0625 13:37:53.339146 29029 net.cpp:148] Top shape: 1 32 112 144 (516096)
I0625 13:37:53.339170 29029 net.cpp:156] Memory required for data: 185665536
I0625 13:37:53.339189 29029 layer_factory.hpp:77] Creating layer relu2_1_D
I0625 13:37:53.339210 29029 net.cpp:91] Creating Layer relu2_1_D
I0625 13:37:53.339224 29029 net.cpp:425] relu2_1_D <- conv2_1_D
I0625 13:37:53.339239 29029 net.cpp:386] relu2_1_D -> conv2_1_D (in-place)
I0625 13:37:53.339787 29029 net.cpp:141] Setting up relu2_1_D
I0625 13:37:53.339812 29029 net.cpp:148] Top shape: 1 32 112 144 (516096)
I0625 13:37:53.339823 29029 net.cpp:156] Memory required for data: 187729920
I0625 13:37:53.339831 29029 layer_factory.hpp:77] Creating layer upsample1
I0625 13:37:53.339851 29029 net.cpp:91] Creating Layer upsample1
I0625 13:37:53.339865 29029 net.cpp:425] upsample1 <- conv2_1_D
I0625 13:37:53.339879 29029 net.cpp:425] upsample1 <- pool1_mask
I0625 13:37:53.339896 29029 net.cpp:399] upsample1 -> pool1_D
I0625 13:37:53.339920 29029 upsample_layer.cpp:31] Params 'pad_out_{}_' are deprecated. Please declare upsample height and width useing the upsample_h, upsample_w parameters.
I0625 13:37:53.339990 29029 net.cpp:141] Setting up upsample1
I0625 13:37:53.340008 29029 net.cpp:148] Top shape: 1 32 224 288 (2064384)
I0625 13:37:53.340016 29029 net.cpp:156] Memory required for data: 195987456
I0625 13:37:53.340026 29029 layer_factory.hpp:77] Creating layer conv1_2_D
I0625 13:37:53.340054 29029 net.cpp:91] Creating Layer conv1_2_D
I0625 13:37:53.340060 29029 net.cpp:425] conv1_2_D <- pool1_D
I0625 13:37:53.340070 29029 net.cpp:399] conv1_2_D -> conv1_2_D
I0625 13:37:53.341995 29029 net.cpp:141] Setting up conv1_2_D
I0625 13:37:53.342017 29029 net.cpp:148] Top shape: 1 32 224 288 (2064384)
I0625 13:37:53.342023 29029 net.cpp:156] Memory required for data: 204244992
I0625 13:37:53.342033 29029 layer_factory.hpp:77] Creating layer bn1_2_D
I0625 13:37:53.342046 29029 net.cpp:91] Creating Layer bn1_2_D
I0625 13:37:53.342051 29029 net.cpp:425] bn1_2_D <- conv1_2_D
I0625 13:37:53.342062 29029 net.cpp:386] bn1_2_D -> conv1_2_D (in-place)
I0625 13:37:53.343559 29029 net.cpp:141] Setting up bn1_2_D
I0625 13:37:53.343581 29029 net.cpp:148] Top shape: 1 32 224 288 (2064384)
I0625 13:37:53.343588 29029 net.cpp:156] Memory required for data: 212502528
I0625 13:37:53.343603 29029 layer_factory.hpp:77] Creating layer scale1_2_D
I0625 13:37:53.343618 29029 net.cpp:91] Creating Layer scale1_2_D
I0625 13:37:53.343642 29029 net.cpp:425] scale1_2_D <- conv1_2_D
I0625 13:37:53.343652 29029 net.cpp:386] scale1_2_D -> conv1_2_D (in-place)
I0625 13:37:53.343749 29029 layer_factory.hpp:77] Creating layer scale1_2_D
I0625 13:37:53.344118 29029 net.cpp:141] Setting up scale1_2_D
I0625 13:37:53.344132 29029 net.cpp:148] Top shape: 1 32 224 288 (2064384)
I0625 13:37:53.344138 29029 net.cpp:156] Memory required for data: 220760064
I0625 13:37:53.344148 29029 layer_factory.hpp:77] Creating layer relu1_2_D
I0625 13:37:53.344157 29029 net.cpp:91] Creating Layer relu1_2_D
I0625 13:37:53.344163 29029 net.cpp:425] relu1_2_D <- conv1_2_D
I0625 13:37:53.344175 29029 net.cpp:386] relu1_2_D -> conv1_2_D (in-place)
I0625 13:37:53.344776 29029 net.cpp:141] Setting up relu1_2_D
I0625 13:37:53.344799 29029 net.cpp:148] Top shape: 1 32 224 288 (2064384)
I0625 13:37:53.344805 29029 net.cpp:156] Memory required for data: 229017600
I0625 13:37:53.344812 29029 layer_factory.hpp:77] Creating layer conv1_1_D
I0625 13:37:53.344831 29029 net.cpp:91] Creating Layer conv1_1_D
I0625 13:37:53.344841 29029 net.cpp:425] conv1_1_D <- conv1_2_D
I0625 13:37:53.344856 29029 net.cpp:399] conv1_1_D -> conv1_1_D
I0625 13:37:53.347271 29029 net.cpp:141] Setting up conv1_1_D
I0625 13:37:53.347304 29029 net.cpp:148] Top shape: 1 2 224 288 (129024)
I0625 13:37:53.347322 29029 net.cpp:156] Memory required for data: 229533696
I0625 13:37:53.347343 29029 layer_factory.hpp:77] Creating layer conv1_1_D_conv1_1_D_0_split
I0625 13:37:53.347359 29029 net.cpp:91] Creating Layer conv1_1_D_conv1_1_D_0_split
I0625 13:37:53.347369 29029 net.cpp:425] conv1_1_D_conv1_1_D_0_split <- conv1_1_D
I0625 13:37:53.347381 29029 net.cpp:399] conv1_1_D_conv1_1_D_0_split -> conv1_1_D_conv1_1_D_0_split_0
I0625 13:37:53.347394 29029 net.cpp:399] conv1_1_D_conv1_1_D_0_split -> conv1_1_D_conv1_1_D_0_split_1
I0625 13:37:53.347487 29029 net.cpp:141] Setting up conv1_1_D_conv1_1_D_0_split
I0625 13:37:53.347501 29029 net.cpp:148] Top shape: 1 2 224 288 (129024)
I0625 13:37:53.347508 29029 net.cpp:148] Top shape: 1 2 224 288 (129024)
I0625 13:37:53.347513 29029 net.cpp:156] Memory required for data: 230565888
I0625 13:37:53.347519 29029 layer_factory.hpp:77] Creating layer loss
I0625 13:37:53.347528 29029 net.cpp:91] Creating Layer loss
I0625 13:37:53.347534 29029 net.cpp:425] loss <- conv1_1_D_conv1_1_D_0_split_0
I0625 13:37:53.347549 29029 net.cpp:425] loss <- label_data_1_split_0
I0625 13:37:53.347559 29029 net.cpp:399] loss -> loss
…
