…
I0623 20:56:04.575362  4342 net.cpp:313] The NetState phase (0) differed from the phase (1) specified by a rule in layer data
I0623 20:56:04.575783  4342 net.cpp:49] Initializing net from parameters: 
name: "segnet"
state {
  phase: TRAIN
}
layer {
  name: "data"
  type: "DenseImageData"
  top: "data"
  top: "label"
  include {
    phase: TRAIN
  }
  transform_param {
    crop_size: 224
    mean_value: 100
  }
  dense_image_data_param {
    source: "data/train.txt"
    batch_size: 16
    shuffle: true
    new_height: 224
    new_width: 310
    is_color: false
    root_folder: "data/raw/train/"
  }
}
layer {
  name: "conv1_1"
  type: "Convolution"
  bottom: "data"
  top: "conv1_1"
  param {
    lr_mult: 1
    decay_mult: 1
  }
  convolution_param {
    num_output: 64
    bias_term: false
    pad: 1
    kernel_size: 3
    weight_filler {
      type: "xavier"
    }
  }
}
layer {
  name: "bn1_1"
  type: "BatchNorm"
  bottom: "conv1_1"
  top: "conv1_1"
  param {
    lr_mult: 0
  }
  param {
    lr_mult: 0
  }
  param {
    lr_mult: 0
  }
  batch_norm_param {
    use_global_stats: false
  }
}
layer {
  name: "scale1_1"
  type: "Scale"
  bottom: "conv1_1"
  top: "conv1_1"
  param {
    lr_mult: 1
    decay_mult: 1
  }
  param {
    lr_mult: 1
    decay_mult: 1
  }
  scale_param {
    bias_term: true
    bias_filler {
      type: "constant"
      value: 0
    }
  }
}
layer {
  name: "relu1_1"
  type: "ReLU"
  bottom: "conv1_1"
  top: "conv1_1"
}
layer {
  name: "conv1_2"
  type: "Convolution"
  bottom: "conv1_1"
  top: "conv1_2"
  param {
    lr_mult: 1
    decay_mult: 1
  }
  convolution_param {
    num_output: 64
    bias_term: false
    pad: 1
    kernel_size: 3
    weight_filler {
      type: "xavier"
    }
  }
}
layer {
  name: "bn1_2"
  type: "BatchNorm"
  bottom: "conv1_2"
  top: "conv1_2"
  param {
    lr_mult: 0
  }
  param {
    lr_mult: 0
  }
  param {
    lr_mult: 0
  }
  batch_norm_param {
    use_global_stats: false
  }
}
layer {
  name: "scale1_2"
  type: "Scale"
  bottom: "conv1_2"
  top: "conv1_2"
  param {
    lr_mult: 1
    decay_mult: 1
  }
  param {
    lr_mult: 1
    decay_mult: 1
  }
  scale_param {
    bias_term: true
    bias_filler {
      type: "constant"
      value: 0
    }
  }
}
layer {
  name: "relu1_2"
  type: "ReLU"
  bottom: "conv1_2"
  top: "conv1_2"
}
layer {
  name: "pool1"
  type: "Pooling"
  bottom: "conv1_2"
  top: "pool1"
  top: "pool1_mask"
  pooling_param {
    pool: MAX
    kernel_size: 2
    stride: 2
  }
}
layer {
  name: "conv2_1"
  type: "Convolution"
  bottom: "pool1"
  top: "conv2_1"
  param {
    lr_mult: 1
    decay_mult: 1
  }
  convolution_param {
    num_output: 64
    bias_term: false
    pad: 1
    kernel_size: 3
    weight_filler {
      type: "xavier"
    }
  }
}
layer {
  name: "bn2_1"
  type: "BatchNorm"
  bottom: "conv2_1"
  top: "conv2_1"
  param {
    lr_mult: 0
  }
  param {
    lr_mult: 0
  }
  param {
    lr_mult: 0
  }
  batch_norm_param {
    use_global_stats: false
  }
}
layer {
  name: "scale2_1"
  type: "Scale"
  bottom: "conv2_1"
  top: "conv2_1"
  param {
    lr_mult: 1
    decay_mult: 1
  }
  param {
    lr_mult: 1
    decay_mult: 1
  }
  scale_param {
    bias_term: true
    bias_filler {
      type: "constant"
      value: 0
    }
  }
}
layer {
  name: "relu2_1"
  type: "ReLU"
  bottom: "conv2_1"
  top: "conv2_1"
}
layer {
  name: "conv2_2"
  type: "Convolution"
  bottom: "conv2_1"
  top: "conv2_2"
  param {
    lr_mult: 1
    decay_mult: 1
  }
  convolution_param {
    num_output: 64
    bias_term: false
    pad: 1
    kernel_size: 3
    weight_filler {
      type: "xavier"
    }
  }
}
layer {
  name: "bn2_2"
  type: "BatchNorm"
  bottom: "conv2_2"
  top: "conv2_2"
  param {
    lr_mult: 0
  }
  param {
    lr_mult: 0
  }
  param {
    lr_mult: 0
  }
  batch_norm_param {
    use_global_stats: false
  }
}
layer {
  name: "scale2_2"
  type: "Scale"
  bottom: "conv2_2"
  top: "conv2_2"
  param {
    lr_mult: 1
    decay_mult: 1
  }
  param {
    lr_mult: 1
    decay_mult: 1
  }
  scale_param {
    bias_term: true
    bias_filler {
      type: "constant"
      value: 0
    }
  }
}
layer {
  name: "relu2_2"
  type: "ReLU"
  bottom: "conv2_2"
  top: "conv2_2"
}
layer {
  name: "pool2"
  type: "Pooling"
  bottom: "conv2_2"
  top: "pool2"
  top: "pool2_mask"
  pooling_param {
    pool: MAX
    kernel_size: 2
    stride: 2
  }
}
layer {
  name: "conv3_1"
  type: "Convolution"
  bottom: "pool2"
  top: "conv3_1"
  param {
    lr_mult: 1
    decay_mult: 1
  }
  convolution_param {
    num_output: 64
    bias_term: false
    pad: 1
    kernel_size: 3
    weight_filler {
      type: "xavier"
    }
  }
}
layer {
  name: "bn3_1"
  type: "BatchNorm"
  bottom: "conv3_1"
  top: "conv3_1"
  param {
    lr_mult: 0
  }
  param {
    lr_mult: 0
  }
  param {
    lr_mult: 0
  }
  batch_norm_param {
    use_global_stats: false
  }
}
layer {
  name: "scale3_1"
  type: "Scale"
  bottom: "conv3_1"
  top: "conv3_1"
  param {
    lr_mult: 1
    decay_mult: 1
  }
  param {
    lr_mult: 1
    decay_mult: 1
  }
  scale_param {
    bias_term: true
    bias_filler {
      type: "constant"
      value: 0
    }
  }
}
layer {
  name: "relu3_1"
  type: "ReLU"
  bottom: "conv3_1"
  top: "conv3_1"
}
layer {
  name: "conv3_2"
  type: "Convolution"
  bottom: "conv3_1"
  top: "conv3_2"
  param {
    lr_mult: 1
    decay_mult: 1
  }
  convolution_param {
    num_output: 64
    bias_term: false
    pad: 1
    kernel_size: 3
    weight_filler {
      type: "xavier"
    }
  }
}
layer {
  name: "bn3_2"
  type: "BatchNorm"
  bottom: "conv3_2"
  top: "conv3_2"
  param {
    lr_mult: 0
  }
  param {
    lr_mult: 0
  }
  param {
    lr_mult: 0
  }
  batch_norm_param {
    use_global_stats: false
  }
}
layer {
  name: "scale3_2"
  type: "Scale"
  bottom: "conv3_2"
  top: "conv3_2"
  param {
    lr_mult: 1
    decay_mult: 1
  }
  param {
    lr_mult: 1
    decay_mult: 1
  }
  scale_param {
    bias_term: true
    bias_filler {
      type: "constant"
      value: 0
    }
  }
}
layer {
  name: "relu3_2"
  type: "ReLU"
  bottom: "conv3_2"
  top: "conv3_2"
}
layer {
  name: "pool3"
  type: "Pooling"
  bottom: "conv3_2"
  top: "pool3"
  top: "pool3_mask"
  pooling_param {
    pool: MAX
    kernel_size: 2
    stride: 2
  }
}
layer {
  name: "conv4_1"
  type: "Convolution"
  bottom: "pool3"
  top: "conv4_1"
  param {
    lr_mult: 1
    decay_mult: 1
  }
  convolution_param {
    num_output: 64
    bias_term: false
    pad: 1
    kernel_size: 3
    weight_filler {
      type: "xavier"
    }
  }
}
layer {
  name: "bn4_1"
  type: "BatchNorm"
  bottom: "conv4_1"
  top: "conv4_1"
  param {
    lr_mult: 0
  }
  param {
    lr_mult: 0
  }
  param {
    lr_mult: 0
  }
  batch_norm_param {
    use_global_stats: false
  }
}
layer {
  name: "scale4_1"
  type: "Scale"
  bottom: "conv4_1"
  top: "conv4_1"
  param {
    lr_mult: 1
    decay_mult: 1
  }
  param {
    lr_mult: 1
    decay_mult: 1
  }
  scale_param {
    bias_term: true
    bias_filler {
      type: "constant"
      value: 0
    }
  }
}
layer {
  name: "relu4_1"
  type: "ReLU"
  bottom: "conv4_1"
  top: "conv4_1"
}
layer {
  name: "conv4_2"
  type: "Convolution"
  bottom: "conv4_1"
  top: "conv4_2"
  param {
    lr_mult: 1
    decay_mult: 1
  }
  convolution_param {
    num_output: 64
    bias_term: false
    pad: 1
    kernel_size: 3
    weight_filler {
      type: "xavier"
    }
  }
}
layer {
  name: "bn4_2"
  type: "BatchNorm"
  bottom: "conv4_2"
  top: "conv4_2"
  param {
    lr_mult: 0
  }
  param {
    lr_mult: 0
  }
  param {
    lr_mult: 0
  }
  batch_norm_param {
    use_global_stats: false
  }
}
layer {
  name: "scale4_2"
  type: "Scale"
  bottom: "conv4_2"
  top: "conv4_2"
  param {
    lr_mult: 1
    decay_mult: 1
  }
  param {
    lr_mult: 1
    decay_mult: 1
  }
  scale_param {
    bias_term: true
    bias_filler {
      type: "constant"
      value: 0
    }
  }
}
layer {
  name: "relu4_2"
  type: "ReLU"
  bottom: "conv4_2"
  top: "conv4_2"
}
layer {
  name: "pool4"
  type: "Pooling"
  bottom: "conv4_2"
  top: "pool4"
  top: "pool4_mask"
  pooling_param {
    pool: MAX
    kernel_size: 2
    stride: 2
  }
}
layer {
  name: "conv5_1"
  type: "Convolution"
  bottom: "pool4"
  top: "conv5_1"
  param {
    lr_mult: 1
    decay_mult: 1
  }
  convolution_param {
    num_output: 64
    bias_term: false
    pad: 1
    kernel_size: 3
    weight_filler {
      type: "xavier"
    }
  }
}
layer {
  name: "bn5_1"
  type: "BatchNorm"
  bottom: "conv5_1"
  top: "conv5_1"
  param {
    lr_mult: 0
  }
  param {
    lr_mult: 0
  }
  param {
    lr_mult: 0
  }
  batch_norm_param {
    use_global_stats: false
  }
}
layer {
  name: "scale5_1"
  type: "Scale"
  bottom: "conv5_1"
  top: "conv5_1"
  param {
    lr_mult: 1
    decay_mult: 1
  }
  param {
    lr_mult: 1
    decay_mult: 1
  }
  scale_param {
    bias_term: true
    bias_filler {
      type: "constant"
      value: 0
    }
  }
}
layer {
  name: "relu5_1"
  type: "ReLU"
  bottom: "conv5_1"
  top: "conv5_1"
}
layer {
  name: "conv5_2"
  type: "Convolution"
  bottom: "conv5_1"
  top: "conv5_2"
  param {
    lr_mult: 1
    decay_mult: 1
  }
  convolution_param {
    num_output: 64
    bias_term: false
    pad: 1
    kernel_size: 3
    weight_filler {
      type: "xavier"
    }
  }
}
layer {
  name: "bn5_2"
  type: "BatchNorm"
  bottom: "conv5_2"
  top: "conv5_2"
  param {
    lr_mult: 0
  }
  param {
    lr_mult: 0
  }
  param {
    lr_mult: 0
  }
  batch_norm_param {
    use_global_stats: false
  }
}
layer {
  name: "scale5_2"
  type: "Scale"
  bottom: "conv5_2"
  top: "conv5_2"
  param {
    lr_mult: 1
    decay_mult: 1
  }
  param {
    lr_mult: 1
    decay_mult: 1
  }
  scale_param {
    bias_term: true
    bias_filler {
      type: "constant"
      value: 0
    }
  }
}
layer {
  name: "relu5_2"
  type: "ReLU"
  bottom: "conv5_2"
  top: "conv5_2"
}
layer {
  name: "pool5"
  type: "Pooling"
  bottom: "conv5_2"
  top: "pool5"
  top: "pool5_mask"
  pooling_param {
    pool: MAX
    kernel_size: 2
    stride: 2
  }
}
layer {
  name: "upsample5"
  type: "Upsample"
  bottom: "pool5"
  bottom: "pool5_mask"
  top: "pool5_D"
  upsample_param {
    scale: 2
    upsample_h: 14
    upsample_w: 14
  }
}
layer {
  name: "conv5_2_D"
  type: "Convolution"
  bottom: "pool5_D"
  top: "conv5_2_D"
  param {
    lr_mult: 1
    decay_mult: 1
  }
  convolution_param {
    num_output: 64
    bias_term: false
    pad: 1
    kernel_size: 3
    weight_filler {
      type: "xavier"
    }
  }
}
layer {
  name: "bn5_2_D"
  type: "BatchNorm"
  bottom: "conv5_2_D"
  top: "conv5_2_D"
  param {
    lr_mult: 0
  }
  param {
    lr_mult: 0
  }
  param {
    lr_mult: 0
  }
  batch_norm_param {
    use_global_stats: false
  }
}
layer {
  name: "scale5_2_D"
  type: "Scale"
  bottom: "conv5_2_D"
  top: "conv5_2_D"
  param {
    lr_mult: 1
    decay_mult: 1
  }
  param {
    lr_mult: 1
    decay_mult: 1
  }
  scale_param {
    bias_term: true
    bias_filler {
      type: "constant"
      value: 0
    }
  }
}
layer {
  name: "relu5_2_D"
  type: "ReLU"
  bottom: "conv5_2_D"
  top: "conv5_2_D"
}
layer {
  name: "conv5_1_D"
  type: "Convolution"
  bottom: "conv5_2_D"
  top: "conv5_1_D"
  param {
    lr_mult: 1
    decay_mult: 1
  }
  convolution_param {
    num_output: 64
    bias_term: false
    pad: 1
    kernel_size: 3
    weight_filler {
      type: "xavier"
    }
  }
}
layer {
  name: "bn5_1_D"
  type: "BatchNorm"
  bottom: "conv5_1_D"
  top: "conv5_1_D"
  param {
    lr_mult: 0
  }
  param {
    lr_mult: 0
  }
  param {
    lr_mult: 0
  }
  batch_norm_param {
    use_global_stats: false
  }
}
layer {
  name: "scale5_1_D"
  type: "Scale"
  bottom: "conv5_1_D"
  top: "conv5_1_D"
  param {
    lr_mult: 1
    decay_mult: 1
  }
  param {
    lr_mult: 1
    decay_mult: 1
  }
  scale_param {
    bias_term: true
    bias_filler {
      type: "constant"
      value: 0
    }
  }
}
layer {
  name: "relu5_1_D"
  type: "ReLU"
  bottom: "conv5_1_D"
  top: "conv5_1_D"
}
layer {
  name: "upsample4"
  type: "Upsample"
  bottom: "conv5_1_D"
  bottom: "pool4_mask"
  top: "pool4_D"
  upsample_param {
    scale: 2
    upsample_h: 28
    upsample_w: 28
  }
}
layer {
  name: "conv4_2_D"
  type: "Convolution"
  bottom: "pool4_D"
  top: "conv4_2_D"
  param {
    lr_mult: 1
    decay_mult: 1
  }
  convolution_param {
    num_output: 64
    bias_term: false
    pad: 1
    kernel_size: 3
    weight_filler {
      type: "xavier"
    }
  }
}
layer {
  name: "bn4_2_D"
  type: "BatchNorm"
  bottom: "conv4_2_D"
  top: "conv4_2_D"
  param {
    lr_mult: 0
  }
  param {
    lr_mult: 0
  }
  param {
    lr_mult: 0
  }
  batch_norm_param {
    use_global_stats: false
  }
}
layer {
  name: "scale4_2_D"
  type: "Scale"
  bottom: "conv4_2_D"
  top: "conv4_2_D"
  param {
    lr_mult: 1
    decay_mult: 1
  }
  param {
    lr_mult: 1
    decay_mult: 1
  }
  scale_param {
    bias_term: true
    bias_filler {
      type: "constant"
      value: 0
    }
  }
}
layer {
  name: "relu4_2_D"
  type: "ReLU"
  bottom: "conv4_2_D"
  top: "conv4_2_D"
}
layer {
  name: "conv4_1_D"
  type: "Convolution"
  bottom: "conv4_2_D"
  top: "conv4_1_D"
  param {
    lr_mult: 1
    decay_mult: 1
  }
  convolution_param {
    num_output: 64
    bias_term: false
    pad: 1
    kernel_size: 3
    weight_filler {
      type: "xavier"
    }
  }
}
layer {
  name: "bn4_1_D"
  type: "BatchNorm"
  bottom: "conv4_1_D"
  top: "conv4_1_D"
  param {
    lr_mult: 0
  }
  param {
    lr_mult: 0
  }
  param {
    lr_mult: 0
  }
  batch_norm_param {
    use_global_stats: false
  }
}
layer {
  name: "scale4_1_D"
  type: "Scale"
  bottom: "conv4_1_D"
  top: "conv4_1_D"
  param {
    lr_mult: 1
    decay_mult: 1
  }
  param {
    lr_mult: 1
    decay_mult: 1
  }
  scale_param {
    bias_term: true
    bias_filler {
      type: "constant"
      value: 0
    }
  }
}
layer {
  name: "relu4_1_D"
  type: "ReLU"
  bottom: "conv4_1_D"
  top: "conv4_1_D"
}
layer {
  name: "upsample3"
  type: "Upsample"
  bottom: "conv4_1_D"
  bottom: "pool3_mask"
  top: "pool3_D"
  upsample_param {
    scale: 2
    upsample_h: 56
    upsample_w: 56
  }
}
layer {
  name: "conv3_2_D"
  type: "Convolution"
  bottom: "pool3_D"
  top: "conv3_2_D"
  param {
    lr_mult: 1
    decay_mult: 1
  }
  param {
    lr_mult: 1
    decay_mult: 1
  }
  convolution_param {
    num_output: 64
    pad: 1
    kernel_size: 3
    weight_filler {
      type: "xavier"
    }
    bias_filler {
      type: "constant"
      value: 0
    }
  }
}
layer {
  name: "bn3_2_D"
  type: "BatchNorm"
  bottom: "conv3_2_D"
  top: "conv3_2_D"
  param {
    lr_mult: 0
  }
  param {
    lr_mult: 0
  }
  param {
    lr_mult: 0
  }
  batch_norm_param {
    use_global_stats: false
  }
}
layer {
  name: "scale3_2_D"
  type: "Scale"
  bottom: "conv3_2_D"
  top: "conv3_2_D"
  param {
    lr_mult: 1
    decay_mult: 1
  }
  param {
    lr_mult: 1
    decay_mult: 1
  }
  scale_param {
    bias_term: true
    bias_filler {
      type: "constant"
      value: 0
    }
  }
}
layer {
  name: "relu3_2_D"
  type: "ReLU"
  bottom: "conv3_2_D"
  top: "conv3_2_D"
}
layer {
  name: "conv3_1_D"
  type: "Convolution"
  bottom: "conv3_2_D"
  top: "conv3_1_D"
  param {
    lr_mult: 1
    decay_mult: 1
  }
  convolution_param {
    num_output: 64
    bias_term: false
    pad: 1
    kernel_size: 3
    weight_filler {
      type: "xavier"
    }
  }
}
layer {
  name: "bn3_1_D"
  type: "BatchNorm"
  bottom: "conv3_1_D"
  top: "conv3_1_D"
  param {
    lr_mult: 0
  }
  param {
    lr_mult: 0
  }
  param {
    lr_mult: 0
  }
  batch_norm_param {
    use_global_stats: false
  }
}
layer {
  name: "scale3_1_D"
  type: "Scale"
  bottom: "conv3_1_D"
  top: "conv3_1_D"
  param {
    lr_mult: 1
    decay_mult: 1
  }
  param {
    lr_mult: 1
    decay_mult: 1
  }
  scale_param {
    bias_term: true
    bias_filler {
      type: "constant"
      value: 0
    }
  }
}
layer {
  name: "relu3_1_D"
  type: "ReLU"
  bottom: "conv3_1_D"
  top: "conv3_1_D"
}
layer {
  name: "upsample2"
  type: "Upsample"
  bottom: "conv3_1_D"
  bottom: "pool2_mask"
  top: "pool2_D"
  upsample_param {
    scale: 2
    upsample_h: 112
    upsample_w: 112
  }
}
layer {
  name: "conv2_2_D"
  type: "Convolution"
  bottom: "pool2_D"
  top: "conv2_2_D"
  param {
    lr_mult: 1
    decay_mult: 1
  }
  convolution_param {
    num_output: 64
    bias_term: false
    pad: 1
    kernel_size: 3
    weight_filler {
      type: "xavier"
    }
  }
}
layer {
  name: "bn2_2_D"
  type: "BatchNorm"
  bottom: "conv2_2_D"
  top: "conv2_2_D"
  param {
    lr_mult: 0
  }
  param {
    lr_mult: 0
  }
  param {
    lr_mult: 0
  }
  batch_norm_param {
    use_global_stats: false
  }
}
layer {
  name: "scale2_2_D"
  type: "Scale"
  bottom: "conv2_2_D"
  top: "conv2_2_D"
  param {
    lr_mult: 1
    decay_mult: 1
  }
  param {
    lr_mult: 1
    decay_mult: 1
  }
  scale_param {
    bias_term: true
    bias_filler {
      type: "constant"
      value: 0
    }
  }
}
layer {
  name: "relu2_2_D"
  type: "ReLU"
  bottom: "conv2_2_D"
  top: "conv2_2_D"
}
layer {
  name: "conv2_1_D"
  type: "Convolution"
  bottom: "conv2_2_D"
  top: "conv2_1_D"
  param {
    lr_mult: 1
    decay_mult: 1
  }
  convolution_param {
    num_output: 64
    bias_term: false
    pad: 1
    kernel_size: 3
    weight_filler {
      type: "xavier"
    }
  }
}
layer {
  name: "bn2_1_D"
  type: "BatchNorm"
  bottom: "conv2_1_D"
  top: "conv2_1_D"
  param {
    lr_mult: 0
  }
  param {
    lr_mult: 0
  }
  param {
    lr_mult: 0
  }
  batch_norm_param {
    use_global_stats: false
  }
}
layer {
  name: "scale2_1_D"
  type: "Scale"
  bottom: "conv2_1_D"
  top: "conv2_1_D"
  param {
    lr_mult: 1
    decay_mult: 1
  }
  param {
    lr_mult: 1
    decay_mult: 1
  }
  scale_param {
    bias_term: true
    bias_filler {
      type: "constant"
      value: 0
    }
  }
}
layer {
  name: "relu2_1_D"
  type: "ReLU"
  bottom: "conv2_1_D"
  top: "conv2_1_D"
}
layer {
  name: "upsample1"
  type: "Upsample"
  bottom: "conv2_1_D"
  bottom: "pool1_mask"
  top: "pool1_D"
  upsample_param {
    scale: 2
    upsample_h: 224
    upsample_w: 224
  }
}
layer {
  name: "conv1_2_D"
  type: "Convolution"
  bottom: "pool1_D"
  top: "conv1_2_D"
  param {
    lr_mult: 1
    decay_mult: 1
  }
  convolution_param {
    num_output: 64
    bias_term: false
    pad: 1
    kernel_size: 3
    weight_filler {
      type: "xavier"
    }
  }
}
layer {
  name: "bn1_2_D"
  type: "BatchNorm"
  bottom: "conv1_2_D"
  top: "conv1_2_D"
  param {
    lr_mult: 0
  }
  param {
    lr_mult: 0
  }
  param {
    lr_mult: 0
  }
  batch_norm_param {
    use_global_stats: false
  }
}
layer {
  name: "scale1_2_D"
  type: "Scale"
  bottom: "conv1_2_D"
  top: "conv1_2_D"
  param {
    lr_mult: 1
    decay_mult: 1
  }
  param {
    lr_mult: 1
    decay_mult: 1
  }
  scale_param {
    bias_term: true
    bias_filler {
      type: "constant"
      value: 0
    }
  }
}
layer {
  name: "relu1_2_D"
  type: "ReLU"
  bottom: "conv1_2_D"
  top: "conv1_2_D"
}
layer {
  name: "conv1_1_D"
  type: "Convolution"
  bottom: "conv1_2_D"
  top: "conv1_1_D"
  param {
    lr_mult: 1
    decay_mult: 1
  }
  param {
    lr_mult: 0.1
    decay_mult: 1
  }
  convolution_param {
    num_output: 2
    bias_term: true
    pad: 1
    kernel_size: 3
    weight_filler {
      type: "xavier"
    }
    bias_filler {
      type: "constant"
    }
  }
}
layer {
  name: "loss"
  type: "SoftmaxWithLoss"
  bottom: "conv1_1_D"
  bottom: "label"
  top: "loss"
}
layer {
  name: "accuracy"
  type: "Accuracy"
  bottom: "conv1_1_D"
  bottom: "label"
  top: "accuracy"
}
I0623 20:56:04.576195  4342 layer_factory.hpp:77] Creating layer data
I0623 20:56:04.576234  4342 net.cpp:91] Creating Layer data
I0623 20:56:04.576243  4342 net.cpp:399] data -> data
I0623 20:56:04.576270  4342 net.cpp:399] data -> label
I0623 20:56:04.576717  4342 dense_image_data_layer.cpp:38] Opening file data/train.txt
I0623 20:56:04.579977  4342 dense_image_data_layer.cpp:48] Shuffling data
I0623 20:56:04.580472  4342 dense_image_data_layer.cpp:53] A total of 4930 examples.
I0623 20:56:04.862362  4342 dense_image_data_layer.cpp:92] output data size: 1,1,224,224
I0623 20:56:04.865321  4342 net.cpp:141] Setting up data
I0623 20:56:04.865351  4342 net.cpp:148] Top shape: 1 1 224 224 (50176)
I0623 20:56:04.865360  4342 net.cpp:148] Top shape: 1 1 224 224 (50176)
I0623 20:56:04.865365  4342 net.cpp:156] Memory required for data: 401408
I0623 20:56:04.865373  4342 layer_factory.hpp:77] Creating layer label_data_1_split
I0623 20:56:04.865394  4342 net.cpp:91] Creating Layer label_data_1_split
I0623 20:56:04.865403  4342 net.cpp:425] label_data_1_split <- label
I0623 20:56:04.865417  4342 net.cpp:399] label_data_1_split -> label_data_1_split_0
I0623 20:56:04.865432  4342 net.cpp:399] label_data_1_split -> label_data_1_split_1
I0623 20:56:04.865500  4342 net.cpp:141] Setting up label_data_1_split
I0623 20:56:04.865511  4342 net.cpp:148] Top shape: 1 1 224 224 (50176)
I0623 20:56:04.865517  4342 net.cpp:148] Top shape: 1 1 224 224 (50176)
I0623 20:56:04.865521  4342 net.cpp:156] Memory required for data: 802816
I0623 20:56:04.865525  4342 layer_factory.hpp:77] Creating layer conv1_1
I0623 20:56:04.865546  4342 net.cpp:91] Creating Layer conv1_1
I0623 20:56:04.865553  4342 net.cpp:425] conv1_1 <- data
I0623 20:56:04.865561  4342 net.cpp:399] conv1_1 -> conv1_1
I0623 20:56:05.096403  4342 net.cpp:141] Setting up conv1_1
I0623 20:56:05.096429  4342 net.cpp:148] Top shape: 1 64 224 224 (3211264)
I0623 20:56:05.096432  4342 net.cpp:156] Memory required for data: 13647872
I0623 20:56:05.096444  4342 layer_factory.hpp:77] Creating layer bn1_1
I0623 20:56:05.096456  4342 net.cpp:91] Creating Layer bn1_1
I0623 20:56:05.096459  4342 net.cpp:425] bn1_1 <- conv1_1
I0623 20:56:05.096463  4342 net.cpp:386] bn1_1 -> conv1_1 (in-place)
I0623 20:56:05.097223  4342 net.cpp:141] Setting up bn1_1
I0623 20:56:05.097235  4342 net.cpp:148] Top shape: 1 64 224 224 (3211264)
I0623 20:56:05.097239  4342 net.cpp:156] Memory required for data: 26492928
I0623 20:56:05.097249  4342 layer_factory.hpp:77] Creating layer scale1_1
I0623 20:56:05.097257  4342 net.cpp:91] Creating Layer scale1_1
I0623 20:56:05.097260  4342 net.cpp:425] scale1_1 <- conv1_1
I0623 20:56:05.097265  4342 net.cpp:386] scale1_1 -> conv1_1 (in-place)
I0623 20:56:05.097303  4342 layer_factory.hpp:77] Creating layer scale1_1
I0623 20:56:05.097442  4342 net.cpp:141] Setting up scale1_1
I0623 20:56:05.097450  4342 net.cpp:148] Top shape: 1 64 224 224 (3211264)
I0623 20:56:05.097453  4342 net.cpp:156] Memory required for data: 39337984
I0623 20:56:05.097460  4342 layer_factory.hpp:77] Creating layer relu1_1
I0623 20:56:05.097465  4342 net.cpp:91] Creating Layer relu1_1
I0623 20:56:05.097467  4342 net.cpp:425] relu1_1 <- conv1_1
I0623 20:56:05.097471  4342 net.cpp:386] relu1_1 -> conv1_1 (in-place)
I0623 20:56:05.097745  4342 net.cpp:141] Setting up relu1_1
I0623 20:56:05.097756  4342 net.cpp:148] Top shape: 1 64 224 224 (3211264)
I0623 20:56:05.097759  4342 net.cpp:156] Memory required for data: 52183040
I0623 20:56:05.097762  4342 layer_factory.hpp:77] Creating layer conv1_2
I0623 20:56:05.097772  4342 net.cpp:91] Creating Layer conv1_2
I0623 20:56:05.097775  4342 net.cpp:425] conv1_2 <- conv1_1
I0623 20:56:05.097780  4342 net.cpp:399] conv1_2 -> conv1_2
I0623 20:56:05.098911  4342 net.cpp:141] Setting up conv1_2
I0623 20:56:05.098922  4342 net.cpp:148] Top shape: 1 64 224 224 (3211264)
I0623 20:56:05.098927  4342 net.cpp:156] Memory required for data: 65028096
I0623 20:56:05.098932  4342 layer_factory.hpp:77] Creating layer bn1_2
I0623 20:56:05.098938  4342 net.cpp:91] Creating Layer bn1_2
I0623 20:56:05.098940  4342 net.cpp:425] bn1_2 <- conv1_2
I0623 20:56:05.098945  4342 net.cpp:386] bn1_2 -> conv1_2 (in-place)
I0623 20:56:05.099122  4342 net.cpp:141] Setting up bn1_2
I0623 20:56:05.099128  4342 net.cpp:148] Top shape: 1 64 224 224 (3211264)
I0623 20:56:05.099130  4342 net.cpp:156] Memory required for data: 77873152
I0623 20:56:05.099138  4342 layer_factory.hpp:77] Creating layer scale1_2
I0623 20:56:05.099169  4342 net.cpp:91] Creating Layer scale1_2
I0623 20:56:05.099171  4342 net.cpp:425] scale1_2 <- conv1_2
I0623 20:56:05.099176  4342 net.cpp:386] scale1_2 -> conv1_2 (in-place)
I0623 20:56:05.099211  4342 layer_factory.hpp:77] Creating layer scale1_2
I0623 20:56:05.099967  4342 net.cpp:141] Setting up scale1_2
I0623 20:56:05.099977  4342 net.cpp:148] Top shape: 1 64 224 224 (3211264)
I0623 20:56:05.099980  4342 net.cpp:156] Memory required for data: 90718208
I0623 20:56:05.099985  4342 layer_factory.hpp:77] Creating layer relu1_2
I0623 20:56:05.099990  4342 net.cpp:91] Creating Layer relu1_2
I0623 20:56:05.099992  4342 net.cpp:425] relu1_2 <- conv1_2
I0623 20:56:05.099997  4342 net.cpp:386] relu1_2 -> conv1_2 (in-place)
I0623 20:56:05.100149  4342 net.cpp:141] Setting up relu1_2
I0623 20:56:05.100158  4342 net.cpp:148] Top shape: 1 64 224 224 (3211264)
I0623 20:56:05.100160  4342 net.cpp:156] Memory required for data: 103563264
I0623 20:56:05.100163  4342 layer_factory.hpp:77] Creating layer pool1
I0623 20:56:05.100167  4342 layer_factory.cpp:90] cuDNN does not support multiple tops. Using Caffe's own pooling layer.
I0623 20:56:05.100172  4342 net.cpp:91] Creating Layer pool1
I0623 20:56:05.100173  4342 net.cpp:425] pool1 <- conv1_2
I0623 20:56:05.100179  4342 net.cpp:399] pool1 -> pool1
I0623 20:56:05.100186  4342 net.cpp:399] pool1 -> pool1_mask
I0623 20:56:05.100231  4342 net.cpp:141] Setting up pool1
I0623 20:56:05.100236  4342 net.cpp:148] Top shape: 1 64 112 112 (802816)
I0623 20:56:05.100239  4342 net.cpp:148] Top shape: 1 64 112 112 (802816)
I0623 20:56:05.100240  4342 net.cpp:156] Memory required for data: 109985792
I0623 20:56:05.100244  4342 layer_factory.hpp:77] Creating layer conv2_1
I0623 20:56:05.100250  4342 net.cpp:91] Creating Layer conv2_1
I0623 20:56:05.100252  4342 net.cpp:425] conv2_1 <- pool1
I0623 20:56:05.100256  4342 net.cpp:399] conv2_1 -> conv2_1
I0623 20:56:05.101392  4342 net.cpp:141] Setting up conv2_1
I0623 20:56:05.101403  4342 net.cpp:148] Top shape: 1 64 112 112 (802816)
I0623 20:56:05.101407  4342 net.cpp:156] Memory required for data: 113197056
I0623 20:56:05.101411  4342 layer_factory.hpp:77] Creating layer bn2_1
I0623 20:56:05.101418  4342 net.cpp:91] Creating Layer bn2_1
I0623 20:56:05.101420  4342 net.cpp:425] bn2_1 <- conv2_1
I0623 20:56:05.101425  4342 net.cpp:386] bn2_1 -> conv2_1 (in-place)
I0623 20:56:05.102231  4342 net.cpp:141] Setting up bn2_1
I0623 20:56:05.102242  4342 net.cpp:148] Top shape: 1 64 112 112 (802816)
I0623 20:56:05.102244  4342 net.cpp:156] Memory required for data: 116408320
I0623 20:56:05.102252  4342 layer_factory.hpp:77] Creating layer scale2_1
I0623 20:56:05.102257  4342 net.cpp:91] Creating Layer scale2_1
I0623 20:56:05.102260  4342 net.cpp:425] scale2_1 <- conv2_1
I0623 20:56:05.102267  4342 net.cpp:386] scale2_1 -> conv2_1 (in-place)
I0623 20:56:05.102304  4342 layer_factory.hpp:77] Creating layer scale2_1
I0623 20:56:05.102402  4342 net.cpp:141] Setting up scale2_1
I0623 20:56:05.102411  4342 net.cpp:148] Top shape: 1 64 112 112 (802816)
I0623 20:56:05.102412  4342 net.cpp:156] Memory required for data: 119619584
I0623 20:56:05.102421  4342 layer_factory.hpp:77] Creating layer relu2_1
I0623 20:56:05.102424  4342 net.cpp:91] Creating Layer relu2_1
I0623 20:56:05.102447  4342 net.cpp:425] relu2_1 <- conv2_1
I0623 20:56:05.102455  4342 net.cpp:386] relu2_1 -> conv2_1 (in-place)
I0623 20:56:05.102732  4342 net.cpp:141] Setting up relu2_1
I0623 20:56:05.102743  4342 net.cpp:148] Top shape: 1 64 112 112 (802816)
I0623 20:56:05.102746  4342 net.cpp:156] Memory required for data: 122830848
I0623 20:56:05.102749  4342 layer_factory.hpp:77] Creating layer conv2_2
I0623 20:56:05.102758  4342 net.cpp:91] Creating Layer conv2_2
I0623 20:56:05.102761  4342 net.cpp:425] conv2_2 <- conv2_1
I0623 20:56:05.102766  4342 net.cpp:399] conv2_2 -> conv2_2
I0623 20:56:05.103791  4342 net.cpp:141] Setting up conv2_2
I0623 20:56:05.103804  4342 net.cpp:148] Top shape: 1 64 112 112 (802816)
I0623 20:56:05.103807  4342 net.cpp:156] Memory required for data: 126042112
I0623 20:56:05.103822  4342 layer_factory.hpp:77] Creating layer bn2_2
I0623 20:56:05.103832  4342 net.cpp:91] Creating Layer bn2_2
I0623 20:56:05.103835  4342 net.cpp:425] bn2_2 <- conv2_2
I0623 20:56:05.103840  4342 net.cpp:386] bn2_2 -> conv2_2 (in-place)
I0623 20:56:05.104001  4342 net.cpp:141] Setting up bn2_2
I0623 20:56:05.104008  4342 net.cpp:148] Top shape: 1 64 112 112 (802816)
I0623 20:56:05.104010  4342 net.cpp:156] Memory required for data: 129253376
I0623 20:56:05.104017  4342 layer_factory.hpp:77] Creating layer scale2_2
I0623 20:56:05.104023  4342 net.cpp:91] Creating Layer scale2_2
I0623 20:56:05.104025  4342 net.cpp:425] scale2_2 <- conv2_2
I0623 20:56:05.104029  4342 net.cpp:386] scale2_2 -> conv2_2 (in-place)
I0623 20:56:05.104063  4342 layer_factory.hpp:77] Creating layer scale2_2
I0623 20:56:05.104161  4342 net.cpp:141] Setting up scale2_2
I0623 20:56:05.104168  4342 net.cpp:148] Top shape: 1 64 112 112 (802816)
I0623 20:56:05.104171  4342 net.cpp:156] Memory required for data: 132464640
I0623 20:56:05.104174  4342 layer_factory.hpp:77] Creating layer relu2_2
I0623 20:56:05.104181  4342 net.cpp:91] Creating Layer relu2_2
I0623 20:56:05.104182  4342 net.cpp:425] relu2_2 <- conv2_2
I0623 20:56:05.104187  4342 net.cpp:386] relu2_2 -> conv2_2 (in-place)
I0623 20:56:05.104459  4342 net.cpp:141] Setting up relu2_2
I0623 20:56:05.104470  4342 net.cpp:148] Top shape: 1 64 112 112 (802816)
I0623 20:56:05.104472  4342 net.cpp:156] Memory required for data: 135675904
I0623 20:56:05.104475  4342 layer_factory.hpp:77] Creating layer pool2
I0623 20:56:05.104478  4342 layer_factory.cpp:90] cuDNN does not support multiple tops. Using Caffe's own pooling layer.
I0623 20:56:05.104483  4342 net.cpp:91] Creating Layer pool2
I0623 20:56:05.104486  4342 net.cpp:425] pool2 <- conv2_2
I0623 20:56:05.104491  4342 net.cpp:399] pool2 -> pool2
I0623 20:56:05.104496  4342 net.cpp:399] pool2 -> pool2_mask
I0623 20:56:05.104532  4342 net.cpp:141] Setting up pool2
I0623 20:56:05.104535  4342 net.cpp:148] Top shape: 1 64 56 56 (200704)
I0623 20:56:05.104538  4342 net.cpp:148] Top shape: 1 64 56 56 (200704)
I0623 20:56:05.104540  4342 net.cpp:156] Memory required for data: 137281536
I0623 20:56:05.104542  4342 layer_factory.hpp:77] Creating layer conv3_1
I0623 20:56:05.104550  4342 net.cpp:91] Creating Layer conv3_1
I0623 20:56:05.104552  4342 net.cpp:425] conv3_1 <- pool2
I0623 20:56:05.104557  4342 net.cpp:399] conv3_1 -> conv3_1
I0623 20:56:05.105687  4342 net.cpp:141] Setting up conv3_1
I0623 20:56:05.105700  4342 net.cpp:148] Top shape: 1 64 56 56 (200704)
I0623 20:56:05.105702  4342 net.cpp:156] Memory required for data: 138084352
I0623 20:56:05.105706  4342 layer_factory.hpp:77] Creating layer bn3_1
I0623 20:56:05.105713  4342 net.cpp:91] Creating Layer bn3_1
I0623 20:56:05.105716  4342 net.cpp:425] bn3_1 <- conv3_1
I0623 20:56:05.105720  4342 net.cpp:386] bn3_1 -> conv3_1 (in-place)
I0623 20:56:05.106446  4342 net.cpp:141] Setting up bn3_1
I0623 20:56:05.106457  4342 net.cpp:148] Top shape: 1 64 56 56 (200704)
I0623 20:56:05.106459  4342 net.cpp:156] Memory required for data: 138887168
I0623 20:56:05.106467  4342 layer_factory.hpp:77] Creating layer scale3_1
I0623 20:56:05.106473  4342 net.cpp:91] Creating Layer scale3_1
I0623 20:56:05.106477  4342 net.cpp:425] scale3_1 <- conv3_1
I0623 20:56:05.106482  4342 net.cpp:386] scale3_1 -> conv3_1 (in-place)
I0623 20:56:05.106519  4342 layer_factory.hpp:77] Creating layer scale3_1
I0623 20:56:05.106611  4342 net.cpp:141] Setting up scale3_1
I0623 20:56:05.106618  4342 net.cpp:148] Top shape: 1 64 56 56 (200704)
I0623 20:56:05.106621  4342 net.cpp:156] Memory required for data: 139689984
I0623 20:56:05.106626  4342 layer_factory.hpp:77] Creating layer relu3_1
I0623 20:56:05.106631  4342 net.cpp:91] Creating Layer relu3_1
I0623 20:56:05.106633  4342 net.cpp:425] relu3_1 <- conv3_1
I0623 20:56:05.106637  4342 net.cpp:386] relu3_1 -> conv3_1 (in-place)
I0623 20:56:05.106782  4342 net.cpp:141] Setting up relu3_1
I0623 20:56:05.106791  4342 net.cpp:148] Top shape: 1 64 56 56 (200704)
I0623 20:56:05.106802  4342 net.cpp:156] Memory required for data: 140492800
I0623 20:56:05.106806  4342 layer_factory.hpp:77] Creating layer conv3_2
I0623 20:56:05.106813  4342 net.cpp:91] Creating Layer conv3_2
I0623 20:56:05.106817  4342 net.cpp:425] conv3_2 <- conv3_1
I0623 20:56:05.106822  4342 net.cpp:399] conv3_2 -> conv3_2
I0623 20:56:05.107990  4342 net.cpp:141] Setting up conv3_2
I0623 20:56:05.108005  4342 net.cpp:148] Top shape: 1 64 56 56 (200704)
I0623 20:56:05.108007  4342 net.cpp:156] Memory required for data: 141295616
I0623 20:56:05.108011  4342 layer_factory.hpp:77] Creating layer bn3_2
I0623 20:56:05.108019  4342 net.cpp:91] Creating Layer bn3_2
I0623 20:56:05.108022  4342 net.cpp:425] bn3_2 <- conv3_2
I0623 20:56:05.108026  4342 net.cpp:386] bn3_2 -> conv3_2 (in-place)
I0623 20:56:05.108191  4342 net.cpp:141] Setting up bn3_2
I0623 20:56:05.108197  4342 net.cpp:148] Top shape: 1 64 56 56 (200704)
I0623 20:56:05.108201  4342 net.cpp:156] Memory required for data: 142098432
I0623 20:56:05.108209  4342 layer_factory.hpp:77] Creating layer scale3_2
I0623 20:56:05.108216  4342 net.cpp:91] Creating Layer scale3_2
I0623 20:56:05.108218  4342 net.cpp:425] scale3_2 <- conv3_2
I0623 20:56:05.108225  4342 net.cpp:386] scale3_2 -> conv3_2 (in-place)
I0623 20:56:05.108263  4342 layer_factory.hpp:77] Creating layer scale3_2
I0623 20:56:05.108357  4342 net.cpp:141] Setting up scale3_2
I0623 20:56:05.108364  4342 net.cpp:148] Top shape: 1 64 56 56 (200704)
I0623 20:56:05.108366  4342 net.cpp:156] Memory required for data: 142901248
I0623 20:56:05.108371  4342 layer_factory.hpp:77] Creating layer relu3_2
I0623 20:56:05.108376  4342 net.cpp:91] Creating Layer relu3_2
I0623 20:56:05.108378  4342 net.cpp:425] relu3_2 <- conv3_2
I0623 20:56:05.108382  4342 net.cpp:386] relu3_2 -> conv3_2 (in-place)
I0623 20:56:05.108652  4342 net.cpp:141] Setting up relu3_2
I0623 20:56:05.108664  4342 net.cpp:148] Top shape: 1 64 56 56 (200704)
I0623 20:56:05.108665  4342 net.cpp:156] Memory required for data: 143704064
I0623 20:56:05.108669  4342 layer_factory.hpp:77] Creating layer pool3
I0623 20:56:05.108671  4342 layer_factory.cpp:90] cuDNN does not support multiple tops. Using Caffe's own pooling layer.
I0623 20:56:05.108677  4342 net.cpp:91] Creating Layer pool3
I0623 20:56:05.108680  4342 net.cpp:425] pool3 <- conv3_2
I0623 20:56:05.108685  4342 net.cpp:399] pool3 -> pool3
I0623 20:56:05.108690  4342 net.cpp:399] pool3 -> pool3_mask
I0623 20:56:05.108726  4342 net.cpp:141] Setting up pool3
I0623 20:56:05.108731  4342 net.cpp:148] Top shape: 1 64 28 28 (50176)
I0623 20:56:05.108734  4342 net.cpp:148] Top shape: 1 64 28 28 (50176)
I0623 20:56:05.108736  4342 net.cpp:156] Memory required for data: 144105472
I0623 20:56:05.108738  4342 layer_factory.hpp:77] Creating layer conv4_1
I0623 20:56:05.108747  4342 net.cpp:91] Creating Layer conv4_1
I0623 20:56:05.108748  4342 net.cpp:425] conv4_1 <- pool3
I0623 20:56:05.108753  4342 net.cpp:399] conv4_1 -> conv4_1
I0623 20:56:05.110385  4342 net.cpp:141] Setting up conv4_1
I0623 20:56:05.110399  4342 net.cpp:148] Top shape: 1 64 28 28 (50176)
I0623 20:56:05.110404  4342 net.cpp:156] Memory required for data: 144306176
I0623 20:56:05.110407  4342 layer_factory.hpp:77] Creating layer bn4_1
I0623 20:56:05.110414  4342 net.cpp:91] Creating Layer bn4_1
I0623 20:56:05.110415  4342 net.cpp:425] bn4_1 <- conv4_1
I0623 20:56:05.110421  4342 net.cpp:386] bn4_1 -> conv4_1 (in-place)
I0623 20:56:05.110591  4342 net.cpp:141] Setting up bn4_1
I0623 20:56:05.110599  4342 net.cpp:148] Top shape: 1 64 28 28 (50176)
I0623 20:56:05.110600  4342 net.cpp:156] Memory required for data: 144506880
I0623 20:56:05.110606  4342 layer_factory.hpp:77] Creating layer scale4_1
I0623 20:56:05.110612  4342 net.cpp:91] Creating Layer scale4_1
I0623 20:56:05.110615  4342 net.cpp:425] scale4_1 <- conv4_1
I0623 20:56:05.110620  4342 net.cpp:386] scale4_1 -> conv4_1 (in-place)
I0623 20:56:05.110653  4342 layer_factory.hpp:77] Creating layer scale4_1
I0623 20:56:05.110756  4342 net.cpp:141] Setting up scale4_1
I0623 20:56:05.110772  4342 net.cpp:148] Top shape: 1 64 28 28 (50176)
I0623 20:56:05.110775  4342 net.cpp:156] Memory required for data: 144707584
I0623 20:56:05.110780  4342 layer_factory.hpp:77] Creating layer relu4_1
I0623 20:56:05.110787  4342 net.cpp:91] Creating Layer relu4_1
I0623 20:56:05.110790  4342 net.cpp:425] relu4_1 <- conv4_1
I0623 20:56:05.110795  4342 net.cpp:386] relu4_1 -> conv4_1 (in-place)
I0623 20:56:05.111074  4342 net.cpp:141] Setting up relu4_1
I0623 20:56:05.111086  4342 net.cpp:148] Top shape: 1 64 28 28 (50176)
I0623 20:56:05.111088  4342 net.cpp:156] Memory required for data: 144908288
I0623 20:56:05.111091  4342 layer_factory.hpp:77] Creating layer conv4_2
I0623 20:56:05.111100  4342 net.cpp:91] Creating Layer conv4_2
I0623 20:56:05.111104  4342 net.cpp:425] conv4_2 <- conv4_1
I0623 20:56:05.111109  4342 net.cpp:399] conv4_2 -> conv4_2
I0623 20:56:05.112452  4342 net.cpp:141] Setting up conv4_2
I0623 20:56:05.112465  4342 net.cpp:148] Top shape: 1 64 28 28 (50176)
I0623 20:56:05.112468  4342 net.cpp:156] Memory required for data: 145108992
I0623 20:56:05.112473  4342 layer_factory.hpp:77] Creating layer bn4_2
I0623 20:56:05.112479  4342 net.cpp:91] Creating Layer bn4_2
I0623 20:56:05.112483  4342 net.cpp:425] bn4_2 <- conv4_2
I0623 20:56:05.112486  4342 net.cpp:386] bn4_2 -> conv4_2 (in-place)
I0623 20:56:05.112658  4342 net.cpp:141] Setting up bn4_2
I0623 20:56:05.112665  4342 net.cpp:148] Top shape: 1 64 28 28 (50176)
I0623 20:56:05.112668  4342 net.cpp:156] Memory required for data: 145309696
I0623 20:56:05.112673  4342 layer_factory.hpp:77] Creating layer scale4_2
I0623 20:56:05.112679  4342 net.cpp:91] Creating Layer scale4_2
I0623 20:56:05.112681  4342 net.cpp:425] scale4_2 <- conv4_2
I0623 20:56:05.112685  4342 net.cpp:386] scale4_2 -> conv4_2 (in-place)
I0623 20:56:05.112720  4342 layer_factory.hpp:77] Creating layer scale4_2
I0623 20:56:05.112818  4342 net.cpp:141] Setting up scale4_2
I0623 20:56:05.112824  4342 net.cpp:148] Top shape: 1 64 28 28 (50176)
I0623 20:56:05.112828  4342 net.cpp:156] Memory required for data: 145510400
I0623 20:56:05.112831  4342 layer_factory.hpp:77] Creating layer relu4_2
I0623 20:56:05.112835  4342 net.cpp:91] Creating Layer relu4_2
I0623 20:56:05.112838  4342 net.cpp:425] relu4_2 <- conv4_2
I0623 20:56:05.112841  4342 net.cpp:386] relu4_2 -> conv4_2 (in-place)
I0623 20:56:05.112989  4342 net.cpp:141] Setting up relu4_2
I0623 20:56:05.112998  4342 net.cpp:148] Top shape: 1 64 28 28 (50176)
I0623 20:56:05.113001  4342 net.cpp:156] Memory required for data: 145711104
I0623 20:56:05.113004  4342 layer_factory.hpp:77] Creating layer pool4
I0623 20:56:05.113006  4342 layer_factory.cpp:90] cuDNN does not support multiple tops. Using Caffe's own pooling layer.
I0623 20:56:05.113013  4342 net.cpp:91] Creating Layer pool4
I0623 20:56:05.113015  4342 net.cpp:425] pool4 <- conv4_2
I0623 20:56:05.113019  4342 net.cpp:399] pool4 -> pool4
I0623 20:56:05.113023  4342 net.cpp:399] pool4 -> pool4_mask
I0623 20:56:05.113061  4342 net.cpp:141] Setting up pool4
I0623 20:56:05.113066  4342 net.cpp:148] Top shape: 1 64 14 14 (12544)
I0623 20:56:05.113068  4342 net.cpp:148] Top shape: 1 64 14 14 (12544)
I0623 20:56:05.113070  4342 net.cpp:156] Memory required for data: 145811456
I0623 20:56:05.113073  4342 layer_factory.hpp:77] Creating layer conv5_1
I0623 20:56:05.113080  4342 net.cpp:91] Creating Layer conv5_1
I0623 20:56:05.113083  4342 net.cpp:425] conv5_1 <- pool4
I0623 20:56:05.113088  4342 net.cpp:399] conv5_1 -> conv5_1
I0623 20:56:05.114353  4342 net.cpp:141] Setting up conv5_1
I0623 20:56:05.114365  4342 net.cpp:148] Top shape: 1 64 14 14 (12544)
I0623 20:56:05.114368  4342 net.cpp:156] Memory required for data: 145861632
I0623 20:56:05.114373  4342 layer_factory.hpp:77] Creating layer bn5_1
I0623 20:56:05.114380  4342 net.cpp:91] Creating Layer bn5_1
I0623 20:56:05.114383  4342 net.cpp:425] bn5_1 <- conv5_1
I0623 20:56:05.114387  4342 net.cpp:386] bn5_1 -> conv5_1 (in-place)
I0623 20:56:05.114559  4342 net.cpp:141] Setting up bn5_1
I0623 20:56:05.114575  4342 net.cpp:148] Top shape: 1 64 14 14 (12544)
I0623 20:56:05.114578  4342 net.cpp:156] Memory required for data: 145911808
I0623 20:56:05.114583  4342 layer_factory.hpp:77] Creating layer scale5_1
I0623 20:56:05.114589  4342 net.cpp:91] Creating Layer scale5_1
I0623 20:56:05.114593  4342 net.cpp:425] scale5_1 <- conv5_1
I0623 20:56:05.114596  4342 net.cpp:386] scale5_1 -> conv5_1 (in-place)
I0623 20:56:05.114636  4342 layer_factory.hpp:77] Creating layer scale5_1
I0623 20:56:05.114732  4342 net.cpp:141] Setting up scale5_1
I0623 20:56:05.114739  4342 net.cpp:148] Top shape: 1 64 14 14 (12544)
I0623 20:56:05.114742  4342 net.cpp:156] Memory required for data: 145961984
I0623 20:56:05.114745  4342 layer_factory.hpp:77] Creating layer relu5_1
I0623 20:56:05.114749  4342 net.cpp:91] Creating Layer relu5_1
I0623 20:56:05.114753  4342 net.cpp:425] relu5_1 <- conv5_1
I0623 20:56:05.114755  4342 net.cpp:386] relu5_1 -> conv5_1 (in-place)
I0623 20:56:05.115036  4342 net.cpp:141] Setting up relu5_1
I0623 20:56:05.115046  4342 net.cpp:148] Top shape: 1 64 14 14 (12544)
I0623 20:56:05.115049  4342 net.cpp:156] Memory required for data: 146012160
I0623 20:56:05.115051  4342 layer_factory.hpp:77] Creating layer conv5_2
I0623 20:56:05.115061  4342 net.cpp:91] Creating Layer conv5_2
I0623 20:56:05.115063  4342 net.cpp:425] conv5_2 <- conv5_1
I0623 20:56:05.115069  4342 net.cpp:399] conv5_2 -> conv5_2
I0623 20:56:05.116125  4342 net.cpp:141] Setting up conv5_2
I0623 20:56:05.116137  4342 net.cpp:148] Top shape: 1 64 14 14 (12544)
I0623 20:56:05.116140  4342 net.cpp:156] Memory required for data: 146062336
I0623 20:56:05.116145  4342 layer_factory.hpp:77] Creating layer bn5_2
I0623 20:56:05.116153  4342 net.cpp:91] Creating Layer bn5_2
I0623 20:56:05.116155  4342 net.cpp:425] bn5_2 <- conv5_2
I0623 20:56:05.116159  4342 net.cpp:386] bn5_2 -> conv5_2 (in-place)
I0623 20:56:05.116330  4342 net.cpp:141] Setting up bn5_2
I0623 20:56:05.116338  4342 net.cpp:148] Top shape: 1 64 14 14 (12544)
I0623 20:56:05.116340  4342 net.cpp:156] Memory required for data: 146112512
I0623 20:56:05.116345  4342 layer_factory.hpp:77] Creating layer scale5_2
I0623 20:56:05.116351  4342 net.cpp:91] Creating Layer scale5_2
I0623 20:56:05.116353  4342 net.cpp:425] scale5_2 <- conv5_2
I0623 20:56:05.116358  4342 net.cpp:386] scale5_2 -> conv5_2 (in-place)
I0623 20:56:05.116394  4342 layer_factory.hpp:77] Creating layer scale5_2
I0623 20:56:05.116493  4342 net.cpp:141] Setting up scale5_2
I0623 20:56:05.116502  4342 net.cpp:148] Top shape: 1 64 14 14 (12544)
I0623 20:56:05.116503  4342 net.cpp:156] Memory required for data: 146162688
I0623 20:56:05.116508  4342 layer_factory.hpp:77] Creating layer relu5_2
I0623 20:56:05.116511  4342 net.cpp:91] Creating Layer relu5_2
I0623 20:56:05.116514  4342 net.cpp:425] relu5_2 <- conv5_2
I0623 20:56:05.116518  4342 net.cpp:386] relu5_2 -> conv5_2 (in-place)
I0623 20:56:05.116794  4342 net.cpp:141] Setting up relu5_2
I0623 20:56:05.116806  4342 net.cpp:148] Top shape: 1 64 14 14 (12544)
I0623 20:56:05.116808  4342 net.cpp:156] Memory required for data: 146212864
I0623 20:56:05.116812  4342 layer_factory.hpp:77] Creating layer pool5
I0623 20:56:05.116816  4342 layer_factory.cpp:90] cuDNN does not support multiple tops. Using Caffe's own pooling layer.
I0623 20:56:05.116819  4342 net.cpp:91] Creating Layer pool5
I0623 20:56:05.116822  4342 net.cpp:425] pool5 <- conv5_2
I0623 20:56:05.116827  4342 net.cpp:399] pool5 -> pool5
I0623 20:56:05.116832  4342 net.cpp:399] pool5 -> pool5_mask
I0623 20:56:05.116873  4342 net.cpp:141] Setting up pool5
I0623 20:56:05.116879  4342 net.cpp:148] Top shape: 1 64 7 7 (3136)
I0623 20:56:05.116883  4342 net.cpp:148] Top shape: 1 64 7 7 (3136)
I0623 20:56:05.116884  4342 net.cpp:156] Memory required for data: 146237952
I0623 20:56:05.116886  4342 layer_factory.hpp:77] Creating layer upsample5
I0623 20:56:05.116894  4342 net.cpp:91] Creating Layer upsample5
I0623 20:56:05.116896  4342 net.cpp:425] upsample5 <- pool5
I0623 20:56:05.116900  4342 net.cpp:425] upsample5 <- pool5_mask
I0623 20:56:05.116916  4342 net.cpp:399] upsample5 -> pool5_D
I0623 20:56:05.116960  4342 net.cpp:141] Setting up upsample5
I0623 20:56:05.116969  4342 net.cpp:148] Top shape: 1 64 14 14 (12544)
I0623 20:56:05.116973  4342 net.cpp:156] Memory required for data: 146288128
I0623 20:56:05.116977  4342 layer_factory.hpp:77] Creating layer conv5_2_D
I0623 20:56:05.116989  4342 net.cpp:91] Creating Layer conv5_2_D
I0623 20:56:05.116997  4342 net.cpp:425] conv5_2_D <- pool5_D
I0623 20:56:05.117005  4342 net.cpp:399] conv5_2_D -> conv5_2_D
I0623 20:56:05.118232  4342 net.cpp:141] Setting up conv5_2_D
I0623 20:56:05.118245  4342 net.cpp:148] Top shape: 1 64 14 14 (12544)
I0623 20:56:05.118247  4342 net.cpp:156] Memory required for data: 146338304
I0623 20:56:05.118252  4342 layer_factory.hpp:77] Creating layer bn5_2_D
I0623 20:56:05.118258  4342 net.cpp:91] Creating Layer bn5_2_D
I0623 20:56:05.118262  4342 net.cpp:425] bn5_2_D <- conv5_2_D
I0623 20:56:05.118268  4342 net.cpp:386] bn5_2_D -> conv5_2_D (in-place)
I0623 20:56:05.118443  4342 net.cpp:141] Setting up bn5_2_D
I0623 20:56:05.118451  4342 net.cpp:148] Top shape: 1 64 14 14 (12544)
I0623 20:56:05.118453  4342 net.cpp:156] Memory required for data: 146388480
I0623 20:56:05.118459  4342 layer_factory.hpp:77] Creating layer scale5_2_D
I0623 20:56:05.118465  4342 net.cpp:91] Creating Layer scale5_2_D
I0623 20:56:05.118468  4342 net.cpp:425] scale5_2_D <- conv5_2_D
I0623 20:56:05.118472  4342 net.cpp:386] scale5_2_D -> conv5_2_D (in-place)
I0623 20:56:05.118510  4342 layer_factory.hpp:77] Creating layer scale5_2_D
I0623 20:56:05.118616  4342 net.cpp:141] Setting up scale5_2_D
I0623 20:56:05.118623  4342 net.cpp:148] Top shape: 1 64 14 14 (12544)
I0623 20:56:05.118625  4342 net.cpp:156] Memory required for data: 146438656
I0623 20:56:05.118638  4342 layer_factory.hpp:77] Creating layer relu5_2_D
I0623 20:56:05.118643  4342 net.cpp:91] Creating Layer relu5_2_D
I0623 20:56:05.118646  4342 net.cpp:425] relu5_2_D <- conv5_2_D
I0623 20:56:05.118650  4342 net.cpp:386] relu5_2_D -> conv5_2_D (in-place)
I0623 20:56:05.118800  4342 net.cpp:141] Setting up relu5_2_D
I0623 20:56:05.118809  4342 net.cpp:148] Top shape: 1 64 14 14 (12544)
I0623 20:56:05.118813  4342 net.cpp:156] Memory required for data: 146488832
I0623 20:56:05.118815  4342 layer_factory.hpp:77] Creating layer conv5_1_D
I0623 20:56:05.118821  4342 net.cpp:91] Creating Layer conv5_1_D
I0623 20:56:05.118824  4342 net.cpp:425] conv5_1_D <- conv5_2_D
I0623 20:56:05.118829  4342 net.cpp:399] conv5_1_D -> conv5_1_D
I0623 20:56:05.120024  4342 net.cpp:141] Setting up conv5_1_D
I0623 20:56:05.120038  4342 net.cpp:148] Top shape: 1 64 14 14 (12544)
I0623 20:56:05.120040  4342 net.cpp:156] Memory required for data: 146539008
I0623 20:56:05.120044  4342 layer_factory.hpp:77] Creating layer bn5_1_D
I0623 20:56:05.120052  4342 net.cpp:91] Creating Layer bn5_1_D
I0623 20:56:05.120055  4342 net.cpp:425] bn5_1_D <- conv5_1_D
I0623 20:56:05.120060  4342 net.cpp:386] bn5_1_D -> conv5_1_D (in-place)
I0623 20:56:05.120234  4342 net.cpp:141] Setting up bn5_1_D
I0623 20:56:05.120240  4342 net.cpp:148] Top shape: 1 64 14 14 (12544)
I0623 20:56:05.120242  4342 net.cpp:156] Memory required for data: 146589184
I0623 20:56:05.120249  4342 layer_factory.hpp:77] Creating layer scale5_1_D
I0623 20:56:05.120254  4342 net.cpp:91] Creating Layer scale5_1_D
I0623 20:56:05.120257  4342 net.cpp:425] scale5_1_D <- conv5_1_D
I0623 20:56:05.120261  4342 net.cpp:386] scale5_1_D -> conv5_1_D (in-place)
I0623 20:56:05.120299  4342 layer_factory.hpp:77] Creating layer scale5_1_D
I0623 20:56:05.120403  4342 net.cpp:141] Setting up scale5_1_D
I0623 20:56:05.120410  4342 net.cpp:148] Top shape: 1 64 14 14 (12544)
I0623 20:56:05.120412  4342 net.cpp:156] Memory required for data: 146639360
I0623 20:56:05.120416  4342 layer_factory.hpp:77] Creating layer relu5_1_D
I0623 20:56:05.120421  4342 net.cpp:91] Creating Layer relu5_1_D
I0623 20:56:05.120424  4342 net.cpp:425] relu5_1_D <- conv5_1_D
I0623 20:56:05.120427  4342 net.cpp:386] relu5_1_D -> conv5_1_D (in-place)
I0623 20:56:05.120718  4342 net.cpp:141] Setting up relu5_1_D
I0623 20:56:05.120738  4342 net.cpp:148] Top shape: 1 64 14 14 (12544)
I0623 20:56:05.120740  4342 net.cpp:156] Memory required for data: 146689536
I0623 20:56:05.120743  4342 layer_factory.hpp:77] Creating layer upsample4
I0623 20:56:05.120749  4342 net.cpp:91] Creating Layer upsample4
I0623 20:56:05.120753  4342 net.cpp:425] upsample4 <- conv5_1_D
I0623 20:56:05.120756  4342 net.cpp:425] upsample4 <- pool4_mask
I0623 20:56:05.120759  4342 net.cpp:399] upsample4 -> pool4_D
I0623 20:56:05.120790  4342 net.cpp:141] Setting up upsample4
I0623 20:56:05.120796  4342 net.cpp:148] Top shape: 1 64 28 28 (50176)
I0623 20:56:05.120798  4342 net.cpp:156] Memory required for data: 146890240
I0623 20:56:05.120801  4342 layer_factory.hpp:77] Creating layer conv4_2_D
I0623 20:56:05.120808  4342 net.cpp:91] Creating Layer conv4_2_D
I0623 20:56:05.120811  4342 net.cpp:425] conv4_2_D <- pool4_D
I0623 20:56:05.120816  4342 net.cpp:399] conv4_2_D -> conv4_2_D
I0623 20:56:05.121965  4342 net.cpp:141] Setting up conv4_2_D
I0623 20:56:05.121978  4342 net.cpp:148] Top shape: 1 64 28 28 (50176)
I0623 20:56:05.121981  4342 net.cpp:156] Memory required for data: 147090944
I0623 20:56:05.121986  4342 layer_factory.hpp:77] Creating layer bn4_2_D
I0623 20:56:05.121994  4342 net.cpp:91] Creating Layer bn4_2_D
I0623 20:56:05.121996  4342 net.cpp:425] bn4_2_D <- conv4_2_D
I0623 20:56:05.122000  4342 net.cpp:386] bn4_2_D -> conv4_2_D (in-place)
I0623 20:56:05.122181  4342 net.cpp:141] Setting up bn4_2_D
I0623 20:56:05.122189  4342 net.cpp:148] Top shape: 1 64 28 28 (50176)
I0623 20:56:05.122190  4342 net.cpp:156] Memory required for data: 147291648
I0623 20:56:05.122196  4342 layer_factory.hpp:77] Creating layer scale4_2_D
I0623 20:56:05.122203  4342 net.cpp:91] Creating Layer scale4_2_D
I0623 20:56:05.122206  4342 net.cpp:425] scale4_2_D <- conv4_2_D
I0623 20:56:05.122210  4342 net.cpp:386] scale4_2_D -> conv4_2_D (in-place)
I0623 20:56:05.122246  4342 layer_factory.hpp:77] Creating layer scale4_2_D
I0623 20:56:05.122352  4342 net.cpp:141] Setting up scale4_2_D
I0623 20:56:05.122359  4342 net.cpp:148] Top shape: 1 64 28 28 (50176)
I0623 20:56:05.122361  4342 net.cpp:156] Memory required for data: 147492352
I0623 20:56:05.122365  4342 layer_factory.hpp:77] Creating layer relu4_2_D
I0623 20:56:05.122371  4342 net.cpp:91] Creating Layer relu4_2_D
I0623 20:56:05.122373  4342 net.cpp:425] relu4_2_D <- conv4_2_D
I0623 20:56:05.122377  4342 net.cpp:386] relu4_2_D -> conv4_2_D (in-place)
I0623 20:56:05.122660  4342 net.cpp:141] Setting up relu4_2_D
I0623 20:56:05.122671  4342 net.cpp:148] Top shape: 1 64 28 28 (50176)
I0623 20:56:05.122674  4342 net.cpp:156] Memory required for data: 147693056
I0623 20:56:05.122678  4342 layer_factory.hpp:77] Creating layer conv4_1_D
I0623 20:56:05.122685  4342 net.cpp:91] Creating Layer conv4_1_D
I0623 20:56:05.122689  4342 net.cpp:425] conv4_1_D <- conv4_2_D
I0623 20:56:05.122694  4342 net.cpp:399] conv4_1_D -> conv4_1_D
I0623 20:56:05.124477  4342 net.cpp:141] Setting up conv4_1_D
I0623 20:56:05.124490  4342 net.cpp:148] Top shape: 1 64 28 28 (50176)
I0623 20:56:05.124493  4342 net.cpp:156] Memory required for data: 147893760
I0623 20:56:05.124497  4342 layer_factory.hpp:77] Creating layer bn4_1_D
I0623 20:56:05.124505  4342 net.cpp:91] Creating Layer bn4_1_D
I0623 20:56:05.124508  4342 net.cpp:425] bn4_1_D <- conv4_1_D
I0623 20:56:05.124512  4342 net.cpp:386] bn4_1_D -> conv4_1_D (in-place)
I0623 20:56:05.124696  4342 net.cpp:141] Setting up bn4_1_D
I0623 20:56:05.124702  4342 net.cpp:148] Top shape: 1 64 28 28 (50176)
I0623 20:56:05.124704  4342 net.cpp:156] Memory required for data: 148094464
I0623 20:56:05.124711  4342 layer_factory.hpp:77] Creating layer scale4_1_D
I0623 20:56:05.124716  4342 net.cpp:91] Creating Layer scale4_1_D
I0623 20:56:05.124718  4342 net.cpp:425] scale4_1_D <- conv4_1_D
I0623 20:56:05.124722  4342 net.cpp:386] scale4_1_D -> conv4_1_D (in-place)
I0623 20:56:05.124761  4342 layer_factory.hpp:77] Creating layer scale4_1_D
I0623 20:56:05.124868  4342 net.cpp:141] Setting up scale4_1_D
I0623 20:56:05.124884  4342 net.cpp:148] Top shape: 1 64 28 28 (50176)
I0623 20:56:05.124886  4342 net.cpp:156] Memory required for data: 148295168
I0623 20:56:05.124891  4342 layer_factory.hpp:77] Creating layer relu4_1_D
I0623 20:56:05.124902  4342 net.cpp:91] Creating Layer relu4_1_D
I0623 20:56:05.124904  4342 net.cpp:425] relu4_1_D <- conv4_1_D
I0623 20:56:05.124908  4342 net.cpp:386] relu4_1_D -> conv4_1_D (in-place)
I0623 20:56:05.125063  4342 net.cpp:141] Setting up relu4_1_D
I0623 20:56:05.125072  4342 net.cpp:148] Top shape: 1 64 28 28 (50176)
I0623 20:56:05.125075  4342 net.cpp:156] Memory required for data: 148495872
I0623 20:56:05.125080  4342 layer_factory.hpp:77] Creating layer upsample3
I0623 20:56:05.125085  4342 net.cpp:91] Creating Layer upsample3
I0623 20:56:05.125088  4342 net.cpp:425] upsample3 <- conv4_1_D
I0623 20:56:05.125092  4342 net.cpp:425] upsample3 <- pool3_mask
I0623 20:56:05.125097  4342 net.cpp:399] upsample3 -> pool3_D
I0623 20:56:05.125125  4342 net.cpp:141] Setting up upsample3
I0623 20:56:05.125129  4342 net.cpp:148] Top shape: 1 64 56 56 (200704)
I0623 20:56:05.125131  4342 net.cpp:156] Memory required for data: 149298688
I0623 20:56:05.125133  4342 layer_factory.hpp:77] Creating layer conv3_2_D
I0623 20:56:05.125143  4342 net.cpp:91] Creating Layer conv3_2_D
I0623 20:56:05.125145  4342 net.cpp:425] conv3_2_D <- pool3_D
I0623 20:56:05.125150  4342 net.cpp:399] conv3_2_D -> conv3_2_D
I0623 20:56:05.126467  4342 net.cpp:141] Setting up conv3_2_D
I0623 20:56:05.126482  4342 net.cpp:148] Top shape: 1 64 56 56 (200704)
I0623 20:56:05.126484  4342 net.cpp:156] Memory required for data: 150101504
I0623 20:56:05.126489  4342 layer_factory.hpp:77] Creating layer bn3_2_D
I0623 20:56:05.126497  4342 net.cpp:91] Creating Layer bn3_2_D
I0623 20:56:05.126500  4342 net.cpp:425] bn3_2_D <- conv3_2_D
I0623 20:56:05.126505  4342 net.cpp:386] bn3_2_D -> conv3_2_D (in-place)
I0623 20:56:05.126693  4342 net.cpp:141] Setting up bn3_2_D
I0623 20:56:05.126699  4342 net.cpp:148] Top shape: 1 64 56 56 (200704)
I0623 20:56:05.126703  4342 net.cpp:156] Memory required for data: 150904320
I0623 20:56:05.126708  4342 layer_factory.hpp:77] Creating layer scale3_2_D
I0623 20:56:05.126714  4342 net.cpp:91] Creating Layer scale3_2_D
I0623 20:56:05.126718  4342 net.cpp:425] scale3_2_D <- conv3_2_D
I0623 20:56:05.126721  4342 net.cpp:386] scale3_2_D -> conv3_2_D (in-place)
I0623 20:56:05.126760  4342 layer_factory.hpp:77] Creating layer scale3_2_D
I0623 20:56:05.126870  4342 net.cpp:141] Setting up scale3_2_D
I0623 20:56:05.126878  4342 net.cpp:148] Top shape: 1 64 56 56 (200704)
I0623 20:56:05.126879  4342 net.cpp:156] Memory required for data: 151707136
I0623 20:56:05.126884  4342 layer_factory.hpp:77] Creating layer relu3_2_D
I0623 20:56:05.126889  4342 net.cpp:91] Creating Layer relu3_2_D
I0623 20:56:05.126893  4342 net.cpp:425] relu3_2_D <- conv3_2_D
I0623 20:56:05.126896  4342 net.cpp:386] relu3_2_D -> conv3_2_D (in-place)
I0623 20:56:05.127189  4342 net.cpp:141] Setting up relu3_2_D
I0623 20:56:05.127200  4342 net.cpp:148] Top shape: 1 64 56 56 (200704)
I0623 20:56:05.127203  4342 net.cpp:156] Memory required for data: 152509952
I0623 20:56:05.127207  4342 layer_factory.hpp:77] Creating layer conv3_1_D
I0623 20:56:05.127214  4342 net.cpp:91] Creating Layer conv3_1_D
I0623 20:56:05.127218  4342 net.cpp:425] conv3_1_D <- conv3_2_D
I0623 20:56:05.127223  4342 net.cpp:399] conv3_1_D -> conv3_1_D
I0623 20:56:05.128516  4342 net.cpp:141] Setting up conv3_1_D
I0623 20:56:05.128532  4342 net.cpp:148] Top shape: 1 64 56 56 (200704)
I0623 20:56:05.128535  4342 net.cpp:156] Memory required for data: 153312768
I0623 20:56:05.128540  4342 layer_factory.hpp:77] Creating layer bn3_1_D
I0623 20:56:05.128545  4342 net.cpp:91] Creating Layer bn3_1_D
I0623 20:56:05.128548  4342 net.cpp:425] bn3_1_D <- conv3_1_D
I0623 20:56:05.128552  4342 net.cpp:386] bn3_1_D -> conv3_1_D (in-place)
I0623 20:56:05.128742  4342 net.cpp:141] Setting up bn3_1_D
I0623 20:56:05.128749  4342 net.cpp:148] Top shape: 1 64 56 56 (200704)
I0623 20:56:05.128762  4342 net.cpp:156] Memory required for data: 154115584
I0623 20:56:05.128767  4342 layer_factory.hpp:77] Creating layer scale3_1_D
I0623 20:56:05.128773  4342 net.cpp:91] Creating Layer scale3_1_D
I0623 20:56:05.128775  4342 net.cpp:425] scale3_1_D <- conv3_1_D
I0623 20:56:05.128780  4342 net.cpp:386] scale3_1_D -> conv3_1_D (in-place)
I0623 20:56:05.128820  4342 layer_factory.hpp:77] Creating layer scale3_1_D
I0623 20:56:05.128933  4342 net.cpp:141] Setting up scale3_1_D
I0623 20:56:05.128939  4342 net.cpp:148] Top shape: 1 64 56 56 (200704)
I0623 20:56:05.128942  4342 net.cpp:156] Memory required for data: 154918400
I0623 20:56:05.128947  4342 layer_factory.hpp:77] Creating layer relu3_1_D
I0623 20:56:05.128950  4342 net.cpp:91] Creating Layer relu3_1_D
I0623 20:56:05.128953  4342 net.cpp:425] relu3_1_D <- conv3_1_D
I0623 20:56:05.128957  4342 net.cpp:386] relu3_1_D -> conv3_1_D (in-place)
I0623 20:56:05.129247  4342 net.cpp:141] Setting up relu3_1_D
I0623 20:56:05.129258  4342 net.cpp:148] Top shape: 1 64 56 56 (200704)
I0623 20:56:05.129261  4342 net.cpp:156] Memory required for data: 155721216
I0623 20:56:05.129263  4342 layer_factory.hpp:77] Creating layer upsample2
I0623 20:56:05.129271  4342 net.cpp:91] Creating Layer upsample2
I0623 20:56:05.129272  4342 net.cpp:425] upsample2 <- conv3_1_D
I0623 20:56:05.129276  4342 net.cpp:425] upsample2 <- pool2_mask
I0623 20:56:05.129281  4342 net.cpp:399] upsample2 -> pool2_D
I0623 20:56:05.129310  4342 net.cpp:141] Setting up upsample2
I0623 20:56:05.129315  4342 net.cpp:148] Top shape: 1 64 112 112 (802816)
I0623 20:56:05.129317  4342 net.cpp:156] Memory required for data: 158932480
I0623 20:56:05.129319  4342 layer_factory.hpp:77] Creating layer conv2_2_D
I0623 20:56:05.129328  4342 net.cpp:91] Creating Layer conv2_2_D
I0623 20:56:05.129330  4342 net.cpp:425] conv2_2_D <- pool2_D
I0623 20:56:05.129335  4342 net.cpp:399] conv2_2_D -> conv2_2_D
I0623 20:56:05.131039  4342 net.cpp:141] Setting up conv2_2_D
I0623 20:56:05.131070  4342 net.cpp:148] Top shape: 1 64 112 112 (802816)
I0623 20:56:05.131078  4342 net.cpp:156] Memory required for data: 162143744
I0623 20:56:05.131089  4342 layer_factory.hpp:77] Creating layer bn2_2_D
I0623 20:56:05.131106  4342 net.cpp:91] Creating Layer bn2_2_D
I0623 20:56:05.131114  4342 net.cpp:425] bn2_2_D <- conv2_2_D
I0623 20:56:05.131124  4342 net.cpp:386] bn2_2_D -> conv2_2_D (in-place)
I0623 20:56:05.131647  4342 net.cpp:141] Setting up bn2_2_D
I0623 20:56:05.131664  4342 net.cpp:148] Top shape: 1 64 112 112 (802816)
I0623 20:56:05.131672  4342 net.cpp:156] Memory required for data: 165355008
I0623 20:56:05.131686  4342 layer_factory.hpp:77] Creating layer scale2_2_D
I0623 20:56:05.131701  4342 net.cpp:91] Creating Layer scale2_2_D
I0623 20:56:05.131710  4342 net.cpp:425] scale2_2_D <- conv2_2_D
I0623 20:56:05.131721  4342 net.cpp:386] scale2_2_D -> conv2_2_D (in-place)
I0623 20:56:05.131821  4342 layer_factory.hpp:77] Creating layer scale2_2_D
I0623 20:56:05.132122  4342 net.cpp:141] Setting up scale2_2_D
I0623 20:56:05.132135  4342 net.cpp:148] Top shape: 1 64 112 112 (802816)
I0623 20:56:05.132143  4342 net.cpp:156] Memory required for data: 168566272
I0623 20:56:05.132153  4342 layer_factory.hpp:77] Creating layer relu2_2_D
I0623 20:56:05.132165  4342 net.cpp:91] Creating Layer relu2_2_D
I0623 20:56:05.132174  4342 net.cpp:425] relu2_2_D <- conv2_2_D
I0623 20:56:05.132186  4342 net.cpp:386] relu2_2_D -> conv2_2_D (in-place)
I0623 20:56:05.132575  4342 net.cpp:141] Setting up relu2_2_D
I0623 20:56:05.132593  4342 net.cpp:148] Top shape: 1 64 112 112 (802816)
I0623 20:56:05.132601  4342 net.cpp:156] Memory required for data: 171777536
I0623 20:56:05.132607  4342 layer_factory.hpp:77] Creating layer conv2_1_D
I0623 20:56:05.132627  4342 net.cpp:91] Creating Layer conv2_1_D
I0623 20:56:05.132634  4342 net.cpp:425] conv2_1_D <- conv2_2_D
I0623 20:56:05.132648  4342 net.cpp:399] conv2_1_D -> conv2_1_D
I0623 20:56:05.135437  4342 net.cpp:141] Setting up conv2_1_D
I0623 20:56:05.135463  4342 net.cpp:148] Top shape: 1 64 112 112 (802816)
I0623 20:56:05.135493  4342 net.cpp:156] Memory required for data: 174988800
I0623 20:56:05.135505  4342 layer_factory.hpp:77] Creating layer bn2_1_D
I0623 20:56:05.135522  4342 net.cpp:91] Creating Layer bn2_1_D
I0623 20:56:05.135531  4342 net.cpp:425] bn2_1_D <- conv2_1_D
I0623 20:56:05.135542  4342 net.cpp:386] bn2_1_D -> conv2_1_D (in-place)
I0623 20:56:05.136028  4342 net.cpp:141] Setting up bn2_1_D
I0623 20:56:05.136042  4342 net.cpp:148] Top shape: 1 64 112 112 (802816)
I0623 20:56:05.136049  4342 net.cpp:156] Memory required for data: 178200064
I0623 20:56:05.136064  4342 layer_factory.hpp:77] Creating layer scale2_1_D
I0623 20:56:05.136077  4342 net.cpp:91] Creating Layer scale2_1_D
I0623 20:56:05.136085  4342 net.cpp:425] scale2_1_D <- conv2_1_D
I0623 20:56:05.136098  4342 net.cpp:386] scale2_1_D -> conv2_1_D (in-place)
I0623 20:56:05.136188  4342 layer_factory.hpp:77] Creating layer scale2_1_D
I0623 20:56:05.136492  4342 net.cpp:141] Setting up scale2_1_D
I0623 20:56:05.136507  4342 net.cpp:148] Top shape: 1 64 112 112 (802816)
I0623 20:56:05.136514  4342 net.cpp:156] Memory required for data: 181411328
I0623 20:56:05.136525  4342 layer_factory.hpp:77] Creating layer relu2_1_D
I0623 20:56:05.136538  4342 net.cpp:91] Creating Layer relu2_1_D
I0623 20:56:05.136545  4342 net.cpp:425] relu2_1_D <- conv2_1_D
I0623 20:56:05.136554  4342 net.cpp:386] relu2_1_D -> conv2_1_D (in-place)
I0623 20:56:05.137178  4342 net.cpp:141] Setting up relu2_1_D
I0623 20:56:05.137202  4342 net.cpp:148] Top shape: 1 64 112 112 (802816)
I0623 20:56:05.137210  4342 net.cpp:156] Memory required for data: 184622592
I0623 20:56:05.137217  4342 layer_factory.hpp:77] Creating layer upsample1
I0623 20:56:05.137230  4342 net.cpp:91] Creating Layer upsample1
I0623 20:56:05.137239  4342 net.cpp:425] upsample1 <- conv2_1_D
I0623 20:56:05.137249  4342 net.cpp:425] upsample1 <- pool1_mask
I0623 20:56:05.137262  4342 net.cpp:399] upsample1 -> pool1_D
I0623 20:56:05.137328  4342 net.cpp:141] Setting up upsample1
I0623 20:56:05.137342  4342 net.cpp:148] Top shape: 1 64 224 224 (3211264)
I0623 20:56:05.137349  4342 net.cpp:156] Memory required for data: 197467648
I0623 20:56:05.137356  4342 layer_factory.hpp:77] Creating layer conv1_2_D
I0623 20:56:05.137372  4342 net.cpp:91] Creating Layer conv1_2_D
I0623 20:56:05.137380  4342 net.cpp:425] conv1_2_D <- pool1_D
I0623 20:56:05.137394  4342 net.cpp:399] conv1_2_D -> conv1_2_D
I0623 20:56:05.139967  4342 net.cpp:141] Setting up conv1_2_D
I0623 20:56:05.139994  4342 net.cpp:148] Top shape: 1 64 224 224 (3211264)
I0623 20:56:05.140003  4342 net.cpp:156] Memory required for data: 210312704
I0623 20:56:05.140015  4342 layer_factory.hpp:77] Creating layer bn1_2_D
I0623 20:56:05.140033  4342 net.cpp:91] Creating Layer bn1_2_D
I0623 20:56:05.140041  4342 net.cpp:425] bn1_2_D <- conv1_2_D
I0623 20:56:05.140054  4342 net.cpp:386] bn1_2_D -> conv1_2_D (in-place)
I0623 20:56:05.141554  4342 net.cpp:141] Setting up bn1_2_D
I0623 20:56:05.141578  4342 net.cpp:148] Top shape: 1 64 224 224 (3211264)
I0623 20:56:05.141585  4342 net.cpp:156] Memory required for data: 223157760
I0623 20:56:05.141602  4342 layer_factory.hpp:77] Creating layer scale1_2_D
I0623 20:56:05.141616  4342 net.cpp:91] Creating Layer scale1_2_D
I0623 20:56:05.141624  4342 net.cpp:425] scale1_2_D <- conv1_2_D
I0623 20:56:05.141636  4342 net.cpp:386] scale1_2_D -> conv1_2_D (in-place)
I0623 20:56:05.141734  4342 layer_factory.hpp:77] Creating layer scale1_2_D
I0623 20:56:05.142104  4342 net.cpp:141] Setting up scale1_2_D
I0623 20:56:05.142119  4342 net.cpp:148] Top shape: 1 64 224 224 (3211264)
I0623 20:56:05.142125  4342 net.cpp:156] Memory required for data: 236002816
I0623 20:56:05.142137  4342 layer_factory.hpp:77] Creating layer relu1_2_D
I0623 20:56:05.142146  4342 net.cpp:91] Creating Layer relu1_2_D
I0623 20:56:05.142154  4342 net.cpp:425] relu1_2_D <- conv1_2_D
I0623 20:56:05.142163  4342 net.cpp:386] relu1_2_D -> conv1_2_D (in-place)
I0623 20:56:05.142778  4342 net.cpp:141] Setting up relu1_2_D
I0623 20:56:05.142803  4342 net.cpp:148] Top shape: 1 64 224 224 (3211264)
I0623 20:56:05.142832  4342 net.cpp:156] Memory required for data: 248847872
I0623 20:56:05.142840  4342 layer_factory.hpp:77] Creating layer conv1_1_D
I0623 20:56:05.142863  4342 net.cpp:91] Creating Layer conv1_1_D
I0623 20:56:05.142871  4342 net.cpp:425] conv1_1_D <- conv1_2_D
I0623 20:56:05.142885  4342 net.cpp:399] conv1_1_D -> conv1_1_D
I0623 20:56:05.145236  4342 net.cpp:141] Setting up conv1_1_D
I0623 20:56:05.145261  4342 net.cpp:148] Top shape: 1 2 224 224 (100352)
I0623 20:56:05.145268  4342 net.cpp:156] Memory required for data: 249249280
I0623 20:56:05.145283  4342 layer_factory.hpp:77] Creating layer conv1_1_D_conv1_1_D_0_split
I0623 20:56:05.145295  4342 net.cpp:91] Creating Layer conv1_1_D_conv1_1_D_0_split
I0623 20:56:05.145303  4342 net.cpp:425] conv1_1_D_conv1_1_D_0_split <- conv1_1_D
I0623 20:56:05.145318  4342 net.cpp:399] conv1_1_D_conv1_1_D_0_split -> conv1_1_D_conv1_1_D_0_split_0
I0623 20:56:05.145331  4342 net.cpp:399] conv1_1_D_conv1_1_D_0_split -> conv1_1_D_conv1_1_D_0_split_1
I0623 20:56:05.145428  4342 net.cpp:141] Setting up conv1_1_D_conv1_1_D_0_split
I0623 20:56:05.145442  4342 net.cpp:148] Top shape: 1 2 224 224 (100352)
I0623 20:56:05.145452  4342 net.cpp:148] Top shape: 1 2 224 224 (100352)
I0623 20:56:05.145458  4342 net.cpp:156] Memory required for data: 250052096
I0623 20:56:05.145464  4342 layer_factory.hpp:77] Creating layer loss
I0623 20:56:05.145478  4342 net.cpp:91] Creating Layer loss
I0623 20:56:05.145485  4342 net.cpp:425] loss <- conv1_1_D_conv1_1_D_0_split_0
I0623 20:56:05.145493  4342 net.cpp:425] loss <- label_data_1_split_0
I0623 20:56:05.145504  4342 net.cpp:399] loss -> loss
…
