…
I0623 23:04:33.874131  5615 net.cpp:313] The NetState phase (0) differed from the phase (1) specified by a rule in layer data
I0623 23:04:33.874547  5615 net.cpp:49] Initializing net from parameters: 
name: "segnet"
state {
  phase: TRAIN
}
layer {
  name: "data"
  type: "DenseImageData"
  top: "data"
  top: "label"
  include {
    phase: TRAIN
  }
  transform_param {
    crop_size: 224
    mean_value: 100
  }
  dense_image_data_param {
    source: "data/train.txt"
    batch_size: 32
    shuffle: true
    new_height: 224
    new_width: 310
    is_color: false
    root_folder: "data/raw/train/"
  }
}
layer {
  name: "conv1_1"
  type: "Convolution"
  bottom: "data"
  top: "conv1_1"
  param {
    lr_mult: 1
    decay_mult: 1
  }
  convolution_param {
    num_output: 32
    bias_term: false
    pad: 1
    kernel_size: 3
    weight_filler {
      type: "xavier"
    }
  }
}
layer {
  name: "bn1_1"
  type: "BatchNorm"
  bottom: "conv1_1"
  top: "conv1_1"
  param {
    lr_mult: 0
  }
  param {
    lr_mult: 0
  }
  param {
    lr_mult: 0
  }
  batch_norm_param {
    use_global_stats: false
  }
}
layer {
  name: "scale1_1"
  type: "Scale"
  bottom: "conv1_1"
  top: "conv1_1"
  param {
    lr_mult: 1
    decay_mult: 1
  }
  param {
    lr_mult: 1
    decay_mult: 1
  }
  scale_param {
    bias_term: true
    bias_filler {
      type: "constant"
      value: 0
    }
  }
}
layer {
  name: "relu1_1"
  type: "ReLU"
  bottom: "conv1_1"
  top: "conv1_1"
}
layer {
  name: "conv1_2"
  type: "Convolution"
  bottom: "conv1_1"
  top: "conv1_2"
  param {
    lr_mult: 1
    decay_mult: 1
  }
  convolution_param {
    num_output: 32
    bias_term: false
    pad: 1
    kernel_size: 3
    weight_filler {
      type: "xavier"
    }
  }
}
layer {
  name: "bn1_2"
  type: "BatchNorm"
  bottom: "conv1_2"
  top: "conv1_2"
  param {
    lr_mult: 0
  }
  param {
    lr_mult: 0
  }
  param {
    lr_mult: 0
  }
  batch_norm_param {
    use_global_stats: false
  }
}
layer {
  name: "scale1_2"
  type: "Scale"
  bottom: "conv1_2"
  top: "conv1_2"
  param {
    lr_mult: 1
    decay_mult: 1
  }
  param {
    lr_mult: 1
    decay_mult: 1
  }
  scale_param {
    bias_term: true
    bias_filler {
      type: "constant"
      value: 0
    }
  }
}
layer {
  name: "relu1_2"
  type: "ReLU"
  bottom: "conv1_2"
  top: "conv1_2"
}
layer {
  name: "pool1"
  type: "Pooling"
  bottom: "conv1_2"
  top: "pool1"
  top: "pool1_mask"
  pooling_param {
    pool: MAX
    kernel_size: 2
    stride: 2
  }
}
layer {
  name: "conv2_1"
  type: "Convolution"
  bottom: "pool1"
  top: "conv2_1"
  param {
    lr_mult: 1
    decay_mult: 1
  }
  convolution_param {
    num_output: 32
    bias_term: false
    pad: 1
    kernel_size: 3
    weight_filler {
      type: "xavier"
    }
  }
}
layer {
  name: "bn2_1"
  type: "BatchNorm"
  bottom: "conv2_1"
  top: "conv2_1"
  param {
    lr_mult: 0
  }
  param {
    lr_mult: 0
  }
  param {
    lr_mult: 0
  }
  batch_norm_param {
    use_global_stats: false
  }
}
layer {
  name: "scale2_1"
  type: "Scale"
  bottom: "conv2_1"
  top: "conv2_1"
  param {
    lr_mult: 1
    decay_mult: 1
  }
  param {
    lr_mult: 1
    decay_mult: 1
  }
  scale_param {
    bias_term: true
    bias_filler {
      type: "constant"
      value: 0
    }
  }
}
layer {
  name: "relu2_1"
  type: "ReLU"
  bottom: "conv2_1"
  top: "conv2_1"
}
layer {
  name: "conv2_2"
  type: "Convolution"
  bottom: "conv2_1"
  top: "conv2_2"
  param {
    lr_mult: 1
    decay_mult: 1
  }
  convolution_param {
    num_output: 32
    bias_term: false
    pad: 1
    kernel_size: 3
    weight_filler {
      type: "xavier"
    }
  }
}
layer {
  name: "bn2_2"
  type: "BatchNorm"
  bottom: "conv2_2"
  top: "conv2_2"
  param {
    lr_mult: 0
  }
  param {
    lr_mult: 0
  }
  param {
    lr_mult: 0
  }
  batch_norm_param {
    use_global_stats: false
  }
}
layer {
  name: "scale2_2"
  type: "Scale"
  bottom: "conv2_2"
  top: "conv2_2"
  param {
    lr_mult: 1
    decay_mult: 1
  }
  param {
    lr_mult: 1
    decay_mult: 1
  }
  scale_param {
    bias_term: true
    bias_filler {
      type: "constant"
      value: 0
    }
  }
}
layer {
  name: "relu2_2"
  type: "ReLU"
  bottom: "conv2_2"
  top: "conv2_2"
}
layer {
  name: "pool2"
  type: "Pooling"
  bottom: "conv2_2"
  top: "pool2"
  top: "pool2_mask"
  pooling_param {
    pool: MAX
    kernel_size: 2
    stride: 2
  }
}
layer {
  name: "conv3_1"
  type: "Convolution"
  bottom: "pool2"
  top: "conv3_1"
  param {
    lr_mult: 1
    decay_mult: 1
  }
  convolution_param {
    num_output: 32
    bias_term: false
    pad: 1
    kernel_size: 3
    weight_filler {
      type: "xavier"
    }
  }
}
layer {
  name: "bn3_1"
  type: "BatchNorm"
  bottom: "conv3_1"
  top: "conv3_1"
  param {
    lr_mult: 0
  }
  param {
    lr_mult: 0
  }
  param {
    lr_mult: 0
  }
  batch_norm_param {
    use_global_stats: false
  }
}
layer {
  name: "scale3_1"
  type: "Scale"
  bottom: "conv3_1"
  top: "conv3_1"
  param {
    lr_mult: 1
    decay_mult: 1
  }
  param {
    lr_mult: 1
    decay_mult: 1
  }
  scale_param {
    bias_term: true
    bias_filler {
      type: "constant"
      value: 0
    }
  }
}
layer {
  name: "relu3_1"
  type: "ReLU"
  bottom: "conv3_1"
  top: "conv3_1"
}
layer {
  name: "conv3_2"
  type: "Convolution"
  bottom: "conv3_1"
  top: "conv3_2"
  param {
    lr_mult: 1
    decay_mult: 1
  }
  convolution_param {
    num_output: 32
    bias_term: false
    pad: 1
    kernel_size: 3
    weight_filler {
      type: "xavier"
    }
  }
}
layer {
  name: "bn3_2"
  type: "BatchNorm"
  bottom: "conv3_2"
  top: "conv3_2"
  param {
    lr_mult: 0
  }
  param {
    lr_mult: 0
  }
  param {
    lr_mult: 0
  }
  batch_norm_param {
    use_global_stats: false
  }
}
layer {
  name: "scale3_2"
  type: "Scale"
  bottom: "conv3_2"
  top: "conv3_2"
  param {
    lr_mult: 1
    decay_mult: 1
  }
  param {
    lr_mult: 1
    decay_mult: 1
  }
  scale_param {
    bias_term: true
    bias_filler {
      type: "constant"
      value: 0
    }
  }
}
layer {
  name: "relu3_2"
  type: "ReLU"
  bottom: "conv3_2"
  top: "conv3_2"
}
layer {
  name: "pool3"
  type: "Pooling"
  bottom: "conv3_2"
  top: "pool3"
  top: "pool3_mask"
  pooling_param {
    pool: MAX
    kernel_size: 2
    stride: 2
  }
}
layer {
  name: "conv4_1"
  type: "Convolution"
  bottom: "pool3"
  top: "conv4_1"
  param {
    lr_mult: 1
    decay_mult: 1
  }
  convolution_param {
    num_output: 32
    bias_term: false
    pad: 1
    kernel_size: 3
    weight_filler {
      type: "xavier"
    }
  }
}
layer {
  name: "bn4_1"
  type: "BatchNorm"
  bottom: "conv4_1"
  top: "conv4_1"
  param {
    lr_mult: 0
  }
  param {
    lr_mult: 0
  }
  param {
    lr_mult: 0
  }
  batch_norm_param {
    use_global_stats: false
  }
}
layer {
  name: "scale4_1"
  type: "Scale"
  bottom: "conv4_1"
  top: "conv4_1"
  param {
    lr_mult: 1
    decay_mult: 1
  }
  param {
    lr_mult: 1
    decay_mult: 1
  }
  scale_param {
    bias_term: true
    bias_filler {
      type: "constant"
      value: 0
    }
  }
}
layer {
  name: "relu4_1"
  type: "ReLU"
  bottom: "conv4_1"
  top: "conv4_1"
}
layer {
  name: "conv4_2"
  type: "Convolution"
  bottom: "conv4_1"
  top: "conv4_2"
  param {
    lr_mult: 1
    decay_mult: 1
  }
  convolution_param {
    num_output: 32
    bias_term: false
    pad: 1
    kernel_size: 3
    weight_filler {
      type: "xavier"
    }
  }
}
layer {
  name: "bn4_2"
  type: "BatchNorm"
  bottom: "conv4_2"
  top: "conv4_2"
  param {
    lr_mult: 0
  }
  param {
    lr_mult: 0
  }
  param {
    lr_mult: 0
  }
  batch_norm_param {
    use_global_stats: false
  }
}
layer {
  name: "scale4_2"
  type: "Scale"
  bottom: "conv4_2"
  top: "conv4_2"
  param {
    lr_mult: 1
    decay_mult: 1
  }
  param {
    lr_mult: 1
    decay_mult: 1
  }
  scale_param {
    bias_term: true
    bias_filler {
      type: "constant"
      value: 0
    }
  }
}
layer {
  name: "relu4_2"
  type: "ReLU"
  bottom: "conv4_2"
  top: "conv4_2"
}
layer {
  name: "pool4"
  type: "Pooling"
  bottom: "conv4_2"
  top: "pool4"
  top: "pool4_mask"
  pooling_param {
    pool: MAX
    kernel_size: 2
    stride: 2
  }
}
layer {
  name: "conv5_1"
  type: "Convolution"
  bottom: "pool4"
  top: "conv5_1"
  param {
    lr_mult: 1
    decay_mult: 1
  }
  convolution_param {
    num_output: 32
    bias_term: false
    pad: 1
    kernel_size: 3
    weight_filler {
      type: "xavier"
    }
  }
}
layer {
  name: "bn5_1"
  type: "BatchNorm"
  bottom: "conv5_1"
  top: "conv5_1"
  param {
    lr_mult: 0
  }
  param {
    lr_mult: 0
  }
  param {
    lr_mult: 0
  }
  batch_norm_param {
    use_global_stats: false
  }
}
layer {
  name: "scale5_1"
  type: "Scale"
  bottom: "conv5_1"
  top: "conv5_1"
  param {
    lr_mult: 1
    decay_mult: 1
  }
  param {
    lr_mult: 1
    decay_mult: 1
  }
  scale_param {
    bias_term: true
    bias_filler {
      type: "constant"
      value: 0
    }
  }
}
layer {
  name: "relu5_1"
  type: "ReLU"
  bottom: "conv5_1"
  top: "conv5_1"
}
layer {
  name: "conv5_2"
  type: "Convolution"
  bottom: "conv5_1"
  top: "conv5_2"
  param {
    lr_mult: 1
    decay_mult: 1
  }
  convolution_param {
    num_output: 32
    bias_term: false
    pad: 1
    kernel_size: 3
    weight_filler {
      type: "xavier"
    }
  }
}
layer {
  name: "bn5_2"
  type: "BatchNorm"
  bottom: "conv5_2"
  top: "conv5_2"
  param {
    lr_mult: 0
  }
  param {
    lr_mult: 0
  }
  param {
    lr_mult: 0
  }
  batch_norm_param {
    use_global_stats: false
  }
}
layer {
  name: "scale5_2"
  type: "Scale"
  bottom: "conv5_2"
  top: "conv5_2"
  param {
    lr_mult: 1
    decay_mult: 1
  }
  param {
    lr_mult: 1
    decay_mult: 1
  }
  scale_param {
    bias_term: true
    bias_filler {
      type: "constant"
      value: 0
    }
  }
}
layer {
  name: "relu5_2"
  type: "ReLU"
  bottom: "conv5_2"
  top: "conv5_2"
}
layer {
  name: "pool5"
  type: "Pooling"
  bottom: "conv5_2"
  top: "pool5"
  top: "pool5_mask"
  pooling_param {
    pool: MAX
    kernel_size: 2
    stride: 2
  }
}
layer {
  name: "upsample5"
  type: "Upsample"
  bottom: "pool5"
  bottom: "pool5_mask"
  top: "pool5_D"
  upsample_param {
    scale: 2
    upsample_h: 14
    upsample_w: 14
  }
}
layer {
  name: "conv5_2_D"
  type: "Convolution"
  bottom: "pool5_D"
  top: "conv5_2_D"
  param {
    lr_mult: 1
    decay_mult: 1
  }
  convolution_param {
    num_output: 32
    bias_term: false
    pad: 1
    kernel_size: 3
    weight_filler {
      type: "xavier"
    }
  }
}
layer {
  name: "bn5_2_D"
  type: "BatchNorm"
  bottom: "conv5_2_D"
  top: "conv5_2_D"
  param {
    lr_mult: 0
  }
  param {
    lr_mult: 0
  }
  param {
    lr_mult: 0
  }
  batch_norm_param {
    use_global_stats: false
  }
}
layer {
  name: "scale5_2_D"
  type: "Scale"
  bottom: "conv5_2_D"
  top: "conv5_2_D"
  param {
    lr_mult: 1
    decay_mult: 1
  }
  param {
    lr_mult: 1
    decay_mult: 1
  }
  scale_param {
    bias_term: true
    bias_filler {
      type: "constant"
      value: 0
    }
  }
}
layer {
  name: "conv5_1_D"
  type: "Convolution"
  bottom: "conv5_2_D"
  top: "conv5_1_D"
  param {
    lr_mult: 1
    decay_mult: 1
  }
  convolution_param {
    num_output: 32
    bias_term: false
    pad: 1
    kernel_size: 3
    weight_filler {
      type: "xavier"
    }
  }
}
layer {
  name: "bn5_1_D"
  type: "BatchNorm"
  bottom: "conv5_1_D"
  top: "conv5_1_D"
  param {
    lr_mult: 0
  }
  param {
    lr_mult: 0
  }
  param {
    lr_mult: 0
  }
  batch_norm_param {
    use_global_stats: false
  }
}
layer {
  name: "scale5_1_D"
  type: "Scale"
  bottom: "conv5_1_D"
  top: "conv5_1_D"
  param {
    lr_mult: 1
    decay_mult: 1
  }
  param {
    lr_mult: 1
    decay_mult: 1
  }
  scale_param {
    bias_term: true
    bias_filler {
      type: "constant"
      value: 0
    }
  }
}
layer {
  name: "upsample4"
  type: "Upsample"
  bottom: "conv5_1_D"
  bottom: "pool4_mask"
  top: "pool4_D"
  upsample_param {
    scale: 2
    upsample_h: 28
    upsample_w: 28
  }
}
layer {
  name: "conv4_2_D"
  type: "Convolution"
  bottom: "pool4_D"
  top: "conv4_2_D"
  param {
    lr_mult: 1
    decay_mult: 1
  }
  convolution_param {
    num_output: 32
    bias_term: false
    pad: 1
    kernel_size: 3
    weight_filler {
      type: "xavier"
    }
  }
}
layer {
  name: "bn4_2_D"
  type: "BatchNorm"
  bottom: "conv4_2_D"
  top: "conv4_2_D"
  param {
    lr_mult: 0
  }
  param {
    lr_mult: 0
  }
  param {
    lr_mult: 0
  }
  batch_norm_param {
    use_global_stats: false
  }
}
layer {
  name: "scale4_2_D"
  type: "Scale"
  bottom: "conv4_2_D"
  top: "conv4_2_D"
  param {
    lr_mult: 1
    decay_mult: 1
  }
  param {
    lr_mult: 1
    decay_mult: 1
  }
  scale_param {
    bias_term: true
    bias_filler {
      type: "constant"
      value: 0
    }
  }
}
layer {
  name: "conv4_1_D"
  type: "Convolution"
  bottom: "conv4_2_D"
  top: "conv4_1_D"
  param {
    lr_mult: 1
    decay_mult: 1
  }
  convolution_param {
    num_output: 32
    bias_term: false
    pad: 1
    kernel_size: 3
    weight_filler {
      type: "xavier"
    }
  }
}
layer {
  name: "bn4_1_D"
  type: "BatchNorm"
  bottom: "conv4_1_D"
  top: "conv4_1_D"
  param {
    lr_mult: 0
  }
  param {
    lr_mult: 0
  }
  param {
    lr_mult: 0
  }
  batch_norm_param {
    use_global_stats: false
  }
}
layer {
  name: "scale4_1_D"
  type: "Scale"
  bottom: "conv4_1_D"
  top: "conv4_1_D"
  param {
    lr_mult: 1
    decay_mult: 1
  }
  param {
    lr_mult: 1
    decay_mult: 1
  }
  scale_param {
    bias_term: true
    bias_filler {
      type: "constant"
      value: 0
    }
  }
}
layer {
  name: "upsample3"
  type: "Upsample"
  bottom: "conv4_1_D"
  bottom: "pool3_mask"
  top: "pool3_D"
  upsample_param {
    scale: 2
    upsample_h: 56
    upsample_w: 56
  }
}
layer {
  name: "conv3_2_D"
  type: "Convolution"
  bottom: "pool3_D"
  top: "conv3_2_D"
  param {
    lr_mult: 1
    decay_mult: 1
  }
  param {
    lr_mult: 1
    decay_mult: 1
  }
  convolution_param {
    num_output: 32
    pad: 1
    kernel_size: 3
    weight_filler {
      type: "xavier"
    }
    bias_filler {
      type: "constant"
      value: 0
    }
  }
}
layer {
  name: "bn3_2_D"
  type: "BatchNorm"
  bottom: "conv3_2_D"
  top: "conv3_2_D"
  param {
    lr_mult: 0
  }
  param {
    lr_mult: 0
  }
  param {
    lr_mult: 0
  }
  batch_norm_param {
    use_global_stats: false
  }
}
layer {
  name: "scale3_2_D"
  type: "Scale"
  bottom: "conv3_2_D"
  top: "conv3_2_D"
  param {
    lr_mult: 1
    decay_mult: 1
  }
  param {
    lr_mult: 1
    decay_mult: 1
  }
  scale_param {
    bias_term: true
    bias_filler {
      type: "constant"
      value: 0
    }
  }
}
layer {
  name: "conv3_1_D"
  type: "Convolution"
  bottom: "conv3_2_D"
  top: "conv3_1_D"
  param {
    lr_mult: 1
    decay_mult: 1
  }
  convolution_param {
    num_output: 32
    bias_term: false
    pad: 1
    kernel_size: 3
    weight_filler {
      type: "xavier"
    }
  }
}
layer {
  name: "bn3_1_D"
  type: "BatchNorm"
  bottom: "conv3_1_D"
  top: "conv3_1_D"
  param {
    lr_mult: 0
  }
  param {
    lr_mult: 0
  }
  param {
    lr_mult: 0
  }
  batch_norm_param {
    use_global_stats: false
  }
}
layer {
  name: "scale3_1_D"
  type: "Scale"
  bottom: "conv3_1_D"
  top: "conv3_1_D"
  param {
    lr_mult: 1
    decay_mult: 1
  }
  param {
    lr_mult: 1
    decay_mult: 1
  }
  scale_param {
    bias_term: true
    bias_filler {
      type: "constant"
      value: 0
    }
  }
}
layer {
  name: "upsample2"
  type: "Upsample"
  bottom: "conv3_1_D"
  bottom: "pool2_mask"
  top: "pool2_D"
  upsample_param {
    scale: 2
    upsample_h: 112
    upsample_w: 112
  }
}
layer {
  name: "conv2_2_D"
  type: "Convolution"
  bottom: "pool2_D"
  top: "conv2_2_D"
  param {
    lr_mult: 1
    decay_mult: 1
  }
  convolution_param {
    num_output: 32
    bias_term: false
    pad: 1
    kernel_size: 3
    weight_filler {
      type: "xavier"
    }
  }
}
layer {
  name: "bn2_2_D"
  type: "BatchNorm"
  bottom: "conv2_2_D"
  top: "conv2_2_D"
  param {
    lr_mult: 0
  }
  param {
    lr_mult: 0
  }
  param {
    lr_mult: 0
  }
  batch_norm_param {
    use_global_stats: false
  }
}
layer {
  name: "scale2_2_D"
  type: "Scale"
  bottom: "conv2_2_D"
  top: "conv2_2_D"
  param {
    lr_mult: 1
    decay_mult: 1
  }
  param {
    lr_mult: 1
    decay_mult: 1
  }
  scale_param {
    bias_term: true
    bias_filler {
      type: "constant"
      value: 0
    }
  }
}
layer {
  name: "conv2_1_D"
  type: "Convolution"
  bottom: "conv2_2_D"
  top: "conv2_1_D"
  param {
    lr_mult: 1
    decay_mult: 1
  }
  convolution_param {
    num_output: 32
    bias_term: false
    pad: 1
    kernel_size: 3
    weight_filler {
      type: "xavier"
    }
  }
}
layer {
  name: "bn2_1_D"
  type: "BatchNorm"
  bottom: "conv2_1_D"
  top: "conv2_1_D"
  param {
    lr_mult: 0
  }
  param {
    lr_mult: 0
  }
  param {
    lr_mult: 0
  }
  batch_norm_param {
    use_global_stats: false
  }
}
layer {
  name: "scale2_1_D"
  type: "Scale"
  bottom: "conv2_1_D"
  top: "conv2_1_D"
  param {
    lr_mult: 1
    decay_mult: 1
  }
  param {
    lr_mult: 1
    decay_mult: 1
  }
  scale_param {
    bias_term: true
    bias_filler {
      type: "constant"
      value: 0
    }
  }
}
layer {
  name: "upsample1"
  type: "Upsample"
  bottom: "conv2_1_D"
  bottom: "pool1_mask"
  top: "pool1_D"
  upsample_param {
    scale: 2
    upsample_h: 224
    upsample_w: 224
  }
}
layer {
  name: "conv1_2_D"
  type: "Convolution"
  bottom: "pool1_D"
  top: "conv1_2_D"
  param {
    lr_mult: 1
    decay_mult: 1
  }
  convolution_param {
    num_output: 32
    bias_term: false
    pad: 1
    kernel_size: 3
    weight_filler {
      type: "xavier"
    }
  }
}
layer {
  name: "bn1_2_D"
  type: "BatchNorm"
  bottom: "conv1_2_D"
  top: "conv1_2_D"
  param {
    lr_mult: 0
  }
  param {
    lr_mult: 0
  }
  param {
    lr_mult: 0
  }
  batch_norm_param {
    use_global_stats: false
  }
}
layer {
  name: "scale1_2_D"
  type: "Scale"
  bottom: "conv1_2_D"
  top: "conv1_2_D"
  param {
    lr_mult: 1
    decay_mult: 1
  }
  param {
    lr_mult: 1
    decay_mult: 1
  }
  scale_param {
    bias_term: true
    bias_filler {
      type: "constant"
      value: 0
    }
  }
}
layer {
  name: "conv1_1_D"
  type: "Convolution"
  bottom: "conv1_2_D"
  top: "conv1_1_D"
  param {
    lr_mult: 1
    decay_mult: 1
  }
  param {
    lr_mult: 0.1
    decay_mult: 1
  }
  convolution_param {
    num_output: 2
    bias_term: true
    pad: 1
    kernel_size: 3
    weight_filler {
      type: "xavier"
    }
    bias_filler {
      type: "constant"
    }
  }
}
layer {
  name: "loss"
  type: "SoftmaxWithLoss"
  bottom: "conv1_1_D"
  bottom: "label"
  top: "loss"
}
layer {
  name: "accuracy"
  type: "Accuracy"
  bottom: "conv1_1_D"
  bottom: "label"
  top: "accuracy"
}
I0623 23:04:33.874812  5615 layer_factory.hpp:77] Creating layer data
I0623 23:04:33.874842  5615 net.cpp:91] Creating Layer data
I0623 23:04:33.874847  5615 net.cpp:399] data -> data
I0623 23:04:33.874868  5615 net.cpp:399] data -> label
I0623 23:04:33.875833  5615 dense_image_data_layer.cpp:38] Opening file data/train.txt
I0623 23:04:33.878074  5615 dense_image_data_layer.cpp:48] Shuffling data
I0623 23:04:33.878559  5615 dense_image_data_layer.cpp:53] A total of 4930 examples.
I0623 23:04:34.127820  5615 dense_image_data_layer.cpp:92] output data size: 1,1,224,224
I0623 23:04:34.129819  5615 net.cpp:141] Setting up data
I0623 23:04:34.129837  5615 net.cpp:148] Top shape: 1 1 224 224 (50176)
I0623 23:04:34.129842  5615 net.cpp:148] Top shape: 1 1 224 224 (50176)
I0623 23:04:34.129843  5615 net.cpp:156] Memory required for data: 401408
I0623 23:04:34.129850  5615 layer_factory.hpp:77] Creating layer label_data_1_split
I0623 23:04:34.129884  5615 net.cpp:91] Creating Layer label_data_1_split
I0623 23:04:34.129891  5615 net.cpp:425] label_data_1_split <- label
I0623 23:04:34.129900  5615 net.cpp:399] label_data_1_split -> label_data_1_split_0
I0623 23:04:34.129925  5615 net.cpp:399] label_data_1_split -> label_data_1_split_1
I0623 23:04:34.129976  5615 net.cpp:141] Setting up label_data_1_split
I0623 23:04:34.129989  5615 net.cpp:148] Top shape: 1 1 224 224 (50176)
I0623 23:04:34.129992  5615 net.cpp:148] Top shape: 1 1 224 224 (50176)
I0623 23:04:34.129994  5615 net.cpp:156] Memory required for data: 802816
I0623 23:04:34.129997  5615 layer_factory.hpp:77] Creating layer conv1_1
I0623 23:04:34.130012  5615 net.cpp:91] Creating Layer conv1_1
I0623 23:04:34.130015  5615 net.cpp:425] conv1_1 <- data
I0623 23:04:34.130019  5615 net.cpp:399] conv1_1 -> conv1_1
I0623 23:04:34.324818  5615 net.cpp:141] Setting up conv1_1
I0623 23:04:34.324842  5615 net.cpp:148] Top shape: 1 32 224 224 (1605632)
I0623 23:04:34.324846  5615 net.cpp:156] Memory required for data: 7225344
I0623 23:04:34.324857  5615 layer_factory.hpp:77] Creating layer bn1_1
I0623 23:04:34.324872  5615 net.cpp:91] Creating Layer bn1_1
I0623 23:04:34.324875  5615 net.cpp:425] bn1_1 <- conv1_1
I0623 23:04:34.324879  5615 net.cpp:386] bn1_1 -> conv1_1 (in-place)
I0623 23:04:34.325062  5615 net.cpp:141] Setting up bn1_1
I0623 23:04:34.325069  5615 net.cpp:148] Top shape: 1 32 224 224 (1605632)
I0623 23:04:34.325072  5615 net.cpp:156] Memory required for data: 13647872
I0623 23:04:34.325080  5615 layer_factory.hpp:77] Creating layer scale1_1
I0623 23:04:34.325089  5615 net.cpp:91] Creating Layer scale1_1
I0623 23:04:34.325091  5615 net.cpp:425] scale1_1 <- conv1_1
I0623 23:04:34.325095  5615 net.cpp:386] scale1_1 -> conv1_1 (in-place)
I0623 23:04:34.325129  5615 layer_factory.hpp:77] Creating layer scale1_1
I0623 23:04:34.325284  5615 net.cpp:141] Setting up scale1_1
I0623 23:04:34.325291  5615 net.cpp:148] Top shape: 1 32 224 224 (1605632)
I0623 23:04:34.325294  5615 net.cpp:156] Memory required for data: 20070400
I0623 23:04:34.325300  5615 layer_factory.hpp:77] Creating layer relu1_1
I0623 23:04:34.325309  5615 net.cpp:91] Creating Layer relu1_1
I0623 23:04:34.325312  5615 net.cpp:425] relu1_1 <- conv1_1
I0623 23:04:34.325315  5615 net.cpp:386] relu1_1 -> conv1_1 (in-place)
I0623 23:04:34.325578  5615 net.cpp:141] Setting up relu1_1
I0623 23:04:34.325589  5615 net.cpp:148] Top shape: 1 32 224 224 (1605632)
I0623 23:04:34.325592  5615 net.cpp:156] Memory required for data: 26492928
I0623 23:04:34.325595  5615 layer_factory.hpp:77] Creating layer conv1_2
I0623 23:04:34.325603  5615 net.cpp:91] Creating Layer conv1_2
I0623 23:04:34.325606  5615 net.cpp:425] conv1_2 <- conv1_1
I0623 23:04:34.325610  5615 net.cpp:399] conv1_2 -> conv1_2
I0623 23:04:34.327201  5615 net.cpp:141] Setting up conv1_2
I0623 23:04:34.327214  5615 net.cpp:148] Top shape: 1 32 224 224 (1605632)
I0623 23:04:34.327217  5615 net.cpp:156] Memory required for data: 32915456
I0623 23:04:34.327222  5615 layer_factory.hpp:77] Creating layer bn1_2
I0623 23:04:34.327229  5615 net.cpp:91] Creating Layer bn1_2
I0623 23:04:34.327230  5615 net.cpp:425] bn1_2 <- conv1_2
I0623 23:04:34.327234  5615 net.cpp:386] bn1_2 -> conv1_2 (in-place)
I0623 23:04:34.327419  5615 net.cpp:141] Setting up bn1_2
I0623 23:04:34.327427  5615 net.cpp:148] Top shape: 1 32 224 224 (1605632)
I0623 23:04:34.327430  5615 net.cpp:156] Memory required for data: 39337984
I0623 23:04:34.327438  5615 layer_factory.hpp:77] Creating layer scale1_2
I0623 23:04:34.327445  5615 net.cpp:91] Creating Layer scale1_2
I0623 23:04:34.327448  5615 net.cpp:425] scale1_2 <- conv1_2
I0623 23:04:34.327452  5615 net.cpp:386] scale1_2 -> conv1_2 (in-place)
I0623 23:04:34.327486  5615 layer_factory.hpp:77] Creating layer scale1_2
I0623 23:04:34.327643  5615 net.cpp:141] Setting up scale1_2
I0623 23:04:34.327651  5615 net.cpp:148] Top shape: 1 32 224 224 (1605632)
I0623 23:04:34.327653  5615 net.cpp:156] Memory required for data: 45760512
I0623 23:04:34.327658  5615 layer_factory.hpp:77] Creating layer relu1_2
I0623 23:04:34.327662  5615 net.cpp:91] Creating Layer relu1_2
I0623 23:04:34.327664  5615 net.cpp:425] relu1_2 <- conv1_2
I0623 23:04:34.327668  5615 net.cpp:386] relu1_2 -> conv1_2 (in-place)
I0623 23:04:34.327816  5615 net.cpp:141] Setting up relu1_2
I0623 23:04:34.327826  5615 net.cpp:148] Top shape: 1 32 224 224 (1605632)
I0623 23:04:34.327827  5615 net.cpp:156] Memory required for data: 52183040
I0623 23:04:34.327831  5615 layer_factory.hpp:77] Creating layer pool1
I0623 23:04:34.327833  5615 layer_factory.cpp:90] cuDNN does not support multiple tops. Using Caffe's own pooling layer.
I0623 23:04:34.327838  5615 net.cpp:91] Creating Layer pool1
I0623 23:04:34.327841  5615 net.cpp:425] pool1 <- conv1_2
I0623 23:04:34.327844  5615 net.cpp:399] pool1 -> pool1
I0623 23:04:34.327852  5615 net.cpp:399] pool1 -> pool1_mask
I0623 23:04:34.327894  5615 net.cpp:141] Setting up pool1
I0623 23:04:34.327899  5615 net.cpp:148] Top shape: 1 32 112 112 (401408)
I0623 23:04:34.327903  5615 net.cpp:148] Top shape: 1 32 112 112 (401408)
I0623 23:04:34.327904  5615 net.cpp:156] Memory required for data: 55394304
I0623 23:04:34.327906  5615 layer_factory.hpp:77] Creating layer conv2_1
I0623 23:04:34.327913  5615 net.cpp:91] Creating Layer conv2_1
I0623 23:04:34.327915  5615 net.cpp:425] conv2_1 <- pool1
I0623 23:04:34.327919  5615 net.cpp:399] conv2_1 -> conv2_1
I0623 23:04:34.328737  5615 net.cpp:141] Setting up conv2_1
I0623 23:04:34.328749  5615 net.cpp:148] Top shape: 1 32 112 112 (401408)
I0623 23:04:34.328752  5615 net.cpp:156] Memory required for data: 56999936
I0623 23:04:34.328755  5615 layer_factory.hpp:77] Creating layer bn2_1
I0623 23:04:34.328761  5615 net.cpp:91] Creating Layer bn2_1
I0623 23:04:34.328764  5615 net.cpp:425] bn2_1 <- conv2_1
I0623 23:04:34.328768  5615 net.cpp:386] bn2_1 -> conv2_1 (in-place)
I0623 23:04:34.328914  5615 net.cpp:141] Setting up bn2_1
I0623 23:04:34.328922  5615 net.cpp:148] Top shape: 1 32 112 112 (401408)
I0623 23:04:34.328924  5615 net.cpp:156] Memory required for data: 58605568
I0623 23:04:34.328929  5615 layer_factory.hpp:77] Creating layer scale2_1
I0623 23:04:34.328934  5615 net.cpp:91] Creating Layer scale2_1
I0623 23:04:34.328938  5615 net.cpp:425] scale2_1 <- conv2_1
I0623 23:04:34.328941  5615 net.cpp:386] scale2_1 -> conv2_1 (in-place)
I0623 23:04:34.328970  5615 layer_factory.hpp:77] Creating layer scale2_1
I0623 23:04:34.329061  5615 net.cpp:141] Setting up scale2_1
I0623 23:04:34.329068  5615 net.cpp:148] Top shape: 1 32 112 112 (401408)
I0623 23:04:34.329071  5615 net.cpp:156] Memory required for data: 60211200
I0623 23:04:34.329077  5615 layer_factory.hpp:77] Creating layer relu2_1
I0623 23:04:34.329082  5615 net.cpp:91] Creating Layer relu2_1
I0623 23:04:34.329084  5615 net.cpp:425] relu2_1 <- conv2_1
I0623 23:04:34.329087  5615 net.cpp:386] relu2_1 -> conv2_1 (in-place)
I0623 23:04:34.329341  5615 net.cpp:141] Setting up relu2_1
I0623 23:04:34.329351  5615 net.cpp:148] Top shape: 1 32 112 112 (401408)
I0623 23:04:34.329355  5615 net.cpp:156] Memory required for data: 61816832
I0623 23:04:34.329357  5615 layer_factory.hpp:77] Creating layer conv2_2
I0623 23:04:34.329365  5615 net.cpp:91] Creating Layer conv2_2
I0623 23:04:34.329368  5615 net.cpp:425] conv2_2 <- conv2_1
I0623 23:04:34.329372  5615 net.cpp:399] conv2_2 -> conv2_2
I0623 23:04:34.330108  5615 net.cpp:141] Setting up conv2_2
I0623 23:04:34.330119  5615 net.cpp:148] Top shape: 1 32 112 112 (401408)
I0623 23:04:34.330121  5615 net.cpp:156] Memory required for data: 63422464
I0623 23:04:34.330126  5615 layer_factory.hpp:77] Creating layer bn2_2
I0623 23:04:34.330133  5615 net.cpp:91] Creating Layer bn2_2
I0623 23:04:34.330137  5615 net.cpp:425] bn2_2 <- conv2_2
I0623 23:04:34.330140  5615 net.cpp:386] bn2_2 -> conv2_2 (in-place)
I0623 23:04:34.330291  5615 net.cpp:141] Setting up bn2_2
I0623 23:04:34.330298  5615 net.cpp:148] Top shape: 1 32 112 112 (401408)
I0623 23:04:34.330301  5615 net.cpp:156] Memory required for data: 65028096
I0623 23:04:34.330307  5615 layer_factory.hpp:77] Creating layer scale2_2
I0623 23:04:34.330312  5615 net.cpp:91] Creating Layer scale2_2
I0623 23:04:34.330314  5615 net.cpp:425] scale2_2 <- conv2_2
I0623 23:04:34.330317  5615 net.cpp:386] scale2_2 -> conv2_2 (in-place)
I0623 23:04:34.330363  5615 layer_factory.hpp:77] Creating layer scale2_2
I0623 23:04:34.330461  5615 net.cpp:141] Setting up scale2_2
I0623 23:04:34.330467  5615 net.cpp:148] Top shape: 1 32 112 112 (401408)
I0623 23:04:34.330471  5615 net.cpp:156] Memory required for data: 66633728
I0623 23:04:34.330474  5615 layer_factory.hpp:77] Creating layer relu2_2
I0623 23:04:34.330478  5615 net.cpp:91] Creating Layer relu2_2
I0623 23:04:34.330482  5615 net.cpp:425] relu2_2 <- conv2_2
I0623 23:04:34.330487  5615 net.cpp:386] relu2_2 -> conv2_2 (in-place)
I0623 23:04:34.330751  5615 net.cpp:141] Setting up relu2_2
I0623 23:04:34.330762  5615 net.cpp:148] Top shape: 1 32 112 112 (401408)
I0623 23:04:34.330765  5615 net.cpp:156] Memory required for data: 68239360
I0623 23:04:34.330767  5615 layer_factory.hpp:77] Creating layer pool2
I0623 23:04:34.330770  5615 layer_factory.cpp:90] cuDNN does not support multiple tops. Using Caffe's own pooling layer.
I0623 23:04:34.330775  5615 net.cpp:91] Creating Layer pool2
I0623 23:04:34.330778  5615 net.cpp:425] pool2 <- conv2_2
I0623 23:04:34.330782  5615 net.cpp:399] pool2 -> pool2
I0623 23:04:34.330787  5615 net.cpp:399] pool2 -> pool2_mask
I0623 23:04:34.330822  5615 net.cpp:141] Setting up pool2
I0623 23:04:34.330827  5615 net.cpp:148] Top shape: 1 32 56 56 (100352)
I0623 23:04:34.330831  5615 net.cpp:148] Top shape: 1 32 56 56 (100352)
I0623 23:04:34.330832  5615 net.cpp:156] Memory required for data: 69042176
I0623 23:04:34.330834  5615 layer_factory.hpp:77] Creating layer conv3_1
I0623 23:04:34.330842  5615 net.cpp:91] Creating Layer conv3_1
I0623 23:04:34.330844  5615 net.cpp:425] conv3_1 <- pool2
I0623 23:04:34.330848  5615 net.cpp:399] conv3_1 -> conv3_1
I0623 23:04:34.332381  5615 net.cpp:141] Setting up conv3_1
I0623 23:04:34.332393  5615 net.cpp:148] Top shape: 1 32 56 56 (100352)
I0623 23:04:34.332396  5615 net.cpp:156] Memory required for data: 69443584
I0623 23:04:34.332401  5615 layer_factory.hpp:77] Creating layer bn3_1
I0623 23:04:34.332407  5615 net.cpp:91] Creating Layer bn3_1
I0623 23:04:34.332411  5615 net.cpp:425] bn3_1 <- conv3_1
I0623 23:04:34.332415  5615 net.cpp:386] bn3_1 -> conv3_1 (in-place)
I0623 23:04:34.333156  5615 net.cpp:141] Setting up bn3_1
I0623 23:04:34.333168  5615 net.cpp:148] Top shape: 1 32 56 56 (100352)
I0623 23:04:34.333169  5615 net.cpp:156] Memory required for data: 69844992
I0623 23:04:34.333176  5615 layer_factory.hpp:77] Creating layer scale3_1
I0623 23:04:34.333181  5615 net.cpp:91] Creating Layer scale3_1
I0623 23:04:34.333184  5615 net.cpp:425] scale3_1 <- conv3_1
I0623 23:04:34.333191  5615 net.cpp:386] scale3_1 -> conv3_1 (in-place)
I0623 23:04:34.333226  5615 layer_factory.hpp:77] Creating layer scale3_1
I0623 23:04:34.333323  5615 net.cpp:141] Setting up scale3_1
I0623 23:04:34.333330  5615 net.cpp:148] Top shape: 1 32 56 56 (100352)
I0623 23:04:34.333333  5615 net.cpp:156] Memory required for data: 70246400
I0623 23:04:34.333338  5615 layer_factory.hpp:77] Creating layer relu3_1
I0623 23:04:34.333341  5615 net.cpp:91] Creating Layer relu3_1
I0623 23:04:34.333344  5615 net.cpp:425] relu3_1 <- conv3_1
I0623 23:04:34.333348  5615 net.cpp:386] relu3_1 -> conv3_1 (in-place)
I0623 23:04:34.333487  5615 net.cpp:141] Setting up relu3_1
I0623 23:04:34.333495  5615 net.cpp:148] Top shape: 1 32 56 56 (100352)
I0623 23:04:34.333498  5615 net.cpp:156] Memory required for data: 70647808
I0623 23:04:34.333500  5615 layer_factory.hpp:77] Creating layer conv3_2
I0623 23:04:34.333508  5615 net.cpp:91] Creating Layer conv3_2
I0623 23:04:34.333511  5615 net.cpp:425] conv3_2 <- conv3_1
I0623 23:04:34.333516  5615 net.cpp:399] conv3_2 -> conv3_2
I0623 23:04:34.334383  5615 net.cpp:141] Setting up conv3_2
I0623 23:04:34.334395  5615 net.cpp:148] Top shape: 1 32 56 56 (100352)
I0623 23:04:34.334398  5615 net.cpp:156] Memory required for data: 71049216
I0623 23:04:34.334403  5615 layer_factory.hpp:77] Creating layer bn3_2
I0623 23:04:34.334408  5615 net.cpp:91] Creating Layer bn3_2
I0623 23:04:34.334410  5615 net.cpp:425] bn3_2 <- conv3_2
I0623 23:04:34.334430  5615 net.cpp:386] bn3_2 -> conv3_2 (in-place)
I0623 23:04:34.334590  5615 net.cpp:141] Setting up bn3_2
I0623 23:04:34.334597  5615 net.cpp:148] Top shape: 1 32 56 56 (100352)
I0623 23:04:34.334600  5615 net.cpp:156] Memory required for data: 71450624
I0623 23:04:34.334610  5615 layer_factory.hpp:77] Creating layer scale3_2
I0623 23:04:34.334616  5615 net.cpp:91] Creating Layer scale3_2
I0623 23:04:34.334619  5615 net.cpp:425] scale3_2 <- conv3_2
I0623 23:04:34.334622  5615 net.cpp:386] scale3_2 -> conv3_2 (in-place)
I0623 23:04:34.334656  5615 layer_factory.hpp:77] Creating layer scale3_2
I0623 23:04:34.334758  5615 net.cpp:141] Setting up scale3_2
I0623 23:04:34.334766  5615 net.cpp:148] Top shape: 1 32 56 56 (100352)
I0623 23:04:34.334769  5615 net.cpp:156] Memory required for data: 71852032
I0623 23:04:34.334772  5615 layer_factory.hpp:77] Creating layer relu3_2
I0623 23:04:34.334779  5615 net.cpp:91] Creating Layer relu3_2
I0623 23:04:34.334781  5615 net.cpp:425] relu3_2 <- conv3_2
I0623 23:04:34.334785  5615 net.cpp:386] relu3_2 -> conv3_2 (in-place)
I0623 23:04:34.335053  5615 net.cpp:141] Setting up relu3_2
I0623 23:04:34.335063  5615 net.cpp:148] Top shape: 1 32 56 56 (100352)
I0623 23:04:34.335067  5615 net.cpp:156] Memory required for data: 72253440
I0623 23:04:34.335069  5615 layer_factory.hpp:77] Creating layer pool3
I0623 23:04:34.335072  5615 layer_factory.cpp:90] cuDNN does not support multiple tops. Using Caffe's own pooling layer.
I0623 23:04:34.335078  5615 net.cpp:91] Creating Layer pool3
I0623 23:04:34.335080  5615 net.cpp:425] pool3 <- conv3_2
I0623 23:04:34.335084  5615 net.cpp:399] pool3 -> pool3
I0623 23:04:34.335089  5615 net.cpp:399] pool3 -> pool3_mask
I0623 23:04:34.335126  5615 net.cpp:141] Setting up pool3
I0623 23:04:34.335131  5615 net.cpp:148] Top shape: 1 32 28 28 (25088)
I0623 23:04:34.335134  5615 net.cpp:148] Top shape: 1 32 28 28 (25088)
I0623 23:04:34.335136  5615 net.cpp:156] Memory required for data: 72454144
I0623 23:04:34.335139  5615 layer_factory.hpp:77] Creating layer conv4_1
I0623 23:04:34.335146  5615 net.cpp:91] Creating Layer conv4_1
I0623 23:04:34.335196  5615 net.cpp:425] conv4_1 <- pool3
I0623 23:04:34.335203  5615 net.cpp:399] conv4_1 -> conv4_1
I0623 23:04:34.335968  5615 net.cpp:141] Setting up conv4_1
I0623 23:04:34.335980  5615 net.cpp:148] Top shape: 1 32 28 28 (25088)
I0623 23:04:34.335983  5615 net.cpp:156] Memory required for data: 72554496
I0623 23:04:34.335988  5615 layer_factory.hpp:77] Creating layer bn4_1
I0623 23:04:34.335994  5615 net.cpp:91] Creating Layer bn4_1
I0623 23:04:34.335996  5615 net.cpp:425] bn4_1 <- conv4_1
I0623 23:04:34.336001  5615 net.cpp:386] bn4_1 -> conv4_1 (in-place)
I0623 23:04:34.336163  5615 net.cpp:141] Setting up bn4_1
I0623 23:04:34.336169  5615 net.cpp:148] Top shape: 1 32 28 28 (25088)
I0623 23:04:34.336171  5615 net.cpp:156] Memory required for data: 72654848
I0623 23:04:34.336176  5615 layer_factory.hpp:77] Creating layer scale4_1
I0623 23:04:34.336184  5615 net.cpp:91] Creating Layer scale4_1
I0623 23:04:34.336185  5615 net.cpp:425] scale4_1 <- conv4_1
I0623 23:04:34.336189  5615 net.cpp:386] scale4_1 -> conv4_1 (in-place)
I0623 23:04:34.336223  5615 layer_factory.hpp:77] Creating layer scale4_1
I0623 23:04:34.336320  5615 net.cpp:141] Setting up scale4_1
I0623 23:04:34.336328  5615 net.cpp:148] Top shape: 1 32 28 28 (25088)
I0623 23:04:34.336329  5615 net.cpp:156] Memory required for data: 72755200
I0623 23:04:34.336333  5615 layer_factory.hpp:77] Creating layer relu4_1
I0623 23:04:34.336340  5615 net.cpp:91] Creating Layer relu4_1
I0623 23:04:34.336344  5615 net.cpp:425] relu4_1 <- conv4_1
I0623 23:04:34.336347  5615 net.cpp:386] relu4_1 -> conv4_1 (in-place)
I0623 23:04:34.336609  5615 net.cpp:141] Setting up relu4_1
I0623 23:04:34.336621  5615 net.cpp:148] Top shape: 1 32 28 28 (25088)
I0623 23:04:34.336624  5615 net.cpp:156] Memory required for data: 72855552
I0623 23:04:34.336627  5615 layer_factory.hpp:77] Creating layer conv4_2
I0623 23:04:34.336634  5615 net.cpp:91] Creating Layer conv4_2
I0623 23:04:34.336647  5615 net.cpp:425] conv4_2 <- conv4_1
I0623 23:04:34.336652  5615 net.cpp:399] conv4_2 -> conv4_2
I0623 23:04:34.337674  5615 net.cpp:141] Setting up conv4_2
I0623 23:04:34.337685  5615 net.cpp:148] Top shape: 1 32 28 28 (25088)
I0623 23:04:34.337688  5615 net.cpp:156] Memory required for data: 72955904
I0623 23:04:34.337692  5615 layer_factory.hpp:77] Creating layer bn4_2
I0623 23:04:34.337698  5615 net.cpp:91] Creating Layer bn4_2
I0623 23:04:34.337702  5615 net.cpp:425] bn4_2 <- conv4_2
I0623 23:04:34.337705  5615 net.cpp:386] bn4_2 -> conv4_2 (in-place)
I0623 23:04:34.337868  5615 net.cpp:141] Setting up bn4_2
I0623 23:04:34.337877  5615 net.cpp:148] Top shape: 1 32 28 28 (25088)
I0623 23:04:34.337878  5615 net.cpp:156] Memory required for data: 73056256
I0623 23:04:34.337883  5615 layer_factory.hpp:77] Creating layer scale4_2
I0623 23:04:34.337889  5615 net.cpp:91] Creating Layer scale4_2
I0623 23:04:34.337891  5615 net.cpp:425] scale4_2 <- conv4_2
I0623 23:04:34.337896  5615 net.cpp:386] scale4_2 -> conv4_2 (in-place)
I0623 23:04:34.337947  5615 layer_factory.hpp:77] Creating layer scale4_2
I0623 23:04:34.338054  5615 net.cpp:141] Setting up scale4_2
I0623 23:04:34.338062  5615 net.cpp:148] Top shape: 1 32 28 28 (25088)
I0623 23:04:34.338063  5615 net.cpp:156] Memory required for data: 73156608
I0623 23:04:34.338068  5615 layer_factory.hpp:77] Creating layer relu4_2
I0623 23:04:34.338073  5615 net.cpp:91] Creating Layer relu4_2
I0623 23:04:34.338074  5615 net.cpp:425] relu4_2 <- conv4_2
I0623 23:04:34.338079  5615 net.cpp:386] relu4_2 -> conv4_2 (in-place)
I0623 23:04:34.338229  5615 net.cpp:141] Setting up relu4_2
I0623 23:04:34.338238  5615 net.cpp:148] Top shape: 1 32 28 28 (25088)
I0623 23:04:34.338240  5615 net.cpp:156] Memory required for data: 73256960
I0623 23:04:34.338243  5615 layer_factory.hpp:77] Creating layer pool4
I0623 23:04:34.338246  5615 layer_factory.cpp:90] cuDNN does not support multiple tops. Using Caffe's own pooling layer.
I0623 23:04:34.338251  5615 net.cpp:91] Creating Layer pool4
I0623 23:04:34.338253  5615 net.cpp:425] pool4 <- conv4_2
I0623 23:04:34.338258  5615 net.cpp:399] pool4 -> pool4
I0623 23:04:34.338263  5615 net.cpp:399] pool4 -> pool4_mask
I0623 23:04:34.338299  5615 net.cpp:141] Setting up pool4
I0623 23:04:34.338304  5615 net.cpp:148] Top shape: 1 32 14 14 (6272)
I0623 23:04:34.338307  5615 net.cpp:148] Top shape: 1 32 14 14 (6272)
I0623 23:04:34.338309  5615 net.cpp:156] Memory required for data: 73307136
I0623 23:04:34.338311  5615 layer_factory.hpp:77] Creating layer conv5_1
I0623 23:04:34.338318  5615 net.cpp:91] Creating Layer conv5_1
I0623 23:04:34.338320  5615 net.cpp:425] conv5_1 <- pool4
I0623 23:04:34.338326  5615 net.cpp:399] conv5_1 -> conv5_1
I0623 23:04:34.344247  5615 net.cpp:141] Setting up conv5_1
I0623 23:04:34.344260  5615 net.cpp:148] Top shape: 1 32 14 14 (6272)
I0623 23:04:34.344264  5615 net.cpp:156] Memory required for data: 73332224
I0623 23:04:34.344267  5615 layer_factory.hpp:77] Creating layer bn5_1
I0623 23:04:34.344275  5615 net.cpp:91] Creating Layer bn5_1
I0623 23:04:34.344279  5615 net.cpp:425] bn5_1 <- conv5_1
I0623 23:04:34.344282  5615 net.cpp:386] bn5_1 -> conv5_1 (in-place)
I0623 23:04:34.344455  5615 net.cpp:141] Setting up bn5_1
I0623 23:04:34.344462  5615 net.cpp:148] Top shape: 1 32 14 14 (6272)
I0623 23:04:34.344465  5615 net.cpp:156] Memory required for data: 73357312
I0623 23:04:34.344470  5615 layer_factory.hpp:77] Creating layer scale5_1
I0623 23:04:34.344476  5615 net.cpp:91] Creating Layer scale5_1
I0623 23:04:34.344478  5615 net.cpp:425] scale5_1 <- conv5_1
I0623 23:04:34.344483  5615 net.cpp:386] scale5_1 -> conv5_1 (in-place)
I0623 23:04:34.344518  5615 layer_factory.hpp:77] Creating layer scale5_1
I0623 23:04:34.344612  5615 net.cpp:141] Setting up scale5_1
I0623 23:04:34.344619  5615 net.cpp:148] Top shape: 1 32 14 14 (6272)
I0623 23:04:34.344621  5615 net.cpp:156] Memory required for data: 73382400
I0623 23:04:34.344625  5615 layer_factory.hpp:77] Creating layer relu5_1
I0623 23:04:34.344630  5615 net.cpp:91] Creating Layer relu5_1
I0623 23:04:34.344643  5615 net.cpp:425] relu5_1 <- conv5_1
I0623 23:04:34.344648  5615 net.cpp:386] relu5_1 -> conv5_1 (in-place)
I0623 23:04:34.344925  5615 net.cpp:141] Setting up relu5_1
I0623 23:04:34.344935  5615 net.cpp:148] Top shape: 1 32 14 14 (6272)
I0623 23:04:34.344938  5615 net.cpp:156] Memory required for data: 73407488
I0623 23:04:34.344940  5615 layer_factory.hpp:77] Creating layer conv5_2
I0623 23:04:34.344951  5615 net.cpp:91] Creating Layer conv5_2
I0623 23:04:34.344954  5615 net.cpp:425] conv5_2 <- conv5_1
I0623 23:04:34.344959  5615 net.cpp:399] conv5_2 -> conv5_2
I0623 23:04:34.345727  5615 net.cpp:141] Setting up conv5_2
I0623 23:04:34.345738  5615 net.cpp:148] Top shape: 1 32 14 14 (6272)
I0623 23:04:34.345741  5615 net.cpp:156] Memory required for data: 73432576
I0623 23:04:34.345744  5615 layer_factory.hpp:77] Creating layer bn5_2
I0623 23:04:34.345752  5615 net.cpp:91] Creating Layer bn5_2
I0623 23:04:34.345754  5615 net.cpp:425] bn5_2 <- conv5_2
I0623 23:04:34.345758  5615 net.cpp:386] bn5_2 -> conv5_2 (in-place)
I0623 23:04:34.345926  5615 net.cpp:141] Setting up bn5_2
I0623 23:04:34.345932  5615 net.cpp:148] Top shape: 1 32 14 14 (6272)
I0623 23:04:34.345935  5615 net.cpp:156] Memory required for data: 73457664
I0623 23:04:34.345940  5615 layer_factory.hpp:77] Creating layer scale5_2
I0623 23:04:34.345947  5615 net.cpp:91] Creating Layer scale5_2
I0623 23:04:34.345950  5615 net.cpp:425] scale5_2 <- conv5_2
I0623 23:04:34.345954  5615 net.cpp:386] scale5_2 -> conv5_2 (in-place)
I0623 23:04:34.345989  5615 layer_factory.hpp:77] Creating layer scale5_2
I0623 23:04:34.346084  5615 net.cpp:141] Setting up scale5_2
I0623 23:04:34.346091  5615 net.cpp:148] Top shape: 1 32 14 14 (6272)
I0623 23:04:34.346093  5615 net.cpp:156] Memory required for data: 73482752
I0623 23:04:34.346097  5615 layer_factory.hpp:77] Creating layer relu5_2
I0623 23:04:34.346101  5615 net.cpp:91] Creating Layer relu5_2
I0623 23:04:34.346104  5615 net.cpp:425] relu5_2 <- conv5_2
I0623 23:04:34.346108  5615 net.cpp:386] relu5_2 -> conv5_2 (in-place)
I0623 23:04:34.346377  5615 net.cpp:141] Setting up relu5_2
I0623 23:04:34.346388  5615 net.cpp:148] Top shape: 1 32 14 14 (6272)
I0623 23:04:34.346390  5615 net.cpp:156] Memory required for data: 73507840
I0623 23:04:34.346393  5615 layer_factory.hpp:77] Creating layer pool5
I0623 23:04:34.346396  5615 layer_factory.cpp:90] cuDNN does not support multiple tops. Using Caffe's own pooling layer.
I0623 23:04:34.346401  5615 net.cpp:91] Creating Layer pool5
I0623 23:04:34.346405  5615 net.cpp:425] pool5 <- conv5_2
I0623 23:04:34.346410  5615 net.cpp:399] pool5 -> pool5
I0623 23:04:34.346415  5615 net.cpp:399] pool5 -> pool5_mask
I0623 23:04:34.346453  5615 net.cpp:141] Setting up pool5
I0623 23:04:34.346459  5615 net.cpp:148] Top shape: 1 32 7 7 (1568)
I0623 23:04:34.346462  5615 net.cpp:148] Top shape: 1 32 7 7 (1568)
I0623 23:04:34.346463  5615 net.cpp:156] Memory required for data: 73520384
I0623 23:04:34.346465  5615 layer_factory.hpp:77] Creating layer upsample5
I0623 23:04:34.346472  5615 net.cpp:91] Creating Layer upsample5
I0623 23:04:34.346473  5615 net.cpp:425] upsample5 <- pool5
I0623 23:04:34.346477  5615 net.cpp:425] upsample5 <- pool5_mask
I0623 23:04:34.346479  5615 net.cpp:399] upsample5 -> pool5_D
I0623 23:04:34.346508  5615 net.cpp:141] Setting up upsample5
I0623 23:04:34.346513  5615 net.cpp:148] Top shape: 1 32 14 14 (6272)
I0623 23:04:34.346514  5615 net.cpp:156] Memory required for data: 73545472
I0623 23:04:34.346516  5615 layer_factory.hpp:77] Creating layer conv5_2_D
I0623 23:04:34.346524  5615 net.cpp:91] Creating Layer conv5_2_D
I0623 23:04:34.346526  5615 net.cpp:425] conv5_2_D <- pool5_D
I0623 23:04:34.346531  5615 net.cpp:399] conv5_2_D -> conv5_2_D
I0623 23:04:34.347419  5615 net.cpp:141] Setting up conv5_2_D
I0623 23:04:34.347431  5615 net.cpp:148] Top shape: 1 32 14 14 (6272)
I0623 23:04:34.347434  5615 net.cpp:156] Memory required for data: 73570560
I0623 23:04:34.347440  5615 layer_factory.hpp:77] Creating layer bn5_2_D
I0623 23:04:34.347455  5615 net.cpp:91] Creating Layer bn5_2_D
I0623 23:04:34.347457  5615 net.cpp:425] bn5_2_D <- conv5_2_D
I0623 23:04:34.347463  5615 net.cpp:386] bn5_2_D -> conv5_2_D (in-place)
I0623 23:04:34.347628  5615 net.cpp:141] Setting up bn5_2_D
I0623 23:04:34.347635  5615 net.cpp:148] Top shape: 1 32 14 14 (6272)
I0623 23:04:34.347638  5615 net.cpp:156] Memory required for data: 73595648
I0623 23:04:34.347643  5615 layer_factory.hpp:77] Creating layer scale5_2_D
I0623 23:04:34.347656  5615 net.cpp:91] Creating Layer scale5_2_D
I0623 23:04:34.347658  5615 net.cpp:425] scale5_2_D <- conv5_2_D
I0623 23:04:34.347661  5615 net.cpp:386] scale5_2_D -> conv5_2_D (in-place)
I0623 23:04:34.347697  5615 layer_factory.hpp:77] Creating layer scale5_2_D
I0623 23:04:34.347791  5615 net.cpp:141] Setting up scale5_2_D
I0623 23:04:34.347798  5615 net.cpp:148] Top shape: 1 32 14 14 (6272)
I0623 23:04:34.347800  5615 net.cpp:156] Memory required for data: 73620736
I0623 23:04:34.347813  5615 layer_factory.hpp:77] Creating layer conv5_1_D
I0623 23:04:34.347822  5615 net.cpp:91] Creating Layer conv5_1_D
I0623 23:04:34.347826  5615 net.cpp:425] conv5_1_D <- conv5_2_D
I0623 23:04:34.347829  5615 net.cpp:399] conv5_1_D -> conv5_1_D
I0623 23:04:34.348608  5615 net.cpp:141] Setting up conv5_1_D
I0623 23:04:34.348619  5615 net.cpp:148] Top shape: 1 32 14 14 (6272)
I0623 23:04:34.348623  5615 net.cpp:156] Memory required for data: 73645824
I0623 23:04:34.348626  5615 layer_factory.hpp:77] Creating layer bn5_1_D
I0623 23:04:34.348634  5615 net.cpp:91] Creating Layer bn5_1_D
I0623 23:04:34.348636  5615 net.cpp:425] bn5_1_D <- conv5_1_D
I0623 23:04:34.348640  5615 net.cpp:386] bn5_1_D -> conv5_1_D (in-place)
I0623 23:04:34.348810  5615 net.cpp:141] Setting up bn5_1_D
I0623 23:04:34.348817  5615 net.cpp:148] Top shape: 1 32 14 14 (6272)
I0623 23:04:34.348819  5615 net.cpp:156] Memory required for data: 73670912
I0623 23:04:34.348826  5615 layer_factory.hpp:77] Creating layer scale5_1_D
I0623 23:04:34.348834  5615 net.cpp:91] Creating Layer scale5_1_D
I0623 23:04:34.348836  5615 net.cpp:425] scale5_1_D <- conv5_1_D
I0623 23:04:34.348839  5615 net.cpp:386] scale5_1_D -> conv5_1_D (in-place)
I0623 23:04:34.348875  5615 layer_factory.hpp:77] Creating layer scale5_1_D
I0623 23:04:34.348971  5615 net.cpp:141] Setting up scale5_1_D
I0623 23:04:34.348978  5615 net.cpp:148] Top shape: 1 32 14 14 (6272)
I0623 23:04:34.348980  5615 net.cpp:156] Memory required for data: 73696000
I0623 23:04:34.348984  5615 layer_factory.hpp:77] Creating layer upsample4
I0623 23:04:34.348990  5615 net.cpp:91] Creating Layer upsample4
I0623 23:04:34.348994  5615 net.cpp:425] upsample4 <- conv5_1_D
I0623 23:04:34.348996  5615 net.cpp:425] upsample4 <- pool4_mask
I0623 23:04:34.349000  5615 net.cpp:399] upsample4 -> pool4_D
I0623 23:04:34.349021  5615 net.cpp:141] Setting up upsample4
I0623 23:04:34.349025  5615 net.cpp:148] Top shape: 1 32 28 28 (25088)
I0623 23:04:34.349027  5615 net.cpp:156] Memory required for data: 73796352
I0623 23:04:34.349030  5615 layer_factory.hpp:77] Creating layer conv4_2_D
I0623 23:04:34.349036  5615 net.cpp:91] Creating Layer conv4_2_D
I0623 23:04:34.349038  5615 net.cpp:425] conv4_2_D <- pool4_D
I0623 23:04:34.349042  5615 net.cpp:399] conv4_2_D -> conv4_2_D
I0623 23:04:34.349920  5615 net.cpp:141] Setting up conv4_2_D
I0623 23:04:34.349931  5615 net.cpp:148] Top shape: 1 32 28 28 (25088)
I0623 23:04:34.349934  5615 net.cpp:156] Memory required for data: 73896704
I0623 23:04:34.349938  5615 layer_factory.hpp:77] Creating layer bn4_2_D
I0623 23:04:34.349944  5615 net.cpp:91] Creating Layer bn4_2_D
I0623 23:04:34.349947  5615 net.cpp:425] bn4_2_D <- conv4_2_D
I0623 23:04:34.349951  5615 net.cpp:386] bn4_2_D -> conv4_2_D (in-place)
I0623 23:04:34.350121  5615 net.cpp:141] Setting up bn4_2_D
I0623 23:04:34.350127  5615 net.cpp:148] Top shape: 1 32 28 28 (25088)
I0623 23:04:34.350129  5615 net.cpp:156] Memory required for data: 73997056
I0623 23:04:34.350136  5615 layer_factory.hpp:77] Creating layer scale4_2_D
I0623 23:04:34.350141  5615 net.cpp:91] Creating Layer scale4_2_D
I0623 23:04:34.350153  5615 net.cpp:425] scale4_2_D <- conv4_2_D
I0623 23:04:34.350157  5615 net.cpp:386] scale4_2_D -> conv4_2_D (in-place)
I0623 23:04:34.350195  5615 layer_factory.hpp:77] Creating layer scale4_2_D
I0623 23:04:34.350301  5615 net.cpp:141] Setting up scale4_2_D
I0623 23:04:34.350307  5615 net.cpp:148] Top shape: 1 32 28 28 (25088)
I0623 23:04:34.350311  5615 net.cpp:156] Memory required for data: 74097408
I0623 23:04:34.350314  5615 layer_factory.hpp:77] Creating layer conv4_1_D
I0623 23:04:34.350322  5615 net.cpp:91] Creating Layer conv4_1_D
I0623 23:04:34.350324  5615 net.cpp:425] conv4_1_D <- conv4_2_D
I0623 23:04:34.350328  5615 net.cpp:399] conv4_1_D -> conv4_1_D
I0623 23:04:34.351358  5615 net.cpp:141] Setting up conv4_1_D
I0623 23:04:34.351371  5615 net.cpp:148] Top shape: 1 32 28 28 (25088)
I0623 23:04:34.351372  5615 net.cpp:156] Memory required for data: 74197760
I0623 23:04:34.351377  5615 layer_factory.hpp:77] Creating layer bn4_1_D
I0623 23:04:34.351385  5615 net.cpp:91] Creating Layer bn4_1_D
I0623 23:04:34.351388  5615 net.cpp:425] bn4_1_D <- conv4_1_D
I0623 23:04:34.351392  5615 net.cpp:386] bn4_1_D -> conv4_1_D (in-place)
I0623 23:04:34.351563  5615 net.cpp:141] Setting up bn4_1_D
I0623 23:04:34.351570  5615 net.cpp:148] Top shape: 1 32 28 28 (25088)
I0623 23:04:34.351573  5615 net.cpp:156] Memory required for data: 74298112
I0623 23:04:34.351578  5615 layer_factory.hpp:77] Creating layer scale4_1_D
I0623 23:04:34.351584  5615 net.cpp:91] Creating Layer scale4_1_D
I0623 23:04:34.351586  5615 net.cpp:425] scale4_1_D <- conv4_1_D
I0623 23:04:34.351590  5615 net.cpp:386] scale4_1_D -> conv4_1_D (in-place)
I0623 23:04:34.351625  5615 layer_factory.hpp:77] Creating layer scale4_1_D
I0623 23:04:34.351727  5615 net.cpp:141] Setting up scale4_1_D
I0623 23:04:34.351733  5615 net.cpp:148] Top shape: 1 32 28 28 (25088)
I0623 23:04:34.351735  5615 net.cpp:156] Memory required for data: 74398464
I0623 23:04:34.351739  5615 layer_factory.hpp:77] Creating layer upsample3
I0623 23:04:34.351744  5615 net.cpp:91] Creating Layer upsample3
I0623 23:04:34.351747  5615 net.cpp:425] upsample3 <- conv4_1_D
I0623 23:04:34.351750  5615 net.cpp:425] upsample3 <- pool3_mask
I0623 23:04:34.351753  5615 net.cpp:399] upsample3 -> pool3_D
I0623 23:04:34.351774  5615 net.cpp:141] Setting up upsample3
I0623 23:04:34.351779  5615 net.cpp:148] Top shape: 1 32 56 56 (100352)
I0623 23:04:34.351780  5615 net.cpp:156] Memory required for data: 74799872
I0623 23:04:34.351783  5615 layer_factory.hpp:77] Creating layer conv3_2_D
I0623 23:04:34.351789  5615 net.cpp:91] Creating Layer conv3_2_D
I0623 23:04:34.351793  5615 net.cpp:425] conv3_2_D <- pool3_D
I0623 23:04:34.351797  5615 net.cpp:399] conv3_2_D -> conv3_2_D
I0623 23:04:34.352756  5615 net.cpp:141] Setting up conv3_2_D
I0623 23:04:34.352768  5615 net.cpp:148] Top shape: 1 32 56 56 (100352)
I0623 23:04:34.352772  5615 net.cpp:156] Memory required for data: 75201280
I0623 23:04:34.352777  5615 layer_factory.hpp:77] Creating layer bn3_2_D
I0623 23:04:34.352783  5615 net.cpp:91] Creating Layer bn3_2_D
I0623 23:04:34.352785  5615 net.cpp:425] bn3_2_D <- conv3_2_D
I0623 23:04:34.352790  5615 net.cpp:386] bn3_2_D -> conv3_2_D (in-place)
I0623 23:04:34.352962  5615 net.cpp:141] Setting up bn3_2_D
I0623 23:04:34.352970  5615 net.cpp:148] Top shape: 1 32 56 56 (100352)
I0623 23:04:34.352972  5615 net.cpp:156] Memory required for data: 75602688
I0623 23:04:34.352977  5615 layer_factory.hpp:77] Creating layer scale3_2_D
I0623 23:04:34.352989  5615 net.cpp:91] Creating Layer scale3_2_D
I0623 23:04:34.352991  5615 net.cpp:425] scale3_2_D <- conv3_2_D
I0623 23:04:34.352995  5615 net.cpp:386] scale3_2_D -> conv3_2_D (in-place)
I0623 23:04:34.353031  5615 layer_factory.hpp:77] Creating layer scale3_2_D
I0623 23:04:34.353138  5615 net.cpp:141] Setting up scale3_2_D
I0623 23:04:34.353145  5615 net.cpp:148] Top shape: 1 32 56 56 (100352)
I0623 23:04:34.353147  5615 net.cpp:156] Memory required for data: 76004096
I0623 23:04:34.353152  5615 layer_factory.hpp:77] Creating layer conv3_1_D
I0623 23:04:34.353173  5615 net.cpp:91] Creating Layer conv3_1_D
I0623 23:04:34.353176  5615 net.cpp:425] conv3_1_D <- conv3_2_D
I0623 23:04:34.353180  5615 net.cpp:399] conv3_1_D -> conv3_1_D
I0623 23:04:34.354120  5615 net.cpp:141] Setting up conv3_1_D
I0623 23:04:34.354132  5615 net.cpp:148] Top shape: 1 32 56 56 (100352)
I0623 23:04:34.354135  5615 net.cpp:156] Memory required for data: 76405504
I0623 23:04:34.354138  5615 layer_factory.hpp:77] Creating layer bn3_1_D
I0623 23:04:34.354146  5615 net.cpp:91] Creating Layer bn3_1_D
I0623 23:04:34.354148  5615 net.cpp:425] bn3_1_D <- conv3_1_D
I0623 23:04:34.354152  5615 net.cpp:386] bn3_1_D -> conv3_1_D (in-place)
I0623 23:04:34.354327  5615 net.cpp:141] Setting up bn3_1_D
I0623 23:04:34.354334  5615 net.cpp:148] Top shape: 1 32 56 56 (100352)
I0623 23:04:34.354336  5615 net.cpp:156] Memory required for data: 76806912
I0623 23:04:34.354342  5615 layer_factory.hpp:77] Creating layer scale3_1_D
I0623 23:04:34.354348  5615 net.cpp:91] Creating Layer scale3_1_D
I0623 23:04:34.354351  5615 net.cpp:425] scale3_1_D <- conv3_1_D
I0623 23:04:34.354354  5615 net.cpp:386] scale3_1_D -> conv3_1_D (in-place)
I0623 23:04:34.354389  5615 layer_factory.hpp:77] Creating layer scale3_1_D
I0623 23:04:34.354496  5615 net.cpp:141] Setting up scale3_1_D
I0623 23:04:34.354504  5615 net.cpp:148] Top shape: 1 32 56 56 (100352)
I0623 23:04:34.354506  5615 net.cpp:156] Memory required for data: 77208320
I0623 23:04:34.354511  5615 layer_factory.hpp:77] Creating layer upsample2
I0623 23:04:34.354516  5615 net.cpp:91] Creating Layer upsample2
I0623 23:04:34.354518  5615 net.cpp:425] upsample2 <- conv3_1_D
I0623 23:04:34.354521  5615 net.cpp:425] upsample2 <- pool2_mask
I0623 23:04:34.354526  5615 net.cpp:399] upsample2 -> pool2_D
I0623 23:04:34.354548  5615 net.cpp:141] Setting up upsample2
I0623 23:04:34.354553  5615 net.cpp:148] Top shape: 1 32 112 112 (401408)
I0623 23:04:34.354557  5615 net.cpp:156] Memory required for data: 78813952
I0623 23:04:34.354558  5615 layer_factory.hpp:77] Creating layer conv2_2_D
I0623 23:04:34.354565  5615 net.cpp:91] Creating Layer conv2_2_D
I0623 23:04:34.354568  5615 net.cpp:425] conv2_2_D <- pool2_D
I0623 23:04:34.354573  5615 net.cpp:399] conv2_2_D -> conv2_2_D
I0623 23:04:34.355361  5615 net.cpp:141] Setting up conv2_2_D
I0623 23:04:34.355373  5615 net.cpp:148] Top shape: 1 32 112 112 (401408)
I0623 23:04:34.355376  5615 net.cpp:156] Memory required for data: 80419584
I0623 23:04:34.355379  5615 layer_factory.hpp:77] Creating layer bn2_2_D
I0623 23:04:34.355386  5615 net.cpp:91] Creating Layer bn2_2_D
I0623 23:04:34.355389  5615 net.cpp:425] bn2_2_D <- conv2_2_D
I0623 23:04:34.355392  5615 net.cpp:386] bn2_2_D -> conv2_2_D (in-place)
I0623 23:04:34.355577  5615 net.cpp:141] Setting up bn2_2_D
I0623 23:04:34.355586  5615 net.cpp:148] Top shape: 1 32 112 112 (401408)
I0623 23:04:34.355587  5615 net.cpp:156] Memory required for data: 82025216
I0623 23:04:34.355593  5615 layer_factory.hpp:77] Creating layer scale2_2_D
I0623 23:04:34.355598  5615 net.cpp:91] Creating Layer scale2_2_D
I0623 23:04:34.355602  5615 net.cpp:425] scale2_2_D <- conv2_2_D
I0623 23:04:34.355605  5615 net.cpp:386] scale2_2_D -> conv2_2_D (in-place)
I0623 23:04:34.355640  5615 layer_factory.hpp:77] Creating layer scale2_2_D
I0623 23:04:34.355761  5615 net.cpp:141] Setting up scale2_2_D
I0623 23:04:34.355767  5615 net.cpp:148] Top shape: 1 32 112 112 (401408)
I0623 23:04:34.355769  5615 net.cpp:156] Memory required for data: 83630848
I0623 23:04:34.355773  5615 layer_factory.hpp:77] Creating layer conv2_1_D
I0623 23:04:34.355782  5615 net.cpp:91] Creating Layer conv2_1_D
I0623 23:04:34.355784  5615 net.cpp:425] conv2_1_D <- conv2_2_D
I0623 23:04:34.355790  5615 net.cpp:399] conv2_1_D -> conv2_1_D
I0623 23:04:34.357421  5615 net.cpp:141] Setting up conv2_1_D
I0623 23:04:34.357434  5615 net.cpp:148] Top shape: 1 32 112 112 (401408)
I0623 23:04:34.357436  5615 net.cpp:156] Memory required for data: 85236480
I0623 23:04:34.357440  5615 layer_factory.hpp:77] Creating layer bn2_1_D
I0623 23:04:34.357456  5615 net.cpp:91] Creating Layer bn2_1_D
I0623 23:04:34.357460  5615 net.cpp:425] bn2_1_D <- conv2_1_D
I0623 23:04:34.357465  5615 net.cpp:386] bn2_1_D -> conv2_1_D (in-place)
I0623 23:04:34.357695  5615 net.cpp:141] Setting up bn2_1_D
I0623 23:04:34.357704  5615 net.cpp:148] Top shape: 1 32 112 112 (401408)
I0623 23:04:34.357707  5615 net.cpp:156] Memory required for data: 86842112
I0623 23:04:34.357712  5615 layer_factory.hpp:77] Creating layer scale2_1_D
I0623 23:04:34.357719  5615 net.cpp:91] Creating Layer scale2_1_D
I0623 23:04:34.357725  5615 net.cpp:425] scale2_1_D <- conv2_1_D
I0623 23:04:34.357729  5615 net.cpp:386] scale2_1_D -> conv2_1_D (in-place)
I0623 23:04:34.357767  5615 layer_factory.hpp:77] Creating layer scale2_1_D
I0623 23:04:34.357872  5615 net.cpp:141] Setting up scale2_1_D
I0623 23:04:34.357879  5615 net.cpp:148] Top shape: 1 32 112 112 (401408)
I0623 23:04:34.357882  5615 net.cpp:156] Memory required for data: 88447744
I0623 23:04:34.357887  5615 layer_factory.hpp:77] Creating layer upsample1
I0623 23:04:34.357892  5615 net.cpp:91] Creating Layer upsample1
I0623 23:04:34.357893  5615 net.cpp:425] upsample1 <- conv2_1_D
I0623 23:04:34.357897  5615 net.cpp:425] upsample1 <- pool1_mask
I0623 23:04:34.357902  5615 net.cpp:399] upsample1 -> pool1_D
I0623 23:04:34.357926  5615 net.cpp:141] Setting up upsample1
I0623 23:04:34.357930  5615 net.cpp:148] Top shape: 1 32 224 224 (1605632)
I0623 23:04:34.357933  5615 net.cpp:156] Memory required for data: 94870272
I0623 23:04:34.357934  5615 layer_factory.hpp:77] Creating layer conv1_2_D
I0623 23:04:34.357941  5615 net.cpp:91] Creating Layer conv1_2_D
I0623 23:04:34.357944  5615 net.cpp:425] conv1_2_D <- pool1_D
I0623 23:04:34.357949  5615 net.cpp:399] conv1_2_D -> conv1_2_D
I0623 23:04:34.358978  5615 net.cpp:141] Setting up conv1_2_D
I0623 23:04:34.358989  5615 net.cpp:148] Top shape: 1 32 224 224 (1605632)
I0623 23:04:34.358994  5615 net.cpp:156] Memory required for data: 101292800
I0623 23:04:34.358997  5615 layer_factory.hpp:77] Creating layer bn1_2_D
I0623 23:04:34.359004  5615 net.cpp:91] Creating Layer bn1_2_D
I0623 23:04:34.359006  5615 net.cpp:425] bn1_2_D <- conv1_2_D
I0623 23:04:34.359011  5615 net.cpp:386] bn1_2_D -> conv1_2_D (in-place)
I0623 23:04:34.359848  5615 net.cpp:141] Setting up bn1_2_D
I0623 23:04:34.359858  5615 net.cpp:148] Top shape: 1 32 224 224 (1605632)
I0623 23:04:34.359860  5615 net.cpp:156] Memory required for data: 107715328
I0623 23:04:34.359868  5615 layer_factory.hpp:77] Creating layer scale1_2_D
I0623 23:04:34.359874  5615 net.cpp:91] Creating Layer scale1_2_D
I0623 23:04:34.359877  5615 net.cpp:425] scale1_2_D <- conv1_2_D
I0623 23:04:34.359881  5615 net.cpp:386] scale1_2_D -> conv1_2_D (in-place)
I0623 23:04:34.359921  5615 layer_factory.hpp:77] Creating layer scale1_2_D
I0623 23:04:34.360075  5615 net.cpp:141] Setting up scale1_2_D
I0623 23:04:34.360083  5615 net.cpp:148] Top shape: 1 32 224 224 (1605632)
I0623 23:04:34.360085  5615 net.cpp:156] Memory required for data: 114137856
I0623 23:04:34.360090  5615 layer_factory.hpp:77] Creating layer conv1_1_D
I0623 23:04:34.360100  5615 net.cpp:91] Creating Layer conv1_1_D
I0623 23:04:34.360102  5615 net.cpp:425] conv1_1_D <- conv1_2_D
I0623 23:04:34.360106  5615 net.cpp:399] conv1_1_D -> conv1_1_D
I0623 23:04:34.361239  5615 net.cpp:141] Setting up conv1_1_D
I0623 23:04:34.361251  5615 net.cpp:148] Top shape: 1 2 224 224 (100352)
I0623 23:04:34.361253  5615 net.cpp:156] Memory required for data: 114539264
I0623 23:04:34.361259  5615 layer_factory.hpp:77] Creating layer conv1_1_D_conv1_1_D_0_split
I0623 23:04:34.361264  5615 net.cpp:91] Creating Layer conv1_1_D_conv1_1_D_0_split
I0623 23:04:34.361268  5615 net.cpp:425] conv1_1_D_conv1_1_D_0_split <- conv1_1_D
I0623 23:04:34.361273  5615 net.cpp:399] conv1_1_D_conv1_1_D_0_split -> conv1_1_D_conv1_1_D_0_split_0
I0623 23:04:34.361277  5615 net.cpp:399] conv1_1_D_conv1_1_D_0_split -> conv1_1_D_conv1_1_D_0_split_1
I0623 23:04:34.361320  5615 net.cpp:141] Setting up conv1_1_D_conv1_1_D_0_split
I0623 23:04:34.361335  5615 net.cpp:148] Top shape: 1 2 224 224 (100352)
I0623 23:04:34.361337  5615 net.cpp:148] Top shape: 1 2 224 224 (100352)
I0623 23:04:34.361340  5615 net.cpp:156] Memory required for data: 115342080
I0623 23:04:34.361341  5615 layer_factory.hpp:77] Creating layer loss
I0623 23:04:34.361346  5615 net.cpp:91] Creating Layer loss
I0623 23:04:34.361348  5615 net.cpp:425] loss <- conv1_1_D_conv1_1_D_0_split_0
I0623 23:04:34.361352  5615 net.cpp:425] loss <- label_data_1_split_0
I0623 23:04:34.361356  5615 net.cpp:399] loss -> loss
…
