…
I0624 10:51:03.637091  6995 net.cpp:313] The NetState phase (0) differed from the phase (1) specified by a rule in layer data
I0624 10:51:03.637667  6995 net.cpp:49] Initializing net from parameters: 
name: "segnet"
state {
  phase: TRAIN
}
layer {
  name: "data"
  type: "DenseImageData"
  top: "data"
  top: "label"
  include {
    phase: TRAIN
  }
  transform_param {
    crop_size: 224
    mean_value: 100
  }
  dense_image_data_param {
    source: "data/train.txt"
    batch_size: 32
    shuffle: true
    new_height: 224
    new_width: 310
    is_color: false
    root_folder: "data/raw/train/"
  }
}
layer {
  name: "conv1_1"
  type: "Convolution"
  bottom: "data"
  top: "conv1_1"
  param {
    lr_mult: 1
    decay_mult: 1
  }
  convolution_param {
    num_output: 32
    bias_term: false
    pad: 1
    kernel_size: 3
    weight_filler {
      type: "xavier"
    }
  }
}
layer {
  name: "bn1_1"
  type: "BatchNorm"
  bottom: "conv1_1"
  top: "conv1_1"
  param {
    lr_mult: 0
  }
  param {
    lr_mult: 0
  }
  param {
    lr_mult: 0
  }
  batch_norm_param {
    use_global_stats: false
  }
}
layer {
  name: "scale1_1"
  type: "Scale"
  bottom: "conv1_1"
  top: "conv1_1"
  param {
    lr_mult: 1
    decay_mult: 1
  }
  param {
    lr_mult: 1
    decay_mult: 1
  }
  scale_param {
    bias_term: true
    bias_filler {
      type: "constant"
      value: 0
    }
  }
}
layer {
  name: "relu1_1"
  type: "ReLU"
  bottom: "conv1_1"
  top: "conv1_1"
}
layer {
  name: "conv1_2"
  type: "Convolution"
  bottom: "conv1_1"
  top: "conv1_2"
  param {
    lr_mult: 1
    decay_mult: 1
  }
  convolution_param {
    num_output: 32
    bias_term: false
    pad: 1
    kernel_size: 3
    weight_filler {
      type: "xavier"
    }
  }
}
layer {
  name: "bn1_2"
  type: "BatchNorm"
  bottom: "conv1_2"
  top: "conv1_2"
  param {
    lr_mult: 0
  }
  param {
    lr_mult: 0
  }
  param {
    lr_mult: 0
  }
  batch_norm_param {
    use_global_stats: false
  }
}
layer {
  name: "scale1_2"
  type: "Scale"
  bottom: "conv1_2"
  top: "conv1_2"
  param {
    lr_mult: 1
    decay_mult: 1
  }
  param {
    lr_mult: 1
    decay_mult: 1
  }
  scale_param {
    bias_term: true
    bias_filler {
      type: "constant"
      value: 0
    }
  }
}
layer {
  name: "relu1_2"
  type: "ReLU"
  bottom: "conv1_2"
  top: "conv1_2"
}
layer {
  name: "pool1"
  type: "Pooling"
  bottom: "conv1_2"
  top: "pool1"
  top: "pool1_mask"
  pooling_param {
    pool: MAX
    kernel_size: 2
    stride: 2
  }
}
layer {
  name: "conv2_1"
  type: "Convolution"
  bottom: "pool1"
  top: "conv2_1"
  param {
    lr_mult: 1
    decay_mult: 1
  }
  convolution_param {
    num_output: 32
    bias_term: false
    pad: 1
    kernel_size: 3
    weight_filler {
      type: "xavier"
    }
  }
}
layer {
  name: "bn2_1"
  type: "BatchNorm"
  bottom: "conv2_1"
  top: "conv2_1"
  param {
    lr_mult: 0
  }
  param {
    lr_mult: 0
  }
  param {
    lr_mult: 0
  }
  batch_norm_param {
    use_global_stats: false
  }
}
layer {
  name: "scale2_1"
  type: "Scale"
  bottom: "conv2_1"
  top: "conv2_1"
  param {
    lr_mult: 1
    decay_mult: 1
  }
  param {
    lr_mult: 1
    decay_mult: 1
  }
  scale_param {
    bias_term: true
    bias_filler {
      type: "constant"
      value: 0
    }
  }
}
layer {
  name: "relu2_1"
  type: "ReLU"
  bottom: "conv2_1"
  top: "conv2_1"
}
layer {
  name: "conv2_2"
  type: "Convolution"
  bottom: "conv2_1"
  top: "conv2_2"
  param {
    lr_mult: 1
    decay_mult: 1
  }
  convolution_param {
    num_output: 32
    bias_term: false
    pad: 1
    kernel_size: 3
    weight_filler {
      type: "xavier"
    }
  }
}
layer {
  name: "bn2_2"
  type: "BatchNorm"
  bottom: "conv2_2"
  top: "conv2_2"
  param {
    lr_mult: 0
  }
  param {
    lr_mult: 0
  }
  param {
    lr_mult: 0
  }
  batch_norm_param {
    use_global_stats: false
  }
}
layer {
  name: "scale2_2"
  type: "Scale"
  bottom: "conv2_2"
  top: "conv2_2"
  param {
    lr_mult: 1
    decay_mult: 1
  }
  param {
    lr_mult: 1
    decay_mult: 1
  }
  scale_param {
    bias_term: true
    bias_filler {
      type: "constant"
      value: 0
    }
  }
}
layer {
  name: "relu2_2"
  type: "ReLU"
  bottom: "conv2_2"
  top: "conv2_2"
}
layer {
  name: "pool2"
  type: "Pooling"
  bottom: "conv2_2"
  top: "pool2"
  top: "pool2_mask"
  pooling_param {
    pool: MAX
    kernel_size: 2
    stride: 2
  }
}
layer {
  name: "conv3_1"
  type: "Convolution"
  bottom: "pool2"
  top: "conv3_1"
  param {
    lr_mult: 1
    decay_mult: 1
  }
  convolution_param {
    num_output: 32
    bias_term: false
    pad: 1
    kernel_size: 3
    weight_filler {
      type: "xavier"
    }
  }
}
layer {
  name: "bn3_1"
  type: "BatchNorm"
  bottom: "conv3_1"
  top: "conv3_1"
  param {
    lr_mult: 0
  }
  param {
    lr_mult: 0
  }
  param {
    lr_mult: 0
  }
  batch_norm_param {
    use_global_stats: false
  }
}
layer {
  name: "scale3_1"
  type: "Scale"
  bottom: "conv3_1"
  top: "conv3_1"
  param {
    lr_mult: 1
    decay_mult: 1
  }
  param {
    lr_mult: 1
    decay_mult: 1
  }
  scale_param {
    bias_term: true
    bias_filler {
      type: "constant"
      value: 0
    }
  }
}
layer {
  name: "relu3_1"
  type: "ReLU"
  bottom: "conv3_1"
  top: "conv3_1"
}
layer {
  name: "conv3_2"
  type: "Convolution"
  bottom: "conv3_1"
  top: "conv3_2"
  param {
    lr_mult: 1
    decay_mult: 1
  }
  convolution_param {
    num_output: 32
    bias_term: false
    pad: 1
    kernel_size: 3
    weight_filler {
      type: "xavier"
    }
  }
}
layer {
  name: "bn3_2"
  type: "BatchNorm"
  bottom: "conv3_2"
  top: "conv3_2"
  param {
    lr_mult: 0
  }
  param {
    lr_mult: 0
  }
  param {
    lr_mult: 0
  }
  batch_norm_param {
    use_global_stats: false
  }
}
layer {
  name: "scale3_2"
  type: "Scale"
  bottom: "conv3_2"
  top: "conv3_2"
  param {
    lr_mult: 1
    decay_mult: 1
  }
  param {
    lr_mult: 1
    decay_mult: 1
  }
  scale_param {
    bias_term: true
    bias_filler {
      type: "constant"
      value: 0
    }
  }
}
layer {
  name: "relu3_2"
  type: "ReLU"
  bottom: "conv3_2"
  top: "conv3_2"
}
layer {
  name: "pool3"
  type: "Pooling"
  bottom: "conv3_2"
  top: "pool3"
  top: "pool3_mask"
  pooling_param {
    pool: MAX
    kernel_size: 2
    stride: 2
  }
}
layer {
  name: "conv4_1"
  type: "Convolution"
  bottom: "pool3"
  top: "conv4_1"
  param {
    lr_mult: 1
    decay_mult: 1
  }
  convolution_param {
    num_output: 32
    bias_term: false
    pad: 1
    kernel_size: 3
    weight_filler {
      type: "xavier"
    }
  }
}
layer {
  name: "bn4_1"
  type: "BatchNorm"
  bottom: "conv4_1"
  top: "conv4_1"
  param {
    lr_mult: 0
  }
  param {
    lr_mult: 0
  }
  param {
    lr_mult: 0
  }
  batch_norm_param {
    use_global_stats: false
  }
}
layer {
  name: "scale4_1"
  type: "Scale"
  bottom: "conv4_1"
  top: "conv4_1"
  param {
    lr_mult: 1
    decay_mult: 1
  }
  param {
    lr_mult: 1
    decay_mult: 1
  }
  scale_param {
    bias_term: true
    bias_filler {
      type: "constant"
      value: 0
    }
  }
}
layer {
  name: "relu4_1"
  type: "ReLU"
  bottom: "conv4_1"
  top: "conv4_1"
}
layer {
  name: "conv4_2"
  type: "Convolution"
  bottom: "conv4_1"
  top: "conv4_2"
  param {
    lr_mult: 1
    decay_mult: 1
  }
  convolution_param {
    num_output: 32
    bias_term: false
    pad: 1
    kernel_size: 3
    weight_filler {
      type: "xavier"
    }
  }
}
layer {
  name: "bn4_2"
  type: "BatchNorm"
  bottom: "conv4_2"
  top: "conv4_2"
  param {
    lr_mult: 0
  }
  param {
    lr_mult: 0
  }
  param {
    lr_mult: 0
  }
  batch_norm_param {
    use_global_stats: false
  }
}
layer {
  name: "scale4_2"
  type: "Scale"
  bottom: "conv4_2"
  top: "conv4_2"
  param {
    lr_mult: 1
    decay_mult: 1
  }
  param {
    lr_mult: 1
    decay_mult: 1
  }
  scale_param {
    bias_term: true
    bias_filler {
      type: "constant"
      value: 0
    }
  }
}
layer {
  name: "relu4_2"
  type: "ReLU"
  bottom: "conv4_2"
  top: "conv4_2"
}
layer {
  name: "pool4"
  type: "Pooling"
  bottom: "conv4_2"
  top: "pool4"
  top: "pool4_mask"
  pooling_param {
    pool: MAX
    kernel_size: 2
    stride: 2
  }
}
layer {
  name: "conv5_1"
  type: "Convolution"
  bottom: "pool4"
  top: "conv5_1"
  param {
    lr_mult: 1
    decay_mult: 1
  }
  convolution_param {
    num_output: 32
    bias_term: false
    pad: 1
    kernel_size: 3
    weight_filler {
      type: "xavier"
    }
  }
}
layer {
  name: "bn5_1"
  type: "BatchNorm"
  bottom: "conv5_1"
  top: "conv5_1"
  param {
    lr_mult: 0
  }
  param {
    lr_mult: 0
  }
  param {
    lr_mult: 0
  }
  batch_norm_param {
    use_global_stats: false
  }
}
layer {
  name: "scale5_1"
  type: "Scale"
  bottom: "conv5_1"
  top: "conv5_1"
  param {
    lr_mult: 1
    decay_mult: 1
  }
  param {
    lr_mult: 1
    decay_mult: 1
  }
  scale_param {
    bias_term: true
    bias_filler {
      type: "constant"
      value: 0
    }
  }
}
layer {
  name: "relu5_1"
  type: "ReLU"
  bottom: "conv5_1"
  top: "conv5_1"
}
layer {
  name: "conv5_2"
  type: "Convolution"
  bottom: "conv5_1"
  top: "conv5_2"
  param {
    lr_mult: 1
    decay_mult: 1
  }
  convolution_param {
    num_output: 32
    bias_term: false
    pad: 1
    kernel_size: 3
    weight_filler {
      type: "xavier"
    }
  }
}
layer {
  name: "bn5_2"
  type: "BatchNorm"
  bottom: "conv5_2"
  top: "conv5_2"
  param {
    lr_mult: 0
  }
  param {
    lr_mult: 0
  }
  param {
    lr_mult: 0
  }
  batch_norm_param {
    use_global_stats: false
  }
}
layer {
  name: "scale5_2"
  type: "Scale"
  bottom: "conv5_2"
  top: "conv5_2"
  param {
    lr_mult: 1
    decay_mult: 1
  }
  param {
    lr_mult: 1
    decay_mult: 1
  }
  scale_param {
    bias_term: true
    bias_filler {
      type: "constant"
      value: 0
    }
  }
}
layer {
  name: "relu5_2"
  type: "ReLU"
  bottom: "conv5_2"
  top: "conv5_2"
}
layer {
  name: "pool5"
  type: "Pooling"
  bottom: "conv5_2"
  top: "pool5"
  top: "pool5_mask"
  pooling_param {
    pool: MAX
    kernel_size: 2
    stride: 2
  }
}
layer {
  name: "upsample5"
  type: "Upsample"
  bottom: "pool5"
  bottom: "pool5_mask"
  top: "pool5_D"
  upsample_param {
    scale: 2
    upsample_h: 14
    upsample_w: 14
  }
}
layer {
  name: "conv5_2_D"
  type: "Convolution"
  bottom: "pool5_D"
  top: "conv5_2_D"
  param {
    lr_mult: 1
    decay_mult: 1
  }
  convolution_param {
    num_output: 32
    bias_term: false
    pad: 1
    kernel_size: 3
    weight_filler {
      type: "xavier"
    }
  }
}
layer {
  name: "bn5_2_D"
  type: "BatchNorm"
  bottom: "conv5_2_D"
  top: "conv5_2_D"
  param {
    lr_mult: 0
  }
  param {
    lr_mult: 0
  }
  param {
    lr_mult: 0
  }
  batch_norm_param {
    use_global_stats: false
  }
}
layer {
  name: "scale5_2_D"
  type: "Scale"
  bottom: "conv5_2_D"
  top: "conv5_2_D"
  param {
    lr_mult: 1
    decay_mult: 1
  }
  param {
    lr_mult: 1
    decay_mult: 1
  }
  scale_param {
    bias_term: true
    bias_filler {
      type: "constant"
      value: 0
    }
  }
}
layer {
  name: "conv5_1_D"
  type: "Convolution"
  bottom: "conv5_2_D"
  top: "conv5_1_D"
  param {
    lr_mult: 1
    decay_mult: 1
  }
  convolution_param {
    num_output: 32
    bias_term: false
    pad: 1
    kernel_size: 3
    weight_filler {
      type: "xavier"
    }
  }
}
layer {
  name: "bn5_1_D"
  type: "BatchNorm"
  bottom: "conv5_1_D"
  top: "conv5_1_D"
  param {
    lr_mult: 0
  }
  param {
    lr_mult: 0
  }
  param {
    lr_mult: 0
  }
  batch_norm_param {
    use_global_stats: false
  }
}
layer {
  name: "scale5_1_D"
  type: "Scale"
  bottom: "conv5_1_D"
  top: "conv5_1_D"
  param {
    lr_mult: 1
    decay_mult: 1
  }
  param {
    lr_mult: 1
    decay_mult: 1
  }
  scale_param {
    bias_term: true
    bias_filler {
      type: "constant"
      value: 0
    }
  }
}
layer {
  name: "upsample4"
  type: "Upsample"
  bottom: "conv5_1_D"
  bottom: "pool4_mask"
  top: "pool4_D"
  upsample_param {
    scale: 2
    upsample_h: 28
    upsample_w: 28
  }
}
layer {
  name: "conv4_2_D"
  type: "Convolution"
  bottom: "pool4_D"
  top: "conv4_2_D"
  param {
    lr_mult: 1
    decay_mult: 1
  }
  convolution_param {
    num_output: 32
    bias_term: false
    pad: 1
    kernel_size: 3
    weight_filler {
      type: "xavier"
    }
  }
}
layer {
  name: "bn4_2_D"
  type: "BatchNorm"
  bottom: "conv4_2_D"
  top: "conv4_2_D"
  param {
    lr_mult: 0
  }
  param {
    lr_mult: 0
  }
  param {
    lr_mult: 0
  }
  batch_norm_param {
    use_global_stats: false
  }
}
layer {
  name: "scale4_2_D"
  type: "Scale"
  bottom: "conv4_2_D"
  top: "conv4_2_D"
  param {
    lr_mult: 1
    decay_mult: 1
  }
  param {
    lr_mult: 1
    decay_mult: 1
  }
  scale_param {
    bias_term: true
    bias_filler {
      type: "constant"
      value: 0
    }
  }
}
layer {
  name: "conv4_1_D"
  type: "Convolution"
  bottom: "conv4_2_D"
  top: "conv4_1_D"
  param {
    lr_mult: 1
    decay_mult: 1
  }
  convolution_param {
    num_output: 32
    bias_term: false
    pad: 1
    kernel_size: 3
    weight_filler {
      type: "xavier"
    }
  }
}
layer {
  name: "bn4_1_D"
  type: "BatchNorm"
  bottom: "conv4_1_D"
  top: "conv4_1_D"
  param {
    lr_mult: 0
  }
  param {
    lr_mult: 0
  }
  param {
    lr_mult: 0
  }
  batch_norm_param {
    use_global_stats: false
  }
}
layer {
  name: "scale4_1_D"
  type: "Scale"
  bottom: "conv4_1_D"
  top: "conv4_1_D"
  param {
    lr_mult: 1
    decay_mult: 1
  }
  param {
    lr_mult: 1
    decay_mult: 1
  }
  scale_param {
    bias_term: true
    bias_filler {
      type: "constant"
      value: 0
    }
  }
}
layer {
  name: "upsample3"
  type: "Upsample"
  bottom: "conv4_1_D"
  bottom: "pool3_mask"
  top: "pool3_D"
  upsample_param {
    scale: 2
    upsample_h: 56
    upsample_w: 56
  }
}
layer {
  name: "conv3_2_D"
  type: "Convolution"
  bottom: "pool3_D"
  top: "conv3_2_D"
  param {
    lr_mult: 1
    decay_mult: 1
  }
  param {
    lr_mult: 1
    decay_mult: 1
  }
  convolution_param {
    num_output: 32
    pad: 1
    kernel_size: 3
    weight_filler {
      type: "xavier"
    }
    bias_filler {
      type: "constant"
      value: 0
    }
  }
}
layer {
  name: "bn3_2_D"
  type: "BatchNorm"
  bottom: "conv3_2_D"
  top: "conv3_2_D"
  param {
    lr_mult: 0
  }
  param {
    lr_mult: 0
  }
  param {
    lr_mult: 0
  }
  batch_norm_param {
    use_global_stats: false
  }
}
layer {
  name: "scale3_2_D"
  type: "Scale"
  bottom: "conv3_2_D"
  top: "conv3_2_D"
  param {
    lr_mult: 1
    decay_mult: 1
  }
  param {
    lr_mult: 1
    decay_mult: 1
  }
  scale_param {
    bias_term: true
    bias_filler {
      type: "constant"
      value: 0
    }
  }
}
layer {
  name: "conv3_1_D"
  type: "Convolution"
  bottom: "conv3_2_D"
  top: "conv3_1_D"
  param {
    lr_mult: 1
    decay_mult: 1
  }
  convolution_param {
    num_output: 32
    bias_term: false
    pad: 1
    kernel_size: 3
    weight_filler {
      type: "xavier"
    }
  }
}
layer {
  name: "bn3_1_D"
  type: "BatchNorm"
  bottom: "conv3_1_D"
  top: "conv3_1_D"
  param {
    lr_mult: 0
  }
  param {
    lr_mult: 0
  }
  param {
    lr_mult: 0
  }
  batch_norm_param {
    use_global_stats: false
  }
}
layer {
  name: "scale3_1_D"
  type: "Scale"
  bottom: "conv3_1_D"
  top: "conv3_1_D"
  param {
    lr_mult: 1
    decay_mult: 1
  }
  param {
    lr_mult: 1
    decay_mult: 1
  }
  scale_param {
    bias_term: true
    bias_filler {
      type: "constant"
      value: 0
    }
  }
}
layer {
  name: "upsample2"
  type: "Upsample"
  bottom: "conv3_1_D"
  bottom: "pool2_mask"
  top: "pool2_D"
  upsample_param {
    scale: 2
    upsample_h: 112
    upsample_w: 112
  }
}
layer {
  name: "conv2_2_D"
  type: "Convolution"
  bottom: "pool2_D"
  top: "conv2_2_D"
  param {
    lr_mult: 1
    decay_mult: 1
  }
  convolution_param {
    num_output: 32
    bias_term: false
    pad: 1
    kernel_size: 3
    weight_filler {
      type: "xavier"
    }
  }
}
layer {
  name: "bn2_2_D"
  type: "BatchNorm"
  bottom: "conv2_2_D"
  top: "conv2_2_D"
  param {
    lr_mult: 0
  }
  param {
    lr_mult: 0
  }
  param {
    lr_mult: 0
  }
  batch_norm_param {
    use_global_stats: false
  }
}
layer {
  name: "scale2_2_D"
  type: "Scale"
  bottom: "conv2_2_D"
  top: "conv2_2_D"
  param {
    lr_mult: 1
    decay_mult: 1
  }
  param {
    lr_mult: 1
    decay_mult: 1
  }
  scale_param {
    bias_term: true
    bias_filler {
      type: "constant"
      value: 0
    }
  }
}
layer {
  name: "conv2_1_D"
  type: "Convolution"
  bottom: "conv2_2_D"
  top: "conv2_1_D"
  param {
    lr_mult: 1
    decay_mult: 1
  }
  convolution_param {
    num_output: 32
    bias_term: false
    pad: 1
    kernel_size: 3
    weight_filler {
      type: "xavier"
    }
  }
}
layer {
  name: "bn2_1_D"
  type: "BatchNorm"
  bottom: "conv2_1_D"
  top: "conv2_1_D"
  param {
    lr_mult: 0
  }
  param {
    lr_mult: 0
  }
  param {
    lr_mult: 0
  }
  batch_norm_param {
    use_global_stats: false
  }
}
layer {
  name: "scale2_1_D"
  type: "Scale"
  bottom: "conv2_1_D"
  top: "conv2_1_D"
  param {
    lr_mult: 1
    decay_mult: 1
  }
  param {
    lr_mult: 1
    decay_mult: 1
  }
  scale_param {
    bias_term: true
    bias_filler {
      type: "constant"
      value: 0
    }
  }
}
layer {
  name: "upsample1"
  type: "Upsample"
  bottom: "conv2_1_D"
  bottom: "pool1_mask"
  top: "pool1_D"
  upsample_param {
    scale: 2
    upsample_h: 224
    upsample_w: 224
  }
}
layer {
  name: "conv1_2_D"
  type: "Convolution"
  bottom: "pool1_D"
  top: "conv1_2_D"
  param {
    lr_mult: 1
    decay_mult: 1
  }
  convolution_param {
    num_output: 32
    bias_term: false
    pad: 1
    kernel_size: 3
    weight_filler {
      type: "xavier"
    }
  }
}
layer {
  name: "bn1_2_D"
  type: "BatchNorm"
  bottom: "conv1_2_D"
  top: "conv1_2_D"
  param {
    lr_mult: 0
  }
  param {
    lr_mult: 0
  }
  param {
    lr_mult: 0
  }
  batch_norm_param {
    use_global_stats: false
  }
}
layer {
  name: "scale1_2_D"
  type: "Scale"
  bottom: "conv1_2_D"
  top: "conv1_2_D"
  param {
    lr_mult: 1
    decay_mult: 1
  }
  param {
    lr_mult: 1
    decay_mult: 1
  }
  scale_param {
    bias_term: true
    bias_filler {
      type: "constant"
      value: 0
    }
  }
}
layer {
  name: "conv1_1_D"
  type: "Convolution"
  bottom: "conv1_2_D"
  top: "conv1_1_D"
  param {
    lr_mult: 1
    decay_mult: 1
  }
  param {
    lr_mult: 0.1
    decay_mult: 1
  }
  convolution_param {
    num_output: 2
    bias_term: true
    pad: 1
    kernel_size: 3
    weight_filler {
      type: "xavier"
    }
    bias_filler {
      type: "constant"
    }
  }
}
layer {
  name: "loss"
  type: "SoftmaxWithLoss"
  bottom: "conv1_1_D"
  bottom: "label"
  top: "loss"
}
layer {
  name: "accuracy"
  type: "Accuracy"
  bottom: "conv1_1_D"
  bottom: "label"
  top: "accuracy"
}
I0624 10:51:03.638015  6995 layer_factory.hpp:77] Creating layer data
I0624 10:51:03.638053  6995 net.cpp:91] Creating Layer data
I0624 10:51:03.638061  6995 net.cpp:399] data -> data
I0624 10:51:03.638085  6995 net.cpp:399] data -> label
I0624 10:51:03.638511  6995 dense_image_data_layer.cpp:38] Opening file data/train.txt
I0624 10:51:03.641566  6995 dense_image_data_layer.cpp:48] Shuffling data
I0624 10:51:03.642232  6995 dense_image_data_layer.cpp:53] A total of 4930 examples.
I0624 10:51:03.927980  6995 dense_image_data_layer.cpp:92] output data size: 1,1,224,224
I0624 10:51:03.929770  6995 net.cpp:141] Setting up data
I0624 10:51:03.929790  6995 net.cpp:148] Top shape: 1 1 224 224 (50176)
I0624 10:51:03.929795  6995 net.cpp:148] Top shape: 1 1 224 224 (50176)
I0624 10:51:03.929796  6995 net.cpp:156] Memory required for data: 401408
I0624 10:51:03.929803  6995 layer_factory.hpp:77] Creating layer label_data_1_split
I0624 10:51:03.929818  6995 net.cpp:91] Creating Layer label_data_1_split
I0624 10:51:03.929823  6995 net.cpp:425] label_data_1_split <- label
I0624 10:51:03.929832  6995 net.cpp:399] label_data_1_split -> label_data_1_split_0
I0624 10:51:03.929857  6995 net.cpp:399] label_data_1_split -> label_data_1_split_1
I0624 10:51:03.929909  6995 net.cpp:141] Setting up label_data_1_split
I0624 10:51:03.929919  6995 net.cpp:148] Top shape: 1 1 224 224 (50176)
I0624 10:51:03.929921  6995 net.cpp:148] Top shape: 1 1 224 224 (50176)
I0624 10:51:03.929924  6995 net.cpp:156] Memory required for data: 802816
I0624 10:51:03.929926  6995 layer_factory.hpp:77] Creating layer conv1_1
I0624 10:51:03.929940  6995 net.cpp:91] Creating Layer conv1_1
I0624 10:51:03.929944  6995 net.cpp:425] conv1_1 <- data
I0624 10:51:03.929949  6995 net.cpp:399] conv1_1 -> conv1_1
I0624 10:51:04.163069  6995 net.cpp:141] Setting up conv1_1
I0624 10:51:04.163094  6995 net.cpp:148] Top shape: 1 32 224 224 (1605632)
I0624 10:51:04.163097  6995 net.cpp:156] Memory required for data: 7225344
I0624 10:51:04.163108  6995 layer_factory.hpp:77] Creating layer bn1_1
I0624 10:51:04.163126  6995 net.cpp:91] Creating Layer bn1_1
I0624 10:51:04.163130  6995 net.cpp:425] bn1_1 <- conv1_1
I0624 10:51:04.163135  6995 net.cpp:386] bn1_1 -> conv1_1 (in-place)
I0624 10:51:04.163327  6995 net.cpp:141] Setting up bn1_1
I0624 10:51:04.163336  6995 net.cpp:148] Top shape: 1 32 224 224 (1605632)
I0624 10:51:04.163339  6995 net.cpp:156] Memory required for data: 13647872
I0624 10:51:04.163348  6995 layer_factory.hpp:77] Creating layer scale1_1
I0624 10:51:04.163357  6995 net.cpp:91] Creating Layer scale1_1
I0624 10:51:04.163359  6995 net.cpp:425] scale1_1 <- conv1_1
I0624 10:51:04.163363  6995 net.cpp:386] scale1_1 -> conv1_1 (in-place)
I0624 10:51:04.163399  6995 layer_factory.hpp:77] Creating layer scale1_1
I0624 10:51:04.163557  6995 net.cpp:141] Setting up scale1_1
I0624 10:51:04.163563  6995 net.cpp:148] Top shape: 1 32 224 224 (1605632)
I0624 10:51:04.163566  6995 net.cpp:156] Memory required for data: 20070400
I0624 10:51:04.163573  6995 layer_factory.hpp:77] Creating layer relu1_1
I0624 10:51:04.163578  6995 net.cpp:91] Creating Layer relu1_1
I0624 10:51:04.163580  6995 net.cpp:425] relu1_1 <- conv1_1
I0624 10:51:04.163583  6995 net.cpp:386] relu1_1 -> conv1_1 (in-place)
I0624 10:51:04.163872  6995 net.cpp:141] Setting up relu1_1
I0624 10:51:04.163882  6995 net.cpp:148] Top shape: 1 32 224 224 (1605632)
I0624 10:51:04.163885  6995 net.cpp:156] Memory required for data: 26492928
I0624 10:51:04.163888  6995 layer_factory.hpp:77] Creating layer conv1_2
I0624 10:51:04.163898  6995 net.cpp:91] Creating Layer conv1_2
I0624 10:51:04.163902  6995 net.cpp:425] conv1_2 <- conv1_1
I0624 10:51:04.163905  6995 net.cpp:399] conv1_2 -> conv1_2
I0624 10:51:04.165493  6995 net.cpp:141] Setting up conv1_2
I0624 10:51:04.165505  6995 net.cpp:148] Top shape: 1 32 224 224 (1605632)
I0624 10:51:04.165508  6995 net.cpp:156] Memory required for data: 32915456
I0624 10:51:04.165513  6995 layer_factory.hpp:77] Creating layer bn1_2
I0624 10:51:04.165519  6995 net.cpp:91] Creating Layer bn1_2
I0624 10:51:04.165523  6995 net.cpp:425] bn1_2 <- conv1_2
I0624 10:51:04.165527  6995 net.cpp:386] bn1_2 -> conv1_2 (in-place)
I0624 10:51:04.165712  6995 net.cpp:141] Setting up bn1_2
I0624 10:51:04.165724  6995 net.cpp:148] Top shape: 1 32 224 224 (1605632)
I0624 10:51:04.165726  6995 net.cpp:156] Memory required for data: 39337984
I0624 10:51:04.165734  6995 layer_factory.hpp:77] Creating layer scale1_2
I0624 10:51:04.165743  6995 net.cpp:91] Creating Layer scale1_2
I0624 10:51:04.165746  6995 net.cpp:425] scale1_2 <- conv1_2
I0624 10:51:04.165750  6995 net.cpp:386] scale1_2 -> conv1_2 (in-place)
I0624 10:51:04.165782  6995 layer_factory.hpp:77] Creating layer scale1_2
I0624 10:51:04.165963  6995 net.cpp:141] Setting up scale1_2
I0624 10:51:04.165971  6995 net.cpp:148] Top shape: 1 32 224 224 (1605632)
I0624 10:51:04.165972  6995 net.cpp:156] Memory required for data: 45760512
I0624 10:51:04.165977  6995 layer_factory.hpp:77] Creating layer relu1_2
I0624 10:51:04.165982  6995 net.cpp:91] Creating Layer relu1_2
I0624 10:51:04.165983  6995 net.cpp:425] relu1_2 <- conv1_2
I0624 10:51:04.165987  6995 net.cpp:386] relu1_2 -> conv1_2 (in-place)
I0624 10:51:04.166146  6995 net.cpp:141] Setting up relu1_2
I0624 10:51:04.166154  6995 net.cpp:148] Top shape: 1 32 224 224 (1605632)
I0624 10:51:04.166157  6995 net.cpp:156] Memory required for data: 52183040
I0624 10:51:04.166159  6995 layer_factory.hpp:77] Creating layer pool1
I0624 10:51:04.166162  6995 layer_factory.cpp:90] cuDNN does not support multiple tops. Using Caffe's own pooling layer.
I0624 10:51:04.166168  6995 net.cpp:91] Creating Layer pool1
I0624 10:51:04.166172  6995 net.cpp:425] pool1 <- conv1_2
I0624 10:51:04.166175  6995 net.cpp:399] pool1 -> pool1
I0624 10:51:04.166182  6995 net.cpp:399] pool1 -> pool1_mask
I0624 10:51:04.166226  6995 net.cpp:141] Setting up pool1
I0624 10:51:04.166231  6995 net.cpp:148] Top shape: 1 32 112 112 (401408)
I0624 10:51:04.166234  6995 net.cpp:148] Top shape: 1 32 112 112 (401408)
I0624 10:51:04.166236  6995 net.cpp:156] Memory required for data: 55394304
I0624 10:51:04.166239  6995 layer_factory.hpp:77] Creating layer conv2_1
I0624 10:51:04.166246  6995 net.cpp:91] Creating Layer conv2_1
I0624 10:51:04.166249  6995 net.cpp:425] conv2_1 <- pool1
I0624 10:51:04.166252  6995 net.cpp:399] conv2_1 -> conv2_1
I0624 10:51:04.167117  6995 net.cpp:141] Setting up conv2_1
I0624 10:51:04.167129  6995 net.cpp:148] Top shape: 1 32 112 112 (401408)
I0624 10:51:04.167131  6995 net.cpp:156] Memory required for data: 56999936
I0624 10:51:04.167135  6995 layer_factory.hpp:77] Creating layer bn2_1
I0624 10:51:04.167141  6995 net.cpp:91] Creating Layer bn2_1
I0624 10:51:04.167145  6995 net.cpp:425] bn2_1 <- conv2_1
I0624 10:51:04.167153  6995 net.cpp:386] bn2_1 -> conv2_1 (in-place)
I0624 10:51:04.167314  6995 net.cpp:141] Setting up bn2_1
I0624 10:51:04.167320  6995 net.cpp:148] Top shape: 1 32 112 112 (401408)
I0624 10:51:04.167322  6995 net.cpp:156] Memory required for data: 58605568
I0624 10:51:04.167328  6995 layer_factory.hpp:77] Creating layer scale2_1
I0624 10:51:04.167335  6995 net.cpp:91] Creating Layer scale2_1
I0624 10:51:04.167336  6995 net.cpp:425] scale2_1 <- conv2_1
I0624 10:51:04.167341  6995 net.cpp:386] scale2_1 -> conv2_1 (in-place)
I0624 10:51:04.167371  6995 layer_factory.hpp:77] Creating layer scale2_1
I0624 10:51:04.167467  6995 net.cpp:141] Setting up scale2_1
I0624 10:51:04.167474  6995 net.cpp:148] Top shape: 1 32 112 112 (401408)
I0624 10:51:04.167476  6995 net.cpp:156] Memory required for data: 60211200
I0624 10:51:04.167484  6995 layer_factory.hpp:77] Creating layer relu2_1
I0624 10:51:04.167487  6995 net.cpp:91] Creating Layer relu2_1
I0624 10:51:04.167490  6995 net.cpp:425] relu2_1 <- conv2_1
I0624 10:51:04.167495  6995 net.cpp:386] relu2_1 -> conv2_1 (in-place)
I0624 10:51:04.167762  6995 net.cpp:141] Setting up relu2_1
I0624 10:51:04.167773  6995 net.cpp:148] Top shape: 1 32 112 112 (401408)
I0624 10:51:04.167774  6995 net.cpp:156] Memory required for data: 61816832
I0624 10:51:04.167778  6995 layer_factory.hpp:77] Creating layer conv2_2
I0624 10:51:04.167786  6995 net.cpp:91] Creating Layer conv2_2
I0624 10:51:04.167789  6995 net.cpp:425] conv2_2 <- conv2_1
I0624 10:51:04.167794  6995 net.cpp:399] conv2_2 -> conv2_2
I0624 10:51:04.168558  6995 net.cpp:141] Setting up conv2_2
I0624 10:51:04.168570  6995 net.cpp:148] Top shape: 1 32 112 112 (401408)
I0624 10:51:04.168573  6995 net.cpp:156] Memory required for data: 63422464
I0624 10:51:04.168577  6995 layer_factory.hpp:77] Creating layer bn2_2
I0624 10:51:04.168586  6995 net.cpp:91] Creating Layer bn2_2
I0624 10:51:04.168588  6995 net.cpp:425] bn2_2 <- conv2_2
I0624 10:51:04.168591  6995 net.cpp:386] bn2_2 -> conv2_2 (in-place)
I0624 10:51:04.168748  6995 net.cpp:141] Setting up bn2_2
I0624 10:51:04.168756  6995 net.cpp:148] Top shape: 1 32 112 112 (401408)
I0624 10:51:04.168757  6995 net.cpp:156] Memory required for data: 65028096
I0624 10:51:04.168762  6995 layer_factory.hpp:77] Creating layer scale2_2
I0624 10:51:04.168768  6995 net.cpp:91] Creating Layer scale2_2
I0624 10:51:04.168771  6995 net.cpp:425] scale2_2 <- conv2_2
I0624 10:51:04.168774  6995 net.cpp:386] scale2_2 -> conv2_2 (in-place)
I0624 10:51:04.168820  6995 layer_factory.hpp:77] Creating layer scale2_2
I0624 10:51:04.168921  6995 net.cpp:141] Setting up scale2_2
I0624 10:51:04.168928  6995 net.cpp:148] Top shape: 1 32 112 112 (401408)
I0624 10:51:04.168931  6995 net.cpp:156] Memory required for data: 66633728
I0624 10:51:04.168936  6995 layer_factory.hpp:77] Creating layer relu2_2
I0624 10:51:04.168939  6995 net.cpp:91] Creating Layer relu2_2
I0624 10:51:04.168942  6995 net.cpp:425] relu2_2 <- conv2_2
I0624 10:51:04.168946  6995 net.cpp:386] relu2_2 -> conv2_2 (in-place)
I0624 10:51:04.169211  6995 net.cpp:141] Setting up relu2_2
I0624 10:51:04.169221  6995 net.cpp:148] Top shape: 1 32 112 112 (401408)
I0624 10:51:04.169224  6995 net.cpp:156] Memory required for data: 68239360
I0624 10:51:04.169227  6995 layer_factory.hpp:77] Creating layer pool2
I0624 10:51:04.169230  6995 layer_factory.cpp:90] cuDNN does not support multiple tops. Using Caffe's own pooling layer.
I0624 10:51:04.169234  6995 net.cpp:91] Creating Layer pool2
I0624 10:51:04.169236  6995 net.cpp:425] pool2 <- conv2_2
I0624 10:51:04.169242  6995 net.cpp:399] pool2 -> pool2
I0624 10:51:04.169247  6995 net.cpp:399] pool2 -> pool2_mask
I0624 10:51:04.169282  6995 net.cpp:141] Setting up pool2
I0624 10:51:04.169291  6995 net.cpp:148] Top shape: 1 32 56 56 (100352)
I0624 10:51:04.169296  6995 net.cpp:148] Top shape: 1 32 56 56 (100352)
I0624 10:51:04.169298  6995 net.cpp:156] Memory required for data: 69042176
I0624 10:51:04.169302  6995 layer_factory.hpp:77] Creating layer conv3_1
I0624 10:51:04.169315  6995 net.cpp:91] Creating Layer conv3_1
I0624 10:51:04.169320  6995 net.cpp:425] conv3_1 <- pool2
I0624 10:51:04.169327  6995 net.cpp:399] conv3_1 -> conv3_1
I0624 10:51:04.170207  6995 net.cpp:141] Setting up conv3_1
I0624 10:51:04.170220  6995 net.cpp:148] Top shape: 1 32 56 56 (100352)
I0624 10:51:04.170224  6995 net.cpp:156] Memory required for data: 69443584
I0624 10:51:04.170231  6995 layer_factory.hpp:77] Creating layer bn3_1
I0624 10:51:04.170243  6995 net.cpp:91] Creating Layer bn3_1
I0624 10:51:04.170248  6995 net.cpp:425] bn3_1 <- conv3_1
I0624 10:51:04.170253  6995 net.cpp:386] bn3_1 -> conv3_1 (in-place)
I0624 10:51:04.171006  6995 net.cpp:141] Setting up bn3_1
I0624 10:51:04.171018  6995 net.cpp:148] Top shape: 1 32 56 56 (100352)
I0624 10:51:04.171022  6995 net.cpp:156] Memory required for data: 69844992
I0624 10:51:04.171032  6995 layer_factory.hpp:77] Creating layer scale3_1
I0624 10:51:04.171044  6995 net.cpp:91] Creating Layer scale3_1
I0624 10:51:04.171049  6995 net.cpp:425] scale3_1 <- conv3_1
I0624 10:51:04.171056  6995 net.cpp:386] scale3_1 -> conv3_1 (in-place)
I0624 10:51:04.171106  6995 layer_factory.hpp:77] Creating layer scale3_1
I0624 10:51:04.171233  6995 net.cpp:141] Setting up scale3_1
I0624 10:51:04.171244  6995 net.cpp:148] Top shape: 1 32 56 56 (100352)
I0624 10:51:04.171247  6995 net.cpp:156] Memory required for data: 70246400
I0624 10:51:04.171255  6995 layer_factory.hpp:77] Creating layer relu3_1
I0624 10:51:04.171262  6995 net.cpp:91] Creating Layer relu3_1
I0624 10:51:04.171267  6995 net.cpp:425] relu3_1 <- conv3_1
I0624 10:51:04.171275  6995 net.cpp:386] relu3_1 -> conv3_1 (in-place)
I0624 10:51:04.171425  6995 net.cpp:141] Setting up relu3_1
I0624 10:51:04.171437  6995 net.cpp:148] Top shape: 1 32 56 56 (100352)
I0624 10:51:04.171440  6995 net.cpp:156] Memory required for data: 70647808
I0624 10:51:04.171445  6995 layer_factory.hpp:77] Creating layer conv3_2
I0624 10:51:04.171458  6995 net.cpp:91] Creating Layer conv3_2
I0624 10:51:04.171461  6995 net.cpp:425] conv3_2 <- conv3_1
I0624 10:51:04.171471  6995 net.cpp:399] conv3_2 -> conv3_2
I0624 10:51:04.172365  6995 net.cpp:141] Setting up conv3_2
I0624 10:51:04.172379  6995 net.cpp:148] Top shape: 1 32 56 56 (100352)
I0624 10:51:04.172382  6995 net.cpp:156] Memory required for data: 71049216
I0624 10:51:04.172389  6995 layer_factory.hpp:77] Creating layer bn3_2
I0624 10:51:04.172399  6995 net.cpp:91] Creating Layer bn3_2
I0624 10:51:04.172405  6995 net.cpp:425] bn3_2 <- conv3_2
I0624 10:51:04.172425  6995 net.cpp:386] bn3_2 -> conv3_2 (in-place)
I0624 10:51:04.172593  6995 net.cpp:141] Setting up bn3_2
I0624 10:51:04.172603  6995 net.cpp:148] Top shape: 1 32 56 56 (100352)
I0624 10:51:04.172607  6995 net.cpp:156] Memory required for data: 71450624
I0624 10:51:04.172623  6995 layer_factory.hpp:77] Creating layer scale3_2
I0624 10:51:04.172637  6995 net.cpp:91] Creating Layer scale3_2
I0624 10:51:04.172644  6995 net.cpp:425] scale3_2 <- conv3_2
I0624 10:51:04.172653  6995 net.cpp:386] scale3_2 -> conv3_2 (in-place)
I0624 10:51:04.172698  6995 layer_factory.hpp:77] Creating layer scale3_2
I0624 10:51:04.172811  6995 net.cpp:141] Setting up scale3_2
I0624 10:51:04.172821  6995 net.cpp:148] Top shape: 1 32 56 56 (100352)
I0624 10:51:04.172823  6995 net.cpp:156] Memory required for data: 71852032
I0624 10:51:04.172830  6995 layer_factory.hpp:77] Creating layer relu3_2
I0624 10:51:04.172838  6995 net.cpp:91] Creating Layer relu3_2
I0624 10:51:04.172842  6995 net.cpp:425] relu3_2 <- conv3_2
I0624 10:51:04.172850  6995 net.cpp:386] relu3_2 -> conv3_2 (in-place)
I0624 10:51:04.173130  6995 net.cpp:141] Setting up relu3_2
I0624 10:51:04.173143  6995 net.cpp:148] Top shape: 1 32 56 56 (100352)
I0624 10:51:04.173147  6995 net.cpp:156] Memory required for data: 72253440
I0624 10:51:04.173153  6995 layer_factory.hpp:77] Creating layer pool3
I0624 10:51:04.173158  6995 layer_factory.cpp:90] cuDNN does not support multiple tops. Using Caffe's own pooling layer.
I0624 10:51:04.173166  6995 net.cpp:91] Creating Layer pool3
I0624 10:51:04.173169  6995 net.cpp:425] pool3 <- conv3_2
I0624 10:51:04.173178  6995 net.cpp:399] pool3 -> pool3
I0624 10:51:04.173187  6995 net.cpp:399] pool3 -> pool3_mask
I0624 10:51:04.173234  6995 net.cpp:141] Setting up pool3
I0624 10:51:04.173243  6995 net.cpp:148] Top shape: 1 32 28 28 (25088)
I0624 10:51:04.173250  6995 net.cpp:148] Top shape: 1 32 28 28 (25088)
I0624 10:51:04.173254  6995 net.cpp:156] Memory required for data: 72454144
I0624 10:51:04.173259  6995 layer_factory.hpp:77] Creating layer conv4_1
I0624 10:51:04.173270  6995 net.cpp:91] Creating Layer conv4_1
I0624 10:51:04.173275  6995 net.cpp:425] conv4_1 <- pool3
I0624 10:51:04.173282  6995 net.cpp:399] conv4_1 -> conv4_1
I0624 10:51:04.174057  6995 net.cpp:141] Setting up conv4_1
I0624 10:51:04.174069  6995 net.cpp:148] Top shape: 1 32 28 28 (25088)
I0624 10:51:04.174074  6995 net.cpp:156] Memory required for data: 72554496
I0624 10:51:04.174082  6995 layer_factory.hpp:77] Creating layer bn4_1
I0624 10:51:04.174091  6995 net.cpp:91] Creating Layer bn4_1
I0624 10:51:04.174096  6995 net.cpp:425] bn4_1 <- conv4_1
I0624 10:51:04.174103  6995 net.cpp:386] bn4_1 -> conv4_1 (in-place)
I0624 10:51:04.174275  6995 net.cpp:141] Setting up bn4_1
I0624 10:51:04.174284  6995 net.cpp:148] Top shape: 1 32 28 28 (25088)
I0624 10:51:04.174288  6995 net.cpp:156] Memory required for data: 72654848
I0624 10:51:04.174298  6995 layer_factory.hpp:77] Creating layer scale4_1
I0624 10:51:04.174306  6995 net.cpp:91] Creating Layer scale4_1
I0624 10:51:04.174311  6995 net.cpp:425] scale4_1 <- conv4_1
I0624 10:51:04.174317  6995 net.cpp:386] scale4_1 -> conv4_1 (in-place)
I0624 10:51:04.174365  6995 layer_factory.hpp:77] Creating layer scale4_1
I0624 10:51:04.174481  6995 net.cpp:141] Setting up scale4_1
I0624 10:51:04.174490  6995 net.cpp:148] Top shape: 1 32 28 28 (25088)
I0624 10:51:04.174494  6995 net.cpp:156] Memory required for data: 72755200
I0624 10:51:04.174501  6995 layer_factory.hpp:77] Creating layer relu4_1
I0624 10:51:04.174513  6995 net.cpp:91] Creating Layer relu4_1
I0624 10:51:04.174520  6995 net.cpp:425] relu4_1 <- conv4_1
I0624 10:51:04.174525  6995 net.cpp:386] relu4_1 -> conv4_1 (in-place)
I0624 10:51:04.174804  6995 net.cpp:141] Setting up relu4_1
I0624 10:51:04.174816  6995 net.cpp:148] Top shape: 1 32 28 28 (25088)
I0624 10:51:04.174820  6995 net.cpp:156] Memory required for data: 72855552
I0624 10:51:04.174825  6995 layer_factory.hpp:77] Creating layer conv4_2
I0624 10:51:04.174839  6995 net.cpp:91] Creating Layer conv4_2
I0624 10:51:04.174855  6995 net.cpp:425] conv4_2 <- conv4_1
I0624 10:51:04.174866  6995 net.cpp:399] conv4_2 -> conv4_2
I0624 10:51:04.175901  6995 net.cpp:141] Setting up conv4_2
I0624 10:51:04.175915  6995 net.cpp:148] Top shape: 1 32 28 28 (25088)
I0624 10:51:04.175920  6995 net.cpp:156] Memory required for data: 72955904
I0624 10:51:04.175926  6995 layer_factory.hpp:77] Creating layer bn4_2
I0624 10:51:04.175935  6995 net.cpp:91] Creating Layer bn4_2
I0624 10:51:04.175940  6995 net.cpp:425] bn4_2 <- conv4_2
I0624 10:51:04.175948  6995 net.cpp:386] bn4_2 -> conv4_2 (in-place)
I0624 10:51:04.176125  6995 net.cpp:141] Setting up bn4_2
I0624 10:51:04.176134  6995 net.cpp:148] Top shape: 1 32 28 28 (25088)
I0624 10:51:04.176137  6995 net.cpp:156] Memory required for data: 73056256
I0624 10:51:04.176147  6995 layer_factory.hpp:77] Creating layer scale4_2
I0624 10:51:04.176162  6995 net.cpp:91] Creating Layer scale4_2
I0624 10:51:04.176167  6995 net.cpp:425] scale4_2 <- conv4_2
I0624 10:51:04.176173  6995 net.cpp:386] scale4_2 -> conv4_2 (in-place)
I0624 10:51:04.176219  6995 layer_factory.hpp:77] Creating layer scale4_2
I0624 10:51:04.176334  6995 net.cpp:141] Setting up scale4_2
I0624 10:51:04.176344  6995 net.cpp:148] Top shape: 1 32 28 28 (25088)
I0624 10:51:04.176347  6995 net.cpp:156] Memory required for data: 73156608
I0624 10:51:04.176355  6995 layer_factory.hpp:77] Creating layer relu4_2
I0624 10:51:04.176364  6995 net.cpp:91] Creating Layer relu4_2
I0624 10:51:04.176369  6995 net.cpp:425] relu4_2 <- conv4_2
I0624 10:51:04.176375  6995 net.cpp:386] relu4_2 -> conv4_2 (in-place)
I0624 10:51:04.176524  6995 net.cpp:141] Setting up relu4_2
I0624 10:51:04.176535  6995 net.cpp:148] Top shape: 1 32 28 28 (25088)
I0624 10:51:04.176539  6995 net.cpp:156] Memory required for data: 73256960
I0624 10:51:04.176543  6995 layer_factory.hpp:77] Creating layer pool4
I0624 10:51:04.176548  6995 layer_factory.cpp:90] cuDNN does not support multiple tops. Using Caffe's own pooling layer.
I0624 10:51:04.176554  6995 net.cpp:91] Creating Layer pool4
I0624 10:51:04.176559  6995 net.cpp:425] pool4 <- conv4_2
I0624 10:51:04.176568  6995 net.cpp:399] pool4 -> pool4
I0624 10:51:04.176575  6995 net.cpp:399] pool4 -> pool4_mask
I0624 10:51:04.176621  6995 net.cpp:141] Setting up pool4
I0624 10:51:04.176630  6995 net.cpp:148] Top shape: 1 32 14 14 (6272)
I0624 10:51:04.176636  6995 net.cpp:148] Top shape: 1 32 14 14 (6272)
I0624 10:51:04.176640  6995 net.cpp:156] Memory required for data: 73307136
I0624 10:51:04.176643  6995 layer_factory.hpp:77] Creating layer conv5_1
I0624 10:51:04.176658  6995 net.cpp:91] Creating Layer conv5_1
I0624 10:51:04.176663  6995 net.cpp:425] conv5_1 <- pool4
I0624 10:51:04.176671  6995 net.cpp:399] conv5_1 -> conv5_1
I0624 10:51:04.177606  6995 net.cpp:141] Setting up conv5_1
I0624 10:51:04.177619  6995 net.cpp:148] Top shape: 1 32 14 14 (6272)
I0624 10:51:04.177623  6995 net.cpp:156] Memory required for data: 73332224
I0624 10:51:04.177630  6995 layer_factory.hpp:77] Creating layer bn5_1
I0624 10:51:04.177641  6995 net.cpp:91] Creating Layer bn5_1
I0624 10:51:04.177646  6995 net.cpp:425] bn5_1 <- conv5_1
I0624 10:51:04.177654  6995 net.cpp:386] bn5_1 -> conv5_1 (in-place)
I0624 10:51:04.177834  6995 net.cpp:141] Setting up bn5_1
I0624 10:51:04.177844  6995 net.cpp:148] Top shape: 1 32 14 14 (6272)
I0624 10:51:04.177847  6995 net.cpp:156] Memory required for data: 73357312
I0624 10:51:04.177856  6995 layer_factory.hpp:77] Creating layer scale5_1
I0624 10:51:04.177865  6995 net.cpp:91] Creating Layer scale5_1
I0624 10:51:04.177870  6995 net.cpp:425] scale5_1 <- conv5_1
I0624 10:51:04.177876  6995 net.cpp:386] scale5_1 -> conv5_1 (in-place)
I0624 10:51:04.177925  6995 layer_factory.hpp:77] Creating layer scale5_1
I0624 10:51:04.178038  6995 net.cpp:141] Setting up scale5_1
I0624 10:51:04.178047  6995 net.cpp:148] Top shape: 1 32 14 14 (6272)
I0624 10:51:04.178051  6995 net.cpp:156] Memory required for data: 73382400
I0624 10:51:04.178058  6995 layer_factory.hpp:77] Creating layer relu5_1
I0624 10:51:04.178066  6995 net.cpp:91] Creating Layer relu5_1
I0624 10:51:04.178081  6995 net.cpp:425] relu5_1 <- conv5_1
I0624 10:51:04.178088  6995 net.cpp:386] relu5_1 -> conv5_1 (in-place)
I0624 10:51:04.178369  6995 net.cpp:141] Setting up relu5_1
I0624 10:51:04.178381  6995 net.cpp:148] Top shape: 1 32 14 14 (6272)
I0624 10:51:04.178385  6995 net.cpp:156] Memory required for data: 73407488
I0624 10:51:04.178390  6995 layer_factory.hpp:77] Creating layer conv5_2
I0624 10:51:04.178403  6995 net.cpp:91] Creating Layer conv5_2
I0624 10:51:04.178409  6995 net.cpp:425] conv5_2 <- conv5_1
I0624 10:51:04.178417  6995 net.cpp:399] conv5_2 -> conv5_2
I0624 10:51:04.179206  6995 net.cpp:141] Setting up conv5_2
I0624 10:51:04.179219  6995 net.cpp:148] Top shape: 1 32 14 14 (6272)
I0624 10:51:04.179224  6995 net.cpp:156] Memory required for data: 73432576
I0624 10:51:04.179230  6995 layer_factory.hpp:77] Creating layer bn5_2
I0624 10:51:04.179239  6995 net.cpp:91] Creating Layer bn5_2
I0624 10:51:04.179244  6995 net.cpp:425] bn5_2 <- conv5_2
I0624 10:51:04.179253  6995 net.cpp:386] bn5_2 -> conv5_2 (in-place)
I0624 10:51:04.179426  6995 net.cpp:141] Setting up bn5_2
I0624 10:51:04.179436  6995 net.cpp:148] Top shape: 1 32 14 14 (6272)
I0624 10:51:04.179440  6995 net.cpp:156] Memory required for data: 73457664
I0624 10:51:04.179450  6995 layer_factory.hpp:77] Creating layer scale5_2
I0624 10:51:04.179461  6995 net.cpp:91] Creating Layer scale5_2
I0624 10:51:04.179466  6995 net.cpp:425] scale5_2 <- conv5_2
I0624 10:51:04.179473  6995 net.cpp:386] scale5_2 -> conv5_2 (in-place)
I0624 10:51:04.179522  6995 layer_factory.hpp:77] Creating layer scale5_2
I0624 10:51:04.179636  6995 net.cpp:141] Setting up scale5_2
I0624 10:51:04.179646  6995 net.cpp:148] Top shape: 1 32 14 14 (6272)
I0624 10:51:04.179649  6995 net.cpp:156] Memory required for data: 73482752
I0624 10:51:04.179656  6995 layer_factory.hpp:77] Creating layer relu5_2
I0624 10:51:04.179666  6995 net.cpp:91] Creating Layer relu5_2
I0624 10:51:04.179671  6995 net.cpp:425] relu5_2 <- conv5_2
I0624 10:51:04.179678  6995 net.cpp:386] relu5_2 -> conv5_2 (in-place)
I0624 10:51:04.180047  6995 net.cpp:141] Setting up relu5_2
I0624 10:51:04.180058  6995 net.cpp:148] Top shape: 1 32 14 14 (6272)
I0624 10:51:04.180063  6995 net.cpp:156] Memory required for data: 73507840
I0624 10:51:04.180068  6995 layer_factory.hpp:77] Creating layer pool5
I0624 10:51:04.180071  6995 layer_factory.cpp:90] cuDNN does not support multiple tops. Using Caffe's own pooling layer.
I0624 10:51:04.180081  6995 net.cpp:91] Creating Layer pool5
I0624 10:51:04.180086  6995 net.cpp:425] pool5 <- conv5_2
I0624 10:51:04.180094  6995 net.cpp:399] pool5 -> pool5
I0624 10:51:04.180104  6995 net.cpp:399] pool5 -> pool5_mask
I0624 10:51:04.180150  6995 net.cpp:141] Setting up pool5
I0624 10:51:04.180160  6995 net.cpp:148] Top shape: 1 32 7 7 (1568)
I0624 10:51:04.180166  6995 net.cpp:148] Top shape: 1 32 7 7 (1568)
I0624 10:51:04.180168  6995 net.cpp:156] Memory required for data: 73520384
I0624 10:51:04.180172  6995 layer_factory.hpp:77] Creating layer upsample5
I0624 10:51:04.180182  6995 net.cpp:91] Creating Layer upsample5
I0624 10:51:04.180186  6995 net.cpp:425] upsample5 <- pool5
I0624 10:51:04.180192  6995 net.cpp:425] upsample5 <- pool5_mask
I0624 10:51:04.180198  6995 net.cpp:399] upsample5 -> pool5_D
I0624 10:51:04.180238  6995 net.cpp:141] Setting up upsample5
I0624 10:51:04.180245  6995 net.cpp:148] Top shape: 1 32 14 14 (6272)
I0624 10:51:04.180249  6995 net.cpp:156] Memory required for data: 73545472
I0624 10:51:04.180253  6995 layer_factory.hpp:77] Creating layer conv5_2_D
I0624 10:51:04.180265  6995 net.cpp:91] Creating Layer conv5_2_D
I0624 10:51:04.180270  6995 net.cpp:425] conv5_2_D <- pool5_D
I0624 10:51:04.180277  6995 net.cpp:399] conv5_2_D -> conv5_2_D
I0624 10:51:04.181293  6995 net.cpp:141] Setting up conv5_2_D
I0624 10:51:04.181306  6995 net.cpp:148] Top shape: 1 32 14 14 (6272)
I0624 10:51:04.181310  6995 net.cpp:156] Memory required for data: 73570560
I0624 10:51:04.181318  6995 layer_factory.hpp:77] Creating layer bn5_2_D
I0624 10:51:04.181339  6995 net.cpp:91] Creating Layer bn5_2_D
I0624 10:51:04.181344  6995 net.cpp:425] bn5_2_D <- conv5_2_D
I0624 10:51:04.181354  6995 net.cpp:386] bn5_2_D -> conv5_2_D (in-place)
I0624 10:51:04.181542  6995 net.cpp:141] Setting up bn5_2_D
I0624 10:51:04.181551  6995 net.cpp:148] Top shape: 1 32 14 14 (6272)
I0624 10:51:04.181555  6995 net.cpp:156] Memory required for data: 73595648
I0624 10:51:04.181565  6995 layer_factory.hpp:77] Creating layer scale5_2_D
I0624 10:51:04.181582  6995 net.cpp:91] Creating Layer scale5_2_D
I0624 10:51:04.181589  6995 net.cpp:425] scale5_2_D <- conv5_2_D
I0624 10:51:04.181596  6995 net.cpp:386] scale5_2_D -> conv5_2_D (in-place)
I0624 10:51:04.181644  6995 layer_factory.hpp:77] Creating layer scale5_2_D
I0624 10:51:04.181761  6995 net.cpp:141] Setting up scale5_2_D
I0624 10:51:04.181771  6995 net.cpp:148] Top shape: 1 32 14 14 (6272)
I0624 10:51:04.181774  6995 net.cpp:156] Memory required for data: 73620736
I0624 10:51:04.181793  6995 layer_factory.hpp:77] Creating layer conv5_1_D
I0624 10:51:04.181807  6995 net.cpp:91] Creating Layer conv5_1_D
I0624 10:51:04.181812  6995 net.cpp:425] conv5_1_D <- conv5_2_D
I0624 10:51:04.181820  6995 net.cpp:399] conv5_1_D -> conv5_1_D
I0624 10:51:04.182633  6995 net.cpp:141] Setting up conv5_1_D
I0624 10:51:04.182646  6995 net.cpp:148] Top shape: 1 32 14 14 (6272)
I0624 10:51:04.182651  6995 net.cpp:156] Memory required for data: 73645824
I0624 10:51:04.182658  6995 layer_factory.hpp:77] Creating layer bn5_1_D
I0624 10:51:04.182668  6995 net.cpp:91] Creating Layer bn5_1_D
I0624 10:51:04.182674  6995 net.cpp:425] bn5_1_D <- conv5_1_D
I0624 10:51:04.182682  6995 net.cpp:386] bn5_1_D -> conv5_1_D (in-place)
I0624 10:51:04.182858  6995 net.cpp:141] Setting up bn5_1_D
I0624 10:51:04.182868  6995 net.cpp:148] Top shape: 1 32 14 14 (6272)
I0624 10:51:04.182873  6995 net.cpp:156] Memory required for data: 73670912
I0624 10:51:04.182881  6995 layer_factory.hpp:77] Creating layer scale5_1_D
I0624 10:51:04.182893  6995 net.cpp:91] Creating Layer scale5_1_D
I0624 10:51:04.182898  6995 net.cpp:425] scale5_1_D <- conv5_1_D
I0624 10:51:04.182904  6995 net.cpp:386] scale5_1_D -> conv5_1_D (in-place)
I0624 10:51:04.182950  6995 layer_factory.hpp:77] Creating layer scale5_1_D
I0624 10:51:04.183064  6995 net.cpp:141] Setting up scale5_1_D
I0624 10:51:04.183073  6995 net.cpp:148] Top shape: 1 32 14 14 (6272)
I0624 10:51:04.183078  6995 net.cpp:156] Memory required for data: 73696000
I0624 10:51:04.183085  6995 layer_factory.hpp:77] Creating layer upsample4
I0624 10:51:04.183094  6995 net.cpp:91] Creating Layer upsample4
I0624 10:51:04.183099  6995 net.cpp:425] upsample4 <- conv5_1_D
I0624 10:51:04.183105  6995 net.cpp:425] upsample4 <- pool4_mask
I0624 10:51:04.183111  6995 net.cpp:399] upsample4 -> pool4_D
I0624 10:51:04.183156  6995 net.cpp:141] Setting up upsample4
I0624 10:51:04.183166  6995 net.cpp:148] Top shape: 1 32 28 28 (25088)
I0624 10:51:04.183169  6995 net.cpp:156] Memory required for data: 73796352
I0624 10:51:04.183173  6995 layer_factory.hpp:77] Creating layer conv4_2_D
I0624 10:51:04.183183  6995 net.cpp:91] Creating Layer conv4_2_D
I0624 10:51:04.183188  6995 net.cpp:425] conv4_2_D <- pool4_D
I0624 10:51:04.183195  6995 net.cpp:399] conv4_2_D -> conv4_2_D
I0624 10:51:04.184105  6995 net.cpp:141] Setting up conv4_2_D
I0624 10:51:04.184119  6995 net.cpp:148] Top shape: 1 32 28 28 (25088)
I0624 10:51:04.184124  6995 net.cpp:156] Memory required for data: 73896704
I0624 10:51:04.184131  6995 layer_factory.hpp:77] Creating layer bn4_2_D
I0624 10:51:04.184140  6995 net.cpp:91] Creating Layer bn4_2_D
I0624 10:51:04.184145  6995 net.cpp:425] bn4_2_D <- conv4_2_D
I0624 10:51:04.184154  6995 net.cpp:386] bn4_2_D -> conv4_2_D (in-place)
I0624 10:51:04.184340  6995 net.cpp:141] Setting up bn4_2_D
I0624 10:51:04.184350  6995 net.cpp:148] Top shape: 1 32 28 28 (25088)
I0624 10:51:04.184353  6995 net.cpp:156] Memory required for data: 73997056
I0624 10:51:04.184362  6995 layer_factory.hpp:77] Creating layer scale4_2_D
I0624 10:51:04.184371  6995 net.cpp:91] Creating Layer scale4_2_D
I0624 10:51:04.184389  6995 net.cpp:425] scale4_2_D <- conv4_2_D
I0624 10:51:04.184406  6995 net.cpp:386] scale4_2_D -> conv4_2_D (in-place)
I0624 10:51:04.184456  6995 layer_factory.hpp:77] Creating layer scale4_2_D
I0624 10:51:04.184576  6995 net.cpp:141] Setting up scale4_2_D
I0624 10:51:04.184587  6995 net.cpp:148] Top shape: 1 32 28 28 (25088)
I0624 10:51:04.184590  6995 net.cpp:156] Memory required for data: 74097408
I0624 10:51:04.184597  6995 layer_factory.hpp:77] Creating layer conv4_1_D
I0624 10:51:04.184610  6995 net.cpp:91] Creating Layer conv4_1_D
I0624 10:51:04.184615  6995 net.cpp:425] conv4_1_D <- conv4_2_D
I0624 10:51:04.184623  6995 net.cpp:399] conv4_1_D -> conv4_1_D
I0624 10:51:04.185545  6995 net.cpp:141] Setting up conv4_1_D
I0624 10:51:04.185559  6995 net.cpp:148] Top shape: 1 32 28 28 (25088)
I0624 10:51:04.185564  6995 net.cpp:156] Memory required for data: 74197760
I0624 10:51:04.185570  6995 layer_factory.hpp:77] Creating layer bn4_1_D
I0624 10:51:04.185581  6995 net.cpp:91] Creating Layer bn4_1_D
I0624 10:51:04.185586  6995 net.cpp:425] bn4_1_D <- conv4_1_D
I0624 10:51:04.185595  6995 net.cpp:386] bn4_1_D -> conv4_1_D (in-place)
I0624 10:51:04.185780  6995 net.cpp:141] Setting up bn4_1_D
I0624 10:51:04.185789  6995 net.cpp:148] Top shape: 1 32 28 28 (25088)
I0624 10:51:04.185793  6995 net.cpp:156] Memory required for data: 74298112
I0624 10:51:04.185802  6995 layer_factory.hpp:77] Creating layer scale4_1_D
I0624 10:51:04.185813  6995 net.cpp:91] Creating Layer scale4_1_D
I0624 10:51:04.185818  6995 net.cpp:425] scale4_1_D <- conv4_1_D
I0624 10:51:04.185825  6995 net.cpp:386] scale4_1_D -> conv4_1_D (in-place)
I0624 10:51:04.185873  6995 layer_factory.hpp:77] Creating layer scale4_1_D
I0624 10:51:04.185993  6995 net.cpp:141] Setting up scale4_1_D
I0624 10:51:04.186002  6995 net.cpp:148] Top shape: 1 32 28 28 (25088)
I0624 10:51:04.186007  6995 net.cpp:156] Memory required for data: 74398464
I0624 10:51:04.186014  6995 layer_factory.hpp:77] Creating layer upsample3
I0624 10:51:04.186024  6995 net.cpp:91] Creating Layer upsample3
I0624 10:51:04.186029  6995 net.cpp:425] upsample3 <- conv4_1_D
I0624 10:51:04.186034  6995 net.cpp:425] upsample3 <- pool3_mask
I0624 10:51:04.186041  6995 net.cpp:399] upsample3 -> pool3_D
I0624 10:51:04.186074  6995 net.cpp:141] Setting up upsample3
I0624 10:51:04.186082  6995 net.cpp:148] Top shape: 1 32 56 56 (100352)
I0624 10:51:04.186086  6995 net.cpp:156] Memory required for data: 74799872
I0624 10:51:04.186090  6995 layer_factory.hpp:77] Creating layer conv3_2_D
I0624 10:51:04.186101  6995 net.cpp:91] Creating Layer conv3_2_D
I0624 10:51:04.186105  6995 net.cpp:425] conv3_2_D <- pool3_D
I0624 10:51:04.186115  6995 net.cpp:399] conv3_2_D -> conv3_2_D
I0624 10:51:04.187100  6995 net.cpp:141] Setting up conv3_2_D
I0624 10:51:04.187114  6995 net.cpp:148] Top shape: 1 32 56 56 (100352)
I0624 10:51:04.187117  6995 net.cpp:156] Memory required for data: 75201280
I0624 10:51:04.187125  6995 layer_factory.hpp:77] Creating layer bn3_2_D
I0624 10:51:04.187136  6995 net.cpp:91] Creating Layer bn3_2_D
I0624 10:51:04.187141  6995 net.cpp:425] bn3_2_D <- conv3_2_D
I0624 10:51:04.187152  6995 net.cpp:386] bn3_2_D -> conv3_2_D (in-place)
I0624 10:51:04.187341  6995 net.cpp:141] Setting up bn3_2_D
I0624 10:51:04.187351  6995 net.cpp:148] Top shape: 1 32 56 56 (100352)
I0624 10:51:04.187355  6995 net.cpp:156] Memory required for data: 75602688
I0624 10:51:04.187366  6995 layer_factory.hpp:77] Creating layer scale3_2_D
I0624 10:51:04.187382  6995 net.cpp:91] Creating Layer scale3_2_D
I0624 10:51:04.187389  6995 net.cpp:425] scale3_2_D <- conv3_2_D
I0624 10:51:04.187397  6995 net.cpp:386] scale3_2_D -> conv3_2_D (in-place)
I0624 10:51:04.187446  6995 layer_factory.hpp:77] Creating layer scale3_2_D
I0624 10:51:04.187571  6995 net.cpp:141] Setting up scale3_2_D
I0624 10:51:04.187579  6995 net.cpp:148] Top shape: 1 32 56 56 (100352)
I0624 10:51:04.187583  6995 net.cpp:156] Memory required for data: 76004096
I0624 10:51:04.187590  6995 layer_factory.hpp:77] Creating layer conv3_1_D
I0624 10:51:04.187614  6995 net.cpp:91] Creating Layer conv3_1_D
I0624 10:51:04.187623  6995 net.cpp:425] conv3_1_D <- conv3_2_D
I0624 10:51:04.187629  6995 net.cpp:399] conv3_1_D -> conv3_1_D
I0624 10:51:04.188690  6995 net.cpp:141] Setting up conv3_1_D
I0624 10:51:04.188704  6995 net.cpp:148] Top shape: 1 32 56 56 (100352)
I0624 10:51:04.188709  6995 net.cpp:156] Memory required for data: 76405504
I0624 10:51:04.188715  6995 layer_factory.hpp:77] Creating layer bn3_1_D
I0624 10:51:04.188726  6995 net.cpp:91] Creating Layer bn3_1_D
I0624 10:51:04.188732  6995 net.cpp:425] bn3_1_D <- conv3_1_D
I0624 10:51:04.188740  6995 net.cpp:386] bn3_1_D -> conv3_1_D (in-place)
I0624 10:51:04.188930  6995 net.cpp:141] Setting up bn3_1_D
I0624 10:51:04.188941  6995 net.cpp:148] Top shape: 1 32 56 56 (100352)
I0624 10:51:04.188944  6995 net.cpp:156] Memory required for data: 76806912
I0624 10:51:04.188953  6995 layer_factory.hpp:77] Creating layer scale3_1_D
I0624 10:51:04.188963  6995 net.cpp:91] Creating Layer scale3_1_D
I0624 10:51:04.188967  6995 net.cpp:425] scale3_1_D <- conv3_1_D
I0624 10:51:04.188974  6995 net.cpp:386] scale3_1_D -> conv3_1_D (in-place)
I0624 10:51:04.189024  6995 layer_factory.hpp:77] Creating layer scale3_1_D
I0624 10:51:04.189148  6995 net.cpp:141] Setting up scale3_1_D
I0624 10:51:04.189159  6995 net.cpp:148] Top shape: 1 32 56 56 (100352)
I0624 10:51:04.189165  6995 net.cpp:156] Memory required for data: 77208320
I0624 10:51:04.189172  6995 layer_factory.hpp:77] Creating layer upsample2
I0624 10:51:04.189180  6995 net.cpp:91] Creating Layer upsample2
I0624 10:51:04.189185  6995 net.cpp:425] upsample2 <- conv3_1_D
I0624 10:51:04.189190  6995 net.cpp:425] upsample2 <- pool2_mask
I0624 10:51:04.189198  6995 net.cpp:399] upsample2 -> pool2_D
I0624 10:51:04.189230  6995 net.cpp:141] Setting up upsample2
I0624 10:51:04.189239  6995 net.cpp:148] Top shape: 1 32 112 112 (401408)
I0624 10:51:04.189242  6995 net.cpp:156] Memory required for data: 78813952
I0624 10:51:04.189246  6995 layer_factory.hpp:77] Creating layer conv2_2_D
I0624 10:51:04.189256  6995 net.cpp:91] Creating Layer conv2_2_D
I0624 10:51:04.189261  6995 net.cpp:425] conv2_2_D <- pool2_D
I0624 10:51:04.189270  6995 net.cpp:399] conv2_2_D -> conv2_2_D
I0624 10:51:04.190078  6995 net.cpp:141] Setting up conv2_2_D
I0624 10:51:04.190090  6995 net.cpp:148] Top shape: 1 32 112 112 (401408)
I0624 10:51:04.190094  6995 net.cpp:156] Memory required for data: 80419584
I0624 10:51:04.190101  6995 layer_factory.hpp:77] Creating layer bn2_2_D
I0624 10:51:04.190111  6995 net.cpp:91] Creating Layer bn2_2_D
I0624 10:51:04.190116  6995 net.cpp:425] bn2_2_D <- conv2_2_D
I0624 10:51:04.190125  6995 net.cpp:386] bn2_2_D -> conv2_2_D (in-place)
I0624 10:51:04.190313  6995 net.cpp:141] Setting up bn2_2_D
I0624 10:51:04.190323  6995 net.cpp:148] Top shape: 1 32 112 112 (401408)
I0624 10:51:04.190327  6995 net.cpp:156] Memory required for data: 82025216
I0624 10:51:04.190336  6995 layer_factory.hpp:77] Creating layer scale2_2_D
I0624 10:51:04.190347  6995 net.cpp:91] Creating Layer scale2_2_D
I0624 10:51:04.190352  6995 net.cpp:425] scale2_2_D <- conv2_2_D
I0624 10:51:04.190361  6995 net.cpp:386] scale2_2_D -> conv2_2_D (in-place)
I0624 10:51:04.190407  6995 layer_factory.hpp:77] Creating layer scale2_2_D
I0624 10:51:04.190541  6995 net.cpp:141] Setting up scale2_2_D
I0624 10:51:04.190551  6995 net.cpp:148] Top shape: 1 32 112 112 (401408)
I0624 10:51:04.190554  6995 net.cpp:156] Memory required for data: 83630848
I0624 10:51:04.190562  6995 layer_factory.hpp:77] Creating layer conv2_1_D
I0624 10:51:04.190577  6995 net.cpp:91] Creating Layer conv2_1_D
I0624 10:51:04.190582  6995 net.cpp:425] conv2_1_D <- conv2_2_D
I0624 10:51:04.190589  6995 net.cpp:399] conv2_1_D -> conv2_1_D
I0624 10:51:04.192241  6995 net.cpp:141] Setting up conv2_1_D
I0624 10:51:04.192255  6995 net.cpp:148] Top shape: 1 32 112 112 (401408)
I0624 10:51:04.192260  6995 net.cpp:156] Memory required for data: 85236480
I0624 10:51:04.192266  6995 layer_factory.hpp:77] Creating layer bn2_1_D
I0624 10:51:04.192288  6995 net.cpp:91] Creating Layer bn2_1_D
I0624 10:51:04.192294  6995 net.cpp:425] bn2_1_D <- conv2_1_D
I0624 10:51:04.192301  6995 net.cpp:386] bn2_1_D -> conv2_1_D (in-place)
I0624 10:51:04.192498  6995 net.cpp:141] Setting up bn2_1_D
I0624 10:51:04.192509  6995 net.cpp:148] Top shape: 1 32 112 112 (401408)
I0624 10:51:04.192513  6995 net.cpp:156] Memory required for data: 86842112
I0624 10:51:04.192523  6995 layer_factory.hpp:77] Creating layer scale2_1_D
I0624 10:51:04.192533  6995 net.cpp:91] Creating Layer scale2_1_D
I0624 10:51:04.192538  6995 net.cpp:425] scale2_1_D <- conv2_1_D
I0624 10:51:04.192543  6995 net.cpp:386] scale2_1_D -> conv2_1_D (in-place)
I0624 10:51:04.192596  6995 layer_factory.hpp:77] Creating layer scale2_1_D
I0624 10:51:04.192723  6995 net.cpp:141] Setting up scale2_1_D
I0624 10:51:04.192731  6995 net.cpp:148] Top shape: 1 32 112 112 (401408)
I0624 10:51:04.192735  6995 net.cpp:156] Memory required for data: 88447744
I0624 10:51:04.192742  6995 layer_factory.hpp:77] Creating layer upsample1
I0624 10:51:04.192750  6995 net.cpp:91] Creating Layer upsample1
I0624 10:51:04.192755  6995 net.cpp:425] upsample1 <- conv2_1_D
I0624 10:51:04.192760  6995 net.cpp:425] upsample1 <- pool1_mask
I0624 10:51:04.192769  6995 net.cpp:399] upsample1 -> pool1_D
I0624 10:51:04.192801  6995 net.cpp:141] Setting up upsample1
I0624 10:51:04.192809  6995 net.cpp:148] Top shape: 1 32 224 224 (1605632)
I0624 10:51:04.192813  6995 net.cpp:156] Memory required for data: 94870272
I0624 10:51:04.192817  6995 layer_factory.hpp:77] Creating layer conv1_2_D
I0624 10:51:04.192829  6995 net.cpp:91] Creating Layer conv1_2_D
I0624 10:51:04.192834  6995 net.cpp:425] conv1_2_D <- pool1_D
I0624 10:51:04.192842  6995 net.cpp:399] conv1_2_D -> conv1_2_D
I0624 10:51:04.193894  6995 net.cpp:141] Setting up conv1_2_D
I0624 10:51:04.193907  6995 net.cpp:148] Top shape: 1 32 224 224 (1605632)
I0624 10:51:04.193912  6995 net.cpp:156] Memory required for data: 101292800
I0624 10:51:04.193918  6995 layer_factory.hpp:77] Creating layer bn1_2_D
I0624 10:51:04.193929  6995 net.cpp:91] Creating Layer bn1_2_D
I0624 10:51:04.193934  6995 net.cpp:425] bn1_2_D <- conv1_2_D
I0624 10:51:04.193943  6995 net.cpp:386] bn1_2_D -> conv1_2_D (in-place)
I0624 10:51:04.194175  6995 net.cpp:141] Setting up bn1_2_D
I0624 10:51:04.194185  6995 net.cpp:148] Top shape: 1 32 224 224 (1605632)
I0624 10:51:04.194190  6995 net.cpp:156] Memory required for data: 107715328
I0624 10:51:04.194198  6995 layer_factory.hpp:77] Creating layer scale1_2_D
I0624 10:51:04.194210  6995 net.cpp:91] Creating Layer scale1_2_D
I0624 10:51:04.194214  6995 net.cpp:425] scale1_2_D <- conv1_2_D
I0624 10:51:04.194221  6995 net.cpp:386] scale1_2_D -> conv1_2_D (in-place)
I0624 10:51:04.194269  6995 layer_factory.hpp:77] Creating layer scale1_2_D
I0624 10:51:04.195025  6995 net.cpp:141] Setting up scale1_2_D
I0624 10:51:04.195039  6995 net.cpp:148] Top shape: 1 32 224 224 (1605632)
I0624 10:51:04.195042  6995 net.cpp:156] Memory required for data: 114137856
I0624 10:51:04.195050  6995 layer_factory.hpp:77] Creating layer conv1_1_D
I0624 10:51:04.195065  6995 net.cpp:91] Creating Layer conv1_1_D
I0624 10:51:04.195070  6995 net.cpp:425] conv1_1_D <- conv1_2_D
I0624 10:51:04.195077  6995 net.cpp:399] conv1_1_D -> conv1_1_D
I0624 10:51:04.196225  6995 net.cpp:141] Setting up conv1_1_D
I0624 10:51:04.196239  6995 net.cpp:148] Top shape: 1 2 224 224 (100352)
I0624 10:51:04.196244  6995 net.cpp:156] Memory required for data: 114539264
I0624 10:51:04.196254  6995 layer_factory.hpp:77] Creating layer conv1_1_D_conv1_1_D_0_split
I0624 10:51:04.196262  6995 net.cpp:91] Creating Layer conv1_1_D_conv1_1_D_0_split
I0624 10:51:04.196267  6995 net.cpp:425] conv1_1_D_conv1_1_D_0_split <- conv1_1_D
I0624 10:51:04.196274  6995 net.cpp:399] conv1_1_D_conv1_1_D_0_split -> conv1_1_D_conv1_1_D_0_split_0
I0624 10:51:04.196282  6995 net.cpp:399] conv1_1_D_conv1_1_D_0_split -> conv1_1_D_conv1_1_D_0_split_1
I0624 10:51:04.196339  6995 net.cpp:141] Setting up conv1_1_D_conv1_1_D_0_split
I0624 10:51:04.196357  6995 net.cpp:148] Top shape: 1 2 224 224 (100352)
I0624 10:51:04.196363  6995 net.cpp:148] Top shape: 1 2 224 224 (100352)
I0624 10:51:04.196367  6995 net.cpp:156] Memory required for data: 115342080
I0624 10:51:04.196372  6995 layer_factory.hpp:77] Creating layer loss
I0624 10:51:04.196379  6995 net.cpp:91] Creating Layer loss
I0624 10:51:04.196384  6995 net.cpp:425] loss <- conv1_1_D_conv1_1_D_0_split_0
I0624 10:51:04.196389  6995 net.cpp:425] loss <- label_data_1_split_0
I0624 10:51:04.196398  6995 net.cpp:399] loss -> loss
…
