…
I0624 17:00:24.382800 21299 solver.cpp:91] Creating training net from net file: models/bpnet/train_val.prototxt
I0624 17:00:24.383646 21299 net.cpp:313] The NetState phase (0) differed from the phase (1) specified by a rule in layer data
I0624 17:00:24.383905 21299 net.cpp:49] Initializing net from parameters: 
name: "BPnet"
state {
  phase: TRAIN
}
layer {
  name: "data"
  type: "Data"
  top: "data"
  top: "label"
  include {
    phase: TRAIN
  }
  transform_param {
    mirror: false
    crop_size: 224
    mean_value: 100
    contrast_jitter_range: 0.1
  }
  data_param {
    source: "data/train_lmdb"
    batch_size: 32
    backend: LMDB
  }
}
layer {
  name: "conv1_1"
  type: "Convolution"
  bottom: "data"
  top: "conv1_1"
  param {
    lr_mult: 1
    decay_mult: 1
  }
  convolution_param {
    num_output: 32
    bias_term: false
    pad: 3
    kernel_size: 7
    stride: 2
    weight_filler {
      type: "xavier"
    }
  }
}
layer {
  name: "bn1_1"
  type: "BatchNorm"
  bottom: "conv1_1"
  top: "conv1_1"
  param {
    lr_mult: 0
  }
  param {
    lr_mult: 0
  }
  param {
    lr_mult: 0
  }
  batch_norm_param {
    use_global_stats: false
  }
}
layer {
  name: "scale1_1"
  type: "Scale"
  bottom: "conv1_1"
  top: "conv1_1"
  param {
    lr_mult: 1
    decay_mult: 1
  }
  param {
    lr_mult: 1
    decay_mult: 1
  }
  scale_param {
    bias_term: true
    bias_filler {
      type: "constant"
      value: 0
    }
  }
}
layer {
  name: "relu1_1"
  type: "ReLU"
  bottom: "conv1_1"
  top: "conv1_1"
}
layer {
  name: "conv1_2"
  type: "Convolution"
  bottom: "conv1_1"
  top: "conv1_2"
  param {
    lr_mult: 1
    decay_mult: 1
  }
  convolution_param {
    num_output: 32
    bias_term: false
    pad: 1
    kernel_size: 3
    weight_filler {
      type: "xavier"
    }
  }
}
layer {
  name: "bn1_2"
  type: "BatchNorm"
  bottom: "conv1_2"
  top: "conv1_2"
  param {
    lr_mult: 0
  }
  param {
    lr_mult: 0
  }
  param {
    lr_mult: 0
  }
  batch_norm_param {
    use_global_stats: false
  }
}
layer {
  name: "scale1_2"
  type: "Scale"
  bottom: "conv1_2"
  top: "conv1_2"
  param {
    lr_mult: 1
    decay_mult: 1
  }
  param {
    lr_mult: 1
    decay_mult: 1
  }
  scale_param {
    bias_term: true
    bias_filler {
      type: "constant"
      value: 0
    }
  }
}
layer {
  name: "relu1_2"
  type: "ReLU"
  bottom: "conv1_2"
  top: "conv1_2"
}
layer {
  name: "pool1"
  type: "Pooling"
  bottom: "conv1_2"
  top: "pool1"
  pooling_param {
    pool: MAX
    kernel_size: 2
    stride: 2
  }
}
layer {
  name: "conv2_1"
  type: "Convolution"
  bottom: "pool1"
  top: "conv2_1"
  param {
    lr_mult: 1
    decay_mult: 1
  }
  convolution_param {
    num_output: 32
    bias_term: false
    pad: 1
    kernel_size: 3
    weight_filler {
      type: "xavier"
    }
  }
}
layer {
  name: "bn2_1"
  type: "BatchNorm"
  bottom: "conv2_1"
  top: "conv2_1"
  param {
    lr_mult: 0
  }
  param {
    lr_mult: 0
  }
  param {
    lr_mult: 0
  }
  batch_norm_param {
    use_global_stats: false
  }
}
layer {
  name: "scale2_1"
  type: "Scale"
  bottom: "conv2_1"
  top: "conv2_1"
  param {
    lr_mult: 1
    decay_mult: 1
  }
  param {
    lr_mult: 1
    decay_mult: 1
  }
  scale_param {
    bias_term: true
    bias_filler {
      type: "constant"
      value: 0
    }
  }
}
layer {
  name: "relu2_1"
  type: "ReLU"
  bottom: "conv2_1"
  top: "conv2_1"
}
layer {
  name: "conv2_2"
  type: "Convolution"
  bottom: "conv2_1"
  top: "conv2_2"
  param {
    lr_mult: 1
    decay_mult: 1
  }
  convolution_param {
    num_output: 32
    bias_term: false
    pad: 1
    kernel_size: 3
    weight_filler {
      type: "xavier"
    }
  }
}
layer {
  name: "bn2_2"
  type: "BatchNorm"
  bottom: "conv2_2"
  top: "conv2_2"
  param {
    lr_mult: 0
  }
  param {
    lr_mult: 0
  }
  param {
    lr_mult: 0
  }
  batch_norm_param {
    use_global_stats: false
  }
}
layer {
  name: "scale2_2"
  type: "Scale"
  bottom: "conv2_2"
  top: "conv2_2"
  param {
    lr_mult: 1
    decay_mult: 1
  }
  param {
    lr_mult: 1
    decay_mult: 1
  }
  scale_param {
    bias_term: true
    bias_filler {
      type: "constant"
      value: 0
    }
  }
}
layer {
  name: "relu2_2"
  type: "ReLU"
  bottom: "conv2_2"
  top: "conv2_2"
}
layer {
  name: "pool2"
  type: "Pooling"
  bottom: "conv2_2"
  top: "pool2"
  pooling_param {
    pool: MAX
    kernel_size: 2
    stride: 2
  }
}
layer {
  name: "conv3_1"
  type: "Convolution"
  bottom: "pool2"
  top: "conv3_1"
  param {
    lr_mult: 1
    decay_mult: 1
  }
  convolution_param {
    num_output: 32
    bias_term: false
    pad: 1
    kernel_size: 3
    weight_filler {
      type: "xavier"
    }
  }
}
layer {
  name: "bn3_1"
  type: "BatchNorm"
  bottom: "conv3_1"
  top: "conv3_1"
  param {
    lr_mult: 0
  }
  param {
    lr_mult: 0
  }
  param {
    lr_mult: 0
  }
  batch_norm_param {
    use_global_stats: false
  }
}
layer {
  name: "scale3_1"
  type: "Scale"
  bottom: "conv3_1"
  top: "conv3_1"
  param {
    lr_mult: 1
    decay_mult: 1
  }
  param {
    lr_mult: 1
    decay_mult: 1
  }
  scale_param {
    bias_term: true
    bias_filler {
      type: "constant"
      value: 0
    }
  }
}
layer {
  name: "relu3_1"
  type: "ReLU"
  bottom: "conv3_1"
  top: "conv3_1"
}
layer {
  name: "conv3_2"
  type: "Convolution"
  bottom: "conv3_1"
  top: "conv3_2"
  param {
    lr_mult: 1
    decay_mult: 1
  }
  convolution_param {
    num_output: 32
    bias_term: false
    pad: 1
    kernel_size: 3
    weight_filler {
      type: "xavier"
    }
  }
}
layer {
  name: "bn3_2"
  type: "BatchNorm"
  bottom: "conv3_2"
  top: "conv3_2"
  param {
    lr_mult: 0
  }
  param {
    lr_mult: 0
  }
  param {
    lr_mult: 0
  }
  batch_norm_param {
    use_global_stats: false
  }
}
layer {
  name: "scale3_2"
  type: "Scale"
  bottom: "conv3_2"
  top: "conv3_2"
  param {
    lr_mult: 1
    decay_mult: 1
  }
  param {
    lr_mult: 1
    decay_mult: 1
  }
  scale_param {
    bias_term: true
    bias_filler {
      type: "constant"
      value: 0
    }
  }
}
layer {
  name: "relu3_2"
  type: "ReLU"
  bottom: "conv3_2"
  top: "conv3_2"
}
layer {
  name: "pool3"
  type: "Pooling"
  bottom: "conv3_2"
  top: "pool3"
  pooling_param {
    pool: MAX
    kernel_size: 2
    stride: 2
  }
}
layer {
  name: "conv4_1"
  type: "Convolution"
  bottom: "pool3"
  top: "conv4_1"
  param {
    lr_mult: 1
    decay_mult: 1
  }
  convolution_param {
    num_output: 64
    bias_term: false
    pad: 1
    kernel_size: 3
    weight_filler {
      type: "xavier"
    }
  }
}
layer {
  name: "bn4_1"
  type: "BatchNorm"
  bottom: "conv4_1"
  top: "conv4_1"
  param {
    lr_mult: 0
  }
  param {
    lr_mult: 0
  }
  param {
    lr_mult: 0
  }
  batch_norm_param {
    use_global_stats: false
  }
}
layer {
  name: "scale4_1"
  type: "Scale"
  bottom: "conv4_1"
  top: "conv4_1"
  param {
    lr_mult: 1
    decay_mult: 1
  }
  param {
    lr_mult: 1
    decay_mult: 1
  }
  scale_param {
    bias_term: true
    bias_filler {
      type: "constant"
      value: 0
    }
  }
}
layer {
  name: "relu4_1"
  type: "ReLU"
  bottom: "conv4_1"
  top: "conv4_1"
}
layer {
  name: "conv4_2"
  type: "Convolution"
  bottom: "conv4_1"
  top: "conv4_2"
  param {
    lr_mult: 1
    decay_mult: 1
  }
  convolution_param {
    num_output: 64
    bias_term: false
    pad: 1
    kernel_size: 3
    weight_filler {
      type: "xavier"
    }
  }
}
layer {
  name: "bn4_2"
  type: "BatchNorm"
  bottom: "conv4_2"
  top: "conv4_2"
  param {
    lr_mult: 0
  }
  param {
    lr_mult: 0
  }
  param {
    lr_mult: 0
  }
  batch_norm_param {
    use_global_stats: false
  }
}
layer {
  name: "scale4_2"
  type: "Scale"
  bottom: "conv4_2"
  top: "conv4_2"
  param {
    lr_mult: 1
    decay_mult: 1
  }
  param {
    lr_mult: 1
    decay_mult: 1
  }
  scale_param {
    bias_term: true
    bias_filler {
      type: "constant"
      value: 0
    }
  }
}
layer {
  name: "relu4_2"
  type: "ReLU"
  bottom: "conv4_2"
  top: "conv4_2"
}
layer {
  name: "pool4"
  type: "Pooling"
  bottom: "conv4_2"
  top: "pool4"
  pooling_param {
    pool: MAX
    kernel_size: 2
    stride: 2
  }
}
layer {
  name: "conv5_1"
  type: "Convolution"
  bottom: "pool4"
  top: "conv5_1"
  param {
    lr_mult: 1
    decay_mult: 1
  }
  convolution_param {
    num_output: 64
    bias_term: false
    pad: 1
    kernel_size: 3
    weight_filler {
      type: "xavier"
    }
  }
}
layer {
  name: "bn5_1"
  type: "BatchNorm"
  bottom: "conv5_1"
  top: "conv5_1"
  param {
    lr_mult: 0
  }
  param {
    lr_mult: 0
  }
  param {
    lr_mult: 0
  }
  batch_norm_param {
    use_global_stats: false
  }
}
layer {
  name: "scale5_1"
  type: "Scale"
  bottom: "conv5_1"
  top: "conv5_1"
  param {
    lr_mult: 1
    decay_mult: 1
  }
  param {
    lr_mult: 1
    decay_mult: 1
  }
  scale_param {
    bias_term: true
    bias_filler {
      type: "constant"
      value: 0
    }
  }
}
layer {
  name: "relu5_1"
  type: "ReLU"
  bottom: "conv5_1"
  top: "conv5_1"
}
layer {
  name: "conv5_2"
  type: "Convolution"
  bottom: "conv5_1"
  top: "conv5_2"
  param {
    lr_mult: 1
    decay_mult: 1
  }
  convolution_param {
    num_output: 64
    bias_term: false
    pad: 1
    kernel_size: 3
    weight_filler {
      type: "xavier"
    }
  }
}
layer {
  name: "bn5_2"
  type: "BatchNorm"
  bottom: "conv5_2"
  top: "conv5_2"
  param {
    lr_mult: 0
  }
  param {
    lr_mult: 0
  }
  param {
    lr_mult: 0
  }
  batch_norm_param {
    use_global_stats: false
  }
}
layer {
  name: "scale5_2"
  type: "Scale"
  bottom: "conv5_2"
  top: "conv5_2"
  param {
    lr_mult: 1
    decay_mult: 1
  }
  param {
    lr_mult: 1
    decay_mult: 1
  }
  scale_param {
    bias_term: true
    bias_filler {
      type: "constant"
      value: 0
    }
  }
}
layer {
  name: "relu5_2"
  type: "ReLU"
  bottom: "conv5_2"
  top: "conv5_2"
}
layer {
  name: "pool5"
  type: "Pooling"
  bottom: "conv5_2"
  top: "pool5"
  pooling_param {
    pool: AVE
    kernel_size: 7
    stride: 1
  }
}
layer {
  name: "fc2"
  type: "InnerProduct"
  bottom: "pool5"
  top: "fc2"
  inner_product_param {
    num_output: 2
  }
}
layer {
  name: "loss"
  type: "SoftmaxWithLoss"
  bottom: "fc2"
  bottom: "label"
  top: "loss"
}
layer {
  name: "accuracy"
  type: "Accuracy"
  bottom: "fc2"
  bottom: "label"
  top: "accuracy"
}
I0624 17:00:24.384074 21299 layer_factory.hpp:77] Creating layer data
I0624 17:00:24.384485 21299 net.cpp:91] Creating Layer data
I0624 17:00:24.384497 21299 net.cpp:399] data -> data
I0624 17:00:24.384521 21299 net.cpp:399] data -> label
I0624 17:00:24.385859 21305 db_lmdb.cpp:35] Opened lmdb data/train_lmdb
I0624 17:00:24.410691 21299 data_layer.cpp:42] output data size: 32,3,224,224
I0624 17:00:24.451318 21299 net.cpp:141] Setting up data
I0624 17:00:24.451345 21299 net.cpp:148] Top shape: 32 3 224 224 (4816896)
I0624 17:00:24.451350 21299 net.cpp:148] Top shape: 32 (32)
I0624 17:00:24.451352 21299 net.cpp:156] Memory required for data: 19267712
I0624 17:00:24.451360 21299 layer_factory.hpp:77] Creating layer label_data_1_split
I0624 17:00:24.451377 21299 net.cpp:91] Creating Layer label_data_1_split
I0624 17:00:24.451381 21299 net.cpp:425] label_data_1_split <- label
I0624 17:00:24.451390 21299 net.cpp:399] label_data_1_split -> label_data_1_split_0
I0624 17:00:24.451400 21299 net.cpp:399] label_data_1_split -> label_data_1_split_1
I0624 17:00:24.451442 21299 net.cpp:141] Setting up label_data_1_split
I0624 17:00:24.451448 21299 net.cpp:148] Top shape: 32 (32)
I0624 17:00:24.451452 21299 net.cpp:148] Top shape: 32 (32)
I0624 17:00:24.451453 21299 net.cpp:156] Memory required for data: 19267968
I0624 17:00:24.451457 21299 layer_factory.hpp:77] Creating layer conv1_1
I0624 17:00:24.451469 21299 net.cpp:91] Creating Layer conv1_1
I0624 17:00:24.451475 21299 net.cpp:425] conv1_1 <- data
I0624 17:00:24.451479 21299 net.cpp:399] conv1_1 -> conv1_1
I0624 17:00:24.635735 21299 net.cpp:141] Setting up conv1_1
I0624 17:00:24.635762 21299 net.cpp:148] Top shape: 32 32 112 112 (12845056)
I0624 17:00:24.635766 21299 net.cpp:156] Memory required for data: 70648192
I0624 17:00:24.635777 21299 layer_factory.hpp:77] Creating layer bn1_1
I0624 17:00:24.635792 21299 net.cpp:91] Creating Layer bn1_1
I0624 17:00:24.635797 21299 net.cpp:425] bn1_1 <- conv1_1
I0624 17:00:24.635802 21299 net.cpp:386] bn1_1 -> conv1_1 (in-place)
I0624 17:00:24.635953 21299 net.cpp:141] Setting up bn1_1
I0624 17:00:24.635962 21299 net.cpp:148] Top shape: 32 32 112 112 (12845056)
I0624 17:00:24.635963 21299 net.cpp:156] Memory required for data: 122028416
I0624 17:00:24.635972 21299 layer_factory.hpp:77] Creating layer scale1_1
I0624 17:00:24.635982 21299 net.cpp:91] Creating Layer scale1_1
I0624 17:00:24.635984 21299 net.cpp:425] scale1_1 <- conv1_1
I0624 17:00:24.635988 21299 net.cpp:386] scale1_1 -> conv1_1 (in-place)
I0624 17:00:24.636023 21299 layer_factory.hpp:77] Creating layer scale1_1
I0624 17:00:24.636119 21299 net.cpp:141] Setting up scale1_1
I0624 17:00:24.636126 21299 net.cpp:148] Top shape: 32 32 112 112 (12845056)
I0624 17:00:24.636129 21299 net.cpp:156] Memory required for data: 173408640
I0624 17:00:24.636135 21299 layer_factory.hpp:77] Creating layer relu1_1
I0624 17:00:24.636140 21299 net.cpp:91] Creating Layer relu1_1
I0624 17:00:24.636143 21299 net.cpp:425] relu1_1 <- conv1_1
I0624 17:00:24.636147 21299 net.cpp:386] relu1_1 -> conv1_1 (in-place)
I0624 17:00:24.636278 21299 net.cpp:141] Setting up relu1_1
I0624 17:00:24.636287 21299 net.cpp:148] Top shape: 32 32 112 112 (12845056)
I0624 17:00:24.636289 21299 net.cpp:156] Memory required for data: 224788864
I0624 17:00:24.636292 21299 layer_factory.hpp:77] Creating layer conv1_2
I0624 17:00:24.636301 21299 net.cpp:91] Creating Layer conv1_2
I0624 17:00:24.636303 21299 net.cpp:425] conv1_2 <- conv1_1
I0624 17:00:24.636308 21299 net.cpp:399] conv1_2 -> conv1_2
I0624 17:00:24.637071 21299 net.cpp:141] Setting up conv1_2
I0624 17:00:24.637084 21299 net.cpp:148] Top shape: 32 32 112 112 (12845056)
I0624 17:00:24.637086 21299 net.cpp:156] Memory required for data: 276169088
I0624 17:00:24.637091 21299 layer_factory.hpp:77] Creating layer bn1_2
I0624 17:00:24.637097 21299 net.cpp:91] Creating Layer bn1_2
I0624 17:00:24.637099 21299 net.cpp:425] bn1_2 <- conv1_2
I0624 17:00:24.637104 21299 net.cpp:386] bn1_2 -> conv1_2 (in-place)
I0624 17:00:24.637235 21299 net.cpp:141] Setting up bn1_2
I0624 17:00:24.637243 21299 net.cpp:148] Top shape: 32 32 112 112 (12845056)
I0624 17:00:24.637244 21299 net.cpp:156] Memory required for data: 327549312
I0624 17:00:24.637253 21299 layer_factory.hpp:77] Creating layer scale1_2
I0624 17:00:24.637259 21299 net.cpp:91] Creating Layer scale1_2
I0624 17:00:24.637261 21299 net.cpp:425] scale1_2 <- conv1_2
I0624 17:00:24.637265 21299 net.cpp:386] scale1_2 -> conv1_2 (in-place)
I0624 17:00:24.637293 21299 layer_factory.hpp:77] Creating layer scale1_2
I0624 17:00:24.637379 21299 net.cpp:141] Setting up scale1_2
I0624 17:00:24.637387 21299 net.cpp:148] Top shape: 32 32 112 112 (12845056)
I0624 17:00:24.637389 21299 net.cpp:156] Memory required for data: 378929536
I0624 17:00:24.637393 21299 layer_factory.hpp:77] Creating layer relu1_2
I0624 17:00:24.637404 21299 net.cpp:91] Creating Layer relu1_2
I0624 17:00:24.637406 21299 net.cpp:425] relu1_2 <- conv1_2
I0624 17:00:24.637409 21299 net.cpp:386] relu1_2 -> conv1_2 (in-place)
I0624 17:00:24.637531 21299 net.cpp:141] Setting up relu1_2
I0624 17:00:24.637539 21299 net.cpp:148] Top shape: 32 32 112 112 (12845056)
I0624 17:00:24.637542 21299 net.cpp:156] Memory required for data: 430309760
I0624 17:00:24.637544 21299 layer_factory.hpp:77] Creating layer pool1
I0624 17:00:24.637550 21299 net.cpp:91] Creating Layer pool1
I0624 17:00:24.637552 21299 net.cpp:425] pool1 <- conv1_2
I0624 17:00:24.637557 21299 net.cpp:399] pool1 -> pool1
I0624 17:00:24.637599 21299 net.cpp:141] Setting up pool1
I0624 17:00:24.637604 21299 net.cpp:148] Top shape: 32 32 56 56 (3211264)
I0624 17:00:24.637620 21299 net.cpp:156] Memory required for data: 443154816
I0624 17:00:24.637624 21299 layer_factory.hpp:77] Creating layer conv2_1
I0624 17:00:24.637630 21299 net.cpp:91] Creating Layer conv2_1
I0624 17:00:24.637634 21299 net.cpp:425] conv2_1 <- pool1
I0624 17:00:24.637637 21299 net.cpp:399] conv2_1 -> conv2_1
I0624 17:00:24.638393 21299 net.cpp:141] Setting up conv2_1
I0624 17:00:24.638406 21299 net.cpp:148] Top shape: 32 32 56 56 (3211264)
I0624 17:00:24.638409 21299 net.cpp:156] Memory required for data: 455999872
I0624 17:00:24.638414 21299 layer_factory.hpp:77] Creating layer bn2_1
I0624 17:00:24.638419 21299 net.cpp:91] Creating Layer bn2_1
I0624 17:00:24.638422 21299 net.cpp:425] bn2_1 <- conv2_1
I0624 17:00:24.638427 21299 net.cpp:386] bn2_1 -> conv2_1 (in-place)
I0624 17:00:24.639700 21299 net.cpp:141] Setting up bn2_1
I0624 17:00:24.639713 21299 net.cpp:148] Top shape: 32 32 56 56 (3211264)
I0624 17:00:24.639715 21299 net.cpp:156] Memory required for data: 468844928
I0624 17:00:24.639722 21299 layer_factory.hpp:77] Creating layer scale2_1
I0624 17:00:24.639729 21299 net.cpp:91] Creating Layer scale2_1
I0624 17:00:24.639731 21299 net.cpp:425] scale2_1 <- conv2_1
I0624 17:00:24.639735 21299 net.cpp:386] scale2_1 -> conv2_1 (in-place)
I0624 17:00:24.639766 21299 layer_factory.hpp:77] Creating layer scale2_1
I0624 17:00:24.639843 21299 net.cpp:141] Setting up scale2_1
I0624 17:00:24.639850 21299 net.cpp:148] Top shape: 32 32 56 56 (3211264)
I0624 17:00:24.639853 21299 net.cpp:156] Memory required for data: 481689984
I0624 17:00:24.639860 21299 layer_factory.hpp:77] Creating layer relu2_1
I0624 17:00:24.639864 21299 net.cpp:91] Creating Layer relu2_1
I0624 17:00:24.639868 21299 net.cpp:425] relu2_1 <- conv2_1
I0624 17:00:24.639871 21299 net.cpp:386] relu2_1 -> conv2_1 (in-place)
I0624 17:00:24.640225 21299 net.cpp:141] Setting up relu2_1
I0624 17:00:24.640238 21299 net.cpp:148] Top shape: 32 32 56 56 (3211264)
I0624 17:00:24.640240 21299 net.cpp:156] Memory required for data: 494535040
I0624 17:00:24.640244 21299 layer_factory.hpp:77] Creating layer conv2_2
I0624 17:00:24.640251 21299 net.cpp:91] Creating Layer conv2_2
I0624 17:00:24.640254 21299 net.cpp:425] conv2_2 <- conv2_1
I0624 17:00:24.640259 21299 net.cpp:399] conv2_2 -> conv2_2
I0624 17:00:24.640817 21299 net.cpp:141] Setting up conv2_2
I0624 17:00:24.640828 21299 net.cpp:148] Top shape: 32 32 56 56 (3211264)
I0624 17:00:24.640831 21299 net.cpp:156] Memory required for data: 507380096
I0624 17:00:24.640836 21299 layer_factory.hpp:77] Creating layer bn2_2
I0624 17:00:24.640842 21299 net.cpp:91] Creating Layer bn2_2
I0624 17:00:24.640846 21299 net.cpp:425] bn2_2 <- conv2_2
I0624 17:00:24.640851 21299 net.cpp:386] bn2_2 -> conv2_2 (in-place)
I0624 17:00:24.640990 21299 net.cpp:141] Setting up bn2_2
I0624 17:00:24.640996 21299 net.cpp:148] Top shape: 32 32 56 56 (3211264)
I0624 17:00:24.641000 21299 net.cpp:156] Memory required for data: 520225152
I0624 17:00:24.641005 21299 layer_factory.hpp:77] Creating layer scale2_2
I0624 17:00:24.641011 21299 net.cpp:91] Creating Layer scale2_2
I0624 17:00:24.641013 21299 net.cpp:425] scale2_2 <- conv2_2
I0624 17:00:24.641017 21299 net.cpp:386] scale2_2 -> conv2_2 (in-place)
I0624 17:00:24.641046 21299 layer_factory.hpp:77] Creating layer scale2_2
I0624 17:00:24.641127 21299 net.cpp:141] Setting up scale2_2
I0624 17:00:24.641134 21299 net.cpp:148] Top shape: 32 32 56 56 (3211264)
I0624 17:00:24.641136 21299 net.cpp:156] Memory required for data: 533070208
I0624 17:00:24.641140 21299 layer_factory.hpp:77] Creating layer relu2_2
I0624 17:00:24.641145 21299 net.cpp:91] Creating Layer relu2_2
I0624 17:00:24.641147 21299 net.cpp:425] relu2_2 <- conv2_2
I0624 17:00:24.641152 21299 net.cpp:386] relu2_2 -> conv2_2 (in-place)
I0624 17:00:24.641499 21299 net.cpp:141] Setting up relu2_2
I0624 17:00:24.641510 21299 net.cpp:148] Top shape: 32 32 56 56 (3211264)
I0624 17:00:24.641513 21299 net.cpp:156] Memory required for data: 545915264
I0624 17:00:24.641516 21299 layer_factory.hpp:77] Creating layer pool2
I0624 17:00:24.641530 21299 net.cpp:91] Creating Layer pool2
I0624 17:00:24.641535 21299 net.cpp:425] pool2 <- conv2_2
I0624 17:00:24.641540 21299 net.cpp:399] pool2 -> pool2
I0624 17:00:24.641576 21299 net.cpp:141] Setting up pool2
I0624 17:00:24.641580 21299 net.cpp:148] Top shape: 32 32 28 28 (802816)
I0624 17:00:24.641582 21299 net.cpp:156] Memory required for data: 549126528
I0624 17:00:24.641584 21299 layer_factory.hpp:77] Creating layer conv3_1
I0624 17:00:24.641592 21299 net.cpp:91] Creating Layer conv3_1
I0624 17:00:24.641594 21299 net.cpp:425] conv3_1 <- pool2
I0624 17:00:24.641602 21299 net.cpp:399] conv3_1 -> conv3_1
I0624 17:00:24.642405 21299 net.cpp:141] Setting up conv3_1
I0624 17:00:24.642417 21299 net.cpp:148] Top shape: 32 32 28 28 (802816)
I0624 17:00:24.642421 21299 net.cpp:156] Memory required for data: 552337792
I0624 17:00:24.642424 21299 layer_factory.hpp:77] Creating layer bn3_1
I0624 17:00:24.642431 21299 net.cpp:91] Creating Layer bn3_1
I0624 17:00:24.642433 21299 net.cpp:425] bn3_1 <- conv3_1
I0624 17:00:24.642438 21299 net.cpp:386] bn3_1 -> conv3_1 (in-place)
I0624 17:00:24.643649 21299 net.cpp:141] Setting up bn3_1
I0624 17:00:24.643661 21299 net.cpp:148] Top shape: 32 32 28 28 (802816)
I0624 17:00:24.643663 21299 net.cpp:156] Memory required for data: 555549056
I0624 17:00:24.643669 21299 layer_factory.hpp:77] Creating layer scale3_1
I0624 17:00:24.643676 21299 net.cpp:91] Creating Layer scale3_1
I0624 17:00:24.643678 21299 net.cpp:425] scale3_1 <- conv3_1
I0624 17:00:24.643685 21299 net.cpp:386] scale3_1 -> conv3_1 (in-place)
I0624 17:00:24.643718 21299 layer_factory.hpp:77] Creating layer scale3_1
I0624 17:00:24.643805 21299 net.cpp:141] Setting up scale3_1
I0624 17:00:24.643812 21299 net.cpp:148] Top shape: 32 32 28 28 (802816)
I0624 17:00:24.643815 21299 net.cpp:156] Memory required for data: 558760320
I0624 17:00:24.643818 21299 layer_factory.hpp:77] Creating layer relu3_1
I0624 17:00:24.643823 21299 net.cpp:91] Creating Layer relu3_1
I0624 17:00:24.643826 21299 net.cpp:425] relu3_1 <- conv3_1
I0624 17:00:24.643831 21299 net.cpp:386] relu3_1 -> conv3_1 (in-place)
I0624 17:00:24.643965 21299 net.cpp:141] Setting up relu3_1
I0624 17:00:24.643975 21299 net.cpp:148] Top shape: 32 32 28 28 (802816)
I0624 17:00:24.643977 21299 net.cpp:156] Memory required for data: 561971584
I0624 17:00:24.643980 21299 layer_factory.hpp:77] Creating layer conv3_2
I0624 17:00:24.643986 21299 net.cpp:91] Creating Layer conv3_2
I0624 17:00:24.643990 21299 net.cpp:425] conv3_2 <- conv3_1
I0624 17:00:24.643995 21299 net.cpp:399] conv3_2 -> conv3_2
I0624 17:00:24.644811 21299 net.cpp:141] Setting up conv3_2
I0624 17:00:24.644824 21299 net.cpp:148] Top shape: 32 32 28 28 (802816)
I0624 17:00:24.644827 21299 net.cpp:156] Memory required for data: 565182848
I0624 17:00:24.644831 21299 layer_factory.hpp:77] Creating layer bn3_2
I0624 17:00:24.644839 21299 net.cpp:91] Creating Layer bn3_2
I0624 17:00:24.644841 21299 net.cpp:425] bn3_2 <- conv3_2
I0624 17:00:24.644845 21299 net.cpp:386] bn3_2 -> conv3_2 (in-place)
I0624 17:00:24.644984 21299 net.cpp:141] Setting up bn3_2
I0624 17:00:24.644991 21299 net.cpp:148] Top shape: 32 32 28 28 (802816)
I0624 17:00:24.644994 21299 net.cpp:156] Memory required for data: 568394112
I0624 17:00:24.645004 21299 layer_factory.hpp:77] Creating layer scale3_2
I0624 17:00:24.645010 21299 net.cpp:91] Creating Layer scale3_2
I0624 17:00:24.645014 21299 net.cpp:425] scale3_2 <- conv3_2
I0624 17:00:24.645017 21299 net.cpp:386] scale3_2 -> conv3_2 (in-place)
I0624 17:00:24.645046 21299 layer_factory.hpp:77] Creating layer scale3_2
I0624 17:00:24.645131 21299 net.cpp:141] Setting up scale3_2
I0624 17:00:24.645138 21299 net.cpp:148] Top shape: 32 32 28 28 (802816)
I0624 17:00:24.645141 21299 net.cpp:156] Memory required for data: 571605376
I0624 17:00:24.645145 21299 layer_factory.hpp:77] Creating layer relu3_2
I0624 17:00:24.645149 21299 net.cpp:91] Creating Layer relu3_2
I0624 17:00:24.645153 21299 net.cpp:425] relu3_2 <- conv3_2
I0624 17:00:24.645156 21299 net.cpp:386] relu3_2 -> conv3_2 (in-place)
I0624 17:00:24.645303 21299 net.cpp:141] Setting up relu3_2
I0624 17:00:24.645311 21299 net.cpp:148] Top shape: 32 32 28 28 (802816)
I0624 17:00:24.645314 21299 net.cpp:156] Memory required for data: 574816640
I0624 17:00:24.645316 21299 layer_factory.hpp:77] Creating layer pool3
I0624 17:00:24.645323 21299 net.cpp:91] Creating Layer pool3
I0624 17:00:24.645325 21299 net.cpp:425] pool3 <- conv3_2
I0624 17:00:24.645329 21299 net.cpp:399] pool3 -> pool3
I0624 17:00:24.645364 21299 net.cpp:141] Setting up pool3
I0624 17:00:24.645367 21299 net.cpp:148] Top shape: 32 32 14 14 (200704)
I0624 17:00:24.645370 21299 net.cpp:156] Memory required for data: 575619456
I0624 17:00:24.645372 21299 layer_factory.hpp:77] Creating layer conv4_1
I0624 17:00:24.645380 21299 net.cpp:91] Creating Layer conv4_1
I0624 17:00:24.645382 21299 net.cpp:425] conv4_1 <- pool3
I0624 17:00:24.645386 21299 net.cpp:399] conv4_1 -> conv4_1
I0624 17:00:24.647366 21299 net.cpp:141] Setting up conv4_1
I0624 17:00:24.647378 21299 net.cpp:148] Top shape: 32 64 14 14 (401408)
I0624 17:00:24.647382 21299 net.cpp:156] Memory required for data: 577225088
I0624 17:00:24.647385 21299 layer_factory.hpp:77] Creating layer bn4_1
I0624 17:00:24.647392 21299 net.cpp:91] Creating Layer bn4_1
I0624 17:00:24.647395 21299 net.cpp:425] bn4_1 <- conv4_1
I0624 17:00:24.647400 21299 net.cpp:386] bn4_1 -> conv4_1 (in-place)
I0624 17:00:24.647543 21299 net.cpp:141] Setting up bn4_1
I0624 17:00:24.647550 21299 net.cpp:148] Top shape: 32 64 14 14 (401408)
I0624 17:00:24.647552 21299 net.cpp:156] Memory required for data: 578830720
I0624 17:00:24.647558 21299 layer_factory.hpp:77] Creating layer scale4_1
I0624 17:00:24.647564 21299 net.cpp:91] Creating Layer scale4_1
I0624 17:00:24.647567 21299 net.cpp:425] scale4_1 <- conv4_1
I0624 17:00:24.647572 21299 net.cpp:386] scale4_1 -> conv4_1 (in-place)
I0624 17:00:24.647603 21299 layer_factory.hpp:77] Creating layer scale4_1
I0624 17:00:24.647683 21299 net.cpp:141] Setting up scale4_1
I0624 17:00:24.647689 21299 net.cpp:148] Top shape: 32 64 14 14 (401408)
I0624 17:00:24.647692 21299 net.cpp:156] Memory required for data: 580436352
I0624 17:00:24.647696 21299 layer_factory.hpp:77] Creating layer relu4_1
I0624 17:00:24.647703 21299 net.cpp:91] Creating Layer relu4_1
I0624 17:00:24.647706 21299 net.cpp:425] relu4_1 <- conv4_1
I0624 17:00:24.647709 21299 net.cpp:386] relu4_1 -> conv4_1 (in-place)
I0624 17:00:24.647843 21299 net.cpp:141] Setting up relu4_1
I0624 17:00:24.647851 21299 net.cpp:148] Top shape: 32 64 14 14 (401408)
I0624 17:00:24.647855 21299 net.cpp:156] Memory required for data: 582041984
I0624 17:00:24.647856 21299 layer_factory.hpp:77] Creating layer conv4_2
I0624 17:00:24.647864 21299 net.cpp:91] Creating Layer conv4_2
I0624 17:00:24.647867 21299 net.cpp:425] conv4_2 <- conv4_1
I0624 17:00:24.647871 21299 net.cpp:399] conv4_2 -> conv4_2
I0624 17:00:24.648846 21299 net.cpp:141] Setting up conv4_2
I0624 17:00:24.648859 21299 net.cpp:148] Top shape: 32 64 14 14 (401408)
I0624 17:00:24.648861 21299 net.cpp:156] Memory required for data: 583647616
I0624 17:00:24.648865 21299 layer_factory.hpp:77] Creating layer bn4_2
I0624 17:00:24.648872 21299 net.cpp:91] Creating Layer bn4_2
I0624 17:00:24.648876 21299 net.cpp:425] bn4_2 <- conv4_2
I0624 17:00:24.648880 21299 net.cpp:386] bn4_2 -> conv4_2 (in-place)
I0624 17:00:24.649024 21299 net.cpp:141] Setting up bn4_2
I0624 17:00:24.649030 21299 net.cpp:148] Top shape: 32 64 14 14 (401408)
I0624 17:00:24.649032 21299 net.cpp:156] Memory required for data: 585253248
I0624 17:00:24.649039 21299 layer_factory.hpp:77] Creating layer scale4_2
I0624 17:00:24.649044 21299 net.cpp:91] Creating Layer scale4_2
I0624 17:00:24.649046 21299 net.cpp:425] scale4_2 <- conv4_2
I0624 17:00:24.649054 21299 net.cpp:386] scale4_2 -> conv4_2 (in-place)
I0624 17:00:24.649085 21299 layer_factory.hpp:77] Creating layer scale4_2
I0624 17:00:24.649173 21299 net.cpp:141] Setting up scale4_2
I0624 17:00:24.649179 21299 net.cpp:148] Top shape: 32 64 14 14 (401408)
I0624 17:00:24.649183 21299 net.cpp:156] Memory required for data: 586858880
I0624 17:00:24.649196 21299 layer_factory.hpp:77] Creating layer relu4_2
I0624 17:00:24.649201 21299 net.cpp:91] Creating Layer relu4_2
I0624 17:00:24.649204 21299 net.cpp:425] relu4_2 <- conv4_2
I0624 17:00:24.649209 21299 net.cpp:386] relu4_2 -> conv4_2 (in-place)
I0624 17:00:24.649344 21299 net.cpp:141] Setting up relu4_2
I0624 17:00:24.649353 21299 net.cpp:148] Top shape: 32 64 14 14 (401408)
I0624 17:00:24.649356 21299 net.cpp:156] Memory required for data: 588464512
I0624 17:00:24.649358 21299 layer_factory.hpp:77] Creating layer pool4
I0624 17:00:24.649364 21299 net.cpp:91] Creating Layer pool4
I0624 17:00:24.649368 21299 net.cpp:425] pool4 <- conv4_2
I0624 17:00:24.649371 21299 net.cpp:399] pool4 -> pool4
I0624 17:00:24.649405 21299 net.cpp:141] Setting up pool4
I0624 17:00:24.649410 21299 net.cpp:148] Top shape: 32 64 7 7 (100352)
I0624 17:00:24.649411 21299 net.cpp:156] Memory required for data: 588865920
I0624 17:00:24.649413 21299 layer_factory.hpp:77] Creating layer conv5_1
I0624 17:00:24.649421 21299 net.cpp:91] Creating Layer conv5_1
I0624 17:00:24.649425 21299 net.cpp:425] conv5_1 <- pool4
I0624 17:00:24.649428 21299 net.cpp:399] conv5_1 -> conv5_1
I0624 17:00:24.650455 21299 net.cpp:141] Setting up conv5_1
I0624 17:00:24.650468 21299 net.cpp:148] Top shape: 32 64 7 7 (100352)
I0624 17:00:24.650471 21299 net.cpp:156] Memory required for data: 589267328
I0624 17:00:24.650475 21299 layer_factory.hpp:77] Creating layer bn5_1
I0624 17:00:24.650483 21299 net.cpp:91] Creating Layer bn5_1
I0624 17:00:24.650486 21299 net.cpp:425] bn5_1 <- conv5_1
I0624 17:00:24.650490 21299 net.cpp:386] bn5_1 -> conv5_1 (in-place)
I0624 17:00:24.650635 21299 net.cpp:141] Setting up bn5_1
I0624 17:00:24.650642 21299 net.cpp:148] Top shape: 32 64 7 7 (100352)
I0624 17:00:24.650645 21299 net.cpp:156] Memory required for data: 589668736
I0624 17:00:24.650650 21299 layer_factory.hpp:77] Creating layer scale5_1
I0624 17:00:24.650657 21299 net.cpp:91] Creating Layer scale5_1
I0624 17:00:24.650660 21299 net.cpp:425] scale5_1 <- conv5_1
I0624 17:00:24.650663 21299 net.cpp:386] scale5_1 -> conv5_1 (in-place)
I0624 17:00:24.650696 21299 layer_factory.hpp:77] Creating layer scale5_1
I0624 17:00:24.650784 21299 net.cpp:141] Setting up scale5_1
I0624 17:00:24.650791 21299 net.cpp:148] Top shape: 32 64 7 7 (100352)
I0624 17:00:24.650794 21299 net.cpp:156] Memory required for data: 590070144
I0624 17:00:24.650799 21299 layer_factory.hpp:77] Creating layer relu5_1
I0624 17:00:24.650802 21299 net.cpp:91] Creating Layer relu5_1
I0624 17:00:24.650805 21299 net.cpp:425] relu5_1 <- conv5_1
I0624 17:00:24.650810 21299 net.cpp:386] relu5_1 -> conv5_1 (in-place)
I0624 17:00:24.651176 21299 net.cpp:141] Setting up relu5_1
I0624 17:00:24.651188 21299 net.cpp:148] Top shape: 32 64 7 7 (100352)
I0624 17:00:24.651191 21299 net.cpp:156] Memory required for data: 590471552
I0624 17:00:24.651195 21299 layer_factory.hpp:77] Creating layer conv5_2
I0624 17:00:24.651202 21299 net.cpp:91] Creating Layer conv5_2
I0624 17:00:24.651206 21299 net.cpp:425] conv5_2 <- conv5_1
I0624 17:00:24.651211 21299 net.cpp:399] conv5_2 -> conv5_2
I0624 17:00:24.651959 21299 net.cpp:141] Setting up conv5_2
I0624 17:00:24.651969 21299 net.cpp:148] Top shape: 32 64 7 7 (100352)
I0624 17:00:24.651973 21299 net.cpp:156] Memory required for data: 590872960
I0624 17:00:24.651976 21299 layer_factory.hpp:77] Creating layer bn5_2
I0624 17:00:24.651983 21299 net.cpp:91] Creating Layer bn5_2
I0624 17:00:24.651985 21299 net.cpp:425] bn5_2 <- conv5_2
I0624 17:00:24.651990 21299 net.cpp:386] bn5_2 -> conv5_2 (in-place)
I0624 17:00:24.652135 21299 net.cpp:141] Setting up bn5_2
I0624 17:00:24.652143 21299 net.cpp:148] Top shape: 32 64 7 7 (100352)
I0624 17:00:24.652144 21299 net.cpp:156] Memory required for data: 591274368
I0624 17:00:24.652150 21299 layer_factory.hpp:77] Creating layer scale5_2
I0624 17:00:24.652159 21299 net.cpp:91] Creating Layer scale5_2
I0624 17:00:24.652161 21299 net.cpp:425] scale5_2 <- conv5_2
I0624 17:00:24.652165 21299 net.cpp:386] scale5_2 -> conv5_2 (in-place)
I0624 17:00:24.652210 21299 layer_factory.hpp:77] Creating layer scale5_2
I0624 17:00:24.652297 21299 net.cpp:141] Setting up scale5_2
I0624 17:00:24.652303 21299 net.cpp:148] Top shape: 32 64 7 7 (100352)
I0624 17:00:24.652305 21299 net.cpp:156] Memory required for data: 591675776
I0624 17:00:24.652310 21299 layer_factory.hpp:77] Creating layer relu5_2
I0624 17:00:24.652317 21299 net.cpp:91] Creating Layer relu5_2
I0624 17:00:24.652320 21299 net.cpp:425] relu5_2 <- conv5_2
I0624 17:00:24.652325 21299 net.cpp:386] relu5_2 -> conv5_2 (in-place)
I0624 17:00:24.652683 21299 net.cpp:141] Setting up relu5_2
I0624 17:00:24.652698 21299 net.cpp:148] Top shape: 32 64 7 7 (100352)
I0624 17:00:24.652701 21299 net.cpp:156] Memory required for data: 592077184
I0624 17:00:24.652704 21299 layer_factory.hpp:77] Creating layer pool5
I0624 17:00:24.652709 21299 net.cpp:91] Creating Layer pool5
I0624 17:00:24.652712 21299 net.cpp:425] pool5 <- conv5_2
I0624 17:00:24.652716 21299 net.cpp:399] pool5 -> pool5
I0624 17:00:24.652871 21299 net.cpp:141] Setting up pool5
I0624 17:00:24.652880 21299 net.cpp:148] Top shape: 32 64 1 1 (2048)
I0624 17:00:24.652884 21299 net.cpp:156] Memory required for data: 592085376
I0624 17:00:24.652885 21299 layer_factory.hpp:77] Creating layer fc2
I0624 17:00:24.652892 21299 net.cpp:91] Creating Layer fc2
I0624 17:00:24.652894 21299 net.cpp:425] fc2 <- pool5
I0624 17:00:24.652899 21299 net.cpp:399] fc2 -> fc2
I0624 17:00:24.652983 21299 net.cpp:141] Setting up fc2
I0624 17:00:24.652990 21299 net.cpp:148] Top shape: 32 2 (64)
I0624 17:00:24.652992 21299 net.cpp:156] Memory required for data: 592085632
I0624 17:00:24.652997 21299 layer_factory.hpp:77] Creating layer fc2_fc2_0_split
I0624 17:00:24.653003 21299 net.cpp:91] Creating Layer fc2_fc2_0_split
I0624 17:00:24.653007 21299 net.cpp:425] fc2_fc2_0_split <- fc2
I0624 17:00:24.653009 21299 net.cpp:399] fc2_fc2_0_split -> fc2_fc2_0_split_0
I0624 17:00:24.653014 21299 net.cpp:399] fc2_fc2_0_split -> fc2_fc2_0_split_1
I0624 17:00:24.653043 21299 net.cpp:141] Setting up fc2_fc2_0_split
I0624 17:00:24.653048 21299 net.cpp:148] Top shape: 32 2 (64)
I0624 17:00:24.653049 21299 net.cpp:148] Top shape: 32 2 (64)
I0624 17:00:24.653051 21299 net.cpp:156] Memory required for data: 592086144
I0624 17:00:24.653053 21299 layer_factory.hpp:77] Creating layer loss
I0624 17:00:24.653064 21299 net.cpp:91] Creating Layer loss
I0624 17:00:24.653065 21299 net.cpp:425] loss <- fc2_fc2_0_split_0
I0624 17:00:24.653069 21299 net.cpp:425] loss <- label_data_1_split_0
I0624 17:00:24.653072 21299 net.cpp:399] loss -> loss
…
I0624 17:00:24.654295 21299 solver.cpp:181] Creating test net (#0) specified by net file: models/bpnet/train_val.prototxt
I0624 17:00:24.654347 21299 net.cpp:313] The NetState phase (1) differed from the phase (0) specified by a rule in layer data
I0624 17:00:24.654593 21299 net.cpp:49] Initializing net from parameters: 
name: "BPnet"
state {
  phase: TEST
}
layer {
  name: "data"
  type: "Data"
  top: "data"
  top: "label"
  include {
    phase: TEST
  }
  transform_param {
    mirror: false
    crop_size: 224
    mean_value: 100
    contrast_jitter_range: 0.1
  }
  data_param {
    source: "data/val_lmdb"
    batch_size: 16
    backend: LMDB
  }
}
layer {
  name: "conv1_1"
  type: "Convolution"
  bottom: "data"
  top: "conv1_1"
  param {
    lr_mult: 1
    decay_mult: 1
  }
  convolution_param {
    num_output: 32
    bias_term: false
    pad: 3
    kernel_size: 7
    stride: 2
    weight_filler {
      type: "xavier"
    }
  }
}
layer {
  name: "bn1_1"
  type: "BatchNorm"
  bottom: "conv1_1"
  top: "conv1_1"
  param {
    lr_mult: 0
  }
  param {
    lr_mult: 0
  }
  param {
    lr_mult: 0
  }
  batch_norm_param {
    use_global_stats: false
  }
}
layer {
  name: "scale1_1"
  type: "Scale"
  bottom: "conv1_1"
  top: "conv1_1"
  param {
    lr_mult: 1
    decay_mult: 1
  }
  param {
    lr_mult: 1
    decay_mult: 1
  }
  scale_param {
    bias_term: true
    bias_filler {
      type: "constant"
      value: 0
    }
  }
}
layer {
  name: "relu1_1"
  type: "ReLU"
  bottom: "conv1_1"
  top: "conv1_1"
}
layer {
  name: "conv1_2"
  type: "Convolution"
  bottom: "conv1_1"
  top: "conv1_2"
  param {
    lr_mult: 1
    decay_mult: 1
  }
  convolution_param {
    num_output: 32
    bias_term: false
    pad: 1
    kernel_size: 3
    weight_filler {
      type: "xavier"
    }
  }
}
layer {
  name: "bn1_2"
  type: "BatchNorm"
  bottom: "conv1_2"
  top: "conv1_2"
  param {
    lr_mult: 0
  }
  param {
    lr_mult: 0
  }
  param {
    lr_mult: 0
  }
  batch_norm_param {
    use_global_stats: false
  }
}
layer {
  name: "scale1_2"
  type: "Scale"
  bottom: "conv1_2"
  top: "conv1_2"
  param {
    lr_mult: 1
    decay_mult: 1
  }
  param {
    lr_mult: 1
    decay_mult: 1
  }
  scale_param {
    bias_term: true
    bias_filler {
      type: "constant"
      value: 0
    }
  }
}
layer {
  name: "relu1_2"
  type: "ReLU"
  bottom: "conv1_2"
  top: "conv1_2"
}
layer {
  name: "pool1"
  type: "Pooling"
  bottom: "conv1_2"
  top: "pool1"
  pooling_param {
    pool: MAX
    kernel_size: 2
    stride: 2
  }
}
layer {
  name: "conv2_1"
  type: "Convolution"
  bottom: "pool1"
  top: "conv2_1"
  param {
    lr_mult: 1
    decay_mult: 1
  }
  convolution_param {
    num_output: 32
    bias_term: false
    pad: 1
    kernel_size: 3
    weight_filler {
      type: "xavier"
    }
  }
}
layer {
  name: "bn2_1"
  type: "BatchNorm"
  bottom: "conv2_1"
  top: "conv2_1"
  param {
    lr_mult: 0
  }
  param {
    lr_mult: 0
  }
  param {
    lr_mult: 0
  }
  batch_norm_param {
    use_global_stats: false
  }
}
layer {
  name: "scale2_1"
  type: "Scale"
  bottom: "conv2_1"
  top: "conv2_1"
  param {
    lr_mult: 1
    decay_mult: 1
  }
  param {
    lr_mult: 1
    decay_mult: 1
  }
  scale_param {
    bias_term: true
    bias_filler {
      type: "constant"
      value: 0
    }
  }
}
layer {
  name: "relu2_1"
  type: "ReLU"
  bottom: "conv2_1"
  top: "conv2_1"
}
layer {
  name: "conv2_2"
  type: "Convolution"
  bottom: "conv2_1"
  top: "conv2_2"
  param {
    lr_mult: 1
    decay_mult: 1
  }
  convolution_param {
    num_output: 32
    bias_term: false
    pad: 1
    kernel_size: 3
    weight_filler {
      type: "xavier"
    }
  }
}
layer {
  name: "bn2_2"
  type: "BatchNorm"
  bottom: "conv2_2"
  top: "conv2_2"
  param {
    lr_mult: 0
  }
  param {
    lr_mult: 0
  }
  param {
    lr_mult: 0
  }
  batch_norm_param {
    use_global_stats: false
  }
}
layer {
  name: "scale2_2"
  type: "Scale"
  bottom: "conv2_2"
  top: "conv2_2"
  param {
    lr_mult: 1
    decay_mult: 1
  }
  param {
    lr_mult: 1
    decay_mult: 1
  }
  scale_param {
    bias_term: true
    bias_filler {
      type: "constant"
      value: 0
    }
  }
}
layer {
  name: "relu2_2"
  type: "ReLU"
  bottom: "conv2_2"
  top: "conv2_2"
}
layer {
  name: "pool2"
  type: "Pooling"
  bottom: "conv2_2"
  top: "pool2"
  pooling_param {
    pool: MAX
    kernel_size: 2
    stride: 2
  }
}
layer {
  name: "conv3_1"
  type: "Convolution"
  bottom: "pool2"
  top: "conv3_1"
  param {
    lr_mult: 1
    decay_mult: 1
  }
  convolution_param {
    num_output: 32
    bias_term: false
    pad: 1
    kernel_size: 3
    weight_filler {
      type: "xavier"
    }
  }
}
layer {
  name: "bn3_1"
  type: "BatchNorm"
  bottom: "conv3_1"
  top: "conv3_1"
  param {
    lr_mult: 0
  }
  param {
    lr_mult: 0
  }
  param {
    lr_mult: 0
  }
  batch_norm_param {
    use_global_stats: false
  }
}
layer {
  name: "scale3_1"
  type: "Scale"
  bottom: "conv3_1"
  top: "conv3_1"
  param {
    lr_mult: 1
    decay_mult: 1
  }
  param {
    lr_mult: 1
    decay_mult: 1
  }
  scale_param {
    bias_term: true
    bias_filler {
      type: "constant"
      value: 0
    }
  }
}
layer {
  name: "relu3_1"
  type: "ReLU"
  bottom: "conv3_1"
  top: "conv3_1"
}
layer {
  name: "conv3_2"
  type: "Convolution"
  bottom: "conv3_1"
  top: "conv3_2"
  param {
    lr_mult: 1
    decay_mult: 1
  }
  convolution_param {
    num_output: 32
    bias_term: false
    pad: 1
    kernel_size: 3
    weight_filler {
      type: "xavier"
    }
  }
}
layer {
  name: "bn3_2"
  type: "BatchNorm"
  bottom: "conv3_2"
  top: "conv3_2"
  param {
    lr_mult: 0
  }
  param {
    lr_mult: 0
  }
  param {
    lr_mult: 0
  }
  batch_norm_param {
    use_global_stats: false
  }
}
layer {
  name: "scale3_2"
  type: "Scale"
  bottom: "conv3_2"
  top: "conv3_2"
  param {
    lr_mult: 1
    decay_mult: 1
  }
  param {
    lr_mult: 1
    decay_mult: 1
  }
  scale_param {
    bias_term: true
    bias_filler {
      type: "constant"
      value: 0
    }
  }
}
layer {
  name: "relu3_2"
  type: "ReLU"
  bottom: "conv3_2"
  top: "conv3_2"
}
layer {
  name: "pool3"
  type: "Pooling"
  bottom: "conv3_2"
  top: "pool3"
  pooling_param {
    pool: MAX
    kernel_size: 2
    stride: 2
  }
}
layer {
  name: "conv4_1"
  type: "Convolution"
  bottom: "pool3"
  top: "conv4_1"
  param {
    lr_mult: 1
    decay_mult: 1
  }
  convolution_param {
    num_output: 64
    bias_term: false
    pad: 1
    kernel_size: 3
    weight_filler {
      type: "xavier"
    }
  }
}
layer {
  name: "bn4_1"
  type: "BatchNorm"
  bottom: "conv4_1"
  top: "conv4_1"
  param {
    lr_mult: 0
  }
  param {
    lr_mult: 0
  }
  param {
    lr_mult: 0
  }
  batch_norm_param {
    use_global_stats: false
  }
}
layer {
  name: "scale4_1"
  type: "Scale"
  bottom: "conv4_1"
  top: "conv4_1"
  param {
    lr_mult: 1
    decay_mult: 1
  }
  param {
    lr_mult: 1
    decay_mult: 1
  }
  scale_param {
    bias_term: true
    bias_filler {
      type: "constant"
      value: 0
    }
  }
}
layer {
  name: "relu4_1"
  type: "ReLU"
  bottom: "conv4_1"
  top: "conv4_1"
}
layer {
  name: "conv4_2"
  type: "Convolution"
  bottom: "conv4_1"
  top: "conv4_2"
  param {
    lr_mult: 1
    decay_mult: 1
  }
  convolution_param {
    num_output: 64
    bias_term: false
    pad: 1
    kernel_size: 3
    weight_filler {
      type: "xavier"
    }
  }
}
layer {
  name: "bn4_2"
  type: "BatchNorm"
  bottom: "conv4_2"
  top: "conv4_2"
  param {
    lr_mult: 0
  }
  param {
    lr_mult: 0
  }
  param {
    lr_mult: 0
  }
  batch_norm_param {
    use_global_stats: false
  }
}
layer {
  name: "scale4_2"
  type: "Scale"
  bottom: "conv4_2"
  top: "conv4_2"
  param {
    lr_mult: 1
    decay_mult: 1
  }
  param {
    lr_mult: 1
    decay_mult: 1
  }
  scale_param {
    bias_term: true
    bias_filler {
      type: "constant"
      value: 0
    }
  }
}
layer {
  name: "relu4_2"
  type: "ReLU"
  bottom: "conv4_2"
  top: "conv4_2"
}
layer {
  name: "pool4"
  type: "Pooling"
  bottom: "conv4_2"
  top: "pool4"
  pooling_param {
    pool: MAX
    kernel_size: 2
    stride: 2
  }
}
layer {
  name: "conv5_1"
  type: "Convolution"
  bottom: "pool4"
  top: "conv5_1"
  param {
    lr_mult: 1
    decay_mult: 1
  }
  convolution_param {
    num_output: 64
    bias_term: false
    pad: 1
    kernel_size: 3
    weight_filler {
      type: "xavier"
    }
  }
}
layer {
  name: "bn5_1"
  type: "BatchNorm"
  bottom: "conv5_1"
  top: "conv5_1"
  param {
    lr_mult: 0
  }
  param {
    lr_mult: 0
  }
  param {
    lr_mult: 0
  }
  batch_norm_param {
    use_global_stats: false
  }
}
layer {
  name: "scale5_1"
  type: "Scale"
  bottom: "conv5_1"
  top: "conv5_1"
  param {
    lr_mult: 1
    decay_mult: 1
  }
  param {
    lr_mult: 1
    decay_mult: 1
  }
  scale_param {
    bias_term: true
    bias_filler {
      type: "constant"
      value: 0
    }
  }
}
layer {
  name: "relu5_1"
  type: "ReLU"
  bottom: "conv5_1"
  top: "conv5_1"
}
layer {
  name: "conv5_2"
  type: "Convolution"
  bottom: "conv5_1"
  top: "conv5_2"
  param {
    lr_mult: 1
    decay_mult: 1
  }
  convolution_param {
    num_output: 64
    bias_term: false
    pad: 1
    kernel_size: 3
    weight_filler {
      type: "xavier"
    }
  }
}
layer {
  name: "bn5_2"
  type: "BatchNorm"
  bottom: "conv5_2"
  top: "conv5_2"
  param {
    lr_mult: 0
  }
  param {
    lr_mult: 0
  }
  param {
    lr_mult: 0
  }
  batch_norm_param {
    use_global_stats: false
  }
}
layer {
  name: "scale5_2"
  type: "Scale"
  bottom: "conv5_2"
  top: "conv5_2"
  param {
    lr_mult: 1
    decay_mult: 1
  }
  param {
    lr_mult: 1
    decay_mult: 1
  }
  scale_param {
    bias_term: true
    bias_filler {
      type: "constant"
      value: 0
    }
  }
}
layer {
  name: "relu5_2"
  type: "ReLU"
  bottom: "conv5_2"
  top: "conv5_2"
}
layer {
  name: "pool5"
  type: "Pooling"
  bottom: "conv5_2"
  top: "pool5"
  pooling_param {
    pool: AVE
    kernel_size: 7
    stride: 1
  }
}
layer {
  name: "fc2"
  type: "InnerProduct"
  bottom: "pool5"
  top: "fc2"
  inner_product_param {
    num_output: 2
  }
}
layer {
  name: "loss"
  type: "SoftmaxWithLoss"
  bottom: "fc2"
  bottom: "label"
  top: "loss"
}
layer {
  name: "accuracy"
  type: "Accuracy"
  bottom: "fc2"
  bottom: "label"
  top: "accuracy"
}
I0624 17:00:24.654736 21299 layer_factory.hpp:77] Creating layer data
I0624 17:00:24.654791 21299 net.cpp:91] Creating Layer data
I0624 17:00:24.654799 21299 net.cpp:399] data -> data
I0624 17:00:24.654805 21299 net.cpp:399] data -> label
I0624 17:00:24.656167 21307 db_lmdb.cpp:35] Opened lmdb data/val_lmdb
I0624 17:00:24.656590 21299 data_layer.cpp:42] output data size: 16,3,224,224
I0624 17:00:24.677536 21299 net.cpp:141] Setting up data
I0624 17:00:24.677559 21299 net.cpp:148] Top shape: 16 3 224 224 (2408448)
I0624 17:00:24.677563 21299 net.cpp:148] Top shape: 16 (16)
I0624 17:00:24.677566 21299 net.cpp:156] Memory required for data: 9633856
I0624 17:00:24.677572 21299 layer_factory.hpp:77] Creating layer label_data_1_split
I0624 17:00:24.677582 21299 net.cpp:91] Creating Layer label_data_1_split
I0624 17:00:24.677585 21299 net.cpp:425] label_data_1_split <- label
I0624 17:00:24.677590 21299 net.cpp:399] label_data_1_split -> label_data_1_split_0
I0624 17:00:24.677598 21299 net.cpp:399] label_data_1_split -> label_data_1_split_1
I0624 17:00:24.677695 21299 net.cpp:141] Setting up label_data_1_split
I0624 17:00:24.677703 21299 net.cpp:148] Top shape: 16 (16)
I0624 17:00:24.677706 21299 net.cpp:148] Top shape: 16 (16)
I0624 17:00:24.677708 21299 net.cpp:156] Memory required for data: 9633984
I0624 17:00:24.677711 21299 layer_factory.hpp:77] Creating layer conv1_1
I0624 17:00:24.677723 21299 net.cpp:91] Creating Layer conv1_1
I0624 17:00:24.677726 21299 net.cpp:425] conv1_1 <- data
I0624 17:00:24.677731 21299 net.cpp:399] conv1_1 -> conv1_1
I0624 17:00:24.678685 21299 net.cpp:141] Setting up conv1_1
I0624 17:00:24.678697 21299 net.cpp:148] Top shape: 16 32 112 112 (6422528)
I0624 17:00:24.678700 21299 net.cpp:156] Memory required for data: 35324096
I0624 17:00:24.678706 21299 layer_factory.hpp:77] Creating layer bn1_1
I0624 17:00:24.678714 21299 net.cpp:91] Creating Layer bn1_1
I0624 17:00:24.678717 21299 net.cpp:425] bn1_1 <- conv1_1
I0624 17:00:24.678721 21299 net.cpp:386] bn1_1 -> conv1_1 (in-place)
I0624 17:00:24.678889 21299 net.cpp:141] Setting up bn1_1
I0624 17:00:24.678895 21299 net.cpp:148] Top shape: 16 32 112 112 (6422528)
I0624 17:00:24.678899 21299 net.cpp:156] Memory required for data: 61014208
I0624 17:00:24.678907 21299 layer_factory.hpp:77] Creating layer scale1_1
I0624 17:00:24.678915 21299 net.cpp:91] Creating Layer scale1_1
I0624 17:00:24.678917 21299 net.cpp:425] scale1_1 <- conv1_1
I0624 17:00:24.678921 21299 net.cpp:386] scale1_1 -> conv1_1 (in-place)
I0624 17:00:24.678972 21299 layer_factory.hpp:77] Creating layer scale1_1
I0624 17:00:24.679092 21299 net.cpp:141] Setting up scale1_1
I0624 17:00:24.679100 21299 net.cpp:148] Top shape: 16 32 112 112 (6422528)
I0624 17:00:24.679102 21299 net.cpp:156] Memory required for data: 86704320
I0624 17:00:24.679108 21299 layer_factory.hpp:77] Creating layer relu1_1
I0624 17:00:24.679114 21299 net.cpp:91] Creating Layer relu1_1
I0624 17:00:24.679116 21299 net.cpp:425] relu1_1 <- conv1_1
I0624 17:00:24.679123 21299 net.cpp:386] relu1_1 -> conv1_1 (in-place)
I0624 17:00:24.680054 21299 net.cpp:141] Setting up relu1_1
I0624 17:00:24.680065 21299 net.cpp:148] Top shape: 16 32 112 112 (6422528)
I0624 17:00:24.680068 21299 net.cpp:156] Memory required for data: 112394432
I0624 17:00:24.680070 21299 layer_factory.hpp:77] Creating layer conv1_2
I0624 17:00:24.680079 21299 net.cpp:91] Creating Layer conv1_2
I0624 17:00:24.680083 21299 net.cpp:425] conv1_2 <- conv1_1
I0624 17:00:24.680088 21299 net.cpp:399] conv1_2 -> conv1_2
I0624 17:00:24.680953 21299 net.cpp:141] Setting up conv1_2
I0624 17:00:24.680965 21299 net.cpp:148] Top shape: 16 32 112 112 (6422528)
I0624 17:00:24.680968 21299 net.cpp:156] Memory required for data: 138084544
I0624 17:00:24.680972 21299 layer_factory.hpp:77] Creating layer bn1_2
I0624 17:00:24.680980 21299 net.cpp:91] Creating Layer bn1_2
I0624 17:00:24.680984 21299 net.cpp:425] bn1_2 <- conv1_2
I0624 17:00:24.680987 21299 net.cpp:386] bn1_2 -> conv1_2 (in-place)
I0624 17:00:24.681145 21299 net.cpp:141] Setting up bn1_2
I0624 17:00:24.681154 21299 net.cpp:148] Top shape: 16 32 112 112 (6422528)
I0624 17:00:24.681155 21299 net.cpp:156] Memory required for data: 163774656
I0624 17:00:24.681164 21299 layer_factory.hpp:77] Creating layer scale1_2
I0624 17:00:24.681171 21299 net.cpp:91] Creating Layer scale1_2
I0624 17:00:24.681174 21299 net.cpp:425] scale1_2 <- conv1_2
I0624 17:00:24.681177 21299 net.cpp:386] scale1_2 -> conv1_2 (in-place)
I0624 17:00:24.681210 21299 layer_factory.hpp:77] Creating layer scale1_2
I0624 17:00:24.681324 21299 net.cpp:141] Setting up scale1_2
I0624 17:00:24.681332 21299 net.cpp:148] Top shape: 16 32 112 112 (6422528)
I0624 17:00:24.681334 21299 net.cpp:156] Memory required for data: 189464768
I0624 17:00:24.681339 21299 layer_factory.hpp:77] Creating layer relu1_2
I0624 17:00:24.681344 21299 net.cpp:91] Creating Layer relu1_2
I0624 17:00:24.681345 21299 net.cpp:425] relu1_2 <- conv1_2
I0624 17:00:24.681350 21299 net.cpp:386] relu1_2 -> conv1_2 (in-place)
I0624 17:00:24.681720 21299 net.cpp:141] Setting up relu1_2
I0624 17:00:24.681731 21299 net.cpp:148] Top shape: 16 32 112 112 (6422528)
I0624 17:00:24.681733 21299 net.cpp:156] Memory required for data: 215154880
I0624 17:00:24.681736 21299 layer_factory.hpp:77] Creating layer pool1
I0624 17:00:24.681743 21299 net.cpp:91] Creating Layer pool1
I0624 17:00:24.681746 21299 net.cpp:425] pool1 <- conv1_2
I0624 17:00:24.681751 21299 net.cpp:399] pool1 -> pool1
I0624 17:00:24.681790 21299 net.cpp:141] Setting up pool1
I0624 17:00:24.681795 21299 net.cpp:148] Top shape: 16 32 56 56 (1605632)
I0624 17:00:24.681797 21299 net.cpp:156] Memory required for data: 221577408
I0624 17:00:24.681799 21299 layer_factory.hpp:77] Creating layer conv2_1
I0624 17:00:24.681807 21299 net.cpp:91] Creating Layer conv2_1
I0624 17:00:24.681809 21299 net.cpp:425] conv2_1 <- pool1
I0624 17:00:24.681814 21299 net.cpp:399] conv2_1 -> conv2_1
I0624 17:00:24.682658 21299 net.cpp:141] Setting up conv2_1
I0624 17:00:24.682672 21299 net.cpp:148] Top shape: 16 32 56 56 (1605632)
I0624 17:00:24.682673 21299 net.cpp:156] Memory required for data: 227999936
I0624 17:00:24.682678 21299 layer_factory.hpp:77] Creating layer bn2_1
I0624 17:00:24.682684 21299 net.cpp:91] Creating Layer bn2_1
I0624 17:00:24.682687 21299 net.cpp:425] bn2_1 <- conv2_1
I0624 17:00:24.682693 21299 net.cpp:386] bn2_1 -> conv2_1 (in-place)
I0624 17:00:24.682854 21299 net.cpp:141] Setting up bn2_1
I0624 17:00:24.682862 21299 net.cpp:148] Top shape: 16 32 56 56 (1605632)
I0624 17:00:24.682864 21299 net.cpp:156] Memory required for data: 234422464
I0624 17:00:24.682885 21299 layer_factory.hpp:77] Creating layer scale2_1
I0624 17:00:24.682893 21299 net.cpp:91] Creating Layer scale2_1
I0624 17:00:24.682896 21299 net.cpp:425] scale2_1 <- conv2_1
I0624 17:00:24.682900 21299 net.cpp:386] scale2_1 -> conv2_1 (in-place)
I0624 17:00:24.682935 21299 layer_factory.hpp:77] Creating layer scale2_1
I0624 17:00:24.683034 21299 net.cpp:141] Setting up scale2_1
I0624 17:00:24.683042 21299 net.cpp:148] Top shape: 16 32 56 56 (1605632)
I0624 17:00:24.683044 21299 net.cpp:156] Memory required for data: 240844992
I0624 17:00:24.683051 21299 layer_factory.hpp:77] Creating layer relu2_1
I0624 17:00:24.683056 21299 net.cpp:91] Creating Layer relu2_1
I0624 17:00:24.683059 21299 net.cpp:425] relu2_1 <- conv2_1
I0624 17:00:24.683063 21299 net.cpp:386] relu2_1 -> conv2_1 (in-place)
I0624 17:00:24.683208 21299 net.cpp:141] Setting up relu2_1
I0624 17:00:24.683218 21299 net.cpp:148] Top shape: 16 32 56 56 (1605632)
I0624 17:00:24.683221 21299 net.cpp:156] Memory required for data: 247267520
I0624 17:00:24.683223 21299 layer_factory.hpp:77] Creating layer conv2_2
I0624 17:00:24.683231 21299 net.cpp:91] Creating Layer conv2_2
I0624 17:00:24.683234 21299 net.cpp:425] conv2_2 <- conv2_1
I0624 17:00:24.683238 21299 net.cpp:399] conv2_2 -> conv2_2
I0624 17:00:24.684093 21299 net.cpp:141] Setting up conv2_2
I0624 17:00:24.684105 21299 net.cpp:148] Top shape: 16 32 56 56 (1605632)
I0624 17:00:24.684108 21299 net.cpp:156] Memory required for data: 253690048
I0624 17:00:24.684113 21299 layer_factory.hpp:77] Creating layer bn2_2
I0624 17:00:24.684121 21299 net.cpp:91] Creating Layer bn2_2
I0624 17:00:24.684123 21299 net.cpp:425] bn2_2 <- conv2_2
I0624 17:00:24.684128 21299 net.cpp:386] bn2_2 -> conv2_2 (in-place)
I0624 17:00:24.684290 21299 net.cpp:141] Setting up bn2_2
I0624 17:00:24.684298 21299 net.cpp:148] Top shape: 16 32 56 56 (1605632)
I0624 17:00:24.684299 21299 net.cpp:156] Memory required for data: 260112576
I0624 17:00:24.684305 21299 layer_factory.hpp:77] Creating layer scale2_2
I0624 17:00:24.684311 21299 net.cpp:91] Creating Layer scale2_2
I0624 17:00:24.684314 21299 net.cpp:425] scale2_2 <- conv2_2
I0624 17:00:24.684317 21299 net.cpp:386] scale2_2 -> conv2_2 (in-place)
I0624 17:00:24.684350 21299 layer_factory.hpp:77] Creating layer scale2_2
I0624 17:00:24.684447 21299 net.cpp:141] Setting up scale2_2
I0624 17:00:24.684453 21299 net.cpp:148] Top shape: 16 32 56 56 (1605632)
I0624 17:00:24.684456 21299 net.cpp:156] Memory required for data: 266535104
I0624 17:00:24.684460 21299 layer_factory.hpp:77] Creating layer relu2_2
I0624 17:00:24.684464 21299 net.cpp:91] Creating Layer relu2_2
I0624 17:00:24.684466 21299 net.cpp:425] relu2_2 <- conv2_2
I0624 17:00:24.684470 21299 net.cpp:386] relu2_2 -> conv2_2 (in-place)
I0624 17:00:24.684622 21299 net.cpp:141] Setting up relu2_2
I0624 17:00:24.684630 21299 net.cpp:148] Top shape: 16 32 56 56 (1605632)
I0624 17:00:24.684633 21299 net.cpp:156] Memory required for data: 272957632
I0624 17:00:24.684635 21299 layer_factory.hpp:77] Creating layer pool2
I0624 17:00:24.684640 21299 net.cpp:91] Creating Layer pool2
I0624 17:00:24.684643 21299 net.cpp:425] pool2 <- conv2_2
I0624 17:00:24.684648 21299 net.cpp:399] pool2 -> pool2
I0624 17:00:24.684684 21299 net.cpp:141] Setting up pool2
I0624 17:00:24.684687 21299 net.cpp:148] Top shape: 16 32 28 28 (401408)
I0624 17:00:24.684690 21299 net.cpp:156] Memory required for data: 274563264
I0624 17:00:24.684692 21299 layer_factory.hpp:77] Creating layer conv3_1
I0624 17:00:24.684700 21299 net.cpp:91] Creating Layer conv3_1
I0624 17:00:24.684703 21299 net.cpp:425] conv3_1 <- pool2
I0624 17:00:24.684706 21299 net.cpp:399] conv3_1 -> conv3_1
I0624 17:00:24.686002 21299 net.cpp:141] Setting up conv3_1
I0624 17:00:24.686013 21299 net.cpp:148] Top shape: 16 32 28 28 (401408)
I0624 17:00:24.686017 21299 net.cpp:156] Memory required for data: 276168896
I0624 17:00:24.686022 21299 layer_factory.hpp:77] Creating layer bn3_1
I0624 17:00:24.686028 21299 net.cpp:91] Creating Layer bn3_1
I0624 17:00:24.686040 21299 net.cpp:425] bn3_1 <- conv3_1
I0624 17:00:24.686048 21299 net.cpp:386] bn3_1 -> conv3_1 (in-place)
I0624 17:00:24.686215 21299 net.cpp:141] Setting up bn3_1
I0624 17:00:24.686223 21299 net.cpp:148] Top shape: 16 32 28 28 (401408)
I0624 17:00:24.686226 21299 net.cpp:156] Memory required for data: 277774528
I0624 17:00:24.686231 21299 layer_factory.hpp:77] Creating layer scale3_1
I0624 17:00:24.686239 21299 net.cpp:91] Creating Layer scale3_1
I0624 17:00:24.686241 21299 net.cpp:425] scale3_1 <- conv3_1
I0624 17:00:24.686244 21299 net.cpp:386] scale3_1 -> conv3_1 (in-place)
I0624 17:00:24.686278 21299 layer_factory.hpp:77] Creating layer scale3_1
I0624 17:00:24.686375 21299 net.cpp:141] Setting up scale3_1
I0624 17:00:24.686383 21299 net.cpp:148] Top shape: 16 32 28 28 (401408)
I0624 17:00:24.686384 21299 net.cpp:156] Memory required for data: 279380160
I0624 17:00:24.686388 21299 layer_factory.hpp:77] Creating layer relu3_1
I0624 17:00:24.686394 21299 net.cpp:91] Creating Layer relu3_1
I0624 17:00:24.686398 21299 net.cpp:425] relu3_1 <- conv3_1
I0624 17:00:24.686400 21299 net.cpp:386] relu3_1 -> conv3_1 (in-place)
I0624 17:00:24.686544 21299 net.cpp:141] Setting up relu3_1
I0624 17:00:24.686553 21299 net.cpp:148] Top shape: 16 32 28 28 (401408)
I0624 17:00:24.686555 21299 net.cpp:156] Memory required for data: 280985792
I0624 17:00:24.686558 21299 layer_factory.hpp:77] Creating layer conv3_2
I0624 17:00:24.686568 21299 net.cpp:91] Creating Layer conv3_2
I0624 17:00:24.686569 21299 net.cpp:425] conv3_2 <- conv3_1
I0624 17:00:24.686574 21299 net.cpp:399] conv3_2 -> conv3_2
I0624 17:00:24.687463 21299 net.cpp:141] Setting up conv3_2
I0624 17:00:24.687476 21299 net.cpp:148] Top shape: 16 32 28 28 (401408)
I0624 17:00:24.687479 21299 net.cpp:156] Memory required for data: 282591424
I0624 17:00:24.687484 21299 layer_factory.hpp:77] Creating layer bn3_2
I0624 17:00:24.687490 21299 net.cpp:91] Creating Layer bn3_2
I0624 17:00:24.687494 21299 net.cpp:425] bn3_2 <- conv3_2
I0624 17:00:24.687497 21299 net.cpp:386] bn3_2 -> conv3_2 (in-place)
I0624 17:00:24.687659 21299 net.cpp:141] Setting up bn3_2
I0624 17:00:24.687666 21299 net.cpp:148] Top shape: 16 32 28 28 (401408)
I0624 17:00:24.687669 21299 net.cpp:156] Memory required for data: 284197056
I0624 17:00:24.687679 21299 layer_factory.hpp:77] Creating layer scale3_2
I0624 17:00:24.687685 21299 net.cpp:91] Creating Layer scale3_2
I0624 17:00:24.687687 21299 net.cpp:425] scale3_2 <- conv3_2
I0624 17:00:24.687691 21299 net.cpp:386] scale3_2 -> conv3_2 (in-place)
I0624 17:00:24.687731 21299 layer_factory.hpp:77] Creating layer scale3_2
I0624 17:00:24.687826 21299 net.cpp:141] Setting up scale3_2
I0624 17:00:24.687834 21299 net.cpp:148] Top shape: 16 32 28 28 (401408)
I0624 17:00:24.687836 21299 net.cpp:156] Memory required for data: 285802688
I0624 17:00:24.687840 21299 layer_factory.hpp:77] Creating layer relu3_2
I0624 17:00:24.687845 21299 net.cpp:91] Creating Layer relu3_2
I0624 17:00:24.687849 21299 net.cpp:425] relu3_2 <- conv3_2
I0624 17:00:24.687852 21299 net.cpp:386] relu3_2 -> conv3_2 (in-place)
I0624 17:00:24.687985 21299 net.cpp:141] Setting up relu3_2
I0624 17:00:24.687994 21299 net.cpp:148] Top shape: 16 32 28 28 (401408)
I0624 17:00:24.687996 21299 net.cpp:156] Memory required for data: 287408320
I0624 17:00:24.687999 21299 layer_factory.hpp:77] Creating layer pool3
I0624 17:00:24.688004 21299 net.cpp:91] Creating Layer pool3
I0624 17:00:24.688007 21299 net.cpp:425] pool3 <- conv3_2
I0624 17:00:24.688014 21299 net.cpp:399] pool3 -> pool3
I0624 17:00:24.688048 21299 net.cpp:141] Setting up pool3
I0624 17:00:24.688053 21299 net.cpp:148] Top shape: 16 32 14 14 (100352)
I0624 17:00:24.688055 21299 net.cpp:156] Memory required for data: 287809728
I0624 17:00:24.688057 21299 layer_factory.hpp:77] Creating layer conv4_1
I0624 17:00:24.688066 21299 net.cpp:91] Creating Layer conv4_1
I0624 17:00:24.688068 21299 net.cpp:425] conv4_1 <- pool3
I0624 17:00:24.688072 21299 net.cpp:399] conv4_1 -> conv4_1
I0624 17:00:24.688966 21299 net.cpp:141] Setting up conv4_1
I0624 17:00:24.688988 21299 net.cpp:148] Top shape: 16 64 14 14 (200704)
I0624 17:00:24.688992 21299 net.cpp:156] Memory required for data: 288612544
I0624 17:00:24.688997 21299 layer_factory.hpp:77] Creating layer bn4_1
I0624 17:00:24.689003 21299 net.cpp:91] Creating Layer bn4_1
I0624 17:00:24.689007 21299 net.cpp:425] bn4_1 <- conv4_1
I0624 17:00:24.689012 21299 net.cpp:386] bn4_1 -> conv4_1 (in-place)
I0624 17:00:24.689177 21299 net.cpp:141] Setting up bn4_1
I0624 17:00:24.689183 21299 net.cpp:148] Top shape: 16 64 14 14 (200704)
I0624 17:00:24.689185 21299 net.cpp:156] Memory required for data: 289415360
I0624 17:00:24.689191 21299 layer_factory.hpp:77] Creating layer scale4_1
I0624 17:00:24.689198 21299 net.cpp:91] Creating Layer scale4_1
I0624 17:00:24.689200 21299 net.cpp:425] scale4_1 <- conv4_1
I0624 17:00:24.689203 21299 net.cpp:386] scale4_1 -> conv4_1 (in-place)
I0624 17:00:24.689237 21299 layer_factory.hpp:77] Creating layer scale4_1
I0624 17:00:24.689329 21299 net.cpp:141] Setting up scale4_1
I0624 17:00:24.689337 21299 net.cpp:148] Top shape: 16 64 14 14 (200704)
I0624 17:00:24.689338 21299 net.cpp:156] Memory required for data: 290218176
I0624 17:00:24.689343 21299 layer_factory.hpp:77] Creating layer relu4_1
I0624 17:00:24.689350 21299 net.cpp:91] Creating Layer relu4_1
I0624 17:00:24.689357 21299 net.cpp:425] relu4_1 <- conv4_1
I0624 17:00:24.689360 21299 net.cpp:386] relu4_1 -> conv4_1 (in-place)
I0624 17:00:24.689496 21299 net.cpp:141] Setting up relu4_1
I0624 17:00:24.689504 21299 net.cpp:148] Top shape: 16 64 14 14 (200704)
I0624 17:00:24.689507 21299 net.cpp:156] Memory required for data: 291020992
I0624 17:00:24.689509 21299 layer_factory.hpp:77] Creating layer conv4_2
I0624 17:00:24.689518 21299 net.cpp:91] Creating Layer conv4_2
I0624 17:00:24.689522 21299 net.cpp:425] conv4_2 <- conv4_1
I0624 17:00:24.689525 21299 net.cpp:399] conv4_2 -> conv4_2
I0624 17:00:24.690529 21299 net.cpp:141] Setting up conv4_2
I0624 17:00:24.690542 21299 net.cpp:148] Top shape: 16 64 14 14 (200704)
I0624 17:00:24.690544 21299 net.cpp:156] Memory required for data: 291823808
I0624 17:00:24.690549 21299 layer_factory.hpp:77] Creating layer bn4_2
I0624 17:00:24.690556 21299 net.cpp:91] Creating Layer bn4_2
I0624 17:00:24.690558 21299 net.cpp:425] bn4_2 <- conv4_2
I0624 17:00:24.690562 21299 net.cpp:386] bn4_2 -> conv4_2 (in-place)
I0624 17:00:24.690717 21299 net.cpp:141] Setting up bn4_2
I0624 17:00:24.690724 21299 net.cpp:148] Top shape: 16 64 14 14 (200704)
I0624 17:00:24.690726 21299 net.cpp:156] Memory required for data: 292626624
I0624 17:00:24.690732 21299 layer_factory.hpp:77] Creating layer scale4_2
I0624 17:00:24.690737 21299 net.cpp:91] Creating Layer scale4_2
I0624 17:00:24.690740 21299 net.cpp:425] scale4_2 <- conv4_2
I0624 17:00:24.690743 21299 net.cpp:386] scale4_2 -> conv4_2 (in-place)
I0624 17:00:24.690778 21299 layer_factory.hpp:77] Creating layer scale4_2
I0624 17:00:24.690868 21299 net.cpp:141] Setting up scale4_2
I0624 17:00:24.690876 21299 net.cpp:148] Top shape: 16 64 14 14 (200704)
I0624 17:00:24.690877 21299 net.cpp:156] Memory required for data: 293429440
I0624 17:00:24.690882 21299 layer_factory.hpp:77] Creating layer relu4_2
I0624 17:00:24.690886 21299 net.cpp:91] Creating Layer relu4_2
I0624 17:00:24.690889 21299 net.cpp:425] relu4_2 <- conv4_2
I0624 17:00:24.690893 21299 net.cpp:386] relu4_2 -> conv4_2 (in-place)
I0624 17:00:24.691270 21299 net.cpp:141] Setting up relu4_2
I0624 17:00:24.691282 21299 net.cpp:148] Top shape: 16 64 14 14 (200704)
I0624 17:00:24.691285 21299 net.cpp:156] Memory required for data: 294232256
I0624 17:00:24.691287 21299 layer_factory.hpp:77] Creating layer pool4
I0624 17:00:24.691293 21299 net.cpp:91] Creating Layer pool4
I0624 17:00:24.691296 21299 net.cpp:425] pool4 <- conv4_2
I0624 17:00:24.691301 21299 net.cpp:399] pool4 -> pool4
I0624 17:00:24.691340 21299 net.cpp:141] Setting up pool4
I0624 17:00:24.691347 21299 net.cpp:148] Top shape: 16 64 7 7 (50176)
I0624 17:00:24.691349 21299 net.cpp:156] Memory required for data: 294432960
I0624 17:00:24.691352 21299 layer_factory.hpp:77] Creating layer conv5_1
I0624 17:00:24.691371 21299 net.cpp:91] Creating Layer conv5_1
I0624 17:00:24.691375 21299 net.cpp:425] conv5_1 <- pool4
I0624 17:00:24.691378 21299 net.cpp:399] conv5_1 -> conv5_1
I0624 17:00:24.692409 21299 net.cpp:141] Setting up conv5_1
I0624 17:00:24.692422 21299 net.cpp:148] Top shape: 16 64 7 7 (50176)
I0624 17:00:24.692425 21299 net.cpp:156] Memory required for data: 294633664
I0624 17:00:24.692430 21299 layer_factory.hpp:77] Creating layer bn5_1
I0624 17:00:24.692436 21299 net.cpp:91] Creating Layer bn5_1
I0624 17:00:24.692440 21299 net.cpp:425] bn5_1 <- conv5_1
I0624 17:00:24.692443 21299 net.cpp:386] bn5_1 -> conv5_1 (in-place)
I0624 17:00:24.692605 21299 net.cpp:141] Setting up bn5_1
I0624 17:00:24.692612 21299 net.cpp:148] Top shape: 16 64 7 7 (50176)
I0624 17:00:24.692615 21299 net.cpp:156] Memory required for data: 294834368
I0624 17:00:24.692626 21299 layer_factory.hpp:77] Creating layer scale5_1
I0624 17:00:24.692632 21299 net.cpp:91] Creating Layer scale5_1
I0624 17:00:24.692636 21299 net.cpp:425] scale5_1 <- conv5_1
I0624 17:00:24.692638 21299 net.cpp:386] scale5_1 -> conv5_1 (in-place)
I0624 17:00:24.692673 21299 layer_factory.hpp:77] Creating layer scale5_1
I0624 17:00:24.692764 21299 net.cpp:141] Setting up scale5_1
I0624 17:00:24.692771 21299 net.cpp:148] Top shape: 16 64 7 7 (50176)
I0624 17:00:24.692773 21299 net.cpp:156] Memory required for data: 295035072
I0624 17:00:24.692777 21299 layer_factory.hpp:77] Creating layer relu5_1
I0624 17:00:24.692781 21299 net.cpp:91] Creating Layer relu5_1
I0624 17:00:24.692785 21299 net.cpp:425] relu5_1 <- conv5_1
I0624 17:00:24.692787 21299 net.cpp:386] relu5_1 -> conv5_1 (in-place)
I0624 17:00:24.692929 21299 net.cpp:141] Setting up relu5_1
I0624 17:00:24.692937 21299 net.cpp:148] Top shape: 16 64 7 7 (50176)
I0624 17:00:24.692939 21299 net.cpp:156] Memory required for data: 295235776
I0624 17:00:24.692942 21299 layer_factory.hpp:77] Creating layer conv5_2
I0624 17:00:24.692950 21299 net.cpp:91] Creating Layer conv5_2
I0624 17:00:24.692953 21299 net.cpp:425] conv5_2 <- conv5_1
I0624 17:00:24.692957 21299 net.cpp:399] conv5_2 -> conv5_2
I0624 17:00:24.693976 21299 net.cpp:141] Setting up conv5_2
I0624 17:00:24.693989 21299 net.cpp:148] Top shape: 16 64 7 7 (50176)
I0624 17:00:24.693990 21299 net.cpp:156] Memory required for data: 295436480
I0624 17:00:24.693994 21299 layer_factory.hpp:77] Creating layer bn5_2
I0624 17:00:24.694001 21299 net.cpp:91] Creating Layer bn5_2
I0624 17:00:24.694005 21299 net.cpp:425] bn5_2 <- conv5_2
I0624 17:00:24.694008 21299 net.cpp:386] bn5_2 -> conv5_2 (in-place)
I0624 17:00:24.694167 21299 net.cpp:141] Setting up bn5_2
I0624 17:00:24.694175 21299 net.cpp:148] Top shape: 16 64 7 7 (50176)
I0624 17:00:24.694177 21299 net.cpp:156] Memory required for data: 295637184
I0624 17:00:24.694182 21299 layer_factory.hpp:77] Creating layer scale5_2
I0624 17:00:24.694188 21299 net.cpp:91] Creating Layer scale5_2
I0624 17:00:24.694190 21299 net.cpp:425] scale5_2 <- conv5_2
I0624 17:00:24.694195 21299 net.cpp:386] scale5_2 -> conv5_2 (in-place)
I0624 17:00:24.694229 21299 layer_factory.hpp:77] Creating layer scale5_2
I0624 17:00:24.694319 21299 net.cpp:141] Setting up scale5_2
I0624 17:00:24.694325 21299 net.cpp:148] Top shape: 16 64 7 7 (50176)
I0624 17:00:24.694327 21299 net.cpp:156] Memory required for data: 295837888
I0624 17:00:24.694332 21299 layer_factory.hpp:77] Creating layer relu5_2
I0624 17:00:24.694336 21299 net.cpp:91] Creating Layer relu5_2
I0624 17:00:24.694339 21299 net.cpp:425] relu5_2 <- conv5_2
I0624 17:00:24.694344 21299 net.cpp:386] relu5_2 -> conv5_2 (in-place)
I0624 17:00:24.694483 21299 net.cpp:141] Setting up relu5_2
I0624 17:00:24.694491 21299 net.cpp:148] Top shape: 16 64 7 7 (50176)
I0624 17:00:24.694494 21299 net.cpp:156] Memory required for data: 296038592
I0624 17:00:24.694496 21299 layer_factory.hpp:77] Creating layer pool5
I0624 17:00:24.694502 21299 net.cpp:91] Creating Layer pool5
I0624 17:00:24.694504 21299 net.cpp:425] pool5 <- conv5_2
I0624 17:00:24.694509 21299 net.cpp:399] pool5 -> pool5
I0624 17:00:24.694672 21299 net.cpp:141] Setting up pool5
I0624 17:00:24.694681 21299 net.cpp:148] Top shape: 16 64 1 1 (1024)
I0624 17:00:24.694684 21299 net.cpp:156] Memory required for data: 296042688
I0624 17:00:24.694686 21299 layer_factory.hpp:77] Creating layer fc2
I0624 17:00:24.694692 21299 net.cpp:91] Creating Layer fc2
I0624 17:00:24.694694 21299 net.cpp:425] fc2 <- pool5
I0624 17:00:24.694700 21299 net.cpp:399] fc2 -> fc2
I0624 17:00:24.694784 21299 net.cpp:141] Setting up fc2
I0624 17:00:24.694792 21299 net.cpp:148] Top shape: 16 2 (32)
I0624 17:00:24.694793 21299 net.cpp:156] Memory required for data: 296042816
I0624 17:00:24.694798 21299 layer_factory.hpp:77] Creating layer fc2_fc2_0_split
I0624 17:00:24.694804 21299 net.cpp:91] Creating Layer fc2_fc2_0_split
I0624 17:00:24.694808 21299 net.cpp:425] fc2_fc2_0_split <- fc2
I0624 17:00:24.694810 21299 net.cpp:399] fc2_fc2_0_split -> fc2_fc2_0_split_0
I0624 17:00:24.694814 21299 net.cpp:399] fc2_fc2_0_split -> fc2_fc2_0_split_1
I0624 17:00:24.694845 21299 net.cpp:141] Setting up fc2_fc2_0_split
I0624 17:00:24.694849 21299 net.cpp:148] Top shape: 16 2 (32)
I0624 17:00:24.694852 21299 net.cpp:148] Top shape: 16 2 (32)
I0624 17:00:24.694854 21299 net.cpp:156] Memory required for data: 296043072
I0624 17:00:24.694857 21299 layer_factory.hpp:77] Creating layer loss
I0624 17:00:24.694862 21299 net.cpp:91] Creating Layer loss
I0624 17:00:24.694864 21299 net.cpp:425] loss <- fc2_fc2_0_split_0
I0624 17:00:24.694867 21299 net.cpp:425] loss <- label_data_1_split_0
I0624 17:00:24.694871 21299 net.cpp:399] loss -> loss
…
