…
I0625 20:07:09.339669 18573 net.cpp:313] The NetState phase (0) differed from the phase (1) specified by a rule in layer data
I0625 20:07:09.339891 18573 net.cpp:49] Initializing net from parameters: 
name: "BPnet"
state {
  phase: TRAIN
}
layer {
  name: "data"
  type: "Data"
  top: "data"
  top: "label"
  include {
    phase: TRAIN
  }
  transform_param {
    mirror: true
    mean_value: 100
    crop_h: 196
    crop_w: 256
    rotation_range: 10
    scale_jitter_range: 0.1
    contrast_jitter_range: 0.3
  }
  data_param {
    source: "data/train_lmdb"
    batch_size: 32
    backend: LMDB
  }
}
layer {
  name: "conv1_1"
  type: "Convolution"
  bottom: "data"
  top: "conv1_1"
  param {
    lr_mult: 1
    decay_mult: 1
  }
  convolution_param {
    num_output: 32
    bias_term: false
    pad: 3
    kernel_size: 7
    stride: 2
    weight_filler {
      type: "xavier"
    }
  }
}
layer {
  name: "bn1_1"
  type: "BatchNorm"
  bottom: "conv1_1"
  top: "conv1_1"
  param {
    lr_mult: 0
  }
  param {
    lr_mult: 0
  }
  param {
    lr_mult: 0
  }
  batch_norm_param {
    use_global_stats: false
  }
}
layer {
  name: "scale1_1"
  type: "Scale"
  bottom: "conv1_1"
  top: "conv1_1"
  param {
    lr_mult: 1
    decay_mult: 1
  }
  param {
    lr_mult: 1
    decay_mult: 1
  }
  scale_param {
    bias_term: true
    bias_filler {
      type: "constant"
      value: 0
    }
  }
}
layer {
  name: "relu1_1"
  type: "ReLU"
  bottom: "conv1_1"
  top: "conv1_1"
}
layer {
  name: "conv1_2"
  type: "Convolution"
  bottom: "conv1_1"
  top: "conv1_2"
  param {
    lr_mult: 1
    decay_mult: 1
  }
  convolution_param {
    num_output: 32
    bias_term: false
    pad: 1
    kernel_size: 3
    weight_filler {
      type: "xavier"
    }
  }
}
layer {
  name: "bn1_2"
  type: "BatchNorm"
  bottom: "conv1_2"
  top: "conv1_2"
  param {
    lr_mult: 0
  }
  param {
    lr_mult: 0
  }
  param {
    lr_mult: 0
  }
  batch_norm_param {
    use_global_stats: false
  }
}
layer {
  name: "scale1_2"
  type: "Scale"
  bottom: "conv1_2"
  top: "conv1_2"
  param {
    lr_mult: 1
    decay_mult: 1
  }
  param {
    lr_mult: 1
    decay_mult: 1
  }
  scale_param {
    bias_term: true
    bias_filler {
      type: "constant"
      value: 0
    }
  }
}
layer {
  name: "relu1_2"
  type: "ReLU"
  bottom: "conv1_2"
  top: "conv1_2"
}
layer {
  name: "pool1"
  type: "Pooling"
  bottom: "conv1_2"
  top: "pool1"
  pooling_param {
    pool: MAX
    kernel_size: 2
    stride: 2
  }
}
layer {
  name: "conv2_1"
  type: "Convolution"
  bottom: "pool1"
  top: "conv2_1"
  param {
    lr_mult: 1
    decay_mult: 1
  }
  convolution_param {
    num_output: 64
    bias_term: false
    pad: 1
    kernel_size: 3
    weight_filler {
      type: "xavier"
    }
  }
}
layer {
  name: "bn2_1"
  type: "BatchNorm"
  bottom: "conv2_1"
  top: "conv2_1"
  param {
    lr_mult: 0
  }
  param {
    lr_mult: 0
  }
  param {
    lr_mult: 0
  }
  batch_norm_param {
    use_global_stats: false
  }
}
layer {
  name: "scale2_1"
  type: "Scale"
  bottom: "conv2_1"
  top: "conv2_1"
  param {
    lr_mult: 1
    decay_mult: 1
  }
  param {
    lr_mult: 1
    decay_mult: 1
  }
  scale_param {
    bias_term: true
    bias_filler {
      type: "constant"
      value: 0
    }
  }
}
layer {
  name: "relu2_1"
  type: "ReLU"
  bottom: "conv2_1"
  top: "conv2_1"
}
layer {
  name: "conv2_2"
  type: "Convolution"
  bottom: "conv2_1"
  top: "conv2_2"
  param {
    lr_mult: 1
    decay_mult: 1
  }
  convolution_param {
    num_output: 64
    bias_term: false
    pad: 1
    kernel_size: 3
    weight_filler {
      type: "xavier"
    }
  }
}
layer {
  name: "bn2_2"
  type: "BatchNorm"
  bottom: "conv2_2"
  top: "conv2_2"
  param {
    lr_mult: 0
  }
  param {
    lr_mult: 0
  }
  param {
    lr_mult: 0
  }
  batch_norm_param {
    use_global_stats: false
  }
}
layer {
  name: "scale2_2"
  type: "Scale"
  bottom: "conv2_2"
  top: "conv2_2"
  param {
    lr_mult: 1
    decay_mult: 1
  }
  param {
    lr_mult: 1
    decay_mult: 1
  }
  scale_param {
    bias_term: true
    bias_filler {
      type: "constant"
      value: 0
    }
  }
}
layer {
  name: "relu2_2"
  type: "ReLU"
  bottom: "conv2_2"
  top: "conv2_2"
}
layer {
  name: "pool2"
  type: "Pooling"
  bottom: "conv2_2"
  top: "pool2"
  pooling_param {
    pool: MAX
    kernel_size: 2
    stride: 2
  }
}
layer {
  name: "conv3_1"
  type: "Convolution"
  bottom: "pool2"
  top: "conv3_1"
  param {
    lr_mult: 1
    decay_mult: 1
  }
  convolution_param {
    num_output: 128
    bias_term: false
    pad: 1
    kernel_size: 3
    weight_filler {
      type: "xavier"
    }
  }
}
layer {
  name: "bn3_1"
  type: "BatchNorm"
  bottom: "conv3_1"
  top: "conv3_1"
  param {
    lr_mult: 0
  }
  param {
    lr_mult: 0
  }
  param {
    lr_mult: 0
  }
  batch_norm_param {
    use_global_stats: false
  }
}
layer {
  name: "scale3_1"
  type: "Scale"
  bottom: "conv3_1"
  top: "conv3_1"
  param {
    lr_mult: 1
    decay_mult: 1
  }
  param {
    lr_mult: 1
    decay_mult: 1
  }
  scale_param {
    bias_term: true
    bias_filler {
      type: "constant"
      value: 0
    }
  }
}
layer {
  name: "relu3_1"
  type: "ReLU"
  bottom: "conv3_1"
  top: "conv3_1"
}
layer {
  name: "conv3_2"
  type: "Convolution"
  bottom: "conv3_1"
  top: "conv3_2"
  param {
    lr_mult: 1
    decay_mult: 1
  }
  convolution_param {
    num_output: 128
    bias_term: false
    pad: 1
    kernel_size: 3
    weight_filler {
      type: "xavier"
    }
  }
}
layer {
  name: "bn3_2"
  type: "BatchNorm"
  bottom: "conv3_2"
  top: "conv3_2"
  param {
    lr_mult: 0
  }
  param {
    lr_mult: 0
  }
  param {
    lr_mult: 0
  }
  batch_norm_param {
    use_global_stats: false
  }
}
layer {
  name: "scale3_2"
  type: "Scale"
  bottom: "conv3_2"
  top: "conv3_2"
  param {
    lr_mult: 1
    decay_mult: 1
  }
  param {
    lr_mult: 1
    decay_mult: 1
  }
  scale_param {
    bias_term: true
    bias_filler {
      type: "constant"
      value: 0
    }
  }
}
layer {
  name: "relu3_2"
  type: "ReLU"
  bottom: "conv3_2"
  top: "conv3_2"
}
layer {
  name: "pool3"
  type: "Pooling"
  bottom: "conv3_2"
  top: "pool3"
  pooling_param {
    pool: MAX
    kernel_size: 2
    stride: 2
  }
}
layer {
  name: "conv4_1"
  type: "Convolution"
  bottom: "pool3"
  top: "conv4_1"
  param {
    lr_mult: 1
    decay_mult: 1
  }
  convolution_param {
    num_output: 256
    bias_term: false
    pad: 1
    kernel_size: 3
    weight_filler {
      type: "xavier"
    }
  }
}
layer {
  name: "bn4_1"
  type: "BatchNorm"
  bottom: "conv4_1"
  top: "conv4_1"
  param {
    lr_mult: 0
  }
  param {
    lr_mult: 0
  }
  param {
    lr_mult: 0
  }
  batch_norm_param {
    use_global_stats: false
  }
}
layer {
  name: "scale4_1"
  type: "Scale"
  bottom: "conv4_1"
  top: "conv4_1"
  param {
    lr_mult: 1
    decay_mult: 1
  }
  param {
    lr_mult: 1
    decay_mult: 1
  }
  scale_param {
    bias_term: true
    bias_filler {
      type: "constant"
      value: 0
    }
  }
}
layer {
  name: "relu4_1"
  type: "ReLU"
  bottom: "conv4_1"
  top: "conv4_1"
}
layer {
  name: "conv4_2"
  type: "Convolution"
  bottom: "conv4_1"
  top: "conv4_2"
  param {
    lr_mult: 1
    decay_mult: 1
  }
  convolution_param {
    num_output: 256
    bias_term: false
    pad: 1
    kernel_size: 3
    weight_filler {
      type: "xavier"
    }
  }
}
layer {
  name: "bn4_2"
  type: "BatchNorm"
  bottom: "conv4_2"
  top: "conv4_2"
  param {
    lr_mult: 0
  }
  param {
    lr_mult: 0
  }
  param {
    lr_mult: 0
  }
  batch_norm_param {
    use_global_stats: false
  }
}
layer {
  name: "scale4_2"
  type: "Scale"
  bottom: "conv4_2"
  top: "conv4_2"
  param {
    lr_mult: 1
    decay_mult: 1
  }
  param {
    lr_mult: 1
    decay_mult: 1
  }
  scale_param {
    bias_term: true
    bias_filler {
      type: "constant"
      value: 0
    }
  }
}
layer {
  name: "relu4_2"
  type: "ReLU"
  bottom: "conv4_2"
  top: "conv4_2"
}
layer {
  name: "pool4"
  type: "Pooling"
  bottom: "conv4_2"
  top: "pool4"
  pooling_param {
    pool: MAX
    kernel_size: 2
    stride: 2
  }
}
layer {
  name: "conv5_1"
  type: "Convolution"
  bottom: "pool4"
  top: "conv5_1"
  param {
    lr_mult: 1
    decay_mult: 1
  }
  convolution_param {
    num_output: 256
    bias_term: false
    pad: 1
    kernel_size: 3
    weight_filler {
      type: "xavier"
    }
  }
}
layer {
  name: "bn5_1"
  type: "BatchNorm"
  bottom: "conv5_1"
  top: "conv5_1"
  param {
    lr_mult: 0
  }
  param {
    lr_mult: 0
  }
  param {
    lr_mult: 0
  }
  batch_norm_param {
    use_global_stats: false
  }
}
layer {
  name: "scale5_1"
  type: "Scale"
  bottom: "conv5_1"
  top: "conv5_1"
  param {
    lr_mult: 1
    decay_mult: 1
  }
  param {
    lr_mult: 1
    decay_mult: 1
  }
  scale_param {
    bias_term: true
    bias_filler {
      type: "constant"
      value: 0
    }
  }
}
layer {
  name: "relu5_1"
  type: "ReLU"
  bottom: "conv5_1"
  top: "conv5_1"
}
layer {
  name: "conv5_2"
  type: "Convolution"
  bottom: "conv5_1"
  top: "conv5_2"
  param {
    lr_mult: 1
    decay_mult: 1
  }
  convolution_param {
    num_output: 256
    bias_term: false
    pad: 1
    kernel_size: 3
    weight_filler {
      type: "xavier"
    }
  }
}
layer {
  name: "bn5_2"
  type: "BatchNorm"
  bottom: "conv5_2"
  top: "conv5_2"
  param {
    lr_mult: 0
  }
  param {
    lr_mult: 0
  }
  param {
    lr_mult: 0
  }
  batch_norm_param {
    use_global_stats: false
  }
}
layer {
  name: "scale5_2"
  type: "Scale"
  bottom: "conv5_2"
  top: "conv5_2"
  param {
    lr_mult: 1
    decay_mult: 1
  }
  param {
    lr_mult: 1
    decay_mult: 1
  }
  scale_param {
    bias_term: true
    bias_filler {
      type: "constant"
      value: 0
    }
  }
}
layer {
  name: "relu5_2"
  type: "ReLU"
  bottom: "conv5_2"
  top: "conv5_2"
}
layer {
  name: "pool5"
  type: "Pooling"
  bottom: "conv5_2"
  top: "pool5"
  pooling_param {
    pool: AVE
    stride: 1
    kernel_h: 6
    kernel_w: 8
  }
}
layer {
  name: "fc2"
  type: "InnerProduct"
  bottom: "pool5"
  top: "fc2"
  inner_product_param {
    num_output: 2
  }
}
layer {
  name: "loss"
  type: "SoftmaxWithLoss"
  bottom: "fc2"
  bottom: "label"
  top: "loss"
}
layer {
  name: "accuracy"
  type: "Accuracy"
  bottom: "fc2"
  bottom: "label"
  top: "accuracy"
}
I0625 20:07:09.340055 18573 layer_factory.hpp:77] Creating layer data
I0625 20:07:09.340523 18573 net.cpp:91] Creating Layer data
I0625 20:07:09.340534 18573 net.cpp:399] data -> data
I0625 20:07:09.340556 18573 net.cpp:399] data -> label
I0625 20:07:09.341866 18577 db_lmdb.cpp:35] Opened lmdb data/train_lmdb
I0625 20:07:09.365813 18573 data_layer.cpp:42] output data size: 32,3,196,256
I0625 20:07:09.406193 18573 net.cpp:141] Setting up data
I0625 20:07:09.406227 18573 net.cpp:148] Top shape: 32 3 196 256 (4816896)
I0625 20:07:09.406234 18573 net.cpp:148] Top shape: 32 (32)
I0625 20:07:09.406237 18573 net.cpp:156] Memory required for data: 19267712
I0625 20:07:09.406249 18573 layer_factory.hpp:77] Creating layer label_data_1_split
I0625 20:07:09.406270 18573 net.cpp:91] Creating Layer label_data_1_split
I0625 20:07:09.406280 18573 net.cpp:425] label_data_1_split <- label
I0625 20:07:09.406296 18573 net.cpp:399] label_data_1_split -> label_data_1_split_0
I0625 20:07:09.406311 18573 net.cpp:399] label_data_1_split -> label_data_1_split_1
I0625 20:07:09.406378 18573 net.cpp:141] Setting up label_data_1_split
I0625 20:07:09.406388 18573 net.cpp:148] Top shape: 32 (32)
I0625 20:07:09.406393 18573 net.cpp:148] Top shape: 32 (32)
I0625 20:07:09.406396 18573 net.cpp:156] Memory required for data: 19267968
I0625 20:07:09.406400 18573 layer_factory.hpp:77] Creating layer conv1_1
I0625 20:07:09.406422 18573 net.cpp:91] Creating Layer conv1_1
I0625 20:07:09.406445 18573 net.cpp:425] conv1_1 <- data
I0625 20:07:09.406455 18573 net.cpp:399] conv1_1 -> conv1_1
I0625 20:07:09.690104 18573 net.cpp:141] Setting up conv1_1
I0625 20:07:09.690130 18573 net.cpp:148] Top shape: 32 32 98 128 (12845056)
I0625 20:07:09.690135 18573 net.cpp:156] Memory required for data: 70648192
I0625 20:07:09.690150 18573 layer_factory.hpp:77] Creating layer bn1_1
I0625 20:07:09.690171 18573 net.cpp:91] Creating Layer bn1_1
I0625 20:07:09.690181 18573 net.cpp:425] bn1_1 <- conv1_1
I0625 20:07:09.690186 18573 net.cpp:386] bn1_1 -> conv1_1 (in-place)
I0625 20:07:09.690343 18573 net.cpp:141] Setting up bn1_1
I0625 20:07:09.690352 18573 net.cpp:148] Top shape: 32 32 98 128 (12845056)
I0625 20:07:09.690354 18573 net.cpp:156] Memory required for data: 122028416
I0625 20:07:09.690363 18573 layer_factory.hpp:77] Creating layer scale1_1
I0625 20:07:09.690372 18573 net.cpp:91] Creating Layer scale1_1
I0625 20:07:09.690376 18573 net.cpp:425] scale1_1 <- conv1_1
I0625 20:07:09.690379 18573 net.cpp:386] scale1_1 -> conv1_1 (in-place)
I0625 20:07:09.690413 18573 layer_factory.hpp:77] Creating layer scale1_1
I0625 20:07:09.690511 18573 net.cpp:141] Setting up scale1_1
I0625 20:07:09.690518 18573 net.cpp:148] Top shape: 32 32 98 128 (12845056)
I0625 20:07:09.690521 18573 net.cpp:156] Memory required for data: 173408640
I0625 20:07:09.690527 18573 layer_factory.hpp:77] Creating layer relu1_1
I0625 20:07:09.690532 18573 net.cpp:91] Creating Layer relu1_1
I0625 20:07:09.690536 18573 net.cpp:425] relu1_1 <- conv1_1
I0625 20:07:09.690538 18573 net.cpp:386] relu1_1 -> conv1_1 (in-place)
I0625 20:07:09.690678 18573 net.cpp:141] Setting up relu1_1
I0625 20:07:09.690687 18573 net.cpp:148] Top shape: 32 32 98 128 (12845056)
I0625 20:07:09.690690 18573 net.cpp:156] Memory required for data: 224788864
I0625 20:07:09.690692 18573 layer_factory.hpp:77] Creating layer conv1_2
I0625 20:07:09.690701 18573 net.cpp:91] Creating Layer conv1_2
I0625 20:07:09.690704 18573 net.cpp:425] conv1_2 <- conv1_1
I0625 20:07:09.690709 18573 net.cpp:399] conv1_2 -> conv1_2
I0625 20:07:09.691578 18573 net.cpp:141] Setting up conv1_2
I0625 20:07:09.691591 18573 net.cpp:148] Top shape: 32 32 98 128 (12845056)
I0625 20:07:09.691593 18573 net.cpp:156] Memory required for data: 276169088
I0625 20:07:09.691597 18573 layer_factory.hpp:77] Creating layer bn1_2
I0625 20:07:09.691604 18573 net.cpp:91] Creating Layer bn1_2
I0625 20:07:09.691607 18573 net.cpp:425] bn1_2 <- conv1_2
I0625 20:07:09.691612 18573 net.cpp:386] bn1_2 -> conv1_2 (in-place)
I0625 20:07:09.691768 18573 net.cpp:141] Setting up bn1_2
I0625 20:07:09.691776 18573 net.cpp:148] Top shape: 32 32 98 128 (12845056)
I0625 20:07:09.691778 18573 net.cpp:156] Memory required for data: 327549312
I0625 20:07:09.691787 18573 layer_factory.hpp:77] Creating layer scale1_2
I0625 20:07:09.691794 18573 net.cpp:91] Creating Layer scale1_2
I0625 20:07:09.691797 18573 net.cpp:425] scale1_2 <- conv1_2
I0625 20:07:09.691802 18573 net.cpp:386] scale1_2 -> conv1_2 (in-place)
I0625 20:07:09.691833 18573 layer_factory.hpp:77] Creating layer scale1_2
I0625 20:07:09.691936 18573 net.cpp:141] Setting up scale1_2
I0625 20:07:09.691943 18573 net.cpp:148] Top shape: 32 32 98 128 (12845056)
I0625 20:07:09.691946 18573 net.cpp:156] Memory required for data: 378929536
I0625 20:07:09.691951 18573 layer_factory.hpp:77] Creating layer relu1_2
I0625 20:07:09.691954 18573 net.cpp:91] Creating Layer relu1_2
I0625 20:07:09.691957 18573 net.cpp:425] relu1_2 <- conv1_2
I0625 20:07:09.691962 18573 net.cpp:386] relu1_2 -> conv1_2 (in-place)
I0625 20:07:09.692097 18573 net.cpp:141] Setting up relu1_2
I0625 20:07:09.692106 18573 net.cpp:148] Top shape: 32 32 98 128 (12845056)
I0625 20:07:09.692108 18573 net.cpp:156] Memory required for data: 430309760
I0625 20:07:09.692111 18573 layer_factory.hpp:77] Creating layer pool1
I0625 20:07:09.692116 18573 net.cpp:91] Creating Layer pool1
I0625 20:07:09.692118 18573 net.cpp:425] pool1 <- conv1_2
I0625 20:07:09.692123 18573 net.cpp:399] pool1 -> pool1
I0625 20:07:09.692168 18573 net.cpp:141] Setting up pool1
I0625 20:07:09.692188 18573 net.cpp:148] Top shape: 32 32 49 64 (3211264)
I0625 20:07:09.692189 18573 net.cpp:156] Memory required for data: 443154816
I0625 20:07:09.692193 18573 layer_factory.hpp:77] Creating layer conv2_1
I0625 20:07:09.692201 18573 net.cpp:91] Creating Layer conv2_1
I0625 20:07:09.692204 18573 net.cpp:425] conv2_1 <- pool1
I0625 20:07:09.692209 18573 net.cpp:399] conv2_1 -> conv2_1
I0625 20:07:09.696121 18573 net.cpp:141] Setting up conv2_1
I0625 20:07:09.696135 18573 net.cpp:148] Top shape: 32 64 49 64 (6422528)
I0625 20:07:09.696138 18573 net.cpp:156] Memory required for data: 468844928
I0625 20:07:09.696142 18573 layer_factory.hpp:77] Creating layer bn2_1
I0625 20:07:09.696151 18573 net.cpp:91] Creating Layer bn2_1
I0625 20:07:09.696153 18573 net.cpp:425] bn2_1 <- conv2_1
I0625 20:07:09.696158 18573 net.cpp:386] bn2_1 -> conv2_1 (in-place)
I0625 20:07:09.697355 18573 net.cpp:141] Setting up bn2_1
I0625 20:07:09.697365 18573 net.cpp:148] Top shape: 32 64 49 64 (6422528)
I0625 20:07:09.697367 18573 net.cpp:156] Memory required for data: 494535040
I0625 20:07:09.697374 18573 layer_factory.hpp:77] Creating layer scale2_1
I0625 20:07:09.697381 18573 net.cpp:91] Creating Layer scale2_1
I0625 20:07:09.697383 18573 net.cpp:425] scale2_1 <- conv2_1
I0625 20:07:09.697388 18573 net.cpp:386] scale2_1 -> conv2_1 (in-place)
I0625 20:07:09.697422 18573 layer_factory.hpp:77] Creating layer scale2_1
I0625 20:07:09.697512 18573 net.cpp:141] Setting up scale2_1
I0625 20:07:09.697518 18573 net.cpp:148] Top shape: 32 64 49 64 (6422528)
I0625 20:07:09.697521 18573 net.cpp:156] Memory required for data: 520225152
I0625 20:07:09.697528 18573 layer_factory.hpp:77] Creating layer relu2_1
I0625 20:07:09.697535 18573 net.cpp:91] Creating Layer relu2_1
I0625 20:07:09.697536 18573 net.cpp:425] relu2_1 <- conv2_1
I0625 20:07:09.697546 18573 net.cpp:386] relu2_1 -> conv2_1 (in-place)
I0625 20:07:09.697934 18573 net.cpp:141] Setting up relu2_1
I0625 20:07:09.697945 18573 net.cpp:148] Top shape: 32 64 49 64 (6422528)
I0625 20:07:09.697948 18573 net.cpp:156] Memory required for data: 545915264
I0625 20:07:09.697950 18573 layer_factory.hpp:77] Creating layer conv2_2
I0625 20:07:09.697959 18573 net.cpp:91] Creating Layer conv2_2
I0625 20:07:09.697962 18573 net.cpp:425] conv2_2 <- conv2_1
I0625 20:07:09.697967 18573 net.cpp:399] conv2_2 -> conv2_2
I0625 20:07:09.698700 18573 net.cpp:141] Setting up conv2_2
I0625 20:07:09.698710 18573 net.cpp:148] Top shape: 32 64 49 64 (6422528)
I0625 20:07:09.698712 18573 net.cpp:156] Memory required for data: 571605376
I0625 20:07:09.698716 18573 layer_factory.hpp:77] Creating layer bn2_2
I0625 20:07:09.698726 18573 net.cpp:91] Creating Layer bn2_2
I0625 20:07:09.698729 18573 net.cpp:425] bn2_2 <- conv2_2
I0625 20:07:09.698734 18573 net.cpp:386] bn2_2 -> conv2_2 (in-place)
I0625 20:07:09.698870 18573 net.cpp:141] Setting up bn2_2
I0625 20:07:09.698878 18573 net.cpp:148] Top shape: 32 64 49 64 (6422528)
I0625 20:07:09.698879 18573 net.cpp:156] Memory required for data: 597295488
I0625 20:07:09.698885 18573 layer_factory.hpp:77] Creating layer scale2_2
I0625 20:07:09.698891 18573 net.cpp:91] Creating Layer scale2_2
I0625 20:07:09.698894 18573 net.cpp:425] scale2_2 <- conv2_2
I0625 20:07:09.698899 18573 net.cpp:386] scale2_2 -> conv2_2 (in-place)
I0625 20:07:09.698927 18573 layer_factory.hpp:77] Creating layer scale2_2
I0625 20:07:09.699010 18573 net.cpp:141] Setting up scale2_2
I0625 20:07:09.699017 18573 net.cpp:148] Top shape: 32 64 49 64 (6422528)
I0625 20:07:09.699018 18573 net.cpp:156] Memory required for data: 622985600
I0625 20:07:09.699023 18573 layer_factory.hpp:77] Creating layer relu2_2
I0625 20:07:09.699026 18573 net.cpp:91] Creating Layer relu2_2
I0625 20:07:09.699029 18573 net.cpp:425] relu2_2 <- conv2_2
I0625 20:07:09.699034 18573 net.cpp:386] relu2_2 -> conv2_2 (in-place)
I0625 20:07:09.699419 18573 net.cpp:141] Setting up relu2_2
I0625 20:07:09.699430 18573 net.cpp:148] Top shape: 32 64 49 64 (6422528)
I0625 20:07:09.699434 18573 net.cpp:156] Memory required for data: 648675712
I0625 20:07:09.699446 18573 layer_factory.hpp:77] Creating layer pool2
I0625 20:07:09.699453 18573 net.cpp:91] Creating Layer pool2
I0625 20:07:09.699456 18573 net.cpp:425] pool2 <- conv2_2
I0625 20:07:09.699460 18573 net.cpp:399] pool2 -> pool2
I0625 20:07:09.699496 18573 net.cpp:141] Setting up pool2
I0625 20:07:09.699501 18573 net.cpp:148] Top shape: 32 64 25 32 (1638400)
I0625 20:07:09.699503 18573 net.cpp:156] Memory required for data: 655229312
I0625 20:07:09.699506 18573 layer_factory.hpp:77] Creating layer conv3_1
I0625 20:07:09.699512 18573 net.cpp:91] Creating Layer conv3_1
I0625 20:07:09.699514 18573 net.cpp:425] conv3_1 <- pool2
I0625 20:07:09.699518 18573 net.cpp:399] conv3_1 -> conv3_1
I0625 20:07:09.701742 18573 net.cpp:141] Setting up conv3_1
I0625 20:07:09.701755 18573 net.cpp:148] Top shape: 32 128 25 32 (3276800)
I0625 20:07:09.701757 18573 net.cpp:156] Memory required for data: 668336512
I0625 20:07:09.701761 18573 layer_factory.hpp:77] Creating layer bn3_1
I0625 20:07:09.701767 18573 net.cpp:91] Creating Layer bn3_1
I0625 20:07:09.701771 18573 net.cpp:425] bn3_1 <- conv3_1
I0625 20:07:09.701774 18573 net.cpp:386] bn3_1 -> conv3_1 (in-place)
I0625 20:07:09.702940 18573 net.cpp:141] Setting up bn3_1
I0625 20:07:09.702951 18573 net.cpp:148] Top shape: 32 128 25 32 (3276800)
I0625 20:07:09.702955 18573 net.cpp:156] Memory required for data: 681443712
I0625 20:07:09.702960 18573 layer_factory.hpp:77] Creating layer scale3_1
I0625 20:07:09.702967 18573 net.cpp:91] Creating Layer scale3_1
I0625 20:07:09.702970 18573 net.cpp:425] scale3_1 <- conv3_1
I0625 20:07:09.702977 18573 net.cpp:386] scale3_1 -> conv3_1 (in-place)
I0625 20:07:09.703011 18573 layer_factory.hpp:77] Creating layer scale3_1
I0625 20:07:09.703090 18573 net.cpp:141] Setting up scale3_1
I0625 20:07:09.703096 18573 net.cpp:148] Top shape: 32 128 25 32 (3276800)
I0625 20:07:09.703099 18573 net.cpp:156] Memory required for data: 694550912
I0625 20:07:09.703104 18573 layer_factory.hpp:77] Creating layer relu3_1
I0625 20:07:09.703107 18573 net.cpp:91] Creating Layer relu3_1
I0625 20:07:09.703110 18573 net.cpp:425] relu3_1 <- conv3_1
I0625 20:07:09.703115 18573 net.cpp:386] relu3_1 -> conv3_1 (in-place)
I0625 20:07:09.703256 18573 net.cpp:141] Setting up relu3_1
I0625 20:07:09.703266 18573 net.cpp:148] Top shape: 32 128 25 32 (3276800)
I0625 20:07:09.703269 18573 net.cpp:156] Memory required for data: 707658112
I0625 20:07:09.703271 18573 layer_factory.hpp:77] Creating layer conv3_2
I0625 20:07:09.703279 18573 net.cpp:91] Creating Layer conv3_2
I0625 20:07:09.703282 18573 net.cpp:425] conv3_2 <- conv3_1
I0625 20:07:09.703287 18573 net.cpp:399] conv3_2 -> conv3_2
I0625 20:07:09.705276 18573 net.cpp:141] Setting up conv3_2
I0625 20:07:09.705287 18573 net.cpp:148] Top shape: 32 128 25 32 (3276800)
I0625 20:07:09.705291 18573 net.cpp:156] Memory required for data: 720765312
I0625 20:07:09.705294 18573 layer_factory.hpp:77] Creating layer bn3_2
I0625 20:07:09.705302 18573 net.cpp:91] Creating Layer bn3_2
I0625 20:07:09.705305 18573 net.cpp:425] bn3_2 <- conv3_2
I0625 20:07:09.705309 18573 net.cpp:386] bn3_2 -> conv3_2 (in-place)
I0625 20:07:09.705451 18573 net.cpp:141] Setting up bn3_2
I0625 20:07:09.705458 18573 net.cpp:148] Top shape: 32 128 25 32 (3276800)
I0625 20:07:09.705461 18573 net.cpp:156] Memory required for data: 733872512
I0625 20:07:09.705472 18573 layer_factory.hpp:77] Creating layer scale3_2
I0625 20:07:09.705478 18573 net.cpp:91] Creating Layer scale3_2
I0625 20:07:09.705481 18573 net.cpp:425] scale3_2 <- conv3_2
I0625 20:07:09.705483 18573 net.cpp:386] scale3_2 -> conv3_2 (in-place)
I0625 20:07:09.705514 18573 layer_factory.hpp:77] Creating layer scale3_2
I0625 20:07:09.705593 18573 net.cpp:141] Setting up scale3_2
I0625 20:07:09.705598 18573 net.cpp:148] Top shape: 32 128 25 32 (3276800)
I0625 20:07:09.705600 18573 net.cpp:156] Memory required for data: 746979712
I0625 20:07:09.705605 18573 layer_factory.hpp:77] Creating layer relu3_2
I0625 20:07:09.705608 18573 net.cpp:91] Creating Layer relu3_2
I0625 20:07:09.705611 18573 net.cpp:425] relu3_2 <- conv3_2
I0625 20:07:09.705627 18573 net.cpp:386] relu3_2 -> conv3_2 (in-place)
I0625 20:07:09.705768 18573 net.cpp:141] Setting up relu3_2
I0625 20:07:09.705778 18573 net.cpp:148] Top shape: 32 128 25 32 (3276800)
I0625 20:07:09.705781 18573 net.cpp:156] Memory required for data: 760086912
I0625 20:07:09.705785 18573 layer_factory.hpp:77] Creating layer pool3
I0625 20:07:09.705790 18573 net.cpp:91] Creating Layer pool3
I0625 20:07:09.705791 18573 net.cpp:425] pool3 <- conv3_2
I0625 20:07:09.705796 18573 net.cpp:399] pool3 -> pool3
I0625 20:07:09.705832 18573 net.cpp:141] Setting up pool3
I0625 20:07:09.705837 18573 net.cpp:148] Top shape: 32 128 13 16 (851968)
I0625 20:07:09.705839 18573 net.cpp:156] Memory required for data: 763494784
I0625 20:07:09.705842 18573 layer_factory.hpp:77] Creating layer conv4_1
I0625 20:07:09.705849 18573 net.cpp:91] Creating Layer conv4_1
I0625 20:07:09.705852 18573 net.cpp:425] conv4_1 <- pool3
I0625 20:07:09.705855 18573 net.cpp:399] conv4_1 -> conv4_1
I0625 20:07:09.708654 18573 net.cpp:141] Setting up conv4_1
I0625 20:07:09.708667 18573 net.cpp:148] Top shape: 32 256 13 16 (1703936)
I0625 20:07:09.708673 18573 net.cpp:156] Memory required for data: 770310528
I0625 20:07:09.708676 18573 layer_factory.hpp:77] Creating layer bn4_1
I0625 20:07:09.708684 18573 net.cpp:91] Creating Layer bn4_1
I0625 20:07:09.708688 18573 net.cpp:425] bn4_1 <- conv4_1
I0625 20:07:09.708691 18573 net.cpp:386] bn4_1 -> conv4_1 (in-place)
I0625 20:07:09.708837 18573 net.cpp:141] Setting up bn4_1
I0625 20:07:09.708844 18573 net.cpp:148] Top shape: 32 256 13 16 (1703936)
I0625 20:07:09.708847 18573 net.cpp:156] Memory required for data: 777126272
I0625 20:07:09.708853 18573 layer_factory.hpp:77] Creating layer scale4_1
I0625 20:07:09.708858 18573 net.cpp:91] Creating Layer scale4_1
I0625 20:07:09.708860 18573 net.cpp:425] scale4_1 <- conv4_1
I0625 20:07:09.708864 18573 net.cpp:386] scale4_1 -> conv4_1 (in-place)
I0625 20:07:09.708895 18573 layer_factory.hpp:77] Creating layer scale4_1
I0625 20:07:09.708973 18573 net.cpp:141] Setting up scale4_1
I0625 20:07:09.708979 18573 net.cpp:148] Top shape: 32 256 13 16 (1703936)
I0625 20:07:09.708982 18573 net.cpp:156] Memory required for data: 783942016
I0625 20:07:09.708986 18573 layer_factory.hpp:77] Creating layer relu4_1
I0625 20:07:09.708994 18573 net.cpp:91] Creating Layer relu4_1
I0625 20:07:09.708997 18573 net.cpp:425] relu4_1 <- conv4_1
I0625 20:07:09.709000 18573 net.cpp:386] relu4_1 -> conv4_1 (in-place)
I0625 20:07:09.709137 18573 net.cpp:141] Setting up relu4_1
I0625 20:07:09.709146 18573 net.cpp:148] Top shape: 32 256 13 16 (1703936)
I0625 20:07:09.709148 18573 net.cpp:156] Memory required for data: 790757760
I0625 20:07:09.709151 18573 layer_factory.hpp:77] Creating layer conv4_2
I0625 20:07:09.709159 18573 net.cpp:91] Creating Layer conv4_2
I0625 20:07:09.709162 18573 net.cpp:425] conv4_2 <- conv4_1
I0625 20:07:09.709167 18573 net.cpp:399] conv4_2 -> conv4_2
I0625 20:07:09.714732 18573 net.cpp:141] Setting up conv4_2
I0625 20:07:09.714747 18573 net.cpp:148] Top shape: 32 256 13 16 (1703936)
I0625 20:07:09.714751 18573 net.cpp:156] Memory required for data: 797573504
I0625 20:07:09.714756 18573 layer_factory.hpp:77] Creating layer bn4_2
I0625 20:07:09.714763 18573 net.cpp:91] Creating Layer bn4_2
I0625 20:07:09.714767 18573 net.cpp:425] bn4_2 <- conv4_2
I0625 20:07:09.714772 18573 net.cpp:386] bn4_2 -> conv4_2 (in-place)
I0625 20:07:09.714920 18573 net.cpp:141] Setting up bn4_2
I0625 20:07:09.714926 18573 net.cpp:148] Top shape: 32 256 13 16 (1703936)
I0625 20:07:09.714928 18573 net.cpp:156] Memory required for data: 804389248
I0625 20:07:09.714934 18573 layer_factory.hpp:77] Creating layer scale4_2
I0625 20:07:09.714941 18573 net.cpp:91] Creating Layer scale4_2
I0625 20:07:09.714942 18573 net.cpp:425] scale4_2 <- conv4_2
I0625 20:07:09.714951 18573 net.cpp:386] scale4_2 -> conv4_2 (in-place)
I0625 20:07:09.714984 18573 layer_factory.hpp:77] Creating layer scale4_2
I0625 20:07:09.715064 18573 net.cpp:141] Setting up scale4_2
I0625 20:07:09.715082 18573 net.cpp:148] Top shape: 32 256 13 16 (1703936)
I0625 20:07:09.715085 18573 net.cpp:156] Memory required for data: 811204992
I0625 20:07:09.715090 18573 layer_factory.hpp:77] Creating layer relu4_2
I0625 20:07:09.715095 18573 net.cpp:91] Creating Layer relu4_2
I0625 20:07:09.715096 18573 net.cpp:425] relu4_2 <- conv4_2
I0625 20:07:09.715101 18573 net.cpp:386] relu4_2 -> conv4_2 (in-place)
I0625 20:07:09.715245 18573 net.cpp:141] Setting up relu4_2
I0625 20:07:09.715253 18573 net.cpp:148] Top shape: 32 256 13 16 (1703936)
I0625 20:07:09.715256 18573 net.cpp:156] Memory required for data: 818020736
I0625 20:07:09.715258 18573 layer_factory.hpp:77] Creating layer pool4
I0625 20:07:09.715265 18573 net.cpp:91] Creating Layer pool4
I0625 20:07:09.715267 18573 net.cpp:425] pool4 <- conv4_2
I0625 20:07:09.715271 18573 net.cpp:399] pool4 -> pool4
I0625 20:07:09.715306 18573 net.cpp:141] Setting up pool4
I0625 20:07:09.715312 18573 net.cpp:148] Top shape: 32 256 7 8 (458752)
I0625 20:07:09.715313 18573 net.cpp:156] Memory required for data: 819855744
I0625 20:07:09.715315 18573 layer_factory.hpp:77] Creating layer conv5_1
I0625 20:07:09.715323 18573 net.cpp:91] Creating Layer conv5_1
I0625 20:07:09.715327 18573 net.cpp:425] conv5_1 <- pool4
I0625 20:07:09.715330 18573 net.cpp:399] conv5_1 -> conv5_1
I0625 20:07:09.720898 18573 net.cpp:141] Setting up conv5_1
I0625 20:07:09.720914 18573 net.cpp:148] Top shape: 32 256 7 8 (458752)
I0625 20:07:09.720917 18573 net.cpp:156] Memory required for data: 821690752
I0625 20:07:09.720921 18573 layer_factory.hpp:77] Creating layer bn5_1
I0625 20:07:09.720929 18573 net.cpp:91] Creating Layer bn5_1
I0625 20:07:09.720933 18573 net.cpp:425] bn5_1 <- conv5_1
I0625 20:07:09.720938 18573 net.cpp:386] bn5_1 -> conv5_1 (in-place)
I0625 20:07:09.721091 18573 net.cpp:141] Setting up bn5_1
I0625 20:07:09.721098 18573 net.cpp:148] Top shape: 32 256 7 8 (458752)
I0625 20:07:09.721101 18573 net.cpp:156] Memory required for data: 823525760
I0625 20:07:09.721107 18573 layer_factory.hpp:77] Creating layer scale5_1
I0625 20:07:09.721112 18573 net.cpp:91] Creating Layer scale5_1
I0625 20:07:09.721115 18573 net.cpp:425] scale5_1 <- conv5_1
I0625 20:07:09.721119 18573 net.cpp:386] scale5_1 -> conv5_1 (in-place)
I0625 20:07:09.721154 18573 layer_factory.hpp:77] Creating layer scale5_1
I0625 20:07:09.721235 18573 net.cpp:141] Setting up scale5_1
I0625 20:07:09.721240 18573 net.cpp:148] Top shape: 32 256 7 8 (458752)
I0625 20:07:09.721242 18573 net.cpp:156] Memory required for data: 825360768
I0625 20:07:09.721247 18573 layer_factory.hpp:77] Creating layer relu5_1
I0625 20:07:09.721252 18573 net.cpp:91] Creating Layer relu5_1
I0625 20:07:09.721254 18573 net.cpp:425] relu5_1 <- conv5_1
I0625 20:07:09.721258 18573 net.cpp:386] relu5_1 -> conv5_1 (in-place)
I0625 20:07:09.721673 18573 net.cpp:141] Setting up relu5_1
I0625 20:07:09.721685 18573 net.cpp:148] Top shape: 32 256 7 8 (458752)
I0625 20:07:09.721688 18573 net.cpp:156] Memory required for data: 827195776
I0625 20:07:09.721690 18573 layer_factory.hpp:77] Creating layer conv5_2
I0625 20:07:09.721700 18573 net.cpp:91] Creating Layer conv5_2
I0625 20:07:09.721704 18573 net.cpp:425] conv5_2 <- conv5_1
I0625 20:07:09.721709 18573 net.cpp:399] conv5_2 -> conv5_2
I0625 20:07:09.727171 18573 net.cpp:141] Setting up conv5_2
I0625 20:07:09.727187 18573 net.cpp:148] Top shape: 32 256 7 8 (458752)
I0625 20:07:09.727190 18573 net.cpp:156] Memory required for data: 829030784
I0625 20:07:09.727195 18573 layer_factory.hpp:77] Creating layer bn5_2
I0625 20:07:09.727205 18573 net.cpp:91] Creating Layer bn5_2
I0625 20:07:09.727208 18573 net.cpp:425] bn5_2 <- conv5_2
I0625 20:07:09.727212 18573 net.cpp:386] bn5_2 -> conv5_2 (in-place)
I0625 20:07:09.727370 18573 net.cpp:141] Setting up bn5_2
I0625 20:07:09.727376 18573 net.cpp:148] Top shape: 32 256 7 8 (458752)
I0625 20:07:09.727378 18573 net.cpp:156] Memory required for data: 830865792
I0625 20:07:09.727385 18573 layer_factory.hpp:77] Creating layer scale5_2
I0625 20:07:09.727391 18573 net.cpp:91] Creating Layer scale5_2
I0625 20:07:09.727407 18573 net.cpp:425] scale5_2 <- conv5_2
I0625 20:07:09.727411 18573 net.cpp:386] scale5_2 -> conv5_2 (in-place)
I0625 20:07:09.727449 18573 layer_factory.hpp:77] Creating layer scale5_2
I0625 20:07:09.727531 18573 net.cpp:141] Setting up scale5_2
I0625 20:07:09.727537 18573 net.cpp:148] Top shape: 32 256 7 8 (458752)
I0625 20:07:09.727540 18573 net.cpp:156] Memory required for data: 832700800
I0625 20:07:09.727545 18573 layer_factory.hpp:77] Creating layer relu5_2
I0625 20:07:09.727548 18573 net.cpp:91] Creating Layer relu5_2
I0625 20:07:09.727551 18573 net.cpp:425] relu5_2 <- conv5_2
I0625 20:07:09.727555 18573 net.cpp:386] relu5_2 -> conv5_2 (in-place)
I0625 20:07:09.730386 18573 net.cpp:141] Setting up relu5_2
I0625 20:07:09.730398 18573 net.cpp:148] Top shape: 32 256 7 8 (458752)
I0625 20:07:09.730401 18573 net.cpp:156] Memory required for data: 834535808
I0625 20:07:09.730404 18573 layer_factory.hpp:77] Creating layer pool5
I0625 20:07:09.730412 18573 net.cpp:91] Creating Layer pool5
I0625 20:07:09.730414 18573 net.cpp:425] pool5 <- conv5_2
I0625 20:07:09.730418 18573 net.cpp:399] pool5 -> pool5
I0625 20:07:09.730583 18573 net.cpp:141] Setting up pool5
I0625 20:07:09.730593 18573 net.cpp:148] Top shape: 32 256 2 1 (16384)
I0625 20:07:09.730595 18573 net.cpp:156] Memory required for data: 834601344
I0625 20:07:09.730598 18573 layer_factory.hpp:77] Creating layer fc2
I0625 20:07:09.730603 18573 net.cpp:91] Creating Layer fc2
I0625 20:07:09.730607 18573 net.cpp:425] fc2 <- pool5
I0625 20:07:09.730612 18573 net.cpp:399] fc2 -> fc2
I0625 20:07:09.730711 18573 net.cpp:141] Setting up fc2
I0625 20:07:09.730718 18573 net.cpp:148] Top shape: 32 2 (64)
I0625 20:07:09.730720 18573 net.cpp:156] Memory required for data: 834601600
I0625 20:07:09.730726 18573 layer_factory.hpp:77] Creating layer fc2_fc2_0_split
I0625 20:07:09.730731 18573 net.cpp:91] Creating Layer fc2_fc2_0_split
I0625 20:07:09.730734 18573 net.cpp:425] fc2_fc2_0_split <- fc2
I0625 20:07:09.730738 18573 net.cpp:399] fc2_fc2_0_split -> fc2_fc2_0_split_0
I0625 20:07:09.730743 18573 net.cpp:399] fc2_fc2_0_split -> fc2_fc2_0_split_1
I0625 20:07:09.730772 18573 net.cpp:141] Setting up fc2_fc2_0_split
I0625 20:07:09.730775 18573 net.cpp:148] Top shape: 32 2 (64)
I0625 20:07:09.730778 18573 net.cpp:148] Top shape: 32 2 (64)
I0625 20:07:09.730780 18573 net.cpp:156] Memory required for data: 834602112
I0625 20:07:09.730782 18573 layer_factory.hpp:77] Creating layer loss
I0625 20:07:09.730787 18573 net.cpp:91] Creating Layer loss
I0625 20:07:09.730789 18573 net.cpp:425] loss <- fc2_fc2_0_split_0
I0625 20:07:09.730792 18573 net.cpp:425] loss <- label_data_1_split_0
I0625 20:07:09.730797 18573 net.cpp:399] loss -> loss
…
I0625 20:07:09.732067 18573 solver.cpp:181] Creating test net (#0) specified by net file: models/bpnet/train_val.prototxt
I0625 20:07:09.732120 18573 net.cpp:313] The NetState phase (1) differed from the phase (0) specified by a rule in layer data
I0625 20:07:09.732333 18573 net.cpp:49] Initializing net from parameters: 
name: "BPnet"
state {
  phase: TEST
}
layer {
  name: "data"
  type: "Data"
  top: "data"
  top: "label"
  include {
    phase: TEST
  }
  transform_param {
    mirror: false
    mean_value: 100
    crop_h: 196
    crop_w: 256
  }
  data_param {
    source: "data/val_lmdb"
    batch_size: 64
    backend: LMDB
  }
}
layer {
  name: "conv1_1"
  type: "Convolution"
  bottom: "data"
  top: "conv1_1"
  param {
    lr_mult: 1
    decay_mult: 1
  }
  convolution_param {
    num_output: 32
    bias_term: false
    pad: 3
    kernel_size: 7
    stride: 2
    weight_filler {
      type: "xavier"
    }
  }
}
layer {
  name: "bn1_1"
  type: "BatchNorm"
  bottom: "conv1_1"
  top: "conv1_1"
  param {
    lr_mult: 0
  }
  param {
    lr_mult: 0
  }
  param {
    lr_mult: 0
  }
  batch_norm_param {
    use_global_stats: false
  }
}
layer {
  name: "scale1_1"
  type: "Scale"
  bottom: "conv1_1"
  top: "conv1_1"
  param {
    lr_mult: 1
    decay_mult: 1
  }
  param {
    lr_mult: 1
    decay_mult: 1
  }
  scale_param {
    bias_term: true
    bias_filler {
      type: "constant"
      value: 0
    }
  }
}
layer {
  name: "relu1_1"
  type: "ReLU"
  bottom: "conv1_1"
  top: "conv1_1"
}
layer {
  name: "conv1_2"
  type: "Convolution"
  bottom: "conv1_1"
  top: "conv1_2"
  param {
    lr_mult: 1
    decay_mult: 1
  }
  convolution_param {
    num_output: 32
    bias_term: false
    pad: 1
    kernel_size: 3
    weight_filler {
      type: "xavier"
    }
  }
}
layer {
  name: "bn1_2"
  type: "BatchNorm"
  bottom: "conv1_2"
  top: "conv1_2"
  param {
    lr_mult: 0
  }
  param {
    lr_mult: 0
  }
  param {
    lr_mult: 0
  }
  batch_norm_param {
    use_global_stats: false
  }
}
layer {
  name: "scale1_2"
  type: "Scale"
  bottom: "conv1_2"
  top: "conv1_2"
  param {
    lr_mult: 1
    decay_mult: 1
  }
  param {
    lr_mult: 1
    decay_mult: 1
  }
  scale_param {
    bias_term: true
    bias_filler {
      type: "constant"
      value: 0
    }
  }
}
layer {
  name: "relu1_2"
  type: "ReLU"
  bottom: "conv1_2"
  top: "conv1_2"
}
layer {
  name: "pool1"
  type: "Pooling"
  bottom: "conv1_2"
  top: "pool1"
  pooling_param {
    pool: MAX
    kernel_size: 2
    stride: 2
  }
}
layer {
  name: "conv2_1"
  type: "Convolution"
  bottom: "pool1"
  top: "conv2_1"
  param {
    lr_mult: 1
    decay_mult: 1
  }
  convolution_param {
    num_output: 64
    bias_term: false
    pad: 1
    kernel_size: 3
    weight_filler {
      type: "xavier"
    }
  }
}
layer {
  name: "bn2_1"
  type: "BatchNorm"
  bottom: "conv2_1"
  top: "conv2_1"
  param {
    lr_mult: 0
  }
  param {
    lr_mult: 0
  }
  param {
    lr_mult: 0
  }
  batch_norm_param {
    use_global_stats: false
  }
}
layer {
  name: "scale2_1"
  type: "Scale"
  bottom: "conv2_1"
  top: "conv2_1"
  param {
    lr_mult: 1
    decay_mult: 1
  }
  param {
    lr_mult: 1
    decay_mult: 1
  }
  scale_param {
    bias_term: true
    bias_filler {
      type: "constant"
      value: 0
    }
  }
}
layer {
  name: "relu2_1"
  type: "ReLU"
  bottom: "conv2_1"
  top: "conv2_1"
}
layer {
  name: "conv2_2"
  type: "Convolution"
  bottom: "conv2_1"
  top: "conv2_2"
  param {
    lr_mult: 1
    decay_mult: 1
  }
  convolution_param {
    num_output: 64
    bias_term: false
    pad: 1
    kernel_size: 3
    weight_filler {
      type: "xavier"
    }
  }
}
layer {
  name: "bn2_2"
  type: "BatchNorm"
  bottom: "conv2_2"
  top: "conv2_2"
  param {
    lr_mult: 0
  }
  param {
    lr_mult: 0
  }
  param {
    lr_mult: 0
  }
  batch_norm_param {
    use_global_stats: false
  }
}
layer {
  name: "scale2_2"
  type: "Scale"
  bottom: "conv2_2"
  top: "conv2_2"
  param {
    lr_mult: 1
    decay_mult: 1
  }
  param {
    lr_mult: 1
    decay_mult: 1
  }
  scale_param {
    bias_term: true
    bias_filler {
      type: "constant"
      value: 0
    }
  }
}
layer {
  name: "relu2_2"
  type: "ReLU"
  bottom: "conv2_2"
  top: "conv2_2"
}
layer {
  name: "pool2"
  type: "Pooling"
  bottom: "conv2_2"
  top: "pool2"
  pooling_param {
    pool: MAX
    kernel_size: 2
    stride: 2
  }
}
layer {
  name: "conv3_1"
  type: "Convolution"
  bottom: "pool2"
  top: "conv3_1"
  param {
    lr_mult: 1
    decay_mult: 1
  }
  convolution_param {
    num_output: 128
    bias_term: false
    pad: 1
    kernel_size: 3
    weight_filler {
      type: "xavier"
    }
  }
}
layer {
  name: "bn3_1"
  type: "BatchNorm"
  bottom: "conv3_1"
  top: "conv3_1"
  param {
    lr_mult: 0
  }
  param {
    lr_mult: 0
  }
  param {
    lr_mult: 0
  }
  batch_norm_param {
    use_global_stats: false
  }
}
layer {
  name: "scale3_1"
  type: "Scale"
  bottom: "conv3_1"
  top: "conv3_1"
  param {
    lr_mult: 1
    decay_mult: 1
  }
  param {
    lr_mult: 1
    decay_mult: 1
  }
  scale_param {
    bias_term: true
    bias_filler {
      type: "constant"
      value: 0
    }
  }
}
layer {
  name: "relu3_1"
  type: "ReLU"
  bottom: "conv3_1"
  top: "conv3_1"
}
layer {
  name: "conv3_2"
  type: "Convolution"
  bottom: "conv3_1"
  top: "conv3_2"
  param {
    lr_mult: 1
    decay_mult: 1
  }
  convolution_param {
    num_output: 128
    bias_term: false
    pad: 1
    kernel_size: 3
    weight_filler {
      type: "xavier"
    }
  }
}
layer {
  name: "bn3_2"
  type: "BatchNorm"
  bottom: "conv3_2"
  top: "conv3_2"
  param {
    lr_mult: 0
  }
  param {
    lr_mult: 0
  }
  param {
    lr_mult: 0
  }
  batch_norm_param {
    use_global_stats: false
  }
}
layer {
  name: "scale3_2"
  type: "Scale"
  bottom: "conv3_2"
  top: "conv3_2"
  param {
    lr_mult: 1
    decay_mult: 1
  }
  param {
    lr_mult: 1
    decay_mult: 1
  }
  scale_param {
    bias_term: true
    bias_filler {
      type: "constant"
      value: 0
    }
  }
}
layer {
  name: "relu3_2"
  type: "ReLU"
  bottom: "conv3_2"
  top: "conv3_2"
}
layer {
  name: "pool3"
  type: "Pooling"
  bottom: "conv3_2"
  top: "pool3"
  pooling_param {
    pool: MAX
    kernel_size: 2
    stride: 2
  }
}
layer {
  name: "conv4_1"
  type: "Convolution"
  bottom: "pool3"
  top: "conv4_1"
  param {
    lr_mult: 1
    decay_mult: 1
  }
  convolution_param {
    num_output: 256
    bias_term: false
    pad: 1
    kernel_size: 3
    weight_filler {
      type: "xavier"
    }
  }
}
layer {
  name: "bn4_1"
  type: "BatchNorm"
  bottom: "conv4_1"
  top: "conv4_1"
  param {
    lr_mult: 0
  }
  param {
    lr_mult: 0
  }
  param {
    lr_mult: 0
  }
  batch_norm_param {
    use_global_stats: false
  }
}
layer {
  name: "scale4_1"
  type: "Scale"
  bottom: "conv4_1"
  top: "conv4_1"
  param {
    lr_mult: 1
    decay_mult: 1
  }
  param {
    lr_mult: 1
    decay_mult: 1
  }
  scale_param {
    bias_term: true
    bias_filler {
      type: "constant"
      value: 0
    }
  }
}
layer {
  name: "relu4_1"
  type: "ReLU"
  bottom: "conv4_1"
  top: "conv4_1"
}
layer {
  name: "conv4_2"
  type: "Convolution"
  bottom: "conv4_1"
  top: "conv4_2"
  param {
    lr_mult: 1
    decay_mult: 1
  }
  convolution_param {
    num_output: 256
    bias_term: false
    pad: 1
    kernel_size: 3
    weight_filler {
      type: "xavier"
    }
  }
}
layer {
  name: "bn4_2"
  type: "BatchNorm"
  bottom: "conv4_2"
  top: "conv4_2"
  param {
    lr_mult: 0
  }
  param {
    lr_mult: 0
  }
  param {
    lr_mult: 0
  }
  batch_norm_param {
    use_global_stats: false
  }
}
layer {
  name: "scale4_2"
  type: "Scale"
  bottom: "conv4_2"
  top: "conv4_2"
  param {
    lr_mult: 1
    decay_mult: 1
  }
  param {
    lr_mult: 1
    decay_mult: 1
  }
  scale_param {
    bias_term: true
    bias_filler {
      type: "constant"
      value: 0
    }
  }
}
layer {
  name: "relu4_2"
  type: "ReLU"
  bottom: "conv4_2"
  top: "conv4_2"
}
layer {
  name: "pool4"
  type: "Pooling"
  bottom: "conv4_2"
  top: "pool4"
  pooling_param {
    pool: MAX
    kernel_size: 2
    stride: 2
  }
}
layer {
  name: "conv5_1"
  type: "Convolution"
  bottom: "pool4"
  top: "conv5_1"
  param {
    lr_mult: 1
    decay_mult: 1
  }
  convolution_param {
    num_output: 256
    bias_term: false
    pad: 1
    kernel_size: 3
    weight_filler {
      type: "xavier"
    }
  }
}
layer {
  name: "bn5_1"
  type: "BatchNorm"
  bottom: "conv5_1"
  top: "conv5_1"
  param {
    lr_mult: 0
  }
  param {
    lr_mult: 0
  }
  param {
    lr_mult: 0
  }
  batch_norm_param {
    use_global_stats: false
  }
}
layer {
  name: "scale5_1"
  type: "Scale"
  bottom: "conv5_1"
  top: "conv5_1"
  param {
    lr_mult: 1
    decay_mult: 1
  }
  param {
    lr_mult: 1
    decay_mult: 1
  }
  scale_param {
    bias_term: true
    bias_filler {
      type: "constant"
      value: 0
    }
  }
}
layer {
  name: "relu5_1"
  type: "ReLU"
  bottom: "conv5_1"
  top: "conv5_1"
}
layer {
  name: "conv5_2"
  type: "Convolution"
  bottom: "conv5_1"
  top: "conv5_2"
  param {
    lr_mult: 1
    decay_mult: 1
  }
  convolution_param {
    num_output: 256
    bias_term: false
    pad: 1
    kernel_size: 3
    weight_filler {
      type: "xavier"
    }
  }
}
layer {
  name: "bn5_2"
  type: "BatchNorm"
  bottom: "conv5_2"
  top: "conv5_2"
  param {
    lr_mult: 0
  }
  param {
    lr_mult: 0
  }
  param {
    lr_mult: 0
  }
  batch_norm_param {
    use_global_stats: false
  }
}
layer {
  name: "scale5_2"
  type: "Scale"
  bottom: "conv5_2"
  top: "conv5_2"
  param {
    lr_mult: 1
    decay_mult: 1
  }
  param {
    lr_mult: 1
    decay_mult: 1
  }
  scale_param {
    bias_term: true
    bias_filler {
      type: "constant"
      value: 0
    }
  }
}
layer {
  name: "relu5_2"
  type: "ReLU"
  bottom: "conv5_2"
  top: "conv5_2"
}
layer {
  name: "pool5"
  type: "Pooling"
  bottom: "conv5_2"
  top: "pool5"
  pooling_param {
    pool: AVE
    stride: 1
    kernel_h: 6
    kernel_w: 8
  }
}
layer {
  name: "fc2"
  type: "InnerProduct"
  bottom: "pool5"
  top: "fc2"
  inner_product_param {
    num_output: 2
  }
}
layer {
  name: "loss"
  type: "SoftmaxWithLoss"
  bottom: "fc2"
  bottom: "label"
  top: "loss"
}
layer {
  name: "accuracy"
  type: "Accuracy"
  bottom: "fc2"
  bottom: "label"
  top: "accuracy"
}
I0625 20:07:09.732478 18573 layer_factory.hpp:77] Creating layer data
I0625 20:07:09.732558 18573 net.cpp:91] Creating Layer data
I0625 20:07:09.732564 18573 net.cpp:399] data -> data
I0625 20:07:09.732571 18573 net.cpp:399] data -> label
I0625 20:07:09.733847 18586 db_lmdb.cpp:35] Opened lmdb data/val_lmdb
I0625 20:07:09.734252 18573 data_layer.cpp:42] output data size: 64,3,196,256
I0625 20:07:09.813941 18573 net.cpp:141] Setting up data
I0625 20:07:09.813966 18573 net.cpp:148] Top shape: 64 3 196 256 (9633792)
I0625 20:07:09.813971 18573 net.cpp:148] Top shape: 64 (64)
I0625 20:07:09.813972 18573 net.cpp:156] Memory required for data: 38535424
I0625 20:07:09.813979 18573 layer_factory.hpp:77] Creating layer label_data_1_split
I0625 20:07:09.813992 18573 net.cpp:91] Creating Layer label_data_1_split
I0625 20:07:09.813994 18573 net.cpp:425] label_data_1_split <- label
I0625 20:07:09.813999 18573 net.cpp:399] label_data_1_split -> label_data_1_split_0
I0625 20:07:09.814007 18573 net.cpp:399] label_data_1_split -> label_data_1_split_1
I0625 20:07:09.814117 18573 net.cpp:141] Setting up label_data_1_split
I0625 20:07:09.814126 18573 net.cpp:148] Top shape: 64 (64)
I0625 20:07:09.814129 18573 net.cpp:148] Top shape: 64 (64)
I0625 20:07:09.814131 18573 net.cpp:156] Memory required for data: 38535936
I0625 20:07:09.814133 18573 layer_factory.hpp:77] Creating layer conv1_1
I0625 20:07:09.814146 18573 net.cpp:91] Creating Layer conv1_1
I0625 20:07:09.814149 18573 net.cpp:425] conv1_1 <- data
I0625 20:07:09.814152 18573 net.cpp:399] conv1_1 -> conv1_1
I0625 20:07:09.818157 18573 net.cpp:141] Setting up conv1_1
I0625 20:07:09.818171 18573 net.cpp:148] Top shape: 64 32 98 128 (25690112)
I0625 20:07:09.818173 18573 net.cpp:156] Memory required for data: 141296384
I0625 20:07:09.818181 18573 layer_factory.hpp:77] Creating layer bn1_1
I0625 20:07:09.818187 18573 net.cpp:91] Creating Layer bn1_1
I0625 20:07:09.818191 18573 net.cpp:425] bn1_1 <- conv1_1
I0625 20:07:09.818195 18573 net.cpp:386] bn1_1 -> conv1_1 (in-place)
I0625 20:07:09.818372 18573 net.cpp:141] Setting up bn1_1
I0625 20:07:09.818379 18573 net.cpp:148] Top shape: 64 32 98 128 (25690112)
I0625 20:07:09.818382 18573 net.cpp:156] Memory required for data: 244056832
I0625 20:07:09.818389 18573 layer_factory.hpp:77] Creating layer scale1_1
I0625 20:07:09.818398 18573 net.cpp:91] Creating Layer scale1_1
I0625 20:07:09.818402 18573 net.cpp:425] scale1_1 <- conv1_1
I0625 20:07:09.818418 18573 net.cpp:386] scale1_1 -> conv1_1 (in-place)
I0625 20:07:09.818455 18573 layer_factory.hpp:77] Creating layer scale1_1
I0625 20:07:09.818569 18573 net.cpp:141] Setting up scale1_1
I0625 20:07:09.818577 18573 net.cpp:148] Top shape: 64 32 98 128 (25690112)
I0625 20:07:09.818578 18573 net.cpp:156] Memory required for data: 346817280
I0625 20:07:09.818584 18573 layer_factory.hpp:77] Creating layer relu1_1
I0625 20:07:09.818591 18573 net.cpp:91] Creating Layer relu1_1
I0625 20:07:09.818594 18573 net.cpp:425] relu1_1 <- conv1_1
I0625 20:07:09.818598 18573 net.cpp:386] relu1_1 -> conv1_1 (in-place)
I0625 20:07:09.818735 18573 net.cpp:141] Setting up relu1_1
I0625 20:07:09.818744 18573 net.cpp:148] Top shape: 64 32 98 128 (25690112)
I0625 20:07:09.818747 18573 net.cpp:156] Memory required for data: 449577728
I0625 20:07:09.818750 18573 layer_factory.hpp:77] Creating layer conv1_2
I0625 20:07:09.818758 18573 net.cpp:91] Creating Layer conv1_2
I0625 20:07:09.818759 18573 net.cpp:425] conv1_2 <- conv1_1
I0625 20:07:09.818764 18573 net.cpp:399] conv1_2 -> conv1_2
I0625 20:07:09.819681 18573 net.cpp:141] Setting up conv1_2
I0625 20:07:09.819694 18573 net.cpp:148] Top shape: 64 32 98 128 (25690112)
I0625 20:07:09.819696 18573 net.cpp:156] Memory required for data: 552338176
I0625 20:07:09.819700 18573 layer_factory.hpp:77] Creating layer bn1_2
I0625 20:07:09.819707 18573 net.cpp:91] Creating Layer bn1_2
I0625 20:07:09.819710 18573 net.cpp:425] bn1_2 <- conv1_2
I0625 20:07:09.819715 18573 net.cpp:386] bn1_2 -> conv1_2 (in-place)
I0625 20:07:09.819924 18573 net.cpp:141] Setting up bn1_2
I0625 20:07:09.819932 18573 net.cpp:148] Top shape: 64 32 98 128 (25690112)
I0625 20:07:09.819936 18573 net.cpp:156] Memory required for data: 655098624
I0625 20:07:09.819943 18573 layer_factory.hpp:77] Creating layer scale1_2
I0625 20:07:09.819952 18573 net.cpp:91] Creating Layer scale1_2
I0625 20:07:09.819953 18573 net.cpp:425] scale1_2 <- conv1_2
I0625 20:07:09.819957 18573 net.cpp:386] scale1_2 -> conv1_2 (in-place)
I0625 20:07:09.819990 18573 layer_factory.hpp:77] Creating layer scale1_2
I0625 20:07:09.820102 18573 net.cpp:141] Setting up scale1_2
I0625 20:07:09.820109 18573 net.cpp:148] Top shape: 64 32 98 128 (25690112)
I0625 20:07:09.820111 18573 net.cpp:156] Memory required for data: 757859072
I0625 20:07:09.820116 18573 layer_factory.hpp:77] Creating layer relu1_2
I0625 20:07:09.820121 18573 net.cpp:91] Creating Layer relu1_2
I0625 20:07:09.820122 18573 net.cpp:425] relu1_2 <- conv1_2
I0625 20:07:09.820127 18573 net.cpp:386] relu1_2 -> conv1_2 (in-place)
I0625 20:07:09.820546 18573 net.cpp:141] Setting up relu1_2
I0625 20:07:09.820557 18573 net.cpp:148] Top shape: 64 32 98 128 (25690112)
I0625 20:07:09.820560 18573 net.cpp:156] Memory required for data: 860619520
I0625 20:07:09.820564 18573 layer_factory.hpp:77] Creating layer pool1
I0625 20:07:09.820570 18573 net.cpp:91] Creating Layer pool1
I0625 20:07:09.820572 18573 net.cpp:425] pool1 <- conv1_2
I0625 20:07:09.820577 18573 net.cpp:399] pool1 -> pool1
I0625 20:07:09.820617 18573 net.cpp:141] Setting up pool1
I0625 20:07:09.820623 18573 net.cpp:148] Top shape: 64 32 49 64 (6422528)
I0625 20:07:09.820626 18573 net.cpp:156] Memory required for data: 886309632
I0625 20:07:09.820628 18573 layer_factory.hpp:77] Creating layer conv2_1
I0625 20:07:09.820636 18573 net.cpp:91] Creating Layer conv2_1
I0625 20:07:09.820638 18573 net.cpp:425] conv2_1 <- pool1
I0625 20:07:09.820643 18573 net.cpp:399] conv2_1 -> conv2_1
I0625 20:07:09.821590 18573 net.cpp:141] Setting up conv2_1
I0625 20:07:09.821604 18573 net.cpp:148] Top shape: 64 64 49 64 (12845056)
I0625 20:07:09.821605 18573 net.cpp:156] Memory required for data: 937689856
I0625 20:07:09.821610 18573 layer_factory.hpp:77] Creating layer bn2_1
I0625 20:07:09.821615 18573 net.cpp:91] Creating Layer bn2_1
I0625 20:07:09.821619 18573 net.cpp:425] bn2_1 <- conv2_1
I0625 20:07:09.821624 18573 net.cpp:386] bn2_1 -> conv2_1 (in-place)
I0625 20:07:09.821784 18573 net.cpp:141] Setting up bn2_1
I0625 20:07:09.821802 18573 net.cpp:148] Top shape: 64 64 49 64 (12845056)
I0625 20:07:09.821805 18573 net.cpp:156] Memory required for data: 989070080
I0625 20:07:09.821810 18573 layer_factory.hpp:77] Creating layer scale2_1
I0625 20:07:09.821816 18573 net.cpp:91] Creating Layer scale2_1
I0625 20:07:09.821820 18573 net.cpp:425] scale2_1 <- conv2_1
I0625 20:07:09.821825 18573 net.cpp:386] scale2_1 -> conv2_1 (in-place)
I0625 20:07:09.821862 18573 layer_factory.hpp:77] Creating layer scale2_1
I0625 20:07:09.821960 18573 net.cpp:141] Setting up scale2_1
I0625 20:07:09.821966 18573 net.cpp:148] Top shape: 64 64 49 64 (12845056)
I0625 20:07:09.821969 18573 net.cpp:156] Memory required for data: 1040450304
I0625 20:07:09.821976 18573 layer_factory.hpp:77] Creating layer relu2_1
I0625 20:07:09.821980 18573 net.cpp:91] Creating Layer relu2_1
I0625 20:07:09.821982 18573 net.cpp:425] relu2_1 <- conv2_1
I0625 20:07:09.821987 18573 net.cpp:386] relu2_1 -> conv2_1 (in-place)
I0625 20:07:09.822124 18573 net.cpp:141] Setting up relu2_1
I0625 20:07:09.822134 18573 net.cpp:148] Top shape: 64 64 49 64 (12845056)
I0625 20:07:09.822135 18573 net.cpp:156] Memory required for data: 1091830528
I0625 20:07:09.822139 18573 layer_factory.hpp:77] Creating layer conv2_2
I0625 20:07:09.822145 18573 net.cpp:91] Creating Layer conv2_2
I0625 20:07:09.822149 18573 net.cpp:425] conv2_2 <- conv2_1
I0625 20:07:09.822154 18573 net.cpp:399] conv2_2 -> conv2_2
I0625 20:07:09.823212 18573 net.cpp:141] Setting up conv2_2
I0625 20:07:09.823225 18573 net.cpp:148] Top shape: 64 64 49 64 (12845056)
I0625 20:07:09.823227 18573 net.cpp:156] Memory required for data: 1143210752
I0625 20:07:09.823231 18573 layer_factory.hpp:77] Creating layer bn2_2
I0625 20:07:09.823240 18573 net.cpp:91] Creating Layer bn2_2
I0625 20:07:09.823242 18573 net.cpp:425] bn2_2 <- conv2_2
I0625 20:07:09.823247 18573 net.cpp:386] bn2_2 -> conv2_2 (in-place)
I0625 20:07:09.823411 18573 net.cpp:141] Setting up bn2_2
I0625 20:07:09.823418 18573 net.cpp:148] Top shape: 64 64 49 64 (12845056)
I0625 20:07:09.823421 18573 net.cpp:156] Memory required for data: 1194590976
I0625 20:07:09.823426 18573 layer_factory.hpp:77] Creating layer scale2_2
I0625 20:07:09.823433 18573 net.cpp:91] Creating Layer scale2_2
I0625 20:07:09.823436 18573 net.cpp:425] scale2_2 <- conv2_2
I0625 20:07:09.823439 18573 net.cpp:386] scale2_2 -> conv2_2 (in-place)
I0625 20:07:09.823470 18573 layer_factory.hpp:77] Creating layer scale2_2
I0625 20:07:09.823565 18573 net.cpp:141] Setting up scale2_2
I0625 20:07:09.823571 18573 net.cpp:148] Top shape: 64 64 49 64 (12845056)
I0625 20:07:09.823575 18573 net.cpp:156] Memory required for data: 1245971200
I0625 20:07:09.823578 18573 layer_factory.hpp:77] Creating layer relu2_2
I0625 20:07:09.823582 18573 net.cpp:91] Creating Layer relu2_2
I0625 20:07:09.823585 18573 net.cpp:425] relu2_2 <- conv2_2
I0625 20:07:09.823590 18573 net.cpp:386] relu2_2 -> conv2_2 (in-place)
I0625 20:07:09.823739 18573 net.cpp:141] Setting up relu2_2
I0625 20:07:09.823747 18573 net.cpp:148] Top shape: 64 64 49 64 (12845056)
I0625 20:07:09.823750 18573 net.cpp:156] Memory required for data: 1297351424
I0625 20:07:09.823752 18573 layer_factory.hpp:77] Creating layer pool2
I0625 20:07:09.823757 18573 net.cpp:91] Creating Layer pool2
I0625 20:07:09.823760 18573 net.cpp:425] pool2 <- conv2_2
I0625 20:07:09.823763 18573 net.cpp:399] pool2 -> pool2
I0625 20:07:09.823801 18573 net.cpp:141] Setting up pool2
I0625 20:07:09.823807 18573 net.cpp:148] Top shape: 64 64 25 32 (3276800)
I0625 20:07:09.823808 18573 net.cpp:156] Memory required for data: 1310458624
I0625 20:07:09.823812 18573 layer_factory.hpp:77] Creating layer conv3_1
I0625 20:07:09.823817 18573 net.cpp:91] Creating Layer conv3_1
I0625 20:07:09.823820 18573 net.cpp:425] conv3_1 <- pool2
I0625 20:07:09.823824 18573 net.cpp:399] conv3_1 -> conv3_1
I0625 20:07:09.826369 18573 net.cpp:141] Setting up conv3_1
I0625 20:07:09.826381 18573 net.cpp:148] Top shape: 64 128 25 32 (6553600)
I0625 20:07:09.826385 18573 net.cpp:156] Memory required for data: 1336673024
I0625 20:07:09.826400 18573 layer_factory.hpp:77] Creating layer bn3_1
I0625 20:07:09.826406 18573 net.cpp:91] Creating Layer bn3_1
I0625 20:07:09.826408 18573 net.cpp:425] bn3_1 <- conv3_1
I0625 20:07:09.826413 18573 net.cpp:386] bn3_1 -> conv3_1 (in-place)
I0625 20:07:09.826570 18573 net.cpp:141] Setting up bn3_1
I0625 20:07:09.826577 18573 net.cpp:148] Top shape: 64 128 25 32 (6553600)
I0625 20:07:09.826580 18573 net.cpp:156] Memory required for data: 1362887424
I0625 20:07:09.826586 18573 layer_factory.hpp:77] Creating layer scale3_1
I0625 20:07:09.826591 18573 net.cpp:91] Creating Layer scale3_1
I0625 20:07:09.826593 18573 net.cpp:425] scale3_1 <- conv3_1
I0625 20:07:09.826596 18573 net.cpp:386] scale3_1 -> conv3_1 (in-place)
I0625 20:07:09.826629 18573 layer_factory.hpp:77] Creating layer scale3_1
I0625 20:07:09.826719 18573 net.cpp:141] Setting up scale3_1
I0625 20:07:09.826725 18573 net.cpp:148] Top shape: 64 128 25 32 (6553600)
I0625 20:07:09.826726 18573 net.cpp:156] Memory required for data: 1389101824
I0625 20:07:09.826730 18573 layer_factory.hpp:77] Creating layer relu3_1
I0625 20:07:09.826741 18573 net.cpp:91] Creating Layer relu3_1
I0625 20:07:09.826743 18573 net.cpp:425] relu3_1 <- conv3_1
I0625 20:07:09.826747 18573 net.cpp:386] relu3_1 -> conv3_1 (in-place)
I0625 20:07:09.826890 18573 net.cpp:141] Setting up relu3_1
I0625 20:07:09.826899 18573 net.cpp:148] Top shape: 64 128 25 32 (6553600)
I0625 20:07:09.826901 18573 net.cpp:156] Memory required for data: 1415316224
I0625 20:07:09.826903 18573 layer_factory.hpp:77] Creating layer conv3_2
I0625 20:07:09.826911 18573 net.cpp:91] Creating Layer conv3_2
I0625 20:07:09.826915 18573 net.cpp:425] conv3_2 <- conv3_1
I0625 20:07:09.826920 18573 net.cpp:399] conv3_2 -> conv3_2
I0625 20:07:09.828835 18573 net.cpp:141] Setting up conv3_2
I0625 20:07:09.828847 18573 net.cpp:148] Top shape: 64 128 25 32 (6553600)
I0625 20:07:09.828850 18573 net.cpp:156] Memory required for data: 1441530624
I0625 20:07:09.828855 18573 layer_factory.hpp:77] Creating layer bn3_2
I0625 20:07:09.828860 18573 net.cpp:91] Creating Layer bn3_2
I0625 20:07:09.828863 18573 net.cpp:425] bn3_2 <- conv3_2
I0625 20:07:09.828867 18573 net.cpp:386] bn3_2 -> conv3_2 (in-place)
I0625 20:07:09.829028 18573 net.cpp:141] Setting up bn3_2
I0625 20:07:09.829035 18573 net.cpp:148] Top shape: 64 128 25 32 (6553600)
I0625 20:07:09.829037 18573 net.cpp:156] Memory required for data: 1467745024
I0625 20:07:09.829048 18573 layer_factory.hpp:77] Creating layer scale3_2
I0625 20:07:09.829056 18573 net.cpp:91] Creating Layer scale3_2
I0625 20:07:09.829057 18573 net.cpp:425] scale3_2 <- conv3_2
I0625 20:07:09.829061 18573 net.cpp:386] scale3_2 -> conv3_2 (in-place)
I0625 20:07:09.829093 18573 layer_factory.hpp:77] Creating layer scale3_2
I0625 20:07:09.829181 18573 net.cpp:141] Setting up scale3_2
I0625 20:07:09.829188 18573 net.cpp:148] Top shape: 64 128 25 32 (6553600)
I0625 20:07:09.829190 18573 net.cpp:156] Memory required for data: 1493959424
I0625 20:07:09.829195 18573 layer_factory.hpp:77] Creating layer relu3_2
I0625 20:07:09.829200 18573 net.cpp:91] Creating Layer relu3_2
I0625 20:07:09.829202 18573 net.cpp:425] relu3_2 <- conv3_2
I0625 20:07:09.829206 18573 net.cpp:386] relu3_2 -> conv3_2 (in-place)
I0625 20:07:09.829347 18573 net.cpp:141] Setting up relu3_2
I0625 20:07:09.829355 18573 net.cpp:148] Top shape: 64 128 25 32 (6553600)
I0625 20:07:09.829358 18573 net.cpp:156] Memory required for data: 1520173824
I0625 20:07:09.829361 18573 layer_factory.hpp:77] Creating layer pool3
I0625 20:07:09.829365 18573 net.cpp:91] Creating Layer pool3
I0625 20:07:09.829368 18573 net.cpp:425] pool3 <- conv3_2
I0625 20:07:09.829372 18573 net.cpp:399] pool3 -> pool3
I0625 20:07:09.829411 18573 net.cpp:141] Setting up pool3
I0625 20:07:09.829414 18573 net.cpp:148] Top shape: 64 128 13 16 (1703936)
I0625 20:07:09.829417 18573 net.cpp:156] Memory required for data: 1526989568
I0625 20:07:09.829419 18573 layer_factory.hpp:77] Creating layer conv4_1
I0625 20:07:09.829427 18573 net.cpp:91] Creating Layer conv4_1
I0625 20:07:09.829439 18573 net.cpp:425] conv4_1 <- pool3
I0625 20:07:09.829445 18573 net.cpp:399] conv4_1 -> conv4_1
I0625 20:07:09.832190 18573 net.cpp:141] Setting up conv4_1
I0625 20:07:09.832202 18573 net.cpp:148] Top shape: 64 256 13 16 (3407872)
I0625 20:07:09.832206 18573 net.cpp:156] Memory required for data: 1540621056
I0625 20:07:09.832209 18573 layer_factory.hpp:77] Creating layer bn4_1
I0625 20:07:09.832216 18573 net.cpp:91] Creating Layer bn4_1
I0625 20:07:09.832219 18573 net.cpp:425] bn4_1 <- conv4_1
I0625 20:07:09.832223 18573 net.cpp:386] bn4_1 -> conv4_1 (in-place)
I0625 20:07:09.832389 18573 net.cpp:141] Setting up bn4_1
I0625 20:07:09.832396 18573 net.cpp:148] Top shape: 64 256 13 16 (3407872)
I0625 20:07:09.832399 18573 net.cpp:156] Memory required for data: 1554252544
I0625 20:07:09.832404 18573 layer_factory.hpp:77] Creating layer scale4_1
I0625 20:07:09.832409 18573 net.cpp:91] Creating Layer scale4_1
I0625 20:07:09.832412 18573 net.cpp:425] scale4_1 <- conv4_1
I0625 20:07:09.832417 18573 net.cpp:386] scale4_1 -> conv4_1 (in-place)
I0625 20:07:09.832449 18573 layer_factory.hpp:77] Creating layer scale4_1
I0625 20:07:09.832536 18573 net.cpp:141] Setting up scale4_1
I0625 20:07:09.832542 18573 net.cpp:148] Top shape: 64 256 13 16 (3407872)
I0625 20:07:09.832545 18573 net.cpp:156] Memory required for data: 1567884032
I0625 20:07:09.832548 18573 layer_factory.hpp:77] Creating layer relu4_1
I0625 20:07:09.832557 18573 net.cpp:91] Creating Layer relu4_1
I0625 20:07:09.832559 18573 net.cpp:425] relu4_1 <- conv4_1
I0625 20:07:09.832563 18573 net.cpp:386] relu4_1 -> conv4_1 (in-place)
I0625 20:07:09.832703 18573 net.cpp:141] Setting up relu4_1
I0625 20:07:09.832712 18573 net.cpp:148] Top shape: 64 256 13 16 (3407872)
I0625 20:07:09.832715 18573 net.cpp:156] Memory required for data: 1581515520
I0625 20:07:09.832717 18573 layer_factory.hpp:77] Creating layer conv4_2
I0625 20:07:09.832726 18573 net.cpp:91] Creating Layer conv4_2
I0625 20:07:09.832728 18573 net.cpp:425] conv4_2 <- conv4_1
I0625 20:07:09.832732 18573 net.cpp:399] conv4_2 -> conv4_2
I0625 20:07:09.838297 18573 net.cpp:141] Setting up conv4_2
I0625 20:07:09.838313 18573 net.cpp:148] Top shape: 64 256 13 16 (3407872)
I0625 20:07:09.838316 18573 net.cpp:156] Memory required for data: 1595147008
I0625 20:07:09.838320 18573 layer_factory.hpp:77] Creating layer bn4_2
I0625 20:07:09.838328 18573 net.cpp:91] Creating Layer bn4_2
I0625 20:07:09.838332 18573 net.cpp:425] bn4_2 <- conv4_2
I0625 20:07:09.838336 18573 net.cpp:386] bn4_2 -> conv4_2 (in-place)
I0625 20:07:09.838502 18573 net.cpp:141] Setting up bn4_2
I0625 20:07:09.838510 18573 net.cpp:148] Top shape: 64 256 13 16 (3407872)
I0625 20:07:09.838512 18573 net.cpp:156] Memory required for data: 1608778496
I0625 20:07:09.838518 18573 layer_factory.hpp:77] Creating layer scale4_2
I0625 20:07:09.838524 18573 net.cpp:91] Creating Layer scale4_2
I0625 20:07:09.838526 18573 net.cpp:425] scale4_2 <- conv4_2
I0625 20:07:09.838529 18573 net.cpp:386] scale4_2 -> conv4_2 (in-place)
I0625 20:07:09.838562 18573 layer_factory.hpp:77] Creating layer scale4_2
I0625 20:07:09.838652 18573 net.cpp:141] Setting up scale4_2
I0625 20:07:09.838660 18573 net.cpp:148] Top shape: 64 256 13 16 (3407872)
I0625 20:07:09.838662 18573 net.cpp:156] Memory required for data: 1622409984
I0625 20:07:09.838666 18573 layer_factory.hpp:77] Creating layer relu4_2
I0625 20:07:09.838670 18573 net.cpp:91] Creating Layer relu4_2
I0625 20:07:09.838673 18573 net.cpp:425] relu4_2 <- conv4_2
I0625 20:07:09.838677 18573 net.cpp:386] relu4_2 -> conv4_2 (in-place)
I0625 20:07:09.839123 18573 net.cpp:141] Setting up relu4_2
I0625 20:07:09.839134 18573 net.cpp:148] Top shape: 64 256 13 16 (3407872)
I0625 20:07:09.839138 18573 net.cpp:156] Memory required for data: 1636041472
I0625 20:07:09.839140 18573 layer_factory.hpp:77] Creating layer pool4
I0625 20:07:09.839159 18573 net.cpp:91] Creating Layer pool4
I0625 20:07:09.839162 18573 net.cpp:425] pool4 <- conv4_2
I0625 20:07:09.839167 18573 net.cpp:399] pool4 -> pool4
I0625 20:07:09.839210 18573 net.cpp:141] Setting up pool4
I0625 20:07:09.839228 18573 net.cpp:148] Top shape: 64 256 7 8 (917504)
I0625 20:07:09.839231 18573 net.cpp:156] Memory required for data: 1639711488
I0625 20:07:09.839232 18573 layer_factory.hpp:77] Creating layer conv5_1
I0625 20:07:09.839241 18573 net.cpp:91] Creating Layer conv5_1
I0625 20:07:09.839244 18573 net.cpp:425] conv5_1 <- pool4
I0625 20:07:09.839248 18573 net.cpp:399] conv5_1 -> conv5_1
I0625 20:07:09.844817 18573 net.cpp:141] Setting up conv5_1
I0625 20:07:09.844835 18573 net.cpp:148] Top shape: 64 256 7 8 (917504)
I0625 20:07:09.844837 18573 net.cpp:156] Memory required for data: 1643381504
I0625 20:07:09.844842 18573 layer_factory.hpp:77] Creating layer bn5_1
I0625 20:07:09.844851 18573 net.cpp:91] Creating Layer bn5_1
I0625 20:07:09.844854 18573 net.cpp:425] bn5_1 <- conv5_1
I0625 20:07:09.844858 18573 net.cpp:386] bn5_1 -> conv5_1 (in-place)
I0625 20:07:09.845031 18573 net.cpp:141] Setting up bn5_1
I0625 20:07:09.845038 18573 net.cpp:148] Top shape: 64 256 7 8 (917504)
I0625 20:07:09.845041 18573 net.cpp:156] Memory required for data: 1647051520
I0625 20:07:09.845046 18573 layer_factory.hpp:77] Creating layer scale5_1
I0625 20:07:09.845052 18573 net.cpp:91] Creating Layer scale5_1
I0625 20:07:09.845054 18573 net.cpp:425] scale5_1 <- conv5_1
I0625 20:07:09.845059 18573 net.cpp:386] scale5_1 -> conv5_1 (in-place)
I0625 20:07:09.845093 18573 layer_factory.hpp:77] Creating layer scale5_1
I0625 20:07:09.845183 18573 net.cpp:141] Setting up scale5_1
I0625 20:07:09.845196 18573 net.cpp:148] Top shape: 64 256 7 8 (917504)
I0625 20:07:09.845198 18573 net.cpp:156] Memory required for data: 1650721536
I0625 20:07:09.845202 18573 layer_factory.hpp:77] Creating layer relu5_1
I0625 20:07:09.845207 18573 net.cpp:91] Creating Layer relu5_1
I0625 20:07:09.845209 18573 net.cpp:425] relu5_1 <- conv5_1
I0625 20:07:09.845213 18573 net.cpp:386] relu5_1 -> conv5_1 (in-place)
I0625 20:07:09.845360 18573 net.cpp:141] Setting up relu5_1
I0625 20:07:09.845368 18573 net.cpp:148] Top shape: 64 256 7 8 (917504)
I0625 20:07:09.845371 18573 net.cpp:156] Memory required for data: 1654391552
I0625 20:07:09.845374 18573 layer_factory.hpp:77] Creating layer conv5_2
I0625 20:07:09.845382 18573 net.cpp:91] Creating Layer conv5_2
I0625 20:07:09.845384 18573 net.cpp:425] conv5_2 <- conv5_1
I0625 20:07:09.845389 18573 net.cpp:399] conv5_2 -> conv5_2
I0625 20:07:09.851173 18573 net.cpp:141] Setting up conv5_2
I0625 20:07:09.851191 18573 net.cpp:148] Top shape: 64 256 7 8 (917504)
I0625 20:07:09.851194 18573 net.cpp:156] Memory required for data: 1658061568
I0625 20:07:09.851200 18573 layer_factory.hpp:77] Creating layer bn5_2
I0625 20:07:09.851210 18573 net.cpp:91] Creating Layer bn5_2
I0625 20:07:09.851213 18573 net.cpp:425] bn5_2 <- conv5_2
I0625 20:07:09.851223 18573 net.cpp:386] bn5_2 -> conv5_2 (in-place)
I0625 20:07:09.851393 18573 net.cpp:141] Setting up bn5_2
I0625 20:07:09.851402 18573 net.cpp:148] Top shape: 64 256 7 8 (917504)
I0625 20:07:09.851403 18573 net.cpp:156] Memory required for data: 1661731584
I0625 20:07:09.851409 18573 layer_factory.hpp:77] Creating layer scale5_2
I0625 20:07:09.851415 18573 net.cpp:91] Creating Layer scale5_2
I0625 20:07:09.851418 18573 net.cpp:425] scale5_2 <- conv5_2
I0625 20:07:09.851423 18573 net.cpp:386] scale5_2 -> conv5_2 (in-place)
I0625 20:07:09.851456 18573 layer_factory.hpp:77] Creating layer scale5_2
I0625 20:07:09.851550 18573 net.cpp:141] Setting up scale5_2
I0625 20:07:09.851557 18573 net.cpp:148] Top shape: 64 256 7 8 (917504)
I0625 20:07:09.851559 18573 net.cpp:156] Memory required for data: 1665401600
I0625 20:07:09.851563 18573 layer_factory.hpp:77] Creating layer relu5_2
I0625 20:07:09.851568 18573 net.cpp:91] Creating Layer relu5_2
I0625 20:07:09.851572 18573 net.cpp:425] relu5_2 <- conv5_2
I0625 20:07:09.851574 18573 net.cpp:386] relu5_2 -> conv5_2 (in-place)
I0625 20:07:09.851727 18573 net.cpp:141] Setting up relu5_2
I0625 20:07:09.851734 18573 net.cpp:148] Top shape: 64 256 7 8 (917504)
I0625 20:07:09.851737 18573 net.cpp:156] Memory required for data: 1669071616
I0625 20:07:09.851752 18573 layer_factory.hpp:77] Creating layer pool5
I0625 20:07:09.851758 18573 net.cpp:91] Creating Layer pool5
I0625 20:07:09.851761 18573 net.cpp:425] pool5 <- conv5_2
I0625 20:07:09.851768 18573 net.cpp:399] pool5 -> pool5
I0625 20:07:09.851927 18573 net.cpp:141] Setting up pool5
I0625 20:07:09.851936 18573 net.cpp:148] Top shape: 64 256 2 1 (32768)
I0625 20:07:09.851938 18573 net.cpp:156] Memory required for data: 1669202688
I0625 20:07:09.851941 18573 layer_factory.hpp:77] Creating layer fc2
I0625 20:07:09.851948 18573 net.cpp:91] Creating Layer fc2
I0625 20:07:09.851950 18573 net.cpp:425] fc2 <- pool5
I0625 20:07:09.851953 18573 net.cpp:399] fc2 -> fc2
I0625 20:07:09.852061 18573 net.cpp:141] Setting up fc2
I0625 20:07:09.852068 18573 net.cpp:148] Top shape: 64 2 (128)
I0625 20:07:09.852072 18573 net.cpp:156] Memory required for data: 1669203200
I0625 20:07:09.852075 18573 layer_factory.hpp:77] Creating layer fc2_fc2_0_split
I0625 20:07:09.852082 18573 net.cpp:91] Creating Layer fc2_fc2_0_split
I0625 20:07:09.852084 18573 net.cpp:425] fc2_fc2_0_split <- fc2
I0625 20:07:09.852088 18573 net.cpp:399] fc2_fc2_0_split -> fc2_fc2_0_split_0
I0625 20:07:09.852092 18573 net.cpp:399] fc2_fc2_0_split -> fc2_fc2_0_split_1
I0625 20:07:09.852124 18573 net.cpp:141] Setting up fc2_fc2_0_split
I0625 20:07:09.852128 18573 net.cpp:148] Top shape: 64 2 (128)
I0625 20:07:09.852131 18573 net.cpp:148] Top shape: 64 2 (128)
I0625 20:07:09.852133 18573 net.cpp:156] Memory required for data: 1669204224
I0625 20:07:09.852135 18573 layer_factory.hpp:77] Creating layer loss
I0625 20:07:09.852139 18573 net.cpp:91] Creating Layer loss
I0625 20:07:09.852144 18573 net.cpp:425] loss <- fc2_fc2_0_split_0
I0625 20:07:09.852146 18573 net.cpp:425] loss <- label_data_1_split_0
I0625 20:07:09.852149 18573 net.cpp:399] loss -> loss
…
