…
I0625 21:35:21.546254 20335 net.cpp:313] The NetState phase (0) differed from the phase (1) specified by a rule in layer data
I0625 21:35:21.546489 20335 net.cpp:49] Initializing net from parameters: 
name: "BPnet"
state {
  phase: TRAIN
}
layer {
  name: "data"
  type: "Data"
  top: "data"
  top: "label"
  include {
    phase: TRAIN
  }
  transform_param {
    mirror: true
    mean_value: 100
    crop_h: 196
    crop_w: 256
    rotation_range: 10
    scale_jitter_range: 0.1
    contrast_jitter_range: 0.3
  }
  data_param {
    source: "data/train_lmdb"
    batch_size: 32
    backend: LMDB
  }
}
layer {
  name: "conv1_1"
  type: "Convolution"
  bottom: "data"
  top: "conv1_1"
  param {
    lr_mult: 1
    decay_mult: 1
  }
  convolution_param {
    num_output: 32
    bias_term: false
    pad: 3
    kernel_size: 7
    stride: 2
    weight_filler {
      type: "xavier"
    }
  }
}
layer {
  name: "bn1_1"
  type: "BatchNorm"
  bottom: "conv1_1"
  top: "conv1_1"
  param {
    lr_mult: 0
  }
  param {
    lr_mult: 0
  }
  param {
    lr_mult: 0
  }
  batch_norm_param {
    use_global_stats: false
  }
}
layer {
  name: "scale1_1"
  type: "Scale"
  bottom: "conv1_1"
  top: "conv1_1"
  param {
    lr_mult: 1
    decay_mult: 1
  }
  param {
    lr_mult: 1
    decay_mult: 1
  }
  scale_param {
    bias_term: true
    bias_filler {
      type: "constant"
      value: 0
    }
  }
}
layer {
  name: "relu1_1"
  type: "ReLU"
  bottom: "conv1_1"
  top: "conv1_1"
}
layer {
  name: "conv1_2"
  type: "Convolution"
  bottom: "conv1_1"
  top: "conv1_2"
  param {
    lr_mult: 1
    decay_mult: 1
  }
  convolution_param {
    num_output: 32
    bias_term: false
    pad: 1
    kernel_size: 3
    weight_filler {
      type: "xavier"
    }
  }
}
layer {
  name: "bn1_2"
  type: "BatchNorm"
  bottom: "conv1_2"
  top: "conv1_2"
  param {
    lr_mult: 0
  }
  param {
    lr_mult: 0
  }
  param {
    lr_mult: 0
  }
  batch_norm_param {
    use_global_stats: false
  }
}
layer {
  name: "scale1_2"
  type: "Scale"
  bottom: "conv1_2"
  top: "conv1_2"
  param {
    lr_mult: 1
    decay_mult: 1
  }
  param {
    lr_mult: 1
    decay_mult: 1
  }
  scale_param {
    bias_term: true
    bias_filler {
      type: "constant"
      value: 0
    }
  }
}
layer {
  name: "relu1_2"
  type: "ReLU"
  bottom: "conv1_2"
  top: "conv1_2"
}
layer {
  name: "pool1"
  type: "Pooling"
  bottom: "conv1_2"
  top: "pool1"
  pooling_param {
    pool: MAX
    kernel_size: 2
    stride: 2
  }
}
layer {
  name: "conv2_1"
  type: "Convolution"
  bottom: "pool1"
  top: "conv2_1"
  param {
    lr_mult: 1
    decay_mult: 1
  }
  convolution_param {
    num_output: 64
    bias_term: false
    pad: 1
    kernel_size: 3
    weight_filler {
      type: "xavier"
    }
  }
}
layer {
  name: "bn2_1"
  type: "BatchNorm"
  bottom: "conv2_1"
  top: "conv2_1"
  param {
    lr_mult: 0
  }
  param {
    lr_mult: 0
  }
  param {
    lr_mult: 0
  }
  batch_norm_param {
    use_global_stats: false
  }
}
layer {
  name: "scale2_1"
  type: "Scale"
  bottom: "conv2_1"
  top: "conv2_1"
  param {
    lr_mult: 1
    decay_mult: 1
  }
  param {
    lr_mult: 1
    decay_mult: 1
  }
  scale_param {
    bias_term: true
    bias_filler {
      type: "constant"
      value: 0
    }
  }
}
layer {
  name: "relu2_1"
  type: "ReLU"
  bottom: "conv2_1"
  top: "conv2_1"
}
layer {
  name: "conv2_2"
  type: "Convolution"
  bottom: "conv2_1"
  top: "conv2_2"
  param {
    lr_mult: 1
    decay_mult: 1
  }
  convolution_param {
    num_output: 64
    bias_term: false
    pad: 1
    kernel_size: 3
    weight_filler {
      type: "xavier"
    }
  }
}
layer {
  name: "bn2_2"
  type: "BatchNorm"
  bottom: "conv2_2"
  top: "conv2_2"
  param {
    lr_mult: 0
  }
  param {
    lr_mult: 0
  }
  param {
    lr_mult: 0
  }
  batch_norm_param {
    use_global_stats: false
  }
}
layer {
  name: "scale2_2"
  type: "Scale"
  bottom: "conv2_2"
  top: "conv2_2"
  param {
    lr_mult: 1
    decay_mult: 1
  }
  param {
    lr_mult: 1
    decay_mult: 1
  }
  scale_param {
    bias_term: true
    bias_filler {
      type: "constant"
      value: 0
    }
  }
}
layer {
  name: "relu2_2"
  type: "ReLU"
  bottom: "conv2_2"
  top: "conv2_2"
}
layer {
  name: "pool2"
  type: "Pooling"
  bottom: "conv2_2"
  top: "pool2"
  pooling_param {
    pool: MAX
    kernel_size: 2
    stride: 2
  }
}
layer {
  name: "conv3_1"
  type: "Convolution"
  bottom: "pool2"
  top: "conv3_1"
  param {
    lr_mult: 1
    decay_mult: 1
  }
  convolution_param {
    num_output: 128
    bias_term: false
    pad: 1
    kernel_size: 3
    weight_filler {
      type: "xavier"
    }
  }
}
layer {
  name: "bn3_1"
  type: "BatchNorm"
  bottom: "conv3_1"
  top: "conv3_1"
  param {
    lr_mult: 0
  }
  param {
    lr_mult: 0
  }
  param {
    lr_mult: 0
  }
  batch_norm_param {
    use_global_stats: false
  }
}
layer {
  name: "scale3_1"
  type: "Scale"
  bottom: "conv3_1"
  top: "conv3_1"
  param {
    lr_mult: 1
    decay_mult: 1
  }
  param {
    lr_mult: 1
    decay_mult: 1
  }
  scale_param {
    bias_term: true
    bias_filler {
      type: "constant"
      value: 0
    }
  }
}
layer {
  name: "relu3_1"
  type: "ReLU"
  bottom: "conv3_1"
  top: "conv3_1"
}
layer {
  name: "conv3_2"
  type: "Convolution"
  bottom: "conv3_1"
  top: "conv3_2"
  param {
    lr_mult: 1
    decay_mult: 1
  }
  convolution_param {
    num_output: 128
    bias_term: false
    pad: 1
    kernel_size: 3
    weight_filler {
      type: "xavier"
    }
  }
}
layer {
  name: "bn3_2"
  type: "BatchNorm"
  bottom: "conv3_2"
  top: "conv3_2"
  param {
    lr_mult: 0
  }
  param {
    lr_mult: 0
  }
  param {
    lr_mult: 0
  }
  batch_norm_param {
    use_global_stats: false
  }
}
layer {
  name: "scale3_2"
  type: "Scale"
  bottom: "conv3_2"
  top: "conv3_2"
  param {
    lr_mult: 1
    decay_mult: 1
  }
  param {
    lr_mult: 1
    decay_mult: 1
  }
  scale_param {
    bias_term: true
    bias_filler {
      type: "constant"
      value: 0
    }
  }
}
layer {
  name: "relu3_2"
  type: "ReLU"
  bottom: "conv3_2"
  top: "conv3_2"
}
layer {
  name: "pool3"
  type: "Pooling"
  bottom: "conv3_2"
  top: "pool3"
  pooling_param {
    pool: MAX
    kernel_size: 2
    stride: 2
  }
}
layer {
  name: "conv4_1"
  type: "Convolution"
  bottom: "pool3"
  top: "conv4_1"
  param {
    lr_mult: 1
    decay_mult: 1
  }
  convolution_param {
    num_output: 256
    bias_term: false
    pad: 1
    kernel_size: 3
    weight_filler {
      type: "xavier"
    }
  }
}
layer {
  name: "bn4_1"
  type: "BatchNorm"
  bottom: "conv4_1"
  top: "conv4_1"
  param {
    lr_mult: 0
  }
  param {
    lr_mult: 0
  }
  param {
    lr_mult: 0
  }
  batch_norm_param {
    use_global_stats: false
  }
}
layer {
  name: "scale4_1"
  type: "Scale"
  bottom: "conv4_1"
  top: "conv4_1"
  param {
    lr_mult: 1
    decay_mult: 1
  }
  param {
    lr_mult: 1
    decay_mult: 1
  }
  scale_param {
    bias_term: true
    bias_filler {
      type: "constant"
      value: 0
    }
  }
}
layer {
  name: "relu4_1"
  type: "ReLU"
  bottom: "conv4_1"
  top: "conv4_1"
}
layer {
  name: "conv4_2"
  type: "Convolution"
  bottom: "conv4_1"
  top: "conv4_2"
  param {
    lr_mult: 1
    decay_mult: 1
  }
  convolution_param {
    num_output: 256
    bias_term: false
    pad: 1
    kernel_size: 3
    weight_filler {
      type: "xavier"
    }
  }
}
layer {
  name: "bn4_2"
  type: "BatchNorm"
  bottom: "conv4_2"
  top: "conv4_2"
  param {
    lr_mult: 0
  }
  param {
    lr_mult: 0
  }
  param {
    lr_mult: 0
  }
  batch_norm_param {
    use_global_stats: false
  }
}
layer {
  name: "scale4_2"
  type: "Scale"
  bottom: "conv4_2"
  top: "conv4_2"
  param {
    lr_mult: 1
    decay_mult: 1
  }
  param {
    lr_mult: 1
    decay_mult: 1
  }
  scale_param {
    bias_term: true
    bias_filler {
      type: "constant"
      value: 0
    }
  }
}
layer {
  name: "relu4_2"
  type: "ReLU"
  bottom: "conv4_2"
  top: "conv4_2"
}
layer {
  name: "pool4"
  type: "Pooling"
  bottom: "conv4_2"
  top: "pool4"
  pooling_param {
    pool: MAX
    kernel_size: 2
    stride: 2
  }
}
layer {
  name: "conv5_1"
  type: "Convolution"
  bottom: "pool4"
  top: "conv5_1"
  param {
    lr_mult: 1
    decay_mult: 1
  }
  convolution_param {
    num_output: 256
    bias_term: false
    pad: 1
    kernel_size: 3
    weight_filler {
      type: "xavier"
    }
  }
}
layer {
  name: "bn5_1"
  type: "BatchNorm"
  bottom: "conv5_1"
  top: "conv5_1"
  param {
    lr_mult: 0
  }
  param {
    lr_mult: 0
  }
  param {
    lr_mult: 0
  }
  batch_norm_param {
    use_global_stats: false
  }
}
layer {
  name: "scale5_1"
  type: "Scale"
  bottom: "conv5_1"
  top: "conv5_1"
  param {
    lr_mult: 1
    decay_mult: 1
  }
  param {
    lr_mult: 1
    decay_mult: 1
  }
  scale_param {
    bias_term: true
    bias_filler {
      type: "constant"
      value: 0
    }
  }
}
layer {
  name: "relu5_1"
  type: "ReLU"
  bottom: "conv5_1"
  top: "conv5_1"
}
layer {
  name: "conv5_2"
  type: "Convolution"
  bottom: "conv5_1"
  top: "conv5_2"
  param {
    lr_mult: 1
    decay_mult: 1
  }
  convolution_param {
    num_output: 256
    bias_term: false
    pad: 1
    kernel_size: 3
    weight_filler {
      type: "xavier"
    }
  }
}
layer {
  name: "bn5_2"
  type: "BatchNorm"
  bottom: "conv5_2"
  top: "conv5_2"
  param {
    lr_mult: 0
  }
  param {
    lr_mult: 0
  }
  param {
    lr_mult: 0
  }
  batch_norm_param {
    use_global_stats: false
  }
}
layer {
  name: "scale5_2"
  type: "Scale"
  bottom: "conv5_2"
  top: "conv5_2"
  param {
    lr_mult: 1
    decay_mult: 1
  }
  param {
    lr_mult: 1
    decay_mult: 1
  }
  scale_param {
    bias_term: true
    bias_filler {
      type: "constant"
      value: 0
    }
  }
}
layer {
  name: "relu5_2"
  type: "ReLU"
  bottom: "conv5_2"
  top: "conv5_2"
}
layer {
  name: "pool5"
  type: "Pooling"
  bottom: "conv5_2"
  top: "pool5"
  pooling_param {
    pool: AVE
    stride: 1
    kernel_h: 6
    kernel_w: 8
  }
}
layer {
  name: "fc2"
  type: "InnerProduct"
  bottom: "pool5"
  top: "fc2"
  inner_product_param {
    num_output: 2
  }
}
layer {
  name: "loss"
  type: "SoftmaxWithLoss"
  bottom: "fc2"
  bottom: "label"
  top: "loss"
}
layer {
  name: "accuracy"
  type: "Accuracy"
  bottom: "fc2"
  bottom: "label"
  top: "accuracy"
}
I0625 21:35:21.546660 20335 layer_factory.hpp:77] Creating layer data
I0625 21:35:21.547070 20335 net.cpp:91] Creating Layer data
I0625 21:35:21.547081 20335 net.cpp:399] data -> data
I0625 21:35:21.547103 20335 net.cpp:399] data -> label
I0625 21:35:21.548432 20339 db_lmdb.cpp:35] Opened lmdb data/train_lmdb
I0625 21:35:21.573807 20335 data_layer.cpp:42] output data size: 32,3,196,256
I0625 21:35:21.614179 20335 net.cpp:141] Setting up data
I0625 21:35:21.614209 20335 net.cpp:148] Top shape: 32 3 196 256 (4816896)
I0625 21:35:21.614214 20335 net.cpp:148] Top shape: 32 (32)
I0625 21:35:21.614217 20335 net.cpp:156] Memory required for data: 19267712
I0625 21:35:21.614224 20335 layer_factory.hpp:77] Creating layer label_data_1_split
I0625 21:35:21.614240 20335 net.cpp:91] Creating Layer label_data_1_split
I0625 21:35:21.614245 20335 net.cpp:425] label_data_1_split <- label
I0625 21:35:21.614254 20335 net.cpp:399] label_data_1_split -> label_data_1_split_0
I0625 21:35:21.614264 20335 net.cpp:399] label_data_1_split -> label_data_1_split_1
I0625 21:35:21.614325 20335 net.cpp:141] Setting up label_data_1_split
I0625 21:35:21.614331 20335 net.cpp:148] Top shape: 32 (32)
I0625 21:35:21.614334 20335 net.cpp:148] Top shape: 32 (32)
I0625 21:35:21.614337 20335 net.cpp:156] Memory required for data: 19267968
I0625 21:35:21.614341 20335 layer_factory.hpp:77] Creating layer conv1_1
I0625 21:35:21.614356 20335 net.cpp:91] Creating Layer conv1_1
I0625 21:35:21.614374 20335 net.cpp:425] conv1_1 <- data
I0625 21:35:21.614380 20335 net.cpp:399] conv1_1 -> conv1_1
I0625 21:35:21.961046 20335 net.cpp:141] Setting up conv1_1
I0625 21:35:21.961072 20335 net.cpp:148] Top shape: 32 32 98 128 (12845056)
I0625 21:35:21.961076 20335 net.cpp:156] Memory required for data: 70648192
I0625 21:35:21.961087 20335 layer_factory.hpp:77] Creating layer bn1_1
I0625 21:35:21.961102 20335 net.cpp:91] Creating Layer bn1_1
I0625 21:35:21.961105 20335 net.cpp:425] bn1_1 <- conv1_1
I0625 21:35:21.961110 20335 net.cpp:386] bn1_1 -> conv1_1 (in-place)
I0625 21:35:21.961262 20335 net.cpp:141] Setting up bn1_1
I0625 21:35:21.961269 20335 net.cpp:148] Top shape: 32 32 98 128 (12845056)
I0625 21:35:21.961272 20335 net.cpp:156] Memory required for data: 122028416
I0625 21:35:21.961280 20335 layer_factory.hpp:77] Creating layer scale1_1
I0625 21:35:21.961293 20335 net.cpp:91] Creating Layer scale1_1
I0625 21:35:21.961295 20335 net.cpp:425] scale1_1 <- conv1_1
I0625 21:35:21.961299 20335 net.cpp:386] scale1_1 -> conv1_1 (in-place)
I0625 21:35:21.961334 20335 layer_factory.hpp:77] Creating layer scale1_1
I0625 21:35:21.961427 20335 net.cpp:141] Setting up scale1_1
I0625 21:35:21.961434 20335 net.cpp:148] Top shape: 32 32 98 128 (12845056)
I0625 21:35:21.961437 20335 net.cpp:156] Memory required for data: 173408640
I0625 21:35:21.961443 20335 layer_factory.hpp:77] Creating layer relu1_1
I0625 21:35:21.961448 20335 net.cpp:91] Creating Layer relu1_1
I0625 21:35:21.961452 20335 net.cpp:425] relu1_1 <- conv1_1
I0625 21:35:21.961454 20335 net.cpp:386] relu1_1 -> conv1_1 (in-place)
I0625 21:35:21.961587 20335 net.cpp:141] Setting up relu1_1
I0625 21:35:21.961596 20335 net.cpp:148] Top shape: 32 32 98 128 (12845056)
I0625 21:35:21.961598 20335 net.cpp:156] Memory required for data: 224788864
I0625 21:35:21.961601 20335 layer_factory.hpp:77] Creating layer conv1_2
I0625 21:35:21.961609 20335 net.cpp:91] Creating Layer conv1_2
I0625 21:35:21.961611 20335 net.cpp:425] conv1_2 <- conv1_1
I0625 21:35:21.961616 20335 net.cpp:399] conv1_2 -> conv1_2
I0625 21:35:21.962416 20335 net.cpp:141] Setting up conv1_2
I0625 21:35:21.962429 20335 net.cpp:148] Top shape: 32 32 98 128 (12845056)
I0625 21:35:21.962431 20335 net.cpp:156] Memory required for data: 276169088
I0625 21:35:21.962435 20335 layer_factory.hpp:77] Creating layer bn1_2
I0625 21:35:21.962463 20335 net.cpp:91] Creating Layer bn1_2
I0625 21:35:21.962466 20335 net.cpp:425] bn1_2 <- conv1_2
I0625 21:35:21.962471 20335 net.cpp:386] bn1_2 -> conv1_2 (in-place)
I0625 21:35:21.962606 20335 net.cpp:141] Setting up bn1_2
I0625 21:35:21.962613 20335 net.cpp:148] Top shape: 32 32 98 128 (12845056)
I0625 21:35:21.962616 20335 net.cpp:156] Memory required for data: 327549312
I0625 21:35:21.962623 20335 layer_factory.hpp:77] Creating layer scale1_2
I0625 21:35:21.962630 20335 net.cpp:91] Creating Layer scale1_2
I0625 21:35:21.962632 20335 net.cpp:425] scale1_2 <- conv1_2
I0625 21:35:21.962636 20335 net.cpp:386] scale1_2 -> conv1_2 (in-place)
I0625 21:35:21.962664 20335 layer_factory.hpp:77] Creating layer scale1_2
I0625 21:35:21.962764 20335 net.cpp:141] Setting up scale1_2
I0625 21:35:21.962772 20335 net.cpp:148] Top shape: 32 32 98 128 (12845056)
I0625 21:35:21.962774 20335 net.cpp:156] Memory required for data: 378929536
I0625 21:35:21.962779 20335 layer_factory.hpp:77] Creating layer relu1_2
I0625 21:35:21.962782 20335 net.cpp:91] Creating Layer relu1_2
I0625 21:35:21.962785 20335 net.cpp:425] relu1_2 <- conv1_2
I0625 21:35:21.962790 20335 net.cpp:386] relu1_2 -> conv1_2 (in-place)
I0625 21:35:21.962924 20335 net.cpp:141] Setting up relu1_2
I0625 21:35:21.962932 20335 net.cpp:148] Top shape: 32 32 98 128 (12845056)
I0625 21:35:21.962934 20335 net.cpp:156] Memory required for data: 430309760
I0625 21:35:21.962937 20335 layer_factory.hpp:77] Creating layer pool1
I0625 21:35:21.962944 20335 net.cpp:91] Creating Layer pool1
I0625 21:35:21.962946 20335 net.cpp:425] pool1 <- conv1_2
I0625 21:35:21.962949 20335 net.cpp:399] pool1 -> pool1
I0625 21:35:21.962996 20335 net.cpp:141] Setting up pool1
I0625 21:35:21.963021 20335 net.cpp:148] Top shape: 32 32 49 64 (3211264)
I0625 21:35:21.963023 20335 net.cpp:156] Memory required for data: 443154816
I0625 21:35:21.963027 20335 layer_factory.hpp:77] Creating layer conv2_1
I0625 21:35:21.963034 20335 net.cpp:91] Creating Layer conv2_1
I0625 21:35:21.963037 20335 net.cpp:425] conv2_1 <- pool1
I0625 21:35:21.963042 20335 net.cpp:399] conv2_1 -> conv2_1
I0625 21:35:21.965049 20335 net.cpp:141] Setting up conv2_1
I0625 21:35:21.965062 20335 net.cpp:148] Top shape: 32 64 49 64 (6422528)
I0625 21:35:21.965065 20335 net.cpp:156] Memory required for data: 468844928
I0625 21:35:21.965070 20335 layer_factory.hpp:77] Creating layer bn2_1
I0625 21:35:21.965077 20335 net.cpp:91] Creating Layer bn2_1
I0625 21:35:21.965080 20335 net.cpp:425] bn2_1 <- conv2_1
I0625 21:35:21.965085 20335 net.cpp:386] bn2_1 -> conv2_1 (in-place)
I0625 21:35:21.966322 20335 net.cpp:141] Setting up bn2_1
I0625 21:35:21.966333 20335 net.cpp:148] Top shape: 32 64 49 64 (6422528)
I0625 21:35:21.966336 20335 net.cpp:156] Memory required for data: 494535040
I0625 21:35:21.966342 20335 layer_factory.hpp:77] Creating layer scale2_1
I0625 21:35:21.966349 20335 net.cpp:91] Creating Layer scale2_1
I0625 21:35:21.966351 20335 net.cpp:425] scale2_1 <- conv2_1
I0625 21:35:21.966356 20335 net.cpp:386] scale2_1 -> conv2_1 (in-place)
I0625 21:35:21.966389 20335 layer_factory.hpp:77] Creating layer scale2_1
I0625 21:35:21.966480 20335 net.cpp:141] Setting up scale2_1
I0625 21:35:21.966487 20335 net.cpp:148] Top shape: 32 64 49 64 (6422528)
I0625 21:35:21.966490 20335 net.cpp:156] Memory required for data: 520225152
I0625 21:35:21.966500 20335 layer_factory.hpp:77] Creating layer relu2_1
I0625 21:35:21.966503 20335 net.cpp:91] Creating Layer relu2_1
I0625 21:35:21.966506 20335 net.cpp:425] relu2_1 <- conv2_1
I0625 21:35:21.966511 20335 net.cpp:386] relu2_1 -> conv2_1 (in-place)
I0625 21:35:21.966928 20335 net.cpp:141] Setting up relu2_1
I0625 21:35:21.966939 20335 net.cpp:148] Top shape: 32 64 49 64 (6422528)
I0625 21:35:21.966943 20335 net.cpp:156] Memory required for data: 545915264
I0625 21:35:21.966944 20335 layer_factory.hpp:77] Creating layer conv2_2
I0625 21:35:21.966953 20335 net.cpp:91] Creating Layer conv2_2
I0625 21:35:21.966956 20335 net.cpp:425] conv2_2 <- conv2_1
I0625 21:35:21.966960 20335 net.cpp:399] conv2_2 -> conv2_2
I0625 21:35:21.967728 20335 net.cpp:141] Setting up conv2_2
I0625 21:35:21.967741 20335 net.cpp:148] Top shape: 32 64 49 64 (6422528)
I0625 21:35:21.967742 20335 net.cpp:156] Memory required for data: 571605376
I0625 21:35:21.967746 20335 layer_factory.hpp:77] Creating layer bn2_2
I0625 21:35:21.967756 20335 net.cpp:91] Creating Layer bn2_2
I0625 21:35:21.967758 20335 net.cpp:425] bn2_2 <- conv2_2
I0625 21:35:21.967767 20335 net.cpp:386] bn2_2 -> conv2_2 (in-place)
I0625 21:35:21.967907 20335 net.cpp:141] Setting up bn2_2
I0625 21:35:21.967914 20335 net.cpp:148] Top shape: 32 64 49 64 (6422528)
I0625 21:35:21.967916 20335 net.cpp:156] Memory required for data: 597295488
I0625 21:35:21.967922 20335 layer_factory.hpp:77] Creating layer scale2_2
I0625 21:35:21.967928 20335 net.cpp:91] Creating Layer scale2_2
I0625 21:35:21.967931 20335 net.cpp:425] scale2_2 <- conv2_2
I0625 21:35:21.967936 20335 net.cpp:386] scale2_2 -> conv2_2 (in-place)
I0625 21:35:21.967964 20335 layer_factory.hpp:77] Creating layer scale2_2
I0625 21:35:21.968051 20335 net.cpp:141] Setting up scale2_2
I0625 21:35:21.968057 20335 net.cpp:148] Top shape: 32 64 49 64 (6422528)
I0625 21:35:21.968060 20335 net.cpp:156] Memory required for data: 622985600
I0625 21:35:21.968065 20335 layer_factory.hpp:77] Creating layer relu2_2
I0625 21:35:21.968070 20335 net.cpp:91] Creating Layer relu2_2
I0625 21:35:21.968072 20335 net.cpp:425] relu2_2 <- conv2_2
I0625 21:35:21.968078 20335 net.cpp:386] relu2_2 -> conv2_2 (in-place)
I0625 21:35:21.968471 20335 net.cpp:141] Setting up relu2_2
I0625 21:35:21.968482 20335 net.cpp:148] Top shape: 32 64 49 64 (6422528)
I0625 21:35:21.968485 20335 net.cpp:156] Memory required for data: 648675712
I0625 21:35:21.968499 20335 layer_factory.hpp:77] Creating layer pool2
I0625 21:35:21.968507 20335 net.cpp:91] Creating Layer pool2
I0625 21:35:21.968509 20335 net.cpp:425] pool2 <- conv2_2
I0625 21:35:21.968513 20335 net.cpp:399] pool2 -> pool2
I0625 21:35:21.968554 20335 net.cpp:141] Setting up pool2
I0625 21:35:21.968560 20335 net.cpp:148] Top shape: 32 64 25 32 (1638400)
I0625 21:35:21.968562 20335 net.cpp:156] Memory required for data: 655229312
I0625 21:35:21.968564 20335 layer_factory.hpp:77] Creating layer conv3_1
I0625 21:35:21.968572 20335 net.cpp:91] Creating Layer conv3_1
I0625 21:35:21.968575 20335 net.cpp:425] conv3_1 <- pool2
I0625 21:35:21.968580 20335 net.cpp:399] conv3_1 -> conv3_1
I0625 21:35:21.970953 20335 net.cpp:141] Setting up conv3_1
I0625 21:35:21.970966 20335 net.cpp:148] Top shape: 32 128 25 32 (3276800)
I0625 21:35:21.970969 20335 net.cpp:156] Memory required for data: 668336512
I0625 21:35:21.970973 20335 layer_factory.hpp:77] Creating layer bn3_1
I0625 21:35:21.970983 20335 net.cpp:91] Creating Layer bn3_1
I0625 21:35:21.970985 20335 net.cpp:425] bn3_1 <- conv3_1
I0625 21:35:21.970990 20335 net.cpp:386] bn3_1 -> conv3_1 (in-place)
I0625 21:35:21.972244 20335 net.cpp:141] Setting up bn3_1
I0625 21:35:21.972255 20335 net.cpp:148] Top shape: 32 128 25 32 (3276800)
I0625 21:35:21.972259 20335 net.cpp:156] Memory required for data: 681443712
I0625 21:35:21.972265 20335 layer_factory.hpp:77] Creating layer scale3_1
I0625 21:35:21.972272 20335 net.cpp:91] Creating Layer scale3_1
I0625 21:35:21.972275 20335 net.cpp:425] scale3_1 <- conv3_1
I0625 21:35:21.972278 20335 net.cpp:386] scale3_1 -> conv3_1 (in-place)
I0625 21:35:21.972313 20335 layer_factory.hpp:77] Creating layer scale3_1
I0625 21:35:21.972395 20335 net.cpp:141] Setting up scale3_1
I0625 21:35:21.972403 20335 net.cpp:148] Top shape: 32 128 25 32 (3276800)
I0625 21:35:21.972404 20335 net.cpp:156] Memory required for data: 694550912
I0625 21:35:21.972409 20335 layer_factory.hpp:77] Creating layer relu3_1
I0625 21:35:21.972414 20335 net.cpp:91] Creating Layer relu3_1
I0625 21:35:21.972415 20335 net.cpp:425] relu3_1 <- conv3_1
I0625 21:35:21.972420 20335 net.cpp:386] relu3_1 -> conv3_1 (in-place)
I0625 21:35:21.972560 20335 net.cpp:141] Setting up relu3_1
I0625 21:35:21.972569 20335 net.cpp:148] Top shape: 32 128 25 32 (3276800)
I0625 21:35:21.972573 20335 net.cpp:156] Memory required for data: 707658112
I0625 21:35:21.972574 20335 layer_factory.hpp:77] Creating layer conv3_2
I0625 21:35:21.972582 20335 net.cpp:91] Creating Layer conv3_2
I0625 21:35:21.972585 20335 net.cpp:425] conv3_2 <- conv3_1
I0625 21:35:21.972590 20335 net.cpp:399] conv3_2 -> conv3_2
I0625 21:35:21.975618 20335 net.cpp:141] Setting up conv3_2
I0625 21:35:21.975631 20335 net.cpp:148] Top shape: 32 128 25 32 (3276800)
I0625 21:35:21.975635 20335 net.cpp:156] Memory required for data: 720765312
I0625 21:35:21.975639 20335 layer_factory.hpp:77] Creating layer bn3_2
I0625 21:35:21.975646 20335 net.cpp:91] Creating Layer bn3_2
I0625 21:35:21.975649 20335 net.cpp:425] bn3_2 <- conv3_2
I0625 21:35:21.975657 20335 net.cpp:386] bn3_2 -> conv3_2 (in-place)
I0625 21:35:21.975836 20335 net.cpp:141] Setting up bn3_2
I0625 21:35:21.975848 20335 net.cpp:148] Top shape: 32 128 25 32 (3276800)
I0625 21:35:21.975852 20335 net.cpp:156] Memory required for data: 733872512
I0625 21:35:21.975867 20335 layer_factory.hpp:77] Creating layer scale3_2
I0625 21:35:21.975875 20335 net.cpp:91] Creating Layer scale3_2
I0625 21:35:21.975878 20335 net.cpp:425] scale3_2 <- conv3_2
I0625 21:35:21.975881 20335 net.cpp:386] scale3_2 -> conv3_2 (in-place)
I0625 21:35:21.975917 20335 layer_factory.hpp:77] Creating layer scale3_2
I0625 21:35:21.976002 20335 net.cpp:141] Setting up scale3_2
I0625 21:35:21.976009 20335 net.cpp:148] Top shape: 32 128 25 32 (3276800)
I0625 21:35:21.976011 20335 net.cpp:156] Memory required for data: 746979712
I0625 21:35:21.976016 20335 layer_factory.hpp:77] Creating layer relu3_2
I0625 21:35:21.976021 20335 net.cpp:91] Creating Layer relu3_2
I0625 21:35:21.976022 20335 net.cpp:425] relu3_2 <- conv3_2
I0625 21:35:21.976039 20335 net.cpp:386] relu3_2 -> conv3_2 (in-place)
I0625 21:35:21.976181 20335 net.cpp:141] Setting up relu3_2
I0625 21:35:21.976189 20335 net.cpp:148] Top shape: 32 128 25 32 (3276800)
I0625 21:35:21.976191 20335 net.cpp:156] Memory required for data: 760086912
I0625 21:35:21.976194 20335 layer_factory.hpp:77] Creating layer pool3
I0625 21:35:21.976200 20335 net.cpp:91] Creating Layer pool3
I0625 21:35:21.976202 20335 net.cpp:425] pool3 <- conv3_2
I0625 21:35:21.976207 20335 net.cpp:399] pool3 -> pool3
I0625 21:35:21.976243 20335 net.cpp:141] Setting up pool3
I0625 21:35:21.976248 20335 net.cpp:148] Top shape: 32 128 13 16 (851968)
I0625 21:35:21.976250 20335 net.cpp:156] Memory required for data: 763494784
I0625 21:35:21.976253 20335 layer_factory.hpp:77] Creating layer conv4_1
I0625 21:35:21.976259 20335 net.cpp:91] Creating Layer conv4_1
I0625 21:35:21.976263 20335 net.cpp:425] conv4_1 <- pool3
I0625 21:35:21.976266 20335 net.cpp:399] conv4_1 -> conv4_1
I0625 21:35:21.979094 20335 net.cpp:141] Setting up conv4_1
I0625 21:35:21.979107 20335 net.cpp:148] Top shape: 32 256 13 16 (1703936)
I0625 21:35:21.979110 20335 net.cpp:156] Memory required for data: 770310528
I0625 21:35:21.979115 20335 layer_factory.hpp:77] Creating layer bn4_1
I0625 21:35:21.979121 20335 net.cpp:91] Creating Layer bn4_1
I0625 21:35:21.979125 20335 net.cpp:425] bn4_1 <- conv4_1
I0625 21:35:21.979130 20335 net.cpp:386] bn4_1 -> conv4_1 (in-place)
I0625 21:35:21.979287 20335 net.cpp:141] Setting up bn4_1
I0625 21:35:21.979295 20335 net.cpp:148] Top shape: 32 256 13 16 (1703936)
I0625 21:35:21.979297 20335 net.cpp:156] Memory required for data: 777126272
I0625 21:35:21.979302 20335 layer_factory.hpp:77] Creating layer scale4_1
I0625 21:35:21.979308 20335 net.cpp:91] Creating Layer scale4_1
I0625 21:35:21.979311 20335 net.cpp:425] scale4_1 <- conv4_1
I0625 21:35:21.979316 20335 net.cpp:386] scale4_1 -> conv4_1 (in-place)
I0625 21:35:21.979347 20335 layer_factory.hpp:77] Creating layer scale4_1
I0625 21:35:21.979429 20335 net.cpp:141] Setting up scale4_1
I0625 21:35:21.979435 20335 net.cpp:148] Top shape: 32 256 13 16 (1703936)
I0625 21:35:21.979439 20335 net.cpp:156] Memory required for data: 783942016
I0625 21:35:21.979442 20335 layer_factory.hpp:77] Creating layer relu4_1
I0625 21:35:21.979450 20335 net.cpp:91] Creating Layer relu4_1
I0625 21:35:21.979454 20335 net.cpp:425] relu4_1 <- conv4_1
I0625 21:35:21.979457 20335 net.cpp:386] relu4_1 -> conv4_1 (in-place)
I0625 21:35:21.979599 20335 net.cpp:141] Setting up relu4_1
I0625 21:35:21.979607 20335 net.cpp:148] Top shape: 32 256 13 16 (1703936)
I0625 21:35:21.979610 20335 net.cpp:156] Memory required for data: 790757760
I0625 21:35:21.979614 20335 layer_factory.hpp:77] Creating layer conv4_2
I0625 21:35:21.979624 20335 net.cpp:91] Creating Layer conv4_2
I0625 21:35:21.979627 20335 net.cpp:425] conv4_2 <- conv4_1
I0625 21:35:21.979631 20335 net.cpp:399] conv4_2 -> conv4_2
I0625 21:35:21.985222 20335 net.cpp:141] Setting up conv4_2
I0625 21:35:21.985235 20335 net.cpp:148] Top shape: 32 256 13 16 (1703936)
I0625 21:35:21.985239 20335 net.cpp:156] Memory required for data: 797573504
I0625 21:35:21.985242 20335 layer_factory.hpp:77] Creating layer bn4_2
I0625 21:35:21.985249 20335 net.cpp:91] Creating Layer bn4_2
I0625 21:35:21.985256 20335 net.cpp:425] bn4_2 <- conv4_2
I0625 21:35:21.985262 20335 net.cpp:386] bn4_2 -> conv4_2 (in-place)
I0625 21:35:21.985409 20335 net.cpp:141] Setting up bn4_2
I0625 21:35:21.985415 20335 net.cpp:148] Top shape: 32 256 13 16 (1703936)
I0625 21:35:21.985419 20335 net.cpp:156] Memory required for data: 804389248
I0625 21:35:21.985424 20335 layer_factory.hpp:77] Creating layer scale4_2
I0625 21:35:21.985430 20335 net.cpp:91] Creating Layer scale4_2
I0625 21:35:21.985431 20335 net.cpp:425] scale4_2 <- conv4_2
I0625 21:35:21.985436 20335 net.cpp:386] scale4_2 -> conv4_2 (in-place)
I0625 21:35:21.985469 20335 layer_factory.hpp:77] Creating layer scale4_2
I0625 21:35:21.985553 20335 net.cpp:141] Setting up scale4_2
I0625 21:35:21.985568 20335 net.cpp:148] Top shape: 32 256 13 16 (1703936)
I0625 21:35:21.985570 20335 net.cpp:156] Memory required for data: 811204992
I0625 21:35:21.985574 20335 layer_factory.hpp:77] Creating layer relu4_2
I0625 21:35:21.985579 20335 net.cpp:91] Creating Layer relu4_2
I0625 21:35:21.985581 20335 net.cpp:425] relu4_2 <- conv4_2
I0625 21:35:21.985586 20335 net.cpp:386] relu4_2 -> conv4_2 (in-place)
I0625 21:35:21.985726 20335 net.cpp:141] Setting up relu4_2
I0625 21:35:21.985735 20335 net.cpp:148] Top shape: 32 256 13 16 (1703936)
I0625 21:35:21.985738 20335 net.cpp:156] Memory required for data: 818020736
I0625 21:35:21.985740 20335 layer_factory.hpp:77] Creating layer pool4
I0625 21:35:21.985746 20335 net.cpp:91] Creating Layer pool4
I0625 21:35:21.985749 20335 net.cpp:425] pool4 <- conv4_2
I0625 21:35:21.985754 20335 net.cpp:399] pool4 -> pool4
I0625 21:35:21.985791 20335 net.cpp:141] Setting up pool4
I0625 21:35:21.985797 20335 net.cpp:148] Top shape: 32 256 7 8 (458752)
I0625 21:35:21.985800 20335 net.cpp:156] Memory required for data: 819855744
I0625 21:35:21.985802 20335 layer_factory.hpp:77] Creating layer conv5_1
I0625 21:35:21.985810 20335 net.cpp:91] Creating Layer conv5_1
I0625 21:35:21.985812 20335 net.cpp:425] conv5_1 <- pool4
I0625 21:35:21.985817 20335 net.cpp:399] conv5_1 -> conv5_1
I0625 21:35:21.991533 20335 net.cpp:141] Setting up conv5_1
I0625 21:35:21.991550 20335 net.cpp:148] Top shape: 32 256 7 8 (458752)
I0625 21:35:21.991555 20335 net.cpp:156] Memory required for data: 821690752
I0625 21:35:21.991561 20335 layer_factory.hpp:77] Creating layer bn5_1
I0625 21:35:21.991571 20335 net.cpp:91] Creating Layer bn5_1
I0625 21:35:21.991575 20335 net.cpp:425] bn5_1 <- conv5_1
I0625 21:35:21.991581 20335 net.cpp:386] bn5_1 -> conv5_1 (in-place)
I0625 21:35:21.991753 20335 net.cpp:141] Setting up bn5_1
I0625 21:35:21.991761 20335 net.cpp:148] Top shape: 32 256 7 8 (458752)
I0625 21:35:21.991763 20335 net.cpp:156] Memory required for data: 823525760
I0625 21:35:21.991770 20335 layer_factory.hpp:77] Creating layer scale5_1
I0625 21:35:21.991776 20335 net.cpp:91] Creating Layer scale5_1
I0625 21:35:21.991778 20335 net.cpp:425] scale5_1 <- conv5_1
I0625 21:35:21.991786 20335 net.cpp:386] scale5_1 -> conv5_1 (in-place)
I0625 21:35:21.991823 20335 layer_factory.hpp:77] Creating layer scale5_1
I0625 21:35:21.991909 20335 net.cpp:141] Setting up scale5_1
I0625 21:35:21.991914 20335 net.cpp:148] Top shape: 32 256 7 8 (458752)
I0625 21:35:21.991917 20335 net.cpp:156] Memory required for data: 825360768
I0625 21:35:21.991921 20335 layer_factory.hpp:77] Creating layer relu5_1
I0625 21:35:21.991925 20335 net.cpp:91] Creating Layer relu5_1
I0625 21:35:21.991928 20335 net.cpp:425] relu5_1 <- conv5_1
I0625 21:35:21.991932 20335 net.cpp:386] relu5_1 -> conv5_1 (in-place)
I0625 21:35:21.992349 20335 net.cpp:141] Setting up relu5_1
I0625 21:35:21.992362 20335 net.cpp:148] Top shape: 32 256 7 8 (458752)
I0625 21:35:21.992363 20335 net.cpp:156] Memory required for data: 827195776
I0625 21:35:21.992367 20335 layer_factory.hpp:77] Creating layer conv5_2
I0625 21:35:21.992374 20335 net.cpp:91] Creating Layer conv5_2
I0625 21:35:21.992378 20335 net.cpp:425] conv5_2 <- conv5_1
I0625 21:35:21.992383 20335 net.cpp:399] conv5_2 -> conv5_2
I0625 21:35:21.997768 20335 net.cpp:141] Setting up conv5_2
I0625 21:35:21.997781 20335 net.cpp:148] Top shape: 32 256 7 8 (458752)
I0625 21:35:21.997784 20335 net.cpp:156] Memory required for data: 829030784
I0625 21:35:21.997788 20335 layer_factory.hpp:77] Creating layer bn5_2
I0625 21:35:21.997795 20335 net.cpp:91] Creating Layer bn5_2
I0625 21:35:21.997798 20335 net.cpp:425] bn5_2 <- conv5_2
I0625 21:35:21.997802 20335 net.cpp:386] bn5_2 -> conv5_2 (in-place)
I0625 21:35:21.997956 20335 net.cpp:141] Setting up bn5_2
I0625 21:35:21.997963 20335 net.cpp:148] Top shape: 32 256 7 8 (458752)
I0625 21:35:21.997966 20335 net.cpp:156] Memory required for data: 830865792
I0625 21:35:21.997972 20335 layer_factory.hpp:77] Creating layer scale5_2
I0625 21:35:21.997977 20335 net.cpp:91] Creating Layer scale5_2
I0625 21:35:21.997989 20335 net.cpp:425] scale5_2 <- conv5_2
I0625 21:35:21.997995 20335 net.cpp:386] scale5_2 -> conv5_2 (in-place)
I0625 21:35:21.998028 20335 layer_factory.hpp:77] Creating layer scale5_2
I0625 21:35:21.998116 20335 net.cpp:141] Setting up scale5_2
I0625 21:35:21.998123 20335 net.cpp:148] Top shape: 32 256 7 8 (458752)
I0625 21:35:21.998126 20335 net.cpp:156] Memory required for data: 832700800
I0625 21:35:21.998129 20335 layer_factory.hpp:77] Creating layer relu5_2
I0625 21:35:21.998133 20335 net.cpp:91] Creating Layer relu5_2
I0625 21:35:21.998136 20335 net.cpp:425] relu5_2 <- conv5_2
I0625 21:35:21.998141 20335 net.cpp:386] relu5_2 -> conv5_2 (in-place)
I0625 21:35:21.998546 20335 net.cpp:141] Setting up relu5_2
I0625 21:35:21.998558 20335 net.cpp:148] Top shape: 32 256 7 8 (458752)
I0625 21:35:21.998561 20335 net.cpp:156] Memory required for data: 834535808
I0625 21:35:21.998564 20335 layer_factory.hpp:77] Creating layer pool5
I0625 21:35:21.998569 20335 net.cpp:91] Creating Layer pool5
I0625 21:35:21.998572 20335 net.cpp:425] pool5 <- conv5_2
I0625 21:35:21.998579 20335 net.cpp:399] pool5 -> pool5
I0625 21:35:21.998744 20335 net.cpp:141] Setting up pool5
I0625 21:35:21.998754 20335 net.cpp:148] Top shape: 32 256 2 1 (16384)
I0625 21:35:21.998755 20335 net.cpp:156] Memory required for data: 834601344
I0625 21:35:21.998759 20335 layer_factory.hpp:77] Creating layer fc2
I0625 21:35:21.998770 20335 net.cpp:91] Creating Layer fc2
I0625 21:35:21.998775 20335 net.cpp:425] fc2 <- pool5
I0625 21:35:21.998778 20335 net.cpp:399] fc2 -> fc2
I0625 21:35:21.998872 20335 net.cpp:141] Setting up fc2
I0625 21:35:21.998878 20335 net.cpp:148] Top shape: 32 2 (64)
I0625 21:35:21.998880 20335 net.cpp:156] Memory required for data: 834601600
I0625 21:35:21.998885 20335 layer_factory.hpp:77] Creating layer fc2_fc2_0_split
I0625 21:35:21.998891 20335 net.cpp:91] Creating Layer fc2_fc2_0_split
I0625 21:35:21.998893 20335 net.cpp:425] fc2_fc2_0_split <- fc2
I0625 21:35:21.998898 20335 net.cpp:399] fc2_fc2_0_split -> fc2_fc2_0_split_0
I0625 21:35:21.998901 20335 net.cpp:399] fc2_fc2_0_split -> fc2_fc2_0_split_1
I0625 21:35:21.998930 20335 net.cpp:141] Setting up fc2_fc2_0_split
I0625 21:35:21.998935 20335 net.cpp:148] Top shape: 32 2 (64)
I0625 21:35:21.998939 20335 net.cpp:148] Top shape: 32 2 (64)
I0625 21:35:21.998940 20335 net.cpp:156] Memory required for data: 834602112
I0625 21:35:21.998942 20335 layer_factory.hpp:77] Creating layer loss
I0625 21:35:21.998947 20335 net.cpp:91] Creating Layer loss
I0625 21:35:21.998950 20335 net.cpp:425] loss <- fc2_fc2_0_split_0
I0625 21:35:21.998952 20335 net.cpp:425] loss <- label_data_1_split_0
I0625 21:35:21.998956 20335 net.cpp:399] loss -> loss
…
I0625 21:35:22.000211 20335 solver.cpp:181] Creating test net (#0) specified by net file: models/bpnet/train_val.prototxt
I0625 21:35:22.000262 20335 net.cpp:313] The NetState phase (1) differed from the phase (0) specified by a rule in layer data
I0625 21:35:22.000479 20335 net.cpp:49] Initializing net from parameters: 
name: "BPnet"
state {
  phase: TEST
}
layer {
  name: "data"
  type: "Data"
  top: "data"
  top: "label"
  include {
    phase: TEST
  }
  transform_param {
    mirror: false
    mean_value: 100
    crop_h: 196
    crop_w: 256
  }
  data_param {
    source: "data/val_lmdb"
    batch_size: 64
    backend: LMDB
  }
}
layer {
  name: "conv1_1"
  type: "Convolution"
  bottom: "data"
  top: "conv1_1"
  param {
    lr_mult: 1
    decay_mult: 1
  }
  convolution_param {
    num_output: 32
    bias_term: false
    pad: 3
    kernel_size: 7
    stride: 2
    weight_filler {
      type: "xavier"
    }
  }
}
layer {
  name: "bn1_1"
  type: "BatchNorm"
  bottom: "conv1_1"
  top: "conv1_1"
  param {
    lr_mult: 0
  }
  param {
    lr_mult: 0
  }
  param {
    lr_mult: 0
  }
  batch_norm_param {
    use_global_stats: false
  }
}
layer {
  name: "scale1_1"
  type: "Scale"
  bottom: "conv1_1"
  top: "conv1_1"
  param {
    lr_mult: 1
    decay_mult: 1
  }
  param {
    lr_mult: 1
    decay_mult: 1
  }
  scale_param {
    bias_term: true
    bias_filler {
      type: "constant"
      value: 0
    }
  }
}
layer {
  name: "relu1_1"
  type: "ReLU"
  bottom: "conv1_1"
  top: "conv1_1"
}
layer {
  name: "conv1_2"
  type: "Convolution"
  bottom: "conv1_1"
  top: "conv1_2"
  param {
    lr_mult: 1
    decay_mult: 1
  }
  convolution_param {
    num_output: 32
    bias_term: false
    pad: 1
    kernel_size: 3
    weight_filler {
      type: "xavier"
    }
  }
}
layer {
  name: "bn1_2"
  type: "BatchNorm"
  bottom: "conv1_2"
  top: "conv1_2"
  param {
    lr_mult: 0
  }
  param {
    lr_mult: 0
  }
  param {
    lr_mult: 0
  }
  batch_norm_param {
    use_global_stats: false
  }
}
layer {
  name: "scale1_2"
  type: "Scale"
  bottom: "conv1_2"
  top: "conv1_2"
  param {
    lr_mult: 1
    decay_mult: 1
  }
  param {
    lr_mult: 1
    decay_mult: 1
  }
  scale_param {
    bias_term: true
    bias_filler {
      type: "constant"
      value: 0
    }
  }
}
layer {
  name: "relu1_2"
  type: "ReLU"
  bottom: "conv1_2"
  top: "conv1_2"
}
layer {
  name: "pool1"
  type: "Pooling"
  bottom: "conv1_2"
  top: "pool1"
  pooling_param {
    pool: MAX
    kernel_size: 2
    stride: 2
  }
}
layer {
  name: "conv2_1"
  type: "Convolution"
  bottom: "pool1"
  top: "conv2_1"
  param {
    lr_mult: 1
    decay_mult: 1
  }
  convolution_param {
    num_output: 64
    bias_term: false
    pad: 1
    kernel_size: 3
    weight_filler {
      type: "xavier"
    }
  }
}
layer {
  name: "bn2_1"
  type: "BatchNorm"
  bottom: "conv2_1"
  top: "conv2_1"
  param {
    lr_mult: 0
  }
  param {
    lr_mult: 0
  }
  param {
    lr_mult: 0
  }
  batch_norm_param {
    use_global_stats: false
  }
}
layer {
  name: "scale2_1"
  type: "Scale"
  bottom: "conv2_1"
  top: "conv2_1"
  param {
    lr_mult: 1
    decay_mult: 1
  }
  param {
    lr_mult: 1
    decay_mult: 1
  }
  scale_param {
    bias_term: true
    bias_filler {
      type: "constant"
      value: 0
    }
  }
}
layer {
  name: "relu2_1"
  type: "ReLU"
  bottom: "conv2_1"
  top: "conv2_1"
}
layer {
  name: "conv2_2"
  type: "Convolution"
  bottom: "conv2_1"
  top: "conv2_2"
  param {
    lr_mult: 1
    decay_mult: 1
  }
  convolution_param {
    num_output: 64
    bias_term: false
    pad: 1
    kernel_size: 3
    weight_filler {
      type: "xavier"
    }
  }
}
layer {
  name: "bn2_2"
  type: "BatchNorm"
  bottom: "conv2_2"
  top: "conv2_2"
  param {
    lr_mult: 0
  }
  param {
    lr_mult: 0
  }
  param {
    lr_mult: 0
  }
  batch_norm_param {
    use_global_stats: false
  }
}
layer {
  name: "scale2_2"
  type: "Scale"
  bottom: "conv2_2"
  top: "conv2_2"
  param {
    lr_mult: 1
    decay_mult: 1
  }
  param {
    lr_mult: 1
    decay_mult: 1
  }
  scale_param {
    bias_term: true
    bias_filler {
      type: "constant"
      value: 0
    }
  }
}
layer {
  name: "relu2_2"
  type: "ReLU"
  bottom: "conv2_2"
  top: "conv2_2"
}
layer {
  name: "pool2"
  type: "Pooling"
  bottom: "conv2_2"
  top: "pool2"
  pooling_param {
    pool: MAX
    kernel_size: 2
    stride: 2
  }
}
layer {
  name: "conv3_1"
  type: "Convolution"
  bottom: "pool2"
  top: "conv3_1"
  param {
    lr_mult: 1
    decay_mult: 1
  }
  convolution_param {
    num_output: 128
    bias_term: false
    pad: 1
    kernel_size: 3
    weight_filler {
      type: "xavier"
    }
  }
}
layer {
  name: "bn3_1"
  type: "BatchNorm"
  bottom: "conv3_1"
  top: "conv3_1"
  param {
    lr_mult: 0
  }
  param {
    lr_mult: 0
  }
  param {
    lr_mult: 0
  }
  batch_norm_param {
    use_global_stats: false
  }
}
layer {
  name: "scale3_1"
  type: "Scale"
  bottom: "conv3_1"
  top: "conv3_1"
  param {
    lr_mult: 1
    decay_mult: 1
  }
  param {
    lr_mult: 1
    decay_mult: 1
  }
  scale_param {
    bias_term: true
    bias_filler {
      type: "constant"
      value: 0
    }
  }
}
layer {
  name: "relu3_1"
  type: "ReLU"
  bottom: "conv3_1"
  top: "conv3_1"
}
layer {
  name: "conv3_2"
  type: "Convolution"
  bottom: "conv3_1"
  top: "conv3_2"
  param {
    lr_mult: 1
    decay_mult: 1
  }
  convolution_param {
    num_output: 128
    bias_term: false
    pad: 1
    kernel_size: 3
    weight_filler {
      type: "xavier"
    }
  }
}
layer {
  name: "bn3_2"
  type: "BatchNorm"
  bottom: "conv3_2"
  top: "conv3_2"
  param {
    lr_mult: 0
  }
  param {
    lr_mult: 0
  }
  param {
    lr_mult: 0
  }
  batch_norm_param {
    use_global_stats: false
  }
}
layer {
  name: "scale3_2"
  type: "Scale"
  bottom: "conv3_2"
  top: "conv3_2"
  param {
    lr_mult: 1
    decay_mult: 1
  }
  param {
    lr_mult: 1
    decay_mult: 1
  }
  scale_param {
    bias_term: true
    bias_filler {
      type: "constant"
      value: 0
    }
  }
}
layer {
  name: "relu3_2"
  type: "ReLU"
  bottom: "conv3_2"
  top: "conv3_2"
}
layer {
  name: "pool3"
  type: "Pooling"
  bottom: "conv3_2"
  top: "pool3"
  pooling_param {
    pool: MAX
    kernel_size: 2
    stride: 2
  }
}
layer {
  name: "conv4_1"
  type: "Convolution"
  bottom: "pool3"
  top: "conv4_1"
  param {
    lr_mult: 1
    decay_mult: 1
  }
  convolution_param {
    num_output: 256
    bias_term: false
    pad: 1
    kernel_size: 3
    weight_filler {
      type: "xavier"
    }
  }
}
layer {
  name: "bn4_1"
  type: "BatchNorm"
  bottom: "conv4_1"
  top: "conv4_1"
  param {
    lr_mult: 0
  }
  param {
    lr_mult: 0
  }
  param {
    lr_mult: 0
  }
  batch_norm_param {
    use_global_stats: false
  }
}
layer {
  name: "scale4_1"
  type: "Scale"
  bottom: "conv4_1"
  top: "conv4_1"
  param {
    lr_mult: 1
    decay_mult: 1
  }
  param {
    lr_mult: 1
    decay_mult: 1
  }
  scale_param {
    bias_term: true
    bias_filler {
      type: "constant"
      value: 0
    }
  }
}
layer {
  name: "relu4_1"
  type: "ReLU"
  bottom: "conv4_1"
  top: "conv4_1"
}
layer {
  name: "conv4_2"
  type: "Convolution"
  bottom: "conv4_1"
  top: "conv4_2"
  param {
    lr_mult: 1
    decay_mult: 1
  }
  convolution_param {
    num_output: 256
    bias_term: false
    pad: 1
    kernel_size: 3
    weight_filler {
      type: "xavier"
    }
  }
}
layer {
  name: "bn4_2"
  type: "BatchNorm"
  bottom: "conv4_2"
  top: "conv4_2"
  param {
    lr_mult: 0
  }
  param {
    lr_mult: 0
  }
  param {
    lr_mult: 0
  }
  batch_norm_param {
    use_global_stats: false
  }
}
layer {
  name: "scale4_2"
  type: "Scale"
  bottom: "conv4_2"
  top: "conv4_2"
  param {
    lr_mult: 1
    decay_mult: 1
  }
  param {
    lr_mult: 1
    decay_mult: 1
  }
  scale_param {
    bias_term: true
    bias_filler {
      type: "constant"
      value: 0
    }
  }
}
layer {
  name: "relu4_2"
  type: "ReLU"
  bottom: "conv4_2"
  top: "conv4_2"
}
layer {
  name: "pool4"
  type: "Pooling"
  bottom: "conv4_2"
  top: "pool4"
  pooling_param {
    pool: MAX
    kernel_size: 2
    stride: 2
  }
}
layer {
  name: "conv5_1"
  type: "Convolution"
  bottom: "pool4"
  top: "conv5_1"
  param {
    lr_mult: 1
    decay_mult: 1
  }
  convolution_param {
    num_output: 256
    bias_term: false
    pad: 1
    kernel_size: 3
    weight_filler {
      type: "xavier"
    }
  }
}
layer {
  name: "bn5_1"
  type: "BatchNorm"
  bottom: "conv5_1"
  top: "conv5_1"
  param {
    lr_mult: 0
  }
  param {
    lr_mult: 0
  }
  param {
    lr_mult: 0
  }
  batch_norm_param {
    use_global_stats: false
  }
}
layer {
  name: "scale5_1"
  type: "Scale"
  bottom: "conv5_1"
  top: "conv5_1"
  param {
    lr_mult: 1
    decay_mult: 1
  }
  param {
    lr_mult: 1
    decay_mult: 1
  }
  scale_param {
    bias_term: true
    bias_filler {
      type: "constant"
      value: 0
    }
  }
}
layer {
  name: "relu5_1"
  type: "ReLU"
  bottom: "conv5_1"
  top: "conv5_1"
}
layer {
  name: "conv5_2"
  type: "Convolution"
  bottom: "conv5_1"
  top: "conv5_2"
  param {
    lr_mult: 1
    decay_mult: 1
  }
  convolution_param {
    num_output: 256
    bias_term: false
    pad: 1
    kernel_size: 3
    weight_filler {
      type: "xavier"
    }
  }
}
layer {
  name: "bn5_2"
  type: "BatchNorm"
  bottom: "conv5_2"
  top: "conv5_2"
  param {
    lr_mult: 0
  }
  param {
    lr_mult: 0
  }
  param {
    lr_mult: 0
  }
  batch_norm_param {
    use_global_stats: false
  }
}
layer {
  name: "scale5_2"
  type: "Scale"
  bottom: "conv5_2"
  top: "conv5_2"
  param {
    lr_mult: 1
    decay_mult: 1
  }
  param {
    lr_mult: 1
    decay_mult: 1
  }
  scale_param {
    bias_term: true
    bias_filler {
      type: "constant"
      value: 0
    }
  }
}
layer {
  name: "relu5_2"
  type: "ReLU"
  bottom: "conv5_2"
  top: "conv5_2"
}
layer {
  name: "pool5"
  type: "Pooling"
  bottom: "conv5_2"
  top: "pool5"
  pooling_param {
    pool: AVE
    stride: 1
    kernel_h: 6
    kernel_w: 8
  }
}
layer {
  name: "fc2"
  type: "InnerProduct"
  bottom: "pool5"
  top: "fc2"
  inner_product_param {
    num_output: 2
  }
}
layer {
  name: "loss"
  type: "SoftmaxWithLoss"
  bottom: "fc2"
  bottom: "label"
  top: "loss"
}
layer {
  name: "accuracy"
  type: "Accuracy"
  bottom: "fc2"
  bottom: "label"
  top: "accuracy"
}
I0625 21:35:22.000623 20335 layer_factory.hpp:77] Creating layer data
I0625 21:35:22.000696 20335 net.cpp:91] Creating Layer data
I0625 21:35:22.000704 20335 net.cpp:399] data -> data
I0625 21:35:22.000710 20335 net.cpp:399] data -> label
I0625 21:35:22.002063 20349 db_lmdb.cpp:35] Opened lmdb data/val_lmdb
I0625 21:35:22.002465 20335 data_layer.cpp:42] output data size: 64,3,196,256
I0625 21:35:22.082603 20335 net.cpp:141] Setting up data
I0625 21:35:22.082628 20335 net.cpp:148] Top shape: 64 3 196 256 (9633792)
I0625 21:35:22.082631 20335 net.cpp:148] Top shape: 64 (64)
I0625 21:35:22.082634 20335 net.cpp:156] Memory required for data: 38535424
I0625 21:35:22.082639 20335 layer_factory.hpp:77] Creating layer label_data_1_split
I0625 21:35:22.082650 20335 net.cpp:91] Creating Layer label_data_1_split
I0625 21:35:22.082653 20335 net.cpp:425] label_data_1_split <- label
I0625 21:35:22.082659 20335 net.cpp:399] label_data_1_split -> label_data_1_split_0
I0625 21:35:22.082667 20335 net.cpp:399] label_data_1_split -> label_data_1_split_1
I0625 21:35:22.082772 20335 net.cpp:141] Setting up label_data_1_split
I0625 21:35:22.082779 20335 net.cpp:148] Top shape: 64 (64)
I0625 21:35:22.082782 20335 net.cpp:148] Top shape: 64 (64)
I0625 21:35:22.082784 20335 net.cpp:156] Memory required for data: 38535936
I0625 21:35:22.082787 20335 layer_factory.hpp:77] Creating layer conv1_1
I0625 21:35:22.082800 20335 net.cpp:91] Creating Layer conv1_1
I0625 21:35:22.082805 20335 net.cpp:425] conv1_1 <- data
I0625 21:35:22.082810 20335 net.cpp:399] conv1_1 -> conv1_1
I0625 21:35:22.083937 20335 net.cpp:141] Setting up conv1_1
I0625 21:35:22.083950 20335 net.cpp:148] Top shape: 64 32 98 128 (25690112)
I0625 21:35:22.083953 20335 net.cpp:156] Memory required for data: 141296384
I0625 21:35:22.083961 20335 layer_factory.hpp:77] Creating layer bn1_1
I0625 21:35:22.083969 20335 net.cpp:91] Creating Layer bn1_1
I0625 21:35:22.083971 20335 net.cpp:425] bn1_1 <- conv1_1
I0625 21:35:22.083976 20335 net.cpp:386] bn1_1 -> conv1_1 (in-place)
I0625 21:35:22.084213 20335 net.cpp:141] Setting up bn1_1
I0625 21:35:22.084220 20335 net.cpp:148] Top shape: 64 32 98 128 (25690112)
I0625 21:35:22.084223 20335 net.cpp:156] Memory required for data: 244056832
I0625 21:35:22.084231 20335 layer_factory.hpp:77] Creating layer scale1_1
I0625 21:35:22.084239 20335 net.cpp:91] Creating Layer scale1_1
I0625 21:35:22.084241 20335 net.cpp:425] scale1_1 <- conv1_1
I0625 21:35:22.084261 20335 net.cpp:386] scale1_1 -> conv1_1 (in-place)
I0625 21:35:22.087245 20335 layer_factory.hpp:77] Creating layer scale1_1
I0625 21:35:22.087375 20335 net.cpp:141] Setting up scale1_1
I0625 21:35:22.087383 20335 net.cpp:148] Top shape: 64 32 98 128 (25690112)
I0625 21:35:22.087386 20335 net.cpp:156] Memory required for data: 346817280
I0625 21:35:22.087393 20335 layer_factory.hpp:77] Creating layer relu1_1
I0625 21:35:22.087400 20335 net.cpp:91] Creating Layer relu1_1
I0625 21:35:22.087404 20335 net.cpp:425] relu1_1 <- conv1_1
I0625 21:35:22.087407 20335 net.cpp:386] relu1_1 -> conv1_1 (in-place)
I0625 21:35:22.087563 20335 net.cpp:141] Setting up relu1_1
I0625 21:35:22.087571 20335 net.cpp:148] Top shape: 64 32 98 128 (25690112)
I0625 21:35:22.087574 20335 net.cpp:156] Memory required for data: 449577728
I0625 21:35:22.087576 20335 layer_factory.hpp:77] Creating layer conv1_2
I0625 21:35:22.087585 20335 net.cpp:91] Creating Layer conv1_2
I0625 21:35:22.087591 20335 net.cpp:425] conv1_2 <- conv1_1
I0625 21:35:22.087599 20335 net.cpp:399] conv1_2 -> conv1_2
I0625 21:35:22.088531 20335 net.cpp:141] Setting up conv1_2
I0625 21:35:22.088546 20335 net.cpp:148] Top shape: 64 32 98 128 (25690112)
I0625 21:35:22.088551 20335 net.cpp:156] Memory required for data: 552338176
I0625 21:35:22.088557 20335 layer_factory.hpp:77] Creating layer bn1_2
I0625 21:35:22.088568 20335 net.cpp:91] Creating Layer bn1_2
I0625 21:35:22.088577 20335 net.cpp:425] bn1_2 <- conv1_2
I0625 21:35:22.088582 20335 net.cpp:386] bn1_2 -> conv1_2 (in-place)
I0625 21:35:22.088750 20335 net.cpp:141] Setting up bn1_2
I0625 21:35:22.088757 20335 net.cpp:148] Top shape: 64 32 98 128 (25690112)
I0625 21:35:22.088759 20335 net.cpp:156] Memory required for data: 655098624
I0625 21:35:22.088768 20335 layer_factory.hpp:77] Creating layer scale1_2
I0625 21:35:22.088774 20335 net.cpp:91] Creating Layer scale1_2
I0625 21:35:22.088776 20335 net.cpp:425] scale1_2 <- conv1_2
I0625 21:35:22.088780 20335 net.cpp:386] scale1_2 -> conv1_2 (in-place)
I0625 21:35:22.088814 20335 layer_factory.hpp:77] Creating layer scale1_2
I0625 21:35:22.088923 20335 net.cpp:141] Setting up scale1_2
I0625 21:35:22.088932 20335 net.cpp:148] Top shape: 64 32 98 128 (25690112)
I0625 21:35:22.088934 20335 net.cpp:156] Memory required for data: 757859072
I0625 21:35:22.089000 20335 layer_factory.hpp:77] Creating layer relu1_2
I0625 21:35:22.089007 20335 net.cpp:91] Creating Layer relu1_2
I0625 21:35:22.089010 20335 net.cpp:425] relu1_2 <- conv1_2
I0625 21:35:22.089013 20335 net.cpp:386] relu1_2 -> conv1_2 (in-place)
I0625 21:35:22.089432 20335 net.cpp:141] Setting up relu1_2
I0625 21:35:22.089444 20335 net.cpp:148] Top shape: 64 32 98 128 (25690112)
I0625 21:35:22.089447 20335 net.cpp:156] Memory required for data: 860619520
I0625 21:35:22.089450 20335 layer_factory.hpp:77] Creating layer pool1
I0625 21:35:22.089457 20335 net.cpp:91] Creating Layer pool1
I0625 21:35:22.089459 20335 net.cpp:425] pool1 <- conv1_2
I0625 21:35:22.089464 20335 net.cpp:399] pool1 -> pool1
I0625 21:35:22.089504 20335 net.cpp:141] Setting up pool1
I0625 21:35:22.089509 20335 net.cpp:148] Top shape: 64 32 49 64 (6422528)
I0625 21:35:22.089510 20335 net.cpp:156] Memory required for data: 886309632
I0625 21:35:22.089514 20335 layer_factory.hpp:77] Creating layer conv2_1
I0625 21:35:22.089521 20335 net.cpp:91] Creating Layer conv2_1
I0625 21:35:22.089524 20335 net.cpp:425] conv2_1 <- pool1
I0625 21:35:22.089529 20335 net.cpp:399] conv2_1 -> conv2_1
I0625 21:35:22.090595 20335 net.cpp:141] Setting up conv2_1
I0625 21:35:22.090607 20335 net.cpp:148] Top shape: 64 64 49 64 (12845056)
I0625 21:35:22.090610 20335 net.cpp:156] Memory required for data: 937689856
I0625 21:35:22.090615 20335 layer_factory.hpp:77] Creating layer bn2_1
I0625 21:35:22.090623 20335 net.cpp:91] Creating Layer bn2_1
I0625 21:35:22.090626 20335 net.cpp:425] bn2_1 <- conv2_1
I0625 21:35:22.090631 20335 net.cpp:386] bn2_1 -> conv2_1 (in-place)
I0625 21:35:22.090795 20335 net.cpp:141] Setting up bn2_1
I0625 21:35:22.090811 20335 net.cpp:148] Top shape: 64 64 49 64 (12845056)
I0625 21:35:22.090813 20335 net.cpp:156] Memory required for data: 989070080
I0625 21:35:22.090819 20335 layer_factory.hpp:77] Creating layer scale2_1
I0625 21:35:22.090826 20335 net.cpp:91] Creating Layer scale2_1
I0625 21:35:22.090829 20335 net.cpp:425] scale2_1 <- conv2_1
I0625 21:35:22.090832 20335 net.cpp:386] scale2_1 -> conv2_1 (in-place)
I0625 21:35:22.090868 20335 layer_factory.hpp:77] Creating layer scale2_1
I0625 21:35:22.090965 20335 net.cpp:141] Setting up scale2_1
I0625 21:35:22.090975 20335 net.cpp:148] Top shape: 64 64 49 64 (12845056)
I0625 21:35:22.090977 20335 net.cpp:156] Memory required for data: 1040450304
I0625 21:35:22.090984 20335 layer_factory.hpp:77] Creating layer relu2_1
I0625 21:35:22.090988 20335 net.cpp:91] Creating Layer relu2_1
I0625 21:35:22.090991 20335 net.cpp:425] relu2_1 <- conv2_1
I0625 21:35:22.090994 20335 net.cpp:386] relu2_1 -> conv2_1 (in-place)
I0625 21:35:22.091137 20335 net.cpp:141] Setting up relu2_1
I0625 21:35:22.091145 20335 net.cpp:148] Top shape: 64 64 49 64 (12845056)
I0625 21:35:22.091153 20335 net.cpp:156] Memory required for data: 1091830528
I0625 21:35:22.091156 20335 layer_factory.hpp:77] Creating layer conv2_2
I0625 21:35:22.091164 20335 net.cpp:91] Creating Layer conv2_2
I0625 21:35:22.091167 20335 net.cpp:425] conv2_2 <- conv2_1
I0625 21:35:22.091172 20335 net.cpp:399] conv2_2 -> conv2_2
I0625 21:35:22.092243 20335 net.cpp:141] Setting up conv2_2
I0625 21:35:22.092257 20335 net.cpp:148] Top shape: 64 64 49 64 (12845056)
I0625 21:35:22.092258 20335 net.cpp:156] Memory required for data: 1143210752
I0625 21:35:22.092262 20335 layer_factory.hpp:77] Creating layer bn2_2
I0625 21:35:22.092270 20335 net.cpp:91] Creating Layer bn2_2
I0625 21:35:22.092273 20335 net.cpp:425] bn2_2 <- conv2_2
I0625 21:35:22.092278 20335 net.cpp:386] bn2_2 -> conv2_2 (in-place)
I0625 21:35:22.092438 20335 net.cpp:141] Setting up bn2_2
I0625 21:35:22.092445 20335 net.cpp:148] Top shape: 64 64 49 64 (12845056)
I0625 21:35:22.092447 20335 net.cpp:156] Memory required for data: 1194590976
I0625 21:35:22.092453 20335 layer_factory.hpp:77] Creating layer scale2_2
I0625 21:35:22.092458 20335 net.cpp:91] Creating Layer scale2_2
I0625 21:35:22.092460 20335 net.cpp:425] scale2_2 <- conv2_2
I0625 21:35:22.092465 20335 net.cpp:386] scale2_2 -> conv2_2 (in-place)
I0625 21:35:22.092499 20335 layer_factory.hpp:77] Creating layer scale2_2
I0625 21:35:22.092597 20335 net.cpp:141] Setting up scale2_2
I0625 21:35:22.092604 20335 net.cpp:148] Top shape: 64 64 49 64 (12845056)
I0625 21:35:22.092607 20335 net.cpp:156] Memory required for data: 1245971200
I0625 21:35:22.092610 20335 layer_factory.hpp:77] Creating layer relu2_2
I0625 21:35:22.092614 20335 net.cpp:91] Creating Layer relu2_2
I0625 21:35:22.092617 20335 net.cpp:425] relu2_2 <- conv2_2
I0625 21:35:22.092622 20335 net.cpp:386] relu2_2 -> conv2_2 (in-place)
I0625 21:35:22.092777 20335 net.cpp:141] Setting up relu2_2
I0625 21:35:22.092784 20335 net.cpp:148] Top shape: 64 64 49 64 (12845056)
I0625 21:35:22.092787 20335 net.cpp:156] Memory required for data: 1297351424
I0625 21:35:22.092789 20335 layer_factory.hpp:77] Creating layer pool2
I0625 21:35:22.092794 20335 net.cpp:91] Creating Layer pool2
I0625 21:35:22.092797 20335 net.cpp:425] pool2 <- conv2_2
I0625 21:35:22.092802 20335 net.cpp:399] pool2 -> pool2
I0625 21:35:22.092839 20335 net.cpp:141] Setting up pool2
I0625 21:35:22.092844 20335 net.cpp:148] Top shape: 64 64 25 32 (3276800)
I0625 21:35:22.092845 20335 net.cpp:156] Memory required for data: 1310458624
I0625 21:35:22.092847 20335 layer_factory.hpp:77] Creating layer conv3_1
I0625 21:35:22.092854 20335 net.cpp:91] Creating Layer conv3_1
I0625 21:35:22.092857 20335 net.cpp:425] conv3_1 <- pool2
I0625 21:35:22.092862 20335 net.cpp:399] conv3_1 -> conv3_1
I0625 21:35:22.095505 20335 net.cpp:141] Setting up conv3_1
I0625 21:35:22.095525 20335 net.cpp:148] Top shape: 64 128 25 32 (6553600)
I0625 21:35:22.095528 20335 net.cpp:156] Memory required for data: 1336673024
I0625 21:35:22.095544 20335 layer_factory.hpp:77] Creating layer bn3_1
I0625 21:35:22.095553 20335 net.cpp:91] Creating Layer bn3_1
I0625 21:35:22.095556 20335 net.cpp:425] bn3_1 <- conv3_1
I0625 21:35:22.095561 20335 net.cpp:386] bn3_1 -> conv3_1 (in-place)
I0625 21:35:22.095716 20335 net.cpp:141] Setting up bn3_1
I0625 21:35:22.095724 20335 net.cpp:148] Top shape: 64 128 25 32 (6553600)
I0625 21:35:22.095726 20335 net.cpp:156] Memory required for data: 1362887424
I0625 21:35:22.095731 20335 layer_factory.hpp:77] Creating layer scale3_1
I0625 21:35:22.095738 20335 net.cpp:91] Creating Layer scale3_1
I0625 21:35:22.095741 20335 net.cpp:425] scale3_1 <- conv3_1
I0625 21:35:22.095744 20335 net.cpp:386] scale3_1 -> conv3_1 (in-place)
I0625 21:35:22.095777 20335 layer_factory.hpp:77] Creating layer scale3_1
I0625 21:35:22.095868 20335 net.cpp:141] Setting up scale3_1
I0625 21:35:22.095875 20335 net.cpp:148] Top shape: 64 128 25 32 (6553600)
I0625 21:35:22.095877 20335 net.cpp:156] Memory required for data: 1389101824
I0625 21:35:22.095881 20335 layer_factory.hpp:77] Creating layer relu3_1
I0625 21:35:22.095885 20335 net.cpp:91] Creating Layer relu3_1
I0625 21:35:22.095888 20335 net.cpp:425] relu3_1 <- conv3_1
I0625 21:35:22.095892 20335 net.cpp:386] relu3_1 -> conv3_1 (in-place)
I0625 21:35:22.096055 20335 net.cpp:141] Setting up relu3_1
I0625 21:35:22.096063 20335 net.cpp:148] Top shape: 64 128 25 32 (6553600)
I0625 21:35:22.096067 20335 net.cpp:156] Memory required for data: 1415316224
I0625 21:35:22.096070 20335 layer_factory.hpp:77] Creating layer conv3_2
I0625 21:35:22.096077 20335 net.cpp:91] Creating Layer conv3_2
I0625 21:35:22.096079 20335 net.cpp:425] conv3_2 <- conv3_1
I0625 21:35:22.096084 20335 net.cpp:399] conv3_2 -> conv3_2
I0625 21:35:22.098016 20335 net.cpp:141] Setting up conv3_2
I0625 21:35:22.098027 20335 net.cpp:148] Top shape: 64 128 25 32 (6553600)
I0625 21:35:22.098031 20335 net.cpp:156] Memory required for data: 1441530624
I0625 21:35:22.098036 20335 layer_factory.hpp:77] Creating layer bn3_2
I0625 21:35:22.098040 20335 net.cpp:91] Creating Layer bn3_2
I0625 21:35:22.098043 20335 net.cpp:425] bn3_2 <- conv3_2
I0625 21:35:22.098047 20335 net.cpp:386] bn3_2 -> conv3_2 (in-place)
I0625 21:35:22.098209 20335 net.cpp:141] Setting up bn3_2
I0625 21:35:22.098217 20335 net.cpp:148] Top shape: 64 128 25 32 (6553600)
I0625 21:35:22.098218 20335 net.cpp:156] Memory required for data: 1467745024
I0625 21:35:22.098229 20335 layer_factory.hpp:77] Creating layer scale3_2
I0625 21:35:22.098235 20335 net.cpp:91] Creating Layer scale3_2
I0625 21:35:22.098238 20335 net.cpp:425] scale3_2 <- conv3_2
I0625 21:35:22.098242 20335 net.cpp:386] scale3_2 -> conv3_2 (in-place)
I0625 21:35:22.098278 20335 layer_factory.hpp:77] Creating layer scale3_2
I0625 21:35:22.098369 20335 net.cpp:141] Setting up scale3_2
I0625 21:35:22.098377 20335 net.cpp:148] Top shape: 64 128 25 32 (6553600)
I0625 21:35:22.098379 20335 net.cpp:156] Memory required for data: 1493959424
I0625 21:35:22.098384 20335 layer_factory.hpp:77] Creating layer relu3_2
I0625 21:35:22.098388 20335 net.cpp:91] Creating Layer relu3_2
I0625 21:35:22.098390 20335 net.cpp:425] relu3_2 <- conv3_2
I0625 21:35:22.098394 20335 net.cpp:386] relu3_2 -> conv3_2 (in-place)
I0625 21:35:22.098536 20335 net.cpp:141] Setting up relu3_2
I0625 21:35:22.098546 20335 net.cpp:148] Top shape: 64 128 25 32 (6553600)
I0625 21:35:22.098547 20335 net.cpp:156] Memory required for data: 1520173824
I0625 21:35:22.098551 20335 layer_factory.hpp:77] Creating layer pool3
I0625 21:35:22.098556 20335 net.cpp:91] Creating Layer pool3
I0625 21:35:22.098558 20335 net.cpp:425] pool3 <- conv3_2
I0625 21:35:22.098563 20335 net.cpp:399] pool3 -> pool3
I0625 21:35:22.098600 20335 net.cpp:141] Setting up pool3
I0625 21:35:22.098604 20335 net.cpp:148] Top shape: 64 128 13 16 (1703936)
I0625 21:35:22.098606 20335 net.cpp:156] Memory required for data: 1526989568
I0625 21:35:22.098608 20335 layer_factory.hpp:77] Creating layer conv4_1
I0625 21:35:22.098616 20335 net.cpp:91] Creating Layer conv4_1
I0625 21:35:22.098628 20335 net.cpp:425] conv4_1 <- pool3
I0625 21:35:22.098634 20335 net.cpp:399] conv4_1 -> conv4_1
I0625 21:35:22.101389 20335 net.cpp:141] Setting up conv4_1
I0625 21:35:22.101402 20335 net.cpp:148] Top shape: 64 256 13 16 (3407872)
I0625 21:35:22.101405 20335 net.cpp:156] Memory required for data: 1540621056
I0625 21:35:22.101409 20335 layer_factory.hpp:77] Creating layer bn4_1
I0625 21:35:22.101416 20335 net.cpp:91] Creating Layer bn4_1
I0625 21:35:22.101420 20335 net.cpp:425] bn4_1 <- conv4_1
I0625 21:35:22.101424 20335 net.cpp:386] bn4_1 -> conv4_1 (in-place)
I0625 21:35:22.101593 20335 net.cpp:141] Setting up bn4_1
I0625 21:35:22.101600 20335 net.cpp:148] Top shape: 64 256 13 16 (3407872)
I0625 21:35:22.101603 20335 net.cpp:156] Memory required for data: 1554252544
I0625 21:35:22.101608 20335 layer_factory.hpp:77] Creating layer scale4_1
I0625 21:35:22.101615 20335 net.cpp:91] Creating Layer scale4_1
I0625 21:35:22.101618 20335 net.cpp:425] scale4_1 <- conv4_1
I0625 21:35:22.101621 20335 net.cpp:386] scale4_1 -> conv4_1 (in-place)
I0625 21:35:22.101657 20335 layer_factory.hpp:77] Creating layer scale4_1
I0625 21:35:22.101749 20335 net.cpp:141] Setting up scale4_1
I0625 21:35:22.101757 20335 net.cpp:148] Top shape: 64 256 13 16 (3407872)
I0625 21:35:22.101758 20335 net.cpp:156] Memory required for data: 1567884032
I0625 21:35:22.101763 20335 layer_factory.hpp:77] Creating layer relu4_1
I0625 21:35:22.101771 20335 net.cpp:91] Creating Layer relu4_1
I0625 21:35:22.101773 20335 net.cpp:425] relu4_1 <- conv4_1
I0625 21:35:22.101778 20335 net.cpp:386] relu4_1 -> conv4_1 (in-place)
I0625 21:35:22.101922 20335 net.cpp:141] Setting up relu4_1
I0625 21:35:22.101929 20335 net.cpp:148] Top shape: 64 256 13 16 (3407872)
I0625 21:35:22.101933 20335 net.cpp:156] Memory required for data: 1581515520
I0625 21:35:22.101934 20335 layer_factory.hpp:77] Creating layer conv4_2
I0625 21:35:22.101943 20335 net.cpp:91] Creating Layer conv4_2
I0625 21:35:22.101945 20335 net.cpp:425] conv4_2 <- conv4_1
I0625 21:35:22.101949 20335 net.cpp:399] conv4_2 -> conv4_2
I0625 21:35:22.107537 20335 net.cpp:141] Setting up conv4_2
I0625 21:35:22.107552 20335 net.cpp:148] Top shape: 64 256 13 16 (3407872)
I0625 21:35:22.107554 20335 net.cpp:156] Memory required for data: 1595147008
I0625 21:35:22.107559 20335 layer_factory.hpp:77] Creating layer bn4_2
I0625 21:35:22.107568 20335 net.cpp:91] Creating Layer bn4_2
I0625 21:35:22.107570 20335 net.cpp:425] bn4_2 <- conv4_2
I0625 21:35:22.107578 20335 net.cpp:386] bn4_2 -> conv4_2 (in-place)
I0625 21:35:22.107744 20335 net.cpp:141] Setting up bn4_2
I0625 21:35:22.107751 20335 net.cpp:148] Top shape: 64 256 13 16 (3407872)
I0625 21:35:22.107754 20335 net.cpp:156] Memory required for data: 1608778496
I0625 21:35:22.107759 20335 layer_factory.hpp:77] Creating layer scale4_2
I0625 21:35:22.107767 20335 net.cpp:91] Creating Layer scale4_2
I0625 21:35:22.107770 20335 net.cpp:425] scale4_2 <- conv4_2
I0625 21:35:22.107774 20335 net.cpp:386] scale4_2 -> conv4_2 (in-place)
I0625 21:35:22.107808 20335 layer_factory.hpp:77] Creating layer scale4_2
I0625 21:35:22.107898 20335 net.cpp:141] Setting up scale4_2
I0625 21:35:22.107905 20335 net.cpp:148] Top shape: 64 256 13 16 (3407872)
I0625 21:35:22.107908 20335 net.cpp:156] Memory required for data: 1622409984
I0625 21:35:22.107911 20335 layer_factory.hpp:77] Creating layer relu4_2
I0625 21:35:22.107916 20335 net.cpp:91] Creating Layer relu4_2
I0625 21:35:22.107918 20335 net.cpp:425] relu4_2 <- conv4_2
I0625 21:35:22.107923 20335 net.cpp:386] relu4_2 -> conv4_2 (in-place)
I0625 21:35:22.108351 20335 net.cpp:141] Setting up relu4_2
I0625 21:35:22.108362 20335 net.cpp:148] Top shape: 64 256 13 16 (3407872)
I0625 21:35:22.108366 20335 net.cpp:156] Memory required for data: 1636041472
I0625 21:35:22.108368 20335 layer_factory.hpp:77] Creating layer pool4
I0625 21:35:22.108376 20335 net.cpp:91] Creating Layer pool4
I0625 21:35:22.108378 20335 net.cpp:425] pool4 <- conv4_2
I0625 21:35:22.108382 20335 net.cpp:399] pool4 -> pool4
I0625 21:35:22.108425 20335 net.cpp:141] Setting up pool4
I0625 21:35:22.108443 20335 net.cpp:148] Top shape: 64 256 7 8 (917504)
I0625 21:35:22.108444 20335 net.cpp:156] Memory required for data: 1639711488
I0625 21:35:22.108448 20335 layer_factory.hpp:77] Creating layer conv5_1
I0625 21:35:22.108455 20335 net.cpp:91] Creating Layer conv5_1
I0625 21:35:22.108458 20335 net.cpp:425] conv5_1 <- pool4
I0625 21:35:22.108464 20335 net.cpp:399] conv5_1 -> conv5_1
I0625 21:35:22.114151 20335 net.cpp:141] Setting up conv5_1
I0625 21:35:22.114167 20335 net.cpp:148] Top shape: 64 256 7 8 (917504)
I0625 21:35:22.114171 20335 net.cpp:156] Memory required for data: 1643381504
I0625 21:35:22.114176 20335 layer_factory.hpp:77] Creating layer bn5_1
I0625 21:35:22.114182 20335 net.cpp:91] Creating Layer bn5_1
I0625 21:35:22.114186 20335 net.cpp:425] bn5_1 <- conv5_1
I0625 21:35:22.114192 20335 net.cpp:386] bn5_1 -> conv5_1 (in-place)
I0625 21:35:22.114372 20335 net.cpp:141] Setting up bn5_1
I0625 21:35:22.114378 20335 net.cpp:148] Top shape: 64 256 7 8 (917504)
I0625 21:35:22.114382 20335 net.cpp:156] Memory required for data: 1647051520
I0625 21:35:22.114387 20335 layer_factory.hpp:77] Creating layer scale5_1
I0625 21:35:22.114393 20335 net.cpp:91] Creating Layer scale5_1
I0625 21:35:22.114397 20335 net.cpp:425] scale5_1 <- conv5_1
I0625 21:35:22.114400 20335 net.cpp:386] scale5_1 -> conv5_1 (in-place)
I0625 21:35:22.114435 20335 layer_factory.hpp:77] Creating layer scale5_1
I0625 21:35:22.114528 20335 net.cpp:141] Setting up scale5_1
I0625 21:35:22.114534 20335 net.cpp:148] Top shape: 64 256 7 8 (917504)
I0625 21:35:22.114537 20335 net.cpp:156] Memory required for data: 1650721536
I0625 21:35:22.114542 20335 layer_factory.hpp:77] Creating layer relu5_1
I0625 21:35:22.114545 20335 net.cpp:91] Creating Layer relu5_1
I0625 21:35:22.114548 20335 net.cpp:425] relu5_1 <- conv5_1
I0625 21:35:22.114552 20335 net.cpp:386] relu5_1 -> conv5_1 (in-place)
I0625 21:35:22.114702 20335 net.cpp:141] Setting up relu5_1
I0625 21:35:22.114711 20335 net.cpp:148] Top shape: 64 256 7 8 (917504)
I0625 21:35:22.114713 20335 net.cpp:156] Memory required for data: 1654391552
I0625 21:35:22.114717 20335 layer_factory.hpp:77] Creating layer conv5_2
I0625 21:35:22.114725 20335 net.cpp:91] Creating Layer conv5_2
I0625 21:35:22.114728 20335 net.cpp:425] conv5_2 <- conv5_1
I0625 21:35:22.114733 20335 net.cpp:399] conv5_2 -> conv5_2
I0625 21:35:22.120518 20335 net.cpp:141] Setting up conv5_2
I0625 21:35:22.120535 20335 net.cpp:148] Top shape: 64 256 7 8 (917504)
I0625 21:35:22.120538 20335 net.cpp:156] Memory required for data: 1658061568
I0625 21:35:22.120543 20335 layer_factory.hpp:77] Creating layer bn5_2
I0625 21:35:22.120553 20335 net.cpp:91] Creating Layer bn5_2
I0625 21:35:22.120555 20335 net.cpp:425] bn5_2 <- conv5_2
I0625 21:35:22.120560 20335 net.cpp:386] bn5_2 -> conv5_2 (in-place)
I0625 21:35:22.120736 20335 net.cpp:141] Setting up bn5_2
I0625 21:35:22.120744 20335 net.cpp:148] Top shape: 64 256 7 8 (917504)
I0625 21:35:22.120746 20335 net.cpp:156] Memory required for data: 1661731584
I0625 21:35:22.120753 20335 layer_factory.hpp:77] Creating layer scale5_2
I0625 21:35:22.120760 20335 net.cpp:91] Creating Layer scale5_2
I0625 21:35:22.120762 20335 net.cpp:425] scale5_2 <- conv5_2
I0625 21:35:22.120766 20335 net.cpp:386] scale5_2 -> conv5_2 (in-place)
I0625 21:35:22.120802 20335 layer_factory.hpp:77] Creating layer scale5_2
I0625 21:35:22.120898 20335 net.cpp:141] Setting up scale5_2
I0625 21:35:22.120905 20335 net.cpp:148] Top shape: 64 256 7 8 (917504)
I0625 21:35:22.120908 20335 net.cpp:156] Memory required for data: 1665401600
I0625 21:35:22.120913 20335 layer_factory.hpp:77] Creating layer relu5_2
I0625 21:35:22.120918 20335 net.cpp:91] Creating Layer relu5_2
I0625 21:35:22.120921 20335 net.cpp:425] relu5_2 <- conv5_2
I0625 21:35:22.120924 20335 net.cpp:386] relu5_2 -> conv5_2 (in-place)
I0625 21:35:22.121075 20335 net.cpp:141] Setting up relu5_2
I0625 21:35:22.121084 20335 net.cpp:148] Top shape: 64 256 7 8 (917504)
I0625 21:35:22.121086 20335 net.cpp:156] Memory required for data: 1669071616
I0625 21:35:22.121101 20335 layer_factory.hpp:77] Creating layer pool5
I0625 21:35:22.121107 20335 net.cpp:91] Creating Layer pool5
I0625 21:35:22.121110 20335 net.cpp:425] pool5 <- conv5_2
I0625 21:35:22.121115 20335 net.cpp:399] pool5 -> pool5
I0625 21:35:22.121347 20335 net.cpp:141] Setting up pool5
I0625 21:35:22.121357 20335 net.cpp:148] Top shape: 64 256 2 1 (32768)
I0625 21:35:22.121361 20335 net.cpp:156] Memory required for data: 1669202688
I0625 21:35:22.121363 20335 layer_factory.hpp:77] Creating layer fc2
I0625 21:35:22.121371 20335 net.cpp:91] Creating Layer fc2
I0625 21:35:22.121373 20335 net.cpp:425] fc2 <- pool5
I0625 21:35:22.121377 20335 net.cpp:399] fc2 -> fc2
I0625 21:35:22.121486 20335 net.cpp:141] Setting up fc2
I0625 21:35:22.121493 20335 net.cpp:148] Top shape: 64 2 (128)
I0625 21:35:22.121496 20335 net.cpp:156] Memory required for data: 1669203200
I0625 21:35:22.121500 20335 layer_factory.hpp:77] Creating layer fc2_fc2_0_split
I0625 21:35:22.121505 20335 net.cpp:91] Creating Layer fc2_fc2_0_split
I0625 21:35:22.121507 20335 net.cpp:425] fc2_fc2_0_split <- fc2
I0625 21:35:22.121511 20335 net.cpp:399] fc2_fc2_0_split -> fc2_fc2_0_split_0
I0625 21:35:22.121515 20335 net.cpp:399] fc2_fc2_0_split -> fc2_fc2_0_split_1
I0625 21:35:22.121546 20335 net.cpp:141] Setting up fc2_fc2_0_split
I0625 21:35:22.121551 20335 net.cpp:148] Top shape: 64 2 (128)
I0625 21:35:22.121553 20335 net.cpp:148] Top shape: 64 2 (128)
I0625 21:35:22.121556 20335 net.cpp:156] Memory required for data: 1669204224
I0625 21:35:22.121557 20335 layer_factory.hpp:77] Creating layer loss
I0625 21:35:22.121562 20335 net.cpp:91] Creating Layer loss
I0625 21:35:22.121564 20335 net.cpp:425] loss <- fc2_fc2_0_split_0
I0625 21:35:22.121567 20335 net.cpp:425] loss <- label_data_1_split_0
I0625 21:35:22.121572 20335 net.cpp:399] loss -> loss
…
