…
I0622 16:36:27.161880  3302 net.cpp:313] The NetState phase (0) differed from the phase (1) specified by a rule in layer data
I0622 16:36:27.162102  3302 net.cpp:49] Initializing net from parameters: 
name: "segnet"
state {
  phase: TRAIN
}
layer {
  name: "data"
  type: "DenseImageData"
  top: "data"
  top: "label"
  include {
    phase: TRAIN
  }
  transform_param {
    crop_size: 224
    mean_value: 100
  }
  dense_image_data_param {
    source: "data/train.txt"
    batch_size: 64
    shuffle: true
    new_height: 224
    new_width: 310
    is_color: false
    root_folder: "data/raw/train/"
  }
}
layer {
  name: "conv1_1"
  type: "Convolution"
  bottom: "data"
  top: "conv1_1"
  param {
    lr_mult: 1
    decay_mult: 1
  }
  convolution_param {
    num_output: 64
    bias_term: false
    pad: 1
    kernel_size: 3
    weight_filler {
      type: "msra"
    }
  }
}
layer {
  name: "bn1_1"
  type: "BatchNorm"
  bottom: "conv1_1"
  top: "conv1_1"
  param {
    lr_mult: 0
  }
  param {
    lr_mult: 0
  }
  param {
    lr_mult: 0
  }
  batch_norm_param {
    use_global_stats: false
  }
}
layer {
  name: "scale1_1"
  type: "Scale"
  bottom: "conv1_1"
  top: "conv1_1"
  param {
    lr_mult: 1
    decay_mult: 1
  }
  param {
    lr_mult: 1
    decay_mult: 1
  }
  scale_param {
    bias_term: true
    bias_filler {
      type: "constant"
      value: 0
    }
  }
}
layer {
  name: "relu1_1"
  type: "ReLU"
  bottom: "conv1_1"
  top: "conv1_1"
}
layer {
  name: "pool1"
  type: "Pooling"
  bottom: "conv1_1"
  top: "pool1"
  top: "pool1_mask"
  pooling_param {
    pool: MAX
    kernel_size: 2
    stride: 2
  }
}
layer {
  name: "conv2_1"
  type: "Convolution"
  bottom: "pool1"
  top: "conv2_1"
  param {
    lr_mult: 1
    decay_mult: 1
  }
  convolution_param {
    num_output: 64
    bias_term: false
    pad: 1
    kernel_size: 3
    weight_filler {
      type: "msra"
    }
  }
}
layer {
  name: "bn2_1"
  type: "BatchNorm"
  bottom: "conv2_1"
  top: "conv2_1"
  param {
    lr_mult: 0
  }
  param {
    lr_mult: 0
  }
  param {
    lr_mult: 0
  }
  batch_norm_param {
    use_global_stats: false
  }
}
layer {
  name: "scale2_1"
  type: "Scale"
  bottom: "conv2_1"
  top: "conv2_1"
  param {
    lr_mult: 1
    decay_mult: 1
  }
  param {
    lr_mult: 1
    decay_mult: 1
  }
  scale_param {
    bias_term: true
    bias_filler {
      type: "constant"
      value: 0
    }
  }
}
layer {
  name: "relu2_1"
  type: "ReLU"
  bottom: "conv2_1"
  top: "conv2_1"
}
layer {
  name: "pool2"
  type: "Pooling"
  bottom: "conv2_1"
  top: "pool2"
  top: "pool2_mask"
  pooling_param {
    pool: MAX
    kernel_size: 2
    stride: 2
  }
}
layer {
  name: "conv3_1"
  type: "Convolution"
  bottom: "pool2"
  top: "conv3_1"
  param {
    lr_mult: 1
    decay_mult: 1
  }
  convolution_param {
    num_output: 64
    bias_term: false
    pad: 1
    kernel_size: 3
    weight_filler {
      type: "msra"
    }
  }
}
layer {
  name: "bn3_1"
  type: "BatchNorm"
  bottom: "conv3_1"
  top: "conv3_1"
  param {
    lr_mult: 0
  }
  param {
    lr_mult: 0
  }
  param {
    lr_mult: 0
  }
  batch_norm_param {
    use_global_stats: false
  }
}
layer {
  name: "scale3_1"
  type: "Scale"
  bottom: "conv3_1"
  top: "conv3_1"
  param {
    lr_mult: 1
    decay_mult: 1
  }
  param {
    lr_mult: 1
    decay_mult: 1
  }
  scale_param {
    bias_term: true
    bias_filler {
      type: "constant"
      value: 0
    }
  }
}
layer {
  name: "relu3_1"
  type: "ReLU"
  bottom: "conv3_1"
  top: "conv3_1"
}
layer {
  name: "pool3"
  type: "Pooling"
  bottom: "conv3_1"
  top: "pool3"
  top: "pool3_mask"
  pooling_param {
    pool: MAX
    kernel_size: 2
    stride: 2
  }
}
layer {
  name: "conv4_1"
  type: "Convolution"
  bottom: "pool3"
  top: "conv4_1"
  param {
    lr_mult: 1
    decay_mult: 1
  }
  convolution_param {
    num_output: 64
    bias_term: false
    pad: 1
    kernel_size: 3
    weight_filler {
      type: "msra"
    }
  }
}
layer {
  name: "bn4_1"
  type: "BatchNorm"
  bottom: "conv4_1"
  top: "conv4_1"
  param {
    lr_mult: 0
  }
  param {
    lr_mult: 0
  }
  param {
    lr_mult: 0
  }
  batch_norm_param {
    use_global_stats: false
  }
}
layer {
  name: "scale4_1"
  type: "Scale"
  bottom: "conv4_1"
  top: "conv4_1"
  param {
    lr_mult: 1
    decay_mult: 1
  }
  param {
    lr_mult: 1
    decay_mult: 1
  }
  scale_param {
    bias_term: true
    bias_filler {
      type: "constant"
      value: 0
    }
  }
}
layer {
  name: "relu4_1"
  type: "ReLU"
  bottom: "conv4_1"
  top: "conv4_1"
}
layer {
  name: "pool4"
  type: "Pooling"
  bottom: "conv4_1"
  top: "pool4"
  top: "pool4_mask"
  pooling_param {
    pool: MAX
    kernel_size: 2
    stride: 2
  }
}
layer {
  name: "conv5_1"
  type: "Convolution"
  bottom: "pool4"
  top: "conv5_1"
  param {
    lr_mult: 1
    decay_mult: 1
  }
  convolution_param {
    num_output: 64
    bias_term: false
    pad: 1
    kernel_size: 3
    weight_filler {
      type: "msra"
    }
  }
}
layer {
  name: "bn5_1"
  type: "BatchNorm"
  bottom: "conv5_1"
  top: "conv5_1"
  param {
    lr_mult: 0
  }
  param {
    lr_mult: 0
  }
  param {
    lr_mult: 0
  }
  batch_norm_param {
    use_global_stats: false
  }
}
layer {
  name: "scale5_1"
  type: "Scale"
  bottom: "conv5_1"
  top: "conv5_1"
  param {
    lr_mult: 1
    decay_mult: 1
  }
  param {
    lr_mult: 1
    decay_mult: 1
  }
  scale_param {
    bias_term: true
    bias_filler {
      type: "constant"
      value: 0
    }
  }
}
layer {
  name: "relu5_1"
  type: "ReLU"
  bottom: "conv5_1"
  top: "conv5_1"
}
layer {
  name: "pool5"
  type: "Pooling"
  bottom: "conv5_1"
  top: "pool5"
  top: "pool5_mask"
  pooling_param {
    pool: MAX
    kernel_size: 2
    stride: 2
  }
}
layer {
  name: "upsample5"
  type: "Upsample"
  bottom: "pool5"
  bottom: "pool5_mask"
  top: "pool5_D"
  upsample_param {
    scale: 2
    upsample_h: 14
    upsample_w: 14
  }
}
layer {
  name: "conv5_1_D"
  type: "Convolution"
  bottom: "pool5_D"
  top: "conv5_1_D"
  param {
    lr_mult: 1
    decay_mult: 1
  }
  convolution_param {
    num_output: 64
    bias_term: false
    pad: 1
    kernel_size: 3
    weight_filler {
      type: "msra"
    }
  }
}
layer {
  name: "bn5_1_D"
  type: "BatchNorm"
  bottom: "conv5_1_D"
  top: "conv5_1_D"
  param {
    lr_mult: 0
  }
  param {
    lr_mult: 0
  }
  param {
    lr_mult: 0
  }
  batch_norm_param {
    use_global_stats: false
  }
}
layer {
  name: "scale5_1_D"
  type: "Scale"
  bottom: "conv5_1_D"
  top: "conv5_1_D"
  param {
    lr_mult: 1
    decay_mult: 1
  }
  param {
    lr_mult: 1
    decay_mult: 1
  }
  scale_param {
    bias_term: true
    bias_filler {
      type: "constant"
      value: 0
    }
  }
}
layer {
  name: "relu5_1_D"
  type: "ReLU"
  bottom: "conv5_1_D"
  top: "conv5_1_D"
}
layer {
  name: "upsample4"
  type: "Upsample"
  bottom: "conv5_1_D"
  bottom: "pool4_mask"
  top: "pool4_D"
  upsample_param {
    scale: 2
    upsample_h: 28
    upsample_w: 28
  }
}
layer {
  name: "conv4_1_D"
  type: "Convolution"
  bottom: "pool4_D"
  top: "conv4_1_D"
  param {
    lr_mult: 1
    decay_mult: 1
  }
  convolution_param {
    num_output: 64
    bias_term: false
    pad: 1
    kernel_size: 3
    weight_filler {
      type: "msra"
    }
  }
}
layer {
  name: "bn4_1_D"
  type: "BatchNorm"
  bottom: "conv4_1_D"
  top: "conv4_1_D"
  param {
    lr_mult: 0
  }
  param {
    lr_mult: 0
  }
  param {
    lr_mult: 0
  }
  batch_norm_param {
    use_global_stats: false
  }
}
layer {
  name: "scale4_1_D"
  type: "Scale"
  bottom: "conv4_1_D"
  top: "conv4_1_D"
  param {
    lr_mult: 1
    decay_mult: 1
  }
  param {
    lr_mult: 1
    decay_mult: 1
  }
  scale_param {
    bias_term: true
    bias_filler {
      type: "constant"
      value: 0
    }
  }
}
layer {
  name: "relu4_1_D"
  type: "ReLU"
  bottom: "conv4_1_D"
  top: "conv4_1_D"
}
layer {
  name: "upsample3"
  type: "Upsample"
  bottom: "conv4_1_D"
  bottom: "pool3_mask"
  top: "pool3_D"
  upsample_param {
    scale: 2
    upsample_h: 56
    upsample_w: 56
  }
}
layer {
  name: "conv3_1_D"
  type: "Convolution"
  bottom: "pool3_D"
  top: "conv3_1_D"
  param {
    lr_mult: 1
    decay_mult: 1
  }
  convolution_param {
    num_output: 64
    bias_term: false
    pad: 1
    kernel_size: 3
    weight_filler {
      type: "msra"
    }
  }
}
layer {
  name: "bn3_1_D"
  type: "BatchNorm"
  bottom: "conv3_1_D"
  top: "conv3_1_D"
  param {
    lr_mult: 0
  }
  param {
    lr_mult: 0
  }
  param {
    lr_mult: 0
  }
  batch_norm_param {
    use_global_stats: false
  }
}
layer {
  name: "scale3_1_D"
  type: "Scale"
  bottom: "conv3_1_D"
  top: "conv3_1_D"
  param {
    lr_mult: 1
    decay_mult: 1
  }
  param {
    lr_mult: 1
    decay_mult: 1
  }
  scale_param {
    bias_term: true
    bias_filler {
      type: "constant"
      value: 0
    }
  }
}
layer {
  name: "relu3_1_D"
  type: "ReLU"
  bottom: "conv3_1_D"
  top: "conv3_1_D"
}
layer {
  name: "upsample2"
  type: "Upsample"
  bottom: "conv3_1_D"
  bottom: "pool2_mask"
  top: "pool2_D"
  upsample_param {
    scale: 2
    upsample_h: 112
    upsample_w: 112
  }
}
layer {
  name: "conv2_1_D"
  type: "Convolution"
  bottom: "pool2_D"
  top: "conv2_1_D"
  param {
    lr_mult: 1
    decay_mult: 1
  }
  convolution_param {
    num_output: 64
    bias_term: false
    pad: 1
    kernel_size: 3
    weight_filler {
      type: "msra"
    }
  }
}
layer {
  name: "bn2_1_D"
  type: "BatchNorm"
  bottom: "conv2_1_D"
  top: "conv2_1_D"
  param {
    lr_mult: 0
  }
  param {
    lr_mult: 0
  }
  param {
    lr_mult: 0
  }
  batch_norm_param {
    use_global_stats: false
  }
}
layer {
  name: "scale2_1_D"
  type: "Scale"
  bottom: "conv2_1_D"
  top: "conv2_1_D"
  param {
    lr_mult: 1
    decay_mult: 1
  }
  param {
    lr_mult: 1
    decay_mult: 1
  }
  scale_param {
    bias_term: true
    bias_filler {
      type: "constant"
      value: 0
    }
  }
}
layer {
  name: "relu2_1_D"
  type: "ReLU"
  bottom: "conv2_1_D"
  top: "conv2_1_D"
}
layer {
  name: "upsample1"
  type: "Upsample"
  bottom: "conv2_1_D"
  bottom: "pool1_mask"
  top: "pool1_D"
  upsample_param {
    scale: 2
    upsample_h: 224
    upsample_w: 224
  }
}
layer {
  name: "conv1_1_D"
  type: "Convolution"
  bottom: "pool1_D"
  top: "conv1_1_D"
  param {
    lr_mult: 1
    decay_mult: 1
  }
  param {
    lr_mult: 1
    decay_mult: 1
  }
  convolution_param {
    num_output: 2
    pad: 1
    kernel_size: 3
    weight_filler {
      type: "msra"
    }
    bias_filler {
      type: "constant"
    }
  }
}
layer {
  name: "loss"
  type: "SoftmaxWithLoss"
  bottom: "conv1_1_D"
  bottom: "label"
  top: "loss"
}
layer {
  name: "accuracy"
  type: "Accuracy"
  bottom: "conv1_1_D"
  bottom: "label"
  top: "accuracy"
}
I0622 16:36:27.162276  3302 layer_factory.hpp:77] Creating layer data
I0622 16:36:27.163065  3302 net.cpp:91] Creating Layer data
I0622 16:36:27.163076  3302 net.cpp:399] data -> data
I0622 16:36:27.163096  3302 net.cpp:399] data -> label
I0622 16:36:27.163385  3302 dense_image_data_layer.cpp:38] Opening file data/train.txt
I0622 16:36:27.167296  3302 dense_image_data_layer.cpp:48] Shuffling data
I0622 16:36:27.168555  3302 dense_image_data_layer.cpp:53] A total of 4930 examples.
I0622 16:36:27.364405  3302 dense_image_data_layer.cpp:92] output data size: 1,1,224,224
I0622 16:36:27.366374  3302 net.cpp:141] Setting up data
I0622 16:36:27.366395  3302 net.cpp:148] Top shape: 1 1 224 224 (50176)
I0622 16:36:27.366400  3302 net.cpp:148] Top shape: 1 1 224 224 (50176)
I0622 16:36:27.366401  3302 net.cpp:156] Memory required for data: 401408
I0622 16:36:27.366407  3302 layer_factory.hpp:77] Creating layer label_data_1_split
I0622 16:36:27.366792  3302 net.cpp:91] Creating Layer label_data_1_split
I0622 16:36:27.366801  3302 net.cpp:425] label_data_1_split <- label
I0622 16:36:27.366827  3302 net.cpp:399] label_data_1_split -> label_data_1_split_0
I0622 16:36:27.366835  3302 net.cpp:399] label_data_1_split -> label_data_1_split_1
I0622 16:36:27.367141  3302 net.cpp:141] Setting up label_data_1_split
I0622 16:36:27.367149  3302 net.cpp:148] Top shape: 1 1 224 224 (50176)
I0622 16:36:27.367152  3302 net.cpp:148] Top shape: 1 1 224 224 (50176)
I0622 16:36:27.367154  3302 net.cpp:156] Memory required for data: 802816
I0622 16:36:27.367157  3302 layer_factory.hpp:77] Creating layer conv1_1
I0622 16:36:27.367171  3302 net.cpp:91] Creating Layer conv1_1
I0622 16:36:27.367173  3302 net.cpp:425] conv1_1 <- data
I0622 16:36:27.367177  3302 net.cpp:399] conv1_1 -> conv1_1
I0622 16:36:27.738808  3302 net.cpp:141] Setting up conv1_1
I0622 16:36:27.738831  3302 net.cpp:148] Top shape: 1 64 224 224 (3211264)
I0622 16:36:27.738833  3302 net.cpp:156] Memory required for data: 13647872
I0622 16:36:27.738844  3302 layer_factory.hpp:77] Creating layer bn1_1
I0622 16:36:27.738858  3302 net.cpp:91] Creating Layer bn1_1
I0622 16:36:27.738862  3302 net.cpp:425] bn1_1 <- conv1_1
I0622 16:36:27.738865  3302 net.cpp:386] bn1_1 -> conv1_1 (in-place)
I0622 16:36:27.739042  3302 net.cpp:141] Setting up bn1_1
I0622 16:36:27.739048  3302 net.cpp:148] Top shape: 1 64 224 224 (3211264)
I0622 16:36:27.739050  3302 net.cpp:156] Memory required for data: 26492928
I0622 16:36:27.739059  3302 layer_factory.hpp:77] Creating layer scale1_1
I0622 16:36:27.739069  3302 net.cpp:91] Creating Layer scale1_1
I0622 16:36:27.739073  3302 net.cpp:425] scale1_1 <- conv1_1
I0622 16:36:27.739078  3302 net.cpp:386] scale1_1 -> conv1_1 (in-place)
I0622 16:36:27.739112  3302 layer_factory.hpp:77] Creating layer scale1_1
I0622 16:36:27.739259  3302 net.cpp:141] Setting up scale1_1
I0622 16:36:27.739264  3302 net.cpp:148] Top shape: 1 64 224 224 (3211264)
I0622 16:36:27.739266  3302 net.cpp:156] Memory required for data: 39337984
I0622 16:36:27.739272  3302 layer_factory.hpp:77] Creating layer relu1_1
I0622 16:36:27.739276  3302 net.cpp:91] Creating Layer relu1_1
I0622 16:36:27.739279  3302 net.cpp:425] relu1_1 <- conv1_1
I0622 16:36:27.739282  3302 net.cpp:386] relu1_1 -> conv1_1 (in-place)
I0622 16:36:27.739533  3302 net.cpp:141] Setting up relu1_1
I0622 16:36:27.739543  3302 net.cpp:148] Top shape: 1 64 224 224 (3211264)
I0622 16:36:27.739545  3302 net.cpp:156] Memory required for data: 52183040
I0622 16:36:27.739548  3302 layer_factory.hpp:77] Creating layer pool1
I0622 16:36:27.739552  3302 layer_factory.cpp:90] cuDNN does not support multiple tops. Using Caffe's own pooling layer.
I0622 16:36:27.739557  3302 net.cpp:91] Creating Layer pool1
I0622 16:36:27.739558  3302 net.cpp:425] pool1 <- conv1_1
I0622 16:36:27.739562  3302 net.cpp:399] pool1 -> pool1
I0622 16:36:27.739568  3302 net.cpp:399] pool1 -> pool1_mask
I0622 16:36:27.739603  3302 net.cpp:141] Setting up pool1
I0622 16:36:27.739609  3302 net.cpp:148] Top shape: 1 64 112 112 (802816)
I0622 16:36:27.739611  3302 net.cpp:148] Top shape: 1 64 112 112 (802816)
I0622 16:36:27.739614  3302 net.cpp:156] Memory required for data: 58605568
I0622 16:36:27.739616  3302 layer_factory.hpp:77] Creating layer conv2_1
I0622 16:36:27.739624  3302 net.cpp:91] Creating Layer conv2_1
I0622 16:36:27.739625  3302 net.cpp:425] conv2_1 <- pool1
I0622 16:36:27.739629  3302 net.cpp:399] conv2_1 -> conv2_1
I0622 16:36:27.741600  3302 net.cpp:141] Setting up conv2_1
I0622 16:36:27.741611  3302 net.cpp:148] Top shape: 1 64 112 112 (802816)
I0622 16:36:27.741613  3302 net.cpp:156] Memory required for data: 61816832
I0622 16:36:27.741617  3302 layer_factory.hpp:77] Creating layer bn2_1
I0622 16:36:27.741624  3302 net.cpp:91] Creating Layer bn2_1
I0622 16:36:27.741626  3302 net.cpp:425] bn2_1 <- conv2_1
I0622 16:36:27.741631  3302 net.cpp:386] bn2_1 -> conv2_1 (in-place)
I0622 16:36:27.742285  3302 net.cpp:141] Setting up bn2_1
I0622 16:36:27.742295  3302 net.cpp:148] Top shape: 1 64 112 112 (802816)
I0622 16:36:27.742296  3302 net.cpp:156] Memory required for data: 65028096
I0622 16:36:27.742316  3302 layer_factory.hpp:77] Creating layer scale2_1
I0622 16:36:27.742322  3302 net.cpp:91] Creating Layer scale2_1
I0622 16:36:27.742326  3302 net.cpp:425] scale2_1 <- conv2_1
I0622 16:36:27.742328  3302 net.cpp:386] scale2_1 -> conv2_1 (in-place)
I0622 16:36:27.742359  3302 layer_factory.hpp:77] Creating layer scale2_1
I0622 16:36:27.742447  3302 net.cpp:141] Setting up scale2_1
I0622 16:36:27.742455  3302 net.cpp:148] Top shape: 1 64 112 112 (802816)
I0622 16:36:27.742456  3302 net.cpp:156] Memory required for data: 68239360
I0622 16:36:27.742460  3302 layer_factory.hpp:77] Creating layer relu2_1
I0622 16:36:27.742465  3302 net.cpp:91] Creating Layer relu2_1
I0622 16:36:27.742466  3302 net.cpp:425] relu2_1 <- conv2_1
I0622 16:36:27.742470  3302 net.cpp:386] relu2_1 -> conv2_1 (in-place)
I0622 16:36:27.742597  3302 net.cpp:141] Setting up relu2_1
I0622 16:36:27.742604  3302 net.cpp:148] Top shape: 1 64 112 112 (802816)
I0622 16:36:27.742607  3302 net.cpp:156] Memory required for data: 71450624
I0622 16:36:27.742609  3302 layer_factory.hpp:77] Creating layer pool2
I0622 16:36:27.742612  3302 layer_factory.cpp:90] cuDNN does not support multiple tops. Using Caffe's own pooling layer.
I0622 16:36:27.742616  3302 net.cpp:91] Creating Layer pool2
I0622 16:36:27.742619  3302 net.cpp:425] pool2 <- conv2_1
I0622 16:36:27.742622  3302 net.cpp:399] pool2 -> pool2
I0622 16:36:27.742627  3302 net.cpp:399] pool2 -> pool2_mask
I0622 16:36:27.742656  3302 net.cpp:141] Setting up pool2
I0622 16:36:27.742661  3302 net.cpp:148] Top shape: 1 64 56 56 (200704)
I0622 16:36:27.742665  3302 net.cpp:148] Top shape: 1 64 56 56 (200704)
I0622 16:36:27.742666  3302 net.cpp:156] Memory required for data: 73056256
I0622 16:36:27.742668  3302 layer_factory.hpp:77] Creating layer conv3_1
I0622 16:36:27.742674  3302 net.cpp:91] Creating Layer conv3_1
I0622 16:36:27.742676  3302 net.cpp:425] conv3_1 <- pool2
I0622 16:36:27.742681  3302 net.cpp:399] conv3_1 -> conv3_1
I0622 16:36:27.744365  3302 net.cpp:141] Setting up conv3_1
I0622 16:36:27.744375  3302 net.cpp:148] Top shape: 1 64 56 56 (200704)
I0622 16:36:27.744379  3302 net.cpp:156] Memory required for data: 73859072
I0622 16:36:27.744382  3302 layer_factory.hpp:77] Creating layer bn3_1
I0622 16:36:27.744387  3302 net.cpp:91] Creating Layer bn3_1
I0622 16:36:27.744391  3302 net.cpp:425] bn3_1 <- conv3_1
I0622 16:36:27.744395  3302 net.cpp:386] bn3_1 -> conv3_1 (in-place)
I0622 16:36:27.745035  3302 net.cpp:141] Setting up bn3_1
I0622 16:36:27.745044  3302 net.cpp:148] Top shape: 1 64 56 56 (200704)
I0622 16:36:27.745046  3302 net.cpp:156] Memory required for data: 74661888
I0622 16:36:27.745052  3302 layer_factory.hpp:77] Creating layer scale3_1
I0622 16:36:27.745057  3302 net.cpp:91] Creating Layer scale3_1
I0622 16:36:27.745060  3302 net.cpp:425] scale3_1 <- conv3_1
I0622 16:36:27.745064  3302 net.cpp:386] scale3_1 -> conv3_1 (in-place)
I0622 16:36:27.745093  3302 layer_factory.hpp:77] Creating layer scale3_1
I0622 16:36:27.745175  3302 net.cpp:141] Setting up scale3_1
I0622 16:36:27.745180  3302 net.cpp:148] Top shape: 1 64 56 56 (200704)
I0622 16:36:27.745182  3302 net.cpp:156] Memory required for data: 75464704
I0622 16:36:27.745189  3302 layer_factory.hpp:77] Creating layer relu3_1
I0622 16:36:27.745193  3302 net.cpp:91] Creating Layer relu3_1
I0622 16:36:27.745195  3302 net.cpp:425] relu3_1 <- conv3_1
I0622 16:36:27.745198  3302 net.cpp:386] relu3_1 -> conv3_1 (in-place)
I0622 16:36:27.745434  3302 net.cpp:141] Setting up relu3_1
I0622 16:36:27.745443  3302 net.cpp:148] Top shape: 1 64 56 56 (200704)
I0622 16:36:27.745445  3302 net.cpp:156] Memory required for data: 76267520
I0622 16:36:27.745448  3302 layer_factory.hpp:77] Creating layer pool3
I0622 16:36:27.745451  3302 layer_factory.cpp:90] cuDNN does not support multiple tops. Using Caffe's own pooling layer.
I0622 16:36:27.745456  3302 net.cpp:91] Creating Layer pool3
I0622 16:36:27.745458  3302 net.cpp:425] pool3 <- conv3_1
I0622 16:36:27.745462  3302 net.cpp:399] pool3 -> pool3
I0622 16:36:27.745477  3302 net.cpp:399] pool3 -> pool3_mask
I0622 16:36:27.745520  3302 net.cpp:141] Setting up pool3
I0622 16:36:27.745527  3302 net.cpp:148] Top shape: 1 64 28 28 (50176)
I0622 16:36:27.745529  3302 net.cpp:148] Top shape: 1 64 28 28 (50176)
I0622 16:36:27.745532  3302 net.cpp:156] Memory required for data: 76668928
I0622 16:36:27.745534  3302 layer_factory.hpp:77] Creating layer conv4_1
I0622 16:36:27.745540  3302 net.cpp:91] Creating Layer conv4_1
I0622 16:36:27.745543  3302 net.cpp:425] conv4_1 <- pool3
I0622 16:36:27.745548  3302 net.cpp:399] conv4_1 -> conv4_1
I0622 16:36:27.747136  3302 net.cpp:141] Setting up conv4_1
I0622 16:36:27.747148  3302 net.cpp:148] Top shape: 1 64 28 28 (50176)
I0622 16:36:27.747149  3302 net.cpp:156] Memory required for data: 76869632
I0622 16:36:27.747153  3302 layer_factory.hpp:77] Creating layer bn4_1
I0622 16:36:27.747159  3302 net.cpp:91] Creating Layer bn4_1
I0622 16:36:27.747161  3302 net.cpp:425] bn4_1 <- conv4_1
I0622 16:36:27.747165  3302 net.cpp:386] bn4_1 -> conv4_1 (in-place)
I0622 16:36:27.747304  3302 net.cpp:141] Setting up bn4_1
I0622 16:36:27.747311  3302 net.cpp:148] Top shape: 1 64 28 28 (50176)
I0622 16:36:27.747313  3302 net.cpp:156] Memory required for data: 77070336
I0622 16:36:27.747318  3302 layer_factory.hpp:77] Creating layer scale4_1
I0622 16:36:27.747323  3302 net.cpp:91] Creating Layer scale4_1
I0622 16:36:27.747325  3302 net.cpp:425] scale4_1 <- conv4_1
I0622 16:36:27.747329  3302 net.cpp:386] scale4_1 -> conv4_1 (in-place)
I0622 16:36:27.747357  3302 layer_factory.hpp:77] Creating layer scale4_1
I0622 16:36:27.747442  3302 net.cpp:141] Setting up scale4_1
I0622 16:36:27.747447  3302 net.cpp:148] Top shape: 1 64 28 28 (50176)
I0622 16:36:27.747448  3302 net.cpp:156] Memory required for data: 77271040
I0622 16:36:27.747453  3302 layer_factory.hpp:77] Creating layer relu4_1
I0622 16:36:27.747468  3302 net.cpp:91] Creating Layer relu4_1
I0622 16:36:27.747473  3302 net.cpp:425] relu4_1 <- conv4_1
I0622 16:36:27.747478  3302 net.cpp:386] relu4_1 -> conv4_1 (in-place)
I0622 16:36:27.747730  3302 net.cpp:141] Setting up relu4_1
I0622 16:36:27.747740  3302 net.cpp:148] Top shape: 1 64 28 28 (50176)
I0622 16:36:27.747743  3302 net.cpp:156] Memory required for data: 77471744
I0622 16:36:27.747748  3302 layer_factory.hpp:77] Creating layer pool4
I0622 16:36:27.747752  3302 layer_factory.cpp:90] cuDNN does not support multiple tops. Using Caffe's own pooling layer.
I0622 16:36:27.747759  3302 net.cpp:91] Creating Layer pool4
I0622 16:36:27.747763  3302 net.cpp:425] pool4 <- conv4_1
I0622 16:36:27.747767  3302 net.cpp:399] pool4 -> pool4
I0622 16:36:27.747772  3302 net.cpp:399] pool4 -> pool4_mask
I0622 16:36:27.747805  3302 net.cpp:141] Setting up pool4
I0622 16:36:27.747810  3302 net.cpp:148] Top shape: 1 64 14 14 (12544)
I0622 16:36:27.747813  3302 net.cpp:148] Top shape: 1 64 14 14 (12544)
I0622 16:36:27.747815  3302 net.cpp:156] Memory required for data: 77572096
I0622 16:36:27.747817  3302 layer_factory.hpp:77] Creating layer conv5_1
I0622 16:36:27.747824  3302 net.cpp:91] Creating Layer conv5_1
I0622 16:36:27.747826  3302 net.cpp:425] conv5_1 <- pool4
I0622 16:36:27.747830  3302 net.cpp:399] conv5_1 -> conv5_1
I0622 16:36:27.750031  3302 net.cpp:141] Setting up conv5_1
I0622 16:36:27.750043  3302 net.cpp:148] Top shape: 1 64 14 14 (12544)
I0622 16:36:27.750046  3302 net.cpp:156] Memory required for data: 77622272
I0622 16:36:27.750049  3302 layer_factory.hpp:77] Creating layer bn5_1
I0622 16:36:27.750056  3302 net.cpp:91] Creating Layer bn5_1
I0622 16:36:27.750057  3302 net.cpp:425] bn5_1 <- conv5_1
I0622 16:36:27.750061  3302 net.cpp:386] bn5_1 -> conv5_1 (in-place)
I0622 16:36:27.750205  3302 net.cpp:141] Setting up bn5_1
I0622 16:36:27.750211  3302 net.cpp:148] Top shape: 1 64 14 14 (12544)
I0622 16:36:27.750213  3302 net.cpp:156] Memory required for data: 77672448
I0622 16:36:27.750219  3302 layer_factory.hpp:77] Creating layer scale5_1
I0622 16:36:27.750224  3302 net.cpp:91] Creating Layer scale5_1
I0622 16:36:27.750227  3302 net.cpp:425] scale5_1 <- conv5_1
I0622 16:36:27.750241  3302 net.cpp:386] scale5_1 -> conv5_1 (in-place)
I0622 16:36:27.750272  3302 layer_factory.hpp:77] Creating layer scale5_1
I0622 16:36:27.750355  3302 net.cpp:141] Setting up scale5_1
I0622 16:36:27.750360  3302 net.cpp:148] Top shape: 1 64 14 14 (12544)
I0622 16:36:27.750362  3302 net.cpp:156] Memory required for data: 77722624
I0622 16:36:27.750366  3302 layer_factory.hpp:77] Creating layer relu5_1
I0622 16:36:27.750370  3302 net.cpp:91] Creating Layer relu5_1
I0622 16:36:27.750372  3302 net.cpp:425] relu5_1 <- conv5_1
I0622 16:36:27.750375  3302 net.cpp:386] relu5_1 -> conv5_1 (in-place)
I0622 16:36:27.750502  3302 net.cpp:141] Setting up relu5_1
I0622 16:36:27.750509  3302 net.cpp:148] Top shape: 1 64 14 14 (12544)
I0622 16:36:27.750511  3302 net.cpp:156] Memory required for data: 77772800
I0622 16:36:27.750514  3302 layer_factory.hpp:77] Creating layer pool5
I0622 16:36:27.750517  3302 layer_factory.cpp:90] cuDNN does not support multiple tops. Using Caffe's own pooling layer.
I0622 16:36:27.750521  3302 net.cpp:91] Creating Layer pool5
I0622 16:36:27.750524  3302 net.cpp:425] pool5 <- conv5_1
I0622 16:36:27.750527  3302 net.cpp:399] pool5 -> pool5
I0622 16:36:27.750532  3302 net.cpp:399] pool5 -> pool5_mask
I0622 16:36:27.750562  3302 net.cpp:141] Setting up pool5
I0622 16:36:27.750568  3302 net.cpp:148] Top shape: 1 64 7 7 (3136)
I0622 16:36:27.750571  3302 net.cpp:148] Top shape: 1 64 7 7 (3136)
I0622 16:36:27.750573  3302 net.cpp:156] Memory required for data: 77797888
I0622 16:36:27.750576  3302 layer_factory.hpp:77] Creating layer upsample5
I0622 16:36:27.750581  3302 net.cpp:91] Creating Layer upsample5
I0622 16:36:27.750582  3302 net.cpp:425] upsample5 <- pool5
I0622 16:36:27.750586  3302 net.cpp:425] upsample5 <- pool5_mask
I0622 16:36:27.750588  3302 net.cpp:399] upsample5 -> pool5_D
I0622 16:36:27.750608  3302 net.cpp:141] Setting up upsample5
I0622 16:36:27.750612  3302 net.cpp:148] Top shape: 1 64 14 14 (12544)
I0622 16:36:27.750613  3302 net.cpp:156] Memory required for data: 77848064
I0622 16:36:27.750615  3302 layer_factory.hpp:77] Creating layer conv5_1_D
I0622 16:36:27.750622  3302 net.cpp:91] Creating Layer conv5_1_D
I0622 16:36:27.750624  3302 net.cpp:425] conv5_1_D <- pool5_D
I0622 16:36:27.750628  3302 net.cpp:399] conv5_1_D -> conv5_1_D
I0622 16:36:27.752305  3302 net.cpp:141] Setting up conv5_1_D
I0622 16:36:27.752315  3302 net.cpp:148] Top shape: 1 64 14 14 (12544)
I0622 16:36:27.752329  3302 net.cpp:156] Memory required for data: 77898240
I0622 16:36:27.752333  3302 layer_factory.hpp:77] Creating layer bn5_1_D
I0622 16:36:27.752338  3302 net.cpp:91] Creating Layer bn5_1_D
I0622 16:36:27.752341  3302 net.cpp:425] bn5_1_D <- conv5_1_D
I0622 16:36:27.752346  3302 net.cpp:386] bn5_1_D -> conv5_1_D (in-place)
I0622 16:36:27.752493  3302 net.cpp:141] Setting up bn5_1_D
I0622 16:36:27.752498  3302 net.cpp:148] Top shape: 1 64 14 14 (12544)
I0622 16:36:27.752501  3302 net.cpp:156] Memory required for data: 77948416
I0622 16:36:27.752511  3302 layer_factory.hpp:77] Creating layer scale5_1_D
I0622 16:36:27.752516  3302 net.cpp:91] Creating Layer scale5_1_D
I0622 16:36:27.752518  3302 net.cpp:425] scale5_1_D <- conv5_1_D
I0622 16:36:27.752521  3302 net.cpp:386] scale5_1_D -> conv5_1_D (in-place)
I0622 16:36:27.752550  3302 layer_factory.hpp:77] Creating layer scale5_1_D
I0622 16:36:27.752631  3302 net.cpp:141] Setting up scale5_1_D
I0622 16:36:27.752636  3302 net.cpp:148] Top shape: 1 64 14 14 (12544)
I0622 16:36:27.752638  3302 net.cpp:156] Memory required for data: 77998592
I0622 16:36:27.752642  3302 layer_factory.hpp:77] Creating layer relu5_1_D
I0622 16:36:27.752646  3302 net.cpp:91] Creating Layer relu5_1_D
I0622 16:36:27.752648  3302 net.cpp:425] relu5_1_D <- conv5_1_D
I0622 16:36:27.752651  3302 net.cpp:386] relu5_1_D -> conv5_1_D (in-place)
I0622 16:36:27.752897  3302 net.cpp:141] Setting up relu5_1_D
I0622 16:36:27.752905  3302 net.cpp:148] Top shape: 1 64 14 14 (12544)
I0622 16:36:27.752907  3302 net.cpp:156] Memory required for data: 78048768
I0622 16:36:27.752910  3302 layer_factory.hpp:77] Creating layer upsample4
I0622 16:36:27.752926  3302 net.cpp:91] Creating Layer upsample4
I0622 16:36:27.752930  3302 net.cpp:425] upsample4 <- conv5_1_D
I0622 16:36:27.752933  3302 net.cpp:425] upsample4 <- pool4_mask
I0622 16:36:27.752938  3302 net.cpp:399] upsample4 -> pool4_D
I0622 16:36:27.752961  3302 net.cpp:141] Setting up upsample4
I0622 16:36:27.752966  3302 net.cpp:148] Top shape: 1 64 28 28 (50176)
I0622 16:36:27.752969  3302 net.cpp:156] Memory required for data: 78249472
I0622 16:36:27.752970  3302 layer_factory.hpp:77] Creating layer conv4_1_D
I0622 16:36:27.752976  3302 net.cpp:91] Creating Layer conv4_1_D
I0622 16:36:27.752979  3302 net.cpp:425] conv4_1_D <- pool4_D
I0622 16:36:27.752984  3302 net.cpp:399] conv4_1_D -> conv4_1_D
I0622 16:36:27.754614  3302 net.cpp:141] Setting up conv4_1_D
I0622 16:36:27.754624  3302 net.cpp:148] Top shape: 1 64 28 28 (50176)
I0622 16:36:27.754627  3302 net.cpp:156] Memory required for data: 78450176
I0622 16:36:27.754631  3302 layer_factory.hpp:77] Creating layer bn4_1_D
I0622 16:36:27.754637  3302 net.cpp:91] Creating Layer bn4_1_D
I0622 16:36:27.754640  3302 net.cpp:425] bn4_1_D <- conv4_1_D
I0622 16:36:27.754644  3302 net.cpp:386] bn4_1_D -> conv4_1_D (in-place)
I0622 16:36:27.754801  3302 net.cpp:141] Setting up bn4_1_D
I0622 16:36:27.754806  3302 net.cpp:148] Top shape: 1 64 28 28 (50176)
I0622 16:36:27.754807  3302 net.cpp:156] Memory required for data: 78650880
I0622 16:36:27.754813  3302 layer_factory.hpp:77] Creating layer scale4_1_D
I0622 16:36:27.754818  3302 net.cpp:91] Creating Layer scale4_1_D
I0622 16:36:27.754822  3302 net.cpp:425] scale4_1_D <- conv4_1_D
I0622 16:36:27.754827  3302 net.cpp:386] scale4_1_D -> conv4_1_D (in-place)
I0622 16:36:27.754858  3302 layer_factory.hpp:77] Creating layer scale4_1_D
I0622 16:36:27.754956  3302 net.cpp:141] Setting up scale4_1_D
I0622 16:36:27.754961  3302 net.cpp:148] Top shape: 1 64 28 28 (50176)
I0622 16:36:27.754962  3302 net.cpp:156] Memory required for data: 78851584
I0622 16:36:27.754966  3302 layer_factory.hpp:77] Creating layer relu4_1_D
I0622 16:36:27.754971  3302 net.cpp:91] Creating Layer relu4_1_D
I0622 16:36:27.754973  3302 net.cpp:425] relu4_1_D <- conv4_1_D
I0622 16:36:27.754978  3302 net.cpp:386] relu4_1_D -> conv4_1_D (in-place)
I0622 16:36:27.755223  3302 net.cpp:141] Setting up relu4_1_D
I0622 16:36:27.755231  3302 net.cpp:148] Top shape: 1 64 28 28 (50176)
I0622 16:36:27.755234  3302 net.cpp:156] Memory required for data: 79052288
I0622 16:36:27.755236  3302 layer_factory.hpp:77] Creating layer upsample3
I0622 16:36:27.755240  3302 net.cpp:91] Creating Layer upsample3
I0622 16:36:27.755244  3302 net.cpp:425] upsample3 <- conv4_1_D
I0622 16:36:27.755246  3302 net.cpp:425] upsample3 <- pool3_mask
I0622 16:36:27.755250  3302 net.cpp:399] upsample3 -> pool3_D
I0622 16:36:27.755275  3302 net.cpp:141] Setting up upsample3
I0622 16:36:27.755280  3302 net.cpp:148] Top shape: 1 64 56 56 (200704)
I0622 16:36:27.755281  3302 net.cpp:156] Memory required for data: 79855104
I0622 16:36:27.755283  3302 layer_factory.hpp:77] Creating layer conv3_1_D
I0622 16:36:27.755290  3302 net.cpp:91] Creating Layer conv3_1_D
I0622 16:36:27.755293  3302 net.cpp:425] conv3_1_D <- pool3_D
I0622 16:36:27.755297  3302 net.cpp:399] conv3_1_D -> conv3_1_D
I0622 16:36:27.757153  3302 net.cpp:141] Setting up conv3_1_D
I0622 16:36:27.757163  3302 net.cpp:148] Top shape: 1 64 56 56 (200704)
I0622 16:36:27.757164  3302 net.cpp:156] Memory required for data: 80657920
I0622 16:36:27.757169  3302 layer_factory.hpp:77] Creating layer bn3_1_D
I0622 16:36:27.757175  3302 net.cpp:91] Creating Layer bn3_1_D
I0622 16:36:27.757177  3302 net.cpp:425] bn3_1_D <- conv3_1_D
I0622 16:36:27.757181  3302 net.cpp:386] bn3_1_D -> conv3_1_D (in-place)
I0622 16:36:27.757344  3302 net.cpp:141] Setting up bn3_1_D
I0622 16:36:27.757350  3302 net.cpp:148] Top shape: 1 64 56 56 (200704)
I0622 16:36:27.757354  3302 net.cpp:156] Memory required for data: 81460736
I0622 16:36:27.757359  3302 layer_factory.hpp:77] Creating layer scale3_1_D
I0622 16:36:27.757374  3302 net.cpp:91] Creating Layer scale3_1_D
I0622 16:36:27.757377  3302 net.cpp:425] scale3_1_D <- conv3_1_D
I0622 16:36:27.757380  3302 net.cpp:386] scale3_1_D -> conv3_1_D (in-place)
I0622 16:36:27.757414  3302 layer_factory.hpp:77] Creating layer scale3_1_D
I0622 16:36:27.757522  3302 net.cpp:141] Setting up scale3_1_D
I0622 16:36:27.757529  3302 net.cpp:148] Top shape: 1 64 56 56 (200704)
I0622 16:36:27.757531  3302 net.cpp:156] Memory required for data: 82263552
I0622 16:36:27.757535  3302 layer_factory.hpp:77] Creating layer relu3_1_D
I0622 16:36:27.757539  3302 net.cpp:91] Creating Layer relu3_1_D
I0622 16:36:27.757541  3302 net.cpp:425] relu3_1_D <- conv3_1_D
I0622 16:36:27.757546  3302 net.cpp:386] relu3_1_D -> conv3_1_D (in-place)
I0622 16:36:27.757681  3302 net.cpp:141] Setting up relu3_1_D
I0622 16:36:27.757688  3302 net.cpp:148] Top shape: 1 64 56 56 (200704)
I0622 16:36:27.757691  3302 net.cpp:156] Memory required for data: 83066368
I0622 16:36:27.757695  3302 layer_factory.hpp:77] Creating layer upsample2
I0622 16:36:27.757699  3302 net.cpp:91] Creating Layer upsample2
I0622 16:36:27.757702  3302 net.cpp:425] upsample2 <- conv3_1_D
I0622 16:36:27.757705  3302 net.cpp:425] upsample2 <- pool2_mask
I0622 16:36:27.757709  3302 net.cpp:399] upsample2 -> pool2_D
I0622 16:36:27.757735  3302 net.cpp:141] Setting up upsample2
I0622 16:36:27.757740  3302 net.cpp:148] Top shape: 1 64 112 112 (802816)
I0622 16:36:27.757741  3302 net.cpp:156] Memory required for data: 86277632
I0622 16:36:27.757745  3302 layer_factory.hpp:77] Creating layer conv2_1_D
I0622 16:36:27.757750  3302 net.cpp:91] Creating Layer conv2_1_D
I0622 16:36:27.757753  3302 net.cpp:425] conv2_1_D <- pool2_D
I0622 16:36:27.757756  3302 net.cpp:399] conv2_1_D -> conv2_1_D
I0622 16:36:27.759511  3302 net.cpp:141] Setting up conv2_1_D
I0622 16:36:27.759522  3302 net.cpp:148] Top shape: 1 64 112 112 (802816)
I0622 16:36:27.759526  3302 net.cpp:156] Memory required for data: 89488896
I0622 16:36:27.759529  3302 layer_factory.hpp:77] Creating layer bn2_1_D
I0622 16:36:27.759536  3302 net.cpp:91] Creating Layer bn2_1_D
I0622 16:36:27.759538  3302 net.cpp:425] bn2_1_D <- conv2_1_D
I0622 16:36:27.759541  3302 net.cpp:386] bn2_1_D -> conv2_1_D (in-place)
I0622 16:36:27.759704  3302 net.cpp:141] Setting up bn2_1_D
I0622 16:36:27.759711  3302 net.cpp:148] Top shape: 1 64 112 112 (802816)
I0622 16:36:27.759712  3302 net.cpp:156] Memory required for data: 92700160
I0622 16:36:27.759718  3302 layer_factory.hpp:77] Creating layer scale2_1_D
I0622 16:36:27.759723  3302 net.cpp:91] Creating Layer scale2_1_D
I0622 16:36:27.759727  3302 net.cpp:425] scale2_1_D <- conv2_1_D
I0622 16:36:27.759730  3302 net.cpp:386] scale2_1_D -> conv2_1_D (in-place)
I0622 16:36:27.759763  3302 layer_factory.hpp:77] Creating layer scale2_1_D
I0622 16:36:27.759865  3302 net.cpp:141] Setting up scale2_1_D
I0622 16:36:27.759870  3302 net.cpp:148] Top shape: 1 64 112 112 (802816)
I0622 16:36:27.759871  3302 net.cpp:156] Memory required for data: 95911424
I0622 16:36:27.759876  3302 layer_factory.hpp:77] Creating layer relu2_1_D
I0622 16:36:27.759879  3302 net.cpp:91] Creating Layer relu2_1_D
I0622 16:36:27.759882  3302 net.cpp:425] relu2_1_D <- conv2_1_D
I0622 16:36:27.759886  3302 net.cpp:386] relu2_1_D -> conv2_1_D (in-place)
I0622 16:36:27.760135  3302 net.cpp:141] Setting up relu2_1_D
I0622 16:36:27.760143  3302 net.cpp:148] Top shape: 1 64 112 112 (802816)
I0622 16:36:27.760146  3302 net.cpp:156] Memory required for data: 99122688
I0622 16:36:27.760149  3302 layer_factory.hpp:77] Creating layer upsample1
I0622 16:36:27.760155  3302 net.cpp:91] Creating Layer upsample1
I0622 16:36:27.760159  3302 net.cpp:425] upsample1 <- conv2_1_D
I0622 16:36:27.760161  3302 net.cpp:425] upsample1 <- pool1_mask
I0622 16:36:27.760165  3302 net.cpp:399] upsample1 -> pool1_D
I0622 16:36:27.760190  3302 net.cpp:141] Setting up upsample1
I0622 16:36:27.760195  3302 net.cpp:148] Top shape: 1 64 224 224 (3211264)
I0622 16:36:27.760196  3302 net.cpp:156] Memory required for data: 111967744
I0622 16:36:27.760207  3302 layer_factory.hpp:77] Creating layer conv1_1_D
I0622 16:36:27.760216  3302 net.cpp:91] Creating Layer conv1_1_D
I0622 16:36:27.760220  3302 net.cpp:425] conv1_1_D <- pool1_D
I0622 16:36:27.760223  3302 net.cpp:399] conv1_1_D -> conv1_1_D
I0622 16:36:27.761109  3302 net.cpp:141] Setting up conv1_1_D
I0622 16:36:27.761121  3302 net.cpp:148] Top shape: 1 2 224 224 (100352)
I0622 16:36:27.761122  3302 net.cpp:156] Memory required for data: 112369152
I0622 16:36:27.761128  3302 layer_factory.hpp:77] Creating layer conv1_1_D_conv1_1_D_0_split
I0622 16:36:27.761133  3302 net.cpp:91] Creating Layer conv1_1_D_conv1_1_D_0_split
I0622 16:36:27.761137  3302 net.cpp:425] conv1_1_D_conv1_1_D_0_split <- conv1_1_D
I0622 16:36:27.761142  3302 net.cpp:399] conv1_1_D_conv1_1_D_0_split -> conv1_1_D_conv1_1_D_0_split_0
I0622 16:36:27.761147  3302 net.cpp:399] conv1_1_D_conv1_1_D_0_split -> conv1_1_D_conv1_1_D_0_split_1
I0622 16:36:27.761183  3302 net.cpp:141] Setting up conv1_1_D_conv1_1_D_0_split
I0622 16:36:27.761188  3302 net.cpp:148] Top shape: 1 2 224 224 (100352)
I0622 16:36:27.761191  3302 net.cpp:148] Top shape: 1 2 224 224 (100352)
I0622 16:36:27.761193  3302 net.cpp:156] Memory required for data: 113171968
I0622 16:36:27.761195  3302 layer_factory.hpp:77] Creating layer loss
I0622 16:36:27.761199  3302 net.cpp:91] Creating Layer loss
I0622 16:36:27.761201  3302 net.cpp:425] loss <- conv1_1_D_conv1_1_D_0_split_0
I0622 16:36:27.761205  3302 net.cpp:425] loss <- label_data_1_split_0
I0622 16:36:27.761209  3302 net.cpp:399] loss -> loss
…
