…
I0625 14:48:02.749171 29461 net.cpp:313] The NetState phase (0) differed from the phase (1) specified by a rule in layer data
I0625 14:48:02.749574 29461 net.cpp:49] Initializing net from parameters: 
name: "segnet"
state {
  phase: TRAIN
}
layer {
  name: "data"
  type: "DenseImageData"
  top: "data"
  top: "label"
  include {
    phase: TRAIN
  }
  transform_param {
    mean_value: 100
    crop_h: 224
    crop_w: 288
  }
  dense_image_data_param {
    source: "data/train_seg.txt"
    batch_size: 32
    shuffle: true
    new_height: 224
    new_width: 310
    is_color: false
    root_folder: "data/raw/train/"
  }
}
layer {
  name: "conv1_1"
  type: "Convolution"
  bottom: "data"
  top: "conv1_1"
  param {
    lr_mult: 1
    decay_mult: 1
  }
  convolution_param {
    num_output: 32
    bias_term: false
    pad: 1
    kernel_size: 3
    weight_filler {
      type: "xavier"
    }
  }
}
layer {
  name: "bn1_1"
  type: "BatchNorm"
  bottom: "conv1_1"
  top: "conv1_1"
  param {
    lr_mult: 0
  }
  param {
    lr_mult: 0
  }
  param {
    lr_mult: 0
  }
  batch_norm_param {
    use_global_stats: false
  }
}
layer {
  name: "scale1_1"
  type: "Scale"
  bottom: "conv1_1"
  top: "conv1_1"
  param {
    lr_mult: 1
    decay_mult: 1
  }
  param {
    lr_mult: 1
    decay_mult: 1
  }
  scale_param {
    bias_term: true
    bias_filler {
      type: "constant"
      value: 0
    }
  }
}
layer {
  name: "relu1_1"
  type: "ReLU"
  bottom: "conv1_1"
  top: "conv1_1"
}
layer {
  name: "conv1_2"
  type: "Convolution"
  bottom: "conv1_1"
  top: "conv1_2"
  param {
    lr_mult: 1
    decay_mult: 1
  }
  convolution_param {
    num_output: 32
    bias_term: false
    pad: 1
    kernel_size: 3
    weight_filler {
      type: "xavier"
    }
  }
}
layer {
  name: "bn1_2"
  type: "BatchNorm"
  bottom: "conv1_2"
  top: "conv1_2"
  param {
    lr_mult: 0
  }
  param {
    lr_mult: 0
  }
  param {
    lr_mult: 0
  }
  batch_norm_param {
    use_global_stats: false
  }
}
layer {
  name: "scale1_2"
  type: "Scale"
  bottom: "conv1_2"
  top: "conv1_2"
  param {
    lr_mult: 1
    decay_mult: 1
  }
  param {
    lr_mult: 1
    decay_mult: 1
  }
  scale_param {
    bias_term: true
    bias_filler {
      type: "constant"
      value: 0
    }
  }
}
layer {
  name: "relu1_2"
  type: "ReLU"
  bottom: "conv1_2"
  top: "conv1_2"
}
layer {
  name: "pool1"
  type: "Pooling"
  bottom: "conv1_2"
  top: "pool1"
  top: "pool1_mask"
  pooling_param {
    pool: MAX
    kernel_size: 2
    stride: 2
  }
}
layer {
  name: "conv2_1"
  type: "Convolution"
  bottom: "pool1"
  top: "conv2_1"
  param {
    lr_mult: 1
    decay_mult: 1
  }
  convolution_param {
    num_output: 64
    bias_term: false
    pad: 1
    kernel_size: 3
    weight_filler {
      type: "xavier"
    }
  }
}
layer {
  name: "bn2_1"
  type: "BatchNorm"
  bottom: "conv2_1"
  top: "conv2_1"
  param {
    lr_mult: 0
  }
  param {
    lr_mult: 0
  }
  param {
    lr_mult: 0
  }
  batch_norm_param {
    use_global_stats: false
  }
}
layer {
  name: "scale2_1"
  type: "Scale"
  bottom: "conv2_1"
  top: "conv2_1"
  param {
    lr_mult: 1
    decay_mult: 1
  }
  param {
    lr_mult: 1
    decay_mult: 1
  }
  scale_param {
    bias_term: true
    bias_filler {
      type: "constant"
      value: 0
    }
  }
}
layer {
  name: "relu2_1"
  type: "ReLU"
  bottom: "conv2_1"
  top: "conv2_1"
}
layer {
  name: "conv2_2"
  type: "Convolution"
  bottom: "conv2_1"
  top: "conv2_2"
  param {
    lr_mult: 1
    decay_mult: 1
  }
  convolution_param {
    num_output: 64
    bias_term: false
    pad: 1
    kernel_size: 3
    weight_filler {
      type: "xavier"
    }
  }
}
layer {
  name: "bn2_2"
  type: "BatchNorm"
  bottom: "conv2_2"
  top: "conv2_2"
  param {
    lr_mult: 0
  }
  param {
    lr_mult: 0
  }
  param {
    lr_mult: 0
  }
  batch_norm_param {
    use_global_stats: false
  }
}
layer {
  name: "scale2_2"
  type: "Scale"
  bottom: "conv2_2"
  top: "conv2_2"
  param {
    lr_mult: 1
    decay_mult: 1
  }
  param {
    lr_mult: 1
    decay_mult: 1
  }
  scale_param {
    bias_term: true
    bias_filler {
      type: "constant"
      value: 0
    }
  }
}
layer {
  name: "relu2_2"
  type: "ReLU"
  bottom: "conv2_2"
  top: "conv2_2"
}
layer {
  name: "pool2"
  type: "Pooling"
  bottom: "conv2_2"
  top: "pool2"
  top: "pool2_mask"
  pooling_param {
    pool: MAX
    kernel_size: 2
    stride: 2
  }
}
layer {
  name: "conv3_1"
  type: "Convolution"
  bottom: "pool2"
  top: "conv3_1"
  param {
    lr_mult: 1
    decay_mult: 1
  }
  convolution_param {
    num_output: 128
    bias_term: false
    pad: 1
    kernel_size: 3
    weight_filler {
      type: "xavier"
    }
  }
}
layer {
  name: "bn3_1"
  type: "BatchNorm"
  bottom: "conv3_1"
  top: "conv3_1"
  param {
    lr_mult: 0
  }
  param {
    lr_mult: 0
  }
  param {
    lr_mult: 0
  }
  batch_norm_param {
    use_global_stats: false
  }
}
layer {
  name: "scale3_1"
  type: "Scale"
  bottom: "conv3_1"
  top: "conv3_1"
  param {
    lr_mult: 1
    decay_mult: 1
  }
  param {
    lr_mult: 1
    decay_mult: 1
  }
  scale_param {
    bias_term: true
    bias_filler {
      type: "constant"
      value: 0
    }
  }
}
layer {
  name: "relu3_1"
  type: "ReLU"
  bottom: "conv3_1"
  top: "conv3_1"
}
layer {
  name: "conv3_2"
  type: "Convolution"
  bottom: "conv3_1"
  top: "conv3_2"
  param {
    lr_mult: 1
    decay_mult: 1
  }
  convolution_param {
    num_output: 128
    bias_term: false
    pad: 1
    kernel_size: 3
    weight_filler {
      type: "xavier"
    }
  }
}
layer {
  name: "bn3_2"
  type: "BatchNorm"
  bottom: "conv3_2"
  top: "conv3_2"
  param {
    lr_mult: 0
  }
  param {
    lr_mult: 0
  }
  param {
    lr_mult: 0
  }
  batch_norm_param {
    use_global_stats: false
  }
}
layer {
  name: "scale3_2"
  type: "Scale"
  bottom: "conv3_2"
  top: "conv3_2"
  param {
    lr_mult: 1
    decay_mult: 1
  }
  param {
    lr_mult: 1
    decay_mult: 1
  }
  scale_param {
    bias_term: true
    bias_filler {
      type: "constant"
      value: 0
    }
  }
}
layer {
  name: "relu3_2"
  type: "ReLU"
  bottom: "conv3_2"
  top: "conv3_2"
}
layer {
  name: "pool3"
  type: "Pooling"
  bottom: "conv3_2"
  top: "pool3"
  top: "pool3_mask"
  pooling_param {
    pool: MAX
    kernel_size: 2
    stride: 2
  }
}
layer {
  name: "conv4_1"
  type: "Convolution"
  bottom: "pool3"
  top: "conv4_1"
  param {
    lr_mult: 1
    decay_mult: 1
  }
  convolution_param {
    num_output: 256
    bias_term: false
    pad: 1
    kernel_size: 3
    weight_filler {
      type: "xavier"
    }
  }
}
layer {
  name: "bn4_1"
  type: "BatchNorm"
  bottom: "conv4_1"
  top: "conv4_1"
  param {
    lr_mult: 0
  }
  param {
    lr_mult: 0
  }
  param {
    lr_mult: 0
  }
  batch_norm_param {
    use_global_stats: false
  }
}
layer {
  name: "scale4_1"
  type: "Scale"
  bottom: "conv4_1"
  top: "conv4_1"
  param {
    lr_mult: 1
    decay_mult: 1
  }
  param {
    lr_mult: 1
    decay_mult: 1
  }
  scale_param {
    bias_term: true
    bias_filler {
      type: "constant"
      value: 0
    }
  }
}
layer {
  name: "relu4_1"
  type: "ReLU"
  bottom: "conv4_1"
  top: "conv4_1"
}
layer {
  name: "conv4_2"
  type: "Convolution"
  bottom: "conv4_1"
  top: "conv4_2"
  param {
    lr_mult: 1
    decay_mult: 1
  }
  convolution_param {
    num_output: 256
    bias_term: false
    pad: 1
    kernel_size: 3
    weight_filler {
      type: "xavier"
    }
  }
}
layer {
  name: "bn4_2"
  type: "BatchNorm"
  bottom: "conv4_2"
  top: "conv4_2"
  param {
    lr_mult: 0
  }
  param {
    lr_mult: 0
  }
  param {
    lr_mult: 0
  }
  batch_norm_param {
    use_global_stats: false
  }
}
layer {
  name: "scale4_2"
  type: "Scale"
  bottom: "conv4_2"
  top: "conv4_2"
  param {
    lr_mult: 1
    decay_mult: 1
  }
  param {
    lr_mult: 1
    decay_mult: 1
  }
  scale_param {
    bias_term: true
    bias_filler {
      type: "constant"
      value: 0
    }
  }
}
layer {
  name: "relu4_2"
  type: "ReLU"
  bottom: "conv4_2"
  top: "conv4_2"
}
layer {
  name: "pool4"
  type: "Pooling"
  bottom: "conv4_2"
  top: "pool4"
  top: "pool4_mask"
  pooling_param {
    pool: MAX
    kernel_size: 2
    stride: 2
  }
}
layer {
  name: "conv5_1"
  type: "Convolution"
  bottom: "pool4"
  top: "conv5_1"
  param {
    lr_mult: 1
    decay_mult: 1
  }
  convolution_param {
    num_output: 256
    bias_term: false
    pad: 1
    kernel_size: 3
    weight_filler {
      type: "xavier"
    }
  }
}
layer {
  name: "bn5_1"
  type: "BatchNorm"
  bottom: "conv5_1"
  top: "conv5_1"
  param {
    lr_mult: 0
  }
  param {
    lr_mult: 0
  }
  param {
    lr_mult: 0
  }
  batch_norm_param {
    use_global_stats: false
  }
}
layer {
  name: "scale5_1"
  type: "Scale"
  bottom: "conv5_1"
  top: "conv5_1"
  param {
    lr_mult: 1
    decay_mult: 1
  }
  param {
    lr_mult: 1
    decay_mult: 1
  }
  scale_param {
    bias_term: true
    bias_filler {
      type: "constant"
      value: 0
    }
  }
}
layer {
  name: "relu5_1"
  type: "ReLU"
  bottom: "conv5_1"
  top: "conv5_1"
}
layer {
  name: "conv5_2"
  type: "Convolution"
  bottom: "conv5_1"
  top: "conv5_2"
  param {
    lr_mult: 1
    decay_mult: 1
  }
  convolution_param {
    num_output: 256
    bias_term: false
    pad: 1
    kernel_size: 3
    weight_filler {
      type: "xavier"
    }
  }
}
layer {
  name: "bn5_2"
  type: "BatchNorm"
  bottom: "conv5_2"
  top: "conv5_2"
  param {
    lr_mult: 0
  }
  param {
    lr_mult: 0
  }
  param {
    lr_mult: 0
  }
  batch_norm_param {
    use_global_stats: false
  }
}
layer {
  name: "scale5_2"
  type: "Scale"
  bottom: "conv5_2"
  top: "conv5_2"
  param {
    lr_mult: 1
    decay_mult: 1
  }
  param {
    lr_mult: 1
    decay_mult: 1
  }
  scale_param {
    bias_term: true
    bias_filler {
      type: "constant"
      value: 0
    }
  }
}
layer {
  name: "relu5_2"
  type: "ReLU"
  bottom: "conv5_2"
  top: "conv5_2"
}
layer {
  name: "pool5"
  type: "Pooling"
  bottom: "conv5_2"
  top: "pool5"
  top: "pool5_mask"
  pooling_param {
    pool: MAX
    kernel_size: 2
    stride: 2
  }
}
layer {
  name: "upsample5"
  type: "Upsample"
  bottom: "pool5"
  bottom: "pool5_mask"
  top: "pool5_D"
  upsample_param {
    scale: 2
  }
}
layer {
  name: "conv5_2_D"
  type: "Convolution"
  bottom: "pool5_D"
  top: "conv5_2_D"
  param {
    lr_mult: 1
    decay_mult: 1
  }
  convolution_param {
    num_output: 256
    bias_term: false
    pad: 1
    kernel_size: 3
    weight_filler {
      type: "xavier"
    }
  }
}
layer {
  name: "bn5_2_D"
  type: "BatchNorm"
  bottom: "conv5_2_D"
  top: "conv5_2_D"
  param {
    lr_mult: 0
  }
  param {
    lr_mult: 0
  }
  param {
    lr_mult: 0
  }
  batch_norm_param {
    use_global_stats: false
  }
}
layer {
  name: "scale5_2_D"
  type: "Scale"
  bottom: "conv5_2_D"
  top: "conv5_2_D"
  param {
    lr_mult: 1
    decay_mult: 1
  }
  param {
    lr_mult: 1
    decay_mult: 1
  }
  scale_param {
    bias_term: true
    bias_filler {
      type: "constant"
      value: 0
    }
  }
}
layer {
  name: "relu5_2_D"
  type: "ReLU"
  bottom: "conv5_2_D"
  top: "conv5_2_D"
}
layer {
  name: "conv5_1_D"
  type: "Convolution"
  bottom: "conv5_2_D"
  top: "conv5_1_D"
  param {
    lr_mult: 1
    decay_mult: 1
  }
  convolution_param {
    num_output: 256
    bias_term: false
    pad: 1
    kernel_size: 3
    weight_filler {
      type: "xavier"
    }
  }
}
layer {
  name: "bn5_1_D"
  type: "BatchNorm"
  bottom: "conv5_1_D"
  top: "conv5_1_D"
  param {
    lr_mult: 0
  }
  param {
    lr_mult: 0
  }
  param {
    lr_mult: 0
  }
  batch_norm_param {
    use_global_stats: false
  }
}
layer {
  name: "scale5_1_D"
  type: "Scale"
  bottom: "conv5_1_D"
  top: "conv5_1_D"
  param {
    lr_mult: 1
    decay_mult: 1
  }
  param {
    lr_mult: 1
    decay_mult: 1
  }
  scale_param {
    bias_term: true
    bias_filler {
      type: "constant"
      value: 0
    }
  }
}
layer {
  name: "relu5_1_D"
  type: "ReLU"
  bottom: "conv5_1_D"
  top: "conv5_1_D"
}
layer {
  name: "upsample4"
  type: "Upsample"
  bottom: "conv5_1_D"
  bottom: "pool4_mask"
  top: "pool4_D"
  upsample_param {
    scale: 2
  }
}
layer {
  name: "conv4_2_D"
  type: "Convolution"
  bottom: "pool4_D"
  top: "conv4_2_D"
  param {
    lr_mult: 1
    decay_mult: 1
  }
  convolution_param {
    num_output: 256
    bias_term: false
    pad: 1
    kernel_size: 3
    weight_filler {
      type: "xavier"
    }
  }
}
layer {
  name: "bn4_2_D"
  type: "BatchNorm"
  bottom: "conv4_2_D"
  top: "conv4_2_D"
  param {
    lr_mult: 0
  }
  param {
    lr_mult: 0
  }
  param {
    lr_mult: 0
  }
  batch_norm_param {
    use_global_stats: false
  }
}
layer {
  name: "scale4_2_D"
  type: "Scale"
  bottom: "conv4_2_D"
  top: "conv4_2_D"
  param {
    lr_mult: 1
    decay_mult: 1
  }
  param {
    lr_mult: 1
    decay_mult: 1
  }
  scale_param {
    bias_term: true
    bias_filler {
      type: "constant"
      value: 0
    }
  }
}
layer {
  name: "relu4_2_D"
  type: "ReLU"
  bottom: "conv4_2_D"
  top: "conv4_2_D"
}
layer {
  name: "conv4_1_D"
  type: "Convolution"
  bottom: "conv4_2_D"
  top: "conv4_1_D"
  param {
    lr_mult: 1
    decay_mult: 1
  }
  convolution_param {
    num_output: 128
    bias_term: false
    pad: 1
    kernel_size: 3
    weight_filler {
      type: "xavier"
    }
  }
}
layer {
  name: "bn4_1_D"
  type: "BatchNorm"
  bottom: "conv4_1_D"
  top: "conv4_1_D"
  param {
    lr_mult: 0
  }
  param {
    lr_mult: 0
  }
  param {
    lr_mult: 0
  }
  batch_norm_param {
    use_global_stats: false
  }
}
layer {
  name: "scale4_1_D"
  type: "Scale"
  bottom: "conv4_1_D"
  top: "conv4_1_D"
  param {
    lr_mult: 1
    decay_mult: 1
  }
  param {
    lr_mult: 1
    decay_mult: 1
  }
  scale_param {
    bias_term: true
    bias_filler {
      type: "constant"
      value: 0
    }
  }
}
layer {
  name: "relu4_1_D"
  type: "ReLU"
  bottom: "conv4_1_D"
  top: "conv4_1_D"
}
layer {
  name: "upsample3"
  type: "Upsample"
  bottom: "conv4_1_D"
  bottom: "pool3_mask"
  top: "pool3_D"
  upsample_param {
    scale: 2
  }
}
layer {
  name: "conv3_2_D"
  type: "Convolution"
  bottom: "pool3_D"
  top: "conv3_2_D"
  param {
    lr_mult: 1
    decay_mult: 1
  }
  param {
    lr_mult: 1
    decay_mult: 1
  }
  convolution_param {
    num_output: 128
    pad: 1
    kernel_size: 3
    weight_filler {
      type: "xavier"
    }
    bias_filler {
      type: "constant"
      value: 0
    }
  }
}
layer {
  name: "bn3_2_D"
  type: "BatchNorm"
  bottom: "conv3_2_D"
  top: "conv3_2_D"
  param {
    lr_mult: 0
  }
  param {
    lr_mult: 0
  }
  param {
    lr_mult: 0
  }
  batch_norm_param {
    use_global_stats: false
  }
}
layer {
  name: "scale3_2_D"
  type: "Scale"
  bottom: "conv3_2_D"
  top: "conv3_2_D"
  param {
    lr_mult: 1
    decay_mult: 1
  }
  param {
    lr_mult: 1
    decay_mult: 1
  }
  scale_param {
    bias_term: true
    bias_filler {
      type: "constant"
      value: 0
    }
  }
}
layer {
  name: "relu3_2_D"
  type: "ReLU"
  bottom: "conv3_2_D"
  top: "conv3_2_D"
}
layer {
  name: "conv3_1_D"
  type: "Convolution"
  bottom: "conv3_2_D"
  top: "conv3_1_D"
  param {
    lr_mult: 1
    decay_mult: 1
  }
  convolution_param {
    num_output: 64
    bias_term: false
    pad: 1
    kernel_size: 3
    weight_filler {
      type: "xavier"
    }
  }
}
layer {
  name: "bn3_1_D"
  type: "BatchNorm"
  bottom: "conv3_1_D"
  top: "conv3_1_D"
  param {
    lr_mult: 0
  }
  param {
    lr_mult: 0
  }
  param {
    lr_mult: 0
  }
  batch_norm_param {
    use_global_stats: false
  }
}
layer {
  name: "scale3_1_D"
  type: "Scale"
  bottom: "conv3_1_D"
  top: "conv3_1_D"
  param {
    lr_mult: 1
    decay_mult: 1
  }
  param {
    lr_mult: 1
    decay_mult: 1
  }
  scale_param {
    bias_term: true
    bias_filler {
      type: "constant"
      value: 0
    }
  }
}
layer {
  name: "relu3_1_D"
  type: "ReLU"
  bottom: "conv3_1_D"
  top: "conv3_1_D"
}
layer {
  name: "upsample2"
  type: "Upsample"
  bottom: "conv3_1_D"
  bottom: "pool2_mask"
  top: "pool2_D"
  upsample_param {
    scale: 2
  }
}
layer {
  name: "conv2_2_D"
  type: "Convolution"
  bottom: "pool2_D"
  top: "conv2_2_D"
  param {
    lr_mult: 1
    decay_mult: 1
  }
  convolution_param {
    num_output: 64
    bias_term: false
    pad: 1
    kernel_size: 3
    weight_filler {
      type: "xavier"
    }
  }
}
layer {
  name: "bn2_2_D"
  type: "BatchNorm"
  bottom: "conv2_2_D"
  top: "conv2_2_D"
  param {
    lr_mult: 0
  }
  param {
    lr_mult: 0
  }
  param {
    lr_mult: 0
  }
  batch_norm_param {
    use_global_stats: false
  }
}
layer {
  name: "scale2_2_D"
  type: "Scale"
  bottom: "conv2_2_D"
  top: "conv2_2_D"
  param {
    lr_mult: 1
    decay_mult: 1
  }
  param {
    lr_mult: 1
    decay_mult: 1
  }
  scale_param {
    bias_term: true
    bias_filler {
      type: "constant"
      value: 0
    }
  }
}
layer {
  name: "relu2_2_D"
  type: "ReLU"
  bottom: "conv2_2_D"
  top: "conv2_2_D"
}
layer {
  name: "conv2_1_D"
  type: "Convolution"
  bottom: "conv2_2_D"
  top: "conv2_1_D"
  param {
    lr_mult: 1
    decay_mult: 1
  }
  convolution_param {
    num_output: 32
    bias_term: false
    pad: 1
    kernel_size: 3
    weight_filler {
      type: "xavier"
    }
  }
}
layer {
  name: "bn2_1_D"
  type: "BatchNorm"
  bottom: "conv2_1_D"
  top: "conv2_1_D"
  param {
    lr_mult: 0
  }
  param {
    lr_mult: 0
  }
  param {
    lr_mult: 0
  }
  batch_norm_param {
    use_global_stats: false
  }
}
layer {
  name: "scale2_1_D"
  type: "Scale"
  bottom: "conv2_1_D"
  top: "conv2_1_D"
  param {
    lr_mult: 1
    decay_mult: 1
  }
  param {
    lr_mult: 1
    decay_mult: 1
  }
  scale_param {
    bias_term: true
    bias_filler {
      type: "constant"
      value: 0
    }
  }
}
layer {
  name: "relu2_1_D"
  type: "ReLU"
  bottom: "conv2_1_D"
  top: "conv2_1_D"
}
layer {
  name: "upsample1"
  type: "Upsample"
  bottom: "conv2_1_D"
  bottom: "pool1_mask"
  top: "pool1_D"
  upsample_param {
    scale: 2
  }
}
layer {
  name: "conv1_2_D"
  type: "Convolution"
  bottom: "pool1_D"
  top: "conv1_2_D"
  param {
    lr_mult: 1
    decay_mult: 1
  }
  convolution_param {
    num_output: 32
    bias_term: false
    pad: 1
    kernel_size: 3
    weight_filler {
      type: "xavier"
    }
  }
}
layer {
  name: "bn1_2_D"
  type: "BatchNorm"
  bottom: "conv1_2_D"
  top: "conv1_2_D"
  param {
    lr_mult: 0
  }
  param {
    lr_mult: 0
  }
  param {
    lr_mult: 0
  }
  batch_norm_param {
    use_global_stats: false
  }
}
layer {
  name: "scale1_2_D"
  type: "Scale"
  bottom: "conv1_2_D"
  top: "conv1_2_D"
  param {
    lr_mult: 1
    decay_mult: 1
  }
  param {
    lr_mult: 1
    decay_mult: 1
  }
  scale_param {
    bias_term: true
    bias_filler {
      type: "constant"
      value: 0
    }
  }
}
layer {
  name: "relu1_2_D"
  type: "ReLU"
  bottom: "conv1_2_D"
  top: "conv1_2_D"
}
layer {
  name: "conv1_1_D"
  type: "Convolution"
  bottom: "conv1_2_D"
  top: "conv1_1_D"
  param {
    lr_mult: 1
    decay_mult: 1
  }
  param {
    lr_mult: 1
    decay_mult: 1
  }
  convolution_param {
    num_output: 2
    bias_term: true
    pad: 1
    kernel_size: 3
    weight_filler {
      type: "xavier"
    }
    bias_filler {
      type: "constant"
    }
  }
}
layer {
  name: "loss"
  type: "SoftmaxWithLoss"
  bottom: "conv1_1_D"
  bottom: "label"
  top: "loss"
}
layer {
  name: "accuracy"
  type: "Accuracy"
  bottom: "conv1_1_D"
  bottom: "label"
  top: "accuracy"
}
I0625 14:48:02.749850 29461 layer_factory.hpp:77] Creating layer data
I0625 14:48:02.749882 29461 net.cpp:91] Creating Layer data
I0625 14:48:02.749887 29461 net.cpp:399] data -> data
I0625 14:48:02.749907 29461 net.cpp:399] data -> label
I0625 14:48:02.750221 29461 dense_image_data_layer.cpp:38] Opening file data/train_seg.txt
I0625 14:48:02.751107 29461 dense_image_data_layer.cpp:48] Shuffling data
I0625 14:48:02.751318 29461 dense_image_data_layer.cpp:53] A total of 2024 examples.
I0625 14:48:03.032990 29461 dense_image_data_layer.cpp:92] output data size: 1,1,224,288
I0625 14:48:03.035815 29461 net.cpp:141] Setting up data
I0625 14:48:03.035847 29461 net.cpp:148] Top shape: 1 1 224 288 (64512)
I0625 14:48:03.035856 29461 net.cpp:148] Top shape: 1 1 224 288 (64512)
I0625 14:48:03.035861 29461 net.cpp:156] Memory required for data: 516096
I0625 14:48:03.035871 29461 layer_factory.hpp:77] Creating layer label_data_1_split
I0625 14:48:03.035897 29461 net.cpp:91] Creating Layer label_data_1_split
I0625 14:48:03.035904 29461 net.cpp:425] label_data_1_split <- label
I0625 14:48:03.035918 29461 net.cpp:399] label_data_1_split -> label_data_1_split_0
I0625 14:48:03.035933 29461 net.cpp:399] label_data_1_split -> label_data_1_split_1
I0625 14:48:03.036056 29461 net.cpp:141] Setting up label_data_1_split
I0625 14:48:03.036070 29461 net.cpp:148] Top shape: 1 1 224 288 (64512)
I0625 14:48:03.036077 29461 net.cpp:148] Top shape: 1 1 224 288 (64512)
I0625 14:48:03.036080 29461 net.cpp:156] Memory required for data: 1032192
I0625 14:48:03.036085 29461 layer_factory.hpp:77] Creating layer conv1_1
I0625 14:48:03.036108 29461 net.cpp:91] Creating Layer conv1_1
I0625 14:48:03.036115 29461 net.cpp:425] conv1_1 <- data
I0625 14:48:03.036123 29461 net.cpp:399] conv1_1 -> conv1_1
I0625 14:48:03.280279 29461 net.cpp:141] Setting up conv1_1
I0625 14:48:03.280308 29461 net.cpp:148] Top shape: 1 32 224 288 (2064384)
I0625 14:48:03.280311 29461 net.cpp:156] Memory required for data: 9289728
I0625 14:48:03.280323 29461 layer_factory.hpp:77] Creating layer bn1_1
I0625 14:48:03.280339 29461 net.cpp:91] Creating Layer bn1_1
I0625 14:48:03.280344 29461 net.cpp:425] bn1_1 <- conv1_1
I0625 14:48:03.280349 29461 net.cpp:386] bn1_1 -> conv1_1 (in-place)
I0625 14:48:03.280558 29461 net.cpp:141] Setting up bn1_1
I0625 14:48:03.280567 29461 net.cpp:148] Top shape: 1 32 224 288 (2064384)
I0625 14:48:03.280570 29461 net.cpp:156] Memory required for data: 17547264
I0625 14:48:03.280578 29461 layer_factory.hpp:77] Creating layer scale1_1
I0625 14:48:03.280591 29461 net.cpp:91] Creating Layer scale1_1
I0625 14:48:03.280593 29461 net.cpp:425] scale1_1 <- conv1_1
I0625 14:48:03.280597 29461 net.cpp:386] scale1_1 -> conv1_1 (in-place)
I0625 14:48:03.280638 29461 layer_factory.hpp:77] Creating layer scale1_1
I0625 14:48:03.280844 29461 net.cpp:141] Setting up scale1_1
I0625 14:48:03.280854 29461 net.cpp:148] Top shape: 1 32 224 288 (2064384)
I0625 14:48:03.280858 29461 net.cpp:156] Memory required for data: 25804800
I0625 14:48:03.280864 29461 layer_factory.hpp:77] Creating layer relu1_1
I0625 14:48:03.280874 29461 net.cpp:91] Creating Layer relu1_1
I0625 14:48:03.280876 29461 net.cpp:425] relu1_1 <- conv1_1
I0625 14:48:03.280880 29461 net.cpp:386] relu1_1 -> conv1_1 (in-place)
I0625 14:48:03.281158 29461 net.cpp:141] Setting up relu1_1
I0625 14:48:03.281170 29461 net.cpp:148] Top shape: 1 32 224 288 (2064384)
I0625 14:48:03.281172 29461 net.cpp:156] Memory required for data: 34062336
I0625 14:48:03.281175 29461 layer_factory.hpp:77] Creating layer conv1_2
I0625 14:48:03.281185 29461 net.cpp:91] Creating Layer conv1_2
I0625 14:48:03.281188 29461 net.cpp:425] conv1_2 <- conv1_1
I0625 14:48:03.281193 29461 net.cpp:399] conv1_2 -> conv1_2
I0625 14:48:03.282753 29461 net.cpp:141] Setting up conv1_2
I0625 14:48:03.282766 29461 net.cpp:148] Top shape: 1 32 224 288 (2064384)
I0625 14:48:03.282769 29461 net.cpp:156] Memory required for data: 42319872
I0625 14:48:03.282773 29461 layer_factory.hpp:77] Creating layer bn1_2
I0625 14:48:03.282779 29461 net.cpp:91] Creating Layer bn1_2
I0625 14:48:03.282781 29461 net.cpp:425] bn1_2 <- conv1_2
I0625 14:48:03.282785 29461 net.cpp:386] bn1_2 -> conv1_2 (in-place)
I0625 14:48:03.282980 29461 net.cpp:141] Setting up bn1_2
I0625 14:48:03.282987 29461 net.cpp:148] Top shape: 1 32 224 288 (2064384)
I0625 14:48:03.282990 29461 net.cpp:156] Memory required for data: 50577408
I0625 14:48:03.282999 29461 layer_factory.hpp:77] Creating layer scale1_2
I0625 14:48:03.283006 29461 net.cpp:91] Creating Layer scale1_2
I0625 14:48:03.283010 29461 net.cpp:425] scale1_2 <- conv1_2
I0625 14:48:03.283030 29461 net.cpp:386] scale1_2 -> conv1_2 (in-place)
I0625 14:48:03.283062 29461 layer_factory.hpp:77] Creating layer scale1_2
I0625 14:48:03.283840 29461 net.cpp:141] Setting up scale1_2
I0625 14:48:03.283852 29461 net.cpp:148] Top shape: 1 32 224 288 (2064384)
I0625 14:48:03.283854 29461 net.cpp:156] Memory required for data: 58834944
I0625 14:48:03.283859 29461 layer_factory.hpp:77] Creating layer relu1_2
I0625 14:48:03.283865 29461 net.cpp:91] Creating Layer relu1_2
I0625 14:48:03.283867 29461 net.cpp:425] relu1_2 <- conv1_2
I0625 14:48:03.283871 29461 net.cpp:386] relu1_2 -> conv1_2 (in-place)
I0625 14:48:03.284008 29461 net.cpp:141] Setting up relu1_2
I0625 14:48:03.284018 29461 net.cpp:148] Top shape: 1 32 224 288 (2064384)
I0625 14:48:03.284020 29461 net.cpp:156] Memory required for data: 67092480
I0625 14:48:03.284023 29461 layer_factory.hpp:77] Creating layer pool1
I0625 14:48:03.284026 29461 layer_factory.cpp:90] cuDNN does not support multiple tops. Using Caffe's own pooling layer.
I0625 14:48:03.284031 29461 net.cpp:91] Creating Layer pool1
I0625 14:48:03.284034 29461 net.cpp:425] pool1 <- conv1_2
I0625 14:48:03.284037 29461 net.cpp:399] pool1 -> pool1
I0625 14:48:03.284045 29461 net.cpp:399] pool1 -> pool1_mask
I0625 14:48:03.284090 29461 net.cpp:141] Setting up pool1
I0625 14:48:03.284096 29461 net.cpp:148] Top shape: 1 32 112 144 (516096)
I0625 14:48:03.284099 29461 net.cpp:148] Top shape: 1 32 112 144 (516096)
I0625 14:48:03.284101 29461 net.cpp:156] Memory required for data: 71221248
I0625 14:48:03.284103 29461 layer_factory.hpp:77] Creating layer conv2_1
I0625 14:48:03.284111 29461 net.cpp:91] Creating Layer conv2_1
I0625 14:48:03.284113 29461 net.cpp:425] conv2_1 <- pool1
I0625 14:48:03.284116 29461 net.cpp:399] conv2_1 -> conv2_1
I0625 14:48:03.285084 29461 net.cpp:141] Setting up conv2_1
I0625 14:48:03.285096 29461 net.cpp:148] Top shape: 1 64 112 144 (1032192)
I0625 14:48:03.285099 29461 net.cpp:156] Memory required for data: 75350016
I0625 14:48:03.285104 29461 layer_factory.hpp:77] Creating layer bn2_1
I0625 14:48:03.285109 29461 net.cpp:91] Creating Layer bn2_1
I0625 14:48:03.285112 29461 net.cpp:425] bn2_1 <- conv2_1
I0625 14:48:03.285116 29461 net.cpp:386] bn2_1 -> conv2_1 (in-place)
I0625 14:48:03.285275 29461 net.cpp:141] Setting up bn2_1
I0625 14:48:03.285282 29461 net.cpp:148] Top shape: 1 64 112 144 (1032192)
I0625 14:48:03.285284 29461 net.cpp:156] Memory required for data: 79478784
I0625 14:48:03.285290 29461 layer_factory.hpp:77] Creating layer scale2_1
I0625 14:48:03.285295 29461 net.cpp:91] Creating Layer scale2_1
I0625 14:48:03.285298 29461 net.cpp:425] scale2_1 <- conv2_1
I0625 14:48:03.285302 29461 net.cpp:386] scale2_1 -> conv2_1 (in-place)
I0625 14:48:03.285332 29461 layer_factory.hpp:77] Creating layer scale2_1
I0625 14:48:03.285434 29461 net.cpp:141] Setting up scale2_1
I0625 14:48:03.285440 29461 net.cpp:148] Top shape: 1 64 112 144 (1032192)
I0625 14:48:03.285442 29461 net.cpp:156] Memory required for data: 83607552
I0625 14:48:03.285449 29461 layer_factory.hpp:77] Creating layer relu2_1
I0625 14:48:03.285454 29461 net.cpp:91] Creating Layer relu2_1
I0625 14:48:03.285456 29461 net.cpp:425] relu2_1 <- conv2_1
I0625 14:48:03.285460 29461 net.cpp:386] relu2_1 -> conv2_1 (in-place)
I0625 14:48:03.285717 29461 net.cpp:141] Setting up relu2_1
I0625 14:48:03.285727 29461 net.cpp:148] Top shape: 1 64 112 144 (1032192)
I0625 14:48:03.285730 29461 net.cpp:156] Memory required for data: 87736320
I0625 14:48:03.285732 29461 layer_factory.hpp:77] Creating layer conv2_2
I0625 14:48:03.285740 29461 net.cpp:91] Creating Layer conv2_2
I0625 14:48:03.285743 29461 net.cpp:425] conv2_2 <- conv2_1
I0625 14:48:03.285748 29461 net.cpp:399] conv2_2 -> conv2_2
I0625 14:48:03.286742 29461 net.cpp:141] Setting up conv2_2
I0625 14:48:03.286754 29461 net.cpp:148] Top shape: 1 64 112 144 (1032192)
I0625 14:48:03.286757 29461 net.cpp:156] Memory required for data: 91865088
I0625 14:48:03.286761 29461 layer_factory.hpp:77] Creating layer bn2_2
I0625 14:48:03.286769 29461 net.cpp:91] Creating Layer bn2_2
I0625 14:48:03.286782 29461 net.cpp:425] bn2_2 <- conv2_2
I0625 14:48:03.286787 29461 net.cpp:386] bn2_2 -> conv2_2 (in-place)
I0625 14:48:03.286943 29461 net.cpp:141] Setting up bn2_2
I0625 14:48:03.286950 29461 net.cpp:148] Top shape: 1 64 112 144 (1032192)
I0625 14:48:03.286953 29461 net.cpp:156] Memory required for data: 95993856
I0625 14:48:03.286959 29461 layer_factory.hpp:77] Creating layer scale2_2
I0625 14:48:03.286964 29461 net.cpp:91] Creating Layer scale2_2
I0625 14:48:03.286967 29461 net.cpp:425] scale2_2 <- conv2_2
I0625 14:48:03.286972 29461 net.cpp:386] scale2_2 -> conv2_2 (in-place)
I0625 14:48:03.287001 29461 layer_factory.hpp:77] Creating layer scale2_2
I0625 14:48:03.287098 29461 net.cpp:141] Setting up scale2_2
I0625 14:48:03.287106 29461 net.cpp:148] Top shape: 1 64 112 144 (1032192)
I0625 14:48:03.287107 29461 net.cpp:156] Memory required for data: 100122624
I0625 14:48:03.287111 29461 layer_factory.hpp:77] Creating layer relu2_2
I0625 14:48:03.287117 29461 net.cpp:91] Creating Layer relu2_2
I0625 14:48:03.287119 29461 net.cpp:425] relu2_2 <- conv2_2
I0625 14:48:03.287122 29461 net.cpp:386] relu2_2 -> conv2_2 (in-place)
I0625 14:48:03.287398 29461 net.cpp:141] Setting up relu2_2
I0625 14:48:03.287410 29461 net.cpp:148] Top shape: 1 64 112 144 (1032192)
I0625 14:48:03.287412 29461 net.cpp:156] Memory required for data: 104251392
I0625 14:48:03.287415 29461 layer_factory.hpp:77] Creating layer pool2
I0625 14:48:03.287418 29461 layer_factory.cpp:90] cuDNN does not support multiple tops. Using Caffe's own pooling layer.
I0625 14:48:03.287422 29461 net.cpp:91] Creating Layer pool2
I0625 14:48:03.287425 29461 net.cpp:425] pool2 <- conv2_2
I0625 14:48:03.287430 29461 net.cpp:399] pool2 -> pool2
I0625 14:48:03.287434 29461 net.cpp:399] pool2 -> pool2_mask
I0625 14:48:03.287468 29461 net.cpp:141] Setting up pool2
I0625 14:48:03.287474 29461 net.cpp:148] Top shape: 1 64 56 72 (258048)
I0625 14:48:03.287477 29461 net.cpp:148] Top shape: 1 64 56 72 (258048)
I0625 14:48:03.287479 29461 net.cpp:156] Memory required for data: 106315776
I0625 14:48:03.287482 29461 layer_factory.hpp:77] Creating layer conv3_1
I0625 14:48:03.287488 29461 net.cpp:91] Creating Layer conv3_1
I0625 14:48:03.287492 29461 net.cpp:425] conv3_1 <- pool2
I0625 14:48:03.287495 29461 net.cpp:399] conv3_1 -> conv3_1
I0625 14:48:03.289378 29461 net.cpp:141] Setting up conv3_1
I0625 14:48:03.289391 29461 net.cpp:148] Top shape: 1 128 56 72 (516096)
I0625 14:48:03.289393 29461 net.cpp:156] Memory required for data: 108380160
I0625 14:48:03.289398 29461 layer_factory.hpp:77] Creating layer bn3_1
I0625 14:48:03.289404 29461 net.cpp:91] Creating Layer bn3_1
I0625 14:48:03.289407 29461 net.cpp:425] bn3_1 <- conv3_1
I0625 14:48:03.289412 29461 net.cpp:386] bn3_1 -> conv3_1 (in-place)
I0625 14:48:03.290144 29461 net.cpp:141] Setting up bn3_1
I0625 14:48:03.290155 29461 net.cpp:148] Top shape: 1 128 56 72 (516096)
I0625 14:48:03.290158 29461 net.cpp:156] Memory required for data: 110444544
I0625 14:48:03.290164 29461 layer_factory.hpp:77] Creating layer scale3_1
I0625 14:48:03.290170 29461 net.cpp:91] Creating Layer scale3_1
I0625 14:48:03.290172 29461 net.cpp:425] scale3_1 <- conv3_1
I0625 14:48:03.290176 29461 net.cpp:386] scale3_1 -> conv3_1 (in-place)
I0625 14:48:03.290210 29461 layer_factory.hpp:77] Creating layer scale3_1
I0625 14:48:03.290298 29461 net.cpp:141] Setting up scale3_1
I0625 14:48:03.290305 29461 net.cpp:148] Top shape: 1 128 56 72 (516096)
I0625 14:48:03.290307 29461 net.cpp:156] Memory required for data: 112508928
I0625 14:48:03.290312 29461 layer_factory.hpp:77] Creating layer relu3_1
I0625 14:48:03.290315 29461 net.cpp:91] Creating Layer relu3_1
I0625 14:48:03.290318 29461 net.cpp:425] relu3_1 <- conv3_1
I0625 14:48:03.290323 29461 net.cpp:386] relu3_1 -> conv3_1 (in-place)
I0625 14:48:03.290459 29461 net.cpp:141] Setting up relu3_1
I0625 14:48:03.290467 29461 net.cpp:148] Top shape: 1 128 56 72 (516096)
I0625 14:48:03.290470 29461 net.cpp:156] Memory required for data: 114573312
I0625 14:48:03.290472 29461 layer_factory.hpp:77] Creating layer conv3_2
I0625 14:48:03.290490 29461 net.cpp:91] Creating Layer conv3_2
I0625 14:48:03.290493 29461 net.cpp:425] conv3_2 <- conv3_1
I0625 14:48:03.290498 29461 net.cpp:399] conv3_2 -> conv3_2
I0625 14:48:03.292296 29461 net.cpp:141] Setting up conv3_2
I0625 14:48:03.292310 29461 net.cpp:148] Top shape: 1 128 56 72 (516096)
I0625 14:48:03.292314 29461 net.cpp:156] Memory required for data: 116637696
I0625 14:48:03.292318 29461 layer_factory.hpp:77] Creating layer bn3_2
I0625 14:48:03.292325 29461 net.cpp:91] Creating Layer bn3_2
I0625 14:48:03.292327 29461 net.cpp:425] bn3_2 <- conv3_2
I0625 14:48:03.292331 29461 net.cpp:386] bn3_2 -> conv3_2 (in-place)
I0625 14:48:03.292481 29461 net.cpp:141] Setting up bn3_2
I0625 14:48:03.292490 29461 net.cpp:148] Top shape: 1 128 56 72 (516096)
I0625 14:48:03.292491 29461 net.cpp:156] Memory required for data: 118702080
I0625 14:48:03.292500 29461 layer_factory.hpp:77] Creating layer scale3_2
I0625 14:48:03.292506 29461 net.cpp:91] Creating Layer scale3_2
I0625 14:48:03.292510 29461 net.cpp:425] scale3_2 <- conv3_2
I0625 14:48:03.292515 29461 net.cpp:386] scale3_2 -> conv3_2 (in-place)
I0625 14:48:03.292546 29461 layer_factory.hpp:77] Creating layer scale3_2
I0625 14:48:03.292632 29461 net.cpp:141] Setting up scale3_2
I0625 14:48:03.292639 29461 net.cpp:148] Top shape: 1 128 56 72 (516096)
I0625 14:48:03.292641 29461 net.cpp:156] Memory required for data: 120766464
I0625 14:48:03.292645 29461 layer_factory.hpp:77] Creating layer relu3_2
I0625 14:48:03.292650 29461 net.cpp:91] Creating Layer relu3_2
I0625 14:48:03.292652 29461 net.cpp:425] relu3_2 <- conv3_2
I0625 14:48:03.292655 29461 net.cpp:386] relu3_2 -> conv3_2 (in-place)
I0625 14:48:03.292922 29461 net.cpp:141] Setting up relu3_2
I0625 14:48:03.292932 29461 net.cpp:148] Top shape: 1 128 56 72 (516096)
I0625 14:48:03.292934 29461 net.cpp:156] Memory required for data: 122830848
I0625 14:48:03.292938 29461 layer_factory.hpp:77] Creating layer pool3
I0625 14:48:03.292942 29461 layer_factory.cpp:90] cuDNN does not support multiple tops. Using Caffe's own pooling layer.
I0625 14:48:03.292946 29461 net.cpp:91] Creating Layer pool3
I0625 14:48:03.292949 29461 net.cpp:425] pool3 <- conv3_2
I0625 14:48:03.292953 29461 net.cpp:399] pool3 -> pool3
I0625 14:48:03.292958 29461 net.cpp:399] pool3 -> pool3_mask
I0625 14:48:03.292994 29461 net.cpp:141] Setting up pool3
I0625 14:48:03.292999 29461 net.cpp:148] Top shape: 1 128 28 36 (129024)
I0625 14:48:03.293002 29461 net.cpp:148] Top shape: 1 128 28 36 (129024)
I0625 14:48:03.293004 29461 net.cpp:156] Memory required for data: 123863040
I0625 14:48:03.293006 29461 layer_factory.hpp:77] Creating layer conv4_1
I0625 14:48:03.293015 29461 net.cpp:91] Creating Layer conv4_1
I0625 14:48:03.293017 29461 net.cpp:425] conv4_1 <- pool3
I0625 14:48:03.293021 29461 net.cpp:399] conv4_1 -> conv4_1
I0625 14:48:03.296151 29461 net.cpp:141] Setting up conv4_1
I0625 14:48:03.296165 29461 net.cpp:148] Top shape: 1 256 28 36 (258048)
I0625 14:48:03.296169 29461 net.cpp:156] Memory required for data: 124895232
I0625 14:48:03.296172 29461 layer_factory.hpp:77] Creating layer bn4_1
I0625 14:48:03.296178 29461 net.cpp:91] Creating Layer bn4_1
I0625 14:48:03.296181 29461 net.cpp:425] bn4_1 <- conv4_1
I0625 14:48:03.296185 29461 net.cpp:386] bn4_1 -> conv4_1 (in-place)
I0625 14:48:03.296345 29461 net.cpp:141] Setting up bn4_1
I0625 14:48:03.296353 29461 net.cpp:148] Top shape: 1 256 28 36 (258048)
I0625 14:48:03.296355 29461 net.cpp:156] Memory required for data: 125927424
I0625 14:48:03.296361 29461 layer_factory.hpp:77] Creating layer scale4_1
I0625 14:48:03.296366 29461 net.cpp:91] Creating Layer scale4_1
I0625 14:48:03.296370 29461 net.cpp:425] scale4_1 <- conv4_1
I0625 14:48:03.296373 29461 net.cpp:386] scale4_1 -> conv4_1 (in-place)
I0625 14:48:03.296406 29461 layer_factory.hpp:77] Creating layer scale4_1
I0625 14:48:03.296499 29461 net.cpp:141] Setting up scale4_1
I0625 14:48:03.296505 29461 net.cpp:148] Top shape: 1 256 28 36 (258048)
I0625 14:48:03.296509 29461 net.cpp:156] Memory required for data: 126959616
I0625 14:48:03.296524 29461 layer_factory.hpp:77] Creating layer relu4_1
I0625 14:48:03.296531 29461 net.cpp:91] Creating Layer relu4_1
I0625 14:48:03.296535 29461 net.cpp:425] relu4_1 <- conv4_1
I0625 14:48:03.296538 29461 net.cpp:386] relu4_1 -> conv4_1 (in-place)
I0625 14:48:03.296803 29461 net.cpp:141] Setting up relu4_1
I0625 14:48:03.296814 29461 net.cpp:148] Top shape: 1 256 28 36 (258048)
I0625 14:48:03.296816 29461 net.cpp:156] Memory required for data: 127991808
I0625 14:48:03.296819 29461 layer_factory.hpp:77] Creating layer conv4_2
I0625 14:48:03.296828 29461 net.cpp:91] Creating Layer conv4_2
I0625 14:48:03.296830 29461 net.cpp:425] conv4_2 <- conv4_1
I0625 14:48:03.296834 29461 net.cpp:399] conv4_2 -> conv4_2
I0625 14:48:03.303108 29461 net.cpp:141] Setting up conv4_2
I0625 14:48:03.303122 29461 net.cpp:148] Top shape: 1 256 28 36 (258048)
I0625 14:48:03.303125 29461 net.cpp:156] Memory required for data: 129024000
I0625 14:48:03.303129 29461 layer_factory.hpp:77] Creating layer bn4_2
I0625 14:48:03.303136 29461 net.cpp:91] Creating Layer bn4_2
I0625 14:48:03.303139 29461 net.cpp:425] bn4_2 <- conv4_2
I0625 14:48:03.303143 29461 net.cpp:386] bn4_2 -> conv4_2 (in-place)
I0625 14:48:03.303306 29461 net.cpp:141] Setting up bn4_2
I0625 14:48:03.303314 29461 net.cpp:148] Top shape: 1 256 28 36 (258048)
I0625 14:48:03.303316 29461 net.cpp:156] Memory required for data: 130056192
I0625 14:48:03.303323 29461 layer_factory.hpp:77] Creating layer scale4_2
I0625 14:48:03.303328 29461 net.cpp:91] Creating Layer scale4_2
I0625 14:48:03.303331 29461 net.cpp:425] scale4_2 <- conv4_2
I0625 14:48:03.303335 29461 net.cpp:386] scale4_2 -> conv4_2 (in-place)
I0625 14:48:03.303367 29461 layer_factory.hpp:77] Creating layer scale4_2
I0625 14:48:03.303458 29461 net.cpp:141] Setting up scale4_2
I0625 14:48:03.303469 29461 net.cpp:148] Top shape: 1 256 28 36 (258048)
I0625 14:48:03.303472 29461 net.cpp:156] Memory required for data: 131088384
I0625 14:48:03.303477 29461 layer_factory.hpp:77] Creating layer relu4_2
I0625 14:48:03.303480 29461 net.cpp:91] Creating Layer relu4_2
I0625 14:48:03.303483 29461 net.cpp:425] relu4_2 <- conv4_2
I0625 14:48:03.303488 29461 net.cpp:386] relu4_2 -> conv4_2 (in-place)
I0625 14:48:03.303623 29461 net.cpp:141] Setting up relu4_2
I0625 14:48:03.303632 29461 net.cpp:148] Top shape: 1 256 28 36 (258048)
I0625 14:48:03.303633 29461 net.cpp:156] Memory required for data: 132120576
I0625 14:48:03.303637 29461 layer_factory.hpp:77] Creating layer pool4
I0625 14:48:03.303639 29461 layer_factory.cpp:90] cuDNN does not support multiple tops. Using Caffe's own pooling layer.
I0625 14:48:03.303644 29461 net.cpp:91] Creating Layer pool4
I0625 14:48:03.303647 29461 net.cpp:425] pool4 <- conv4_2
I0625 14:48:03.303652 29461 net.cpp:399] pool4 -> pool4
I0625 14:48:03.303656 29461 net.cpp:399] pool4 -> pool4_mask
I0625 14:48:03.303692 29461 net.cpp:141] Setting up pool4
I0625 14:48:03.303699 29461 net.cpp:148] Top shape: 1 256 14 18 (64512)
I0625 14:48:03.303701 29461 net.cpp:148] Top shape: 1 256 14 18 (64512)
I0625 14:48:03.303704 29461 net.cpp:156] Memory required for data: 132636672
I0625 14:48:03.303706 29461 layer_factory.hpp:77] Creating layer conv5_1
I0625 14:48:03.303714 29461 net.cpp:91] Creating Layer conv5_1
I0625 14:48:03.303716 29461 net.cpp:425] conv5_1 <- pool4
I0625 14:48:03.303720 29461 net.cpp:399] conv5_1 -> conv5_1
I0625 14:48:03.316891 29461 net.cpp:141] Setting up conv5_1
I0625 14:48:03.316916 29461 net.cpp:148] Top shape: 1 256 14 18 (64512)
I0625 14:48:03.316920 29461 net.cpp:156] Memory required for data: 132894720
I0625 14:48:03.316927 29461 layer_factory.hpp:77] Creating layer bn5_1
I0625 14:48:03.316938 29461 net.cpp:91] Creating Layer bn5_1
I0625 14:48:03.316943 29461 net.cpp:425] bn5_1 <- conv5_1
I0625 14:48:03.316948 29461 net.cpp:386] bn5_1 -> conv5_1 (in-place)
I0625 14:48:03.317123 29461 net.cpp:141] Setting up bn5_1
I0625 14:48:03.317131 29461 net.cpp:148] Top shape: 1 256 14 18 (64512)
I0625 14:48:03.317133 29461 net.cpp:156] Memory required for data: 133152768
I0625 14:48:03.317154 29461 layer_factory.hpp:77] Creating layer scale5_1
I0625 14:48:03.317163 29461 net.cpp:91] Creating Layer scale5_1
I0625 14:48:03.317167 29461 net.cpp:425] scale5_1 <- conv5_1
I0625 14:48:03.317170 29461 net.cpp:386] scale5_1 -> conv5_1 (in-place)
I0625 14:48:03.317209 29461 layer_factory.hpp:77] Creating layer scale5_1
I0625 14:48:03.317298 29461 net.cpp:141] Setting up scale5_1
I0625 14:48:03.317306 29461 net.cpp:148] Top shape: 1 256 14 18 (64512)
I0625 14:48:03.317307 29461 net.cpp:156] Memory required for data: 133410816
I0625 14:48:03.317312 29461 layer_factory.hpp:77] Creating layer relu5_1
I0625 14:48:03.317317 29461 net.cpp:91] Creating Layer relu5_1
I0625 14:48:03.317319 29461 net.cpp:425] relu5_1 <- conv5_1
I0625 14:48:03.317323 29461 net.cpp:386] relu5_1 -> conv5_1 (in-place)
I0625 14:48:03.317591 29461 net.cpp:141] Setting up relu5_1
I0625 14:48:03.317602 29461 net.cpp:148] Top shape: 1 256 14 18 (64512)
I0625 14:48:03.317605 29461 net.cpp:156] Memory required for data: 133668864
I0625 14:48:03.317608 29461 layer_factory.hpp:77] Creating layer conv5_2
I0625 14:48:03.317617 29461 net.cpp:91] Creating Layer conv5_2
I0625 14:48:03.317620 29461 net.cpp:425] conv5_2 <- conv5_1
I0625 14:48:03.317625 29461 net.cpp:399] conv5_2 -> conv5_2
I0625 14:48:03.322960 29461 net.cpp:141] Setting up conv5_2
I0625 14:48:03.322973 29461 net.cpp:148] Top shape: 1 256 14 18 (64512)
I0625 14:48:03.322976 29461 net.cpp:156] Memory required for data: 133926912
I0625 14:48:03.322981 29461 layer_factory.hpp:77] Creating layer bn5_2
I0625 14:48:03.322988 29461 net.cpp:91] Creating Layer bn5_2
I0625 14:48:03.322990 29461 net.cpp:425] bn5_2 <- conv5_2
I0625 14:48:03.322994 29461 net.cpp:386] bn5_2 -> conv5_2 (in-place)
I0625 14:48:03.323146 29461 net.cpp:141] Setting up bn5_2
I0625 14:48:03.323158 29461 net.cpp:148] Top shape: 1 256 14 18 (64512)
I0625 14:48:03.323160 29461 net.cpp:156] Memory required for data: 134184960
I0625 14:48:03.323165 29461 layer_factory.hpp:77] Creating layer scale5_2
I0625 14:48:03.323171 29461 net.cpp:91] Creating Layer scale5_2
I0625 14:48:03.323174 29461 net.cpp:425] scale5_2 <- conv5_2
I0625 14:48:03.323179 29461 net.cpp:386] scale5_2 -> conv5_2 (in-place)
I0625 14:48:03.323212 29461 layer_factory.hpp:77] Creating layer scale5_2
I0625 14:48:03.323298 29461 net.cpp:141] Setting up scale5_2
I0625 14:48:03.323304 29461 net.cpp:148] Top shape: 1 256 14 18 (64512)
I0625 14:48:03.323307 29461 net.cpp:156] Memory required for data: 134443008
I0625 14:48:03.323312 29461 layer_factory.hpp:77] Creating layer relu5_2
I0625 14:48:03.323315 29461 net.cpp:91] Creating Layer relu5_2
I0625 14:48:03.323318 29461 net.cpp:425] relu5_2 <- conv5_2
I0625 14:48:03.323321 29461 net.cpp:386] relu5_2 -> conv5_2 (in-place)
I0625 14:48:03.323586 29461 net.cpp:141] Setting up relu5_2
I0625 14:48:03.323597 29461 net.cpp:148] Top shape: 1 256 14 18 (64512)
I0625 14:48:03.323601 29461 net.cpp:156] Memory required for data: 134701056
I0625 14:48:03.323603 29461 layer_factory.hpp:77] Creating layer pool5
I0625 14:48:03.323606 29461 layer_factory.cpp:90] cuDNN does not support multiple tops. Using Caffe's own pooling layer.
I0625 14:48:03.323611 29461 net.cpp:91] Creating Layer pool5
I0625 14:48:03.323614 29461 net.cpp:425] pool5 <- conv5_2
I0625 14:48:03.323619 29461 net.cpp:399] pool5 -> pool5
I0625 14:48:03.323624 29461 net.cpp:399] pool5 -> pool5_mask
I0625 14:48:03.323662 29461 net.cpp:141] Setting up pool5
I0625 14:48:03.323668 29461 net.cpp:148] Top shape: 1 256 7 9 (16128)
I0625 14:48:03.323671 29461 net.cpp:148] Top shape: 1 256 7 9 (16128)
I0625 14:48:03.323673 29461 net.cpp:156] Memory required for data: 134830080
I0625 14:48:03.323675 29461 layer_factory.hpp:77] Creating layer upsample5
I0625 14:48:03.323683 29461 net.cpp:91] Creating Layer upsample5
I0625 14:48:03.323684 29461 net.cpp:425] upsample5 <- pool5
I0625 14:48:03.323688 29461 net.cpp:425] upsample5 <- pool5_mask
I0625 14:48:03.323691 29461 net.cpp:399] upsample5 -> pool5_D
I0625 14:48:03.323699 29461 upsample_layer.cpp:31] Params 'pad_out_{}_' are deprecated. Please declare upsample height and width useing the upsample_h, upsample_w parameters.
I0625 14:48:03.323731 29461 net.cpp:141] Setting up upsample5
I0625 14:48:03.323739 29461 net.cpp:148] Top shape: 1 256 14 18 (64512)
I0625 14:48:03.323740 29461 net.cpp:156] Memory required for data: 135088128
I0625 14:48:03.323742 29461 layer_factory.hpp:77] Creating layer conv5_2_D
I0625 14:48:03.323750 29461 net.cpp:91] Creating Layer conv5_2_D
I0625 14:48:03.323752 29461 net.cpp:425] conv5_2_D <- pool5_D
I0625 14:48:03.323756 29461 net.cpp:399] conv5_2_D -> conv5_2_D
I0625 14:48:03.329126 29461 net.cpp:141] Setting up conv5_2_D
I0625 14:48:03.329139 29461 net.cpp:148] Top shape: 1 256 14 18 (64512)
I0625 14:48:03.329143 29461 net.cpp:156] Memory required for data: 135346176
I0625 14:48:03.329146 29461 layer_factory.hpp:77] Creating layer bn5_2_D
I0625 14:48:03.329152 29461 net.cpp:91] Creating Layer bn5_2_D
I0625 14:48:03.329155 29461 net.cpp:425] bn5_2_D <- conv5_2_D
I0625 14:48:03.329160 29461 net.cpp:386] bn5_2_D -> conv5_2_D (in-place)
I0625 14:48:03.329313 29461 net.cpp:141] Setting up bn5_2_D
I0625 14:48:03.329320 29461 net.cpp:148] Top shape: 1 256 14 18 (64512)
I0625 14:48:03.329322 29461 net.cpp:156] Memory required for data: 135604224
I0625 14:48:03.329329 29461 layer_factory.hpp:77] Creating layer scale5_2_D
I0625 14:48:03.329334 29461 net.cpp:91] Creating Layer scale5_2_D
I0625 14:48:03.329336 29461 net.cpp:425] scale5_2_D <- conv5_2_D
I0625 14:48:03.329339 29461 net.cpp:386] scale5_2_D -> conv5_2_D (in-place)
I0625 14:48:03.329371 29461 layer_factory.hpp:77] Creating layer scale5_2_D
I0625 14:48:03.329458 29461 net.cpp:141] Setting up scale5_2_D
I0625 14:48:03.329464 29461 net.cpp:148] Top shape: 1 256 14 18 (64512)
I0625 14:48:03.329468 29461 net.cpp:156] Memory required for data: 135862272
I0625 14:48:03.329479 29461 layer_factory.hpp:77] Creating layer relu5_2_D
I0625 14:48:03.329484 29461 net.cpp:91] Creating Layer relu5_2_D
I0625 14:48:03.329486 29461 net.cpp:425] relu5_2_D <- conv5_2_D
I0625 14:48:03.329490 29461 net.cpp:386] relu5_2_D -> conv5_2_D (in-place)
I0625 14:48:03.329627 29461 net.cpp:141] Setting up relu5_2_D
I0625 14:48:03.329637 29461 net.cpp:148] Top shape: 1 256 14 18 (64512)
I0625 14:48:03.329638 29461 net.cpp:156] Memory required for data: 136120320
I0625 14:48:03.329641 29461 layer_factory.hpp:77] Creating layer conv5_1_D
I0625 14:48:03.329648 29461 net.cpp:91] Creating Layer conv5_1_D
I0625 14:48:03.329651 29461 net.cpp:425] conv5_1_D <- conv5_2_D
I0625 14:48:03.329656 29461 net.cpp:399] conv5_1_D -> conv5_1_D
I0625 14:48:03.334967 29461 net.cpp:141] Setting up conv5_1_D
I0625 14:48:03.334980 29461 net.cpp:148] Top shape: 1 256 14 18 (64512)
I0625 14:48:03.334982 29461 net.cpp:156] Memory required for data: 136378368
I0625 14:48:03.334987 29461 layer_factory.hpp:77] Creating layer bn5_1_D
I0625 14:48:03.334993 29461 net.cpp:91] Creating Layer bn5_1_D
I0625 14:48:03.334996 29461 net.cpp:425] bn5_1_D <- conv5_1_D
I0625 14:48:03.335000 29461 net.cpp:386] bn5_1_D -> conv5_1_D (in-place)
I0625 14:48:03.335161 29461 net.cpp:141] Setting up bn5_1_D
I0625 14:48:03.335170 29461 net.cpp:148] Top shape: 1 256 14 18 (64512)
I0625 14:48:03.335171 29461 net.cpp:156] Memory required for data: 136636416
I0625 14:48:03.335177 29461 layer_factory.hpp:77] Creating layer scale5_1_D
I0625 14:48:03.335183 29461 net.cpp:91] Creating Layer scale5_1_D
I0625 14:48:03.335186 29461 net.cpp:425] scale5_1_D <- conv5_1_D
I0625 14:48:03.335189 29461 net.cpp:386] scale5_1_D -> conv5_1_D (in-place)
I0625 14:48:03.335224 29461 layer_factory.hpp:77] Creating layer scale5_1_D
I0625 14:48:03.335333 29461 net.cpp:141] Setting up scale5_1_D
I0625 14:48:03.335343 29461 net.cpp:148] Top shape: 1 256 14 18 (64512)
I0625 14:48:03.335347 29461 net.cpp:156] Memory required for data: 136894464
I0625 14:48:03.335355 29461 layer_factory.hpp:77] Creating layer relu5_1_D
I0625 14:48:03.335362 29461 net.cpp:91] Creating Layer relu5_1_D
I0625 14:48:03.335367 29461 net.cpp:425] relu5_1_D <- conv5_1_D
I0625 14:48:03.335388 29461 net.cpp:386] relu5_1_D -> conv5_1_D (in-place)
I0625 14:48:03.335667 29461 net.cpp:141] Setting up relu5_1_D
I0625 14:48:03.335680 29461 net.cpp:148] Top shape: 1 256 14 18 (64512)
I0625 14:48:03.335685 29461 net.cpp:156] Memory required for data: 137152512
I0625 14:48:03.335690 29461 layer_factory.hpp:77] Creating layer upsample4
I0625 14:48:03.335697 29461 net.cpp:91] Creating Layer upsample4
I0625 14:48:03.335703 29461 net.cpp:425] upsample4 <- conv5_1_D
I0625 14:48:03.335710 29461 net.cpp:425] upsample4 <- pool4_mask
I0625 14:48:03.335716 29461 net.cpp:399] upsample4 -> pool4_D
I0625 14:48:03.335726 29461 upsample_layer.cpp:31] Params 'pad_out_{}_' are deprecated. Please declare upsample height and width useing the upsample_h, upsample_w parameters.
I0625 14:48:03.335757 29461 net.cpp:141] Setting up upsample4
I0625 14:48:03.335765 29461 net.cpp:148] Top shape: 1 256 28 36 (258048)
I0625 14:48:03.335769 29461 net.cpp:156] Memory required for data: 138184704
I0625 14:48:03.335773 29461 layer_factory.hpp:77] Creating layer conv4_2_D
I0625 14:48:03.335783 29461 net.cpp:91] Creating Layer conv4_2_D
I0625 14:48:03.335788 29461 net.cpp:425] conv4_2_D <- pool4_D
I0625 14:48:03.335795 29461 net.cpp:399] conv4_2_D -> conv4_2_D
I0625 14:48:03.341034 29461 net.cpp:141] Setting up conv4_2_D
I0625 14:48:03.341050 29461 net.cpp:148] Top shape: 1 256 28 36 (258048)
I0625 14:48:03.341055 29461 net.cpp:156] Memory required for data: 139216896
I0625 14:48:03.341063 29461 layer_factory.hpp:77] Creating layer bn4_2_D
I0625 14:48:03.341073 29461 net.cpp:91] Creating Layer bn4_2_D
I0625 14:48:03.341078 29461 net.cpp:425] bn4_2_D <- conv4_2_D
I0625 14:48:03.341084 29461 net.cpp:386] bn4_2_D -> conv4_2_D (in-place)
I0625 14:48:03.341264 29461 net.cpp:141] Setting up bn4_2_D
I0625 14:48:03.341274 29461 net.cpp:148] Top shape: 1 256 28 36 (258048)
I0625 14:48:03.341279 29461 net.cpp:156] Memory required for data: 140249088
I0625 14:48:03.341289 29461 layer_factory.hpp:77] Creating layer scale4_2_D
I0625 14:48:03.341298 29461 net.cpp:91] Creating Layer scale4_2_D
I0625 14:48:03.341303 29461 net.cpp:425] scale4_2_D <- conv4_2_D
I0625 14:48:03.341310 29461 net.cpp:386] scale4_2_D -> conv4_2_D (in-place)
I0625 14:48:03.341356 29461 layer_factory.hpp:77] Creating layer scale4_2_D
I0625 14:48:03.341506 29461 net.cpp:141] Setting up scale4_2_D
I0625 14:48:03.341522 29461 net.cpp:148] Top shape: 1 256 28 36 (258048)
I0625 14:48:03.341526 29461 net.cpp:156] Memory required for data: 141281280
I0625 14:48:03.341533 29461 layer_factory.hpp:77] Creating layer relu4_2_D
I0625 14:48:03.341542 29461 net.cpp:91] Creating Layer relu4_2_D
I0625 14:48:03.341545 29461 net.cpp:425] relu4_2_D <- conv4_2_D
I0625 14:48:03.341552 29461 net.cpp:386] relu4_2_D -> conv4_2_D (in-place)
I0625 14:48:03.341874 29461 net.cpp:141] Setting up relu4_2_D
I0625 14:48:03.341886 29461 net.cpp:148] Top shape: 1 256 28 36 (258048)
I0625 14:48:03.341889 29461 net.cpp:156] Memory required for data: 142313472
I0625 14:48:03.341892 29461 layer_factory.hpp:77] Creating layer conv4_1_D
I0625 14:48:03.341900 29461 net.cpp:91] Creating Layer conv4_1_D
I0625 14:48:03.341903 29461 net.cpp:425] conv4_1_D <- conv4_2_D
I0625 14:48:03.341908 29461 net.cpp:399] conv4_1_D -> conv4_1_D
I0625 14:48:03.345142 29461 net.cpp:141] Setting up conv4_1_D
I0625 14:48:03.345156 29461 net.cpp:148] Top shape: 1 128 28 36 (129024)
I0625 14:48:03.345160 29461 net.cpp:156] Memory required for data: 142829568
I0625 14:48:03.345165 29461 layer_factory.hpp:77] Creating layer bn4_1_D
I0625 14:48:03.345170 29461 net.cpp:91] Creating Layer bn4_1_D
I0625 14:48:03.345175 29461 net.cpp:425] bn4_1_D <- conv4_1_D
I0625 14:48:03.345178 29461 net.cpp:386] bn4_1_D -> conv4_1_D (in-place)
I0625 14:48:03.345345 29461 net.cpp:141] Setting up bn4_1_D
I0625 14:48:03.345358 29461 net.cpp:148] Top shape: 1 128 28 36 (129024)
I0625 14:48:03.345361 29461 net.cpp:156] Memory required for data: 143345664
I0625 14:48:03.345366 29461 layer_factory.hpp:77] Creating layer scale4_1_D
I0625 14:48:03.345372 29461 net.cpp:91] Creating Layer scale4_1_D
I0625 14:48:03.345387 29461 net.cpp:425] scale4_1_D <- conv4_1_D
I0625 14:48:03.345392 29461 net.cpp:386] scale4_1_D -> conv4_1_D (in-place)
I0625 14:48:03.345428 29461 layer_factory.hpp:77] Creating layer scale4_1_D
I0625 14:48:03.345526 29461 net.cpp:141] Setting up scale4_1_D
I0625 14:48:03.345532 29461 net.cpp:148] Top shape: 1 128 28 36 (129024)
I0625 14:48:03.345535 29461 net.cpp:156] Memory required for data: 143861760
I0625 14:48:03.345541 29461 layer_factory.hpp:77] Creating layer relu4_1_D
I0625 14:48:03.345551 29461 net.cpp:91] Creating Layer relu4_1_D
I0625 14:48:03.345556 29461 net.cpp:425] relu4_1_D <- conv4_1_D
I0625 14:48:03.345562 29461 net.cpp:386] relu4_1_D -> conv4_1_D (in-place)
I0625 14:48:03.345718 29461 net.cpp:141] Setting up relu4_1_D
I0625 14:48:03.345729 29461 net.cpp:148] Top shape: 1 128 28 36 (129024)
I0625 14:48:03.345733 29461 net.cpp:156] Memory required for data: 144377856
I0625 14:48:03.345739 29461 layer_factory.hpp:77] Creating layer upsample3
I0625 14:48:03.345748 29461 net.cpp:91] Creating Layer upsample3
I0625 14:48:03.345753 29461 net.cpp:425] upsample3 <- conv4_1_D
I0625 14:48:03.345759 29461 net.cpp:425] upsample3 <- pool3_mask
I0625 14:48:03.345767 29461 net.cpp:399] upsample3 -> pool3_D
I0625 14:48:03.345775 29461 upsample_layer.cpp:31] Params 'pad_out_{}_' are deprecated. Please declare upsample height and width useing the upsample_h, upsample_w parameters.
I0625 14:48:03.345808 29461 net.cpp:141] Setting up upsample3
I0625 14:48:03.345816 29461 net.cpp:148] Top shape: 1 128 56 72 (516096)
I0625 14:48:03.345820 29461 net.cpp:156] Memory required for data: 146442240
I0625 14:48:03.345824 29461 layer_factory.hpp:77] Creating layer conv3_2_D
I0625 14:48:03.345836 29461 net.cpp:91] Creating Layer conv3_2_D
I0625 14:48:03.345840 29461 net.cpp:425] conv3_2_D <- pool3_D
I0625 14:48:03.345849 29461 net.cpp:399] conv3_2_D -> conv3_2_D
I0625 14:48:03.348280 29461 net.cpp:141] Setting up conv3_2_D
I0625 14:48:03.348295 29461 net.cpp:148] Top shape: 1 128 56 72 (516096)
I0625 14:48:03.348299 29461 net.cpp:156] Memory required for data: 148506624
I0625 14:48:03.348309 29461 layer_factory.hpp:77] Creating layer bn3_2_D
I0625 14:48:03.348318 29461 net.cpp:91] Creating Layer bn3_2_D
I0625 14:48:03.348323 29461 net.cpp:425] bn3_2_D <- conv3_2_D
I0625 14:48:03.348330 29461 net.cpp:386] bn3_2_D -> conv3_2_D (in-place)
I0625 14:48:03.348508 29461 net.cpp:141] Setting up bn3_2_D
I0625 14:48:03.348518 29461 net.cpp:148] Top shape: 1 128 56 72 (516096)
I0625 14:48:03.348522 29461 net.cpp:156] Memory required for data: 150571008
I0625 14:48:03.348531 29461 layer_factory.hpp:77] Creating layer scale3_2_D
I0625 14:48:03.348541 29461 net.cpp:91] Creating Layer scale3_2_D
I0625 14:48:03.348546 29461 net.cpp:425] scale3_2_D <- conv3_2_D
I0625 14:48:03.348552 29461 net.cpp:386] scale3_2_D -> conv3_2_D (in-place)
I0625 14:48:03.348599 29461 layer_factory.hpp:77] Creating layer scale3_2_D
I0625 14:48:03.348712 29461 net.cpp:141] Setting up scale3_2_D
I0625 14:48:03.348722 29461 net.cpp:148] Top shape: 1 128 56 72 (516096)
I0625 14:48:03.348726 29461 net.cpp:156] Memory required for data: 152635392
I0625 14:48:03.348734 29461 layer_factory.hpp:77] Creating layer relu3_2_D
I0625 14:48:03.348742 29461 net.cpp:91] Creating Layer relu3_2_D
I0625 14:48:03.348745 29461 net.cpp:425] relu3_2_D <- conv3_2_D
I0625 14:48:03.348752 29461 net.cpp:386] relu3_2_D -> conv3_2_D (in-place)
I0625 14:48:03.349035 29461 net.cpp:141] Setting up relu3_2_D
I0625 14:48:03.349046 29461 net.cpp:148] Top shape: 1 128 56 72 (516096)
I0625 14:48:03.349050 29461 net.cpp:156] Memory required for data: 154699776
I0625 14:48:03.349056 29461 layer_factory.hpp:77] Creating layer conv3_1_D
I0625 14:48:03.349066 29461 net.cpp:91] Creating Layer conv3_1_D
I0625 14:48:03.349072 29461 net.cpp:425] conv3_1_D <- conv3_2_D
I0625 14:48:03.349081 29461 net.cpp:399] conv3_1_D -> conv3_1_D
I0625 14:48:03.350420 29461 net.cpp:141] Setting up conv3_1_D
I0625 14:48:03.350435 29461 net.cpp:148] Top shape: 1 64 56 72 (258048)
I0625 14:48:03.350456 29461 net.cpp:156] Memory required for data: 155731968
I0625 14:48:03.350466 29461 layer_factory.hpp:77] Creating layer bn3_1_D
I0625 14:48:03.350476 29461 net.cpp:91] Creating Layer bn3_1_D
I0625 14:48:03.350481 29461 net.cpp:425] bn3_1_D <- conv3_1_D
I0625 14:48:03.350487 29461 net.cpp:386] bn3_1_D -> conv3_1_D (in-place)
I0625 14:48:03.350670 29461 net.cpp:141] Setting up bn3_1_D
I0625 14:48:03.350680 29461 net.cpp:148] Top shape: 1 64 56 72 (258048)
I0625 14:48:03.350684 29461 net.cpp:156] Memory required for data: 156764160
I0625 14:48:03.350694 29461 layer_factory.hpp:77] Creating layer scale3_1_D
I0625 14:48:03.350703 29461 net.cpp:91] Creating Layer scale3_1_D
I0625 14:48:03.350708 29461 net.cpp:425] scale3_1_D <- conv3_1_D
I0625 14:48:03.350715 29461 net.cpp:386] scale3_1_D -> conv3_1_D (in-place)
I0625 14:48:03.350764 29461 layer_factory.hpp:77] Creating layer scale3_1_D
I0625 14:48:03.350881 29461 net.cpp:141] Setting up scale3_1_D
I0625 14:48:03.350890 29461 net.cpp:148] Top shape: 1 64 56 72 (258048)
I0625 14:48:03.350894 29461 net.cpp:156] Memory required for data: 157796352
I0625 14:48:03.350903 29461 layer_factory.hpp:77] Creating layer relu3_1_D
I0625 14:48:03.350909 29461 net.cpp:91] Creating Layer relu3_1_D
I0625 14:48:03.350914 29461 net.cpp:425] relu3_1_D <- conv3_1_D
I0625 14:48:03.350920 29461 net.cpp:386] relu3_1_D -> conv3_1_D (in-place)
I0625 14:48:03.351202 29461 net.cpp:141] Setting up relu3_1_D
I0625 14:48:03.351215 29461 net.cpp:148] Top shape: 1 64 56 72 (258048)
I0625 14:48:03.351219 29461 net.cpp:156] Memory required for data: 158828544
I0625 14:48:03.351224 29461 layer_factory.hpp:77] Creating layer upsample2
I0625 14:48:03.351233 29461 net.cpp:91] Creating Layer upsample2
I0625 14:48:03.351238 29461 net.cpp:425] upsample2 <- conv3_1_D
I0625 14:48:03.351243 29461 net.cpp:425] upsample2 <- pool2_mask
I0625 14:48:03.351249 29461 net.cpp:399] upsample2 -> pool2_D
I0625 14:48:03.351258 29461 upsample_layer.cpp:31] Params 'pad_out_{}_' are deprecated. Please declare upsample height and width useing the upsample_h, upsample_w parameters.
I0625 14:48:03.351292 29461 net.cpp:141] Setting up upsample2
I0625 14:48:03.351300 29461 net.cpp:148] Top shape: 1 64 112 144 (1032192)
I0625 14:48:03.351305 29461 net.cpp:156] Memory required for data: 162957312
I0625 14:48:03.351308 29461 layer_factory.hpp:77] Creating layer conv2_2_D
I0625 14:48:03.351320 29461 net.cpp:91] Creating Layer conv2_2_D
I0625 14:48:03.351325 29461 net.cpp:425] conv2_2_D <- pool2_D
I0625 14:48:03.351332 29461 net.cpp:399] conv2_2_D -> conv2_2_D
I0625 14:48:03.352501 29461 net.cpp:141] Setting up conv2_2_D
I0625 14:48:03.352514 29461 net.cpp:148] Top shape: 1 64 112 144 (1032192)
I0625 14:48:03.352519 29461 net.cpp:156] Memory required for data: 167086080
I0625 14:48:03.352525 29461 layer_factory.hpp:77] Creating layer bn2_2_D
I0625 14:48:03.352535 29461 net.cpp:91] Creating Layer bn2_2_D
I0625 14:48:03.352540 29461 net.cpp:425] bn2_2_D <- conv2_2_D
I0625 14:48:03.352547 29461 net.cpp:386] bn2_2_D -> conv2_2_D (in-place)
I0625 14:48:03.352741 29461 net.cpp:141] Setting up bn2_2_D
I0625 14:48:03.352749 29461 net.cpp:148] Top shape: 1 64 112 144 (1032192)
I0625 14:48:03.352753 29461 net.cpp:156] Memory required for data: 171214848
I0625 14:48:03.352762 29461 layer_factory.hpp:77] Creating layer scale2_2_D
I0625 14:48:03.352772 29461 net.cpp:91] Creating Layer scale2_2_D
I0625 14:48:03.352777 29461 net.cpp:425] scale2_2_D <- conv2_2_D
I0625 14:48:03.352783 29461 net.cpp:386] scale2_2_D -> conv2_2_D (in-place)
I0625 14:48:03.352830 29461 layer_factory.hpp:77] Creating layer scale2_2_D
I0625 14:48:03.352964 29461 net.cpp:141] Setting up scale2_2_D
I0625 14:48:03.352974 29461 net.cpp:148] Top shape: 1 64 112 144 (1032192)
I0625 14:48:03.352979 29461 net.cpp:156] Memory required for data: 175343616
I0625 14:48:03.352987 29461 layer_factory.hpp:77] Creating layer relu2_2_D
I0625 14:48:03.352993 29461 net.cpp:91] Creating Layer relu2_2_D
I0625 14:48:03.352998 29461 net.cpp:425] relu2_2_D <- conv2_2_D
I0625 14:48:03.353004 29461 net.cpp:386] relu2_2_D -> conv2_2_D (in-place)
I0625 14:48:03.353164 29461 net.cpp:141] Setting up relu2_2_D
I0625 14:48:03.353175 29461 net.cpp:148] Top shape: 1 64 112 144 (1032192)
I0625 14:48:03.353179 29461 net.cpp:156] Memory required for data: 179472384
I0625 14:48:03.353184 29461 layer_factory.hpp:77] Creating layer conv2_1_D
I0625 14:48:03.353195 29461 net.cpp:91] Creating Layer conv2_1_D
I0625 14:48:03.353200 29461 net.cpp:425] conv2_1_D <- conv2_2_D
I0625 14:48:03.353207 29461 net.cpp:399] conv2_1_D -> conv2_1_D
I0625 14:48:03.354166 29461 net.cpp:141] Setting up conv2_1_D
I0625 14:48:03.354181 29461 net.cpp:148] Top shape: 1 32 112 144 (516096)
I0625 14:48:03.354184 29461 net.cpp:156] Memory required for data: 181536768
I0625 14:48:03.354192 29461 layer_factory.hpp:77] Creating layer bn2_1_D
I0625 14:48:03.354200 29461 net.cpp:91] Creating Layer bn2_1_D
I0625 14:48:03.354205 29461 net.cpp:425] bn2_1_D <- conv2_1_D
I0625 14:48:03.354212 29461 net.cpp:386] bn2_1_D -> conv2_1_D (in-place)
I0625 14:48:03.354408 29461 net.cpp:141] Setting up bn2_1_D
I0625 14:48:03.354418 29461 net.cpp:148] Top shape: 1 32 112 144 (516096)
I0625 14:48:03.354421 29461 net.cpp:156] Memory required for data: 183601152
I0625 14:48:03.354430 29461 layer_factory.hpp:77] Creating layer scale2_1_D
I0625 14:48:03.354439 29461 net.cpp:91] Creating Layer scale2_1_D
I0625 14:48:03.354444 29461 net.cpp:425] scale2_1_D <- conv2_1_D
I0625 14:48:03.354451 29461 net.cpp:386] scale2_1_D -> conv2_1_D (in-place)
I0625 14:48:03.354498 29461 layer_factory.hpp:77] Creating layer scale2_1_D
I0625 14:48:03.354634 29461 net.cpp:141] Setting up scale2_1_D
I0625 14:48:03.354643 29461 net.cpp:148] Top shape: 1 32 112 144 (516096)
I0625 14:48:03.354647 29461 net.cpp:156] Memory required for data: 185665536
I0625 14:48:03.354655 29461 layer_factory.hpp:77] Creating layer relu2_1_D
I0625 14:48:03.354662 29461 net.cpp:91] Creating Layer relu2_1_D
I0625 14:48:03.354667 29461 net.cpp:425] relu2_1_D <- conv2_1_D
I0625 14:48:03.354673 29461 net.cpp:386] relu2_1_D -> conv2_1_D (in-place)
I0625 14:48:03.354951 29461 net.cpp:141] Setting up relu2_1_D
I0625 14:48:03.354964 29461 net.cpp:148] Top shape: 1 32 112 144 (516096)
I0625 14:48:03.354969 29461 net.cpp:156] Memory required for data: 187729920
I0625 14:48:03.354972 29461 layer_factory.hpp:77] Creating layer upsample1
I0625 14:48:03.354981 29461 net.cpp:91] Creating Layer upsample1
I0625 14:48:03.354986 29461 net.cpp:425] upsample1 <- conv2_1_D
I0625 14:48:03.354992 29461 net.cpp:425] upsample1 <- pool1_mask
I0625 14:48:03.355000 29461 net.cpp:399] upsample1 -> pool1_D
I0625 14:48:03.355007 29461 upsample_layer.cpp:31] Params 'pad_out_{}_' are deprecated. Please declare upsample height and width useing the upsample_h, upsample_w parameters.
I0625 14:48:03.355041 29461 net.cpp:141] Setting up upsample1
I0625 14:48:03.355048 29461 net.cpp:148] Top shape: 1 32 224 288 (2064384)
I0625 14:48:03.355052 29461 net.cpp:156] Memory required for data: 195987456
I0625 14:48:03.355057 29461 layer_factory.hpp:77] Creating layer conv1_2_D
I0625 14:48:03.355067 29461 net.cpp:91] Creating Layer conv1_2_D
I0625 14:48:03.355072 29461 net.cpp:425] conv1_2_D <- pool1_D
I0625 14:48:03.355079 29461 net.cpp:399] conv1_2_D -> conv1_2_D
I0625 14:48:03.355998 29461 net.cpp:141] Setting up conv1_2_D
I0625 14:48:03.356011 29461 net.cpp:148] Top shape: 1 32 224 288 (2064384)
I0625 14:48:03.356015 29461 net.cpp:156] Memory required for data: 204244992
I0625 14:48:03.356022 29461 layer_factory.hpp:77] Creating layer bn1_2_D
I0625 14:48:03.356032 29461 net.cpp:91] Creating Layer bn1_2_D
I0625 14:48:03.356037 29461 net.cpp:425] bn1_2_D <- conv1_2_D
I0625 14:48:03.356043 29461 net.cpp:386] bn1_2_D -> conv1_2_D (in-place)
I0625 14:48:03.356288 29461 net.cpp:141] Setting up bn1_2_D
I0625 14:48:03.356298 29461 net.cpp:148] Top shape: 1 32 224 288 (2064384)
I0625 14:48:03.356302 29461 net.cpp:156] Memory required for data: 212502528
I0625 14:48:03.356313 29461 layer_factory.hpp:77] Creating layer scale1_2_D
I0625 14:48:03.356323 29461 net.cpp:91] Creating Layer scale1_2_D
I0625 14:48:03.356338 29461 net.cpp:425] scale1_2_D <- conv1_2_D
I0625 14:48:03.356346 29461 net.cpp:386] scale1_2_D -> conv1_2_D (in-place)
I0625 14:48:03.356395 29461 layer_factory.hpp:77] Creating layer scale1_2_D
I0625 14:48:03.357182 29461 net.cpp:141] Setting up scale1_2_D
I0625 14:48:03.357194 29461 net.cpp:148] Top shape: 1 32 224 288 (2064384)
I0625 14:48:03.357199 29461 net.cpp:156] Memory required for data: 220760064
I0625 14:48:03.357208 29461 layer_factory.hpp:77] Creating layer relu1_2_D
I0625 14:48:03.357215 29461 net.cpp:91] Creating Layer relu1_2_D
I0625 14:48:03.357220 29461 net.cpp:425] relu1_2_D <- conv1_2_D
I0625 14:48:03.357228 29461 net.cpp:386] relu1_2_D -> conv1_2_D (in-place)
I0625 14:48:03.357511 29461 net.cpp:141] Setting up relu1_2_D
I0625 14:48:03.357523 29461 net.cpp:148] Top shape: 1 32 224 288 (2064384)
I0625 14:48:03.357528 29461 net.cpp:156] Memory required for data: 229017600
I0625 14:48:03.357532 29461 layer_factory.hpp:77] Creating layer conv1_1_D
I0625 14:48:03.357545 29461 net.cpp:91] Creating Layer conv1_1_D
I0625 14:48:03.357550 29461 net.cpp:425] conv1_1_D <- conv1_2_D
I0625 14:48:03.357558 29461 net.cpp:399] conv1_1_D -> conv1_1_D
I0625 14:48:03.358623 29461 net.cpp:141] Setting up conv1_1_D
I0625 14:48:03.358638 29461 net.cpp:148] Top shape: 1 2 224 288 (129024)
I0625 14:48:03.358641 29461 net.cpp:156] Memory required for data: 229533696
I0625 14:48:03.358649 29461 layer_factory.hpp:77] Creating layer conv1_1_D_conv1_1_D_0_split
I0625 14:48:03.358659 29461 net.cpp:91] Creating Layer conv1_1_D_conv1_1_D_0_split
I0625 14:48:03.358664 29461 net.cpp:425] conv1_1_D_conv1_1_D_0_split <- conv1_1_D
I0625 14:48:03.358670 29461 net.cpp:399] conv1_1_D_conv1_1_D_0_split -> conv1_1_D_conv1_1_D_0_split_0
I0625 14:48:03.358680 29461 net.cpp:399] conv1_1_D_conv1_1_D_0_split -> conv1_1_D_conv1_1_D_0_split_1
I0625 14:48:03.358729 29461 net.cpp:141] Setting up conv1_1_D_conv1_1_D_0_split
I0625 14:48:03.358739 29461 net.cpp:148] Top shape: 1 2 224 288 (129024)
I0625 14:48:03.358744 29461 net.cpp:148] Top shape: 1 2 224 288 (129024)
I0625 14:48:03.358748 29461 net.cpp:156] Memory required for data: 230565888
I0625 14:48:03.358752 29461 layer_factory.hpp:77] Creating layer loss
I0625 14:48:03.358760 29461 net.cpp:91] Creating Layer loss
I0625 14:48:03.358765 29461 net.cpp:425] loss <- conv1_1_D_conv1_1_D_0_split_0
I0625 14:48:03.358772 29461 net.cpp:425] loss <- label_data_1_split_0
I0625 14:48:03.358778 29461 net.cpp:399] loss -> loss
…
