…
I0624 16:32:52.583624 21043 solver.cpp:91] Creating training net from net file: models/bpnet/train_val.prototxt
I0624 16:32:52.584420 21043 net.cpp:313] The NetState phase (0) differed from the phase (1) specified by a rule in layer data
I0624 16:32:52.584646 21043 net.cpp:49] Initializing net from parameters: 
name: "BPnet"
state {
  phase: TRAIN
}
layer {
  name: "data"
  type: "Data"
  top: "data"
  top: "label"
  include {
    phase: TRAIN
  }
  transform_param {
    mirror: false
    crop_size: 224
    mean_value: 100
    contrast_jitter_range: 0.1
  }
  data_param {
    source: "data/train_lmdb"
    batch_size: 32
    backend: LMDB
  }
}
layer {
  name: "conv1_1"
  type: "Convolution"
  bottom: "data"
  top: "conv1_1"
  param {
    lr_mult: 1
    decay_mult: 1
  }
  convolution_param {
    num_output: 32
    bias_term: false
    pad: 3
    kernel_size: 7
    stride: 2
    weight_filler {
      type: "xavier"
    }
  }
}
layer {
  name: "bn1_1"
  type: "BatchNorm"
  bottom: "conv1_1"
  top: "conv1_1"
  param {
    lr_mult: 0
  }
  param {
    lr_mult: 0
  }
  param {
    lr_mult: 0
  }
  batch_norm_param {
    use_global_stats: false
  }
}
layer {
  name: "scale1_1"
  type: "Scale"
  bottom: "conv1_1"
  top: "conv1_1"
  param {
    lr_mult: 1
    decay_mult: 1
  }
  param {
    lr_mult: 1
    decay_mult: 1
  }
  scale_param {
    bias_term: true
    bias_filler {
      type: "constant"
      value: 0
    }
  }
}
layer {
  name: "relu1_1"
  type: "ReLU"
  bottom: "conv1_1"
  top: "conv1_1"
}
layer {
  name: "conv1_2"
  type: "Convolution"
  bottom: "conv1_1"
  top: "conv1_2"
  param {
    lr_mult: 1
    decay_mult: 1
  }
  convolution_param {
    num_output: 32
    bias_term: false
    pad: 1
    kernel_size: 3
    weight_filler {
      type: "xavier"
    }
  }
}
layer {
  name: "bn1_2"
  type: "BatchNorm"
  bottom: "conv1_2"
  top: "conv1_2"
  param {
    lr_mult: 0
  }
  param {
    lr_mult: 0
  }
  param {
    lr_mult: 0
  }
  batch_norm_param {
    use_global_stats: false
  }
}
layer {
  name: "scale1_2"
  type: "Scale"
  bottom: "conv1_2"
  top: "conv1_2"
  param {
    lr_mult: 1
    decay_mult: 1
  }
  param {
    lr_mult: 1
    decay_mult: 1
  }
  scale_param {
    bias_term: true
    bias_filler {
      type: "constant"
      value: 0
    }
  }
}
layer {
  name: "relu1_2"
  type: "ReLU"
  bottom: "conv1_2"
  top: "conv1_2"
}
layer {
  name: "pool1"
  type: "Pooling"
  bottom: "conv1_2"
  top: "pool1"
  pooling_param {
    pool: MAX
    kernel_size: 2
    stride: 2
  }
}
layer {
  name: "conv2_1"
  type: "Convolution"
  bottom: "pool1"
  top: "conv2_1"
  param {
    lr_mult: 1
    decay_mult: 1
  }
  convolution_param {
    num_output: 64
    bias_term: false
    pad: 1
    kernel_size: 3
    weight_filler {
      type: "xavier"
    }
  }
}
layer {
  name: "bn2_1"
  type: "BatchNorm"
  bottom: "conv2_1"
  top: "conv2_1"
  param {
    lr_mult: 0
  }
  param {
    lr_mult: 0
  }
  param {
    lr_mult: 0
  }
  batch_norm_param {
    use_global_stats: false
  }
}
layer {
  name: "scale2_1"
  type: "Scale"
  bottom: "conv2_1"
  top: "conv2_1"
  param {
    lr_mult: 1
    decay_mult: 1
  }
  param {
    lr_mult: 1
    decay_mult: 1
  }
  scale_param {
    bias_term: true
    bias_filler {
      type: "constant"
      value: 0
    }
  }
}
layer {
  name: "relu2_1"
  type: "ReLU"
  bottom: "conv2_1"
  top: "conv2_1"
}
layer {
  name: "conv2_2"
  type: "Convolution"
  bottom: "conv2_1"
  top: "conv2_2"
  param {
    lr_mult: 1
    decay_mult: 1
  }
  convolution_param {
    num_output: 64
    bias_term: false
    pad: 1
    kernel_size: 3
    weight_filler {
      type: "xavier"
    }
  }
}
layer {
  name: "bn2_2"
  type: "BatchNorm"
  bottom: "conv2_2"
  top: "conv2_2"
  param {
    lr_mult: 0
  }
  param {
    lr_mult: 0
  }
  param {
    lr_mult: 0
  }
  batch_norm_param {
    use_global_stats: false
  }
}
layer {
  name: "scale2_2"
  type: "Scale"
  bottom: "conv2_2"
  top: "conv2_2"
  param {
    lr_mult: 1
    decay_mult: 1
  }
  param {
    lr_mult: 1
    decay_mult: 1
  }
  scale_param {
    bias_term: true
    bias_filler {
      type: "constant"
      value: 0
    }
  }
}
layer {
  name: "relu2_2"
  type: "ReLU"
  bottom: "conv2_2"
  top: "conv2_2"
}
layer {
  name: "pool2"
  type: "Pooling"
  bottom: "conv2_2"
  top: "pool2"
  pooling_param {
    pool: MAX
    kernel_size: 2
    stride: 2
  }
}
layer {
  name: "conv3_1"
  type: "Convolution"
  bottom: "pool2"
  top: "conv3_1"
  param {
    lr_mult: 1
    decay_mult: 1
  }
  convolution_param {
    num_output: 128
    bias_term: false
    pad: 1
    kernel_size: 3
    weight_filler {
      type: "xavier"
    }
  }
}
layer {
  name: "bn3_1"
  type: "BatchNorm"
  bottom: "conv3_1"
  top: "conv3_1"
  param {
    lr_mult: 0
  }
  param {
    lr_mult: 0
  }
  param {
    lr_mult: 0
  }
  batch_norm_param {
    use_global_stats: false
  }
}
layer {
  name: "scale3_1"
  type: "Scale"
  bottom: "conv3_1"
  top: "conv3_1"
  param {
    lr_mult: 1
    decay_mult: 1
  }
  param {
    lr_mult: 1
    decay_mult: 1
  }
  scale_param {
    bias_term: true
    bias_filler {
      type: "constant"
      value: 0
    }
  }
}
layer {
  name: "relu3_1"
  type: "ReLU"
  bottom: "conv3_1"
  top: "conv3_1"
}
layer {
  name: "conv3_2"
  type: "Convolution"
  bottom: "conv3_1"
  top: "conv3_2"
  param {
    lr_mult: 1
    decay_mult: 1
  }
  convolution_param {
    num_output: 128
    bias_term: false
    pad: 1
    kernel_size: 3
    weight_filler {
      type: "xavier"
    }
  }
}
layer {
  name: "bn3_2"
  type: "BatchNorm"
  bottom: "conv3_2"
  top: "conv3_2"
  param {
    lr_mult: 0
  }
  param {
    lr_mult: 0
  }
  param {
    lr_mult: 0
  }
  batch_norm_param {
    use_global_stats: false
  }
}
layer {
  name: "scale3_2"
  type: "Scale"
  bottom: "conv3_2"
  top: "conv3_2"
  param {
    lr_mult: 1
    decay_mult: 1
  }
  param {
    lr_mult: 1
    decay_mult: 1
  }
  scale_param {
    bias_term: true
    bias_filler {
      type: "constant"
      value: 0
    }
  }
}
layer {
  name: "relu3_2"
  type: "ReLU"
  bottom: "conv3_2"
  top: "conv3_2"
}
layer {
  name: "pool3"
  type: "Pooling"
  bottom: "conv3_2"
  top: "pool3"
  pooling_param {
    pool: MAX
    kernel_size: 2
    stride: 2
  }
}
layer {
  name: "conv4_1"
  type: "Convolution"
  bottom: "pool3"
  top: "conv4_1"
  param {
    lr_mult: 1
    decay_mult: 1
  }
  convolution_param {
    num_output: 256
    bias_term: false
    pad: 1
    kernel_size: 3
    weight_filler {
      type: "xavier"
    }
  }
}
layer {
  name: "bn4_1"
  type: "BatchNorm"
  bottom: "conv4_1"
  top: "conv4_1"
  param {
    lr_mult: 0
  }
  param {
    lr_mult: 0
  }
  param {
    lr_mult: 0
  }
  batch_norm_param {
    use_global_stats: false
  }
}
layer {
  name: "scale4_1"
  type: "Scale"
  bottom: "conv4_1"
  top: "conv4_1"
  param {
    lr_mult: 1
    decay_mult: 1
  }
  param {
    lr_mult: 1
    decay_mult: 1
  }
  scale_param {
    bias_term: true
    bias_filler {
      type: "constant"
      value: 0
    }
  }
}
layer {
  name: "relu4_1"
  type: "ReLU"
  bottom: "conv4_1"
  top: "conv4_1"
}
layer {
  name: "conv4_2"
  type: "Convolution"
  bottom: "conv4_1"
  top: "conv4_2"
  param {
    lr_mult: 1
    decay_mult: 1
  }
  convolution_param {
    num_output: 256
    bias_term: false
    pad: 1
    kernel_size: 3
    weight_filler {
      type: "xavier"
    }
  }
}
layer {
  name: "bn4_2"
  type: "BatchNorm"
  bottom: "conv4_2"
  top: "conv4_2"
  param {
    lr_mult: 0
  }
  param {
    lr_mult: 0
  }
  param {
    lr_mult: 0
  }
  batch_norm_param {
    use_global_stats: false
  }
}
layer {
  name: "scale4_2"
  type: "Scale"
  bottom: "conv4_2"
  top: "conv4_2"
  param {
    lr_mult: 1
    decay_mult: 1
  }
  param {
    lr_mult: 1
    decay_mult: 1
  }
  scale_param {
    bias_term: true
    bias_filler {
      type: "constant"
      value: 0
    }
  }
}
layer {
  name: "relu4_2"
  type: "ReLU"
  bottom: "conv4_2"
  top: "conv4_2"
}
layer {
  name: "pool4"
  type: "Pooling"
  bottom: "conv4_2"
  top: "pool4"
  pooling_param {
    pool: MAX
    kernel_size: 2
    stride: 2
  }
}
layer {
  name: "conv5_1"
  type: "Convolution"
  bottom: "pool4"
  top: "conv5_1"
  param {
    lr_mult: 1
    decay_mult: 1
  }
  convolution_param {
    num_output: 256
    bias_term: false
    pad: 1
    kernel_size: 3
    weight_filler {
      type: "xavier"
    }
  }
}
layer {
  name: "bn5_1"
  type: "BatchNorm"
  bottom: "conv5_1"
  top: "conv5_1"
  param {
    lr_mult: 0
  }
  param {
    lr_mult: 0
  }
  param {
    lr_mult: 0
  }
  batch_norm_param {
    use_global_stats: false
  }
}
layer {
  name: "scale5_1"
  type: "Scale"
  bottom: "conv5_1"
  top: "conv5_1"
  param {
    lr_mult: 1
    decay_mult: 1
  }
  param {
    lr_mult: 1
    decay_mult: 1
  }
  scale_param {
    bias_term: true
    bias_filler {
      type: "constant"
      value: 0
    }
  }
}
layer {
  name: "relu5_1"
  type: "ReLU"
  bottom: "conv5_1"
  top: "conv5_1"
}
layer {
  name: "conv5_2"
  type: "Convolution"
  bottom: "conv5_1"
  top: "conv5_2"
  param {
    lr_mult: 1
    decay_mult: 1
  }
  convolution_param {
    num_output: 256
    bias_term: false
    pad: 1
    kernel_size: 3
    weight_filler {
      type: "xavier"
    }
  }
}
layer {
  name: "bn5_2"
  type: "BatchNorm"
  bottom: "conv5_2"
  top: "conv5_2"
  param {
    lr_mult: 0
  }
  param {
    lr_mult: 0
  }
  param {
    lr_mult: 0
  }
  batch_norm_param {
    use_global_stats: false
  }
}
layer {
  name: "scale5_2"
  type: "Scale"
  bottom: "conv5_2"
  top: "conv5_2"
  param {
    lr_mult: 1
    decay_mult: 1
  }
  param {
    lr_mult: 1
    decay_mult: 1
  }
  scale_param {
    bias_term: true
    bias_filler {
      type: "constant"
      value: 0
    }
  }
}
layer {
  name: "relu5_2"
  type: "ReLU"
  bottom: "conv5_2"
  top: "conv5_2"
}
layer {
  name: "pool5"
  type: "Pooling"
  bottom: "conv5_2"
  top: "pool5"
  pooling_param {
    pool: AVE
    kernel_size: 7
    stride: 1
  }
}
layer {
  name: "fc2"
  type: "InnerProduct"
  bottom: "pool5"
  top: "fc2"
  inner_product_param {
    num_output: 2
  }
}
layer {
  name: "loss"
  type: "SoftmaxWithLoss"
  bottom: "fc2"
  bottom: "label"
  top: "loss"
}
layer {
  name: "accuracy"
  type: "Accuracy"
  bottom: "fc2"
  bottom: "label"
  top: "accuracy"
}
I0624 16:32:52.584806 21043 layer_factory.hpp:77] Creating layer data
I0624 16:32:52.585368 21043 net.cpp:91] Creating Layer data
I0624 16:32:52.585378 21043 net.cpp:399] data -> data
I0624 16:32:52.585399 21043 net.cpp:399] data -> label
I0624 16:32:52.586006 21050 db_lmdb.cpp:35] Opened lmdb data/train_lmdb
I0624 16:32:52.609390 21043 data_layer.cpp:42] output data size: 32,3,224,224
I0624 16:32:52.647997 21043 net.cpp:141] Setting up data
I0624 16:32:52.648028 21043 net.cpp:148] Top shape: 32 3 224 224 (4816896)
I0624 16:32:52.648032 21043 net.cpp:148] Top shape: 32 (32)
I0624 16:32:52.648036 21043 net.cpp:156] Memory required for data: 19267712
I0624 16:32:52.648043 21043 layer_factory.hpp:77] Creating layer label_data_1_split
I0624 16:32:52.648058 21043 net.cpp:91] Creating Layer label_data_1_split
I0624 16:32:52.648063 21043 net.cpp:425] label_data_1_split <- label
I0624 16:32:52.648072 21043 net.cpp:399] label_data_1_split -> label_data_1_split_0
I0624 16:32:52.648080 21043 net.cpp:399] label_data_1_split -> label_data_1_split_1
I0624 16:32:52.648123 21043 net.cpp:141] Setting up label_data_1_split
I0624 16:32:52.648134 21043 net.cpp:148] Top shape: 32 (32)
I0624 16:32:52.648139 21043 net.cpp:148] Top shape: 32 (32)
I0624 16:32:52.648144 21043 net.cpp:156] Memory required for data: 19267968
I0624 16:32:52.648147 21043 layer_factory.hpp:77] Creating layer conv1_1
I0624 16:32:52.648166 21043 net.cpp:91] Creating Layer conv1_1
I0624 16:32:52.648174 21043 net.cpp:425] conv1_1 <- data
I0624 16:32:52.648180 21043 net.cpp:399] conv1_1 -> conv1_1
I0624 16:32:52.830546 21043 net.cpp:141] Setting up conv1_1
I0624 16:32:52.830572 21043 net.cpp:148] Top shape: 32 32 112 112 (12845056)
I0624 16:32:52.830580 21043 net.cpp:156] Memory required for data: 70648192
I0624 16:32:52.830591 21043 layer_factory.hpp:77] Creating layer bn1_1
I0624 16:32:52.830602 21043 net.cpp:91] Creating Layer bn1_1
I0624 16:32:52.830607 21043 net.cpp:425] bn1_1 <- conv1_1
I0624 16:32:52.830612 21043 net.cpp:386] bn1_1 -> conv1_1 (in-place)
I0624 16:32:52.830790 21043 net.cpp:141] Setting up bn1_1
I0624 16:32:52.830799 21043 net.cpp:148] Top shape: 32 32 112 112 (12845056)
I0624 16:32:52.830801 21043 net.cpp:156] Memory required for data: 122028416
I0624 16:32:52.830812 21043 layer_factory.hpp:77] Creating layer scale1_1
I0624 16:32:52.830828 21043 net.cpp:91] Creating Layer scale1_1
I0624 16:32:52.830833 21043 net.cpp:425] scale1_1 <- conv1_1
I0624 16:32:52.830839 21043 net.cpp:386] scale1_1 -> conv1_1 (in-place)
I0624 16:32:52.830878 21043 layer_factory.hpp:77] Creating layer scale1_1
I0624 16:32:52.830988 21043 net.cpp:141] Setting up scale1_1
I0624 16:32:52.830997 21043 net.cpp:148] Top shape: 32 32 112 112 (12845056)
I0624 16:32:52.831001 21043 net.cpp:156] Memory required for data: 173408640
I0624 16:32:52.831007 21043 layer_factory.hpp:77] Creating layer relu1_1
I0624 16:32:52.831013 21043 net.cpp:91] Creating Layer relu1_1
I0624 16:32:52.831018 21043 net.cpp:425] relu1_1 <- conv1_1
I0624 16:32:52.831024 21043 net.cpp:386] relu1_1 -> conv1_1 (in-place)
I0624 16:32:52.831167 21043 net.cpp:141] Setting up relu1_1
I0624 16:32:52.831177 21043 net.cpp:148] Top shape: 32 32 112 112 (12845056)
I0624 16:32:52.831181 21043 net.cpp:156] Memory required for data: 224788864
I0624 16:32:52.831183 21043 layer_factory.hpp:77] Creating layer conv1_2
I0624 16:32:52.831193 21043 net.cpp:91] Creating Layer conv1_2
I0624 16:32:52.831202 21043 net.cpp:425] conv1_2 <- conv1_1
I0624 16:32:52.831210 21043 net.cpp:399] conv1_2 -> conv1_2
I0624 16:32:52.831971 21043 net.cpp:141] Setting up conv1_2
I0624 16:32:52.831984 21043 net.cpp:148] Top shape: 32 32 112 112 (12845056)
I0624 16:32:52.831993 21043 net.cpp:156] Memory required for data: 276169088
I0624 16:32:52.831997 21043 layer_factory.hpp:77] Creating layer bn1_2
I0624 16:32:52.832003 21043 net.cpp:91] Creating Layer bn1_2
I0624 16:32:52.832005 21043 net.cpp:425] bn1_2 <- conv1_2
I0624 16:32:52.832010 21043 net.cpp:386] bn1_2 -> conv1_2 (in-place)
I0624 16:32:52.832154 21043 net.cpp:141] Setting up bn1_2
I0624 16:32:52.832162 21043 net.cpp:148] Top shape: 32 32 112 112 (12845056)
I0624 16:32:52.832165 21043 net.cpp:156] Memory required for data: 327549312
I0624 16:32:52.832172 21043 layer_factory.hpp:77] Creating layer scale1_2
I0624 16:32:52.832181 21043 net.cpp:91] Creating Layer scale1_2
I0624 16:32:52.832186 21043 net.cpp:425] scale1_2 <- conv1_2
I0624 16:32:52.832192 21043 net.cpp:386] scale1_2 -> conv1_2 (in-place)
I0624 16:32:52.832233 21043 layer_factory.hpp:77] Creating layer scale1_2
I0624 16:32:52.832340 21043 net.cpp:141] Setting up scale1_2
I0624 16:32:52.832347 21043 net.cpp:148] Top shape: 32 32 112 112 (12845056)
I0624 16:32:52.832350 21043 net.cpp:156] Memory required for data: 378929536
I0624 16:32:52.832353 21043 layer_factory.hpp:77] Creating layer relu1_2
I0624 16:32:52.832360 21043 net.cpp:91] Creating Layer relu1_2
I0624 16:32:52.832363 21043 net.cpp:425] relu1_2 <- conv1_2
I0624 16:32:52.832368 21043 net.cpp:386] relu1_2 -> conv1_2 (in-place)
I0624 16:32:52.832499 21043 net.cpp:141] Setting up relu1_2
I0624 16:32:52.832507 21043 net.cpp:148] Top shape: 32 32 112 112 (12845056)
I0624 16:32:52.832510 21043 net.cpp:156] Memory required for data: 430309760
I0624 16:32:52.832514 21043 layer_factory.hpp:77] Creating layer pool1
I0624 16:32:52.832520 21043 net.cpp:91] Creating Layer pool1
I0624 16:32:52.832523 21043 net.cpp:425] pool1 <- conv1_2
I0624 16:32:52.832530 21043 net.cpp:399] pool1 -> pool1
I0624 16:32:52.832581 21043 net.cpp:141] Setting up pool1
I0624 16:32:52.832604 21043 net.cpp:148] Top shape: 32 32 56 56 (3211264)
I0624 16:32:52.832619 21043 net.cpp:156] Memory required for data: 443154816
I0624 16:32:52.832623 21043 layer_factory.hpp:77] Creating layer conv2_1
I0624 16:32:52.832633 21043 net.cpp:91] Creating Layer conv2_1
I0624 16:32:52.832636 21043 net.cpp:425] conv2_1 <- pool1
I0624 16:32:52.832643 21043 net.cpp:399] conv2_1 -> conv2_1
I0624 16:32:52.834451 21043 net.cpp:141] Setting up conv2_1
I0624 16:32:52.834463 21043 net.cpp:148] Top shape: 32 64 56 56 (6422528)
I0624 16:32:52.834466 21043 net.cpp:156] Memory required for data: 468844928
I0624 16:32:52.834470 21043 layer_factory.hpp:77] Creating layer bn2_1
I0624 16:32:52.834475 21043 net.cpp:91] Creating Layer bn2_1
I0624 16:32:52.834480 21043 net.cpp:425] bn2_1 <- conv2_1
I0624 16:32:52.834483 21043 net.cpp:386] bn2_1 -> conv2_1 (in-place)
I0624 16:32:52.835628 21043 net.cpp:141] Setting up bn2_1
I0624 16:32:52.835640 21043 net.cpp:148] Top shape: 32 64 56 56 (6422528)
I0624 16:32:52.835644 21043 net.cpp:156] Memory required for data: 494535040
I0624 16:32:52.835649 21043 layer_factory.hpp:77] Creating layer scale2_1
I0624 16:32:52.835655 21043 net.cpp:91] Creating Layer scale2_1
I0624 16:32:52.835657 21043 net.cpp:425] scale2_1 <- conv2_1
I0624 16:32:52.835661 21043 net.cpp:386] scale2_1 -> conv2_1 (in-place)
I0624 16:32:52.835698 21043 layer_factory.hpp:77] Creating layer scale2_1
I0624 16:32:52.835794 21043 net.cpp:141] Setting up scale2_1
I0624 16:32:52.835803 21043 net.cpp:148] Top shape: 32 64 56 56 (6422528)
I0624 16:32:52.835804 21043 net.cpp:156] Memory required for data: 520225152
I0624 16:32:52.835814 21043 layer_factory.hpp:77] Creating layer relu2_1
I0624 16:32:52.835822 21043 net.cpp:91] Creating Layer relu2_1
I0624 16:32:52.835829 21043 net.cpp:425] relu2_1 <- conv2_1
I0624 16:32:52.835836 21043 net.cpp:386] relu2_1 -> conv2_1 (in-place)
I0624 16:32:52.836181 21043 net.cpp:141] Setting up relu2_1
I0624 16:32:52.836192 21043 net.cpp:148] Top shape: 32 64 56 56 (6422528)
I0624 16:32:52.836195 21043 net.cpp:156] Memory required for data: 545915264
I0624 16:32:52.836199 21043 layer_factory.hpp:77] Creating layer conv2_2
I0624 16:32:52.836205 21043 net.cpp:91] Creating Layer conv2_2
I0624 16:32:52.836208 21043 net.cpp:425] conv2_2 <- conv2_1
I0624 16:32:52.836213 21043 net.cpp:399] conv2_2 -> conv2_2
I0624 16:32:52.836915 21043 net.cpp:141] Setting up conv2_2
I0624 16:32:52.836925 21043 net.cpp:148] Top shape: 32 64 56 56 (6422528)
I0624 16:32:52.836936 21043 net.cpp:156] Memory required for data: 571605376
I0624 16:32:52.836941 21043 layer_factory.hpp:77] Creating layer bn2_2
I0624 16:32:52.836947 21043 net.cpp:91] Creating Layer bn2_2
I0624 16:32:52.836949 21043 net.cpp:425] bn2_2 <- conv2_2
I0624 16:32:52.836953 21043 net.cpp:386] bn2_2 -> conv2_2 (in-place)
I0624 16:32:52.837095 21043 net.cpp:141] Setting up bn2_2
I0624 16:32:52.837103 21043 net.cpp:148] Top shape: 32 64 56 56 (6422528)
I0624 16:32:52.837105 21043 net.cpp:156] Memory required for data: 597295488
I0624 16:32:52.837113 21043 layer_factory.hpp:77] Creating layer scale2_2
I0624 16:32:52.837123 21043 net.cpp:91] Creating Layer scale2_2
I0624 16:32:52.837129 21043 net.cpp:425] scale2_2 <- conv2_2
I0624 16:32:52.837136 21043 net.cpp:386] scale2_2 -> conv2_2 (in-place)
I0624 16:32:52.837173 21043 layer_factory.hpp:77] Creating layer scale2_2
I0624 16:32:52.837266 21043 net.cpp:141] Setting up scale2_2
I0624 16:32:52.837273 21043 net.cpp:148] Top shape: 32 64 56 56 (6422528)
I0624 16:32:52.837275 21043 net.cpp:156] Memory required for data: 622985600
I0624 16:32:52.837281 21043 layer_factory.hpp:77] Creating layer relu2_2
I0624 16:32:52.837291 21043 net.cpp:91] Creating Layer relu2_2
I0624 16:32:52.837296 21043 net.cpp:425] relu2_2 <- conv2_2
I0624 16:32:52.837302 21043 net.cpp:386] relu2_2 -> conv2_2 (in-place)
I0624 16:32:52.837638 21043 net.cpp:141] Setting up relu2_2
I0624 16:32:52.837649 21043 net.cpp:148] Top shape: 32 64 56 56 (6422528)
I0624 16:32:52.837651 21043 net.cpp:156] Memory required for data: 648675712
I0624 16:32:52.837654 21043 layer_factory.hpp:77] Creating layer pool2
I0624 16:32:52.837668 21043 net.cpp:91] Creating Layer pool2
I0624 16:32:52.837671 21043 net.cpp:425] pool2 <- conv2_2
I0624 16:32:52.837676 21043 net.cpp:399] pool2 -> pool2
I0624 16:32:52.837715 21043 net.cpp:141] Setting up pool2
I0624 16:32:52.837725 21043 net.cpp:148] Top shape: 32 64 28 28 (1605632)
I0624 16:32:52.837728 21043 net.cpp:156] Memory required for data: 655098240
I0624 16:32:52.837733 21043 layer_factory.hpp:77] Creating layer conv3_1
I0624 16:32:52.837743 21043 net.cpp:91] Creating Layer conv3_1
I0624 16:32:52.837749 21043 net.cpp:425] conv3_1 <- pool2
I0624 16:32:52.837755 21043 net.cpp:399] conv3_1 -> conv3_1
I0624 16:32:52.839859 21043 net.cpp:141] Setting up conv3_1
I0624 16:32:52.839874 21043 net.cpp:148] Top shape: 32 128 28 28 (3211264)
I0624 16:32:52.839876 21043 net.cpp:156] Memory required for data: 667943296
I0624 16:32:52.839880 21043 layer_factory.hpp:77] Creating layer bn3_1
I0624 16:32:52.839886 21043 net.cpp:91] Creating Layer bn3_1
I0624 16:32:52.839890 21043 net.cpp:425] bn3_1 <- conv3_1
I0624 16:32:52.839893 21043 net.cpp:386] bn3_1 -> conv3_1 (in-place)
I0624 16:32:52.841012 21043 net.cpp:141] Setting up bn3_1
I0624 16:32:52.841023 21043 net.cpp:148] Top shape: 32 128 28 28 (3211264)
I0624 16:32:52.841027 21043 net.cpp:156] Memory required for data: 680788352
I0624 16:32:52.841032 21043 layer_factory.hpp:77] Creating layer scale3_1
I0624 16:32:52.841038 21043 net.cpp:91] Creating Layer scale3_1
I0624 16:32:52.841040 21043 net.cpp:425] scale3_1 <- conv3_1
I0624 16:32:52.841044 21043 net.cpp:386] scale3_1 -> conv3_1 (in-place)
I0624 16:32:52.841080 21043 layer_factory.hpp:77] Creating layer scale3_1
I0624 16:32:52.841172 21043 net.cpp:141] Setting up scale3_1
I0624 16:32:52.841181 21043 net.cpp:148] Top shape: 32 128 28 28 (3211264)
I0624 16:32:52.841183 21043 net.cpp:156] Memory required for data: 693633408
I0624 16:32:52.841189 21043 layer_factory.hpp:77] Creating layer relu3_1
I0624 16:32:52.841198 21043 net.cpp:91] Creating Layer relu3_1
I0624 16:32:52.841204 21043 net.cpp:425] relu3_1 <- conv3_1
I0624 16:32:52.841210 21043 net.cpp:386] relu3_1 -> conv3_1 (in-place)
I0624 16:32:52.841346 21043 net.cpp:141] Setting up relu3_1
I0624 16:32:52.841354 21043 net.cpp:148] Top shape: 32 128 28 28 (3211264)
I0624 16:32:52.841356 21043 net.cpp:156] Memory required for data: 706478464
I0624 16:32:52.841361 21043 layer_factory.hpp:77] Creating layer conv3_2
I0624 16:32:52.841370 21043 net.cpp:91] Creating Layer conv3_2
I0624 16:32:52.841377 21043 net.cpp:425] conv3_2 <- conv3_1
I0624 16:32:52.841383 21043 net.cpp:399] conv3_2 -> conv3_2
I0624 16:32:52.843106 21043 net.cpp:141] Setting up conv3_2
I0624 16:32:52.843117 21043 net.cpp:148] Top shape: 32 128 28 28 (3211264)
I0624 16:32:52.843121 21043 net.cpp:156] Memory required for data: 719323520
I0624 16:32:52.843124 21043 layer_factory.hpp:77] Creating layer bn3_2
I0624 16:32:52.843130 21043 net.cpp:91] Creating Layer bn3_2
I0624 16:32:52.843133 21043 net.cpp:425] bn3_2 <- conv3_2
I0624 16:32:52.843137 21043 net.cpp:386] bn3_2 -> conv3_2 (in-place)
I0624 16:32:52.843291 21043 net.cpp:141] Setting up bn3_2
I0624 16:32:52.843299 21043 net.cpp:148] Top shape: 32 128 28 28 (3211264)
I0624 16:32:52.843302 21043 net.cpp:156] Memory required for data: 732168576
I0624 16:32:52.843314 21043 layer_factory.hpp:77] Creating layer scale3_2
I0624 16:32:52.843325 21043 net.cpp:91] Creating Layer scale3_2
I0624 16:32:52.843329 21043 net.cpp:425] scale3_2 <- conv3_2
I0624 16:32:52.843336 21043 net.cpp:386] scale3_2 -> conv3_2 (in-place)
I0624 16:32:52.843379 21043 layer_factory.hpp:77] Creating layer scale3_2
I0624 16:32:52.843466 21043 net.cpp:141] Setting up scale3_2
I0624 16:32:52.843474 21043 net.cpp:148] Top shape: 32 128 28 28 (3211264)
I0624 16:32:52.843477 21043 net.cpp:156] Memory required for data: 745013632
I0624 16:32:52.843482 21043 layer_factory.hpp:77] Creating layer relu3_2
I0624 16:32:52.843489 21043 net.cpp:91] Creating Layer relu3_2
I0624 16:32:52.843495 21043 net.cpp:425] relu3_2 <- conv3_2
I0624 16:32:52.843502 21043 net.cpp:386] relu3_2 -> conv3_2 (in-place)
I0624 16:32:52.843657 21043 net.cpp:141] Setting up relu3_2
I0624 16:32:52.843667 21043 net.cpp:148] Top shape: 32 128 28 28 (3211264)
I0624 16:32:52.843668 21043 net.cpp:156] Memory required for data: 757858688
I0624 16:32:52.843672 21043 layer_factory.hpp:77] Creating layer pool3
I0624 16:32:52.843677 21043 net.cpp:91] Creating Layer pool3
I0624 16:32:52.843682 21043 net.cpp:425] pool3 <- conv3_2
I0624 16:32:52.843688 21043 net.cpp:399] pool3 -> pool3
I0624 16:32:52.843731 21043 net.cpp:141] Setting up pool3
I0624 16:32:52.843739 21043 net.cpp:148] Top shape: 32 128 14 14 (802816)
I0624 16:32:52.843740 21043 net.cpp:156] Memory required for data: 761069952
I0624 16:32:52.843744 21043 layer_factory.hpp:77] Creating layer conv4_1
I0624 16:32:52.843751 21043 net.cpp:91] Creating Layer conv4_1
I0624 16:32:52.843755 21043 net.cpp:425] conv4_1 <- pool3
I0624 16:32:52.843762 21043 net.cpp:399] conv4_1 -> conv4_1
I0624 16:32:52.846339 21043 net.cpp:141] Setting up conv4_1
I0624 16:32:52.846351 21043 net.cpp:148] Top shape: 32 256 14 14 (1605632)
I0624 16:32:52.846354 21043 net.cpp:156] Memory required for data: 767492480
I0624 16:32:52.846359 21043 layer_factory.hpp:77] Creating layer bn4_1
I0624 16:32:52.846364 21043 net.cpp:91] Creating Layer bn4_1
I0624 16:32:52.846367 21043 net.cpp:425] bn4_1 <- conv4_1
I0624 16:32:52.846371 21043 net.cpp:386] bn4_1 -> conv4_1 (in-place)
I0624 16:32:52.846524 21043 net.cpp:141] Setting up bn4_1
I0624 16:32:52.846531 21043 net.cpp:148] Top shape: 32 256 14 14 (1605632)
I0624 16:32:52.846534 21043 net.cpp:156] Memory required for data: 773915008
I0624 16:32:52.846540 21043 layer_factory.hpp:77] Creating layer scale4_1
I0624 16:32:52.846549 21043 net.cpp:91] Creating Layer scale4_1
I0624 16:32:52.846552 21043 net.cpp:425] scale4_1 <- conv4_1
I0624 16:32:52.846559 21043 net.cpp:386] scale4_1 -> conv4_1 (in-place)
I0624 16:32:52.846601 21043 layer_factory.hpp:77] Creating layer scale4_1
I0624 16:32:52.846689 21043 net.cpp:141] Setting up scale4_1
I0624 16:32:52.846696 21043 net.cpp:148] Top shape: 32 256 14 14 (1605632)
I0624 16:32:52.846698 21043 net.cpp:156] Memory required for data: 780337536
I0624 16:32:52.846704 21043 layer_factory.hpp:77] Creating layer relu4_1
I0624 16:32:52.846711 21043 net.cpp:91] Creating Layer relu4_1
I0624 16:32:52.846716 21043 net.cpp:425] relu4_1 <- conv4_1
I0624 16:32:52.846722 21043 net.cpp:386] relu4_1 -> conv4_1 (in-place)
I0624 16:32:52.846863 21043 net.cpp:141] Setting up relu4_1
I0624 16:32:52.846871 21043 net.cpp:148] Top shape: 32 256 14 14 (1605632)
I0624 16:32:52.846873 21043 net.cpp:156] Memory required for data: 786760064
I0624 16:32:52.846876 21043 layer_factory.hpp:77] Creating layer conv4_2
I0624 16:32:52.846884 21043 net.cpp:91] Creating Layer conv4_2
I0624 16:32:52.846889 21043 net.cpp:425] conv4_2 <- conv4_1
I0624 16:32:52.846896 21043 net.cpp:399] conv4_2 -> conv4_2
I0624 16:32:52.852195 21043 net.cpp:141] Setting up conv4_2
I0624 16:32:52.852206 21043 net.cpp:148] Top shape: 32 256 14 14 (1605632)
I0624 16:32:52.852210 21043 net.cpp:156] Memory required for data: 793182592
I0624 16:32:52.852213 21043 layer_factory.hpp:77] Creating layer bn4_2
I0624 16:32:52.852219 21043 net.cpp:91] Creating Layer bn4_2
I0624 16:32:52.852222 21043 net.cpp:425] bn4_2 <- conv4_2
I0624 16:32:52.852226 21043 net.cpp:386] bn4_2 -> conv4_2 (in-place)
I0624 16:32:52.852375 21043 net.cpp:141] Setting up bn4_2
I0624 16:32:52.852383 21043 net.cpp:148] Top shape: 32 256 14 14 (1605632)
I0624 16:32:52.852385 21043 net.cpp:156] Memory required for data: 799605120
I0624 16:32:52.852393 21043 layer_factory.hpp:77] Creating layer scale4_2
I0624 16:32:52.852404 21043 net.cpp:91] Creating Layer scale4_2
I0624 16:32:52.852411 21043 net.cpp:425] scale4_2 <- conv4_2
I0624 16:32:52.852417 21043 net.cpp:386] scale4_2 -> conv4_2 (in-place)
I0624 16:32:52.852471 21043 layer_factory.hpp:77] Creating layer scale4_2
I0624 16:32:52.852560 21043 net.cpp:141] Setting up scale4_2
I0624 16:32:52.852567 21043 net.cpp:148] Top shape: 32 256 14 14 (1605632)
I0624 16:32:52.852584 21043 net.cpp:156] Memory required for data: 806027648
I0624 16:32:52.852592 21043 layer_factory.hpp:77] Creating layer relu4_2
I0624 16:32:52.852599 21043 net.cpp:91] Creating Layer relu4_2
I0624 16:32:52.852604 21043 net.cpp:425] relu4_2 <- conv4_2
I0624 16:32:52.852610 21043 net.cpp:386] relu4_2 -> conv4_2 (in-place)
I0624 16:32:52.852754 21043 net.cpp:141] Setting up relu4_2
I0624 16:32:52.852763 21043 net.cpp:148] Top shape: 32 256 14 14 (1605632)
I0624 16:32:52.852766 21043 net.cpp:156] Memory required for data: 812450176
I0624 16:32:52.852768 21043 layer_factory.hpp:77] Creating layer pool4
I0624 16:32:52.852774 21043 net.cpp:91] Creating Layer pool4
I0624 16:32:52.852778 21043 net.cpp:425] pool4 <- conv4_2
I0624 16:32:52.852784 21043 net.cpp:399] pool4 -> pool4
I0624 16:32:52.852829 21043 net.cpp:141] Setting up pool4
I0624 16:32:52.852836 21043 net.cpp:148] Top shape: 32 256 7 7 (401408)
I0624 16:32:52.852839 21043 net.cpp:156] Memory required for data: 814055808
I0624 16:32:52.852841 21043 layer_factory.hpp:77] Creating layer conv5_1
I0624 16:32:52.852849 21043 net.cpp:91] Creating Layer conv5_1
I0624 16:32:52.852854 21043 net.cpp:425] conv5_1 <- pool4
I0624 16:32:52.852860 21043 net.cpp:399] conv5_1 -> conv5_1
I0624 16:32:52.858059 21043 net.cpp:141] Setting up conv5_1
I0624 16:32:52.858072 21043 net.cpp:148] Top shape: 32 256 7 7 (401408)
I0624 16:32:52.858074 21043 net.cpp:156] Memory required for data: 815661440
I0624 16:32:52.858079 21043 layer_factory.hpp:77] Creating layer bn5_1
I0624 16:32:52.858084 21043 net.cpp:91] Creating Layer bn5_1
I0624 16:32:52.858088 21043 net.cpp:425] bn5_1 <- conv5_1
I0624 16:32:52.858091 21043 net.cpp:386] bn5_1 -> conv5_1 (in-place)
I0624 16:32:52.858244 21043 net.cpp:141] Setting up bn5_1
I0624 16:32:52.858253 21043 net.cpp:148] Top shape: 32 256 7 7 (401408)
I0624 16:32:52.858255 21043 net.cpp:156] Memory required for data: 817267072
I0624 16:32:52.858263 21043 layer_factory.hpp:77] Creating layer scale5_1
I0624 16:32:52.858273 21043 net.cpp:91] Creating Layer scale5_1
I0624 16:32:52.858279 21043 net.cpp:425] scale5_1 <- conv5_1
I0624 16:32:52.858285 21043 net.cpp:386] scale5_1 -> conv5_1 (in-place)
I0624 16:32:52.858325 21043 layer_factory.hpp:77] Creating layer scale5_1
I0624 16:32:52.858412 21043 net.cpp:141] Setting up scale5_1
I0624 16:32:52.858420 21043 net.cpp:148] Top shape: 32 256 7 7 (401408)
I0624 16:32:52.858422 21043 net.cpp:156] Memory required for data: 818872704
I0624 16:32:52.858429 21043 layer_factory.hpp:77] Creating layer relu5_1
I0624 16:32:52.858435 21043 net.cpp:91] Creating Layer relu5_1
I0624 16:32:52.858441 21043 net.cpp:425] relu5_1 <- conv5_1
I0624 16:32:52.858448 21043 net.cpp:386] relu5_1 -> conv5_1 (in-place)
I0624 16:32:52.858811 21043 net.cpp:141] Setting up relu5_1
I0624 16:32:52.858822 21043 net.cpp:148] Top shape: 32 256 7 7 (401408)
I0624 16:32:52.858825 21043 net.cpp:156] Memory required for data: 820478336
I0624 16:32:52.858829 21043 layer_factory.hpp:77] Creating layer conv5_2
I0624 16:32:52.858839 21043 net.cpp:91] Creating Layer conv5_2
I0624 16:32:52.858844 21043 net.cpp:425] conv5_2 <- conv5_1
I0624 16:32:52.858850 21043 net.cpp:399] conv5_2 -> conv5_2
I0624 16:32:52.863961 21043 net.cpp:141] Setting up conv5_2
I0624 16:32:52.863973 21043 net.cpp:148] Top shape: 32 256 7 7 (401408)
I0624 16:32:52.863976 21043 net.cpp:156] Memory required for data: 822083968
I0624 16:32:52.863981 21043 layer_factory.hpp:77] Creating layer bn5_2
I0624 16:32:52.863987 21043 net.cpp:91] Creating Layer bn5_2
I0624 16:32:52.863991 21043 net.cpp:425] bn5_2 <- conv5_2
I0624 16:32:52.863994 21043 net.cpp:386] bn5_2 -> conv5_2 (in-place)
I0624 16:32:52.864157 21043 net.cpp:141] Setting up bn5_2
I0624 16:32:52.864166 21043 net.cpp:148] Top shape: 32 256 7 7 (401408)
I0624 16:32:52.864167 21043 net.cpp:156] Memory required for data: 823689600
I0624 16:32:52.864174 21043 layer_factory.hpp:77] Creating layer scale5_2
I0624 16:32:52.864184 21043 net.cpp:91] Creating Layer scale5_2
I0624 16:32:52.864190 21043 net.cpp:425] scale5_2 <- conv5_2
I0624 16:32:52.864212 21043 net.cpp:386] scale5_2 -> conv5_2 (in-place)
I0624 16:32:52.864255 21043 layer_factory.hpp:77] Creating layer scale5_2
I0624 16:32:52.864351 21043 net.cpp:141] Setting up scale5_2
I0624 16:32:52.864358 21043 net.cpp:148] Top shape: 32 256 7 7 (401408)
I0624 16:32:52.864362 21043 net.cpp:156] Memory required for data: 825295232
I0624 16:32:52.864365 21043 layer_factory.hpp:77] Creating layer relu5_2
I0624 16:32:52.864374 21043 net.cpp:91] Creating Layer relu5_2
I0624 16:32:52.864378 21043 net.cpp:425] relu5_2 <- conv5_2
I0624 16:32:52.864384 21043 net.cpp:386] relu5_2 -> conv5_2 (in-place)
I0624 16:32:52.864734 21043 net.cpp:141] Setting up relu5_2
I0624 16:32:52.864744 21043 net.cpp:148] Top shape: 32 256 7 7 (401408)
I0624 16:32:52.864748 21043 net.cpp:156] Memory required for data: 826900864
I0624 16:32:52.864750 21043 layer_factory.hpp:77] Creating layer pool5
I0624 16:32:52.864758 21043 net.cpp:91] Creating Layer pool5
I0624 16:32:52.864763 21043 net.cpp:425] pool5 <- conv5_2
I0624 16:32:52.864770 21043 net.cpp:399] pool5 -> pool5
I0624 16:32:52.864934 21043 net.cpp:141] Setting up pool5
I0624 16:32:52.864944 21043 net.cpp:148] Top shape: 32 256 1 1 (8192)
I0624 16:32:52.864946 21043 net.cpp:156] Memory required for data: 826933632
I0624 16:32:52.864949 21043 layer_factory.hpp:77] Creating layer fc2
I0624 16:32:52.864958 21043 net.cpp:91] Creating Layer fc2
I0624 16:32:52.864961 21043 net.cpp:425] fc2 <- pool5
I0624 16:32:52.864967 21043 net.cpp:399] fc2 -> fc2
I0624 16:32:52.865070 21043 net.cpp:141] Setting up fc2
I0624 16:32:52.865077 21043 net.cpp:148] Top shape: 32 2 (64)
I0624 16:32:52.865079 21043 net.cpp:156] Memory required for data: 826933888
I0624 16:32:52.865085 21043 layer_factory.hpp:77] Creating layer fc2_fc2_0_split
I0624 16:32:52.865094 21043 net.cpp:91] Creating Layer fc2_fc2_0_split
I0624 16:32:52.865099 21043 net.cpp:425] fc2_fc2_0_split <- fc2
I0624 16:32:52.865105 21043 net.cpp:399] fc2_fc2_0_split -> fc2_fc2_0_split_0
I0624 16:32:52.865113 21043 net.cpp:399] fc2_fc2_0_split -> fc2_fc2_0_split_1
I0624 16:32:52.865152 21043 net.cpp:141] Setting up fc2_fc2_0_split
I0624 16:32:52.865159 21043 net.cpp:148] Top shape: 32 2 (64)
I0624 16:32:52.865161 21043 net.cpp:148] Top shape: 32 2 (64)
I0624 16:32:52.865164 21043 net.cpp:156] Memory required for data: 826934400
I0624 16:32:52.865167 21043 layer_factory.hpp:77] Creating layer loss
I0624 16:32:52.865180 21043 net.cpp:91] Creating Layer loss
I0624 16:32:52.865185 21043 net.cpp:425] loss <- fc2_fc2_0_split_0
I0624 16:32:52.865190 21043 net.cpp:425] loss <- label_data_1_split_0
I0624 16:32:52.865195 21043 net.cpp:399] loss -> loss
…
I0624 16:32:52.866601 21043 solver.cpp:181] Creating test net (#0) specified by net file: models/bpnet/train_val.prototxt
I0624 16:32:52.866664 21043 net.cpp:313] The NetState phase (1) differed from the phase (0) specified by a rule in layer data
I0624 16:32:52.866902 21043 net.cpp:49] Initializing net from parameters: 
name: "BPnet"
state {
  phase: TEST
}
layer {
  name: "data"
  type: "Data"
  top: "data"
  top: "label"
  include {
    phase: TEST
  }
  transform_param {
    mirror: false
    crop_size: 224
    mean_value: 100
    contrast_jitter_range: 0.1
  }
  data_param {
    source: "data/val_lmdb"
    batch_size: 16
    backend: LMDB
  }
}
layer {
  name: "conv1_1"
  type: "Convolution"
  bottom: "data"
  top: "conv1_1"
  param {
    lr_mult: 1
    decay_mult: 1
  }
  convolution_param {
    num_output: 32
    bias_term: false
    pad: 3
    kernel_size: 7
    stride: 2
    weight_filler {
      type: "xavier"
    }
  }
}
layer {
  name: "bn1_1"
  type: "BatchNorm"
  bottom: "conv1_1"
  top: "conv1_1"
  param {
    lr_mult: 0
  }
  param {
    lr_mult: 0
  }
  param {
    lr_mult: 0
  }
  batch_norm_param {
    use_global_stats: false
  }
}
layer {
  name: "scale1_1"
  type: "Scale"
  bottom: "conv1_1"
  top: "conv1_1"
  param {
    lr_mult: 1
    decay_mult: 1
  }
  param {
    lr_mult: 1
    decay_mult: 1
  }
  scale_param {
    bias_term: true
    bias_filler {
      type: "constant"
      value: 0
    }
  }
}
layer {
  name: "relu1_1"
  type: "ReLU"
  bottom: "conv1_1"
  top: "conv1_1"
}
layer {
  name: "conv1_2"
  type: "Convolution"
  bottom: "conv1_1"
  top: "conv1_2"
  param {
    lr_mult: 1
    decay_mult: 1
  }
  convolution_param {
    num_output: 32
    bias_term: false
    pad: 1
    kernel_size: 3
    weight_filler {
      type: "xavier"
    }
  }
}
layer {
  name: "bn1_2"
  type: "BatchNorm"
  bottom: "conv1_2"
  top: "conv1_2"
  param {
    lr_mult: 0
  }
  param {
    lr_mult: 0
  }
  param {
    lr_mult: 0
  }
  batch_norm_param {
    use_global_stats: false
  }
}
layer {
  name: "scale1_2"
  type: "Scale"
  bottom: "conv1_2"
  top: "conv1_2"
  param {
    lr_mult: 1
    decay_mult: 1
  }
  param {
    lr_mult: 1
    decay_mult: 1
  }
  scale_param {
    bias_term: true
    bias_filler {
      type: "constant"
      value: 0
    }
  }
}
layer {
  name: "relu1_2"
  type: "ReLU"
  bottom: "conv1_2"
  top: "conv1_2"
}
layer {
  name: "pool1"
  type: "Pooling"
  bottom: "conv1_2"
  top: "pool1"
  pooling_param {
    pool: MAX
    kernel_size: 2
    stride: 2
  }
}
layer {
  name: "conv2_1"
  type: "Convolution"
  bottom: "pool1"
  top: "conv2_1"
  param {
    lr_mult: 1
    decay_mult: 1
  }
  convolution_param {
    num_output: 64
    bias_term: false
    pad: 1
    kernel_size: 3
    weight_filler {
      type: "xavier"
    }
  }
}
layer {
  name: "bn2_1"
  type: "BatchNorm"
  bottom: "conv2_1"
  top: "conv2_1"
  param {
    lr_mult: 0
  }
  param {
    lr_mult: 0
  }
  param {
    lr_mult: 0
  }
  batch_norm_param {
    use_global_stats: false
  }
}
layer {
  name: "scale2_1"
  type: "Scale"
  bottom: "conv2_1"
  top: "conv2_1"
  param {
    lr_mult: 1
    decay_mult: 1
  }
  param {
    lr_mult: 1
    decay_mult: 1
  }
  scale_param {
    bias_term: true
    bias_filler {
      type: "constant"
      value: 0
    }
  }
}
layer {
  name: "relu2_1"
  type: "ReLU"
  bottom: "conv2_1"
  top: "conv2_1"
}
layer {
  name: "conv2_2"
  type: "Convolution"
  bottom: "conv2_1"
  top: "conv2_2"
  param {
    lr_mult: 1
    decay_mult: 1
  }
  convolution_param {
    num_output: 64
    bias_term: false
    pad: 1
    kernel_size: 3
    weight_filler {
      type: "xavier"
    }
  }
}
layer {
  name: "bn2_2"
  type: "BatchNorm"
  bottom: "conv2_2"
  top: "conv2_2"
  param {
    lr_mult: 0
  }
  param {
    lr_mult: 0
  }
  param {
    lr_mult: 0
  }
  batch_norm_param {
    use_global_stats: false
  }
}
layer {
  name: "scale2_2"
  type: "Scale"
  bottom: "conv2_2"
  top: "conv2_2"
  param {
    lr_mult: 1
    decay_mult: 1
  }
  param {
    lr_mult: 1
    decay_mult: 1
  }
  scale_param {
    bias_term: true
    bias_filler {
      type: "constant"
      value: 0
    }
  }
}
layer {
  name: "relu2_2"
  type: "ReLU"
  bottom: "conv2_2"
  top: "conv2_2"
}
layer {
  name: "pool2"
  type: "Pooling"
  bottom: "conv2_2"
  top: "pool2"
  pooling_param {
    pool: MAX
    kernel_size: 2
    stride: 2
  }
}
layer {
  name: "conv3_1"
  type: "Convolution"
  bottom: "pool2"
  top: "conv3_1"
  param {
    lr_mult: 1
    decay_mult: 1
  }
  convolution_param {
    num_output: 128
    bias_term: false
    pad: 1
    kernel_size: 3
    weight_filler {
      type: "xavier"
    }
  }
}
layer {
  name: "bn3_1"
  type: "BatchNorm"
  bottom: "conv3_1"
  top: "conv3_1"
  param {
    lr_mult: 0
  }
  param {
    lr_mult: 0
  }
  param {
    lr_mult: 0
  }
  batch_norm_param {
    use_global_stats: false
  }
}
layer {
  name: "scale3_1"
  type: "Scale"
  bottom: "conv3_1"
  top: "conv3_1"
  param {
    lr_mult: 1
    decay_mult: 1
  }
  param {
    lr_mult: 1
    decay_mult: 1
  }
  scale_param {
    bias_term: true
    bias_filler {
      type: "constant"
      value: 0
    }
  }
}
layer {
  name: "relu3_1"
  type: "ReLU"
  bottom: "conv3_1"
  top: "conv3_1"
}
layer {
  name: "conv3_2"
  type: "Convolution"
  bottom: "conv3_1"
  top: "conv3_2"
  param {
    lr_mult: 1
    decay_mult: 1
  }
  convolution_param {
    num_output: 128
    bias_term: false
    pad: 1
    kernel_size: 3
    weight_filler {
      type: "xavier"
    }
  }
}
layer {
  name: "bn3_2"
  type: "BatchNorm"
  bottom: "conv3_2"
  top: "conv3_2"
  param {
    lr_mult: 0
  }
  param {
    lr_mult: 0
  }
  param {
    lr_mult: 0
  }
  batch_norm_param {
    use_global_stats: false
  }
}
layer {
  name: "scale3_2"
  type: "Scale"
  bottom: "conv3_2"
  top: "conv3_2"
  param {
    lr_mult: 1
    decay_mult: 1
  }
  param {
    lr_mult: 1
    decay_mult: 1
  }
  scale_param {
    bias_term: true
    bias_filler {
      type: "constant"
      value: 0
    }
  }
}
layer {
  name: "relu3_2"
  type: "ReLU"
  bottom: "conv3_2"
  top: "conv3_2"
}
layer {
  name: "pool3"
  type: "Pooling"
  bottom: "conv3_2"
  top: "pool3"
  pooling_param {
    pool: MAX
    kernel_size: 2
    stride: 2
  }
}
layer {
  name: "conv4_1"
  type: "Convolution"
  bottom: "pool3"
  top: "conv4_1"
  param {
    lr_mult: 1
    decay_mult: 1
  }
  convolution_param {
    num_output: 256
    bias_term: false
    pad: 1
    kernel_size: 3
    weight_filler {
      type: "xavier"
    }
  }
}
layer {
  name: "bn4_1"
  type: "BatchNorm"
  bottom: "conv4_1"
  top: "conv4_1"
  param {
    lr_mult: 0
  }
  param {
    lr_mult: 0
  }
  param {
    lr_mult: 0
  }
  batch_norm_param {
    use_global_stats: false
  }
}
layer {
  name: "scale4_1"
  type: "Scale"
  bottom: "conv4_1"
  top: "conv4_1"
  param {
    lr_mult: 1
    decay_mult: 1
  }
  param {
    lr_mult: 1
    decay_mult: 1
  }
  scale_param {
    bias_term: true
    bias_filler {
      type: "constant"
      value: 0
    }
  }
}
layer {
  name: "relu4_1"
  type: "ReLU"
  bottom: "conv4_1"
  top: "conv4_1"
}
layer {
  name: "conv4_2"
  type: "Convolution"
  bottom: "conv4_1"
  top: "conv4_2"
  param {
    lr_mult: 1
    decay_mult: 1
  }
  convolution_param {
    num_output: 256
    bias_term: false
    pad: 1
    kernel_size: 3
    weight_filler {
      type: "xavier"
    }
  }
}
layer {
  name: "bn4_2"
  type: "BatchNorm"
  bottom: "conv4_2"
  top: "conv4_2"
  param {
    lr_mult: 0
  }
  param {
    lr_mult: 0
  }
  param {
    lr_mult: 0
  }
  batch_norm_param {
    use_global_stats: false
  }
}
layer {
  name: "scale4_2"
  type: "Scale"
  bottom: "conv4_2"
  top: "conv4_2"
  param {
    lr_mult: 1
    decay_mult: 1
  }
  param {
    lr_mult: 1
    decay_mult: 1
  }
  scale_param {
    bias_term: true
    bias_filler {
      type: "constant"
      value: 0
    }
  }
}
layer {
  name: "relu4_2"
  type: "ReLU"
  bottom: "conv4_2"
  top: "conv4_2"
}
layer {
  name: "pool4"
  type: "Pooling"
  bottom: "conv4_2"
  top: "pool4"
  pooling_param {
    pool: MAX
    kernel_size: 2
    stride: 2
  }
}
layer {
  name: "conv5_1"
  type: "Convolution"
  bottom: "pool4"
  top: "conv5_1"
  param {
    lr_mult: 1
    decay_mult: 1
  }
  convolution_param {
    num_output: 256
    bias_term: false
    pad: 1
    kernel_size: 3
    weight_filler {
      type: "xavier"
    }
  }
}
layer {
  name: "bn5_1"
  type: "BatchNorm"
  bottom: "conv5_1"
  top: "conv5_1"
  param {
    lr_mult: 0
  }
  param {
    lr_mult: 0
  }
  param {
    lr_mult: 0
  }
  batch_norm_param {
    use_global_stats: false
  }
}
layer {
  name: "scale5_1"
  type: "Scale"
  bottom: "conv5_1"
  top: "conv5_1"
  param {
    lr_mult: 1
    decay_mult: 1
  }
  param {
    lr_mult: 1
    decay_mult: 1
  }
  scale_param {
    bias_term: true
    bias_filler {
      type: "constant"
      value: 0
    }
  }
}
layer {
  name: "relu5_1"
  type: "ReLU"
  bottom: "conv5_1"
  top: "conv5_1"
}
layer {
  name: "conv5_2"
  type: "Convolution"
  bottom: "conv5_1"
  top: "conv5_2"
  param {
    lr_mult: 1
    decay_mult: 1
  }
  convolution_param {
    num_output: 256
    bias_term: false
    pad: 1
    kernel_size: 3
    weight_filler {
      type: "xavier"
    }
  }
}
layer {
  name: "bn5_2"
  type: "BatchNorm"
  bottom: "conv5_2"
  top: "conv5_2"
  param {
    lr_mult: 0
  }
  param {
    lr_mult: 0
  }
  param {
    lr_mult: 0
  }
  batch_norm_param {
    use_global_stats: false
  }
}
layer {
  name: "scale5_2"
  type: "Scale"
  bottom: "conv5_2"
  top: "conv5_2"
  param {
    lr_mult: 1
    decay_mult: 1
  }
  param {
    lr_mult: 1
    decay_mult: 1
  }
  scale_param {
    bias_term: true
    bias_filler {
      type: "constant"
      value: 0
    }
  }
}
layer {
  name: "relu5_2"
  type: "ReLU"
  bottom: "conv5_2"
  top: "conv5_2"
}
layer {
  name: "pool5"
  type: "Pooling"
  bottom: "conv5_2"
  top: "pool5"
  pooling_param {
    pool: AVE
    kernel_size: 7
    stride: 1
  }
}
layer {
  name: "fc2"
  type: "InnerProduct"
  bottom: "pool5"
  top: "fc2"
  inner_product_param {
    num_output: 2
  }
}
layer {
  name: "loss"
  type: "SoftmaxWithLoss"
  bottom: "fc2"
  bottom: "label"
  top: "loss"
}
layer {
  name: "accuracy"
  type: "Accuracy"
  bottom: "fc2"
  bottom: "label"
  top: "accuracy"
}
I0624 16:32:52.867038 21043 layer_factory.hpp:77] Creating layer data
I0624 16:32:52.867087 21043 net.cpp:91] Creating Layer data
I0624 16:32:52.867094 21043 net.cpp:399] data -> data
I0624 16:32:52.867100 21043 net.cpp:399] data -> label
I0624 16:32:52.868305 21052 db_lmdb.cpp:35] Opened lmdb data/val_lmdb
I0624 16:32:52.868710 21043 data_layer.cpp:42] output data size: 16,3,224,224
I0624 16:32:52.887744 21043 net.cpp:141] Setting up data
I0624 16:32:52.887765 21043 net.cpp:148] Top shape: 16 3 224 224 (2408448)
I0624 16:32:52.887769 21043 net.cpp:148] Top shape: 16 (16)
I0624 16:32:52.887771 21043 net.cpp:156] Memory required for data: 9633856
I0624 16:32:52.887776 21043 layer_factory.hpp:77] Creating layer label_data_1_split
I0624 16:32:52.887786 21043 net.cpp:91] Creating Layer label_data_1_split
I0624 16:32:52.887789 21043 net.cpp:425] label_data_1_split <- label
I0624 16:32:52.887794 21043 net.cpp:399] label_data_1_split -> label_data_1_split_0
I0624 16:32:52.887801 21043 net.cpp:399] label_data_1_split -> label_data_1_split_1
I0624 16:32:52.887907 21043 net.cpp:141] Setting up label_data_1_split
I0624 16:32:52.887917 21043 net.cpp:148] Top shape: 16 (16)
I0624 16:32:52.887919 21043 net.cpp:148] Top shape: 16 (16)
I0624 16:32:52.887922 21043 net.cpp:156] Memory required for data: 9633984
I0624 16:32:52.887923 21043 layer_factory.hpp:77] Creating layer conv1_1
I0624 16:32:52.887936 21043 net.cpp:91] Creating Layer conv1_1
I0624 16:32:52.887941 21043 net.cpp:425] conv1_1 <- data
I0624 16:32:52.887949 21043 net.cpp:399] conv1_1 -> conv1_1
I0624 16:32:52.888882 21043 net.cpp:141] Setting up conv1_1
I0624 16:32:52.888893 21043 net.cpp:148] Top shape: 16 32 112 112 (6422528)
I0624 16:32:52.888896 21043 net.cpp:156] Memory required for data: 35324096
I0624 16:32:52.888902 21043 layer_factory.hpp:77] Creating layer bn1_1
I0624 16:32:52.888912 21043 net.cpp:91] Creating Layer bn1_1
I0624 16:32:52.888916 21043 net.cpp:425] bn1_1 <- conv1_1
I0624 16:32:52.888934 21043 net.cpp:386] bn1_1 -> conv1_1 (in-place)
I0624 16:32:52.889114 21043 net.cpp:141] Setting up bn1_1
I0624 16:32:52.889122 21043 net.cpp:148] Top shape: 16 32 112 112 (6422528)
I0624 16:32:52.889124 21043 net.cpp:156] Memory required for data: 61014208
I0624 16:32:52.889133 21043 layer_factory.hpp:77] Creating layer scale1_1
I0624 16:32:52.889143 21043 net.cpp:91] Creating Layer scale1_1
I0624 16:32:52.889147 21043 net.cpp:425] scale1_1 <- conv1_1
I0624 16:32:52.889153 21043 net.cpp:386] scale1_1 -> conv1_1 (in-place)
I0624 16:32:52.889220 21043 layer_factory.hpp:77] Creating layer scale1_1
I0624 16:32:52.889338 21043 net.cpp:141] Setting up scale1_1
I0624 16:32:52.889346 21043 net.cpp:148] Top shape: 16 32 112 112 (6422528)
I0624 16:32:52.889348 21043 net.cpp:156] Memory required for data: 86704320
I0624 16:32:52.889354 21043 layer_factory.hpp:77] Creating layer relu1_1
I0624 16:32:52.889360 21043 net.cpp:91] Creating Layer relu1_1
I0624 16:32:52.889367 21043 net.cpp:425] relu1_1 <- conv1_1
I0624 16:32:52.889374 21043 net.cpp:386] relu1_1 -> conv1_1 (in-place)
I0624 16:32:52.889580 21043 net.cpp:141] Setting up relu1_1
I0624 16:32:52.889588 21043 net.cpp:148] Top shape: 16 32 112 112 (6422528)
I0624 16:32:52.889591 21043 net.cpp:156] Memory required for data: 112394432
I0624 16:32:52.889593 21043 layer_factory.hpp:77] Creating layer conv1_2
I0624 16:32:52.889602 21043 net.cpp:91] Creating Layer conv1_2
I0624 16:32:52.889606 21043 net.cpp:425] conv1_2 <- conv1_1
I0624 16:32:52.889614 21043 net.cpp:399] conv1_2 -> conv1_2
I0624 16:32:52.891213 21043 net.cpp:141] Setting up conv1_2
I0624 16:32:52.891227 21043 net.cpp:148] Top shape: 16 32 112 112 (6422528)
I0624 16:32:52.891230 21043 net.cpp:156] Memory required for data: 138084544
I0624 16:32:52.891234 21043 layer_factory.hpp:77] Creating layer bn1_2
I0624 16:32:52.891242 21043 net.cpp:91] Creating Layer bn1_2
I0624 16:32:52.891245 21043 net.cpp:425] bn1_2 <- conv1_2
I0624 16:32:52.891252 21043 net.cpp:386] bn1_2 -> conv1_2 (in-place)
I0624 16:32:52.891425 21043 net.cpp:141] Setting up bn1_2
I0624 16:32:52.891433 21043 net.cpp:148] Top shape: 16 32 112 112 (6422528)
I0624 16:32:52.891435 21043 net.cpp:156] Memory required for data: 163774656
I0624 16:32:52.891444 21043 layer_factory.hpp:77] Creating layer scale1_2
I0624 16:32:52.891454 21043 net.cpp:91] Creating Layer scale1_2
I0624 16:32:52.891458 21043 net.cpp:425] scale1_2 <- conv1_2
I0624 16:32:52.891465 21043 net.cpp:386] scale1_2 -> conv1_2 (in-place)
I0624 16:32:52.891518 21043 layer_factory.hpp:77] Creating layer scale1_2
I0624 16:32:52.891640 21043 net.cpp:141] Setting up scale1_2
I0624 16:32:52.891647 21043 net.cpp:148] Top shape: 16 32 112 112 (6422528)
I0624 16:32:52.891650 21043 net.cpp:156] Memory required for data: 189464768
I0624 16:32:52.891654 21043 layer_factory.hpp:77] Creating layer relu1_2
I0624 16:32:52.891659 21043 net.cpp:91] Creating Layer relu1_2
I0624 16:32:52.891664 21043 net.cpp:425] relu1_2 <- conv1_2
I0624 16:32:52.891675 21043 net.cpp:386] relu1_2 -> conv1_2 (in-place)
I0624 16:32:52.892043 21043 net.cpp:141] Setting up relu1_2
I0624 16:32:52.892055 21043 net.cpp:148] Top shape: 16 32 112 112 (6422528)
I0624 16:32:52.892056 21043 net.cpp:156] Memory required for data: 215154880
I0624 16:32:52.892060 21043 layer_factory.hpp:77] Creating layer pool1
I0624 16:32:52.892066 21043 net.cpp:91] Creating Layer pool1
I0624 16:32:52.892069 21043 net.cpp:425] pool1 <- conv1_2
I0624 16:32:52.892076 21043 net.cpp:399] pool1 -> pool1
I0624 16:32:52.892127 21043 net.cpp:141] Setting up pool1
I0624 16:32:52.892134 21043 net.cpp:148] Top shape: 16 32 56 56 (1605632)
I0624 16:32:52.892137 21043 net.cpp:156] Memory required for data: 221577408
I0624 16:32:52.892139 21043 layer_factory.hpp:77] Creating layer conv2_1
I0624 16:32:52.892148 21043 net.cpp:91] Creating Layer conv2_1
I0624 16:32:52.892153 21043 net.cpp:425] conv2_1 <- pool1
I0624 16:32:52.892160 21043 net.cpp:399] conv2_1 -> conv2_1
I0624 16:32:52.893121 21043 net.cpp:141] Setting up conv2_1
I0624 16:32:52.893131 21043 net.cpp:148] Top shape: 16 64 56 56 (3211264)
I0624 16:32:52.893134 21043 net.cpp:156] Memory required for data: 234422464
I0624 16:32:52.893138 21043 layer_factory.hpp:77] Creating layer bn2_1
I0624 16:32:52.893146 21043 net.cpp:91] Creating Layer bn2_1
I0624 16:32:52.893149 21043 net.cpp:425] bn2_1 <- conv2_1
I0624 16:32:52.893157 21043 net.cpp:386] bn2_1 -> conv2_1 (in-place)
I0624 16:32:52.893335 21043 net.cpp:141] Setting up bn2_1
I0624 16:32:52.893343 21043 net.cpp:148] Top shape: 16 64 56 56 (3211264)
I0624 16:32:52.893354 21043 net.cpp:156] Memory required for data: 247267520
I0624 16:32:52.893362 21043 layer_factory.hpp:77] Creating layer scale2_1
I0624 16:32:52.893373 21043 net.cpp:91] Creating Layer scale2_1
I0624 16:32:52.893376 21043 net.cpp:425] scale2_1 <- conv2_1
I0624 16:32:52.893383 21043 net.cpp:386] scale2_1 -> conv2_1 (in-place)
I0624 16:32:52.893430 21043 layer_factory.hpp:77] Creating layer scale2_1
I0624 16:32:52.893539 21043 net.cpp:141] Setting up scale2_1
I0624 16:32:52.893546 21043 net.cpp:148] Top shape: 16 64 56 56 (3211264)
I0624 16:32:52.893548 21043 net.cpp:156] Memory required for data: 260112576
I0624 16:32:52.893558 21043 layer_factory.hpp:77] Creating layer relu2_1
I0624 16:32:52.893563 21043 net.cpp:91] Creating Layer relu2_1
I0624 16:32:52.893568 21043 net.cpp:425] relu2_1 <- conv2_1
I0624 16:32:52.893573 21043 net.cpp:386] relu2_1 -> conv2_1 (in-place)
I0624 16:32:52.893721 21043 net.cpp:141] Setting up relu2_1
I0624 16:32:52.893730 21043 net.cpp:148] Top shape: 16 64 56 56 (3211264)
I0624 16:32:52.893733 21043 net.cpp:156] Memory required for data: 272957632
I0624 16:32:52.893735 21043 layer_factory.hpp:77] Creating layer conv2_2
I0624 16:32:52.893744 21043 net.cpp:91] Creating Layer conv2_2
I0624 16:32:52.893748 21043 net.cpp:425] conv2_2 <- conv2_1
I0624 16:32:52.893755 21043 net.cpp:399] conv2_2 -> conv2_2
I0624 16:32:52.894764 21043 net.cpp:141] Setting up conv2_2
I0624 16:32:52.894775 21043 net.cpp:148] Top shape: 16 64 56 56 (3211264)
I0624 16:32:52.894778 21043 net.cpp:156] Memory required for data: 285802688
I0624 16:32:52.894783 21043 layer_factory.hpp:77] Creating layer bn2_2
I0624 16:32:52.894793 21043 net.cpp:91] Creating Layer bn2_2
I0624 16:32:52.894798 21043 net.cpp:425] bn2_2 <- conv2_2
I0624 16:32:52.894804 21043 net.cpp:386] bn2_2 -> conv2_2 (in-place)
I0624 16:32:52.894969 21043 net.cpp:141] Setting up bn2_2
I0624 16:32:52.894978 21043 net.cpp:148] Top shape: 16 64 56 56 (3211264)
I0624 16:32:52.894979 21043 net.cpp:156] Memory required for data: 298647744
I0624 16:32:52.894985 21043 layer_factory.hpp:77] Creating layer scale2_2
I0624 16:32:52.894991 21043 net.cpp:91] Creating Layer scale2_2
I0624 16:32:52.894995 21043 net.cpp:425] scale2_2 <- conv2_2
I0624 16:32:52.895001 21043 net.cpp:386] scale2_2 -> conv2_2 (in-place)
I0624 16:32:52.895051 21043 layer_factory.hpp:77] Creating layer scale2_2
I0624 16:32:52.895165 21043 net.cpp:141] Setting up scale2_2
I0624 16:32:52.895174 21043 net.cpp:148] Top shape: 16 64 56 56 (3211264)
I0624 16:32:52.895175 21043 net.cpp:156] Memory required for data: 311492800
I0624 16:32:52.895179 21043 layer_factory.hpp:77] Creating layer relu2_2
I0624 16:32:52.895184 21043 net.cpp:91] Creating Layer relu2_2
I0624 16:32:52.895186 21043 net.cpp:425] relu2_2 <- conv2_2
I0624 16:32:52.895191 21043 net.cpp:386] relu2_2 -> conv2_2 (in-place)
I0624 16:32:52.895356 21043 net.cpp:141] Setting up relu2_2
I0624 16:32:52.895365 21043 net.cpp:148] Top shape: 16 64 56 56 (3211264)
I0624 16:32:52.895368 21043 net.cpp:156] Memory required for data: 324337856
I0624 16:32:52.895370 21043 layer_factory.hpp:77] Creating layer pool2
I0624 16:32:52.895376 21043 net.cpp:91] Creating Layer pool2
I0624 16:32:52.895378 21043 net.cpp:425] pool2 <- conv2_2
I0624 16:32:52.895382 21043 net.cpp:399] pool2 -> pool2
I0624 16:32:52.895428 21043 net.cpp:141] Setting up pool2
I0624 16:32:52.895437 21043 net.cpp:148] Top shape: 16 64 28 28 (802816)
I0624 16:32:52.895438 21043 net.cpp:156] Memory required for data: 327549120
I0624 16:32:52.895440 21043 layer_factory.hpp:77] Creating layer conv3_1
I0624 16:32:52.895449 21043 net.cpp:91] Creating Layer conv3_1
I0624 16:32:52.895453 21043 net.cpp:425] conv3_1 <- pool2
I0624 16:32:52.895460 21043 net.cpp:399] conv3_1 -> conv3_1
I0624 16:32:52.897832 21043 net.cpp:141] Setting up conv3_1
I0624 16:32:52.897845 21043 net.cpp:148] Top shape: 16 128 28 28 (1605632)
I0624 16:32:52.897847 21043 net.cpp:156] Memory required for data: 333971648
I0624 16:32:52.897851 21043 layer_factory.hpp:77] Creating layer bn3_1
I0624 16:32:52.897869 21043 net.cpp:91] Creating Layer bn3_1
I0624 16:32:52.897872 21043 net.cpp:425] bn3_1 <- conv3_1
I0624 16:32:52.897877 21043 net.cpp:386] bn3_1 -> conv3_1 (in-place)
I0624 16:32:52.898042 21043 net.cpp:141] Setting up bn3_1
I0624 16:32:52.898051 21043 net.cpp:148] Top shape: 16 128 28 28 (1605632)
I0624 16:32:52.898053 21043 net.cpp:156] Memory required for data: 340394176
I0624 16:32:52.898059 21043 layer_factory.hpp:77] Creating layer scale3_1
I0624 16:32:52.898066 21043 net.cpp:91] Creating Layer scale3_1
I0624 16:32:52.898071 21043 net.cpp:425] scale3_1 <- conv3_1
I0624 16:32:52.898077 21043 net.cpp:386] scale3_1 -> conv3_1 (in-place)
I0624 16:32:52.898121 21043 layer_factory.hpp:77] Creating layer scale3_1
I0624 16:32:52.898226 21043 net.cpp:141] Setting up scale3_1
I0624 16:32:52.898233 21043 net.cpp:148] Top shape: 16 128 28 28 (1605632)
I0624 16:32:52.898236 21043 net.cpp:156] Memory required for data: 346816704
I0624 16:32:52.898241 21043 layer_factory.hpp:77] Creating layer relu3_1
I0624 16:32:52.898247 21043 net.cpp:91] Creating Layer relu3_1
I0624 16:32:52.898250 21043 net.cpp:425] relu3_1 <- conv3_1
I0624 16:32:52.898257 21043 net.cpp:386] relu3_1 -> conv3_1 (in-place)
I0624 16:32:52.898406 21043 net.cpp:141] Setting up relu3_1
I0624 16:32:52.898414 21043 net.cpp:148] Top shape: 16 128 28 28 (1605632)
I0624 16:32:52.898417 21043 net.cpp:156] Memory required for data: 353239232
I0624 16:32:52.898419 21043 layer_factory.hpp:77] Creating layer conv3_2
I0624 16:32:52.898427 21043 net.cpp:91] Creating Layer conv3_2
I0624 16:32:52.898429 21043 net.cpp:425] conv3_2 <- conv3_1
I0624 16:32:52.898437 21043 net.cpp:399] conv3_2 -> conv3_2
I0624 16:32:52.900328 21043 net.cpp:141] Setting up conv3_2
I0624 16:32:52.900341 21043 net.cpp:148] Top shape: 16 128 28 28 (1605632)
I0624 16:32:52.900342 21043 net.cpp:156] Memory required for data: 359661760
I0624 16:32:52.900347 21043 layer_factory.hpp:77] Creating layer bn3_2
I0624 16:32:52.900355 21043 net.cpp:91] Creating Layer bn3_2
I0624 16:32:52.900360 21043 net.cpp:425] bn3_2 <- conv3_2
I0624 16:32:52.900367 21043 net.cpp:386] bn3_2 -> conv3_2 (in-place)
I0624 16:32:52.900530 21043 net.cpp:141] Setting up bn3_2
I0624 16:32:52.900538 21043 net.cpp:148] Top shape: 16 128 28 28 (1605632)
I0624 16:32:52.900540 21043 net.cpp:156] Memory required for data: 366084288
I0624 16:32:52.900557 21043 layer_factory.hpp:77] Creating layer scale3_2
I0624 16:32:52.900566 21043 net.cpp:91] Creating Layer scale3_2
I0624 16:32:52.900573 21043 net.cpp:425] scale3_2 <- conv3_2
I0624 16:32:52.900578 21043 net.cpp:386] scale3_2 -> conv3_2 (in-place)
I0624 16:32:52.900624 21043 layer_factory.hpp:77] Creating layer scale3_2
I0624 16:32:52.900723 21043 net.cpp:141] Setting up scale3_2
I0624 16:32:52.900732 21043 net.cpp:148] Top shape: 16 128 28 28 (1605632)
I0624 16:32:52.900733 21043 net.cpp:156] Memory required for data: 372506816
I0624 16:32:52.900738 21043 layer_factory.hpp:77] Creating layer relu3_2
I0624 16:32:52.900746 21043 net.cpp:91] Creating Layer relu3_2
I0624 16:32:52.900750 21043 net.cpp:425] relu3_2 <- conv3_2
I0624 16:32:52.900756 21043 net.cpp:386] relu3_2 -> conv3_2 (in-place)
I0624 16:32:52.900907 21043 net.cpp:141] Setting up relu3_2
I0624 16:32:52.900914 21043 net.cpp:148] Top shape: 16 128 28 28 (1605632)
I0624 16:32:52.900918 21043 net.cpp:156] Memory required for data: 378929344
I0624 16:32:52.900920 21043 layer_factory.hpp:77] Creating layer pool3
I0624 16:32:52.900929 21043 net.cpp:91] Creating Layer pool3
I0624 16:32:52.900933 21043 net.cpp:425] pool3 <- conv3_2
I0624 16:32:52.900939 21043 net.cpp:399] pool3 -> pool3
I0624 16:32:52.900985 21043 net.cpp:141] Setting up pool3
I0624 16:32:52.900991 21043 net.cpp:148] Top shape: 16 128 14 14 (401408)
I0624 16:32:52.900995 21043 net.cpp:156] Memory required for data: 380534976
I0624 16:32:52.900996 21043 layer_factory.hpp:77] Creating layer conv4_1
I0624 16:32:52.901006 21043 net.cpp:91] Creating Layer conv4_1
I0624 16:32:52.901011 21043 net.cpp:425] conv4_1 <- pool3
I0624 16:32:52.901021 21043 net.cpp:399] conv4_1 -> conv4_1
I0624 16:32:52.903693 21043 net.cpp:141] Setting up conv4_1
I0624 16:32:52.903704 21043 net.cpp:148] Top shape: 16 256 14 14 (802816)
I0624 16:32:52.903707 21043 net.cpp:156] Memory required for data: 383746240
I0624 16:32:52.903712 21043 layer_factory.hpp:77] Creating layer bn4_1
I0624 16:32:52.903722 21043 net.cpp:91] Creating Layer bn4_1
I0624 16:32:52.903725 21043 net.cpp:425] bn4_1 <- conv4_1
I0624 16:32:52.903733 21043 net.cpp:386] bn4_1 -> conv4_1 (in-place)
I0624 16:32:52.903901 21043 net.cpp:141] Setting up bn4_1
I0624 16:32:52.903909 21043 net.cpp:148] Top shape: 16 256 14 14 (802816)
I0624 16:32:52.903911 21043 net.cpp:156] Memory required for data: 386957504
I0624 16:32:52.903918 21043 layer_factory.hpp:77] Creating layer scale4_1
I0624 16:32:52.903926 21043 net.cpp:91] Creating Layer scale4_1
I0624 16:32:52.903933 21043 net.cpp:425] scale4_1 <- conv4_1
I0624 16:32:52.903940 21043 net.cpp:386] scale4_1 -> conv4_1 (in-place)
I0624 16:32:52.903982 21043 layer_factory.hpp:77] Creating layer scale4_1
I0624 16:32:52.904081 21043 net.cpp:141] Setting up scale4_1
I0624 16:32:52.904088 21043 net.cpp:148] Top shape: 16 256 14 14 (802816)
I0624 16:32:52.904090 21043 net.cpp:156] Memory required for data: 390168768
I0624 16:32:52.904096 21043 layer_factory.hpp:77] Creating layer relu4_1
I0624 16:32:52.904106 21043 net.cpp:91] Creating Layer relu4_1
I0624 16:32:52.904111 21043 net.cpp:425] relu4_1 <- conv4_1
I0624 16:32:52.904119 21043 net.cpp:386] relu4_1 -> conv4_1 (in-place)
I0624 16:32:52.904270 21043 net.cpp:141] Setting up relu4_1
I0624 16:32:52.904278 21043 net.cpp:148] Top shape: 16 256 14 14 (802816)
I0624 16:32:52.904283 21043 net.cpp:156] Memory required for data: 393380032
I0624 16:32:52.904285 21043 layer_factory.hpp:77] Creating layer conv4_2
I0624 16:32:52.904294 21043 net.cpp:91] Creating Layer conv4_2
I0624 16:32:52.904299 21043 net.cpp:425] conv4_2 <- conv4_1
I0624 16:32:52.904306 21043 net.cpp:399] conv4_2 -> conv4_2
I0624 16:32:52.909584 21043 net.cpp:141] Setting up conv4_2
I0624 16:32:52.909596 21043 net.cpp:148] Top shape: 16 256 14 14 (802816)
I0624 16:32:52.909598 21043 net.cpp:156] Memory required for data: 396591296
I0624 16:32:52.909603 21043 layer_factory.hpp:77] Creating layer bn4_2
I0624 16:32:52.909611 21043 net.cpp:91] Creating Layer bn4_2
I0624 16:32:52.909616 21043 net.cpp:425] bn4_2 <- conv4_2
I0624 16:32:52.909622 21043 net.cpp:386] bn4_2 -> conv4_2 (in-place)
I0624 16:32:52.909806 21043 net.cpp:141] Setting up bn4_2
I0624 16:32:52.909812 21043 net.cpp:148] Top shape: 16 256 14 14 (802816)
I0624 16:32:52.909816 21043 net.cpp:156] Memory required for data: 399802560
I0624 16:32:52.909822 21043 layer_factory.hpp:77] Creating layer scale4_2
I0624 16:32:52.909831 21043 net.cpp:91] Creating Layer scale4_2
I0624 16:32:52.909837 21043 net.cpp:425] scale4_2 <- conv4_2
I0624 16:32:52.909845 21043 net.cpp:386] scale4_2 -> conv4_2 (in-place)
I0624 16:32:52.909890 21043 layer_factory.hpp:77] Creating layer scale4_2
I0624 16:32:52.909993 21043 net.cpp:141] Setting up scale4_2
I0624 16:32:52.910001 21043 net.cpp:148] Top shape: 16 256 14 14 (802816)
I0624 16:32:52.910003 21043 net.cpp:156] Memory required for data: 403013824
I0624 16:32:52.910008 21043 layer_factory.hpp:77] Creating layer relu4_2
I0624 16:32:52.910015 21043 net.cpp:91] Creating Layer relu4_2
I0624 16:32:52.910019 21043 net.cpp:425] relu4_2 <- conv4_2
I0624 16:32:52.910024 21043 net.cpp:386] relu4_2 -> conv4_2 (in-place)
I0624 16:32:52.910756 21043 net.cpp:141] Setting up relu4_2
I0624 16:32:52.910766 21043 net.cpp:148] Top shape: 16 256 14 14 (802816)
I0624 16:32:52.910768 21043 net.cpp:156] Memory required for data: 406225088
I0624 16:32:52.910771 21043 layer_factory.hpp:77] Creating layer pool4
I0624 16:32:52.910779 21043 net.cpp:91] Creating Layer pool4
I0624 16:32:52.910784 21043 net.cpp:425] pool4 <- conv4_2
I0624 16:32:52.910792 21043 net.cpp:399] pool4 -> pool4
I0624 16:32:52.911556 21043 net.cpp:141] Setting up pool4
I0624 16:32:52.911564 21043 net.cpp:148] Top shape: 16 256 7 7 (200704)
I0624 16:32:52.911566 21043 net.cpp:156] Memory required for data: 407027904
I0624 16:32:52.911583 21043 layer_factory.hpp:77] Creating layer conv5_1
I0624 16:32:52.911597 21043 net.cpp:91] Creating Layer conv5_1
I0624 16:32:52.911603 21043 net.cpp:425] conv5_1 <- pool4
I0624 16:32:52.911610 21043 net.cpp:399] conv5_1 -> conv5_1
I0624 16:32:52.916898 21043 net.cpp:141] Setting up conv5_1
I0624 16:32:52.916911 21043 net.cpp:148] Top shape: 16 256 7 7 (200704)
I0624 16:32:52.916914 21043 net.cpp:156] Memory required for data: 407830720
I0624 16:32:52.916918 21043 layer_factory.hpp:77] Creating layer bn5_1
I0624 16:32:52.916926 21043 net.cpp:91] Creating Layer bn5_1
I0624 16:32:52.916931 21043 net.cpp:425] bn5_1 <- conv5_1
I0624 16:32:52.916937 21043 net.cpp:386] bn5_1 -> conv5_1 (in-place)
I0624 16:32:52.917112 21043 net.cpp:141] Setting up bn5_1
I0624 16:32:52.917120 21043 net.cpp:148] Top shape: 16 256 7 7 (200704)
I0624 16:32:52.917124 21043 net.cpp:156] Memory required for data: 408633536
I0624 16:32:52.917130 21043 layer_factory.hpp:77] Creating layer scale5_1
I0624 16:32:52.917140 21043 net.cpp:91] Creating Layer scale5_1
I0624 16:32:52.917145 21043 net.cpp:425] scale5_1 <- conv5_1
I0624 16:32:52.917152 21043 net.cpp:386] scale5_1 -> conv5_1 (in-place)
I0624 16:32:52.917203 21043 layer_factory.hpp:77] Creating layer scale5_1
I0624 16:32:52.917304 21043 net.cpp:141] Setting up scale5_1
I0624 16:32:52.917310 21043 net.cpp:148] Top shape: 16 256 7 7 (200704)
I0624 16:32:52.917312 21043 net.cpp:156] Memory required for data: 409436352
I0624 16:32:52.917317 21043 layer_factory.hpp:77] Creating layer relu5_1
I0624 16:32:52.917325 21043 net.cpp:91] Creating Layer relu5_1
I0624 16:32:52.917328 21043 net.cpp:425] relu5_1 <- conv5_1
I0624 16:32:52.917335 21043 net.cpp:386] relu5_1 -> conv5_1 (in-place)
I0624 16:32:52.917486 21043 net.cpp:141] Setting up relu5_1
I0624 16:32:52.917495 21043 net.cpp:148] Top shape: 16 256 7 7 (200704)
I0624 16:32:52.917497 21043 net.cpp:156] Memory required for data: 410239168
I0624 16:32:52.917500 21043 layer_factory.hpp:77] Creating layer conv5_2
I0624 16:32:52.917510 21043 net.cpp:91] Creating Layer conv5_2
I0624 16:32:52.917515 21043 net.cpp:425] conv5_2 <- conv5_1
I0624 16:32:52.917523 21043 net.cpp:399] conv5_2 -> conv5_2
I0624 16:32:52.922866 21043 net.cpp:141] Setting up conv5_2
I0624 16:32:52.922879 21043 net.cpp:148] Top shape: 16 256 7 7 (200704)
I0624 16:32:52.922883 21043 net.cpp:156] Memory required for data: 411041984
I0624 16:32:52.922888 21043 layer_factory.hpp:77] Creating layer bn5_2
I0624 16:32:52.922894 21043 net.cpp:91] Creating Layer bn5_2
I0624 16:32:52.922897 21043 net.cpp:425] bn5_2 <- conv5_2
I0624 16:32:52.922905 21043 net.cpp:386] bn5_2 -> conv5_2 (in-place)
I0624 16:32:52.923079 21043 net.cpp:141] Setting up bn5_2
I0624 16:32:52.923085 21043 net.cpp:148] Top shape: 16 256 7 7 (200704)
I0624 16:32:52.923089 21043 net.cpp:156] Memory required for data: 411844800
I0624 16:32:52.923095 21043 layer_factory.hpp:77] Creating layer scale5_2
I0624 16:32:52.923105 21043 net.cpp:91] Creating Layer scale5_2
I0624 16:32:52.923111 21043 net.cpp:425] scale5_2 <- conv5_2
I0624 16:32:52.923117 21043 net.cpp:386] scale5_2 -> conv5_2 (in-place)
I0624 16:32:52.923171 21043 layer_factory.hpp:77] Creating layer scale5_2
I0624 16:32:52.923276 21043 net.cpp:141] Setting up scale5_2
I0624 16:32:52.923283 21043 net.cpp:148] Top shape: 16 256 7 7 (200704)
I0624 16:32:52.923291 21043 net.cpp:156] Memory required for data: 412647616
I0624 16:32:52.923297 21043 layer_factory.hpp:77] Creating layer relu5_2
I0624 16:32:52.923305 21043 net.cpp:91] Creating Layer relu5_2
I0624 16:32:52.923311 21043 net.cpp:425] relu5_2 <- conv5_2
I0624 16:32:52.923317 21043 net.cpp:386] relu5_2 -> conv5_2 (in-place)
I0624 16:32:52.923467 21043 net.cpp:141] Setting up relu5_2
I0624 16:32:52.923476 21043 net.cpp:148] Top shape: 16 256 7 7 (200704)
I0624 16:32:52.923480 21043 net.cpp:156] Memory required for data: 413450432
I0624 16:32:52.923482 21043 layer_factory.hpp:77] Creating layer pool5
I0624 16:32:52.923490 21043 net.cpp:91] Creating Layer pool5
I0624 16:32:52.923508 21043 net.cpp:425] pool5 <- conv5_2
I0624 16:32:52.923516 21043 net.cpp:399] pool5 -> pool5
I0624 16:32:52.923683 21043 net.cpp:141] Setting up pool5
I0624 16:32:52.923692 21043 net.cpp:148] Top shape: 16 256 1 1 (4096)
I0624 16:32:52.923696 21043 net.cpp:156] Memory required for data: 413466816
I0624 16:32:52.923698 21043 layer_factory.hpp:77] Creating layer fc2
I0624 16:32:52.923705 21043 net.cpp:91] Creating Layer fc2
I0624 16:32:52.923709 21043 net.cpp:425] fc2 <- pool5
I0624 16:32:52.923717 21043 net.cpp:399] fc2 -> fc2
I0624 16:32:52.923827 21043 net.cpp:141] Setting up fc2
I0624 16:32:52.923835 21043 net.cpp:148] Top shape: 16 2 (32)
I0624 16:32:52.923837 21043 net.cpp:156] Memory required for data: 413466944
I0624 16:32:52.923843 21043 layer_factory.hpp:77] Creating layer fc2_fc2_0_split
I0624 16:32:52.923849 21043 net.cpp:91] Creating Layer fc2_fc2_0_split
I0624 16:32:52.923856 21043 net.cpp:425] fc2_fc2_0_split <- fc2
I0624 16:32:52.923861 21043 net.cpp:399] fc2_fc2_0_split -> fc2_fc2_0_split_0
I0624 16:32:52.923868 21043 net.cpp:399] fc2_fc2_0_split -> fc2_fc2_0_split_1
I0624 16:32:52.923912 21043 net.cpp:141] Setting up fc2_fc2_0_split
I0624 16:32:52.923918 21043 net.cpp:148] Top shape: 16 2 (32)
I0624 16:32:52.923920 21043 net.cpp:148] Top shape: 16 2 (32)
I0624 16:32:52.923923 21043 net.cpp:156] Memory required for data: 413467200
I0624 16:32:52.923926 21043 layer_factory.hpp:77] Creating layer loss
I0624 16:32:52.923933 21043 net.cpp:91] Creating Layer loss
I0624 16:32:52.923938 21043 net.cpp:425] loss <- fc2_fc2_0_split_0
I0624 16:32:52.923943 21043 net.cpp:425] loss <- label_data_1_split_0
I0624 16:32:52.923949 21043 net.cpp:399] loss -> loss
…
