…
test_initialization: true
iter_size: 1
I0709 19:35:55.766829  5584 solver.cpp:81] Creating training net from train_net file: models/laddernet/train.prototxt
I0709 19:35:55.768926  5584 net.cpp:49] Initializing net from parameters: 
name: "LadderNet"
state {
  phase: TRAIN
}
layer {
  name: "data"
  type: "Data"
  top: "data"
  top: "label"
  include {
    phase: TRAIN
  }
  transform_param {
    scale: 0.0039215
    mirror: false
    mean_value: 100
    crop_h: 192
    crop_w: 256
  }
  data_param {
    source: "data/train_lmdb"
    batch_size: 12
    backend: LMDB
  }
}
layer {
  name: "noisy_data"
  type: "Noise"
  bottom: "data"
  top: "noisy_data"
  noise_param {
    sigma: 0.3
  }
}
layer {
  name: "conv1"
  type: "Convolution"
  bottom: "data"
  bottom: "noisy_data"
  top: "z1_pre"
  top: "z1_n"
  param {
    name: "conv1_w"
  }
  convolution_param {
    num_output: 64
    bias_term: false
    pad: 1
    kernel_size: 3
    stride: 1
    weight_filler {
      type: "xavier"
    }
  }
}
layer {
  name: "bn1"
  type: "BatchNorm"
  bottom: "z1_pre"
  top: "z1"
  top: "bn1_param"
  param {
    lr_mult: 0
  }
  param {
    lr_mult: 0
  }
  param {
    lr_mult: 0
  }
  batch_norm_param {
    use_global_stats: true
    eps: 0.001
    update_global_stats: true
  }
}
layer {
  name: "scale1"
  type: "Scale"
  bottom: "z1"
  top: "h1"
  param {
    name: "scale1_w"
  }
  param {
    name: "scale1_b"
  }
  scale_param {
    filler {
      type: "constant"
      value: 1
    }
    bias_term: true
    bias_filler {
      type: "constant"
      value: 0
    }
  }
}
layer {
  name: "relu1"
  type: "ReLU"
  bottom: "h1"
  top: "h1"
}
layer {
  name: "bn1_n"
  type: "BatchNorm"
  bottom: "z1_n"
  top: "z1_n"
  param {
    lr_mult: 0
  }
  param {
    lr_mult: 0
  }
  param {
    lr_mult: 0
  }
  batch_norm_param {
    use_global_stats: true
    eps: 0.001
    update_global_stats: true
  }
}
layer {
  name: "noisy_z1_n"
  type: "Noise"
  bottom: "z1_n"
  top: "z1_n"
  noise_param {
    sigma: 0.3
  }
}
layer {
  name: "scale1_n"
  type: "Scale"
  bottom: "z1_n"
  top: "h1_n"
  param {
    name: "scale1_w"
  }
  param {
    name: "scale1_b"
  }
  scale_param {
    filler {
      type: "constant"
      value: 1
    }
    bias_term: true
    bias_filler {
      type: "constant"
      value: 0
    }
  }
}
layer {
  name: "relu1_n"
  type: "ReLU"
  bottom: "h1_n"
  top: "h1_n"
}
layer {
  name: "pool1"
  type: "Pooling"
  bottom: "h1"
  top: "pool1"
  pooling_param {
    pool: MAX
    kernel_size: 2
    stride: 2
  }
}
layer {
  name: "pool1_n"
  type: "Pooling"
  bottom: "h1_n"
  top: "pool1_n"
  top: "pool1_n_mask"
  pooling_param {
    pool: MAX
    kernel_size: 2
    stride: 2
  }
}
layer {
  name: "conv2"
  type: "Convolution"
  bottom: "pool1"
  bottom: "pool1_n"
  top: "z2_pre"
  top: "z2_n"
  param {
    name: "conv2_w"
  }
  convolution_param {
    num_output: 128
    bias_term: false
    pad: 1
    kernel_size: 3
    stride: 1
    weight_filler {
      type: "xavier"
    }
  }
}
layer {
  name: "bn2"
  type: "BatchNorm"
  bottom: "z2_pre"
  top: "z2"
  top: "bn2_param"
  param {
    lr_mult: 0
  }
  param {
    lr_mult: 0
  }
  param {
    lr_mult: 0
  }
  batch_norm_param {
    use_global_stats: true
    eps: 0.001
    update_global_stats: true
  }
}
layer {
  name: "scale2"
  type: "Scale"
  bottom: "z2"
  top: "h2"
  param {
    name: "scale2_w"
  }
  param {
    name: "scale2_b"
  }
  scale_param {
    filler {
      type: "constant"
      value: 1
    }
    bias_term: true
    bias_filler {
      type: "constant"
      value: 0
    }
  }
}
layer {
  name: "relu2"
  type: "ReLU"
  bottom: "h2"
  top: "h2"
}
layer {
  name: "bn2_n"
  type: "BatchNorm"
  bottom: "z2_n"
  top: "z2_n"
  param {
    lr_mult: 0
  }
  param {
    lr_mult: 0
  }
  param {
    lr_mult: 0
  }
  batch_norm_param {
    use_global_stats: true
    eps: 0.001
    update_global_stats: true
  }
}
layer {
  name: "noisy_z2_n"
  type: "Noise"
  bottom: "z2_n"
  top: "z2_n"
  noise_param {
    sigma: 0.3
  }
}
layer {
  name: "scale2_n"
  type: "Scale"
  bottom: "z2_n"
  top: "h2_n"
  param {
    name: "scale2_w"
  }
  param {
    name: "scale2_b"
  }
  scale_param {
    filler {
      type: "constant"
      value: 1
    }
    bias_term: true
    bias_filler {
      type: "constant"
      value: 0
    }
  }
}
layer {
  name: "relu2_n"
  type: "ReLU"
  bottom: "h2_n"
  top: "h2_n"
}
layer {
  name: "pool2"
  type: "Pooling"
  bottom: "h2"
  top: "pool2"
  pooling_param {
    pool: MAX
    kernel_size: 2
    stride: 2
  }
}
layer {
  name: "pool2_n"
  type: "Pooling"
  bottom: "h2_n"
  top: "pool2_n"
  top: "pool2_n_mask"
  pooling_param {
    pool: MAX
    kernel_size: 2
    stride: 2
  }
}
layer {
  name: "conv3"
  type: "Convolution"
  bottom: "pool2"
  bottom: "pool2_n"
  top: "z3_pre"
  top: "z3_n"
  param {
    name: "conv3_w"
  }
  convolution_param {
    num_output: 256
    bias_term: false
    pad: 1
    kernel_size: 3
    stride: 1
    weight_filler {
      type: "xavier"
    }
  }
}
layer {
  name: "bn3"
  type: "BatchNorm"
  bottom: "z3_pre"
  top: "z3"
  top: "bn3_param"
  param {
    lr_mult: 0
  }
  param {
    lr_mult: 0
  }
  param {
    lr_mult: 0
  }
  batch_norm_param {
    use_global_stats: true
    eps: 0.001
    update_global_stats: true
  }
}
layer {
  name: "scale3"
  type: "Scale"
  bottom: "z3"
  top: "h3"
  param {
    name: "scale3_w"
  }
  param {
    name: "scale3_b"
  }
  scale_param {
    filler {
      type: "constant"
      value: 1
    }
    bias_term: true
    bias_filler {
      type: "constant"
      value: 0
    }
  }
}
layer {
  name: "relu3"
  type: "ReLU"
  bottom: "h3"
  top: "h3"
}
layer {
  name: "bn3_n"
  type: "BatchNorm"
  bottom: "z3_n"
  top: "z3_n"
  param {
    lr_mult: 0
  }
  param {
    lr_mult: 0
  }
  param {
    lr_mult: 0
  }
  batch_norm_param {
    use_global_stats: true
    eps: 0.001
    update_global_stats: true
  }
}
layer {
  name: "noisy_z3_n"
  type: "Noise"
  bottom: "z3_n"
  top: "z3_n"
  noise_param {
    sigma: 0.3
  }
}
layer {
  name: "scale3_n"
  type: "Scale"
  bottom: "z3_n"
  top: "h3_n"
  param {
    name: "scale3_w"
  }
  param {
    name: "scale3_b"
  }
  scale_param {
    filler {
      type: "constant"
      value: 1
    }
    bias_term: true
    bias_filler {
      type: "constant"
      value: 0
    }
  }
}
layer {
  name: "relu3_n"
  type: "ReLU"
  bottom: "h3_n"
  top: "h3_n"
}
layer {
  name: "pool3"
  type: "Pooling"
  bottom: "h3"
  top: "pool3"
  pooling_param {
    pool: MAX
    kernel_size: 2
    stride: 2
  }
}
layer {
  name: "pool3_n"
  type: "Pooling"
  bottom: "h3_n"
  top: "pool3_n"
  top: "pool3_n_mask"
  pooling_param {
    pool: MAX
    kernel_size: 2
    stride: 2
  }
}
layer {
  name: "conv4"
  type: "Convolution"
  bottom: "pool3"
  bottom: "pool3_n"
  top: "z4_pre"
  top: "z4_n"
  param {
    name: "conv4_w"
  }
  convolution_param {
    num_output: 512
    bias_term: false
    pad: 1
    kernel_size: 3
    stride: 1
    weight_filler {
      type: "xavier"
    }
  }
}
layer {
  name: "bn4"
  type: "BatchNorm"
  bottom: "z4_pre"
  top: "z4"
  top: "bn4_param"
  param {
    lr_mult: 0
  }
  param {
    lr_mult: 0
  }
  param {
    lr_mult: 0
  }
  batch_norm_param {
    use_global_stats: true
    eps: 0.001
    update_global_stats: true
  }
}
layer {
  name: "scale4"
  type: "Scale"
  bottom: "z4"
  top: "h4"
  param {
    name: "scale4_w"
  }
  param {
    name: "scale4_b"
  }
  scale_param {
    filler {
      type: "constant"
      value: 1
    }
    bias_term: true
    bias_filler {
      type: "constant"
      value: 0
    }
  }
}
layer {
  name: "relu4"
  type: "ReLU"
  bottom: "h4"
  top: "h4"
}
layer {
  name: "bn4_n"
  type: "BatchNorm"
  bottom: "z4_n"
  top: "z4_n"
  param {
    lr_mult: 0
  }
  param {
    lr_mult: 0
  }
  param {
    lr_mult: 0
  }
  batch_norm_param {
    use_global_stats: true
    eps: 0.001
    update_global_stats: true
  }
}
layer {
  name: "noisy_z4_n"
  type: "Noise"
  bottom: "z4_n"
  top: "z4_n"
  noise_param {
    sigma: 0.3
  }
}
layer {
  name: "scale4_n"
  type: "Scale"
  bottom: "z4_n"
  top: "h4_n"
  param {
    name: "scale4_w"
  }
  param {
    name: "scale4_b"
  }
  scale_param {
    filler {
      type: "constant"
      value: 1
    }
    bias_term: true
    bias_filler {
      type: "constant"
      value: 0
    }
  }
}
layer {
  name: "relu4_n"
  type: "ReLU"
  bottom: "h4_n"
  top: "h4_n"
}
layer {
  name: "pool4"
  type: "Pooling"
  bottom: "h4"
  top: "pool4"
  pooling_param {
    pool: MAX
    kernel_size: 2
    stride: 2
  }
}
layer {
  name: "pool4_n"
  type: "Pooling"
  bottom: "h4_n"
  top: "pool4_n"
  top: "pool4_n_mask"
  pooling_param {
    pool: MAX
    kernel_size: 2
    stride: 2
  }
}
layer {
  name: "conv5"
  type: "Convolution"
  bottom: "pool4"
  bottom: "pool4_n"
  top: "z5_pre"
  top: "z5_n"
  param {
    name: "conv5_w"
  }
  convolution_param {
    num_output: 512
    bias_term: false
    pad: 1
    kernel_size: 3
    stride: 1
    weight_filler {
      type: "xavier"
    }
  }
}
layer {
  name: "bn5"
  type: "BatchNorm"
  bottom: "z5_pre"
  top: "z5"
  top: "bn5_param"
  param {
    lr_mult: 0
  }
  param {
    lr_mult: 0
  }
  param {
    lr_mult: 0
  }
  batch_norm_param {
    use_global_stats: true
    eps: 0.001
    update_global_stats: true
  }
}
layer {
  name: "scale5"
  type: "Scale"
  bottom: "z5"
  top: "h5"
  param {
    name: "scale5_w"
  }
  param {
    name: "scale5_b"
  }
  scale_param {
    filler {
      type: "constant"
      value: 1
    }
    bias_term: true
    bias_filler {
      type: "constant"
      value: 0
    }
  }
}
layer {
  name: "relu5"
  type: "ReLU"
  bottom: "h5"
  top: "h5"
}
layer {
  name: "bn5_n"
  type: "BatchNorm"
  bottom: "z5_n"
  top: "z5_n"
  param {
    lr_mult: 0
  }
  param {
    lr_mult: 0
  }
  param {
    lr_mult: 0
  }
  batch_norm_param {
    use_global_stats: true
    eps: 0.001
    update_global_stats: true
  }
}
layer {
  name: "noisy_z5_n"
  type: "Noise"
  bottom: "z5_n"
  top: "z5_n"
  noise_param {
    sigma: 0.3
  }
}
layer {
  name: "scale5_n"
  type: "Scale"
  bottom: "z5_n"
  top: "h5_n"
  param {
    name: "scale5_w"
  }
  param {
    name: "scale5_b"
  }
  scale_param {
    filler {
      type: "constant"
      value: 1
    }
    bias_term: true
    bias_filler {
      type: "constant"
      value: 0
    }
  }
}
layer {
  name: "relu5_n"
  type: "ReLU"
  bottom: "h5_n"
  top: "h5_n"
}
layer {
  name: "pool5"
  type: "Pooling"
  bottom: "h5"
  top: "pool5"
  pooling_param {
    pool: MAX
    kernel_size: 2
    stride: 2
  }
}
layer {
  name: "pool5_n"
  type: "Pooling"
  bottom: "h5_n"
  top: "pool5_n"
  top: "pool5_n_mask"
  pooling_param {
    pool: MAX
    kernel_size: 2
    stride: 2
  }
}
layer {
  name: "conv6"
  type: "Convolution"
  bottom: "pool5"
  bottom: "pool5_n"
  top: "z6_pre"
  top: "z6_n"
  param {
    name: "conv6_w"
  }
  convolution_param {
    num_output: 512
    bias_term: false
    pad: 1
    kernel_size: 3
    stride: 1
    weight_filler {
      type: "xavier"
    }
  }
}
layer {
  name: "bn6"
  type: "BatchNorm"
  bottom: "z6_pre"
  top: "z6"
  top: "bn6_param"
  param {
    lr_mult: 0
  }
  param {
    lr_mult: 0
  }
  param {
    lr_mult: 0
  }
  batch_norm_param {
    use_global_stats: true
    eps: 0.001
    update_global_stats: true
  }
}
layer {
  name: "scale6"
  type: "Scale"
  bottom: "z6"
  top: "h6"
  param {
    name: "scale6_w"
  }
  param {
    name: "scale6_b"
  }
  scale_param {
    filler {
      type: "constant"
      value: 1
    }
    bias_term: true
    bias_filler {
      type: "constant"
      value: 0
    }
  }
}
layer {
  name: "relu6"
  type: "ReLU"
  bottom: "h6"
  top: "h6"
}
layer {
  name: "bn6_n"
  type: "BatchNorm"
  bottom: "z6_n"
  top: "z6_n"
  param {
    lr_mult: 0
  }
  param {
    lr_mult: 0
  }
  param {
    lr_mult: 0
  }
  batch_norm_param {
    use_global_stats: true
    eps: 0.001
    update_global_stats: true
  }
}
layer {
  name: "noisy_z6_n"
  type: "Noise"
  bottom: "z6_n"
  top: "z6_n"
  noise_param {
    sigma: 0.3
  }
}
layer {
  name: "scale6_n"
  type: "Scale"
  bottom: "z6_n"
  top: "h6_n"
  param {
    name: "scale6_w"
  }
  param {
    name: "scale6_b"
  }
  scale_param {
    filler {
      type: "constant"
      value: 1
    }
    bias_term: true
    bias_filler {
      type: "constant"
      value: 0
    }
  }
}
layer {
  name: "relu6_n"
  type: "ReLU"
  bottom: "h6_n"
  top: "h6_n"
}
layer {
  name: "u6"
  type: "BatchNorm"
  bottom: "h6_n"
  top: "u6"
  param {
    lr_mult: 0
  }
  param {
    lr_mult: 0
  }
  param {
    lr_mult: 0
  }
  batch_norm_param {
    use_global_stats: true
    eps: 0.001
    update_global_stats: true
  }
}
layer {
  name: "comb6"
  type: "VanillaLadderCombinator"
  bottom: "z6_n"
  bottom: "u6"
  top: "z6_r"
}
layer {
  name: "recon6"
  type: "Deconvolution"
  bottom: "z6_r"
  top: "h6_r"
  param {
    lr_mult: 1
  }
  convolution_param {
    num_output: 512
    bias_term: true
    pad: 1
    kernel_size: 3
    stride: 1
    weight_filler {
      type: "xavier"
    }
    bias_filler {
      type: "constant"
      value: 0
    }
  }
}
layer {
  name: "bn6_r"
  type: "BatchNorm"
  bottom: "h6_r"
  top: "h6_r"
  param {
    lr_mult: 0
  }
  param {
    lr_mult: 0
  }
  param {
    lr_mult: 0
  }
  batch_norm_param {
    use_global_stats: true
    eps: 0.001
    update_global_stats: true
  }
}
layer {
  name: "upsample5"
  type: "Upsample"
  bottom: "h6_r"
  bottom: "pool5_n_mask"
  top: "upsample5"
  upsample_param {
    scale: 2
  }
}
layer {
  name: "comb5"
  type: "VanillaLadderCombinator"
  bottom: "z5_n"
  bottom: "upsample5"
  top: "z5_r"
}
layer {
  name: "recon5"
  type: "Deconvolution"
  bottom: "z5_r"
  top: "h5_r"
  param {
    lr_mult: 1
  }
  convolution_param {
    num_output: 512
    bias_term: true
    pad: 1
    kernel_size: 3
    stride: 1
    weight_filler {
      type: "xavier"
    }
    bias_filler {
      type: "constant"
      value: 0
    }
  }
}
layer {
  name: "bn5_r"
  type: "BatchNorm"
  bottom: "h5_r"
  top: "h5_r"
  param {
    lr_mult: 0
  }
  param {
    lr_mult: 0
  }
  param {
    lr_mult: 0
  }
  batch_norm_param {
    use_global_stats: true
    eps: 0.001
    update_global_stats: true
  }
}
layer {
  name: "upsample4"
  type: "Upsample"
  bottom: "h5_r"
  bottom: "pool4_n_mask"
  top: "upsample4"
  upsample_param {
    scale: 2
  }
}
layer {
  name: "comb4"
  type: "VanillaLadderCombinator"
  bottom: "z4_n"
  bottom: "upsample4"
  top: "z4_r"
}
layer {
  name: "recon4"
  type: "Deconvolution"
  bottom: "z4_r"
  top: "h4_r"
  param {
    lr_mult: 1
  }
  convolution_param {
    num_output: 256
    bias_term: true
    pad: 1
    kernel_size: 3
    stride: 1
    weight_filler {
      type: "xavier"
    }
    bias_filler {
      type: "constant"
      value: 0
    }
  }
}
layer {
  name: "bn4_r"
  type: "BatchNorm"
  bottom: "h4_r"
  top: "h4_r"
  param {
    lr_mult: 0
  }
  param {
    lr_mult: 0
  }
  param {
    lr_mult: 0
  }
  batch_norm_param {
    use_global_stats: true
    eps: 0.001
    update_global_stats: true
  }
}
layer {
  name: "upsample3"
  type: "Upsample"
  bottom: "h4_r"
  bottom: "pool3_n_mask"
  top: "upsample3"
  upsample_param {
    scale: 2
  }
}
layer {
  name: "comb3"
  type: "VanillaLadderCombinator"
  bottom: "z3_n"
  bottom: "upsample3"
  top: "z3_r"
}
layer {
  name: "recon3"
  type: "Deconvolution"
  bottom: "z3_r"
  top: "h3_r"
  param {
    lr_mult: 1
  }
  convolution_param {
    num_output: 128
    bias_term: true
    pad: 1
    kernel_size: 3
    stride: 1
    weight_filler {
      type: "xavier"
    }
    bias_filler {
      type: "constant"
      value: 0
    }
  }
}
layer {
  name: "bn3_r"
  type: "BatchNorm"
  bottom: "h3_r"
  top: "h3_r"
  param {
    lr_mult: 0
  }
  param {
    lr_mult: 0
  }
  param {
    lr_mult: 0
  }
  batch_norm_param {
    use_global_stats: true
    eps: 0.001
    update_global_stats: true
  }
}
layer {
  name: "upsample2"
  type: "Upsample"
  bottom: "h3_r"
  bottom: "pool2_n_mask"
  top: "upsample2"
  upsample_param {
    scale: 2
  }
}
layer {
  name: "comb2"
  type: "VanillaLadderCombinator"
  bottom: "z2_n"
  bottom: "upsample2"
  top: "z2_r"
}
layer {
  name: "recon2"
  type: "Deconvolution"
  bottom: "z2_r"
  top: "h2_r"
  param {
    lr_mult: 1
  }
  convolution_param {
    num_output: 64
    bias_term: true
    pad: 1
    kernel_size: 3
    stride: 1
    weight_filler {
      type: "xavier"
    }
    bias_filler {
      type: "constant"
      value: 0
    }
  }
}
layer {
  name: "bn2_r"
  type: "BatchNorm"
  bottom: "h2_r"
  top: "h2_r"
  param {
    lr_mult: 0
  }
  param {
    lr_mult: 0
  }
  param {
    lr_mult: 0
  }
  batch_norm_param {
    use_global_stats: true
    eps: 0.001
    update_global_stats: true
  }
}
layer {
  name: "upsample1"
  type: "Upsample"
  bottom: "h2_r"
  bottom: "pool1_n_mask"
  top: "upsample1"
  upsample_param {
    scale: 2
  }
}
layer {
  name: "comb1"
  type: "VanillaLadderCombinator"
  bottom: "z1_n"
  bottom: "upsample1"
  top: "z1_r"
}
layer {
  name: "recon1"
  type: "Deconvolution"
  bottom: "z1_r"
  top: "h1_r"
  param {
    lr_mult: 1
  }
  convolution_param {
    num_output: 1
    bias_term: true
    pad: 1
    kernel_size: 3
    stride: 1
    weight_filler {
      type: "xavier"
    }
    bias_filler {
      type: "constant"
      value: 0
    }
  }
}
layer {
  name: "bn1_r"
  type: "BatchNorm"
  bottom: "h1_r"
  top: "h1_r"
  param {
    lr_mult: 0
  }
  param {
    lr_mult: 0
  }
  param {
    lr_mult: 0
  }
  batch_norm_param {
    use_global_stats: true
    eps: 0.001
    update_global_stats: true
  }
}
layer {
  name: "comb0"
  type: "VanillaLadderCombinator"
  bottom: "noisy_data"
  bottom: "h1_r"
  top: "z0_r"
}
layer {
  name: "loss_ladder_6"
  type: "LadderLoss"
  bottom: "z6"
  bottom: "z6_r"
  bottom: "bn6_param"
  top: "loss_ladder_6"
  loss_weight: 1
}
layer {
  name: "loss_ladder_5"
  type: "LadderLoss"
  bottom: "z5"
  bottom: "z5_r"
  bottom: "bn5_param"
  top: "loss_ladder_5"
  loss_weight: 1
}
layer {
  name: "loss_ladder_4"
  type: "LadderLoss"
  bottom: "z4"
  bottom: "z4_r"
  bottom: "bn4_param"
  top: "loss_ladder_4"
  loss_weight: 1
}
layer {
  name: "loss_ladder_3"
  type: "LadderLoss"
  bottom: "z3"
  bottom: "z3_r"
  bottom: "bn3_param"
  top: "loss_ladder_3"
  loss_weight: 1
}
layer {
  name: "loss_ladder_2"
  type: "LadderLoss"
  bottom: "z2"
  bottom: "z2_r"
  bottom: "bn2_param"
  top: "loss_ladder_2"
  loss_weight: 1
}
layer {
  name: "loss_ladder_1"
  type: "LadderLoss"
  bottom: "z1"
  bottom: "z1_r"
  bottom: "bn1_param"
  top: "loss_ladder_1"
  loss_weight: 1
}
layer {
  name: "loss_ladder_0"
  type: "LadderLoss"
  bottom: "noisy_data"
  bottom: "z0_r"
  top: "loss_ladder_0"
  loss_weight: 1
}
layer {
  name: "pool_final"
  type: "Pooling"
  bottom: "h6"
  top: "pool_final"
  pooling_param {
    pool: AVE
    stride: 1
    kernel_h: 6
    kernel_w: 8
  }
}
layer {
  name: "score"
  type: "InnerProduct"
  bottom: "pool_final"
  top: "score"
  inner_product_param {
    num_output: 2
    weight_filler {
      type: "xavier"
    }
  }
}
layer {
  name: "loss_supervised"
  type: "SoftmaxWithLoss"
  bottom: "score"
  bottom: "label"
  top: "loss_supervised"
}
layer {
  name: "accuracy"
  type: "Accuracy"
  bottom: "score"
  bottom: "label"
  top: "accuracy"
}
I0709 19:35:55.769428  5584 layer_factory.hpp:77] Creating layer data
I0709 19:35:55.769870  5584 net.cpp:91] Creating Layer data
I0709 19:35:55.769883  5584 net.cpp:399] data -> data
I0709 19:35:55.769908  5584 net.cpp:399] data -> label
I0709 19:35:55.771164  5588 db_lmdb.cpp:35] Opened lmdb data/train_lmdb
I0709 19:35:55.789070  5584 data_layer.cpp:42] output data size: 12,1,192,256
I0709 19:35:55.794476  5584 net.cpp:141] Setting up data
I0709 19:35:55.794503  5584 net.cpp:148] Top shape: 12 1 192 256 (589824)
I0709 19:35:55.794507  5584 net.cpp:148] Top shape: 12 (12)
I0709 19:35:55.794510  5584 net.cpp:156] Memory required for data: 2359344
I0709 19:35:55.794533  5584 layer_factory.hpp:77] Creating layer data_data_0_split
I0709 19:35:55.794548  5584 net.cpp:91] Creating Layer data_data_0_split
I0709 19:35:55.794553  5584 net.cpp:425] data_data_0_split <- data
I0709 19:35:55.794564  5584 net.cpp:399] data_data_0_split -> data_data_0_split_0
I0709 19:35:55.794574  5584 net.cpp:399] data_data_0_split -> data_data_0_split_1
I0709 19:35:55.794673  5584 net.cpp:141] Setting up data_data_0_split
I0709 19:35:55.794687  5584 net.cpp:148] Top shape: 12 1 192 256 (589824)
I0709 19:35:55.794690  5584 net.cpp:148] Top shape: 12 1 192 256 (589824)
I0709 19:35:55.794692  5584 net.cpp:156] Memory required for data: 7077936
I0709 19:35:55.794695  5584 layer_factory.hpp:77] Creating layer label_data_1_split
I0709 19:35:55.794700  5584 net.cpp:91] Creating Layer label_data_1_split
I0709 19:35:55.794703  5584 net.cpp:425] label_data_1_split <- label
I0709 19:35:55.794708  5584 net.cpp:399] label_data_1_split -> label_data_1_split_0
I0709 19:35:55.794714  5584 net.cpp:399] label_data_1_split -> label_data_1_split_1
I0709 19:35:55.794747  5584 net.cpp:141] Setting up label_data_1_split
I0709 19:35:55.794754  5584 net.cpp:148] Top shape: 12 (12)
I0709 19:35:55.794757  5584 net.cpp:148] Top shape: 12 (12)
I0709 19:35:55.794764  5584 net.cpp:156] Memory required for data: 7078032
I0709 19:35:55.794767  5584 layer_factory.hpp:77] Creating layer noisy_data
I0709 19:35:55.794776  5584 net.cpp:91] Creating Layer noisy_data
I0709 19:35:55.794778  5584 net.cpp:425] noisy_data <- data_data_0_split_0
I0709 19:35:55.794782  5584 net.cpp:399] noisy_data -> noisy_data
I0709 19:35:55.794812  5584 net.cpp:141] Setting up noisy_data
I0709 19:35:55.794817  5584 net.cpp:148] Top shape: 12 1 192 256 (589824)
I0709 19:35:55.794819  5584 net.cpp:156] Memory required for data: 9437328
I0709 19:35:55.794821  5584 layer_factory.hpp:77] Creating layer noisy_data_noisy_data_0_split
I0709 19:35:55.794826  5584 net.cpp:91] Creating Layer noisy_data_noisy_data_0_split
I0709 19:35:55.794828  5584 net.cpp:425] noisy_data_noisy_data_0_split <- noisy_data
I0709 19:35:55.794833  5584 net.cpp:399] noisy_data_noisy_data_0_split -> noisy_data_noisy_data_0_split_0
I0709 19:35:55.794837  5584 net.cpp:399] noisy_data_noisy_data_0_split -> noisy_data_noisy_data_0_split_1
I0709 19:35:55.794842  5584 net.cpp:399] noisy_data_noisy_data_0_split -> noisy_data_noisy_data_0_split_2
I0709 19:35:55.794877  5584 net.cpp:141] Setting up noisy_data_noisy_data_0_split
I0709 19:35:55.794880  5584 net.cpp:148] Top shape: 12 1 192 256 (589824)
I0709 19:35:55.794884  5584 net.cpp:148] Top shape: 12 1 192 256 (589824)
I0709 19:35:55.794888  5584 net.cpp:148] Top shape: 12 1 192 256 (589824)
I0709 19:35:55.794889  5584 net.cpp:156] Memory required for data: 16515216
I0709 19:35:55.794891  5584 layer_factory.hpp:77] Creating layer conv1
I0709 19:35:55.794906  5584 net.cpp:91] Creating Layer conv1
I0709 19:35:55.794909  5584 net.cpp:425] conv1 <- data_data_0_split_1
I0709 19:35:55.794912  5584 net.cpp:425] conv1 <- noisy_data_noisy_data_0_split_0
I0709 19:35:55.794916  5584 net.cpp:399] conv1 -> z1_pre
I0709 19:35:55.794922  5584 net.cpp:399] conv1 -> z1_n
I0709 19:35:56.052109  5584 net.cpp:141] Setting up conv1
I0709 19:35:56.052134  5584 net.cpp:148] Top shape: 12 64 192 256 (37748736)
I0709 19:35:56.052139  5584 net.cpp:148] Top shape: 12 64 192 256 (37748736)
I0709 19:35:56.052141  5584 net.cpp:156] Memory required for data: 318505104
I0709 19:35:56.052155  5584 layer_factory.hpp:77] Creating layer bn1
I0709 19:35:56.052171  5584 net.cpp:91] Creating Layer bn1
I0709 19:35:56.052175  5584 net.cpp:425] bn1 <- z1_pre
I0709 19:35:56.052181  5584 net.cpp:399] bn1 -> z1
I0709 19:35:56.052192  5584 net.cpp:399] bn1 -> bn1_param
I0709 19:35:56.053028  5584 net.cpp:141] Setting up bn1
I0709 19:35:56.053041  5584 net.cpp:148] Top shape: 12 64 192 256 (37748736)
I0709 19:35:56.053045  5584 net.cpp:148] Top shape: 2 64 (128)
I0709 19:35:56.053046  5584 net.cpp:156] Memory required for data: 469500560
I0709 19:35:56.053072  5584 layer_factory.hpp:77] Creating layer z1_bn1_0_split
I0709 19:35:56.053081  5584 net.cpp:91] Creating Layer z1_bn1_0_split
I0709 19:35:56.053083  5584 net.cpp:425] z1_bn1_0_split <- z1
I0709 19:35:56.053088  5584 net.cpp:399] z1_bn1_0_split -> z1_bn1_0_split_0
I0709 19:35:56.053093  5584 net.cpp:399] z1_bn1_0_split -> z1_bn1_0_split_1
I0709 19:35:56.053128  5584 net.cpp:141] Setting up z1_bn1_0_split
I0709 19:35:56.053135  5584 net.cpp:148] Top shape: 12 64 192 256 (37748736)
I0709 19:35:56.053139  5584 net.cpp:148] Top shape: 12 64 192 256 (37748736)
I0709 19:35:56.053141  5584 net.cpp:156] Memory required for data: 771490448
I0709 19:35:56.053143  5584 layer_factory.hpp:77] Creating layer scale1
I0709 19:35:56.053154  5584 net.cpp:91] Creating Layer scale1
I0709 19:35:56.053158  5584 net.cpp:425] scale1 <- z1_bn1_0_split_0
I0709 19:35:56.053163  5584 net.cpp:399] scale1 -> h1
I0709 19:35:56.053205  5584 layer_factory.hpp:77] Creating layer scale1
I0709 19:35:56.053352  5584 net.cpp:141] Setting up scale1
I0709 19:35:56.053361  5584 net.cpp:148] Top shape: 12 64 192 256 (37748736)
I0709 19:35:56.053364  5584 net.cpp:156] Memory required for data: 922485392
I0709 19:35:56.053370  5584 layer_factory.hpp:77] Creating layer relu1
I0709 19:35:56.053376  5584 net.cpp:91] Creating Layer relu1
I0709 19:35:56.053380  5584 net.cpp:425] relu1 <- h1
I0709 19:35:56.053382  5584 net.cpp:386] relu1 -> h1 (in-place)
I0709 19:35:56.053678  5584 net.cpp:141] Setting up relu1
I0709 19:35:56.053690  5584 net.cpp:148] Top shape: 12 64 192 256 (37748736)
I0709 19:35:56.053692  5584 net.cpp:156] Memory required for data: 1073480336
I0709 19:35:56.053696  5584 layer_factory.hpp:77] Creating layer bn1_n
I0709 19:35:56.053702  5584 net.cpp:91] Creating Layer bn1_n
I0709 19:35:56.053705  5584 net.cpp:425] bn1_n <- z1_n
I0709 19:35:56.053710  5584 net.cpp:386] bn1_n -> z1_n (in-place)
I0709 19:35:56.053894  5584 net.cpp:141] Setting up bn1_n
I0709 19:35:56.053901  5584 net.cpp:148] Top shape: 12 64 192 256 (37748736)
I0709 19:35:56.053903  5584 net.cpp:156] Memory required for data: 1224475280
I0709 19:35:56.053912  5584 layer_factory.hpp:77] Creating layer noisy_z1_n
I0709 19:35:56.053918  5584 net.cpp:91] Creating Layer noisy_z1_n
I0709 19:35:56.053920  5584 net.cpp:425] noisy_z1_n <- z1_n
I0709 19:35:56.053926  5584 net.cpp:386] noisy_z1_n -> z1_n (in-place)
I0709 19:35:56.053947  5584 net.cpp:141] Setting up noisy_z1_n
I0709 19:35:56.053953  5584 net.cpp:148] Top shape: 12 64 192 256 (37748736)
I0709 19:35:56.053956  5584 net.cpp:156] Memory required for data: 1375470224
I0709 19:35:56.053958  5584 layer_factory.hpp:77] Creating layer z1_n_noisy_z1_n_0_split
I0709 19:35:56.053962  5584 net.cpp:91] Creating Layer z1_n_noisy_z1_n_0_split
I0709 19:35:56.053966  5584 net.cpp:425] z1_n_noisy_z1_n_0_split <- z1_n
I0709 19:35:56.053969  5584 net.cpp:399] z1_n_noisy_z1_n_0_split -> z1_n_noisy_z1_n_0_split_0
I0709 19:35:56.053974  5584 net.cpp:399] z1_n_noisy_z1_n_0_split -> z1_n_noisy_z1_n_0_split_1
I0709 19:35:56.054003  5584 net.cpp:141] Setting up z1_n_noisy_z1_n_0_split
I0709 19:35:56.054008  5584 net.cpp:148] Top shape: 12 64 192 256 (37748736)
I0709 19:35:56.054013  5584 net.cpp:148] Top shape: 12 64 192 256 (37748736)
I0709 19:35:56.054014  5584 net.cpp:156] Memory required for data: 1677460112
I0709 19:35:56.054016  5584 layer_factory.hpp:77] Creating layer scale1_n
I0709 19:35:56.054023  5584 net.cpp:91] Creating Layer scale1_n
I0709 19:35:56.054026  5584 net.cpp:425] scale1_n <- z1_n_noisy_z1_n_0_split_0
I0709 19:35:56.054031  5584 net.cpp:399] scale1_n -> h1_n
I0709 19:35:56.054064  5584 layer_factory.hpp:77] Creating layer scale1_n
I0709 19:35:56.054852  5584 net.cpp:141] Setting up scale1_n
I0709 19:35:56.054863  5584 net.cpp:148] Top shape: 12 64 192 256 (37748736)
I0709 19:35:56.054867  5584 net.cpp:156] Memory required for data: 1828455056
I0709 19:35:56.054870  5584 net.cpp:484] Sharing parameters 'scale1_w' owned by layer 'scale1', param index 0
I0709 19:35:56.054873  5584 net.cpp:484] Sharing parameters 'scale1_b' owned by layer 'scale1', param index 1
I0709 19:35:56.054886  5584 layer_factory.hpp:77] Creating layer relu1_n
I0709 19:35:56.054891  5584 net.cpp:91] Creating Layer relu1_n
I0709 19:35:56.054894  5584 net.cpp:425] relu1_n <- h1_n
I0709 19:35:56.054898  5584 net.cpp:386] relu1_n -> h1_n (in-place)
I0709 19:35:56.055049  5584 net.cpp:141] Setting up relu1_n
I0709 19:35:56.055058  5584 net.cpp:148] Top shape: 12 64 192 256 (37748736)
I0709 19:35:56.055061  5584 net.cpp:156] Memory required for data: 1979450000
I0709 19:35:56.055064  5584 layer_factory.hpp:77] Creating layer pool1
I0709 19:35:56.055071  5584 net.cpp:91] Creating Layer pool1
I0709 19:35:56.055074  5584 net.cpp:425] pool1 <- h1
I0709 19:35:56.055080  5584 net.cpp:399] pool1 -> pool1
I0709 19:35:56.055136  5584 net.cpp:141] Setting up pool1
I0709 19:35:56.055145  5584 net.cpp:148] Top shape: 12 64 96 128 (9437184)
I0709 19:35:56.055146  5584 net.cpp:156] Memory required for data: 2017198736
I0709 19:35:56.055148  5584 layer_factory.hpp:77] Creating layer pool1_n
I0709 19:35:56.055151  5584 layer_factory.cpp:90] cuDNN does not support multiple tops. Using Caffe's own pooling layer.
I0709 19:35:56.055160  5584 net.cpp:91] Creating Layer pool1_n
I0709 19:35:56.055162  5584 net.cpp:425] pool1_n <- h1_n
I0709 19:35:56.055166  5584 net.cpp:399] pool1_n -> pool1_n
I0709 19:35:56.055172  5584 net.cpp:399] pool1_n -> pool1_n_mask
I0709 19:35:56.055203  5584 net.cpp:141] Setting up pool1_n
I0709 19:35:56.055209  5584 net.cpp:148] Top shape: 12 64 96 128 (9437184)
I0709 19:35:56.055212  5584 net.cpp:148] Top shape: 12 64 96 128 (9437184)
I0709 19:35:56.055215  5584 net.cpp:156] Memory required for data: 2092696208
I0709 19:35:56.055217  5584 layer_factory.hpp:77] Creating layer conv2
I0709 19:35:56.055227  5584 net.cpp:91] Creating Layer conv2
I0709 19:35:56.055229  5584 net.cpp:425] conv2 <- pool1
I0709 19:35:56.055233  5584 net.cpp:425] conv2 <- pool1_n
I0709 19:35:56.055238  5584 net.cpp:399] conv2 -> z2_pre
I0709 19:35:56.055244  5584 net.cpp:399] conv2 -> z2_n
I0709 19:35:56.057292  5584 net.cpp:141] Setting up conv2
I0709 19:35:56.057306  5584 net.cpp:148] Top shape: 12 128 96 128 (18874368)
I0709 19:35:56.057309  5584 net.cpp:148] Top shape: 12 128 96 128 (18874368)
I0709 19:35:56.057312  5584 net.cpp:156] Memory required for data: 2243691152
I0709 19:35:56.057317  5584 layer_factory.hpp:77] Creating layer bn2
I0709 19:35:56.057324  5584 net.cpp:91] Creating Layer bn2
I0709 19:35:56.057327  5584 net.cpp:425] bn2 <- z2_pre
I0709 19:35:56.057333  5584 net.cpp:399] bn2 -> z2
I0709 19:35:56.057339  5584 net.cpp:399] bn2 -> bn2_param
I0709 19:35:56.058130  5584 net.cpp:141] Setting up bn2
I0709 19:35:56.058140  5584 net.cpp:148] Top shape: 12 128 96 128 (18874368)
I0709 19:35:56.058145  5584 net.cpp:148] Top shape: 2 128 (256)
I0709 19:35:56.058146  5584 net.cpp:156] Memory required for data: 2319189648
I0709 19:35:56.058153  5584 layer_factory.hpp:77] Creating layer z2_bn2_0_split
I0709 19:35:56.058159  5584 net.cpp:91] Creating Layer z2_bn2_0_split
I0709 19:35:56.058162  5584 net.cpp:425] z2_bn2_0_split <- z2
I0709 19:35:56.058167  5584 net.cpp:399] z2_bn2_0_split -> z2_bn2_0_split_0
I0709 19:35:56.058173  5584 net.cpp:399] z2_bn2_0_split -> z2_bn2_0_split_1
I0709 19:35:56.058207  5584 net.cpp:141] Setting up z2_bn2_0_split
I0709 19:35:56.058213  5584 net.cpp:148] Top shape: 12 128 96 128 (18874368)
I0709 19:35:56.058217  5584 net.cpp:148] Top shape: 12 128 96 128 (18874368)
I0709 19:35:56.058218  5584 net.cpp:156] Memory required for data: 2470184592
I0709 19:35:56.058220  5584 layer_factory.hpp:77] Creating layer scale2
I0709 19:35:56.058228  5584 net.cpp:91] Creating Layer scale2
I0709 19:35:56.058230  5584 net.cpp:425] scale2 <- z2_bn2_0_split_0
I0709 19:35:56.058234  5584 net.cpp:399] scale2 -> h2
I0709 19:35:56.058269  5584 layer_factory.hpp:77] Creating layer scale2
I0709 19:35:56.058364  5584 net.cpp:141] Setting up scale2
I0709 19:35:56.058372  5584 net.cpp:148] Top shape: 12 128 96 128 (18874368)
I0709 19:35:56.058375  5584 net.cpp:156] Memory required for data: 2545682064
I0709 19:35:56.058393  5584 layer_factory.hpp:77] Creating layer relu2
I0709 19:35:56.058405  5584 net.cpp:91] Creating Layer relu2
I0709 19:35:56.058408  5584 net.cpp:425] relu2 <- h2
I0709 19:35:56.058413  5584 net.cpp:386] relu2 -> h2 (in-place)
I0709 19:35:56.058701  5584 net.cpp:141] Setting up relu2
I0709 19:35:56.058713  5584 net.cpp:148] Top shape: 12 128 96 128 (18874368)
I0709 19:35:56.058717  5584 net.cpp:156] Memory required for data: 2621179536
I0709 19:35:56.058719  5584 layer_factory.hpp:77] Creating layer bn2_n
I0709 19:35:56.058727  5584 net.cpp:91] Creating Layer bn2_n
I0709 19:35:56.058729  5584 net.cpp:425] bn2_n <- z2_n
I0709 19:35:56.058734  5584 net.cpp:386] bn2_n -> z2_n (in-place)
I0709 19:35:56.058893  5584 net.cpp:141] Setting up bn2_n
I0709 19:35:56.058902  5584 net.cpp:148] Top shape: 12 128 96 128 (18874368)
I0709 19:35:56.058903  5584 net.cpp:156] Memory required for data: 2696677008
I0709 19:35:56.058910  5584 layer_factory.hpp:77] Creating layer noisy_z2_n
I0709 19:35:56.058917  5584 net.cpp:91] Creating Layer noisy_z2_n
I0709 19:35:56.058919  5584 net.cpp:425] noisy_z2_n <- z2_n
I0709 19:35:56.058923  5584 net.cpp:386] noisy_z2_n -> z2_n (in-place)
I0709 19:35:56.058943  5584 net.cpp:141] Setting up noisy_z2_n
I0709 19:35:56.058949  5584 net.cpp:148] Top shape: 12 128 96 128 (18874368)
I0709 19:35:56.058953  5584 net.cpp:156] Memory required for data: 2772174480
I0709 19:35:56.058954  5584 layer_factory.hpp:77] Creating layer z2_n_noisy_z2_n_0_split
I0709 19:35:56.058959  5584 net.cpp:91] Creating Layer z2_n_noisy_z2_n_0_split
I0709 19:35:56.058961  5584 net.cpp:425] z2_n_noisy_z2_n_0_split <- z2_n
I0709 19:35:56.058964  5584 net.cpp:399] z2_n_noisy_z2_n_0_split -> z2_n_noisy_z2_n_0_split_0
I0709 19:35:56.058969  5584 net.cpp:399] z2_n_noisy_z2_n_0_split -> z2_n_noisy_z2_n_0_split_1
I0709 19:35:56.059000  5584 net.cpp:141] Setting up z2_n_noisy_z2_n_0_split
I0709 19:35:56.059006  5584 net.cpp:148] Top shape: 12 128 96 128 (18874368)
I0709 19:35:56.059010  5584 net.cpp:148] Top shape: 12 128 96 128 (18874368)
I0709 19:35:56.059011  5584 net.cpp:156] Memory required for data: 2923169424
I0709 19:35:56.059015  5584 layer_factory.hpp:77] Creating layer scale2_n
I0709 19:35:56.059020  5584 net.cpp:91] Creating Layer scale2_n
I0709 19:35:56.059023  5584 net.cpp:425] scale2_n <- z2_n_noisy_z2_n_0_split_0
I0709 19:35:56.059028  5584 net.cpp:399] scale2_n -> h2_n
I0709 19:35:56.059068  5584 layer_factory.hpp:77] Creating layer scale2_n
I0709 19:35:56.059161  5584 net.cpp:141] Setting up scale2_n
I0709 19:35:56.059170  5584 net.cpp:148] Top shape: 12 128 96 128 (18874368)
I0709 19:35:56.059171  5584 net.cpp:156] Memory required for data: 2998666896
I0709 19:35:56.059175  5584 net.cpp:484] Sharing parameters 'scale2_w' owned by layer 'scale2', param index 0
I0709 19:35:56.059178  5584 net.cpp:484] Sharing parameters 'scale2_b' owned by layer 'scale2', param index 1
I0709 19:35:56.059181  5584 layer_factory.hpp:77] Creating layer relu2_n
I0709 19:35:56.059185  5584 net.cpp:91] Creating Layer relu2_n
I0709 19:35:56.059188  5584 net.cpp:425] relu2_n <- h2_n
I0709 19:35:56.059193  5584 net.cpp:386] relu2_n -> h2_n (in-place)
I0709 19:35:56.059345  5584 net.cpp:141] Setting up relu2_n
I0709 19:35:56.059355  5584 net.cpp:148] Top shape: 12 128 96 128 (18874368)
I0709 19:35:56.059357  5584 net.cpp:156] Memory required for data: 3074164368
I0709 19:35:56.059360  5584 layer_factory.hpp:77] Creating layer pool2
I0709 19:35:56.059366  5584 net.cpp:91] Creating Layer pool2
I0709 19:35:56.059370  5584 net.cpp:425] pool2 <- h2
I0709 19:35:56.059375  5584 net.cpp:399] pool2 -> pool2
I0709 19:35:56.059412  5584 net.cpp:141] Setting up pool2
I0709 19:35:56.059419  5584 net.cpp:148] Top shape: 12 128 48 64 (4718592)
I0709 19:35:56.059422  5584 net.cpp:156] Memory required for data: 3093038736
I0709 19:35:56.059424  5584 layer_factory.hpp:77] Creating layer pool2_n
I0709 19:35:56.059427  5584 layer_factory.cpp:90] cuDNN does not support multiple tops. Using Caffe's own pooling layer.
I0709 19:35:56.059442  5584 net.cpp:91] Creating Layer pool2_n
I0709 19:35:56.059445  5584 net.cpp:425] pool2_n <- h2_n
I0709 19:35:56.059455  5584 net.cpp:399] pool2_n -> pool2_n
I0709 19:35:56.059460  5584 net.cpp:399] pool2_n -> pool2_n_mask
I0709 19:35:56.059492  5584 net.cpp:141] Setting up pool2_n
I0709 19:35:56.059499  5584 net.cpp:148] Top shape: 12 128 48 64 (4718592)
I0709 19:35:56.059501  5584 net.cpp:148] Top shape: 12 128 48 64 (4718592)
I0709 19:35:56.059504  5584 net.cpp:156] Memory required for data: 3130787472
I0709 19:35:56.059506  5584 layer_factory.hpp:77] Creating layer conv3
I0709 19:35:56.059516  5584 net.cpp:91] Creating Layer conv3
I0709 19:35:56.059520  5584 net.cpp:425] conv3 <- pool2
I0709 19:35:56.059522  5584 net.cpp:425] conv3 <- pool2_n
I0709 19:35:56.059526  5584 net.cpp:399] conv3 -> z3_pre
I0709 19:35:56.059532  5584 net.cpp:399] conv3 -> z3_n
I0709 19:35:56.062933  5584 net.cpp:141] Setting up conv3
I0709 19:35:56.062947  5584 net.cpp:148] Top shape: 12 256 48 64 (9437184)
I0709 19:35:56.062950  5584 net.cpp:148] Top shape: 12 256 48 64 (9437184)
I0709 19:35:56.062952  5584 net.cpp:156] Memory required for data: 3206284944
I0709 19:35:56.062958  5584 layer_factory.hpp:77] Creating layer bn3
I0709 19:35:56.062964  5584 net.cpp:91] Creating Layer bn3
I0709 19:35:56.062968  5584 net.cpp:425] bn3 <- z3_pre
I0709 19:35:56.062973  5584 net.cpp:399] bn3 -> z3
I0709 19:35:56.062979  5584 net.cpp:399] bn3 -> bn3_param
I0709 19:35:56.063782  5584 net.cpp:141] Setting up bn3
I0709 19:35:56.063794  5584 net.cpp:148] Top shape: 12 256 48 64 (9437184)
I0709 19:35:56.063797  5584 net.cpp:148] Top shape: 2 256 (512)
I0709 19:35:56.063799  5584 net.cpp:156] Memory required for data: 3244035728
I0709 19:35:56.063805  5584 layer_factory.hpp:77] Creating layer z3_bn3_0_split
I0709 19:35:56.063812  5584 net.cpp:91] Creating Layer z3_bn3_0_split
I0709 19:35:56.063815  5584 net.cpp:425] z3_bn3_0_split <- z3
I0709 19:35:56.063820  5584 net.cpp:399] z3_bn3_0_split -> z3_bn3_0_split_0
I0709 19:35:56.063827  5584 net.cpp:399] z3_bn3_0_split -> z3_bn3_0_split_1
I0709 19:35:56.063858  5584 net.cpp:141] Setting up z3_bn3_0_split
I0709 19:35:56.063863  5584 net.cpp:148] Top shape: 12 256 48 64 (9437184)
I0709 19:35:56.063866  5584 net.cpp:148] Top shape: 12 256 48 64 (9437184)
I0709 19:35:56.063868  5584 net.cpp:156] Memory required for data: 3319533200
I0709 19:35:56.063870  5584 layer_factory.hpp:77] Creating layer scale3
I0709 19:35:56.063879  5584 net.cpp:91] Creating Layer scale3
I0709 19:35:56.063886  5584 net.cpp:425] scale3 <- z3_bn3_0_split_0
I0709 19:35:56.063891  5584 net.cpp:399] scale3 -> h3
I0709 19:35:56.063928  5584 layer_factory.hpp:77] Creating layer scale3
I0709 19:35:56.064012  5584 net.cpp:141] Setting up scale3
I0709 19:35:56.064019  5584 net.cpp:148] Top shape: 12 256 48 64 (9437184)
I0709 19:35:56.064023  5584 net.cpp:156] Memory required for data: 3357281936
I0709 19:35:56.064028  5584 layer_factory.hpp:77] Creating layer relu3
I0709 19:35:56.064033  5584 net.cpp:91] Creating Layer relu3
I0709 19:35:56.064035  5584 net.cpp:425] relu3 <- h3
I0709 19:35:56.064038  5584 net.cpp:386] relu3 -> h3 (in-place)
I0709 19:35:56.064316  5584 net.cpp:141] Setting up relu3
I0709 19:35:56.064327  5584 net.cpp:148] Top shape: 12 256 48 64 (9437184)
I0709 19:35:56.064330  5584 net.cpp:156] Memory required for data: 3395030672
I0709 19:35:56.064333  5584 layer_factory.hpp:77] Creating layer bn3_n
I0709 19:35:56.064340  5584 net.cpp:91] Creating Layer bn3_n
I0709 19:35:56.064343  5584 net.cpp:425] bn3_n <- z3_n
I0709 19:35:56.064347  5584 net.cpp:386] bn3_n -> z3_n (in-place)
I0709 19:35:56.064499  5584 net.cpp:141] Setting up bn3_n
I0709 19:35:56.064505  5584 net.cpp:148] Top shape: 12 256 48 64 (9437184)
I0709 19:35:56.064508  5584 net.cpp:156] Memory required for data: 3432779408
I0709 19:35:56.064514  5584 layer_factory.hpp:77] Creating layer noisy_z3_n
I0709 19:35:56.064522  5584 net.cpp:91] Creating Layer noisy_z3_n
I0709 19:35:56.064524  5584 net.cpp:425] noisy_z3_n <- z3_n
I0709 19:35:56.064528  5584 net.cpp:386] noisy_z3_n -> z3_n (in-place)
I0709 19:35:56.064560  5584 net.cpp:141] Setting up noisy_z3_n
I0709 19:35:56.064568  5584 net.cpp:148] Top shape: 12 256 48 64 (9437184)
I0709 19:35:56.064569  5584 net.cpp:156] Memory required for data: 3470528144
I0709 19:35:56.064571  5584 layer_factory.hpp:77] Creating layer z3_n_noisy_z3_n_0_split
I0709 19:35:56.064575  5584 net.cpp:91] Creating Layer z3_n_noisy_z3_n_0_split
I0709 19:35:56.064579  5584 net.cpp:425] z3_n_noisy_z3_n_0_split <- z3_n
I0709 19:35:56.064584  5584 net.cpp:399] z3_n_noisy_z3_n_0_split -> z3_n_noisy_z3_n_0_split_0
I0709 19:35:56.064589  5584 net.cpp:399] z3_n_noisy_z3_n_0_split -> z3_n_noisy_z3_n_0_split_1
I0709 19:35:56.064616  5584 net.cpp:141] Setting up z3_n_noisy_z3_n_0_split
I0709 19:35:56.064622  5584 net.cpp:148] Top shape: 12 256 48 64 (9437184)
I0709 19:35:56.064625  5584 net.cpp:148] Top shape: 12 256 48 64 (9437184)
I0709 19:35:56.064627  5584 net.cpp:156] Memory required for data: 3546025616
I0709 19:35:56.064630  5584 layer_factory.hpp:77] Creating layer scale3_n
I0709 19:35:56.064637  5584 net.cpp:91] Creating Layer scale3_n
I0709 19:35:56.064640  5584 net.cpp:425] scale3_n <- z3_n_noisy_z3_n_0_split_0
I0709 19:35:56.064645  5584 net.cpp:399] scale3_n -> h3_n
I0709 19:35:56.064678  5584 layer_factory.hpp:77] Creating layer scale3_n
I0709 19:35:56.064760  5584 net.cpp:141] Setting up scale3_n
I0709 19:35:56.064767  5584 net.cpp:148] Top shape: 12 256 48 64 (9437184)
I0709 19:35:56.064769  5584 net.cpp:156] Memory required for data: 3583774352
I0709 19:35:56.064772  5584 net.cpp:484] Sharing parameters 'scale3_w' owned by layer 'scale3', param index 0
I0709 19:35:56.064780  5584 net.cpp:484] Sharing parameters 'scale3_b' owned by layer 'scale3', param index 1
I0709 19:35:56.064784  5584 layer_factory.hpp:77] Creating layer relu3_n
I0709 19:35:56.064788  5584 net.cpp:91] Creating Layer relu3_n
I0709 19:35:56.064791  5584 net.cpp:425] relu3_n <- h3_n
I0709 19:35:56.064795  5584 net.cpp:386] relu3_n -> h3_n (in-place)
I0709 19:35:56.064942  5584 net.cpp:141] Setting up relu3_n
I0709 19:35:56.064951  5584 net.cpp:148] Top shape: 12 256 48 64 (9437184)
I0709 19:35:56.064954  5584 net.cpp:156] Memory required for data: 3621523088
I0709 19:35:56.064956  5584 layer_factory.hpp:77] Creating layer pool3
I0709 19:35:56.064965  5584 net.cpp:91] Creating Layer pool3
I0709 19:35:56.064970  5584 net.cpp:425] pool3 <- h3
I0709 19:35:56.064973  5584 net.cpp:399] pool3 -> pool3
I0709 19:35:56.065012  5584 net.cpp:141] Setting up pool3
I0709 19:35:56.065018  5584 net.cpp:148] Top shape: 12 256 24 32 (2359296)
I0709 19:35:56.065021  5584 net.cpp:156] Memory required for data: 3630960272
I0709 19:35:56.065023  5584 layer_factory.hpp:77] Creating layer pool3_n
I0709 19:35:56.065026  5584 layer_factory.cpp:90] cuDNN does not support multiple tops. Using Caffe's own pooling layer.
I0709 19:35:56.065032  5584 net.cpp:91] Creating Layer pool3_n
I0709 19:35:56.065034  5584 net.cpp:425] pool3_n <- h3_n
I0709 19:35:56.065038  5584 net.cpp:399] pool3_n -> pool3_n
I0709 19:35:56.065043  5584 net.cpp:399] pool3_n -> pool3_n_mask
I0709 19:35:56.065074  5584 net.cpp:141] Setting up pool3_n
I0709 19:35:56.065079  5584 net.cpp:148] Top shape: 12 256 24 32 (2359296)
I0709 19:35:56.065083  5584 net.cpp:148] Top shape: 12 256 24 32 (2359296)
I0709 19:35:56.065084  5584 net.cpp:156] Memory required for data: 3649834640
I0709 19:35:56.065088  5584 layer_factory.hpp:77] Creating layer conv4
I0709 19:35:56.065095  5584 net.cpp:91] Creating Layer conv4
I0709 19:35:56.065099  5584 net.cpp:425] conv4 <- pool3
I0709 19:35:56.065101  5584 net.cpp:425] conv4 <- pool3_n
I0709 19:35:56.065106  5584 net.cpp:399] conv4 -> z4_pre
I0709 19:35:56.065112  5584 net.cpp:399] conv4 -> z4_n
I0709 19:35:56.076251  5584 net.cpp:141] Setting up conv4
I0709 19:35:56.076268  5584 net.cpp:148] Top shape: 12 512 24 32 (4718592)
I0709 19:35:56.076272  5584 net.cpp:148] Top shape: 12 512 24 32 (4718592)
I0709 19:35:56.076274  5584 net.cpp:156] Memory required for data: 3687583376
I0709 19:35:56.076280  5584 layer_factory.hpp:77] Creating layer bn4
I0709 19:35:56.076300  5584 net.cpp:91] Creating Layer bn4
I0709 19:35:56.076304  5584 net.cpp:425] bn4 <- z4_pre
I0709 19:35:56.076309  5584 net.cpp:399] bn4 -> z4
I0709 19:35:56.076315  5584 net.cpp:399] bn4 -> bn4_param
I0709 19:35:56.076496  5584 net.cpp:141] Setting up bn4
I0709 19:35:56.076504  5584 net.cpp:148] Top shape: 12 512 24 32 (4718592)
I0709 19:35:56.076508  5584 net.cpp:148] Top shape: 2 512 (1024)
I0709 19:35:56.076510  5584 net.cpp:156] Memory required for data: 3706461840
I0709 19:35:56.076516  5584 layer_factory.hpp:77] Creating layer z4_bn4_0_split
I0709 19:35:56.076524  5584 net.cpp:91] Creating Layer z4_bn4_0_split
I0709 19:35:56.076526  5584 net.cpp:425] z4_bn4_0_split <- z4
I0709 19:35:56.076531  5584 net.cpp:399] z4_bn4_0_split -> z4_bn4_0_split_0
I0709 19:35:56.076536  5584 net.cpp:399] z4_bn4_0_split -> z4_bn4_0_split_1
I0709 19:35:56.076567  5584 net.cpp:141] Setting up z4_bn4_0_split
I0709 19:35:56.076573  5584 net.cpp:148] Top shape: 12 512 24 32 (4718592)
I0709 19:35:56.076577  5584 net.cpp:148] Top shape: 12 512 24 32 (4718592)
I0709 19:35:56.076580  5584 net.cpp:156] Memory required for data: 3744210576
I0709 19:35:56.076581  5584 layer_factory.hpp:77] Creating layer scale4
I0709 19:35:56.076588  5584 net.cpp:91] Creating Layer scale4
I0709 19:35:56.076591  5584 net.cpp:425] scale4 <- z4_bn4_0_split_0
I0709 19:35:56.076596  5584 net.cpp:399] scale4 -> h4
I0709 19:35:56.076629  5584 layer_factory.hpp:77] Creating layer scale4
I0709 19:35:56.076719  5584 net.cpp:141] Setting up scale4
I0709 19:35:56.076725  5584 net.cpp:148] Top shape: 12 512 24 32 (4718592)
I0709 19:35:56.076727  5584 net.cpp:156] Memory required for data: 3763084944
I0709 19:35:56.076732  5584 layer_factory.hpp:77] Creating layer relu4
I0709 19:35:56.076737  5584 net.cpp:91] Creating Layer relu4
I0709 19:35:56.076740  5584 net.cpp:425] relu4 <- h4
I0709 19:35:56.076743  5584 net.cpp:386] relu4 -> h4 (in-place)
I0709 19:35:56.076899  5584 net.cpp:141] Setting up relu4
I0709 19:35:56.076907  5584 net.cpp:148] Top shape: 12 512 24 32 (4718592)
I0709 19:35:56.076910  5584 net.cpp:156] Memory required for data: 3781959312
I0709 19:35:56.076912  5584 layer_factory.hpp:77] Creating layer bn4_n
I0709 19:35:56.076918  5584 net.cpp:91] Creating Layer bn4_n
I0709 19:35:56.076925  5584 net.cpp:425] bn4_n <- z4_n
I0709 19:35:56.076930  5584 net.cpp:386] bn4_n -> z4_n (in-place)
I0709 19:35:56.077078  5584 net.cpp:141] Setting up bn4_n
I0709 19:35:56.077085  5584 net.cpp:148] Top shape: 12 512 24 32 (4718592)
I0709 19:35:56.077087  5584 net.cpp:156] Memory required for data: 3800833680
I0709 19:35:56.077093  5584 layer_factory.hpp:77] Creating layer noisy_z4_n
I0709 19:35:56.077098  5584 net.cpp:91] Creating Layer noisy_z4_n
I0709 19:35:56.077100  5584 net.cpp:425] noisy_z4_n <- z4_n
I0709 19:35:56.077105  5584 net.cpp:386] noisy_z4_n -> z4_n (in-place)
I0709 19:35:56.077124  5584 net.cpp:141] Setting up noisy_z4_n
I0709 19:35:56.077131  5584 net.cpp:148] Top shape: 12 512 24 32 (4718592)
I0709 19:35:56.077133  5584 net.cpp:156] Memory required for data: 3819708048
I0709 19:35:56.077136  5584 layer_factory.hpp:77] Creating layer z4_n_noisy_z4_n_0_split
I0709 19:35:56.077139  5584 net.cpp:91] Creating Layer z4_n_noisy_z4_n_0_split
I0709 19:35:56.077142  5584 net.cpp:425] z4_n_noisy_z4_n_0_split <- z4_n
I0709 19:35:56.077145  5584 net.cpp:399] z4_n_noisy_z4_n_0_split -> z4_n_noisy_z4_n_0_split_0
I0709 19:35:56.077149  5584 net.cpp:399] z4_n_noisy_z4_n_0_split -> z4_n_noisy_z4_n_0_split_1
I0709 19:35:56.077178  5584 net.cpp:141] Setting up z4_n_noisy_z4_n_0_split
I0709 19:35:56.077183  5584 net.cpp:148] Top shape: 12 512 24 32 (4718592)
I0709 19:35:56.077186  5584 net.cpp:148] Top shape: 12 512 24 32 (4718592)
I0709 19:35:56.077188  5584 net.cpp:156] Memory required for data: 3857456784
I0709 19:35:56.077190  5584 layer_factory.hpp:77] Creating layer scale4_n
I0709 19:35:56.077198  5584 net.cpp:91] Creating Layer scale4_n
I0709 19:35:56.077199  5584 net.cpp:425] scale4_n <- z4_n_noisy_z4_n_0_split_0
I0709 19:35:56.077214  5584 net.cpp:399] scale4_n -> h4_n
I0709 19:35:56.077252  5584 layer_factory.hpp:77] Creating layer scale4_n
I0709 19:35:56.077344  5584 net.cpp:141] Setting up scale4_n
I0709 19:35:56.077350  5584 net.cpp:148] Top shape: 12 512 24 32 (4718592)
I0709 19:35:56.077353  5584 net.cpp:156] Memory required for data: 3876331152
I0709 19:35:56.077356  5584 net.cpp:484] Sharing parameters 'scale4_w' owned by layer 'scale4', param index 0
I0709 19:35:56.077359  5584 net.cpp:484] Sharing parameters 'scale4_b' owned by layer 'scale4', param index 1
I0709 19:35:56.077363  5584 layer_factory.hpp:77] Creating layer relu4_n
I0709 19:35:56.077366  5584 net.cpp:91] Creating Layer relu4_n
I0709 19:35:56.077369  5584 net.cpp:425] relu4_n <- h4_n
I0709 19:35:56.077373  5584 net.cpp:386] relu4_n -> h4_n (in-place)
I0709 19:35:56.077639  5584 net.cpp:141] Setting up relu4_n
I0709 19:35:56.077651  5584 net.cpp:148] Top shape: 12 512 24 32 (4718592)
I0709 19:35:56.077653  5584 net.cpp:156] Memory required for data: 3895205520
I0709 19:35:56.077656  5584 layer_factory.hpp:77] Creating layer pool4
I0709 19:35:56.077661  5584 net.cpp:91] Creating Layer pool4
I0709 19:35:56.077664  5584 net.cpp:425] pool4 <- h4
I0709 19:35:56.077671  5584 net.cpp:399] pool4 -> pool4
I0709 19:35:56.077708  5584 net.cpp:141] Setting up pool4
I0709 19:35:56.077715  5584 net.cpp:148] Top shape: 12 512 12 16 (1179648)
I0709 19:35:56.077718  5584 net.cpp:156] Memory required for data: 3899924112
I0709 19:35:56.077720  5584 layer_factory.hpp:77] Creating layer pool4_n
I0709 19:35:56.077723  5584 layer_factory.cpp:90] cuDNN does not support multiple tops. Using Caffe's own pooling layer.
I0709 19:35:56.077728  5584 net.cpp:91] Creating Layer pool4_n
I0709 19:35:56.077730  5584 net.cpp:425] pool4_n <- h4_n
I0709 19:35:56.077734  5584 net.cpp:399] pool4_n -> pool4_n
I0709 19:35:56.077740  5584 net.cpp:399] pool4_n -> pool4_n_mask
I0709 19:35:56.077769  5584 net.cpp:141] Setting up pool4_n
I0709 19:35:56.077775  5584 net.cpp:148] Top shape: 12 512 12 16 (1179648)
I0709 19:35:56.077778  5584 net.cpp:148] Top shape: 12 512 12 16 (1179648)
I0709 19:35:56.077780  5584 net.cpp:156] Memory required for data: 3909361296
I0709 19:35:56.077783  5584 layer_factory.hpp:77] Creating layer conv5
I0709 19:35:56.077792  5584 net.cpp:91] Creating Layer conv5
I0709 19:35:56.077795  5584 net.cpp:425] conv5 <- pool4
I0709 19:35:56.077798  5584 net.cpp:425] conv5 <- pool4_n
I0709 19:35:56.077805  5584 net.cpp:399] conv5 -> z5_pre
I0709 19:35:56.077810  5584 net.cpp:399] conv5 -> z5_n
I0709 19:35:56.097112  5584 net.cpp:141] Setting up conv5
I0709 19:35:56.097136  5584 net.cpp:148] Top shape: 12 512 12 16 (1179648)
I0709 19:35:56.097141  5584 net.cpp:148] Top shape: 12 512 12 16 (1179648)
I0709 19:35:56.097142  5584 net.cpp:156] Memory required for data: 3918798480
I0709 19:35:56.097149  5584 layer_factory.hpp:77] Creating layer bn5
I0709 19:35:56.097160  5584 net.cpp:91] Creating Layer bn5
I0709 19:35:56.097164  5584 net.cpp:425] bn5 <- z5_pre
I0709 19:35:56.097170  5584 net.cpp:399] bn5 -> z5
I0709 19:35:56.097183  5584 net.cpp:399] bn5 -> bn5_param
I0709 19:35:56.097369  5584 net.cpp:141] Setting up bn5
I0709 19:35:56.097378  5584 net.cpp:148] Top shape: 12 512 12 16 (1179648)
I0709 19:35:56.097380  5584 net.cpp:148] Top shape: 2 512 (1024)
I0709 19:35:56.097383  5584 net.cpp:156] Memory required for data: 3923521168
I0709 19:35:56.097389  5584 layer_factory.hpp:77] Creating layer z5_bn5_0_split
I0709 19:35:56.097394  5584 net.cpp:91] Creating Layer z5_bn5_0_split
I0709 19:35:56.097398  5584 net.cpp:425] z5_bn5_0_split <- z5
I0709 19:35:56.097401  5584 net.cpp:399] z5_bn5_0_split -> z5_bn5_0_split_0
I0709 19:35:56.097405  5584 net.cpp:399] z5_bn5_0_split -> z5_bn5_0_split_1
I0709 19:35:56.097439  5584 net.cpp:141] Setting up z5_bn5_0_split
I0709 19:35:56.097445  5584 net.cpp:148] Top shape: 12 512 12 16 (1179648)
I0709 19:35:56.097448  5584 net.cpp:148] Top shape: 12 512 12 16 (1179648)
I0709 19:35:56.097450  5584 net.cpp:156] Memory required for data: 3932958352
I0709 19:35:56.097468  5584 layer_factory.hpp:77] Creating layer scale5
I0709 19:35:56.097477  5584 net.cpp:91] Creating Layer scale5
I0709 19:35:56.097481  5584 net.cpp:425] scale5 <- z5_bn5_0_split_0
I0709 19:35:56.097484  5584 net.cpp:399] scale5 -> h5
I0709 19:35:56.097523  5584 layer_factory.hpp:77] Creating layer scale5
I0709 19:35:56.097618  5584 net.cpp:141] Setting up scale5
I0709 19:35:56.097625  5584 net.cpp:148] Top shape: 12 512 12 16 (1179648)
I0709 19:35:56.097628  5584 net.cpp:156] Memory required for data: 3937676944
I0709 19:35:56.097633  5584 layer_factory.hpp:77] Creating layer relu5
I0709 19:35:56.097641  5584 net.cpp:91] Creating Layer relu5
I0709 19:35:56.097645  5584 net.cpp:425] relu5 <- h5
I0709 19:35:56.097650  5584 net.cpp:386] relu5 -> h5 (in-place)
I0709 19:35:56.097795  5584 net.cpp:141] Setting up relu5
I0709 19:35:56.097803  5584 net.cpp:148] Top shape: 12 512 12 16 (1179648)
I0709 19:35:56.097806  5584 net.cpp:156] Memory required for data: 3942395536
I0709 19:35:56.097810  5584 layer_factory.hpp:77] Creating layer bn5_n
I0709 19:35:56.097815  5584 net.cpp:91] Creating Layer bn5_n
I0709 19:35:56.097817  5584 net.cpp:425] bn5_n <- z5_n
I0709 19:35:56.097822  5584 net.cpp:386] bn5_n -> z5_n (in-place)
I0709 19:35:56.097975  5584 net.cpp:141] Setting up bn5_n
I0709 19:35:56.097981  5584 net.cpp:148] Top shape: 12 512 12 16 (1179648)
I0709 19:35:56.097983  5584 net.cpp:156] Memory required for data: 3947114128
I0709 19:35:56.097990  5584 layer_factory.hpp:77] Creating layer noisy_z5_n
I0709 19:35:56.097995  5584 net.cpp:91] Creating Layer noisy_z5_n
I0709 19:35:56.097998  5584 net.cpp:425] noisy_z5_n <- z5_n
I0709 19:35:56.098002  5584 net.cpp:386] noisy_z5_n -> z5_n (in-place)
I0709 19:35:56.098021  5584 net.cpp:141] Setting up noisy_z5_n
I0709 19:35:56.098028  5584 net.cpp:148] Top shape: 12 512 12 16 (1179648)
I0709 19:35:56.098031  5584 net.cpp:156] Memory required for data: 3951832720
I0709 19:35:56.098032  5584 layer_factory.hpp:77] Creating layer z5_n_noisy_z5_n_0_split
I0709 19:35:56.098037  5584 net.cpp:91] Creating Layer z5_n_noisy_z5_n_0_split
I0709 19:35:56.098038  5584 net.cpp:425] z5_n_noisy_z5_n_0_split <- z5_n
I0709 19:35:56.098042  5584 net.cpp:399] z5_n_noisy_z5_n_0_split -> z5_n_noisy_z5_n_0_split_0
I0709 19:35:56.098047  5584 net.cpp:399] z5_n_noisy_z5_n_0_split -> z5_n_noisy_z5_n_0_split_1
I0709 19:35:56.098075  5584 net.cpp:141] Setting up z5_n_noisy_z5_n_0_split
I0709 19:35:56.098080  5584 net.cpp:148] Top shape: 12 512 12 16 (1179648)
I0709 19:35:56.098084  5584 net.cpp:148] Top shape: 12 512 12 16 (1179648)
I0709 19:35:56.098086  5584 net.cpp:156] Memory required for data: 3961269904
I0709 19:35:56.098088  5584 layer_factory.hpp:77] Creating layer scale5_n
I0709 19:35:56.098094  5584 net.cpp:91] Creating Layer scale5_n
I0709 19:35:56.098096  5584 net.cpp:425] scale5_n <- z5_n_noisy_z5_n_0_split_0
I0709 19:35:56.098101  5584 net.cpp:399] scale5_n -> h5_n
I0709 19:35:56.098134  5584 layer_factory.hpp:77] Creating layer scale5_n
I0709 19:35:56.098224  5584 net.cpp:141] Setting up scale5_n
I0709 19:35:56.098230  5584 net.cpp:148] Top shape: 12 512 12 16 (1179648)
I0709 19:35:56.098232  5584 net.cpp:156] Memory required for data: 3965988496
I0709 19:35:56.098235  5584 net.cpp:484] Sharing parameters 'scale5_w' owned by layer 'scale5', param index 0
I0709 19:35:56.098239  5584 net.cpp:484] Sharing parameters 'scale5_b' owned by layer 'scale5', param index 1
I0709 19:35:56.098242  5584 layer_factory.hpp:77] Creating layer relu5_n
I0709 19:35:56.098247  5584 net.cpp:91] Creating Layer relu5_n
I0709 19:35:56.098249  5584 net.cpp:425] relu5_n <- h5_n
I0709 19:35:56.098253  5584 net.cpp:386] relu5_n -> h5_n (in-place)
I0709 19:35:56.098528  5584 net.cpp:141] Setting up relu5_n
I0709 19:35:56.098539  5584 net.cpp:148] Top shape: 12 512 12 16 (1179648)
I0709 19:35:56.098541  5584 net.cpp:156] Memory required for data: 3970707088
I0709 19:35:56.098544  5584 layer_factory.hpp:77] Creating layer pool5
I0709 19:35:56.098551  5584 net.cpp:91] Creating Layer pool5
I0709 19:35:56.098553  5584 net.cpp:425] pool5 <- h5
I0709 19:35:56.098569  5584 net.cpp:399] pool5 -> pool5
I0709 19:35:56.098613  5584 net.cpp:141] Setting up pool5
I0709 19:35:56.098619  5584 net.cpp:148] Top shape: 12 512 6 8 (294912)
I0709 19:35:56.098621  5584 net.cpp:156] Memory required for data: 3971886736
I0709 19:35:56.098624  5584 layer_factory.hpp:77] Creating layer pool5_n
I0709 19:35:56.098626  5584 layer_factory.cpp:90] cuDNN does not support multiple tops. Using Caffe's own pooling layer.
I0709 19:35:56.098639  5584 net.cpp:91] Creating Layer pool5_n
I0709 19:35:56.098645  5584 net.cpp:425] pool5_n <- h5_n
I0709 19:35:56.098650  5584 net.cpp:399] pool5_n -> pool5_n
I0709 19:35:56.098655  5584 net.cpp:399] pool5_n -> pool5_n_mask
I0709 19:35:56.098687  5584 net.cpp:141] Setting up pool5_n
I0709 19:35:56.098691  5584 net.cpp:148] Top shape: 12 512 6 8 (294912)
I0709 19:35:56.098695  5584 net.cpp:148] Top shape: 12 512 6 8 (294912)
I0709 19:35:56.098696  5584 net.cpp:156] Memory required for data: 3974246032
I0709 19:35:56.098700  5584 layer_factory.hpp:77] Creating layer conv6
I0709 19:35:56.098708  5584 net.cpp:91] Creating Layer conv6
I0709 19:35:56.098711  5584 net.cpp:425] conv6 <- pool5
I0709 19:35:56.098714  5584 net.cpp:425] conv6 <- pool5_n
I0709 19:35:56.098719  5584 net.cpp:399] conv6 -> z6_pre
I0709 19:35:56.098726  5584 net.cpp:399] conv6 -> z6_n
I0709 19:35:56.117485  5584 net.cpp:141] Setting up conv6
I0709 19:35:56.117514  5584 net.cpp:148] Top shape: 12 512 6 8 (294912)
I0709 19:35:56.117518  5584 net.cpp:148] Top shape: 12 512 6 8 (294912)
I0709 19:35:56.117521  5584 net.cpp:156] Memory required for data: 3976605328
I0709 19:35:56.117529  5584 layer_factory.hpp:77] Creating layer bn6
I0709 19:35:56.117542  5584 net.cpp:91] Creating Layer bn6
I0709 19:35:56.117547  5584 net.cpp:425] bn6 <- z6_pre
I0709 19:35:56.117553  5584 net.cpp:399] bn6 -> z6
I0709 19:35:56.117561  5584 net.cpp:399] bn6 -> bn6_param
I0709 19:35:56.117755  5584 net.cpp:141] Setting up bn6
I0709 19:35:56.117763  5584 net.cpp:148] Top shape: 12 512 6 8 (294912)
I0709 19:35:56.117766  5584 net.cpp:148] Top shape: 2 512 (1024)
I0709 19:35:56.117769  5584 net.cpp:156] Memory required for data: 3977789072
I0709 19:35:56.117775  5584 layer_factory.hpp:77] Creating layer z6_bn6_0_split
I0709 19:35:56.117781  5584 net.cpp:91] Creating Layer z6_bn6_0_split
I0709 19:35:56.117784  5584 net.cpp:425] z6_bn6_0_split <- z6
I0709 19:35:56.117789  5584 net.cpp:399] z6_bn6_0_split -> z6_bn6_0_split_0
I0709 19:35:56.117794  5584 net.cpp:399] z6_bn6_0_split -> z6_bn6_0_split_1
I0709 19:35:56.117827  5584 net.cpp:141] Setting up z6_bn6_0_split
I0709 19:35:56.117831  5584 net.cpp:148] Top shape: 12 512 6 8 (294912)
I0709 19:35:56.117833  5584 net.cpp:148] Top shape: 12 512 6 8 (294912)
I0709 19:35:56.117835  5584 net.cpp:156] Memory required for data: 3980148368
I0709 19:35:56.117838  5584 layer_factory.hpp:77] Creating layer scale6
I0709 19:35:56.117847  5584 net.cpp:91] Creating Layer scale6
I0709 19:35:56.117854  5584 net.cpp:425] scale6 <- z6_bn6_0_split_0
I0709 19:35:56.117859  5584 net.cpp:399] scale6 -> h6
I0709 19:35:56.117897  5584 layer_factory.hpp:77] Creating layer scale6
I0709 19:35:56.117990  5584 net.cpp:141] Setting up scale6
I0709 19:35:56.117997  5584 net.cpp:148] Top shape: 12 512 6 8 (294912)
I0709 19:35:56.118000  5584 net.cpp:156] Memory required for data: 3981328016
I0709 19:35:56.118005  5584 layer_factory.hpp:77] Creating layer relu6
I0709 19:35:56.118010  5584 net.cpp:91] Creating Layer relu6
I0709 19:35:56.118012  5584 net.cpp:425] relu6 <- h6
I0709 19:35:56.118016  5584 net.cpp:386] relu6 -> h6 (in-place)
I0709 19:35:56.118170  5584 net.cpp:141] Setting up relu6
I0709 19:35:56.118178  5584 net.cpp:148] Top shape: 12 512 6 8 (294912)
I0709 19:35:56.118180  5584 net.cpp:156] Memory required for data: 3982507664
I0709 19:35:56.118183  5584 layer_factory.hpp:77] Creating layer bn6_n
I0709 19:35:56.118190  5584 net.cpp:91] Creating Layer bn6_n
I0709 19:35:56.118192  5584 net.cpp:425] bn6_n <- z6_n
I0709 19:35:56.118197  5584 net.cpp:386] bn6_n -> z6_n (in-place)
I0709 19:35:56.118373  5584 net.cpp:141] Setting up bn6_n
I0709 19:35:56.118381  5584 net.cpp:148] Top shape: 12 512 6 8 (294912)
I0709 19:35:56.118384  5584 net.cpp:156] Memory required for data: 3983687312
I0709 19:35:56.118389  5584 layer_factory.hpp:77] Creating layer noisy_z6_n
I0709 19:35:56.118396  5584 net.cpp:91] Creating Layer noisy_z6_n
I0709 19:35:56.118399  5584 net.cpp:425] noisy_z6_n <- z6_n
I0709 19:35:56.118405  5584 net.cpp:386] noisy_z6_n -> z6_n (in-place)
I0709 19:35:56.118427  5584 net.cpp:141] Setting up noisy_z6_n
I0709 19:35:56.118430  5584 net.cpp:148] Top shape: 12 512 6 8 (294912)
I0709 19:35:56.118432  5584 net.cpp:156] Memory required for data: 3984866960
I0709 19:35:56.118435  5584 layer_factory.hpp:77] Creating layer z6_n_noisy_z6_n_0_split
I0709 19:35:56.118439  5584 net.cpp:91] Creating Layer z6_n_noisy_z6_n_0_split
I0709 19:35:56.118441  5584 net.cpp:425] z6_n_noisy_z6_n_0_split <- z6_n
I0709 19:35:56.118444  5584 net.cpp:399] z6_n_noisy_z6_n_0_split -> z6_n_noisy_z6_n_0_split_0
I0709 19:35:56.118448  5584 net.cpp:399] z6_n_noisy_z6_n_0_split -> z6_n_noisy_z6_n_0_split_1
I0709 19:35:56.118477  5584 net.cpp:141] Setting up z6_n_noisy_z6_n_0_split
I0709 19:35:56.118481  5584 net.cpp:148] Top shape: 12 512 6 8 (294912)
I0709 19:35:56.118484  5584 net.cpp:148] Top shape: 12 512 6 8 (294912)
I0709 19:35:56.118486  5584 net.cpp:156] Memory required for data: 3987226256
I0709 19:35:56.118489  5584 layer_factory.hpp:77] Creating layer scale6_n
I0709 19:35:56.118495  5584 net.cpp:91] Creating Layer scale6_n
I0709 19:35:56.118497  5584 net.cpp:425] scale6_n <- z6_n_noisy_z6_n_0_split_0
I0709 19:35:56.118502  5584 net.cpp:399] scale6_n -> h6_n
I0709 19:35:56.118535  5584 layer_factory.hpp:77] Creating layer scale6_n
I0709 19:35:56.118624  5584 net.cpp:141] Setting up scale6_n
I0709 19:35:56.118631  5584 net.cpp:148] Top shape: 12 512 6 8 (294912)
I0709 19:35:56.118633  5584 net.cpp:156] Memory required for data: 3988405904
I0709 19:35:56.118644  5584 net.cpp:484] Sharing parameters 'scale6_w' owned by layer 'scale6', param index 0
I0709 19:35:56.118649  5584 net.cpp:484] Sharing parameters 'scale6_b' owned by layer 'scale6', param index 1
I0709 19:35:56.118650  5584 layer_factory.hpp:77] Creating layer relu6_n
I0709 19:35:56.118655  5584 net.cpp:91] Creating Layer relu6_n
I0709 19:35:56.118657  5584 net.cpp:425] relu6_n <- h6_n
I0709 19:35:56.118661  5584 net.cpp:386] relu6_n -> h6_n (in-place)
I0709 19:35:56.119158  5584 net.cpp:141] Setting up relu6_n
I0709 19:35:56.119204  5584 net.cpp:148] Top shape: 12 512 6 8 (294912)
I0709 19:35:56.119222  5584 net.cpp:156] Memory required for data: 3989585552
I0709 19:35:56.119240  5584 layer_factory.hpp:77] Creating layer u6
I0709 19:35:56.119273  5584 net.cpp:91] Creating Layer u6
I0709 19:35:56.119297  5584 net.cpp:425] u6 <- h6_n
I0709 19:35:56.119318  5584 net.cpp:399] u6 -> u6
I0709 19:35:56.119592  5584 net.cpp:141] Setting up u6
I0709 19:35:56.119606  5584 net.cpp:148] Top shape: 12 512 6 8 (294912)
I0709 19:35:56.119609  5584 net.cpp:156] Memory required for data: 3990765200
I0709 19:35:56.119619  5584 layer_factory.hpp:77] Creating layer comb6
I0709 19:35:56.119626  5584 net.cpp:91] Creating Layer comb6
I0709 19:35:56.119632  5584 net.cpp:425] comb6 <- z6_n_noisy_z6_n_0_split_1
I0709 19:35:56.119637  5584 net.cpp:425] comb6 <- u6
I0709 19:35:56.119642  5584 net.cpp:399] comb6 -> z6_r
I0709 19:35:56.120733  5584 net.cpp:141] Setting up comb6
I0709 19:35:56.120746  5584 net.cpp:148] Top shape: 12 512 6 8 (294912)
I0709 19:35:56.120749  5584 net.cpp:156] Memory required for data: 3991944848
I0709 19:35:56.120764  5584 layer_factory.hpp:77] Creating layer z6_r_comb6_0_split
I0709 19:35:56.120769  5584 net.cpp:91] Creating Layer z6_r_comb6_0_split
I0709 19:35:56.120774  5584 net.cpp:425] z6_r_comb6_0_split <- z6_r
I0709 19:35:56.120777  5584 net.cpp:399] z6_r_comb6_0_split -> z6_r_comb6_0_split_0
I0709 19:35:56.120782  5584 net.cpp:399] z6_r_comb6_0_split -> z6_r_comb6_0_split_1
I0709 19:35:56.120820  5584 net.cpp:141] Setting up z6_r_comb6_0_split
I0709 19:35:56.120837  5584 net.cpp:148] Top shape: 12 512 6 8 (294912)
I0709 19:35:56.120841  5584 net.cpp:148] Top shape: 12 512 6 8 (294912)
I0709 19:35:56.120843  5584 net.cpp:156] Memory required for data: 3994304144
I0709 19:35:56.120846  5584 layer_factory.hpp:77] Creating layer recon6
I0709 19:35:56.120859  5584 net.cpp:91] Creating Layer recon6
I0709 19:35:56.120862  5584 net.cpp:425] recon6 <- z6_r_comb6_0_split_0
I0709 19:35:56.120867  5584 net.cpp:399] recon6 -> h6_r
I0709 19:35:56.139770  5584 net.cpp:141] Setting up recon6
I0709 19:35:56.139793  5584 net.cpp:148] Top shape: 12 512 6 8 (294912)
I0709 19:35:56.139796  5584 net.cpp:156] Memory required for data: 3995483792
I0709 19:35:56.139804  5584 layer_factory.hpp:77] Creating layer bn6_r
I0709 19:35:56.139814  5584 net.cpp:91] Creating Layer bn6_r
I0709 19:35:56.139822  5584 net.cpp:425] bn6_r <- h6_r
I0709 19:35:56.139827  5584 net.cpp:386] bn6_r -> h6_r (in-place)
I0709 19:35:56.139993  5584 net.cpp:141] Setting up bn6_r
I0709 19:35:56.140000  5584 net.cpp:148] Top shape: 12 512 6 8 (294912)
I0709 19:35:56.140002  5584 net.cpp:156] Memory required for data: 3996663440
I0709 19:35:56.140008  5584 layer_factory.hpp:77] Creating layer upsample5
I0709 19:35:56.140017  5584 net.cpp:91] Creating Layer upsample5
I0709 19:35:56.140019  5584 net.cpp:425] upsample5 <- h6_r
I0709 19:35:56.140024  5584 net.cpp:425] upsample5 <- pool5_n_mask
I0709 19:35:56.140028  5584 net.cpp:399] upsample5 -> upsample5
I0709 19:35:56.140035  5584 upsample_layer.cpp:31] Params 'pad_out_{}_' are deprecated. Please declare upsample height and width useing the upsample_h, upsample_w parameters.
I0709 19:35:56.140059  5584 net.cpp:141] Setting up upsample5
I0709 19:35:56.140065  5584 net.cpp:148] Top shape: 12 512 12 16 (1179648)
I0709 19:35:56.140069  5584 net.cpp:156] Memory required for data: 4001382032
I0709 19:35:56.140071  5584 layer_factory.hpp:77] Creating layer comb5
I0709 19:35:56.140077  5584 net.cpp:91] Creating Layer comb5
I0709 19:35:56.140081  5584 net.cpp:425] comb5 <- z5_n_noisy_z5_n_0_split_1
I0709 19:35:56.140084  5584 net.cpp:425] comb5 <- upsample5
I0709 19:35:56.140089  5584 net.cpp:399] comb5 -> z5_r
I0709 19:35:56.143131  5584 net.cpp:141] Setting up comb5
I0709 19:35:56.143144  5584 net.cpp:148] Top shape: 12 512 12 16 (1179648)
I0709 19:35:56.143147  5584 net.cpp:156] Memory required for data: 4006100624
I0709 19:35:56.143157  5584 layer_factory.hpp:77] Creating layer z5_r_comb5_0_split
I0709 19:35:56.143163  5584 net.cpp:91] Creating Layer z5_r_comb5_0_split
I0709 19:35:56.143167  5584 net.cpp:425] z5_r_comb5_0_split <- z5_r
I0709 19:35:56.143172  5584 net.cpp:399] z5_r_comb5_0_split -> z5_r_comb5_0_split_0
I0709 19:35:56.143178  5584 net.cpp:399] z5_r_comb5_0_split -> z5_r_comb5_0_split_1
I0709 19:35:56.143213  5584 net.cpp:141] Setting up z5_r_comb5_0_split
I0709 19:35:56.143221  5584 net.cpp:148] Top shape: 12 512 12 16 (1179648)
I0709 19:35:56.143224  5584 net.cpp:148] Top shape: 12 512 12 16 (1179648)
I0709 19:35:56.143226  5584 net.cpp:156] Memory required for data: 4015537808
I0709 19:35:56.143229  5584 layer_factory.hpp:77] Creating layer recon5
I0709 19:35:56.143236  5584 net.cpp:91] Creating Layer recon5
I0709 19:35:56.143239  5584 net.cpp:425] recon5 <- z5_r_comb5_0_split_0
I0709 19:35:56.143244  5584 net.cpp:399] recon5 -> h5_r
I0709 19:35:56.162185  5584 net.cpp:141] Setting up recon5
I0709 19:35:56.162222  5584 net.cpp:148] Top shape: 12 512 12 16 (1179648)
I0709 19:35:56.162227  5584 net.cpp:156] Memory required for data: 4020256400
I0709 19:35:56.162240  5584 layer_factory.hpp:77] Creating layer bn5_r
I0709 19:35:56.162259  5584 net.cpp:91] Creating Layer bn5_r
I0709 19:35:56.162267  5584 net.cpp:425] bn5_r <- h5_r
I0709 19:35:56.162277  5584 net.cpp:386] bn5_r -> h5_r (in-place)
I0709 19:35:56.162535  5584 net.cpp:141] Setting up bn5_r
I0709 19:35:56.162547  5584 net.cpp:148] Top shape: 12 512 12 16 (1179648)
I0709 19:35:56.162551  5584 net.cpp:156] Memory required for data: 4024974992
I0709 19:35:56.162560  5584 layer_factory.hpp:77] Creating layer upsample4
I0709 19:35:56.162590  5584 net.cpp:91] Creating Layer upsample4
I0709 19:35:56.162597  5584 net.cpp:425] upsample4 <- h5_r
I0709 19:35:56.162606  5584 net.cpp:425] upsample4 <- pool4_n_mask
I0709 19:35:56.162612  5584 net.cpp:399] upsample4 -> upsample4
I0709 19:35:56.162621  5584 upsample_layer.cpp:31] Params 'pad_out_{}_' are deprecated. Please declare upsample height and width useing the upsample_h, upsample_w parameters.
I0709 19:35:56.162657  5584 net.cpp:141] Setting up upsample4
I0709 19:35:56.162667  5584 net.cpp:148] Top shape: 12 512 24 32 (4718592)
I0709 19:35:56.162670  5584 net.cpp:156] Memory required for data: 4043849360
I0709 19:35:56.162674  5584 layer_factory.hpp:77] Creating layer comb4
I0709 19:35:56.162680  5584 net.cpp:91] Creating Layer comb4
I0709 19:35:56.162685  5584 net.cpp:425] comb4 <- z4_n_noisy_z4_n_0_split_1
I0709 19:35:56.162690  5584 net.cpp:425] comb4 <- upsample4
I0709 19:35:56.162698  5584 net.cpp:399] comb4 -> z4_r
I0709 19:35:56.173948  5584 net.cpp:141] Setting up comb4
I0709 19:35:56.174032  5584 net.cpp:148] Top shape: 12 512 24 32 (4718592)
I0709 19:35:56.174053  5584 net.cpp:156] Memory required for data: 4062723728
I0709 19:35:56.174089  5584 layer_factory.hpp:77] Creating layer z4_r_comb4_0_split
I0709 19:35:56.174119  5584 net.cpp:91] Creating Layer z4_r_comb4_0_split
I0709 19:35:56.174139  5584 net.cpp:425] z4_r_comb4_0_split <- z4_r
I0709 19:35:56.174162  5584 net.cpp:399] z4_r_comb4_0_split -> z4_r_comb4_0_split_0
I0709 19:35:56.174187  5584 net.cpp:399] z4_r_comb4_0_split -> z4_r_comb4_0_split_1
I0709 19:35:56.174278  5584 net.cpp:141] Setting up z4_r_comb4_0_split
I0709 19:35:56.174309  5584 net.cpp:148] Top shape: 12 512 24 32 (4718592)
I0709 19:35:56.174327  5584 net.cpp:148] Top shape: 12 512 24 32 (4718592)
I0709 19:35:56.174345  5584 net.cpp:156] Memory required for data: 4100472464
I0709 19:35:56.174365  5584 layer_factory.hpp:77] Creating layer recon4
I0709 19:35:56.174391  5584 net.cpp:91] Creating Layer recon4
I0709 19:35:56.174412  5584 net.cpp:425] recon4 <- z4_r_comb4_0_split_0
I0709 19:35:56.174435  5584 net.cpp:399] recon4 -> h4_r
I0709 19:35:56.185396  5584 net.cpp:141] Setting up recon4
I0709 19:35:56.185420  5584 net.cpp:148] Top shape: 12 256 24 32 (2359296)
I0709 19:35:56.185425  5584 net.cpp:156] Memory required for data: 4109909648
I0709 19:35:56.185431  5584 layer_factory.hpp:77] Creating layer bn4_r
I0709 19:35:56.185442  5584 net.cpp:91] Creating Layer bn4_r
I0709 19:35:56.185448  5584 net.cpp:425] bn4_r <- h4_r
I0709 19:35:56.185453  5584 net.cpp:386] bn4_r -> h4_r (in-place)
I0709 19:35:56.185631  5584 net.cpp:141] Setting up bn4_r
I0709 19:35:56.185638  5584 net.cpp:148] Top shape: 12 256 24 32 (2359296)
I0709 19:35:56.185641  5584 net.cpp:156] Memory required for data: 4119346832
I0709 19:35:56.185647  5584 layer_factory.hpp:77] Creating layer upsample3
I0709 19:35:56.185652  5584 net.cpp:91] Creating Layer upsample3
I0709 19:35:56.185655  5584 net.cpp:425] upsample3 <- h4_r
I0709 19:35:56.185660  5584 net.cpp:425] upsample3 <- pool3_n_mask
I0709 19:35:56.185664  5584 net.cpp:399] upsample3 -> upsample3
I0709 19:35:56.185672  5584 upsample_layer.cpp:31] Params 'pad_out_{}_' are deprecated. Please declare upsample height and width useing the upsample_h, upsample_w parameters.
I0709 19:35:56.185699  5584 net.cpp:141] Setting up upsample3
I0709 19:35:56.185705  5584 net.cpp:148] Top shape: 12 256 48 64 (9437184)
I0709 19:35:56.185708  5584 net.cpp:156] Memory required for data: 4157095568
I0709 19:35:56.185710  5584 layer_factory.hpp:77] Creating layer comb3
I0709 19:35:56.185714  5584 net.cpp:91] Creating Layer comb3
I0709 19:35:56.185719  5584 net.cpp:425] comb3 <- z3_n_noisy_z3_n_0_split_1
I0709 19:35:56.185721  5584 net.cpp:425] comb3 <- upsample3
I0709 19:35:56.185725  5584 net.cpp:399] comb3 -> z3_r
I0709 19:35:56.207630  5584 net.cpp:141] Setting up comb3
I0709 19:35:56.207710  5584 net.cpp:148] Top shape: 12 256 48 64 (9437184)
I0709 19:35:56.207731  5584 net.cpp:156] Memory required for data: 4194844304
I0709 19:35:56.207788  5584 layer_factory.hpp:77] Creating layer z3_r_comb3_0_split
I0709 19:35:56.207815  5584 net.cpp:91] Creating Layer z3_r_comb3_0_split
I0709 19:35:56.207836  5584 net.cpp:425] z3_r_comb3_0_split <- z3_r
I0709 19:35:56.207859  5584 net.cpp:399] z3_r_comb3_0_split -> z3_r_comb3_0_split_0
I0709 19:35:56.207888  5584 net.cpp:399] z3_r_comb3_0_split -> z3_r_comb3_0_split_1
I0709 19:35:56.207970  5584 net.cpp:141] Setting up z3_r_comb3_0_split
I0709 19:35:56.207998  5584 net.cpp:148] Top shape: 12 256 48 64 (9437184)
I0709 19:35:56.208099  5584 net.cpp:148] Top shape: 12 256 48 64 (9437184)
I0709 19:35:56.208118  5584 net.cpp:156] Memory required for data: 4270341776
I0709 19:35:56.208134  5584 layer_factory.hpp:77] Creating layer recon3
I0709 19:35:56.208159  5584 net.cpp:91] Creating Layer recon3
I0709 19:35:56.208178  5584 net.cpp:425] recon3 <- z3_r_comb3_0_split_0
I0709 19:35:56.208199  5584 net.cpp:399] recon3 -> h3_r
I0709 19:35:56.211266  5584 net.cpp:141] Setting up recon3
I0709 19:35:56.211282  5584 net.cpp:148] Top shape: 12 128 48 64 (4718592)
I0709 19:35:56.211284  5584 net.cpp:156] Memory required for data: 4289216144
I0709 19:35:56.211290  5584 layer_factory.hpp:77] Creating layer bn3_r
I0709 19:35:56.211297  5584 net.cpp:91] Creating Layer bn3_r
I0709 19:35:56.211302  5584 net.cpp:425] bn3_r <- h3_r
I0709 19:35:56.211307  5584 net.cpp:386] bn3_r -> h3_r (in-place)
I0709 19:35:56.211477  5584 net.cpp:141] Setting up bn3_r
I0709 19:35:56.211484  5584 net.cpp:148] Top shape: 12 128 48 64 (4718592)
I0709 19:35:56.211486  5584 net.cpp:156] Memory required for data: 4308090512
I0709 19:35:56.211493  5584 layer_factory.hpp:77] Creating layer upsample2
I0709 19:35:56.211499  5584 net.cpp:91] Creating Layer upsample2
I0709 19:35:56.211504  5584 net.cpp:425] upsample2 <- h3_r
I0709 19:35:56.211508  5584 net.cpp:425] upsample2 <- pool2_n_mask
I0709 19:35:56.211513  5584 net.cpp:399] upsample2 -> upsample2
I0709 19:35:56.211519  5584 upsample_layer.cpp:31] Params 'pad_out_{}_' are deprecated. Please declare upsample height and width useing the upsample_h, upsample_w parameters.
I0709 19:35:56.211542  5584 net.cpp:141] Setting up upsample2
I0709 19:35:56.211547  5584 net.cpp:148] Top shape: 12 128 96 128 (18874368)
I0709 19:35:56.211549  5584 net.cpp:156] Memory required for data: 4383587984
I0709 19:35:56.211551  5584 layer_factory.hpp:77] Creating layer comb2
I0709 19:35:56.211558  5584 net.cpp:91] Creating Layer comb2
I0709 19:35:56.211561  5584 net.cpp:425] comb2 <- z2_n_noisy_z2_n_0_split_1
I0709 19:35:56.211565  5584 net.cpp:425] comb2 <- upsample2
I0709 19:35:56.211568  5584 net.cpp:399] comb2 -> z2_r
I0709 19:35:56.249743  5584 net.cpp:141] Setting up comb2
I0709 19:35:56.249768  5584 net.cpp:148] Top shape: 12 128 96 128 (18874368)
I0709 19:35:56.249773  5584 net.cpp:156] Memory required for data: 4459085456
I0709 19:35:56.249809  5584 layer_factory.hpp:77] Creating layer z2_r_comb2_0_split
I0709 19:35:56.249819  5584 net.cpp:91] Creating Layer z2_r_comb2_0_split
I0709 19:35:56.249824  5584 net.cpp:425] z2_r_comb2_0_split <- z2_r
I0709 19:35:56.249830  5584 net.cpp:399] z2_r_comb2_0_split -> z2_r_comb2_0_split_0
I0709 19:35:56.249838  5584 net.cpp:399] z2_r_comb2_0_split -> z2_r_comb2_0_split_1
I0709 19:35:56.249884  5584 net.cpp:141] Setting up z2_r_comb2_0_split
I0709 19:35:56.249891  5584 net.cpp:148] Top shape: 12 128 96 128 (18874368)
I0709 19:35:56.249894  5584 net.cpp:148] Top shape: 12 128 96 128 (18874368)
I0709 19:35:56.249897  5584 net.cpp:156] Memory required for data: 4610080400
I0709 19:35:56.249899  5584 layer_factory.hpp:77] Creating layer recon2
I0709 19:35:56.249907  5584 net.cpp:91] Creating Layer recon2
I0709 19:35:56.249910  5584 net.cpp:425] recon2 <- z2_r_comb2_0_split_0
I0709 19:35:56.249915  5584 net.cpp:399] recon2 -> h2_r
I0709 19:35:56.250704  5584 net.cpp:141] Setting up recon2
I0709 19:35:56.250713  5584 net.cpp:148] Top shape: 12 64 96 128 (9437184)
I0709 19:35:56.250716  5584 net.cpp:156] Memory required for data: 4647829136
I0709 19:35:56.250721  5584 layer_factory.hpp:77] Creating layer bn2_r
I0709 19:35:56.250743  5584 net.cpp:91] Creating Layer bn2_r
I0709 19:35:56.250746  5584 net.cpp:425] bn2_r <- h2_r
I0709 19:35:56.250751  5584 net.cpp:386] bn2_r -> h2_r (in-place)
I0709 19:35:56.250941  5584 net.cpp:141] Setting up bn2_r
I0709 19:35:56.251096  5584 net.cpp:148] Top shape: 12 64 96 128 (9437184)
I0709 19:35:56.251101  5584 net.cpp:156] Memory required for data: 4685577872
I0709 19:35:56.251107  5584 layer_factory.hpp:77] Creating layer upsample1
I0709 19:35:56.251116  5584 net.cpp:91] Creating Layer upsample1
I0709 19:35:56.251168  5584 net.cpp:425] upsample1 <- h2_r
I0709 19:35:56.251174  5584 net.cpp:425] upsample1 <- pool1_n_mask
I0709 19:35:56.251179  5584 net.cpp:399] upsample1 -> upsample1
I0709 19:35:56.251185  5584 upsample_layer.cpp:31] Params 'pad_out_{}_' are deprecated. Please declare upsample height and width useing the upsample_h, upsample_w parameters.
I0709 19:35:56.251214  5584 net.cpp:141] Setting up upsample1
I0709 19:35:56.251220  5584 net.cpp:148] Top shape: 12 64 192 256 (37748736)
I0709 19:35:56.251222  5584 net.cpp:156] Memory required for data: 4836572816
I0709 19:35:56.251224  5584 layer_factory.hpp:77] Creating layer comb1
I0709 19:35:56.251230  5584 net.cpp:91] Creating Layer comb1
I0709 19:35:56.251233  5584 net.cpp:425] comb1 <- z1_n_noisy_z1_n_0_split_1
I0709 19:35:56.251236  5584 net.cpp:425] comb1 <- upsample1
I0709 19:35:56.251241  5584 net.cpp:399] comb1 -> z1_r
I0709 19:35:56.324329  5584 net.cpp:141] Setting up comb1
I0709 19:35:56.324358  5584 net.cpp:148] Top shape: 12 64 192 256 (37748736)
I0709 19:35:56.324362  5584 net.cpp:156] Memory required for data: 4987567760
I0709 19:35:56.324383  5584 layer_factory.hpp:77] Creating layer z1_r_comb1_0_split
I0709 19:35:56.324393  5584 net.cpp:91] Creating Layer z1_r_comb1_0_split
I0709 19:35:56.324398  5584 net.cpp:425] z1_r_comb1_0_split <- z1_r
I0709 19:35:56.324403  5584 net.cpp:399] z1_r_comb1_0_split -> z1_r_comb1_0_split_0
I0709 19:35:56.324410  5584 net.cpp:399] z1_r_comb1_0_split -> z1_r_comb1_0_split_1
I0709 19:35:56.324458  5584 net.cpp:141] Setting up z1_r_comb1_0_split
I0709 19:35:56.324465  5584 net.cpp:148] Top shape: 12 64 192 256 (37748736)
I0709 19:35:56.324468  5584 net.cpp:148] Top shape: 12 64 192 256 (37748736)
I0709 19:35:56.324470  5584 net.cpp:156] Memory required for data: 5289557648
I0709 19:35:56.324473  5584 layer_factory.hpp:77] Creating layer recon1
I0709 19:35:56.324483  5584 net.cpp:91] Creating Layer recon1
I0709 19:35:56.324488  5584 net.cpp:425] recon1 <- z1_r_comb1_0_split_0
I0709 19:35:56.324494  5584 net.cpp:399] recon1 -> h1_r
I0709 19:35:56.324774  5584 net.cpp:141] Setting up recon1
I0709 19:35:56.324782  5584 net.cpp:148] Top shape: 12 1 192 256 (589824)
I0709 19:35:56.324785  5584 net.cpp:156] Memory required for data: 5291916944
I0709 19:35:56.324790  5584 layer_factory.hpp:77] Creating layer bn1_r
I0709 19:35:56.324797  5584 net.cpp:91] Creating Layer bn1_r
I0709 19:35:56.324801  5584 net.cpp:425] bn1_r <- h1_r
I0709 19:35:56.324805  5584 net.cpp:386] bn1_r -> h1_r (in-place)
I0709 19:35:56.325026  5584 net.cpp:141] Setting up bn1_r
I0709 19:35:56.325033  5584 net.cpp:148] Top shape: 12 1 192 256 (589824)
I0709 19:35:56.325036  5584 net.cpp:156] Memory required for data: 5294276240
I0709 19:35:56.325040  5584 layer_factory.hpp:77] Creating layer comb0
I0709 19:35:56.325047  5584 net.cpp:91] Creating Layer comb0
I0709 19:35:56.325049  5584 net.cpp:425] comb0 <- noisy_data_noisy_data_0_split_1
I0709 19:35:56.325053  5584 net.cpp:425] comb0 <- h1_r
I0709 19:35:56.325058  5584 net.cpp:399] comb0 -> z0_r
I0709 19:35:56.326820  5584 net.cpp:141] Setting up comb0
I0709 19:35:56.326833  5584 net.cpp:148] Top shape: 12 1 192 256 (589824)
I0709 19:35:56.326834  5584 net.cpp:156] Memory required for data: 5296635536
I0709 19:35:56.326845  5584 layer_factory.hpp:77] Creating layer loss_ladder_6
I0709 19:35:56.326853  5584 net.cpp:91] Creating Layer loss_ladder_6
I0709 19:35:56.326858  5584 net.cpp:425] loss_ladder_6 <- z6_bn6_0_split_1
I0709 19:35:56.326861  5584 net.cpp:425] loss_ladder_6 <- z6_r_comb6_0_split_1
…
I0709 19:35:56.329404  5584 net.cpp:274] Network initialization done.
I0709 19:35:56.330154  5584 solver.cpp:181] Creating test net (#0) specified by test_net file: models/laddernet/val.prototxt
I0709 19:35:56.330348  5584 net.cpp:49] Initializing net from parameters: 
name: "LadderNet"
state {
  phase: TEST
}
layer {
  name: "data"
  type: "Data"
  top: "data"
  top: "label"
  include {
    phase: TEST
  }
  transform_param {
    scale: 0.0039215
    mirror: false
    mean_value: 100
    crop_h: 192
    crop_w: 256
  }
  data_param {
    source: "data/val_lmdb"
    batch_size: 4
    backend: LMDB
  }
}
layer {
  name: "conv1"
  type: "Convolution"
  bottom: "data"
  top: "z1_pre"
  convolution_param {
    num_output: 64
    bias_term: false
    pad: 1
    kernel_size: 3
    stride: 1
    weight_filler {
      type: "xavier"
    }
  }
}
layer {
  name: "bn1"
  type: "BatchNorm"
  bottom: "z1_pre"
  top: "z1"
  param {
    lr_mult: 0
  }
  param {
    lr_mult: 0
  }
  param {
    lr_mult: 0
  }
  batch_norm_param {
    use_global_stats: true
    eps: 0.001
  }
}
layer {
  name: "scale1"
  type: "Scale"
  bottom: "z1"
  top: "z1"
  param {
    name: "scale1_w"
  }
  param {
    name: "scale1_b"
  }
  scale_param {
    filler {
      type: "xavier"
    }
    bias_term: true
    bias_filler {
      type: "constant"
      value: 0
    }
  }
}
layer {
  name: "relu1"
  type: "ReLU"
  bottom: "z1"
  top: "z1"
}
layer {
  name: "pool1"
  type: "Pooling"
  bottom: "z1"
  top: "pool1"
  pooling_param {
    pool: MAX
    kernel_size: 2
    stride: 2
  }
}
layer {
  name: "conv2"
  type: "Convolution"
  bottom: "pool1"
  top: "z2_pre"
  convolution_param {
    num_output: 128
    bias_term: false
    pad: 1
    kernel_size: 3
    stride: 1
    weight_filler {
      type: "xavier"
    }
  }
}
layer {
  name: "bn2"
  type: "BatchNorm"
  bottom: "z2_pre"
  top: "z2"
  param {
    lr_mult: 0
  }
  param {
    lr_mult: 0
  }
  param {
    lr_mult: 0
  }
  batch_norm_param {
    use_global_stats: true
    eps: 0.001
  }
}
layer {
  name: "scale2"
  type: "Scale"
  bottom: "z2"
  top: "z2"
  param {
    name: "scale2_w"
  }
  param {
    name: "scale2_b"
  }
  scale_param {
    filler {
      type: "xavier"
    }
    bias_term: true
    bias_filler {
      type: "constant"
      value: 0
    }
  }
}
layer {
  name: "relu2"
  type: "ReLU"
  bottom: "z2"
  top: "z2"
}
layer {
  name: "pool2"
  type: "Pooling"
  bottom: "z2"
  top: "pool2"
  pooling_param {
    pool: MAX
    kernel_size: 2
    stride: 2
  }
}
layer {
  name: "conv3"
  type: "Convolution"
  bottom: "pool2"
  top: "z3_pre"
  convolution_param {
    num_output: 256
    bias_term: false
    pad: 1
    kernel_size: 3
    stride: 1
    weight_filler {
      type: "xavier"
    }
  }
}
layer {
  name: "bn3"
  type: "BatchNorm"
  bottom: "z3_pre"
  top: "z3"
  param {
    lr_mult: 0
  }
  param {
    lr_mult: 0
  }
  param {
    lr_mult: 0
  }
  batch_norm_param {
    use_global_stats: true
    eps: 0.001
  }
}
layer {
  name: "scale3"
  type: "Scale"
  bottom: "z3"
  top: "z3"
  param {
    name: "scale3_w"
  }
  param {
    name: "scale3_b"
  }
  scale_param {
    filler {
      type: "xavier"
    }
    bias_term: true
    bias_filler {
      type: "constant"
      value: 0
    }
  }
}
layer {
  name: "relu3"
  type: "ReLU"
  bottom: "z3"
  top: "z3"
}
layer {
  name: "pool3"
  type: "Pooling"
  bottom: "z3"
  top: "pool3"
  pooling_param {
    pool: MAX
    kernel_size: 2
    stride: 2
  }
}
layer {
  name: "conv4"
  type: "Convolution"
  bottom: "pool3"
  top: "z4_pre"
  convolution_param {
    num_output: 512
    bias_term: false
    pad: 1
    kernel_size: 3
    stride: 1
    weight_filler {
      type: "xavier"
    }
  }
}
layer {
  name: "bn4"
  type: "BatchNorm"
  bottom: "z4_pre"
  top: "z4"
  param {
    lr_mult: 0
  }
  param {
    lr_mult: 0
  }
  param {
    lr_mult: 0
  }
  batch_norm_param {
    use_global_stats: true
    eps: 0.001
  }
}
layer {
  name: "scale4"
  type: "Scale"
  bottom: "z4"
  top: "z4"
  param {
    name: "scale4_w"
  }
  param {
    name: "scale4_b"
  }
  scale_param {
    filler {
      type: "xavier"
    }
    bias_term: true
    bias_filler {
      type: "constant"
      value: 0
    }
  }
}
layer {
  name: "relu4"
  type: "ReLU"
  bottom: "z4"
  top: "z4"
}
layer {
  name: "pool4"
  type: "Pooling"
  bottom: "z4"
  top: "pool4"
  pooling_param {
    pool: MAX
    kernel_size: 2
    stride: 2
  }
}
layer {
  name: "conv5"
  type: "Convolution"
  bottom: "pool4"
  top: "z5_pre"
  convolution_param {
    num_output: 512
    bias_term: false
    pad: 1
    kernel_size: 3
    stride: 1
    weight_filler {
      type: "xavier"
    }
  }
}
layer {
  name: "bn5"
  type: "BatchNorm"
  bottom: "z5_pre"
  top: "z5"
  param {
    lr_mult: 0
  }
  param {
    lr_mult: 0
  }
  param {
    lr_mult: 0
  }
  batch_norm_param {
    use_global_stats: true
    eps: 0.001
  }
}
layer {
  name: "scale5"
  type: "Scale"
  bottom: "z5"
  top: "z5"
  param {
    name: "scale5_w"
  }
  param {
    name: "scale5_b"
  }
  scale_param {
    filler {
      type: "xavier"
    }
    bias_term: true
    bias_filler {
      type: "constant"
      value: 0
    }
  }
}
layer {
  name: "relu5"
  type: "ReLU"
  bottom: "z5"
  top: "z5"
}
layer {
  name: "pool5"
  type: "Pooling"
  bottom: "z5"
  top: "pool5"
  pooling_param {
    pool: MAX
    kernel_size: 2
    stride: 2
  }
}
layer {
  name: "conv6"
  type: "Convolution"
  bottom: "pool5"
  top: "z6_pre"
  convolution_param {
    num_output: 512
    bias_term: false
    pad: 1
    kernel_size: 3
    stride: 1
    weight_filler {
      type: "xavier"
    }
  }
}
layer {
  name: "bn6"
  type: "BatchNorm"
  bottom: "z6_pre"
  top: "z6"
  param {
    lr_mult: 0
  }
  param {
    lr_mult: 0
  }
  param {
    lr_mult: 0
  }
  batch_norm_param {
    use_global_stats: true
    eps: 0.001
  }
}
layer {
  name: "scale6"
  type: "Scale"
  bottom: "z6"
  top: "z6"
  param {
    name: "scale6_w"
  }
  param {
    name: "scale6_b"
  }
  scale_param {
    filler {
      type: "xavier"
    }
    bias_term: true
    bias_filler {
      type: "constant"
      value: 0
    }
  }
}
layer {
  name: "relu6"
  type: "ReLU"
  bottom: "z6"
  top: "z6"
}
layer {
  name: "pool_final"
  type: "Pooling"
  bottom: "z6"
  top: "pool_final"
  pooling_param {
    pool: AVE
    stride: 1
    kernel_h: 6
    kernel_w: 8
  }
}
layer {
  name: "score"
  type: "InnerProduct"
  bottom: "pool_final"
  top: "score"
  inner_product_param {
    num_output: 2
    weight_filler {
      type: "xavier"
    }
  }
}
layer {
  name: "prob"
  type: "SoftmaxWithLoss"
  bottom: "score"
  bottom: "label"
  top: "prob"
}
layer {
  name: "accuracy"
  type: "Accuracy"
  bottom: "score"
  bottom: "label"
  top: "accuracy"
}
I0709 19:35:56.330467  5584 layer_factory.hpp:77] Creating layer data
I0709 19:35:56.330520  5584 net.cpp:91] Creating Layer data
I0709 19:35:56.330526  5584 net.cpp:399] data -> data
I0709 19:35:56.330541  5584 net.cpp:399] data -> label
I0709 19:35:56.331743  5590 db_lmdb.cpp:35] Opened lmdb data/val_lmdb
I0709 19:35:56.332002  5584 data_layer.cpp:42] output data size: 4,1,192,256
I0709 19:35:56.334967  5584 net.cpp:141] Setting up data
I0709 19:35:56.334980  5584 net.cpp:148] Top shape: 4 1 192 256 (196608)
I0709 19:35:56.334983  5584 net.cpp:148] Top shape: 4 (4)
I0709 19:35:56.334985  5584 net.cpp:156] Memory required for data: 786448
I0709 19:35:56.334990  5584 layer_factory.hpp:77] Creating layer label_data_1_split
I0709 19:35:56.334995  5584 net.cpp:91] Creating Layer label_data_1_split
I0709 19:35:56.334997  5584 net.cpp:425] label_data_1_split <- label
I0709 19:35:56.335002  5584 net.cpp:399] label_data_1_split -> label_data_1_split_0
I0709 19:35:56.335010  5584 net.cpp:399] label_data_1_split -> label_data_1_split_1
I0709 19:35:56.335058  5584 net.cpp:141] Setting up label_data_1_split
I0709 19:35:56.335065  5584 net.cpp:148] Top shape: 4 (4)
I0709 19:35:56.335068  5584 net.cpp:148] Top shape: 4 (4)
I0709 19:35:56.335070  5584 net.cpp:156] Memory required for data: 786480
I0709 19:35:56.335072  5584 layer_factory.hpp:77] Creating layer conv1
I0709 19:35:56.335080  5584 net.cpp:91] Creating Layer conv1
I0709 19:35:56.335083  5584 net.cpp:425] conv1 <- data
I0709 19:35:56.335088  5584 net.cpp:399] conv1 -> z1_pre
I0709 19:35:56.336403  5584 net.cpp:141] Setting up conv1
I0709 19:35:56.336416  5584 net.cpp:148] Top shape: 4 64 192 256 (12582912)
I0709 19:35:56.336419  5584 net.cpp:156] Memory required for data: 51118128
I0709 19:35:56.336426  5584 layer_factory.hpp:77] Creating layer bn1
I0709 19:35:56.336432  5584 net.cpp:91] Creating Layer bn1
I0709 19:35:56.336436  5584 net.cpp:425] bn1 <- z1_pre
I0709 19:35:56.336439  5584 net.cpp:399] bn1 -> z1
I0709 19:35:56.336711  5584 net.cpp:141] Setting up bn1
I0709 19:35:56.336719  5584 net.cpp:148] Top shape: 4 64 192 256 (12582912)
I0709 19:35:56.336721  5584 net.cpp:156] Memory required for data: 101449776
I0709 19:35:56.336730  5584 layer_factory.hpp:77] Creating layer scale1
I0709 19:35:56.336736  5584 net.cpp:91] Creating Layer scale1
I0709 19:35:56.336740  5584 net.cpp:425] scale1 <- z1
I0709 19:35:56.336743  5584 net.cpp:386] scale1 -> z1 (in-place)
I0709 19:35:56.336853  5584 layer_factory.hpp:77] Creating layer scale1
I0709 19:35:56.337605  5584 net.cpp:141] Setting up scale1
I0709 19:35:56.337616  5584 net.cpp:148] Top shape: 4 64 192 256 (12582912)
I0709 19:35:56.337618  5584 net.cpp:156] Memory required for data: 151781424
I0709 19:35:56.337625  5584 layer_factory.hpp:77] Creating layer relu1
I0709 19:35:56.337631  5584 net.cpp:91] Creating Layer relu1
I0709 19:35:56.337633  5584 net.cpp:425] relu1 <- z1
I0709 19:35:56.337638  5584 net.cpp:386] relu1 -> z1 (in-place)
I0709 19:35:56.337806  5584 net.cpp:141] Setting up relu1
I0709 19:35:56.337815  5584 net.cpp:148] Top shape: 4 64 192 256 (12582912)
I0709 19:35:56.337817  5584 net.cpp:156] Memory required for data: 202113072
I0709 19:35:56.337821  5584 layer_factory.hpp:77] Creating layer pool1
I0709 19:35:56.337826  5584 net.cpp:91] Creating Layer pool1
I0709 19:35:56.337829  5584 net.cpp:425] pool1 <- z1
I0709 19:35:56.337833  5584 net.cpp:399] pool1 -> pool1
I0709 19:35:56.337882  5584 net.cpp:141] Setting up pool1
I0709 19:35:56.337889  5584 net.cpp:148] Top shape: 4 64 96 128 (3145728)
I0709 19:35:56.337891  5584 net.cpp:156] Memory required for data: 214695984
I0709 19:35:56.337893  5584 layer_factory.hpp:77] Creating layer conv2
I0709 19:35:56.337903  5584 net.cpp:91] Creating Layer conv2
I0709 19:35:56.337906  5584 net.cpp:425] conv2 <- pool1
I0709 19:35:56.337909  5584 net.cpp:399] conv2 -> z2_pre
I0709 19:35:56.340406  5584 net.cpp:141] Setting up conv2
I0709 19:35:56.340420  5584 net.cpp:148] Top shape: 4 128 96 128 (6291456)
I0709 19:35:56.340423  5584 net.cpp:156] Memory required for data: 239861808
I0709 19:35:56.340427  5584 layer_factory.hpp:77] Creating layer bn2
I0709 19:35:56.340437  5584 net.cpp:91] Creating Layer bn2
I0709 19:35:56.340440  5584 net.cpp:425] bn2 <- z2_pre
I0709 19:35:56.340458  5584 net.cpp:399] bn2 -> z2
I0709 19:35:56.340673  5584 net.cpp:141] Setting up bn2
I0709 19:35:56.340682  5584 net.cpp:148] Top shape: 4 128 96 128 (6291456)
I0709 19:35:56.340684  5584 net.cpp:156] Memory required for data: 265027632
I0709 19:35:56.340692  5584 layer_factory.hpp:77] Creating layer scale2
I0709 19:35:56.340700  5584 net.cpp:91] Creating Layer scale2
I0709 19:35:56.340703  5584 net.cpp:425] scale2 <- z2
I0709 19:35:56.340706  5584 net.cpp:386] scale2 -> z2 (in-place)
I0709 19:35:56.340752  5584 layer_factory.hpp:77] Creating layer scale2
I0709 19:35:56.340883  5584 net.cpp:141] Setting up scale2
I0709 19:35:56.340891  5584 net.cpp:148] Top shape: 4 128 96 128 (6291456)
I0709 19:35:56.340896  5584 net.cpp:156] Memory required for data: 290193456
I0709 19:35:56.340900  5584 layer_factory.hpp:77] Creating layer relu2
I0709 19:35:56.340905  5584 net.cpp:91] Creating Layer relu2
I0709 19:35:56.340909  5584 net.cpp:425] relu2 <- z2
I0709 19:35:56.340912  5584 net.cpp:386] relu2 -> z2 (in-place)
I0709 19:35:56.341208  5584 net.cpp:141] Setting up relu2
I0709 19:35:56.341219  5584 net.cpp:148] Top shape: 4 128 96 128 (6291456)
I0709 19:35:56.341223  5584 net.cpp:156] Memory required for data: 315359280
I0709 19:35:56.341225  5584 layer_factory.hpp:77] Creating layer pool2
I0709 19:35:56.341231  5584 net.cpp:91] Creating Layer pool2
I0709 19:35:56.341234  5584 net.cpp:425] pool2 <- z2
I0709 19:35:56.341239  5584 net.cpp:399] pool2 -> pool2
I0709 19:35:56.341287  5584 net.cpp:141] Setting up pool2
I0709 19:35:56.341295  5584 net.cpp:148] Top shape: 4 128 48 64 (1572864)
I0709 19:35:56.341296  5584 net.cpp:156] Memory required for data: 321650736
I0709 19:35:56.341300  5584 layer_factory.hpp:77] Creating layer conv3
I0709 19:35:56.341307  5584 net.cpp:91] Creating Layer conv3
I0709 19:35:56.341310  5584 net.cpp:425] conv3 <- pool2
I0709 19:35:56.341315  5584 net.cpp:399] conv3 -> z3_pre
I0709 19:35:56.345223  5584 net.cpp:141] Setting up conv3
I0709 19:35:56.345237  5584 net.cpp:148] Top shape: 4 256 48 64 (3145728)
I0709 19:35:56.345239  5584 net.cpp:156] Memory required for data: 334233648
I0709 19:35:56.345245  5584 layer_factory.hpp:77] Creating layer bn3
I0709 19:35:56.345252  5584 net.cpp:91] Creating Layer bn3
I0709 19:35:56.345254  5584 net.cpp:425] bn3 <- z3_pre
I0709 19:35:56.345262  5584 net.cpp:399] bn3 -> z3
I0709 19:35:56.345468  5584 net.cpp:141] Setting up bn3
I0709 19:35:56.345476  5584 net.cpp:148] Top shape: 4 256 48 64 (3145728)
I0709 19:35:56.345479  5584 net.cpp:156] Memory required for data: 346816560
I0709 19:35:56.345484  5584 layer_factory.hpp:77] Creating layer scale3
I0709 19:35:56.345491  5584 net.cpp:91] Creating Layer scale3
I0709 19:35:56.345494  5584 net.cpp:425] scale3 <- z3
I0709 19:35:56.345497  5584 net.cpp:386] scale3 -> z3 (in-place)
I0709 19:35:56.345544  5584 layer_factory.hpp:77] Creating layer scale3
I0709 19:35:56.345659  5584 net.cpp:141] Setting up scale3
I0709 19:35:56.345666  5584 net.cpp:148] Top shape: 4 256 48 64 (3145728)
I0709 19:35:56.345669  5584 net.cpp:156] Memory required for data: 359399472
I0709 19:35:56.345677  5584 layer_factory.hpp:77] Creating layer relu3
I0709 19:35:56.345682  5584 net.cpp:91] Creating Layer relu3
I0709 19:35:56.345685  5584 net.cpp:425] relu3 <- z3
I0709 19:35:56.345688  5584 net.cpp:386] relu3 -> z3 (in-place)
I0709 19:35:56.345980  5584 net.cpp:141] Setting up relu3
I0709 19:35:56.345991  5584 net.cpp:148] Top shape: 4 256 48 64 (3145728)
I0709 19:35:56.345993  5584 net.cpp:156] Memory required for data: 371982384
I0709 19:35:56.345996  5584 layer_factory.hpp:77] Creating layer pool3
I0709 19:35:56.346004  5584 net.cpp:91] Creating Layer pool3
I0709 19:35:56.346007  5584 net.cpp:425] pool3 <- z3
I0709 19:35:56.346011  5584 net.cpp:399] pool3 -> pool3
I0709 19:35:56.346060  5584 net.cpp:141] Setting up pool3
I0709 19:35:56.346066  5584 net.cpp:148] Top shape: 4 256 24 32 (786432)
I0709 19:35:56.346068  5584 net.cpp:156] Memory required for data: 375128112
I0709 19:35:56.346071  5584 layer_factory.hpp:77] Creating layer conv4
I0709 19:35:56.346089  5584 net.cpp:91] Creating Layer conv4
I0709 19:35:56.346092  5584 net.cpp:425] conv4 <- pool3
I0709 19:35:56.346096  5584 net.cpp:399] conv4 -> z4_pre
I0709 19:35:56.356170  5584 net.cpp:141] Setting up conv4
I0709 19:35:56.356185  5584 net.cpp:148] Top shape: 4 512 24 32 (1572864)
I0709 19:35:56.356187  5584 net.cpp:156] Memory required for data: 381419568
I0709 19:35:56.356192  5584 layer_factory.hpp:77] Creating layer bn4
I0709 19:35:56.356200  5584 net.cpp:91] Creating Layer bn4
I0709 19:35:56.356204  5584 net.cpp:425] bn4 <- z4_pre
I0709 19:35:56.356209  5584 net.cpp:399] bn4 -> z4
I0709 19:35:56.356423  5584 net.cpp:141] Setting up bn4
I0709 19:35:56.356431  5584 net.cpp:148] Top shape: 4 512 24 32 (1572864)
I0709 19:35:56.356433  5584 net.cpp:156] Memory required for data: 387711024
I0709 19:35:56.356439  5584 layer_factory.hpp:77] Creating layer scale4
I0709 19:35:56.356446  5584 net.cpp:91] Creating Layer scale4
I0709 19:35:56.356449  5584 net.cpp:425] scale4 <- z4
I0709 19:35:56.356453  5584 net.cpp:386] scale4 -> z4 (in-place)
I0709 19:35:56.356508  5584 layer_factory.hpp:77] Creating layer scale4
I0709 19:35:56.356830  5584 net.cpp:141] Setting up scale4
I0709 19:35:56.356839  5584 net.cpp:148] Top shape: 4 512 24 32 (1572864)
I0709 19:35:56.356842  5584 net.cpp:156] Memory required for data: 394002480
I0709 19:35:56.356848  5584 layer_factory.hpp:77] Creating layer relu4
I0709 19:35:56.356853  5584 net.cpp:91] Creating Layer relu4
I0709 19:35:56.356854  5584 net.cpp:425] relu4 <- z4
I0709 19:35:56.356858  5584 net.cpp:386] relu4 -> z4 (in-place)
I0709 19:35:56.357019  5584 net.cpp:141] Setting up relu4
I0709 19:35:56.357028  5584 net.cpp:148] Top shape: 4 512 24 32 (1572864)
I0709 19:35:56.357031  5584 net.cpp:156] Memory required for data: 400293936
I0709 19:35:56.357034  5584 layer_factory.hpp:77] Creating layer pool4
I0709 19:35:56.357040  5584 net.cpp:91] Creating Layer pool4
I0709 19:35:56.357043  5584 net.cpp:425] pool4 <- z4
I0709 19:35:56.357046  5584 net.cpp:399] pool4 -> pool4
I0709 19:35:56.357095  5584 net.cpp:141] Setting up pool4
I0709 19:35:56.357102  5584 net.cpp:148] Top shape: 4 512 12 16 (393216)
I0709 19:35:56.357105  5584 net.cpp:156] Memory required for data: 401866800
I0709 19:35:56.357106  5584 layer_factory.hpp:77] Creating layer conv5
I0709 19:35:56.357115  5584 net.cpp:91] Creating Layer conv5
I0709 19:35:56.357117  5584 net.cpp:425] conv5 <- pool4
I0709 19:35:56.357121  5584 net.cpp:399] conv5 -> z5_pre
I0709 19:35:56.376114  5584 net.cpp:141] Setting up conv5
I0709 19:35:56.376133  5584 net.cpp:148] Top shape: 4 512 12 16 (393216)
I0709 19:35:56.376137  5584 net.cpp:156] Memory required for data: 403439664
I0709 19:35:56.376143  5584 layer_factory.hpp:77] Creating layer bn5
I0709 19:35:56.376150  5584 net.cpp:91] Creating Layer bn5
I0709 19:35:56.376153  5584 net.cpp:425] bn5 <- z5_pre
I0709 19:35:56.376159  5584 net.cpp:399] bn5 -> z5
I0709 19:35:56.376390  5584 net.cpp:141] Setting up bn5
I0709 19:35:56.376399  5584 net.cpp:148] Top shape: 4 512 12 16 (393216)
I0709 19:35:56.376400  5584 net.cpp:156] Memory required for data: 405012528
I0709 19:35:56.376406  5584 layer_factory.hpp:77] Creating layer scale5
I0709 19:35:56.376415  5584 net.cpp:91] Creating Layer scale5
I0709 19:35:56.376418  5584 net.cpp:425] scale5 <- z5
I0709 19:35:56.376422  5584 net.cpp:386] scale5 -> z5 (in-place)
I0709 19:35:56.376471  5584 layer_factory.hpp:77] Creating layer scale5
I0709 19:35:56.376595  5584 net.cpp:141] Setting up scale5
I0709 19:35:56.376602  5584 net.cpp:148] Top shape: 4 512 12 16 (393216)
I0709 19:35:56.376605  5584 net.cpp:156] Memory required for data: 406585392
I0709 19:35:56.376610  5584 layer_factory.hpp:77] Creating layer relu5
I0709 19:35:56.376616  5584 net.cpp:91] Creating Layer relu5
I0709 19:35:56.376618  5584 net.cpp:425] relu5 <- z5
I0709 19:35:56.376622  5584 net.cpp:386] relu5 -> z5 (in-place)
I0709 19:35:56.376924  5584 net.cpp:141] Setting up relu5
I0709 19:35:56.376935  5584 net.cpp:148] Top shape: 4 512 12 16 (393216)
I0709 19:35:56.376950  5584 net.cpp:156] Memory required for data: 408158256
I0709 19:35:56.376953  5584 layer_factory.hpp:77] Creating layer pool5
I0709 19:35:56.376960  5584 net.cpp:91] Creating Layer pool5
I0709 19:35:56.376962  5584 net.cpp:425] pool5 <- z5
I0709 19:35:56.376968  5584 net.cpp:399] pool5 -> pool5
I0709 19:35:56.377019  5584 net.cpp:141] Setting up pool5
I0709 19:35:56.377025  5584 net.cpp:148] Top shape: 4 512 6 8 (98304)
I0709 19:35:56.377027  5584 net.cpp:156] Memory required for data: 408551472
I0709 19:35:56.377030  5584 layer_factory.hpp:77] Creating layer conv6
I0709 19:35:56.377038  5584 net.cpp:91] Creating Layer conv6
I0709 19:35:56.377041  5584 net.cpp:425] conv6 <- pool5
I0709 19:35:56.377045  5584 net.cpp:399] conv6 -> z6_pre
I0709 19:35:56.395804  5584 net.cpp:141] Setting up conv6
I0709 19:35:56.395830  5584 net.cpp:148] Top shape: 4 512 6 8 (98304)
I0709 19:35:56.395833  5584 net.cpp:156] Memory required for data: 408944688
I0709 19:35:56.395840  5584 layer_factory.hpp:77] Creating layer bn6
I0709 19:35:56.395851  5584 net.cpp:91] Creating Layer bn6
I0709 19:35:56.395856  5584 net.cpp:425] bn6 <- z6_pre
I0709 19:35:56.395862  5584 net.cpp:399] bn6 -> z6
I0709 19:35:56.396103  5584 net.cpp:141] Setting up bn6
I0709 19:35:56.396111  5584 net.cpp:148] Top shape: 4 512 6 8 (98304)
I0709 19:35:56.396114  5584 net.cpp:156] Memory required for data: 409337904
I0709 19:35:56.396126  5584 layer_factory.hpp:77] Creating layer scale6
I0709 19:35:56.396134  5584 net.cpp:91] Creating Layer scale6
I0709 19:35:56.396136  5584 net.cpp:425] scale6 <- z6
I0709 19:35:56.396143  5584 net.cpp:386] scale6 -> z6 (in-place)
I0709 19:35:56.396199  5584 layer_factory.hpp:77] Creating layer scale6
I0709 19:35:56.396328  5584 net.cpp:141] Setting up scale6
I0709 19:35:56.396337  5584 net.cpp:148] Top shape: 4 512 6 8 (98304)
I0709 19:35:56.396338  5584 net.cpp:156] Memory required for data: 409731120
I0709 19:35:56.396343  5584 layer_factory.hpp:77] Creating layer relu6
I0709 19:35:56.396348  5584 net.cpp:91] Creating Layer relu6
I0709 19:35:56.396352  5584 net.cpp:425] relu6 <- z6
I0709 19:35:56.396355  5584 net.cpp:386] relu6 -> z6 (in-place)
I0709 19:35:56.396647  5584 net.cpp:141] Setting up relu6
I0709 19:35:56.396658  5584 net.cpp:148] Top shape: 4 512 6 8 (98304)
I0709 19:35:56.396661  5584 net.cpp:156] Memory required for data: 410124336
I0709 19:35:56.396664  5584 layer_factory.hpp:77] Creating layer pool_final
I0709 19:35:56.396670  5584 net.cpp:91] Creating Layer pool_final
I0709 19:35:56.396672  5584 net.cpp:425] pool_final <- z6
I0709 19:35:56.396678  5584 net.cpp:399] pool_final -> pool_final
I0709 19:35:56.396853  5584 net.cpp:141] Setting up pool_final
I0709 19:35:56.396863  5584 net.cpp:148] Top shape: 4 512 1 1 (2048)
I0709 19:35:56.396865  5584 net.cpp:156] Memory required for data: 410132528
I0709 19:35:56.396868  5584 layer_factory.hpp:77] Creating layer score
I0709 19:35:56.396880  5584 net.cpp:91] Creating Layer score
I0709 19:35:56.396885  5584 net.cpp:425] score <- pool_final
I0709 19:35:56.396889  5584 net.cpp:399] score -> score
I0709 19:35:56.397019  5584 net.cpp:141] Setting up score
I0709 19:35:56.397027  5584 net.cpp:148] Top shape: 4 2 (8)
I0709 19:35:56.397029  5584 net.cpp:156] Memory required for data: 410132560
I0709 19:35:56.397034  5584 layer_factory.hpp:77] Creating layer score_score_0_split
I0709 19:35:56.397039  5584 net.cpp:91] Creating Layer score_score_0_split
I0709 19:35:56.397042  5584 net.cpp:425] score_score_0_split <- score
I0709 19:35:56.397045  5584 net.cpp:399] score_score_0_split -> score_score_0_split_0
I0709 19:35:56.397052  5584 net.cpp:399] score_score_0_split -> score_score_0_split_1
I0709 19:35:56.397091  5584 net.cpp:141] Setting up score_score_0_split
I0709 19:35:56.397097  5584 net.cpp:148] Top shape: 4 2 (8)
I0709 19:35:56.397101  5584 net.cpp:148] Top shape: 4 2 (8)
I0709 19:35:56.397104  5584 net.cpp:156] Memory required for data: 410132624
I0709 19:35:56.397105  5584 layer_factory.hpp:77] Creating layer prob
I0709 19:35:56.397130  5584 net.cpp:91] Creating Layer prob
I0709 19:35:56.397132  5584 net.cpp:425] prob <- score_score_0_split_0
I0709 19:35:56.397135  5584 net.cpp:425] prob <- label_data_1_split_0
I0709 19:35:56.397140  5584 net.cpp:399] prob -> prob
…
