…
I0705 11:39:11.820446 14303 solver.cpp:81] Creating training net from train_net file: models/laddernet/train.prototxt
I0705 11:39:11.822218 14303 net.cpp:49] Initializing net from parameters: 
name: "LadderNet"
state {
  phase: TRAIN
}
layer {
  name: "data"
  type: "Data"
  top: "data"
  top: "label"
  include {
    phase: TRAIN
  }
  transform_param {
    scale: 0.0039215
    mirror: true
    mean_value: 100
    crop_h: 192
    crop_w: 256
    rotation_range: 10
    scale_jitter_range: 0.1
    contrast_jitter_range: 0.3
  }
  data_param {
    source: "data/train_lmdb"
    batch_size: 16
    backend: LMDB
  }
}
layer {
  name: "noisy_data"
  type: "Noise"
  bottom: "data"
  top: "noisy_data"
  noise_param {
    sigma: 0.05
  }
}
layer {
  name: "conv1"
  type: "Convolution"
  bottom: "data"
  bottom: "noisy_data"
  top: "z1_pre"
  top: "z1_n"
  param {
    name: "conv1_w"
  }
  convolution_param {
    num_output: 32
    bias_term: false
    pad: 1
    kernel_size: 3
    stride: 1
    weight_filler {
      type: "xavier"
    }
  }
}
layer {
  name: "bn1"
  type: "BatchNorm"
  bottom: "z1_pre"
  top: "z1"
  top: "bn1_param"
  param {
    lr_mult: 0
  }
  param {
    lr_mult: 0
  }
  param {
    lr_mult: 0
  }
  batch_norm_param {
    use_global_stats: false
    eps: 0.001
  }
}
layer {
  name: "scale1"
  type: "Scale"
  bottom: "z1"
  top: "h1"
  param {
    name: "scale1_w"
  }
  param {
    name: "scale1_b"
  }
  scale_param {
    filler {
      type: "constant"
      value: 1
    }
    bias_term: true
    bias_filler {
      type: "constant"
      value: 0
    }
  }
}
layer {
  name: "relu1"
  type: "ReLU"
  bottom: "h1"
  top: "h1"
}
layer {
  name: "bn1_n"
  type: "BatchNorm"
  bottom: "z1_n"
  top: "z1_n"
  param {
    lr_mult: 0
  }
  param {
    lr_mult: 0
  }
  param {
    lr_mult: 0
  }
  batch_norm_param {
    use_global_stats: false
    eps: 0.001
  }
}
layer {
  name: "noisy_z1_n"
  type: "Noise"
  bottom: "z1_n"
  top: "z1_n"
  noise_param {
    sigma: 0.05
  }
}
layer {
  name: "scale1_n"
  type: "Scale"
  bottom: "z1_n"
  top: "h1_n"
  param {
    name: "scale1_w"
  }
  param {
    name: "scale1_b"
  }
  scale_param {
    filler {
      type: "constant"
      value: 1
    }
    bias_term: true
    bias_filler {
      type: "constant"
      value: 0
    }
  }
}
layer {
  name: "relu1_n"
  type: "ReLU"
  bottom: "h1_n"
  top: "h1_n"
}
layer {
  name: "pool1"
  type: "Pooling"
  bottom: "h1"
  top: "pool1"
  pooling_param {
    pool: MAX
    kernel_size: 2
    stride: 2
  }
}
layer {
  name: "pool1_n"
  type: "Pooling"
  bottom: "h1_n"
  top: "pool1_n"
  top: "pool1_n_mask"
  pooling_param {
    pool: MAX
    kernel_size: 2
    stride: 2
  }
}
layer {
  name: "conv2"
  type: "Convolution"
  bottom: "pool1"
  bottom: "pool1_n"
  top: "z2_pre"
  top: "z2_n"
  param {
    name: "conv2_w"
  }
  convolution_param {
    num_output: 64
    bias_term: false
    pad: 1
    kernel_size: 3
    stride: 1
    weight_filler {
      type: "xavier"
    }
  }
}
layer {
  name: "bn2"
  type: "BatchNorm"
  bottom: "z2_pre"
  top: "z2"
  top: "bn2_param"
  param {
    lr_mult: 0
  }
  param {
    lr_mult: 0
  }
  param {
    lr_mult: 0
  }
  batch_norm_param {
    use_global_stats: false
    eps: 0.001
  }
}
layer {
  name: "scale2"
  type: "Scale"
  bottom: "z2"
  top: "h2"
  param {
    name: "scale2_w"
  }
  param {
    name: "scale2_b"
  }
  scale_param {
    filler {
      type: "constant"
      value: 1
    }
    bias_term: true
    bias_filler {
      type: "constant"
      value: 0
    }
  }
}
layer {
  name: "relu2"
  type: "ReLU"
  bottom: "h2"
  top: "h2"
}
layer {
  name: "bn2_n"
  type: "BatchNorm"
  bottom: "z2_n"
  top: "z2_n"
  param {
    lr_mult: 0
  }
  param {
    lr_mult: 0
  }
  param {
    lr_mult: 0
  }
  batch_norm_param {
    use_global_stats: false
    eps: 0.001
  }
}
layer {
  name: "noisy_z2_n"
  type: "Noise"
  bottom: "z2_n"
  top: "z2_n"
  noise_param {
    sigma: 0.05
  }
}
layer {
  name: "scale2_n"
  type: "Scale"
  bottom: "z2_n"
  top: "h2_n"
  param {
    name: "scale2_w"
  }
  param {
    name: "scale2_b"
  }
  scale_param {
    filler {
      type: "constant"
      value: 1
    }
    bias_term: true
    bias_filler {
      type: "constant"
      value: 0
    }
  }
}
layer {
  name: "relu2_n"
  type: "ReLU"
  bottom: "h2_n"
  top: "h2_n"
}
layer {
  name: "pool2"
  type: "Pooling"
  bottom: "h2"
  top: "pool2"
  pooling_param {
    pool: MAX
    kernel_size: 2
    stride: 2
  }
}
layer {
  name: "pool2_n"
  type: "Pooling"
  bottom: "h2_n"
  top: "pool2_n"
  top: "pool2_n_mask"
  pooling_param {
    pool: MAX
    kernel_size: 2
    stride: 2
  }
}
layer {
  name: "conv3"
  type: "Convolution"
  bottom: "pool2"
  bottom: "pool2_n"
  top: "z3_pre"
  top: "z3_n"
  param {
    name: "conv3_w"
  }
  convolution_param {
    num_output: 128
    bias_term: false
    pad: 1
    kernel_size: 3
    stride: 1
    weight_filler {
      type: "xavier"
    }
  }
}
layer {
  name: "bn3"
  type: "BatchNorm"
  bottom: "z3_pre"
  top: "z3"
  top: "bn3_param"
  param {
    lr_mult: 0
  }
  param {
    lr_mult: 0
  }
  param {
    lr_mult: 0
  }
  batch_norm_param {
    use_global_stats: false
    eps: 0.001
  }
}
layer {
  name: "scale3"
  type: "Scale"
  bottom: "z3"
  top: "h3"
  param {
    name: "scale3_w"
  }
  param {
    name: "scale3_b"
  }
  scale_param {
    filler {
      type: "constant"
      value: 1
    }
    bias_term: true
    bias_filler {
      type: "constant"
      value: 0
    }
  }
}
layer {
  name: "relu3"
  type: "ReLU"
  bottom: "h3"
  top: "h3"
}
layer {
  name: "bn3_n"
  type: "BatchNorm"
  bottom: "z3_n"
  top: "z3_n"
  param {
    lr_mult: 0
  }
  param {
    lr_mult: 0
  }
  param {
    lr_mult: 0
  }
  batch_norm_param {
    use_global_stats: false
    eps: 0.001
  }
}
layer {
  name: "noisy_z3_n"
  type: "Noise"
  bottom: "z3_n"
  top: "z3_n"
  noise_param {
    sigma: 0.05
  }
}
layer {
  name: "scale3_n"
  type: "Scale"
  bottom: "z3_n"
  top: "h3_n"
  param {
    name: "scale3_w"
  }
  param {
    name: "scale3_b"
  }
  scale_param {
    filler {
      type: "constant"
      value: 1
    }
    bias_term: true
    bias_filler {
      type: "constant"
      value: 0
    }
  }
}
layer {
  name: "relu3_n"
  type: "ReLU"
  bottom: "h3_n"
  top: "h3_n"
}
layer {
  name: "pool3"
  type: "Pooling"
  bottom: "h3"
  top: "pool3"
  pooling_param {
    pool: MAX
    kernel_size: 2
    stride: 2
  }
}
layer {
  name: "pool3_n"
  type: "Pooling"
  bottom: "h3_n"
  top: "pool3_n"
  top: "pool3_n_mask"
  pooling_param {
    pool: MAX
    kernel_size: 2
    stride: 2
  }
}
layer {
  name: "conv4"
  type: "Convolution"
  bottom: "pool3"
  bottom: "pool3_n"
  top: "z4_pre"
  top: "z4_n"
  param {
    name: "conv4_w"
  }
  convolution_param {
    num_output: 256
    bias_term: false
    pad: 1
    kernel_size: 3
    stride: 1
    weight_filler {
      type: "xavier"
    }
  }
}
layer {
  name: "bn4"
  type: "BatchNorm"
  bottom: "z4_pre"
  top: "z4"
  top: "bn4_param"
  param {
    lr_mult: 0
  }
  param {
    lr_mult: 0
  }
  param {
    lr_mult: 0
  }
  batch_norm_param {
    use_global_stats: false
    eps: 0.001
  }
}
layer {
  name: "scale4"
  type: "Scale"
  bottom: "z4"
  top: "h4"
  param {
    name: "scale4_w"
  }
  param {
    name: "scale4_b"
  }
  scale_param {
    filler {
      type: "constant"
      value: 1
    }
    bias_term: true
    bias_filler {
      type: "constant"
      value: 0
    }
  }
}
layer {
  name: "relu4"
  type: "ReLU"
  bottom: "h4"
  top: "h4"
}
layer {
  name: "bn4_n"
  type: "BatchNorm"
  bottom: "z4_n"
  top: "z4_n"
  param {
    lr_mult: 0
  }
  param {
    lr_mult: 0
  }
  param {
    lr_mult: 0
  }
  batch_norm_param {
    use_global_stats: false
    eps: 0.001
  }
}
layer {
  name: "noisy_z4_n"
  type: "Noise"
  bottom: "z4_n"
  top: "z4_n"
  noise_param {
    sigma: 0.05
  }
}
layer {
  name: "scale4_n"
  type: "Scale"
  bottom: "z4_n"
  top: "h4_n"
  param {
    name: "scale4_w"
  }
  param {
    name: "scale4_b"
  }
  scale_param {
    filler {
      type: "constant"
      value: 1
    }
    bias_term: true
    bias_filler {
      type: "constant"
      value: 0
    }
  }
}
layer {
  name: "relu4_n"
  type: "ReLU"
  bottom: "h4_n"
  top: "h4_n"
}
layer {
  name: "pool4"
  type: "Pooling"
  bottom: "h4"
  top: "pool4"
  pooling_param {
    pool: MAX
    kernel_size: 2
    stride: 2
  }
}
layer {
  name: "pool4_n"
  type: "Pooling"
  bottom: "h4_n"
  top: "pool4_n"
  top: "pool4_n_mask"
  pooling_param {
    pool: MAX
    kernel_size: 2
    stride: 2
  }
}
layer {
  name: "conv5"
  type: "Convolution"
  bottom: "pool4"
  bottom: "pool4_n"
  top: "z5_pre"
  top: "z5_n"
  param {
    name: "conv5_w"
  }
  convolution_param {
    num_output: 256
    bias_term: false
    pad: 1
    kernel_size: 3
    stride: 1
    weight_filler {
      type: "xavier"
    }
  }
}
layer {
  name: "bn5"
  type: "BatchNorm"
  bottom: "z5_pre"
  top: "z5"
  top: "bn5_param"
  param {
    lr_mult: 0
  }
  param {
    lr_mult: 0
  }
  param {
    lr_mult: 0
  }
  batch_norm_param {
    use_global_stats: false
    eps: 0.001
  }
}
layer {
  name: "scale5"
  type: "Scale"
  bottom: "z5"
  top: "h5"
  param {
    name: "scale5_w"
  }
  param {
    name: "scale5_b"
  }
  scale_param {
    filler {
      type: "constant"
      value: 1
    }
    bias_term: true
    bias_filler {
      type: "constant"
      value: 0
    }
  }
}
layer {
  name: "relu5"
  type: "ReLU"
  bottom: "h5"
  top: "h5"
}
layer {
  name: "bn5_n"
  type: "BatchNorm"
  bottom: "z5_n"
  top: "z5_n"
  param {
    lr_mult: 0
  }
  param {
    lr_mult: 0
  }
  param {
    lr_mult: 0
  }
  batch_norm_param {
    use_global_stats: false
    eps: 0.001
  }
}
layer {
  name: "noisy_z5_n"
  type: "Noise"
  bottom: "z5_n"
  top: "z5_n"
  noise_param {
    sigma: 0.05
  }
}
layer {
  name: "scale5_n"
  type: "Scale"
  bottom: "z5_n"
  top: "h5_n"
  param {
    name: "scale5_w"
  }
  param {
    name: "scale5_b"
  }
  scale_param {
    filler {
      type: "constant"
      value: 1
    }
    bias_term: true
    bias_filler {
      type: "constant"
      value: 0
    }
  }
}
layer {
  name: "relu5_n"
  type: "ReLU"
  bottom: "h5_n"
  top: "h5_n"
}
layer {
  name: "pool5"
  type: "Pooling"
  bottom: "h5"
  top: "pool5"
  pooling_param {
    pool: MAX
    kernel_size: 2
    stride: 2
  }
}
layer {
  name: "pool5_n"
  type: "Pooling"
  bottom: "h5_n"
  top: "pool5_n"
  top: "pool5_n_mask"
  pooling_param {
    pool: MAX
    kernel_size: 2
    stride: 2
  }
}
layer {
  name: "conv6"
  type: "Convolution"
  bottom: "pool5"
  bottom: "pool5_n"
  top: "z6_pre"
  top: "z6_n"
  param {
    name: "conv6_w"
  }
  convolution_param {
    num_output: 256
    bias_term: false
    pad: 1
    kernel_size: 3
    stride: 1
    weight_filler {
      type: "xavier"
    }
  }
}
layer {
  name: "bn6"
  type: "BatchNorm"
  bottom: "z6_pre"
  top: "z6"
  top: "bn6_param"
  param {
    lr_mult: 0
  }
  param {
    lr_mult: 0
  }
  param {
    lr_mult: 0
  }
  batch_norm_param {
    use_global_stats: false
    eps: 0.001
  }
}
layer {
  name: "scale6"
  type: "Scale"
  bottom: "z6"
  top: "h6"
  param {
    name: "scale6_w"
  }
  param {
    name: "scale6_b"
  }
  scale_param {
    filler {
      type: "constant"
      value: 1
    }
    bias_term: true
    bias_filler {
      type: "constant"
      value: 0
    }
  }
}
layer {
  name: "relu6"
  type: "ReLU"
  bottom: "h6"
  top: "h6"
}
layer {
  name: "bn6_n"
  type: "BatchNorm"
  bottom: "z6_n"
  top: "z6_n"
  param {
    lr_mult: 0
  }
  param {
    lr_mult: 0
  }
  param {
    lr_mult: 0
  }
  batch_norm_param {
    use_global_stats: false
    eps: 0.001
  }
}
layer {
  name: "noisy_z6_n"
  type: "Noise"
  bottom: "z6_n"
  top: "z6_n"
  noise_param {
    sigma: 0.05
  }
}
layer {
  name: "scale6_n"
  type: "Scale"
  bottom: "z6_n"
  top: "h6_n"
  param {
    name: "scale6_w"
  }
  param {
    name: "scale6_b"
  }
  scale_param {
    filler {
      type: "constant"
      value: 1
    }
    bias_term: true
    bias_filler {
      type: "constant"
      value: 0
    }
  }
}
layer {
  name: "relu6_n"
  type: "ReLU"
  bottom: "h6_n"
  top: "h6_n"
}
layer {
  name: "u6"
  type: "BatchNorm"
  bottom: "h6_n"
  top: "u6"
  param {
    lr_mult: 0
  }
  param {
    lr_mult: 0
  }
  param {
    lr_mult: 0
  }
  batch_norm_param {
    use_global_stats: false
    eps: 0.001
  }
}
layer {
  name: "comb6"
  type: "VanillaLadderCombinator"
  bottom: "z6_n"
  bottom: "u6"
  top: "z6_r"
}
layer {
  name: "recon6"
  type: "Deconvolution"
  bottom: "z6_r"
  top: "h6_r"
  param {
    name: "conv6_w"
    lr_mult: 0
  }
  convolution_param {
    num_output: 256
    bias_term: false
    pad: 1
    kernel_size: 3
    stride: 1
    weight_filler {
      type: "xavier"
    }
  }
}
layer {
  name: "bn6_r"
  type: "BatchNorm"
  bottom: "h6_r"
  top: "h6_r"
  param {
    lr_mult: 0
  }
  param {
    lr_mult: 0
  }
  param {
    lr_mult: 0
  }
  batch_norm_param {
    use_global_stats: false
    eps: 0.001
  }
}
layer {
  name: "upsample5"
  type: "Upsample"
  bottom: "h6_r"
  bottom: "pool5_n_mask"
  top: "upsample5"
  upsample_param {
    scale: 2
  }
}
layer {
  name: "comb5"
  type: "VanillaLadderCombinator"
  bottom: "z5_n"
  bottom: "upsample5"
  top: "z5_r"
}
layer {
  name: "recon5"
  type: "Deconvolution"
  bottom: "z5_r"
  top: "h5_r"
  param {
    name: "conv5_w"
    lr_mult: 0
  }
  convolution_param {
    num_output: 256
    bias_term: false
    pad: 1
    kernel_size: 3
    stride: 1
    weight_filler {
      type: "xavier"
    }
  }
}
layer {
  name: "bn5_r"
  type: "BatchNorm"
  bottom: "h5_r"
  top: "h5_r"
  param {
    lr_mult: 0
  }
  param {
    lr_mult: 0
  }
  param {
    lr_mult: 0
  }
  batch_norm_param {
    use_global_stats: false
    eps: 0.001
  }
}
layer {
  name: "upsample4"
  type: "Upsample"
  bottom: "h5_r"
  bottom: "pool4_n_mask"
  top: "upsample4"
  upsample_param {
    scale: 2
  }
}
layer {
  name: "comb4"
  type: "VanillaLadderCombinator"
  bottom: "z4_n"
  bottom: "upsample4"
  top: "z4_r"
}
layer {
  name: "recon4"
  type: "Deconvolution"
  bottom: "z4_r"
  top: "h4_r"
  param {
    name: "conv4_w"
    lr_mult: 0
  }
  convolution_param {
    num_output: 128
    bias_term: false
    pad: 1
    kernel_size: 3
    stride: 1
    weight_filler {
      type: "xavier"
    }
  }
}
layer {
  name: "bn4_r"
  type: "BatchNorm"
  bottom: "h4_r"
  top: "h4_r"
  param {
    lr_mult: 0
  }
  param {
    lr_mult: 0
  }
  param {
    lr_mult: 0
  }
  batch_norm_param {
    use_global_stats: false
    eps: 0.001
  }
}
layer {
  name: "upsample3"
  type: "Upsample"
  bottom: "h4_r"
  bottom: "pool3_n_mask"
  top: "upsample3"
  upsample_param {
    scale: 2
  }
}
layer {
  name: "comb3"
  type: "VanillaLadderCombinator"
  bottom: "z3_n"
  bottom: "upsample3"
  top: "z3_r"
}
layer {
  name: "recon3"
  type: "Deconvolution"
  bottom: "z3_r"
  top: "h3_r"
  param {
    name: "conv3_w"
    lr_mult: 0
  }
  convolution_param {
    num_output: 64
    bias_term: false
    pad: 1
    kernel_size: 3
    stride: 1
    weight_filler {
      type: "xavier"
    }
  }
}
layer {
  name: "bn3_r"
  type: "BatchNorm"
  bottom: "h3_r"
  top: "h3_r"
  param {
    lr_mult: 0
  }
  param {
    lr_mult: 0
  }
  param {
    lr_mult: 0
  }
  batch_norm_param {
    use_global_stats: false
    eps: 0.001
  }
}
layer {
  name: "upsample2"
  type: "Upsample"
  bottom: "h3_r"
  bottom: "pool2_n_mask"
  top: "upsample2"
  upsample_param {
    scale: 2
  }
}
layer {
  name: "comb2"
  type: "VanillaLadderCombinator"
  bottom: "z2_n"
  bottom: "upsample2"
  top: "z2_r"
}
layer {
  name: "recon2"
  type: "Deconvolution"
  bottom: "z2_r"
  top: "h2_r"
  param {
    name: "conv2_w"
    lr_mult: 0
  }
  convolution_param {
    num_output: 32
    bias_term: false
    pad: 1
    kernel_size: 3
    stride: 1
    weight_filler {
      type: "xavier"
    }
  }
}
layer {
  name: "bn2_r"
  type: "BatchNorm"
  bottom: "h2_r"
  top: "h2_r"
  param {
    lr_mult: 0
  }
  param {
    lr_mult: 0
  }
  param {
    lr_mult: 0
  }
  batch_norm_param {
    use_global_stats: false
    eps: 0.001
  }
}
layer {
  name: "upsample1"
  type: "Upsample"
  bottom: "h2_r"
  bottom: "pool1_n_mask"
  top: "upsample1"
  upsample_param {
    scale: 2
  }
}
layer {
  name: "comb1"
  type: "VanillaLadderCombinator"
  bottom: "z1_n"
  bottom: "upsample1"
  top: "z1_r"
}
layer {
  name: "recon1"
  type: "Deconvolution"
  bottom: "z1_r"
  top: "h1_r"
  param {
    name: "conv1_w"
    lr_mult: 0
  }
  convolution_param {
    num_output: 1
    bias_term: false
    pad: 1
    kernel_size: 3
    stride: 1
    weight_filler {
      type: "xavier"
    }
  }
}
layer {
  name: "bn1_r"
  type: "BatchNorm"
  bottom: "h1_r"
  top: "h1_r"
  param {
    lr_mult: 0
  }
  param {
    lr_mult: 0
  }
  param {
    lr_mult: 0
  }
  batch_norm_param {
    use_global_stats: false
    eps: 0.001
  }
}
layer {
  name: "comb0"
  type: "VanillaLadderCombinator"
  bottom: "noisy_data"
  bottom: "h1_r"
  top: "z0_r"
}
layer {
  name: "loss_ladder_6"
  type: "LadderLoss"
  bottom: "z6"
  bottom: "z6_r"
  bottom: "bn6_param"
  top: "loss_ladder_6"
  loss_weight: 0.1
}
layer {
  name: "loss_ladder_5"
  type: "LadderLoss"
  bottom: "z5"
  bottom: "z5_r"
  bottom: "bn5_param"
  top: "loss_ladder_5"
  loss_weight: 0.1
}
layer {
  name: "loss_ladder_4"
  type: "LadderLoss"
  bottom: "z4"
  bottom: "z4_r"
  bottom: "bn4_param"
  top: "loss_ladder_4"
  loss_weight: 0.1
}
layer {
  name: "loss_ladder_3"
  type: "LadderLoss"
  bottom: "z3"
  bottom: "z3_r"
  bottom: "bn3_param"
  top: "loss_ladder_3"
  loss_weight: 0.1
}
layer {
  name: "loss_ladder_2"
  type: "LadderLoss"
  bottom: "z2"
  bottom: "z2_r"
  bottom: "bn2_param"
  top: "loss_ladder_2"
  loss_weight: 0.1
}
layer {
  name: "loss_ladder_1"
  type: "LadderLoss"
  bottom: "z1"
  bottom: "z1_r"
  bottom: "bn1_param"
  top: "loss_ladder_1"
  loss_weight: 0.1
}
layer {
  name: "loss_ladder_0"
  type: "LadderLoss"
  bottom: "noisy_data"
  bottom: "z0_r"
  top: "loss_ladder_0"
  loss_weight: 0.1
}
layer {
  name: "pool_final"
  type: "Pooling"
  bottom: "h6"
  top: "pool_final"
  pooling_param {
    pool: AVE
    stride: 1
    kernel_h: 6
    kernel_w: 8
  }
}
layer {
  name: "score"
  type: "InnerProduct"
  bottom: "pool_final"
  top: "score"
  inner_product_param {
    num_output: 2
    weight_filler {
      type: "xavier"
    }
  }
}
layer {
  name: "loss_supervised"
  type: "SoftmaxWithLoss"
  bottom: "score"
  bottom: "label"
  top: "loss_supervised"
}
layer {
  name: "accuracy"
  type: "Accuracy"
  bottom: "score"
  bottom: "label"
  top: "accuracy"
}
I0705 11:39:11.822640 14303 layer_factory.hpp:77] Creating layer data
I0705 11:39:11.823027 14303 net.cpp:91] Creating Layer data
I0705 11:39:11.823038 14303 net.cpp:399] data -> data
I0705 11:39:11.823060 14303 net.cpp:399] data -> label
I0705 11:39:11.824411 14307 db_lmdb.cpp:35] Opened lmdb data/train_lmdb
I0705 11:39:11.840886 14303 data_layer.cpp:42] output data size: 16,1,192,256
I0705 11:39:11.847194 14303 net.cpp:141] Setting up data
I0705 11:39:11.847216 14303 net.cpp:148] Top shape: 16 1 192 256 (786432)
I0705 11:39:11.847220 14303 net.cpp:148] Top shape: 16 (16)
I0705 11:39:11.847223 14303 net.cpp:156] Memory required for data: 3145792
I0705 11:39:11.847232 14303 layer_factory.hpp:77] Creating layer data_data_0_split
I0705 11:39:11.847267 14303 net.cpp:91] Creating Layer data_data_0_split
I0705 11:39:11.847273 14303 net.cpp:425] data_data_0_split <- data
I0705 11:39:11.847285 14303 net.cpp:399] data_data_0_split -> data_data_0_split_0
I0705 11:39:11.847293 14303 net.cpp:399] data_data_0_split -> data_data_0_split_1
I0705 11:39:11.847431 14303 net.cpp:141] Setting up data_data_0_split
I0705 11:39:11.847441 14303 net.cpp:148] Top shape: 16 1 192 256 (786432)
I0705 11:39:11.847445 14303 net.cpp:148] Top shape: 16 1 192 256 (786432)
I0705 11:39:11.847446 14303 net.cpp:156] Memory required for data: 9437248
I0705 11:39:11.847462 14303 layer_factory.hpp:77] Creating layer label_data_1_split
I0705 11:39:11.847468 14303 net.cpp:91] Creating Layer label_data_1_split
I0705 11:39:11.847470 14303 net.cpp:425] label_data_1_split <- label
I0705 11:39:11.847476 14303 net.cpp:399] label_data_1_split -> label_data_1_split_0
I0705 11:39:11.847481 14303 net.cpp:399] label_data_1_split -> label_data_1_split_1
I0705 11:39:11.847522 14303 net.cpp:141] Setting up label_data_1_split
I0705 11:39:11.847527 14303 net.cpp:148] Top shape: 16 (16)
I0705 11:39:11.847529 14303 net.cpp:148] Top shape: 16 (16)
I0705 11:39:11.847532 14303 net.cpp:156] Memory required for data: 9437376
I0705 11:39:11.847533 14303 layer_factory.hpp:77] Creating layer noisy_data
I0705 11:39:11.847539 14303 net.cpp:91] Creating Layer noisy_data
I0705 11:39:11.847542 14303 net.cpp:425] noisy_data <- data_data_0_split_0
I0705 11:39:11.847545 14303 net.cpp:399] noisy_data -> noisy_data
I0705 11:39:11.847576 14303 net.cpp:141] Setting up noisy_data
I0705 11:39:11.847581 14303 net.cpp:148] Top shape: 16 1 192 256 (786432)
I0705 11:39:11.847584 14303 net.cpp:156] Memory required for data: 12583104
I0705 11:39:11.847585 14303 layer_factory.hpp:77] Creating layer noisy_data_noisy_data_0_split
I0705 11:39:11.847590 14303 net.cpp:91] Creating Layer noisy_data_noisy_data_0_split
I0705 11:39:11.847592 14303 net.cpp:425] noisy_data_noisy_data_0_split <- noisy_data
I0705 11:39:11.847596 14303 net.cpp:399] noisy_data_noisy_data_0_split -> noisy_data_noisy_data_0_split_0
I0705 11:39:11.847600 14303 net.cpp:399] noisy_data_noisy_data_0_split -> noisy_data_noisy_data_0_split_1
I0705 11:39:11.847605 14303 net.cpp:399] noisy_data_noisy_data_0_split -> noisy_data_noisy_data_0_split_2
I0705 11:39:11.847635 14303 net.cpp:141] Setting up noisy_data_noisy_data_0_split
I0705 11:39:11.847638 14303 net.cpp:148] Top shape: 16 1 192 256 (786432)
I0705 11:39:11.847642 14303 net.cpp:148] Top shape: 16 1 192 256 (786432)
I0705 11:39:11.847645 14303 net.cpp:148] Top shape: 16 1 192 256 (786432)
I0705 11:39:11.847647 14303 net.cpp:156] Memory required for data: 22020288
I0705 11:39:11.847650 14303 layer_factory.hpp:77] Creating layer conv1
I0705 11:39:11.847669 14303 net.cpp:91] Creating Layer conv1
I0705 11:39:11.847672 14303 net.cpp:425] conv1 <- data_data_0_split_1
I0705 11:39:11.847676 14303 net.cpp:425] conv1 <- noisy_data_noisy_data_0_split_0
I0705 11:39:11.847679 14303 net.cpp:399] conv1 -> z1_pre
I0705 11:39:11.847683 14303 net.cpp:399] conv1 -> z1_n
I0705 11:39:12.219290 14303 net.cpp:141] Setting up conv1
I0705 11:39:12.219321 14303 net.cpp:148] Top shape: 16 32 192 256 (25165824)
I0705 11:39:12.219326 14303 net.cpp:148] Top shape: 16 32 192 256 (25165824)
I0705 11:39:12.219329 14303 net.cpp:156] Memory required for data: 223346880
I0705 11:39:12.219344 14303 layer_factory.hpp:77] Creating layer bn1
I0705 11:39:12.219363 14303 net.cpp:91] Creating Layer bn1
I0705 11:39:12.219373 14303 net.cpp:425] bn1 <- z1_pre
I0705 11:39:12.219393 14303 net.cpp:399] bn1 -> z1
I0705 11:39:12.219410 14303 net.cpp:399] bn1 -> bn1_param
I0705 11:39:12.220484 14303 net.cpp:141] Setting up bn1
I0705 11:39:12.220500 14303 net.cpp:148] Top shape: 16 32 192 256 (25165824)
I0705 11:39:12.220505 14303 net.cpp:148] Top shape: 2 32 (64)
I0705 11:39:12.220507 14303 net.cpp:156] Memory required for data: 324010432
I0705 11:39:12.220520 14303 layer_factory.hpp:77] Creating layer z1_bn1_0_split
I0705 11:39:12.220528 14303 net.cpp:91] Creating Layer z1_bn1_0_split
I0705 11:39:12.220531 14303 net.cpp:425] z1_bn1_0_split <- z1
I0705 11:39:12.220537 14303 net.cpp:399] z1_bn1_0_split -> z1_bn1_0_split_0
I0705 11:39:12.220543 14303 net.cpp:399] z1_bn1_0_split -> z1_bn1_0_split_1
I0705 11:39:12.220587 14303 net.cpp:141] Setting up z1_bn1_0_split
I0705 11:39:12.220602 14303 net.cpp:148] Top shape: 16 32 192 256 (25165824)
I0705 11:39:12.220609 14303 net.cpp:148] Top shape: 16 32 192 256 (25165824)
I0705 11:39:12.220613 14303 net.cpp:156] Memory required for data: 525337024
I0705 11:39:12.220618 14303 layer_factory.hpp:77] Creating layer scale1
I0705 11:39:12.220648 14303 net.cpp:91] Creating Layer scale1
I0705 11:39:12.220659 14303 net.cpp:425] scale1 <- z1_bn1_0_split_0
I0705 11:39:12.220669 14303 net.cpp:399] scale1 -> h1
I0705 11:39:12.220738 14303 layer_factory.hpp:77] Creating layer scale1
I0705 11:39:12.220932 14303 net.cpp:141] Setting up scale1
I0705 11:39:12.220945 14303 net.cpp:148] Top shape: 16 32 192 256 (25165824)
I0705 11:39:12.220948 14303 net.cpp:156] Memory required for data: 626000320
I0705 11:39:12.220963 14303 layer_factory.hpp:77] Creating layer relu1
I0705 11:39:12.220973 14303 net.cpp:91] Creating Layer relu1
I0705 11:39:12.220978 14303 net.cpp:425] relu1 <- h1
I0705 11:39:12.220985 14303 net.cpp:386] relu1 -> h1 (in-place)
I0705 11:39:12.221371 14303 net.cpp:141] Setting up relu1
I0705 11:39:12.221387 14303 net.cpp:148] Top shape: 16 32 192 256 (25165824)
I0705 11:39:12.221390 14303 net.cpp:156] Memory required for data: 726663616
I0705 11:39:12.221395 14303 layer_factory.hpp:77] Creating layer bn1_n
I0705 11:39:12.221401 14303 net.cpp:91] Creating Layer bn1_n
I0705 11:39:12.221405 14303 net.cpp:425] bn1_n <- z1_n
I0705 11:39:12.221410 14303 net.cpp:386] bn1_n -> z1_n (in-place)
I0705 11:39:12.221657 14303 net.cpp:141] Setting up bn1_n
I0705 11:39:12.221669 14303 net.cpp:148] Top shape: 16 32 192 256 (25165824)
I0705 11:39:12.221673 14303 net.cpp:156] Memory required for data: 827326912
I0705 11:39:12.221688 14303 layer_factory.hpp:77] Creating layer noisy_z1_n
I0705 11:39:12.221698 14303 net.cpp:91] Creating Layer noisy_z1_n
I0705 11:39:12.221704 14303 net.cpp:425] noisy_z1_n <- z1_n
I0705 11:39:12.221711 14303 net.cpp:386] noisy_z1_n -> z1_n (in-place)
I0705 11:39:12.221750 14303 net.cpp:141] Setting up noisy_z1_n
I0705 11:39:12.221766 14303 net.cpp:148] Top shape: 16 32 192 256 (25165824)
I0705 11:39:12.221771 14303 net.cpp:156] Memory required for data: 927990208
I0705 11:39:12.221776 14303 layer_factory.hpp:77] Creating layer z1_n_noisy_z1_n_0_split
I0705 11:39:12.221784 14303 net.cpp:91] Creating Layer z1_n_noisy_z1_n_0_split
I0705 11:39:12.221791 14303 net.cpp:425] z1_n_noisy_z1_n_0_split <- z1_n
I0705 11:39:12.221798 14303 net.cpp:399] z1_n_noisy_z1_n_0_split -> z1_n_noisy_z1_n_0_split_0
I0705 11:39:12.221807 14303 net.cpp:399] z1_n_noisy_z1_n_0_split -> z1_n_noisy_z1_n_0_split_1
I0705 11:39:12.221860 14303 net.cpp:141] Setting up z1_n_noisy_z1_n_0_split
I0705 11:39:12.221869 14303 net.cpp:148] Top shape: 16 32 192 256 (25165824)
I0705 11:39:12.221873 14303 net.cpp:148] Top shape: 16 32 192 256 (25165824)
I0705 11:39:12.221876 14303 net.cpp:156] Memory required for data: 1129316800
I0705 11:39:12.221881 14303 layer_factory.hpp:77] Creating layer scale1_n
I0705 11:39:12.221892 14303 net.cpp:91] Creating Layer scale1_n
I0705 11:39:12.221899 14303 net.cpp:425] scale1_n <- z1_n_noisy_z1_n_0_split_0
I0705 11:39:12.221906 14303 net.cpp:399] scale1_n -> h1_n
I0705 11:39:12.221953 14303 layer_factory.hpp:77] Creating layer scale1_n
I0705 11:39:12.222887 14303 net.cpp:141] Setting up scale1_n
I0705 11:39:12.222903 14303 net.cpp:148] Top shape: 16 32 192 256 (25165824)
I0705 11:39:12.222905 14303 net.cpp:156] Memory required for data: 1229980096
I0705 11:39:12.222910 14303 net.cpp:484] Sharing parameters 'scale1_w' owned by layer 'scale1', param index 0
I0705 11:39:12.222914 14303 net.cpp:484] Sharing parameters 'scale1_b' owned by layer 'scale1', param index 1
I0705 11:39:12.222918 14303 layer_factory.hpp:77] Creating layer relu1_n
I0705 11:39:12.222923 14303 net.cpp:91] Creating Layer relu1_n
I0705 11:39:12.222926 14303 net.cpp:425] relu1_n <- h1_n
I0705 11:39:12.222931 14303 net.cpp:386] relu1_n -> h1_n (in-place)
I0705 11:39:12.223104 14303 net.cpp:141] Setting up relu1_n
I0705 11:39:12.223115 14303 net.cpp:148] Top shape: 16 32 192 256 (25165824)
I0705 11:39:12.223119 14303 net.cpp:156] Memory required for data: 1330643392
I0705 11:39:12.223122 14303 layer_factory.hpp:77] Creating layer pool1
I0705 11:39:12.223129 14303 net.cpp:91] Creating Layer pool1
I0705 11:39:12.223132 14303 net.cpp:425] pool1 <- h1
I0705 11:39:12.223150 14303 net.cpp:399] pool1 -> pool1
I0705 11:39:12.223212 14303 net.cpp:141] Setting up pool1
I0705 11:39:12.223222 14303 net.cpp:148] Top shape: 16 32 96 128 (6291456)
I0705 11:39:12.223224 14303 net.cpp:156] Memory required for data: 1355809216
I0705 11:39:12.223227 14303 layer_factory.hpp:77] Creating layer pool1_n
I0705 11:39:12.223230 14303 layer_factory.cpp:90] cuDNN does not support multiple tops. Using Caffe's own pooling layer.
I0705 11:39:12.223237 14303 net.cpp:91] Creating Layer pool1_n
I0705 11:39:12.223240 14303 net.cpp:425] pool1_n <- h1_n
I0705 11:39:12.223245 14303 net.cpp:399] pool1_n -> pool1_n
I0705 11:39:12.223251 14303 net.cpp:399] pool1_n -> pool1_n_mask
I0705 11:39:12.223284 14303 net.cpp:141] Setting up pool1_n
I0705 11:39:12.223289 14303 net.cpp:148] Top shape: 16 32 96 128 (6291456)
I0705 11:39:12.223294 14303 net.cpp:148] Top shape: 16 32 96 128 (6291456)
I0705 11:39:12.223295 14303 net.cpp:156] Memory required for data: 1406140864
I0705 11:39:12.223299 14303 layer_factory.hpp:77] Creating layer conv2
I0705 11:39:12.223309 14303 net.cpp:91] Creating Layer conv2
I0705 11:39:12.223312 14303 net.cpp:425] conv2 <- pool1
I0705 11:39:12.223316 14303 net.cpp:425] conv2 <- pool1_n
I0705 11:39:12.223320 14303 net.cpp:399] conv2 -> z2_pre
I0705 11:39:12.223327 14303 net.cpp:399] conv2 -> z2_n
I0705 11:39:12.224596 14303 net.cpp:141] Setting up conv2
I0705 11:39:12.224611 14303 net.cpp:148] Top shape: 16 64 96 128 (12582912)
I0705 11:39:12.224616 14303 net.cpp:148] Top shape: 16 64 96 128 (12582912)
I0705 11:39:12.224618 14303 net.cpp:156] Memory required for data: 1506804160
I0705 11:39:12.224624 14303 layer_factory.hpp:77] Creating layer bn2
I0705 11:39:12.224632 14303 net.cpp:91] Creating Layer bn2
I0705 11:39:12.224637 14303 net.cpp:425] bn2 <- z2_pre
I0705 11:39:12.224642 14303 net.cpp:399] bn2 -> z2
I0705 11:39:12.224647 14303 net.cpp:399] bn2 -> bn2_param
I0705 11:39:12.225585 14303 net.cpp:141] Setting up bn2
I0705 11:39:12.225599 14303 net.cpp:148] Top shape: 16 64 96 128 (12582912)
I0705 11:39:12.225602 14303 net.cpp:148] Top shape: 2 64 (128)
I0705 11:39:12.225605 14303 net.cpp:156] Memory required for data: 1557136320
I0705 11:39:12.225613 14303 layer_factory.hpp:77] Creating layer z2_bn2_0_split
I0705 11:39:12.225620 14303 net.cpp:91] Creating Layer z2_bn2_0_split
I0705 11:39:12.225622 14303 net.cpp:425] z2_bn2_0_split <- z2
I0705 11:39:12.225630 14303 net.cpp:399] z2_bn2_0_split -> z2_bn2_0_split_0
I0705 11:39:12.225636 14303 net.cpp:399] z2_bn2_0_split -> z2_bn2_0_split_1
I0705 11:39:12.225673 14303 net.cpp:141] Setting up z2_bn2_0_split
I0705 11:39:12.225678 14303 net.cpp:148] Top shape: 16 64 96 128 (12582912)
I0705 11:39:12.225682 14303 net.cpp:148] Top shape: 16 64 96 128 (12582912)
I0705 11:39:12.225684 14303 net.cpp:156] Memory required for data: 1657799616
I0705 11:39:12.225687 14303 layer_factory.hpp:77] Creating layer scale2
I0705 11:39:12.225695 14303 net.cpp:91] Creating Layer scale2
I0705 11:39:12.225698 14303 net.cpp:425] scale2 <- z2_bn2_0_split_0
I0705 11:39:12.225704 14303 net.cpp:399] scale2 -> h2
I0705 11:39:12.225745 14303 layer_factory.hpp:77] Creating layer scale2
I0705 11:39:12.225859 14303 net.cpp:141] Setting up scale2
I0705 11:39:12.225868 14303 net.cpp:148] Top shape: 16 64 96 128 (12582912)
I0705 11:39:12.225872 14303 net.cpp:156] Memory required for data: 1708131264
I0705 11:39:12.225879 14303 layer_factory.hpp:77] Creating layer relu2
I0705 11:39:12.225884 14303 net.cpp:91] Creating Layer relu2
I0705 11:39:12.225888 14303 net.cpp:425] relu2 <- h2
I0705 11:39:12.225893 14303 net.cpp:386] relu2 -> h2 (in-place)
I0705 11:39:12.226222 14303 net.cpp:141] Setting up relu2
I0705 11:39:12.226235 14303 net.cpp:148] Top shape: 16 64 96 128 (12582912)
I0705 11:39:12.226238 14303 net.cpp:156] Memory required for data: 1758462912
I0705 11:39:12.226241 14303 layer_factory.hpp:77] Creating layer bn2_n
I0705 11:39:12.226249 14303 net.cpp:91] Creating Layer bn2_n
I0705 11:39:12.226253 14303 net.cpp:425] bn2_n <- z2_n
I0705 11:39:12.226258 14303 net.cpp:386] bn2_n -> z2_n (in-place)
I0705 11:39:12.226469 14303 net.cpp:141] Setting up bn2_n
I0705 11:39:12.226478 14303 net.cpp:148] Top shape: 16 64 96 128 (12582912)
I0705 11:39:12.226481 14303 net.cpp:156] Memory required for data: 1808794560
I0705 11:39:12.226490 14303 layer_factory.hpp:77] Creating layer noisy_z2_n
I0705 11:39:12.226495 14303 net.cpp:91] Creating Layer noisy_z2_n
I0705 11:39:12.226498 14303 net.cpp:425] noisy_z2_n <- z2_n
I0705 11:39:12.226503 14303 net.cpp:386] noisy_z2_n -> z2_n (in-place)
I0705 11:39:12.226527 14303 net.cpp:141] Setting up noisy_z2_n
I0705 11:39:12.226532 14303 net.cpp:148] Top shape: 16 64 96 128 (12582912)
I0705 11:39:12.226534 14303 net.cpp:156] Memory required for data: 1859126208
I0705 11:39:12.226537 14303 layer_factory.hpp:77] Creating layer z2_n_noisy_z2_n_0_split
I0705 11:39:12.226542 14303 net.cpp:91] Creating Layer z2_n_noisy_z2_n_0_split
I0705 11:39:12.226546 14303 net.cpp:425] z2_n_noisy_z2_n_0_split <- z2_n
I0705 11:39:12.226550 14303 net.cpp:399] z2_n_noisy_z2_n_0_split -> z2_n_noisy_z2_n_0_split_0
I0705 11:39:12.226555 14303 net.cpp:399] z2_n_noisy_z2_n_0_split -> z2_n_noisy_z2_n_0_split_1
I0705 11:39:12.226586 14303 net.cpp:141] Setting up z2_n_noisy_z2_n_0_split
I0705 11:39:12.226593 14303 net.cpp:148] Top shape: 16 64 96 128 (12582912)
I0705 11:39:12.226596 14303 net.cpp:148] Top shape: 16 64 96 128 (12582912)
I0705 11:39:12.226598 14303 net.cpp:156] Memory required for data: 1959789504
I0705 11:39:12.226601 14303 layer_factory.hpp:77] Creating layer scale2_n
I0705 11:39:12.226608 14303 net.cpp:91] Creating Layer scale2_n
I0705 11:39:12.226610 14303 net.cpp:425] scale2_n <- z2_n_noisy_z2_n_0_split_0
I0705 11:39:12.226616 14303 net.cpp:399] scale2_n -> h2_n
I0705 11:39:12.226658 14303 layer_factory.hpp:77] Creating layer scale2_n
I0705 11:39:12.226771 14303 net.cpp:141] Setting up scale2_n
I0705 11:39:12.226780 14303 net.cpp:148] Top shape: 16 64 96 128 (12582912)
I0705 11:39:12.226783 14303 net.cpp:156] Memory required for data: 2010121152
I0705 11:39:12.226788 14303 net.cpp:484] Sharing parameters 'scale2_w' owned by layer 'scale2', param index 0
I0705 11:39:12.226790 14303 net.cpp:484] Sharing parameters 'scale2_b' owned by layer 'scale2', param index 1
I0705 11:39:12.226794 14303 layer_factory.hpp:77] Creating layer relu2_n
I0705 11:39:12.226801 14303 net.cpp:91] Creating Layer relu2_n
I0705 11:39:12.226804 14303 net.cpp:425] relu2_n <- h2_n
I0705 11:39:12.226809 14303 net.cpp:386] relu2_n -> h2_n (in-place)
I0705 11:39:12.226981 14303 net.cpp:141] Setting up relu2_n
I0705 11:39:12.226994 14303 net.cpp:148] Top shape: 16 64 96 128 (12582912)
I0705 11:39:12.226996 14303 net.cpp:156] Memory required for data: 2060452800
I0705 11:39:12.226999 14303 layer_factory.hpp:77] Creating layer pool2
I0705 11:39:12.227005 14303 net.cpp:91] Creating Layer pool2
I0705 11:39:12.227008 14303 net.cpp:425] pool2 <- h2
I0705 11:39:12.227013 14303 net.cpp:399] pool2 -> pool2
I0705 11:39:12.227056 14303 net.cpp:141] Setting up pool2
I0705 11:39:12.227064 14303 net.cpp:148] Top shape: 16 64 48 64 (3145728)
I0705 11:39:12.227066 14303 net.cpp:156] Memory required for data: 2073035712
I0705 11:39:12.227069 14303 layer_factory.hpp:77] Creating layer pool2_n
I0705 11:39:12.227072 14303 layer_factory.cpp:90] cuDNN does not support multiple tops. Using Caffe's own pooling layer.
I0705 11:39:12.227078 14303 net.cpp:91] Creating Layer pool2_n
I0705 11:39:12.227082 14303 net.cpp:425] pool2_n <- h2_n
I0705 11:39:12.227085 14303 net.cpp:399] pool2_n -> pool2_n
I0705 11:39:12.227090 14303 net.cpp:399] pool2_n -> pool2_n_mask
I0705 11:39:12.227124 14303 net.cpp:141] Setting up pool2_n
I0705 11:39:12.227129 14303 net.cpp:148] Top shape: 16 64 48 64 (3145728)
I0705 11:39:12.227133 14303 net.cpp:148] Top shape: 16 64 48 64 (3145728)
I0705 11:39:12.227135 14303 net.cpp:156] Memory required for data: 2098201536
I0705 11:39:12.227138 14303 layer_factory.hpp:77] Creating layer conv3
I0705 11:39:12.227147 14303 net.cpp:91] Creating Layer conv3
I0705 11:39:12.227150 14303 net.cpp:425] conv3 <- pool2
I0705 11:39:12.227165 14303 net.cpp:425] conv3 <- pool2_n
I0705 11:39:12.227172 14303 net.cpp:399] conv3 -> z3_pre
I0705 11:39:12.227179 14303 net.cpp:399] conv3 -> z3_n
I0705 11:39:12.229545 14303 net.cpp:141] Setting up conv3
I0705 11:39:12.229562 14303 net.cpp:148] Top shape: 16 128 48 64 (6291456)
I0705 11:39:12.229567 14303 net.cpp:148] Top shape: 16 128 48 64 (6291456)
I0705 11:39:12.229569 14303 net.cpp:156] Memory required for data: 2148533184
I0705 11:39:12.229575 14303 layer_factory.hpp:77] Creating layer bn3
I0705 11:39:12.229585 14303 net.cpp:91] Creating Layer bn3
I0705 11:39:12.229590 14303 net.cpp:425] bn3 <- z3_pre
I0705 11:39:12.229598 14303 net.cpp:399] bn3 -> z3
I0705 11:39:12.229605 14303 net.cpp:399] bn3 -> bn3_param
I0705 11:39:12.230655 14303 net.cpp:141] Setting up bn3
I0705 11:39:12.230675 14303 net.cpp:148] Top shape: 16 128 48 64 (6291456)
I0705 11:39:12.230684 14303 net.cpp:148] Top shape: 2 128 (256)
I0705 11:39:12.230690 14303 net.cpp:156] Memory required for data: 2173700032
I0705 11:39:12.230703 14303 layer_factory.hpp:77] Creating layer z3_bn3_0_split
I0705 11:39:12.230713 14303 net.cpp:91] Creating Layer z3_bn3_0_split
I0705 11:39:12.230721 14303 net.cpp:425] z3_bn3_0_split <- z3
I0705 11:39:12.230733 14303 net.cpp:399] z3_bn3_0_split -> z3_bn3_0_split_0
I0705 11:39:12.230744 14303 net.cpp:399] z3_bn3_0_split -> z3_bn3_0_split_1
I0705 11:39:12.230800 14303 net.cpp:141] Setting up z3_bn3_0_split
I0705 11:39:12.230813 14303 net.cpp:148] Top shape: 16 128 48 64 (6291456)
I0705 11:39:12.230821 14303 net.cpp:148] Top shape: 16 128 48 64 (6291456)
I0705 11:39:12.230828 14303 net.cpp:156] Memory required for data: 2224031680
I0705 11:39:12.230832 14303 layer_factory.hpp:77] Creating layer scale3
I0705 11:39:12.230849 14303 net.cpp:91] Creating Layer scale3
I0705 11:39:12.230857 14303 net.cpp:425] scale3 <- z3_bn3_0_split_0
I0705 11:39:12.230868 14303 net.cpp:399] scale3 -> h3
I0705 11:39:12.230934 14303 layer_factory.hpp:77] Creating layer scale3
I0705 11:39:12.231084 14303 net.cpp:141] Setting up scale3
I0705 11:39:12.231096 14303 net.cpp:148] Top shape: 16 128 48 64 (6291456)
I0705 11:39:12.231103 14303 net.cpp:156] Memory required for data: 2249197504
I0705 11:39:12.231112 14303 layer_factory.hpp:77] Creating layer relu3
I0705 11:39:12.231119 14303 net.cpp:91] Creating Layer relu3
I0705 11:39:12.231127 14303 net.cpp:425] relu3 <- h3
I0705 11:39:12.231133 14303 net.cpp:386] relu3 -> h3 (in-place)
I0705 11:39:12.231609 14303 net.cpp:141] Setting up relu3
I0705 11:39:12.231627 14303 net.cpp:148] Top shape: 16 128 48 64 (6291456)
I0705 11:39:12.231634 14303 net.cpp:156] Memory required for data: 2274363328
I0705 11:39:12.231642 14303 layer_factory.hpp:77] Creating layer bn3_n
I0705 11:39:12.231652 14303 net.cpp:91] Creating Layer bn3_n
I0705 11:39:12.231658 14303 net.cpp:425] bn3_n <- z3_n
I0705 11:39:12.231669 14303 net.cpp:386] bn3_n -> z3_n (in-place)
I0705 11:39:12.231848 14303 net.cpp:141] Setting up bn3_n
I0705 11:39:12.231861 14303 net.cpp:148] Top shape: 16 128 48 64 (6291456)
I0705 11:39:12.231868 14303 net.cpp:156] Memory required for data: 2299529152
I0705 11:39:12.231878 14303 layer_factory.hpp:77] Creating layer noisy_z3_n
I0705 11:39:12.231887 14303 net.cpp:91] Creating Layer noisy_z3_n
I0705 11:39:12.231894 14303 net.cpp:425] noisy_z3_n <- z3_n
I0705 11:39:12.231901 14303 net.cpp:386] noisy_z3_n -> z3_n (in-place)
I0705 11:39:12.231938 14303 net.cpp:141] Setting up noisy_z3_n
I0705 11:39:12.231950 14303 net.cpp:148] Top shape: 16 128 48 64 (6291456)
I0705 11:39:12.231956 14303 net.cpp:156] Memory required for data: 2324694976
I0705 11:39:12.231961 14303 layer_factory.hpp:77] Creating layer z3_n_noisy_z3_n_0_split
I0705 11:39:12.231971 14303 net.cpp:91] Creating Layer z3_n_noisy_z3_n_0_split
I0705 11:39:12.231978 14303 net.cpp:425] z3_n_noisy_z3_n_0_split <- z3_n
I0705 11:39:12.231984 14303 net.cpp:399] z3_n_noisy_z3_n_0_split -> z3_n_noisy_z3_n_0_split_0
I0705 11:39:12.231993 14303 net.cpp:399] z3_n_noisy_z3_n_0_split -> z3_n_noisy_z3_n_0_split_1
I0705 11:39:12.232046 14303 net.cpp:141] Setting up z3_n_noisy_z3_n_0_split
I0705 11:39:12.232074 14303 net.cpp:148] Top shape: 16 128 48 64 (6291456)
I0705 11:39:12.232081 14303 net.cpp:148] Top shape: 16 128 48 64 (6291456)
I0705 11:39:12.232086 14303 net.cpp:156] Memory required for data: 2375026624
I0705 11:39:12.232091 14303 layer_factory.hpp:77] Creating layer scale3_n
I0705 11:39:12.232105 14303 net.cpp:91] Creating Layer scale3_n
I0705 11:39:12.232112 14303 net.cpp:425] scale3_n <- z3_n_noisy_z3_n_0_split_0
I0705 11:39:12.232125 14303 net.cpp:399] scale3_n -> h3_n
I0705 11:39:12.232195 14303 layer_factory.hpp:77] Creating layer scale3_n
I0705 11:39:12.232317 14303 net.cpp:141] Setting up scale3_n
I0705 11:39:12.232327 14303 net.cpp:148] Top shape: 16 128 48 64 (6291456)
I0705 11:39:12.232331 14303 net.cpp:156] Memory required for data: 2400192448
I0705 11:39:12.232334 14303 net.cpp:484] Sharing parameters 'scale3_w' owned by layer 'scale3', param index 0
I0705 11:39:12.232342 14303 net.cpp:484] Sharing parameters 'scale3_b' owned by layer 'scale3', param index 1
I0705 11:39:12.232347 14303 layer_factory.hpp:77] Creating layer relu3_n
I0705 11:39:12.232350 14303 net.cpp:91] Creating Layer relu3_n
I0705 11:39:12.232354 14303 net.cpp:425] relu3_n <- h3_n
I0705 11:39:12.232358 14303 net.cpp:386] relu3_n -> h3_n (in-place)
I0705 11:39:12.232516 14303 net.cpp:141] Setting up relu3_n
I0705 11:39:12.232524 14303 net.cpp:148] Top shape: 16 128 48 64 (6291456)
I0705 11:39:12.232527 14303 net.cpp:156] Memory required for data: 2425358272
I0705 11:39:12.232529 14303 layer_factory.hpp:77] Creating layer pool3
I0705 11:39:12.232537 14303 net.cpp:91] Creating Layer pool3
I0705 11:39:12.232540 14303 net.cpp:425] pool3 <- h3
I0705 11:39:12.232545 14303 net.cpp:399] pool3 -> pool3
I0705 11:39:12.232588 14303 net.cpp:141] Setting up pool3
I0705 11:39:12.232594 14303 net.cpp:148] Top shape: 16 128 24 32 (1572864)
I0705 11:39:12.232596 14303 net.cpp:156] Memory required for data: 2431649728
I0705 11:39:12.232599 14303 layer_factory.hpp:77] Creating layer pool3_n
I0705 11:39:12.232601 14303 layer_factory.cpp:90] cuDNN does not support multiple tops. Using Caffe's own pooling layer.
I0705 11:39:12.232605 14303 net.cpp:91] Creating Layer pool3_n
I0705 11:39:12.232609 14303 net.cpp:425] pool3_n <- h3_n
I0705 11:39:12.232612 14303 net.cpp:399] pool3_n -> pool3_n
I0705 11:39:12.232617 14303 net.cpp:399] pool3_n -> pool3_n_mask
I0705 11:39:12.232646 14303 net.cpp:141] Setting up pool3_n
I0705 11:39:12.232653 14303 net.cpp:148] Top shape: 16 128 24 32 (1572864)
I0705 11:39:12.232656 14303 net.cpp:148] Top shape: 16 128 24 32 (1572864)
I0705 11:39:12.232658 14303 net.cpp:156] Memory required for data: 2444232640
I0705 11:39:12.232661 14303 layer_factory.hpp:77] Creating layer conv4
I0705 11:39:12.232669 14303 net.cpp:91] Creating Layer conv4
I0705 11:39:12.232672 14303 net.cpp:425] conv4 <- pool3
I0705 11:39:12.232676 14303 net.cpp:425] conv4 <- pool3_n
I0705 11:39:12.232681 14303 net.cpp:399] conv4 -> z4_pre
I0705 11:39:12.232686 14303 net.cpp:399] conv4 -> z4_n
I0705 11:39:12.236098 14303 net.cpp:141] Setting up conv4
I0705 11:39:12.236112 14303 net.cpp:148] Top shape: 16 256 24 32 (3145728)
I0705 11:39:12.236116 14303 net.cpp:148] Top shape: 16 256 24 32 (3145728)
I0705 11:39:12.236119 14303 net.cpp:156] Memory required for data: 2469398464
I0705 11:39:12.236124 14303 layer_factory.hpp:77] Creating layer bn4
I0705 11:39:12.236129 14303 net.cpp:91] Creating Layer bn4
I0705 11:39:12.236132 14303 net.cpp:425] bn4 <- z4_pre
I0705 11:39:12.236137 14303 net.cpp:399] bn4 -> z4
I0705 11:39:12.236143 14303 net.cpp:399] bn4 -> bn4_param
I0705 11:39:12.236321 14303 net.cpp:141] Setting up bn4
I0705 11:39:12.236328 14303 net.cpp:148] Top shape: 16 256 24 32 (3145728)
I0705 11:39:12.236331 14303 net.cpp:148] Top shape: 2 256 (512)
I0705 11:39:12.236333 14303 net.cpp:156] Memory required for data: 2481983424
I0705 11:39:12.236340 14303 layer_factory.hpp:77] Creating layer z4_bn4_0_split
I0705 11:39:12.236345 14303 net.cpp:91] Creating Layer z4_bn4_0_split
I0705 11:39:12.236348 14303 net.cpp:425] z4_bn4_0_split <- z4
I0705 11:39:12.236363 14303 net.cpp:399] z4_bn4_0_split -> z4_bn4_0_split_0
I0705 11:39:12.236368 14303 net.cpp:399] z4_bn4_0_split -> z4_bn4_0_split_1
I0705 11:39:12.236402 14303 net.cpp:141] Setting up z4_bn4_0_split
I0705 11:39:12.236409 14303 net.cpp:148] Top shape: 16 256 24 32 (3145728)
I0705 11:39:12.236413 14303 net.cpp:148] Top shape: 16 256 24 32 (3145728)
I0705 11:39:12.236414 14303 net.cpp:156] Memory required for data: 2507149248
I0705 11:39:12.236416 14303 layer_factory.hpp:77] Creating layer scale4
I0705 11:39:12.236425 14303 net.cpp:91] Creating Layer scale4
I0705 11:39:12.236428 14303 net.cpp:425] scale4 <- z4_bn4_0_split_0
I0705 11:39:12.236433 14303 net.cpp:399] scale4 -> h4
I0705 11:39:12.236469 14303 layer_factory.hpp:77] Creating layer scale4
I0705 11:39:12.236555 14303 net.cpp:141] Setting up scale4
I0705 11:39:12.236562 14303 net.cpp:148] Top shape: 16 256 24 32 (3145728)
I0705 11:39:12.236564 14303 net.cpp:156] Memory required for data: 2519732160
I0705 11:39:12.236569 14303 layer_factory.hpp:77] Creating layer relu4
I0705 11:39:12.236573 14303 net.cpp:91] Creating Layer relu4
I0705 11:39:12.236577 14303 net.cpp:425] relu4 <- h4
I0705 11:39:12.236582 14303 net.cpp:386] relu4 -> h4 (in-place)
I0705 11:39:12.236732 14303 net.cpp:141] Setting up relu4
I0705 11:39:12.236740 14303 net.cpp:148] Top shape: 16 256 24 32 (3145728)
I0705 11:39:12.236743 14303 net.cpp:156] Memory required for data: 2532315072
I0705 11:39:12.236747 14303 layer_factory.hpp:77] Creating layer bn4_n
I0705 11:39:12.236752 14303 net.cpp:91] Creating Layer bn4_n
I0705 11:39:12.236755 14303 net.cpp:425] bn4_n <- z4_n
I0705 11:39:12.236759 14303 net.cpp:386] bn4_n -> z4_n (in-place)
I0705 11:39:12.236909 14303 net.cpp:141] Setting up bn4_n
I0705 11:39:12.236917 14303 net.cpp:148] Top shape: 16 256 24 32 (3145728)
I0705 11:39:12.236919 14303 net.cpp:156] Memory required for data: 2544897984
I0705 11:39:12.236924 14303 layer_factory.hpp:77] Creating layer noisy_z4_n
I0705 11:39:12.236932 14303 net.cpp:91] Creating Layer noisy_z4_n
I0705 11:39:12.236934 14303 net.cpp:425] noisy_z4_n <- z4_n
I0705 11:39:12.236937 14303 net.cpp:386] noisy_z4_n -> z4_n (in-place)
I0705 11:39:12.236956 14303 net.cpp:141] Setting up noisy_z4_n
I0705 11:39:12.236963 14303 net.cpp:148] Top shape: 16 256 24 32 (3145728)
I0705 11:39:12.236964 14303 net.cpp:156] Memory required for data: 2557480896
I0705 11:39:12.236966 14303 layer_factory.hpp:77] Creating layer z4_n_noisy_z4_n_0_split
I0705 11:39:12.236970 14303 net.cpp:91] Creating Layer z4_n_noisy_z4_n_0_split
I0705 11:39:12.236973 14303 net.cpp:425] z4_n_noisy_z4_n_0_split <- z4_n
I0705 11:39:12.236979 14303 net.cpp:399] z4_n_noisy_z4_n_0_split -> z4_n_noisy_z4_n_0_split_0
I0705 11:39:12.236982 14303 net.cpp:399] z4_n_noisy_z4_n_0_split -> z4_n_noisy_z4_n_0_split_1
I0705 11:39:12.237010 14303 net.cpp:141] Setting up z4_n_noisy_z4_n_0_split
I0705 11:39:12.237016 14303 net.cpp:148] Top shape: 16 256 24 32 (3145728)
I0705 11:39:12.237020 14303 net.cpp:148] Top shape: 16 256 24 32 (3145728)
I0705 11:39:12.237021 14303 net.cpp:156] Memory required for data: 2582646720
I0705 11:39:12.237023 14303 layer_factory.hpp:77] Creating layer scale4_n
I0705 11:39:12.237030 14303 net.cpp:91] Creating Layer scale4_n
I0705 11:39:12.237033 14303 net.cpp:425] scale4_n <- z4_n_noisy_z4_n_0_split_0
I0705 11:39:12.237038 14303 net.cpp:399] scale4_n -> h4_n
I0705 11:39:12.237074 14303 layer_factory.hpp:77] Creating layer scale4_n
I0705 11:39:12.237157 14303 net.cpp:141] Setting up scale4_n
I0705 11:39:12.237164 14303 net.cpp:148] Top shape: 16 256 24 32 (3145728)
I0705 11:39:12.237166 14303 net.cpp:156] Memory required for data: 2595229632
I0705 11:39:12.237169 14303 net.cpp:484] Sharing parameters 'scale4_w' owned by layer 'scale4', param index 0
I0705 11:39:12.237171 14303 net.cpp:484] Sharing parameters 'scale4_b' owned by layer 'scale4', param index 1
I0705 11:39:12.237174 14303 layer_factory.hpp:77] Creating layer relu4_n
I0705 11:39:12.237180 14303 net.cpp:91] Creating Layer relu4_n
I0705 11:39:12.237195 14303 net.cpp:425] relu4_n <- h4_n
I0705 11:39:12.237200 14303 net.cpp:386] relu4_n -> h4_n (in-place)
I0705 11:39:12.237475 14303 net.cpp:141] Setting up relu4_n
I0705 11:39:12.237486 14303 net.cpp:148] Top shape: 16 256 24 32 (3145728)
I0705 11:39:12.237489 14303 net.cpp:156] Memory required for data: 2607812544
I0705 11:39:12.237493 14303 layer_factory.hpp:77] Creating layer pool4
I0705 11:39:12.237499 14303 net.cpp:91] Creating Layer pool4
I0705 11:39:12.237503 14303 net.cpp:425] pool4 <- h4
I0705 11:39:12.237506 14303 net.cpp:399] pool4 -> pool4
I0705 11:39:12.237548 14303 net.cpp:141] Setting up pool4
I0705 11:39:12.237555 14303 net.cpp:148] Top shape: 16 256 12 16 (786432)
I0705 11:39:12.237557 14303 net.cpp:156] Memory required for data: 2610958272
I0705 11:39:12.237560 14303 layer_factory.hpp:77] Creating layer pool4_n
I0705 11:39:12.237562 14303 layer_factory.cpp:90] cuDNN does not support multiple tops. Using Caffe's own pooling layer.
I0705 11:39:12.237566 14303 net.cpp:91] Creating Layer pool4_n
I0705 11:39:12.237568 14303 net.cpp:425] pool4_n <- h4_n
I0705 11:39:12.237573 14303 net.cpp:399] pool4_n -> pool4_n
I0705 11:39:12.237578 14303 net.cpp:399] pool4_n -> pool4_n_mask
I0705 11:39:12.237609 14303 net.cpp:141] Setting up pool4_n
I0705 11:39:12.237614 14303 net.cpp:148] Top shape: 16 256 12 16 (786432)
I0705 11:39:12.237617 14303 net.cpp:148] Top shape: 16 256 12 16 (786432)
I0705 11:39:12.237619 14303 net.cpp:156] Memory required for data: 2617249728
I0705 11:39:12.237622 14303 layer_factory.hpp:77] Creating layer conv5
I0705 11:39:12.237629 14303 net.cpp:91] Creating Layer conv5
I0705 11:39:12.237632 14303 net.cpp:425] conv5 <- pool4
I0705 11:39:12.237635 14303 net.cpp:425] conv5 <- pool4_n
I0705 11:39:12.237639 14303 net.cpp:399] conv5 -> z5_pre
I0705 11:39:12.237645 14303 net.cpp:399] conv5 -> z5_n
I0705 11:39:12.243247 14303 net.cpp:141] Setting up conv5
I0705 11:39:12.243262 14303 net.cpp:148] Top shape: 16 256 12 16 (786432)
I0705 11:39:12.243264 14303 net.cpp:148] Top shape: 16 256 12 16 (786432)
I0705 11:39:12.243266 14303 net.cpp:156] Memory required for data: 2623541184
I0705 11:39:12.243271 14303 layer_factory.hpp:77] Creating layer bn5
I0705 11:39:12.243278 14303 net.cpp:91] Creating Layer bn5
I0705 11:39:12.243281 14303 net.cpp:425] bn5 <- z5_pre
I0705 11:39:12.243288 14303 net.cpp:399] bn5 -> z5
I0705 11:39:12.243300 14303 net.cpp:399] bn5 -> bn5_param
I0705 11:39:12.243481 14303 net.cpp:141] Setting up bn5
I0705 11:39:12.243489 14303 net.cpp:148] Top shape: 16 256 12 16 (786432)
I0705 11:39:12.243494 14303 net.cpp:148] Top shape: 2 256 (512)
I0705 11:39:12.243494 14303 net.cpp:156] Memory required for data: 2626688960
I0705 11:39:12.243500 14303 layer_factory.hpp:77] Creating layer z5_bn5_0_split
I0705 11:39:12.243505 14303 net.cpp:91] Creating Layer z5_bn5_0_split
I0705 11:39:12.243508 14303 net.cpp:425] z5_bn5_0_split <- z5
I0705 11:39:12.243513 14303 net.cpp:399] z5_bn5_0_split -> z5_bn5_0_split_0
I0705 11:39:12.243518 14303 net.cpp:399] z5_bn5_0_split -> z5_bn5_0_split_1
I0705 11:39:12.243548 14303 net.cpp:141] Setting up z5_bn5_0_split
I0705 11:39:12.243552 14303 net.cpp:148] Top shape: 16 256 12 16 (786432)
I0705 11:39:12.243556 14303 net.cpp:148] Top shape: 16 256 12 16 (786432)
I0705 11:39:12.243557 14303 net.cpp:156] Memory required for data: 2632980416
I0705 11:39:12.243561 14303 layer_factory.hpp:77] Creating layer scale5
I0705 11:39:12.243566 14303 net.cpp:91] Creating Layer scale5
I0705 11:39:12.243569 14303 net.cpp:425] scale5 <- z5_bn5_0_split_0
I0705 11:39:12.243574 14303 net.cpp:399] scale5 -> h5
I0705 11:39:12.243609 14303 layer_factory.hpp:77] Creating layer scale5
I0705 11:39:12.243696 14303 net.cpp:141] Setting up scale5
I0705 11:39:12.243703 14303 net.cpp:148] Top shape: 16 256 12 16 (786432)
I0705 11:39:12.243705 14303 net.cpp:156] Memory required for data: 2636126144
I0705 11:39:12.243710 14303 layer_factory.hpp:77] Creating layer relu5
I0705 11:39:12.243715 14303 net.cpp:91] Creating Layer relu5
I0705 11:39:12.243717 14303 net.cpp:425] relu5 <- h5
I0705 11:39:12.243731 14303 net.cpp:386] relu5 -> h5 (in-place)
I0705 11:39:12.243883 14303 net.cpp:141] Setting up relu5
I0705 11:39:12.243893 14303 net.cpp:148] Top shape: 16 256 12 16 (786432)
I0705 11:39:12.243896 14303 net.cpp:156] Memory required for data: 2639271872
I0705 11:39:12.243898 14303 layer_factory.hpp:77] Creating layer bn5_n
I0705 11:39:12.243904 14303 net.cpp:91] Creating Layer bn5_n
I0705 11:39:12.243907 14303 net.cpp:425] bn5_n <- z5_n
I0705 11:39:12.243913 14303 net.cpp:386] bn5_n -> z5_n (in-place)
I0705 11:39:12.244066 14303 net.cpp:141] Setting up bn5_n
I0705 11:39:12.244073 14303 net.cpp:148] Top shape: 16 256 12 16 (786432)
I0705 11:39:12.244076 14303 net.cpp:156] Memory required for data: 2642417600
I0705 11:39:12.244081 14303 layer_factory.hpp:77] Creating layer noisy_z5_n
I0705 11:39:12.244086 14303 net.cpp:91] Creating Layer noisy_z5_n
I0705 11:39:12.244089 14303 net.cpp:425] noisy_z5_n <- z5_n
I0705 11:39:12.244092 14303 net.cpp:386] noisy_z5_n -> z5_n (in-place)
I0705 11:39:12.244113 14303 net.cpp:141] Setting up noisy_z5_n
I0705 11:39:12.244117 14303 net.cpp:148] Top shape: 16 256 12 16 (786432)
I0705 11:39:12.244119 14303 net.cpp:156] Memory required for data: 2645563328
I0705 11:39:12.244122 14303 layer_factory.hpp:77] Creating layer z5_n_noisy_z5_n_0_split
I0705 11:39:12.244127 14303 net.cpp:91] Creating Layer z5_n_noisy_z5_n_0_split
I0705 11:39:12.244128 14303 net.cpp:425] z5_n_noisy_z5_n_0_split <- z5_n
I0705 11:39:12.244132 14303 net.cpp:399] z5_n_noisy_z5_n_0_split -> z5_n_noisy_z5_n_0_split_0
I0705 11:39:12.244138 14303 net.cpp:399] z5_n_noisy_z5_n_0_split -> z5_n_noisy_z5_n_0_split_1
I0705 11:39:12.244166 14303 net.cpp:141] Setting up z5_n_noisy_z5_n_0_split
I0705 11:39:12.244170 14303 net.cpp:148] Top shape: 16 256 12 16 (786432)
I0705 11:39:12.244173 14303 net.cpp:148] Top shape: 16 256 12 16 (786432)
I0705 11:39:12.244174 14303 net.cpp:156] Memory required for data: 2651854784
I0705 11:39:12.244177 14303 layer_factory.hpp:77] Creating layer scale5_n
I0705 11:39:12.244184 14303 net.cpp:91] Creating Layer scale5_n
I0705 11:39:12.244186 14303 net.cpp:425] scale5_n <- z5_n_noisy_z5_n_0_split_0
I0705 11:39:12.244189 14303 net.cpp:399] scale5_n -> h5_n
I0705 11:39:12.244225 14303 layer_factory.hpp:77] Creating layer scale5_n
I0705 11:39:12.244307 14303 net.cpp:141] Setting up scale5_n
I0705 11:39:12.244314 14303 net.cpp:148] Top shape: 16 256 12 16 (786432)
I0705 11:39:12.244316 14303 net.cpp:156] Memory required for data: 2655000512
I0705 11:39:12.244319 14303 net.cpp:484] Sharing parameters 'scale5_w' owned by layer 'scale5', param index 0
I0705 11:39:12.244323 14303 net.cpp:484] Sharing parameters 'scale5_b' owned by layer 'scale5', param index 1
I0705 11:39:12.244324 14303 layer_factory.hpp:77] Creating layer relu5_n
I0705 11:39:12.244329 14303 net.cpp:91] Creating Layer relu5_n
I0705 11:39:12.244331 14303 net.cpp:425] relu5_n <- h5_n
I0705 11:39:12.244336 14303 net.cpp:386] relu5_n -> h5_n (in-place)
I0705 11:39:12.244616 14303 net.cpp:141] Setting up relu5_n
I0705 11:39:12.244627 14303 net.cpp:148] Top shape: 16 256 12 16 (786432)
I0705 11:39:12.244631 14303 net.cpp:156] Memory required for data: 2658146240
I0705 11:39:12.244633 14303 layer_factory.hpp:77] Creating layer pool5
I0705 11:39:12.244638 14303 net.cpp:91] Creating Layer pool5
I0705 11:39:12.244642 14303 net.cpp:425] pool5 <- h5
I0705 11:39:12.244647 14303 net.cpp:399] pool5 -> pool5
I0705 11:39:12.244688 14303 net.cpp:141] Setting up pool5
I0705 11:39:12.244693 14303 net.cpp:148] Top shape: 16 256 6 8 (196608)
I0705 11:39:12.244694 14303 net.cpp:156] Memory required for data: 2658932672
I0705 11:39:12.244696 14303 layer_factory.hpp:77] Creating layer pool5_n
I0705 11:39:12.244699 14303 layer_factory.cpp:90] cuDNN does not support multiple tops. Using Caffe's own pooling layer.
I0705 11:39:12.244711 14303 net.cpp:91] Creating Layer pool5_n
I0705 11:39:12.244714 14303 net.cpp:425] pool5_n <- h5_n
I0705 11:39:12.244719 14303 net.cpp:399] pool5_n -> pool5_n
I0705 11:39:12.244722 14303 net.cpp:399] pool5_n -> pool5_n_mask
I0705 11:39:12.244771 14303 net.cpp:141] Setting up pool5_n
I0705 11:39:12.244776 14303 net.cpp:148] Top shape: 16 256 6 8 (196608)
I0705 11:39:12.244779 14303 net.cpp:148] Top shape: 16 256 6 8 (196608)
I0705 11:39:12.244781 14303 net.cpp:156] Memory required for data: 2660505536
I0705 11:39:12.244784 14303 layer_factory.hpp:77] Creating layer conv6
I0705 11:39:12.244792 14303 net.cpp:91] Creating Layer conv6
I0705 11:39:12.244796 14303 net.cpp:425] conv6 <- pool5
I0705 11:39:12.244798 14303 net.cpp:425] conv6 <- pool5_n
I0705 11:39:12.244803 14303 net.cpp:399] conv6 -> z6_pre
I0705 11:39:12.244809 14303 net.cpp:399] conv6 -> z6_n
I0705 11:39:12.250888 14303 net.cpp:141] Setting up conv6
I0705 11:39:12.250902 14303 net.cpp:148] Top shape: 16 256 6 8 (196608)
I0705 11:39:12.250906 14303 net.cpp:148] Top shape: 16 256 6 8 (196608)
I0705 11:39:12.250908 14303 net.cpp:156] Memory required for data: 2662078400
I0705 11:39:12.250913 14303 layer_factory.hpp:77] Creating layer bn6
I0705 11:39:12.250921 14303 net.cpp:91] Creating Layer bn6
I0705 11:39:12.250923 14303 net.cpp:425] bn6 <- z6_pre
I0705 11:39:12.250928 14303 net.cpp:399] bn6 -> z6
I0705 11:39:12.250936 14303 net.cpp:399] bn6 -> bn6_param
I0705 11:39:12.251119 14303 net.cpp:141] Setting up bn6
I0705 11:39:12.251127 14303 net.cpp:148] Top shape: 16 256 6 8 (196608)
I0705 11:39:12.251130 14303 net.cpp:148] Top shape: 2 256 (512)
I0705 11:39:12.251132 14303 net.cpp:156] Memory required for data: 2662866880
I0705 11:39:12.251137 14303 layer_factory.hpp:77] Creating layer z6_bn6_0_split
I0705 11:39:12.251142 14303 net.cpp:91] Creating Layer z6_bn6_0_split
I0705 11:39:12.251145 14303 net.cpp:425] z6_bn6_0_split <- z6
I0705 11:39:12.251149 14303 net.cpp:399] z6_bn6_0_split -> z6_bn6_0_split_0
I0705 11:39:12.251153 14303 net.cpp:399] z6_bn6_0_split -> z6_bn6_0_split_1
I0705 11:39:12.251185 14303 net.cpp:141] Setting up z6_bn6_0_split
I0705 11:39:12.251189 14303 net.cpp:148] Top shape: 16 256 6 8 (196608)
I0705 11:39:12.251193 14303 net.cpp:148] Top shape: 16 256 6 8 (196608)
I0705 11:39:12.251194 14303 net.cpp:156] Memory required for data: 2664439744
I0705 11:39:12.251196 14303 layer_factory.hpp:77] Creating layer scale6
I0705 11:39:12.251202 14303 net.cpp:91] Creating Layer scale6
I0705 11:39:12.251204 14303 net.cpp:425] scale6 <- z6_bn6_0_split_0
I0705 11:39:12.251210 14303 net.cpp:399] scale6 -> h6
I0705 11:39:12.251252 14303 layer_factory.hpp:77] Creating layer scale6
I0705 11:39:12.251340 14303 net.cpp:141] Setting up scale6
I0705 11:39:12.251348 14303 net.cpp:148] Top shape: 16 256 6 8 (196608)
I0705 11:39:12.251349 14303 net.cpp:156] Memory required for data: 2665226176
I0705 11:39:12.251354 14303 layer_factory.hpp:77] Creating layer relu6
I0705 11:39:12.251358 14303 net.cpp:91] Creating Layer relu6
I0705 11:39:12.251361 14303 net.cpp:425] relu6 <- h6
I0705 11:39:12.251366 14303 net.cpp:386] relu6 -> h6 (in-place)
I0705 11:39:12.251533 14303 net.cpp:141] Setting up relu6
I0705 11:39:12.251543 14303 net.cpp:148] Top shape: 16 256 6 8 (196608)
I0705 11:39:12.251545 14303 net.cpp:156] Memory required for data: 2666012608
I0705 11:39:12.251549 14303 layer_factory.hpp:77] Creating layer bn6_n
I0705 11:39:12.251556 14303 net.cpp:91] Creating Layer bn6_n
I0705 11:39:12.251559 14303 net.cpp:425] bn6_n <- z6_n
I0705 11:39:12.251564 14303 net.cpp:386] bn6_n -> z6_n (in-place)
I0705 11:39:12.251718 14303 net.cpp:141] Setting up bn6_n
I0705 11:39:12.251725 14303 net.cpp:148] Top shape: 16 256 6 8 (196608)
I0705 11:39:12.251729 14303 net.cpp:156] Memory required for data: 2666799040
I0705 11:39:12.251734 14303 layer_factory.hpp:77] Creating layer noisy_z6_n
I0705 11:39:12.251739 14303 net.cpp:91] Creating Layer noisy_z6_n
I0705 11:39:12.251740 14303 net.cpp:425] noisy_z6_n <- z6_n
I0705 11:39:12.251744 14303 net.cpp:386] noisy_z6_n -> z6_n (in-place)
I0705 11:39:12.251763 14303 net.cpp:141] Setting up noisy_z6_n
I0705 11:39:12.251767 14303 net.cpp:148] Top shape: 16 256 6 8 (196608)
I0705 11:39:12.251770 14303 net.cpp:156] Memory required for data: 2667585472
I0705 11:39:12.251772 14303 layer_factory.hpp:77] Creating layer z6_n_noisy_z6_n_0_split
I0705 11:39:12.251793 14303 net.cpp:91] Creating Layer z6_n_noisy_z6_n_0_split
I0705 11:39:12.251796 14303 net.cpp:425] z6_n_noisy_z6_n_0_split <- z6_n
I0705 11:39:12.251801 14303 net.cpp:399] z6_n_noisy_z6_n_0_split -> z6_n_noisy_z6_n_0_split_0
I0705 11:39:12.251806 14303 net.cpp:399] z6_n_noisy_z6_n_0_split -> z6_n_noisy_z6_n_0_split_1
I0705 11:39:12.251840 14303 net.cpp:141] Setting up z6_n_noisy_z6_n_0_split
I0705 11:39:12.251844 14303 net.cpp:148] Top shape: 16 256 6 8 (196608)
I0705 11:39:12.251847 14303 net.cpp:148] Top shape: 16 256 6 8 (196608)
I0705 11:39:12.251849 14303 net.cpp:156] Memory required for data: 2669158336
I0705 11:39:12.251852 14303 layer_factory.hpp:77] Creating layer scale6_n
I0705 11:39:12.251858 14303 net.cpp:91] Creating Layer scale6_n
I0705 11:39:12.251860 14303 net.cpp:425] scale6_n <- z6_n_noisy_z6_n_0_split_0
I0705 11:39:12.251864 14303 net.cpp:399] scale6_n -> h6_n
I0705 11:39:12.251899 14303 layer_factory.hpp:77] Creating layer scale6_n
I0705 11:39:12.251984 14303 net.cpp:141] Setting up scale6_n
I0705 11:39:12.251991 14303 net.cpp:148] Top shape: 16 256 6 8 (196608)
I0705 11:39:12.251993 14303 net.cpp:156] Memory required for data: 2669944768
I0705 11:39:12.252002 14303 net.cpp:484] Sharing parameters 'scale6_w' owned by layer 'scale6', param index 0
I0705 11:39:12.252007 14303 net.cpp:484] Sharing parameters 'scale6_b' owned by layer 'scale6', param index 1
I0705 11:39:12.252009 14303 layer_factory.hpp:77] Creating layer relu6_n
I0705 11:39:12.252013 14303 net.cpp:91] Creating Layer relu6_n
I0705 11:39:12.252017 14303 net.cpp:425] relu6_n <- h6_n
I0705 11:39:12.252019 14303 net.cpp:386] relu6_n -> h6_n (in-place)
I0705 11:39:12.252419 14303 net.cpp:141] Setting up relu6_n
I0705 11:39:12.252430 14303 net.cpp:148] Top shape: 16 256 6 8 (196608)
I0705 11:39:12.252432 14303 net.cpp:156] Memory required for data: 2670731200
I0705 11:39:12.252435 14303 layer_factory.hpp:77] Creating layer u6
I0705 11:39:12.252442 14303 net.cpp:91] Creating Layer u6
I0705 11:39:12.252445 14303 net.cpp:425] u6 <- h6_n
I0705 11:39:12.252454 14303 net.cpp:399] u6 -> u6
I0705 11:39:12.252624 14303 net.cpp:141] Setting up u6
I0705 11:39:12.252631 14303 net.cpp:148] Top shape: 16 256 6 8 (196608)
I0705 11:39:12.252634 14303 net.cpp:156] Memory required for data: 2671517632
I0705 11:39:12.252640 14303 layer_factory.hpp:77] Creating layer comb6
I0705 11:39:12.252645 14303 net.cpp:91] Creating Layer comb6
I0705 11:39:12.252648 14303 net.cpp:425] comb6 <- z6_n_noisy_z6_n_0_split_1
I0705 11:39:12.252651 14303 net.cpp:425] comb6 <- u6
I0705 11:39:12.252656 14303 net.cpp:399] comb6 -> z6_r
I0705 11:39:12.252954 14303 net.cpp:141] Setting up comb6
I0705 11:39:12.252961 14303 net.cpp:148] Top shape: 16 256 6 8 (196608)
I0705 11:39:12.252964 14303 net.cpp:156] Memory required for data: 2672304064
I0705 11:39:12.252979 14303 layer_factory.hpp:77] Creating layer z6_r_comb6_0_split
I0705 11:39:12.252985 14303 net.cpp:91] Creating Layer z6_r_comb6_0_split
I0705 11:39:12.252986 14303 net.cpp:425] z6_r_comb6_0_split <- z6_r
I0705 11:39:12.252990 14303 net.cpp:399] z6_r_comb6_0_split -> z6_r_comb6_0_split_0
I0705 11:39:12.252995 14303 net.cpp:399] z6_r_comb6_0_split -> z6_r_comb6_0_split_1
I0705 11:39:12.253029 14303 net.cpp:141] Setting up z6_r_comb6_0_split
I0705 11:39:12.253033 14303 net.cpp:148] Top shape: 16 256 6 8 (196608)
I0705 11:39:12.253036 14303 net.cpp:148] Top shape: 16 256 6 8 (196608)
I0705 11:39:12.253038 14303 net.cpp:156] Memory required for data: 2673876928
I0705 11:39:12.253041 14303 layer_factory.hpp:77] Creating layer recon6
I0705 11:39:12.253052 14303 net.cpp:91] Creating Layer recon6
I0705 11:39:12.253056 14303 net.cpp:425] recon6 <- z6_r_comb6_0_split_0
I0705 11:39:12.253060 14303 net.cpp:399] recon6 -> h6_r
I0705 11:39:12.257720 14303 net.cpp:141] Setting up recon6
I0705 11:39:12.257732 14303 net.cpp:148] Top shape: 16 256 6 8 (196608)
I0705 11:39:12.257735 14303 net.cpp:156] Memory required for data: 2674663360
I0705 11:39:12.257738 14303 net.cpp:484] Sharing parameters 'conv6_w' owned by layer 'conv6', param index 0
I0705 11:39:12.257750 14303 layer_factory.hpp:77] Creating layer bn6_r
I0705 11:39:12.257756 14303 net.cpp:91] Creating Layer bn6_r
I0705 11:39:12.257760 14303 net.cpp:425] bn6_r <- h6_r
I0705 11:39:12.257764 14303 net.cpp:386] bn6_r -> h6_r (in-place)
I0705 11:39:12.257925 14303 net.cpp:141] Setting up bn6_r
I0705 11:39:12.257931 14303 net.cpp:148] Top shape: 16 256 6 8 (196608)
I0705 11:39:12.257933 14303 net.cpp:156] Memory required for data: 2675449792
I0705 11:39:12.257939 14303 layer_factory.hpp:77] Creating layer upsample5
I0705 11:39:12.257946 14303 net.cpp:91] Creating Layer upsample5
I0705 11:39:12.257947 14303 net.cpp:425] upsample5 <- h6_r
I0705 11:39:12.257951 14303 net.cpp:425] upsample5 <- pool5_n_mask
I0705 11:39:12.257956 14303 net.cpp:399] upsample5 -> upsample5
I0705 11:39:12.257962 14303 upsample_layer.cpp:31] Params 'pad_out_{}_' are deprecated. Please declare upsample height and width useing the upsample_h, upsample_w parameters.
I0705 11:39:12.257984 14303 net.cpp:141] Setting up upsample5
I0705 11:39:12.257988 14303 net.cpp:148] Top shape: 16 256 12 16 (786432)
I0705 11:39:12.257990 14303 net.cpp:156] Memory required for data: 2678595520
I0705 11:39:12.257993 14303 layer_factory.hpp:77] Creating layer comb5
I0705 11:39:12.257997 14303 net.cpp:91] Creating Layer comb5
I0705 11:39:12.258000 14303 net.cpp:425] comb5 <- z5_n_noisy_z5_n_0_split_1
I0705 11:39:12.258004 14303 net.cpp:425] comb5 <- upsample5
I0705 11:39:12.258008 14303 net.cpp:399] comb5 -> z5_r
I0705 11:39:12.259752 14303 net.cpp:141] Setting up comb5
I0705 11:39:12.259764 14303 net.cpp:148] Top shape: 16 256 12 16 (786432)
I0705 11:39:12.259766 14303 net.cpp:156] Memory required for data: 2681741248
I0705 11:39:12.259776 14303 layer_factory.hpp:77] Creating layer z5_r_comb5_0_split
I0705 11:39:12.259781 14303 net.cpp:91] Creating Layer z5_r_comb5_0_split
I0705 11:39:12.259784 14303 net.cpp:425] z5_r_comb5_0_split <- z5_r
I0705 11:39:12.259788 14303 net.cpp:399] z5_r_comb5_0_split -> z5_r_comb5_0_split_0
I0705 11:39:12.259794 14303 net.cpp:399] z5_r_comb5_0_split -> z5_r_comb5_0_split_1
I0705 11:39:12.259829 14303 net.cpp:141] Setting up z5_r_comb5_0_split
I0705 11:39:12.259832 14303 net.cpp:148] Top shape: 16 256 12 16 (786432)
I0705 11:39:12.259835 14303 net.cpp:148] Top shape: 16 256 12 16 (786432)
I0705 11:39:12.259837 14303 net.cpp:156] Memory required for data: 2688032704
I0705 11:39:12.259840 14303 layer_factory.hpp:77] Creating layer recon5
I0705 11:39:12.259846 14303 net.cpp:91] Creating Layer recon5
I0705 11:39:12.259850 14303 net.cpp:425] recon5 <- z5_r_comb5_0_split_0
I0705 11:39:12.259855 14303 net.cpp:399] recon5 -> h5_r
I0705 11:39:12.264417 14303 net.cpp:141] Setting up recon5
I0705 11:39:12.264430 14303 net.cpp:148] Top shape: 16 256 12 16 (786432)
I0705 11:39:12.264431 14303 net.cpp:156] Memory required for data: 2691178432
I0705 11:39:12.264436 14303 net.cpp:484] Sharing parameters 'conv5_w' owned by layer 'conv5', param index 0
I0705 11:39:12.264438 14303 layer_factory.hpp:77] Creating layer bn5_r
I0705 11:39:12.264446 14303 net.cpp:91] Creating Layer bn5_r
I0705 11:39:12.264448 14303 net.cpp:425] bn5_r <- h5_r
I0705 11:39:12.264452 14303 net.cpp:386] bn5_r -> h5_r (in-place)
I0705 11:39:12.264607 14303 net.cpp:141] Setting up bn5_r
I0705 11:39:12.264614 14303 net.cpp:148] Top shape: 16 256 12 16 (786432)
I0705 11:39:12.264617 14303 net.cpp:156] Memory required for data: 2694324160
I0705 11:39:12.264622 14303 layer_factory.hpp:77] Creating layer upsample4
I0705 11:39:12.264627 14303 net.cpp:91] Creating Layer upsample4
I0705 11:39:12.264631 14303 net.cpp:425] upsample4 <- h5_r
I0705 11:39:12.264634 14303 net.cpp:425] upsample4 <- pool4_n_mask
I0705 11:39:12.264638 14303 net.cpp:399] upsample4 -> upsample4
I0705 11:39:12.264643 14303 upsample_layer.cpp:31] Params 'pad_out_{}_' are deprecated. Please declare upsample height and width useing the upsample_h, upsample_w parameters.
I0705 11:39:12.264663 14303 net.cpp:141] Setting up upsample4
I0705 11:39:12.264678 14303 net.cpp:148] Top shape: 16 256 24 32 (3145728)
I0705 11:39:12.264680 14303 net.cpp:156] Memory required for data: 2706907072
I0705 11:39:12.264683 14303 layer_factory.hpp:77] Creating layer comb4
I0705 11:39:12.264686 14303 net.cpp:91] Creating Layer comb4
I0705 11:39:12.264690 14303 net.cpp:425] comb4 <- z4_n_noisy_z4_n_0_split_1
I0705 11:39:12.264693 14303 net.cpp:425] comb4 <- upsample4
I0705 11:39:12.264698 14303 net.cpp:399] comb4 -> z4_r
I0705 11:39:12.271090 14303 net.cpp:141] Setting up comb4
I0705 11:39:12.271105 14303 net.cpp:148] Top shape: 16 256 24 32 (3145728)
I0705 11:39:12.271107 14303 net.cpp:156] Memory required for data: 2719489984
I0705 11:39:12.271118 14303 layer_factory.hpp:77] Creating layer z4_r_comb4_0_split
I0705 11:39:12.271123 14303 net.cpp:91] Creating Layer z4_r_comb4_0_split
I0705 11:39:12.271127 14303 net.cpp:425] z4_r_comb4_0_split <- z4_r
I0705 11:39:12.271133 14303 net.cpp:399] z4_r_comb4_0_split -> z4_r_comb4_0_split_0
I0705 11:39:12.271138 14303 net.cpp:399] z4_r_comb4_0_split -> z4_r_comb4_0_split_1
I0705 11:39:12.271174 14303 net.cpp:141] Setting up z4_r_comb4_0_split
I0705 11:39:12.271178 14303 net.cpp:148] Top shape: 16 256 24 32 (3145728)
I0705 11:39:12.271181 14303 net.cpp:148] Top shape: 16 256 24 32 (3145728)
I0705 11:39:12.271183 14303 net.cpp:156] Memory required for data: 2744655808
I0705 11:39:12.271185 14303 layer_factory.hpp:77] Creating layer recon4
I0705 11:39:12.271193 14303 net.cpp:91] Creating Layer recon4
I0705 11:39:12.271196 14303 net.cpp:425] recon4 <- z4_r_comb4_0_split_0
I0705 11:39:12.271201 14303 net.cpp:399] recon4 -> h4_r
I0705 11:39:12.273608 14303 net.cpp:141] Setting up recon4
I0705 11:39:12.273619 14303 net.cpp:148] Top shape: 16 128 24 32 (1572864)
I0705 11:39:12.273622 14303 net.cpp:156] Memory required for data: 2750947264
I0705 11:39:12.273627 14303 net.cpp:484] Sharing parameters 'conv4_w' owned by layer 'conv4', param index 0
I0705 11:39:12.273629 14303 layer_factory.hpp:77] Creating layer bn4_r
I0705 11:39:12.273635 14303 net.cpp:91] Creating Layer bn4_r
I0705 11:39:12.273638 14303 net.cpp:425] bn4_r <- h4_r
I0705 11:39:12.273641 14303 net.cpp:386] bn4_r -> h4_r (in-place)
I0705 11:39:12.273807 14303 net.cpp:141] Setting up bn4_r
I0705 11:39:12.273814 14303 net.cpp:148] Top shape: 16 128 24 32 (1572864)
I0705 11:39:12.273818 14303 net.cpp:156] Memory required for data: 2757238720
I0705 11:39:12.273823 14303 layer_factory.hpp:77] Creating layer upsample3
I0705 11:39:12.273829 14303 net.cpp:91] Creating Layer upsample3
I0705 11:39:12.273831 14303 net.cpp:425] upsample3 <- h4_r
I0705 11:39:12.273835 14303 net.cpp:425] upsample3 <- pool3_n_mask
I0705 11:39:12.273839 14303 net.cpp:399] upsample3 -> upsample3
I0705 11:39:12.273844 14303 upsample_layer.cpp:31] Params 'pad_out_{}_' are deprecated. Please declare upsample height and width useing the upsample_h, upsample_w parameters.
I0705 11:39:12.273866 14303 net.cpp:141] Setting up upsample3
I0705 11:39:12.273870 14303 net.cpp:148] Top shape: 16 128 48 64 (6291456)
I0705 11:39:12.273874 14303 net.cpp:156] Memory required for data: 2782404544
I0705 11:39:12.273875 14303 layer_factory.hpp:77] Creating layer comb3
I0705 11:39:12.273880 14303 net.cpp:91] Creating Layer comb3
I0705 11:39:12.273885 14303 net.cpp:425] comb3 <- z3_n_noisy_z3_n_0_split_1
I0705 11:39:12.273887 14303 net.cpp:425] comb3 <- upsample3
I0705 11:39:12.273890 14303 net.cpp:399] comb3 -> z3_r
I0705 11:39:12.283831 14303 net.cpp:141] Setting up comb3
I0705 11:39:12.283851 14303 net.cpp:148] Top shape: 16 128 48 64 (6291456)
I0705 11:39:12.283854 14303 net.cpp:156] Memory required for data: 2807570368
I0705 11:39:12.283867 14303 layer_factory.hpp:77] Creating layer z3_r_comb3_0_split
I0705 11:39:12.283876 14303 net.cpp:91] Creating Layer z3_r_comb3_0_split
I0705 11:39:12.283880 14303 net.cpp:425] z3_r_comb3_0_split <- z3_r
I0705 11:39:12.283885 14303 net.cpp:399] z3_r_comb3_0_split -> z3_r_comb3_0_split_0
I0705 11:39:12.283892 14303 net.cpp:399] z3_r_comb3_0_split -> z3_r_comb3_0_split_1
I0705 11:39:12.283934 14303 net.cpp:141] Setting up z3_r_comb3_0_split
I0705 11:39:12.283951 14303 net.cpp:148] Top shape: 16 128 48 64 (6291456)
I0705 11:39:12.283953 14303 net.cpp:148] Top shape: 16 128 48 64 (6291456)
I0705 11:39:12.283956 14303 net.cpp:156] Memory required for data: 2857902016
I0705 11:39:12.283958 14303 layer_factory.hpp:77] Creating layer recon3
I0705 11:39:12.283965 14303 net.cpp:91] Creating Layer recon3
I0705 11:39:12.283968 14303 net.cpp:425] recon3 <- z3_r_comb3_0_split_0
I0705 11:39:12.283974 14303 net.cpp:399] recon3 -> h3_r
I0705 11:39:12.284579 14303 net.cpp:141] Setting up recon3
I0705 11:39:12.284586 14303 net.cpp:148] Top shape: 16 64 48 64 (3145728)
I0705 11:39:12.284589 14303 net.cpp:156] Memory required for data: 2870484928
I0705 11:39:12.284592 14303 net.cpp:484] Sharing parameters 'conv3_w' owned by layer 'conv3', param index 0
I0705 11:39:12.284595 14303 layer_factory.hpp:77] Creating layer bn3_r
I0705 11:39:12.284602 14303 net.cpp:91] Creating Layer bn3_r
I0705 11:39:12.284605 14303 net.cpp:425] bn3_r <- h3_r
I0705 11:39:12.284608 14303 net.cpp:386] bn3_r -> h3_r (in-place)
I0705 11:39:12.284790 14303 net.cpp:141] Setting up bn3_r
I0705 11:39:12.284797 14303 net.cpp:148] Top shape: 16 64 48 64 (3145728)
I0705 11:39:12.284800 14303 net.cpp:156] Memory required for data: 2883067840
I0705 11:39:12.284804 14303 layer_factory.hpp:77] Creating layer upsample2
I0705 11:39:12.284811 14303 net.cpp:91] Creating Layer upsample2
I0705 11:39:12.284814 14303 net.cpp:425] upsample2 <- h3_r
I0705 11:39:12.284818 14303 net.cpp:425] upsample2 <- pool2_n_mask
I0705 11:39:12.284822 14303 net.cpp:399] upsample2 -> upsample2
I0705 11:39:12.284827 14303 upsample_layer.cpp:31] Params 'pad_out_{}_' are deprecated. Please declare upsample height and width useing the upsample_h, upsample_w parameters.
I0705 11:39:12.284848 14303 net.cpp:141] Setting up upsample2
I0705 11:39:12.284853 14303 net.cpp:148] Top shape: 16 64 96 128 (12582912)
I0705 11:39:12.284855 14303 net.cpp:156] Memory required for data: 2933399488
I0705 11:39:12.284857 14303 layer_factory.hpp:77] Creating layer comb2
I0705 11:39:12.284862 14303 net.cpp:91] Creating Layer comb2
I0705 11:39:12.284867 14303 net.cpp:425] comb2 <- z2_n_noisy_z2_n_0_split_1
I0705 11:39:12.284869 14303 net.cpp:425] comb2 <- upsample2
I0705 11:39:12.284873 14303 net.cpp:399] comb2 -> z2_r
I0705 11:39:12.302453 14303 net.cpp:141] Setting up comb2
I0705 11:39:12.302480 14303 net.cpp:148] Top shape: 16 64 96 128 (12582912)
I0705 11:39:12.302484 14303 net.cpp:156] Memory required for data: 2983731136
I0705 11:39:12.302511 14303 layer_factory.hpp:77] Creating layer z2_r_comb2_0_split
I0705 11:39:12.302521 14303 net.cpp:91] Creating Layer z2_r_comb2_0_split
I0705 11:39:12.302525 14303 net.cpp:425] z2_r_comb2_0_split <- z2_r
I0705 11:39:12.302531 14303 net.cpp:399] z2_r_comb2_0_split -> z2_r_comb2_0_split_0
I0705 11:39:12.302539 14303 net.cpp:399] z2_r_comb2_0_split -> z2_r_comb2_0_split_1
I0705 11:39:12.302583 14303 net.cpp:141] Setting up z2_r_comb2_0_split
I0705 11:39:12.302587 14303 net.cpp:148] Top shape: 16 64 96 128 (12582912)
I0705 11:39:12.302590 14303 net.cpp:148] Top shape: 16 64 96 128 (12582912)
I0705 11:39:12.302592 14303 net.cpp:156] Memory required for data: 3084394432
I0705 11:39:12.302595 14303 layer_factory.hpp:77] Creating layer recon2
I0705 11:39:12.302603 14303 net.cpp:91] Creating Layer recon2
I0705 11:39:12.302606 14303 net.cpp:425] recon2 <- z2_r_comb2_0_split_0
I0705 11:39:12.302613 14303 net.cpp:399] recon2 -> h2_r
I0705 11:39:12.302904 14303 net.cpp:141] Setting up recon2
I0705 11:39:12.302911 14303 net.cpp:148] Top shape: 16 32 96 128 (6291456)
I0705 11:39:12.302913 14303 net.cpp:156] Memory required for data: 3109560256
I0705 11:39:12.302917 14303 net.cpp:484] Sharing parameters 'conv2_w' owned by layer 'conv2', param index 0
I0705 11:39:12.302920 14303 layer_factory.hpp:77] Creating layer bn2_r
I0705 11:39:12.302927 14303 net.cpp:91] Creating Layer bn2_r
I0705 11:39:12.302928 14303 net.cpp:425] bn2_r <- h2_r
I0705 11:39:12.302932 14303 net.cpp:386] bn2_r -> h2_r (in-place)
I0705 11:39:12.303144 14303 net.cpp:141] Setting up bn2_r
I0705 11:39:12.303153 14303 net.cpp:148] Top shape: 16 32 96 128 (6291456)
I0705 11:39:12.303154 14303 net.cpp:156] Memory required for data: 3134726080
I0705 11:39:12.303160 14303 layer_factory.hpp:77] Creating layer upsample1
I0705 11:39:12.303166 14303 net.cpp:91] Creating Layer upsample1
I0705 11:39:12.303169 14303 net.cpp:425] upsample1 <- h2_r
I0705 11:39:12.303174 14303 net.cpp:425] upsample1 <- pool1_n_mask
I0705 11:39:12.303179 14303 net.cpp:399] upsample1 -> upsample1
I0705 11:39:12.303184 14303 upsample_layer.cpp:31] Params 'pad_out_{}_' are deprecated. Please declare upsample height and width useing the upsample_h, upsample_w parameters.
I0705 11:39:12.303205 14303 net.cpp:141] Setting up upsample1
I0705 11:39:12.303210 14303 net.cpp:148] Top shape: 16 32 192 256 (25165824)
I0705 11:39:12.303212 14303 net.cpp:156] Memory required for data: 3235389376
I0705 11:39:12.303215 14303 layer_factory.hpp:77] Creating layer comb1
I0705 11:39:12.303220 14303 net.cpp:91] Creating Layer comb1
I0705 11:39:12.303222 14303 net.cpp:425] comb1 <- z1_n_noisy_z1_n_0_split_1
I0705 11:39:12.303225 14303 net.cpp:425] comb1 <- upsample1
I0705 11:39:12.303231 14303 net.cpp:399] comb1 -> z1_r
I0705 11:39:12.337678 14303 net.cpp:141] Setting up comb1
I0705 11:39:12.337703 14303 net.cpp:148] Top shape: 16 32 192 256 (25165824)
I0705 11:39:12.337707 14303 net.cpp:156] Memory required for data: 3336052672
I0705 11:39:12.337723 14303 layer_factory.hpp:77] Creating layer z1_r_comb1_0_split
I0705 11:39:12.337733 14303 net.cpp:91] Creating Layer z1_r_comb1_0_split
I0705 11:39:12.337736 14303 net.cpp:425] z1_r_comb1_0_split <- z1_r
I0705 11:39:12.337743 14303 net.cpp:399] z1_r_comb1_0_split -> z1_r_comb1_0_split_0
I0705 11:39:12.337749 14303 net.cpp:399] z1_r_comb1_0_split -> z1_r_comb1_0_split_1
I0705 11:39:12.337795 14303 net.cpp:141] Setting up z1_r_comb1_0_split
I0705 11:39:12.337800 14303 net.cpp:148] Top shape: 16 32 192 256 (25165824)
I0705 11:39:12.337802 14303 net.cpp:148] Top shape: 16 32 192 256 (25165824)
I0705 11:39:12.337805 14303 net.cpp:156] Memory required for data: 3537379264
I0705 11:39:12.337806 14303 layer_factory.hpp:77] Creating layer recon1
I0705 11:39:12.337815 14303 net.cpp:91] Creating Layer recon1
I0705 11:39:12.337817 14303 net.cpp:425] recon1 <- z1_r_comb1_0_split_0
I0705 11:39:12.337822 14303 net.cpp:399] recon1 -> h1_r
I0705 11:39:12.338017 14303 net.cpp:141] Setting up recon1
I0705 11:39:12.338024 14303 net.cpp:148] Top shape: 16 1 192 256 (786432)
I0705 11:39:12.338027 14303 net.cpp:156] Memory required for data: 3540524992
I0705 11:39:12.338032 14303 net.cpp:484] Sharing parameters 'conv1_w' owned by layer 'conv1', param index 0
I0705 11:39:12.338034 14303 layer_factory.hpp:77] Creating layer bn1_r
I0705 11:39:12.338040 14303 net.cpp:91] Creating Layer bn1_r
I0705 11:39:12.338043 14303 net.cpp:425] bn1_r <- h1_r
I0705 11:39:12.338047 14303 net.cpp:386] bn1_r -> h1_r (in-place)
I0705 11:39:12.338266 14303 net.cpp:141] Setting up bn1_r
I0705 11:39:12.338274 14303 net.cpp:148] Top shape: 16 1 192 256 (786432)
I0705 11:39:12.338275 14303 net.cpp:156] Memory required for data: 3543670720
I0705 11:39:12.338284 14303 layer_factory.hpp:77] Creating layer comb0
I0705 11:39:12.338290 14303 net.cpp:91] Creating Layer comb0
I0705 11:39:12.338294 14303 net.cpp:425] comb0 <- noisy_data_noisy_data_0_split_1
I0705 11:39:12.338299 14303 net.cpp:425] comb0 <- h1_r
I0705 11:39:12.338302 14303 net.cpp:399] comb0 -> z0_r
I0705 11:39:12.340016 14303 net.cpp:141] Setting up comb0
I0705 11:39:12.340029 14303 net.cpp:148] Top shape: 16 1 192 256 (786432)
I0705 11:39:12.340031 14303 net.cpp:156] Memory required for data: 3546816448
I0705 11:39:12.340040 14303 layer_factory.hpp:77] Creating layer loss_ladder_6
I0705 11:39:12.340049 14303 net.cpp:91] Creating Layer loss_ladder_6
I0705 11:39:12.340051 14303 net.cpp:425] loss_ladder_6 <- z6_bn6_0_split_1
I0705 11:39:12.340056 14303 net.cpp:425] loss_ladder_6 <- z6_r_comb6_0_split_1
…
I0705 11:39:12.343463 14303 net.cpp:274] Network initialization done.
I0705 11:39:12.344220 14303 solver.cpp:181] Creating test net (#0) specified by test_net file: models/laddernet/val.prototxt
I0705 11:39:12.344419 14303 net.cpp:49] Initializing net from parameters: 
name: "LadderNet"
state {
  phase: TEST
}
layer {
  name: "data"
  type: "Data"
  top: "data"
  top: "label"
  include {
    phase: TEST
  }
  transform_param {
    scale: 0.0039215
    mirror: false
    mean_value: 100
    crop_h: 192
    crop_w: 256
  }
  data_param {
    source: "data/val_lmdb"
    batch_size: 8
    backend: LMDB
  }
}
layer {
  name: "conv1"
  type: "Convolution"
  bottom: "data"
  top: "z1_pre"
  convolution_param {
    num_output: 32
    bias_term: false
    pad: 1
    kernel_size: 3
    stride: 1
    weight_filler {
      type: "xavier"
    }
  }
}
layer {
  name: "bn1"
  type: "BatchNorm"
  bottom: "z1_pre"
  top: "z1"
  param {
    lr_mult: 0
  }
  param {
    lr_mult: 0
  }
  param {
    lr_mult: 0
  }
  batch_norm_param {
    use_global_stats: true
    eps: 0.001
  }
}
layer {
  name: "scale1"
  type: "Scale"
  bottom: "z1"
  top: "z1"
  param {
    name: "scale1_w"
  }
  param {
    name: "scale1_b"
  }
  scale_param {
    filler {
      type: "xavier"
    }
    bias_term: true
    bias_filler {
      type: "constant"
      value: 0
    }
  }
}
layer {
  name: "relu1"
  type: "ReLU"
  bottom: "z1"
  top: "z1"
}
layer {
  name: "pool1"
  type: "Pooling"
  bottom: "z1"
  top: "pool1"
  pooling_param {
    pool: MAX
    kernel_size: 2
    stride: 2
  }
}
layer {
  name: "conv2"
  type: "Convolution"
  bottom: "pool1"
  top: "z2_pre"
  convolution_param {
    num_output: 64
    bias_term: false
    pad: 1
    kernel_size: 3
    stride: 1
    weight_filler {
      type: "xavier"
    }
  }
}
layer {
  name: "bn2"
  type: "BatchNorm"
  bottom: "z2_pre"
  top: "z2"
  param {
    lr_mult: 0
  }
  param {
    lr_mult: 0
  }
  param {
    lr_mult: 0
  }
  batch_norm_param {
    use_global_stats: true
    eps: 0.001
  }
}
layer {
  name: "scale2"
  type: "Scale"
  bottom: "z2"
  top: "z2"
  param {
    name: "scale2_w"
  }
  param {
    name: "scale2_b"
  }
  scale_param {
    filler {
      type: "xavier"
    }
    bias_term: true
    bias_filler {
      type: "constant"
      value: 0
    }
  }
}
layer {
  name: "relu2"
  type: "ReLU"
  bottom: "z2"
  top: "z2"
}
layer {
  name: "pool2"
  type: "Pooling"
  bottom: "z2"
  top: "pool2"
  pooling_param {
    pool: MAX
    kernel_size: 2
    stride: 2
  }
}
layer {
  name: "conv3"
  type: "Convolution"
  bottom: "pool2"
  top: "z3_pre"
  convolution_param {
    num_output: 128
    bias_term: false
    pad: 1
    kernel_size: 3
    stride: 1
    weight_filler {
      type: "xavier"
    }
  }
}
layer {
  name: "bn3"
  type: "BatchNorm"
  bottom: "z3_pre"
  top: "z3"
  param {
    lr_mult: 0
  }
  param {
    lr_mult: 0
  }
  param {
    lr_mult: 0
  }
  batch_norm_param {
    use_global_stats: true
    eps: 0.001
  }
}
layer {
  name: "scale3"
  type: "Scale"
  bottom: "z3"
  top: "z3"
  param {
    name: "scale3_w"
  }
  param {
    name: "scale3_b"
  }
  scale_param {
    filler {
      type: "xavier"
    }
    bias_term: true
    bias_filler {
      type: "constant"
      value: 0
    }
  }
}
layer {
  name: "relu3"
  type: "ReLU"
  bottom: "z3"
  top: "z3"
}
layer {
  name: "pool3"
  type: "Pooling"
  bottom: "z3"
  top: "pool3"
  pooling_param {
    pool: MAX
    kernel_size: 2
    stride: 2
  }
}
layer {
  name: "conv4"
  type: "Convolution"
  bottom: "pool3"
  top: "z4_pre"
  convolution_param {
    num_output: 256
    bias_term: false
    pad: 1
    kernel_size: 3
    stride: 1
    weight_filler {
      type: "xavier"
    }
  }
}
layer {
  name: "bn4"
  type: "BatchNorm"
  bottom: "z4_pre"
  top: "z4"
  param {
    lr_mult: 0
  }
  param {
    lr_mult: 0
  }
  param {
    lr_mult: 0
  }
  batch_norm_param {
    use_global_stats: true
    eps: 0.001
  }
}
layer {
  name: "scale4"
  type: "Scale"
  bottom: "z4"
  top: "z4"
  param {
    name: "scale4_w"
  }
  param {
    name: "scale4_b"
  }
  scale_param {
    filler {
      type: "xavier"
    }
    bias_term: true
    bias_filler {
      type: "constant"
      value: 0
    }
  }
}
layer {
  name: "relu4"
  type: "ReLU"
  bottom: "z4"
  top: "z4"
}
layer {
  name: "pool4"
  type: "Pooling"
  bottom: "z4"
  top: "pool4"
  pooling_param {
    pool: MAX
    kernel_size: 2
    stride: 2
  }
}
layer {
  name: "conv5"
  type: "Convolution"
  bottom: "pool4"
  top: "z5_pre"
  convolution_param {
    num_output: 256
    bias_term: false
    pad: 1
    kernel_size: 3
    stride: 1
    weight_filler {
      type: "xavier"
    }
  }
}
layer {
  name: "bn5"
  type: "BatchNorm"
  bottom: "z5_pre"
  top: "z5"
  param {
    lr_mult: 0
  }
  param {
    lr_mult: 0
  }
  param {
    lr_mult: 0
  }
  batch_norm_param {
    use_global_stats: true
    eps: 0.001
  }
}
layer {
  name: "scale5"
  type: "Scale"
  bottom: "z5"
  top: "z5"
  param {
    name: "scale5_w"
  }
  param {
    name: "scale5_b"
  }
  scale_param {
    filler {
      type: "xavier"
    }
    bias_term: true
    bias_filler {
      type: "constant"
      value: 0
    }
  }
}
layer {
  name: "relu5"
  type: "ReLU"
  bottom: "z5"
  top: "z5"
}
layer {
  name: "pool5"
  type: "Pooling"
  bottom: "z5"
  top: "pool5"
  pooling_param {
    pool: MAX
    kernel_size: 2
    stride: 2
  }
}
layer {
  name: "conv6"
  type: "Convolution"
  bottom: "pool5"
  top: "z6_pre"
  convolution_param {
    num_output: 256
    bias_term: false
    pad: 1
    kernel_size: 3
    stride: 1
    weight_filler {
      type: "xavier"
    }
  }
}
layer {
  name: "bn6"
  type: "BatchNorm"
  bottom: "z6_pre"
  top: "z6"
  param {
    lr_mult: 0
  }
  param {
    lr_mult: 0
  }
  param {
    lr_mult: 0
  }
  batch_norm_param {
    use_global_stats: true
    eps: 0.001
  }
}
layer {
  name: "scale6"
  type: "Scale"
  bottom: "z6"
  top: "z6"
  param {
    name: "scale6_w"
  }
  param {
    name: "scale6_b"
  }
  scale_param {
    filler {
      type: "xavier"
    }
    bias_term: true
    bias_filler {
      type: "constant"
      value: 0
    }
  }
}
layer {
  name: "relu6"
  type: "ReLU"
  bottom: "z6"
  top: "z6"
}
layer {
  name: "pool_final"
  type: "Pooling"
  bottom: "z6"
  top: "pool_final"
  pooling_param {
    pool: AVE
    stride: 1
    kernel_h: 6
    kernel_w: 8
  }
}
layer {
  name: "score"
  type: "InnerProduct"
  bottom: "pool_final"
  top: "score"
  inner_product_param {
    num_output: 2
    weight_filler {
      type: "xavier"
    }
  }
}
layer {
  name: "prob"
  type: "SoftmaxWithLoss"
  bottom: "score"
  bottom: "label"
  top: "prob"
}
layer {
  name: "accuracy"
  type: "Accuracy"
  bottom: "score"
  bottom: "label"
  top: "accuracy"
}
I0705 11:39:12.344537 14303 layer_factory.hpp:77] Creating layer data
I0705 11:39:12.344589 14303 net.cpp:91] Creating Layer data
I0705 11:39:12.344595 14303 net.cpp:399] data -> data
I0705 11:39:12.344602 14303 net.cpp:399] data -> label
I0705 11:39:12.345903 14317 db_lmdb.cpp:35] Opened lmdb data/val_lmdb
I0705 11:39:12.346173 14303 data_layer.cpp:42] output data size: 8,1,192,256
I0705 11:39:12.350070 14303 net.cpp:141] Setting up data
I0705 11:39:12.350085 14303 net.cpp:148] Top shape: 8 1 192 256 (393216)
I0705 11:39:12.350090 14303 net.cpp:148] Top shape: 8 (8)
I0705 11:39:12.350092 14303 net.cpp:156] Memory required for data: 1572896
I0705 11:39:12.350095 14303 layer_factory.hpp:77] Creating layer label_data_1_split
I0705 11:39:12.350103 14303 net.cpp:91] Creating Layer label_data_1_split
I0705 11:39:12.350106 14303 net.cpp:425] label_data_1_split <- label
I0705 11:39:12.350111 14303 net.cpp:399] label_data_1_split -> label_data_1_split_0
I0705 11:39:12.350117 14303 net.cpp:399] label_data_1_split -> label_data_1_split_1
I0705 11:39:12.350175 14303 net.cpp:141] Setting up label_data_1_split
I0705 11:39:12.350181 14303 net.cpp:148] Top shape: 8 (8)
I0705 11:39:12.350184 14303 net.cpp:148] Top shape: 8 (8)
I0705 11:39:12.350186 14303 net.cpp:156] Memory required for data: 1572960
I0705 11:39:12.350189 14303 layer_factory.hpp:77] Creating layer conv1
I0705 11:39:12.350198 14303 net.cpp:91] Creating Layer conv1
I0705 11:39:12.350201 14303 net.cpp:425] conv1 <- data
I0705 11:39:12.350205 14303 net.cpp:399] conv1 -> z1_pre
I0705 11:39:12.351678 14303 net.cpp:141] Setting up conv1
I0705 11:39:12.351691 14303 net.cpp:148] Top shape: 8 32 192 256 (12582912)
I0705 11:39:12.351693 14303 net.cpp:156] Memory required for data: 51904608
I0705 11:39:12.351701 14303 layer_factory.hpp:77] Creating layer bn1
I0705 11:39:12.351706 14303 net.cpp:91] Creating Layer bn1
I0705 11:39:12.351709 14303 net.cpp:425] bn1 <- z1_pre
I0705 11:39:12.351713 14303 net.cpp:399] bn1 -> z1
I0705 11:39:12.351946 14303 net.cpp:141] Setting up bn1
I0705 11:39:12.351953 14303 net.cpp:148] Top shape: 8 32 192 256 (12582912)
I0705 11:39:12.351956 14303 net.cpp:156] Memory required for data: 102236256
I0705 11:39:12.351964 14303 layer_factory.hpp:77] Creating layer scale1
I0705 11:39:12.351972 14303 net.cpp:91] Creating Layer scale1
I0705 11:39:12.351975 14303 net.cpp:425] scale1 <- z1
I0705 11:39:12.351979 14303 net.cpp:386] scale1 -> z1 (in-place)
I0705 11:39:12.352020 14303 layer_factory.hpp:77] Creating layer scale1
I0705 11:39:12.352768 14303 net.cpp:141] Setting up scale1
I0705 11:39:12.352780 14303 net.cpp:148] Top shape: 8 32 192 256 (12582912)
I0705 11:39:12.352782 14303 net.cpp:156] Memory required for data: 152567904
I0705 11:39:12.352789 14303 layer_factory.hpp:77] Creating layer relu1
I0705 11:39:12.352795 14303 net.cpp:91] Creating Layer relu1
I0705 11:39:12.352797 14303 net.cpp:425] relu1 <- z1
I0705 11:39:12.352802 14303 net.cpp:386] relu1 -> z1 (in-place)
I0705 11:39:12.352962 14303 net.cpp:141] Setting up relu1
I0705 11:39:12.352969 14303 net.cpp:148] Top shape: 8 32 192 256 (12582912)
I0705 11:39:12.352972 14303 net.cpp:156] Memory required for data: 202899552
I0705 11:39:12.352974 14303 layer_factory.hpp:77] Creating layer pool1
I0705 11:39:12.352982 14303 net.cpp:91] Creating Layer pool1
I0705 11:39:12.352983 14303 net.cpp:425] pool1 <- z1
I0705 11:39:12.352988 14303 net.cpp:399] pool1 -> pool1
I0705 11:39:12.353045 14303 net.cpp:141] Setting up pool1
I0705 11:39:12.353052 14303 net.cpp:148] Top shape: 8 32 96 128 (3145728)
I0705 11:39:12.353055 14303 net.cpp:156] Memory required for data: 215482464
I0705 11:39:12.353056 14303 layer_factory.hpp:77] Creating layer conv2
I0705 11:39:12.353065 14303 net.cpp:91] Creating Layer conv2
I0705 11:39:12.353067 14303 net.cpp:425] conv2 <- pool1
I0705 11:39:12.353071 14303 net.cpp:399] conv2 -> z2_pre
I0705 11:39:12.354128 14303 net.cpp:141] Setting up conv2
I0705 11:39:12.354140 14303 net.cpp:148] Top shape: 8 64 96 128 (6291456)
I0705 11:39:12.354143 14303 net.cpp:156] Memory required for data: 240648288
I0705 11:39:12.354147 14303 layer_factory.hpp:77] Creating layer bn2
I0705 11:39:12.354156 14303 net.cpp:91] Creating Layer bn2
I0705 11:39:12.354157 14303 net.cpp:425] bn2 <- z2_pre
I0705 11:39:12.354162 14303 net.cpp:399] bn2 -> z2
I0705 11:39:12.354389 14303 net.cpp:141] Setting up bn2
I0705 11:39:12.354398 14303 net.cpp:148] Top shape: 8 64 96 128 (6291456)
I0705 11:39:12.354400 14303 net.cpp:156] Memory required for data: 265814112
I0705 11:39:12.354408 14303 layer_factory.hpp:77] Creating layer scale2
I0705 11:39:12.354414 14303 net.cpp:91] Creating Layer scale2
I0705 11:39:12.354418 14303 net.cpp:425] scale2 <- z2
I0705 11:39:12.354424 14303 net.cpp:386] scale2 -> z2 (in-place)
I0705 11:39:12.354470 14303 layer_factory.hpp:77] Creating layer scale2
I0705 11:39:12.354598 14303 net.cpp:141] Setting up scale2
I0705 11:39:12.354604 14303 net.cpp:148] Top shape: 8 64 96 128 (6291456)
I0705 11:39:12.354606 14303 net.cpp:156] Memory required for data: 290979936
I0705 11:39:12.354611 14303 layer_factory.hpp:77] Creating layer relu2
I0705 11:39:12.354615 14303 net.cpp:91] Creating Layer relu2
I0705 11:39:12.354617 14303 net.cpp:425] relu2 <- z2
I0705 11:39:12.354621 14303 net.cpp:386] relu2 -> z2 (in-place)
I0705 11:39:12.354921 14303 net.cpp:141] Setting up relu2
I0705 11:39:12.354933 14303 net.cpp:148] Top shape: 8 64 96 128 (6291456)
I0705 11:39:12.354934 14303 net.cpp:156] Memory required for data: 316145760
I0705 11:39:12.354938 14303 layer_factory.hpp:77] Creating layer pool2
I0705 11:39:12.354943 14303 net.cpp:91] Creating Layer pool2
I0705 11:39:12.354945 14303 net.cpp:425] pool2 <- z2
I0705 11:39:12.354950 14303 net.cpp:399] pool2 -> pool2
I0705 11:39:12.355000 14303 net.cpp:141] Setting up pool2
I0705 11:39:12.355005 14303 net.cpp:148] Top shape: 8 64 48 64 (1572864)
I0705 11:39:12.355007 14303 net.cpp:156] Memory required for data: 322437216
I0705 11:39:12.355010 14303 layer_factory.hpp:77] Creating layer conv3
I0705 11:39:12.355020 14303 net.cpp:91] Creating Layer conv3
I0705 11:39:12.355022 14303 net.cpp:425] conv3 <- pool2
I0705 11:39:12.355026 14303 net.cpp:399] conv3 -> z3_pre
I0705 11:39:12.356456 14303 net.cpp:141] Setting up conv3
I0705 11:39:12.356469 14303 net.cpp:148] Top shape: 8 128 48 64 (3145728)
I0705 11:39:12.356472 14303 net.cpp:156] Memory required for data: 335020128
I0705 11:39:12.356477 14303 layer_factory.hpp:77] Creating layer bn3
I0705 11:39:12.356483 14303 net.cpp:91] Creating Layer bn3
I0705 11:39:12.356487 14303 net.cpp:425] bn3 <- z3_pre
I0705 11:39:12.356490 14303 net.cpp:399] bn3 -> z3
I0705 11:39:12.356688 14303 net.cpp:141] Setting up bn3
I0705 11:39:12.356694 14303 net.cpp:148] Top shape: 8 128 48 64 (3145728)
I0705 11:39:12.356696 14303 net.cpp:156] Memory required for data: 347603040
I0705 11:39:12.356703 14303 layer_factory.hpp:77] Creating layer scale3
I0705 11:39:12.356709 14303 net.cpp:91] Creating Layer scale3
I0705 11:39:12.356711 14303 net.cpp:425] scale3 <- z3
I0705 11:39:12.356716 14303 net.cpp:386] scale3 -> z3 (in-place)
I0705 11:39:12.356758 14303 layer_factory.hpp:77] Creating layer scale3
I0705 11:39:12.356864 14303 net.cpp:141] Setting up scale3
I0705 11:39:12.356870 14303 net.cpp:148] Top shape: 8 128 48 64 (3145728)
I0705 11:39:12.356873 14303 net.cpp:156] Memory required for data: 360185952
I0705 11:39:12.356880 14303 layer_factory.hpp:77] Creating layer relu3
I0705 11:39:12.356885 14303 net.cpp:91] Creating Layer relu3
I0705 11:39:12.356887 14303 net.cpp:425] relu3 <- z3
I0705 11:39:12.356891 14303 net.cpp:386] relu3 -> z3 (in-place)
I0705 11:39:12.357215 14303 net.cpp:141] Setting up relu3
I0705 11:39:12.357226 14303 net.cpp:148] Top shape: 8 128 48 64 (3145728)
I0705 11:39:12.357229 14303 net.cpp:156] Memory required for data: 372768864
I0705 11:39:12.357233 14303 layer_factory.hpp:77] Creating layer pool3
I0705 11:39:12.357240 14303 net.cpp:91] Creating Layer pool3
I0705 11:39:12.357244 14303 net.cpp:425] pool3 <- z3
I0705 11:39:12.357247 14303 net.cpp:399] pool3 -> pool3
I0705 11:39:12.357295 14303 net.cpp:141] Setting up pool3
I0705 11:39:12.357302 14303 net.cpp:148] Top shape: 8 128 24 32 (786432)
I0705 11:39:12.357305 14303 net.cpp:156] Memory required for data: 375914592
I0705 11:39:12.357306 14303 layer_factory.hpp:77] Creating layer conv4
I0705 11:39:12.357314 14303 net.cpp:91] Creating Layer conv4
I0705 11:39:12.357326 14303 net.cpp:425] conv4 <- pool3
I0705 11:39:12.357332 14303 net.cpp:399] conv4 -> z4_pre
I0705 11:39:12.360615 14303 net.cpp:141] Setting up conv4
I0705 11:39:12.360627 14303 net.cpp:148] Top shape: 8 256 24 32 (1572864)
I0705 11:39:12.360630 14303 net.cpp:156] Memory required for data: 382206048
I0705 11:39:12.360635 14303 layer_factory.hpp:77] Creating layer bn4
I0705 11:39:12.360641 14303 net.cpp:91] Creating Layer bn4
I0705 11:39:12.360644 14303 net.cpp:425] bn4 <- z4_pre
I0705 11:39:12.360649 14303 net.cpp:399] bn4 -> z4
I0705 11:39:12.360852 14303 net.cpp:141] Setting up bn4
I0705 11:39:12.360858 14303 net.cpp:148] Top shape: 8 256 24 32 (1572864)
I0705 11:39:12.360860 14303 net.cpp:156] Memory required for data: 388497504
I0705 11:39:12.360867 14303 layer_factory.hpp:77] Creating layer scale4
I0705 11:39:12.360873 14303 net.cpp:91] Creating Layer scale4
I0705 11:39:12.360877 14303 net.cpp:425] scale4 <- z4
I0705 11:39:12.360879 14303 net.cpp:386] scale4 -> z4 (in-place)
I0705 11:39:12.360924 14303 layer_factory.hpp:77] Creating layer scale4
I0705 11:39:12.361027 14303 net.cpp:141] Setting up scale4
I0705 11:39:12.361033 14303 net.cpp:148] Top shape: 8 256 24 32 (1572864)
I0705 11:39:12.361035 14303 net.cpp:156] Memory required for data: 394788960
I0705 11:39:12.361039 14303 layer_factory.hpp:77] Creating layer relu4
I0705 11:39:12.361044 14303 net.cpp:91] Creating Layer relu4
I0705 11:39:12.361047 14303 net.cpp:425] relu4 <- z4
I0705 11:39:12.361050 14303 net.cpp:386] relu4 -> z4 (in-place)
I0705 11:39:12.361208 14303 net.cpp:141] Setting up relu4
I0705 11:39:12.361217 14303 net.cpp:148] Top shape: 8 256 24 32 (1572864)
I0705 11:39:12.361219 14303 net.cpp:156] Memory required for data: 401080416
I0705 11:39:12.361222 14303 layer_factory.hpp:77] Creating layer pool4
I0705 11:39:12.361227 14303 net.cpp:91] Creating Layer pool4
I0705 11:39:12.361228 14303 net.cpp:425] pool4 <- z4
I0705 11:39:12.361234 14303 net.cpp:399] pool4 -> pool4
I0705 11:39:12.361277 14303 net.cpp:141] Setting up pool4
I0705 11:39:12.361284 14303 net.cpp:148] Top shape: 8 256 12 16 (393216)
I0705 11:39:12.361285 14303 net.cpp:156] Memory required for data: 402653280
I0705 11:39:12.361289 14303 layer_factory.hpp:77] Creating layer conv5
I0705 11:39:12.361296 14303 net.cpp:91] Creating Layer conv5
I0705 11:39:12.361299 14303 net.cpp:425] conv5 <- pool4
I0705 11:39:12.361302 14303 net.cpp:399] conv5 -> z5_pre
I0705 11:39:12.366737 14303 net.cpp:141] Setting up conv5
I0705 11:39:12.366750 14303 net.cpp:148] Top shape: 8 256 12 16 (393216)
I0705 11:39:12.366752 14303 net.cpp:156] Memory required for data: 404226144
I0705 11:39:12.366757 14303 layer_factory.hpp:77] Creating layer bn5
I0705 11:39:12.366763 14303 net.cpp:91] Creating Layer bn5
I0705 11:39:12.366766 14303 net.cpp:425] bn5 <- z5_pre
I0705 11:39:12.366771 14303 net.cpp:399] bn5 -> z5
I0705 11:39:12.366979 14303 net.cpp:141] Setting up bn5
I0705 11:39:12.366986 14303 net.cpp:148] Top shape: 8 256 12 16 (393216)
I0705 11:39:12.366988 14303 net.cpp:156] Memory required for data: 405799008
I0705 11:39:12.366993 14303 layer_factory.hpp:77] Creating layer scale5
I0705 11:39:12.367000 14303 net.cpp:91] Creating Layer scale5
I0705 11:39:12.367002 14303 net.cpp:425] scale5 <- z5
I0705 11:39:12.367007 14303 net.cpp:386] scale5 -> z5 (in-place)
I0705 11:39:12.367051 14303 layer_factory.hpp:77] Creating layer scale5
I0705 11:39:12.367159 14303 net.cpp:141] Setting up scale5
I0705 11:39:12.367166 14303 net.cpp:148] Top shape: 8 256 12 16 (393216)
I0705 11:39:12.367167 14303 net.cpp:156] Memory required for data: 407371872
I0705 11:39:12.367172 14303 layer_factory.hpp:77] Creating layer relu5
I0705 11:39:12.367177 14303 net.cpp:91] Creating Layer relu5
I0705 11:39:12.367179 14303 net.cpp:425] relu5 <- z5
I0705 11:39:12.367183 14303 net.cpp:386] relu5 -> z5 (in-place)
I0705 11:39:12.367471 14303 net.cpp:141] Setting up relu5
I0705 11:39:12.367482 14303 net.cpp:148] Top shape: 8 256 12 16 (393216)
I0705 11:39:12.367486 14303 net.cpp:156] Memory required for data: 408944736
I0705 11:39:12.367497 14303 layer_factory.hpp:77] Creating layer pool5
I0705 11:39:12.367504 14303 net.cpp:91] Creating Layer pool5
I0705 11:39:12.367507 14303 net.cpp:425] pool5 <- z5
I0705 11:39:12.367511 14303 net.cpp:399] pool5 -> pool5
I0705 11:39:12.367563 14303 net.cpp:141] Setting up pool5
I0705 11:39:12.367569 14303 net.cpp:148] Top shape: 8 256 6 8 (98304)
I0705 11:39:12.367571 14303 net.cpp:156] Memory required for data: 409337952
I0705 11:39:12.367573 14303 layer_factory.hpp:77] Creating layer conv6
I0705 11:39:12.367581 14303 net.cpp:91] Creating Layer conv6
I0705 11:39:12.367584 14303 net.cpp:425] conv6 <- pool5
I0705 11:39:12.367588 14303 net.cpp:399] conv6 -> z6_pre
I0705 11:39:12.372927 14303 net.cpp:141] Setting up conv6
I0705 11:39:12.372939 14303 net.cpp:148] Top shape: 8 256 6 8 (98304)
I0705 11:39:12.372942 14303 net.cpp:156] Memory required for data: 409731168
I0705 11:39:12.372947 14303 layer_factory.hpp:77] Creating layer bn6
I0705 11:39:12.372954 14303 net.cpp:91] Creating Layer bn6
I0705 11:39:12.372956 14303 net.cpp:425] bn6 <- z6_pre
I0705 11:39:12.372961 14303 net.cpp:399] bn6 -> z6
I0705 11:39:12.373180 14303 net.cpp:141] Setting up bn6
I0705 11:39:12.373188 14303 net.cpp:148] Top shape: 8 256 6 8 (98304)
I0705 11:39:12.373189 14303 net.cpp:156] Memory required for data: 410124384
I0705 11:39:12.373200 14303 layer_factory.hpp:77] Creating layer scale6
I0705 11:39:12.373208 14303 net.cpp:91] Creating Layer scale6
I0705 11:39:12.373209 14303 net.cpp:425] scale6 <- z6
I0705 11:39:12.373214 14303 net.cpp:386] scale6 -> z6 (in-place)
I0705 11:39:12.373261 14303 layer_factory.hpp:77] Creating layer scale6
I0705 11:39:12.373381 14303 net.cpp:141] Setting up scale6
I0705 11:39:12.373389 14303 net.cpp:148] Top shape: 8 256 6 8 (98304)
I0705 11:39:12.373390 14303 net.cpp:156] Memory required for data: 410517600
I0705 11:39:12.373395 14303 layer_factory.hpp:77] Creating layer relu6
I0705 11:39:12.373400 14303 net.cpp:91] Creating Layer relu6
I0705 11:39:12.373402 14303 net.cpp:425] relu6 <- z6
I0705 11:39:12.373406 14303 net.cpp:386] relu6 -> z6 (in-place)
I0705 11:39:12.373697 14303 net.cpp:141] Setting up relu6
I0705 11:39:12.373708 14303 net.cpp:148] Top shape: 8 256 6 8 (98304)
I0705 11:39:12.373710 14303 net.cpp:156] Memory required for data: 410910816
I0705 11:39:12.373713 14303 layer_factory.hpp:77] Creating layer pool_final
I0705 11:39:12.373718 14303 net.cpp:91] Creating Layer pool_final
I0705 11:39:12.373723 14303 net.cpp:425] pool_final <- z6
I0705 11:39:12.373726 14303 net.cpp:399] pool_final -> pool_final
I0705 11:39:12.373895 14303 net.cpp:141] Setting up pool_final
I0705 11:39:12.373905 14303 net.cpp:148] Top shape: 8 256 1 1 (2048)
I0705 11:39:12.373908 14303 net.cpp:156] Memory required for data: 410919008
I0705 11:39:12.373910 14303 layer_factory.hpp:77] Creating layer score
I0705 11:39:12.373919 14303 net.cpp:91] Creating Layer score
I0705 11:39:12.373922 14303 net.cpp:425] score <- pool_final
I0705 11:39:12.373926 14303 net.cpp:399] score -> score
I0705 11:39:12.374045 14303 net.cpp:141] Setting up score
I0705 11:39:12.374053 14303 net.cpp:148] Top shape: 8 2 (16)
I0705 11:39:12.374054 14303 net.cpp:156] Memory required for data: 410919072
I0705 11:39:12.374059 14303 layer_factory.hpp:77] Creating layer score_score_0_split
I0705 11:39:12.374065 14303 net.cpp:91] Creating Layer score_score_0_split
I0705 11:39:12.374068 14303 net.cpp:425] score_score_0_split <- score
I0705 11:39:12.374070 14303 net.cpp:399] score_score_0_split -> score_score_0_split_0
I0705 11:39:12.374075 14303 net.cpp:399] score_score_0_split -> score_score_0_split_1
I0705 11:39:12.374114 14303 net.cpp:141] Setting up score_score_0_split
I0705 11:39:12.374120 14303 net.cpp:148] Top shape: 8 2 (16)
I0705 11:39:12.374124 14303 net.cpp:148] Top shape: 8 2 (16)
I0705 11:39:12.374125 14303 net.cpp:156] Memory required for data: 410919200
I0705 11:39:12.374127 14303 layer_factory.hpp:77] Creating layer prob
I0705 11:39:12.374132 14303 net.cpp:91] Creating Layer prob
I0705 11:39:12.374135 14303 net.cpp:425] prob <- score_score_0_split_0
I0705 11:39:12.374148 14303 net.cpp:425] prob <- label_data_1_split_0
I0705 11:39:12.374152 14303 net.cpp:399] prob -> prob
…
