…
I0630 16:56:01.703191  1785 solver.cpp:81] Creating training net from train_net file: models/laddernet/train.prototxt
I0630 16:56:01.704905  1785 net.cpp:49] Initializing net from parameters: 
name: "LadderNet"
state {
  phase: TRAIN
}
layer {
  name: "data"
  type: "Data"
  top: "data"
  top: "label"
  include {
    phase: TRAIN
  }
  transform_param {
    scale: 0.0039215
    mirror: true
    mean_value: 100
    crop_h: 192
    crop_w: 256
    rotation_range: 10
    scale_jitter_range: 0.1
    contrast_jitter_range: 0.3
  }
  data_param {
    source: "data/train_lmdb"
    batch_size: 16
    backend: LMDB
  }
}
layer {
  name: "noisy_data"
  type: "Noise"
  bottom: "data"
  top: "noisy_data"
  noise_param {
    sigma: 0.05
  }
}
layer {
  name: "conv1"
  type: "Convolution"
  bottom: "data"
  bottom: "noisy_data"
  top: "z1_pre"
  top: "z1_n"
  convolution_param {
    num_output: 32
    bias_term: false
    pad: 1
    kernel_size: 3
    stride: 1
    weight_filler {
      type: "xavier"
    }
  }
}
layer {
  name: "bn1"
  type: "BatchNorm"
  bottom: "z1_pre"
  top: "z1"
  top: "bn1_param"
  param {
    lr_mult: 0
  }
  param {
    lr_mult: 0
  }
  param {
    lr_mult: 0
  }
  batch_norm_param {
    use_global_stats: false
    eps: 0.001
  }
}
layer {
  name: "scale1"
  type: "Scale"
  bottom: "z1"
  top: "z1"
  param {
    name: "scale1_w"
  }
  param {
    name: "scale1_b"
  }
  scale_param {
    filler {
      type: "constant"
      value: 1
    }
    bias_term: true
    bias_filler {
      type: "constant"
      value: 0
    }
  }
}
layer {
  name: "relu1"
  type: "ReLU"
  bottom: "z1"
  top: "z1"
}
layer {
  name: "bn1_n"
  type: "BatchNorm"
  bottom: "z1_n"
  top: "z1_n"
  param {
    lr_mult: 0
  }
  param {
    lr_mult: 0
  }
  param {
    lr_mult: 0
  }
  batch_norm_param {
    use_global_stats: false
    eps: 0.001
  }
}
layer {
  name: "noisy_z1_n"
  type: "Noise"
  bottom: "z1_n"
  top: "z1_n"
  noise_param {
    sigma: 0.05
  }
}
layer {
  name: "scale1_n"
  type: "Scale"
  bottom: "z1_n"
  top: "z1_n"
  param {
    name: "scale1_w"
  }
  param {
    name: "scale1_b"
  }
  scale_param {
    filler {
      type: "constant"
      value: 1
    }
    bias_term: true
    bias_filler {
      type: "constant"
      value: 0
    }
  }
}
layer {
  name: "relu1_n"
  type: "ReLU"
  bottom: "z1_n"
  top: "z1_n"
}
layer {
  name: "pool1"
  type: "Pooling"
  bottom: "z1"
  top: "pool1"
  pooling_param {
    pool: MAX
    kernel_size: 2
    stride: 2
  }
}
layer {
  name: "pool1_n"
  type: "Pooling"
  bottom: "z1_n"
  top: "pool1_n"
  top: "pool1_n_mask"
  pooling_param {
    pool: MAX
    kernel_size: 2
    stride: 2
  }
}
layer {
  name: "conv2"
  type: "Convolution"
  bottom: "pool1"
  bottom: "pool1_n"
  top: "z2_pre"
  top: "z2_n"
  convolution_param {
    num_output: 64
    bias_term: false
    pad: 1
    kernel_size: 3
    stride: 1
    weight_filler {
      type: "xavier"
    }
  }
}
layer {
  name: "bn2"
  type: "BatchNorm"
  bottom: "z2_pre"
  top: "z2"
  top: "bn2_param"
  param {
    lr_mult: 0
  }
  param {
    lr_mult: 0
  }
  param {
    lr_mult: 0
  }
  batch_norm_param {
    use_global_stats: false
    eps: 0.001
  }
}
layer {
  name: "scale2"
  type: "Scale"
  bottom: "z2"
  top: "z2"
  param {
    name: "scale2_w"
  }
  param {
    name: "scale2_b"
  }
  scale_param {
    filler {
      type: "constant"
      value: 1
    }
    bias_term: true
    bias_filler {
      type: "constant"
      value: 0
    }
  }
}
layer {
  name: "relu2"
  type: "ReLU"
  bottom: "z2"
  top: "z2"
}
layer {
  name: "bn2_n"
  type: "BatchNorm"
  bottom: "z2_n"
  top: "z2_n"
  param {
    lr_mult: 0
  }
  param {
    lr_mult: 0
  }
  param {
    lr_mult: 0
  }
  batch_norm_param {
    use_global_stats: false
    eps: 0.001
  }
}
layer {
  name: "noisy_z2_n"
  type: "Noise"
  bottom: "z2_n"
  top: "z2_n"
  noise_param {
    sigma: 0.05
  }
}
layer {
  name: "scale2_n"
  type: "Scale"
  bottom: "z2_n"
  top: "z2_n"
  param {
    name: "scale2_w"
  }
  param {
    name: "scale2_b"
  }
  scale_param {
    filler {
      type: "constant"
      value: 1
    }
    bias_term: true
    bias_filler {
      type: "constant"
      value: 0
    }
  }
}
layer {
  name: "relu2_n"
  type: "ReLU"
  bottom: "z2_n"
  top: "z2_n"
}
layer {
  name: "pool2"
  type: "Pooling"
  bottom: "z2"
  top: "pool2"
  pooling_param {
    pool: MAX
    kernel_size: 2
    stride: 2
  }
}
layer {
  name: "pool2_n"
  type: "Pooling"
  bottom: "z2_n"
  top: "pool2_n"
  top: "pool2_n_mask"
  pooling_param {
    pool: MAX
    kernel_size: 2
    stride: 2
  }
}
layer {
  name: "conv3"
  type: "Convolution"
  bottom: "pool2"
  bottom: "pool2_n"
  top: "z3_pre"
  top: "z3_n"
  convolution_param {
    num_output: 128
    bias_term: false
    pad: 1
    kernel_size: 3
    stride: 1
    weight_filler {
      type: "xavier"
    }
  }
}
layer {
  name: "bn3"
  type: "BatchNorm"
  bottom: "z3_pre"
  top: "z3"
  top: "bn3_param"
  param {
    lr_mult: 0
  }
  param {
    lr_mult: 0
  }
  param {
    lr_mult: 0
  }
  batch_norm_param {
    use_global_stats: false
    eps: 0.001
  }
}
layer {
  name: "scale3"
  type: "Scale"
  bottom: "z3"
  top: "z3"
  param {
    name: "scale3_w"
  }
  param {
    name: "scale3_b"
  }
  scale_param {
    filler {
      type: "constant"
      value: 1
    }
    bias_term: true
    bias_filler {
      type: "constant"
      value: 0
    }
  }
}
layer {
  name: "relu3"
  type: "ReLU"
  bottom: "z3"
  top: "z3"
}
layer {
  name: "bn3_n"
  type: "BatchNorm"
  bottom: "z3_n"
  top: "z3_n"
  param {
    lr_mult: 0
  }
  param {
    lr_mult: 0
  }
  param {
    lr_mult: 0
  }
  batch_norm_param {
    use_global_stats: false
    eps: 0.001
  }
}
layer {
  name: "noisy_z3_n"
  type: "Noise"
  bottom: "z3_n"
  top: "z3_n"
  noise_param {
    sigma: 0.05
  }
}
layer {
  name: "scale3_n"
  type: "Scale"
  bottom: "z3_n"
  top: "z3_n"
  param {
    name: "scale3_w"
  }
  param {
    name: "scale3_b"
  }
  scale_param {
    filler {
      type: "constant"
      value: 1
    }
    bias_term: true
    bias_filler {
      type: "constant"
      value: 0
    }
  }
}
layer {
  name: "relu3_n"
  type: "ReLU"
  bottom: "z3_n"
  top: "z3_n"
}
layer {
  name: "pool3"
  type: "Pooling"
  bottom: "z3"
  top: "pool3"
  pooling_param {
    pool: MAX
    kernel_size: 2
    stride: 2
  }
}
layer {
  name: "pool3_n"
  type: "Pooling"
  bottom: "z3_n"
  top: "pool3_n"
  top: "pool3_n_mask"
  pooling_param {
    pool: MAX
    kernel_size: 2
    stride: 2
  }
}
layer {
  name: "conv4"
  type: "Convolution"
  bottom: "pool3"
  bottom: "pool3_n"
  top: "z4_pre"
  top: "z4_n"
  convolution_param {
    num_output: 256
    bias_term: false
    pad: 1
    kernel_size: 3
    stride: 1
    weight_filler {
      type: "xavier"
    }
  }
}
layer {
  name: "bn4"
  type: "BatchNorm"
  bottom: "z4_pre"
  top: "z4"
  top: "bn4_param"
  param {
    lr_mult: 0
  }
  param {
    lr_mult: 0
  }
  param {
    lr_mult: 0
  }
  batch_norm_param {
    use_global_stats: false
    eps: 0.001
  }
}
layer {
  name: "scale4"
  type: "Scale"
  bottom: "z4"
  top: "z4"
  param {
    name: "scale4_w"
  }
  param {
    name: "scale4_b"
  }
  scale_param {
    filler {
      type: "constant"
      value: 1
    }
    bias_term: true
    bias_filler {
      type: "constant"
      value: 0
    }
  }
}
layer {
  name: "relu4"
  type: "ReLU"
  bottom: "z4"
  top: "z4"
}
layer {
  name: "bn4_n"
  type: "BatchNorm"
  bottom: "z4_n"
  top: "z4_n"
  param {
    lr_mult: 0
  }
  param {
    lr_mult: 0
  }
  param {
    lr_mult: 0
  }
  batch_norm_param {
    use_global_stats: false
    eps: 0.001
  }
}
layer {
  name: "noisy_z4_n"
  type: "Noise"
  bottom: "z4_n"
  top: "z4_n"
  noise_param {
    sigma: 0.05
  }
}
layer {
  name: "scale4_n"
  type: "Scale"
  bottom: "z4_n"
  top: "z4_n"
  param {
    name: "scale4_w"
  }
  param {
    name: "scale4_b"
  }
  scale_param {
    filler {
      type: "constant"
      value: 1
    }
    bias_term: true
    bias_filler {
      type: "constant"
      value: 0
    }
  }
}
layer {
  name: "relu4_n"
  type: "ReLU"
  bottom: "z4_n"
  top: "z4_n"
}
layer {
  name: "pool4"
  type: "Pooling"
  bottom: "z4"
  top: "pool4"
  pooling_param {
    pool: MAX
    kernel_size: 2
    stride: 2
  }
}
layer {
  name: "pool4_n"
  type: "Pooling"
  bottom: "z4_n"
  top: "pool4_n"
  top: "pool4_n_mask"
  pooling_param {
    pool: MAX
    kernel_size: 2
    stride: 2
  }
}
layer {
  name: "conv5"
  type: "Convolution"
  bottom: "pool4"
  bottom: "pool4_n"
  top: "z5_pre"
  top: "z5_n"
  convolution_param {
    num_output: 256
    bias_term: false
    pad: 1
    kernel_size: 3
    stride: 1
    weight_filler {
      type: "xavier"
    }
  }
}
layer {
  name: "bn5"
  type: "BatchNorm"
  bottom: "z5_pre"
  top: "z5"
  top: "bn5_param"
  param {
    lr_mult: 0
  }
  param {
    lr_mult: 0
  }
  param {
    lr_mult: 0
  }
  batch_norm_param {
    use_global_stats: false
    eps: 0.001
  }
}
layer {
  name: "scale5"
  type: "Scale"
  bottom: "z5"
  top: "z5"
  param {
    name: "scale5_w"
  }
  param {
    name: "scale5_b"
  }
  scale_param {
    filler {
      type: "constant"
      value: 1
    }
    bias_term: true
    bias_filler {
      type: "constant"
      value: 0
    }
  }
}
layer {
  name: "relu5"
  type: "ReLU"
  bottom: "z5"
  top: "z5"
}
layer {
  name: "bn5_n"
  type: "BatchNorm"
  bottom: "z5_n"
  top: "z5_n"
  param {
    lr_mult: 0
  }
  param {
    lr_mult: 0
  }
  param {
    lr_mult: 0
  }
  batch_norm_param {
    use_global_stats: false
    eps: 0.001
  }
}
layer {
  name: "noisy_z5_n"
  type: "Noise"
  bottom: "z5_n"
  top: "z5_n"
  noise_param {
    sigma: 0.05
  }
}
layer {
  name: "scale5_n"
  type: "Scale"
  bottom: "z5_n"
  top: "z5_n"
  param {
    name: "scale5_w"
  }
  param {
    name: "scale5_b"
  }
  scale_param {
    filler {
      type: "constant"
      value: 1
    }
    bias_term: true
    bias_filler {
      type: "constant"
      value: 0
    }
  }
}
layer {
  name: "relu5_n"
  type: "ReLU"
  bottom: "z5_n"
  top: "z5_n"
}
layer {
  name: "pool5"
  type: "Pooling"
  bottom: "z5"
  top: "pool5"
  pooling_param {
    pool: MAX
    kernel_size: 2
    stride: 2
  }
}
layer {
  name: "pool5_n"
  type: "Pooling"
  bottom: "z5_n"
  top: "pool5_n"
  top: "pool5_n_mask"
  pooling_param {
    pool: MAX
    kernel_size: 2
    stride: 2
  }
}
layer {
  name: "conv6"
  type: "Convolution"
  bottom: "pool5"
  bottom: "pool5_n"
  top: "z6_pre"
  top: "z6_n"
  convolution_param {
    num_output: 256
    bias_term: false
    pad: 1
    kernel_size: 3
    stride: 1
    weight_filler {
      type: "xavier"
    }
  }
}
layer {
  name: "bn6"
  type: "BatchNorm"
  bottom: "z6_pre"
  top: "z6"
  top: "bn6_param"
  param {
    lr_mult: 0
  }
  param {
    lr_mult: 0
  }
  param {
    lr_mult: 0
  }
  batch_norm_param {
    use_global_stats: false
    eps: 0.001
  }
}
layer {
  name: "scale6"
  type: "Scale"
  bottom: "z6"
  top: "z6"
  param {
    name: "scale6_w"
  }
  param {
    name: "scale6_b"
  }
  scale_param {
    filler {
      type: "constant"
      value: 1
    }
    bias_term: true
    bias_filler {
      type: "constant"
      value: 0
    }
  }
}
layer {
  name: "relu6"
  type: "ReLU"
  bottom: "z6"
  top: "z6"
}
layer {
  name: "bn6_n"
  type: "BatchNorm"
  bottom: "z6_n"
  top: "z6_n"
  param {
    lr_mult: 0
  }
  param {
    lr_mult: 0
  }
  param {
    lr_mult: 0
  }
  batch_norm_param {
    use_global_stats: false
    eps: 0.001
  }
}
layer {
  name: "scale6_n"
  type: "Scale"
  bottom: "z6_n"
  top: "z6_n"
  param {
    name: "scale6_w"
  }
  param {
    name: "scale6_b"
  }
  scale_param {
    filler {
      type: "constant"
      value: 1
    }
    bias_term: true
    bias_filler {
      type: "constant"
      value: 0
    }
  }
}
layer {
  name: "relu6_n"
  type: "ReLU"
  bottom: "z6_n"
  top: "z6_n"
}
layer {
  name: "u6"
  type: "BatchNorm"
  bottom: "z6_n"
  top: "u6"
  param {
    lr_mult: 0
  }
  param {
    lr_mult: 0
  }
  param {
    lr_mult: 0
  }
  batch_norm_param {
    use_global_stats: false
    eps: 0.001
  }
}
layer {
  name: "comb6"
  type: "VanillaLadderCombinator"
  bottom: "z6_n"
  bottom: "u6"
  top: "z6_r"
}
layer {
  name: "recon6"
  type: "Convolution"
  bottom: "z6_r"
  top: "h6_r"
  convolution_param {
    num_output: 256
    bias_term: false
    pad: 1
    kernel_size: 3
    stride: 1
    weight_filler {
      type: "xavier"
    }
  }
}
layer {
  name: "bn6_r"
  type: "BatchNorm"
  bottom: "h6_r"
  top: "h6_r"
  param {
    lr_mult: 0
  }
  param {
    lr_mult: 0
  }
  param {
    lr_mult: 0
  }
  batch_norm_param {
    use_global_stats: false
    eps: 0.001
  }
}
layer {
  name: "upsample5"
  type: "Upsample"
  bottom: "h6_r"
  bottom: "pool5_n_mask"
  top: "upsample5"
  upsample_param {
    scale: 2
  }
}
layer {
  name: "comb5"
  type: "VanillaLadderCombinator"
  bottom: "z5_n"
  bottom: "upsample5"
  top: "z5_r"
}
layer {
  name: "recon5"
  type: "Convolution"
  bottom: "z5_r"
  top: "h5_r"
  convolution_param {
    num_output: 256
    bias_term: false
    pad: 1
    kernel_size: 3
    stride: 1
    weight_filler {
      type: "xavier"
    }
  }
}
layer {
  name: "bn5_r"
  type: "BatchNorm"
  bottom: "h5_r"
  top: "h5_r"
  param {
    lr_mult: 0
  }
  param {
    lr_mult: 0
  }
  param {
    lr_mult: 0
  }
  batch_norm_param {
    use_global_stats: false
    eps: 0.001
  }
}
layer {
  name: "upsample4"
  type: "Upsample"
  bottom: "h5_r"
  bottom: "pool4_n_mask"
  top: "upsample4"
  upsample_param {
    scale: 2
  }
}
layer {
  name: "comb4"
  type: "VanillaLadderCombinator"
  bottom: "z4_n"
  bottom: "upsample4"
  top: "z4_r"
}
layer {
  name: "recon4"
  type: "Convolution"
  bottom: "z4_r"
  top: "h4_r"
  convolution_param {
    num_output: 128
    bias_term: false
    pad: 1
    kernel_size: 3
    stride: 1
    weight_filler {
      type: "xavier"
    }
  }
}
layer {
  name: "bn4_r"
  type: "BatchNorm"
  bottom: "h4_r"
  top: "h4_r"
  param {
    lr_mult: 0
  }
  param {
    lr_mult: 0
  }
  param {
    lr_mult: 0
  }
  batch_norm_param {
    use_global_stats: false
    eps: 0.001
  }
}
layer {
  name: "upsample3"
  type: "Upsample"
  bottom: "h4_r"
  bottom: "pool3_n_mask"
  top: "upsample3"
  upsample_param {
    scale: 2
  }
}
layer {
  name: "comb3"
  type: "VanillaLadderCombinator"
  bottom: "z3_n"
  bottom: "upsample3"
  top: "z3_r"
}
layer {
  name: "recon3"
  type: "Convolution"
  bottom: "z3_r"
  top: "h3_r"
  convolution_param {
    num_output: 64
    bias_term: false
    pad: 1
    kernel_size: 3
    stride: 1
    weight_filler {
      type: "xavier"
    }
  }
}
layer {
  name: "bn3_r"
  type: "BatchNorm"
  bottom: "h3_r"
  top: "h3_r"
  param {
    lr_mult: 0
  }
  param {
    lr_mult: 0
  }
  param {
    lr_mult: 0
  }
  batch_norm_param {
    use_global_stats: false
    eps: 0.001
  }
}
layer {
  name: "upsample2"
  type: "Upsample"
  bottom: "h3_r"
  bottom: "pool2_n_mask"
  top: "upsample2"
  upsample_param {
    scale: 2
  }
}
layer {
  name: "comb2"
  type: "VanillaLadderCombinator"
  bottom: "z2_n"
  bottom: "upsample2"
  top: "z2_r"
}
layer {
  name: "recon2"
  type: "Convolution"
  bottom: "z2_r"
  top: "h2_r"
  convolution_param {
    num_output: 32
    bias_term: false
    pad: 1
    kernel_size: 3
    stride: 1
    weight_filler {
      type: "xavier"
    }
  }
}
layer {
  name: "bn2_r"
  type: "BatchNorm"
  bottom: "h2_r"
  top: "h2_r"
  param {
    lr_mult: 0
  }
  param {
    lr_mult: 0
  }
  param {
    lr_mult: 0
  }
  batch_norm_param {
    use_global_stats: false
    eps: 0.001
  }
}
layer {
  name: "upsample1"
  type: "Upsample"
  bottom: "h2_r"
  bottom: "pool1_n_mask"
  top: "upsample1"
  upsample_param {
    scale: 2
  }
}
layer {
  name: "comb1"
  type: "VanillaLadderCombinator"
  bottom: "z1_n"
  bottom: "upsample1"
  top: "z1_r"
}
layer {
  name: "recon1"
  type: "Convolution"
  bottom: "z1_r"
  top: "h1_r"
  convolution_param {
    num_output: 1
    bias_term: false
    pad: 1
    kernel_size: 3
    stride: 1
    weight_filler {
      type: "xavier"
    }
  }
}
layer {
  name: "bn1_r"
  type: "BatchNorm"
  bottom: "h1_r"
  top: "h1_r"
  param {
    lr_mult: 0
  }
  param {
    lr_mult: 0
  }
  param {
    lr_mult: 0
  }
  batch_norm_param {
    use_global_stats: false
    eps: 0.001
  }
}
layer {
  name: "comb0"
  type: "VanillaLadderCombinator"
  bottom: "noisy_data"
  bottom: "h1_r"
  top: "z0_r"
}
layer {
  name: "loss_ladder_6"
  type: "LadderLoss"
  bottom: "z6"
  bottom: "z6_r"
  bottom: "bn6_param"
  top: "loss_ladder_6"
  loss_weight: 0.1
}
layer {
  name: "loss_ladder_5"
  type: "LadderLoss"
  bottom: "z5"
  bottom: "z5_r"
  bottom: "bn5_param"
  top: "loss_ladder_5"
  loss_weight: 0.1
}
layer {
  name: "loss_ladder_4"
  type: "LadderLoss"
  bottom: "z4"
  bottom: "z4_r"
  bottom: "bn4_param"
  top: "loss_ladder_4"
  loss_weight: 0.1
}
layer {
  name: "loss_ladder_3"
  type: "LadderLoss"
  bottom: "z3"
  bottom: "z3_r"
  bottom: "bn3_param"
  top: "loss_ladder_3"
  loss_weight: 0.1
}
layer {
  name: "loss_ladder_2"
  type: "LadderLoss"
  bottom: "z2"
  bottom: "z2_r"
  bottom: "bn2_param"
  top: "loss_ladder_2"
  loss_weight: 0.1
}
layer {
  name: "loss_ladder_1"
  type: "LadderLoss"
  bottom: "z1"
  bottom: "z1_r"
  bottom: "bn1_param"
  top: "loss_ladder_1"
  loss_weight: 0.1
}
layer {
  name: "loss_ladder_0"
  type: "LadderLoss"
  bottom: "noisy_data"
  bottom: "z0_r"
  top: "loss_ladder_0"
  loss_weight: 0.1
}
layer {
  name: "pool_final"
  type: "Pooling"
  bottom: "z6"
  top: "pool_final"
  pooling_param {
    pool: AVE
    stride: 1
    kernel_h: 6
    kernel_w: 8
  }
}
layer {
  name: "score"
  type: "InnerProduct"
  bottom: "pool_final"
  top: "score"
  inner_product_param {
    num_output: 2
    weight_filler {
      type: "xavier"
    }
  }
}
layer {
  name: "loss_supervised"
  type: "SoftmaxWithLoss"
  bottom: "score"
  bottom: "label"
  top: "loss_supervised"
}
layer {
  name: "accuracy"
  type: "Accuracy"
  bottom: "score"
  bottom: "label"
  top: "accuracy"
}
I0630 16:56:01.705320  1785 layer_factory.hpp:77] Creating layer data
I0630 16:56:01.705713  1785 net.cpp:91] Creating Layer data
I0630 16:56:01.705721  1785 net.cpp:399] data -> data
I0630 16:56:01.705742  1785 net.cpp:399] data -> label
I0630 16:56:01.707129  1789 db_lmdb.cpp:35] Opened lmdb data/train_lmdb
I0630 16:56:01.724177  1785 data_layer.cpp:42] output data size: 16,1,192,256
I0630 16:56:01.731117  1785 net.cpp:141] Setting up data
I0630 16:56:01.731145  1785 net.cpp:148] Top shape: 16 1 192 256 (786432)
I0630 16:56:01.731150  1785 net.cpp:148] Top shape: 16 (16)
I0630 16:56:01.731153  1785 net.cpp:156] Memory required for data: 3145792
I0630 16:56:01.731161  1785 layer_factory.hpp:77] Creating layer data_data_0_split
I0630 16:56:01.731178  1785 net.cpp:91] Creating Layer data_data_0_split
I0630 16:56:01.731181  1785 net.cpp:425] data_data_0_split <- data
I0630 16:56:01.731191  1785 net.cpp:399] data_data_0_split -> data_data_0_split_0
I0630 16:56:01.731204  1785 net.cpp:399] data_data_0_split -> data_data_0_split_1
I0630 16:56:01.731278  1785 net.cpp:141] Setting up data_data_0_split
I0630 16:56:01.731287  1785 net.cpp:148] Top shape: 16 1 192 256 (786432)
I0630 16:56:01.731290  1785 net.cpp:148] Top shape: 16 1 192 256 (786432)
I0630 16:56:01.731292  1785 net.cpp:156] Memory required for data: 9437248
I0630 16:56:01.731294  1785 layer_factory.hpp:77] Creating layer label_data_1_split
I0630 16:56:01.731300  1785 net.cpp:91] Creating Layer label_data_1_split
I0630 16:56:01.731302  1785 net.cpp:425] label_data_1_split <- label
I0630 16:56:01.731307  1785 net.cpp:399] label_data_1_split -> label_data_1_split_0
I0630 16:56:01.731312  1785 net.cpp:399] label_data_1_split -> label_data_1_split_1
I0630 16:56:01.731379  1785 net.cpp:141] Setting up label_data_1_split
I0630 16:56:01.731385  1785 net.cpp:148] Top shape: 16 (16)
I0630 16:56:01.731389  1785 net.cpp:148] Top shape: 16 (16)
I0630 16:56:01.731405  1785 net.cpp:156] Memory required for data: 9437376
I0630 16:56:01.731407  1785 layer_factory.hpp:77] Creating layer noisy_data
I0630 16:56:01.731413  1785 net.cpp:91] Creating Layer noisy_data
I0630 16:56:01.731415  1785 net.cpp:425] noisy_data <- data_data_0_split_0
I0630 16:56:01.731420  1785 net.cpp:399] noisy_data -> noisy_data
I0630 16:56:01.731453  1785 net.cpp:141] Setting up noisy_data
I0630 16:56:01.731459  1785 net.cpp:148] Top shape: 16 1 192 256 (786432)
I0630 16:56:01.731462  1785 net.cpp:156] Memory required for data: 12583104
I0630 16:56:01.731464  1785 layer_factory.hpp:77] Creating layer noisy_data_noisy_data_0_split
I0630 16:56:01.731468  1785 net.cpp:91] Creating Layer noisy_data_noisy_data_0_split
I0630 16:56:01.731472  1785 net.cpp:425] noisy_data_noisy_data_0_split <- noisy_data
I0630 16:56:01.731474  1785 net.cpp:399] noisy_data_noisy_data_0_split -> noisy_data_noisy_data_0_split_0
I0630 16:56:01.731478  1785 net.cpp:399] noisy_data_noisy_data_0_split -> noisy_data_noisy_data_0_split_1
I0630 16:56:01.731483  1785 net.cpp:399] noisy_data_noisy_data_0_split -> noisy_data_noisy_data_0_split_2
I0630 16:56:01.731511  1785 net.cpp:141] Setting up noisy_data_noisy_data_0_split
I0630 16:56:01.731516  1785 net.cpp:148] Top shape: 16 1 192 256 (786432)
I0630 16:56:01.731519  1785 net.cpp:148] Top shape: 16 1 192 256 (786432)
I0630 16:56:01.731523  1785 net.cpp:148] Top shape: 16 1 192 256 (786432)
I0630 16:56:01.731524  1785 net.cpp:156] Memory required for data: 22020288
I0630 16:56:01.731526  1785 layer_factory.hpp:77] Creating layer conv1
I0630 16:56:01.731539  1785 net.cpp:91] Creating Layer conv1
I0630 16:56:01.731545  1785 net.cpp:425] conv1 <- data_data_0_split_1
I0630 16:56:01.731549  1785 net.cpp:425] conv1 <- noisy_data_noisy_data_0_split_0
I0630 16:56:01.731552  1785 net.cpp:399] conv1 -> z1_pre
I0630 16:56:01.731557  1785 net.cpp:399] conv1 -> z1_n
I0630 16:56:02.052042  1785 net.cpp:141] Setting up conv1
I0630 16:56:02.052067  1785 net.cpp:148] Top shape: 16 32 192 256 (25165824)
I0630 16:56:02.052072  1785 net.cpp:148] Top shape: 16 32 192 256 (25165824)
I0630 16:56:02.052073  1785 net.cpp:156] Memory required for data: 223346880
I0630 16:56:02.052085  1785 layer_factory.hpp:77] Creating layer bn1
I0630 16:56:02.052103  1785 net.cpp:91] Creating Layer bn1
I0630 16:56:02.052109  1785 net.cpp:425] bn1 <- z1_pre
I0630 16:56:02.052114  1785 net.cpp:399] bn1 -> z1
I0630 16:56:02.052124  1785 net.cpp:399] bn1 -> bn1_param
I0630 16:56:02.052922  1785 net.cpp:141] Setting up bn1
I0630 16:56:02.052933  1785 net.cpp:148] Top shape: 16 32 192 256 (25165824)
I0630 16:56:02.052937  1785 net.cpp:148] Top shape: 2 32 (64)
I0630 16:56:02.052939  1785 net.cpp:156] Memory required for data: 324010432
I0630 16:56:02.052948  1785 layer_factory.hpp:77] Creating layer scale1
I0630 16:56:02.052958  1785 net.cpp:91] Creating Layer scale1
I0630 16:56:02.052960  1785 net.cpp:425] scale1 <- z1
I0630 16:56:02.052964  1785 net.cpp:386] scale1 -> z1 (in-place)
I0630 16:56:02.053002  1785 layer_factory.hpp:77] Creating layer scale1
I0630 16:56:02.053136  1785 net.cpp:141] Setting up scale1
I0630 16:56:02.053143  1785 net.cpp:148] Top shape: 16 32 192 256 (25165824)
I0630 16:56:02.053146  1785 net.cpp:156] Memory required for data: 424673728
I0630 16:56:02.053153  1785 layer_factory.hpp:77] Creating layer relu1
I0630 16:56:02.053159  1785 net.cpp:91] Creating Layer relu1
I0630 16:56:02.053163  1785 net.cpp:425] relu1 <- z1
I0630 16:56:02.053165  1785 net.cpp:386] relu1 -> z1 (in-place)
I0630 16:56:02.053436  1785 net.cpp:141] Setting up relu1
I0630 16:56:02.053447  1785 net.cpp:148] Top shape: 16 32 192 256 (25165824)
I0630 16:56:02.053449  1785 net.cpp:156] Memory required for data: 525337024
I0630 16:56:02.053452  1785 layer_factory.hpp:77] Creating layer z1_relu1_0_split
I0630 16:56:02.053457  1785 net.cpp:91] Creating Layer z1_relu1_0_split
I0630 16:56:02.053460  1785 net.cpp:425] z1_relu1_0_split <- z1
I0630 16:56:02.053464  1785 net.cpp:399] z1_relu1_0_split -> z1_relu1_0_split_0
I0630 16:56:02.053468  1785 net.cpp:399] z1_relu1_0_split -> z1_relu1_0_split_1
I0630 16:56:02.053519  1785 net.cpp:141] Setting up z1_relu1_0_split
I0630 16:56:02.053525  1785 net.cpp:148] Top shape: 16 32 192 256 (25165824)
I0630 16:56:02.053529  1785 net.cpp:148] Top shape: 16 32 192 256 (25165824)
I0630 16:56:02.053530  1785 net.cpp:156] Memory required for data: 726663616
I0630 16:56:02.053534  1785 layer_factory.hpp:77] Creating layer bn1_n
I0630 16:56:02.053537  1785 net.cpp:91] Creating Layer bn1_n
I0630 16:56:02.053540  1785 net.cpp:425] bn1_n <- z1_n
I0630 16:56:02.053545  1785 net.cpp:386] bn1_n -> z1_n (in-place)
I0630 16:56:02.053714  1785 net.cpp:141] Setting up bn1_n
I0630 16:56:02.053721  1785 net.cpp:148] Top shape: 16 32 192 256 (25165824)
I0630 16:56:02.053724  1785 net.cpp:156] Memory required for data: 827326912
I0630 16:56:02.053731  1785 layer_factory.hpp:77] Creating layer noisy_z1_n
I0630 16:56:02.053740  1785 net.cpp:91] Creating Layer noisy_z1_n
I0630 16:56:02.053742  1785 net.cpp:425] noisy_z1_n <- z1_n
I0630 16:56:02.053745  1785 net.cpp:386] noisy_z1_n -> z1_n (in-place)
I0630 16:56:02.053763  1785 net.cpp:141] Setting up noisy_z1_n
I0630 16:56:02.053769  1785 net.cpp:148] Top shape: 16 32 192 256 (25165824)
I0630 16:56:02.053771  1785 net.cpp:156] Memory required for data: 927990208
I0630 16:56:02.053773  1785 layer_factory.hpp:77] Creating layer scale1_n
I0630 16:56:02.053781  1785 net.cpp:91] Creating Layer scale1_n
I0630 16:56:02.053782  1785 net.cpp:425] scale1_n <- z1_n
I0630 16:56:02.053787  1785 net.cpp:386] scale1_n -> z1_n (in-place)
I0630 16:56:02.053817  1785 layer_factory.hpp:77] Creating layer scale1_n
I0630 16:56:02.054587  1785 net.cpp:141] Setting up scale1_n
I0630 16:56:02.054599  1785 net.cpp:148] Top shape: 16 32 192 256 (25165824)
I0630 16:56:02.054601  1785 net.cpp:156] Memory required for data: 1028653504
I0630 16:56:02.054605  1785 net.cpp:484] Sharing parameters 'scale1_w' owned by layer 'scale1', param index 0
I0630 16:56:02.054608  1785 net.cpp:484] Sharing parameters 'scale1_b' owned by layer 'scale1', param index 1
I0630 16:56:02.054610  1785 layer_factory.hpp:77] Creating layer relu1_n
I0630 16:56:02.054615  1785 net.cpp:91] Creating Layer relu1_n
I0630 16:56:02.054618  1785 net.cpp:425] relu1_n <- z1_n
I0630 16:56:02.054621  1785 net.cpp:386] relu1_n -> z1_n (in-place)
I0630 16:56:02.054766  1785 net.cpp:141] Setting up relu1_n
I0630 16:56:02.054774  1785 net.cpp:148] Top shape: 16 32 192 256 (25165824)
I0630 16:56:02.054777  1785 net.cpp:156] Memory required for data: 1129316800
I0630 16:56:02.054780  1785 layer_factory.hpp:77] Creating layer z1_n_relu1_n_0_split
I0630 16:56:02.054785  1785 net.cpp:91] Creating Layer z1_n_relu1_n_0_split
I0630 16:56:02.054787  1785 net.cpp:425] z1_n_relu1_n_0_split <- z1_n
I0630 16:56:02.054791  1785 net.cpp:399] z1_n_relu1_n_0_split -> z1_n_relu1_n_0_split_0
I0630 16:56:02.054798  1785 net.cpp:399] z1_n_relu1_n_0_split -> z1_n_relu1_n_0_split_1
I0630 16:56:02.054831  1785 net.cpp:141] Setting up z1_n_relu1_n_0_split
I0630 16:56:02.054837  1785 net.cpp:148] Top shape: 16 32 192 256 (25165824)
I0630 16:56:02.054841  1785 net.cpp:148] Top shape: 16 32 192 256 (25165824)
I0630 16:56:02.054842  1785 net.cpp:156] Memory required for data: 1330643392
I0630 16:56:02.054844  1785 layer_factory.hpp:77] Creating layer pool1
I0630 16:56:02.054849  1785 net.cpp:91] Creating Layer pool1
I0630 16:56:02.054852  1785 net.cpp:425] pool1 <- z1_relu1_0_split_0
I0630 16:56:02.054855  1785 net.cpp:399] pool1 -> pool1
I0630 16:56:02.054893  1785 net.cpp:141] Setting up pool1
I0630 16:56:02.054898  1785 net.cpp:148] Top shape: 16 32 96 128 (6291456)
I0630 16:56:02.054900  1785 net.cpp:156] Memory required for data: 1355809216
I0630 16:56:02.054903  1785 layer_factory.hpp:77] Creating layer pool1_n
I0630 16:56:02.054905  1785 layer_factory.cpp:90] cuDNN does not support multiple tops. Using Caffe's own pooling layer.
I0630 16:56:02.054913  1785 net.cpp:91] Creating Layer pool1_n
I0630 16:56:02.054915  1785 net.cpp:425] pool1_n <- z1_n_relu1_n_0_split_0
I0630 16:56:02.054919  1785 net.cpp:399] pool1_n -> pool1_n
I0630 16:56:02.054934  1785 net.cpp:399] pool1_n -> pool1_n_mask
I0630 16:56:02.054965  1785 net.cpp:141] Setting up pool1_n
I0630 16:56:02.054970  1785 net.cpp:148] Top shape: 16 32 96 128 (6291456)
I0630 16:56:02.054971  1785 net.cpp:148] Top shape: 16 32 96 128 (6291456)
I0630 16:56:02.054975  1785 net.cpp:156] Memory required for data: 1406140864
I0630 16:56:02.054976  1785 layer_factory.hpp:77] Creating layer conv2
I0630 16:56:02.054985  1785 net.cpp:91] Creating Layer conv2
I0630 16:56:02.054987  1785 net.cpp:425] conv2 <- pool1
I0630 16:56:02.054991  1785 net.cpp:425] conv2 <- pool1_n
I0630 16:56:02.054996  1785 net.cpp:399] conv2 -> z2_pre
I0630 16:56:02.055001  1785 net.cpp:399] conv2 -> z2_n
I0630 16:56:02.056035  1785 net.cpp:141] Setting up conv2
I0630 16:56:02.056046  1785 net.cpp:148] Top shape: 16 64 96 128 (12582912)
I0630 16:56:02.056049  1785 net.cpp:148] Top shape: 16 64 96 128 (12582912)
I0630 16:56:02.056051  1785 net.cpp:156] Memory required for data: 1506804160
I0630 16:56:02.056057  1785 layer_factory.hpp:77] Creating layer bn2
I0630 16:56:02.056064  1785 net.cpp:91] Creating Layer bn2
I0630 16:56:02.056067  1785 net.cpp:425] bn2 <- z2_pre
I0630 16:56:02.056071  1785 net.cpp:399] bn2 -> z2
I0630 16:56:02.056077  1785 net.cpp:399] bn2 -> bn2_param
I0630 16:56:02.056845  1785 net.cpp:141] Setting up bn2
I0630 16:56:02.056856  1785 net.cpp:148] Top shape: 16 64 96 128 (12582912)
I0630 16:56:02.056860  1785 net.cpp:148] Top shape: 2 64 (128)
I0630 16:56:02.056862  1785 net.cpp:156] Memory required for data: 1557136320
I0630 16:56:02.056869  1785 layer_factory.hpp:77] Creating layer scale2
I0630 16:56:02.056874  1785 net.cpp:91] Creating Layer scale2
I0630 16:56:02.056877  1785 net.cpp:425] scale2 <- z2
I0630 16:56:02.056882  1785 net.cpp:386] scale2 -> z2 (in-place)
I0630 16:56:02.056918  1785 layer_factory.hpp:77] Creating layer scale2
I0630 16:56:02.057013  1785 net.cpp:141] Setting up scale2
I0630 16:56:02.057019  1785 net.cpp:148] Top shape: 16 64 96 128 (12582912)
I0630 16:56:02.057021  1785 net.cpp:156] Memory required for data: 1607467968
I0630 16:56:02.057027  1785 layer_factory.hpp:77] Creating layer relu2
I0630 16:56:02.057032  1785 net.cpp:91] Creating Layer relu2
I0630 16:56:02.057035  1785 net.cpp:425] relu2 <- z2
I0630 16:56:02.057040  1785 net.cpp:386] relu2 -> z2 (in-place)
I0630 16:56:02.057314  1785 net.cpp:141] Setting up relu2
I0630 16:56:02.057325  1785 net.cpp:148] Top shape: 16 64 96 128 (12582912)
I0630 16:56:02.057327  1785 net.cpp:156] Memory required for data: 1657799616
I0630 16:56:02.057330  1785 layer_factory.hpp:77] Creating layer z2_relu2_0_split
I0630 16:56:02.057334  1785 net.cpp:91] Creating Layer z2_relu2_0_split
I0630 16:56:02.057337  1785 net.cpp:425] z2_relu2_0_split <- z2
I0630 16:56:02.057343  1785 net.cpp:399] z2_relu2_0_split -> z2_relu2_0_split_0
I0630 16:56:02.057348  1785 net.cpp:399] z2_relu2_0_split -> z2_relu2_0_split_1
I0630 16:56:02.057384  1785 net.cpp:141] Setting up z2_relu2_0_split
I0630 16:56:02.057387  1785 net.cpp:148] Top shape: 16 64 96 128 (12582912)
I0630 16:56:02.057390  1785 net.cpp:148] Top shape: 16 64 96 128 (12582912)
I0630 16:56:02.057392  1785 net.cpp:156] Memory required for data: 1758462912
I0630 16:56:02.057395  1785 layer_factory.hpp:77] Creating layer bn2_n
I0630 16:56:02.057400  1785 net.cpp:91] Creating Layer bn2_n
I0630 16:56:02.057404  1785 net.cpp:425] bn2_n <- z2_n
I0630 16:56:02.057406  1785 net.cpp:386] bn2_n -> z2_n (in-place)
I0630 16:56:02.057548  1785 net.cpp:141] Setting up bn2_n
I0630 16:56:02.057555  1785 net.cpp:148] Top shape: 16 64 96 128 (12582912)
I0630 16:56:02.057557  1785 net.cpp:156] Memory required for data: 1808794560
I0630 16:56:02.057565  1785 layer_factory.hpp:77] Creating layer noisy_z2_n
I0630 16:56:02.057570  1785 net.cpp:91] Creating Layer noisy_z2_n
I0630 16:56:02.057572  1785 net.cpp:425] noisy_z2_n <- z2_n
I0630 16:56:02.057576  1785 net.cpp:386] noisy_z2_n -> z2_n (in-place)
I0630 16:56:02.057595  1785 net.cpp:141] Setting up noisy_z2_n
I0630 16:56:02.057607  1785 net.cpp:148] Top shape: 16 64 96 128 (12582912)
I0630 16:56:02.057610  1785 net.cpp:156] Memory required for data: 1859126208
I0630 16:56:02.057612  1785 layer_factory.hpp:77] Creating layer scale2_n
I0630 16:56:02.057620  1785 net.cpp:91] Creating Layer scale2_n
I0630 16:56:02.057621  1785 net.cpp:425] scale2_n <- z2_n
I0630 16:56:02.057626  1785 net.cpp:386] scale2_n -> z2_n (in-place)
I0630 16:56:02.057659  1785 layer_factory.hpp:77] Creating layer scale2_n
I0630 16:56:02.057751  1785 net.cpp:141] Setting up scale2_n
I0630 16:56:02.057759  1785 net.cpp:148] Top shape: 16 64 96 128 (12582912)
I0630 16:56:02.057761  1785 net.cpp:156] Memory required for data: 1909457856
I0630 16:56:02.057765  1785 net.cpp:484] Sharing parameters 'scale2_w' owned by layer 'scale2', param index 0
I0630 16:56:02.057767  1785 net.cpp:484] Sharing parameters 'scale2_b' owned by layer 'scale2', param index 1
I0630 16:56:02.057770  1785 layer_factory.hpp:77] Creating layer relu2_n
I0630 16:56:02.057775  1785 net.cpp:91] Creating Layer relu2_n
I0630 16:56:02.057776  1785 net.cpp:425] relu2_n <- z2_n
I0630 16:56:02.057780  1785 net.cpp:386] relu2_n -> z2_n (in-place)
I0630 16:56:02.057916  1785 net.cpp:141] Setting up relu2_n
I0630 16:56:02.057924  1785 net.cpp:148] Top shape: 16 64 96 128 (12582912)
I0630 16:56:02.057926  1785 net.cpp:156] Memory required for data: 1959789504
I0630 16:56:02.057929  1785 layer_factory.hpp:77] Creating layer z2_n_relu2_n_0_split
I0630 16:56:02.057934  1785 net.cpp:91] Creating Layer z2_n_relu2_n_0_split
I0630 16:56:02.057935  1785 net.cpp:425] z2_n_relu2_n_0_split <- z2_n
I0630 16:56:02.057940  1785 net.cpp:399] z2_n_relu2_n_0_split -> z2_n_relu2_n_0_split_0
I0630 16:56:02.057945  1785 net.cpp:399] z2_n_relu2_n_0_split -> z2_n_relu2_n_0_split_1
I0630 16:56:02.057977  1785 net.cpp:141] Setting up z2_n_relu2_n_0_split
I0630 16:56:02.057981  1785 net.cpp:148] Top shape: 16 64 96 128 (12582912)
I0630 16:56:02.057984  1785 net.cpp:148] Top shape: 16 64 96 128 (12582912)
I0630 16:56:02.057986  1785 net.cpp:156] Memory required for data: 2060452800
I0630 16:56:02.057988  1785 layer_factory.hpp:77] Creating layer pool2
I0630 16:56:02.057993  1785 net.cpp:91] Creating Layer pool2
I0630 16:56:02.057996  1785 net.cpp:425] pool2 <- z2_relu2_0_split_0
I0630 16:56:02.058002  1785 net.cpp:399] pool2 -> pool2
I0630 16:56:02.058029  1785 net.cpp:141] Setting up pool2
I0630 16:56:02.058033  1785 net.cpp:148] Top shape: 16 64 48 64 (3145728)
I0630 16:56:02.058035  1785 net.cpp:156] Memory required for data: 2073035712
I0630 16:56:02.058037  1785 layer_factory.hpp:77] Creating layer pool2_n
I0630 16:56:02.058040  1785 layer_factory.cpp:90] cuDNN does not support multiple tops. Using Caffe's own pooling layer.
I0630 16:56:02.058045  1785 net.cpp:91] Creating Layer pool2_n
I0630 16:56:02.058048  1785 net.cpp:425] pool2_n <- z2_n_relu2_n_0_split_0
I0630 16:56:02.058050  1785 net.cpp:399] pool2_n -> pool2_n
I0630 16:56:02.058054  1785 net.cpp:399] pool2_n -> pool2_n_mask
I0630 16:56:02.058080  1785 net.cpp:141] Setting up pool2_n
I0630 16:56:02.058084  1785 net.cpp:148] Top shape: 16 64 48 64 (3145728)
I0630 16:56:02.058087  1785 net.cpp:148] Top shape: 16 64 48 64 (3145728)
I0630 16:56:02.058089  1785 net.cpp:156] Memory required for data: 2098201536
I0630 16:56:02.058091  1785 layer_factory.hpp:77] Creating layer conv3
I0630 16:56:02.058099  1785 net.cpp:91] Creating Layer conv3
I0630 16:56:02.058100  1785 net.cpp:425] conv3 <- pool2
I0630 16:56:02.058104  1785 net.cpp:425] conv3 <- pool2_n
I0630 16:56:02.058109  1785 net.cpp:399] conv3 -> z3_pre
I0630 16:56:02.058115  1785 net.cpp:399] conv3 -> z3_n
I0630 16:56:02.060052  1785 net.cpp:141] Setting up conv3
I0630 16:56:02.060065  1785 net.cpp:148] Top shape: 16 128 48 64 (6291456)
I0630 16:56:02.060068  1785 net.cpp:148] Top shape: 16 128 48 64 (6291456)
I0630 16:56:02.060070  1785 net.cpp:156] Memory required for data: 2148533184
I0630 16:56:02.060075  1785 layer_factory.hpp:77] Creating layer bn3
I0630 16:56:02.060082  1785 net.cpp:91] Creating Layer bn3
I0630 16:56:02.060094  1785 net.cpp:425] bn3 <- z3_pre
I0630 16:56:02.060099  1785 net.cpp:399] bn3 -> z3
I0630 16:56:02.060106  1785 net.cpp:399] bn3 -> bn3_param
I0630 16:56:02.060876  1785 net.cpp:141] Setting up bn3
I0630 16:56:02.060888  1785 net.cpp:148] Top shape: 16 128 48 64 (6291456)
I0630 16:56:02.060890  1785 net.cpp:148] Top shape: 2 128 (256)
I0630 16:56:02.060892  1785 net.cpp:156] Memory required for data: 2173700032
I0630 16:56:02.060899  1785 layer_factory.hpp:77] Creating layer scale3
I0630 16:56:02.060909  1785 net.cpp:91] Creating Layer scale3
I0630 16:56:02.060911  1785 net.cpp:425] scale3 <- z3
I0630 16:56:02.060916  1785 net.cpp:386] scale3 -> z3 (in-place)
I0630 16:56:02.060952  1785 layer_factory.hpp:77] Creating layer scale3
I0630 16:56:02.061033  1785 net.cpp:141] Setting up scale3
I0630 16:56:02.061039  1785 net.cpp:148] Top shape: 16 128 48 64 (6291456)
I0630 16:56:02.061043  1785 net.cpp:156] Memory required for data: 2198865856
I0630 16:56:02.061048  1785 layer_factory.hpp:77] Creating layer relu3
I0630 16:56:02.061054  1785 net.cpp:91] Creating Layer relu3
I0630 16:56:02.061058  1785 net.cpp:425] relu3 <- z3
I0630 16:56:02.061061  1785 net.cpp:386] relu3 -> z3 (in-place)
I0630 16:56:02.061333  1785 net.cpp:141] Setting up relu3
I0630 16:56:02.061344  1785 net.cpp:148] Top shape: 16 128 48 64 (6291456)
I0630 16:56:02.061347  1785 net.cpp:156] Memory required for data: 2224031680
I0630 16:56:02.061349  1785 layer_factory.hpp:77] Creating layer z3_relu3_0_split
I0630 16:56:02.061355  1785 net.cpp:91] Creating Layer z3_relu3_0_split
I0630 16:56:02.061358  1785 net.cpp:425] z3_relu3_0_split <- z3
I0630 16:56:02.061362  1785 net.cpp:399] z3_relu3_0_split -> z3_relu3_0_split_0
I0630 16:56:02.061367  1785 net.cpp:399] z3_relu3_0_split -> z3_relu3_0_split_1
I0630 16:56:02.061403  1785 net.cpp:141] Setting up z3_relu3_0_split
I0630 16:56:02.061406  1785 net.cpp:148] Top shape: 16 128 48 64 (6291456)
I0630 16:56:02.061409  1785 net.cpp:148] Top shape: 16 128 48 64 (6291456)
I0630 16:56:02.061411  1785 net.cpp:156] Memory required for data: 2274363328
I0630 16:56:02.061414  1785 layer_factory.hpp:77] Creating layer bn3_n
I0630 16:56:02.061419  1785 net.cpp:91] Creating Layer bn3_n
I0630 16:56:02.061421  1785 net.cpp:425] bn3_n <- z3_n
I0630 16:56:02.061425  1785 net.cpp:386] bn3_n -> z3_n (in-place)
I0630 16:56:02.061558  1785 net.cpp:141] Setting up bn3_n
I0630 16:56:02.061565  1785 net.cpp:148] Top shape: 16 128 48 64 (6291456)
I0630 16:56:02.061568  1785 net.cpp:156] Memory required for data: 2299529152
I0630 16:56:02.061573  1785 layer_factory.hpp:77] Creating layer noisy_z3_n
I0630 16:56:02.061579  1785 net.cpp:91] Creating Layer noisy_z3_n
I0630 16:56:02.061581  1785 net.cpp:425] noisy_z3_n <- z3_n
I0630 16:56:02.061585  1785 net.cpp:386] noisy_z3_n -> z3_n (in-place)
I0630 16:56:02.061602  1785 net.cpp:141] Setting up noisy_z3_n
I0630 16:56:02.061606  1785 net.cpp:148] Top shape: 16 128 48 64 (6291456)
I0630 16:56:02.061609  1785 net.cpp:156] Memory required for data: 2324694976
I0630 16:56:02.061610  1785 layer_factory.hpp:77] Creating layer scale3_n
I0630 16:56:02.061617  1785 net.cpp:91] Creating Layer scale3_n
I0630 16:56:02.061619  1785 net.cpp:425] scale3_n <- z3_n
I0630 16:56:02.061622  1785 net.cpp:386] scale3_n -> z3_n (in-place)
I0630 16:56:02.061653  1785 layer_factory.hpp:77] Creating layer scale3_n
I0630 16:56:02.061731  1785 net.cpp:141] Setting up scale3_n
I0630 16:56:02.061738  1785 net.cpp:148] Top shape: 16 128 48 64 (6291456)
I0630 16:56:02.061740  1785 net.cpp:156] Memory required for data: 2349860800
I0630 16:56:02.061743  1785 net.cpp:484] Sharing parameters 'scale3_w' owned by layer 'scale3', param index 0
I0630 16:56:02.061749  1785 net.cpp:484] Sharing parameters 'scale3_b' owned by layer 'scale3', param index 1
I0630 16:56:02.061751  1785 layer_factory.hpp:77] Creating layer relu3_n
I0630 16:56:02.061758  1785 net.cpp:91] Creating Layer relu3_n
I0630 16:56:02.061759  1785 net.cpp:425] relu3_n <- z3_n
I0630 16:56:02.061764  1785 net.cpp:386] relu3_n -> z3_n (in-place)
I0630 16:56:02.061913  1785 net.cpp:141] Setting up relu3_n
I0630 16:56:02.061923  1785 net.cpp:148] Top shape: 16 128 48 64 (6291456)
I0630 16:56:02.061926  1785 net.cpp:156] Memory required for data: 2375026624
I0630 16:56:02.061928  1785 layer_factory.hpp:77] Creating layer z3_n_relu3_n_0_split
I0630 16:56:02.061933  1785 net.cpp:91] Creating Layer z3_n_relu3_n_0_split
I0630 16:56:02.061935  1785 net.cpp:425] z3_n_relu3_n_0_split <- z3_n
I0630 16:56:02.061939  1785 net.cpp:399] z3_n_relu3_n_0_split -> z3_n_relu3_n_0_split_0
I0630 16:56:02.061944  1785 net.cpp:399] z3_n_relu3_n_0_split -> z3_n_relu3_n_0_split_1
I0630 16:56:02.061978  1785 net.cpp:141] Setting up z3_n_relu3_n_0_split
I0630 16:56:02.061985  1785 net.cpp:148] Top shape: 16 128 48 64 (6291456)
I0630 16:56:02.061987  1785 net.cpp:148] Top shape: 16 128 48 64 (6291456)
I0630 16:56:02.061988  1785 net.cpp:156] Memory required for data: 2425358272
I0630 16:56:02.061991  1785 layer_factory.hpp:77] Creating layer pool3
I0630 16:56:02.061996  1785 net.cpp:91] Creating Layer pool3
I0630 16:56:02.062000  1785 net.cpp:425] pool3 <- z3_relu3_0_split_0
I0630 16:56:02.062002  1785 net.cpp:399] pool3 -> pool3
I0630 16:56:02.062032  1785 net.cpp:141] Setting up pool3
I0630 16:56:02.062036  1785 net.cpp:148] Top shape: 16 128 24 32 (1572864)
I0630 16:56:02.062038  1785 net.cpp:156] Memory required for data: 2431649728
I0630 16:56:02.062041  1785 layer_factory.hpp:77] Creating layer pool3_n
I0630 16:56:02.062043  1785 layer_factory.cpp:90] cuDNN does not support multiple tops. Using Caffe's own pooling layer.
I0630 16:56:02.062047  1785 net.cpp:91] Creating Layer pool3_n
I0630 16:56:02.062048  1785 net.cpp:425] pool3_n <- z3_n_relu3_n_0_split_0
I0630 16:56:02.062053  1785 net.cpp:399] pool3_n -> pool3_n
I0630 16:56:02.062057  1785 net.cpp:399] pool3_n -> pool3_n_mask
I0630 16:56:02.062083  1785 net.cpp:141] Setting up pool3_n
I0630 16:56:02.062086  1785 net.cpp:148] Top shape: 16 128 24 32 (1572864)
I0630 16:56:02.062088  1785 net.cpp:148] Top shape: 16 128 24 32 (1572864)
I0630 16:56:02.062090  1785 net.cpp:156] Memory required for data: 2444232640
I0630 16:56:02.062093  1785 layer_factory.hpp:77] Creating layer conv4
I0630 16:56:02.062099  1785 net.cpp:91] Creating Layer conv4
I0630 16:56:02.062103  1785 net.cpp:425] conv4 <- pool3
I0630 16:56:02.062105  1785 net.cpp:425] conv4 <- pool3_n
I0630 16:56:02.062108  1785 net.cpp:399] conv4 -> z4_pre
I0630 16:56:02.062114  1785 net.cpp:399] conv4 -> z4_n
I0630 16:56:02.065412  1785 net.cpp:141] Setting up conv4
I0630 16:56:02.065426  1785 net.cpp:148] Top shape: 16 256 24 32 (3145728)
I0630 16:56:02.065430  1785 net.cpp:148] Top shape: 16 256 24 32 (3145728)
I0630 16:56:02.065433  1785 net.cpp:156] Memory required for data: 2469398464
I0630 16:56:02.065438  1785 layer_factory.hpp:77] Creating layer bn4
I0630 16:56:02.065445  1785 net.cpp:91] Creating Layer bn4
I0630 16:56:02.065449  1785 net.cpp:425] bn4 <- z4_pre
I0630 16:56:02.065454  1785 net.cpp:399] bn4 -> z4
I0630 16:56:02.065459  1785 net.cpp:399] bn4 -> bn4_param
I0630 16:56:02.065635  1785 net.cpp:141] Setting up bn4
I0630 16:56:02.065644  1785 net.cpp:148] Top shape: 16 256 24 32 (3145728)
I0630 16:56:02.065645  1785 net.cpp:148] Top shape: 2 256 (512)
I0630 16:56:02.065649  1785 net.cpp:156] Memory required for data: 2481983424
I0630 16:56:02.065654  1785 layer_factory.hpp:77] Creating layer scale4
I0630 16:56:02.065661  1785 net.cpp:91] Creating Layer scale4
I0630 16:56:02.065663  1785 net.cpp:425] scale4 <- z4
I0630 16:56:02.065668  1785 net.cpp:386] scale4 -> z4 (in-place)
I0630 16:56:02.065702  1785 layer_factory.hpp:77] Creating layer scale4
I0630 16:56:02.065783  1785 net.cpp:141] Setting up scale4
I0630 16:56:02.065790  1785 net.cpp:148] Top shape: 16 256 24 32 (3145728)
I0630 16:56:02.065793  1785 net.cpp:156] Memory required for data: 2494566336
I0630 16:56:02.065798  1785 layer_factory.hpp:77] Creating layer relu4
I0630 16:56:02.065804  1785 net.cpp:91] Creating Layer relu4
I0630 16:56:02.065806  1785 net.cpp:425] relu4 <- z4
I0630 16:56:02.065809  1785 net.cpp:386] relu4 -> z4 (in-place)
I0630 16:56:02.065968  1785 net.cpp:141] Setting up relu4
I0630 16:56:02.065979  1785 net.cpp:148] Top shape: 16 256 24 32 (3145728)
I0630 16:56:02.065980  1785 net.cpp:156] Memory required for data: 2507149248
I0630 16:56:02.065984  1785 layer_factory.hpp:77] Creating layer z4_relu4_0_split
I0630 16:56:02.065989  1785 net.cpp:91] Creating Layer z4_relu4_0_split
I0630 16:56:02.065990  1785 net.cpp:425] z4_relu4_0_split <- z4
I0630 16:56:02.065994  1785 net.cpp:399] z4_relu4_0_split -> z4_relu4_0_split_0
I0630 16:56:02.065999  1785 net.cpp:399] z4_relu4_0_split -> z4_relu4_0_split_1
I0630 16:56:02.066035  1785 net.cpp:141] Setting up z4_relu4_0_split
I0630 16:56:02.066038  1785 net.cpp:148] Top shape: 16 256 24 32 (3145728)
I0630 16:56:02.066041  1785 net.cpp:148] Top shape: 16 256 24 32 (3145728)
I0630 16:56:02.066043  1785 net.cpp:156] Memory required for data: 2532315072
I0630 16:56:02.066045  1785 layer_factory.hpp:77] Creating layer bn4_n
I0630 16:56:02.066051  1785 net.cpp:91] Creating Layer bn4_n
I0630 16:56:02.066054  1785 net.cpp:425] bn4_n <- z4_n
I0630 16:56:02.066058  1785 net.cpp:386] bn4_n -> z4_n (in-place)
I0630 16:56:02.066200  1785 net.cpp:141] Setting up bn4_n
I0630 16:56:02.066207  1785 net.cpp:148] Top shape: 16 256 24 32 (3145728)
I0630 16:56:02.066211  1785 net.cpp:156] Memory required for data: 2544897984
I0630 16:56:02.066217  1785 layer_factory.hpp:77] Creating layer noisy_z4_n
I0630 16:56:02.066222  1785 net.cpp:91] Creating Layer noisy_z4_n
I0630 16:56:02.066225  1785 net.cpp:425] noisy_z4_n <- z4_n
I0630 16:56:02.066228  1785 net.cpp:386] noisy_z4_n -> z4_n (in-place)
I0630 16:56:02.066248  1785 net.cpp:141] Setting up noisy_z4_n
I0630 16:56:02.066256  1785 net.cpp:148] Top shape: 16 256 24 32 (3145728)
I0630 16:56:02.066260  1785 net.cpp:156] Memory required for data: 2557480896
I0630 16:56:02.066264  1785 layer_factory.hpp:77] Creating layer scale4_n
I0630 16:56:02.066272  1785 net.cpp:91] Creating Layer scale4_n
I0630 16:56:02.066277  1785 net.cpp:425] scale4_n <- z4_n
I0630 16:56:02.066282  1785 net.cpp:386] scale4_n -> z4_n (in-place)
I0630 16:56:02.066331  1785 layer_factory.hpp:77] Creating layer scale4_n
I0630 16:56:02.066419  1785 net.cpp:141] Setting up scale4_n
I0630 16:56:02.066426  1785 net.cpp:148] Top shape: 16 256 24 32 (3145728)
I0630 16:56:02.066428  1785 net.cpp:156] Memory required for data: 2570063808
I0630 16:56:02.066431  1785 net.cpp:484] Sharing parameters 'scale4_w' owned by layer 'scale4', param index 0
I0630 16:56:02.066434  1785 net.cpp:484] Sharing parameters 'scale4_b' owned by layer 'scale4', param index 1
I0630 16:56:02.066437  1785 layer_factory.hpp:77] Creating layer relu4_n
I0630 16:56:02.066442  1785 net.cpp:91] Creating Layer relu4_n
I0630 16:56:02.066444  1785 net.cpp:425] relu4_n <- z4_n
I0630 16:56:02.066448  1785 net.cpp:386] relu4_n -> z4_n (in-place)
I0630 16:56:02.066726  1785 net.cpp:141] Setting up relu4_n
I0630 16:56:02.066737  1785 net.cpp:148] Top shape: 16 256 24 32 (3145728)
I0630 16:56:02.066740  1785 net.cpp:156] Memory required for data: 2582646720
I0630 16:56:02.066743  1785 layer_factory.hpp:77] Creating layer z4_n_relu4_n_0_split
I0630 16:56:02.066750  1785 net.cpp:91] Creating Layer z4_n_relu4_n_0_split
I0630 16:56:02.066757  1785 net.cpp:425] z4_n_relu4_n_0_split <- z4_n
I0630 16:56:02.066762  1785 net.cpp:399] z4_n_relu4_n_0_split -> z4_n_relu4_n_0_split_0
I0630 16:56:02.066768  1785 net.cpp:399] z4_n_relu4_n_0_split -> z4_n_relu4_n_0_split_1
I0630 16:56:02.066819  1785 net.cpp:141] Setting up z4_n_relu4_n_0_split
I0630 16:56:02.066829  1785 net.cpp:148] Top shape: 16 256 24 32 (3145728)
I0630 16:56:02.066834  1785 net.cpp:148] Top shape: 16 256 24 32 (3145728)
I0630 16:56:02.066838  1785 net.cpp:156] Memory required for data: 2607812544
I0630 16:56:02.066841  1785 layer_factory.hpp:77] Creating layer pool4
I0630 16:56:02.066850  1785 net.cpp:91] Creating Layer pool4
I0630 16:56:02.066857  1785 net.cpp:425] pool4 <- z4_relu4_0_split_0
I0630 16:56:02.066864  1785 net.cpp:399] pool4 -> pool4
I0630 16:56:02.066910  1785 net.cpp:141] Setting up pool4
I0630 16:56:02.066928  1785 net.cpp:148] Top shape: 16 256 12 16 (786432)
I0630 16:56:02.066932  1785 net.cpp:156] Memory required for data: 2610958272
I0630 16:56:02.066936  1785 layer_factory.hpp:77] Creating layer pool4_n
I0630 16:56:02.066941  1785 layer_factory.cpp:90] cuDNN does not support multiple tops. Using Caffe's own pooling layer.
I0630 16:56:02.066947  1785 net.cpp:91] Creating Layer pool4_n
I0630 16:56:02.066953  1785 net.cpp:425] pool4_n <- z4_n_relu4_n_0_split_0
I0630 16:56:02.066962  1785 net.cpp:399] pool4_n -> pool4_n
I0630 16:56:02.066967  1785 net.cpp:399] pool4_n -> pool4_n_mask
I0630 16:56:02.067000  1785 net.cpp:141] Setting up pool4_n
I0630 16:56:02.067006  1785 net.cpp:148] Top shape: 16 256 12 16 (786432)
I0630 16:56:02.067009  1785 net.cpp:148] Top shape: 16 256 12 16 (786432)
I0630 16:56:02.067011  1785 net.cpp:156] Memory required for data: 2617249728
I0630 16:56:02.067014  1785 layer_factory.hpp:77] Creating layer conv5
I0630 16:56:02.067024  1785 net.cpp:91] Creating Layer conv5
I0630 16:56:02.067028  1785 net.cpp:425] conv5 <- pool4
I0630 16:56:02.067031  1785 net.cpp:425] conv5 <- pool4_n
I0630 16:56:02.067034  1785 net.cpp:399] conv5 -> z5_pre
I0630 16:56:02.067039  1785 net.cpp:399] conv5 -> z5_n
I0630 16:56:02.072638  1785 net.cpp:141] Setting up conv5
I0630 16:56:02.072654  1785 net.cpp:148] Top shape: 16 256 12 16 (786432)
I0630 16:56:02.072657  1785 net.cpp:148] Top shape: 16 256 12 16 (786432)
I0630 16:56:02.072659  1785 net.cpp:156] Memory required for data: 2623541184
I0630 16:56:02.072664  1785 layer_factory.hpp:77] Creating layer bn5
I0630 16:56:02.072672  1785 net.cpp:91] Creating Layer bn5
I0630 16:56:02.072676  1785 net.cpp:425] bn5 <- z5_pre
I0630 16:56:02.072682  1785 net.cpp:399] bn5 -> z5
I0630 16:56:02.072688  1785 net.cpp:399] bn5 -> bn5_param
I0630 16:56:02.072865  1785 net.cpp:141] Setting up bn5
I0630 16:56:02.072872  1785 net.cpp:148] Top shape: 16 256 12 16 (786432)
I0630 16:56:02.072875  1785 net.cpp:148] Top shape: 2 256 (512)
I0630 16:56:02.072877  1785 net.cpp:156] Memory required for data: 2626688960
I0630 16:56:02.072883  1785 layer_factory.hpp:77] Creating layer scale5
I0630 16:56:02.072890  1785 net.cpp:91] Creating Layer scale5
I0630 16:56:02.072892  1785 net.cpp:425] scale5 <- z5
I0630 16:56:02.072897  1785 net.cpp:386] scale5 -> z5 (in-place)
I0630 16:56:02.072933  1785 layer_factory.hpp:77] Creating layer scale5
I0630 16:56:02.073022  1785 net.cpp:141] Setting up scale5
I0630 16:56:02.073029  1785 net.cpp:148] Top shape: 16 256 12 16 (786432)
I0630 16:56:02.073032  1785 net.cpp:156] Memory required for data: 2629834688
I0630 16:56:02.073036  1785 layer_factory.hpp:77] Creating layer relu5
I0630 16:56:02.073041  1785 net.cpp:91] Creating Layer relu5
I0630 16:56:02.073043  1785 net.cpp:425] relu5 <- z5
I0630 16:56:02.073048  1785 net.cpp:386] relu5 -> z5 (in-place)
I0630 16:56:02.073194  1785 net.cpp:141] Setting up relu5
I0630 16:56:02.073202  1785 net.cpp:148] Top shape: 16 256 12 16 (786432)
I0630 16:56:02.073205  1785 net.cpp:156] Memory required for data: 2632980416
I0630 16:56:02.073209  1785 layer_factory.hpp:77] Creating layer z5_relu5_0_split
I0630 16:56:02.073213  1785 net.cpp:91] Creating Layer z5_relu5_0_split
I0630 16:56:02.073216  1785 net.cpp:425] z5_relu5_0_split <- z5
I0630 16:56:02.073220  1785 net.cpp:399] z5_relu5_0_split -> z5_relu5_0_split_0
I0630 16:56:02.073225  1785 net.cpp:399] z5_relu5_0_split -> z5_relu5_0_split_1
I0630 16:56:02.073261  1785 net.cpp:141] Setting up z5_relu5_0_split
I0630 16:56:02.073266  1785 net.cpp:148] Top shape: 16 256 12 16 (786432)
I0630 16:56:02.073268  1785 net.cpp:148] Top shape: 16 256 12 16 (786432)
I0630 16:56:02.073271  1785 net.cpp:156] Memory required for data: 2639271872
I0630 16:56:02.073272  1785 layer_factory.hpp:77] Creating layer bn5_n
I0630 16:56:02.073282  1785 net.cpp:91] Creating Layer bn5_n
I0630 16:56:02.073283  1785 net.cpp:425] bn5_n <- z5_n
I0630 16:56:02.073287  1785 net.cpp:386] bn5_n -> z5_n (in-place)
I0630 16:56:02.073427  1785 net.cpp:141] Setting up bn5_n
I0630 16:56:02.073444  1785 net.cpp:148] Top shape: 16 256 12 16 (786432)
I0630 16:56:02.073447  1785 net.cpp:156] Memory required for data: 2642417600
I0630 16:56:02.073452  1785 layer_factory.hpp:77] Creating layer noisy_z5_n
I0630 16:56:02.073457  1785 net.cpp:91] Creating Layer noisy_z5_n
I0630 16:56:02.073460  1785 net.cpp:425] noisy_z5_n <- z5_n
I0630 16:56:02.073464  1785 net.cpp:386] noisy_z5_n -> z5_n (in-place)
I0630 16:56:02.073487  1785 net.cpp:141] Setting up noisy_z5_n
I0630 16:56:02.073493  1785 net.cpp:148] Top shape: 16 256 12 16 (786432)
I0630 16:56:02.073495  1785 net.cpp:156] Memory required for data: 2645563328
I0630 16:56:02.073498  1785 layer_factory.hpp:77] Creating layer scale5_n
I0630 16:56:02.073503  1785 net.cpp:91] Creating Layer scale5_n
I0630 16:56:02.073505  1785 net.cpp:425] scale5_n <- z5_n
I0630 16:56:02.073509  1785 net.cpp:386] scale5_n -> z5_n (in-place)
I0630 16:56:02.073541  1785 layer_factory.hpp:77] Creating layer scale5_n
I0630 16:56:02.073626  1785 net.cpp:141] Setting up scale5_n
I0630 16:56:02.073634  1785 net.cpp:148] Top shape: 16 256 12 16 (786432)
I0630 16:56:02.073637  1785 net.cpp:156] Memory required for data: 2648709056
I0630 16:56:02.073639  1785 net.cpp:484] Sharing parameters 'scale5_w' owned by layer 'scale5', param index 0
I0630 16:56:02.073642  1785 net.cpp:484] Sharing parameters 'scale5_b' owned by layer 'scale5', param index 1
I0630 16:56:02.073645  1785 layer_factory.hpp:77] Creating layer relu5_n
I0630 16:56:02.073649  1785 net.cpp:91] Creating Layer relu5_n
I0630 16:56:02.073652  1785 net.cpp:425] relu5_n <- z5_n
I0630 16:56:02.073655  1785 net.cpp:386] relu5_n -> z5_n (in-place)
I0630 16:56:02.073928  1785 net.cpp:141] Setting up relu5_n
I0630 16:56:02.073940  1785 net.cpp:148] Top shape: 16 256 12 16 (786432)
I0630 16:56:02.073941  1785 net.cpp:156] Memory required for data: 2651854784
I0630 16:56:02.073945  1785 layer_factory.hpp:77] Creating layer z5_n_relu5_n_0_split
I0630 16:56:02.073951  1785 net.cpp:91] Creating Layer z5_n_relu5_n_0_split
I0630 16:56:02.073953  1785 net.cpp:425] z5_n_relu5_n_0_split <- z5_n
I0630 16:56:02.073957  1785 net.cpp:399] z5_n_relu5_n_0_split -> z5_n_relu5_n_0_split_0
I0630 16:56:02.073962  1785 net.cpp:399] z5_n_relu5_n_0_split -> z5_n_relu5_n_0_split_1
I0630 16:56:02.074004  1785 net.cpp:141] Setting up z5_n_relu5_n_0_split
I0630 16:56:02.074010  1785 net.cpp:148] Top shape: 16 256 12 16 (786432)
I0630 16:56:02.074013  1785 net.cpp:148] Top shape: 16 256 12 16 (786432)
I0630 16:56:02.074015  1785 net.cpp:156] Memory required for data: 2658146240
I0630 16:56:02.074018  1785 layer_factory.hpp:77] Creating layer pool5
I0630 16:56:02.074023  1785 net.cpp:91] Creating Layer pool5
I0630 16:56:02.074025  1785 net.cpp:425] pool5 <- z5_relu5_0_split_0
I0630 16:56:02.074029  1785 net.cpp:399] pool5 -> pool5
I0630 16:56:02.074060  1785 net.cpp:141] Setting up pool5
I0630 16:56:02.074066  1785 net.cpp:148] Top shape: 16 256 6 8 (196608)
I0630 16:56:02.074069  1785 net.cpp:156] Memory required for data: 2658932672
I0630 16:56:02.074071  1785 layer_factory.hpp:77] Creating layer pool5_n
I0630 16:56:02.074074  1785 layer_factory.cpp:90] cuDNN does not support multiple tops. Using Caffe's own pooling layer.
I0630 16:56:02.074086  1785 net.cpp:91] Creating Layer pool5_n
I0630 16:56:02.074090  1785 net.cpp:425] pool5_n <- z5_n_relu5_n_0_split_0
I0630 16:56:02.074095  1785 net.cpp:399] pool5_n -> pool5_n
I0630 16:56:02.074100  1785 net.cpp:399] pool5_n -> pool5_n_mask
I0630 16:56:02.074134  1785 net.cpp:141] Setting up pool5_n
I0630 16:56:02.074141  1785 net.cpp:148] Top shape: 16 256 6 8 (196608)
I0630 16:56:02.074144  1785 net.cpp:148] Top shape: 16 256 6 8 (196608)
I0630 16:56:02.074147  1785 net.cpp:156] Memory required for data: 2660505536
I0630 16:56:02.074149  1785 layer_factory.hpp:77] Creating layer conv6
I0630 16:56:02.074157  1785 net.cpp:91] Creating Layer conv6
I0630 16:56:02.074161  1785 net.cpp:425] conv6 <- pool5
I0630 16:56:02.074163  1785 net.cpp:425] conv6 <- pool5_n
I0630 16:56:02.074167  1785 net.cpp:399] conv6 -> z6_pre
I0630 16:56:02.074182  1785 net.cpp:399] conv6 -> z6_n
I0630 16:56:02.079695  1785 net.cpp:141] Setting up conv6
I0630 16:56:02.079710  1785 net.cpp:148] Top shape: 16 256 6 8 (196608)
I0630 16:56:02.079712  1785 net.cpp:148] Top shape: 16 256 6 8 (196608)
I0630 16:56:02.079715  1785 net.cpp:156] Memory required for data: 2662078400
I0630 16:56:02.079720  1785 layer_factory.hpp:77] Creating layer bn6
I0630 16:56:02.079727  1785 net.cpp:91] Creating Layer bn6
I0630 16:56:02.079730  1785 net.cpp:425] bn6 <- z6_pre
I0630 16:56:02.079735  1785 net.cpp:399] bn6 -> z6
I0630 16:56:02.079741  1785 net.cpp:399] bn6 -> bn6_param
I0630 16:56:02.079919  1785 net.cpp:141] Setting up bn6
I0630 16:56:02.079926  1785 net.cpp:148] Top shape: 16 256 6 8 (196608)
I0630 16:56:02.079929  1785 net.cpp:148] Top shape: 2 256 (512)
I0630 16:56:02.079931  1785 net.cpp:156] Memory required for data: 2662866880
I0630 16:56:02.079937  1785 layer_factory.hpp:77] Creating layer scale6
I0630 16:56:02.079943  1785 net.cpp:91] Creating Layer scale6
I0630 16:56:02.079946  1785 net.cpp:425] scale6 <- z6
I0630 16:56:02.079951  1785 net.cpp:386] scale6 -> z6 (in-place)
I0630 16:56:02.079987  1785 layer_factory.hpp:77] Creating layer scale6
I0630 16:56:02.080076  1785 net.cpp:141] Setting up scale6
I0630 16:56:02.080083  1785 net.cpp:148] Top shape: 16 256 6 8 (196608)
I0630 16:56:02.080085  1785 net.cpp:156] Memory required for data: 2663653312
I0630 16:56:02.080090  1785 layer_factory.hpp:77] Creating layer relu6
I0630 16:56:02.080095  1785 net.cpp:91] Creating Layer relu6
I0630 16:56:02.080097  1785 net.cpp:425] relu6 <- z6
I0630 16:56:02.080101  1785 net.cpp:386] relu6 -> z6 (in-place)
I0630 16:56:02.080255  1785 net.cpp:141] Setting up relu6
I0630 16:56:02.080265  1785 net.cpp:148] Top shape: 16 256 6 8 (196608)
I0630 16:56:02.080267  1785 net.cpp:156] Memory required for data: 2664439744
I0630 16:56:02.080270  1785 layer_factory.hpp:77] Creating layer z6_relu6_0_split
I0630 16:56:02.080276  1785 net.cpp:91] Creating Layer z6_relu6_0_split
I0630 16:56:02.080277  1785 net.cpp:425] z6_relu6_0_split <- z6
I0630 16:56:02.080281  1785 net.cpp:399] z6_relu6_0_split -> z6_relu6_0_split_0
I0630 16:56:02.080286  1785 net.cpp:399] z6_relu6_0_split -> z6_relu6_0_split_1
I0630 16:56:02.080324  1785 net.cpp:141] Setting up z6_relu6_0_split
I0630 16:56:02.080330  1785 net.cpp:148] Top shape: 16 256 6 8 (196608)
I0630 16:56:02.080333  1785 net.cpp:148] Top shape: 16 256 6 8 (196608)
I0630 16:56:02.080335  1785 net.cpp:156] Memory required for data: 2666012608
I0630 16:56:02.080338  1785 layer_factory.hpp:77] Creating layer bn6_n
I0630 16:56:02.080343  1785 net.cpp:91] Creating Layer bn6_n
I0630 16:56:02.080345  1785 net.cpp:425] bn6_n <- z6_n
I0630 16:56:02.080351  1785 net.cpp:386] bn6_n -> z6_n (in-place)
I0630 16:56:02.080499  1785 net.cpp:141] Setting up bn6_n
I0630 16:56:02.080507  1785 net.cpp:148] Top shape: 16 256 6 8 (196608)
I0630 16:56:02.080508  1785 net.cpp:156] Memory required for data: 2666799040
I0630 16:56:02.080514  1785 layer_factory.hpp:77] Creating layer scale6_n
I0630 16:56:02.080520  1785 net.cpp:91] Creating Layer scale6_n
I0630 16:56:02.080523  1785 net.cpp:425] scale6_n <- z6_n
I0630 16:56:02.080528  1785 net.cpp:386] scale6_n -> z6_n (in-place)
I0630 16:56:02.080559  1785 layer_factory.hpp:77] Creating layer scale6_n
I0630 16:56:02.080646  1785 net.cpp:141] Setting up scale6_n
I0630 16:56:02.080652  1785 net.cpp:148] Top shape: 16 256 6 8 (196608)
I0630 16:56:02.080654  1785 net.cpp:156] Memory required for data: 2667585472
I0630 16:56:02.080664  1785 net.cpp:484] Sharing parameters 'scale6_w' owned by layer 'scale6', param index 0
I0630 16:56:02.080668  1785 net.cpp:484] Sharing parameters 'scale6_b' owned by layer 'scale6', param index 1
I0630 16:56:02.080672  1785 layer_factory.hpp:77] Creating layer relu6_n
I0630 16:56:02.080675  1785 net.cpp:91] Creating Layer relu6_n
I0630 16:56:02.080677  1785 net.cpp:425] relu6_n <- z6_n
I0630 16:56:02.080682  1785 net.cpp:386] relu6_n -> z6_n (in-place)
I0630 16:56:02.081070  1785 net.cpp:141] Setting up relu6_n
I0630 16:56:02.081091  1785 net.cpp:148] Top shape: 16 256 6 8 (196608)
I0630 16:56:02.081094  1785 net.cpp:156] Memory required for data: 2668371904
I0630 16:56:02.081097  1785 layer_factory.hpp:77] Creating layer z6_n_relu6_n_0_split
I0630 16:56:02.081102  1785 net.cpp:91] Creating Layer z6_n_relu6_n_0_split
I0630 16:56:02.081105  1785 net.cpp:425] z6_n_relu6_n_0_split <- z6_n
I0630 16:56:02.081110  1785 net.cpp:399] z6_n_relu6_n_0_split -> z6_n_relu6_n_0_split_0
I0630 16:56:02.081115  1785 net.cpp:399] z6_n_relu6_n_0_split -> z6_n_relu6_n_0_split_1
I0630 16:56:02.081156  1785 net.cpp:141] Setting up z6_n_relu6_n_0_split
I0630 16:56:02.081161  1785 net.cpp:148] Top shape: 16 256 6 8 (196608)
I0630 16:56:02.081164  1785 net.cpp:148] Top shape: 16 256 6 8 (196608)
I0630 16:56:02.081166  1785 net.cpp:156] Memory required for data: 2669944768
I0630 16:56:02.081168  1785 layer_factory.hpp:77] Creating layer u6
I0630 16:56:02.081174  1785 net.cpp:91] Creating Layer u6
I0630 16:56:02.081177  1785 net.cpp:425] u6 <- z6_n_relu6_n_0_split_0
I0630 16:56:02.081183  1785 net.cpp:399] u6 -> u6
I0630 16:56:02.081342  1785 net.cpp:141] Setting up u6
I0630 16:56:02.081348  1785 net.cpp:148] Top shape: 16 256 6 8 (196608)
I0630 16:56:02.081351  1785 net.cpp:156] Memory required for data: 2670731200
I0630 16:56:02.081357  1785 layer_factory.hpp:77] Creating layer comb6
I0630 16:56:02.081368  1785 net.cpp:91] Creating Layer comb6
I0630 16:56:02.081372  1785 net.cpp:425] comb6 <- z6_n_relu6_n_0_split_1
I0630 16:56:02.081377  1785 net.cpp:425] comb6 <- u6
I0630 16:56:02.081379  1785 net.cpp:399] comb6 -> z6_r
I0630 16:56:02.081676  1785 net.cpp:141] Setting up comb6
I0630 16:56:02.081683  1785 net.cpp:148] Top shape: 16 256 6 8 (196608)
I0630 16:56:02.081686  1785 net.cpp:156] Memory required for data: 2671517632
I0630 16:56:02.081697  1785 layer_factory.hpp:77] Creating layer z6_r_comb6_0_split
I0630 16:56:02.081701  1785 net.cpp:91] Creating Layer z6_r_comb6_0_split
I0630 16:56:02.081704  1785 net.cpp:425] z6_r_comb6_0_split <- z6_r
I0630 16:56:02.081709  1785 net.cpp:399] z6_r_comb6_0_split -> z6_r_comb6_0_split_0
I0630 16:56:02.081714  1785 net.cpp:399] z6_r_comb6_0_split -> z6_r_comb6_0_split_1
I0630 16:56:02.081746  1785 net.cpp:141] Setting up z6_r_comb6_0_split
I0630 16:56:02.081753  1785 net.cpp:148] Top shape: 16 256 6 8 (196608)
I0630 16:56:02.081755  1785 net.cpp:148] Top shape: 16 256 6 8 (196608)
I0630 16:56:02.081758  1785 net.cpp:156] Memory required for data: 2673090496
I0630 16:56:02.081760  1785 layer_factory.hpp:77] Creating layer recon6
I0630 16:56:02.081768  1785 net.cpp:91] Creating Layer recon6
I0630 16:56:02.081771  1785 net.cpp:425] recon6 <- z6_r_comb6_0_split_0
I0630 16:56:02.081775  1785 net.cpp:399] recon6 -> h6_r
I0630 16:56:02.087410  1785 net.cpp:141] Setting up recon6
I0630 16:56:02.087425  1785 net.cpp:148] Top shape: 16 256 6 8 (196608)
I0630 16:56:02.087429  1785 net.cpp:156] Memory required for data: 2673876928
I0630 16:56:02.087433  1785 layer_factory.hpp:77] Creating layer bn6_r
I0630 16:56:02.087441  1785 net.cpp:91] Creating Layer bn6_r
I0630 16:56:02.087445  1785 net.cpp:425] bn6_r <- h6_r
I0630 16:56:02.087448  1785 net.cpp:386] bn6_r -> h6_r (in-place)
I0630 16:56:02.087615  1785 net.cpp:141] Setting up bn6_r
I0630 16:56:02.087621  1785 net.cpp:148] Top shape: 16 256 6 8 (196608)
I0630 16:56:02.087623  1785 net.cpp:156] Memory required for data: 2674663360
I0630 16:56:02.087630  1785 layer_factory.hpp:77] Creating layer upsample5
I0630 16:56:02.087636  1785 net.cpp:91] Creating Layer upsample5
I0630 16:56:02.087638  1785 net.cpp:425] upsample5 <- h6_r
I0630 16:56:02.087642  1785 net.cpp:425] upsample5 <- pool5_n_mask
I0630 16:56:02.087646  1785 net.cpp:399] upsample5 -> upsample5
I0630 16:56:02.087658  1785 upsample_layer.cpp:31] Params 'pad_out_{}_' are deprecated. Please declare upsample height and width useing the upsample_h, upsample_w parameters.
I0630 16:56:02.087680  1785 net.cpp:141] Setting up upsample5
I0630 16:56:02.087685  1785 net.cpp:148] Top shape: 16 256 12 16 (786432)
I0630 16:56:02.087698  1785 net.cpp:156] Memory required for data: 2677809088
I0630 16:56:02.087700  1785 layer_factory.hpp:77] Creating layer comb5
I0630 16:56:02.087707  1785 net.cpp:91] Creating Layer comb5
I0630 16:56:02.087709  1785 net.cpp:425] comb5 <- z5_n_relu5_n_0_split_1
I0630 16:56:02.087714  1785 net.cpp:425] comb5 <- upsample5
I0630 16:56:02.087718  1785 net.cpp:399] comb5 -> z5_r
I0630 16:56:02.089417  1785 net.cpp:141] Setting up comb5
I0630 16:56:02.089428  1785 net.cpp:148] Top shape: 16 256 12 16 (786432)
I0630 16:56:02.089432  1785 net.cpp:156] Memory required for data: 2680954816
I0630 16:56:02.089442  1785 layer_factory.hpp:77] Creating layer z5_r_comb5_0_split
I0630 16:56:02.089447  1785 net.cpp:91] Creating Layer z5_r_comb5_0_split
I0630 16:56:02.089449  1785 net.cpp:425] z5_r_comb5_0_split <- z5_r
I0630 16:56:02.089455  1785 net.cpp:399] z5_r_comb5_0_split -> z5_r_comb5_0_split_0
I0630 16:56:02.089460  1785 net.cpp:399] z5_r_comb5_0_split -> z5_r_comb5_0_split_1
I0630 16:56:02.089494  1785 net.cpp:141] Setting up z5_r_comb5_0_split
I0630 16:56:02.089498  1785 net.cpp:148] Top shape: 16 256 12 16 (786432)
I0630 16:56:02.089503  1785 net.cpp:148] Top shape: 16 256 12 16 (786432)
I0630 16:56:02.089504  1785 net.cpp:156] Memory required for data: 2687246272
I0630 16:56:02.089507  1785 layer_factory.hpp:77] Creating layer recon5
I0630 16:56:02.089514  1785 net.cpp:91] Creating Layer recon5
I0630 16:56:02.089516  1785 net.cpp:425] recon5 <- z5_r_comb5_0_split_0
I0630 16:56:02.089521  1785 net.cpp:399] recon5 -> h5_r
I0630 16:56:02.094849  1785 net.cpp:141] Setting up recon5
I0630 16:56:02.094861  1785 net.cpp:148] Top shape: 16 256 12 16 (786432)
I0630 16:56:02.094866  1785 net.cpp:156] Memory required for data: 2690392000
I0630 16:56:02.094869  1785 layer_factory.hpp:77] Creating layer bn5_r
I0630 16:56:02.094877  1785 net.cpp:91] Creating Layer bn5_r
I0630 16:56:02.094880  1785 net.cpp:425] bn5_r <- h5_r
I0630 16:56:02.094884  1785 net.cpp:386] bn5_r -> h5_r (in-place)
I0630 16:56:02.095052  1785 net.cpp:141] Setting up bn5_r
I0630 16:56:02.095058  1785 net.cpp:148] Top shape: 16 256 12 16 (786432)
I0630 16:56:02.095062  1785 net.cpp:156] Memory required for data: 2693537728
I0630 16:56:02.095067  1785 layer_factory.hpp:77] Creating layer upsample4
I0630 16:56:02.095073  1785 net.cpp:91] Creating Layer upsample4
I0630 16:56:02.095075  1785 net.cpp:425] upsample4 <- h5_r
I0630 16:56:02.095079  1785 net.cpp:425] upsample4 <- pool4_n_mask
I0630 16:56:02.095083  1785 net.cpp:399] upsample4 -> upsample4
I0630 16:56:02.095088  1785 upsample_layer.cpp:31] Params 'pad_out_{}_' are deprecated. Please declare upsample height and width useing the upsample_h, upsample_w parameters.
I0630 16:56:02.095108  1785 net.cpp:141] Setting up upsample4
I0630 16:56:02.095113  1785 net.cpp:148] Top shape: 16 256 24 32 (3145728)
I0630 16:56:02.095114  1785 net.cpp:156] Memory required for data: 2706120640
I0630 16:56:02.095118  1785 layer_factory.hpp:77] Creating layer comb4
I0630 16:56:02.095123  1785 net.cpp:91] Creating Layer comb4
I0630 16:56:02.095125  1785 net.cpp:425] comb4 <- z4_n_relu4_n_0_split_1
I0630 16:56:02.095129  1785 net.cpp:425] comb4 <- upsample4
I0630 16:56:02.095132  1785 net.cpp:399] comb4 -> z4_r
I0630 16:56:02.101599  1785 net.cpp:141] Setting up comb4
I0630 16:56:02.101619  1785 net.cpp:148] Top shape: 16 256 24 32 (3145728)
I0630 16:56:02.101620  1785 net.cpp:156] Memory required for data: 2718703552
I0630 16:56:02.101631  1785 layer_factory.hpp:77] Creating layer z4_r_comb4_0_split
I0630 16:56:02.101637  1785 net.cpp:91] Creating Layer z4_r_comb4_0_split
I0630 16:56:02.101641  1785 net.cpp:425] z4_r_comb4_0_split <- z4_r
I0630 16:56:02.101647  1785 net.cpp:399] z4_r_comb4_0_split -> z4_r_comb4_0_split_0
I0630 16:56:02.101656  1785 net.cpp:399] z4_r_comb4_0_split -> z4_r_comb4_0_split_1
I0630 16:56:02.101694  1785 net.cpp:141] Setting up z4_r_comb4_0_split
I0630 16:56:02.101699  1785 net.cpp:148] Top shape: 16 256 24 32 (3145728)
I0630 16:56:02.101702  1785 net.cpp:148] Top shape: 16 256 24 32 (3145728)
I0630 16:56:02.101716  1785 net.cpp:156] Memory required for data: 2743869376
I0630 16:56:02.101719  1785 layer_factory.hpp:77] Creating layer recon4
I0630 16:56:02.101728  1785 net.cpp:91] Creating Layer recon4
I0630 16:56:02.101732  1785 net.cpp:425] recon4 <- z4_r_comb4_0_split_0
I0630 16:56:02.101737  1785 net.cpp:399] recon4 -> h4_r
I0630 16:56:02.105056  1785 net.cpp:141] Setting up recon4
I0630 16:56:02.105067  1785 net.cpp:148] Top shape: 16 128 24 32 (1572864)
I0630 16:56:02.105070  1785 net.cpp:156] Memory required for data: 2750160832
I0630 16:56:02.105075  1785 layer_factory.hpp:77] Creating layer bn4_r
I0630 16:56:02.105083  1785 net.cpp:91] Creating Layer bn4_r
I0630 16:56:02.105087  1785 net.cpp:425] bn4_r <- h4_r
I0630 16:56:02.105090  1785 net.cpp:386] bn4_r -> h4_r (in-place)
I0630 16:56:02.105263  1785 net.cpp:141] Setting up bn4_r
I0630 16:56:02.105270  1785 net.cpp:148] Top shape: 16 128 24 32 (1572864)
I0630 16:56:02.105273  1785 net.cpp:156] Memory required for data: 2756452288
I0630 16:56:02.105279  1785 layer_factory.hpp:77] Creating layer upsample3
I0630 16:56:02.105284  1785 net.cpp:91] Creating Layer upsample3
I0630 16:56:02.105288  1785 net.cpp:425] upsample3 <- h4_r
I0630 16:56:02.105291  1785 net.cpp:425] upsample3 <- pool3_n_mask
I0630 16:56:02.105295  1785 net.cpp:399] upsample3 -> upsample3
I0630 16:56:02.105301  1785 upsample_layer.cpp:31] Params 'pad_out_{}_' are deprecated. Please declare upsample height and width useing the upsample_h, upsample_w parameters.
I0630 16:56:02.105324  1785 net.cpp:141] Setting up upsample3
I0630 16:56:02.105329  1785 net.cpp:148] Top shape: 16 128 48 64 (6291456)
I0630 16:56:02.105330  1785 net.cpp:156] Memory required for data: 2781618112
I0630 16:56:02.105332  1785 layer_factory.hpp:77] Creating layer comb3
I0630 16:56:02.105336  1785 net.cpp:91] Creating Layer comb3
I0630 16:56:02.105340  1785 net.cpp:425] comb3 <- z3_n_relu3_n_0_split_1
I0630 16:56:02.105343  1785 net.cpp:425] comb3 <- upsample3
I0630 16:56:02.105346  1785 net.cpp:399] comb3 -> z3_r
I0630 16:56:02.115036  1785 net.cpp:141] Setting up comb3
I0630 16:56:02.115057  1785 net.cpp:148] Top shape: 16 128 48 64 (6291456)
I0630 16:56:02.115061  1785 net.cpp:156] Memory required for data: 2806783936
I0630 16:56:02.115073  1785 layer_factory.hpp:77] Creating layer z3_r_comb3_0_split
I0630 16:56:02.115082  1785 net.cpp:91] Creating Layer z3_r_comb3_0_split
I0630 16:56:02.115087  1785 net.cpp:425] z3_r_comb3_0_split <- z3_r
I0630 16:56:02.115093  1785 net.cpp:399] z3_r_comb3_0_split -> z3_r_comb3_0_split_0
I0630 16:56:02.115100  1785 net.cpp:399] z3_r_comb3_0_split -> z3_r_comb3_0_split_1
I0630 16:56:02.115142  1785 net.cpp:141] Setting up z3_r_comb3_0_split
I0630 16:56:02.115155  1785 net.cpp:148] Top shape: 16 128 48 64 (6291456)
I0630 16:56:02.115159  1785 net.cpp:148] Top shape: 16 128 48 64 (6291456)
I0630 16:56:02.115160  1785 net.cpp:156] Memory required for data: 2857115584
I0630 16:56:02.115162  1785 layer_factory.hpp:77] Creating layer recon3
I0630 16:56:02.115172  1785 net.cpp:91] Creating Layer recon3
I0630 16:56:02.115175  1785 net.cpp:425] recon3 <- z3_r_comb3_0_split_0
I0630 16:56:02.115180  1785 net.cpp:399] recon3 -> h3_r
I0630 16:56:02.116678  1785 net.cpp:141] Setting up recon3
I0630 16:56:02.116690  1785 net.cpp:148] Top shape: 16 64 48 64 (3145728)
I0630 16:56:02.116693  1785 net.cpp:156] Memory required for data: 2869698496
I0630 16:56:02.116698  1785 layer_factory.hpp:77] Creating layer bn3_r
I0630 16:56:02.116705  1785 net.cpp:91] Creating Layer bn3_r
I0630 16:56:02.116708  1785 net.cpp:425] bn3_r <- h3_r
I0630 16:56:02.116714  1785 net.cpp:386] bn3_r -> h3_r (in-place)
I0630 16:56:02.116905  1785 net.cpp:141] Setting up bn3_r
I0630 16:56:02.116912  1785 net.cpp:148] Top shape: 16 64 48 64 (3145728)
I0630 16:56:02.116915  1785 net.cpp:156] Memory required for data: 2882281408
I0630 16:56:02.116920  1785 layer_factory.hpp:77] Creating layer upsample2
I0630 16:56:02.116926  1785 net.cpp:91] Creating Layer upsample2
I0630 16:56:02.116930  1785 net.cpp:425] upsample2 <- h3_r
I0630 16:56:02.116945  1785 net.cpp:425] upsample2 <- pool2_n_mask
I0630 16:56:02.116950  1785 net.cpp:399] upsample2 -> upsample2
I0630 16:56:02.116956  1785 upsample_layer.cpp:31] Params 'pad_out_{}_' are deprecated. Please declare upsample height and width useing the upsample_h, upsample_w parameters.
I0630 16:56:02.116981  1785 net.cpp:141] Setting up upsample2
I0630 16:56:02.116986  1785 net.cpp:148] Top shape: 16 64 96 128 (12582912)
I0630 16:56:02.116987  1785 net.cpp:156] Memory required for data: 2932613056
I0630 16:56:02.116989  1785 layer_factory.hpp:77] Creating layer comb2
I0630 16:56:02.116993  1785 net.cpp:91] Creating Layer comb2
I0630 16:56:02.116997  1785 net.cpp:425] comb2 <- z2_n_relu2_n_0_split_1
I0630 16:56:02.117000  1785 net.cpp:425] comb2 <- upsample2
I0630 16:56:02.117003  1785 net.cpp:399] comb2 -> z2_r
I0630 16:56:02.135175  1785 net.cpp:141] Setting up comb2
I0630 16:56:02.135201  1785 net.cpp:148] Top shape: 16 64 96 128 (12582912)
I0630 16:56:02.135205  1785 net.cpp:156] Memory required for data: 2982944704
I0630 16:56:02.135234  1785 layer_factory.hpp:77] Creating layer z2_r_comb2_0_split
I0630 16:56:02.135244  1785 net.cpp:91] Creating Layer z2_r_comb2_0_split
I0630 16:56:02.135248  1785 net.cpp:425] z2_r_comb2_0_split <- z2_r
I0630 16:56:02.135254  1785 net.cpp:399] z2_r_comb2_0_split -> z2_r_comb2_0_split_0
I0630 16:56:02.135263  1785 net.cpp:399] z2_r_comb2_0_split -> z2_r_comb2_0_split_1
I0630 16:56:02.135311  1785 net.cpp:141] Setting up z2_r_comb2_0_split
I0630 16:56:02.135318  1785 net.cpp:148] Top shape: 16 64 96 128 (12582912)
I0630 16:56:02.135323  1785 net.cpp:148] Top shape: 16 64 96 128 (12582912)
I0630 16:56:02.135324  1785 net.cpp:156] Memory required for data: 3083608000
I0630 16:56:02.135326  1785 layer_factory.hpp:77] Creating layer recon2
I0630 16:56:02.135335  1785 net.cpp:91] Creating Layer recon2
I0630 16:56:02.135337  1785 net.cpp:425] recon2 <- z2_r_comb2_0_split_0
I0630 16:56:02.135344  1785 net.cpp:399] recon2 -> h2_r
I0630 16:56:02.136464  1785 net.cpp:141] Setting up recon2
I0630 16:56:02.136476  1785 net.cpp:148] Top shape: 16 32 96 128 (6291456)
I0630 16:56:02.136479  1785 net.cpp:156] Memory required for data: 3108773824
I0630 16:56:02.136483  1785 layer_factory.hpp:77] Creating layer bn2_r
I0630 16:56:02.136492  1785 net.cpp:91] Creating Layer bn2_r
I0630 16:56:02.136494  1785 net.cpp:425] bn2_r <- h2_r
I0630 16:56:02.136498  1785 net.cpp:386] bn2_r -> h2_r (in-place)
I0630 16:56:02.136701  1785 net.cpp:141] Setting up bn2_r
I0630 16:56:02.136709  1785 net.cpp:148] Top shape: 16 32 96 128 (6291456)
I0630 16:56:02.136711  1785 net.cpp:156] Memory required for data: 3133939648
I0630 16:56:02.136718  1785 layer_factory.hpp:77] Creating layer upsample1
I0630 16:56:02.136723  1785 net.cpp:91] Creating Layer upsample1
I0630 16:56:02.136725  1785 net.cpp:425] upsample1 <- h2_r
I0630 16:56:02.136729  1785 net.cpp:425] upsample1 <- pool1_n_mask
I0630 16:56:02.136737  1785 net.cpp:399] upsample1 -> upsample1
I0630 16:56:02.136744  1785 upsample_layer.cpp:31] Params 'pad_out_{}_' are deprecated. Please declare upsample height and width useing the upsample_h, upsample_w parameters.
I0630 16:56:02.136767  1785 net.cpp:141] Setting up upsample1
I0630 16:56:02.136772  1785 net.cpp:148] Top shape: 16 32 192 256 (25165824)
I0630 16:56:02.136775  1785 net.cpp:156] Memory required for data: 3234602944
I0630 16:56:02.136776  1785 layer_factory.hpp:77] Creating layer comb1
I0630 16:56:02.136781  1785 net.cpp:91] Creating Layer comb1
I0630 16:56:02.136783  1785 net.cpp:425] comb1 <- z1_n_relu1_n_0_split_1
I0630 16:56:02.136786  1785 net.cpp:425] comb1 <- upsample1
I0630 16:56:02.136790  1785 net.cpp:399] comb1 -> z1_r
I0630 16:56:02.172179  1785 net.cpp:141] Setting up comb1
I0630 16:56:02.172209  1785 net.cpp:148] Top shape: 16 32 192 256 (25165824)
I0630 16:56:02.172214  1785 net.cpp:156] Memory required for data: 3335266240
I0630 16:56:02.172235  1785 layer_factory.hpp:77] Creating layer z1_r_comb1_0_split
I0630 16:56:02.172243  1785 net.cpp:91] Creating Layer z1_r_comb1_0_split
I0630 16:56:02.172268  1785 net.cpp:425] z1_r_comb1_0_split <- z1_r
I0630 16:56:02.172274  1785 net.cpp:399] z1_r_comb1_0_split -> z1_r_comb1_0_split_0
I0630 16:56:02.172282  1785 net.cpp:399] z1_r_comb1_0_split -> z1_r_comb1_0_split_1
I0630 16:56:02.172333  1785 net.cpp:141] Setting up z1_r_comb1_0_split
I0630 16:56:02.172338  1785 net.cpp:148] Top shape: 16 32 192 256 (25165824)
I0630 16:56:02.172340  1785 net.cpp:148] Top shape: 16 32 192 256 (25165824)
I0630 16:56:02.172343  1785 net.cpp:156] Memory required for data: 3536592832
I0630 16:56:02.172344  1785 layer_factory.hpp:77] Creating layer recon1
I0630 16:56:02.172354  1785 net.cpp:91] Creating Layer recon1
I0630 16:56:02.172358  1785 net.cpp:425] recon1 <- z1_r_comb1_0_split_0
I0630 16:56:02.172363  1785 net.cpp:399] recon1 -> h1_r
I0630 16:56:02.173496  1785 net.cpp:141] Setting up recon1
I0630 16:56:02.173508  1785 net.cpp:148] Top shape: 16 1 192 256 (786432)
I0630 16:56:02.173511  1785 net.cpp:156] Memory required for data: 3539738560
I0630 16:56:02.173516  1785 layer_factory.hpp:77] Creating layer bn1_r
I0630 16:56:02.173524  1785 net.cpp:91] Creating Layer bn1_r
I0630 16:56:02.173527  1785 net.cpp:425] bn1_r <- h1_r
I0630 16:56:02.173532  1785 net.cpp:386] bn1_r -> h1_r (in-place)
I0630 16:56:02.173764  1785 net.cpp:141] Setting up bn1_r
I0630 16:56:02.173771  1785 net.cpp:148] Top shape: 16 1 192 256 (786432)
I0630 16:56:02.173774  1785 net.cpp:156] Memory required for data: 3542884288
I0630 16:56:02.173779  1785 layer_factory.hpp:77] Creating layer comb0
I0630 16:56:02.173784  1785 net.cpp:91] Creating Layer comb0
I0630 16:56:02.173789  1785 net.cpp:425] comb0 <- noisy_data_noisy_data_0_split_1
I0630 16:56:02.173791  1785 net.cpp:425] comb0 <- h1_r
I0630 16:56:02.173795  1785 net.cpp:399] comb0 -> z0_r
I0630 16:56:02.175539  1785 net.cpp:141] Setting up comb0
I0630 16:56:02.175552  1785 net.cpp:148] Top shape: 16 1 192 256 (786432)
I0630 16:56:02.175555  1785 net.cpp:156] Memory required for data: 3546030016
I0630 16:56:02.175565  1785 layer_factory.hpp:77] Creating layer loss_ladder_6
I0630 16:56:02.175571  1785 net.cpp:91] Creating Layer loss_ladder_6
I0630 16:56:02.175575  1785 net.cpp:425] loss_ladder_6 <- z6_relu6_0_split_0
I0630 16:56:02.175580  1785 net.cpp:425] loss_ladder_6 <- z6_r_comb6_0_split_1
…
I0630 16:56:02.178011  1785 net.cpp:274] Network initialization done.
I0630 16:56:02.178763  1785 solver.cpp:181] Creating test net (#0) specified by test_net file: models/laddernet/val.prototxt
I0630 16:56:02.178968  1785 net.cpp:49] Initializing net from parameters: 
name: "LadderNet"
state {
  phase: TEST
}
layer {
  name: "data"
  type: "Data"
  top: "data"
  top: "label"
  include {
    phase: TEST
  }
  transform_param {
    scale: 0.0039215
    mirror: false
    mean_value: 100
    crop_h: 192
    crop_w: 256
  }
  data_param {
    source: "data/val_lmdb"
    batch_size: 8
    backend: LMDB
  }
}
layer {
  name: "conv1"
  type: "Convolution"
  bottom: "data"
  top: "z1_pre"
  convolution_param {
    num_output: 32
    bias_term: false
    pad: 1
    kernel_size: 3
    stride: 1
    weight_filler {
      type: "xavier"
    }
  }
}
layer {
  name: "bn1"
  type: "BatchNorm"
  bottom: "z1_pre"
  top: "z1"
  param {
    lr_mult: 0
  }
  param {
    lr_mult: 0
  }
  param {
    lr_mult: 0
  }
  batch_norm_param {
    use_global_stats: true
    eps: 0.001
  }
}
layer {
  name: "scale1"
  type: "Scale"
  bottom: "z1"
  top: "z1"
  param {
    name: "scale1_w"
  }
  param {
    name: "scale1_b"
  }
  scale_param {
    filler {
      type: "xavier"
    }
    bias_term: true
    bias_filler {
      type: "constant"
      value: 0
    }
  }
}
layer {
  name: "relu1"
  type: "ReLU"
  bottom: "z1"
  top: "z1"
}
layer {
  name: "pool1"
  type: "Pooling"
  bottom: "z1"
  top: "pool1"
  pooling_param {
    pool: MAX
    kernel_size: 2
    stride: 2
  }
}
layer {
  name: "conv2"
  type: "Convolution"
  bottom: "pool1"
  top: "z2_pre"
  convolution_param {
    num_output: 64
    bias_term: false
    pad: 1
    kernel_size: 3
    stride: 1
    weight_filler {
      type: "xavier"
    }
  }
}
layer {
  name: "bn2"
  type: "BatchNorm"
  bottom: "z2_pre"
  top: "z2"
  param {
    lr_mult: 0
  }
  param {
    lr_mult: 0
  }
  param {
    lr_mult: 0
  }
  batch_norm_param {
    use_global_stats: true
    eps: 0.001
  }
}
layer {
  name: "scale2"
  type: "Scale"
  bottom: "z2"
  top: "z2"
  param {
    name: "scale2_w"
  }
  param {
    name: "scale2_b"
  }
  scale_param {
    filler {
      type: "xavier"
    }
    bias_term: true
    bias_filler {
      type: "constant"
      value: 0
    }
  }
}
layer {
  name: "relu2"
  type: "ReLU"
  bottom: "z2"
  top: "z2"
}
layer {
  name: "pool2"
  type: "Pooling"
  bottom: "z2"
  top: "pool2"
  pooling_param {
    pool: MAX
    kernel_size: 2
    stride: 2
  }
}
layer {
  name: "conv3"
  type: "Convolution"
  bottom: "pool2"
  top: "z3_pre"
  convolution_param {
    num_output: 128
    bias_term: false
    pad: 1
    kernel_size: 3
    stride: 1
    weight_filler {
      type: "xavier"
    }
  }
}
layer {
  name: "bn3"
  type: "BatchNorm"
  bottom: "z3_pre"
  top: "z3"
  param {
    lr_mult: 0
  }
  param {
    lr_mult: 0
  }
  param {
    lr_mult: 0
  }
  batch_norm_param {
    use_global_stats: true
    eps: 0.001
  }
}
layer {
  name: "scale3"
  type: "Scale"
  bottom: "z3"
  top: "z3"
  param {
    name: "scale3_w"
  }
  param {
    name: "scale3_b"
  }
  scale_param {
    filler {
      type: "xavier"
    }
    bias_term: true
    bias_filler {
      type: "constant"
      value: 0
    }
  }
}
layer {
  name: "relu3"
  type: "ReLU"
  bottom: "z3"
  top: "z3"
}
layer {
  name: "pool3"
  type: "Pooling"
  bottom: "z3"
  top: "pool3"
  pooling_param {
    pool: MAX
    kernel_size: 2
    stride: 2
  }
}
layer {
  name: "conv4"
  type: "Convolution"
  bottom: "pool3"
  top: "z4_pre"
  convolution_param {
    num_output: 256
    bias_term: false
    pad: 1
    kernel_size: 3
    stride: 1
    weight_filler {
      type: "xavier"
    }
  }
}
layer {
  name: "bn4"
  type: "BatchNorm"
  bottom: "z4_pre"
  top: "z4"
  param {
    lr_mult: 0
  }
  param {
    lr_mult: 0
  }
  param {
    lr_mult: 0
  }
  batch_norm_param {
    use_global_stats: true
    eps: 0.001
  }
}
layer {
  name: "scale4"
  type: "Scale"
  bottom: "z4"
  top: "z4"
  param {
    name: "scale4_w"
  }
  param {
    name: "scale4_b"
  }
  scale_param {
    filler {
      type: "xavier"
    }
    bias_term: true
    bias_filler {
      type: "constant"
      value: 0
    }
  }
}
layer {
  name: "relu4"
  type: "ReLU"
  bottom: "z4"
  top: "z4"
}
layer {
  name: "pool4"
  type: "Pooling"
  bottom: "z4"
  top: "pool4"
  pooling_param {
    pool: MAX
    kernel_size: 2
    stride: 2
  }
}
layer {
  name: "conv5"
  type: "Convolution"
  bottom: "pool4"
  top: "z5_pre"
  convolution_param {
    num_output: 256
    bias_term: false
    pad: 1
    kernel_size: 3
    stride: 1
    weight_filler {
      type: "xavier"
    }
  }
}
layer {
  name: "bn5"
  type: "BatchNorm"
  bottom: "z5_pre"
  top: "z5"
  param {
    lr_mult: 0
  }
  param {
    lr_mult: 0
  }
  param {
    lr_mult: 0
  }
  batch_norm_param {
    use_global_stats: true
    eps: 0.001
  }
}
layer {
  name: "scale5"
  type: "Scale"
  bottom: "z5"
  top: "z5"
  param {
    name: "scale5_w"
  }
  param {
    name: "scale5_b"
  }
  scale_param {
    filler {
      type: "xavier"
    }
    bias_term: true
    bias_filler {
      type: "constant"
      value: 0
    }
  }
}
layer {
  name: "relu5"
  type: "ReLU"
  bottom: "z5"
  top: "z5"
}
layer {
  name: "pool5"
  type: "Pooling"
  bottom: "z5"
  top: "pool5"
  pooling_param {
    pool: MAX
    kernel_size: 2
    stride: 2
  }
}
layer {
  name: "conv6"
  type: "Convolution"
  bottom: "pool5"
  top: "z6_pre"
  convolution_param {
    num_output: 256
    bias_term: false
    pad: 1
    kernel_size: 3
    stride: 1
    weight_filler {
      type: "xavier"
    }
  }
}
layer {
  name: "bn6"
  type: "BatchNorm"
  bottom: "z6_pre"
  top: "z6"
  param {
    lr_mult: 0
  }
  param {
    lr_mult: 0
  }
  param {
    lr_mult: 0
  }
  batch_norm_param {
    use_global_stats: true
    eps: 0.001
  }
}
layer {
  name: "scale6"
  type: "Scale"
  bottom: "z6"
  top: "z6"
  param {
    name: "scale6_w"
  }
  param {
    name: "scale6_b"
  }
  scale_param {
    filler {
      type: "xavier"
    }
    bias_term: true
    bias_filler {
      type: "constant"
      value: 0
    }
  }
}
layer {
  name: "relu6"
  type: "ReLU"
  bottom: "z6"
  top: "z6"
}
layer {
  name: "pool_final"
  type: "Pooling"
  bottom: "z6"
  top: "pool_final"
  pooling_param {
    pool: AVE
    stride: 1
    kernel_h: 6
    kernel_w: 8
  }
}
layer {
  name: "score"
  type: "InnerProduct"
  bottom: "pool_final"
  top: "score"
  inner_product_param {
    num_output: 2
    weight_filler {
      type: "xavier"
    }
  }
}
layer {
  name: "prob"
  type: "SoftmaxWithLoss"
  bottom: "score"
  bottom: "label"
  top: "prob"
}
layer {
  name: "accuracy"
  type: "Accuracy"
  bottom: "score"
  bottom: "label"
  top: "accuracy"
}
I0630 16:56:02.179090  1785 layer_factory.hpp:77] Creating layer data
I0630 16:56:02.179147  1785 net.cpp:91] Creating Layer data
I0630 16:56:02.179153  1785 net.cpp:399] data -> data
I0630 16:56:02.179159  1785 net.cpp:399] data -> label
I0630 16:56:02.180058  1798 db_lmdb.cpp:35] Opened lmdb data/val_lmdb
I0630 16:56:02.180233  1785 data_layer.cpp:42] output data size: 8,1,192,256
I0630 16:56:02.184269  1785 net.cpp:141] Setting up data
I0630 16:56:02.184285  1785 net.cpp:148] Top shape: 8 1 192 256 (393216)
I0630 16:56:02.184289  1785 net.cpp:148] Top shape: 8 (8)
I0630 16:56:02.184293  1785 net.cpp:156] Memory required for data: 1572896
I0630 16:56:02.184295  1785 layer_factory.hpp:77] Creating layer label_data_1_split
I0630 16:56:02.184304  1785 net.cpp:91] Creating Layer label_data_1_split
I0630 16:56:02.184308  1785 net.cpp:425] label_data_1_split <- label
I0630 16:56:02.184314  1785 net.cpp:399] label_data_1_split -> label_data_1_split_0
I0630 16:56:02.184319  1785 net.cpp:399] label_data_1_split -> label_data_1_split_1
I0630 16:56:02.184465  1785 net.cpp:141] Setting up label_data_1_split
I0630 16:56:02.184473  1785 net.cpp:148] Top shape: 8 (8)
I0630 16:56:02.184476  1785 net.cpp:148] Top shape: 8 (8)
I0630 16:56:02.184478  1785 net.cpp:156] Memory required for data: 1572960
I0630 16:56:02.184480  1785 layer_factory.hpp:77] Creating layer conv1
I0630 16:56:02.184489  1785 net.cpp:91] Creating Layer conv1
I0630 16:56:02.184492  1785 net.cpp:425] conv1 <- data
I0630 16:56:02.184496  1785 net.cpp:399] conv1 -> z1_pre
I0630 16:56:02.185864  1785 net.cpp:141] Setting up conv1
I0630 16:56:02.185876  1785 net.cpp:148] Top shape: 8 32 192 256 (12582912)
I0630 16:56:02.185879  1785 net.cpp:156] Memory required for data: 51904608
I0630 16:56:02.185885  1785 layer_factory.hpp:77] Creating layer bn1
I0630 16:56:02.185892  1785 net.cpp:91] Creating Layer bn1
I0630 16:56:02.185895  1785 net.cpp:425] bn1 <- z1_pre
I0630 16:56:02.185899  1785 net.cpp:399] bn1 -> z1
I0630 16:56:02.186146  1785 net.cpp:141] Setting up bn1
I0630 16:56:02.186166  1785 net.cpp:148] Top shape: 8 32 192 256 (12582912)
I0630 16:56:02.186168  1785 net.cpp:156] Memory required for data: 102236256
I0630 16:56:02.186177  1785 layer_factory.hpp:77] Creating layer scale1
I0630 16:56:02.186184  1785 net.cpp:91] Creating Layer scale1
I0630 16:56:02.186187  1785 net.cpp:425] scale1 <- z1
I0630 16:56:02.186192  1785 net.cpp:386] scale1 -> z1 (in-place)
I0630 16:56:02.186239  1785 layer_factory.hpp:77] Creating layer scale1
I0630 16:56:02.187038  1785 net.cpp:141] Setting up scale1
I0630 16:56:02.187048  1785 net.cpp:148] Top shape: 8 32 192 256 (12582912)
I0630 16:56:02.187052  1785 net.cpp:156] Memory required for data: 152567904
I0630 16:56:02.187058  1785 layer_factory.hpp:77] Creating layer relu1
I0630 16:56:02.187064  1785 net.cpp:91] Creating Layer relu1
I0630 16:56:02.187067  1785 net.cpp:425] relu1 <- z1
I0630 16:56:02.187070  1785 net.cpp:386] relu1 -> z1 (in-place)
I0630 16:56:02.187563  1785 net.cpp:141] Setting up relu1
I0630 16:56:02.187574  1785 net.cpp:148] Top shape: 8 32 192 256 (12582912)
I0630 16:56:02.187577  1785 net.cpp:156] Memory required for data: 202899552
I0630 16:56:02.187580  1785 layer_factory.hpp:77] Creating layer pool1
I0630 16:56:02.187588  1785 net.cpp:91] Creating Layer pool1
I0630 16:56:02.187592  1785 net.cpp:425] pool1 <- z1
I0630 16:56:02.187595  1785 net.cpp:399] pool1 -> pool1
I0630 16:56:02.187646  1785 net.cpp:141] Setting up pool1
I0630 16:56:02.187651  1785 net.cpp:148] Top shape: 8 32 96 128 (3145728)
I0630 16:56:02.187654  1785 net.cpp:156] Memory required for data: 215482464
I0630 16:56:02.187655  1785 layer_factory.hpp:77] Creating layer conv2
I0630 16:56:02.187662  1785 net.cpp:91] Creating Layer conv2
I0630 16:56:02.187665  1785 net.cpp:425] conv2 <- pool1
I0630 16:56:02.187669  1785 net.cpp:399] conv2 -> z2_pre
I0630 16:56:02.188832  1785 net.cpp:141] Setting up conv2
I0630 16:56:02.188843  1785 net.cpp:148] Top shape: 8 64 96 128 (6291456)
I0630 16:56:02.188846  1785 net.cpp:156] Memory required for data: 240648288
I0630 16:56:02.188850  1785 layer_factory.hpp:77] Creating layer bn2
I0630 16:56:02.188858  1785 net.cpp:91] Creating Layer bn2
I0630 16:56:02.188861  1785 net.cpp:425] bn2 <- z2_pre
I0630 16:56:02.188866  1785 net.cpp:399] bn2 -> z2
I0630 16:56:02.189103  1785 net.cpp:141] Setting up bn2
I0630 16:56:02.189111  1785 net.cpp:148] Top shape: 8 64 96 128 (6291456)
I0630 16:56:02.189113  1785 net.cpp:156] Memory required for data: 265814112
I0630 16:56:02.189121  1785 layer_factory.hpp:77] Creating layer scale2
I0630 16:56:02.189126  1785 net.cpp:91] Creating Layer scale2
I0630 16:56:02.189129  1785 net.cpp:425] scale2 <- z2
I0630 16:56:02.189133  1785 net.cpp:386] scale2 -> z2 (in-place)
I0630 16:56:02.189182  1785 layer_factory.hpp:77] Creating layer scale2
I0630 16:56:02.189318  1785 net.cpp:141] Setting up scale2
I0630 16:56:02.189327  1785 net.cpp:148] Top shape: 8 64 96 128 (6291456)
I0630 16:56:02.189328  1785 net.cpp:156] Memory required for data: 290979936
I0630 16:56:02.189332  1785 layer_factory.hpp:77] Creating layer relu2
I0630 16:56:02.189337  1785 net.cpp:91] Creating Layer relu2
I0630 16:56:02.189339  1785 net.cpp:425] relu2 <- z2
I0630 16:56:02.189344  1785 net.cpp:386] relu2 -> z2 (in-place)
I0630 16:56:02.189517  1785 net.cpp:141] Setting up relu2
I0630 16:56:02.189527  1785 net.cpp:148] Top shape: 8 64 96 128 (6291456)
I0630 16:56:02.189529  1785 net.cpp:156] Memory required for data: 316145760
I0630 16:56:02.189532  1785 layer_factory.hpp:77] Creating layer pool2
I0630 16:56:02.189538  1785 net.cpp:91] Creating Layer pool2
I0630 16:56:02.189539  1785 net.cpp:425] pool2 <- z2
I0630 16:56:02.189543  1785 net.cpp:399] pool2 -> pool2
I0630 16:56:02.189591  1785 net.cpp:141] Setting up pool2
I0630 16:56:02.189597  1785 net.cpp:148] Top shape: 8 64 48 64 (1572864)
I0630 16:56:02.189599  1785 net.cpp:156] Memory required for data: 322437216
I0630 16:56:02.189602  1785 layer_factory.hpp:77] Creating layer conv3
I0630 16:56:02.189610  1785 net.cpp:91] Creating Layer conv3
I0630 16:56:02.189621  1785 net.cpp:425] conv3 <- pool2
I0630 16:56:02.189627  1785 net.cpp:399] conv3 -> z3_pre
I0630 16:56:02.191252  1785 net.cpp:141] Setting up conv3
I0630 16:56:02.191264  1785 net.cpp:148] Top shape: 8 128 48 64 (3145728)
I0630 16:56:02.191267  1785 net.cpp:156] Memory required for data: 335020128
I0630 16:56:02.191272  1785 layer_factory.hpp:77] Creating layer bn3
I0630 16:56:02.191279  1785 net.cpp:91] Creating Layer bn3
I0630 16:56:02.191282  1785 net.cpp:425] bn3 <- z3_pre
I0630 16:56:02.191287  1785 net.cpp:399] bn3 -> z3
I0630 16:56:02.191529  1785 net.cpp:141] Setting up bn3
I0630 16:56:02.191539  1785 net.cpp:148] Top shape: 8 128 48 64 (3145728)
I0630 16:56:02.191540  1785 net.cpp:156] Memory required for data: 347603040
I0630 16:56:02.191546  1785 layer_factory.hpp:77] Creating layer scale3
I0630 16:56:02.191553  1785 net.cpp:91] Creating Layer scale3
I0630 16:56:02.191556  1785 net.cpp:425] scale3 <- z3
I0630 16:56:02.191560  1785 net.cpp:386] scale3 -> z3 (in-place)
I0630 16:56:02.191607  1785 layer_factory.hpp:77] Creating layer scale3
I0630 16:56:02.191731  1785 net.cpp:141] Setting up scale3
I0630 16:56:02.191738  1785 net.cpp:148] Top shape: 8 128 48 64 (3145728)
I0630 16:56:02.191740  1785 net.cpp:156] Memory required for data: 360185952
I0630 16:56:02.191748  1785 layer_factory.hpp:77] Creating layer relu3
I0630 16:56:02.191753  1785 net.cpp:91] Creating Layer relu3
I0630 16:56:02.191756  1785 net.cpp:425] relu3 <- z3
I0630 16:56:02.191759  1785 net.cpp:386] relu3 -> z3 (in-place)
I0630 16:56:02.192210  1785 net.cpp:141] Setting up relu3
I0630 16:56:02.192222  1785 net.cpp:148] Top shape: 8 128 48 64 (3145728)
I0630 16:56:02.192224  1785 net.cpp:156] Memory required for data: 372768864
I0630 16:56:02.192227  1785 layer_factory.hpp:77] Creating layer pool3
I0630 16:56:02.192235  1785 net.cpp:91] Creating Layer pool3
I0630 16:56:02.192239  1785 net.cpp:425] pool3 <- z3
I0630 16:56:02.192242  1785 net.cpp:399] pool3 -> pool3
I0630 16:56:02.192292  1785 net.cpp:141] Setting up pool3
I0630 16:56:02.192297  1785 net.cpp:148] Top shape: 8 128 24 32 (786432)
I0630 16:56:02.192299  1785 net.cpp:156] Memory required for data: 375914592
I0630 16:56:02.192301  1785 layer_factory.hpp:77] Creating layer conv4
I0630 16:56:02.192308  1785 net.cpp:91] Creating Layer conv4
I0630 16:56:02.192312  1785 net.cpp:425] conv4 <- pool3
I0630 16:56:02.192314  1785 net.cpp:399] conv4 -> z4_pre
I0630 16:56:02.195540  1785 net.cpp:141] Setting up conv4
I0630 16:56:02.195554  1785 net.cpp:148] Top shape: 8 256 24 32 (1572864)
I0630 16:56:02.195555  1785 net.cpp:156] Memory required for data: 382206048
I0630 16:56:02.195560  1785 layer_factory.hpp:77] Creating layer bn4
I0630 16:56:02.195569  1785 net.cpp:91] Creating Layer bn4
I0630 16:56:02.195571  1785 net.cpp:425] bn4 <- z4_pre
I0630 16:56:02.195576  1785 net.cpp:399] bn4 -> z4
I0630 16:56:02.195833  1785 net.cpp:141] Setting up bn4
I0630 16:56:02.195842  1785 net.cpp:148] Top shape: 8 256 24 32 (1572864)
I0630 16:56:02.195843  1785 net.cpp:156] Memory required for data: 388497504
I0630 16:56:02.195849  1785 layer_factory.hpp:77] Creating layer scale4
I0630 16:56:02.195857  1785 net.cpp:91] Creating Layer scale4
I0630 16:56:02.195859  1785 net.cpp:425] scale4 <- z4
I0630 16:56:02.195863  1785 net.cpp:386] scale4 -> z4 (in-place)
I0630 16:56:02.195909  1785 layer_factory.hpp:77] Creating layer scale4
I0630 16:56:02.196027  1785 net.cpp:141] Setting up scale4
I0630 16:56:02.196034  1785 net.cpp:148] Top shape: 8 256 24 32 (1572864)
I0630 16:56:02.196038  1785 net.cpp:156] Memory required for data: 394788960
I0630 16:56:02.196041  1785 layer_factory.hpp:77] Creating layer relu4
I0630 16:56:02.196045  1785 net.cpp:91] Creating Layer relu4
I0630 16:56:02.196048  1785 net.cpp:425] relu4 <- z4
I0630 16:56:02.196053  1785 net.cpp:386] relu4 -> z4 (in-place)
I0630 16:56:02.196491  1785 net.cpp:141] Setting up relu4
I0630 16:56:02.196502  1785 net.cpp:148] Top shape: 8 256 24 32 (1572864)
I0630 16:56:02.196506  1785 net.cpp:156] Memory required for data: 401080416
I0630 16:56:02.196519  1785 layer_factory.hpp:77] Creating layer pool4
I0630 16:56:02.196524  1785 net.cpp:91] Creating Layer pool4
I0630 16:56:02.196527  1785 net.cpp:425] pool4 <- z4
I0630 16:56:02.196532  1785 net.cpp:399] pool4 -> pool4
I0630 16:56:02.196583  1785 net.cpp:141] Setting up pool4
I0630 16:56:02.196590  1785 net.cpp:148] Top shape: 8 256 12 16 (393216)
I0630 16:56:02.196593  1785 net.cpp:156] Memory required for data: 402653280
I0630 16:56:02.196595  1785 layer_factory.hpp:77] Creating layer conv5
I0630 16:56:02.196602  1785 net.cpp:91] Creating Layer conv5
I0630 16:56:02.196605  1785 net.cpp:425] conv5 <- pool4
I0630 16:56:02.196609  1785 net.cpp:399] conv5 -> z5_pre
I0630 16:56:02.202142  1785 net.cpp:141] Setting up conv5
I0630 16:56:02.202157  1785 net.cpp:148] Top shape: 8 256 12 16 (393216)
I0630 16:56:02.202159  1785 net.cpp:156] Memory required for data: 404226144
I0630 16:56:02.202164  1785 layer_factory.hpp:77] Creating layer bn5
I0630 16:56:02.202170  1785 net.cpp:91] Creating Layer bn5
I0630 16:56:02.202173  1785 net.cpp:425] bn5 <- z5_pre
I0630 16:56:02.202178  1785 net.cpp:399] bn5 -> z5
I0630 16:56:02.202394  1785 net.cpp:141] Setting up bn5
I0630 16:56:02.202401  1785 net.cpp:148] Top shape: 8 256 12 16 (393216)
I0630 16:56:02.202404  1785 net.cpp:156] Memory required for data: 405799008
I0630 16:56:02.202409  1785 layer_factory.hpp:77] Creating layer scale5
I0630 16:56:02.202417  1785 net.cpp:91] Creating Layer scale5
I0630 16:56:02.202420  1785 net.cpp:425] scale5 <- z5
I0630 16:56:02.202425  1785 net.cpp:386] scale5 -> z5 (in-place)
I0630 16:56:02.202469  1785 layer_factory.hpp:77] Creating layer scale5
I0630 16:56:02.202594  1785 net.cpp:141] Setting up scale5
I0630 16:56:02.202600  1785 net.cpp:148] Top shape: 8 256 12 16 (393216)
I0630 16:56:02.202603  1785 net.cpp:156] Memory required for data: 407371872
I0630 16:56:02.202608  1785 layer_factory.hpp:77] Creating layer relu5
I0630 16:56:02.202612  1785 net.cpp:91] Creating Layer relu5
I0630 16:56:02.202615  1785 net.cpp:425] relu5 <- z5
I0630 16:56:02.202620  1785 net.cpp:386] relu5 -> z5 (in-place)
I0630 16:56:02.202780  1785 net.cpp:141] Setting up relu5
I0630 16:56:02.202788  1785 net.cpp:148] Top shape: 8 256 12 16 (393216)
I0630 16:56:02.202790  1785 net.cpp:156] Memory required for data: 408944736
I0630 16:56:02.202793  1785 layer_factory.hpp:77] Creating layer pool5
I0630 16:56:02.202798  1785 net.cpp:91] Creating Layer pool5
I0630 16:56:02.202801  1785 net.cpp:425] pool5 <- z5
I0630 16:56:02.202805  1785 net.cpp:399] pool5 -> pool5
I0630 16:56:02.202860  1785 net.cpp:141] Setting up pool5
I0630 16:56:02.202867  1785 net.cpp:148] Top shape: 8 256 6 8 (98304)
I0630 16:56:02.202869  1785 net.cpp:156] Memory required for data: 409337952
I0630 16:56:02.202872  1785 layer_factory.hpp:77] Creating layer conv6
I0630 16:56:02.202878  1785 net.cpp:91] Creating Layer conv6
I0630 16:56:02.202882  1785 net.cpp:425] conv6 <- pool5
I0630 16:56:02.202885  1785 net.cpp:399] conv6 -> z6_pre
I0630 16:56:02.208420  1785 net.cpp:141] Setting up conv6
I0630 16:56:02.208432  1785 net.cpp:148] Top shape: 8 256 6 8 (98304)
I0630 16:56:02.208436  1785 net.cpp:156] Memory required for data: 409731168
I0630 16:56:02.208441  1785 layer_factory.hpp:77] Creating layer bn6
I0630 16:56:02.208446  1785 net.cpp:91] Creating Layer bn6
I0630 16:56:02.208449  1785 net.cpp:425] bn6 <- z6_pre
I0630 16:56:02.208453  1785 net.cpp:399] bn6 -> z6
I0630 16:56:02.208688  1785 net.cpp:141] Setting up bn6
I0630 16:56:02.208695  1785 net.cpp:148] Top shape: 8 256 6 8 (98304)
I0630 16:56:02.208698  1785 net.cpp:156] Memory required for data: 410124384
I0630 16:56:02.208709  1785 layer_factory.hpp:77] Creating layer scale6
I0630 16:56:02.208716  1785 net.cpp:91] Creating Layer scale6
I0630 16:56:02.208719  1785 net.cpp:425] scale6 <- z6
I0630 16:56:02.208722  1785 net.cpp:386] scale6 -> z6 (in-place)
I0630 16:56:02.208772  1785 layer_factory.hpp:77] Creating layer scale6
I0630 16:56:02.208895  1785 net.cpp:141] Setting up scale6
I0630 16:56:02.208902  1785 net.cpp:148] Top shape: 8 256 6 8 (98304)
I0630 16:56:02.208914  1785 net.cpp:156] Memory required for data: 410517600
I0630 16:56:02.208920  1785 layer_factory.hpp:77] Creating layer relu6
I0630 16:56:02.208925  1785 net.cpp:91] Creating Layer relu6
I0630 16:56:02.208926  1785 net.cpp:425] relu6 <- z6
I0630 16:56:02.208931  1785 net.cpp:386] relu6 -> z6 (in-place)
I0630 16:56:02.209229  1785 net.cpp:141] Setting up relu6
I0630 16:56:02.209240  1785 net.cpp:148] Top shape: 8 256 6 8 (98304)
I0630 16:56:02.209242  1785 net.cpp:156] Memory required for data: 410910816
I0630 16:56:02.209245  1785 layer_factory.hpp:77] Creating layer pool_final
I0630 16:56:02.209252  1785 net.cpp:91] Creating Layer pool_final
I0630 16:56:02.209254  1785 net.cpp:425] pool_final <- z6
I0630 16:56:02.209259  1785 net.cpp:399] pool_final -> pool_final
I0630 16:56:02.209432  1785 net.cpp:141] Setting up pool_final
I0630 16:56:02.209441  1785 net.cpp:148] Top shape: 8 256 1 1 (2048)
I0630 16:56:02.209444  1785 net.cpp:156] Memory required for data: 410919008
I0630 16:56:02.209447  1785 layer_factory.hpp:77] Creating layer score
I0630 16:56:02.209457  1785 net.cpp:91] Creating Layer score
I0630 16:56:02.209460  1785 net.cpp:425] score <- pool_final
I0630 16:56:02.209465  1785 net.cpp:399] score -> score
I0630 16:56:02.209592  1785 net.cpp:141] Setting up score
I0630 16:56:02.209599  1785 net.cpp:148] Top shape: 8 2 (16)
I0630 16:56:02.209602  1785 net.cpp:156] Memory required for data: 410919072
I0630 16:56:02.209606  1785 layer_factory.hpp:77] Creating layer score_score_0_split
I0630 16:56:02.209612  1785 net.cpp:91] Creating Layer score_score_0_split
I0630 16:56:02.209614  1785 net.cpp:425] score_score_0_split <- score
I0630 16:56:02.209619  1785 net.cpp:399] score_score_0_split -> score_score_0_split_0
I0630 16:56:02.209622  1785 net.cpp:399] score_score_0_split -> score_score_0_split_1
I0630 16:56:02.209666  1785 net.cpp:141] Setting up score_score_0_split
I0630 16:56:02.209671  1785 net.cpp:148] Top shape: 8 2 (16)
I0630 16:56:02.209673  1785 net.cpp:148] Top shape: 8 2 (16)
I0630 16:56:02.209676  1785 net.cpp:156] Memory required for data: 410919200
I0630 16:56:02.209677  1785 layer_factory.hpp:77] Creating layer prob
I0630 16:56:02.209681  1785 net.cpp:91] Creating Layer prob
I0630 16:56:02.209686  1785 net.cpp:425] prob <- score_score_0_split_0
I0630 16:56:02.209688  1785 net.cpp:425] prob <- label_data_1_split_0
I0630 16:56:02.209692  1785 net.cpp:399] prob -> prob
…
