…
I0627 13:53:09.573186  5034 net.cpp:313] The NetState phase (0) differed from the phase (1) specified by a rule in layer data
I0627 13:53:09.573334  5034 net.cpp:49] Initializing net from parameters: 
name: "BPnet"
state {
  phase: TRAIN
}
layer {
  name: "data"
  type: "Data"
  top: "data"
  top: "label"
  include {
    phase: TRAIN
  }
  transform_param {
    mirror: true
    mean_value: 100
    crop_h: 196
    crop_w: 256
    rotation_range: 10
    scale_jitter_range: 0.1
    contrast_jitter_range: 0.1
  }
  data_param {
    source: "data/train_lmdb"
    batch_size: 32
    backend: LMDB
  }
}
layer {
  name: "conv1_1"
  type: "Convolution"
  bottom: "data"
  top: "conv1_1"
  param {
    lr_mult: 1
    decay_mult: 1
  }
  convolution_param {
    num_output: 32
    bias_term: false
    pad: 3
    kernel_size: 7
    stride: 2
    weight_filler {
      type: "xavier"
    }
  }
}
layer {
  name: "bn1_1"
  type: "BatchNorm"
  bottom: "conv1_1"
  top: "conv1_1"
  param {
    lr_mult: 0
  }
  param {
    lr_mult: 0
  }
  param {
    lr_mult: 0
  }
  batch_norm_param {
    use_global_stats: false
  }
}
layer {
  name: "scale1_1"
  type: "Scale"
  bottom: "conv1_1"
  top: "conv1_1"
  param {
    lr_mult: 1
    decay_mult: 1
  }
  param {
    lr_mult: 1
    decay_mult: 1
  }
  scale_param {
    bias_term: true
    bias_filler {
      type: "constant"
      value: 0
    }
  }
}
layer {
  name: "relu1_1"
  type: "ReLU"
  bottom: "conv1_1"
  top: "conv1_1"
}
layer {
  name: "pool1"
  type: "Pooling"
  bottom: "conv1_1"
  top: "pool1"
  pooling_param {
    pool: MAX
    kernel_size: 2
    stride: 2
  }
}
layer {
  name: "conv2_1"
  type: "Convolution"
  bottom: "pool1"
  top: "conv2_1"
  param {
    lr_mult: 1
    decay_mult: 1
  }
  convolution_param {
    num_output: 64
    bias_term: false
    pad: 1
    kernel_size: 3
    weight_filler {
      type: "xavier"
    }
  }
}
layer {
  name: "bn2_1"
  type: "BatchNorm"
  bottom: "conv2_1"
  top: "conv2_1"
  param {
    lr_mult: 0
  }
  param {
    lr_mult: 0
  }
  param {
    lr_mult: 0
  }
  batch_norm_param {
    use_global_stats: false
  }
}
layer {
  name: "scale2_1"
  type: "Scale"
  bottom: "conv2_1"
  top: "conv2_1"
  param {
    lr_mult: 1
    decay_mult: 1
  }
  param {
    lr_mult: 1
    decay_mult: 1
  }
  scale_param {
    bias_term: true
    bias_filler {
      type: "constant"
      value: 0
    }
  }
}
layer {
  name: "relu2_1"
  type: "ReLU"
  bottom: "conv2_1"
  top: "conv2_1"
}
layer {
  name: "pool2"
  type: "Pooling"
  bottom: "conv2_1"
  top: "pool2"
  pooling_param {
    pool: MAX
    kernel_size: 2
    stride: 2
  }
}
layer {
  name: "conv3_1"
  type: "Convolution"
  bottom: "pool2"
  top: "conv3_1"
  param {
    lr_mult: 1
    decay_mult: 1
  }
  convolution_param {
    num_output: 128
    bias_term: false
    pad: 1
    kernel_size: 3
    weight_filler {
      type: "xavier"
    }
  }
}
layer {
  name: "bn3_1"
  type: "BatchNorm"
  bottom: "conv3_1"
  top: "conv3_1"
  param {
    lr_mult: 0
  }
  param {
    lr_mult: 0
  }
  param {
    lr_mult: 0
  }
  batch_norm_param {
    use_global_stats: false
  }
}
layer {
  name: "scale3_1"
  type: "Scale"
  bottom: "conv3_1"
  top: "conv3_1"
  param {
    lr_mult: 1
    decay_mult: 1
  }
  param {
    lr_mult: 1
    decay_mult: 1
  }
  scale_param {
    bias_term: true
    bias_filler {
      type: "constant"
      value: 0
    }
  }
}
layer {
  name: "relu3_1"
  type: "ReLU"
  bottom: "conv3_1"
  top: "conv3_1"
}
layer {
  name: "pool3"
  type: "Pooling"
  bottom: "conv3_1"
  top: "pool3"
  pooling_param {
    pool: MAX
    kernel_size: 2
    stride: 2
  }
}
layer {
  name: "conv4_1"
  type: "Convolution"
  bottom: "pool3"
  top: "conv4_1"
  param {
    lr_mult: 1
    decay_mult: 1
  }
  convolution_param {
    num_output: 256
    bias_term: false
    pad: 1
    kernel_size: 3
    weight_filler {
      type: "xavier"
    }
  }
}
layer {
  name: "bn4_1"
  type: "BatchNorm"
  bottom: "conv4_1"
  top: "conv4_1"
  param {
    lr_mult: 0
  }
  param {
    lr_mult: 0
  }
  param {
    lr_mult: 0
  }
  batch_norm_param {
    use_global_stats: false
  }
}
layer {
  name: "scale4_1"
  type: "Scale"
  bottom: "conv4_1"
  top: "conv4_1"
  param {
    lr_mult: 1
    decay_mult: 1
  }
  param {
    lr_mult: 1
    decay_mult: 1
  }
  scale_param {
    bias_term: true
    bias_filler {
      type: "constant"
      value: 0
    }
  }
}
layer {
  name: "relu4_1"
  type: "ReLU"
  bottom: "conv4_1"
  top: "conv4_1"
}
layer {
  name: "pool4"
  type: "Pooling"
  bottom: "conv4_1"
  top: "pool4"
  pooling_param {
    pool: MAX
    kernel_size: 2
    stride: 2
  }
}
layer {
  name: "conv5_1"
  type: "Convolution"
  bottom: "pool4"
  top: "conv5_1"
  param {
    lr_mult: 1
    decay_mult: 1
  }
  convolution_param {
    num_output: 256
    bias_term: false
    pad: 1
    kernel_size: 3
    weight_filler {
      type: "xavier"
    }
  }
}
layer {
  name: "bn5_1"
  type: "BatchNorm"
  bottom: "conv5_1"
  top: "conv5_1"
  param {
    lr_mult: 0
  }
  param {
    lr_mult: 0
  }
  param {
    lr_mult: 0
  }
  batch_norm_param {
    use_global_stats: false
  }
}
layer {
  name: "scale5_1"
  type: "Scale"
  bottom: "conv5_1"
  top: "conv5_1"
  param {
    lr_mult: 1
    decay_mult: 1
  }
  param {
    lr_mult: 1
    decay_mult: 1
  }
  scale_param {
    bias_term: true
    bias_filler {
      type: "constant"
      value: 0
    }
  }
}
layer {
  name: "relu5_1"
  type: "ReLU"
  bottom: "conv5_1"
  top: "conv5_1"
}
layer {
  name: "pool5"
  type: "Pooling"
  bottom: "conv5_1"
  top: "pool5"
  pooling_param {
    pool: AVE
    stride: 1
    kernel_h: 6
    kernel_w: 8
  }
}
layer {
  name: "fc2"
  type: "InnerProduct"
  bottom: "pool5"
  top: "fc2"
  inner_product_param {
    num_output: 2
  }
}
layer {
  name: "loss"
  type: "SoftmaxWithLoss"
  bottom: "fc2"
  bottom: "label"
  top: "loss"
}
layer {
  name: "accuracy"
  type: "Accuracy"
  bottom: "fc2"
  bottom: "label"
  top: "accuracy"
}
I0627 13:53:09.573462  5034 layer_factory.hpp:77] Creating layer data
I0627 13:53:09.573850  5034 net.cpp:91] Creating Layer data
I0627 13:53:09.573861  5034 net.cpp:399] data -> data
I0627 13:53:09.573882  5034 net.cpp:399] data -> label
I0627 13:53:09.575222  5038 db_lmdb.cpp:35] Opened lmdb data/train_lmdb
I0627 13:53:09.599277  5034 data_layer.cpp:42] output data size: 32,3,196,256
I0627 13:53:09.638165  5034 net.cpp:141] Setting up data
I0627 13:53:09.638197  5034 net.cpp:148] Top shape: 32 3 196 256 (4816896)
I0627 13:53:09.638202  5034 net.cpp:148] Top shape: 32 (32)
I0627 13:53:09.638205  5034 net.cpp:156] Memory required for data: 19267712
I0627 13:53:09.638212  5034 layer_factory.hpp:77] Creating layer label_data_1_split
I0627 13:53:09.638229  5034 net.cpp:91] Creating Layer label_data_1_split
I0627 13:53:09.638233  5034 net.cpp:425] label_data_1_split <- label
I0627 13:53:09.638242  5034 net.cpp:399] label_data_1_split -> label_data_1_split_0
I0627 13:53:09.638252  5034 net.cpp:399] label_data_1_split -> label_data_1_split_1
I0627 13:53:09.638315  5034 net.cpp:141] Setting up label_data_1_split
I0627 13:53:09.638322  5034 net.cpp:148] Top shape: 32 (32)
I0627 13:53:09.638324  5034 net.cpp:148] Top shape: 32 (32)
I0627 13:53:09.638326  5034 net.cpp:156] Memory required for data: 19267968
I0627 13:53:09.638329  5034 layer_factory.hpp:77] Creating layer conv1_1
I0627 13:53:09.638345  5034 net.cpp:91] Creating Layer conv1_1
I0627 13:53:09.638348  5034 net.cpp:425] conv1_1 <- data
I0627 13:53:09.638352  5034 net.cpp:399] conv1_1 -> conv1_1
I0627 13:53:09.921191  5034 net.cpp:141] Setting up conv1_1
I0627 13:53:09.921218  5034 net.cpp:148] Top shape: 32 32 98 128 (12845056)
I0627 13:53:09.921239  5034 net.cpp:156] Memory required for data: 70648192
I0627 13:53:09.921252  5034 layer_factory.hpp:77] Creating layer bn1_1
I0627 13:53:09.921267  5034 net.cpp:91] Creating Layer bn1_1
I0627 13:53:09.921270  5034 net.cpp:425] bn1_1 <- conv1_1
I0627 13:53:09.921274  5034 net.cpp:386] bn1_1 -> conv1_1 (in-place)
I0627 13:53:09.921427  5034 net.cpp:141] Setting up bn1_1
I0627 13:53:09.921435  5034 net.cpp:148] Top shape: 32 32 98 128 (12845056)
I0627 13:53:09.921438  5034 net.cpp:156] Memory required for data: 122028416
I0627 13:53:09.921447  5034 layer_factory.hpp:77] Creating layer scale1_1
I0627 13:53:09.921457  5034 net.cpp:91] Creating Layer scale1_1
I0627 13:53:09.921458  5034 net.cpp:425] scale1_1 <- conv1_1
I0627 13:53:09.921463  5034 net.cpp:386] scale1_1 -> conv1_1 (in-place)
I0627 13:53:09.921497  5034 layer_factory.hpp:77] Creating layer scale1_1
I0627 13:53:09.921593  5034 net.cpp:141] Setting up scale1_1
I0627 13:53:09.921600  5034 net.cpp:148] Top shape: 32 32 98 128 (12845056)
I0627 13:53:09.921603  5034 net.cpp:156] Memory required for data: 173408640
I0627 13:53:09.921609  5034 layer_factory.hpp:77] Creating layer relu1_1
I0627 13:53:09.921614  5034 net.cpp:91] Creating Layer relu1_1
I0627 13:53:09.921617  5034 net.cpp:425] relu1_1 <- conv1_1
I0627 13:53:09.921620  5034 net.cpp:386] relu1_1 -> conv1_1 (in-place)
I0627 13:53:09.921752  5034 net.cpp:141] Setting up relu1_1
I0627 13:53:09.921761  5034 net.cpp:148] Top shape: 32 32 98 128 (12845056)
I0627 13:53:09.921764  5034 net.cpp:156] Memory required for data: 224788864
I0627 13:53:09.921766  5034 layer_factory.hpp:77] Creating layer pool1
I0627 13:53:09.921772  5034 net.cpp:91] Creating Layer pool1
I0627 13:53:09.921775  5034 net.cpp:425] pool1 <- conv1_1
I0627 13:53:09.921779  5034 net.cpp:399] pool1 -> pool1
I0627 13:53:09.921820  5034 net.cpp:141] Setting up pool1
I0627 13:53:09.921825  5034 net.cpp:148] Top shape: 32 32 49 64 (3211264)
I0627 13:53:09.921828  5034 net.cpp:156] Memory required for data: 237633920
I0627 13:53:09.921830  5034 layer_factory.hpp:77] Creating layer conv2_1
I0627 13:53:09.921838  5034 net.cpp:91] Creating Layer conv2_1
I0627 13:53:09.921840  5034 net.cpp:425] conv2_1 <- pool1
I0627 13:53:09.921844  5034 net.cpp:399] conv2_1 -> conv2_1
I0627 13:53:09.926420  5034 net.cpp:141] Setting up conv2_1
I0627 13:53:09.926435  5034 net.cpp:148] Top shape: 32 64 49 64 (6422528)
I0627 13:53:09.926439  5034 net.cpp:156] Memory required for data: 263324032
I0627 13:53:09.926443  5034 layer_factory.hpp:77] Creating layer bn2_1
I0627 13:53:09.926450  5034 net.cpp:91] Creating Layer bn2_1
I0627 13:53:09.926453  5034 net.cpp:425] bn2_1 <- conv2_1
I0627 13:53:09.926458  5034 net.cpp:386] bn2_1 -> conv2_1 (in-place)
I0627 13:53:09.927683  5034 net.cpp:141] Setting up bn2_1
I0627 13:53:09.927695  5034 net.cpp:148] Top shape: 32 64 49 64 (6422528)
I0627 13:53:09.927698  5034 net.cpp:156] Memory required for data: 289014144
I0627 13:53:09.927707  5034 layer_factory.hpp:77] Creating layer scale2_1
I0627 13:53:09.927716  5034 net.cpp:91] Creating Layer scale2_1
I0627 13:53:09.927718  5034 net.cpp:425] scale2_1 <- conv2_1
I0627 13:53:09.927721  5034 net.cpp:386] scale2_1 -> conv2_1 (in-place)
I0627 13:53:09.927757  5034 layer_factory.hpp:77] Creating layer scale2_1
I0627 13:53:09.927845  5034 net.cpp:141] Setting up scale2_1
I0627 13:53:09.927852  5034 net.cpp:148] Top shape: 32 64 49 64 (6422528)
I0627 13:53:09.927855  5034 net.cpp:156] Memory required for data: 314704256
I0627 13:53:09.927858  5034 layer_factory.hpp:77] Creating layer relu2_1
I0627 13:53:09.927863  5034 net.cpp:91] Creating Layer relu2_1
I0627 13:53:09.927866  5034 net.cpp:425] relu2_1 <- conv2_1
I0627 13:53:09.927870  5034 net.cpp:386] relu2_1 -> conv2_1 (in-place)
I0627 13:53:09.928004  5034 net.cpp:141] Setting up relu2_1
I0627 13:53:09.928011  5034 net.cpp:148] Top shape: 32 64 49 64 (6422528)
I0627 13:53:09.928014  5034 net.cpp:156] Memory required for data: 340394368
I0627 13:53:09.928017  5034 layer_factory.hpp:77] Creating layer pool2
I0627 13:53:09.928032  5034 net.cpp:91] Creating Layer pool2
I0627 13:53:09.928035  5034 net.cpp:425] pool2 <- conv2_1
I0627 13:53:09.928042  5034 net.cpp:399] pool2 -> pool2
I0627 13:53:09.928076  5034 net.cpp:141] Setting up pool2
I0627 13:53:09.928081  5034 net.cpp:148] Top shape: 32 64 25 32 (1638400)
I0627 13:53:09.928082  5034 net.cpp:156] Memory required for data: 346947968
I0627 13:53:09.928084  5034 layer_factory.hpp:77] Creating layer conv3_1
I0627 13:53:09.928093  5034 net.cpp:91] Creating Layer conv3_1
I0627 13:53:09.928097  5034 net.cpp:425] conv3_1 <- pool2
I0627 13:53:09.928100  5034 net.cpp:399] conv3_1 -> conv3_1
I0627 13:53:09.930368  5034 net.cpp:141] Setting up conv3_1
I0627 13:53:09.930382  5034 net.cpp:148] Top shape: 32 128 25 32 (3276800)
I0627 13:53:09.930383  5034 net.cpp:156] Memory required for data: 360055168
I0627 13:53:09.930388  5034 layer_factory.hpp:77] Creating layer bn3_1
I0627 13:53:09.930395  5034 net.cpp:91] Creating Layer bn3_1
I0627 13:53:09.930398  5034 net.cpp:425] bn3_1 <- conv3_1
I0627 13:53:09.930403  5034 net.cpp:386] bn3_1 -> conv3_1 (in-place)
I0627 13:53:09.931617  5034 net.cpp:141] Setting up bn3_1
I0627 13:53:09.931629  5034 net.cpp:148] Top shape: 32 128 25 32 (3276800)
I0627 13:53:09.931632  5034 net.cpp:156] Memory required for data: 373162368
I0627 13:53:09.931638  5034 layer_factory.hpp:77] Creating layer scale3_1
I0627 13:53:09.931645  5034 net.cpp:91] Creating Layer scale3_1
I0627 13:53:09.931648  5034 net.cpp:425] scale3_1 <- conv3_1
I0627 13:53:09.931651  5034 net.cpp:386] scale3_1 -> conv3_1 (in-place)
I0627 13:53:09.931687  5034 layer_factory.hpp:77] Creating layer scale3_1
I0627 13:53:09.931792  5034 net.cpp:141] Setting up scale3_1
I0627 13:53:09.931802  5034 net.cpp:148] Top shape: 32 128 25 32 (3276800)
I0627 13:53:09.931805  5034 net.cpp:156] Memory required for data: 386269568
I0627 13:53:09.931819  5034 layer_factory.hpp:77] Creating layer relu3_1
I0627 13:53:09.931829  5034 net.cpp:91] Creating Layer relu3_1
I0627 13:53:09.931833  5034 net.cpp:425] relu3_1 <- conv3_1
I0627 13:53:09.931836  5034 net.cpp:386] relu3_1 -> conv3_1 (in-place)
I0627 13:53:09.932250  5034 net.cpp:141] Setting up relu3_1
I0627 13:53:09.932261  5034 net.cpp:148] Top shape: 32 128 25 32 (3276800)
I0627 13:53:09.932265  5034 net.cpp:156] Memory required for data: 399376768
I0627 13:53:09.932267  5034 layer_factory.hpp:77] Creating layer pool3
I0627 13:53:09.932274  5034 net.cpp:91] Creating Layer pool3
I0627 13:53:09.932276  5034 net.cpp:425] pool3 <- conv3_1
I0627 13:53:09.932282  5034 net.cpp:399] pool3 -> pool3
I0627 13:53:09.932317  5034 net.cpp:141] Setting up pool3
I0627 13:53:09.932324  5034 net.cpp:148] Top shape: 32 128 13 16 (851968)
I0627 13:53:09.932327  5034 net.cpp:156] Memory required for data: 402784640
I0627 13:53:09.932329  5034 layer_factory.hpp:77] Creating layer conv4_1
I0627 13:53:09.932338  5034 net.cpp:91] Creating Layer conv4_1
I0627 13:53:09.932342  5034 net.cpp:425] conv4_1 <- pool3
I0627 13:53:09.932345  5034 net.cpp:399] conv4_1 -> conv4_1
I0627 13:53:09.934768  5034 net.cpp:141] Setting up conv4_1
I0627 13:53:09.934782  5034 net.cpp:148] Top shape: 32 256 13 16 (1703936)
I0627 13:53:09.934784  5034 net.cpp:156] Memory required for data: 409600384
I0627 13:53:09.934788  5034 layer_factory.hpp:77] Creating layer bn4_1
I0627 13:53:09.934795  5034 net.cpp:91] Creating Layer bn4_1
I0627 13:53:09.934798  5034 net.cpp:425] bn4_1 <- conv4_1
I0627 13:53:09.934803  5034 net.cpp:386] bn4_1 -> conv4_1 (in-place)
I0627 13:53:09.934945  5034 net.cpp:141] Setting up bn4_1
I0627 13:53:09.934953  5034 net.cpp:148] Top shape: 32 256 13 16 (1703936)
I0627 13:53:09.934955  5034 net.cpp:156] Memory required for data: 416416128
I0627 13:53:09.934962  5034 layer_factory.hpp:77] Creating layer scale4_1
I0627 13:53:09.934967  5034 net.cpp:91] Creating Layer scale4_1
I0627 13:53:09.934970  5034 net.cpp:425] scale4_1 <- conv4_1
I0627 13:53:09.934973  5034 net.cpp:386] scale4_1 -> conv4_1 (in-place)
I0627 13:53:09.935005  5034 layer_factory.hpp:77] Creating layer scale4_1
I0627 13:53:09.935097  5034 net.cpp:141] Setting up scale4_1
I0627 13:53:09.935106  5034 net.cpp:148] Top shape: 32 256 13 16 (1703936)
I0627 13:53:09.935107  5034 net.cpp:156] Memory required for data: 423231872
I0627 13:53:09.935112  5034 layer_factory.hpp:77] Creating layer relu4_1
I0627 13:53:09.935117  5034 net.cpp:91] Creating Layer relu4_1
I0627 13:53:09.935118  5034 net.cpp:425] relu4_1 <- conv4_1
I0627 13:53:09.935123  5034 net.cpp:386] relu4_1 -> conv4_1 (in-place)
I0627 13:53:09.935523  5034 net.cpp:141] Setting up relu4_1
I0627 13:53:09.935534  5034 net.cpp:148] Top shape: 32 256 13 16 (1703936)
I0627 13:53:09.935536  5034 net.cpp:156] Memory required for data: 430047616
I0627 13:53:09.935539  5034 layer_factory.hpp:77] Creating layer pool4
I0627 13:53:09.935546  5034 net.cpp:91] Creating Layer pool4
I0627 13:53:09.935549  5034 net.cpp:425] pool4 <- conv4_1
I0627 13:53:09.935552  5034 net.cpp:399] pool4 -> pool4
I0627 13:53:09.935588  5034 net.cpp:141] Setting up pool4
I0627 13:53:09.935593  5034 net.cpp:148] Top shape: 32 256 7 8 (458752)
I0627 13:53:09.935595  5034 net.cpp:156] Memory required for data: 431882624
I0627 13:53:09.935597  5034 layer_factory.hpp:77] Creating layer conv5_1
I0627 13:53:09.935606  5034 net.cpp:91] Creating Layer conv5_1
I0627 13:53:09.935607  5034 net.cpp:425] conv5_1 <- pool4
I0627 13:53:09.935612  5034 net.cpp:399] conv5_1 -> conv5_1
I0627 13:53:09.941246  5034 net.cpp:141] Setting up conv5_1
I0627 13:53:09.941262  5034 net.cpp:148] Top shape: 32 256 7 8 (458752)
I0627 13:53:09.941264  5034 net.cpp:156] Memory required for data: 433717632
I0627 13:53:09.941270  5034 layer_factory.hpp:77] Creating layer bn5_1
I0627 13:53:09.941278  5034 net.cpp:91] Creating Layer bn5_1
I0627 13:53:09.941282  5034 net.cpp:425] bn5_1 <- conv5_1
I0627 13:53:09.941287  5034 net.cpp:386] bn5_1 -> conv5_1 (in-place)
I0627 13:53:09.941438  5034 net.cpp:141] Setting up bn5_1
I0627 13:53:09.941445  5034 net.cpp:148] Top shape: 32 256 7 8 (458752)
I0627 13:53:09.941448  5034 net.cpp:156] Memory required for data: 435552640
I0627 13:53:09.941454  5034 layer_factory.hpp:77] Creating layer scale5_1
I0627 13:53:09.941460  5034 net.cpp:91] Creating Layer scale5_1
I0627 13:53:09.941463  5034 net.cpp:425] scale5_1 <- conv5_1
I0627 13:53:09.941467  5034 net.cpp:386] scale5_1 -> conv5_1 (in-place)
I0627 13:53:09.941499  5034 layer_factory.hpp:77] Creating layer scale5_1
I0627 13:53:09.941578  5034 net.cpp:141] Setting up scale5_1
I0627 13:53:09.941588  5034 net.cpp:148] Top shape: 32 256 7 8 (458752)
I0627 13:53:09.941591  5034 net.cpp:156] Memory required for data: 437387648
I0627 13:53:09.941594  5034 layer_factory.hpp:77] Creating layer relu5_1
I0627 13:53:09.941599  5034 net.cpp:91] Creating Layer relu5_1
I0627 13:53:09.941601  5034 net.cpp:425] relu5_1 <- conv5_1
I0627 13:53:09.941606  5034 net.cpp:386] relu5_1 -> conv5_1 (in-place)
I0627 13:53:09.941746  5034 net.cpp:141] Setting up relu5_1
I0627 13:53:09.941756  5034 net.cpp:148] Top shape: 32 256 7 8 (458752)
I0627 13:53:09.941757  5034 net.cpp:156] Memory required for data: 439222656
I0627 13:53:09.941761  5034 layer_factory.hpp:77] Creating layer pool5
I0627 13:53:09.941766  5034 net.cpp:91] Creating Layer pool5
I0627 13:53:09.941768  5034 net.cpp:425] pool5 <- conv5_1
I0627 13:53:09.941773  5034 net.cpp:399] pool5 -> pool5
I0627 13:53:09.941928  5034 net.cpp:141] Setting up pool5
I0627 13:53:09.941937  5034 net.cpp:148] Top shape: 32 256 2 1 (16384)
I0627 13:53:09.941941  5034 net.cpp:156] Memory required for data: 439288192
I0627 13:53:09.941943  5034 layer_factory.hpp:77] Creating layer fc2
I0627 13:53:09.941949  5034 net.cpp:91] Creating Layer fc2
I0627 13:53:09.941952  5034 net.cpp:425] fc2 <- pool5
I0627 13:53:09.941956  5034 net.cpp:399] fc2 -> fc2
I0627 13:53:09.942044  5034 net.cpp:141] Setting up fc2
I0627 13:53:09.942052  5034 net.cpp:148] Top shape: 32 2 (64)
I0627 13:53:09.942054  5034 net.cpp:156] Memory required for data: 439288448
I0627 13:53:09.942059  5034 layer_factory.hpp:77] Creating layer fc2_fc2_0_split
I0627 13:53:09.942076  5034 net.cpp:91] Creating Layer fc2_fc2_0_split
I0627 13:53:09.942078  5034 net.cpp:425] fc2_fc2_0_split <- fc2
I0627 13:53:09.942083  5034 net.cpp:399] fc2_fc2_0_split -> fc2_fc2_0_split_0
I0627 13:53:09.942087  5034 net.cpp:399] fc2_fc2_0_split -> fc2_fc2_0_split_1
I0627 13:53:09.942121  5034 net.cpp:141] Setting up fc2_fc2_0_split
I0627 13:53:09.942124  5034 net.cpp:148] Top shape: 32 2 (64)
I0627 13:53:09.942128  5034 net.cpp:148] Top shape: 32 2 (64)
I0627 13:53:09.942131  5034 net.cpp:156] Memory required for data: 439288960
I0627 13:53:09.942132  5034 layer_factory.hpp:77] Creating layer loss
I0627 13:53:09.942140  5034 net.cpp:91] Creating Layer loss
I0627 13:53:09.942143  5034 net.cpp:425] loss <- fc2_fc2_0_split_0
I0627 13:53:09.942147  5034 net.cpp:425] loss <- label_data_1_split_0
I0627 13:53:09.942150  5034 net.cpp:399] loss -> loss
…
I0627 13:53:09.943065  5034 solver.cpp:181] Creating test net (#0) specified by net file: models/bpnet/train_val.prototxt
I0627 13:53:09.943102  5034 net.cpp:313] The NetState phase (1) differed from the phase (0) specified by a rule in layer data
I0627 13:53:09.943239  5034 net.cpp:49] Initializing net from parameters: 
name: "BPnet"
state {
  phase: TEST
}
layer {
  name: "data"
  type: "Data"
  top: "data"
  top: "label"
  include {
    phase: TEST
  }
  transform_param {
    mirror: false
    mean_value: 50
    crop_h: 196
    crop_w: 256
  }
  data_param {
    source: "data/val_lmdb"
    batch_size: 64
    backend: LMDB
  }
}
layer {
  name: "conv1_1"
  type: "Convolution"
  bottom: "data"
  top: "conv1_1"
  param {
    lr_mult: 1
    decay_mult: 1
  }
  convolution_param {
    num_output: 32
    bias_term: false
    pad: 3
    kernel_size: 7
    stride: 2
    weight_filler {
      type: "xavier"
    }
  }
}
layer {
  name: "bn1_1"
  type: "BatchNorm"
  bottom: "conv1_1"
  top: "conv1_1"
  param {
    lr_mult: 0
  }
  param {
    lr_mult: 0
  }
  param {
    lr_mult: 0
  }
  batch_norm_param {
    use_global_stats: false
  }
}
layer {
  name: "scale1_1"
  type: "Scale"
  bottom: "conv1_1"
  top: "conv1_1"
  param {
    lr_mult: 1
    decay_mult: 1
  }
  param {
    lr_mult: 1
    decay_mult: 1
  }
  scale_param {
    bias_term: true
    bias_filler {
      type: "constant"
      value: 0
    }
  }
}
layer {
  name: "relu1_1"
  type: "ReLU"
  bottom: "conv1_1"
  top: "conv1_1"
}
layer {
  name: "pool1"
  type: "Pooling"
  bottom: "conv1_1"
  top: "pool1"
  pooling_param {
    pool: MAX
    kernel_size: 2
    stride: 2
  }
}
layer {
  name: "conv2_1"
  type: "Convolution"
  bottom: "pool1"
  top: "conv2_1"
  param {
    lr_mult: 1
    decay_mult: 1
  }
  convolution_param {
    num_output: 64
    bias_term: false
    pad: 1
    kernel_size: 3
    weight_filler {
      type: "xavier"
    }
  }
}
layer {
  name: "bn2_1"
  type: "BatchNorm"
  bottom: "conv2_1"
  top: "conv2_1"
  param {
    lr_mult: 0
  }
  param {
    lr_mult: 0
  }
  param {
    lr_mult: 0
  }
  batch_norm_param {
    use_global_stats: false
  }
}
layer {
  name: "scale2_1"
  type: "Scale"
  bottom: "conv2_1"
  top: "conv2_1"
  param {
    lr_mult: 1
    decay_mult: 1
  }
  param {
    lr_mult: 1
    decay_mult: 1
  }
  scale_param {
    bias_term: true
    bias_filler {
      type: "constant"
      value: 0
    }
  }
}
layer {
  name: "relu2_1"
  type: "ReLU"
  bottom: "conv2_1"
  top: "conv2_1"
}
layer {
  name: "pool2"
  type: "Pooling"
  bottom: "conv2_1"
  top: "pool2"
  pooling_param {
    pool: MAX
    kernel_size: 2
    stride: 2
  }
}
layer {
  name: "conv3_1"
  type: "Convolution"
  bottom: "pool2"
  top: "conv3_1"
  param {
    lr_mult: 1
    decay_mult: 1
  }
  convolution_param {
    num_output: 128
    bias_term: false
    pad: 1
    kernel_size: 3
    weight_filler {
      type: "xavier"
    }
  }
}
layer {
  name: "bn3_1"
  type: "BatchNorm"
  bottom: "conv3_1"
  top: "conv3_1"
  param {
    lr_mult: 0
  }
  param {
    lr_mult: 0
  }
  param {
    lr_mult: 0
  }
  batch_norm_param {
    use_global_stats: false
  }
}
layer {
  name: "scale3_1"
  type: "Scale"
  bottom: "conv3_1"
  top: "conv3_1"
  param {
    lr_mult: 1
    decay_mult: 1
  }
  param {
    lr_mult: 1
    decay_mult: 1
  }
  scale_param {
    bias_term: true
    bias_filler {
      type: "constant"
      value: 0
    }
  }
}
layer {
  name: "relu3_1"
  type: "ReLU"
  bottom: "conv3_1"
  top: "conv3_1"
}
layer {
  name: "pool3"
  type: "Pooling"
  bottom: "conv3_1"
  top: "pool3"
  pooling_param {
    pool: MAX
    kernel_size: 2
    stride: 2
  }
}
layer {
  name: "conv4_1"
  type: "Convolution"
  bottom: "pool3"
  top: "conv4_1"
  param {
    lr_mult: 1
    decay_mult: 1
  }
  convolution_param {
    num_output: 256
    bias_term: false
    pad: 1
    kernel_size: 3
    weight_filler {
      type: "xavier"
    }
  }
}
layer {
  name: "bn4_1"
  type: "BatchNorm"
  bottom: "conv4_1"
  top: "conv4_1"
  param {
    lr_mult: 0
  }
  param {
    lr_mult: 0
  }
  param {
    lr_mult: 0
  }
  batch_norm_param {
    use_global_stats: false
  }
}
layer {
  name: "scale4_1"
  type: "Scale"
  bottom: "conv4_1"
  top: "conv4_1"
  param {
    lr_mult: 1
    decay_mult: 1
  }
  param {
    lr_mult: 1
    decay_mult: 1
  }
  scale_param {
    bias_term: true
    bias_filler {
      type: "constant"
      value: 0
    }
  }
}
layer {
  name: "relu4_1"
  type: "ReLU"
  bottom: "conv4_1"
  top: "conv4_1"
}
layer {
  name: "pool4"
  type: "Pooling"
  bottom: "conv4_1"
  top: "pool4"
  pooling_param {
    pool: MAX
    kernel_size: 2
    stride: 2
  }
}
layer {
  name: "conv5_1"
  type: "Convolution"
  bottom: "pool4"
  top: "conv5_1"
  param {
    lr_mult: 1
    decay_mult: 1
  }
  convolution_param {
    num_output: 256
    bias_term: false
    pad: 1
    kernel_size: 3
    weight_filler {
      type: "xavier"
    }
  }
}
layer {
  name: "bn5_1"
  type: "BatchNorm"
  bottom: "conv5_1"
  top: "conv5_1"
  param {
    lr_mult: 0
  }
  param {
    lr_mult: 0
  }
  param {
    lr_mult: 0
  }
  batch_norm_param {
    use_global_stats: false
  }
}
layer {
  name: "scale5_1"
  type: "Scale"
  bottom: "conv5_1"
  top: "conv5_1"
  param {
    lr_mult: 1
    decay_mult: 1
  }
  param {
    lr_mult: 1
    decay_mult: 1
  }
  scale_param {
    bias_term: true
    bias_filler {
      type: "constant"
      value: 0
    }
  }
}
layer {
  name: "relu5_1"
  type: "ReLU"
  bottom: "conv5_1"
  top: "conv5_1"
}
layer {
  name: "pool5"
  type: "Pooling"
  bottom: "conv5_1"
  top: "pool5"
  pooling_param {
    pool: AVE
    stride: 1
    kernel_h: 6
    kernel_w: 8
  }
}
layer {
  name: "fc2"
  type: "InnerProduct"
  bottom: "pool5"
  top: "fc2"
  inner_product_param {
    num_output: 2
  }
}
layer {
  name: "loss"
  type: "SoftmaxWithLoss"
  bottom: "fc2"
  bottom: "label"
  top: "loss"
}
layer {
  name: "accuracy"
  type: "Accuracy"
  bottom: "fc2"
  bottom: "label"
  top: "accuracy"
}
I0627 13:53:09.943338  5034 layer_factory.hpp:77] Creating layer data
I0627 13:53:09.943409  5034 net.cpp:91] Creating Layer data
I0627 13:53:09.943421  5034 net.cpp:399] data -> data
I0627 13:53:09.943429  5034 net.cpp:399] data -> label
I0627 13:53:09.944571  5047 db_lmdb.cpp:35] Opened lmdb data/val_lmdb
I0627 13:53:09.944897  5034 data_layer.cpp:42] output data size: 64,3,196,256
I0627 13:53:10.025745  5034 net.cpp:141] Setting up data
I0627 13:53:10.025770  5034 net.cpp:148] Top shape: 64 3 196 256 (9633792)
I0627 13:53:10.025774  5034 net.cpp:148] Top shape: 64 (64)
I0627 13:53:10.025776  5034 net.cpp:156] Memory required for data: 38535424
I0627 13:53:10.025780  5034 layer_factory.hpp:77] Creating layer label_data_1_split
I0627 13:53:10.025792  5034 net.cpp:91] Creating Layer label_data_1_split
I0627 13:53:10.025796  5034 net.cpp:425] label_data_1_split <- label
I0627 13:53:10.025801  5034 net.cpp:399] label_data_1_split -> label_data_1_split_0
I0627 13:53:10.025809  5034 net.cpp:399] label_data_1_split -> label_data_1_split_1
I0627 13:53:10.025921  5034 net.cpp:141] Setting up label_data_1_split
I0627 13:53:10.025929  5034 net.cpp:148] Top shape: 64 (64)
I0627 13:53:10.025933  5034 net.cpp:148] Top shape: 64 (64)
I0627 13:53:10.025934  5034 net.cpp:156] Memory required for data: 38535936
I0627 13:53:10.025938  5034 layer_factory.hpp:77] Creating layer conv1_1
I0627 13:53:10.025955  5034 net.cpp:91] Creating Layer conv1_1
I0627 13:53:10.025959  5034 net.cpp:425] conv1_1 <- data
I0627 13:53:10.025964  5034 net.cpp:399] conv1_1 -> conv1_1
I0627 13:53:10.026968  5034 net.cpp:141] Setting up conv1_1
I0627 13:53:10.026981  5034 net.cpp:148] Top shape: 64 32 98 128 (25690112)
I0627 13:53:10.026984  5034 net.cpp:156] Memory required for data: 141296384
I0627 13:53:10.026990  5034 layer_factory.hpp:77] Creating layer bn1_1
I0627 13:53:10.026999  5034 net.cpp:91] Creating Layer bn1_1
I0627 13:53:10.027015  5034 net.cpp:425] bn1_1 <- conv1_1
I0627 13:53:10.027026  5034 net.cpp:386] bn1_1 -> conv1_1 (in-place)
I0627 13:53:10.027196  5034 net.cpp:141] Setting up bn1_1
I0627 13:53:10.027204  5034 net.cpp:148] Top shape: 64 32 98 128 (25690112)
I0627 13:53:10.027206  5034 net.cpp:156] Memory required for data: 244056832
I0627 13:53:10.027215  5034 layer_factory.hpp:77] Creating layer scale1_1
I0627 13:53:10.027223  5034 net.cpp:91] Creating Layer scale1_1
I0627 13:53:10.027226  5034 net.cpp:425] scale1_1 <- conv1_1
I0627 13:53:10.027230  5034 net.cpp:386] scale1_1 -> conv1_1 (in-place)
I0627 13:53:10.027264  5034 layer_factory.hpp:77] Creating layer scale1_1
I0627 13:53:10.027371  5034 net.cpp:141] Setting up scale1_1
I0627 13:53:10.027379  5034 net.cpp:148] Top shape: 64 32 98 128 (25690112)
I0627 13:53:10.027381  5034 net.cpp:156] Memory required for data: 346817280
I0627 13:53:10.027387  5034 layer_factory.hpp:77] Creating layer relu1_1
I0627 13:53:10.027392  5034 net.cpp:91] Creating Layer relu1_1
I0627 13:53:10.027396  5034 net.cpp:425] relu1_1 <- conv1_1
I0627 13:53:10.027400  5034 net.cpp:386] relu1_1 -> conv1_1 (in-place)
I0627 13:53:10.031131  5034 net.cpp:141] Setting up relu1_1
I0627 13:53:10.031144  5034 net.cpp:148] Top shape: 64 32 98 128 (25690112)
I0627 13:53:10.031147  5034 net.cpp:156] Memory required for data: 449577728
I0627 13:53:10.031150  5034 layer_factory.hpp:77] Creating layer pool1
I0627 13:53:10.031157  5034 net.cpp:91] Creating Layer pool1
I0627 13:53:10.031160  5034 net.cpp:425] pool1 <- conv1_1
I0627 13:53:10.031164  5034 net.cpp:399] pool1 -> pool1
I0627 13:53:10.031204  5034 net.cpp:141] Setting up pool1
I0627 13:53:10.031208  5034 net.cpp:148] Top shape: 64 32 49 64 (6422528)
I0627 13:53:10.031210  5034 net.cpp:156] Memory required for data: 475267840
I0627 13:53:10.031213  5034 layer_factory.hpp:77] Creating layer conv2_1
I0627 13:53:10.031220  5034 net.cpp:91] Creating Layer conv2_1
I0627 13:53:10.031224  5034 net.cpp:425] conv2_1 <- pool1
I0627 13:53:10.031226  5034 net.cpp:399] conv2_1 -> conv2_1
I0627 13:53:10.032199  5034 net.cpp:141] Setting up conv2_1
I0627 13:53:10.032212  5034 net.cpp:148] Top shape: 64 64 49 64 (12845056)
I0627 13:53:10.032214  5034 net.cpp:156] Memory required for data: 526648064
I0627 13:53:10.032218  5034 layer_factory.hpp:77] Creating layer bn2_1
I0627 13:53:10.032227  5034 net.cpp:91] Creating Layer bn2_1
I0627 13:53:10.032229  5034 net.cpp:425] bn2_1 <- conv2_1
I0627 13:53:10.032233  5034 net.cpp:386] bn2_1 -> conv2_1 (in-place)
I0627 13:53:10.032392  5034 net.cpp:141] Setting up bn2_1
I0627 13:53:10.032398  5034 net.cpp:148] Top shape: 64 64 49 64 (12845056)
I0627 13:53:10.032402  5034 net.cpp:156] Memory required for data: 578028288
I0627 13:53:10.032409  5034 layer_factory.hpp:77] Creating layer scale2_1
I0627 13:53:10.032415  5034 net.cpp:91] Creating Layer scale2_1
I0627 13:53:10.032418  5034 net.cpp:425] scale2_1 <- conv2_1
I0627 13:53:10.032421  5034 net.cpp:386] scale2_1 -> conv2_1 (in-place)
I0627 13:53:10.032452  5034 layer_factory.hpp:77] Creating layer scale2_1
I0627 13:53:10.032544  5034 net.cpp:141] Setting up scale2_1
I0627 13:53:10.032552  5034 net.cpp:148] Top shape: 64 64 49 64 (12845056)
I0627 13:53:10.032554  5034 net.cpp:156] Memory required for data: 629408512
I0627 13:53:10.032558  5034 layer_factory.hpp:77] Creating layer relu2_1
I0627 13:53:10.032562  5034 net.cpp:91] Creating Layer relu2_1
I0627 13:53:10.032564  5034 net.cpp:425] relu2_1 <- conv2_1
I0627 13:53:10.032568  5034 net.cpp:386] relu2_1 -> conv2_1 (in-place)
I0627 13:53:10.032706  5034 net.cpp:141] Setting up relu2_1
I0627 13:53:10.032716  5034 net.cpp:148] Top shape: 64 64 49 64 (12845056)
I0627 13:53:10.032717  5034 net.cpp:156] Memory required for data: 680788736
I0627 13:53:10.032721  5034 layer_factory.hpp:77] Creating layer pool2
I0627 13:53:10.032727  5034 net.cpp:91] Creating Layer pool2
I0627 13:53:10.032728  5034 net.cpp:425] pool2 <- conv2_1
I0627 13:53:10.032732  5034 net.cpp:399] pool2 -> pool2
I0627 13:53:10.032765  5034 net.cpp:141] Setting up pool2
I0627 13:53:10.032780  5034 net.cpp:148] Top shape: 64 64 25 32 (3276800)
I0627 13:53:10.032783  5034 net.cpp:156] Memory required for data: 693895936
I0627 13:53:10.032784  5034 layer_factory.hpp:77] Creating layer conv3_1
I0627 13:53:10.032793  5034 net.cpp:91] Creating Layer conv3_1
I0627 13:53:10.032795  5034 net.cpp:425] conv3_1 <- pool2
I0627 13:53:10.032799  5034 net.cpp:399] conv3_1 -> conv3_1
I0627 13:53:10.034040  5034 net.cpp:141] Setting up conv3_1
I0627 13:53:10.034054  5034 net.cpp:148] Top shape: 64 128 25 32 (6553600)
I0627 13:53:10.034056  5034 net.cpp:156] Memory required for data: 720110336
I0627 13:53:10.034060  5034 layer_factory.hpp:77] Creating layer bn3_1
I0627 13:53:10.034066  5034 net.cpp:91] Creating Layer bn3_1
I0627 13:53:10.034068  5034 net.cpp:425] bn3_1 <- conv3_1
I0627 13:53:10.034073  5034 net.cpp:386] bn3_1 -> conv3_1 (in-place)
I0627 13:53:10.034217  5034 net.cpp:141] Setting up bn3_1
I0627 13:53:10.034224  5034 net.cpp:148] Top shape: 64 128 25 32 (6553600)
I0627 13:53:10.034226  5034 net.cpp:156] Memory required for data: 746324736
I0627 13:53:10.034231  5034 layer_factory.hpp:77] Creating layer scale3_1
I0627 13:53:10.034238  5034 net.cpp:91] Creating Layer scale3_1
I0627 13:53:10.034240  5034 net.cpp:425] scale3_1 <- conv3_1
I0627 13:53:10.034245  5034 net.cpp:386] scale3_1 -> conv3_1 (in-place)
I0627 13:53:10.034278  5034 layer_factory.hpp:77] Creating layer scale3_1
I0627 13:53:10.034361  5034 net.cpp:141] Setting up scale3_1
I0627 13:53:10.034368  5034 net.cpp:148] Top shape: 64 128 25 32 (6553600)
I0627 13:53:10.034370  5034 net.cpp:156] Memory required for data: 772539136
I0627 13:53:10.034378  5034 layer_factory.hpp:77] Creating layer relu3_1
I0627 13:53:10.034382  5034 net.cpp:91] Creating Layer relu3_1
I0627 13:53:10.034385  5034 net.cpp:425] relu3_1 <- conv3_1
I0627 13:53:10.034389  5034 net.cpp:386] relu3_1 -> conv3_1 (in-place)
I0627 13:53:10.034525  5034 net.cpp:141] Setting up relu3_1
I0627 13:53:10.034533  5034 net.cpp:148] Top shape: 64 128 25 32 (6553600)
I0627 13:53:10.034535  5034 net.cpp:156] Memory required for data: 798753536
I0627 13:53:10.034538  5034 layer_factory.hpp:77] Creating layer pool3
I0627 13:53:10.034545  5034 net.cpp:91] Creating Layer pool3
I0627 13:53:10.034548  5034 net.cpp:425] pool3 <- conv3_1
I0627 13:53:10.034554  5034 net.cpp:399] pool3 -> pool3
I0627 13:53:10.034587  5034 net.cpp:141] Setting up pool3
I0627 13:53:10.034591  5034 net.cpp:148] Top shape: 64 128 13 16 (1703936)
I0627 13:53:10.034593  5034 net.cpp:156] Memory required for data: 805569280
I0627 13:53:10.034595  5034 layer_factory.hpp:77] Creating layer conv4_1
I0627 13:53:10.034603  5034 net.cpp:91] Creating Layer conv4_1
I0627 13:53:10.034605  5034 net.cpp:425] conv4_1 <- pool3
I0627 13:53:10.034610  5034 net.cpp:399] conv4_1 -> conv4_1
I0627 13:53:10.038331  5034 net.cpp:141] Setting up conv4_1
I0627 13:53:10.038346  5034 net.cpp:148] Top shape: 64 256 13 16 (3407872)
I0627 13:53:10.038347  5034 net.cpp:156] Memory required for data: 819200768
I0627 13:53:10.038352  5034 layer_factory.hpp:77] Creating layer bn4_1
I0627 13:53:10.038358  5034 net.cpp:91] Creating Layer bn4_1
I0627 13:53:10.038360  5034 net.cpp:425] bn4_1 <- conv4_1
I0627 13:53:10.038365  5034 net.cpp:386] bn4_1 -> conv4_1 (in-place)
I0627 13:53:10.038521  5034 net.cpp:141] Setting up bn4_1
I0627 13:53:10.038527  5034 net.cpp:148] Top shape: 64 256 13 16 (3407872)
I0627 13:53:10.038530  5034 net.cpp:156] Memory required for data: 832832256
I0627 13:53:10.038537  5034 layer_factory.hpp:77] Creating layer scale4_1
I0627 13:53:10.038548  5034 net.cpp:91] Creating Layer scale4_1
I0627 13:53:10.038552  5034 net.cpp:425] scale4_1 <- conv4_1
I0627 13:53:10.038554  5034 net.cpp:386] scale4_1 -> conv4_1 (in-place)
I0627 13:53:10.038586  5034 layer_factory.hpp:77] Creating layer scale4_1
I0627 13:53:10.038667  5034 net.cpp:141] Setting up scale4_1
I0627 13:53:10.038674  5034 net.cpp:148] Top shape: 64 256 13 16 (3407872)
I0627 13:53:10.038676  5034 net.cpp:156] Memory required for data: 846463744
I0627 13:53:10.038691  5034 layer_factory.hpp:77] Creating layer relu4_1
I0627 13:53:10.038696  5034 net.cpp:91] Creating Layer relu4_1
I0627 13:53:10.038698  5034 net.cpp:425] relu4_1 <- conv4_1
I0627 13:53:10.038702  5034 net.cpp:386] relu4_1 -> conv4_1 (in-place)
I0627 13:53:10.038844  5034 net.cpp:141] Setting up relu4_1
I0627 13:53:10.038853  5034 net.cpp:148] Top shape: 64 256 13 16 (3407872)
I0627 13:53:10.038856  5034 net.cpp:156] Memory required for data: 860095232
I0627 13:53:10.038858  5034 layer_factory.hpp:77] Creating layer pool4
I0627 13:53:10.038864  5034 net.cpp:91] Creating Layer pool4
I0627 13:53:10.038867  5034 net.cpp:425] pool4 <- conv4_1
I0627 13:53:10.038872  5034 net.cpp:399] pool4 -> pool4
I0627 13:53:10.038908  5034 net.cpp:141] Setting up pool4
I0627 13:53:10.038913  5034 net.cpp:148] Top shape: 64 256 7 8 (917504)
I0627 13:53:10.038915  5034 net.cpp:156] Memory required for data: 863765248
I0627 13:53:10.038918  5034 layer_factory.hpp:77] Creating layer conv5_1
I0627 13:53:10.038925  5034 net.cpp:91] Creating Layer conv5_1
I0627 13:53:10.038928  5034 net.cpp:425] conv5_1 <- pool4
I0627 13:53:10.038933  5034 net.cpp:399] conv5_1 -> conv5_1
I0627 13:53:10.044572  5034 net.cpp:141] Setting up conv5_1
I0627 13:53:10.044589  5034 net.cpp:148] Top shape: 64 256 7 8 (917504)
I0627 13:53:10.044591  5034 net.cpp:156] Memory required for data: 867435264
I0627 13:53:10.044596  5034 layer_factory.hpp:77] Creating layer bn5_1
I0627 13:53:10.044605  5034 net.cpp:91] Creating Layer bn5_1
I0627 13:53:10.044607  5034 net.cpp:425] bn5_1 <- conv5_1
I0627 13:53:10.044612  5034 net.cpp:386] bn5_1 -> conv5_1 (in-place)
I0627 13:53:10.044773  5034 net.cpp:141] Setting up bn5_1
I0627 13:53:10.044780  5034 net.cpp:148] Top shape: 64 256 7 8 (917504)
I0627 13:53:10.044783  5034 net.cpp:156] Memory required for data: 871105280
I0627 13:53:10.044788  5034 layer_factory.hpp:77] Creating layer scale5_1
I0627 13:53:10.044795  5034 net.cpp:91] Creating Layer scale5_1
I0627 13:53:10.044797  5034 net.cpp:425] scale5_1 <- conv5_1
I0627 13:53:10.044802  5034 net.cpp:386] scale5_1 -> conv5_1 (in-place)
I0627 13:53:10.044834  5034 layer_factory.hpp:77] Creating layer scale5_1
I0627 13:53:10.044922  5034 net.cpp:141] Setting up scale5_1
I0627 13:53:10.044929  5034 net.cpp:148] Top shape: 64 256 7 8 (917504)
I0627 13:53:10.044931  5034 net.cpp:156] Memory required for data: 874775296
I0627 13:53:10.044935  5034 layer_factory.hpp:77] Creating layer relu5_1
I0627 13:53:10.044940  5034 net.cpp:91] Creating Layer relu5_1
I0627 13:53:10.044942  5034 net.cpp:425] relu5_1 <- conv5_1
I0627 13:53:10.044945  5034 net.cpp:386] relu5_1 -> conv5_1 (in-place)
I0627 13:53:10.045089  5034 net.cpp:141] Setting up relu5_1
I0627 13:53:10.045097  5034 net.cpp:148] Top shape: 64 256 7 8 (917504)
I0627 13:53:10.045099  5034 net.cpp:156] Memory required for data: 878445312
I0627 13:53:10.045102  5034 layer_factory.hpp:77] Creating layer pool5
I0627 13:53:10.045107  5034 net.cpp:91] Creating Layer pool5
I0627 13:53:10.045110  5034 net.cpp:425] pool5 <- conv5_1
I0627 13:53:10.045115  5034 net.cpp:399] pool5 -> pool5
I0627 13:53:10.045557  5034 net.cpp:141] Setting up pool5
I0627 13:53:10.045567  5034 net.cpp:148] Top shape: 64 256 2 1 (32768)
I0627 13:53:10.045570  5034 net.cpp:156] Memory required for data: 878576384
I0627 13:53:10.045573  5034 layer_factory.hpp:77] Creating layer fc2
I0627 13:53:10.045580  5034 net.cpp:91] Creating Layer fc2
I0627 13:53:10.045583  5034 net.cpp:425] fc2 <- pool5
I0627 13:53:10.045586  5034 net.cpp:399] fc2 -> fc2
I0627 13:53:10.045683  5034 net.cpp:141] Setting up fc2
I0627 13:53:10.045689  5034 net.cpp:148] Top shape: 64 2 (128)
I0627 13:53:10.045691  5034 net.cpp:156] Memory required for data: 878576896
I0627 13:53:10.045696  5034 layer_factory.hpp:77] Creating layer fc2_fc2_0_split
I0627 13:53:10.045701  5034 net.cpp:91] Creating Layer fc2_fc2_0_split
I0627 13:53:10.045704  5034 net.cpp:425] fc2_fc2_0_split <- fc2
I0627 13:53:10.045707  5034 net.cpp:399] fc2_fc2_0_split -> fc2_fc2_0_split_0
I0627 13:53:10.045712  5034 net.cpp:399] fc2_fc2_0_split -> fc2_fc2_0_split_1
I0627 13:53:10.045759  5034 net.cpp:141] Setting up fc2_fc2_0_split
I0627 13:53:10.045765  5034 net.cpp:148] Top shape: 64 2 (128)
I0627 13:53:10.045768  5034 net.cpp:148] Top shape: 64 2 (128)
I0627 13:53:10.045770  5034 net.cpp:156] Memory required for data: 878577920
I0627 13:53:10.045773  5034 layer_factory.hpp:77] Creating layer loss
I0627 13:53:10.045779  5034 net.cpp:91] Creating Layer loss
I0627 13:53:10.045781  5034 net.cpp:425] loss <- fc2_fc2_0_split_0
I0627 13:53:10.045784  5034 net.cpp:425] loss <- label_data_1_split_0
I0627 13:53:10.045789  5034 net.cpp:399] loss -> loss
…
