…
I0627 16:25:00.039352  7639 net.cpp:313] The NetState phase (0) differed from the phase (1) specified by a rule in layer data
I0627 16:25:00.039507  7639 net.cpp:49] Initializing net from parameters: 
name: "BPnet"
state {
  phase: TRAIN
}
layer {
  name: "data"
  type: "Data"
  top: "data"
  top: "label"
  include {
    phase: TRAIN
  }
  transform_param {
    mirror: true
    mean_value: 100
    crop_h: 192
    crop_w: 256
    rotation_range: 10
    scale_jitter_range: 0.1
    contrast_jitter_range: 0.3
  }
  data_param {
    source: "data/train_lmdb"
    batch_size: 32
    backend: LMDB
  }
}
layer {
  name: "conv1_1"
  type: "Convolution"
  bottom: "data"
  top: "conv1_1"
  param {
    lr_mult: 1
    decay_mult: 1
  }
  convolution_param {
    num_output: 32
    bias_term: false
    pad: 3
    kernel_size: 7
    stride: 2
    weight_filler {
      type: "xavier"
    }
  }
}
layer {
  name: "bn1_1"
  type: "BatchNorm"
  bottom: "conv1_1"
  top: "conv1_1"
  param {
    lr_mult: 0
  }
  param {
    lr_mult: 0
  }
  param {
    lr_mult: 0
  }
  batch_norm_param {
    use_global_stats: false
  }
}
layer {
  name: "scale1_1"
  type: "Scale"
  bottom: "conv1_1"
  top: "conv1_1"
  param {
    lr_mult: 1
    decay_mult: 1
  }
  param {
    lr_mult: 1
    decay_mult: 1
  }
  scale_param {
    bias_term: true
    bias_filler {
      type: "constant"
      value: 0
    }
  }
}
layer {
  name: "relu1_1"
  type: "ReLU"
  bottom: "conv1_1"
  top: "conv1_1"
}
layer {
  name: "pool1"
  type: "Pooling"
  bottom: "conv1_1"
  top: "pool1"
  pooling_param {
    pool: MAX
    kernel_size: 2
    stride: 2
  }
}
layer {
  name: "conv2_1"
  type: "Convolution"
  bottom: "pool1"
  top: "conv2_1"
  param {
    lr_mult: 1
    decay_mult: 1
  }
  convolution_param {
    num_output: 64
    bias_term: false
    pad: 1
    kernel_size: 3
    weight_filler {
      type: "xavier"
    }
  }
}
layer {
  name: "bn2_1"
  type: "BatchNorm"
  bottom: "conv2_1"
  top: "conv2_1"
  param {
    lr_mult: 0
  }
  param {
    lr_mult: 0
  }
  param {
    lr_mult: 0
  }
  batch_norm_param {
    use_global_stats: false
  }
}
layer {
  name: "scale2_1"
  type: "Scale"
  bottom: "conv2_1"
  top: "conv2_1"
  param {
    lr_mult: 1
    decay_mult: 1
  }
  param {
    lr_mult: 1
    decay_mult: 1
  }
  scale_param {
    bias_term: true
    bias_filler {
      type: "constant"
      value: 0
    }
  }
}
layer {
  name: "relu2_1"
  type: "ReLU"
  bottom: "conv2_1"
  top: "conv2_1"
}
layer {
  name: "pool2"
  type: "Pooling"
  bottom: "conv2_1"
  top: "pool2"
  pooling_param {
    pool: MAX
    kernel_size: 2
    stride: 2
  }
}
layer {
  name: "conv3_1"
  type: "Convolution"
  bottom: "pool2"
  top: "conv3_1"
  param {
    lr_mult: 1
    decay_mult: 1
  }
  convolution_param {
    num_output: 128
    bias_term: false
    pad: 1
    kernel_size: 3
    weight_filler {
      type: "xavier"
    }
  }
}
layer {
  name: "bn3_1"
  type: "BatchNorm"
  bottom: "conv3_1"
  top: "conv3_1"
  param {
    lr_mult: 0
  }
  param {
    lr_mult: 0
  }
  param {
    lr_mult: 0
  }
  batch_norm_param {
    use_global_stats: false
  }
}
layer {
  name: "scale3_1"
  type: "Scale"
  bottom: "conv3_1"
  top: "conv3_1"
  param {
    lr_mult: 1
    decay_mult: 1
  }
  param {
    lr_mult: 1
    decay_mult: 1
  }
  scale_param {
    bias_term: true
    bias_filler {
      type: "constant"
      value: 0
    }
  }
}
layer {
  name: "relu3_1"
  type: "ReLU"
  bottom: "conv3_1"
  top: "conv3_1"
}
layer {
  name: "pool3"
  type: "Pooling"
  bottom: "conv3_1"
  top: "pool3"
  pooling_param {
    pool: MAX
    kernel_size: 2
    stride: 2
  }
}
layer {
  name: "conv4_1"
  type: "Convolution"
  bottom: "pool3"
  top: "conv4_1"
  param {
    lr_mult: 1
    decay_mult: 1
  }
  convolution_param {
    num_output: 256
    bias_term: false
    pad: 1
    kernel_size: 3
    weight_filler {
      type: "xavier"
    }
  }
}
layer {
  name: "bn4_1"
  type: "BatchNorm"
  bottom: "conv4_1"
  top: "conv4_1"
  param {
    lr_mult: 0
  }
  param {
    lr_mult: 0
  }
  param {
    lr_mult: 0
  }
  batch_norm_param {
    use_global_stats: false
  }
}
layer {
  name: "scale4_1"
  type: "Scale"
  bottom: "conv4_1"
  top: "conv4_1"
  param {
    lr_mult: 1
    decay_mult: 1
  }
  param {
    lr_mult: 1
    decay_mult: 1
  }
  scale_param {
    bias_term: true
    bias_filler {
      type: "constant"
      value: 0
    }
  }
}
layer {
  name: "relu4_1"
  type: "ReLU"
  bottom: "conv4_1"
  top: "conv4_1"
}
layer {
  name: "pool4"
  type: "Pooling"
  bottom: "conv4_1"
  top: "pool4"
  pooling_param {
    pool: MAX
    kernel_size: 2
    stride: 2
  }
}
layer {
  name: "conv5_1"
  type: "Convolution"
  bottom: "pool4"
  top: "conv5_1"
  param {
    lr_mult: 1
    decay_mult: 1
  }
  convolution_param {
    num_output: 256
    bias_term: false
    pad: 1
    kernel_size: 3
    weight_filler {
      type: "xavier"
    }
  }
}
layer {
  name: "bn5_1"
  type: "BatchNorm"
  bottom: "conv5_1"
  top: "conv5_1"
  param {
    lr_mult: 0
  }
  param {
    lr_mult: 0
  }
  param {
    lr_mult: 0
  }
  batch_norm_param {
    use_global_stats: false
  }
}
layer {
  name: "scale5_1"
  type: "Scale"
  bottom: "conv5_1"
  top: "conv5_1"
  param {
    lr_mult: 1
    decay_mult: 1
  }
  param {
    lr_mult: 1
    decay_mult: 1
  }
  scale_param {
    bias_term: true
    bias_filler {
      type: "constant"
      value: 0
    }
  }
}
layer {
  name: "relu5_1"
  type: "ReLU"
  bottom: "conv5_1"
  top: "conv5_1"
}
layer {
  name: "pool5"
  type: "Pooling"
  bottom: "conv5_1"
  top: "pool5"
  pooling_param {
    pool: AVE
    stride: 1
    kernel_h: 6
    kernel_w: 8
  }
}
layer {
  name: "fc2"
  type: "InnerProduct"
  bottom: "pool5"
  top: "fc2"
  inner_product_param {
    num_output: 2
  }
}
layer {
  name: "loss"
  type: "SoftmaxWithLoss"
  bottom: "fc2"
  bottom: "label"
  top: "loss"
}
layer {
  name: "accuracy"
  type: "Accuracy"
  bottom: "fc2"
  bottom: "label"
  top: "accuracy"
}
I0627 16:25:00.039636  7639 layer_factory.hpp:77] Creating layer data
I0627 16:25:00.040217  7639 net.cpp:91] Creating Layer data
I0627 16:25:00.040230  7639 net.cpp:399] data -> data
I0627 16:25:00.040251  7639 net.cpp:399] data -> label
I0627 16:25:00.041476  7643 db_lmdb.cpp:35] Opened lmdb data/train_lmdb
I0627 16:25:00.057879  7639 data_layer.cpp:42] output data size: 32,1,192,256
I0627 16:25:00.069926  7639 net.cpp:141] Setting up data
I0627 16:25:00.069954  7639 net.cpp:148] Top shape: 32 1 192 256 (1572864)
I0627 16:25:00.069958  7639 net.cpp:148] Top shape: 32 (32)
I0627 16:25:00.069962  7639 net.cpp:156] Memory required for data: 6291584
I0627 16:25:00.069968  7639 layer_factory.hpp:77] Creating layer label_data_1_split
I0627 16:25:00.069984  7639 net.cpp:91] Creating Layer label_data_1_split
I0627 16:25:00.069989  7639 net.cpp:425] label_data_1_split <- label
I0627 16:25:00.069999  7639 net.cpp:399] label_data_1_split -> label_data_1_split_0
I0627 16:25:00.070008  7639 net.cpp:399] label_data_1_split -> label_data_1_split_1
I0627 16:25:00.070086  7639 net.cpp:141] Setting up label_data_1_split
I0627 16:25:00.070094  7639 net.cpp:148] Top shape: 32 (32)
I0627 16:25:00.070098  7639 net.cpp:148] Top shape: 32 (32)
I0627 16:25:00.070101  7639 net.cpp:156] Memory required for data: 6291840
I0627 16:25:00.070102  7639 layer_factory.hpp:77] Creating layer conv1_1
I0627 16:25:00.070122  7639 net.cpp:91] Creating Layer conv1_1
I0627 16:25:00.070124  7639 net.cpp:425] conv1_1 <- data
I0627 16:25:00.070128  7639 net.cpp:399] conv1_1 -> conv1_1
I0627 16:25:00.438160  7639 net.cpp:141] Setting up conv1_1
I0627 16:25:00.438187  7639 net.cpp:148] Top shape: 32 32 96 128 (12582912)
I0627 16:25:00.438210  7639 net.cpp:156] Memory required for data: 56623488
I0627 16:25:00.438222  7639 layer_factory.hpp:77] Creating layer bn1_1
I0627 16:25:00.438236  7639 net.cpp:91] Creating Layer bn1_1
I0627 16:25:00.438241  7639 net.cpp:425] bn1_1 <- conv1_1
I0627 16:25:00.438244  7639 net.cpp:386] bn1_1 -> conv1_1 (in-place)
I0627 16:25:00.439013  7639 net.cpp:141] Setting up bn1_1
I0627 16:25:00.439024  7639 net.cpp:148] Top shape: 32 32 96 128 (12582912)
I0627 16:25:00.439026  7639 net.cpp:156] Memory required for data: 106955136
I0627 16:25:00.439038  7639 layer_factory.hpp:77] Creating layer scale1_1
I0627 16:25:00.439048  7639 net.cpp:91] Creating Layer scale1_1
I0627 16:25:00.439050  7639 net.cpp:425] scale1_1 <- conv1_1
I0627 16:25:00.439054  7639 net.cpp:386] scale1_1 -> conv1_1 (in-place)
I0627 16:25:00.439095  7639 layer_factory.hpp:77] Creating layer scale1_1
I0627 16:25:00.439196  7639 net.cpp:141] Setting up scale1_1
I0627 16:25:00.439203  7639 net.cpp:148] Top shape: 32 32 96 128 (12582912)
I0627 16:25:00.439205  7639 net.cpp:156] Memory required for data: 157286784
I0627 16:25:00.439211  7639 layer_factory.hpp:77] Creating layer relu1_1
I0627 16:25:00.439218  7639 net.cpp:91] Creating Layer relu1_1
I0627 16:25:00.439219  7639 net.cpp:425] relu1_1 <- conv1_1
I0627 16:25:00.439224  7639 net.cpp:386] relu1_1 -> conv1_1 (in-place)
I0627 16:25:00.439505  7639 net.cpp:141] Setting up relu1_1
I0627 16:25:00.439517  7639 net.cpp:148] Top shape: 32 32 96 128 (12582912)
I0627 16:25:00.439518  7639 net.cpp:156] Memory required for data: 207618432
I0627 16:25:00.439522  7639 layer_factory.hpp:77] Creating layer pool1
I0627 16:25:00.439527  7639 net.cpp:91] Creating Layer pool1
I0627 16:25:00.439529  7639 net.cpp:425] pool1 <- conv1_1
I0627 16:25:00.439535  7639 net.cpp:399] pool1 -> pool1
I0627 16:25:00.439582  7639 net.cpp:141] Setting up pool1
I0627 16:25:00.439589  7639 net.cpp:148] Top shape: 32 32 48 64 (3145728)
I0627 16:25:00.439591  7639 net.cpp:156] Memory required for data: 220201344
I0627 16:25:00.439594  7639 layer_factory.hpp:77] Creating layer conv2_1
I0627 16:25:00.439602  7639 net.cpp:91] Creating Layer conv2_1
I0627 16:25:00.439605  7639 net.cpp:425] conv2_1 <- pool1
I0627 16:25:00.439610  7639 net.cpp:399] conv2_1 -> conv2_1
I0627 16:25:00.441217  7639 net.cpp:141] Setting up conv2_1
I0627 16:25:00.441229  7639 net.cpp:148] Top shape: 32 64 48 64 (6291456)
I0627 16:25:00.441232  7639 net.cpp:156] Memory required for data: 245367168
I0627 16:25:00.441236  7639 layer_factory.hpp:77] Creating layer bn2_1
I0627 16:25:00.441246  7639 net.cpp:91] Creating Layer bn2_1
I0627 16:25:00.441247  7639 net.cpp:425] bn2_1 <- conv2_1
I0627 16:25:00.441252  7639 net.cpp:386] bn2_1 -> conv2_1 (in-place)
I0627 16:25:00.441408  7639 net.cpp:141] Setting up bn2_1
I0627 16:25:00.441416  7639 net.cpp:148] Top shape: 32 64 48 64 (6291456)
I0627 16:25:00.441418  7639 net.cpp:156] Memory required for data: 270532992
I0627 16:25:00.441426  7639 layer_factory.hpp:77] Creating layer scale2_1
I0627 16:25:00.441432  7639 net.cpp:91] Creating Layer scale2_1
I0627 16:25:00.441434  7639 net.cpp:425] scale2_1 <- conv2_1
I0627 16:25:00.441439  7639 net.cpp:386] scale2_1 -> conv2_1 (in-place)
I0627 16:25:00.441471  7639 layer_factory.hpp:77] Creating layer scale2_1
I0627 16:25:00.441561  7639 net.cpp:141] Setting up scale2_1
I0627 16:25:00.441568  7639 net.cpp:148] Top shape: 32 64 48 64 (6291456)
I0627 16:25:00.441571  7639 net.cpp:156] Memory required for data: 295698816
I0627 16:25:00.441576  7639 layer_factory.hpp:77] Creating layer relu2_1
I0627 16:25:00.441581  7639 net.cpp:91] Creating Layer relu2_1
I0627 16:25:00.441582  7639 net.cpp:425] relu2_1 <- conv2_1
I0627 16:25:00.441586  7639 net.cpp:386] relu2_1 -> conv2_1 (in-place)
I0627 16:25:00.441726  7639 net.cpp:141] Setting up relu2_1
I0627 16:25:00.441736  7639 net.cpp:148] Top shape: 32 64 48 64 (6291456)
I0627 16:25:00.441738  7639 net.cpp:156] Memory required for data: 320864640
I0627 16:25:00.441741  7639 layer_factory.hpp:77] Creating layer pool2
I0627 16:25:00.441756  7639 net.cpp:91] Creating Layer pool2
I0627 16:25:00.441759  7639 net.cpp:425] pool2 <- conv2_1
I0627 16:25:00.441763  7639 net.cpp:399] pool2 -> pool2
I0627 16:25:00.441799  7639 net.cpp:141] Setting up pool2
I0627 16:25:00.441807  7639 net.cpp:148] Top shape: 32 64 24 32 (1572864)
I0627 16:25:00.441808  7639 net.cpp:156] Memory required for data: 327156096
I0627 16:25:00.441810  7639 layer_factory.hpp:77] Creating layer conv3_1
I0627 16:25:00.441818  7639 net.cpp:91] Creating Layer conv3_1
I0627 16:25:00.441820  7639 net.cpp:425] conv3_1 <- pool2
I0627 16:25:00.441824  7639 net.cpp:399] conv3_1 -> conv3_1
I0627 16:25:00.443727  7639 net.cpp:141] Setting up conv3_1
I0627 16:25:00.443738  7639 net.cpp:148] Top shape: 32 128 24 32 (3145728)
I0627 16:25:00.443742  7639 net.cpp:156] Memory required for data: 339739008
I0627 16:25:00.443745  7639 layer_factory.hpp:77] Creating layer bn3_1
I0627 16:25:00.443753  7639 net.cpp:91] Creating Layer bn3_1
I0627 16:25:00.443755  7639 net.cpp:425] bn3_1 <- conv3_1
I0627 16:25:00.443760  7639 net.cpp:386] bn3_1 -> conv3_1 (in-place)
I0627 16:25:00.444488  7639 net.cpp:141] Setting up bn3_1
I0627 16:25:00.444499  7639 net.cpp:148] Top shape: 32 128 24 32 (3145728)
I0627 16:25:00.444500  7639 net.cpp:156] Memory required for data: 352321920
I0627 16:25:00.444506  7639 layer_factory.hpp:77] Creating layer scale3_1
I0627 16:25:00.444514  7639 net.cpp:91] Creating Layer scale3_1
I0627 16:25:00.444515  7639 net.cpp:425] scale3_1 <- conv3_1
I0627 16:25:00.444519  7639 net.cpp:386] scale3_1 -> conv3_1 (in-place)
I0627 16:25:00.444555  7639 layer_factory.hpp:77] Creating layer scale3_1
I0627 16:25:00.444628  7639 net.cpp:141] Setting up scale3_1
I0627 16:25:00.444634  7639 net.cpp:148] Top shape: 32 128 24 32 (3145728)
I0627 16:25:00.444638  7639 net.cpp:156] Memory required for data: 364904832
I0627 16:25:00.444644  7639 layer_factory.hpp:77] Creating layer relu3_1
I0627 16:25:00.444649  7639 net.cpp:91] Creating Layer relu3_1
I0627 16:25:00.444651  7639 net.cpp:425] relu3_1 <- conv3_1
I0627 16:25:00.444655  7639 net.cpp:386] relu3_1 -> conv3_1 (in-place)
I0627 16:25:00.444926  7639 net.cpp:141] Setting up relu3_1
I0627 16:25:00.444936  7639 net.cpp:148] Top shape: 32 128 24 32 (3145728)
I0627 16:25:00.444939  7639 net.cpp:156] Memory required for data: 377487744
I0627 16:25:00.444941  7639 layer_factory.hpp:77] Creating layer pool3
I0627 16:25:00.444949  7639 net.cpp:91] Creating Layer pool3
I0627 16:25:00.444952  7639 net.cpp:425] pool3 <- conv3_1
I0627 16:25:00.444957  7639 net.cpp:399] pool3 -> pool3
I0627 16:25:00.444993  7639 net.cpp:141] Setting up pool3
I0627 16:25:00.444998  7639 net.cpp:148] Top shape: 32 128 12 16 (786432)
I0627 16:25:00.445000  7639 net.cpp:156] Memory required for data: 380633472
I0627 16:25:00.445003  7639 layer_factory.hpp:77] Creating layer conv4_1
I0627 16:25:00.445009  7639 net.cpp:91] Creating Layer conv4_1
I0627 16:25:00.445013  7639 net.cpp:425] conv4_1 <- pool3
I0627 16:25:00.445017  7639 net.cpp:399] conv4_1 -> conv4_1
I0627 16:25:00.448107  7639 net.cpp:141] Setting up conv4_1
I0627 16:25:00.448118  7639 net.cpp:148] Top shape: 32 256 12 16 (1572864)
I0627 16:25:00.448122  7639 net.cpp:156] Memory required for data: 386924928
I0627 16:25:00.448127  7639 layer_factory.hpp:77] Creating layer bn4_1
I0627 16:25:00.448133  7639 net.cpp:91] Creating Layer bn4_1
I0627 16:25:00.448137  7639 net.cpp:425] bn4_1 <- conv4_1
I0627 16:25:00.448140  7639 net.cpp:386] bn4_1 -> conv4_1 (in-place)
I0627 16:25:00.448287  7639 net.cpp:141] Setting up bn4_1
I0627 16:25:00.448294  7639 net.cpp:148] Top shape: 32 256 12 16 (1572864)
I0627 16:25:00.448297  7639 net.cpp:156] Memory required for data: 393216384
I0627 16:25:00.448302  7639 layer_factory.hpp:77] Creating layer scale4_1
I0627 16:25:00.448308  7639 net.cpp:91] Creating Layer scale4_1
I0627 16:25:00.448312  7639 net.cpp:425] scale4_1 <- conv4_1
I0627 16:25:00.448314  7639 net.cpp:386] scale4_1 -> conv4_1 (in-place)
I0627 16:25:00.448348  7639 layer_factory.hpp:77] Creating layer scale4_1
I0627 16:25:00.448442  7639 net.cpp:141] Setting up scale4_1
I0627 16:25:00.448449  7639 net.cpp:148] Top shape: 32 256 12 16 (1572864)
I0627 16:25:00.448451  7639 net.cpp:156] Memory required for data: 399507840
I0627 16:25:00.448457  7639 layer_factory.hpp:77] Creating layer relu4_1
I0627 16:25:00.448462  7639 net.cpp:91] Creating Layer relu4_1
I0627 16:25:00.448464  7639 net.cpp:425] relu4_1 <- conv4_1
I0627 16:25:00.448467  7639 net.cpp:386] relu4_1 -> conv4_1 (in-place)
I0627 16:25:00.448731  7639 net.cpp:141] Setting up relu4_1
I0627 16:25:00.448741  7639 net.cpp:148] Top shape: 32 256 12 16 (1572864)
I0627 16:25:00.448745  7639 net.cpp:156] Memory required for data: 405799296
I0627 16:25:00.448747  7639 layer_factory.hpp:77] Creating layer pool4
I0627 16:25:00.448753  7639 net.cpp:91] Creating Layer pool4
I0627 16:25:00.448756  7639 net.cpp:425] pool4 <- conv4_1
I0627 16:25:00.448760  7639 net.cpp:399] pool4 -> pool4
I0627 16:25:00.448799  7639 net.cpp:141] Setting up pool4
I0627 16:25:00.448804  7639 net.cpp:148] Top shape: 32 256 6 8 (393216)
I0627 16:25:00.448807  7639 net.cpp:156] Memory required for data: 407372160
I0627 16:25:00.448808  7639 layer_factory.hpp:77] Creating layer conv5_1
I0627 16:25:00.448815  7639 net.cpp:91] Creating Layer conv5_1
I0627 16:25:00.448818  7639 net.cpp:425] conv5_1 <- pool4
I0627 16:25:00.448822  7639 net.cpp:399] conv5_1 -> conv5_1
I0627 16:25:00.454244  7639 net.cpp:141] Setting up conv5_1
I0627 16:25:00.454259  7639 net.cpp:148] Top shape: 32 256 6 8 (393216)
I0627 16:25:00.454262  7639 net.cpp:156] Memory required for data: 408945024
I0627 16:25:00.454268  7639 layer_factory.hpp:77] Creating layer bn5_1
I0627 16:25:00.454275  7639 net.cpp:91] Creating Layer bn5_1
I0627 16:25:00.454278  7639 net.cpp:425] bn5_1 <- conv5_1
I0627 16:25:00.454282  7639 net.cpp:386] bn5_1 -> conv5_1 (in-place)
I0627 16:25:00.454437  7639 net.cpp:141] Setting up bn5_1
I0627 16:25:00.454445  7639 net.cpp:148] Top shape: 32 256 6 8 (393216)
I0627 16:25:00.454447  7639 net.cpp:156] Memory required for data: 410517888
I0627 16:25:00.454452  7639 layer_factory.hpp:77] Creating layer scale5_1
I0627 16:25:00.454459  7639 net.cpp:91] Creating Layer scale5_1
I0627 16:25:00.454462  7639 net.cpp:425] scale5_1 <- conv5_1
I0627 16:25:00.454464  7639 net.cpp:386] scale5_1 -> conv5_1 (in-place)
I0627 16:25:00.454499  7639 layer_factory.hpp:77] Creating layer scale5_1
I0627 16:25:00.454583  7639 net.cpp:141] Setting up scale5_1
I0627 16:25:00.454589  7639 net.cpp:148] Top shape: 32 256 6 8 (393216)
I0627 16:25:00.454592  7639 net.cpp:156] Memory required for data: 412090752
I0627 16:25:00.454596  7639 layer_factory.hpp:77] Creating layer relu5_1
I0627 16:25:00.454602  7639 net.cpp:91] Creating Layer relu5_1
I0627 16:25:00.454603  7639 net.cpp:425] relu5_1 <- conv5_1
I0627 16:25:00.454607  7639 net.cpp:386] relu5_1 -> conv5_1 (in-place)
I0627 16:25:00.454751  7639 net.cpp:141] Setting up relu5_1
I0627 16:25:00.454758  7639 net.cpp:148] Top shape: 32 256 6 8 (393216)
I0627 16:25:00.454761  7639 net.cpp:156] Memory required for data: 413663616
I0627 16:25:00.454763  7639 layer_factory.hpp:77] Creating layer pool5
I0627 16:25:00.454769  7639 net.cpp:91] Creating Layer pool5
I0627 16:25:00.454771  7639 net.cpp:425] pool5 <- conv5_1
I0627 16:25:00.454776  7639 net.cpp:399] pool5 -> pool5
I0627 16:25:00.455062  7639 net.cpp:141] Setting up pool5
I0627 16:25:00.455073  7639 net.cpp:148] Top shape: 32 256 1 1 (8192)
I0627 16:25:00.455075  7639 net.cpp:156] Memory required for data: 413696384
I0627 16:25:00.455078  7639 layer_factory.hpp:77] Creating layer fc2
I0627 16:25:00.455085  7639 net.cpp:91] Creating Layer fc2
I0627 16:25:00.455087  7639 net.cpp:425] fc2 <- pool5
I0627 16:25:00.455092  7639 net.cpp:399] fc2 -> fc2
I0627 16:25:00.455178  7639 net.cpp:141] Setting up fc2
I0627 16:25:00.455185  7639 net.cpp:148] Top shape: 32 2 (64)
I0627 16:25:00.455188  7639 net.cpp:156] Memory required for data: 413696640
I0627 16:25:00.455193  7639 layer_factory.hpp:77] Creating layer fc2_fc2_0_split
I0627 16:25:00.455207  7639 net.cpp:91] Creating Layer fc2_fc2_0_split
I0627 16:25:00.455210  7639 net.cpp:425] fc2_fc2_0_split <- fc2
I0627 16:25:00.455214  7639 net.cpp:399] fc2_fc2_0_split -> fc2_fc2_0_split_0
I0627 16:25:00.455219  7639 net.cpp:399] fc2_fc2_0_split -> fc2_fc2_0_split_1
I0627 16:25:00.455251  7639 net.cpp:141] Setting up fc2_fc2_0_split
I0627 16:25:00.455256  7639 net.cpp:148] Top shape: 32 2 (64)
I0627 16:25:00.455260  7639 net.cpp:148] Top shape: 32 2 (64)
I0627 16:25:00.455262  7639 net.cpp:156] Memory required for data: 413697152
I0627 16:25:00.455265  7639 layer_factory.hpp:77] Creating layer loss
I0627 16:25:00.455270  7639 net.cpp:91] Creating Layer loss
I0627 16:25:00.455271  7639 net.cpp:425] loss <- fc2_fc2_0_split_0
I0627 16:25:00.455274  7639 net.cpp:425] loss <- label_data_1_split_0
I0627 16:25:00.455278  7639 net.cpp:399] loss -> loss
…
I0627 16:25:00.456210  7639 solver.cpp:181] Creating test net (#0) specified by net file: models/bpnet/train_val.prototxt
I0627 16:25:00.456248  7639 net.cpp:313] The NetState phase (1) differed from the phase (0) specified by a rule in layer data
I0627 16:25:00.456387  7639 net.cpp:49] Initializing net from parameters: 
name: "BPnet"
state {
  phase: TEST
}
layer {
  name: "data"
  type: "Data"
  top: "data"
  top: "label"
  include {
    phase: TEST
  }
  transform_param {
    mirror: false
    mean_value: 100
    crop_h: 192
    crop_w: 256
  }
  data_param {
    source: "data/val_lmdb"
    batch_size: 64
    backend: LMDB
  }
}
layer {
  name: "conv1_1"
  type: "Convolution"
  bottom: "data"
  top: "conv1_1"
  param {
    lr_mult: 1
    decay_mult: 1
  }
  convolution_param {
    num_output: 32
    bias_term: false
    pad: 3
    kernel_size: 7
    stride: 2
    weight_filler {
      type: "xavier"
    }
  }
}
layer {
  name: "bn1_1"
  type: "BatchNorm"
  bottom: "conv1_1"
  top: "conv1_1"
  param {
    lr_mult: 0
  }
  param {
    lr_mult: 0
  }
  param {
    lr_mult: 0
  }
  batch_norm_param {
    use_global_stats: false
  }
}
layer {
  name: "scale1_1"
  type: "Scale"
  bottom: "conv1_1"
  top: "conv1_1"
  param {
    lr_mult: 1
    decay_mult: 1
  }
  param {
    lr_mult: 1
    decay_mult: 1
  }
  scale_param {
    bias_term: true
    bias_filler {
      type: "constant"
      value: 0
    }
  }
}
layer {
  name: "relu1_1"
  type: "ReLU"
  bottom: "conv1_1"
  top: "conv1_1"
}
layer {
  name: "pool1"
  type: "Pooling"
  bottom: "conv1_1"
  top: "pool1"
  pooling_param {
    pool: MAX
    kernel_size: 2
    stride: 2
  }
}
layer {
  name: "conv2_1"
  type: "Convolution"
  bottom: "pool1"
  top: "conv2_1"
  param {
    lr_mult: 1
    decay_mult: 1
  }
  convolution_param {
    num_output: 64
    bias_term: false
    pad: 1
    kernel_size: 3
    weight_filler {
      type: "xavier"
    }
  }
}
layer {
  name: "bn2_1"
  type: "BatchNorm"
  bottom: "conv2_1"
  top: "conv2_1"
  param {
    lr_mult: 0
  }
  param {
    lr_mult: 0
  }
  param {
    lr_mult: 0
  }
  batch_norm_param {
    use_global_stats: false
  }
}
layer {
  name: "scale2_1"
  type: "Scale"
  bottom: "conv2_1"
  top: "conv2_1"
  param {
    lr_mult: 1
    decay_mult: 1
  }
  param {
    lr_mult: 1
    decay_mult: 1
  }
  scale_param {
    bias_term: true
    bias_filler {
      type: "constant"
      value: 0
    }
  }
}
layer {
  name: "relu2_1"
  type: "ReLU"
  bottom: "conv2_1"
  top: "conv2_1"
}
layer {
  name: "pool2"
  type: "Pooling"
  bottom: "conv2_1"
  top: "pool2"
  pooling_param {
    pool: MAX
    kernel_size: 2
    stride: 2
  }
}
layer {
  name: "conv3_1"
  type: "Convolution"
  bottom: "pool2"
  top: "conv3_1"
  param {
    lr_mult: 1
    decay_mult: 1
  }
  convolution_param {
    num_output: 128
    bias_term: false
    pad: 1
    kernel_size: 3
    weight_filler {
      type: "xavier"
    }
  }
}
layer {
  name: "bn3_1"
  type: "BatchNorm"
  bottom: "conv3_1"
  top: "conv3_1"
  param {
    lr_mult: 0
  }
  param {
    lr_mult: 0
  }
  param {
    lr_mult: 0
  }
  batch_norm_param {
    use_global_stats: false
  }
}
layer {
  name: "scale3_1"
  type: "Scale"
  bottom: "conv3_1"
  top: "conv3_1"
  param {
    lr_mult: 1
    decay_mult: 1
  }
  param {
    lr_mult: 1
    decay_mult: 1
  }
  scale_param {
    bias_term: true
    bias_filler {
      type: "constant"
      value: 0
    }
  }
}
layer {
  name: "relu3_1"
  type: "ReLU"
  bottom: "conv3_1"
  top: "conv3_1"
}
layer {
  name: "pool3"
  type: "Pooling"
  bottom: "conv3_1"
  top: "pool3"
  pooling_param {
    pool: MAX
    kernel_size: 2
    stride: 2
  }
}
layer {
  name: "conv4_1"
  type: "Convolution"
  bottom: "pool3"
  top: "conv4_1"
  param {
    lr_mult: 1
    decay_mult: 1
  }
  convolution_param {
    num_output: 256
    bias_term: false
    pad: 1
    kernel_size: 3
    weight_filler {
      type: "xavier"
    }
  }
}
layer {
  name: "bn4_1"
  type: "BatchNorm"
  bottom: "conv4_1"
  top: "conv4_1"
  param {
    lr_mult: 0
  }
  param {
    lr_mult: 0
  }
  param {
    lr_mult: 0
  }
  batch_norm_param {
    use_global_stats: false
  }
}
layer {
  name: "scale4_1"
  type: "Scale"
  bottom: "conv4_1"
  top: "conv4_1"
  param {
    lr_mult: 1
    decay_mult: 1
  }
  param {
    lr_mult: 1
    decay_mult: 1
  }
  scale_param {
    bias_term: true
    bias_filler {
      type: "constant"
      value: 0
    }
  }
}
layer {
  name: "relu4_1"
  type: "ReLU"
  bottom: "conv4_1"
  top: "conv4_1"
}
layer {
  name: "pool4"
  type: "Pooling"
  bottom: "conv4_1"
  top: "pool4"
  pooling_param {
    pool: MAX
    kernel_size: 2
    stride: 2
  }
}
layer {
  name: "conv5_1"
  type: "Convolution"
  bottom: "pool4"
  top: "conv5_1"
  param {
    lr_mult: 1
    decay_mult: 1
  }
  convolution_param {
    num_output: 256
    bias_term: false
    pad: 1
    kernel_size: 3
    weight_filler {
      type: "xavier"
    }
  }
}
layer {
  name: "bn5_1"
  type: "BatchNorm"
  bottom: "conv5_1"
  top: "conv5_1"
  param {
    lr_mult: 0
  }
  param {
    lr_mult: 0
  }
  param {
    lr_mult: 0
  }
  batch_norm_param {
    use_global_stats: false
  }
}
layer {
  name: "scale5_1"
  type: "Scale"
  bottom: "conv5_1"
  top: "conv5_1"
  param {
    lr_mult: 1
    decay_mult: 1
  }
  param {
    lr_mult: 1
    decay_mult: 1
  }
  scale_param {
    bias_term: true
    bias_filler {
      type: "constant"
      value: 0
    }
  }
}
layer {
  name: "relu5_1"
  type: "ReLU"
  bottom: "conv5_1"
  top: "conv5_1"
}
layer {
  name: "pool5"
  type: "Pooling"
  bottom: "conv5_1"
  top: "pool5"
  pooling_param {
    pool: AVE
    stride: 1
    kernel_h: 6
    kernel_w: 8
  }
}
layer {
  name: "fc2"
  type: "InnerProduct"
  bottom: "pool5"
  top: "fc2"
  inner_product_param {
    num_output: 2
  }
}
layer {
  name: "loss"
  type: "SoftmaxWithLoss"
  bottom: "fc2"
  bottom: "label"
  top: "loss"
}
layer {
  name: "accuracy"
  type: "Accuracy"
  bottom: "fc2"
  bottom: "label"
  top: "accuracy"
}
I0627 16:25:00.456488  7639 layer_factory.hpp:77] Creating layer data
I0627 16:25:00.456562  7639 net.cpp:91] Creating Layer data
I0627 16:25:00.456569  7639 net.cpp:399] data -> data
I0627 16:25:00.456575  7639 net.cpp:399] data -> label
I0627 16:25:00.457896  7652 db_lmdb.cpp:35] Opened lmdb data/val_lmdb
I0627 16:25:00.458104  7639 data_layer.cpp:42] output data size: 64,1,192,256
I0627 16:25:00.484307  7639 net.cpp:141] Setting up data
I0627 16:25:00.484331  7639 net.cpp:148] Top shape: 64 1 192 256 (3145728)
I0627 16:25:00.484338  7639 net.cpp:148] Top shape: 64 (64)
I0627 16:25:00.484339  7639 net.cpp:156] Memory required for data: 12583168
I0627 16:25:00.484345  7639 layer_factory.hpp:77] Creating layer label_data_1_split
I0627 16:25:00.484356  7639 net.cpp:91] Creating Layer label_data_1_split
I0627 16:25:00.484359  7639 net.cpp:425] label_data_1_split <- label
I0627 16:25:00.484366  7639 net.cpp:399] label_data_1_split -> label_data_1_split_0
I0627 16:25:00.484374  7639 net.cpp:399] label_data_1_split -> label_data_1_split_1
I0627 16:25:00.484432  7639 net.cpp:141] Setting up label_data_1_split
I0627 16:25:00.484437  7639 net.cpp:148] Top shape: 64 (64)
I0627 16:25:00.484441  7639 net.cpp:148] Top shape: 64 (64)
I0627 16:25:00.484442  7639 net.cpp:156] Memory required for data: 12583680
I0627 16:25:00.484444  7639 layer_factory.hpp:77] Creating layer conv1_1
I0627 16:25:00.484457  7639 net.cpp:91] Creating Layer conv1_1
I0627 16:25:00.484458  7639 net.cpp:425] conv1_1 <- data
I0627 16:25:00.484463  7639 net.cpp:399] conv1_1 -> conv1_1
I0627 16:25:00.485713  7639 net.cpp:141] Setting up conv1_1
I0627 16:25:00.485725  7639 net.cpp:148] Top shape: 64 32 96 128 (25165824)
I0627 16:25:00.485728  7639 net.cpp:156] Memory required for data: 113246976
I0627 16:25:00.485735  7639 layer_factory.hpp:77] Creating layer bn1_1
I0627 16:25:00.485743  7639 net.cpp:91] Creating Layer bn1_1
I0627 16:25:00.485760  7639 net.cpp:425] bn1_1 <- conv1_1
I0627 16:25:00.485764  7639 net.cpp:386] bn1_1 -> conv1_1 (in-place)
I0627 16:25:00.485941  7639 net.cpp:141] Setting up bn1_1
I0627 16:25:00.485949  7639 net.cpp:148] Top shape: 64 32 96 128 (25165824)
I0627 16:25:00.485952  7639 net.cpp:156] Memory required for data: 213910272
I0627 16:25:00.485960  7639 layer_factory.hpp:77] Creating layer scale1_1
I0627 16:25:00.485968  7639 net.cpp:91] Creating Layer scale1_1
I0627 16:25:00.485970  7639 net.cpp:425] scale1_1 <- conv1_1
I0627 16:25:00.485976  7639 net.cpp:386] scale1_1 -> conv1_1 (in-place)
I0627 16:25:00.486012  7639 layer_factory.hpp:77] Creating layer scale1_1
I0627 16:25:00.486124  7639 net.cpp:141] Setting up scale1_1
I0627 16:25:00.486131  7639 net.cpp:148] Top shape: 64 32 96 128 (25165824)
I0627 16:25:00.486134  7639 net.cpp:156] Memory required for data: 314573568
I0627 16:25:00.486140  7639 layer_factory.hpp:77] Creating layer relu1_1
I0627 16:25:00.486145  7639 net.cpp:91] Creating Layer relu1_1
I0627 16:25:00.486147  7639 net.cpp:425] relu1_1 <- conv1_1
I0627 16:25:00.486151  7639 net.cpp:386] relu1_1 -> conv1_1 (in-place)
I0627 16:25:00.487490  7639 net.cpp:141] Setting up relu1_1
I0627 16:25:00.487504  7639 net.cpp:148] Top shape: 64 32 96 128 (25165824)
I0627 16:25:00.487505  7639 net.cpp:156] Memory required for data: 415236864
I0627 16:25:00.487509  7639 layer_factory.hpp:77] Creating layer pool1
I0627 16:25:00.487516  7639 net.cpp:91] Creating Layer pool1
I0627 16:25:00.487519  7639 net.cpp:425] pool1 <- conv1_1
I0627 16:25:00.487524  7639 net.cpp:399] pool1 -> pool1
I0627 16:25:00.487576  7639 net.cpp:141] Setting up pool1
I0627 16:25:00.487581  7639 net.cpp:148] Top shape: 64 32 48 64 (6291456)
I0627 16:25:00.487582  7639 net.cpp:156] Memory required for data: 440402688
I0627 16:25:00.487584  7639 layer_factory.hpp:77] Creating layer conv2_1
I0627 16:25:00.487593  7639 net.cpp:91] Creating Layer conv2_1
I0627 16:25:00.487596  7639 net.cpp:425] conv2_1 <- pool1
I0627 16:25:00.487599  7639 net.cpp:399] conv2_1 -> conv2_1
I0627 16:25:00.488567  7639 net.cpp:141] Setting up conv2_1
I0627 16:25:00.488579  7639 net.cpp:148] Top shape: 64 64 48 64 (12582912)
I0627 16:25:00.488582  7639 net.cpp:156] Memory required for data: 490734336
I0627 16:25:00.488586  7639 layer_factory.hpp:77] Creating layer bn2_1
I0627 16:25:00.488593  7639 net.cpp:91] Creating Layer bn2_1
I0627 16:25:00.488596  7639 net.cpp:425] bn2_1 <- conv2_1
I0627 16:25:00.488601  7639 net.cpp:386] bn2_1 -> conv2_1 (in-place)
I0627 16:25:00.488770  7639 net.cpp:141] Setting up bn2_1
I0627 16:25:00.488777  7639 net.cpp:148] Top shape: 64 64 48 64 (12582912)
I0627 16:25:00.488780  7639 net.cpp:156] Memory required for data: 541065984
I0627 16:25:00.488787  7639 layer_factory.hpp:77] Creating layer scale2_1
I0627 16:25:00.488795  7639 net.cpp:91] Creating Layer scale2_1
I0627 16:25:00.488796  7639 net.cpp:425] scale2_1 <- conv2_1
I0627 16:25:00.488800  7639 net.cpp:386] scale2_1 -> conv2_1 (in-place)
I0627 16:25:00.488834  7639 layer_factory.hpp:77] Creating layer scale2_1
I0627 16:25:00.488927  7639 net.cpp:141] Setting up scale2_1
I0627 16:25:00.488934  7639 net.cpp:148] Top shape: 64 64 48 64 (12582912)
I0627 16:25:00.488936  7639 net.cpp:156] Memory required for data: 591397632
I0627 16:25:00.488940  7639 layer_factory.hpp:77] Creating layer relu2_1
I0627 16:25:00.488945  7639 net.cpp:91] Creating Layer relu2_1
I0627 16:25:00.488947  7639 net.cpp:425] relu2_1 <- conv2_1
I0627 16:25:00.488951  7639 net.cpp:386] relu2_1 -> conv2_1 (in-place)
I0627 16:25:00.489214  7639 net.cpp:141] Setting up relu2_1
I0627 16:25:00.489225  7639 net.cpp:148] Top shape: 64 64 48 64 (12582912)
I0627 16:25:00.489228  7639 net.cpp:156] Memory required for data: 641729280
I0627 16:25:00.489230  7639 layer_factory.hpp:77] Creating layer pool2
I0627 16:25:00.489236  7639 net.cpp:91] Creating Layer pool2
I0627 16:25:00.489238  7639 net.cpp:425] pool2 <- conv2_1
I0627 16:25:00.489243  7639 net.cpp:399] pool2 -> pool2
I0627 16:25:00.489282  7639 net.cpp:141] Setting up pool2
I0627 16:25:00.489297  7639 net.cpp:148] Top shape: 64 64 24 32 (3145728)
I0627 16:25:00.489300  7639 net.cpp:156] Memory required for data: 654312192
I0627 16:25:00.489301  7639 layer_factory.hpp:77] Creating layer conv3_1
I0627 16:25:00.489310  7639 net.cpp:91] Creating Layer conv3_1
I0627 16:25:00.489312  7639 net.cpp:425] conv3_1 <- pool2
I0627 16:25:00.489316  7639 net.cpp:399] conv3_1 -> conv3_1
I0627 16:25:00.490689  7639 net.cpp:141] Setting up conv3_1
I0627 16:25:00.490701  7639 net.cpp:148] Top shape: 64 128 24 32 (6291456)
I0627 16:25:00.490703  7639 net.cpp:156] Memory required for data: 679478016
I0627 16:25:00.490708  7639 layer_factory.hpp:77] Creating layer bn3_1
I0627 16:25:00.490715  7639 net.cpp:91] Creating Layer bn3_1
I0627 16:25:00.490717  7639 net.cpp:425] bn3_1 <- conv3_1
I0627 16:25:00.490722  7639 net.cpp:386] bn3_1 -> conv3_1 (in-place)
I0627 16:25:00.490881  7639 net.cpp:141] Setting up bn3_1
I0627 16:25:00.490888  7639 net.cpp:148] Top shape: 64 128 24 32 (6291456)
I0627 16:25:00.490891  7639 net.cpp:156] Memory required for data: 704643840
I0627 16:25:00.490896  7639 layer_factory.hpp:77] Creating layer scale3_1
I0627 16:25:00.490902  7639 net.cpp:91] Creating Layer scale3_1
I0627 16:25:00.490905  7639 net.cpp:425] scale3_1 <- conv3_1
I0627 16:25:00.490909  7639 net.cpp:386] scale3_1 -> conv3_1 (in-place)
I0627 16:25:00.490943  7639 layer_factory.hpp:77] Creating layer scale3_1
I0627 16:25:00.491024  7639 net.cpp:141] Setting up scale3_1
I0627 16:25:00.491031  7639 net.cpp:148] Top shape: 64 128 24 32 (6291456)
I0627 16:25:00.491034  7639 net.cpp:156] Memory required for data: 729809664
I0627 16:25:00.491041  7639 layer_factory.hpp:77] Creating layer relu3_1
I0627 16:25:00.491045  7639 net.cpp:91] Creating Layer relu3_1
I0627 16:25:00.491049  7639 net.cpp:425] relu3_1 <- conv3_1
I0627 16:25:00.491051  7639 net.cpp:386] relu3_1 -> conv3_1 (in-place)
I0627 16:25:00.491195  7639 net.cpp:141] Setting up relu3_1
I0627 16:25:00.491204  7639 net.cpp:148] Top shape: 64 128 24 32 (6291456)
I0627 16:25:00.491205  7639 net.cpp:156] Memory required for data: 754975488
I0627 16:25:00.491209  7639 layer_factory.hpp:77] Creating layer pool3
I0627 16:25:00.491221  7639 net.cpp:91] Creating Layer pool3
I0627 16:25:00.491224  7639 net.cpp:425] pool3 <- conv3_1
I0627 16:25:00.491227  7639 net.cpp:399] pool3 -> pool3
I0627 16:25:00.491264  7639 net.cpp:141] Setting up pool3
I0627 16:25:00.491269  7639 net.cpp:148] Top shape: 64 128 12 16 (1572864)
I0627 16:25:00.491271  7639 net.cpp:156] Memory required for data: 761266944
I0627 16:25:00.491273  7639 layer_factory.hpp:77] Creating layer conv4_1
I0627 16:25:00.491282  7639 net.cpp:91] Creating Layer conv4_1
I0627 16:25:00.491284  7639 net.cpp:425] conv4_1 <- pool3
I0627 16:25:00.491288  7639 net.cpp:399] conv4_1 -> conv4_1
I0627 16:25:00.494518  7639 net.cpp:141] Setting up conv4_1
I0627 16:25:00.494530  7639 net.cpp:148] Top shape: 64 256 12 16 (3145728)
I0627 16:25:00.494534  7639 net.cpp:156] Memory required for data: 773849856
I0627 16:25:00.494539  7639 layer_factory.hpp:77] Creating layer bn4_1
I0627 16:25:00.494544  7639 net.cpp:91] Creating Layer bn4_1
I0627 16:25:00.494547  7639 net.cpp:425] bn4_1 <- conv4_1
I0627 16:25:00.494551  7639 net.cpp:386] bn4_1 -> conv4_1 (in-place)
I0627 16:25:00.494712  7639 net.cpp:141] Setting up bn4_1
I0627 16:25:00.494719  7639 net.cpp:148] Top shape: 64 256 12 16 (3145728)
I0627 16:25:00.494722  7639 net.cpp:156] Memory required for data: 786432768
I0627 16:25:00.494729  7639 layer_factory.hpp:77] Creating layer scale4_1
I0627 16:25:00.494734  7639 net.cpp:91] Creating Layer scale4_1
I0627 16:25:00.494735  7639 net.cpp:425] scale4_1 <- conv4_1
I0627 16:25:00.494738  7639 net.cpp:386] scale4_1 -> conv4_1 (in-place)
I0627 16:25:00.494773  7639 layer_factory.hpp:77] Creating layer scale4_1
I0627 16:25:00.494859  7639 net.cpp:141] Setting up scale4_1
I0627 16:25:00.494866  7639 net.cpp:148] Top shape: 64 256 12 16 (3145728)
I0627 16:25:00.494868  7639 net.cpp:156] Memory required for data: 799015680
I0627 16:25:00.494881  7639 layer_factory.hpp:77] Creating layer relu4_1
I0627 16:25:00.494889  7639 net.cpp:91] Creating Layer relu4_1
I0627 16:25:00.494890  7639 net.cpp:425] relu4_1 <- conv4_1
I0627 16:25:00.494894  7639 net.cpp:386] relu4_1 -> conv4_1 (in-place)
I0627 16:25:00.495169  7639 net.cpp:141] Setting up relu4_1
I0627 16:25:00.495179  7639 net.cpp:148] Top shape: 64 256 12 16 (3145728)
I0627 16:25:00.495182  7639 net.cpp:156] Memory required for data: 811598592
I0627 16:25:00.495185  7639 layer_factory.hpp:77] Creating layer pool4
I0627 16:25:00.495190  7639 net.cpp:91] Creating Layer pool4
I0627 16:25:00.495194  7639 net.cpp:425] pool4 <- conv4_1
I0627 16:25:00.495198  7639 net.cpp:399] pool4 -> pool4
I0627 16:25:00.495239  7639 net.cpp:141] Setting up pool4
I0627 16:25:00.495244  7639 net.cpp:148] Top shape: 64 256 6 8 (786432)
I0627 16:25:00.495246  7639 net.cpp:156] Memory required for data: 814744320
I0627 16:25:00.495249  7639 layer_factory.hpp:77] Creating layer conv5_1
I0627 16:25:00.495256  7639 net.cpp:91] Creating Layer conv5_1
I0627 16:25:00.495260  7639 net.cpp:425] conv5_1 <- pool4
I0627 16:25:00.495263  7639 net.cpp:399] conv5_1 -> conv5_1
I0627 16:25:00.500545  7639 net.cpp:141] Setting up conv5_1
I0627 16:25:00.500558  7639 net.cpp:148] Top shape: 64 256 6 8 (786432)
I0627 16:25:00.500561  7639 net.cpp:156] Memory required for data: 817890048
I0627 16:25:00.500566  7639 layer_factory.hpp:77] Creating layer bn5_1
I0627 16:25:00.500572  7639 net.cpp:91] Creating Layer bn5_1
I0627 16:25:00.500576  7639 net.cpp:425] bn5_1 <- conv5_1
I0627 16:25:00.500581  7639 net.cpp:386] bn5_1 -> conv5_1 (in-place)
I0627 16:25:00.500753  7639 net.cpp:141] Setting up bn5_1
I0627 16:25:00.500761  7639 net.cpp:148] Top shape: 64 256 6 8 (786432)
I0627 16:25:00.500763  7639 net.cpp:156] Memory required for data: 821035776
I0627 16:25:00.500769  7639 layer_factory.hpp:77] Creating layer scale5_1
I0627 16:25:00.500774  7639 net.cpp:91] Creating Layer scale5_1
I0627 16:25:00.500777  7639 net.cpp:425] scale5_1 <- conv5_1
I0627 16:25:00.500780  7639 net.cpp:386] scale5_1 -> conv5_1 (in-place)
I0627 16:25:00.500815  7639 layer_factory.hpp:77] Creating layer scale5_1
I0627 16:25:00.500912  7639 net.cpp:141] Setting up scale5_1
I0627 16:25:00.500919  7639 net.cpp:148] Top shape: 64 256 6 8 (786432)
I0627 16:25:00.500922  7639 net.cpp:156] Memory required for data: 824181504
I0627 16:25:00.500927  7639 layer_factory.hpp:77] Creating layer relu5_1
I0627 16:25:00.500931  7639 net.cpp:91] Creating Layer relu5_1
I0627 16:25:00.500933  7639 net.cpp:425] relu5_1 <- conv5_1
I0627 16:25:00.500938  7639 net.cpp:386] relu5_1 -> conv5_1 (in-place)
I0627 16:25:00.501199  7639 net.cpp:141] Setting up relu5_1
I0627 16:25:00.501209  7639 net.cpp:148] Top shape: 64 256 6 8 (786432)
I0627 16:25:00.501211  7639 net.cpp:156] Memory required for data: 827327232
I0627 16:25:00.501214  7639 layer_factory.hpp:77] Creating layer pool5
I0627 16:25:00.501219  7639 net.cpp:91] Creating Layer pool5
I0627 16:25:00.501222  7639 net.cpp:425] pool5 <- conv5_1
I0627 16:25:00.501227  7639 net.cpp:399] pool5 -> pool5
I0627 16:25:00.501512  7639 net.cpp:141] Setting up pool5
I0627 16:25:00.501523  7639 net.cpp:148] Top shape: 64 256 1 1 (16384)
I0627 16:25:00.501524  7639 net.cpp:156] Memory required for data: 827392768
I0627 16:25:00.501528  7639 layer_factory.hpp:77] Creating layer fc2
I0627 16:25:00.501533  7639 net.cpp:91] Creating Layer fc2
I0627 16:25:00.501536  7639 net.cpp:425] fc2 <- pool5
I0627 16:25:00.501545  7639 net.cpp:399] fc2 -> fc2
I0627 16:25:00.501639  7639 net.cpp:141] Setting up fc2
I0627 16:25:00.501646  7639 net.cpp:148] Top shape: 64 2 (128)
I0627 16:25:00.501648  7639 net.cpp:156] Memory required for data: 827393280
I0627 16:25:00.501653  7639 layer_factory.hpp:77] Creating layer fc2_fc2_0_split
I0627 16:25:00.501660  7639 net.cpp:91] Creating Layer fc2_fc2_0_split
I0627 16:25:00.501662  7639 net.cpp:425] fc2_fc2_0_split <- fc2
I0627 16:25:00.501667  7639 net.cpp:399] fc2_fc2_0_split -> fc2_fc2_0_split_0
I0627 16:25:00.501672  7639 net.cpp:399] fc2_fc2_0_split -> fc2_fc2_0_split_1
I0627 16:25:00.501718  7639 net.cpp:141] Setting up fc2_fc2_0_split
I0627 16:25:00.501724  7639 net.cpp:148] Top shape: 64 2 (128)
I0627 16:25:00.501726  7639 net.cpp:148] Top shape: 64 2 (128)
I0627 16:25:00.501729  7639 net.cpp:156] Memory required for data: 827394304
I0627 16:25:00.501731  7639 layer_factory.hpp:77] Creating layer loss
I0627 16:25:00.501735  7639 net.cpp:91] Creating Layer loss
I0627 16:25:00.501737  7639 net.cpp:425] loss <- fc2_fc2_0_split_0
I0627 16:25:00.501741  7639 net.cpp:425] loss <- label_data_1_split_0
I0627 16:25:00.501744  7639 net.cpp:399] loss -> loss
…
