…
I0624 15:21:29.096300 20531 solver.cpp:91] Creating training net from net file: models/bpnet/train_val.prototxt
I0624 15:21:29.097146 20531 net.cpp:313] The NetState phase (0) differed from the phase (1) specified by a rule in layer data
I0624 15:21:29.097378 20531 net.cpp:49] Initializing net from parameters: 
name: "BPnet"
state {
  phase: TRAIN
}
layer {
  name: "data"
  type: "Data"
  top: "data"
  top: "label"
  include {
    phase: TRAIN
  }
  transform_param {
    mirror: false
    crop_size: 224
    mean_value: 100
    contrast_jitter_range: 0.1
  }
  data_param {
    source: "data/train_lmdb"
    batch_size: 24
    backend: LMDB
  }
}
layer {
  name: "conv1_1"
  type: "Convolution"
  bottom: "data"
  top: "conv1_1"
  param {
    lr_mult: 1
    decay_mult: 1
  }
  convolution_param {
    num_output: 32
    bias_term: false
    pad: 3
    kernel_size: 7
    stride: 2
    weight_filler {
      type: "xavier"
    }
  }
}
layer {
  name: "bn1_1"
  type: "BatchNorm"
  bottom: "conv1_1"
  top: "conv1_1"
  param {
    lr_mult: 0
  }
  param {
    lr_mult: 0
  }
  param {
    lr_mult: 0
  }
  batch_norm_param {
    use_global_stats: false
  }
}
layer {
  name: "scale1_1"
  type: "Scale"
  bottom: "conv1_1"
  top: "conv1_1"
  param {
    lr_mult: 1
    decay_mult: 1
  }
  param {
    lr_mult: 1
    decay_mult: 1
  }
  scale_param {
    bias_term: true
    bias_filler {
      type: "constant"
      value: 0
    }
  }
}
layer {
  name: "relu1_1"
  type: "ReLU"
  bottom: "conv1_1"
  top: "conv1_1"
}
layer {
  name: "conv1_2"
  type: "Convolution"
  bottom: "conv1_1"
  top: "conv1_2"
  param {
    lr_mult: 1
    decay_mult: 1
  }
  convolution_param {
    num_output: 32
    bias_term: false
    pad: 1
    kernel_size: 3
    weight_filler {
      type: "xavier"
    }
  }
}
layer {
  name: "bn1_2"
  type: "BatchNorm"
  bottom: "conv1_2"
  top: "conv1_2"
  param {
    lr_mult: 0
  }
  param {
    lr_mult: 0
  }
  param {
    lr_mult: 0
  }
  batch_norm_param {
    use_global_stats: false
  }
}
layer {
  name: "scale1_2"
  type: "Scale"
  bottom: "conv1_2"
  top: "conv1_2"
  param {
    lr_mult: 1
    decay_mult: 1
  }
  param {
    lr_mult: 1
    decay_mult: 1
  }
  scale_param {
    bias_term: true
    bias_filler {
      type: "constant"
      value: 0
    }
  }
}
layer {
  name: "relu1_2"
  type: "ReLU"
  bottom: "conv1_2"
  top: "conv1_2"
}
layer {
  name: "pool1"
  type: "Pooling"
  bottom: "conv1_2"
  top: "pool1"
  pooling_param {
    pool: MAX
    kernel_size: 2
    stride: 2
  }
}
layer {
  name: "conv2_1"
  type: "Convolution"
  bottom: "pool1"
  top: "conv2_1"
  param {
    lr_mult: 1
    decay_mult: 1
  }
  convolution_param {
    num_output: 64
    bias_term: false
    pad: 1
    kernel_size: 3
    weight_filler {
      type: "xavier"
    }
  }
}
layer {
  name: "bn2_1"
  type: "BatchNorm"
  bottom: "conv2_1"
  top: "conv2_1"
  param {
    lr_mult: 0
  }
  param {
    lr_mult: 0
  }
  param {
    lr_mult: 0
  }
  batch_norm_param {
    use_global_stats: false
  }
}
layer {
  name: "scale2_1"
  type: "Scale"
  bottom: "conv2_1"
  top: "conv2_1"
  param {
    lr_mult: 1
    decay_mult: 1
  }
  param {
    lr_mult: 1
    decay_mult: 1
  }
  scale_param {
    bias_term: true
    bias_filler {
      type: "constant"
      value: 0
    }
  }
}
layer {
  name: "relu2_1"
  type: "ReLU"
  bottom: "conv2_1"
  top: "conv2_1"
}
layer {
  name: "conv2_2"
  type: "Convolution"
  bottom: "conv2_1"
  top: "conv2_2"
  param {
    lr_mult: 1
    decay_mult: 1
  }
  convolution_param {
    num_output: 64
    bias_term: false
    pad: 1
    kernel_size: 3
    weight_filler {
      type: "xavier"
    }
  }
}
layer {
  name: "bn2_2"
  type: "BatchNorm"
  bottom: "conv2_2"
  top: "conv2_2"
  param {
    lr_mult: 0
  }
  param {
    lr_mult: 0
  }
  param {
    lr_mult: 0
  }
  batch_norm_param {
    use_global_stats: false
  }
}
layer {
  name: "scale2_2"
  type: "Scale"
  bottom: "conv2_2"
  top: "conv2_2"
  param {
    lr_mult: 1
    decay_mult: 1
  }
  param {
    lr_mult: 1
    decay_mult: 1
  }
  scale_param {
    bias_term: true
    bias_filler {
      type: "constant"
      value: 0
    }
  }
}
layer {
  name: "relu2_2"
  type: "ReLU"
  bottom: "conv2_2"
  top: "conv2_2"
}
layer {
  name: "pool2"
  type: "Pooling"
  bottom: "conv2_2"
  top: "pool2"
  pooling_param {
    pool: MAX
    kernel_size: 2
    stride: 2
  }
}
layer {
  name: "conv3_1"
  type: "Convolution"
  bottom: "pool2"
  top: "conv3_1"
  param {
    lr_mult: 1
    decay_mult: 1
  }
  convolution_param {
    num_output: 128
    bias_term: false
    pad: 1
    kernel_size: 3
    weight_filler {
      type: "xavier"
    }
  }
}
layer {
  name: "bn3_1"
  type: "BatchNorm"
  bottom: "conv3_1"
  top: "conv3_1"
  param {
    lr_mult: 0
  }
  param {
    lr_mult: 0
  }
  param {
    lr_mult: 0
  }
  batch_norm_param {
    use_global_stats: false
  }
}
layer {
  name: "scale3_1"
  type: "Scale"
  bottom: "conv3_1"
  top: "conv3_1"
  param {
    lr_mult: 1
    decay_mult: 1
  }
  param {
    lr_mult: 1
    decay_mult: 1
  }
  scale_param {
    bias_term: true
    bias_filler {
      type: "constant"
      value: 0
    }
  }
}
layer {
  name: "relu3_1"
  type: "ReLU"
  bottom: "conv3_1"
  top: "conv3_1"
}
layer {
  name: "conv3_2"
  type: "Convolution"
  bottom: "conv3_1"
  top: "conv3_2"
  param {
    lr_mult: 1
    decay_mult: 1
  }
  convolution_param {
    num_output: 128
    bias_term: false
    pad: 1
    kernel_size: 3
    weight_filler {
      type: "xavier"
    }
  }
}
layer {
  name: "bn3_2"
  type: "BatchNorm"
  bottom: "conv3_2"
  top: "conv3_2"
  param {
    lr_mult: 0
  }
  param {
    lr_mult: 0
  }
  param {
    lr_mult: 0
  }
  batch_norm_param {
    use_global_stats: false
  }
}
layer {
  name: "scale3_2"
  type: "Scale"
  bottom: "conv3_2"
  top: "conv3_2"
  param {
    lr_mult: 1
    decay_mult: 1
  }
  param {
    lr_mult: 1
    decay_mult: 1
  }
  scale_param {
    bias_term: true
    bias_filler {
      type: "constant"
      value: 0
    }
  }
}
layer {
  name: "relu3_2"
  type: "ReLU"
  bottom: "conv3_2"
  top: "conv3_2"
}
layer {
  name: "pool3"
  type: "Pooling"
  bottom: "conv3_2"
  top: "pool3"
  pooling_param {
    pool: MAX
    kernel_size: 2
    stride: 2
  }
}
layer {
  name: "conv4_1"
  type: "Convolution"
  bottom: "pool3"
  top: "conv4_1"
  param {
    lr_mult: 1
    decay_mult: 1
  }
  convolution_param {
    num_output: 256
    bias_term: false
    pad: 1
    kernel_size: 3
    weight_filler {
      type: "xavier"
    }
  }
}
layer {
  name: "bn4_1"
  type: "BatchNorm"
  bottom: "conv4_1"
  top: "conv4_1"
  param {
    lr_mult: 0
  }
  param {
    lr_mult: 0
  }
  param {
    lr_mult: 0
  }
  batch_norm_param {
    use_global_stats: false
  }
}
layer {
  name: "scale4_1"
  type: "Scale"
  bottom: "conv4_1"
  top: "conv4_1"
  param {
    lr_mult: 1
    decay_mult: 1
  }
  param {
    lr_mult: 1
    decay_mult: 1
  }
  scale_param {
    bias_term: true
    bias_filler {
      type: "constant"
      value: 0
    }
  }
}
layer {
  name: "relu4_1"
  type: "ReLU"
  bottom: "conv4_1"
  top: "conv4_1"
}
layer {
  name: "conv4_2"
  type: "Convolution"
  bottom: "conv4_1"
  top: "conv4_2"
  param {
    lr_mult: 1
    decay_mult: 1
  }
  convolution_param {
    num_output: 256
    bias_term: false
    pad: 1
    kernel_size: 3
    weight_filler {
      type: "xavier"
    }
  }
}
layer {
  name: "bn4_2"
  type: "BatchNorm"
  bottom: "conv4_2"
  top: "conv4_2"
  param {
    lr_mult: 0
  }
  param {
    lr_mult: 0
  }
  param {
    lr_mult: 0
  }
  batch_norm_param {
    use_global_stats: false
  }
}
layer {
  name: "scale4_2"
  type: "Scale"
  bottom: "conv4_2"
  top: "conv4_2"
  param {
    lr_mult: 1
    decay_mult: 1
  }
  param {
    lr_mult: 1
    decay_mult: 1
  }
  scale_param {
    bias_term: true
    bias_filler {
      type: "constant"
      value: 0
    }
  }
}
layer {
  name: "relu4_2"
  type: "ReLU"
  bottom: "conv4_2"
  top: "conv4_2"
}
layer {
  name: "pool4"
  type: "Pooling"
  bottom: "conv4_2"
  top: "pool4"
  pooling_param {
    pool: MAX
    kernel_size: 2
    stride: 2
  }
}
layer {
  name: "conv5_1"
  type: "Convolution"
  bottom: "pool4"
  top: "conv5_1"
  param {
    lr_mult: 1
    decay_mult: 1
  }
  convolution_param {
    num_output: 256
    bias_term: false
    pad: 1
    kernel_size: 3
    weight_filler {
      type: "xavier"
    }
  }
}
layer {
  name: "bn5_1"
  type: "BatchNorm"
  bottom: "conv5_1"
  top: "conv5_1"
  param {
    lr_mult: 0
  }
  param {
    lr_mult: 0
  }
  param {
    lr_mult: 0
  }
  batch_norm_param {
    use_global_stats: false
  }
}
layer {
  name: "scale5_1"
  type: "Scale"
  bottom: "conv5_1"
  top: "conv5_1"
  param {
    lr_mult: 1
    decay_mult: 1
  }
  param {
    lr_mult: 1
    decay_mult: 1
  }
  scale_param {
    bias_term: true
    bias_filler {
      type: "constant"
      value: 0
    }
  }
}
layer {
  name: "relu5_1"
  type: "ReLU"
  bottom: "conv5_1"
  top: "conv5_1"
}
layer {
  name: "conv5_2"
  type: "Convolution"
  bottom: "conv5_1"
  top: "conv5_2"
  param {
    lr_mult: 1
    decay_mult: 1
  }
  convolution_param {
    num_output: 256
    bias_term: false
    pad: 1
    kernel_size: 3
    weight_filler {
      type: "xavier"
    }
  }
}
layer {
  name: "bn5_2"
  type: "BatchNorm"
  bottom: "conv5_2"
  top: "conv5_2"
  param {
    lr_mult: 0
  }
  param {
    lr_mult: 0
  }
  param {
    lr_mult: 0
  }
  batch_norm_param {
    use_global_stats: false
  }
}
layer {
  name: "scale5_2"
  type: "Scale"
  bottom: "conv5_2"
  top: "conv5_2"
  param {
    lr_mult: 1
    decay_mult: 1
  }
  param {
    lr_mult: 1
    decay_mult: 1
  }
  scale_param {
    bias_term: true
    bias_filler {
      type: "constant"
      value: 0
    }
  }
}
layer {
  name: "relu5_2"
  type: "ReLU"
  bottom: "conv5_2"
  top: "conv5_2"
}
layer {
  name: "pool5"
  type: "Pooling"
  bottom: "conv5_2"
  top: "pool5"
  pooling_param {
    pool: AVE
    kernel_size: 7
    stride: 1
  }
}
layer {
  name: "fc2"
  type: "InnerProduct"
  bottom: "pool5"
  top: "fc2"
  inner_product_param {
    num_output: 2
  }
}
layer {
  name: "loss"
  type: "SoftmaxWithLoss"
  bottom: "fc2"
  bottom: "label"
  top: "loss"
}
layer {
  name: "accuracy"
  type: "Accuracy"
  bottom: "fc2"
  bottom: "label"
  top: "accuracy"
}
I0624 15:21:29.097544 20531 layer_factory.hpp:77] Creating layer data
I0624 15:21:29.097949 20531 net.cpp:91] Creating Layer data
I0624 15:21:29.097959 20531 net.cpp:399] data -> data
I0624 15:21:29.097981 20531 net.cpp:399] data -> label
I0624 15:21:29.099146 20535 db_lmdb.cpp:35] Opened lmdb data/train_lmdb
I0624 15:21:29.123622 20531 data_layer.cpp:42] output data size: 24,3,224,224
I0624 15:21:29.153494 20531 net.cpp:141] Setting up data
I0624 15:21:29.153525 20531 net.cpp:148] Top shape: 24 3 224 224 (3612672)
I0624 15:21:29.153530 20531 net.cpp:148] Top shape: 24 (24)
I0624 15:21:29.153534 20531 net.cpp:156] Memory required for data: 14450784
I0624 15:21:29.153543 20531 layer_factory.hpp:77] Creating layer label_data_1_split
I0624 15:21:29.153559 20531 net.cpp:91] Creating Layer label_data_1_split
I0624 15:21:29.153563 20531 net.cpp:425] label_data_1_split <- label
I0624 15:21:29.153573 20531 net.cpp:399] label_data_1_split -> label_data_1_split_0
I0624 15:21:29.153584 20531 net.cpp:399] label_data_1_split -> label_data_1_split_1
I0624 15:21:29.153635 20531 net.cpp:141] Setting up label_data_1_split
I0624 15:21:29.153643 20531 net.cpp:148] Top shape: 24 (24)
I0624 15:21:29.153646 20531 net.cpp:148] Top shape: 24 (24)
I0624 15:21:29.153648 20531 net.cpp:156] Memory required for data: 14450976
I0624 15:21:29.153651 20531 layer_factory.hpp:77] Creating layer conv1_1
I0624 15:21:29.153666 20531 net.cpp:91] Creating Layer conv1_1
I0624 15:21:29.153671 20531 net.cpp:425] conv1_1 <- data
I0624 15:21:29.153674 20531 net.cpp:399] conv1_1 -> conv1_1
I0624 15:21:29.421036 20531 net.cpp:141] Setting up conv1_1
I0624 15:21:29.421064 20531 net.cpp:148] Top shape: 24 32 112 112 (9633792)
I0624 15:21:29.421068 20531 net.cpp:156] Memory required for data: 52986144
I0624 15:21:29.421080 20531 layer_factory.hpp:77] Creating layer bn1_1
I0624 15:21:29.421097 20531 net.cpp:91] Creating Layer bn1_1
I0624 15:21:29.421102 20531 net.cpp:425] bn1_1 <- conv1_1
I0624 15:21:29.421106 20531 net.cpp:386] bn1_1 -> conv1_1 (in-place)
I0624 15:21:29.421279 20531 net.cpp:141] Setting up bn1_1
I0624 15:21:29.421288 20531 net.cpp:148] Top shape: 24 32 112 112 (9633792)
I0624 15:21:29.421291 20531 net.cpp:156] Memory required for data: 91521312
I0624 15:21:29.421301 20531 layer_factory.hpp:77] Creating layer scale1_1
I0624 15:21:29.421311 20531 net.cpp:91] Creating Layer scale1_1
I0624 15:21:29.421319 20531 net.cpp:425] scale1_1 <- conv1_1
I0624 15:21:29.421324 20531 net.cpp:386] scale1_1 -> conv1_1 (in-place)
I0624 15:21:29.421365 20531 layer_factory.hpp:77] Creating layer scale1_1
I0624 15:21:29.421471 20531 net.cpp:141] Setting up scale1_1
I0624 15:21:29.421480 20531 net.cpp:148] Top shape: 24 32 112 112 (9633792)
I0624 15:21:29.421483 20531 net.cpp:156] Memory required for data: 130056480
I0624 15:21:29.421489 20531 layer_factory.hpp:77] Creating layer relu1_1
I0624 15:21:29.421495 20531 net.cpp:91] Creating Layer relu1_1
I0624 15:21:29.421499 20531 net.cpp:425] relu1_1 <- conv1_1
I0624 15:21:29.421502 20531 net.cpp:386] relu1_1 -> conv1_1 (in-place)
I0624 15:21:29.421649 20531 net.cpp:141] Setting up relu1_1
I0624 15:21:29.421659 20531 net.cpp:148] Top shape: 24 32 112 112 (9633792)
I0624 15:21:29.421663 20531 net.cpp:156] Memory required for data: 168591648
I0624 15:21:29.421665 20531 layer_factory.hpp:77] Creating layer conv1_2
I0624 15:21:29.421674 20531 net.cpp:91] Creating Layer conv1_2
I0624 15:21:29.421677 20531 net.cpp:425] conv1_2 <- conv1_1
I0624 15:21:29.421682 20531 net.cpp:399] conv1_2 -> conv1_2
I0624 15:21:29.422571 20531 net.cpp:141] Setting up conv1_2
I0624 15:21:29.422585 20531 net.cpp:148] Top shape: 24 32 112 112 (9633792)
I0624 15:21:29.422588 20531 net.cpp:156] Memory required for data: 207126816
I0624 15:21:29.422593 20531 layer_factory.hpp:77] Creating layer bn1_2
I0624 15:21:29.422601 20531 net.cpp:91] Creating Layer bn1_2
I0624 15:21:29.422605 20531 net.cpp:425] bn1_2 <- conv1_2
I0624 15:21:29.422610 20531 net.cpp:386] bn1_2 -> conv1_2 (in-place)
I0624 15:21:29.422776 20531 net.cpp:141] Setting up bn1_2
I0624 15:21:29.422785 20531 net.cpp:148] Top shape: 24 32 112 112 (9633792)
I0624 15:21:29.422787 20531 net.cpp:156] Memory required for data: 245661984
I0624 15:21:29.422797 20531 layer_factory.hpp:77] Creating layer scale1_2
I0624 15:21:29.422806 20531 net.cpp:91] Creating Layer scale1_2
I0624 15:21:29.422807 20531 net.cpp:425] scale1_2 <- conv1_2
I0624 15:21:29.422812 20531 net.cpp:386] scale1_2 -> conv1_2 (in-place)
I0624 15:21:29.422847 20531 layer_factory.hpp:77] Creating layer scale1_2
I0624 15:21:29.422960 20531 net.cpp:141] Setting up scale1_2
I0624 15:21:29.422968 20531 net.cpp:148] Top shape: 24 32 112 112 (9633792)
I0624 15:21:29.422971 20531 net.cpp:156] Memory required for data: 284197152
I0624 15:21:29.422976 20531 layer_factory.hpp:77] Creating layer relu1_2
I0624 15:21:29.422981 20531 net.cpp:91] Creating Layer relu1_2
I0624 15:21:29.422983 20531 net.cpp:425] relu1_2 <- conv1_2
I0624 15:21:29.422988 20531 net.cpp:386] relu1_2 -> conv1_2 (in-place)
I0624 15:21:29.423131 20531 net.cpp:141] Setting up relu1_2
I0624 15:21:29.423141 20531 net.cpp:148] Top shape: 24 32 112 112 (9633792)
I0624 15:21:29.423144 20531 net.cpp:156] Memory required for data: 322732320
I0624 15:21:29.423146 20531 layer_factory.hpp:77] Creating layer pool1
I0624 15:21:29.423161 20531 net.cpp:91] Creating Layer pool1
I0624 15:21:29.423163 20531 net.cpp:425] pool1 <- conv1_2
I0624 15:21:29.423167 20531 net.cpp:399] pool1 -> pool1
I0624 15:21:29.423218 20531 net.cpp:141] Setting up pool1
I0624 15:21:29.423226 20531 net.cpp:148] Top shape: 24 32 56 56 (2408448)
I0624 15:21:29.423250 20531 net.cpp:156] Memory required for data: 332366112
I0624 15:21:29.423254 20531 layer_factory.hpp:77] Creating layer conv2_1
I0624 15:21:29.423265 20531 net.cpp:91] Creating Layer conv2_1
I0624 15:21:29.423270 20531 net.cpp:425] conv2_1 <- pool1
I0624 15:21:29.423275 20531 net.cpp:399] conv2_1 -> conv2_1
I0624 15:21:29.425683 20531 net.cpp:141] Setting up conv2_1
I0624 15:21:29.425699 20531 net.cpp:148] Top shape: 24 64 56 56 (4816896)
I0624 15:21:29.425703 20531 net.cpp:156] Memory required for data: 351633696
I0624 15:21:29.425707 20531 layer_factory.hpp:77] Creating layer bn2_1
I0624 15:21:29.425714 20531 net.cpp:91] Creating Layer bn2_1
I0624 15:21:29.425717 20531 net.cpp:425] bn2_1 <- conv2_1
I0624 15:21:29.425724 20531 net.cpp:386] bn2_1 -> conv2_1 (in-place)
I0624 15:21:29.427127 20531 net.cpp:141] Setting up bn2_1
I0624 15:21:29.427140 20531 net.cpp:148] Top shape: 24 64 56 56 (4816896)
I0624 15:21:29.427142 20531 net.cpp:156] Memory required for data: 370901280
I0624 15:21:29.427161 20531 layer_factory.hpp:77] Creating layer scale2_1
I0624 15:21:29.427170 20531 net.cpp:91] Creating Layer scale2_1
I0624 15:21:29.427173 20531 net.cpp:425] scale2_1 <- conv2_1
I0624 15:21:29.427177 20531 net.cpp:386] scale2_1 -> conv2_1 (in-place)
I0624 15:21:29.427217 20531 layer_factory.hpp:77] Creating layer scale2_1
I0624 15:21:29.427320 20531 net.cpp:141] Setting up scale2_1
I0624 15:21:29.427328 20531 net.cpp:148] Top shape: 24 64 56 56 (4816896)
I0624 15:21:29.427331 20531 net.cpp:156] Memory required for data: 390168864
I0624 15:21:29.427340 20531 layer_factory.hpp:77] Creating layer relu2_1
I0624 15:21:29.427345 20531 net.cpp:91] Creating Layer relu2_1
I0624 15:21:29.427347 20531 net.cpp:425] relu2_1 <- conv2_1
I0624 15:21:29.427351 20531 net.cpp:386] relu2_1 -> conv2_1 (in-place)
I0624 15:21:29.427757 20531 net.cpp:141] Setting up relu2_1
I0624 15:21:29.427769 20531 net.cpp:148] Top shape: 24 64 56 56 (4816896)
I0624 15:21:29.427772 20531 net.cpp:156] Memory required for data: 409436448
I0624 15:21:29.427775 20531 layer_factory.hpp:77] Creating layer conv2_2
I0624 15:21:29.427785 20531 net.cpp:91] Creating Layer conv2_2
I0624 15:21:29.427788 20531 net.cpp:425] conv2_2 <- conv2_1
I0624 15:21:29.427794 20531 net.cpp:399] conv2_2 -> conv2_2
I0624 15:21:29.428612 20531 net.cpp:141] Setting up conv2_2
I0624 15:21:29.428624 20531 net.cpp:148] Top shape: 24 64 56 56 (4816896)
I0624 15:21:29.428627 20531 net.cpp:156] Memory required for data: 428704032
I0624 15:21:29.428632 20531 layer_factory.hpp:77] Creating layer bn2_2
I0624 15:21:29.428640 20531 net.cpp:91] Creating Layer bn2_2
I0624 15:21:29.428643 20531 net.cpp:425] bn2_2 <- conv2_2
I0624 15:21:29.428650 20531 net.cpp:386] bn2_2 -> conv2_2 (in-place)
I0624 15:21:29.428807 20531 net.cpp:141] Setting up bn2_2
I0624 15:21:29.428815 20531 net.cpp:148] Top shape: 24 64 56 56 (4816896)
I0624 15:21:29.428818 20531 net.cpp:156] Memory required for data: 447971616
I0624 15:21:29.428824 20531 layer_factory.hpp:77] Creating layer scale2_2
I0624 15:21:29.428830 20531 net.cpp:91] Creating Layer scale2_2
I0624 15:21:29.428833 20531 net.cpp:425] scale2_2 <- conv2_2
I0624 15:21:29.428838 20531 net.cpp:386] scale2_2 -> conv2_2 (in-place)
I0624 15:21:29.428870 20531 layer_factory.hpp:77] Creating layer scale2_2
I0624 15:21:29.428964 20531 net.cpp:141] Setting up scale2_2
I0624 15:21:29.428972 20531 net.cpp:148] Top shape: 24 64 56 56 (4816896)
I0624 15:21:29.428974 20531 net.cpp:156] Memory required for data: 467239200
I0624 15:21:29.428979 20531 layer_factory.hpp:77] Creating layer relu2_2
I0624 15:21:29.428984 20531 net.cpp:91] Creating Layer relu2_2
I0624 15:21:29.428987 20531 net.cpp:425] relu2_2 <- conv2_2
I0624 15:21:29.428992 20531 net.cpp:386] relu2_2 -> conv2_2 (in-place)
I0624 15:21:29.429374 20531 net.cpp:141] Setting up relu2_2
I0624 15:21:29.429388 20531 net.cpp:148] Top shape: 24 64 56 56 (4816896)
I0624 15:21:29.429389 20531 net.cpp:156] Memory required for data: 486506784
I0624 15:21:29.429392 20531 layer_factory.hpp:77] Creating layer pool2
I0624 15:21:29.429410 20531 net.cpp:91] Creating Layer pool2
I0624 15:21:29.429414 20531 net.cpp:425] pool2 <- conv2_2
I0624 15:21:29.429419 20531 net.cpp:399] pool2 -> pool2
I0624 15:21:29.429458 20531 net.cpp:141] Setting up pool2
I0624 15:21:29.429464 20531 net.cpp:148] Top shape: 24 64 28 28 (1204224)
I0624 15:21:29.429466 20531 net.cpp:156] Memory required for data: 491323680
I0624 15:21:29.429468 20531 layer_factory.hpp:77] Creating layer conv3_1
I0624 15:21:29.429476 20531 net.cpp:91] Creating Layer conv3_1
I0624 15:21:29.429479 20531 net.cpp:425] conv3_1 <- pool2
I0624 15:21:29.429484 20531 net.cpp:399] conv3_1 -> conv3_1
I0624 15:21:29.432204 20531 net.cpp:141] Setting up conv3_1
I0624 15:21:29.432217 20531 net.cpp:148] Top shape: 24 128 28 28 (2408448)
I0624 15:21:29.432220 20531 net.cpp:156] Memory required for data: 500957472
I0624 15:21:29.432225 20531 layer_factory.hpp:77] Creating layer bn3_1
I0624 15:21:29.432232 20531 net.cpp:91] Creating Layer bn3_1
I0624 15:21:29.432235 20531 net.cpp:425] bn3_1 <- conv3_1
I0624 15:21:29.432240 20531 net.cpp:386] bn3_1 -> conv3_1 (in-place)
I0624 15:21:29.433660 20531 net.cpp:141] Setting up bn3_1
I0624 15:21:29.433672 20531 net.cpp:148] Top shape: 24 128 28 28 (2408448)
I0624 15:21:29.433676 20531 net.cpp:156] Memory required for data: 510591264
I0624 15:21:29.433682 20531 layer_factory.hpp:77] Creating layer scale3_1
I0624 15:21:29.433691 20531 net.cpp:91] Creating Layer scale3_1
I0624 15:21:29.433694 20531 net.cpp:425] scale3_1 <- conv3_1
I0624 15:21:29.433698 20531 net.cpp:386] scale3_1 -> conv3_1 (in-place)
I0624 15:21:29.433735 20531 layer_factory.hpp:77] Creating layer scale3_1
I0624 15:21:29.433826 20531 net.cpp:141] Setting up scale3_1
I0624 15:21:29.433835 20531 net.cpp:148] Top shape: 24 128 28 28 (2408448)
I0624 15:21:29.433837 20531 net.cpp:156] Memory required for data: 520225056
I0624 15:21:29.433842 20531 layer_factory.hpp:77] Creating layer relu3_1
I0624 15:21:29.433848 20531 net.cpp:91] Creating Layer relu3_1
I0624 15:21:29.433851 20531 net.cpp:425] relu3_1 <- conv3_1
I0624 15:21:29.433854 20531 net.cpp:386] relu3_1 -> conv3_1 (in-place)
I0624 15:21:29.434007 20531 net.cpp:141] Setting up relu3_1
I0624 15:21:29.434017 20531 net.cpp:148] Top shape: 24 128 28 28 (2408448)
I0624 15:21:29.434020 20531 net.cpp:156] Memory required for data: 529858848
I0624 15:21:29.434023 20531 layer_factory.hpp:77] Creating layer conv3_2
I0624 15:21:29.434031 20531 net.cpp:91] Creating Layer conv3_2
I0624 15:21:29.434034 20531 net.cpp:425] conv3_2 <- conv3_1
I0624 15:21:29.434041 20531 net.cpp:399] conv3_2 -> conv3_2
I0624 15:21:29.436125 20531 net.cpp:141] Setting up conv3_2
I0624 15:21:29.436139 20531 net.cpp:148] Top shape: 24 128 28 28 (2408448)
I0624 15:21:29.436143 20531 net.cpp:156] Memory required for data: 539492640
I0624 15:21:29.436147 20531 layer_factory.hpp:77] Creating layer bn3_2
I0624 15:21:29.436156 20531 net.cpp:91] Creating Layer bn3_2
I0624 15:21:29.436158 20531 net.cpp:425] bn3_2 <- conv3_2
I0624 15:21:29.436163 20531 net.cpp:386] bn3_2 -> conv3_2 (in-place)
I0624 15:21:29.436318 20531 net.cpp:141] Setting up bn3_2
I0624 15:21:29.436326 20531 net.cpp:148] Top shape: 24 128 28 28 (2408448)
I0624 15:21:29.436329 20531 net.cpp:156] Memory required for data: 549126432
I0624 15:21:29.436343 20531 layer_factory.hpp:77] Creating layer scale3_2
I0624 15:21:29.436350 20531 net.cpp:91] Creating Layer scale3_2
I0624 15:21:29.436353 20531 net.cpp:425] scale3_2 <- conv3_2
I0624 15:21:29.436358 20531 net.cpp:386] scale3_2 -> conv3_2 (in-place)
I0624 15:21:29.436393 20531 layer_factory.hpp:77] Creating layer scale3_2
I0624 15:21:29.436483 20531 net.cpp:141] Setting up scale3_2
I0624 15:21:29.436493 20531 net.cpp:148] Top shape: 24 128 28 28 (2408448)
I0624 15:21:29.436496 20531 net.cpp:156] Memory required for data: 558760224
I0624 15:21:29.436501 20531 layer_factory.hpp:77] Creating layer relu3_2
I0624 15:21:29.436506 20531 net.cpp:91] Creating Layer relu3_2
I0624 15:21:29.436508 20531 net.cpp:425] relu3_2 <- conv3_2
I0624 15:21:29.436512 20531 net.cpp:386] relu3_2 -> conv3_2 (in-place)
I0624 15:21:29.436676 20531 net.cpp:141] Setting up relu3_2
I0624 15:21:29.436687 20531 net.cpp:148] Top shape: 24 128 28 28 (2408448)
I0624 15:21:29.436691 20531 net.cpp:156] Memory required for data: 568394016
I0624 15:21:29.436693 20531 layer_factory.hpp:77] Creating layer pool3
I0624 15:21:29.436700 20531 net.cpp:91] Creating Layer pool3
I0624 15:21:29.436702 20531 net.cpp:425] pool3 <- conv3_2
I0624 15:21:29.436708 20531 net.cpp:399] pool3 -> pool3
I0624 15:21:29.436745 20531 net.cpp:141] Setting up pool3
I0624 15:21:29.436753 20531 net.cpp:148] Top shape: 24 128 14 14 (602112)
I0624 15:21:29.436754 20531 net.cpp:156] Memory required for data: 570802464
I0624 15:21:29.436758 20531 layer_factory.hpp:77] Creating layer conv4_1
I0624 15:21:29.436765 20531 net.cpp:91] Creating Layer conv4_1
I0624 15:21:29.436769 20531 net.cpp:425] conv4_1 <- pool3
I0624 15:21:29.436774 20531 net.cpp:399] conv4_1 -> conv4_1
I0624 15:21:29.439761 20531 net.cpp:141] Setting up conv4_1
I0624 15:21:29.439785 20531 net.cpp:148] Top shape: 24 256 14 14 (1204224)
I0624 15:21:29.439788 20531 net.cpp:156] Memory required for data: 575619360
I0624 15:21:29.439795 20531 layer_factory.hpp:77] Creating layer bn4_1
I0624 15:21:29.439801 20531 net.cpp:91] Creating Layer bn4_1
I0624 15:21:29.439805 20531 net.cpp:425] bn4_1 <- conv4_1
I0624 15:21:29.439810 20531 net.cpp:386] bn4_1 -> conv4_1 (in-place)
I0624 15:21:29.439963 20531 net.cpp:141] Setting up bn4_1
I0624 15:21:29.439971 20531 net.cpp:148] Top shape: 24 256 14 14 (1204224)
I0624 15:21:29.439975 20531 net.cpp:156] Memory required for data: 580436256
I0624 15:21:29.439980 20531 layer_factory.hpp:77] Creating layer scale4_1
I0624 15:21:29.439987 20531 net.cpp:91] Creating Layer scale4_1
I0624 15:21:29.439990 20531 net.cpp:425] scale4_1 <- conv4_1
I0624 15:21:29.439995 20531 net.cpp:386] scale4_1 -> conv4_1 (in-place)
I0624 15:21:29.440027 20531 layer_factory.hpp:77] Creating layer scale4_1
I0624 15:21:29.440117 20531 net.cpp:141] Setting up scale4_1
I0624 15:21:29.440124 20531 net.cpp:148] Top shape: 24 256 14 14 (1204224)
I0624 15:21:29.440127 20531 net.cpp:156] Memory required for data: 585253152
I0624 15:21:29.440131 20531 layer_factory.hpp:77] Creating layer relu4_1
I0624 15:21:29.440140 20531 net.cpp:91] Creating Layer relu4_1
I0624 15:21:29.440143 20531 net.cpp:425] relu4_1 <- conv4_1
I0624 15:21:29.440147 20531 net.cpp:386] relu4_1 -> conv4_1 (in-place)
I0624 15:21:29.440294 20531 net.cpp:141] Setting up relu4_1
I0624 15:21:29.440304 20531 net.cpp:148] Top shape: 24 256 14 14 (1204224)
I0624 15:21:29.440306 20531 net.cpp:156] Memory required for data: 590070048
I0624 15:21:29.440309 20531 layer_factory.hpp:77] Creating layer conv4_2
I0624 15:21:29.440320 20531 net.cpp:91] Creating Layer conv4_2
I0624 15:21:29.440322 20531 net.cpp:425] conv4_2 <- conv4_1
I0624 15:21:29.440328 20531 net.cpp:399] conv4_2 -> conv4_2
I0624 15:21:29.446131 20531 net.cpp:141] Setting up conv4_2
I0624 15:21:29.446146 20531 net.cpp:148] Top shape: 24 256 14 14 (1204224)
I0624 15:21:29.446151 20531 net.cpp:156] Memory required for data: 594886944
I0624 15:21:29.446156 20531 layer_factory.hpp:77] Creating layer bn4_2
I0624 15:21:29.446163 20531 net.cpp:91] Creating Layer bn4_2
I0624 15:21:29.446166 20531 net.cpp:425] bn4_2 <- conv4_2
I0624 15:21:29.446171 20531 net.cpp:386] bn4_2 -> conv4_2 (in-place)
I0624 15:21:29.446328 20531 net.cpp:141] Setting up bn4_2
I0624 15:21:29.446336 20531 net.cpp:148] Top shape: 24 256 14 14 (1204224)
I0624 15:21:29.446339 20531 net.cpp:156] Memory required for data: 599703840
I0624 15:21:29.446346 20531 layer_factory.hpp:77] Creating layer scale4_2
I0624 15:21:29.446352 20531 net.cpp:91] Creating Layer scale4_2
I0624 15:21:29.446355 20531 net.cpp:425] scale4_2 <- conv4_2
I0624 15:21:29.446358 20531 net.cpp:386] scale4_2 -> conv4_2 (in-place)
I0624 15:21:29.446393 20531 layer_factory.hpp:77] Creating layer scale4_2
I0624 15:21:29.446477 20531 net.cpp:141] Setting up scale4_2
I0624 15:21:29.446485 20531 net.cpp:148] Top shape: 24 256 14 14 (1204224)
I0624 15:21:29.446497 20531 net.cpp:156] Memory required for data: 604520736
I0624 15:21:29.446502 20531 layer_factory.hpp:77] Creating layer relu4_2
I0624 15:21:29.446508 20531 net.cpp:91] Creating Layer relu4_2
I0624 15:21:29.446511 20531 net.cpp:425] relu4_2 <- conv4_2
I0624 15:21:29.446514 20531 net.cpp:386] relu4_2 -> conv4_2 (in-place)
I0624 15:21:29.446666 20531 net.cpp:141] Setting up relu4_2
I0624 15:21:29.446676 20531 net.cpp:148] Top shape: 24 256 14 14 (1204224)
I0624 15:21:29.446678 20531 net.cpp:156] Memory required for data: 609337632
I0624 15:21:29.446681 20531 layer_factory.hpp:77] Creating layer pool4
I0624 15:21:29.446686 20531 net.cpp:91] Creating Layer pool4
I0624 15:21:29.446688 20531 net.cpp:425] pool4 <- conv4_2
I0624 15:21:29.446694 20531 net.cpp:399] pool4 -> pool4
I0624 15:21:29.446730 20531 net.cpp:141] Setting up pool4
I0624 15:21:29.446738 20531 net.cpp:148] Top shape: 24 256 7 7 (301056)
I0624 15:21:29.446740 20531 net.cpp:156] Memory required for data: 610541856
I0624 15:21:29.446743 20531 layer_factory.hpp:77] Creating layer conv5_1
I0624 15:21:29.446751 20531 net.cpp:91] Creating Layer conv5_1
I0624 15:21:29.446754 20531 net.cpp:425] conv5_1 <- pool4
I0624 15:21:29.446758 20531 net.cpp:399] conv5_1 -> conv5_1
I0624 15:21:29.452661 20531 net.cpp:141] Setting up conv5_1
I0624 15:21:29.452678 20531 net.cpp:148] Top shape: 24 256 7 7 (301056)
I0624 15:21:29.452682 20531 net.cpp:156] Memory required for data: 611746080
I0624 15:21:29.452687 20531 layer_factory.hpp:77] Creating layer bn5_1
I0624 15:21:29.452693 20531 net.cpp:91] Creating Layer bn5_1
I0624 15:21:29.452697 20531 net.cpp:425] bn5_1 <- conv5_1
I0624 15:21:29.452702 20531 net.cpp:386] bn5_1 -> conv5_1 (in-place)
I0624 15:21:29.452857 20531 net.cpp:141] Setting up bn5_1
I0624 15:21:29.452865 20531 net.cpp:148] Top shape: 24 256 7 7 (301056)
I0624 15:21:29.452867 20531 net.cpp:156] Memory required for data: 612950304
I0624 15:21:29.452873 20531 layer_factory.hpp:77] Creating layer scale5_1
I0624 15:21:29.452883 20531 net.cpp:91] Creating Layer scale5_1
I0624 15:21:29.452885 20531 net.cpp:425] scale5_1 <- conv5_1
I0624 15:21:29.452889 20531 net.cpp:386] scale5_1 -> conv5_1 (in-place)
I0624 15:21:29.452924 20531 layer_factory.hpp:77] Creating layer scale5_1
I0624 15:21:29.453024 20531 net.cpp:141] Setting up scale5_1
I0624 15:21:29.453034 20531 net.cpp:148] Top shape: 24 256 7 7 (301056)
I0624 15:21:29.453037 20531 net.cpp:156] Memory required for data: 614154528
I0624 15:21:29.453042 20531 layer_factory.hpp:77] Creating layer relu5_1
I0624 15:21:29.453047 20531 net.cpp:91] Creating Layer relu5_1
I0624 15:21:29.453050 20531 net.cpp:425] relu5_1 <- conv5_1
I0624 15:21:29.453054 20531 net.cpp:386] relu5_1 -> conv5_1 (in-place)
I0624 15:21:29.453454 20531 net.cpp:141] Setting up relu5_1
I0624 15:21:29.453466 20531 net.cpp:148] Top shape: 24 256 7 7 (301056)
I0624 15:21:29.453469 20531 net.cpp:156] Memory required for data: 615358752
I0624 15:21:29.453472 20531 layer_factory.hpp:77] Creating layer conv5_2
I0624 15:21:29.453481 20531 net.cpp:91] Creating Layer conv5_2
I0624 15:21:29.453490 20531 net.cpp:425] conv5_2 <- conv5_1
I0624 15:21:29.453495 20531 net.cpp:399] conv5_2 -> conv5_2
I0624 15:21:29.458940 20531 net.cpp:141] Setting up conv5_2
I0624 15:21:29.458953 20531 net.cpp:148] Top shape: 24 256 7 7 (301056)
I0624 15:21:29.458956 20531 net.cpp:156] Memory required for data: 616562976
I0624 15:21:29.458961 20531 layer_factory.hpp:77] Creating layer bn5_2
I0624 15:21:29.458968 20531 net.cpp:91] Creating Layer bn5_2
I0624 15:21:29.458971 20531 net.cpp:425] bn5_2 <- conv5_2
I0624 15:21:29.458976 20531 net.cpp:386] bn5_2 -> conv5_2 (in-place)
I0624 15:21:29.459132 20531 net.cpp:141] Setting up bn5_2
I0624 15:21:29.459141 20531 net.cpp:148] Top shape: 24 256 7 7 (301056)
I0624 15:21:29.459142 20531 net.cpp:156] Memory required for data: 617767200
I0624 15:21:29.459153 20531 layer_factory.hpp:77] Creating layer scale5_2
I0624 15:21:29.459161 20531 net.cpp:91] Creating Layer scale5_2
I0624 15:21:29.459164 20531 net.cpp:425] scale5_2 <- conv5_2
I0624 15:21:29.459180 20531 net.cpp:386] scale5_2 -> conv5_2 (in-place)
I0624 15:21:29.459218 20531 layer_factory.hpp:77] Creating layer scale5_2
I0624 15:21:29.459306 20531 net.cpp:141] Setting up scale5_2
I0624 15:21:29.459313 20531 net.cpp:148] Top shape: 24 256 7 7 (301056)
I0624 15:21:29.459316 20531 net.cpp:156] Memory required for data: 618971424
I0624 15:21:29.459321 20531 layer_factory.hpp:77] Creating layer relu5_2
I0624 15:21:29.459326 20531 net.cpp:91] Creating Layer relu5_2
I0624 15:21:29.459328 20531 net.cpp:425] relu5_2 <- conv5_2
I0624 15:21:29.459332 20531 net.cpp:386] relu5_2 -> conv5_2 (in-place)
I0624 15:21:29.459703 20531 net.cpp:141] Setting up relu5_2
I0624 15:21:29.459715 20531 net.cpp:148] Top shape: 24 256 7 7 (301056)
I0624 15:21:29.459718 20531 net.cpp:156] Memory required for data: 620175648
I0624 15:21:29.459720 20531 layer_factory.hpp:77] Creating layer pool5
I0624 15:21:29.459728 20531 net.cpp:91] Creating Layer pool5
I0624 15:21:29.459730 20531 net.cpp:425] pool5 <- conv5_2
I0624 15:21:29.459735 20531 net.cpp:399] pool5 -> pool5
I0624 15:21:29.459900 20531 net.cpp:141] Setting up pool5
I0624 15:21:29.459910 20531 net.cpp:148] Top shape: 24 256 1 1 (6144)
I0624 15:21:29.459913 20531 net.cpp:156] Memory required for data: 620200224
I0624 15:21:29.459915 20531 layer_factory.hpp:77] Creating layer fc2
I0624 15:21:29.459921 20531 net.cpp:91] Creating Layer fc2
I0624 15:21:29.459924 20531 net.cpp:425] fc2 <- pool5
I0624 15:21:29.459929 20531 net.cpp:399] fc2 -> fc2
I0624 15:21:29.460026 20531 net.cpp:141] Setting up fc2
I0624 15:21:29.460033 20531 net.cpp:148] Top shape: 24 2 (48)
I0624 15:21:29.460036 20531 net.cpp:156] Memory required for data: 620200416
I0624 15:21:29.460041 20531 layer_factory.hpp:77] Creating layer fc2_fc2_0_split
I0624 15:21:29.460047 20531 net.cpp:91] Creating Layer fc2_fc2_0_split
I0624 15:21:29.460049 20531 net.cpp:425] fc2_fc2_0_split <- fc2
I0624 15:21:29.460054 20531 net.cpp:399] fc2_fc2_0_split -> fc2_fc2_0_split_0
I0624 15:21:29.460058 20531 net.cpp:399] fc2_fc2_0_split -> fc2_fc2_0_split_1
I0624 15:21:29.460088 20531 net.cpp:141] Setting up fc2_fc2_0_split
I0624 15:21:29.460093 20531 net.cpp:148] Top shape: 24 2 (48)
I0624 15:21:29.460095 20531 net.cpp:148] Top shape: 24 2 (48)
I0624 15:21:29.460098 20531 net.cpp:156] Memory required for data: 620200800
I0624 15:21:29.460099 20531 layer_factory.hpp:77] Creating layer loss
I0624 15:21:29.460109 20531 net.cpp:91] Creating Layer loss
I0624 15:21:29.460111 20531 net.cpp:425] loss <- fc2_fc2_0_split_0
I0624 15:21:29.460115 20531 net.cpp:425] loss <- label_data_1_split_0
I0624 15:21:29.460119 20531 net.cpp:399] loss -> loss
…
