…
I0625 20:55:41.621170 20203 net.cpp:313] The NetState phase (0) differed from the phase (1) specified by a rule in layer data
I0625 20:55:41.621402 20203 net.cpp:49] Initializing net from parameters: 
name: "BPnet"
state {
  phase: TRAIN
}
layer {
  name: "data"
  type: "Data"
  top: "data"
  top: "label"
  include {
    phase: TRAIN
  }
  transform_param {
    mirror: true
    mean_value: 100
    crop_h: 196
    crop_w: 256
    rotation_range: 10
    scale_jitter_range: 0.1
    contrast_jitter_range: 0.3
  }
  data_param {
    source: "data/train_lmdb"
    batch_size: 32
    backend: LMDB
  }
}
layer {
  name: "conv1_1"
  type: "Convolution"
  bottom: "data"
  top: "conv1_1"
  param {
    lr_mult: 1
    decay_mult: 1
  }
  convolution_param {
    num_output: 32
    bias_term: false
    pad: 3
    kernel_size: 7
    stride: 2
    weight_filler {
      type: "xavier"
    }
  }
}
layer {
  name: "bn1_1"
  type: "BatchNorm"
  bottom: "conv1_1"
  top: "conv1_1"
  param {
    lr_mult: 0
  }
  param {
    lr_mult: 0
  }
  param {
    lr_mult: 0
  }
  batch_norm_param {
    use_global_stats: false
  }
}
layer {
  name: "scale1_1"
  type: "Scale"
  bottom: "conv1_1"
  top: "conv1_1"
  param {
    lr_mult: 1
    decay_mult: 1
  }
  param {
    lr_mult: 1
    decay_mult: 1
  }
  scale_param {
    bias_term: true
    bias_filler {
      type: "constant"
      value: 0
    }
  }
}
layer {
  name: "relu1_1"
  type: "ReLU"
  bottom: "conv1_1"
  top: "conv1_1"
}
layer {
  name: "conv1_2"
  type: "Convolution"
  bottom: "conv1_1"
  top: "conv1_2"
  param {
    lr_mult: 1
    decay_mult: 1
  }
  convolution_param {
    num_output: 32
    bias_term: false
    pad: 1
    kernel_size: 3
    weight_filler {
      type: "xavier"
    }
  }
}
layer {
  name: "bn1_2"
  type: "BatchNorm"
  bottom: "conv1_2"
  top: "conv1_2"
  param {
    lr_mult: 0
  }
  param {
    lr_mult: 0
  }
  param {
    lr_mult: 0
  }
  batch_norm_param {
    use_global_stats: false
  }
}
layer {
  name: "scale1_2"
  type: "Scale"
  bottom: "conv1_2"
  top: "conv1_2"
  param {
    lr_mult: 1
    decay_mult: 1
  }
  param {
    lr_mult: 1
    decay_mult: 1
  }
  scale_param {
    bias_term: true
    bias_filler {
      type: "constant"
      value: 0
    }
  }
}
layer {
  name: "relu1_2"
  type: "ReLU"
  bottom: "conv1_2"
  top: "conv1_2"
}
layer {
  name: "pool1"
  type: "Pooling"
  bottom: "conv1_2"
  top: "pool1"
  pooling_param {
    pool: MAX
    kernel_size: 2
    stride: 2
  }
}
layer {
  name: "conv2_1"
  type: "Convolution"
  bottom: "pool1"
  top: "conv2_1"
  param {
    lr_mult: 1
    decay_mult: 1
  }
  convolution_param {
    num_output: 64
    bias_term: false
    pad: 1
    kernel_size: 3
    weight_filler {
      type: "xavier"
    }
  }
}
layer {
  name: "bn2_1"
  type: "BatchNorm"
  bottom: "conv2_1"
  top: "conv2_1"
  param {
    lr_mult: 0
  }
  param {
    lr_mult: 0
  }
  param {
    lr_mult: 0
  }
  batch_norm_param {
    use_global_stats: false
  }
}
layer {
  name: "scale2_1"
  type: "Scale"
  bottom: "conv2_1"
  top: "conv2_1"
  param {
    lr_mult: 1
    decay_mult: 1
  }
  param {
    lr_mult: 1
    decay_mult: 1
  }
  scale_param {
    bias_term: true
    bias_filler {
      type: "constant"
      value: 0
    }
  }
}
layer {
  name: "relu2_1"
  type: "ReLU"
  bottom: "conv2_1"
  top: "conv2_1"
}
layer {
  name: "conv2_2"
  type: "Convolution"
  bottom: "conv2_1"
  top: "conv2_2"
  param {
    lr_mult: 1
    decay_mult: 1
  }
  convolution_param {
    num_output: 64
    bias_term: false
    pad: 1
    kernel_size: 3
    weight_filler {
      type: "xavier"
    }
  }
}
layer {
  name: "bn2_2"
  type: "BatchNorm"
  bottom: "conv2_2"
  top: "conv2_2"
  param {
    lr_mult: 0
  }
  param {
    lr_mult: 0
  }
  param {
    lr_mult: 0
  }
  batch_norm_param {
    use_global_stats: false
  }
}
layer {
  name: "scale2_2"
  type: "Scale"
  bottom: "conv2_2"
  top: "conv2_2"
  param {
    lr_mult: 1
    decay_mult: 1
  }
  param {
    lr_mult: 1
    decay_mult: 1
  }
  scale_param {
    bias_term: true
    bias_filler {
      type: "constant"
      value: 0
    }
  }
}
layer {
  name: "relu2_2"
  type: "ReLU"
  bottom: "conv2_2"
  top: "conv2_2"
}
layer {
  name: "pool2"
  type: "Pooling"
  bottom: "conv2_2"
  top: "pool2"
  pooling_param {
    pool: MAX
    kernel_size: 2
    stride: 2
  }
}
layer {
  name: "conv3_1"
  type: "Convolution"
  bottom: "pool2"
  top: "conv3_1"
  param {
    lr_mult: 1
    decay_mult: 1
  }
  convolution_param {
    num_output: 128
    bias_term: false
    pad: 1
    kernel_size: 3
    weight_filler {
      type: "xavier"
    }
  }
}
layer {
  name: "bn3_1"
  type: "BatchNorm"
  bottom: "conv3_1"
  top: "conv3_1"
  param {
    lr_mult: 0
  }
  param {
    lr_mult: 0
  }
  param {
    lr_mult: 0
  }
  batch_norm_param {
    use_global_stats: false
  }
}
layer {
  name: "scale3_1"
  type: "Scale"
  bottom: "conv3_1"
  top: "conv3_1"
  param {
    lr_mult: 1
    decay_mult: 1
  }
  param {
    lr_mult: 1
    decay_mult: 1
  }
  scale_param {
    bias_term: true
    bias_filler {
      type: "constant"
      value: 0
    }
  }
}
layer {
  name: "relu3_1"
  type: "ReLU"
  bottom: "conv3_1"
  top: "conv3_1"
}
layer {
  name: "conv3_2"
  type: "Convolution"
  bottom: "conv3_1"
  top: "conv3_2"
  param {
    lr_mult: 1
    decay_mult: 1
  }
  convolution_param {
    num_output: 128
    bias_term: false
    pad: 1
    kernel_size: 3
    weight_filler {
      type: "xavier"
    }
  }
}
layer {
  name: "bn3_2"
  type: "BatchNorm"
  bottom: "conv3_2"
  top: "conv3_2"
  param {
    lr_mult: 0
  }
  param {
    lr_mult: 0
  }
  param {
    lr_mult: 0
  }
  batch_norm_param {
    use_global_stats: false
  }
}
layer {
  name: "scale3_2"
  type: "Scale"
  bottom: "conv3_2"
  top: "conv3_2"
  param {
    lr_mult: 1
    decay_mult: 1
  }
  param {
    lr_mult: 1
    decay_mult: 1
  }
  scale_param {
    bias_term: true
    bias_filler {
      type: "constant"
      value: 0
    }
  }
}
layer {
  name: "relu3_2"
  type: "ReLU"
  bottom: "conv3_2"
  top: "conv3_2"
}
layer {
  name: "pool3"
  type: "Pooling"
  bottom: "conv3_2"
  top: "pool3"
  pooling_param {
    pool: MAX
    kernel_size: 2
    stride: 2
  }
}
layer {
  name: "conv4_1"
  type: "Convolution"
  bottom: "pool3"
  top: "conv4_1"
  param {
    lr_mult: 1
    decay_mult: 1
  }
  convolution_param {
    num_output: 256
    bias_term: false
    pad: 1
    kernel_size: 3
    weight_filler {
      type: "xavier"
    }
  }
}
layer {
  name: "bn4_1"
  type: "BatchNorm"
  bottom: "conv4_1"
  top: "conv4_1"
  param {
    lr_mult: 0
  }
  param {
    lr_mult: 0
  }
  param {
    lr_mult: 0
  }
  batch_norm_param {
    use_global_stats: false
  }
}
layer {
  name: "scale4_1"
  type: "Scale"
  bottom: "conv4_1"
  top: "conv4_1"
  param {
    lr_mult: 1
    decay_mult: 1
  }
  param {
    lr_mult: 1
    decay_mult: 1
  }
  scale_param {
    bias_term: true
    bias_filler {
      type: "constant"
      value: 0
    }
  }
}
layer {
  name: "relu4_1"
  type: "ReLU"
  bottom: "conv4_1"
  top: "conv4_1"
}
layer {
  name: "conv4_2"
  type: "Convolution"
  bottom: "conv4_1"
  top: "conv4_2"
  param {
    lr_mult: 1
    decay_mult: 1
  }
  convolution_param {
    num_output: 256
    bias_term: false
    pad: 1
    kernel_size: 3
    weight_filler {
      type: "xavier"
    }
  }
}
layer {
  name: "bn4_2"
  type: "BatchNorm"
  bottom: "conv4_2"
  top: "conv4_2"
  param {
    lr_mult: 0
  }
  param {
    lr_mult: 0
  }
  param {
    lr_mult: 0
  }
  batch_norm_param {
    use_global_stats: false
  }
}
layer {
  name: "scale4_2"
  type: "Scale"
  bottom: "conv4_2"
  top: "conv4_2"
  param {
    lr_mult: 1
    decay_mult: 1
  }
  param {
    lr_mult: 1
    decay_mult: 1
  }
  scale_param {
    bias_term: true
    bias_filler {
      type: "constant"
      value: 0
    }
  }
}
layer {
  name: "relu4_2"
  type: "ReLU"
  bottom: "conv4_2"
  top: "conv4_2"
}
layer {
  name: "pool4"
  type: "Pooling"
  bottom: "conv4_2"
  top: "pool4"
  pooling_param {
    pool: MAX
    kernel_size: 2
    stride: 2
  }
}
layer {
  name: "conv5_1"
  type: "Convolution"
  bottom: "pool4"
  top: "conv5_1"
  param {
    lr_mult: 1
    decay_mult: 1
  }
  convolution_param {
    num_output: 256
    bias_term: false
    pad: 1
    kernel_size: 3
    weight_filler {
      type: "xavier"
    }
  }
}
layer {
  name: "bn5_1"
  type: "BatchNorm"
  bottom: "conv5_1"
  top: "conv5_1"
  param {
    lr_mult: 0
  }
  param {
    lr_mult: 0
  }
  param {
    lr_mult: 0
  }
  batch_norm_param {
    use_global_stats: false
  }
}
layer {
  name: "scale5_1"
  type: "Scale"
  bottom: "conv5_1"
  top: "conv5_1"
  param {
    lr_mult: 1
    decay_mult: 1
  }
  param {
    lr_mult: 1
    decay_mult: 1
  }
  scale_param {
    bias_term: true
    bias_filler {
      type: "constant"
      value: 0
    }
  }
}
layer {
  name: "relu5_1"
  type: "ReLU"
  bottom: "conv5_1"
  top: "conv5_1"
}
layer {
  name: "conv5_2"
  type: "Convolution"
  bottom: "conv5_1"
  top: "conv5_2"
  param {
    lr_mult: 1
    decay_mult: 1
  }
  convolution_param {
    num_output: 256
    bias_term: false
    pad: 1
    kernel_size: 3
    weight_filler {
      type: "xavier"
    }
  }
}
layer {
  name: "bn5_2"
  type: "BatchNorm"
  bottom: "conv5_2"
  top: "conv5_2"
  param {
    lr_mult: 0
  }
  param {
    lr_mult: 0
  }
  param {
    lr_mult: 0
  }
  batch_norm_param {
    use_global_stats: false
  }
}
layer {
  name: "scale5_2"
  type: "Scale"
  bottom: "conv5_2"
  top: "conv5_2"
  param {
    lr_mult: 1
    decay_mult: 1
  }
  param {
    lr_mult: 1
    decay_mult: 1
  }
  scale_param {
    bias_term: true
    bias_filler {
      type: "constant"
      value: 0
    }
  }
}
layer {
  name: "relu5_2"
  type: "ReLU"
  bottom: "conv5_2"
  top: "conv5_2"
}
layer {
  name: "pool5"
  type: "Pooling"
  bottom: "conv5_2"
  top: "pool5"
  pooling_param {
    pool: AVE
    stride: 1
    kernel_h: 6
    kernel_w: 8
  }
}
layer {
  name: "fc2"
  type: "InnerProduct"
  bottom: "pool5"
  top: "fc2"
  inner_product_param {
    num_output: 2
  }
}
layer {
  name: "loss"
  type: "SoftmaxWithLoss"
  bottom: "fc2"
  bottom: "label"
  top: "loss"
}
layer {
  name: "accuracy"
  type: "Accuracy"
  bottom: "fc2"
  bottom: "label"
  top: "accuracy"
}
I0625 20:55:41.621572 20203 layer_factory.hpp:77] Creating layer data
I0625 20:55:41.621971 20203 net.cpp:91] Creating Layer data
I0625 20:55:41.621981 20203 net.cpp:399] data -> data
I0625 20:55:41.622002 20203 net.cpp:399] data -> label
I0625 20:55:41.623358 20207 db_lmdb.cpp:35] Opened lmdb data/train_lmdb
I0625 20:55:41.649768 20203 data_layer.cpp:42] output data size: 32,3,196,256
I0625 20:55:41.689968 20203 net.cpp:141] Setting up data
I0625 20:55:41.689998 20203 net.cpp:148] Top shape: 32 3 196 256 (4816896)
I0625 20:55:41.690003 20203 net.cpp:148] Top shape: 32 (32)
I0625 20:55:41.690006 20203 net.cpp:156] Memory required for data: 19267712
I0625 20:55:41.690014 20203 layer_factory.hpp:77] Creating layer label_data_1_split
I0625 20:55:41.690029 20203 net.cpp:91] Creating Layer label_data_1_split
I0625 20:55:41.690034 20203 net.cpp:425] label_data_1_split <- label
I0625 20:55:41.690043 20203 net.cpp:399] label_data_1_split -> label_data_1_split_0
I0625 20:55:41.690050 20203 net.cpp:399] label_data_1_split -> label_data_1_split_1
I0625 20:55:41.690106 20203 net.cpp:141] Setting up label_data_1_split
I0625 20:55:41.690112 20203 net.cpp:148] Top shape: 32 (32)
I0625 20:55:41.690115 20203 net.cpp:148] Top shape: 32 (32)
I0625 20:55:41.690117 20203 net.cpp:156] Memory required for data: 19267968
I0625 20:55:41.690120 20203 layer_factory.hpp:77] Creating layer conv1_1
I0625 20:55:41.690135 20203 net.cpp:91] Creating Layer conv1_1
I0625 20:55:41.690153 20203 net.cpp:425] conv1_1 <- data
I0625 20:55:41.690158 20203 net.cpp:399] conv1_1 -> conv1_1
I0625 20:55:41.990209 20203 net.cpp:141] Setting up conv1_1
I0625 20:55:41.990233 20203 net.cpp:148] Top shape: 32 32 98 128 (12845056)
I0625 20:55:41.990236 20203 net.cpp:156] Memory required for data: 70648192
I0625 20:55:41.990247 20203 layer_factory.hpp:77] Creating layer bn1_1
I0625 20:55:41.990262 20203 net.cpp:91] Creating Layer bn1_1
I0625 20:55:41.990267 20203 net.cpp:425] bn1_1 <- conv1_1
I0625 20:55:41.990272 20203 net.cpp:386] bn1_1 -> conv1_1 (in-place)
I0625 20:55:41.990424 20203 net.cpp:141] Setting up bn1_1
I0625 20:55:41.990432 20203 net.cpp:148] Top shape: 32 32 98 128 (12845056)
I0625 20:55:41.990435 20203 net.cpp:156] Memory required for data: 122028416
I0625 20:55:41.990444 20203 layer_factory.hpp:77] Creating layer scale1_1
I0625 20:55:41.990453 20203 net.cpp:91] Creating Layer scale1_1
I0625 20:55:41.990455 20203 net.cpp:425] scale1_1 <- conv1_1
I0625 20:55:41.990459 20203 net.cpp:386] scale1_1 -> conv1_1 (in-place)
I0625 20:55:41.990495 20203 layer_factory.hpp:77] Creating layer scale1_1
I0625 20:55:41.990588 20203 net.cpp:141] Setting up scale1_1
I0625 20:55:41.990595 20203 net.cpp:148] Top shape: 32 32 98 128 (12845056)
I0625 20:55:41.990598 20203 net.cpp:156] Memory required for data: 173408640
I0625 20:55:41.990604 20203 layer_factory.hpp:77] Creating layer relu1_1
I0625 20:55:41.990609 20203 net.cpp:91] Creating Layer relu1_1
I0625 20:55:41.990612 20203 net.cpp:425] relu1_1 <- conv1_1
I0625 20:55:41.990615 20203 net.cpp:386] relu1_1 -> conv1_1 (in-place)
I0625 20:55:41.990751 20203 net.cpp:141] Setting up relu1_1
I0625 20:55:41.990759 20203 net.cpp:148] Top shape: 32 32 98 128 (12845056)
I0625 20:55:41.990762 20203 net.cpp:156] Memory required for data: 224788864
I0625 20:55:41.990764 20203 layer_factory.hpp:77] Creating layer conv1_2
I0625 20:55:41.990773 20203 net.cpp:91] Creating Layer conv1_2
I0625 20:55:41.990777 20203 net.cpp:425] conv1_2 <- conv1_1
I0625 20:55:41.990780 20203 net.cpp:399] conv1_2 -> conv1_2
I0625 20:55:41.991593 20203 net.cpp:141] Setting up conv1_2
I0625 20:55:41.991606 20203 net.cpp:148] Top shape: 32 32 98 128 (12845056)
I0625 20:55:41.991610 20203 net.cpp:156] Memory required for data: 276169088
I0625 20:55:41.991613 20203 layer_factory.hpp:77] Creating layer bn1_2
I0625 20:55:41.991619 20203 net.cpp:91] Creating Layer bn1_2
I0625 20:55:41.991622 20203 net.cpp:425] bn1_2 <- conv1_2
I0625 20:55:41.991626 20203 net.cpp:386] bn1_2 -> conv1_2 (in-place)
I0625 20:55:41.991761 20203 net.cpp:141] Setting up bn1_2
I0625 20:55:41.991768 20203 net.cpp:148] Top shape: 32 32 98 128 (12845056)
I0625 20:55:41.991771 20203 net.cpp:156] Memory required for data: 327549312
I0625 20:55:41.991780 20203 layer_factory.hpp:77] Creating layer scale1_2
I0625 20:55:41.991786 20203 net.cpp:91] Creating Layer scale1_2
I0625 20:55:41.991788 20203 net.cpp:425] scale1_2 <- conv1_2
I0625 20:55:41.991792 20203 net.cpp:386] scale1_2 -> conv1_2 (in-place)
I0625 20:55:41.991822 20203 layer_factory.hpp:77] Creating layer scale1_2
I0625 20:55:41.991910 20203 net.cpp:141] Setting up scale1_2
I0625 20:55:41.991917 20203 net.cpp:148] Top shape: 32 32 98 128 (12845056)
I0625 20:55:41.991920 20203 net.cpp:156] Memory required for data: 378929536
I0625 20:55:41.991925 20203 layer_factory.hpp:77] Creating layer relu1_2
I0625 20:55:41.991928 20203 net.cpp:91] Creating Layer relu1_2
I0625 20:55:41.991931 20203 net.cpp:425] relu1_2 <- conv1_2
I0625 20:55:41.991935 20203 net.cpp:386] relu1_2 -> conv1_2 (in-place)
I0625 20:55:41.992058 20203 net.cpp:141] Setting up relu1_2
I0625 20:55:41.992068 20203 net.cpp:148] Top shape: 32 32 98 128 (12845056)
I0625 20:55:41.992069 20203 net.cpp:156] Memory required for data: 430309760
I0625 20:55:41.992072 20203 layer_factory.hpp:77] Creating layer pool1
I0625 20:55:41.992079 20203 net.cpp:91] Creating Layer pool1
I0625 20:55:41.992080 20203 net.cpp:425] pool1 <- conv1_2
I0625 20:55:41.992084 20203 net.cpp:399] pool1 -> pool1
I0625 20:55:41.992128 20203 net.cpp:141] Setting up pool1
I0625 20:55:41.992149 20203 net.cpp:148] Top shape: 32 32 49 64 (3211264)
I0625 20:55:41.992152 20203 net.cpp:156] Memory required for data: 443154816
I0625 20:55:41.992154 20203 layer_factory.hpp:77] Creating layer conv2_1
I0625 20:55:41.992162 20203 net.cpp:91] Creating Layer conv2_1
I0625 20:55:41.992164 20203 net.cpp:425] conv2_1 <- pool1
I0625 20:55:41.992169 20203 net.cpp:399] conv2_1 -> conv2_1
I0625 20:55:41.994082 20203 net.cpp:141] Setting up conv2_1
I0625 20:55:41.994096 20203 net.cpp:148] Top shape: 32 64 49 64 (6422528)
I0625 20:55:41.994099 20203 net.cpp:156] Memory required for data: 468844928
I0625 20:55:41.994103 20203 layer_factory.hpp:77] Creating layer bn2_1
I0625 20:55:41.994109 20203 net.cpp:91] Creating Layer bn2_1
I0625 20:55:41.994112 20203 net.cpp:425] bn2_1 <- conv2_1
I0625 20:55:41.994117 20203 net.cpp:386] bn2_1 -> conv2_1 (in-place)
I0625 20:55:41.995306 20203 net.cpp:141] Setting up bn2_1
I0625 20:55:41.995317 20203 net.cpp:148] Top shape: 32 64 49 64 (6422528)
I0625 20:55:41.995321 20203 net.cpp:156] Memory required for data: 494535040
I0625 20:55:41.995326 20203 layer_factory.hpp:77] Creating layer scale2_1
I0625 20:55:41.995333 20203 net.cpp:91] Creating Layer scale2_1
I0625 20:55:41.995337 20203 net.cpp:425] scale2_1 <- conv2_1
I0625 20:55:41.995340 20203 net.cpp:386] scale2_1 -> conv2_1 (in-place)
I0625 20:55:41.995373 20203 layer_factory.hpp:77] Creating layer scale2_1
I0625 20:55:41.995452 20203 net.cpp:141] Setting up scale2_1
I0625 20:55:41.995460 20203 net.cpp:148] Top shape: 32 64 49 64 (6422528)
I0625 20:55:41.995462 20203 net.cpp:156] Memory required for data: 520225152
I0625 20:55:41.995468 20203 layer_factory.hpp:77] Creating layer relu2_1
I0625 20:55:41.995473 20203 net.cpp:91] Creating Layer relu2_1
I0625 20:55:41.995476 20203 net.cpp:425] relu2_1 <- conv2_1
I0625 20:55:41.995479 20203 net.cpp:386] relu2_1 -> conv2_1 (in-place)
I0625 20:55:41.995867 20203 net.cpp:141] Setting up relu2_1
I0625 20:55:41.995879 20203 net.cpp:148] Top shape: 32 64 49 64 (6422528)
I0625 20:55:41.995882 20203 net.cpp:156] Memory required for data: 545915264
I0625 20:55:41.995884 20203 layer_factory.hpp:77] Creating layer conv2_2
I0625 20:55:41.995893 20203 net.cpp:91] Creating Layer conv2_2
I0625 20:55:41.995896 20203 net.cpp:425] conv2_2 <- conv2_1
I0625 20:55:41.995900 20203 net.cpp:399] conv2_2 -> conv2_2
I0625 20:55:41.996597 20203 net.cpp:141] Setting up conv2_2
I0625 20:55:41.996608 20203 net.cpp:148] Top shape: 32 64 49 64 (6422528)
I0625 20:55:41.996610 20203 net.cpp:156] Memory required for data: 571605376
I0625 20:55:41.996614 20203 layer_factory.hpp:77] Creating layer bn2_2
I0625 20:55:41.996621 20203 net.cpp:91] Creating Layer bn2_2
I0625 20:55:41.996624 20203 net.cpp:425] bn2_2 <- conv2_2
I0625 20:55:41.996629 20203 net.cpp:386] bn2_2 -> conv2_2 (in-place)
I0625 20:55:41.996762 20203 net.cpp:141] Setting up bn2_2
I0625 20:55:41.996767 20203 net.cpp:148] Top shape: 32 64 49 64 (6422528)
I0625 20:55:41.996770 20203 net.cpp:156] Memory required for data: 597295488
I0625 20:55:41.996776 20203 layer_factory.hpp:77] Creating layer scale2_2
I0625 20:55:41.996783 20203 net.cpp:91] Creating Layer scale2_2
I0625 20:55:41.996786 20203 net.cpp:425] scale2_2 <- conv2_2
I0625 20:55:41.996790 20203 net.cpp:386] scale2_2 -> conv2_2 (in-place)
I0625 20:55:41.996819 20203 layer_factory.hpp:77] Creating layer scale2_2
I0625 20:55:41.996901 20203 net.cpp:141] Setting up scale2_2
I0625 20:55:41.996906 20203 net.cpp:148] Top shape: 32 64 49 64 (6422528)
I0625 20:55:41.996909 20203 net.cpp:156] Memory required for data: 622985600
I0625 20:55:41.996913 20203 layer_factory.hpp:77] Creating layer relu2_2
I0625 20:55:41.996917 20203 net.cpp:91] Creating Layer relu2_2
I0625 20:55:41.996920 20203 net.cpp:425] relu2_2 <- conv2_2
I0625 20:55:41.996923 20203 net.cpp:386] relu2_2 -> conv2_2 (in-place)
I0625 20:55:41.997305 20203 net.cpp:141] Setting up relu2_2
I0625 20:55:41.997318 20203 net.cpp:148] Top shape: 32 64 49 64 (6422528)
I0625 20:55:41.997320 20203 net.cpp:156] Memory required for data: 648675712
I0625 20:55:41.997334 20203 layer_factory.hpp:77] Creating layer pool2
I0625 20:55:41.997339 20203 net.cpp:91] Creating Layer pool2
I0625 20:55:41.997342 20203 net.cpp:425] pool2 <- conv2_2
I0625 20:55:41.997347 20203 net.cpp:399] pool2 -> pool2
I0625 20:55:41.997382 20203 net.cpp:141] Setting up pool2
I0625 20:55:41.997387 20203 net.cpp:148] Top shape: 32 64 25 32 (1638400)
I0625 20:55:41.997390 20203 net.cpp:156] Memory required for data: 655229312
I0625 20:55:41.997391 20203 layer_factory.hpp:77] Creating layer conv3_1
I0625 20:55:41.997398 20203 net.cpp:91] Creating Layer conv3_1
I0625 20:55:41.997401 20203 net.cpp:425] conv3_1 <- pool2
I0625 20:55:41.997405 20203 net.cpp:399] conv3_1 -> conv3_1
I0625 20:55:41.999645 20203 net.cpp:141] Setting up conv3_1
I0625 20:55:41.999658 20203 net.cpp:148] Top shape: 32 128 25 32 (3276800)
I0625 20:55:41.999661 20203 net.cpp:156] Memory required for data: 668336512
I0625 20:55:41.999665 20203 layer_factory.hpp:77] Creating layer bn3_1
I0625 20:55:41.999671 20203 net.cpp:91] Creating Layer bn3_1
I0625 20:55:41.999675 20203 net.cpp:425] bn3_1 <- conv3_1
I0625 20:55:41.999678 20203 net.cpp:386] bn3_1 -> conv3_1 (in-place)
I0625 20:55:42.000861 20203 net.cpp:141] Setting up bn3_1
I0625 20:55:42.000872 20203 net.cpp:148] Top shape: 32 128 25 32 (3276800)
I0625 20:55:42.000875 20203 net.cpp:156] Memory required for data: 681443712
I0625 20:55:42.000881 20203 layer_factory.hpp:77] Creating layer scale3_1
I0625 20:55:42.000887 20203 net.cpp:91] Creating Layer scale3_1
I0625 20:55:42.000890 20203 net.cpp:425] scale3_1 <- conv3_1
I0625 20:55:42.000895 20203 net.cpp:386] scale3_1 -> conv3_1 (in-place)
I0625 20:55:42.000926 20203 layer_factory.hpp:77] Creating layer scale3_1
I0625 20:55:42.001001 20203 net.cpp:141] Setting up scale3_1
I0625 20:55:42.001010 20203 net.cpp:148] Top shape: 32 128 25 32 (3276800)
I0625 20:55:42.001013 20203 net.cpp:156] Memory required for data: 694550912
I0625 20:55:42.001018 20203 layer_factory.hpp:77] Creating layer relu3_1
I0625 20:55:42.001021 20203 net.cpp:91] Creating Layer relu3_1
I0625 20:55:42.001024 20203 net.cpp:425] relu3_1 <- conv3_1
I0625 20:55:42.001027 20203 net.cpp:386] relu3_1 -> conv3_1 (in-place)
I0625 20:55:42.001160 20203 net.cpp:141] Setting up relu3_1
I0625 20:55:42.001168 20203 net.cpp:148] Top shape: 32 128 25 32 (3276800)
I0625 20:55:42.001171 20203 net.cpp:156] Memory required for data: 707658112
I0625 20:55:42.001173 20203 layer_factory.hpp:77] Creating layer conv3_2
I0625 20:55:42.001181 20203 net.cpp:91] Creating Layer conv3_2
I0625 20:55:42.001184 20203 net.cpp:425] conv3_2 <- conv3_1
I0625 20:55:42.001188 20203 net.cpp:399] conv3_2 -> conv3_2
I0625 20:55:42.003056 20203 net.cpp:141] Setting up conv3_2
I0625 20:55:42.003068 20203 net.cpp:148] Top shape: 32 128 25 32 (3276800)
I0625 20:55:42.003072 20203 net.cpp:156] Memory required for data: 720765312
I0625 20:55:42.003077 20203 layer_factory.hpp:77] Creating layer bn3_2
I0625 20:55:42.003082 20203 net.cpp:91] Creating Layer bn3_2
I0625 20:55:42.003085 20203 net.cpp:425] bn3_2 <- conv3_2
I0625 20:55:42.003089 20203 net.cpp:386] bn3_2 -> conv3_2 (in-place)
I0625 20:55:42.003252 20203 net.cpp:141] Setting up bn3_2
I0625 20:55:42.003262 20203 net.cpp:148] Top shape: 32 128 25 32 (3276800)
I0625 20:55:42.003264 20203 net.cpp:156] Memory required for data: 733872512
I0625 20:55:42.003275 20203 layer_factory.hpp:77] Creating layer scale3_2
I0625 20:55:42.003281 20203 net.cpp:91] Creating Layer scale3_2
I0625 20:55:42.003284 20203 net.cpp:425] scale3_2 <- conv3_2
I0625 20:55:42.003288 20203 net.cpp:386] scale3_2 -> conv3_2 (in-place)
I0625 20:55:42.003319 20203 layer_factory.hpp:77] Creating layer scale3_2
I0625 20:55:42.003397 20203 net.cpp:141] Setting up scale3_2
I0625 20:55:42.003404 20203 net.cpp:148] Top shape: 32 128 25 32 (3276800)
I0625 20:55:42.003407 20203 net.cpp:156] Memory required for data: 746979712
I0625 20:55:42.003412 20203 layer_factory.hpp:77] Creating layer relu3_2
I0625 20:55:42.003415 20203 net.cpp:91] Creating Layer relu3_2
I0625 20:55:42.003418 20203 net.cpp:425] relu3_2 <- conv3_2
I0625 20:55:42.003432 20203 net.cpp:386] relu3_2 -> conv3_2 (in-place)
I0625 20:55:42.003569 20203 net.cpp:141] Setting up relu3_2
I0625 20:55:42.003578 20203 net.cpp:148] Top shape: 32 128 25 32 (3276800)
I0625 20:55:42.003582 20203 net.cpp:156] Memory required for data: 760086912
I0625 20:55:42.003583 20203 layer_factory.hpp:77] Creating layer pool3
I0625 20:55:42.003589 20203 net.cpp:91] Creating Layer pool3
I0625 20:55:42.003592 20203 net.cpp:425] pool3 <- conv3_2
I0625 20:55:42.003597 20203 net.cpp:399] pool3 -> pool3
I0625 20:55:42.003628 20203 net.cpp:141] Setting up pool3
I0625 20:55:42.003633 20203 net.cpp:148] Top shape: 32 128 13 16 (851968)
I0625 20:55:42.003635 20203 net.cpp:156] Memory required for data: 763494784
I0625 20:55:42.003638 20203 layer_factory.hpp:77] Creating layer conv4_1
I0625 20:55:42.003644 20203 net.cpp:91] Creating Layer conv4_1
I0625 20:55:42.003648 20203 net.cpp:425] conv4_1 <- pool3
I0625 20:55:42.003651 20203 net.cpp:399] conv4_1 -> conv4_1
I0625 20:55:42.006359 20203 net.cpp:141] Setting up conv4_1
I0625 20:55:42.006372 20203 net.cpp:148] Top shape: 32 256 13 16 (1703936)
I0625 20:55:42.006376 20203 net.cpp:156] Memory required for data: 770310528
I0625 20:55:42.006379 20203 layer_factory.hpp:77] Creating layer bn4_1
I0625 20:55:42.006387 20203 net.cpp:91] Creating Layer bn4_1
I0625 20:55:42.006391 20203 net.cpp:425] bn4_1 <- conv4_1
I0625 20:55:42.006394 20203 net.cpp:386] bn4_1 -> conv4_1 (in-place)
I0625 20:55:42.006546 20203 net.cpp:141] Setting up bn4_1
I0625 20:55:42.006552 20203 net.cpp:148] Top shape: 32 256 13 16 (1703936)
I0625 20:55:42.006556 20203 net.cpp:156] Memory required for data: 777126272
I0625 20:55:42.006561 20203 layer_factory.hpp:77] Creating layer scale4_1
I0625 20:55:42.006567 20203 net.cpp:91] Creating Layer scale4_1
I0625 20:55:42.006569 20203 net.cpp:425] scale4_1 <- conv4_1
I0625 20:55:42.006575 20203 net.cpp:386] scale4_1 -> conv4_1 (in-place)
I0625 20:55:42.006606 20203 layer_factory.hpp:77] Creating layer scale4_1
I0625 20:55:42.006685 20203 net.cpp:141] Setting up scale4_1
I0625 20:55:42.006692 20203 net.cpp:148] Top shape: 32 256 13 16 (1703936)
I0625 20:55:42.006695 20203 net.cpp:156] Memory required for data: 783942016
I0625 20:55:42.006698 20203 layer_factory.hpp:77] Creating layer relu4_1
I0625 20:55:42.006705 20203 net.cpp:91] Creating Layer relu4_1
I0625 20:55:42.006707 20203 net.cpp:425] relu4_1 <- conv4_1
I0625 20:55:42.006712 20203 net.cpp:386] relu4_1 -> conv4_1 (in-place)
I0625 20:55:42.006853 20203 net.cpp:141] Setting up relu4_1
I0625 20:55:42.006862 20203 net.cpp:148] Top shape: 32 256 13 16 (1703936)
I0625 20:55:42.006865 20203 net.cpp:156] Memory required for data: 790757760
I0625 20:55:42.006868 20203 layer_factory.hpp:77] Creating layer conv4_2
I0625 20:55:42.006875 20203 net.cpp:91] Creating Layer conv4_2
I0625 20:55:42.006878 20203 net.cpp:425] conv4_2 <- conv4_1
I0625 20:55:42.006883 20203 net.cpp:399] conv4_2 -> conv4_2
I0625 20:55:42.014612 20203 net.cpp:141] Setting up conv4_2
I0625 20:55:42.014628 20203 net.cpp:148] Top shape: 32 256 13 16 (1703936)
I0625 20:55:42.014631 20203 net.cpp:156] Memory required for data: 797573504
I0625 20:55:42.014636 20203 layer_factory.hpp:77] Creating layer bn4_2
I0625 20:55:42.014644 20203 net.cpp:91] Creating Layer bn4_2
I0625 20:55:42.014647 20203 net.cpp:425] bn4_2 <- conv4_2
I0625 20:55:42.014652 20203 net.cpp:386] bn4_2 -> conv4_2 (in-place)
I0625 20:55:42.014827 20203 net.cpp:141] Setting up bn4_2
I0625 20:55:42.014835 20203 net.cpp:148] Top shape: 32 256 13 16 (1703936)
I0625 20:55:42.014837 20203 net.cpp:156] Memory required for data: 804389248
I0625 20:55:42.014843 20203 layer_factory.hpp:77] Creating layer scale4_2
I0625 20:55:42.014849 20203 net.cpp:91] Creating Layer scale4_2
I0625 20:55:42.014853 20203 net.cpp:425] scale4_2 <- conv4_2
I0625 20:55:42.014858 20203 net.cpp:386] scale4_2 -> conv4_2 (in-place)
I0625 20:55:42.014891 20203 layer_factory.hpp:77] Creating layer scale4_2
I0625 20:55:42.014971 20203 net.cpp:141] Setting up scale4_2
I0625 20:55:42.014988 20203 net.cpp:148] Top shape: 32 256 13 16 (1703936)
I0625 20:55:42.014991 20203 net.cpp:156] Memory required for data: 811204992
I0625 20:55:42.014996 20203 layer_factory.hpp:77] Creating layer relu4_2
I0625 20:55:42.015000 20203 net.cpp:91] Creating Layer relu4_2
I0625 20:55:42.015002 20203 net.cpp:425] relu4_2 <- conv4_2
I0625 20:55:42.015007 20203 net.cpp:386] relu4_2 -> conv4_2 (in-place)
I0625 20:55:42.015156 20203 net.cpp:141] Setting up relu4_2
I0625 20:55:42.015166 20203 net.cpp:148] Top shape: 32 256 13 16 (1703936)
I0625 20:55:42.015167 20203 net.cpp:156] Memory required for data: 818020736
I0625 20:55:42.015171 20203 layer_factory.hpp:77] Creating layer pool4
I0625 20:55:42.015177 20203 net.cpp:91] Creating Layer pool4
I0625 20:55:42.015179 20203 net.cpp:425] pool4 <- conv4_2
I0625 20:55:42.015183 20203 net.cpp:399] pool4 -> pool4
I0625 20:55:42.015219 20203 net.cpp:141] Setting up pool4
I0625 20:55:42.015224 20203 net.cpp:148] Top shape: 32 256 7 8 (458752)
I0625 20:55:42.015226 20203 net.cpp:156] Memory required for data: 819855744
I0625 20:55:42.015228 20203 layer_factory.hpp:77] Creating layer conv5_1
I0625 20:55:42.015236 20203 net.cpp:91] Creating Layer conv5_1
I0625 20:55:42.015239 20203 net.cpp:425] conv5_1 <- pool4
I0625 20:55:42.015242 20203 net.cpp:399] conv5_1 -> conv5_1
I0625 20:55:42.020696 20203 net.cpp:141] Setting up conv5_1
I0625 20:55:42.020711 20203 net.cpp:148] Top shape: 32 256 7 8 (458752)
I0625 20:55:42.020714 20203 net.cpp:156] Memory required for data: 821690752
I0625 20:55:42.020719 20203 layer_factory.hpp:77] Creating layer bn5_1
I0625 20:55:42.020725 20203 net.cpp:91] Creating Layer bn5_1
I0625 20:55:42.020730 20203 net.cpp:425] bn5_1 <- conv5_1
I0625 20:55:42.020733 20203 net.cpp:386] bn5_1 -> conv5_1 (in-place)
I0625 20:55:42.020885 20203 net.cpp:141] Setting up bn5_1
I0625 20:55:42.020895 20203 net.cpp:148] Top shape: 32 256 7 8 (458752)
I0625 20:55:42.020898 20203 net.cpp:156] Memory required for data: 823525760
I0625 20:55:42.020907 20203 layer_factory.hpp:77] Creating layer scale5_1
I0625 20:55:42.020916 20203 net.cpp:91] Creating Layer scale5_1
I0625 20:55:42.020920 20203 net.cpp:425] scale5_1 <- conv5_1
I0625 20:55:42.020930 20203 net.cpp:386] scale5_1 -> conv5_1 (in-place)
I0625 20:55:42.020975 20203 layer_factory.hpp:77] Creating layer scale5_1
I0625 20:55:42.021075 20203 net.cpp:141] Setting up scale5_1
I0625 20:55:42.021083 20203 net.cpp:148] Top shape: 32 256 7 8 (458752)
I0625 20:55:42.021090 20203 net.cpp:156] Memory required for data: 825360768
I0625 20:55:42.021097 20203 layer_factory.hpp:77] Creating layer relu5_1
I0625 20:55:42.021106 20203 net.cpp:91] Creating Layer relu5_1
I0625 20:55:42.021109 20203 net.cpp:425] relu5_1 <- conv5_1
I0625 20:55:42.021116 20203 net.cpp:386] relu5_1 -> conv5_1 (in-place)
I0625 20:55:42.021535 20203 net.cpp:141] Setting up relu5_1
I0625 20:55:42.021549 20203 net.cpp:148] Top shape: 32 256 7 8 (458752)
I0625 20:55:42.021553 20203 net.cpp:156] Memory required for data: 827195776
I0625 20:55:42.021559 20203 layer_factory.hpp:77] Creating layer conv5_2
I0625 20:55:42.021572 20203 net.cpp:91] Creating Layer conv5_2
I0625 20:55:42.021577 20203 net.cpp:425] conv5_2 <- conv5_1
I0625 20:55:42.021586 20203 net.cpp:399] conv5_2 -> conv5_2
I0625 20:55:42.026868 20203 net.cpp:141] Setting up conv5_2
I0625 20:55:42.026887 20203 net.cpp:148] Top shape: 32 256 7 8 (458752)
I0625 20:55:42.026892 20203 net.cpp:156] Memory required for data: 829030784
I0625 20:55:42.026899 20203 layer_factory.hpp:77] Creating layer bn5_2
I0625 20:55:42.026911 20203 net.cpp:91] Creating Layer bn5_2
I0625 20:55:42.026916 20203 net.cpp:425] bn5_2 <- conv5_2
I0625 20:55:42.026926 20203 net.cpp:386] bn5_2 -> conv5_2 (in-place)
I0625 20:55:42.027091 20203 net.cpp:141] Setting up bn5_2
I0625 20:55:42.027102 20203 net.cpp:148] Top shape: 32 256 7 8 (458752)
I0625 20:55:42.027107 20203 net.cpp:156] Memory required for data: 830865792
I0625 20:55:42.027115 20203 layer_factory.hpp:77] Creating layer scale5_2
I0625 20:55:42.027127 20203 net.cpp:91] Creating Layer scale5_2
I0625 20:55:42.027154 20203 net.cpp:425] scale5_2 <- conv5_2
I0625 20:55:42.027164 20203 net.cpp:386] scale5_2 -> conv5_2 (in-place)
I0625 20:55:42.027215 20203 layer_factory.hpp:77] Creating layer scale5_2
I0625 20:55:42.027323 20203 net.cpp:141] Setting up scale5_2
I0625 20:55:42.027333 20203 net.cpp:148] Top shape: 32 256 7 8 (458752)
I0625 20:55:42.027338 20203 net.cpp:156] Memory required for data: 832700800
I0625 20:55:42.027344 20203 layer_factory.hpp:77] Creating layer relu5_2
I0625 20:55:42.027356 20203 net.cpp:91] Creating Layer relu5_2
I0625 20:55:42.027361 20203 net.cpp:425] relu5_2 <- conv5_2
I0625 20:55:42.027367 20203 net.cpp:386] relu5_2 -> conv5_2 (in-place)
I0625 20:55:42.027778 20203 net.cpp:141] Setting up relu5_2
I0625 20:55:42.027793 20203 net.cpp:148] Top shape: 32 256 7 8 (458752)
I0625 20:55:42.027798 20203 net.cpp:156] Memory required for data: 834535808
I0625 20:55:42.027803 20203 layer_factory.hpp:77] Creating layer pool5
I0625 20:55:42.027812 20203 net.cpp:91] Creating Layer pool5
I0625 20:55:42.027817 20203 net.cpp:425] pool5 <- conv5_2
I0625 20:55:42.027824 20203 net.cpp:399] pool5 -> pool5
I0625 20:55:42.027994 20203 net.cpp:141] Setting up pool5
I0625 20:55:42.028007 20203 net.cpp:148] Top shape: 32 256 2 1 (16384)
I0625 20:55:42.028010 20203 net.cpp:156] Memory required for data: 834601344
I0625 20:55:42.028015 20203 layer_factory.hpp:77] Creating layer fc2
I0625 20:55:42.028029 20203 net.cpp:91] Creating Layer fc2
I0625 20:55:42.028034 20203 net.cpp:425] fc2 <- pool5
I0625 20:55:42.028043 20203 net.cpp:399] fc2 -> fc2
I0625 20:55:42.028152 20203 net.cpp:141] Setting up fc2
I0625 20:55:42.028162 20203 net.cpp:148] Top shape: 32 2 (64)
I0625 20:55:42.028165 20203 net.cpp:156] Memory required for data: 834601600
I0625 20:55:42.028173 20203 layer_factory.hpp:77] Creating layer fc2_fc2_0_split
I0625 20:55:42.028182 20203 net.cpp:91] Creating Layer fc2_fc2_0_split
I0625 20:55:42.028185 20203 net.cpp:425] fc2_fc2_0_split <- fc2
I0625 20:55:42.028194 20203 net.cpp:399] fc2_fc2_0_split -> fc2_fc2_0_split_0
I0625 20:55:42.028201 20203 net.cpp:399] fc2_fc2_0_split -> fc2_fc2_0_split_1
I0625 20:55:42.028242 20203 net.cpp:141] Setting up fc2_fc2_0_split
I0625 20:55:42.028251 20203 net.cpp:148] Top shape: 32 2 (64)
I0625 20:55:42.028256 20203 net.cpp:148] Top shape: 32 2 (64)
I0625 20:55:42.028259 20203 net.cpp:156] Memory required for data: 834602112
I0625 20:55:42.028264 20203 layer_factory.hpp:77] Creating layer loss
I0625 20:55:42.028275 20203 net.cpp:91] Creating Layer loss
I0625 20:55:42.028280 20203 net.cpp:425] loss <- fc2_fc2_0_split_0
I0625 20:55:42.028285 20203 net.cpp:425] loss <- label_data_1_split_0
I0625 20:55:42.028292 20203 net.cpp:399] loss -> loss
…
I0625 20:55:42.029716 20203 solver.cpp:181] Creating test net (#0) specified by net file: models/bpnet/train_val.prototxt
I0625 20:55:42.029779 20203 net.cpp:313] The NetState phase (1) differed from the phase (0) specified by a rule in layer data
I0625 20:55:42.030014 20203 net.cpp:49] Initializing net from parameters: 
name: "BPnet"
state {
  phase: TEST
}
layer {
  name: "data"
  type: "Data"
  top: "data"
  top: "label"
  include {
    phase: TEST
  }
  transform_param {
    mirror: false
    mean_value: 100
    crop_h: 196
    crop_w: 256
  }
  data_param {
    source: "data/val_lmdb"
    batch_size: 64
    backend: LMDB
  }
}
layer {
  name: "conv1_1"
  type: "Convolution"
  bottom: "data"
  top: "conv1_1"
  param {
    lr_mult: 1
    decay_mult: 1
  }
  convolution_param {
    num_output: 32
    bias_term: false
    pad: 3
    kernel_size: 7
    stride: 2
    weight_filler {
      type: "xavier"
    }
  }
}
layer {
  name: "bn1_1"
  type: "BatchNorm"
  bottom: "conv1_1"
  top: "conv1_1"
  param {
    lr_mult: 0
  }
  param {
    lr_mult: 0
  }
  param {
    lr_mult: 0
  }
  batch_norm_param {
    use_global_stats: false
  }
}
layer {
  name: "scale1_1"
  type: "Scale"
  bottom: "conv1_1"
  top: "conv1_1"
  param {
    lr_mult: 1
    decay_mult: 1
  }
  param {
    lr_mult: 1
    decay_mult: 1
  }
  scale_param {
    bias_term: true
    bias_filler {
      type: "constant"
      value: 0
    }
  }
}
layer {
  name: "relu1_1"
  type: "ReLU"
  bottom: "conv1_1"
  top: "conv1_1"
}
layer {
  name: "conv1_2"
  type: "Convolution"
  bottom: "conv1_1"
  top: "conv1_2"
  param {
    lr_mult: 1
    decay_mult: 1
  }
  convolution_param {
    num_output: 32
    bias_term: false
    pad: 1
    kernel_size: 3
    weight_filler {
      type: "xavier"
    }
  }
}
layer {
  name: "bn1_2"
  type: "BatchNorm"
  bottom: "conv1_2"
  top: "conv1_2"
  param {
    lr_mult: 0
  }
  param {
    lr_mult: 0
  }
  param {
    lr_mult: 0
  }
  batch_norm_param {
    use_global_stats: false
  }
}
layer {
  name: "scale1_2"
  type: "Scale"
  bottom: "conv1_2"
  top: "conv1_2"
  param {
    lr_mult: 1
    decay_mult: 1
  }
  param {
    lr_mult: 1
    decay_mult: 1
  }
  scale_param {
    bias_term: true
    bias_filler {
      type: "constant"
      value: 0
    }
  }
}
layer {
  name: "relu1_2"
  type: "ReLU"
  bottom: "conv1_2"
  top: "conv1_2"
}
layer {
  name: "pool1"
  type: "Pooling"
  bottom: "conv1_2"
  top: "pool1"
  pooling_param {
    pool: MAX
    kernel_size: 2
    stride: 2
  }
}
layer {
  name: "conv2_1"
  type: "Convolution"
  bottom: "pool1"
  top: "conv2_1"
  param {
    lr_mult: 1
    decay_mult: 1
  }
  convolution_param {
    num_output: 64
    bias_term: false
    pad: 1
    kernel_size: 3
    weight_filler {
      type: "xavier"
    }
  }
}
layer {
  name: "bn2_1"
  type: "BatchNorm"
  bottom: "conv2_1"
  top: "conv2_1"
  param {
    lr_mult: 0
  }
  param {
    lr_mult: 0
  }
  param {
    lr_mult: 0
  }
  batch_norm_param {
    use_global_stats: false
  }
}
layer {
  name: "scale2_1"
  type: "Scale"
  bottom: "conv2_1"
  top: "conv2_1"
  param {
    lr_mult: 1
    decay_mult: 1
  }
  param {
    lr_mult: 1
    decay_mult: 1
  }
  scale_param {
    bias_term: true
    bias_filler {
      type: "constant"
      value: 0
    }
  }
}
layer {
  name: "relu2_1"
  type: "ReLU"
  bottom: "conv2_1"
  top: "conv2_1"
}
layer {
  name: "conv2_2"
  type: "Convolution"
  bottom: "conv2_1"
  top: "conv2_2"
  param {
    lr_mult: 1
    decay_mult: 1
  }
  convolution_param {
    num_output: 64
    bias_term: false
    pad: 1
    kernel_size: 3
    weight_filler {
      type: "xavier"
    }
  }
}
layer {
  name: "bn2_2"
  type: "BatchNorm"
  bottom: "conv2_2"
  top: "conv2_2"
  param {
    lr_mult: 0
  }
  param {
    lr_mult: 0
  }
  param {
    lr_mult: 0
  }
  batch_norm_param {
    use_global_stats: false
  }
}
layer {
  name: "scale2_2"
  type: "Scale"
  bottom: "conv2_2"
  top: "conv2_2"
  param {
    lr_mult: 1
    decay_mult: 1
  }
  param {
    lr_mult: 1
    decay_mult: 1
  }
  scale_param {
    bias_term: true
    bias_filler {
      type: "constant"
      value: 0
    }
  }
}
layer {
  name: "relu2_2"
  type: "ReLU"
  bottom: "conv2_2"
  top: "conv2_2"
}
layer {
  name: "pool2"
  type: "Pooling"
  bottom: "conv2_2"
  top: "pool2"
  pooling_param {
    pool: MAX
    kernel_size: 2
    stride: 2
  }
}
layer {
  name: "conv3_1"
  type: "Convolution"
  bottom: "pool2"
  top: "conv3_1"
  param {
    lr_mult: 1
    decay_mult: 1
  }
  convolution_param {
    num_output: 128
    bias_term: false
    pad: 1
    kernel_size: 3
    weight_filler {
      type: "xavier"
    }
  }
}
layer {
  name: "bn3_1"
  type: "BatchNorm"
  bottom: "conv3_1"
  top: "conv3_1"
  param {
    lr_mult: 0
  }
  param {
    lr_mult: 0
  }
  param {
    lr_mult: 0
  }
  batch_norm_param {
    use_global_stats: false
  }
}
layer {
  name: "scale3_1"
  type: "Scale"
  bottom: "conv3_1"
  top: "conv3_1"
  param {
    lr_mult: 1
    decay_mult: 1
  }
  param {
    lr_mult: 1
    decay_mult: 1
  }
  scale_param {
    bias_term: true
    bias_filler {
      type: "constant"
      value: 0
    }
  }
}
layer {
  name: "relu3_1"
  type: "ReLU"
  bottom: "conv3_1"
  top: "conv3_1"
}
layer {
  name: "conv3_2"
  type: "Convolution"
  bottom: "conv3_1"
  top: "conv3_2"
  param {
    lr_mult: 1
    decay_mult: 1
  }
  convolution_param {
    num_output: 128
    bias_term: false
    pad: 1
    kernel_size: 3
    weight_filler {
      type: "xavier"
    }
  }
}
layer {
  name: "bn3_2"
  type: "BatchNorm"
  bottom: "conv3_2"
  top: "conv3_2"
  param {
    lr_mult: 0
  }
  param {
    lr_mult: 0
  }
  param {
    lr_mult: 0
  }
  batch_norm_param {
    use_global_stats: false
  }
}
layer {
  name: "scale3_2"
  type: "Scale"
  bottom: "conv3_2"
  top: "conv3_2"
  param {
    lr_mult: 1
    decay_mult: 1
  }
  param {
    lr_mult: 1
    decay_mult: 1
  }
  scale_param {
    bias_term: true
    bias_filler {
      type: "constant"
      value: 0
    }
  }
}
layer {
  name: "relu3_2"
  type: "ReLU"
  bottom: "conv3_2"
  top: "conv3_2"
}
layer {
  name: "pool3"
  type: "Pooling"
  bottom: "conv3_2"
  top: "pool3"
  pooling_param {
    pool: MAX
    kernel_size: 2
    stride: 2
  }
}
layer {
  name: "conv4_1"
  type: "Convolution"
  bottom: "pool3"
  top: "conv4_1"
  param {
    lr_mult: 1
    decay_mult: 1
  }
  convolution_param {
    num_output: 256
    bias_term: false
    pad: 1
    kernel_size: 3
    weight_filler {
      type: "xavier"
    }
  }
}
layer {
  name: "bn4_1"
  type: "BatchNorm"
  bottom: "conv4_1"
  top: "conv4_1"
  param {
    lr_mult: 0
  }
  param {
    lr_mult: 0
  }
  param {
    lr_mult: 0
  }
  batch_norm_param {
    use_global_stats: false
  }
}
layer {
  name: "scale4_1"
  type: "Scale"
  bottom: "conv4_1"
  top: "conv4_1"
  param {
    lr_mult: 1
    decay_mult: 1
  }
  param {
    lr_mult: 1
    decay_mult: 1
  }
  scale_param {
    bias_term: true
    bias_filler {
      type: "constant"
      value: 0
    }
  }
}
layer {
  name: "relu4_1"
  type: "ReLU"
  bottom: "conv4_1"
  top: "conv4_1"
}
layer {
  name: "conv4_2"
  type: "Convolution"
  bottom: "conv4_1"
  top: "conv4_2"
  param {
    lr_mult: 1
    decay_mult: 1
  }
  convolution_param {
    num_output: 256
    bias_term: false
    pad: 1
    kernel_size: 3
    weight_filler {
      type: "xavier"
    }
  }
}
layer {
  name: "bn4_2"
  type: "BatchNorm"
  bottom: "conv4_2"
  top: "conv4_2"
  param {
    lr_mult: 0
  }
  param {
    lr_mult: 0
  }
  param {
    lr_mult: 0
  }
  batch_norm_param {
    use_global_stats: false
  }
}
layer {
  name: "scale4_2"
  type: "Scale"
  bottom: "conv4_2"
  top: "conv4_2"
  param {
    lr_mult: 1
    decay_mult: 1
  }
  param {
    lr_mult: 1
    decay_mult: 1
  }
  scale_param {
    bias_term: true
    bias_filler {
      type: "constant"
      value: 0
    }
  }
}
layer {
  name: "relu4_2"
  type: "ReLU"
  bottom: "conv4_2"
  top: "conv4_2"
}
layer {
  name: "pool4"
  type: "Pooling"
  bottom: "conv4_2"
  top: "pool4"
  pooling_param {
    pool: MAX
    kernel_size: 2
    stride: 2
  }
}
layer {
  name: "conv5_1"
  type: "Convolution"
  bottom: "pool4"
  top: "conv5_1"
  param {
    lr_mult: 1
    decay_mult: 1
  }
  convolution_param {
    num_output: 256
    bias_term: false
    pad: 1
    kernel_size: 3
    weight_filler {
      type: "xavier"
    }
  }
}
layer {
  name: "bn5_1"
  type: "BatchNorm"
  bottom: "conv5_1"
  top: "conv5_1"
  param {
    lr_mult: 0
  }
  param {
    lr_mult: 0
  }
  param {
    lr_mult: 0
  }
  batch_norm_param {
    use_global_stats: false
  }
}
layer {
  name: "scale5_1"
  type: "Scale"
  bottom: "conv5_1"
  top: "conv5_1"
  param {
    lr_mult: 1
    decay_mult: 1
  }
  param {
    lr_mult: 1
    decay_mult: 1
  }
  scale_param {
    bias_term: true
    bias_filler {
      type: "constant"
      value: 0
    }
  }
}
layer {
  name: "relu5_1"
  type: "ReLU"
  bottom: "conv5_1"
  top: "conv5_1"
}
layer {
  name: "conv5_2"
  type: "Convolution"
  bottom: "conv5_1"
  top: "conv5_2"
  param {
    lr_mult: 1
    decay_mult: 1
  }
  convolution_param {
    num_output: 256
    bias_term: false
    pad: 1
    kernel_size: 3
    weight_filler {
      type: "xavier"
    }
  }
}
layer {
  name: "bn5_2"
  type: "BatchNorm"
  bottom: "conv5_2"
  top: "conv5_2"
  param {
    lr_mult: 0
  }
  param {
    lr_mult: 0
  }
  param {
    lr_mult: 0
  }
  batch_norm_param {
    use_global_stats: false
  }
}
layer {
  name: "scale5_2"
  type: "Scale"
  bottom: "conv5_2"
  top: "conv5_2"
  param {
    lr_mult: 1
    decay_mult: 1
  }
  param {
    lr_mult: 1
    decay_mult: 1
  }
  scale_param {
    bias_term: true
    bias_filler {
      type: "constant"
      value: 0
    }
  }
}
layer {
  name: "relu5_2"
  type: "ReLU"
  bottom: "conv5_2"
  top: "conv5_2"
}
layer {
  name: "pool5"
  type: "Pooling"
  bottom: "conv5_2"
  top: "pool5"
  pooling_param {
    pool: AVE
    stride: 1
    kernel_h: 6
    kernel_w: 8
  }
}
layer {
  name: "fc2"
  type: "InnerProduct"
  bottom: "pool5"
  top: "fc2"
  inner_product_param {
    num_output: 2
  }
}
layer {
  name: "loss"
  type: "SoftmaxWithLoss"
  bottom: "fc2"
  bottom: "label"
  top: "loss"
}
layer {
  name: "accuracy"
  type: "Accuracy"
  bottom: "fc2"
  bottom: "label"
  top: "accuracy"
}
I0625 20:55:42.030158 20203 layer_factory.hpp:77] Creating layer data
I0625 20:55:42.030231 20203 net.cpp:91] Creating Layer data
I0625 20:55:42.030237 20203 net.cpp:399] data -> data
I0625 20:55:42.030244 20203 net.cpp:399] data -> label
I0625 20:55:42.031417 20216 db_lmdb.cpp:35] Opened lmdb data/val_lmdb
I0625 20:55:42.031743 20203 data_layer.cpp:42] output data size: 64,3,196,256
I0625 20:55:42.112570 20203 net.cpp:141] Setting up data
I0625 20:55:42.112591 20203 net.cpp:148] Top shape: 64 3 196 256 (9633792)
I0625 20:55:42.112596 20203 net.cpp:148] Top shape: 64 (64)
I0625 20:55:42.112597 20203 net.cpp:156] Memory required for data: 38535424
I0625 20:55:42.112602 20203 layer_factory.hpp:77] Creating layer label_data_1_split
I0625 20:55:42.112613 20203 net.cpp:91] Creating Layer label_data_1_split
I0625 20:55:42.112617 20203 net.cpp:425] label_data_1_split <- label
I0625 20:55:42.112624 20203 net.cpp:399] label_data_1_split -> label_data_1_split_0
I0625 20:55:42.112632 20203 net.cpp:399] label_data_1_split -> label_data_1_split_1
I0625 20:55:42.112690 20203 net.cpp:141] Setting up label_data_1_split
I0625 20:55:42.112695 20203 net.cpp:148] Top shape: 64 (64)
I0625 20:55:42.112699 20203 net.cpp:148] Top shape: 64 (64)
I0625 20:55:42.112699 20203 net.cpp:156] Memory required for data: 38535936
I0625 20:55:42.112702 20203 layer_factory.hpp:77] Creating layer conv1_1
I0625 20:55:42.112714 20203 net.cpp:91] Creating Layer conv1_1
I0625 20:55:42.112716 20203 net.cpp:425] conv1_1 <- data
I0625 20:55:42.112721 20203 net.cpp:399] conv1_1 -> conv1_1
I0625 20:55:42.113865 20203 net.cpp:141] Setting up conv1_1
I0625 20:55:42.113878 20203 net.cpp:148] Top shape: 64 32 98 128 (25690112)
I0625 20:55:42.113881 20203 net.cpp:156] Memory required for data: 141296384
I0625 20:55:42.113888 20203 layer_factory.hpp:77] Creating layer bn1_1
I0625 20:55:42.113906 20203 net.cpp:91] Creating Layer bn1_1
I0625 20:55:42.113910 20203 net.cpp:425] bn1_1 <- conv1_1
I0625 20:55:42.113915 20203 net.cpp:386] bn1_1 -> conv1_1 (in-place)
I0625 20:55:42.114094 20203 net.cpp:141] Setting up bn1_1
I0625 20:55:42.114102 20203 net.cpp:148] Top shape: 64 32 98 128 (25690112)
I0625 20:55:42.114105 20203 net.cpp:156] Memory required for data: 244056832
I0625 20:55:42.114114 20203 layer_factory.hpp:77] Creating layer scale1_1
I0625 20:55:42.114123 20203 net.cpp:91] Creating Layer scale1_1
I0625 20:55:42.114125 20203 net.cpp:425] scale1_1 <- conv1_1
I0625 20:55:42.114141 20203 net.cpp:386] scale1_1 -> conv1_1 (in-place)
I0625 20:55:42.114181 20203 layer_factory.hpp:77] Creating layer scale1_1
I0625 20:55:42.114289 20203 net.cpp:141] Setting up scale1_1
I0625 20:55:42.114295 20203 net.cpp:148] Top shape: 64 32 98 128 (25690112)
I0625 20:55:42.114296 20203 net.cpp:156] Memory required for data: 346817280
I0625 20:55:42.114302 20203 layer_factory.hpp:77] Creating layer relu1_1
I0625 20:55:42.114310 20203 net.cpp:91] Creating Layer relu1_1
I0625 20:55:42.114311 20203 net.cpp:425] relu1_1 <- conv1_1
I0625 20:55:42.114315 20203 net.cpp:386] relu1_1 -> conv1_1 (in-place)
I0625 20:55:42.114457 20203 net.cpp:141] Setting up relu1_1
I0625 20:55:42.114464 20203 net.cpp:148] Top shape: 64 32 98 128 (25690112)
I0625 20:55:42.114466 20203 net.cpp:156] Memory required for data: 449577728
I0625 20:55:42.114469 20203 layer_factory.hpp:77] Creating layer conv1_2
I0625 20:55:42.114476 20203 net.cpp:91] Creating Layer conv1_2
I0625 20:55:42.114478 20203 net.cpp:425] conv1_2 <- conv1_1
I0625 20:55:42.114483 20203 net.cpp:399] conv1_2 -> conv1_2
I0625 20:55:42.118690 20203 net.cpp:141] Setting up conv1_2
I0625 20:55:42.118706 20203 net.cpp:148] Top shape: 64 32 98 128 (25690112)
I0625 20:55:42.118711 20203 net.cpp:156] Memory required for data: 552338176
I0625 20:55:42.118718 20203 layer_factory.hpp:77] Creating layer bn1_2
I0625 20:55:42.118731 20203 net.cpp:91] Creating Layer bn1_2
I0625 20:55:42.118736 20203 net.cpp:425] bn1_2 <- conv1_2
I0625 20:55:42.118744 20203 net.cpp:386] bn1_2 -> conv1_2 (in-place)
I0625 20:55:42.118923 20203 net.cpp:141] Setting up bn1_2
I0625 20:55:42.118932 20203 net.cpp:148] Top shape: 64 32 98 128 (25690112)
I0625 20:55:42.118934 20203 net.cpp:156] Memory required for data: 655098624
I0625 20:55:42.118943 20203 layer_factory.hpp:77] Creating layer scale1_2
I0625 20:55:42.118952 20203 net.cpp:91] Creating Layer scale1_2
I0625 20:55:42.118954 20203 net.cpp:425] scale1_2 <- conv1_2
I0625 20:55:42.118958 20203 net.cpp:386] scale1_2 -> conv1_2 (in-place)
I0625 20:55:42.118993 20203 layer_factory.hpp:77] Creating layer scale1_2
I0625 20:55:42.119102 20203 net.cpp:141] Setting up scale1_2
I0625 20:55:42.119108 20203 net.cpp:148] Top shape: 64 32 98 128 (25690112)
I0625 20:55:42.119112 20203 net.cpp:156] Memory required for data: 757859072
I0625 20:55:42.119115 20203 layer_factory.hpp:77] Creating layer relu1_2
I0625 20:55:42.119119 20203 net.cpp:91] Creating Layer relu1_2
I0625 20:55:42.119122 20203 net.cpp:425] relu1_2 <- conv1_2
I0625 20:55:42.119127 20203 net.cpp:386] relu1_2 -> conv1_2 (in-place)
I0625 20:55:42.119583 20203 net.cpp:141] Setting up relu1_2
I0625 20:55:42.119596 20203 net.cpp:148] Top shape: 64 32 98 128 (25690112)
I0625 20:55:42.119598 20203 net.cpp:156] Memory required for data: 860619520
I0625 20:55:42.119601 20203 layer_factory.hpp:77] Creating layer pool1
I0625 20:55:42.119608 20203 net.cpp:91] Creating Layer pool1
I0625 20:55:42.119611 20203 net.cpp:425] pool1 <- conv1_2
I0625 20:55:42.119616 20203 net.cpp:399] pool1 -> pool1
I0625 20:55:42.119655 20203 net.cpp:141] Setting up pool1
I0625 20:55:42.119660 20203 net.cpp:148] Top shape: 64 32 49 64 (6422528)
I0625 20:55:42.119663 20203 net.cpp:156] Memory required for data: 886309632
I0625 20:55:42.119664 20203 layer_factory.hpp:77] Creating layer conv2_1
I0625 20:55:42.119673 20203 net.cpp:91] Creating Layer conv2_1
I0625 20:55:42.119675 20203 net.cpp:425] conv2_1 <- pool1
I0625 20:55:42.119679 20203 net.cpp:399] conv2_1 -> conv2_1
I0625 20:55:42.120632 20203 net.cpp:141] Setting up conv2_1
I0625 20:55:42.120645 20203 net.cpp:148] Top shape: 64 64 49 64 (12845056)
I0625 20:55:42.120648 20203 net.cpp:156] Memory required for data: 937689856
I0625 20:55:42.120652 20203 layer_factory.hpp:77] Creating layer bn2_1
I0625 20:55:42.120659 20203 net.cpp:91] Creating Layer bn2_1
I0625 20:55:42.120661 20203 net.cpp:425] bn2_1 <- conv2_1
I0625 20:55:42.120666 20203 net.cpp:386] bn2_1 -> conv2_1 (in-place)
I0625 20:55:42.120831 20203 net.cpp:141] Setting up bn2_1
I0625 20:55:42.120848 20203 net.cpp:148] Top shape: 64 64 49 64 (12845056)
I0625 20:55:42.120851 20203 net.cpp:156] Memory required for data: 989070080
I0625 20:55:42.120857 20203 layer_factory.hpp:77] Creating layer scale2_1
I0625 20:55:42.120862 20203 net.cpp:91] Creating Layer scale2_1
I0625 20:55:42.120865 20203 net.cpp:425] scale2_1 <- conv2_1
I0625 20:55:42.120869 20203 net.cpp:386] scale2_1 -> conv2_1 (in-place)
I0625 20:55:42.120906 20203 layer_factory.hpp:77] Creating layer scale2_1
I0625 20:55:42.121006 20203 net.cpp:141] Setting up scale2_1
I0625 20:55:42.121012 20203 net.cpp:148] Top shape: 64 64 49 64 (12845056)
I0625 20:55:42.121014 20203 net.cpp:156] Memory required for data: 1040450304
I0625 20:55:42.121022 20203 layer_factory.hpp:77] Creating layer relu2_1
I0625 20:55:42.121027 20203 net.cpp:91] Creating Layer relu2_1
I0625 20:55:42.121029 20203 net.cpp:425] relu2_1 <- conv2_1
I0625 20:55:42.121032 20203 net.cpp:386] relu2_1 -> conv2_1 (in-place)
I0625 20:55:42.121170 20203 net.cpp:141] Setting up relu2_1
I0625 20:55:42.121177 20203 net.cpp:148] Top shape: 64 64 49 64 (12845056)
I0625 20:55:42.121179 20203 net.cpp:156] Memory required for data: 1091830528
I0625 20:55:42.121182 20203 layer_factory.hpp:77] Creating layer conv2_2
I0625 20:55:42.121189 20203 net.cpp:91] Creating Layer conv2_2
I0625 20:55:42.121192 20203 net.cpp:425] conv2_2 <- conv2_1
I0625 20:55:42.121197 20203 net.cpp:399] conv2_2 -> conv2_2
I0625 20:55:42.122283 20203 net.cpp:141] Setting up conv2_2
I0625 20:55:42.122297 20203 net.cpp:148] Top shape: 64 64 49 64 (12845056)
I0625 20:55:42.122299 20203 net.cpp:156] Memory required for data: 1143210752
I0625 20:55:42.122303 20203 layer_factory.hpp:77] Creating layer bn2_2
I0625 20:55:42.122311 20203 net.cpp:91] Creating Layer bn2_2
I0625 20:55:42.122314 20203 net.cpp:425] bn2_2 <- conv2_2
I0625 20:55:42.122318 20203 net.cpp:386] bn2_2 -> conv2_2 (in-place)
I0625 20:55:42.122478 20203 net.cpp:141] Setting up bn2_2
I0625 20:55:42.122484 20203 net.cpp:148] Top shape: 64 64 49 64 (12845056)
I0625 20:55:42.122488 20203 net.cpp:156] Memory required for data: 1194590976
I0625 20:55:42.122493 20203 layer_factory.hpp:77] Creating layer scale2_2
I0625 20:55:42.122499 20203 net.cpp:91] Creating Layer scale2_2
I0625 20:55:42.122503 20203 net.cpp:425] scale2_2 <- conv2_2
I0625 20:55:42.122510 20203 net.cpp:386] scale2_2 -> conv2_2 (in-place)
I0625 20:55:42.122542 20203 layer_factory.hpp:77] Creating layer scale2_2
I0625 20:55:42.122642 20203 net.cpp:141] Setting up scale2_2
I0625 20:55:42.122648 20203 net.cpp:148] Top shape: 64 64 49 64 (12845056)
I0625 20:55:42.122651 20203 net.cpp:156] Memory required for data: 1245971200
I0625 20:55:42.122655 20203 layer_factory.hpp:77] Creating layer relu2_2
I0625 20:55:42.122659 20203 net.cpp:91] Creating Layer relu2_2
I0625 20:55:42.122663 20203 net.cpp:425] relu2_2 <- conv2_2
I0625 20:55:42.122666 20203 net.cpp:386] relu2_2 -> conv2_2 (in-place)
I0625 20:55:42.122817 20203 net.cpp:141] Setting up relu2_2
I0625 20:55:42.122825 20203 net.cpp:148] Top shape: 64 64 49 64 (12845056)
I0625 20:55:42.122828 20203 net.cpp:156] Memory required for data: 1297351424
I0625 20:55:42.122831 20203 layer_factory.hpp:77] Creating layer pool2
I0625 20:55:42.122836 20203 net.cpp:91] Creating Layer pool2
I0625 20:55:42.122839 20203 net.cpp:425] pool2 <- conv2_2
I0625 20:55:42.122843 20203 net.cpp:399] pool2 -> pool2
I0625 20:55:42.122882 20203 net.cpp:141] Setting up pool2
I0625 20:55:42.122886 20203 net.cpp:148] Top shape: 64 64 25 32 (3276800)
I0625 20:55:42.122889 20203 net.cpp:156] Memory required for data: 1310458624
I0625 20:55:42.122891 20203 layer_factory.hpp:77] Creating layer conv3_1
I0625 20:55:42.122898 20203 net.cpp:91] Creating Layer conv3_1
I0625 20:55:42.122900 20203 net.cpp:425] conv3_1 <- pool2
I0625 20:55:42.122905 20203 net.cpp:399] conv3_1 -> conv3_1
I0625 20:55:42.126190 20203 net.cpp:141] Setting up conv3_1
I0625 20:55:42.126205 20203 net.cpp:148] Top shape: 64 128 25 32 (6553600)
I0625 20:55:42.126209 20203 net.cpp:156] Memory required for data: 1336673024
I0625 20:55:42.126224 20203 layer_factory.hpp:77] Creating layer bn3_1
I0625 20:55:42.126230 20203 net.cpp:91] Creating Layer bn3_1
I0625 20:55:42.126232 20203 net.cpp:425] bn3_1 <- conv3_1
I0625 20:55:42.126238 20203 net.cpp:386] bn3_1 -> conv3_1 (in-place)
I0625 20:55:42.126391 20203 net.cpp:141] Setting up bn3_1
I0625 20:55:42.126399 20203 net.cpp:148] Top shape: 64 128 25 32 (6553600)
I0625 20:55:42.126401 20203 net.cpp:156] Memory required for data: 1362887424
I0625 20:55:42.126406 20203 layer_factory.hpp:77] Creating layer scale3_1
I0625 20:55:42.126412 20203 net.cpp:91] Creating Layer scale3_1
I0625 20:55:42.126415 20203 net.cpp:425] scale3_1 <- conv3_1
I0625 20:55:42.126418 20203 net.cpp:386] scale3_1 -> conv3_1 (in-place)
I0625 20:55:42.126451 20203 layer_factory.hpp:77] Creating layer scale3_1
I0625 20:55:42.126538 20203 net.cpp:141] Setting up scale3_1
I0625 20:55:42.126545 20203 net.cpp:148] Top shape: 64 128 25 32 (6553600)
I0625 20:55:42.126548 20203 net.cpp:156] Memory required for data: 1389101824
I0625 20:55:42.126551 20203 layer_factory.hpp:77] Creating layer relu3_1
I0625 20:55:42.126555 20203 net.cpp:91] Creating Layer relu3_1
I0625 20:55:42.126559 20203 net.cpp:425] relu3_1 <- conv3_1
I0625 20:55:42.126562 20203 net.cpp:386] relu3_1 -> conv3_1 (in-place)
I0625 20:55:42.126705 20203 net.cpp:141] Setting up relu3_1
I0625 20:55:42.126713 20203 net.cpp:148] Top shape: 64 128 25 32 (6553600)
I0625 20:55:42.126716 20203 net.cpp:156] Memory required for data: 1415316224
I0625 20:55:42.126719 20203 layer_factory.hpp:77] Creating layer conv3_2
I0625 20:55:42.126727 20203 net.cpp:91] Creating Layer conv3_2
I0625 20:55:42.126729 20203 net.cpp:425] conv3_2 <- conv3_1
I0625 20:55:42.126735 20203 net.cpp:399] conv3_2 -> conv3_2
I0625 20:55:42.128686 20203 net.cpp:141] Setting up conv3_2
I0625 20:55:42.128700 20203 net.cpp:148] Top shape: 64 128 25 32 (6553600)
I0625 20:55:42.128702 20203 net.cpp:156] Memory required for data: 1441530624
I0625 20:55:42.128706 20203 layer_factory.hpp:77] Creating layer bn3_2
I0625 20:55:42.128713 20203 net.cpp:91] Creating Layer bn3_2
I0625 20:55:42.128716 20203 net.cpp:425] bn3_2 <- conv3_2
I0625 20:55:42.128721 20203 net.cpp:386] bn3_2 -> conv3_2 (in-place)
I0625 20:55:42.128885 20203 net.cpp:141] Setting up bn3_2
I0625 20:55:42.128891 20203 net.cpp:148] Top shape: 64 128 25 32 (6553600)
I0625 20:55:42.128895 20203 net.cpp:156] Memory required for data: 1467745024
I0625 20:55:42.128903 20203 layer_factory.hpp:77] Creating layer scale3_2
I0625 20:55:42.128911 20203 net.cpp:91] Creating Layer scale3_2
I0625 20:55:42.128913 20203 net.cpp:425] scale3_2 <- conv3_2
I0625 20:55:42.128917 20203 net.cpp:386] scale3_2 -> conv3_2 (in-place)
I0625 20:55:42.128950 20203 layer_factory.hpp:77] Creating layer scale3_2
I0625 20:55:42.129040 20203 net.cpp:141] Setting up scale3_2
I0625 20:55:42.129046 20203 net.cpp:148] Top shape: 64 128 25 32 (6553600)
I0625 20:55:42.129048 20203 net.cpp:156] Memory required for data: 1493959424
I0625 20:55:42.129053 20203 layer_factory.hpp:77] Creating layer relu3_2
I0625 20:55:42.129057 20203 net.cpp:91] Creating Layer relu3_2
I0625 20:55:42.129060 20203 net.cpp:425] relu3_2 <- conv3_2
I0625 20:55:42.129065 20203 net.cpp:386] relu3_2 -> conv3_2 (in-place)
I0625 20:55:42.129201 20203 net.cpp:141] Setting up relu3_2
I0625 20:55:42.129216 20203 net.cpp:148] Top shape: 64 128 25 32 (6553600)
I0625 20:55:42.129220 20203 net.cpp:156] Memory required for data: 1520173824
I0625 20:55:42.129223 20203 layer_factory.hpp:77] Creating layer pool3
I0625 20:55:42.129228 20203 net.cpp:91] Creating Layer pool3
I0625 20:55:42.129230 20203 net.cpp:425] pool3 <- conv3_2
I0625 20:55:42.129235 20203 net.cpp:399] pool3 -> pool3
I0625 20:55:42.129272 20203 net.cpp:141] Setting up pool3
I0625 20:55:42.129276 20203 net.cpp:148] Top shape: 64 128 13 16 (1703936)
I0625 20:55:42.129278 20203 net.cpp:156] Memory required for data: 1526989568
I0625 20:55:42.129281 20203 layer_factory.hpp:77] Creating layer conv4_1
I0625 20:55:42.129288 20203 net.cpp:91] Creating Layer conv4_1
I0625 20:55:42.129300 20203 net.cpp:425] conv4_1 <- pool3
I0625 20:55:42.129307 20203 net.cpp:399] conv4_1 -> conv4_1
I0625 20:55:42.132051 20203 net.cpp:141] Setting up conv4_1
I0625 20:55:42.132064 20203 net.cpp:148] Top shape: 64 256 13 16 (3407872)
I0625 20:55:42.132067 20203 net.cpp:156] Memory required for data: 1540621056
I0625 20:55:42.132071 20203 layer_factory.hpp:77] Creating layer bn4_1
I0625 20:55:42.132078 20203 net.cpp:91] Creating Layer bn4_1
I0625 20:55:42.132081 20203 net.cpp:425] bn4_1 <- conv4_1
I0625 20:55:42.132086 20203 net.cpp:386] bn4_1 -> conv4_1 (in-place)
I0625 20:55:42.132247 20203 net.cpp:141] Setting up bn4_1
I0625 20:55:42.132254 20203 net.cpp:148] Top shape: 64 256 13 16 (3407872)
I0625 20:55:42.132256 20203 net.cpp:156] Memory required for data: 1554252544
I0625 20:55:42.132262 20203 layer_factory.hpp:77] Creating layer scale4_1
I0625 20:55:42.132269 20203 net.cpp:91] Creating Layer scale4_1
I0625 20:55:42.132272 20203 net.cpp:425] scale4_1 <- conv4_1
I0625 20:55:42.132277 20203 net.cpp:386] scale4_1 -> conv4_1 (in-place)
I0625 20:55:42.132313 20203 layer_factory.hpp:77] Creating layer scale4_1
I0625 20:55:42.132403 20203 net.cpp:141] Setting up scale4_1
I0625 20:55:42.132410 20203 net.cpp:148] Top shape: 64 256 13 16 (3407872)
I0625 20:55:42.132411 20203 net.cpp:156] Memory required for data: 1567884032
I0625 20:55:42.132416 20203 layer_factory.hpp:77] Creating layer relu4_1
I0625 20:55:42.132424 20203 net.cpp:91] Creating Layer relu4_1
I0625 20:55:42.132426 20203 net.cpp:425] relu4_1 <- conv4_1
I0625 20:55:42.132431 20203 net.cpp:386] relu4_1 -> conv4_1 (in-place)
I0625 20:55:42.132575 20203 net.cpp:141] Setting up relu4_1
I0625 20:55:42.132583 20203 net.cpp:148] Top shape: 64 256 13 16 (3407872)
I0625 20:55:42.132586 20203 net.cpp:156] Memory required for data: 1581515520
I0625 20:55:42.132588 20203 layer_factory.hpp:77] Creating layer conv4_2
I0625 20:55:42.132597 20203 net.cpp:91] Creating Layer conv4_2
I0625 20:55:42.132601 20203 net.cpp:425] conv4_2 <- conv4_1
I0625 20:55:42.132604 20203 net.cpp:399] conv4_2 -> conv4_2
I0625 20:55:42.138157 20203 net.cpp:141] Setting up conv4_2
I0625 20:55:42.138170 20203 net.cpp:148] Top shape: 64 256 13 16 (3407872)
I0625 20:55:42.138173 20203 net.cpp:156] Memory required for data: 1595147008
I0625 20:55:42.138178 20203 layer_factory.hpp:77] Creating layer bn4_2
I0625 20:55:42.138185 20203 net.cpp:91] Creating Layer bn4_2
I0625 20:55:42.138188 20203 net.cpp:425] bn4_2 <- conv4_2
I0625 20:55:42.138192 20203 net.cpp:386] bn4_2 -> conv4_2 (in-place)
I0625 20:55:42.138356 20203 net.cpp:141] Setting up bn4_2
I0625 20:55:42.138363 20203 net.cpp:148] Top shape: 64 256 13 16 (3407872)
I0625 20:55:42.138366 20203 net.cpp:156] Memory required for data: 1608778496
I0625 20:55:42.138372 20203 layer_factory.hpp:77] Creating layer scale4_2
I0625 20:55:42.138380 20203 net.cpp:91] Creating Layer scale4_2
I0625 20:55:42.138381 20203 net.cpp:425] scale4_2 <- conv4_2
I0625 20:55:42.138386 20203 net.cpp:386] scale4_2 -> conv4_2 (in-place)
I0625 20:55:42.138427 20203 layer_factory.hpp:77] Creating layer scale4_2
I0625 20:55:42.138514 20203 net.cpp:141] Setting up scale4_2
I0625 20:55:42.138520 20203 net.cpp:148] Top shape: 64 256 13 16 (3407872)
I0625 20:55:42.138523 20203 net.cpp:156] Memory required for data: 1622409984
I0625 20:55:42.138527 20203 layer_factory.hpp:77] Creating layer relu4_2
I0625 20:55:42.138531 20203 net.cpp:91] Creating Layer relu4_2
I0625 20:55:42.138535 20203 net.cpp:425] relu4_2 <- conv4_2
I0625 20:55:42.138538 20203 net.cpp:386] relu4_2 -> conv4_2 (in-place)
I0625 20:55:42.138959 20203 net.cpp:141] Setting up relu4_2
I0625 20:55:42.138972 20203 net.cpp:148] Top shape: 64 256 13 16 (3407872)
I0625 20:55:42.138973 20203 net.cpp:156] Memory required for data: 1636041472
I0625 20:55:42.138977 20203 layer_factory.hpp:77] Creating layer pool4
I0625 20:55:42.138983 20203 net.cpp:91] Creating Layer pool4
I0625 20:55:42.138986 20203 net.cpp:425] pool4 <- conv4_2
I0625 20:55:42.138990 20203 net.cpp:399] pool4 -> pool4
I0625 20:55:42.139034 20203 net.cpp:141] Setting up pool4
I0625 20:55:42.139050 20203 net.cpp:148] Top shape: 64 256 7 8 (917504)
I0625 20:55:42.139052 20203 net.cpp:156] Memory required for data: 1639711488
I0625 20:55:42.139055 20203 layer_factory.hpp:77] Creating layer conv5_1
I0625 20:55:42.139063 20203 net.cpp:91] Creating Layer conv5_1
I0625 20:55:42.139066 20203 net.cpp:425] conv5_1 <- pool4
I0625 20:55:42.139070 20203 net.cpp:399] conv5_1 -> conv5_1
I0625 20:55:42.144807 20203 net.cpp:141] Setting up conv5_1
I0625 20:55:42.144826 20203 net.cpp:148] Top shape: 64 256 7 8 (917504)
I0625 20:55:42.144829 20203 net.cpp:156] Memory required for data: 1643381504
I0625 20:55:42.144835 20203 layer_factory.hpp:77] Creating layer bn5_1
I0625 20:55:42.144845 20203 net.cpp:91] Creating Layer bn5_1
I0625 20:55:42.144848 20203 net.cpp:425] bn5_1 <- conv5_1
I0625 20:55:42.144855 20203 net.cpp:386] bn5_1 -> conv5_1 (in-place)
I0625 20:55:42.145031 20203 net.cpp:141] Setting up bn5_1
I0625 20:55:42.145040 20203 net.cpp:148] Top shape: 64 256 7 8 (917504)
I0625 20:55:42.145041 20203 net.cpp:156] Memory required for data: 1647051520
I0625 20:55:42.145047 20203 layer_factory.hpp:77] Creating layer scale5_1
I0625 20:55:42.145053 20203 net.cpp:91] Creating Layer scale5_1
I0625 20:55:42.145056 20203 net.cpp:425] scale5_1 <- conv5_1
I0625 20:55:42.145061 20203 net.cpp:386] scale5_1 -> conv5_1 (in-place)
I0625 20:55:42.145098 20203 layer_factory.hpp:77] Creating layer scale5_1
I0625 20:55:42.145195 20203 net.cpp:141] Setting up scale5_1
I0625 20:55:42.145202 20203 net.cpp:148] Top shape: 64 256 7 8 (917504)
I0625 20:55:42.145205 20203 net.cpp:156] Memory required for data: 1650721536
I0625 20:55:42.145208 20203 layer_factory.hpp:77] Creating layer relu5_1
I0625 20:55:42.145213 20203 net.cpp:91] Creating Layer relu5_1
I0625 20:55:42.145216 20203 net.cpp:425] relu5_1 <- conv5_1
I0625 20:55:42.145220 20203 net.cpp:386] relu5_1 -> conv5_1 (in-place)
I0625 20:55:42.145365 20203 net.cpp:141] Setting up relu5_1
I0625 20:55:42.145373 20203 net.cpp:148] Top shape: 64 256 7 8 (917504)
I0625 20:55:42.145376 20203 net.cpp:156] Memory required for data: 1654391552
I0625 20:55:42.145378 20203 layer_factory.hpp:77] Creating layer conv5_2
I0625 20:55:42.145387 20203 net.cpp:91] Creating Layer conv5_2
I0625 20:55:42.145390 20203 net.cpp:425] conv5_2 <- conv5_1
I0625 20:55:42.145395 20203 net.cpp:399] conv5_2 -> conv5_2
I0625 20:55:42.151664 20203 net.cpp:141] Setting up conv5_2
I0625 20:55:42.151681 20203 net.cpp:148] Top shape: 64 256 7 8 (917504)
I0625 20:55:42.151684 20203 net.cpp:156] Memory required for data: 1658061568
I0625 20:55:42.151690 20203 layer_factory.hpp:77] Creating layer bn5_2
I0625 20:55:42.151698 20203 net.cpp:91] Creating Layer bn5_2
I0625 20:55:42.151702 20203 net.cpp:425] bn5_2 <- conv5_2
I0625 20:55:42.151708 20203 net.cpp:386] bn5_2 -> conv5_2 (in-place)
I0625 20:55:42.151887 20203 net.cpp:141] Setting up bn5_2
I0625 20:55:42.151895 20203 net.cpp:148] Top shape: 64 256 7 8 (917504)
I0625 20:55:42.151896 20203 net.cpp:156] Memory required for data: 1661731584
I0625 20:55:42.151902 20203 layer_factory.hpp:77] Creating layer scale5_2
I0625 20:55:42.151909 20203 net.cpp:91] Creating Layer scale5_2
I0625 20:55:42.151913 20203 net.cpp:425] scale5_2 <- conv5_2
I0625 20:55:42.151918 20203 net.cpp:386] scale5_2 -> conv5_2 (in-place)
I0625 20:55:42.151959 20203 layer_factory.hpp:77] Creating layer scale5_2
I0625 20:55:42.152055 20203 net.cpp:141] Setting up scale5_2
I0625 20:55:42.152062 20203 net.cpp:148] Top shape: 64 256 7 8 (917504)
I0625 20:55:42.152065 20203 net.cpp:156] Memory required for data: 1665401600
I0625 20:55:42.152070 20203 layer_factory.hpp:77] Creating layer relu5_2
I0625 20:55:42.152076 20203 net.cpp:91] Creating Layer relu5_2
I0625 20:55:42.152077 20203 net.cpp:425] relu5_2 <- conv5_2
I0625 20:55:42.152081 20203 net.cpp:386] relu5_2 -> conv5_2 (in-place)
I0625 20:55:42.152231 20203 net.cpp:141] Setting up relu5_2
I0625 20:55:42.152240 20203 net.cpp:148] Top shape: 64 256 7 8 (917504)
I0625 20:55:42.152242 20203 net.cpp:156] Memory required for data: 1669071616
I0625 20:55:42.152261 20203 layer_factory.hpp:77] Creating layer pool5
I0625 20:55:42.152268 20203 net.cpp:91] Creating Layer pool5
I0625 20:55:42.152271 20203 net.cpp:425] pool5 <- conv5_2
I0625 20:55:42.152276 20203 net.cpp:399] pool5 -> pool5
I0625 20:55:42.152436 20203 net.cpp:141] Setting up pool5
I0625 20:55:42.152444 20203 net.cpp:148] Top shape: 64 256 2 1 (32768)
I0625 20:55:42.152447 20203 net.cpp:156] Memory required for data: 1669202688
I0625 20:55:42.152449 20203 layer_factory.hpp:77] Creating layer fc2
I0625 20:55:42.152458 20203 net.cpp:91] Creating Layer fc2
I0625 20:55:42.152462 20203 net.cpp:425] fc2 <- pool5
I0625 20:55:42.152465 20203 net.cpp:399] fc2 -> fc2
I0625 20:55:42.152573 20203 net.cpp:141] Setting up fc2
I0625 20:55:42.152580 20203 net.cpp:148] Top shape: 64 2 (128)
I0625 20:55:42.152582 20203 net.cpp:156] Memory required for data: 1669203200
I0625 20:55:42.152587 20203 layer_factory.hpp:77] Creating layer fc2_fc2_0_split
I0625 20:55:42.152592 20203 net.cpp:91] Creating Layer fc2_fc2_0_split
I0625 20:55:42.152595 20203 net.cpp:425] fc2_fc2_0_split <- fc2
I0625 20:55:42.152598 20203 net.cpp:399] fc2_fc2_0_split -> fc2_fc2_0_split_0
I0625 20:55:42.152603 20203 net.cpp:399] fc2_fc2_0_split -> fc2_fc2_0_split_1
I0625 20:55:42.152636 20203 net.cpp:141] Setting up fc2_fc2_0_split
I0625 20:55:42.152640 20203 net.cpp:148] Top shape: 64 2 (128)
I0625 20:55:42.152643 20203 net.cpp:148] Top shape: 64 2 (128)
I0625 20:55:42.152645 20203 net.cpp:156] Memory required for data: 1669204224
I0625 20:55:42.152648 20203 layer_factory.hpp:77] Creating layer loss
I0625 20:55:42.152652 20203 net.cpp:91] Creating Layer loss
I0625 20:55:42.152654 20203 net.cpp:425] loss <- fc2_fc2_0_split_0
I0625 20:55:42.152657 20203 net.cpp:425] loss <- label_data_1_split_0
I0625 20:55:42.152662 20203 net.cpp:399] loss -> loss
…
