…
I0624 20:38:52.788000 23525 net.cpp:313] The NetState phase (0) differed from the phase (1) specified by a rule in layer data
I0624 20:38:52.788257 23525 net.cpp:49] Initializing net from parameters: 
name: "BPnet"
state {
  phase: TRAIN
}
layer {
  name: "data"
  type: "Data"
  top: "data"
  top: "label"
  include {
    phase: TRAIN
  }
  transform_param {
    mirror: false
    crop_size: 224
    mean_value: 100
    scale_jitter_range: 0.1
    contrast_jitter_range: 0.1
  }
  data_param {
    source: "data/train_lmdb"
    batch_size: 32
    backend: LMDB
  }
}
layer {
  name: "conv1_1"
  type: "Convolution"
  bottom: "data"
  top: "conv1_1"
  param {
    lr_mult: 1
    decay_mult: 1
  }
  convolution_param {
    num_output: 64
    bias_term: false
    pad: 3
    kernel_size: 7
    stride: 2
    weight_filler {
      type: "xavier"
    }
  }
}
layer {
  name: "bn1_1"
  type: "BatchNorm"
  bottom: "conv1_1"
  top: "conv1_1"
  param {
    lr_mult: 0
  }
  param {
    lr_mult: 0
  }
  param {
    lr_mult: 0
  }
  batch_norm_param {
    use_global_stats: false
  }
}
layer {
  name: "scale1_1"
  type: "Scale"
  bottom: "conv1_1"
  top: "conv1_1"
  param {
    lr_mult: 1
    decay_mult: 1
  }
  param {
    lr_mult: 1
    decay_mult: 1
  }
  scale_param {
    bias_term: true
    bias_filler {
      type: "constant"
      value: 0
    }
  }
}
layer {
  name: "relu1_1"
  type: "ReLU"
  bottom: "conv1_1"
  top: "conv1_1"
}
layer {
  name: "conv1_2"
  type: "Convolution"
  bottom: "conv1_1"
  top: "conv1_2"
  param {
    lr_mult: 1
    decay_mult: 1
  }
  convolution_param {
    num_output: 64
    bias_term: false
    pad: 1
    kernel_size: 3
    weight_filler {
      type: "xavier"
    }
  }
}
layer {
  name: "bn1_2"
  type: "BatchNorm"
  bottom: "conv1_2"
  top: "conv1_2"
  param {
    lr_mult: 0
  }
  param {
    lr_mult: 0
  }
  param {
    lr_mult: 0
  }
  batch_norm_param {
    use_global_stats: false
  }
}
layer {
  name: "scale1_2"
  type: "Scale"
  bottom: "conv1_2"
  top: "conv1_2"
  param {
    lr_mult: 1
    decay_mult: 1
  }
  param {
    lr_mult: 1
    decay_mult: 1
  }
  scale_param {
    bias_term: true
    bias_filler {
      type: "constant"
      value: 0
    }
  }
}
layer {
  name: "relu1_2"
  type: "ReLU"
  bottom: "conv1_2"
  top: "conv1_2"
}
layer {
  name: "pool1"
  type: "Pooling"
  bottom: "conv1_2"
  top: "pool1"
  pooling_param {
    pool: MAX
    kernel_size: 2
    stride: 2
  }
}
layer {
  name: "conv2_1"
  type: "Convolution"
  bottom: "pool1"
  top: "conv2_1"
  param {
    lr_mult: 1
    decay_mult: 1
  }
  convolution_param {
    num_output: 128
    bias_term: false
    pad: 1
    kernel_size: 3
    weight_filler {
      type: "xavier"
    }
  }
}
layer {
  name: "bn2_1"
  type: "BatchNorm"
  bottom: "conv2_1"
  top: "conv2_1"
  param {
    lr_mult: 0
  }
  param {
    lr_mult: 0
  }
  param {
    lr_mult: 0
  }
  batch_norm_param {
    use_global_stats: false
  }
}
layer {
  name: "scale2_1"
  type: "Scale"
  bottom: "conv2_1"
  top: "conv2_1"
  param {
    lr_mult: 1
    decay_mult: 1
  }
  param {
    lr_mult: 1
    decay_mult: 1
  }
  scale_param {
    bias_term: true
    bias_filler {
      type: "constant"
      value: 0
    }
  }
}
layer {
  name: "relu2_1"
  type: "ReLU"
  bottom: "conv2_1"
  top: "conv2_1"
}
layer {
  name: "conv2_2"
  type: "Convolution"
  bottom: "conv2_1"
  top: "conv2_2"
  param {
    lr_mult: 1
    decay_mult: 1
  }
  convolution_param {
    num_output: 128
    bias_term: false
    pad: 1
    kernel_size: 3
    weight_filler {
      type: "xavier"
    }
  }
}
layer {
  name: "bn2_2"
  type: "BatchNorm"
  bottom: "conv2_2"
  top: "conv2_2"
  param {
    lr_mult: 0
  }
  param {
    lr_mult: 0
  }
  param {
    lr_mult: 0
  }
  batch_norm_param {
    use_global_stats: false
  }
}
layer {
  name: "scale2_2"
  type: "Scale"
  bottom: "conv2_2"
  top: "conv2_2"
  param {
    lr_mult: 1
    decay_mult: 1
  }
  param {
    lr_mult: 1
    decay_mult: 1
  }
  scale_param {
    bias_term: true
    bias_filler {
      type: "constant"
      value: 0
    }
  }
}
layer {
  name: "relu2_2"
  type: "ReLU"
  bottom: "conv2_2"
  top: "conv2_2"
}
layer {
  name: "pool2"
  type: "Pooling"
  bottom: "conv2_2"
  top: "pool2"
  pooling_param {
    pool: MAX
    kernel_size: 2
    stride: 2
  }
}
layer {
  name: "conv3_1"
  type: "Convolution"
  bottom: "pool2"
  top: "conv3_1"
  param {
    lr_mult: 1
    decay_mult: 1
  }
  convolution_param {
    num_output: 256
    bias_term: false
    pad: 1
    kernel_size: 3
    weight_filler {
      type: "xavier"
    }
  }
}
layer {
  name: "bn3_1"
  type: "BatchNorm"
  bottom: "conv3_1"
  top: "conv3_1"
  param {
    lr_mult: 0
  }
  param {
    lr_mult: 0
  }
  param {
    lr_mult: 0
  }
  batch_norm_param {
    use_global_stats: false
  }
}
layer {
  name: "scale3_1"
  type: "Scale"
  bottom: "conv3_1"
  top: "conv3_1"
  param {
    lr_mult: 1
    decay_mult: 1
  }
  param {
    lr_mult: 1
    decay_mult: 1
  }
  scale_param {
    bias_term: true
    bias_filler {
      type: "constant"
      value: 0
    }
  }
}
layer {
  name: "relu3_1"
  type: "ReLU"
  bottom: "conv3_1"
  top: "conv3_1"
}
layer {
  name: "conv3_2"
  type: "Convolution"
  bottom: "conv3_1"
  top: "conv3_2"
  param {
    lr_mult: 1
    decay_mult: 1
  }
  convolution_param {
    num_output: 256
    bias_term: false
    pad: 1
    kernel_size: 3
    weight_filler {
      type: "xavier"
    }
  }
}
layer {
  name: "bn3_2"
  type: "BatchNorm"
  bottom: "conv3_2"
  top: "conv3_2"
  param {
    lr_mult: 0
  }
  param {
    lr_mult: 0
  }
  param {
    lr_mult: 0
  }
  batch_norm_param {
    use_global_stats: false
  }
}
layer {
  name: "scale3_2"
  type: "Scale"
  bottom: "conv3_2"
  top: "conv3_2"
  param {
    lr_mult: 1
    decay_mult: 1
  }
  param {
    lr_mult: 1
    decay_mult: 1
  }
  scale_param {
    bias_term: true
    bias_filler {
      type: "constant"
      value: 0
    }
  }
}
layer {
  name: "relu3_2"
  type: "ReLU"
  bottom: "conv3_2"
  top: "conv3_2"
}
layer {
  name: "pool3"
  type: "Pooling"
  bottom: "conv3_2"
  top: "pool3"
  pooling_param {
    pool: MAX
    kernel_size: 2
    stride: 2
  }
}
layer {
  name: "conv4_1"
  type: "Convolution"
  bottom: "pool3"
  top: "conv4_1"
  param {
    lr_mult: 1
    decay_mult: 1
  }
  convolution_param {
    num_output: 512
    bias_term: false
    pad: 1
    kernel_size: 3
    weight_filler {
      type: "xavier"
    }
  }
}
layer {
  name: "bn4_1"
  type: "BatchNorm"
  bottom: "conv4_1"
  top: "conv4_1"
  param {
    lr_mult: 0
  }
  param {
    lr_mult: 0
  }
  param {
    lr_mult: 0
  }
  batch_norm_param {
    use_global_stats: false
  }
}
layer {
  name: "scale4_1"
  type: "Scale"
  bottom: "conv4_1"
  top: "conv4_1"
  param {
    lr_mult: 1
    decay_mult: 1
  }
  param {
    lr_mult: 1
    decay_mult: 1
  }
  scale_param {
    bias_term: true
    bias_filler {
      type: "constant"
      value: 0
    }
  }
}
layer {
  name: "relu4_1"
  type: "ReLU"
  bottom: "conv4_1"
  top: "conv4_1"
}
layer {
  name: "conv4_2"
  type: "Convolution"
  bottom: "conv4_1"
  top: "conv4_2"
  param {
    lr_mult: 1
    decay_mult: 1
  }
  convolution_param {
    num_output: 512
    bias_term: false
    pad: 1
    kernel_size: 3
    weight_filler {
      type: "xavier"
    }
  }
}
layer {
  name: "bn4_2"
  type: "BatchNorm"
  bottom: "conv4_2"
  top: "conv4_2"
  param {
    lr_mult: 0
  }
  param {
    lr_mult: 0
  }
  param {
    lr_mult: 0
  }
  batch_norm_param {
    use_global_stats: false
  }
}
layer {
  name: "scale4_2"
  type: "Scale"
  bottom: "conv4_2"
  top: "conv4_2"
  param {
    lr_mult: 1
    decay_mult: 1
  }
  param {
    lr_mult: 1
    decay_mult: 1
  }
  scale_param {
    bias_term: true
    bias_filler {
      type: "constant"
      value: 0
    }
  }
}
layer {
  name: "relu4_2"
  type: "ReLU"
  bottom: "conv4_2"
  top: "conv4_2"
}
layer {
  name: "pool4"
  type: "Pooling"
  bottom: "conv4_2"
  top: "pool4"
  pooling_param {
    pool: MAX
    kernel_size: 2
    stride: 2
  }
}
layer {
  name: "conv5_1"
  type: "Convolution"
  bottom: "pool4"
  top: "conv5_1"
  param {
    lr_mult: 1
    decay_mult: 1
  }
  convolution_param {
    num_output: 512
    bias_term: false
    pad: 1
    kernel_size: 3
    weight_filler {
      type: "xavier"
    }
  }
}
layer {
  name: "bn5_1"
  type: "BatchNorm"
  bottom: "conv5_1"
  top: "conv5_1"
  param {
    lr_mult: 0
  }
  param {
    lr_mult: 0
  }
  param {
    lr_mult: 0
  }
  batch_norm_param {
    use_global_stats: false
  }
}
layer {
  name: "scale5_1"
  type: "Scale"
  bottom: "conv5_1"
  top: "conv5_1"
  param {
    lr_mult: 1
    decay_mult: 1
  }
  param {
    lr_mult: 1
    decay_mult: 1
  }
  scale_param {
    bias_term: true
    bias_filler {
      type: "constant"
      value: 0
    }
  }
}
layer {
  name: "relu5_1"
  type: "ReLU"
  bottom: "conv5_1"
  top: "conv5_1"
}
layer {
  name: "conv5_2"
  type: "Convolution"
  bottom: "conv5_1"
  top: "conv5_2"
  param {
    lr_mult: 1
    decay_mult: 1
  }
  convolution_param {
    num_output: 512
    bias_term: false
    pad: 1
    kernel_size: 3
    weight_filler {
      type: "xavier"
    }
  }
}
layer {
  name: "bn5_2"
  type: "BatchNorm"
  bottom: "conv5_2"
  top: "conv5_2"
  param {
    lr_mult: 0
  }
  param {
    lr_mult: 0
  }
  param {
    lr_mult: 0
  }
  batch_norm_param {
    use_global_stats: false
  }
}
layer {
  name: "scale5_2"
  type: "Scale"
  bottom: "conv5_2"
  top: "conv5_2"
  param {
    lr_mult: 1
    decay_mult: 1
  }
  param {
    lr_mult: 1
    decay_mult: 1
  }
  scale_param {
    bias_term: true
    bias_filler {
      type: "constant"
      value: 0
    }
  }
}
layer {
  name: "relu5_2"
  type: "ReLU"
  bottom: "conv5_2"
  top: "conv5_2"
}
layer {
  name: "pool5"
  type: "Pooling"
  bottom: "conv5_2"
  top: "pool5"
  pooling_param {
    pool: AVE
    kernel_size: 7
    stride: 1
  }
}
layer {
  name: "fc2"
  type: "InnerProduct"
  bottom: "pool5"
  top: "fc2"
  inner_product_param {
    num_output: 2
  }
}
layer {
  name: "loss"
  type: "SoftmaxWithLoss"
  bottom: "fc2"
  bottom: "label"
  top: "loss"
}
layer {
  name: "accuracy"
  type: "Accuracy"
  bottom: "fc2"
  bottom: "label"
  top: "accuracy"
}
I0624 20:38:52.788425 23525 layer_factory.hpp:77] Creating layer data
I0624 20:38:52.788833 23525 net.cpp:91] Creating Layer data
I0624 20:38:52.788846 23525 net.cpp:399] data -> data
I0624 20:38:52.788868 23525 net.cpp:399] data -> label
I0624 20:38:52.790053 23529 db_lmdb.cpp:35] Opened lmdb data/train_lmdb
I0624 20:38:52.814714 23525 data_layer.cpp:42] output data size: 32,3,224,224
I0624 20:38:52.855010 23525 net.cpp:141] Setting up data
I0624 20:38:52.855057 23525 net.cpp:148] Top shape: 32 3 224 224 (4816896)
I0624 20:38:52.855067 23525 net.cpp:148] Top shape: 32 (32)
I0624 20:38:52.855073 23525 net.cpp:156] Memory required for data: 19267712
I0624 20:38:52.855087 23525 layer_factory.hpp:77] Creating layer label_data_1_split
I0624 20:38:52.855113 23525 net.cpp:91] Creating Layer label_data_1_split
I0624 20:38:52.855123 23525 net.cpp:425] label_data_1_split <- label
I0624 20:38:52.855166 23525 net.cpp:399] label_data_1_split -> label_data_1_split_0
I0624 20:38:52.855191 23525 net.cpp:399] label_data_1_split -> label_data_1_split_1
I0624 20:38:52.855278 23525 net.cpp:141] Setting up label_data_1_split
I0624 20:38:52.855295 23525 net.cpp:148] Top shape: 32 (32)
I0624 20:38:52.855303 23525 net.cpp:148] Top shape: 32 (32)
I0624 20:38:52.855309 23525 net.cpp:156] Memory required for data: 19267968
I0624 20:38:52.855314 23525 layer_factory.hpp:77] Creating layer conv1_1
I0624 20:38:52.855340 23525 net.cpp:91] Creating Layer conv1_1
I0624 20:38:52.855350 23525 net.cpp:425] conv1_1 <- data
I0624 20:38:52.855391 23525 net.cpp:399] conv1_1 -> conv1_1
I0624 20:38:53.163991 23525 net.cpp:141] Setting up conv1_1
I0624 20:38:53.164014 23525 net.cpp:148] Top shape: 32 64 112 112 (25690112)
I0624 20:38:53.164017 23525 net.cpp:156] Memory required for data: 122028416
I0624 20:38:53.164029 23525 layer_factory.hpp:77] Creating layer bn1_1
I0624 20:38:53.164047 23525 net.cpp:91] Creating Layer bn1_1
I0624 20:38:53.164052 23525 net.cpp:425] bn1_1 <- conv1_1
I0624 20:38:53.164059 23525 net.cpp:386] bn1_1 -> conv1_1 (in-place)
I0624 20:38:53.164233 23525 net.cpp:141] Setting up bn1_1
I0624 20:38:53.164242 23525 net.cpp:148] Top shape: 32 64 112 112 (25690112)
I0624 20:38:53.164245 23525 net.cpp:156] Memory required for data: 224788864
I0624 20:38:53.164258 23525 layer_factory.hpp:77] Creating layer scale1_1
I0624 20:38:53.164270 23525 net.cpp:91] Creating Layer scale1_1
I0624 20:38:53.164275 23525 net.cpp:425] scale1_1 <- conv1_1
I0624 20:38:53.164283 23525 net.cpp:386] scale1_1 -> conv1_1 (in-place)
I0624 20:38:53.164337 23525 layer_factory.hpp:77] Creating layer scale1_1
I0624 20:38:53.164450 23525 net.cpp:141] Setting up scale1_1
I0624 20:38:53.164459 23525 net.cpp:148] Top shape: 32 64 112 112 (25690112)
I0624 20:38:53.164461 23525 net.cpp:156] Memory required for data: 327549312
I0624 20:38:53.164469 23525 layer_factory.hpp:77] Creating layer relu1_1
I0624 20:38:53.164477 23525 net.cpp:91] Creating Layer relu1_1
I0624 20:38:53.164481 23525 net.cpp:425] relu1_1 <- conv1_1
I0624 20:38:53.164489 23525 net.cpp:386] relu1_1 -> conv1_1 (in-place)
I0624 20:38:53.164633 23525 net.cpp:141] Setting up relu1_1
I0624 20:38:53.164644 23525 net.cpp:148] Top shape: 32 64 112 112 (25690112)
I0624 20:38:53.164645 23525 net.cpp:156] Memory required for data: 430309760
I0624 20:38:53.164649 23525 layer_factory.hpp:77] Creating layer conv1_2
I0624 20:38:53.164660 23525 net.cpp:91] Creating Layer conv1_2
I0624 20:38:53.164665 23525 net.cpp:425] conv1_2 <- conv1_1
I0624 20:38:53.164672 23525 net.cpp:399] conv1_2 -> conv1_2
I0624 20:38:53.166796 23525 net.cpp:141] Setting up conv1_2
I0624 20:38:53.166810 23525 net.cpp:148] Top shape: 32 64 112 112 (25690112)
I0624 20:38:53.166812 23525 net.cpp:156] Memory required for data: 533070208
I0624 20:38:53.166816 23525 layer_factory.hpp:77] Creating layer bn1_2
I0624 20:38:53.166822 23525 net.cpp:91] Creating Layer bn1_2
I0624 20:38:53.166826 23525 net.cpp:425] bn1_2 <- conv1_2
I0624 20:38:53.166829 23525 net.cpp:386] bn1_2 -> conv1_2 (in-place)
I0624 20:38:53.166996 23525 net.cpp:141] Setting up bn1_2
I0624 20:38:53.167006 23525 net.cpp:148] Top shape: 32 64 112 112 (25690112)
I0624 20:38:53.167012 23525 net.cpp:156] Memory required for data: 635830656
I0624 20:38:53.167021 23525 layer_factory.hpp:77] Creating layer scale1_2
I0624 20:38:53.167028 23525 net.cpp:91] Creating Layer scale1_2
I0624 20:38:53.167031 23525 net.cpp:425] scale1_2 <- conv1_2
I0624 20:38:53.167034 23525 net.cpp:386] scale1_2 -> conv1_2 (in-place)
I0624 20:38:53.167064 23525 layer_factory.hpp:77] Creating layer scale1_2
I0624 20:38:53.167176 23525 net.cpp:141] Setting up scale1_2
I0624 20:38:53.167186 23525 net.cpp:148] Top shape: 32 64 112 112 (25690112)
I0624 20:38:53.167188 23525 net.cpp:156] Memory required for data: 738591104
I0624 20:38:53.167193 23525 layer_factory.hpp:77] Creating layer relu1_2
I0624 20:38:53.167198 23525 net.cpp:91] Creating Layer relu1_2
I0624 20:38:53.167201 23525 net.cpp:425] relu1_2 <- conv1_2
I0624 20:38:53.167204 23525 net.cpp:386] relu1_2 -> conv1_2 (in-place)
I0624 20:38:53.167342 23525 net.cpp:141] Setting up relu1_2
I0624 20:38:53.167352 23525 net.cpp:148] Top shape: 32 64 112 112 (25690112)
I0624 20:38:53.167354 23525 net.cpp:156] Memory required for data: 841351552
I0624 20:38:53.167358 23525 layer_factory.hpp:77] Creating layer pool1
I0624 20:38:53.167364 23525 net.cpp:91] Creating Layer pool1
I0624 20:38:53.167366 23525 net.cpp:425] pool1 <- conv1_2
I0624 20:38:53.167371 23525 net.cpp:399] pool1 -> pool1
I0624 20:38:53.167420 23525 net.cpp:141] Setting up pool1
I0624 20:38:53.167431 23525 net.cpp:148] Top shape: 32 64 56 56 (6422528)
I0624 20:38:53.167450 23525 net.cpp:156] Memory required for data: 867041664
I0624 20:38:53.167454 23525 layer_factory.hpp:77] Creating layer conv2_1
I0624 20:38:53.167461 23525 net.cpp:91] Creating Layer conv2_1
I0624 20:38:53.167464 23525 net.cpp:425] conv2_1 <- pool1
I0624 20:38:53.167469 23525 net.cpp:399] conv2_1 -> conv2_1
I0624 20:38:53.169692 23525 net.cpp:141] Setting up conv2_1
I0624 20:38:53.169704 23525 net.cpp:148] Top shape: 32 128 56 56 (12845056)
I0624 20:38:53.169708 23525 net.cpp:156] Memory required for data: 918421888
I0624 20:38:53.169711 23525 layer_factory.hpp:77] Creating layer bn2_1
I0624 20:38:53.169718 23525 net.cpp:91] Creating Layer bn2_1
I0624 20:38:53.169720 23525 net.cpp:425] bn2_1 <- conv2_1
I0624 20:38:53.169724 23525 net.cpp:386] bn2_1 -> conv2_1 (in-place)
I0624 20:38:53.170886 23525 net.cpp:141] Setting up bn2_1
I0624 20:38:53.170897 23525 net.cpp:148] Top shape: 32 128 56 56 (12845056)
I0624 20:38:53.170899 23525 net.cpp:156] Memory required for data: 969802112
I0624 20:38:53.170905 23525 layer_factory.hpp:77] Creating layer scale2_1
I0624 20:38:53.170912 23525 net.cpp:91] Creating Layer scale2_1
I0624 20:38:53.170914 23525 net.cpp:425] scale2_1 <- conv2_1
I0624 20:38:53.170918 23525 net.cpp:386] scale2_1 -> conv2_1 (in-place)
I0624 20:38:53.170949 23525 layer_factory.hpp:77] Creating layer scale2_1
I0624 20:38:53.171026 23525 net.cpp:141] Setting up scale2_1
I0624 20:38:53.171032 23525 net.cpp:148] Top shape: 32 128 56 56 (12845056)
I0624 20:38:53.171036 23525 net.cpp:156] Memory required for data: 1021182336
I0624 20:38:53.171042 23525 layer_factory.hpp:77] Creating layer relu2_1
I0624 20:38:53.171047 23525 net.cpp:91] Creating Layer relu2_1
I0624 20:38:53.171049 23525 net.cpp:425] relu2_1 <- conv2_1
I0624 20:38:53.171053 23525 net.cpp:386] relu2_1 -> conv2_1 (in-place)
I0624 20:38:53.171461 23525 net.cpp:141] Setting up relu2_1
I0624 20:38:53.171473 23525 net.cpp:148] Top shape: 32 128 56 56 (12845056)
I0624 20:38:53.171475 23525 net.cpp:156] Memory required for data: 1072562560
I0624 20:38:53.171478 23525 layer_factory.hpp:77] Creating layer conv2_2
I0624 20:38:53.171486 23525 net.cpp:91] Creating Layer conv2_2
I0624 20:38:53.171489 23525 net.cpp:425] conv2_2 <- conv2_1
I0624 20:38:53.171494 23525 net.cpp:399] conv2_2 -> conv2_2
I0624 20:38:53.173070 23525 net.cpp:141] Setting up conv2_2
I0624 20:38:53.173082 23525 net.cpp:148] Top shape: 32 128 56 56 (12845056)
I0624 20:38:53.173085 23525 net.cpp:156] Memory required for data: 1123942784
I0624 20:38:53.173090 23525 layer_factory.hpp:77] Creating layer bn2_2
I0624 20:38:53.173097 23525 net.cpp:91] Creating Layer bn2_2
I0624 20:38:53.173100 23525 net.cpp:425] bn2_2 <- conv2_2
I0624 20:38:53.173104 23525 net.cpp:386] bn2_2 -> conv2_2 (in-place)
I0624 20:38:53.173238 23525 net.cpp:141] Setting up bn2_2
I0624 20:38:53.173244 23525 net.cpp:148] Top shape: 32 128 56 56 (12845056)
I0624 20:38:53.173246 23525 net.cpp:156] Memory required for data: 1175323008
I0624 20:38:53.173252 23525 layer_factory.hpp:77] Creating layer scale2_2
I0624 20:38:53.173259 23525 net.cpp:91] Creating Layer scale2_2
I0624 20:38:53.173260 23525 net.cpp:425] scale2_2 <- conv2_2
I0624 20:38:53.173264 23525 net.cpp:386] scale2_2 -> conv2_2 (in-place)
I0624 20:38:53.173293 23525 layer_factory.hpp:77] Creating layer scale2_2
I0624 20:38:53.173372 23525 net.cpp:141] Setting up scale2_2
I0624 20:38:53.173378 23525 net.cpp:148] Top shape: 32 128 56 56 (12845056)
I0624 20:38:53.173380 23525 net.cpp:156] Memory required for data: 1226703232
I0624 20:38:53.173384 23525 layer_factory.hpp:77] Creating layer relu2_2
I0624 20:38:53.173389 23525 net.cpp:91] Creating Layer relu2_2
I0624 20:38:53.173391 23525 net.cpp:425] relu2_2 <- conv2_2
I0624 20:38:53.173394 23525 net.cpp:386] relu2_2 -> conv2_2 (in-place)
I0624 20:38:53.173776 23525 net.cpp:141] Setting up relu2_2
I0624 20:38:53.173789 23525 net.cpp:148] Top shape: 32 128 56 56 (12845056)
I0624 20:38:53.173790 23525 net.cpp:156] Memory required for data: 1278083456
I0624 20:38:53.173805 23525 layer_factory.hpp:77] Creating layer pool2
I0624 20:38:53.173812 23525 net.cpp:91] Creating Layer pool2
I0624 20:38:53.173815 23525 net.cpp:425] pool2 <- conv2_2
I0624 20:38:53.173820 23525 net.cpp:399] pool2 -> pool2
I0624 20:38:53.173853 23525 net.cpp:141] Setting up pool2
I0624 20:38:53.173858 23525 net.cpp:148] Top shape: 32 128 28 28 (3211264)
I0624 20:38:53.173861 23525 net.cpp:156] Memory required for data: 1290928512
I0624 20:38:53.173863 23525 layer_factory.hpp:77] Creating layer conv3_1
I0624 20:38:53.173869 23525 net.cpp:91] Creating Layer conv3_1
I0624 20:38:53.173872 23525 net.cpp:425] conv3_1 <- pool2
I0624 20:38:53.173877 23525 net.cpp:399] conv3_1 -> conv3_1
I0624 20:38:53.177220 23525 net.cpp:141] Setting up conv3_1
I0624 20:38:53.177234 23525 net.cpp:148] Top shape: 32 256 28 28 (6422528)
I0624 20:38:53.177237 23525 net.cpp:156] Memory required for data: 1316618624
I0624 20:38:53.177242 23525 layer_factory.hpp:77] Creating layer bn3_1
I0624 20:38:53.177248 23525 net.cpp:91] Creating Layer bn3_1
I0624 20:38:53.177251 23525 net.cpp:425] bn3_1 <- conv3_1
I0624 20:38:53.177256 23525 net.cpp:386] bn3_1 -> conv3_1 (in-place)
I0624 20:38:53.178524 23525 net.cpp:141] Setting up bn3_1
I0624 20:38:53.178535 23525 net.cpp:148] Top shape: 32 256 28 28 (6422528)
I0624 20:38:53.178539 23525 net.cpp:156] Memory required for data: 1342308736
I0624 20:38:53.178544 23525 layer_factory.hpp:77] Creating layer scale3_1
I0624 20:38:53.178551 23525 net.cpp:91] Creating Layer scale3_1
I0624 20:38:53.178555 23525 net.cpp:425] scale3_1 <- conv3_1
I0624 20:38:53.178558 23525 net.cpp:386] scale3_1 -> conv3_1 (in-place)
I0624 20:38:53.178592 23525 layer_factory.hpp:77] Creating layer scale3_1
I0624 20:38:53.178701 23525 net.cpp:141] Setting up scale3_1
I0624 20:38:53.178711 23525 net.cpp:148] Top shape: 32 256 28 28 (6422528)
I0624 20:38:53.178714 23525 net.cpp:156] Memory required for data: 1367998848
I0624 20:38:53.178719 23525 layer_factory.hpp:77] Creating layer relu3_1
I0624 20:38:53.178725 23525 net.cpp:91] Creating Layer relu3_1
I0624 20:38:53.178730 23525 net.cpp:425] relu3_1 <- conv3_1
I0624 20:38:53.178736 23525 net.cpp:386] relu3_1 -> conv3_1 (in-place)
I0624 20:38:53.178891 23525 net.cpp:141] Setting up relu3_1
I0624 20:38:53.178901 23525 net.cpp:148] Top shape: 32 256 28 28 (6422528)
I0624 20:38:53.178905 23525 net.cpp:156] Memory required for data: 1393688960
I0624 20:38:53.178907 23525 layer_factory.hpp:77] Creating layer conv3_2
I0624 20:38:53.178917 23525 net.cpp:91] Creating Layer conv3_2
I0624 20:38:53.178922 23525 net.cpp:425] conv3_2 <- conv3_1
I0624 20:38:53.178930 23525 net.cpp:399] conv3_2 -> conv3_2
I0624 20:38:53.184489 23525 net.cpp:141] Setting up conv3_2
I0624 20:38:53.184504 23525 net.cpp:148] Top shape: 32 256 28 28 (6422528)
I0624 20:38:53.184506 23525 net.cpp:156] Memory required for data: 1419379072
I0624 20:38:53.184511 23525 layer_factory.hpp:77] Creating layer bn3_2
I0624 20:38:53.184519 23525 net.cpp:91] Creating Layer bn3_2
I0624 20:38:53.184521 23525 net.cpp:425] bn3_2 <- conv3_2
I0624 20:38:53.184525 23525 net.cpp:386] bn3_2 -> conv3_2 (in-place)
I0624 20:38:53.184698 23525 net.cpp:141] Setting up bn3_2
I0624 20:38:53.184708 23525 net.cpp:148] Top shape: 32 256 28 28 (6422528)
I0624 20:38:53.184710 23525 net.cpp:156] Memory required for data: 1445069184
I0624 20:38:53.184726 23525 layer_factory.hpp:77] Creating layer scale3_2
I0624 20:38:53.184736 23525 net.cpp:91] Creating Layer scale3_2
I0624 20:38:53.184741 23525 net.cpp:425] scale3_2 <- conv3_2
I0624 20:38:53.184748 23525 net.cpp:386] scale3_2 -> conv3_2 (in-place)
I0624 20:38:53.184800 23525 layer_factory.hpp:77] Creating layer scale3_2
I0624 20:38:53.184901 23525 net.cpp:141] Setting up scale3_2
I0624 20:38:53.184911 23525 net.cpp:148] Top shape: 32 256 28 28 (6422528)
I0624 20:38:53.184912 23525 net.cpp:156] Memory required for data: 1470759296
I0624 20:38:53.184918 23525 layer_factory.hpp:77] Creating layer relu3_2
I0624 20:38:53.184926 23525 net.cpp:91] Creating Layer relu3_2
I0624 20:38:53.184929 23525 net.cpp:425] relu3_2 <- conv3_2
I0624 20:38:53.184959 23525 net.cpp:386] relu3_2 -> conv3_2 (in-place)
I0624 20:38:53.185106 23525 net.cpp:141] Setting up relu3_2
I0624 20:38:53.185116 23525 net.cpp:148] Top shape: 32 256 28 28 (6422528)
I0624 20:38:53.185118 23525 net.cpp:156] Memory required for data: 1496449408
I0624 20:38:53.185120 23525 layer_factory.hpp:77] Creating layer pool3
I0624 20:38:53.185127 23525 net.cpp:91] Creating Layer pool3
I0624 20:38:53.185129 23525 net.cpp:425] pool3 <- conv3_2
I0624 20:38:53.185134 23525 net.cpp:399] pool3 -> pool3
I0624 20:38:53.185169 23525 net.cpp:141] Setting up pool3
I0624 20:38:53.185173 23525 net.cpp:148] Top shape: 32 256 14 14 (1605632)
I0624 20:38:53.185175 23525 net.cpp:156] Memory required for data: 1502871936
I0624 20:38:53.185178 23525 layer_factory.hpp:77] Creating layer conv4_1
I0624 20:38:53.185185 23525 net.cpp:91] Creating Layer conv4_1
I0624 20:38:53.185187 23525 net.cpp:425] conv4_1 <- pool3
I0624 20:38:53.185191 23525 net.cpp:399] conv4_1 -> conv4_1
I0624 20:38:53.195996 23525 net.cpp:141] Setting up conv4_1
I0624 20:38:53.196017 23525 net.cpp:148] Top shape: 32 512 14 14 (3211264)
I0624 20:38:53.196020 23525 net.cpp:156] Memory required for data: 1515716992
I0624 20:38:53.196027 23525 layer_factory.hpp:77] Creating layer bn4_1
I0624 20:38:53.196036 23525 net.cpp:91] Creating Layer bn4_1
I0624 20:38:53.196040 23525 net.cpp:425] bn4_1 <- conv4_1
I0624 20:38:53.196046 23525 net.cpp:386] bn4_1 -> conv4_1 (in-place)
I0624 20:38:53.196236 23525 net.cpp:141] Setting up bn4_1
I0624 20:38:53.196246 23525 net.cpp:148] Top shape: 32 512 14 14 (3211264)
I0624 20:38:53.196249 23525 net.cpp:156] Memory required for data: 1528562048
I0624 20:38:53.196254 23525 layer_factory.hpp:77] Creating layer scale4_1
I0624 20:38:53.196262 23525 net.cpp:91] Creating Layer scale4_1
I0624 20:38:53.196264 23525 net.cpp:425] scale4_1 <- conv4_1
I0624 20:38:53.196270 23525 net.cpp:386] scale4_1 -> conv4_1 (in-place)
I0624 20:38:53.196317 23525 layer_factory.hpp:77] Creating layer scale4_1
I0624 20:38:53.196426 23525 net.cpp:141] Setting up scale4_1
I0624 20:38:53.196436 23525 net.cpp:148] Top shape: 32 512 14 14 (3211264)
I0624 20:38:53.196439 23525 net.cpp:156] Memory required for data: 1541407104
I0624 20:38:53.196444 23525 layer_factory.hpp:77] Creating layer relu4_1
I0624 20:38:53.196454 23525 net.cpp:91] Creating Layer relu4_1
I0624 20:38:53.196460 23525 net.cpp:425] relu4_1 <- conv4_1
I0624 20:38:53.196468 23525 net.cpp:386] relu4_1 -> conv4_1 (in-place)
I0624 20:38:53.196636 23525 net.cpp:141] Setting up relu4_1
I0624 20:38:53.196646 23525 net.cpp:148] Top shape: 32 512 14 14 (3211264)
I0624 20:38:53.196650 23525 net.cpp:156] Memory required for data: 1554252160
I0624 20:38:53.196652 23525 layer_factory.hpp:77] Creating layer conv4_2
I0624 20:38:53.196666 23525 net.cpp:91] Creating Layer conv4_2
I0624 20:38:53.196671 23525 net.cpp:425] conv4_2 <- conv4_1
I0624 20:38:53.196681 23525 net.cpp:399] conv4_2 -> conv4_2
I0624 20:38:53.215633 23525 net.cpp:141] Setting up conv4_2
I0624 20:38:53.215652 23525 net.cpp:148] Top shape: 32 512 14 14 (3211264)
I0624 20:38:53.215656 23525 net.cpp:156] Memory required for data: 1567097216
I0624 20:38:53.215662 23525 layer_factory.hpp:77] Creating layer bn4_2
I0624 20:38:53.215672 23525 net.cpp:91] Creating Layer bn4_2
I0624 20:38:53.215677 23525 net.cpp:425] bn4_2 <- conv4_2
I0624 20:38:53.215682 23525 net.cpp:386] bn4_2 -> conv4_2 (in-place)
I0624 20:38:53.215878 23525 net.cpp:141] Setting up bn4_2
I0624 20:38:53.215888 23525 net.cpp:148] Top shape: 32 512 14 14 (3211264)
I0624 20:38:53.215890 23525 net.cpp:156] Memory required for data: 1579942272
I0624 20:38:53.215898 23525 layer_factory.hpp:77] Creating layer scale4_2
I0624 20:38:53.215908 23525 net.cpp:91] Creating Layer scale4_2
I0624 20:38:53.215911 23525 net.cpp:425] scale4_2 <- conv4_2
I0624 20:38:53.215919 23525 net.cpp:386] scale4_2 -> conv4_2 (in-place)
I0624 20:38:53.215968 23525 layer_factory.hpp:77] Creating layer scale4_2
I0624 20:38:53.216075 23525 net.cpp:141] Setting up scale4_2
I0624 20:38:53.216096 23525 net.cpp:148] Top shape: 32 512 14 14 (3211264)
I0624 20:38:53.216099 23525 net.cpp:156] Memory required for data: 1592787328
I0624 20:38:53.216105 23525 layer_factory.hpp:77] Creating layer relu4_2
I0624 20:38:53.216112 23525 net.cpp:91] Creating Layer relu4_2
I0624 20:38:53.216117 23525 net.cpp:425] relu4_2 <- conv4_2
I0624 20:38:53.216123 23525 net.cpp:386] relu4_2 -> conv4_2 (in-place)
I0624 20:38:53.216282 23525 net.cpp:141] Setting up relu4_2
I0624 20:38:53.216292 23525 net.cpp:148] Top shape: 32 512 14 14 (3211264)
I0624 20:38:53.216295 23525 net.cpp:156] Memory required for data: 1605632384
I0624 20:38:53.216297 23525 layer_factory.hpp:77] Creating layer pool4
I0624 20:38:53.216305 23525 net.cpp:91] Creating Layer pool4
I0624 20:38:53.216310 23525 net.cpp:425] pool4 <- conv4_2
I0624 20:38:53.216318 23525 net.cpp:399] pool4 -> pool4
I0624 20:38:53.216373 23525 net.cpp:141] Setting up pool4
I0624 20:38:53.216382 23525 net.cpp:148] Top shape: 32 512 7 7 (802816)
I0624 20:38:53.216385 23525 net.cpp:156] Memory required for data: 1608843648
I0624 20:38:53.216388 23525 layer_factory.hpp:77] Creating layer conv5_1
I0624 20:38:53.216398 23525 net.cpp:91] Creating Layer conv5_1
I0624 20:38:53.216403 23525 net.cpp:425] conv5_1 <- pool4
I0624 20:38:53.216413 23525 net.cpp:399] conv5_1 -> conv5_1
I0624 20:38:53.235517 23525 net.cpp:141] Setting up conv5_1
I0624 20:38:53.235538 23525 net.cpp:148] Top shape: 32 512 7 7 (802816)
I0624 20:38:53.235541 23525 net.cpp:156] Memory required for data: 1612054912
I0624 20:38:53.235546 23525 layer_factory.hpp:77] Creating layer bn5_1
I0624 20:38:53.235556 23525 net.cpp:91] Creating Layer bn5_1
I0624 20:38:53.235563 23525 net.cpp:425] bn5_1 <- conv5_1
I0624 20:38:53.235568 23525 net.cpp:386] bn5_1 -> conv5_1 (in-place)
I0624 20:38:53.235759 23525 net.cpp:141] Setting up bn5_1
I0624 20:38:53.235769 23525 net.cpp:148] Top shape: 32 512 7 7 (802816)
I0624 20:38:53.235772 23525 net.cpp:156] Memory required for data: 1615266176
I0624 20:38:53.235780 23525 layer_factory.hpp:77] Creating layer scale5_1
I0624 20:38:53.235791 23525 net.cpp:91] Creating Layer scale5_1
I0624 20:38:53.235796 23525 net.cpp:425] scale5_1 <- conv5_1
I0624 20:38:53.235802 23525 net.cpp:386] scale5_1 -> conv5_1 (in-place)
I0624 20:38:53.235857 23525 layer_factory.hpp:77] Creating layer scale5_1
I0624 20:38:53.235965 23525 net.cpp:141] Setting up scale5_1
I0624 20:38:53.235975 23525 net.cpp:148] Top shape: 32 512 7 7 (802816)
I0624 20:38:53.235976 23525 net.cpp:156] Memory required for data: 1618477440
I0624 20:38:53.235980 23525 layer_factory.hpp:77] Creating layer relu5_1
I0624 20:38:53.235988 23525 net.cpp:91] Creating Layer relu5_1
I0624 20:38:53.235993 23525 net.cpp:425] relu5_1 <- conv5_1
I0624 20:38:53.235999 23525 net.cpp:386] relu5_1 -> conv5_1 (in-place)
I0624 20:38:53.236440 23525 net.cpp:141] Setting up relu5_1
I0624 20:38:53.236452 23525 net.cpp:148] Top shape: 32 512 7 7 (802816)
I0624 20:38:53.236454 23525 net.cpp:156] Memory required for data: 1621688704
I0624 20:38:53.236457 23525 layer_factory.hpp:77] Creating layer conv5_2
I0624 20:38:53.236467 23525 net.cpp:91] Creating Layer conv5_2
I0624 20:38:53.236470 23525 net.cpp:425] conv5_2 <- conv5_1
I0624 20:38:53.236475 23525 net.cpp:399] conv5_2 -> conv5_2
I0624 20:38:53.255265 23525 net.cpp:141] Setting up conv5_2
I0624 20:38:53.255303 23525 net.cpp:148] Top shape: 32 512 7 7 (802816)
I0624 20:38:53.255311 23525 net.cpp:156] Memory required for data: 1624899968
I0624 20:38:53.255317 23525 layer_factory.hpp:77] Creating layer bn5_2
I0624 20:38:53.255329 23525 net.cpp:91] Creating Layer bn5_2
I0624 20:38:53.255334 23525 net.cpp:425] bn5_2 <- conv5_2
I0624 20:38:53.255342 23525 net.cpp:386] bn5_2 -> conv5_2 (in-place)
I0624 20:38:53.255529 23525 net.cpp:141] Setting up bn5_2
I0624 20:38:53.255539 23525 net.cpp:148] Top shape: 32 512 7 7 (802816)
I0624 20:38:53.255543 23525 net.cpp:156] Memory required for data: 1628111232
I0624 20:38:53.255553 23525 layer_factory.hpp:77] Creating layer scale5_2
I0624 20:38:53.255565 23525 net.cpp:91] Creating Layer scale5_2
I0624 20:38:53.255581 23525 net.cpp:425] scale5_2 <- conv5_2
I0624 20:38:53.255586 23525 net.cpp:386] scale5_2 -> conv5_2 (in-place)
I0624 20:38:53.255626 23525 layer_factory.hpp:77] Creating layer scale5_2
I0624 20:38:53.255718 23525 net.cpp:141] Setting up scale5_2
I0624 20:38:53.255727 23525 net.cpp:148] Top shape: 32 512 7 7 (802816)
I0624 20:38:53.255728 23525 net.cpp:156] Memory required for data: 1631322496
I0624 20:38:53.255733 23525 layer_factory.hpp:77] Creating layer relu5_2
I0624 20:38:53.255739 23525 net.cpp:91] Creating Layer relu5_2
I0624 20:38:53.255741 23525 net.cpp:425] relu5_2 <- conv5_2
I0624 20:38:53.255745 23525 net.cpp:386] relu5_2 -> conv5_2 (in-place)
I0624 20:38:53.256283 23525 net.cpp:141] Setting up relu5_2
I0624 20:38:53.256295 23525 net.cpp:148] Top shape: 32 512 7 7 (802816)
I0624 20:38:53.256299 23525 net.cpp:156] Memory required for data: 1634533760
I0624 20:38:53.256301 23525 layer_factory.hpp:77] Creating layer pool5
I0624 20:38:53.256307 23525 net.cpp:91] Creating Layer pool5
I0624 20:38:53.256309 23525 net.cpp:425] pool5 <- conv5_2
I0624 20:38:53.256314 23525 net.cpp:399] pool5 -> pool5
I0624 20:38:53.256506 23525 net.cpp:141] Setting up pool5
I0624 20:38:53.256517 23525 net.cpp:148] Top shape: 32 512 1 1 (16384)
I0624 20:38:53.256520 23525 net.cpp:156] Memory required for data: 1634599296
I0624 20:38:53.256522 23525 layer_factory.hpp:77] Creating layer fc2
I0624 20:38:53.256531 23525 net.cpp:91] Creating Layer fc2
I0624 20:38:53.256534 23525 net.cpp:425] fc2 <- pool5
I0624 20:38:53.256542 23525 net.cpp:399] fc2 -> fc2
I0624 20:38:53.256656 23525 net.cpp:141] Setting up fc2
I0624 20:38:53.256666 23525 net.cpp:148] Top shape: 32 2 (64)
I0624 20:38:53.256669 23525 net.cpp:156] Memory required for data: 1634599552
I0624 20:38:53.256675 23525 layer_factory.hpp:77] Creating layer fc2_fc2_0_split
I0624 20:38:53.256682 23525 net.cpp:91] Creating Layer fc2_fc2_0_split
I0624 20:38:53.256686 23525 net.cpp:425] fc2_fc2_0_split <- fc2
I0624 20:38:53.256695 23525 net.cpp:399] fc2_fc2_0_split -> fc2_fc2_0_split_0
I0624 20:38:53.256702 23525 net.cpp:399] fc2_fc2_0_split -> fc2_fc2_0_split_1
I0624 20:38:53.256748 23525 net.cpp:141] Setting up fc2_fc2_0_split
I0624 20:38:53.256757 23525 net.cpp:148] Top shape: 32 2 (64)
I0624 20:38:53.256760 23525 net.cpp:148] Top shape: 32 2 (64)
I0624 20:38:53.256762 23525 net.cpp:156] Memory required for data: 1634600064
I0624 20:38:53.256765 23525 layer_factory.hpp:77] Creating layer loss
I0624 20:38:53.256780 23525 net.cpp:91] Creating Layer loss
I0624 20:38:53.256785 23525 net.cpp:425] loss <- fc2_fc2_0_split_0
I0624 20:38:53.256790 23525 net.cpp:425] loss <- label_data_1_split_0
I0624 20:38:53.256798 23525 net.cpp:399] loss -> loss
…
