…
I0627 11:02:44.150637  3669 net.cpp:313] The NetState phase (0) differed from the phase (1) specified by a rule in layer data
I0627 11:02:44.150804  3669 net.cpp:49] Initializing net from parameters: 
name: "BPnet"
state {
  phase: TRAIN
}
layer {
  name: "data"
  type: "Data"
  top: "data"
  top: "label"
  include {
    phase: TRAIN
  }
  transform_param {
    mirror: true
    mean_value: 100
    crop_h: 196
    crop_w: 256
    rotation_range: 10
    scale_jitter_range: 0.1
    contrast_jitter_range: 0.3
  }
  data_param {
    source: "data/train_lmdb"
    batch_size: 32
    backend: LMDB
  }
}
layer {
  name: "conv1_1"
  type: "Convolution"
  bottom: "data"
  top: "conv1_1"
  param {
    lr_mult: 1
    decay_mult: 1
  }
  convolution_param {
    num_output: 32
    bias_term: false
    pad: 3
    kernel_size: 7
    stride: 2
    weight_filler {
      type: "xavier"
    }
  }
}
layer {
  name: "bn1_1"
  type: "BatchNorm"
  bottom: "conv1_1"
  top: "conv1_1"
  param {
    lr_mult: 0
  }
  param {
    lr_mult: 0
  }
  param {
    lr_mult: 0
  }
  batch_norm_param {
    use_global_stats: false
  }
}
layer {
  name: "scale1_1"
  type: "Scale"
  bottom: "conv1_1"
  top: "conv1_1"
  param {
    lr_mult: 1
    decay_mult: 1
  }
  param {
    lr_mult: 1
    decay_mult: 1
  }
  scale_param {
    bias_term: true
    bias_filler {
      type: "constant"
      value: 0
    }
  }
}
layer {
  name: "relu1_1"
  type: "ReLU"
  bottom: "conv1_1"
  top: "conv1_1"
}
layer {
  name: "pool1"
  type: "Pooling"
  bottom: "conv1_1"
  top: "pool1"
  pooling_param {
    pool: MAX
    kernel_size: 2
    stride: 2
  }
}
layer {
  name: "conv2_1"
  type: "Convolution"
  bottom: "pool1"
  top: "conv2_1"
  param {
    lr_mult: 1
    decay_mult: 1
  }
  convolution_param {
    num_output: 64
    bias_term: false
    pad: 1
    kernel_size: 3
    weight_filler {
      type: "xavier"
    }
  }
}
layer {
  name: "bn2_1"
  type: "BatchNorm"
  bottom: "conv2_1"
  top: "conv2_1"
  param {
    lr_mult: 0
  }
  param {
    lr_mult: 0
  }
  param {
    lr_mult: 0
  }
  batch_norm_param {
    use_global_stats: false
  }
}
layer {
  name: "scale2_1"
  type: "Scale"
  bottom: "conv2_1"
  top: "conv2_1"
  param {
    lr_mult: 1
    decay_mult: 1
  }
  param {
    lr_mult: 1
    decay_mult: 1
  }
  scale_param {
    bias_term: true
    bias_filler {
      type: "constant"
      value: 0
    }
  }
}
layer {
  name: "relu2_1"
  type: "ReLU"
  bottom: "conv2_1"
  top: "conv2_1"
}
layer {
  name: "pool2"
  type: "Pooling"
  bottom: "conv2_1"
  top: "pool2"
  pooling_param {
    pool: MAX
    kernel_size: 2
    stride: 2
  }
}
layer {
  name: "conv3_1"
  type: "Convolution"
  bottom: "pool2"
  top: "conv3_1"
  param {
    lr_mult: 1
    decay_mult: 1
  }
  convolution_param {
    num_output: 128
    bias_term: false
    pad: 1
    kernel_size: 3
    weight_filler {
      type: "xavier"
    }
  }
}
layer {
  name: "bn3_1"
  type: "BatchNorm"
  bottom: "conv3_1"
  top: "conv3_1"
  param {
    lr_mult: 0
  }
  param {
    lr_mult: 0
  }
  param {
    lr_mult: 0
  }
  batch_norm_param {
    use_global_stats: false
  }
}
layer {
  name: "scale3_1"
  type: "Scale"
  bottom: "conv3_1"
  top: "conv3_1"
  param {
    lr_mult: 1
    decay_mult: 1
  }
  param {
    lr_mult: 1
    decay_mult: 1
  }
  scale_param {
    bias_term: true
    bias_filler {
      type: "constant"
      value: 0
    }
  }
}
layer {
  name: "relu3_1"
  type: "ReLU"
  bottom: "conv3_1"
  top: "conv3_1"
}
layer {
  name: "pool3"
  type: "Pooling"
  bottom: "conv3_1"
  top: "pool3"
  pooling_param {
    pool: MAX
    kernel_size: 2
    stride: 2
  }
}
layer {
  name: "conv4_1"
  type: "Convolution"
  bottom: "pool3"
  top: "conv4_1"
  param {
    lr_mult: 1
    decay_mult: 1
  }
  convolution_param {
    num_output: 256
    bias_term: false
    pad: 1
    kernel_size: 3
    weight_filler {
      type: "xavier"
    }
  }
}
layer {
  name: "bn4_1"
  type: "BatchNorm"
  bottom: "conv4_1"
  top: "conv4_1"
  param {
    lr_mult: 0
  }
  param {
    lr_mult: 0
  }
  param {
    lr_mult: 0
  }
  batch_norm_param {
    use_global_stats: false
  }
}
layer {
  name: "scale4_1"
  type: "Scale"
  bottom: "conv4_1"
  top: "conv4_1"
  param {
    lr_mult: 1
    decay_mult: 1
  }
  param {
    lr_mult: 1
    decay_mult: 1
  }
  scale_param {
    bias_term: true
    bias_filler {
      type: "constant"
      value: 0
    }
  }
}
layer {
  name: "relu4_1"
  type: "ReLU"
  bottom: "conv4_1"
  top: "conv4_1"
}
layer {
  name: "pool4"
  type: "Pooling"
  bottom: "conv4_1"
  top: "pool4"
  pooling_param {
    pool: MAX
    kernel_size: 2
    stride: 2
  }
}
layer {
  name: "conv5_1"
  type: "Convolution"
  bottom: "pool4"
  top: "conv5_1"
  param {
    lr_mult: 1
    decay_mult: 1
  }
  convolution_param {
    num_output: 256
    bias_term: false
    pad: 1
    kernel_size: 3
    weight_filler {
      type: "xavier"
    }
  }
}
layer {
  name: "bn5_1"
  type: "BatchNorm"
  bottom: "conv5_1"
  top: "conv5_1"
  param {
    lr_mult: 0
  }
  param {
    lr_mult: 0
  }
  param {
    lr_mult: 0
  }
  batch_norm_param {
    use_global_stats: false
  }
}
layer {
  name: "scale5_1"
  type: "Scale"
  bottom: "conv5_1"
  top: "conv5_1"
  param {
    lr_mult: 1
    decay_mult: 1
  }
  param {
    lr_mult: 1
    decay_mult: 1
  }
  scale_param {
    bias_term: true
    bias_filler {
      type: "constant"
      value: 0
    }
  }
}
layer {
  name: "relu5_1"
  type: "ReLU"
  bottom: "conv5_1"
  top: "conv5_1"
}
layer {
  name: "pool5"
  type: "Pooling"
  bottom: "conv5_1"
  top: "pool5"
  pooling_param {
    pool: AVE
    stride: 1
    kernel_h: 6
    kernel_w: 8
  }
}
layer {
  name: "fc2"
  type: "InnerProduct"
  bottom: "pool5"
  top: "fc2"
  inner_product_param {
    num_output: 2
  }
}
layer {
  name: "loss"
  type: "SoftmaxWithLoss"
  bottom: "fc2"
  bottom: "label"
  top: "loss"
}
layer {
  name: "accuracy"
  type: "Accuracy"
  bottom: "fc2"
  bottom: "label"
  top: "accuracy"
}
I0627 11:02:44.150926  3669 layer_factory.hpp:77] Creating layer data
I0627 11:02:44.152406  3669 net.cpp:91] Creating Layer data
I0627 11:02:44.152418  3669 net.cpp:399] data -> data
I0627 11:02:44.152441  3669 net.cpp:399] data -> label
I0627 11:02:44.153992  3678 db_lmdb.cpp:35] Opened lmdb data/train_lmdb
I0627 11:02:44.230655  3669 data_layer.cpp:42] output data size: 32,3,196,256
I0627 11:02:44.266140  3669 net.cpp:141] Setting up data
I0627 11:02:44.266170  3669 net.cpp:148] Top shape: 32 3 196 256 (4816896)
I0627 11:02:44.266173  3669 net.cpp:148] Top shape: 32 (32)
I0627 11:02:44.266177  3669 net.cpp:156] Memory required for data: 19267712
I0627 11:02:44.266185  3669 layer_factory.hpp:77] Creating layer label_data_1_split
I0627 11:02:44.266568  3669 net.cpp:91] Creating Layer label_data_1_split
I0627 11:02:44.266578  3669 net.cpp:425] label_data_1_split <- label
I0627 11:02:44.266588  3669 net.cpp:399] label_data_1_split -> label_data_1_split_0
I0627 11:02:44.266597  3669 net.cpp:399] label_data_1_split -> label_data_1_split_1
I0627 11:02:44.268033  3669 net.cpp:141] Setting up label_data_1_split
I0627 11:02:44.268044  3669 net.cpp:148] Top shape: 32 (32)
I0627 11:02:44.268048  3669 net.cpp:148] Top shape: 32 (32)
I0627 11:02:44.268049  3669 net.cpp:156] Memory required for data: 19267968
I0627 11:02:44.268052  3669 layer_factory.hpp:77] Creating layer conv1_1
I0627 11:02:44.268067  3669 net.cpp:91] Creating Layer conv1_1
I0627 11:02:44.268069  3669 net.cpp:425] conv1_1 <- data
I0627 11:02:44.268075  3669 net.cpp:399] conv1_1 -> conv1_1
I0627 11:02:44.652081  3669 net.cpp:141] Setting up conv1_1
I0627 11:02:44.652115  3669 net.cpp:148] Top shape: 32 32 98 128 (12845056)
I0627 11:02:44.652134  3669 net.cpp:156] Memory required for data: 70648192
I0627 11:02:44.652145  3669 layer_factory.hpp:77] Creating layer bn1_1
I0627 11:02:44.652161  3669 net.cpp:91] Creating Layer bn1_1
I0627 11:02:44.652171  3669 net.cpp:425] bn1_1 <- conv1_1
I0627 11:02:44.652178  3669 net.cpp:386] bn1_1 -> conv1_1 (in-place)
I0627 11:02:44.652469  3669 net.cpp:141] Setting up bn1_1
I0627 11:02:44.652477  3669 net.cpp:148] Top shape: 32 32 98 128 (12845056)
I0627 11:02:44.652493  3669 net.cpp:156] Memory required for data: 122028416
I0627 11:02:44.652500  3669 layer_factory.hpp:77] Creating layer scale1_1
I0627 11:02:44.652509  3669 net.cpp:91] Creating Layer scale1_1
I0627 11:02:44.652511  3669 net.cpp:425] scale1_1 <- conv1_1
I0627 11:02:44.652516  3669 net.cpp:386] scale1_1 -> conv1_1 (in-place)
I0627 11:02:44.652559  3669 layer_factory.hpp:77] Creating layer scale1_1
I0627 11:02:44.652663  3669 net.cpp:141] Setting up scale1_1
I0627 11:02:44.652670  3669 net.cpp:148] Top shape: 32 32 98 128 (12845056)
I0627 11:02:44.652673  3669 net.cpp:156] Memory required for data: 173408640
I0627 11:02:44.652680  3669 layer_factory.hpp:77] Creating layer relu1_1
I0627 11:02:44.652690  3669 net.cpp:91] Creating Layer relu1_1
I0627 11:02:44.652696  3669 net.cpp:425] relu1_1 <- conv1_1
I0627 11:02:44.652703  3669 net.cpp:386] relu1_1 -> conv1_1 (in-place)
I0627 11:02:44.652850  3669 net.cpp:141] Setting up relu1_1
I0627 11:02:44.652859  3669 net.cpp:148] Top shape: 32 32 98 128 (12845056)
I0627 11:02:44.652863  3669 net.cpp:156] Memory required for data: 224788864
I0627 11:02:44.652865  3669 layer_factory.hpp:77] Creating layer pool1
I0627 11:02:44.652873  3669 net.cpp:91] Creating Layer pool1
I0627 11:02:44.652878  3669 net.cpp:425] pool1 <- conv1_1
I0627 11:02:44.652884  3669 net.cpp:399] pool1 -> pool1
I0627 11:02:44.653256  3669 net.cpp:141] Setting up pool1
I0627 11:02:44.653265  3669 net.cpp:148] Top shape: 32 32 49 64 (3211264)
I0627 11:02:44.653280  3669 net.cpp:156] Memory required for data: 237633920
I0627 11:02:44.653281  3669 layer_factory.hpp:77] Creating layer conv2_1
I0627 11:02:44.653290  3669 net.cpp:91] Creating Layer conv2_1
I0627 11:02:44.653292  3669 net.cpp:425] conv2_1 <- pool1
I0627 11:02:44.653296  3669 net.cpp:399] conv2_1 -> conv2_1
I0627 11:02:44.655068  3669 net.cpp:141] Setting up conv2_1
I0627 11:02:44.655079  3669 net.cpp:148] Top shape: 32 64 49 64 (6422528)
I0627 11:02:44.655094  3669 net.cpp:156] Memory required for data: 263324032
I0627 11:02:44.655098  3669 layer_factory.hpp:77] Creating layer bn2_1
I0627 11:02:44.655104  3669 net.cpp:91] Creating Layer bn2_1
I0627 11:02:44.655107  3669 net.cpp:425] bn2_1 <- conv2_1
I0627 11:02:44.655112  3669 net.cpp:386] bn2_1 -> conv2_1 (in-place)
I0627 11:02:44.656184  3669 net.cpp:141] Setting up bn2_1
I0627 11:02:44.656195  3669 net.cpp:148] Top shape: 32 64 49 64 (6422528)
I0627 11:02:44.656198  3669 net.cpp:156] Memory required for data: 289014144
I0627 11:02:44.656206  3669 layer_factory.hpp:77] Creating layer scale2_1
I0627 11:02:44.656211  3669 net.cpp:91] Creating Layer scale2_1
I0627 11:02:44.656214  3669 net.cpp:425] scale2_1 <- conv2_1
I0627 11:02:44.656218  3669 net.cpp:386] scale2_1 -> conv2_1 (in-place)
I0627 11:02:44.656255  3669 layer_factory.hpp:77] Creating layer scale2_1
I0627 11:02:44.656347  3669 net.cpp:141] Setting up scale2_1
I0627 11:02:44.656354  3669 net.cpp:148] Top shape: 32 64 49 64 (6422528)
I0627 11:02:44.656357  3669 net.cpp:156] Memory required for data: 314704256
I0627 11:02:44.656361  3669 layer_factory.hpp:77] Creating layer relu2_1
I0627 11:02:44.656368  3669 net.cpp:91] Creating Layer relu2_1
I0627 11:02:44.656374  3669 net.cpp:425] relu2_1 <- conv2_1
I0627 11:02:44.656379  3669 net.cpp:386] relu2_1 -> conv2_1 (in-place)
I0627 11:02:44.656507  3669 net.cpp:141] Setting up relu2_1
I0627 11:02:44.656514  3669 net.cpp:148] Top shape: 32 64 49 64 (6422528)
I0627 11:02:44.656517  3669 net.cpp:156] Memory required for data: 340394368
I0627 11:02:44.656520  3669 layer_factory.hpp:77] Creating layer pool2
I0627 11:02:44.656539  3669 net.cpp:91] Creating Layer pool2
I0627 11:02:44.656546  3669 net.cpp:425] pool2 <- conv2_1
I0627 11:02:44.656553  3669 net.cpp:399] pool2 -> pool2
I0627 11:02:44.656592  3669 net.cpp:141] Setting up pool2
I0627 11:02:44.656599  3669 net.cpp:148] Top shape: 32 64 25 32 (1638400)
I0627 11:02:44.656601  3669 net.cpp:156] Memory required for data: 346947968
I0627 11:02:44.656605  3669 layer_factory.hpp:77] Creating layer conv3_1
I0627 11:02:44.656613  3669 net.cpp:91] Creating Layer conv3_1
I0627 11:02:44.656620  3669 net.cpp:425] conv3_1 <- pool2
I0627 11:02:44.656625  3669 net.cpp:399] conv3_1 -> conv3_1
I0627 11:02:44.658627  3669 net.cpp:141] Setting up conv3_1
I0627 11:02:44.658639  3669 net.cpp:148] Top shape: 32 128 25 32 (3276800)
I0627 11:02:44.658643  3669 net.cpp:156] Memory required for data: 360055168
I0627 11:02:44.658646  3669 layer_factory.hpp:77] Creating layer bn3_1
I0627 11:02:44.658651  3669 net.cpp:91] Creating Layer bn3_1
I0627 11:02:44.658655  3669 net.cpp:425] bn3_1 <- conv3_1
I0627 11:02:44.658661  3669 net.cpp:386] bn3_1 -> conv3_1 (in-place)
I0627 11:02:44.659824  3669 net.cpp:141] Setting up bn3_1
I0627 11:02:44.659835  3669 net.cpp:148] Top shape: 32 128 25 32 (3276800)
I0627 11:02:44.659837  3669 net.cpp:156] Memory required for data: 373162368
I0627 11:02:44.659843  3669 layer_factory.hpp:77] Creating layer scale3_1
I0627 11:02:44.659852  3669 net.cpp:91] Creating Layer scale3_1
I0627 11:02:44.659858  3669 net.cpp:425] scale3_1 <- conv3_1
I0627 11:02:44.659868  3669 net.cpp:386] scale3_1 -> conv3_1 (in-place)
I0627 11:02:44.659909  3669 layer_factory.hpp:77] Creating layer scale3_1
I0627 11:02:44.659999  3669 net.cpp:141] Setting up scale3_1
I0627 11:02:44.660006  3669 net.cpp:148] Top shape: 32 128 25 32 (3276800)
I0627 11:02:44.660009  3669 net.cpp:156] Memory required for data: 386269568
I0627 11:02:44.660017  3669 layer_factory.hpp:77] Creating layer relu3_1
I0627 11:02:44.660020  3669 net.cpp:91] Creating Layer relu3_1
I0627 11:02:44.660023  3669 net.cpp:425] relu3_1 <- conv3_1
I0627 11:02:44.660027  3669 net.cpp:386] relu3_1 -> conv3_1 (in-place)
I0627 11:02:44.660406  3669 net.cpp:141] Setting up relu3_1
I0627 11:02:44.660416  3669 net.cpp:148] Top shape: 32 128 25 32 (3276800)
I0627 11:02:44.660431  3669 net.cpp:156] Memory required for data: 399376768
I0627 11:02:44.660434  3669 layer_factory.hpp:77] Creating layer pool3
I0627 11:02:44.660441  3669 net.cpp:91] Creating Layer pool3
I0627 11:02:44.660444  3669 net.cpp:425] pool3 <- conv3_1
I0627 11:02:44.660449  3669 net.cpp:399] pool3 -> pool3
I0627 11:02:44.660490  3669 net.cpp:141] Setting up pool3
I0627 11:02:44.660497  3669 net.cpp:148] Top shape: 32 128 13 16 (851968)
I0627 11:02:44.660500  3669 net.cpp:156] Memory required for data: 402784640
I0627 11:02:44.660502  3669 layer_factory.hpp:77] Creating layer conv4_1
I0627 11:02:44.660513  3669 net.cpp:91] Creating Layer conv4_1
I0627 11:02:44.660519  3669 net.cpp:425] conv4_1 <- pool3
I0627 11:02:44.660527  3669 net.cpp:399] conv4_1 -> conv4_1
I0627 11:02:44.663020  3669 net.cpp:141] Setting up conv4_1
I0627 11:02:44.663031  3669 net.cpp:148] Top shape: 32 256 13 16 (1703936)
I0627 11:02:44.663034  3669 net.cpp:156] Memory required for data: 409600384
I0627 11:02:44.663040  3669 layer_factory.hpp:77] Creating layer bn4_1
I0627 11:02:44.663053  3669 net.cpp:91] Creating Layer bn4_1
I0627 11:02:44.663059  3669 net.cpp:425] bn4_1 <- conv4_1
I0627 11:02:44.663067  3669 net.cpp:386] bn4_1 -> conv4_1 (in-place)
I0627 11:02:44.663218  3669 net.cpp:141] Setting up bn4_1
I0627 11:02:44.663225  3669 net.cpp:148] Top shape: 32 256 13 16 (1703936)
I0627 11:02:44.663228  3669 net.cpp:156] Memory required for data: 416416128
I0627 11:02:44.663235  3669 layer_factory.hpp:77] Creating layer scale4_1
I0627 11:02:44.663245  3669 net.cpp:91] Creating Layer scale4_1
I0627 11:02:44.663250  3669 net.cpp:425] scale4_1 <- conv4_1
I0627 11:02:44.663259  3669 net.cpp:386] scale4_1 -> conv4_1 (in-place)
I0627 11:02:44.663300  3669 layer_factory.hpp:77] Creating layer scale4_1
I0627 11:02:44.663398  3669 net.cpp:141] Setting up scale4_1
I0627 11:02:44.663405  3669 net.cpp:148] Top shape: 32 256 13 16 (1703936)
I0627 11:02:44.663408  3669 net.cpp:156] Memory required for data: 423231872
I0627 11:02:44.663414  3669 layer_factory.hpp:77] Creating layer relu4_1
I0627 11:02:44.663425  3669 net.cpp:91] Creating Layer relu4_1
I0627 11:02:44.663430  3669 net.cpp:425] relu4_1 <- conv4_1
I0627 11:02:44.663435  3669 net.cpp:386] relu4_1 -> conv4_1 (in-place)
I0627 11:02:44.663805  3669 net.cpp:141] Setting up relu4_1
I0627 11:02:44.663815  3669 net.cpp:148] Top shape: 32 256 13 16 (1703936)
I0627 11:02:44.663818  3669 net.cpp:156] Memory required for data: 430047616
I0627 11:02:44.663820  3669 layer_factory.hpp:77] Creating layer pool4
I0627 11:02:44.663826  3669 net.cpp:91] Creating Layer pool4
I0627 11:02:44.663830  3669 net.cpp:425] pool4 <- conv4_1
I0627 11:02:44.663837  3669 net.cpp:399] pool4 -> pool4
I0627 11:02:44.663877  3669 net.cpp:141] Setting up pool4
I0627 11:02:44.663884  3669 net.cpp:148] Top shape: 32 256 7 8 (458752)
I0627 11:02:44.663887  3669 net.cpp:156] Memory required for data: 431882624
I0627 11:02:44.663889  3669 layer_factory.hpp:77] Creating layer conv5_1
I0627 11:02:44.663900  3669 net.cpp:91] Creating Layer conv5_1
I0627 11:02:44.663907  3669 net.cpp:425] conv5_1 <- pool4
I0627 11:02:44.663913  3669 net.cpp:399] conv5_1 -> conv5_1
I0627 11:02:44.669126  3669 net.cpp:141] Setting up conv5_1
I0627 11:02:44.669137  3669 net.cpp:148] Top shape: 32 256 7 8 (458752)
I0627 11:02:44.669140  3669 net.cpp:156] Memory required for data: 433717632
I0627 11:02:44.669145  3669 layer_factory.hpp:77] Creating layer bn5_1
I0627 11:02:44.669154  3669 net.cpp:91] Creating Layer bn5_1
I0627 11:02:44.669163  3669 net.cpp:425] bn5_1 <- conv5_1
I0627 11:02:44.669170  3669 net.cpp:386] bn5_1 -> conv5_1 (in-place)
I0627 11:02:44.669322  3669 net.cpp:141] Setting up bn5_1
I0627 11:02:44.669328  3669 net.cpp:148] Top shape: 32 256 7 8 (458752)
I0627 11:02:44.669330  3669 net.cpp:156] Memory required for data: 435552640
I0627 11:02:44.669337  3669 layer_factory.hpp:77] Creating layer scale5_1
I0627 11:02:44.669348  3669 net.cpp:91] Creating Layer scale5_1
I0627 11:02:44.669354  3669 net.cpp:425] scale5_1 <- conv5_1
I0627 11:02:44.669360  3669 net.cpp:386] scale5_1 -> conv5_1 (in-place)
I0627 11:02:44.669401  3669 layer_factory.hpp:77] Creating layer scale5_1
I0627 11:02:44.669488  3669 net.cpp:141] Setting up scale5_1
I0627 11:02:44.669495  3669 net.cpp:148] Top shape: 32 256 7 8 (458752)
I0627 11:02:44.669497  3669 net.cpp:156] Memory required for data: 437387648
I0627 11:02:44.669502  3669 layer_factory.hpp:77] Creating layer relu5_1
I0627 11:02:44.669508  3669 net.cpp:91] Creating Layer relu5_1
I0627 11:02:44.669514  3669 net.cpp:425] relu5_1 <- conv5_1
I0627 11:02:44.669522  3669 net.cpp:386] relu5_1 -> conv5_1 (in-place)
I0627 11:02:44.669658  3669 net.cpp:141] Setting up relu5_1
I0627 11:02:44.669667  3669 net.cpp:148] Top shape: 32 256 7 8 (458752)
I0627 11:02:44.669669  3669 net.cpp:156] Memory required for data: 439222656
I0627 11:02:44.669672  3669 layer_factory.hpp:77] Creating layer pool5
I0627 11:02:44.669679  3669 net.cpp:91] Creating Layer pool5
I0627 11:02:44.669683  3669 net.cpp:425] pool5 <- conv5_1
I0627 11:02:44.669692  3669 net.cpp:399] pool5 -> pool5
I0627 11:02:44.669847  3669 net.cpp:141] Setting up pool5
I0627 11:02:44.669855  3669 net.cpp:148] Top shape: 32 256 2 1 (16384)
I0627 11:02:44.669858  3669 net.cpp:156] Memory required for data: 439288192
I0627 11:02:44.669862  3669 layer_factory.hpp:77] Creating layer fc2
I0627 11:02:44.669898  3669 net.cpp:91] Creating Layer fc2
I0627 11:02:44.669903  3669 net.cpp:425] fc2 <- pool5
I0627 11:02:44.669909  3669 net.cpp:399] fc2 -> fc2
I0627 11:02:44.670006  3669 net.cpp:141] Setting up fc2
I0627 11:02:44.670013  3669 net.cpp:148] Top shape: 32 2 (64)
I0627 11:02:44.670016  3669 net.cpp:156] Memory required for data: 439288448
I0627 11:02:44.670022  3669 layer_factory.hpp:77] Creating layer fc2_fc2_0_split
I0627 11:02:44.670040  3669 net.cpp:91] Creating Layer fc2_fc2_0_split
I0627 11:02:44.670043  3669 net.cpp:425] fc2_fc2_0_split <- fc2
I0627 11:02:44.670048  3669 net.cpp:399] fc2_fc2_0_split -> fc2_fc2_0_split_0
I0627 11:02:44.670054  3669 net.cpp:399] fc2_fc2_0_split -> fc2_fc2_0_split_1
I0627 11:02:44.670095  3669 net.cpp:141] Setting up fc2_fc2_0_split
I0627 11:02:44.670101  3669 net.cpp:148] Top shape: 32 2 (64)
I0627 11:02:44.670105  3669 net.cpp:148] Top shape: 32 2 (64)
I0627 11:02:44.670109  3669 net.cpp:156] Memory required for data: 439288960
I0627 11:02:44.670111  3669 layer_factory.hpp:77] Creating layer loss
I0627 11:02:44.670132  3669 net.cpp:91] Creating Layer loss
I0627 11:02:44.670138  3669 net.cpp:425] loss <- fc2_fc2_0_split_0
I0627 11:02:44.670143  3669 net.cpp:425] loss <- label_data_1_split_0
I0627 11:02:44.670148  3669 net.cpp:399] loss -> loss
…
I0627 11:02:44.671123  3669 solver.cpp:181] Creating test net (#0) specified by net file: models/bpnet/train_val.prototxt
I0627 11:02:44.671164  3669 net.cpp:313] The NetState phase (1) differed from the phase (0) specified by a rule in layer data
I0627 11:02:44.671308  3669 net.cpp:49] Initializing net from parameters: 
name: "BPnet"
state {
  phase: TEST
}
layer {
  name: "data"
  type: "Data"
  top: "data"
  top: "label"
  include {
    phase: TEST
  }
  transform_param {
    mirror: false
    mean_value: 100
    crop_h: 196
    crop_w: 256
  }
  data_param {
    source: "data/val_lmdb"
    batch_size: 64
    backend: LMDB
  }
}
layer {
  name: "conv1_1"
  type: "Convolution"
  bottom: "data"
  top: "conv1_1"
  param {
    lr_mult: 1
    decay_mult: 1
  }
  convolution_param {
    num_output: 32
    bias_term: false
    pad: 3
    kernel_size: 7
    stride: 2
    weight_filler {
      type: "xavier"
    }
  }
}
layer {
  name: "bn1_1"
  type: "BatchNorm"
  bottom: "conv1_1"
  top: "conv1_1"
  param {
    lr_mult: 0
  }
  param {
    lr_mult: 0
  }
  param {
    lr_mult: 0
  }
  batch_norm_param {
    use_global_stats: false
  }
}
layer {
  name: "scale1_1"
  type: "Scale"
  bottom: "conv1_1"
  top: "conv1_1"
  param {
    lr_mult: 1
    decay_mult: 1
  }
  param {
    lr_mult: 1
    decay_mult: 1
  }
  scale_param {
    bias_term: true
    bias_filler {
      type: "constant"
      value: 0
    }
  }
}
layer {
  name: "relu1_1"
  type: "ReLU"
  bottom: "conv1_1"
  top: "conv1_1"
}
layer {
  name: "pool1"
  type: "Pooling"
  bottom: "conv1_1"
  top: "pool1"
  pooling_param {
    pool: MAX
    kernel_size: 2
    stride: 2
  }
}
layer {
  name: "conv2_1"
  type: "Convolution"
  bottom: "pool1"
  top: "conv2_1"
  param {
    lr_mult: 1
    decay_mult: 1
  }
  convolution_param {
    num_output: 64
    bias_term: false
    pad: 1
    kernel_size: 3
    weight_filler {
      type: "xavier"
    }
  }
}
layer {
  name: "bn2_1"
  type: "BatchNorm"
  bottom: "conv2_1"
  top: "conv2_1"
  param {
    lr_mult: 0
  }
  param {
    lr_mult: 0
  }
  param {
    lr_mult: 0
  }
  batch_norm_param {
    use_global_stats: false
  }
}
layer {
  name: "scale2_1"
  type: "Scale"
  bottom: "conv2_1"
  top: "conv2_1"
  param {
    lr_mult: 1
    decay_mult: 1
  }
  param {
    lr_mult: 1
    decay_mult: 1
  }
  scale_param {
    bias_term: true
    bias_filler {
      type: "constant"
      value: 0
    }
  }
}
layer {
  name: "relu2_1"
  type: "ReLU"
  bottom: "conv2_1"
  top: "conv2_1"
}
layer {
  name: "pool2"
  type: "Pooling"
  bottom: "conv2_1"
  top: "pool2"
  pooling_param {
    pool: MAX
    kernel_size: 2
    stride: 2
  }
}
layer {
  name: "conv3_1"
  type: "Convolution"
  bottom: "pool2"
  top: "conv3_1"
  param {
    lr_mult: 1
    decay_mult: 1
  }
  convolution_param {
    num_output: 128
    bias_term: false
    pad: 1
    kernel_size: 3
    weight_filler {
      type: "xavier"
    }
  }
}
layer {
  name: "bn3_1"
  type: "BatchNorm"
  bottom: "conv3_1"
  top: "conv3_1"
  param {
    lr_mult: 0
  }
  param {
    lr_mult: 0
  }
  param {
    lr_mult: 0
  }
  batch_norm_param {
    use_global_stats: false
  }
}
layer {
  name: "scale3_1"
  type: "Scale"
  bottom: "conv3_1"
  top: "conv3_1"
  param {
    lr_mult: 1
    decay_mult: 1
  }
  param {
    lr_mult: 1
    decay_mult: 1
  }
  scale_param {
    bias_term: true
    bias_filler {
      type: "constant"
      value: 0
    }
  }
}
layer {
  name: "relu3_1"
  type: "ReLU"
  bottom: "conv3_1"
  top: "conv3_1"
}
layer {
  name: "pool3"
  type: "Pooling"
  bottom: "conv3_1"
  top: "pool3"
  pooling_param {
    pool: MAX
    kernel_size: 2
    stride: 2
  }
}
layer {
  name: "conv4_1"
  type: "Convolution"
  bottom: "pool3"
  top: "conv4_1"
  param {
    lr_mult: 1
    decay_mult: 1
  }
  convolution_param {
    num_output: 256
    bias_term: false
    pad: 1
    kernel_size: 3
    weight_filler {
      type: "xavier"
    }
  }
}
layer {
  name: "bn4_1"
  type: "BatchNorm"
  bottom: "conv4_1"
  top: "conv4_1"
  param {
    lr_mult: 0
  }
  param {
    lr_mult: 0
  }
  param {
    lr_mult: 0
  }
  batch_norm_param {
    use_global_stats: false
  }
}
layer {
  name: "scale4_1"
  type: "Scale"
  bottom: "conv4_1"
  top: "conv4_1"
  param {
    lr_mult: 1
    decay_mult: 1
  }
  param {
    lr_mult: 1
    decay_mult: 1
  }
  scale_param {
    bias_term: true
    bias_filler {
      type: "constant"
      value: 0
    }
  }
}
layer {
  name: "relu4_1"
  type: "ReLU"
  bottom: "conv4_1"
  top: "conv4_1"
}
layer {
  name: "pool4"
  type: "Pooling"
  bottom: "conv4_1"
  top: "pool4"
  pooling_param {
    pool: MAX
    kernel_size: 2
    stride: 2
  }
}
layer {
  name: "conv5_1"
  type: "Convolution"
  bottom: "pool4"
  top: "conv5_1"
  param {
    lr_mult: 1
    decay_mult: 1
  }
  convolution_param {
    num_output: 256
    bias_term: false
    pad: 1
    kernel_size: 3
    weight_filler {
      type: "xavier"
    }
  }
}
layer {
  name: "bn5_1"
  type: "BatchNorm"
  bottom: "conv5_1"
  top: "conv5_1"
  param {
    lr_mult: 0
  }
  param {
    lr_mult: 0
  }
  param {
    lr_mult: 0
  }
  batch_norm_param {
    use_global_stats: false
  }
}
layer {
  name: "scale5_1"
  type: "Scale"
  bottom: "conv5_1"
  top: "conv5_1"
  param {
    lr_mult: 1
    decay_mult: 1
  }
  param {
    lr_mult: 1
    decay_mult: 1
  }
  scale_param {
    bias_term: true
    bias_filler {
      type: "constant"
      value: 0
    }
  }
}
layer {
  name: "relu5_1"
  type: "ReLU"
  bottom: "conv5_1"
  top: "conv5_1"
}
layer {
  name: "pool5"
  type: "Pooling"
  bottom: "conv5_1"
  top: "pool5"
  pooling_param {
    pool: AVE
    stride: 1
    kernel_h: 6
    kernel_w: 8
  }
}
layer {
  name: "fc2"
  type: "InnerProduct"
  bottom: "pool5"
  top: "fc2"
  inner_product_param {
    num_output: 2
  }
}
layer {
  name: "loss"
  type: "SoftmaxWithLoss"
  bottom: "fc2"
  bottom: "label"
  top: "loss"
}
layer {
  name: "accuracy"
  type: "Accuracy"
  bottom: "fc2"
  bottom: "label"
  top: "accuracy"
}
I0627 11:02:44.671403  3669 layer_factory.hpp:77] Creating layer data
I0627 11:02:44.671484  3669 net.cpp:91] Creating Layer data
I0627 11:02:44.671491  3669 net.cpp:399] data -> data
I0627 11:02:44.671499  3669 net.cpp:399] data -> label
I0627 11:02:44.672503  3687 db_lmdb.cpp:35] Opened lmdb data/val_lmdb
I0627 11:02:44.674021  3669 data_layer.cpp:42] output data size: 64,3,196,256
I0627 11:02:44.745169  3669 net.cpp:141] Setting up data
I0627 11:02:44.745190  3669 net.cpp:148] Top shape: 64 3 196 256 (9633792)
I0627 11:02:44.745194  3669 net.cpp:148] Top shape: 64 (64)
I0627 11:02:44.745196  3669 net.cpp:156] Memory required for data: 38535424
I0627 11:02:44.745201  3669 layer_factory.hpp:77] Creating layer label_data_1_split
I0627 11:02:44.745213  3669 net.cpp:91] Creating Layer label_data_1_split
I0627 11:02:44.745215  3669 net.cpp:425] label_data_1_split <- label
I0627 11:02:44.745220  3669 net.cpp:399] label_data_1_split -> label_data_1_split_0
I0627 11:02:44.745229  3669 net.cpp:399] label_data_1_split -> label_data_1_split_1
I0627 11:02:44.745283  3669 net.cpp:141] Setting up label_data_1_split
I0627 11:02:44.745290  3669 net.cpp:148] Top shape: 64 (64)
I0627 11:02:44.745292  3669 net.cpp:148] Top shape: 64 (64)
I0627 11:02:44.745293  3669 net.cpp:156] Memory required for data: 38535936
I0627 11:02:44.745296  3669 layer_factory.hpp:77] Creating layer conv1_1
I0627 11:02:44.745307  3669 net.cpp:91] Creating Layer conv1_1
I0627 11:02:44.745309  3669 net.cpp:425] conv1_1 <- data
I0627 11:02:44.745314  3669 net.cpp:399] conv1_1 -> conv1_1
I0627 11:02:44.749356  3669 net.cpp:141] Setting up conv1_1
I0627 11:02:44.749368  3669 net.cpp:148] Top shape: 64 32 98 128 (25690112)
I0627 11:02:44.749372  3669 net.cpp:156] Memory required for data: 141296384
I0627 11:02:44.749377  3669 layer_factory.hpp:77] Creating layer bn1_1
I0627 11:02:44.749385  3669 net.cpp:91] Creating Layer bn1_1
I0627 11:02:44.749403  3669 net.cpp:425] bn1_1 <- conv1_1
I0627 11:02:44.749409  3669 net.cpp:386] bn1_1 -> conv1_1 (in-place)
I0627 11:02:44.749567  3669 net.cpp:141] Setting up bn1_1
I0627 11:02:44.749572  3669 net.cpp:148] Top shape: 64 32 98 128 (25690112)
I0627 11:02:44.749574  3669 net.cpp:156] Memory required for data: 244056832
I0627 11:02:44.749583  3669 layer_factory.hpp:77] Creating layer scale1_1
I0627 11:02:44.749589  3669 net.cpp:91] Creating Layer scale1_1
I0627 11:02:44.749593  3669 net.cpp:425] scale1_1 <- conv1_1
I0627 11:02:44.749598  3669 net.cpp:386] scale1_1 -> conv1_1 (in-place)
I0627 11:02:44.749629  3669 layer_factory.hpp:77] Creating layer scale1_1
I0627 11:02:44.749730  3669 net.cpp:141] Setting up scale1_1
I0627 11:02:44.749737  3669 net.cpp:148] Top shape: 64 32 98 128 (25690112)
I0627 11:02:44.749738  3669 net.cpp:156] Memory required for data: 346817280
I0627 11:02:44.749744  3669 layer_factory.hpp:77] Creating layer relu1_1
I0627 11:02:44.749749  3669 net.cpp:91] Creating Layer relu1_1
I0627 11:02:44.749752  3669 net.cpp:425] relu1_1 <- conv1_1
I0627 11:02:44.749758  3669 net.cpp:386] relu1_1 -> conv1_1 (in-place)
I0627 11:02:44.750149  3669 net.cpp:141] Setting up relu1_1
I0627 11:02:44.750160  3669 net.cpp:148] Top shape: 64 32 98 128 (25690112)
I0627 11:02:44.750162  3669 net.cpp:156] Memory required for data: 449577728
I0627 11:02:44.750165  3669 layer_factory.hpp:77] Creating layer pool1
I0627 11:02:44.750171  3669 net.cpp:91] Creating Layer pool1
I0627 11:02:44.750174  3669 net.cpp:425] pool1 <- conv1_1
I0627 11:02:44.750177  3669 net.cpp:399] pool1 -> pool1
I0627 11:02:44.750213  3669 net.cpp:141] Setting up pool1
I0627 11:02:44.750218  3669 net.cpp:148] Top shape: 64 32 49 64 (6422528)
I0627 11:02:44.750221  3669 net.cpp:156] Memory required for data: 475267840
I0627 11:02:44.750223  3669 layer_factory.hpp:77] Creating layer conv2_1
I0627 11:02:44.750231  3669 net.cpp:91] Creating Layer conv2_1
I0627 11:02:44.750233  3669 net.cpp:425] conv2_1 <- pool1
I0627 11:02:44.750236  3669 net.cpp:399] conv2_1 -> conv2_1
I0627 11:02:44.751440  3669 net.cpp:141] Setting up conv2_1
I0627 11:02:44.751451  3669 net.cpp:148] Top shape: 64 64 49 64 (12845056)
I0627 11:02:44.751454  3669 net.cpp:156] Memory required for data: 526648064
I0627 11:02:44.751461  3669 layer_factory.hpp:77] Creating layer bn2_1
I0627 11:02:44.751472  3669 net.cpp:91] Creating Layer bn2_1
I0627 11:02:44.751478  3669 net.cpp:425] bn2_1 <- conv2_1
I0627 11:02:44.751485  3669 net.cpp:386] bn2_1 -> conv2_1 (in-place)
I0627 11:02:44.751669  3669 net.cpp:141] Setting up bn2_1
I0627 11:02:44.751678  3669 net.cpp:148] Top shape: 64 64 49 64 (12845056)
I0627 11:02:44.751680  3669 net.cpp:156] Memory required for data: 578028288
I0627 11:02:44.751691  3669 layer_factory.hpp:77] Creating layer scale2_1
I0627 11:02:44.751701  3669 net.cpp:91] Creating Layer scale2_1
I0627 11:02:44.751708  3669 net.cpp:425] scale2_1 <- conv2_1
I0627 11:02:44.751715  3669 net.cpp:386] scale2_1 -> conv2_1 (in-place)
I0627 11:02:44.751759  3669 layer_factory.hpp:77] Creating layer scale2_1
I0627 11:02:44.751870  3669 net.cpp:141] Setting up scale2_1
I0627 11:02:44.751878  3669 net.cpp:148] Top shape: 64 64 49 64 (12845056)
I0627 11:02:44.751879  3669 net.cpp:156] Memory required for data: 629408512
I0627 11:02:44.751885  3669 layer_factory.hpp:77] Creating layer relu2_1
I0627 11:02:44.751893  3669 net.cpp:91] Creating Layer relu2_1
I0627 11:02:44.751899  3669 net.cpp:425] relu2_1 <- conv2_1
I0627 11:02:44.751905  3669 net.cpp:386] relu2_1 -> conv2_1 (in-place)
I0627 11:02:44.752059  3669 net.cpp:141] Setting up relu2_1
I0627 11:02:44.752069  3669 net.cpp:148] Top shape: 64 64 49 64 (12845056)
I0627 11:02:44.752073  3669 net.cpp:156] Memory required for data: 680788736
I0627 11:02:44.752076  3669 layer_factory.hpp:77] Creating layer pool2
I0627 11:02:44.752082  3669 net.cpp:91] Creating Layer pool2
I0627 11:02:44.752089  3669 net.cpp:425] pool2 <- conv2_1
I0627 11:02:44.752094  3669 net.cpp:399] pool2 -> pool2
I0627 11:02:44.752136  3669 net.cpp:141] Setting up pool2
I0627 11:02:44.752152  3669 net.cpp:148] Top shape: 64 64 25 32 (3276800)
I0627 11:02:44.752154  3669 net.cpp:156] Memory required for data: 693895936
I0627 11:02:44.752158  3669 layer_factory.hpp:77] Creating layer conv3_1
I0627 11:02:44.752169  3669 net.cpp:91] Creating Layer conv3_1
I0627 11:02:44.752174  3669 net.cpp:425] conv3_1 <- pool2
I0627 11:02:44.752182  3669 net.cpp:399] conv3_1 -> conv3_1
I0627 11:02:44.753471  3669 net.cpp:141] Setting up conv3_1
I0627 11:02:44.753482  3669 net.cpp:148] Top shape: 64 128 25 32 (6553600)
I0627 11:02:44.753485  3669 net.cpp:156] Memory required for data: 720110336
I0627 11:02:44.753490  3669 layer_factory.hpp:77] Creating layer bn3_1
I0627 11:02:44.753499  3669 net.cpp:91] Creating Layer bn3_1
I0627 11:02:44.753505  3669 net.cpp:425] bn3_1 <- conv3_1
I0627 11:02:44.753514  3669 net.cpp:386] bn3_1 -> conv3_1 (in-place)
I0627 11:02:44.753662  3669 net.cpp:141] Setting up bn3_1
I0627 11:02:44.753670  3669 net.cpp:148] Top shape: 64 128 25 32 (6553600)
I0627 11:02:44.753672  3669 net.cpp:156] Memory required for data: 746324736
I0627 11:02:44.753681  3669 layer_factory.hpp:77] Creating layer scale3_1
I0627 11:02:44.753690  3669 net.cpp:91] Creating Layer scale3_1
I0627 11:02:44.753696  3669 net.cpp:425] scale3_1 <- conv3_1
I0627 11:02:44.753703  3669 net.cpp:386] scale3_1 -> conv3_1 (in-place)
I0627 11:02:44.753746  3669 layer_factory.hpp:77] Creating layer scale3_1
I0627 11:02:44.753851  3669 net.cpp:141] Setting up scale3_1
I0627 11:02:44.753859  3669 net.cpp:148] Top shape: 64 128 25 32 (6553600)
I0627 11:02:44.753860  3669 net.cpp:156] Memory required for data: 772539136
I0627 11:02:44.753870  3669 layer_factory.hpp:77] Creating layer relu3_1
I0627 11:02:44.753880  3669 net.cpp:91] Creating Layer relu3_1
I0627 11:02:44.753885  3669 net.cpp:425] relu3_1 <- conv3_1
I0627 11:02:44.753891  3669 net.cpp:386] relu3_1 -> conv3_1 (in-place)
I0627 11:02:44.754042  3669 net.cpp:141] Setting up relu3_1
I0627 11:02:44.754050  3669 net.cpp:148] Top shape: 64 128 25 32 (6553600)
I0627 11:02:44.754052  3669 net.cpp:156] Memory required for data: 798753536
I0627 11:02:44.754056  3669 layer_factory.hpp:77] Creating layer pool3
I0627 11:02:44.754065  3669 net.cpp:91] Creating Layer pool3
I0627 11:02:44.754070  3669 net.cpp:425] pool3 <- conv3_1
I0627 11:02:44.754078  3669 net.cpp:399] pool3 -> pool3
I0627 11:02:44.754120  3669 net.cpp:141] Setting up pool3
I0627 11:02:44.754127  3669 net.cpp:148] Top shape: 64 128 13 16 (1703936)
I0627 11:02:44.754128  3669 net.cpp:156] Memory required for data: 805569280
I0627 11:02:44.754132  3669 layer_factory.hpp:77] Creating layer conv4_1
I0627 11:02:44.754142  3669 net.cpp:91] Creating Layer conv4_1
I0627 11:02:44.754148  3669 net.cpp:425] conv4_1 <- pool3
I0627 11:02:44.754155  3669 net.cpp:399] conv4_1 -> conv4_1
I0627 11:02:44.757865  3669 net.cpp:141] Setting up conv4_1
I0627 11:02:44.757879  3669 net.cpp:148] Top shape: 64 256 13 16 (3407872)
I0627 11:02:44.757882  3669 net.cpp:156] Memory required for data: 819200768
I0627 11:02:44.757887  3669 layer_factory.hpp:77] Creating layer bn4_1
I0627 11:02:44.757895  3669 net.cpp:91] Creating Layer bn4_1
I0627 11:02:44.757899  3669 net.cpp:425] bn4_1 <- conv4_1
I0627 11:02:44.757905  3669 net.cpp:386] bn4_1 -> conv4_1 (in-place)
I0627 11:02:44.758076  3669 net.cpp:141] Setting up bn4_1
I0627 11:02:44.758085  3669 net.cpp:148] Top shape: 64 256 13 16 (3407872)
I0627 11:02:44.758086  3669 net.cpp:156] Memory required for data: 832832256
I0627 11:02:44.758092  3669 layer_factory.hpp:77] Creating layer scale4_1
I0627 11:02:44.758105  3669 net.cpp:91] Creating Layer scale4_1
I0627 11:02:44.758111  3669 net.cpp:425] scale4_1 <- conv4_1
I0627 11:02:44.758117  3669 net.cpp:386] scale4_1 -> conv4_1 (in-place)
I0627 11:02:44.758159  3669 layer_factory.hpp:77] Creating layer scale4_1
I0627 11:02:44.758262  3669 net.cpp:141] Setting up scale4_1
I0627 11:02:44.758270  3669 net.cpp:148] Top shape: 64 256 13 16 (3407872)
I0627 11:02:44.758272  3669 net.cpp:156] Memory required for data: 846463744
I0627 11:02:44.758286  3669 layer_factory.hpp:77] Creating layer relu4_1
I0627 11:02:44.758294  3669 net.cpp:91] Creating Layer relu4_1
I0627 11:02:44.758299  3669 net.cpp:425] relu4_1 <- conv4_1
I0627 11:02:44.758304  3669 net.cpp:386] relu4_1 -> conv4_1 (in-place)
I0627 11:02:44.758455  3669 net.cpp:141] Setting up relu4_1
I0627 11:02:44.758463  3669 net.cpp:148] Top shape: 64 256 13 16 (3407872)
I0627 11:02:44.758466  3669 net.cpp:156] Memory required for data: 860095232
I0627 11:02:44.758469  3669 layer_factory.hpp:77] Creating layer pool4
I0627 11:02:44.758476  3669 net.cpp:91] Creating Layer pool4
I0627 11:02:44.758481  3669 net.cpp:425] pool4 <- conv4_1
I0627 11:02:44.758488  3669 net.cpp:399] pool4 -> pool4
I0627 11:02:44.758533  3669 net.cpp:141] Setting up pool4
I0627 11:02:44.758540  3669 net.cpp:148] Top shape: 64 256 7 8 (917504)
I0627 11:02:44.758543  3669 net.cpp:156] Memory required for data: 863765248
I0627 11:02:44.758544  3669 layer_factory.hpp:77] Creating layer conv5_1
I0627 11:02:44.758555  3669 net.cpp:91] Creating Layer conv5_1
I0627 11:02:44.758563  3669 net.cpp:425] conv5_1 <- pool4
I0627 11:02:44.758569  3669 net.cpp:399] conv5_1 -> conv5_1
I0627 11:02:44.764156  3669 net.cpp:141] Setting up conv5_1
I0627 11:02:44.764173  3669 net.cpp:148] Top shape: 64 256 7 8 (917504)
I0627 11:02:44.764176  3669 net.cpp:156] Memory required for data: 867435264
I0627 11:02:44.764183  3669 layer_factory.hpp:77] Creating layer bn5_1
I0627 11:02:44.764191  3669 net.cpp:91] Creating Layer bn5_1
I0627 11:02:44.764194  3669 net.cpp:425] bn5_1 <- conv5_1
I0627 11:02:44.764199  3669 net.cpp:386] bn5_1 -> conv5_1 (in-place)
I0627 11:02:44.764371  3669 net.cpp:141] Setting up bn5_1
I0627 11:02:44.764379  3669 net.cpp:148] Top shape: 64 256 7 8 (917504)
I0627 11:02:44.764381  3669 net.cpp:156] Memory required for data: 871105280
I0627 11:02:44.764389  3669 layer_factory.hpp:77] Creating layer scale5_1
I0627 11:02:44.764400  3669 net.cpp:91] Creating Layer scale5_1
I0627 11:02:44.764405  3669 net.cpp:425] scale5_1 <- conv5_1
I0627 11:02:44.764410  3669 net.cpp:386] scale5_1 -> conv5_1 (in-place)
I0627 11:02:44.764453  3669 layer_factory.hpp:77] Creating layer scale5_1
I0627 11:02:44.764562  3669 net.cpp:141] Setting up scale5_1
I0627 11:02:44.764569  3669 net.cpp:148] Top shape: 64 256 7 8 (917504)
I0627 11:02:44.764571  3669 net.cpp:156] Memory required for data: 874775296
I0627 11:02:44.764576  3669 layer_factory.hpp:77] Creating layer relu5_1
I0627 11:02:44.764585  3669 net.cpp:91] Creating Layer relu5_1
I0627 11:02:44.764591  3669 net.cpp:425] relu5_1 <- conv5_1
I0627 11:02:44.764596  3669 net.cpp:386] relu5_1 -> conv5_1 (in-place)
I0627 11:02:44.764760  3669 net.cpp:141] Setting up relu5_1
I0627 11:02:44.764768  3669 net.cpp:148] Top shape: 64 256 7 8 (917504)
I0627 11:02:44.764770  3669 net.cpp:156] Memory required for data: 878445312
I0627 11:02:44.764775  3669 layer_factory.hpp:77] Creating layer pool5
I0627 11:02:44.764782  3669 net.cpp:91] Creating Layer pool5
I0627 11:02:44.764788  3669 net.cpp:425] pool5 <- conv5_1
I0627 11:02:44.764796  3669 net.cpp:399] pool5 -> pool5
I0627 11:02:44.765244  3669 net.cpp:141] Setting up pool5
I0627 11:02:44.765256  3669 net.cpp:148] Top shape: 64 256 2 1 (32768)
I0627 11:02:44.765260  3669 net.cpp:156] Memory required for data: 878576384
I0627 11:02:44.765265  3669 layer_factory.hpp:77] Creating layer fc2
I0627 11:02:44.765274  3669 net.cpp:91] Creating Layer fc2
I0627 11:02:44.765280  3669 net.cpp:425] fc2 <- pool5
I0627 11:02:44.765286  3669 net.cpp:399] fc2 -> fc2
I0627 11:02:44.765390  3669 net.cpp:141] Setting up fc2
I0627 11:02:44.765398  3669 net.cpp:148] Top shape: 64 2 (128)
I0627 11:02:44.765399  3669 net.cpp:156] Memory required for data: 878576896
I0627 11:02:44.765405  3669 layer_factory.hpp:77] Creating layer fc2_fc2_0_split
I0627 11:02:44.765413  3669 net.cpp:91] Creating Layer fc2_fc2_0_split
I0627 11:02:44.765419  3669 net.cpp:425] fc2_fc2_0_split <- fc2
I0627 11:02:44.765425  3669 net.cpp:399] fc2_fc2_0_split -> fc2_fc2_0_split_0
I0627 11:02:44.765432  3669 net.cpp:399] fc2_fc2_0_split -> fc2_fc2_0_split_1
I0627 11:02:44.765491  3669 net.cpp:141] Setting up fc2_fc2_0_split
I0627 11:02:44.765498  3669 net.cpp:148] Top shape: 64 2 (128)
I0627 11:02:44.765502  3669 net.cpp:148] Top shape: 64 2 (128)
I0627 11:02:44.765506  3669 net.cpp:156] Memory required for data: 878577920
I0627 11:02:44.765509  3669 layer_factory.hpp:77] Creating layer loss
I0627 11:02:44.765516  3669 net.cpp:91] Creating Layer loss
I0627 11:02:44.765522  3669 net.cpp:425] loss <- fc2_fc2_0_split_0
I0627 11:02:44.765527  3669 net.cpp:425] loss <- label_data_1_split_0
I0627 11:02:44.765532  3669 net.cpp:399] loss -> loss
…
