…
I0624 12:23:13.532145 17113 net.cpp:313] The NetState phase (0) differed from the phase (1) specified by a rule in layer data
I0624 12:23:13.532594 17113 net.cpp:49] Initializing net from parameters: 
name: "segnet"
state {
  phase: TRAIN
}
layer {
  name: "data"
  type: "DenseImageData"
  top: "data"
  top: "label"
  include {
    phase: TRAIN
  }
  transform_param {
    crop_size: 224
    mean_value: 100
  }
  dense_image_data_param {
    source: "data/train.txt"
    batch_size: 32
    shuffle: true
    new_height: 224
    new_width: 310
    is_color: false
    root_folder: "data/raw/train/"
  }
}
layer {
  name: "conv1_1"
  type: "Convolution"
  bottom: "data"
  top: "conv1_1"
  param {
    lr_mult: 1
    decay_mult: 1
  }
  convolution_param {
    num_output: 32
    bias_term: false
    pad: 1
    kernel_size: 3
    weight_filler {
      type: "xavier"
    }
  }
}
layer {
  name: "bn1_1"
  type: "BatchNorm"
  bottom: "conv1_1"
  top: "conv1_1"
  param {
    lr_mult: 0
  }
  param {
    lr_mult: 0
  }
  param {
    lr_mult: 0
  }
  batch_norm_param {
    use_global_stats: false
  }
}
layer {
  name: "scale1_1"
  type: "Scale"
  bottom: "conv1_1"
  top: "conv1_1"
  param {
    lr_mult: 1
    decay_mult: 1
  }
  param {
    lr_mult: 1
    decay_mult: 1
  }
  scale_param {
    bias_term: true
    bias_filler {
      type: "constant"
      value: 0
    }
  }
}
layer {
  name: "relu1_1"
  type: "ReLU"
  bottom: "conv1_1"
  top: "conv1_1"
}
layer {
  name: "conv1_2"
  type: "Convolution"
  bottom: "conv1_1"
  top: "conv1_2"
  param {
    lr_mult: 1
    decay_mult: 1
  }
  convolution_param {
    num_output: 32
    bias_term: false
    pad: 1
    kernel_size: 3
    weight_filler {
      type: "xavier"
    }
  }
}
layer {
  name: "bn1_2"
  type: "BatchNorm"
  bottom: "conv1_2"
  top: "conv1_2"
  param {
    lr_mult: 0
  }
  param {
    lr_mult: 0
  }
  param {
    lr_mult: 0
  }
  batch_norm_param {
    use_global_stats: false
  }
}
layer {
  name: "scale1_2"
  type: "Scale"
  bottom: "conv1_2"
  top: "conv1_2"
  param {
    lr_mult: 1
    decay_mult: 1
  }
  param {
    lr_mult: 1
    decay_mult: 1
  }
  scale_param {
    bias_term: true
    bias_filler {
      type: "constant"
      value: 0
    }
  }
}
layer {
  name: "relu1_2"
  type: "ReLU"
  bottom: "conv1_2"
  top: "conv1_2"
}
layer {
  name: "pool1"
  type: "Pooling"
  bottom: "conv1_2"
  top: "pool1"
  top: "pool1_mask"
  pooling_param {
    pool: MAX
    kernel_size: 2
    stride: 2
  }
}
layer {
  name: "conv2_1"
  type: "Convolution"
  bottom: "pool1"
  top: "conv2_1"
  param {
    lr_mult: 1
    decay_mult: 1
  }
  convolution_param {
    num_output: 64
    bias_term: false
    pad: 1
    kernel_size: 3
    weight_filler {
      type: "xavier"
    }
  }
}
layer {
  name: "bn2_1"
  type: "BatchNorm"
  bottom: "conv2_1"
  top: "conv2_1"
  param {
    lr_mult: 0
  }
  param {
    lr_mult: 0
  }
  param {
    lr_mult: 0
  }
  batch_norm_param {
    use_global_stats: false
  }
}
layer {
  name: "scale2_1"
  type: "Scale"
  bottom: "conv2_1"
  top: "conv2_1"
  param {
    lr_mult: 1
    decay_mult: 1
  }
  param {
    lr_mult: 1
    decay_mult: 1
  }
  scale_param {
    bias_term: true
    bias_filler {
      type: "constant"
      value: 0
    }
  }
}
layer {
  name: "relu2_1"
  type: "ReLU"
  bottom: "conv2_1"
  top: "conv2_1"
}
layer {
  name: "conv2_2"
  type: "Convolution"
  bottom: "conv2_1"
  top: "conv2_2"
  param {
    lr_mult: 1
    decay_mult: 1
  }
  convolution_param {
    num_output: 64
    bias_term: false
    pad: 1
    kernel_size: 3
    weight_filler {
      type: "xavier"
    }
  }
}
layer {
  name: "bn2_2"
  type: "BatchNorm"
  bottom: "conv2_2"
  top: "conv2_2"
  param {
    lr_mult: 0
  }
  param {
    lr_mult: 0
  }
  param {
    lr_mult: 0
  }
  batch_norm_param {
    use_global_stats: false
  }
}
layer {
  name: "scale2_2"
  type: "Scale"
  bottom: "conv2_2"
  top: "conv2_2"
  param {
    lr_mult: 1
    decay_mult: 1
  }
  param {
    lr_mult: 1
    decay_mult: 1
  }
  scale_param {
    bias_term: true
    bias_filler {
      type: "constant"
      value: 0
    }
  }
}
layer {
  name: "relu2_2"
  type: "ReLU"
  bottom: "conv2_2"
  top: "conv2_2"
}
layer {
  name: "pool2"
  type: "Pooling"
  bottom: "conv2_2"
  top: "pool2"
  top: "pool2_mask"
  pooling_param {
    pool: MAX
    kernel_size: 2
    stride: 2
  }
}
layer {
  name: "conv3_1"
  type: "Convolution"
  bottom: "pool2"
  top: "conv3_1"
  param {
    lr_mult: 1
    decay_mult: 1
  }
  convolution_param {
    num_output: 128
    bias_term: false
    pad: 1
    kernel_size: 3
    weight_filler {
      type: "xavier"
    }
  }
}
layer {
  name: "bn3_1"
  type: "BatchNorm"
  bottom: "conv3_1"
  top: "conv3_1"
  param {
    lr_mult: 0
  }
  param {
    lr_mult: 0
  }
  param {
    lr_mult: 0
  }
  batch_norm_param {
    use_global_stats: false
  }
}
layer {
  name: "scale3_1"
  type: "Scale"
  bottom: "conv3_1"
  top: "conv3_1"
  param {
    lr_mult: 1
    decay_mult: 1
  }
  param {
    lr_mult: 1
    decay_mult: 1
  }
  scale_param {
    bias_term: true
    bias_filler {
      type: "constant"
      value: 0
    }
  }
}
layer {
  name: "relu3_1"
  type: "ReLU"
  bottom: "conv3_1"
  top: "conv3_1"
}
layer {
  name: "conv3_2"
  type: "Convolution"
  bottom: "conv3_1"
  top: "conv3_2"
  param {
    lr_mult: 1
    decay_mult: 1
  }
  convolution_param {
    num_output: 128
    bias_term: false
    pad: 1
    kernel_size: 3
    weight_filler {
      type: "xavier"
    }
  }
}
layer {
  name: "bn3_2"
  type: "BatchNorm"
  bottom: "conv3_2"
  top: "conv3_2"
  param {
    lr_mult: 0
  }
  param {
    lr_mult: 0
  }
  param {
    lr_mult: 0
  }
  batch_norm_param {
    use_global_stats: false
  }
}
layer {
  name: "scale3_2"
  type: "Scale"
  bottom: "conv3_2"
  top: "conv3_2"
  param {
    lr_mult: 1
    decay_mult: 1
  }
  param {
    lr_mult: 1
    decay_mult: 1
  }
  scale_param {
    bias_term: true
    bias_filler {
      type: "constant"
      value: 0
    }
  }
}
layer {
  name: "relu3_2"
  type: "ReLU"
  bottom: "conv3_2"
  top: "conv3_2"
}
layer {
  name: "pool3"
  type: "Pooling"
  bottom: "conv3_2"
  top: "pool3"
  top: "pool3_mask"
  pooling_param {
    pool: MAX
    kernel_size: 2
    stride: 2
  }
}
layer {
  name: "conv4_1"
  type: "Convolution"
  bottom: "pool3"
  top: "conv4_1"
  param {
    lr_mult: 1
    decay_mult: 1
  }
  convolution_param {
    num_output: 256
    bias_term: false
    pad: 1
    kernel_size: 3
    weight_filler {
      type: "xavier"
    }
  }
}
layer {
  name: "bn4_1"
  type: "BatchNorm"
  bottom: "conv4_1"
  top: "conv4_1"
  param {
    lr_mult: 0
  }
  param {
    lr_mult: 0
  }
  param {
    lr_mult: 0
  }
  batch_norm_param {
    use_global_stats: false
  }
}
layer {
  name: "scale4_1"
  type: "Scale"
  bottom: "conv4_1"
  top: "conv4_1"
  param {
    lr_mult: 1
    decay_mult: 1
  }
  param {
    lr_mult: 1
    decay_mult: 1
  }
  scale_param {
    bias_term: true
    bias_filler {
      type: "constant"
      value: 0
    }
  }
}
layer {
  name: "relu4_1"
  type: "ReLU"
  bottom: "conv4_1"
  top: "conv4_1"
}
layer {
  name: "conv4_2"
  type: "Convolution"
  bottom: "conv4_1"
  top: "conv4_2"
  param {
    lr_mult: 1
    decay_mult: 1
  }
  convolution_param {
    num_output: 256
    bias_term: false
    pad: 1
    kernel_size: 3
    weight_filler {
      type: "xavier"
    }
  }
}
layer {
  name: "bn4_2"
  type: "BatchNorm"
  bottom: "conv4_2"
  top: "conv4_2"
  param {
    lr_mult: 0
  }
  param {
    lr_mult: 0
  }
  param {
    lr_mult: 0
  }
  batch_norm_param {
    use_global_stats: false
  }
}
layer {
  name: "scale4_2"
  type: "Scale"
  bottom: "conv4_2"
  top: "conv4_2"
  param {
    lr_mult: 1
    decay_mult: 1
  }
  param {
    lr_mult: 1
    decay_mult: 1
  }
  scale_param {
    bias_term: true
    bias_filler {
      type: "constant"
      value: 0
    }
  }
}
layer {
  name: "relu4_2"
  type: "ReLU"
  bottom: "conv4_2"
  top: "conv4_2"
}
layer {
  name: "pool4"
  type: "Pooling"
  bottom: "conv4_2"
  top: "pool4"
  top: "pool4_mask"
  pooling_param {
    pool: MAX
    kernel_size: 2
    stride: 2
  }
}
layer {
  name: "conv5_1"
  type: "Convolution"
  bottom: "pool4"
  top: "conv5_1"
  param {
    lr_mult: 1
    decay_mult: 1
  }
  convolution_param {
    num_output: 256
    bias_term: false
    pad: 1
    kernel_size: 3
    weight_filler {
      type: "xavier"
    }
  }
}
layer {
  name: "bn5_1"
  type: "BatchNorm"
  bottom: "conv5_1"
  top: "conv5_1"
  param {
    lr_mult: 0
  }
  param {
    lr_mult: 0
  }
  param {
    lr_mult: 0
  }
  batch_norm_param {
    use_global_stats: false
  }
}
layer {
  name: "scale5_1"
  type: "Scale"
  bottom: "conv5_1"
  top: "conv5_1"
  param {
    lr_mult: 1
    decay_mult: 1
  }
  param {
    lr_mult: 1
    decay_mult: 1
  }
  scale_param {
    bias_term: true
    bias_filler {
      type: "constant"
      value: 0
    }
  }
}
layer {
  name: "relu5_1"
  type: "ReLU"
  bottom: "conv5_1"
  top: "conv5_1"
}
layer {
  name: "conv5_2"
  type: "Convolution"
  bottom: "conv5_1"
  top: "conv5_2"
  param {
    lr_mult: 1
    decay_mult: 1
  }
  convolution_param {
    num_output: 256
    bias_term: false
    pad: 1
    kernel_size: 3
    weight_filler {
      type: "xavier"
    }
  }
}
layer {
  name: "bn5_2"
  type: "BatchNorm"
  bottom: "conv5_2"
  top: "conv5_2"
  param {
    lr_mult: 0
  }
  param {
    lr_mult: 0
  }
  param {
    lr_mult: 0
  }
  batch_norm_param {
    use_global_stats: false
  }
}
layer {
  name: "scale5_2"
  type: "Scale"
  bottom: "conv5_2"
  top: "conv5_2"
  param {
    lr_mult: 1
    decay_mult: 1
  }
  param {
    lr_mult: 1
    decay_mult: 1
  }
  scale_param {
    bias_term: true
    bias_filler {
      type: "constant"
      value: 0
    }
  }
}
layer {
  name: "relu5_2"
  type: "ReLU"
  bottom: "conv5_2"
  top: "conv5_2"
}
layer {
  name: "pool5"
  type: "Pooling"
  bottom: "conv5_2"
  top: "pool5"
  top: "pool5_mask"
  pooling_param {
    pool: MAX
    kernel_size: 2
    stride: 2
  }
}
layer {
  name: "upsample5"
  type: "Upsample"
  bottom: "pool5"
  bottom: "pool5_mask"
  top: "pool5_D"
  upsample_param {
    scale: 2
    upsample_h: 14
    upsample_w: 14
  }
}
layer {
  name: "conv5_2_D"
  type: "Convolution"
  bottom: "pool5_D"
  top: "conv5_2_D"
  param {
    lr_mult: 1
    decay_mult: 1
  }
  convolution_param {
    num_output: 256
    bias_term: false
    pad: 1
    kernel_size: 3
    weight_filler {
      type: "xavier"
    }
  }
}
layer {
  name: "bn5_2_D"
  type: "BatchNorm"
  bottom: "conv5_2_D"
  top: "conv5_2_D"
  param {
    lr_mult: 0
  }
  param {
    lr_mult: 0
  }
  param {
    lr_mult: 0
  }
  batch_norm_param {
    use_global_stats: false
  }
}
layer {
  name: "scale5_2_D"
  type: "Scale"
  bottom: "conv5_2_D"
  top: "conv5_2_D"
  param {
    lr_mult: 1
    decay_mult: 1
  }
  param {
    lr_mult: 1
    decay_mult: 1
  }
  scale_param {
    bias_term: true
    bias_filler {
      type: "constant"
      value: 0
    }
  }
}
layer {
  name: "relu5_2_D"
  type: "ReLU"
  bottom: "conv5_2_D"
  top: "conv5_2_D"
}
layer {
  name: "conv5_1_D"
  type: "Convolution"
  bottom: "conv5_2_D"
  top: "conv5_1_D"
  param {
    lr_mult: 1
    decay_mult: 1
  }
  convolution_param {
    num_output: 256
    bias_term: false
    pad: 1
    kernel_size: 3
    weight_filler {
      type: "xavier"
    }
  }
}
layer {
  name: "bn5_1_D"
  type: "BatchNorm"
  bottom: "conv5_1_D"
  top: "conv5_1_D"
  param {
    lr_mult: 0
  }
  param {
    lr_mult: 0
  }
  param {
    lr_mult: 0
  }
  batch_norm_param {
    use_global_stats: false
  }
}
layer {
  name: "scale5_1_D"
  type: "Scale"
  bottom: "conv5_1_D"
  top: "conv5_1_D"
  param {
    lr_mult: 1
    decay_mult: 1
  }
  param {
    lr_mult: 1
    decay_mult: 1
  }
  scale_param {
    bias_term: true
    bias_filler {
      type: "constant"
      value: 0
    }
  }
}
layer {
  name: "relu5_1_D"
  type: "ReLU"
  bottom: "conv5_1_D"
  top: "conv5_1_D"
}
layer {
  name: "upsample4"
  type: "Upsample"
  bottom: "conv5_1_D"
  bottom: "pool4_mask"
  top: "pool4_D"
  upsample_param {
    scale: 2
    upsample_h: 28
    upsample_w: 28
  }
}
layer {
  name: "conv4_2_D"
  type: "Convolution"
  bottom: "pool4_D"
  top: "conv4_2_D"
  param {
    lr_mult: 1
    decay_mult: 1
  }
  convolution_param {
    num_output: 256
    bias_term: false
    pad: 1
    kernel_size: 3
    weight_filler {
      type: "xavier"
    }
  }
}
layer {
  name: "bn4_2_D"
  type: "BatchNorm"
  bottom: "conv4_2_D"
  top: "conv4_2_D"
  param {
    lr_mult: 0
  }
  param {
    lr_mult: 0
  }
  param {
    lr_mult: 0
  }
  batch_norm_param {
    use_global_stats: false
  }
}
layer {
  name: "scale4_2_D"
  type: "Scale"
  bottom: "conv4_2_D"
  top: "conv4_2_D"
  param {
    lr_mult: 1
    decay_mult: 1
  }
  param {
    lr_mult: 1
    decay_mult: 1
  }
  scale_param {
    bias_term: true
    bias_filler {
      type: "constant"
      value: 0
    }
  }
}
layer {
  name: "relu4_2_D"
  type: "ReLU"
  bottom: "conv4_2_D"
  top: "conv4_2_D"
}
layer {
  name: "conv4_1_D"
  type: "Convolution"
  bottom: "conv4_2_D"
  top: "conv4_1_D"
  param {
    lr_mult: 1
    decay_mult: 1
  }
  convolution_param {
    num_output: 128
    bias_term: false
    pad: 1
    kernel_size: 3
    weight_filler {
      type: "xavier"
    }
  }
}
layer {
  name: "bn4_1_D"
  type: "BatchNorm"
  bottom: "conv4_1_D"
  top: "conv4_1_D"
  param {
    lr_mult: 0
  }
  param {
    lr_mult: 0
  }
  param {
    lr_mult: 0
  }
  batch_norm_param {
    use_global_stats: false
  }
}
layer {
  name: "scale4_1_D"
  type: "Scale"
  bottom: "conv4_1_D"
  top: "conv4_1_D"
  param {
    lr_mult: 1
    decay_mult: 1
  }
  param {
    lr_mult: 1
    decay_mult: 1
  }
  scale_param {
    bias_term: true
    bias_filler {
      type: "constant"
      value: 0
    }
  }
}
layer {
  name: "relu4_1_D"
  type: "ReLU"
  bottom: "conv4_1_D"
  top: "conv4_1_D"
}
layer {
  name: "upsample3"
  type: "Upsample"
  bottom: "conv4_1_D"
  bottom: "pool3_mask"
  top: "pool3_D"
  upsample_param {
    scale: 2
    upsample_h: 56
    upsample_w: 56
  }
}
layer {
  name: "conv3_2_D"
  type: "Convolution"
  bottom: "pool3_D"
  top: "conv3_2_D"
  param {
    lr_mult: 1
    decay_mult: 1
  }
  param {
    lr_mult: 1
    decay_mult: 1
  }
  convolution_param {
    num_output: 128
    pad: 1
    kernel_size: 3
    weight_filler {
      type: "xavier"
    }
    bias_filler {
      type: "constant"
      value: 0
    }
  }
}
layer {
  name: "bn3_2_D"
  type: "BatchNorm"
  bottom: "conv3_2_D"
  top: "conv3_2_D"
  param {
    lr_mult: 0
  }
  param {
    lr_mult: 0
  }
  param {
    lr_mult: 0
  }
  batch_norm_param {
    use_global_stats: false
  }
}
layer {
  name: "scale3_2_D"
  type: "Scale"
  bottom: "conv3_2_D"
  top: "conv3_2_D"
  param {
    lr_mult: 1
    decay_mult: 1
  }
  param {
    lr_mult: 1
    decay_mult: 1
  }
  scale_param {
    bias_term: true
    bias_filler {
      type: "constant"
      value: 0
    }
  }
}
layer {
  name: "relu3_2_D"
  type: "ReLU"
  bottom: "conv3_2_D"
  top: "conv3_2_D"
}
layer {
  name: "conv3_1_D"
  type: "Convolution"
  bottom: "conv3_2_D"
  top: "conv3_1_D"
  param {
    lr_mult: 1
    decay_mult: 1
  }
  convolution_param {
    num_output: 64
    bias_term: false
    pad: 1
    kernel_size: 3
    weight_filler {
      type: "xavier"
    }
  }
}
layer {
  name: "bn3_1_D"
  type: "BatchNorm"
  bottom: "conv3_1_D"
  top: "conv3_1_D"
  param {
    lr_mult: 0
  }
  param {
    lr_mult: 0
  }
  param {
    lr_mult: 0
  }
  batch_norm_param {
    use_global_stats: false
  }
}
layer {
  name: "scale3_1_D"
  type: "Scale"
  bottom: "conv3_1_D"
  top: "conv3_1_D"
  param {
    lr_mult: 1
    decay_mult: 1
  }
  param {
    lr_mult: 1
    decay_mult: 1
  }
  scale_param {
    bias_term: true
    bias_filler {
      type: "constant"
      value: 0
    }
  }
}
layer {
  name: "relu3_1_D"
  type: "ReLU"
  bottom: "conv3_1_D"
  top: "conv3_1_D"
}
layer {
  name: "upsample2"
  type: "Upsample"
  bottom: "conv3_1_D"
  bottom: "pool2_mask"
  top: "pool2_D"
  upsample_param {
    scale: 2
    upsample_h: 112
    upsample_w: 112
  }
}
layer {
  name: "conv2_2_D"
  type: "Convolution"
  bottom: "pool2_D"
  top: "conv2_2_D"
  param {
    lr_mult: 1
    decay_mult: 1
  }
  convolution_param {
    num_output: 64
    bias_term: false
    pad: 1
    kernel_size: 3
    weight_filler {
      type: "xavier"
    }
  }
}
layer {
  name: "bn2_2_D"
  type: "BatchNorm"
  bottom: "conv2_2_D"
  top: "conv2_2_D"
  param {
    lr_mult: 0
  }
  param {
    lr_mult: 0
  }
  param {
    lr_mult: 0
  }
  batch_norm_param {
    use_global_stats: false
  }
}
layer {
  name: "scale2_2_D"
  type: "Scale"
  bottom: "conv2_2_D"
  top: "conv2_2_D"
  param {
    lr_mult: 1
    decay_mult: 1
  }
  param {
    lr_mult: 1
    decay_mult: 1
  }
  scale_param {
    bias_term: true
    bias_filler {
      type: "constant"
      value: 0
    }
  }
}
layer {
  name: "relu2_2_D"
  type: "ReLU"
  bottom: "conv2_2_D"
  top: "conv2_2_D"
}
layer {
  name: "conv2_1_D"
  type: "Convolution"
  bottom: "conv2_2_D"
  top: "conv2_1_D"
  param {
    lr_mult: 1
    decay_mult: 1
  }
  convolution_param {
    num_output: 32
    bias_term: false
    pad: 1
    kernel_size: 3
    weight_filler {
      type: "xavier"
    }
  }
}
layer {
  name: "bn2_1_D"
  type: "BatchNorm"
  bottom: "conv2_1_D"
  top: "conv2_1_D"
  param {
    lr_mult: 0
  }
  param {
    lr_mult: 0
  }
  param {
    lr_mult: 0
  }
  batch_norm_param {
    use_global_stats: false
  }
}
layer {
  name: "scale2_1_D"
  type: "Scale"
  bottom: "conv2_1_D"
  top: "conv2_1_D"
  param {
    lr_mult: 1
    decay_mult: 1
  }
  param {
    lr_mult: 1
    decay_mult: 1
  }
  scale_param {
    bias_term: true
    bias_filler {
      type: "constant"
      value: 0
    }
  }
}
layer {
  name: "relu2_1_D"
  type: "ReLU"
  bottom: "conv2_1_D"
  top: "conv2_1_D"
}
layer {
  name: "upsample1"
  type: "Upsample"
  bottom: "conv2_1_D"
  bottom: "pool1_mask"
  top: "pool1_D"
  upsample_param {
    scale: 2
    upsample_h: 224
    upsample_w: 224
  }
}
layer {
  name: "conv1_2_D"
  type: "Convolution"
  bottom: "pool1_D"
  top: "conv1_2_D"
  param {
    lr_mult: 1
    decay_mult: 1
  }
  convolution_param {
    num_output: 32
    bias_term: false
    pad: 1
    kernel_size: 3
    weight_filler {
      type: "xavier"
    }
  }
}
layer {
  name: "bn1_2_D"
  type: "BatchNorm"
  bottom: "conv1_2_D"
  top: "conv1_2_D"
  param {
    lr_mult: 0
  }
  param {
    lr_mult: 0
  }
  param {
    lr_mult: 0
  }
  batch_norm_param {
    use_global_stats: false
  }
}
layer {
  name: "scale1_2_D"
  type: "Scale"
  bottom: "conv1_2_D"
  top: "conv1_2_D"
  param {
    lr_mult: 1
    decay_mult: 1
  }
  param {
    lr_mult: 1
    decay_mult: 1
  }
  scale_param {
    bias_term: true
    bias_filler {
      type: "constant"
      value: 0
    }
  }
}
layer {
  name: "relu1_2_D"
  type: "ReLU"
  bottom: "conv1_2_D"
  top: "conv1_2_D"
}
layer {
  name: "conv1_1_D"
  type: "Convolution"
  bottom: "conv1_2_D"
  top: "conv1_1_D"
  param {
    lr_mult: 1
    decay_mult: 1
  }
  param {
    lr_mult: 0.1
    decay_mult: 1
  }
  convolution_param {
    num_output: 2
    bias_term: true
    pad: 1
    kernel_size: 3
    weight_filler {
      type: "xavier"
    }
    bias_filler {
      type: "constant"
    }
  }
}
layer {
  name: "loss"
  type: "SoftmaxWithLoss"
  bottom: "conv1_1_D"
  bottom: "label"
  top: "loss"
}
layer {
  name: "accuracy"
  type: "Accuracy"
  bottom: "conv1_1_D"
  bottom: "label"
  top: "accuracy"
}
I0624 12:23:13.533007 17113 layer_factory.hpp:77] Creating layer data
I0624 12:23:13.533047 17113 net.cpp:91] Creating Layer data
I0624 12:23:13.533056 17113 net.cpp:399] data -> data
I0624 12:23:13.533083 17113 net.cpp:399] data -> label
I0624 12:23:13.533524 17113 dense_image_data_layer.cpp:38] Opening file data/train.txt
I0624 12:23:13.537318 17113 dense_image_data_layer.cpp:48] Shuffling data
I0624 12:23:13.537824 17113 dense_image_data_layer.cpp:53] A total of 4930 examples.
I0624 12:23:13.782735 17113 dense_image_data_layer.cpp:92] output data size: 1,1,224,224
I0624 12:23:13.784548 17113 net.cpp:141] Setting up data
I0624 12:23:13.784569 17113 net.cpp:148] Top shape: 1 1 224 224 (50176)
I0624 12:23:13.784577 17113 net.cpp:148] Top shape: 1 1 224 224 (50176)
I0624 12:23:13.784581 17113 net.cpp:156] Memory required for data: 401408
I0624 12:23:13.784591 17113 layer_factory.hpp:77] Creating layer label_data_1_split
I0624 12:23:13.784627 17113 net.cpp:91] Creating Layer label_data_1_split
I0624 12:23:13.784636 17113 net.cpp:425] label_data_1_split <- label
I0624 12:23:13.784649 17113 net.cpp:399] label_data_1_split -> label_data_1_split_0
I0624 12:23:13.784662 17113 net.cpp:399] label_data_1_split -> label_data_1_split_1
I0624 12:23:13.784729 17113 net.cpp:141] Setting up label_data_1_split
I0624 12:23:13.784739 17113 net.cpp:148] Top shape: 1 1 224 224 (50176)
I0624 12:23:13.784744 17113 net.cpp:148] Top shape: 1 1 224 224 (50176)
I0624 12:23:13.784747 17113 net.cpp:156] Memory required for data: 802816
I0624 12:23:13.784751 17113 layer_factory.hpp:77] Creating layer conv1_1
I0624 12:23:13.784771 17113 net.cpp:91] Creating Layer conv1_1
I0624 12:23:13.784780 17113 net.cpp:425] conv1_1 <- data
I0624 12:23:13.784790 17113 net.cpp:399] conv1_1 -> conv1_1
I0624 12:23:13.972441 17113 net.cpp:141] Setting up conv1_1
I0624 12:23:13.972467 17113 net.cpp:148] Top shape: 1 32 224 224 (1605632)
I0624 12:23:13.972471 17113 net.cpp:156] Memory required for data: 7225344
I0624 12:23:13.972486 17113 layer_factory.hpp:77] Creating layer bn1_1
I0624 12:23:13.972504 17113 net.cpp:91] Creating Layer bn1_1
I0624 12:23:13.972510 17113 net.cpp:425] bn1_1 <- conv1_1
I0624 12:23:13.972518 17113 net.cpp:386] bn1_1 -> conv1_1 (in-place)
I0624 12:23:13.972721 17113 net.cpp:141] Setting up bn1_1
I0624 12:23:13.972733 17113 net.cpp:148] Top shape: 1 32 224 224 (1605632)
I0624 12:23:13.972735 17113 net.cpp:156] Memory required for data: 13647872
I0624 12:23:13.972750 17113 layer_factory.hpp:77] Creating layer scale1_1
I0624 12:23:13.972765 17113 net.cpp:91] Creating Layer scale1_1
I0624 12:23:13.972774 17113 net.cpp:425] scale1_1 <- conv1_1
I0624 12:23:13.972782 17113 net.cpp:386] scale1_1 -> conv1_1 (in-place)
I0624 12:23:13.972829 17113 layer_factory.hpp:77] Creating layer scale1_1
I0624 12:23:13.973011 17113 net.cpp:141] Setting up scale1_1
I0624 12:23:13.973021 17113 net.cpp:148] Top shape: 1 32 224 224 (1605632)
I0624 12:23:13.973026 17113 net.cpp:156] Memory required for data: 20070400
I0624 12:23:13.973036 17113 layer_factory.hpp:77] Creating layer relu1_1
I0624 12:23:13.973044 17113 net.cpp:91] Creating Layer relu1_1
I0624 12:23:13.973049 17113 net.cpp:425] relu1_1 <- conv1_1
I0624 12:23:13.973057 17113 net.cpp:386] relu1_1 -> conv1_1 (in-place)
I0624 12:23:13.973343 17113 net.cpp:141] Setting up relu1_1
I0624 12:23:13.973356 17113 net.cpp:148] Top shape: 1 32 224 224 (1605632)
I0624 12:23:13.973361 17113 net.cpp:156] Memory required for data: 26492928
I0624 12:23:13.973364 17113 layer_factory.hpp:77] Creating layer conv1_2
I0624 12:23:13.973379 17113 net.cpp:91] Creating Layer conv1_2
I0624 12:23:13.973384 17113 net.cpp:425] conv1_2 <- conv1_1
I0624 12:23:13.973393 17113 net.cpp:399] conv1_2 -> conv1_2
I0624 12:23:13.975051 17113 net.cpp:141] Setting up conv1_2
I0624 12:23:13.975065 17113 net.cpp:148] Top shape: 1 32 224 224 (1605632)
I0624 12:23:13.975069 17113 net.cpp:156] Memory required for data: 32915456
I0624 12:23:13.975077 17113 layer_factory.hpp:77] Creating layer bn1_2
I0624 12:23:13.975085 17113 net.cpp:91] Creating Layer bn1_2
I0624 12:23:13.975090 17113 net.cpp:425] bn1_2 <- conv1_2
I0624 12:23:13.975100 17113 net.cpp:386] bn1_2 -> conv1_2 (in-place)
I0624 12:23:13.975303 17113 net.cpp:141] Setting up bn1_2
I0624 12:23:13.975314 17113 net.cpp:148] Top shape: 1 32 224 224 (1605632)
I0624 12:23:13.975318 17113 net.cpp:156] Memory required for data: 39337984
I0624 12:23:13.975330 17113 layer_factory.hpp:77] Creating layer scale1_2
I0624 12:23:13.975359 17113 net.cpp:91] Creating Layer scale1_2
I0624 12:23:13.975365 17113 net.cpp:425] scale1_2 <- conv1_2
I0624 12:23:13.975373 17113 net.cpp:386] scale1_2 -> conv1_2 (in-place)
I0624 12:23:13.975419 17113 layer_factory.hpp:77] Creating layer scale1_2
I0624 12:23:13.975600 17113 net.cpp:141] Setting up scale1_2
I0624 12:23:13.975610 17113 net.cpp:148] Top shape: 1 32 224 224 (1605632)
I0624 12:23:13.975615 17113 net.cpp:156] Memory required for data: 45760512
I0624 12:23:13.975622 17113 layer_factory.hpp:77] Creating layer relu1_2
I0624 12:23:13.975630 17113 net.cpp:91] Creating Layer relu1_2
I0624 12:23:13.975633 17113 net.cpp:425] relu1_2 <- conv1_2
I0624 12:23:13.975641 17113 net.cpp:386] relu1_2 -> conv1_2 (in-place)
I0624 12:23:13.975791 17113 net.cpp:141] Setting up relu1_2
I0624 12:23:13.975802 17113 net.cpp:148] Top shape: 1 32 224 224 (1605632)
I0624 12:23:13.975806 17113 net.cpp:156] Memory required for data: 52183040
I0624 12:23:13.975811 17113 layer_factory.hpp:77] Creating layer pool1
I0624 12:23:13.975816 17113 layer_factory.cpp:90] cuDNN does not support multiple tops. Using Caffe's own pooling layer.
I0624 12:23:13.975823 17113 net.cpp:91] Creating Layer pool1
I0624 12:23:13.975827 17113 net.cpp:425] pool1 <- conv1_2
I0624 12:23:13.975834 17113 net.cpp:399] pool1 -> pool1
I0624 12:23:13.975844 17113 net.cpp:399] pool1 -> pool1_mask
I0624 12:23:13.975903 17113 net.cpp:141] Setting up pool1
I0624 12:23:13.975913 17113 net.cpp:148] Top shape: 1 32 112 112 (401408)
I0624 12:23:13.975919 17113 net.cpp:148] Top shape: 1 32 112 112 (401408)
I0624 12:23:13.975921 17113 net.cpp:156] Memory required for data: 55394304
I0624 12:23:13.975925 17113 layer_factory.hpp:77] Creating layer conv2_1
I0624 12:23:13.975937 17113 net.cpp:91] Creating Layer conv2_1
I0624 12:23:13.975942 17113 net.cpp:425] conv2_1 <- pool1
I0624 12:23:13.975951 17113 net.cpp:399] conv2_1 -> conv2_1
I0624 12:23:13.977628 17113 net.cpp:141] Setting up conv2_1
I0624 12:23:13.977643 17113 net.cpp:148] Top shape: 1 64 112 112 (802816)
I0624 12:23:13.977648 17113 net.cpp:156] Memory required for data: 58605568
I0624 12:23:13.977653 17113 layer_factory.hpp:77] Creating layer bn2_1
I0624 12:23:13.977665 17113 net.cpp:91] Creating Layer bn2_1
I0624 12:23:13.977670 17113 net.cpp:425] bn2_1 <- conv2_1
I0624 12:23:13.977676 17113 net.cpp:386] bn2_1 -> conv2_1 (in-place)
I0624 12:23:13.977926 17113 net.cpp:141] Setting up bn2_1
I0624 12:23:13.977936 17113 net.cpp:148] Top shape: 1 64 112 112 (802816)
I0624 12:23:13.977941 17113 net.cpp:156] Memory required for data: 61816832
I0624 12:23:13.977951 17113 layer_factory.hpp:77] Creating layer scale2_1
I0624 12:23:13.977962 17113 net.cpp:91] Creating Layer scale2_1
I0624 12:23:13.977967 17113 net.cpp:425] scale2_1 <- conv2_1
I0624 12:23:13.977974 17113 net.cpp:386] scale2_1 -> conv2_1 (in-place)
I0624 12:23:13.978025 17113 layer_factory.hpp:77] Creating layer scale2_1
I0624 12:23:13.978144 17113 net.cpp:141] Setting up scale2_1
I0624 12:23:13.978154 17113 net.cpp:148] Top shape: 1 64 112 112 (802816)
I0624 12:23:13.978158 17113 net.cpp:156] Memory required for data: 65028096
I0624 12:23:13.978171 17113 layer_factory.hpp:77] Creating layer relu2_1
I0624 12:23:13.978181 17113 net.cpp:91] Creating Layer relu2_1
I0624 12:23:13.978185 17113 net.cpp:425] relu2_1 <- conv2_1
I0624 12:23:13.978193 17113 net.cpp:386] relu2_1 -> conv2_1 (in-place)
I0624 12:23:13.978469 17113 net.cpp:141] Setting up relu2_1
I0624 12:23:13.978482 17113 net.cpp:148] Top shape: 1 64 112 112 (802816)
I0624 12:23:13.978487 17113 net.cpp:156] Memory required for data: 68239360
I0624 12:23:13.978490 17113 layer_factory.hpp:77] Creating layer conv2_2
I0624 12:23:13.978503 17113 net.cpp:91] Creating Layer conv2_2
I0624 12:23:13.978508 17113 net.cpp:425] conv2_2 <- conv2_1
I0624 12:23:13.978518 17113 net.cpp:399] conv2_2 -> conv2_2
I0624 12:23:13.979557 17113 net.cpp:141] Setting up conv2_2
I0624 12:23:13.979573 17113 net.cpp:148] Top shape: 1 64 112 112 (802816)
I0624 12:23:13.979578 17113 net.cpp:156] Memory required for data: 71450624
I0624 12:23:13.979595 17113 layer_factory.hpp:77] Creating layer bn2_2
I0624 12:23:13.979607 17113 net.cpp:91] Creating Layer bn2_2
I0624 12:23:13.979611 17113 net.cpp:425] bn2_2 <- conv2_2
I0624 12:23:13.979620 17113 net.cpp:386] bn2_2 -> conv2_2 (in-place)
I0624 12:23:13.979789 17113 net.cpp:141] Setting up bn2_2
I0624 12:23:13.979801 17113 net.cpp:148] Top shape: 1 64 112 112 (802816)
I0624 12:23:13.979805 17113 net.cpp:156] Memory required for data: 74661888
I0624 12:23:13.979816 17113 layer_factory.hpp:77] Creating layer scale2_2
I0624 12:23:13.979826 17113 net.cpp:91] Creating Layer scale2_2
I0624 12:23:13.979830 17113 net.cpp:425] scale2_2 <- conv2_2
I0624 12:23:13.979840 17113 net.cpp:386] scale2_2 -> conv2_2 (in-place)
I0624 12:23:13.979885 17113 layer_factory.hpp:77] Creating layer scale2_2
I0624 12:23:13.980001 17113 net.cpp:141] Setting up scale2_2
I0624 12:23:13.980011 17113 net.cpp:148] Top shape: 1 64 112 112 (802816)
I0624 12:23:13.980015 17113 net.cpp:156] Memory required for data: 77873152
I0624 12:23:13.980023 17113 layer_factory.hpp:77] Creating layer relu2_2
I0624 12:23:13.980031 17113 net.cpp:91] Creating Layer relu2_2
I0624 12:23:13.980034 17113 net.cpp:425] relu2_2 <- conv2_2
I0624 12:23:13.980041 17113 net.cpp:386] relu2_2 -> conv2_2 (in-place)
I0624 12:23:13.980322 17113 net.cpp:141] Setting up relu2_2
I0624 12:23:13.980335 17113 net.cpp:148] Top shape: 1 64 112 112 (802816)
I0624 12:23:13.980340 17113 net.cpp:156] Memory required for data: 81084416
I0624 12:23:13.980345 17113 layer_factory.hpp:77] Creating layer pool2
I0624 12:23:13.980348 17113 layer_factory.cpp:90] cuDNN does not support multiple tops. Using Caffe's own pooling layer.
I0624 12:23:13.980355 17113 net.cpp:91] Creating Layer pool2
I0624 12:23:13.980360 17113 net.cpp:425] pool2 <- conv2_2
I0624 12:23:13.980370 17113 net.cpp:399] pool2 -> pool2
I0624 12:23:13.980378 17113 net.cpp:399] pool2 -> pool2_mask
I0624 12:23:13.980425 17113 net.cpp:141] Setting up pool2
I0624 12:23:13.980434 17113 net.cpp:148] Top shape: 1 64 56 56 (200704)
I0624 12:23:13.980440 17113 net.cpp:148] Top shape: 1 64 56 56 (200704)
I0624 12:23:13.980443 17113 net.cpp:156] Memory required for data: 82690048
I0624 12:23:13.980448 17113 layer_factory.hpp:77] Creating layer conv3_1
I0624 12:23:13.980461 17113 net.cpp:91] Creating Layer conv3_1
I0624 12:23:13.980466 17113 net.cpp:425] conv3_1 <- pool2
I0624 12:23:13.980474 17113 net.cpp:399] conv3_1 -> conv3_1
I0624 12:23:13.982422 17113 net.cpp:141] Setting up conv3_1
I0624 12:23:13.982436 17113 net.cpp:148] Top shape: 1 128 56 56 (401408)
I0624 12:23:13.982440 17113 net.cpp:156] Memory required for data: 84295680
I0624 12:23:13.982447 17113 layer_factory.hpp:77] Creating layer bn3_1
I0624 12:23:13.982457 17113 net.cpp:91] Creating Layer bn3_1
I0624 12:23:13.982463 17113 net.cpp:425] bn3_1 <- conv3_1
I0624 12:23:13.982470 17113 net.cpp:386] bn3_1 -> conv3_1 (in-place)
I0624 12:23:13.983237 17113 net.cpp:141] Setting up bn3_1
I0624 12:23:13.983249 17113 net.cpp:148] Top shape: 1 128 56 56 (401408)
I0624 12:23:13.983253 17113 net.cpp:156] Memory required for data: 85901312
I0624 12:23:13.983263 17113 layer_factory.hpp:77] Creating layer scale3_1
I0624 12:23:13.983273 17113 net.cpp:91] Creating Layer scale3_1
I0624 12:23:13.983278 17113 net.cpp:425] scale3_1 <- conv3_1
I0624 12:23:13.983286 17113 net.cpp:386] scale3_1 -> conv3_1 (in-place)
I0624 12:23:13.983335 17113 layer_factory.hpp:77] Creating layer scale3_1
I0624 12:23:13.983443 17113 net.cpp:141] Setting up scale3_1
I0624 12:23:13.983453 17113 net.cpp:148] Top shape: 1 128 56 56 (401408)
I0624 12:23:13.983458 17113 net.cpp:156] Memory required for data: 87506944
I0624 12:23:13.983465 17113 layer_factory.hpp:77] Creating layer relu3_1
I0624 12:23:13.983472 17113 net.cpp:91] Creating Layer relu3_1
I0624 12:23:13.983476 17113 net.cpp:425] relu3_1 <- conv3_1
I0624 12:23:13.983482 17113 net.cpp:386] relu3_1 -> conv3_1 (in-place)
I0624 12:23:13.983639 17113 net.cpp:141] Setting up relu3_1
I0624 12:23:13.983650 17113 net.cpp:148] Top shape: 1 128 56 56 (401408)
I0624 12:23:13.983666 17113 net.cpp:156] Memory required for data: 89112576
I0624 12:23:13.983671 17113 layer_factory.hpp:77] Creating layer conv3_2
I0624 12:23:13.983686 17113 net.cpp:91] Creating Layer conv3_2
I0624 12:23:13.983692 17113 net.cpp:425] conv3_2 <- conv3_1
I0624 12:23:13.983700 17113 net.cpp:399] conv3_2 -> conv3_2
I0624 12:23:13.985590 17113 net.cpp:141] Setting up conv3_2
I0624 12:23:13.985607 17113 net.cpp:148] Top shape: 1 128 56 56 (401408)
I0624 12:23:13.985611 17113 net.cpp:156] Memory required for data: 90718208
I0624 12:23:13.985616 17113 layer_factory.hpp:77] Creating layer bn3_2
I0624 12:23:13.985621 17113 net.cpp:91] Creating Layer bn3_2
I0624 12:23:13.985625 17113 net.cpp:425] bn3_2 <- conv3_2
I0624 12:23:13.985630 17113 net.cpp:386] bn3_2 -> conv3_2 (in-place)
I0624 12:23:13.985800 17113 net.cpp:141] Setting up bn3_2
I0624 12:23:13.985808 17113 net.cpp:148] Top shape: 1 128 56 56 (401408)
I0624 12:23:13.985810 17113 net.cpp:156] Memory required for data: 92323840
I0624 12:23:13.985821 17113 layer_factory.hpp:77] Creating layer scale3_2
I0624 12:23:13.985828 17113 net.cpp:91] Creating Layer scale3_2
I0624 12:23:13.985836 17113 net.cpp:425] scale3_2 <- conv3_2
I0624 12:23:13.985839 17113 net.cpp:386] scale3_2 -> conv3_2 (in-place)
I0624 12:23:13.985872 17113 layer_factory.hpp:77] Creating layer scale3_2
I0624 12:23:13.985962 17113 net.cpp:141] Setting up scale3_2
I0624 12:23:13.985970 17113 net.cpp:148] Top shape: 1 128 56 56 (401408)
I0624 12:23:13.985972 17113 net.cpp:156] Memory required for data: 93929472
I0624 12:23:13.985976 17113 layer_factory.hpp:77] Creating layer relu3_2
I0624 12:23:13.985983 17113 net.cpp:91] Creating Layer relu3_2
I0624 12:23:13.985986 17113 net.cpp:425] relu3_2 <- conv3_2
I0624 12:23:13.985990 17113 net.cpp:386] relu3_2 -> conv3_2 (in-place)
I0624 12:23:13.986270 17113 net.cpp:141] Setting up relu3_2
I0624 12:23:13.986280 17113 net.cpp:148] Top shape: 1 128 56 56 (401408)
I0624 12:23:13.986284 17113 net.cpp:156] Memory required for data: 95535104
I0624 12:23:13.986285 17113 layer_factory.hpp:77] Creating layer pool3
I0624 12:23:13.986289 17113 layer_factory.cpp:90] cuDNN does not support multiple tops. Using Caffe's own pooling layer.
I0624 12:23:13.986294 17113 net.cpp:91] Creating Layer pool3
I0624 12:23:13.986297 17113 net.cpp:425] pool3 <- conv3_2
I0624 12:23:13.986301 17113 net.cpp:399] pool3 -> pool3
I0624 12:23:13.986307 17113 net.cpp:399] pool3 -> pool3_mask
I0624 12:23:13.986345 17113 net.cpp:141] Setting up pool3
I0624 12:23:13.986351 17113 net.cpp:148] Top shape: 1 128 28 28 (100352)
I0624 12:23:13.986353 17113 net.cpp:148] Top shape: 1 128 28 28 (100352)
I0624 12:23:13.986356 17113 net.cpp:156] Memory required for data: 96337920
I0624 12:23:13.986357 17113 layer_factory.hpp:77] Creating layer conv4_1
I0624 12:23:13.986366 17113 net.cpp:91] Creating Layer conv4_1
I0624 12:23:13.986367 17113 net.cpp:425] conv4_1 <- pool3
I0624 12:23:13.986372 17113 net.cpp:399] conv4_1 -> conv4_1
I0624 12:23:13.989696 17113 net.cpp:141] Setting up conv4_1
I0624 12:23:13.989711 17113 net.cpp:148] Top shape: 1 256 28 28 (200704)
I0624 12:23:13.989713 17113 net.cpp:156] Memory required for data: 97140736
I0624 12:23:13.989718 17113 layer_factory.hpp:77] Creating layer bn4_1
I0624 12:23:13.989725 17113 net.cpp:91] Creating Layer bn4_1
I0624 12:23:13.989728 17113 net.cpp:425] bn4_1 <- conv4_1
I0624 12:23:13.989732 17113 net.cpp:386] bn4_1 -> conv4_1 (in-place)
I0624 12:23:13.989893 17113 net.cpp:141] Setting up bn4_1
I0624 12:23:13.989902 17113 net.cpp:148] Top shape: 1 256 28 28 (200704)
I0624 12:23:13.989903 17113 net.cpp:156] Memory required for data: 97943552
I0624 12:23:13.989909 17113 layer_factory.hpp:77] Creating layer scale4_1
I0624 12:23:13.989915 17113 net.cpp:91] Creating Layer scale4_1
I0624 12:23:13.989918 17113 net.cpp:425] scale4_1 <- conv4_1
I0624 12:23:13.989922 17113 net.cpp:386] scale4_1 -> conv4_1 (in-place)
I0624 12:23:13.989956 17113 layer_factory.hpp:77] Creating layer scale4_1
I0624 12:23:13.990051 17113 net.cpp:141] Setting up scale4_1
I0624 12:23:13.990067 17113 net.cpp:148] Top shape: 1 256 28 28 (200704)
I0624 12:23:13.990070 17113 net.cpp:156] Memory required for data: 98746368
I0624 12:23:13.990074 17113 layer_factory.hpp:77] Creating layer relu4_1
I0624 12:23:13.990083 17113 net.cpp:91] Creating Layer relu4_1
I0624 12:23:13.990088 17113 net.cpp:425] relu4_1 <- conv4_1
I0624 12:23:13.990092 17113 net.cpp:386] relu4_1 -> conv4_1 (in-place)
I0624 12:23:13.990367 17113 net.cpp:141] Setting up relu4_1
I0624 12:23:13.990378 17113 net.cpp:148] Top shape: 1 256 28 28 (200704)
I0624 12:23:13.990381 17113 net.cpp:156] Memory required for data: 99549184
I0624 12:23:13.990384 17113 layer_factory.hpp:77] Creating layer conv4_2
I0624 12:23:13.990397 17113 net.cpp:91] Creating Layer conv4_2
I0624 12:23:13.990401 17113 net.cpp:425] conv4_2 <- conv4_1
I0624 12:23:13.990404 17113 net.cpp:399] conv4_2 -> conv4_2
I0624 12:23:13.995945 17113 net.cpp:141] Setting up conv4_2
I0624 12:23:13.995959 17113 net.cpp:148] Top shape: 1 256 28 28 (200704)
I0624 12:23:13.995961 17113 net.cpp:156] Memory required for data: 100352000
I0624 12:23:13.995965 17113 layer_factory.hpp:77] Creating layer bn4_2
I0624 12:23:13.995972 17113 net.cpp:91] Creating Layer bn4_2
I0624 12:23:13.995975 17113 net.cpp:425] bn4_2 <- conv4_2
I0624 12:23:13.995980 17113 net.cpp:386] bn4_2 -> conv4_2 (in-place)
I0624 12:23:13.996145 17113 net.cpp:141] Setting up bn4_2
I0624 12:23:13.996151 17113 net.cpp:148] Top shape: 1 256 28 28 (200704)
I0624 12:23:13.996155 17113 net.cpp:156] Memory required for data: 101154816
I0624 12:23:13.996160 17113 layer_factory.hpp:77] Creating layer scale4_2
I0624 12:23:13.996165 17113 net.cpp:91] Creating Layer scale4_2
I0624 12:23:13.996167 17113 net.cpp:425] scale4_2 <- conv4_2
I0624 12:23:13.996172 17113 net.cpp:386] scale4_2 -> conv4_2 (in-place)
I0624 12:23:13.996207 17113 layer_factory.hpp:77] Creating layer scale4_2
I0624 12:23:13.996299 17113 net.cpp:141] Setting up scale4_2
I0624 12:23:13.996309 17113 net.cpp:148] Top shape: 1 256 28 28 (200704)
I0624 12:23:13.996311 17113 net.cpp:156] Memory required for data: 101957632
I0624 12:23:13.996315 17113 layer_factory.hpp:77] Creating layer relu4_2
I0624 12:23:13.996320 17113 net.cpp:91] Creating Layer relu4_2
I0624 12:23:13.996322 17113 net.cpp:425] relu4_2 <- conv4_2
I0624 12:23:13.996328 17113 net.cpp:386] relu4_2 -> conv4_2 (in-place)
I0624 12:23:13.996471 17113 net.cpp:141] Setting up relu4_2
I0624 12:23:13.996480 17113 net.cpp:148] Top shape: 1 256 28 28 (200704)
I0624 12:23:13.996482 17113 net.cpp:156] Memory required for data: 102760448
I0624 12:23:13.996485 17113 layer_factory.hpp:77] Creating layer pool4
I0624 12:23:13.996487 17113 layer_factory.cpp:90] cuDNN does not support multiple tops. Using Caffe's own pooling layer.
I0624 12:23:13.996493 17113 net.cpp:91] Creating Layer pool4
I0624 12:23:13.996496 17113 net.cpp:425] pool4 <- conv4_2
I0624 12:23:13.996500 17113 net.cpp:399] pool4 -> pool4
I0624 12:23:13.996505 17113 net.cpp:399] pool4 -> pool4_mask
I0624 12:23:13.996543 17113 net.cpp:141] Setting up pool4
I0624 12:23:13.996549 17113 net.cpp:148] Top shape: 1 256 14 14 (50176)
I0624 12:23:13.996552 17113 net.cpp:148] Top shape: 1 256 14 14 (50176)
I0624 12:23:13.996554 17113 net.cpp:156] Memory required for data: 103161856
I0624 12:23:13.996556 17113 layer_factory.hpp:77] Creating layer conv5_1
I0624 12:23:13.996563 17113 net.cpp:91] Creating Layer conv5_1
I0624 12:23:13.996567 17113 net.cpp:425] conv5_1 <- pool4
I0624 12:23:13.996570 17113 net.cpp:399] conv5_1 -> conv5_1
I0624 12:23:14.002126 17113 net.cpp:141] Setting up conv5_1
I0624 12:23:14.002141 17113 net.cpp:148] Top shape: 1 256 14 14 (50176)
I0624 12:23:14.002145 17113 net.cpp:156] Memory required for data: 103362560
I0624 12:23:14.002148 17113 layer_factory.hpp:77] Creating layer bn5_1
I0624 12:23:14.002156 17113 net.cpp:91] Creating Layer bn5_1
I0624 12:23:14.002158 17113 net.cpp:425] bn5_1 <- conv5_1
I0624 12:23:14.002163 17113 net.cpp:386] bn5_1 -> conv5_1 (in-place)
I0624 12:23:14.002329 17113 net.cpp:141] Setting up bn5_1
I0624 12:23:14.002347 17113 net.cpp:148] Top shape: 1 256 14 14 (50176)
I0624 12:23:14.002349 17113 net.cpp:156] Memory required for data: 103563264
I0624 12:23:14.002356 17113 layer_factory.hpp:77] Creating layer scale5_1
I0624 12:23:14.002362 17113 net.cpp:91] Creating Layer scale5_1
I0624 12:23:14.002364 17113 net.cpp:425] scale5_1 <- conv5_1
I0624 12:23:14.002374 17113 net.cpp:386] scale5_1 -> conv5_1 (in-place)
I0624 12:23:14.002410 17113 layer_factory.hpp:77] Creating layer scale5_1
I0624 12:23:14.002503 17113 net.cpp:141] Setting up scale5_1
I0624 12:23:14.002511 17113 net.cpp:148] Top shape: 1 256 14 14 (50176)
I0624 12:23:14.002513 17113 net.cpp:156] Memory required for data: 103763968
I0624 12:23:14.002517 17113 layer_factory.hpp:77] Creating layer relu5_1
I0624 12:23:14.002521 17113 net.cpp:91] Creating Layer relu5_1
I0624 12:23:14.002524 17113 net.cpp:425] relu5_1 <- conv5_1
I0624 12:23:14.002527 17113 net.cpp:386] relu5_1 -> conv5_1 (in-place)
I0624 12:23:14.002801 17113 net.cpp:141] Setting up relu5_1
I0624 12:23:14.002812 17113 net.cpp:148] Top shape: 1 256 14 14 (50176)
I0624 12:23:14.002815 17113 net.cpp:156] Memory required for data: 103964672
I0624 12:23:14.002818 17113 layer_factory.hpp:77] Creating layer conv5_2
I0624 12:23:14.002826 17113 net.cpp:91] Creating Layer conv5_2
I0624 12:23:14.002830 17113 net.cpp:425] conv5_2 <- conv5_1
I0624 12:23:14.002835 17113 net.cpp:399] conv5_2 -> conv5_2
I0624 12:23:14.008262 17113 net.cpp:141] Setting up conv5_2
I0624 12:23:14.008275 17113 net.cpp:148] Top shape: 1 256 14 14 (50176)
I0624 12:23:14.008278 17113 net.cpp:156] Memory required for data: 104165376
I0624 12:23:14.008282 17113 layer_factory.hpp:77] Creating layer bn5_2
I0624 12:23:14.008290 17113 net.cpp:91] Creating Layer bn5_2
I0624 12:23:14.008292 17113 net.cpp:425] bn5_2 <- conv5_2
I0624 12:23:14.008296 17113 net.cpp:386] bn5_2 -> conv5_2 (in-place)
I0624 12:23:14.008465 17113 net.cpp:141] Setting up bn5_2
I0624 12:23:14.008472 17113 net.cpp:148] Top shape: 1 256 14 14 (50176)
I0624 12:23:14.008474 17113 net.cpp:156] Memory required for data: 104366080
I0624 12:23:14.008479 17113 layer_factory.hpp:77] Creating layer scale5_2
I0624 12:23:14.008487 17113 net.cpp:91] Creating Layer scale5_2
I0624 12:23:14.008489 17113 net.cpp:425] scale5_2 <- conv5_2
I0624 12:23:14.008493 17113 net.cpp:386] scale5_2 -> conv5_2 (in-place)
I0624 12:23:14.008527 17113 layer_factory.hpp:77] Creating layer scale5_2
I0624 12:23:14.008618 17113 net.cpp:141] Setting up scale5_2
I0624 12:23:14.008625 17113 net.cpp:148] Top shape: 1 256 14 14 (50176)
I0624 12:23:14.008627 17113 net.cpp:156] Memory required for data: 104566784
I0624 12:23:14.008631 17113 layer_factory.hpp:77] Creating layer relu5_2
I0624 12:23:14.008637 17113 net.cpp:91] Creating Layer relu5_2
I0624 12:23:14.008640 17113 net.cpp:425] relu5_2 <- conv5_2
I0624 12:23:14.008642 17113 net.cpp:386] relu5_2 -> conv5_2 (in-place)
I0624 12:23:14.008919 17113 net.cpp:141] Setting up relu5_2
I0624 12:23:14.008929 17113 net.cpp:148] Top shape: 1 256 14 14 (50176)
I0624 12:23:14.008931 17113 net.cpp:156] Memory required for data: 104767488
I0624 12:23:14.008934 17113 layer_factory.hpp:77] Creating layer pool5
I0624 12:23:14.008937 17113 layer_factory.cpp:90] cuDNN does not support multiple tops. Using Caffe's own pooling layer.
I0624 12:23:14.008942 17113 net.cpp:91] Creating Layer pool5
I0624 12:23:14.008945 17113 net.cpp:425] pool5 <- conv5_2
I0624 12:23:14.008951 17113 net.cpp:399] pool5 -> pool5
I0624 12:23:14.008956 17113 net.cpp:399] pool5 -> pool5_mask
I0624 12:23:14.008997 17113 net.cpp:141] Setting up pool5
I0624 12:23:14.009003 17113 net.cpp:148] Top shape: 1 256 7 7 (12544)
I0624 12:23:14.009006 17113 net.cpp:148] Top shape: 1 256 7 7 (12544)
I0624 12:23:14.009008 17113 net.cpp:156] Memory required for data: 104867840
I0624 12:23:14.009011 17113 layer_factory.hpp:77] Creating layer upsample5
I0624 12:23:14.009017 17113 net.cpp:91] Creating Layer upsample5
I0624 12:23:14.009019 17113 net.cpp:425] upsample5 <- pool5
I0624 12:23:14.009022 17113 net.cpp:425] upsample5 <- pool5_mask
I0624 12:23:14.009037 17113 net.cpp:399] upsample5 -> pool5_D
I0624 12:23:14.009069 17113 net.cpp:141] Setting up upsample5
I0624 12:23:14.009076 17113 net.cpp:148] Top shape: 1 256 14 14 (50176)
I0624 12:23:14.009078 17113 net.cpp:156] Memory required for data: 105068544
I0624 12:23:14.009080 17113 layer_factory.hpp:77] Creating layer conv5_2_D
I0624 12:23:14.009088 17113 net.cpp:91] Creating Layer conv5_2_D
I0624 12:23:14.009090 17113 net.cpp:425] conv5_2_D <- pool5_D
I0624 12:23:14.009094 17113 net.cpp:399] conv5_2_D -> conv5_2_D
I0624 12:23:14.014504 17113 net.cpp:141] Setting up conv5_2_D
I0624 12:23:14.014518 17113 net.cpp:148] Top shape: 1 256 14 14 (50176)
I0624 12:23:14.014519 17113 net.cpp:156] Memory required for data: 105269248
I0624 12:23:14.014524 17113 layer_factory.hpp:77] Creating layer bn5_2_D
I0624 12:23:14.014531 17113 net.cpp:91] Creating Layer bn5_2_D
I0624 12:23:14.014534 17113 net.cpp:425] bn5_2_D <- conv5_2_D
I0624 12:23:14.014539 17113 net.cpp:386] bn5_2_D -> conv5_2_D (in-place)
I0624 12:23:14.014706 17113 net.cpp:141] Setting up bn5_2_D
I0624 12:23:14.014714 17113 net.cpp:148] Top shape: 1 256 14 14 (50176)
I0624 12:23:14.014716 17113 net.cpp:156] Memory required for data: 105469952
I0624 12:23:14.014721 17113 layer_factory.hpp:77] Creating layer scale5_2_D
I0624 12:23:14.014727 17113 net.cpp:91] Creating Layer scale5_2_D
I0624 12:23:14.014730 17113 net.cpp:425] scale5_2_D <- conv5_2_D
I0624 12:23:14.014734 17113 net.cpp:386] scale5_2_D -> conv5_2_D (in-place)
I0624 12:23:14.014768 17113 layer_factory.hpp:77] Creating layer scale5_2_D
I0624 12:23:14.014873 17113 net.cpp:141] Setting up scale5_2_D
I0624 12:23:14.014880 17113 net.cpp:148] Top shape: 1 256 14 14 (50176)
I0624 12:23:14.014883 17113 net.cpp:156] Memory required for data: 105670656
I0624 12:23:14.014899 17113 layer_factory.hpp:77] Creating layer relu5_2_D
I0624 12:23:14.014906 17113 net.cpp:91] Creating Layer relu5_2_D
I0624 12:23:14.014909 17113 net.cpp:425] relu5_2_D <- conv5_2_D
I0624 12:23:14.014912 17113 net.cpp:386] relu5_2_D -> conv5_2_D (in-place)
I0624 12:23:14.015341 17113 net.cpp:141] Setting up relu5_2_D
I0624 12:23:14.015350 17113 net.cpp:148] Top shape: 1 256 14 14 (50176)
I0624 12:23:14.015352 17113 net.cpp:156] Memory required for data: 105871360
I0624 12:23:14.015355 17113 layer_factory.hpp:77] Creating layer conv5_1_D
I0624 12:23:14.015363 17113 net.cpp:91] Creating Layer conv5_1_D
I0624 12:23:14.015367 17113 net.cpp:425] conv5_1_D <- conv5_2_D
I0624 12:23:14.015372 17113 net.cpp:399] conv5_1_D -> conv5_1_D
I0624 12:23:14.020800 17113 net.cpp:141] Setting up conv5_1_D
I0624 12:23:14.020813 17113 net.cpp:148] Top shape: 1 256 14 14 (50176)
I0624 12:23:14.020817 17113 net.cpp:156] Memory required for data: 106072064
I0624 12:23:14.020820 17113 layer_factory.hpp:77] Creating layer bn5_1_D
I0624 12:23:14.020828 17113 net.cpp:91] Creating Layer bn5_1_D
I0624 12:23:14.020830 17113 net.cpp:425] bn5_1_D <- conv5_1_D
I0624 12:23:14.020833 17113 net.cpp:386] bn5_1_D -> conv5_1_D (in-place)
I0624 12:23:14.021021 17113 net.cpp:141] Setting up bn5_1_D
I0624 12:23:14.021029 17113 net.cpp:148] Top shape: 1 256 14 14 (50176)
I0624 12:23:14.021031 17113 net.cpp:156] Memory required for data: 106272768
I0624 12:23:14.021037 17113 layer_factory.hpp:77] Creating layer scale5_1_D
I0624 12:23:14.021044 17113 net.cpp:91] Creating Layer scale5_1_D
I0624 12:23:14.021045 17113 net.cpp:425] scale5_1_D <- conv5_1_D
I0624 12:23:14.021050 17113 net.cpp:386] scale5_1_D -> conv5_1_D (in-place)
I0624 12:23:14.021085 17113 layer_factory.hpp:77] Creating layer scale5_1_D
I0624 12:23:14.021184 17113 net.cpp:141] Setting up scale5_1_D
I0624 12:23:14.021191 17113 net.cpp:148] Top shape: 1 256 14 14 (50176)
I0624 12:23:14.021193 17113 net.cpp:156] Memory required for data: 106473472
I0624 12:23:14.021198 17113 layer_factory.hpp:77] Creating layer relu5_1_D
I0624 12:23:14.021203 17113 net.cpp:91] Creating Layer relu5_1_D
I0624 12:23:14.021206 17113 net.cpp:425] relu5_1_D <- conv5_1_D
I0624 12:23:14.021210 17113 net.cpp:386] relu5_1_D -> conv5_1_D (in-place)
I0624 12:23:14.024405 17113 net.cpp:141] Setting up relu5_1_D
I0624 12:23:14.024416 17113 net.cpp:148] Top shape: 1 256 14 14 (50176)
I0624 12:23:14.024420 17113 net.cpp:156] Memory required for data: 106674176
I0624 12:23:14.024422 17113 layer_factory.hpp:77] Creating layer upsample4
I0624 12:23:14.024428 17113 net.cpp:91] Creating Layer upsample4
I0624 12:23:14.024431 17113 net.cpp:425] upsample4 <- conv5_1_D
I0624 12:23:14.024436 17113 net.cpp:425] upsample4 <- pool4_mask
I0624 12:23:14.024441 17113 net.cpp:399] upsample4 -> pool4_D
I0624 12:23:14.024474 17113 net.cpp:141] Setting up upsample4
I0624 12:23:14.024482 17113 net.cpp:148] Top shape: 1 256 28 28 (200704)
I0624 12:23:14.024483 17113 net.cpp:156] Memory required for data: 107476992
I0624 12:23:14.024485 17113 layer_factory.hpp:77] Creating layer conv4_2_D
I0624 12:23:14.024494 17113 net.cpp:91] Creating Layer conv4_2_D
I0624 12:23:14.024497 17113 net.cpp:425] conv4_2_D <- pool4_D
I0624 12:23:14.024502 17113 net.cpp:399] conv4_2_D -> conv4_2_D
I0624 12:23:14.029855 17113 net.cpp:141] Setting up conv4_2_D
I0624 12:23:14.029870 17113 net.cpp:148] Top shape: 1 256 28 28 (200704)
I0624 12:23:14.029873 17113 net.cpp:156] Memory required for data: 108279808
I0624 12:23:14.029878 17113 layer_factory.hpp:77] Creating layer bn4_2_D
I0624 12:23:14.029887 17113 net.cpp:91] Creating Layer bn4_2_D
I0624 12:23:14.029891 17113 net.cpp:425] bn4_2_D <- conv4_2_D
I0624 12:23:14.029896 17113 net.cpp:386] bn4_2_D -> conv4_2_D (in-place)
I0624 12:23:14.030079 17113 net.cpp:141] Setting up bn4_2_D
I0624 12:23:14.030086 17113 net.cpp:148] Top shape: 1 256 28 28 (200704)
I0624 12:23:14.030088 17113 net.cpp:156] Memory required for data: 109082624
I0624 12:23:14.030094 17113 layer_factory.hpp:77] Creating layer scale4_2_D
I0624 12:23:14.030100 17113 net.cpp:91] Creating Layer scale4_2_D
I0624 12:23:14.030103 17113 net.cpp:425] scale4_2_D <- conv4_2_D
I0624 12:23:14.030107 17113 net.cpp:386] scale4_2_D -> conv4_2_D (in-place)
I0624 12:23:14.030143 17113 layer_factory.hpp:77] Creating layer scale4_2_D
I0624 12:23:14.030248 17113 net.cpp:141] Setting up scale4_2_D
I0624 12:23:14.030256 17113 net.cpp:148] Top shape: 1 256 28 28 (200704)
I0624 12:23:14.030257 17113 net.cpp:156] Memory required for data: 109885440
I0624 12:23:14.030261 17113 layer_factory.hpp:77] Creating layer relu4_2_D
I0624 12:23:14.030267 17113 net.cpp:91] Creating Layer relu4_2_D
I0624 12:23:14.030269 17113 net.cpp:425] relu4_2_D <- conv4_2_D
I0624 12:23:14.030273 17113 net.cpp:386] relu4_2_D -> conv4_2_D (in-place)
I0624 12:23:14.030551 17113 net.cpp:141] Setting up relu4_2_D
I0624 12:23:14.030562 17113 net.cpp:148] Top shape: 1 256 28 28 (200704)
I0624 12:23:14.030565 17113 net.cpp:156] Memory required for data: 110688256
I0624 12:23:14.030567 17113 layer_factory.hpp:77] Creating layer conv4_1_D
I0624 12:23:14.030575 17113 net.cpp:91] Creating Layer conv4_1_D
I0624 12:23:14.030578 17113 net.cpp:425] conv4_1_D <- conv4_2_D
I0624 12:23:14.030583 17113 net.cpp:399] conv4_1_D -> conv4_1_D
I0624 12:23:14.033905 17113 net.cpp:141] Setting up conv4_1_D
I0624 12:23:14.033920 17113 net.cpp:148] Top shape: 1 128 28 28 (100352)
I0624 12:23:14.033922 17113 net.cpp:156] Memory required for data: 111089664
I0624 12:23:14.033926 17113 layer_factory.hpp:77] Creating layer bn4_1_D
I0624 12:23:14.033933 17113 net.cpp:91] Creating Layer bn4_1_D
I0624 12:23:14.033936 17113 net.cpp:425] bn4_1_D <- conv4_1_D
I0624 12:23:14.033941 17113 net.cpp:386] bn4_1_D -> conv4_1_D (in-place)
I0624 12:23:14.034114 17113 net.cpp:141] Setting up bn4_1_D
I0624 12:23:14.034122 17113 net.cpp:148] Top shape: 1 128 28 28 (100352)
I0624 12:23:14.034124 17113 net.cpp:156] Memory required for data: 111491072
I0624 12:23:14.034131 17113 layer_factory.hpp:77] Creating layer scale4_1_D
I0624 12:23:14.034137 17113 net.cpp:91] Creating Layer scale4_1_D
I0624 12:23:14.034139 17113 net.cpp:425] scale4_1_D <- conv4_1_D
I0624 12:23:14.034142 17113 net.cpp:386] scale4_1_D -> conv4_1_D (in-place)
I0624 12:23:14.034178 17113 layer_factory.hpp:77] Creating layer scale4_1_D
I0624 12:23:14.034296 17113 net.cpp:141] Setting up scale4_1_D
I0624 12:23:14.034303 17113 net.cpp:148] Top shape: 1 128 28 28 (100352)
I0624 12:23:14.034306 17113 net.cpp:156] Memory required for data: 111892480
I0624 12:23:14.034309 17113 layer_factory.hpp:77] Creating layer relu4_1_D
I0624 12:23:14.034323 17113 net.cpp:91] Creating Layer relu4_1_D
I0624 12:23:14.034328 17113 net.cpp:425] relu4_1_D <- conv4_1_D
I0624 12:23:14.034332 17113 net.cpp:386] relu4_1_D -> conv4_1_D (in-place)
I0624 12:23:14.034483 17113 net.cpp:141] Setting up relu4_1_D
I0624 12:23:14.034492 17113 net.cpp:148] Top shape: 1 128 28 28 (100352)
I0624 12:23:14.034494 17113 net.cpp:156] Memory required for data: 112293888
I0624 12:23:14.034497 17113 layer_factory.hpp:77] Creating layer upsample3
I0624 12:23:14.034504 17113 net.cpp:91] Creating Layer upsample3
I0624 12:23:14.034507 17113 net.cpp:425] upsample3 <- conv4_1_D
I0624 12:23:14.034510 17113 net.cpp:425] upsample3 <- pool3_mask
I0624 12:23:14.034514 17113 net.cpp:399] upsample3 -> pool3_D
I0624 12:23:14.034543 17113 net.cpp:141] Setting up upsample3
I0624 12:23:14.034549 17113 net.cpp:148] Top shape: 1 128 56 56 (401408)
I0624 12:23:14.034551 17113 net.cpp:156] Memory required for data: 113899520
I0624 12:23:14.034554 17113 layer_factory.hpp:77] Creating layer conv3_2_D
I0624 12:23:14.034562 17113 net.cpp:91] Creating Layer conv3_2_D
I0624 12:23:14.034566 17113 net.cpp:425] conv3_2_D <- pool3_D
I0624 12:23:14.034571 17113 net.cpp:399] conv3_2_D -> conv3_2_D
I0624 12:23:14.037145 17113 net.cpp:141] Setting up conv3_2_D
I0624 12:23:14.037159 17113 net.cpp:148] Top shape: 1 128 56 56 (401408)
I0624 12:23:14.037163 17113 net.cpp:156] Memory required for data: 115505152
I0624 12:23:14.037168 17113 layer_factory.hpp:77] Creating layer bn3_2_D
I0624 12:23:14.037173 17113 net.cpp:91] Creating Layer bn3_2_D
I0624 12:23:14.037175 17113 net.cpp:425] bn3_2_D <- conv3_2_D
I0624 12:23:14.037180 17113 net.cpp:386] bn3_2_D -> conv3_2_D (in-place)
I0624 12:23:14.037364 17113 net.cpp:141] Setting up bn3_2_D
I0624 12:23:14.037371 17113 net.cpp:148] Top shape: 1 128 56 56 (401408)
I0624 12:23:14.037374 17113 net.cpp:156] Memory required for data: 117110784
I0624 12:23:14.037379 17113 layer_factory.hpp:77] Creating layer scale3_2_D
I0624 12:23:14.037384 17113 net.cpp:91] Creating Layer scale3_2_D
I0624 12:23:14.037387 17113 net.cpp:425] scale3_2_D <- conv3_2_D
I0624 12:23:14.037391 17113 net.cpp:386] scale3_2_D -> conv3_2_D (in-place)
I0624 12:23:14.037428 17113 layer_factory.hpp:77] Creating layer scale3_2_D
I0624 12:23:14.037531 17113 net.cpp:141] Setting up scale3_2_D
I0624 12:23:14.037540 17113 net.cpp:148] Top shape: 1 128 56 56 (401408)
I0624 12:23:14.037542 17113 net.cpp:156] Memory required for data: 118716416
I0624 12:23:14.037546 17113 layer_factory.hpp:77] Creating layer relu3_2_D
I0624 12:23:14.037550 17113 net.cpp:91] Creating Layer relu3_2_D
I0624 12:23:14.037554 17113 net.cpp:425] relu3_2_D <- conv3_2_D
I0624 12:23:14.037556 17113 net.cpp:386] relu3_2_D -> conv3_2_D (in-place)
I0624 12:23:14.037844 17113 net.cpp:141] Setting up relu3_2_D
I0624 12:23:14.037856 17113 net.cpp:148] Top shape: 1 128 56 56 (401408)
I0624 12:23:14.037858 17113 net.cpp:156] Memory required for data: 120322048
I0624 12:23:14.037861 17113 layer_factory.hpp:77] Creating layer conv3_1_D
I0624 12:23:14.037869 17113 net.cpp:91] Creating Layer conv3_1_D
I0624 12:23:14.037871 17113 net.cpp:425] conv3_1_D <- conv3_2_D
I0624 12:23:14.037878 17113 net.cpp:399] conv3_1_D -> conv3_1_D
I0624 12:23:14.039361 17113 net.cpp:141] Setting up conv3_1_D
I0624 12:23:14.039381 17113 net.cpp:148] Top shape: 1 64 56 56 (200704)
I0624 12:23:14.039382 17113 net.cpp:156] Memory required for data: 121124864
I0624 12:23:14.039387 17113 layer_factory.hpp:77] Creating layer bn3_1_D
I0624 12:23:14.039392 17113 net.cpp:91] Creating Layer bn3_1_D
I0624 12:23:14.039396 17113 net.cpp:425] bn3_1_D <- conv3_1_D
I0624 12:23:14.039400 17113 net.cpp:386] bn3_1_D -> conv3_1_D (in-place)
I0624 12:23:14.039590 17113 net.cpp:141] Setting up bn3_1_D
I0624 12:23:14.039608 17113 net.cpp:148] Top shape: 1 64 56 56 (200704)
I0624 12:23:14.039610 17113 net.cpp:156] Memory required for data: 121927680
I0624 12:23:14.039615 17113 layer_factory.hpp:77] Creating layer scale3_1_D
I0624 12:23:14.039621 17113 net.cpp:91] Creating Layer scale3_1_D
I0624 12:23:14.039624 17113 net.cpp:425] scale3_1_D <- conv3_1_D
I0624 12:23:14.039628 17113 net.cpp:386] scale3_1_D -> conv3_1_D (in-place)
I0624 12:23:14.039667 17113 layer_factory.hpp:77] Creating layer scale3_1_D
I0624 12:23:14.039783 17113 net.cpp:141] Setting up scale3_1_D
I0624 12:23:14.039790 17113 net.cpp:148] Top shape: 1 64 56 56 (200704)
I0624 12:23:14.039793 17113 net.cpp:156] Memory required for data: 122730496
I0624 12:23:14.039796 17113 layer_factory.hpp:77] Creating layer relu3_1_D
I0624 12:23:14.039801 17113 net.cpp:91] Creating Layer relu3_1_D
I0624 12:23:14.039804 17113 net.cpp:425] relu3_1_D <- conv3_1_D
I0624 12:23:14.039808 17113 net.cpp:386] relu3_1_D -> conv3_1_D (in-place)
I0624 12:23:14.040094 17113 net.cpp:141] Setting up relu3_1_D
I0624 12:23:14.040105 17113 net.cpp:148] Top shape: 1 64 56 56 (200704)
I0624 12:23:14.040107 17113 net.cpp:156] Memory required for data: 123533312
I0624 12:23:14.040110 17113 layer_factory.hpp:77] Creating layer upsample2
I0624 12:23:14.040117 17113 net.cpp:91] Creating Layer upsample2
I0624 12:23:14.040120 17113 net.cpp:425] upsample2 <- conv3_1_D
I0624 12:23:14.040124 17113 net.cpp:425] upsample2 <- pool2_mask
I0624 12:23:14.040127 17113 net.cpp:399] upsample2 -> pool2_D
I0624 12:23:14.040158 17113 net.cpp:141] Setting up upsample2
I0624 12:23:14.040163 17113 net.cpp:148] Top shape: 1 64 112 112 (802816)
I0624 12:23:14.040165 17113 net.cpp:156] Memory required for data: 126744576
I0624 12:23:14.040168 17113 layer_factory.hpp:77] Creating layer conv2_2_D
I0624 12:23:14.040175 17113 net.cpp:91] Creating Layer conv2_2_D
I0624 12:23:14.040177 17113 net.cpp:425] conv2_2_D <- pool2_D
I0624 12:23:14.040182 17113 net.cpp:399] conv2_2_D -> conv2_2_D
I0624 12:23:14.041451 17113 net.cpp:141] Setting up conv2_2_D
I0624 12:23:14.041463 17113 net.cpp:148] Top shape: 1 64 112 112 (802816)
I0624 12:23:14.041465 17113 net.cpp:156] Memory required for data: 129955840
I0624 12:23:14.041471 17113 layer_factory.hpp:77] Creating layer bn2_2_D
I0624 12:23:14.041476 17113 net.cpp:91] Creating Layer bn2_2_D
I0624 12:23:14.041479 17113 net.cpp:425] bn2_2_D <- conv2_2_D
I0624 12:23:14.041483 17113 net.cpp:386] bn2_2_D -> conv2_2_D (in-place)
I0624 12:23:14.041682 17113 net.cpp:141] Setting up bn2_2_D
I0624 12:23:14.041689 17113 net.cpp:148] Top shape: 1 64 112 112 (802816)
I0624 12:23:14.041692 17113 net.cpp:156] Memory required for data: 133167104
I0624 12:23:14.041697 17113 layer_factory.hpp:77] Creating layer scale2_2_D
I0624 12:23:14.041702 17113 net.cpp:91] Creating Layer scale2_2_D
I0624 12:23:14.041705 17113 net.cpp:425] scale2_2_D <- conv2_2_D
I0624 12:23:14.041709 17113 net.cpp:386] scale2_2_D -> conv2_2_D (in-place)
I0624 12:23:14.041749 17113 layer_factory.hpp:77] Creating layer scale2_2_D
I0624 12:23:14.041868 17113 net.cpp:141] Setting up scale2_2_D
I0624 12:23:14.041877 17113 net.cpp:148] Top shape: 1 64 112 112 (802816)
I0624 12:23:14.041878 17113 net.cpp:156] Memory required for data: 136378368
I0624 12:23:14.041882 17113 layer_factory.hpp:77] Creating layer relu2_2_D
I0624 12:23:14.041887 17113 net.cpp:91] Creating Layer relu2_2_D
I0624 12:23:14.041889 17113 net.cpp:425] relu2_2_D <- conv2_2_D
I0624 12:23:14.041893 17113 net.cpp:386] relu2_2_D -> conv2_2_D (in-place)
I0624 12:23:14.042048 17113 net.cpp:141] Setting up relu2_2_D
I0624 12:23:14.042057 17113 net.cpp:148] Top shape: 1 64 112 112 (802816)
I0624 12:23:14.042059 17113 net.cpp:156] Memory required for data: 139589632
I0624 12:23:14.042062 17113 layer_factory.hpp:77] Creating layer conv2_1_D
I0624 12:23:14.042070 17113 net.cpp:91] Creating Layer conv2_1_D
I0624 12:23:14.042073 17113 net.cpp:425] conv2_1_D <- conv2_2_D
I0624 12:23:14.042078 17113 net.cpp:399] conv2_1_D -> conv2_1_D
I0624 12:23:14.043090 17113 net.cpp:141] Setting up conv2_1_D
I0624 12:23:14.043110 17113 net.cpp:148] Top shape: 1 32 112 112 (401408)
I0624 12:23:14.043113 17113 net.cpp:156] Memory required for data: 141195264
I0624 12:23:14.043118 17113 layer_factory.hpp:77] Creating layer bn2_1_D
I0624 12:23:14.043124 17113 net.cpp:91] Creating Layer bn2_1_D
I0624 12:23:14.043128 17113 net.cpp:425] bn2_1_D <- conv2_1_D
I0624 12:23:14.043131 17113 net.cpp:386] bn2_1_D -> conv2_1_D (in-place)
I0624 12:23:14.043341 17113 net.cpp:141] Setting up bn2_1_D
I0624 12:23:14.043349 17113 net.cpp:148] Top shape: 1 32 112 112 (401408)
I0624 12:23:14.043351 17113 net.cpp:156] Memory required for data: 142800896
I0624 12:23:14.043357 17113 layer_factory.hpp:77] Creating layer scale2_1_D
I0624 12:23:14.043362 17113 net.cpp:91] Creating Layer scale2_1_D
I0624 12:23:14.043365 17113 net.cpp:425] scale2_1_D <- conv2_1_D
I0624 12:23:14.043370 17113 net.cpp:386] scale2_1_D -> conv2_1_D (in-place)
I0624 12:23:14.043408 17113 layer_factory.hpp:77] Creating layer scale2_1_D
I0624 12:23:14.043536 17113 net.cpp:141] Setting up scale2_1_D
I0624 12:23:14.043543 17113 net.cpp:148] Top shape: 1 32 112 112 (401408)
I0624 12:23:14.043546 17113 net.cpp:156] Memory required for data: 144406528
I0624 12:23:14.043550 17113 layer_factory.hpp:77] Creating layer relu2_1_D
I0624 12:23:14.043555 17113 net.cpp:91] Creating Layer relu2_1_D
I0624 12:23:14.043557 17113 net.cpp:425] relu2_1_D <- conv2_1_D
I0624 12:23:14.043561 17113 net.cpp:386] relu2_1_D -> conv2_1_D (in-place)
I0624 12:23:14.043859 17113 net.cpp:141] Setting up relu2_1_D
I0624 12:23:14.043869 17113 net.cpp:148] Top shape: 1 32 112 112 (401408)
I0624 12:23:14.043872 17113 net.cpp:156] Memory required for data: 146012160
I0624 12:23:14.043875 17113 layer_factory.hpp:77] Creating layer upsample1
I0624 12:23:14.043880 17113 net.cpp:91] Creating Layer upsample1
I0624 12:23:14.043884 17113 net.cpp:425] upsample1 <- conv2_1_D
I0624 12:23:14.043887 17113 net.cpp:425] upsample1 <- pool1_mask
I0624 12:23:14.043891 17113 net.cpp:399] upsample1 -> pool1_D
I0624 12:23:14.043920 17113 net.cpp:141] Setting up upsample1
I0624 12:23:14.043926 17113 net.cpp:148] Top shape: 1 32 224 224 (1605632)
I0624 12:23:14.043927 17113 net.cpp:156] Memory required for data: 152434688
I0624 12:23:14.043929 17113 layer_factory.hpp:77] Creating layer conv1_2_D
I0624 12:23:14.043939 17113 net.cpp:91] Creating Layer conv1_2_D
I0624 12:23:14.043942 17113 net.cpp:425] conv1_2_D <- pool1_D
I0624 12:23:14.043946 17113 net.cpp:399] conv1_2_D -> conv1_2_D
I0624 12:23:14.044888 17113 net.cpp:141] Setting up conv1_2_D
I0624 12:23:14.044901 17113 net.cpp:148] Top shape: 1 32 224 224 (1605632)
I0624 12:23:14.044904 17113 net.cpp:156] Memory required for data: 158857216
I0624 12:23:14.044909 17113 layer_factory.hpp:77] Creating layer bn1_2_D
I0624 12:23:14.044914 17113 net.cpp:91] Creating Layer bn1_2_D
I0624 12:23:14.044917 17113 net.cpp:425] bn1_2_D <- conv1_2_D
I0624 12:23:14.044921 17113 net.cpp:386] bn1_2_D -> conv1_2_D (in-place)
I0624 12:23:14.045163 17113 net.cpp:141] Setting up bn1_2_D
I0624 12:23:14.045171 17113 net.cpp:148] Top shape: 1 32 224 224 (1605632)
I0624 12:23:14.045174 17113 net.cpp:156] Memory required for data: 165279744
I0624 12:23:14.045179 17113 layer_factory.hpp:77] Creating layer scale1_2_D
I0624 12:23:14.045186 17113 net.cpp:91] Creating Layer scale1_2_D
I0624 12:23:14.045188 17113 net.cpp:425] scale1_2_D <- conv1_2_D
I0624 12:23:14.045192 17113 net.cpp:386] scale1_2_D -> conv1_2_D (in-place)
I0624 12:23:14.045230 17113 layer_factory.hpp:77] Creating layer scale1_2_D
I0624 12:23:14.045418 17113 net.cpp:141] Setting up scale1_2_D
I0624 12:23:14.045428 17113 net.cpp:148] Top shape: 1 32 224 224 (1605632)
I0624 12:23:14.045429 17113 net.cpp:156] Memory required for data: 171702272
I0624 12:23:14.045434 17113 layer_factory.hpp:77] Creating layer relu1_2_D
I0624 12:23:14.045439 17113 net.cpp:91] Creating Layer relu1_2_D
I0624 12:23:14.045441 17113 net.cpp:425] relu1_2_D <- conv1_2_D
I0624 12:23:14.045444 17113 net.cpp:386] relu1_2_D -> conv1_2_D (in-place)
I0624 12:23:14.045745 17113 net.cpp:141] Setting up relu1_2_D
I0624 12:23:14.045758 17113 net.cpp:148] Top shape: 1 32 224 224 (1605632)
I0624 12:23:14.045760 17113 net.cpp:156] Memory required for data: 178124800
I0624 12:23:14.045763 17113 layer_factory.hpp:77] Creating layer conv1_1_D
I0624 12:23:14.045773 17113 net.cpp:91] Creating Layer conv1_1_D
I0624 12:23:14.045776 17113 net.cpp:425] conv1_1_D <- conv1_2_D
I0624 12:23:14.045780 17113 net.cpp:399] conv1_1_D -> conv1_1_D
I0624 12:23:14.046919 17113 net.cpp:141] Setting up conv1_1_D
I0624 12:23:14.046931 17113 net.cpp:148] Top shape: 1 2 224 224 (100352)
I0624 12:23:14.046933 17113 net.cpp:156] Memory required for data: 178526208
I0624 12:23:14.046938 17113 layer_factory.hpp:77] Creating layer conv1_1_D_conv1_1_D_0_split
I0624 12:23:14.046944 17113 net.cpp:91] Creating Layer conv1_1_D_conv1_1_D_0_split
I0624 12:23:14.046947 17113 net.cpp:425] conv1_1_D_conv1_1_D_0_split <- conv1_1_D
I0624 12:23:14.046952 17113 net.cpp:399] conv1_1_D_conv1_1_D_0_split -> conv1_1_D_conv1_1_D_0_split_0
I0624 12:23:14.046957 17113 net.cpp:399] conv1_1_D_conv1_1_D_0_split -> conv1_1_D_conv1_1_D_0_split_1
I0624 12:23:14.047003 17113 net.cpp:141] Setting up conv1_1_D_conv1_1_D_0_split
I0624 12:23:14.047008 17113 net.cpp:148] Top shape: 1 2 224 224 (100352)
I0624 12:23:14.047011 17113 net.cpp:148] Top shape: 1 2 224 224 (100352)
I0624 12:23:14.047013 17113 net.cpp:156] Memory required for data: 179329024
I0624 12:23:14.047015 17113 layer_factory.hpp:77] Creating layer loss
I0624 12:23:14.047020 17113 net.cpp:91] Creating Layer loss
I0624 12:23:14.047022 17113 net.cpp:425] loss <- conv1_1_D_conv1_1_D_0_split_0
I0624 12:23:14.047025 17113 net.cpp:425] loss <- label_data_1_split_0
I0624 12:23:14.047029 17113 net.cpp:399] loss -> loss
…
