…
I0624 13:08:47.148818 17689 net.cpp:313] The NetState phase (0) differed from the phase (1) specified by a rule in layer data
I0624 13:08:47.149468 17689 net.cpp:49] Initializing net from parameters: 
name: "segnet"
state {
  phase: TRAIN
}
layer {
  name: "data"
  type: "DenseImageData"
  top: "data"
  top: "label"
  include {
    phase: TRAIN
  }
  transform_param {
    crop_size: 224
    mean_value: 100
  }
  dense_image_data_param {
    source: "data/train.txt"
    batch_size: 32
    shuffle: true
    new_height: 224
    new_width: 310
    is_color: false
    root_folder: "data/raw/train/"
  }
}
layer {
  name: "conv1_1"
  type: "Convolution"
  bottom: "data"
  top: "conv1_1"
  param {
    lr_mult: 1
    decay_mult: 1
  }
  convolution_param {
    num_output: 32
    bias_term: false
    pad: 1
    kernel_size: 3
    weight_filler {
      type: "xavier"
    }
  }
}
layer {
  name: "bn1_1"
  type: "BatchNorm"
  bottom: "conv1_1"
  top: "conv1_1"
  param {
    lr_mult: 0
  }
  param {
    lr_mult: 0
  }
  param {
    lr_mult: 0
  }
  batch_norm_param {
    use_global_stats: false
  }
}
layer {
  name: "scale1_1"
  type: "Scale"
  bottom: "conv1_1"
  top: "conv1_1"
  param {
    lr_mult: 1
    decay_mult: 1
  }
  param {
    lr_mult: 1
    decay_mult: 1
  }
  scale_param {
    bias_term: true
    bias_filler {
      type: "constant"
      value: 0
    }
  }
}
layer {
  name: "relu1_1"
  type: "ReLU"
  bottom: "conv1_1"
  top: "conv1_1"
}
layer {
  name: "conv1_2"
  type: "Convolution"
  bottom: "conv1_1"
  top: "conv1_2"
  param {
    lr_mult: 1
    decay_mult: 1
  }
  convolution_param {
    num_output: 32
    bias_term: false
    pad: 1
    kernel_size: 3
    weight_filler {
      type: "xavier"
    }
  }
}
layer {
  name: "bn1_2"
  type: "BatchNorm"
  bottom: "conv1_2"
  top: "conv1_2"
  param {
    lr_mult: 0
  }
  param {
    lr_mult: 0
  }
  param {
    lr_mult: 0
  }
  batch_norm_param {
    use_global_stats: false
  }
}
layer {
  name: "scale1_2"
  type: "Scale"
  bottom: "conv1_2"
  top: "conv1_2"
  param {
    lr_mult: 1
    decay_mult: 1
  }
  param {
    lr_mult: 1
    decay_mult: 1
  }
  scale_param {
    bias_term: true
    bias_filler {
      type: "constant"
      value: 0
    }
  }
}
layer {
  name: "relu1_2"
  type: "ReLU"
  bottom: "conv1_2"
  top: "conv1_2"
}
layer {
  name: "pool1"
  type: "Pooling"
  bottom: "conv1_2"
  top: "pool1"
  top: "pool1_mask"
  pooling_param {
    pool: MAX
    kernel_size: 2
    stride: 2
  }
}
layer {
  name: "conv2_1"
  type: "Convolution"
  bottom: "pool1"
  top: "conv2_1"
  param {
    lr_mult: 1
    decay_mult: 1
  }
  convolution_param {
    num_output: 64
    bias_term: false
    pad: 1
    kernel_size: 3
    weight_filler {
      type: "xavier"
    }
  }
}
layer {
  name: "bn2_1"
  type: "BatchNorm"
  bottom: "conv2_1"
  top: "conv2_1"
  param {
    lr_mult: 0
  }
  param {
    lr_mult: 0
  }
  param {
    lr_mult: 0
  }
  batch_norm_param {
    use_global_stats: false
  }
}
layer {
  name: "scale2_1"
  type: "Scale"
  bottom: "conv2_1"
  top: "conv2_1"
  param {
    lr_mult: 1
    decay_mult: 1
  }
  param {
    lr_mult: 1
    decay_mult: 1
  }
  scale_param {
    bias_term: true
    bias_filler {
      type: "constant"
      value: 0
    }
  }
}
layer {
  name: "relu2_1"
  type: "ReLU"
  bottom: "conv2_1"
  top: "conv2_1"
}
layer {
  name: "conv2_2"
  type: "Convolution"
  bottom: "conv2_1"
  top: "conv2_2"
  param {
    lr_mult: 1
    decay_mult: 1
  }
  convolution_param {
    num_output: 64
    bias_term: false
    pad: 1
    kernel_size: 3
    weight_filler {
      type: "xavier"
    }
  }
}
layer {
  name: "bn2_2"
  type: "BatchNorm"
  bottom: "conv2_2"
  top: "conv2_2"
  param {
    lr_mult: 0
  }
  param {
    lr_mult: 0
  }
  param {
    lr_mult: 0
  }
  batch_norm_param {
    use_global_stats: false
  }
}
layer {
  name: "scale2_2"
  type: "Scale"
  bottom: "conv2_2"
  top: "conv2_2"
  param {
    lr_mult: 1
    decay_mult: 1
  }
  param {
    lr_mult: 1
    decay_mult: 1
  }
  scale_param {
    bias_term: true
    bias_filler {
      type: "constant"
      value: 0
    }
  }
}
layer {
  name: "relu2_2"
  type: "ReLU"
  bottom: "conv2_2"
  top: "conv2_2"
}
layer {
  name: "pool2"
  type: "Pooling"
  bottom: "conv2_2"
  top: "pool2"
  top: "pool2_mask"
  pooling_param {
    pool: MAX
    kernel_size: 2
    stride: 2
  }
}
layer {
  name: "conv3_1"
  type: "Convolution"
  bottom: "pool2"
  top: "conv3_1"
  param {
    lr_mult: 1
    decay_mult: 1
  }
  convolution_param {
    num_output: 128
    bias_term: false
    pad: 1
    kernel_size: 3
    weight_filler {
      type: "xavier"
    }
  }
}
layer {
  name: "bn3_1"
  type: "BatchNorm"
  bottom: "conv3_1"
  top: "conv3_1"
  param {
    lr_mult: 0
  }
  param {
    lr_mult: 0
  }
  param {
    lr_mult: 0
  }
  batch_norm_param {
    use_global_stats: false
  }
}
layer {
  name: "scale3_1"
  type: "Scale"
  bottom: "conv3_1"
  top: "conv3_1"
  param {
    lr_mult: 1
    decay_mult: 1
  }
  param {
    lr_mult: 1
    decay_mult: 1
  }
  scale_param {
    bias_term: true
    bias_filler {
      type: "constant"
      value: 0
    }
  }
}
layer {
  name: "relu3_1"
  type: "ReLU"
  bottom: "conv3_1"
  top: "conv3_1"
}
layer {
  name: "conv3_2"
  type: "Convolution"
  bottom: "conv3_1"
  top: "conv3_2"
  param {
    lr_mult: 1
    decay_mult: 1
  }
  convolution_param {
    num_output: 128
    bias_term: false
    pad: 1
    kernel_size: 3
    weight_filler {
      type: "xavier"
    }
  }
}
layer {
  name: "bn3_2"
  type: "BatchNorm"
  bottom: "conv3_2"
  top: "conv3_2"
  param {
    lr_mult: 0
  }
  param {
    lr_mult: 0
  }
  param {
    lr_mult: 0
  }
  batch_norm_param {
    use_global_stats: false
  }
}
layer {
  name: "scale3_2"
  type: "Scale"
  bottom: "conv3_2"
  top: "conv3_2"
  param {
    lr_mult: 1
    decay_mult: 1
  }
  param {
    lr_mult: 1
    decay_mult: 1
  }
  scale_param {
    bias_term: true
    bias_filler {
      type: "constant"
      value: 0
    }
  }
}
layer {
  name: "relu3_2"
  type: "ReLU"
  bottom: "conv3_2"
  top: "conv3_2"
}
layer {
  name: "pool3"
  type: "Pooling"
  bottom: "conv3_2"
  top: "pool3"
  top: "pool3_mask"
  pooling_param {
    pool: MAX
    kernel_size: 2
    stride: 2
  }
}
layer {
  name: "conv4_1"
  type: "Convolution"
  bottom: "pool3"
  top: "conv4_1"
  param {
    lr_mult: 1
    decay_mult: 1
  }
  convolution_param {
    num_output: 256
    bias_term: false
    pad: 1
    kernel_size: 3
    weight_filler {
      type: "xavier"
    }
  }
}
layer {
  name: "bn4_1"
  type: "BatchNorm"
  bottom: "conv4_1"
  top: "conv4_1"
  param {
    lr_mult: 0
  }
  param {
    lr_mult: 0
  }
  param {
    lr_mult: 0
  }
  batch_norm_param {
    use_global_stats: false
  }
}
layer {
  name: "scale4_1"
  type: "Scale"
  bottom: "conv4_1"
  top: "conv4_1"
  param {
    lr_mult: 1
    decay_mult: 1
  }
  param {
    lr_mult: 1
    decay_mult: 1
  }
  scale_param {
    bias_term: true
    bias_filler {
      type: "constant"
      value: 0
    }
  }
}
layer {
  name: "relu4_1"
  type: "ReLU"
  bottom: "conv4_1"
  top: "conv4_1"
}
layer {
  name: "conv4_2"
  type: "Convolution"
  bottom: "conv4_1"
  top: "conv4_2"
  param {
    lr_mult: 1
    decay_mult: 1
  }
  convolution_param {
    num_output: 256
    bias_term: false
    pad: 1
    kernel_size: 3
    weight_filler {
      type: "xavier"
    }
  }
}
layer {
  name: "bn4_2"
  type: "BatchNorm"
  bottom: "conv4_2"
  top: "conv4_2"
  param {
    lr_mult: 0
  }
  param {
    lr_mult: 0
  }
  param {
    lr_mult: 0
  }
  batch_norm_param {
    use_global_stats: false
  }
}
layer {
  name: "scale4_2"
  type: "Scale"
  bottom: "conv4_2"
  top: "conv4_2"
  param {
    lr_mult: 1
    decay_mult: 1
  }
  param {
    lr_mult: 1
    decay_mult: 1
  }
  scale_param {
    bias_term: true
    bias_filler {
      type: "constant"
      value: 0
    }
  }
}
layer {
  name: "relu4_2"
  type: "ReLU"
  bottom: "conv4_2"
  top: "conv4_2"
}
layer {
  name: "pool4"
  type: "Pooling"
  bottom: "conv4_2"
  top: "pool4"
  top: "pool4_mask"
  pooling_param {
    pool: MAX
    kernel_size: 2
    stride: 2
  }
}
layer {
  name: "conv5_1"
  type: "Convolution"
  bottom: "pool4"
  top: "conv5_1"
  param {
    lr_mult: 1
    decay_mult: 1
  }
  convolution_param {
    num_output: 256
    bias_term: false
    pad: 1
    kernel_size: 3
    weight_filler {
      type: "xavier"
    }
  }
}
layer {
  name: "bn5_1"
  type: "BatchNorm"
  bottom: "conv5_1"
  top: "conv5_1"
  param {
    lr_mult: 0
  }
  param {
    lr_mult: 0
  }
  param {
    lr_mult: 0
  }
  batch_norm_param {
    use_global_stats: false
  }
}
layer {
  name: "scale5_1"
  type: "Scale"
  bottom: "conv5_1"
  top: "conv5_1"
  param {
    lr_mult: 1
    decay_mult: 1
  }
  param {
    lr_mult: 1
    decay_mult: 1
  }
  scale_param {
    bias_term: true
    bias_filler {
      type: "constant"
      value: 0
    }
  }
}
layer {
  name: "relu5_1"
  type: "ReLU"
  bottom: "conv5_1"
  top: "conv5_1"
}
layer {
  name: "conv5_2"
  type: "Convolution"
  bottom: "conv5_1"
  top: "conv5_2"
  param {
    lr_mult: 1
    decay_mult: 1
  }
  convolution_param {
    num_output: 256
    bias_term: false
    pad: 1
    kernel_size: 3
    weight_filler {
      type: "xavier"
    }
  }
}
layer {
  name: "bn5_2"
  type: "BatchNorm"
  bottom: "conv5_2"
  top: "conv5_2"
  param {
    lr_mult: 0
  }
  param {
    lr_mult: 0
  }
  param {
    lr_mult: 0
  }
  batch_norm_param {
    use_global_stats: false
  }
}
layer {
  name: "scale5_2"
  type: "Scale"
  bottom: "conv5_2"
  top: "conv5_2"
  param {
    lr_mult: 1
    decay_mult: 1
  }
  param {
    lr_mult: 1
    decay_mult: 1
  }
  scale_param {
    bias_term: true
    bias_filler {
      type: "constant"
      value: 0
    }
  }
}
layer {
  name: "relu5_2"
  type: "ReLU"
  bottom: "conv5_2"
  top: "conv5_2"
}
layer {
  name: "pool5"
  type: "Pooling"
  bottom: "conv5_2"
  top: "pool5"
  top: "pool5_mask"
  pooling_param {
    pool: MAX
    kernel_size: 2
    stride: 2
  }
}
layer {
  name: "upsample5"
  type: "Upsample"
  bottom: "pool5"
  bottom: "pool5_mask"
  top: "pool5_D"
  upsample_param {
    scale: 2
    upsample_h: 14
    upsample_w: 14
  }
}
layer {
  name: "conv5_2_D"
  type: "Convolution"
  bottom: "pool5_D"
  top: "conv5_2_D"
  param {
    lr_mult: 1
    decay_mult: 1
  }
  convolution_param {
    num_output: 256
    bias_term: false
    pad: 1
    kernel_size: 3
    weight_filler {
      type: "xavier"
    }
  }
}
layer {
  name: "bn5_2_D"
  type: "BatchNorm"
  bottom: "conv5_2_D"
  top: "conv5_2_D"
  param {
    lr_mult: 0
  }
  param {
    lr_mult: 0
  }
  param {
    lr_mult: 0
  }
  batch_norm_param {
    use_global_stats: false
  }
}
layer {
  name: "scale5_2_D"
  type: "Scale"
  bottom: "conv5_2_D"
  top: "conv5_2_D"
  param {
    lr_mult: 1
    decay_mult: 1
  }
  param {
    lr_mult: 1
    decay_mult: 1
  }
  scale_param {
    bias_term: true
    bias_filler {
      type: "constant"
      value: 0
    }
  }
}
layer {
  name: "relu5_2_D"
  type: "ReLU"
  bottom: "conv5_2_D"
  top: "conv5_2_D"
}
layer {
  name: "conv5_1_D"
  type: "Convolution"
  bottom: "conv5_2_D"
  top: "conv5_1_D"
  param {
    lr_mult: 1
    decay_mult: 1
  }
  convolution_param {
    num_output: 256
    bias_term: false
    pad: 1
    kernel_size: 3
    weight_filler {
      type: "xavier"
    }
  }
}
layer {
  name: "bn5_1_D"
  type: "BatchNorm"
  bottom: "conv5_1_D"
  top: "conv5_1_D"
  param {
    lr_mult: 0
  }
  param {
    lr_mult: 0
  }
  param {
    lr_mult: 0
  }
  batch_norm_param {
    use_global_stats: false
  }
}
layer {
  name: "scale5_1_D"
  type: "Scale"
  bottom: "conv5_1_D"
  top: "conv5_1_D"
  param {
    lr_mult: 1
    decay_mult: 1
  }
  param {
    lr_mult: 1
    decay_mult: 1
  }
  scale_param {
    bias_term: true
    bias_filler {
      type: "constant"
      value: 0
    }
  }
}
layer {
  name: "relu5_1_D"
  type: "ReLU"
  bottom: "conv5_1_D"
  top: "conv5_1_D"
}
layer {
  name: "upsample4"
  type: "Upsample"
  bottom: "conv5_1_D"
  bottom: "pool4_mask"
  top: "pool4_D"
  upsample_param {
    scale: 2
    upsample_h: 28
    upsample_w: 28
  }
}
layer {
  name: "conv4_2_D"
  type: "Convolution"
  bottom: "pool4_D"
  top: "conv4_2_D"
  param {
    lr_mult: 1
    decay_mult: 1
  }
  convolution_param {
    num_output: 256
    bias_term: false
    pad: 1
    kernel_size: 3
    weight_filler {
      type: "xavier"
    }
  }
}
layer {
  name: "bn4_2_D"
  type: "BatchNorm"
  bottom: "conv4_2_D"
  top: "conv4_2_D"
  param {
    lr_mult: 0
  }
  param {
    lr_mult: 0
  }
  param {
    lr_mult: 0
  }
  batch_norm_param {
    use_global_stats: false
  }
}
layer {
  name: "scale4_2_D"
  type: "Scale"
  bottom: "conv4_2_D"
  top: "conv4_2_D"
  param {
    lr_mult: 1
    decay_mult: 1
  }
  param {
    lr_mult: 1
    decay_mult: 1
  }
  scale_param {
    bias_term: true
    bias_filler {
      type: "constant"
      value: 0
    }
  }
}
layer {
  name: "relu4_2_D"
  type: "ReLU"
  bottom: "conv4_2_D"
  top: "conv4_2_D"
}
layer {
  name: "conv4_1_D"
  type: "Convolution"
  bottom: "conv4_2_D"
  top: "conv4_1_D"
  param {
    lr_mult: 1
    decay_mult: 1
  }
  convolution_param {
    num_output: 128
    bias_term: false
    pad: 1
    kernel_size: 3
    weight_filler {
      type: "xavier"
    }
  }
}
layer {
  name: "bn4_1_D"
  type: "BatchNorm"
  bottom: "conv4_1_D"
  top: "conv4_1_D"
  param {
    lr_mult: 0
  }
  param {
    lr_mult: 0
  }
  param {
    lr_mult: 0
  }
  batch_norm_param {
    use_global_stats: false
  }
}
layer {
  name: "scale4_1_D"
  type: "Scale"
  bottom: "conv4_1_D"
  top: "conv4_1_D"
  param {
    lr_mult: 1
    decay_mult: 1
  }
  param {
    lr_mult: 1
    decay_mult: 1
  }
  scale_param {
    bias_term: true
    bias_filler {
      type: "constant"
      value: 0
    }
  }
}
layer {
  name: "relu4_1_D"
  type: "ReLU"
  bottom: "conv4_1_D"
  top: "conv4_1_D"
}
layer {
  name: "upsample3"
  type: "Upsample"
  bottom: "conv4_1_D"
  bottom: "pool3_mask"
  top: "pool3_D"
  upsample_param {
    scale: 2
    upsample_h: 56
    upsample_w: 56
  }
}
layer {
  name: "conv3_2_D"
  type: "Convolution"
  bottom: "pool3_D"
  top: "conv3_2_D"
  param {
    lr_mult: 1
    decay_mult: 1
  }
  param {
    lr_mult: 1
    decay_mult: 1
  }
  convolution_param {
    num_output: 128
    pad: 1
    kernel_size: 3
    weight_filler {
      type: "xavier"
    }
    bias_filler {
      type: "constant"
      value: 0
    }
  }
}
layer {
  name: "bn3_2_D"
  type: "BatchNorm"
  bottom: "conv3_2_D"
  top: "conv3_2_D"
  param {
    lr_mult: 0
  }
  param {
    lr_mult: 0
  }
  param {
    lr_mult: 0
  }
  batch_norm_param {
    use_global_stats: false
  }
}
layer {
  name: "scale3_2_D"
  type: "Scale"
  bottom: "conv3_2_D"
  top: "conv3_2_D"
  param {
    lr_mult: 1
    decay_mult: 1
  }
  param {
    lr_mult: 1
    decay_mult: 1
  }
  scale_param {
    bias_term: true
    bias_filler {
      type: "constant"
      value: 0
    }
  }
}
layer {
  name: "relu3_2_D"
  type: "ReLU"
  bottom: "conv3_2_D"
  top: "conv3_2_D"
}
layer {
  name: "conv3_1_D"
  type: "Convolution"
  bottom: "conv3_2_D"
  top: "conv3_1_D"
  param {
    lr_mult: 1
    decay_mult: 1
  }
  convolution_param {
    num_output: 64
    bias_term: false
    pad: 1
    kernel_size: 3
    weight_filler {
      type: "xavier"
    }
  }
}
layer {
  name: "bn3_1_D"
  type: "BatchNorm"
  bottom: "conv3_1_D"
  top: "conv3_1_D"
  param {
    lr_mult: 0
  }
  param {
    lr_mult: 0
  }
  param {
    lr_mult: 0
  }
  batch_norm_param {
    use_global_stats: false
  }
}
layer {
  name: "scale3_1_D"
  type: "Scale"
  bottom: "conv3_1_D"
  top: "conv3_1_D"
  param {
    lr_mult: 1
    decay_mult: 1
  }
  param {
    lr_mult: 1
    decay_mult: 1
  }
  scale_param {
    bias_term: true
    bias_filler {
      type: "constant"
      value: 0
    }
  }
}
layer {
  name: "relu3_1_D"
  type: "ReLU"
  bottom: "conv3_1_D"
  top: "conv3_1_D"
}
layer {
  name: "upsample2"
  type: "Upsample"
  bottom: "conv3_1_D"
  bottom: "pool2_mask"
  top: "pool2_D"
  upsample_param {
    scale: 2
    upsample_h: 112
    upsample_w: 112
  }
}
layer {
  name: "conv2_2_D"
  type: "Convolution"
  bottom: "pool2_D"
  top: "conv2_2_D"
  param {
    lr_mult: 1
    decay_mult: 1
  }
  convolution_param {
    num_output: 64
    bias_term: false
    pad: 1
    kernel_size: 3
    weight_filler {
      type: "xavier"
    }
  }
}
layer {
  name: "bn2_2_D"
  type: "BatchNorm"
  bottom: "conv2_2_D"
  top: "conv2_2_D"
  param {
    lr_mult: 0
  }
  param {
    lr_mult: 0
  }
  param {
    lr_mult: 0
  }
  batch_norm_param {
    use_global_stats: false
  }
}
layer {
  name: "scale2_2_D"
  type: "Scale"
  bottom: "conv2_2_D"
  top: "conv2_2_D"
  param {
    lr_mult: 1
    decay_mult: 1
  }
  param {
    lr_mult: 1
    decay_mult: 1
  }
  scale_param {
    bias_term: true
    bias_filler {
      type: "constant"
      value: 0
    }
  }
}
layer {
  name: "relu2_2_D"
  type: "ReLU"
  bottom: "conv2_2_D"
  top: "conv2_2_D"
}
layer {
  name: "conv2_1_D"
  type: "Convolution"
  bottom: "conv2_2_D"
  top: "conv2_1_D"
  param {
    lr_mult: 1
    decay_mult: 1
  }
  convolution_param {
    num_output: 32
    bias_term: false
    pad: 1
    kernel_size: 3
    weight_filler {
      type: "xavier"
    }
  }
}
layer {
  name: "bn2_1_D"
  type: "BatchNorm"
  bottom: "conv2_1_D"
  top: "conv2_1_D"
  param {
    lr_mult: 0
  }
  param {
    lr_mult: 0
  }
  param {
    lr_mult: 0
  }
  batch_norm_param {
    use_global_stats: false
  }
}
layer {
  name: "scale2_1_D"
  type: "Scale"
  bottom: "conv2_1_D"
  top: "conv2_1_D"
  param {
    lr_mult: 1
    decay_mult: 1
  }
  param {
    lr_mult: 1
    decay_mult: 1
  }
  scale_param {
    bias_term: true
    bias_filler {
      type: "constant"
      value: 0
    }
  }
}
layer {
  name: "relu2_1_D"
  type: "ReLU"
  bottom: "conv2_1_D"
  top: "conv2_1_D"
}
layer {
  name: "upsample1"
  type: "Upsample"
  bottom: "conv2_1_D"
  bottom: "pool1_mask"
  top: "pool1_D"
  upsample_param {
    scale: 2
    upsample_h: 224
    upsample_w: 224
  }
}
layer {
  name: "conv1_2_D"
  type: "Convolution"
  bottom: "pool1_D"
  top: "conv1_2_D"
  param {
    lr_mult: 1
    decay_mult: 1
  }
  convolution_param {
    num_output: 32
    bias_term: false
    pad: 1
    kernel_size: 3
    weight_filler {
      type: "xavier"
    }
  }
}
layer {
  name: "bn1_2_D"
  type: "BatchNorm"
  bottom: "conv1_2_D"
  top: "conv1_2_D"
  param {
    lr_mult: 0
  }
  param {
    lr_mult: 0
  }
  param {
    lr_mult: 0
  }
  batch_norm_param {
    use_global_stats: false
  }
}
layer {
  name: "scale1_2_D"
  type: "Scale"
  bottom: "conv1_2_D"
  top: "conv1_2_D"
  param {
    lr_mult: 1
    decay_mult: 1
  }
  param {
    lr_mult: 1
    decay_mult: 1
  }
  scale_param {
    bias_term: true
    bias_filler {
      type: "constant"
      value: 0
    }
  }
}
layer {
  name: "relu1_2_D"
  type: "ReLU"
  bottom: "conv1_2_D"
  top: "conv1_2_D"
}
layer {
  name: "conv1_1_D"
  type: "Convolution"
  bottom: "conv1_2_D"
  top: "conv1_1_D"
  param {
    lr_mult: 1
    decay_mult: 1
  }
  param {
    lr_mult: 0.1
    decay_mult: 1
  }
  convolution_param {
    num_output: 2
    bias_term: true
    pad: 1
    kernel_size: 3
    weight_filler {
      type: "xavier"
    }
    bias_filler {
      type: "constant"
    }
  }
}
layer {
  name: "loss"
  type: "SoftmaxWithLoss"
  bottom: "conv1_1_D"
  bottom: "label"
  top: "loss"
}
layer {
  name: "accuracy"
  type: "Accuracy"
  bottom: "conv1_1_D"
  bottom: "label"
  top: "accuracy"
}
I0624 13:08:47.149863 17689 layer_factory.hpp:77] Creating layer data
I0624 13:08:47.149904 17689 net.cpp:91] Creating Layer data
I0624 13:08:47.149911 17689 net.cpp:399] data -> data
I0624 13:08:47.149936 17689 net.cpp:399] data -> label
I0624 13:08:47.150357 17689 dense_image_data_layer.cpp:38] Opening file data/train.txt
I0624 13:08:47.153367 17689 dense_image_data_layer.cpp:48] Shuffling data
I0624 13:08:47.154036 17689 dense_image_data_layer.cpp:53] A total of 4930 examples.
I0624 13:08:47.440945 17689 dense_image_data_layer.cpp:92] output data size: 1,1,224,224
I0624 13:08:47.442751 17689 net.cpp:141] Setting up data
I0624 13:08:47.442770 17689 net.cpp:148] Top shape: 1 1 224 224 (50176)
I0624 13:08:47.442775 17689 net.cpp:148] Top shape: 1 1 224 224 (50176)
I0624 13:08:47.442777 17689 net.cpp:156] Memory required for data: 401408
I0624 13:08:47.442783 17689 layer_factory.hpp:77] Creating layer label_data_1_split
I0624 13:08:47.442801 17689 net.cpp:91] Creating Layer label_data_1_split
I0624 13:08:47.442806 17689 net.cpp:425] label_data_1_split <- label
I0624 13:08:47.442816 17689 net.cpp:399] label_data_1_split -> label_data_1_split_0
I0624 13:08:47.442823 17689 net.cpp:399] label_data_1_split -> label_data_1_split_1
I0624 13:08:47.442912 17689 net.cpp:141] Setting up label_data_1_split
I0624 13:08:47.442920 17689 net.cpp:148] Top shape: 1 1 224 224 (50176)
I0624 13:08:47.442924 17689 net.cpp:148] Top shape: 1 1 224 224 (50176)
I0624 13:08:47.442926 17689 net.cpp:156] Memory required for data: 802816
I0624 13:08:47.442929 17689 layer_factory.hpp:77] Creating layer conv1_1
I0624 13:08:47.442945 17689 net.cpp:91] Creating Layer conv1_1
I0624 13:08:47.442950 17689 net.cpp:425] conv1_1 <- data
I0624 13:08:47.442953 17689 net.cpp:399] conv1_1 -> conv1_1
I0624 13:08:47.633036 17689 net.cpp:141] Setting up conv1_1
I0624 13:08:47.633061 17689 net.cpp:148] Top shape: 1 32 224 224 (1605632)
I0624 13:08:47.633064 17689 net.cpp:156] Memory required for data: 7225344
I0624 13:08:47.633075 17689 layer_factory.hpp:77] Creating layer bn1_1
I0624 13:08:47.633090 17689 net.cpp:91] Creating Layer bn1_1
I0624 13:08:47.633093 17689 net.cpp:425] bn1_1 <- conv1_1
I0624 13:08:47.633097 17689 net.cpp:386] bn1_1 -> conv1_1 (in-place)
I0624 13:08:47.633293 17689 net.cpp:141] Setting up bn1_1
I0624 13:08:47.633301 17689 net.cpp:148] Top shape: 1 32 224 224 (1605632)
I0624 13:08:47.633304 17689 net.cpp:156] Memory required for data: 13647872
I0624 13:08:47.633314 17689 layer_factory.hpp:77] Creating layer scale1_1
I0624 13:08:47.633324 17689 net.cpp:91] Creating Layer scale1_1
I0624 13:08:47.633329 17689 net.cpp:425] scale1_1 <- conv1_1
I0624 13:08:47.633333 17689 net.cpp:386] scale1_1 -> conv1_1 (in-place)
I0624 13:08:47.633371 17689 layer_factory.hpp:77] Creating layer scale1_1
I0624 13:08:47.633541 17689 net.cpp:141] Setting up scale1_1
I0624 13:08:47.633549 17689 net.cpp:148] Top shape: 1 32 224 224 (1605632)
I0624 13:08:47.633551 17689 net.cpp:156] Memory required for data: 20070400
I0624 13:08:47.633558 17689 layer_factory.hpp:77] Creating layer relu1_1
I0624 13:08:47.633565 17689 net.cpp:91] Creating Layer relu1_1
I0624 13:08:47.633568 17689 net.cpp:425] relu1_1 <- conv1_1
I0624 13:08:47.633571 17689 net.cpp:386] relu1_1 -> conv1_1 (in-place)
I0624 13:08:47.633851 17689 net.cpp:141] Setting up relu1_1
I0624 13:08:47.633862 17689 net.cpp:148] Top shape: 1 32 224 224 (1605632)
I0624 13:08:47.633864 17689 net.cpp:156] Memory required for data: 26492928
I0624 13:08:47.633867 17689 layer_factory.hpp:77] Creating layer conv1_2
I0624 13:08:47.633877 17689 net.cpp:91] Creating Layer conv1_2
I0624 13:08:47.633880 17689 net.cpp:425] conv1_2 <- conv1_1
I0624 13:08:47.633887 17689 net.cpp:399] conv1_2 -> conv1_2
I0624 13:08:47.635500 17689 net.cpp:141] Setting up conv1_2
I0624 13:08:47.635514 17689 net.cpp:148] Top shape: 1 32 224 224 (1605632)
I0624 13:08:47.635515 17689 net.cpp:156] Memory required for data: 32915456
I0624 13:08:47.635520 17689 layer_factory.hpp:77] Creating layer bn1_2
I0624 13:08:47.635527 17689 net.cpp:91] Creating Layer bn1_2
I0624 13:08:47.635529 17689 net.cpp:425] bn1_2 <- conv1_2
I0624 13:08:47.635534 17689 net.cpp:386] bn1_2 -> conv1_2 (in-place)
I0624 13:08:47.635717 17689 net.cpp:141] Setting up bn1_2
I0624 13:08:47.635725 17689 net.cpp:148] Top shape: 1 32 224 224 (1605632)
I0624 13:08:47.635728 17689 net.cpp:156] Memory required for data: 39337984
I0624 13:08:47.635738 17689 layer_factory.hpp:77] Creating layer scale1_2
I0624 13:08:47.635759 17689 net.cpp:91] Creating Layer scale1_2
I0624 13:08:47.635762 17689 net.cpp:425] scale1_2 <- conv1_2
I0624 13:08:47.635766 17689 net.cpp:386] scale1_2 -> conv1_2 (in-place)
I0624 13:08:47.635803 17689 layer_factory.hpp:77] Creating layer scale1_2
I0624 13:08:47.635970 17689 net.cpp:141] Setting up scale1_2
I0624 13:08:47.635978 17689 net.cpp:148] Top shape: 1 32 224 224 (1605632)
I0624 13:08:47.635980 17689 net.cpp:156] Memory required for data: 45760512
I0624 13:08:47.635985 17689 layer_factory.hpp:77] Creating layer relu1_2
I0624 13:08:47.635989 17689 net.cpp:91] Creating Layer relu1_2
I0624 13:08:47.635993 17689 net.cpp:425] relu1_2 <- conv1_2
I0624 13:08:47.635996 17689 net.cpp:386] relu1_2 -> conv1_2 (in-place)
I0624 13:08:47.636137 17689 net.cpp:141] Setting up relu1_2
I0624 13:08:47.636145 17689 net.cpp:148] Top shape: 1 32 224 224 (1605632)
I0624 13:08:47.636148 17689 net.cpp:156] Memory required for data: 52183040
I0624 13:08:47.636152 17689 layer_factory.hpp:77] Creating layer pool1
I0624 13:08:47.636154 17689 layer_factory.cpp:90] cuDNN does not support multiple tops. Using Caffe's own pooling layer.
I0624 13:08:47.636162 17689 net.cpp:91] Creating Layer pool1
I0624 13:08:47.636163 17689 net.cpp:425] pool1 <- conv1_2
I0624 13:08:47.636168 17689 net.cpp:399] pool1 -> pool1
I0624 13:08:47.636175 17689 net.cpp:399] pool1 -> pool1_mask
I0624 13:08:47.636216 17689 net.cpp:141] Setting up pool1
I0624 13:08:47.636224 17689 net.cpp:148] Top shape: 1 32 112 112 (401408)
I0624 13:08:47.636226 17689 net.cpp:148] Top shape: 1 32 112 112 (401408)
I0624 13:08:47.636229 17689 net.cpp:156] Memory required for data: 55394304
I0624 13:08:47.636231 17689 layer_factory.hpp:77] Creating layer conv2_1
I0624 13:08:47.636239 17689 net.cpp:91] Creating Layer conv2_1
I0624 13:08:47.636241 17689 net.cpp:425] conv2_1 <- pool1
I0624 13:08:47.636246 17689 net.cpp:399] conv2_1 -> conv2_1
I0624 13:08:47.637883 17689 net.cpp:141] Setting up conv2_1
I0624 13:08:47.637897 17689 net.cpp:148] Top shape: 1 64 112 112 (802816)
I0624 13:08:47.637899 17689 net.cpp:156] Memory required for data: 58605568
I0624 13:08:47.637904 17689 layer_factory.hpp:77] Creating layer bn2_1
I0624 13:08:47.637910 17689 net.cpp:91] Creating Layer bn2_1
I0624 13:08:47.637912 17689 net.cpp:425] bn2_1 <- conv2_1
I0624 13:08:47.637917 17689 net.cpp:386] bn2_1 -> conv2_1 (in-place)
I0624 13:08:47.638078 17689 net.cpp:141] Setting up bn2_1
I0624 13:08:47.638085 17689 net.cpp:148] Top shape: 1 64 112 112 (802816)
I0624 13:08:47.638088 17689 net.cpp:156] Memory required for data: 61816832
I0624 13:08:47.638093 17689 layer_factory.hpp:77] Creating layer scale2_1
I0624 13:08:47.638099 17689 net.cpp:91] Creating Layer scale2_1
I0624 13:08:47.638101 17689 net.cpp:425] scale2_1 <- conv2_1
I0624 13:08:47.638108 17689 net.cpp:386] scale2_1 -> conv2_1 (in-place)
I0624 13:08:47.638142 17689 layer_factory.hpp:77] Creating layer scale2_1
I0624 13:08:47.638245 17689 net.cpp:141] Setting up scale2_1
I0624 13:08:47.638252 17689 net.cpp:148] Top shape: 1 64 112 112 (802816)
I0624 13:08:47.638255 17689 net.cpp:156] Memory required for data: 65028096
I0624 13:08:47.638262 17689 layer_factory.hpp:77] Creating layer relu2_1
I0624 13:08:47.638268 17689 net.cpp:91] Creating Layer relu2_1
I0624 13:08:47.638272 17689 net.cpp:425] relu2_1 <- conv2_1
I0624 13:08:47.638274 17689 net.cpp:386] relu2_1 -> conv2_1 (in-place)
I0624 13:08:47.638540 17689 net.cpp:141] Setting up relu2_1
I0624 13:08:47.638551 17689 net.cpp:148] Top shape: 1 64 112 112 (802816)
I0624 13:08:47.638553 17689 net.cpp:156] Memory required for data: 68239360
I0624 13:08:47.638556 17689 layer_factory.hpp:77] Creating layer conv2_2
I0624 13:08:47.638564 17689 net.cpp:91] Creating Layer conv2_2
I0624 13:08:47.638567 17689 net.cpp:425] conv2_2 <- conv2_1
I0624 13:08:47.638573 17689 net.cpp:399] conv2_2 -> conv2_2
I0624 13:08:47.639617 17689 net.cpp:141] Setting up conv2_2
I0624 13:08:47.639631 17689 net.cpp:148] Top shape: 1 64 112 112 (802816)
I0624 13:08:47.639633 17689 net.cpp:156] Memory required for data: 71450624
I0624 13:08:47.639648 17689 layer_factory.hpp:77] Creating layer bn2_2
I0624 13:08:47.639657 17689 net.cpp:91] Creating Layer bn2_2
I0624 13:08:47.639660 17689 net.cpp:425] bn2_2 <- conv2_2
I0624 13:08:47.639664 17689 net.cpp:386] bn2_2 -> conv2_2 (in-place)
I0624 13:08:47.639822 17689 net.cpp:141] Setting up bn2_2
I0624 13:08:47.639829 17689 net.cpp:148] Top shape: 1 64 112 112 (802816)
I0624 13:08:47.639832 17689 net.cpp:156] Memory required for data: 74661888
I0624 13:08:47.639842 17689 layer_factory.hpp:77] Creating layer scale2_2
I0624 13:08:47.639847 17689 net.cpp:91] Creating Layer scale2_2
I0624 13:08:47.639849 17689 net.cpp:425] scale2_2 <- conv2_2
I0624 13:08:47.639853 17689 net.cpp:386] scale2_2 -> conv2_2 (in-place)
I0624 13:08:47.639888 17689 layer_factory.hpp:77] Creating layer scale2_2
I0624 13:08:47.639988 17689 net.cpp:141] Setting up scale2_2
I0624 13:08:47.639996 17689 net.cpp:148] Top shape: 1 64 112 112 (802816)
I0624 13:08:47.639997 17689 net.cpp:156] Memory required for data: 77873152
I0624 13:08:47.640002 17689 layer_factory.hpp:77] Creating layer relu2_2
I0624 13:08:47.640007 17689 net.cpp:91] Creating Layer relu2_2
I0624 13:08:47.640009 17689 net.cpp:425] relu2_2 <- conv2_2
I0624 13:08:47.640013 17689 net.cpp:386] relu2_2 -> conv2_2 (in-place)
I0624 13:08:47.640286 17689 net.cpp:141] Setting up relu2_2
I0624 13:08:47.640296 17689 net.cpp:148] Top shape: 1 64 112 112 (802816)
I0624 13:08:47.640300 17689 net.cpp:156] Memory required for data: 81084416
I0624 13:08:47.640302 17689 layer_factory.hpp:77] Creating layer pool2
I0624 13:08:47.640305 17689 layer_factory.cpp:90] cuDNN does not support multiple tops. Using Caffe's own pooling layer.
I0624 13:08:47.640310 17689 net.cpp:91] Creating Layer pool2
I0624 13:08:47.640312 17689 net.cpp:425] pool2 <- conv2_2
I0624 13:08:47.640317 17689 net.cpp:399] pool2 -> pool2
I0624 13:08:47.640323 17689 net.cpp:399] pool2 -> pool2_mask
I0624 13:08:47.640360 17689 net.cpp:141] Setting up pool2
I0624 13:08:47.640365 17689 net.cpp:148] Top shape: 1 64 56 56 (200704)
I0624 13:08:47.640368 17689 net.cpp:148] Top shape: 1 64 56 56 (200704)
I0624 13:08:47.640370 17689 net.cpp:156] Memory required for data: 82690048
I0624 13:08:47.640372 17689 layer_factory.hpp:77] Creating layer conv3_1
I0624 13:08:47.640380 17689 net.cpp:91] Creating Layer conv3_1
I0624 13:08:47.640383 17689 net.cpp:425] conv3_1 <- pool2
I0624 13:08:47.640388 17689 net.cpp:399] conv3_1 -> conv3_1
I0624 13:08:47.642314 17689 net.cpp:141] Setting up conv3_1
I0624 13:08:47.642326 17689 net.cpp:148] Top shape: 1 128 56 56 (401408)
I0624 13:08:47.642329 17689 net.cpp:156] Memory required for data: 84295680
I0624 13:08:47.642333 17689 layer_factory.hpp:77] Creating layer bn3_1
I0624 13:08:47.642340 17689 net.cpp:91] Creating Layer bn3_1
I0624 13:08:47.642343 17689 net.cpp:425] bn3_1 <- conv3_1
I0624 13:08:47.642349 17689 net.cpp:386] bn3_1 -> conv3_1 (in-place)
I0624 13:08:47.643087 17689 net.cpp:141] Setting up bn3_1
I0624 13:08:47.643100 17689 net.cpp:148] Top shape: 1 128 56 56 (401408)
I0624 13:08:47.643101 17689 net.cpp:156] Memory required for data: 85901312
I0624 13:08:47.643108 17689 layer_factory.hpp:77] Creating layer scale3_1
I0624 13:08:47.643115 17689 net.cpp:91] Creating Layer scale3_1
I0624 13:08:47.643118 17689 net.cpp:425] scale3_1 <- conv3_1
I0624 13:08:47.643122 17689 net.cpp:386] scale3_1 -> conv3_1 (in-place)
I0624 13:08:47.643167 17689 layer_factory.hpp:77] Creating layer scale3_1
I0624 13:08:47.643260 17689 net.cpp:141] Setting up scale3_1
I0624 13:08:47.643267 17689 net.cpp:148] Top shape: 1 128 56 56 (401408)
I0624 13:08:47.643270 17689 net.cpp:156] Memory required for data: 87506944
I0624 13:08:47.643275 17689 layer_factory.hpp:77] Creating layer relu3_1
I0624 13:08:47.643280 17689 net.cpp:91] Creating Layer relu3_1
I0624 13:08:47.643283 17689 net.cpp:425] relu3_1 <- conv3_1
I0624 13:08:47.643286 17689 net.cpp:386] relu3_1 -> conv3_1 (in-place)
I0624 13:08:47.643438 17689 net.cpp:141] Setting up relu3_1
I0624 13:08:47.643447 17689 net.cpp:148] Top shape: 1 128 56 56 (401408)
I0624 13:08:47.643458 17689 net.cpp:156] Memory required for data: 89112576
I0624 13:08:47.643461 17689 layer_factory.hpp:77] Creating layer conv3_2
I0624 13:08:47.643470 17689 net.cpp:91] Creating Layer conv3_2
I0624 13:08:47.643472 17689 net.cpp:425] conv3_2 <- conv3_1
I0624 13:08:47.643479 17689 net.cpp:399] conv3_2 -> conv3_2
I0624 13:08:47.645252 17689 net.cpp:141] Setting up conv3_2
I0624 13:08:47.645264 17689 net.cpp:148] Top shape: 1 128 56 56 (401408)
I0624 13:08:47.645267 17689 net.cpp:156] Memory required for data: 90718208
I0624 13:08:47.645272 17689 layer_factory.hpp:77] Creating layer bn3_2
I0624 13:08:47.645279 17689 net.cpp:91] Creating Layer bn3_2
I0624 13:08:47.645282 17689 net.cpp:425] bn3_2 <- conv3_2
I0624 13:08:47.645287 17689 net.cpp:386] bn3_2 -> conv3_2 (in-place)
I0624 13:08:47.645439 17689 net.cpp:141] Setting up bn3_2
I0624 13:08:47.645447 17689 net.cpp:148] Top shape: 1 128 56 56 (401408)
I0624 13:08:47.645449 17689 net.cpp:156] Memory required for data: 92323840
I0624 13:08:47.645460 17689 layer_factory.hpp:77] Creating layer scale3_2
I0624 13:08:47.645465 17689 net.cpp:91] Creating Layer scale3_2
I0624 13:08:47.645468 17689 net.cpp:425] scale3_2 <- conv3_2
I0624 13:08:47.645473 17689 net.cpp:386] scale3_2 -> conv3_2 (in-place)
I0624 13:08:47.645505 17689 layer_factory.hpp:77] Creating layer scale3_2
I0624 13:08:47.645603 17689 net.cpp:141] Setting up scale3_2
I0624 13:08:47.645612 17689 net.cpp:148] Top shape: 1 128 56 56 (401408)
I0624 13:08:47.645614 17689 net.cpp:156] Memory required for data: 93929472
I0624 13:08:47.645619 17689 layer_factory.hpp:77] Creating layer relu3_2
I0624 13:08:47.645623 17689 net.cpp:91] Creating Layer relu3_2
I0624 13:08:47.645627 17689 net.cpp:425] relu3_2 <- conv3_2
I0624 13:08:47.645629 17689 net.cpp:386] relu3_2 -> conv3_2 (in-place)
I0624 13:08:47.645902 17689 net.cpp:141] Setting up relu3_2
I0624 13:08:47.645913 17689 net.cpp:148] Top shape: 1 128 56 56 (401408)
I0624 13:08:47.645916 17689 net.cpp:156] Memory required for data: 95535104
I0624 13:08:47.645920 17689 layer_factory.hpp:77] Creating layer pool3
I0624 13:08:47.645922 17689 layer_factory.cpp:90] cuDNN does not support multiple tops. Using Caffe's own pooling layer.
I0624 13:08:47.645926 17689 net.cpp:91] Creating Layer pool3
I0624 13:08:47.645930 17689 net.cpp:425] pool3 <- conv3_2
I0624 13:08:47.645933 17689 net.cpp:399] pool3 -> pool3
I0624 13:08:47.645939 17689 net.cpp:399] pool3 -> pool3_mask
I0624 13:08:47.645978 17689 net.cpp:141] Setting up pool3
I0624 13:08:47.645983 17689 net.cpp:148] Top shape: 1 128 28 28 (100352)
I0624 13:08:47.645987 17689 net.cpp:148] Top shape: 1 128 28 28 (100352)
I0624 13:08:47.645988 17689 net.cpp:156] Memory required for data: 96337920
I0624 13:08:47.645990 17689 layer_factory.hpp:77] Creating layer conv4_1
I0624 13:08:47.645998 17689 net.cpp:91] Creating Layer conv4_1
I0624 13:08:47.646000 17689 net.cpp:425] conv4_1 <- pool3
I0624 13:08:47.646005 17689 net.cpp:399] conv4_1 -> conv4_1
I0624 13:08:47.649229 17689 net.cpp:141] Setting up conv4_1
I0624 13:08:47.649242 17689 net.cpp:148] Top shape: 1 256 28 28 (200704)
I0624 13:08:47.649245 17689 net.cpp:156] Memory required for data: 97140736
I0624 13:08:47.649250 17689 layer_factory.hpp:77] Creating layer bn4_1
I0624 13:08:47.649256 17689 net.cpp:91] Creating Layer bn4_1
I0624 13:08:47.649260 17689 net.cpp:425] bn4_1 <- conv4_1
I0624 13:08:47.649265 17689 net.cpp:386] bn4_1 -> conv4_1 (in-place)
I0624 13:08:47.649425 17689 net.cpp:141] Setting up bn4_1
I0624 13:08:47.649431 17689 net.cpp:148] Top shape: 1 256 28 28 (200704)
I0624 13:08:47.649433 17689 net.cpp:156] Memory required for data: 97943552
I0624 13:08:47.649440 17689 layer_factory.hpp:77] Creating layer scale4_1
I0624 13:08:47.649446 17689 net.cpp:91] Creating Layer scale4_1
I0624 13:08:47.649447 17689 net.cpp:425] scale4_1 <- conv4_1
I0624 13:08:47.649452 17689 net.cpp:386] scale4_1 -> conv4_1 (in-place)
I0624 13:08:47.649487 17689 layer_factory.hpp:77] Creating layer scale4_1
I0624 13:08:47.649580 17689 net.cpp:141] Setting up scale4_1
I0624 13:08:47.649597 17689 net.cpp:148] Top shape: 1 256 28 28 (200704)
I0624 13:08:47.649600 17689 net.cpp:156] Memory required for data: 98746368
I0624 13:08:47.649605 17689 layer_factory.hpp:77] Creating layer relu4_1
I0624 13:08:47.649612 17689 net.cpp:91] Creating Layer relu4_1
I0624 13:08:47.649616 17689 net.cpp:425] relu4_1 <- conv4_1
I0624 13:08:47.649618 17689 net.cpp:386] relu4_1 -> conv4_1 (in-place)
I0624 13:08:47.649894 17689 net.cpp:141] Setting up relu4_1
I0624 13:08:47.649905 17689 net.cpp:148] Top shape: 1 256 28 28 (200704)
I0624 13:08:47.649909 17689 net.cpp:156] Memory required for data: 99549184
I0624 13:08:47.649911 17689 layer_factory.hpp:77] Creating layer conv4_2
I0624 13:08:47.649920 17689 net.cpp:91] Creating Layer conv4_2
I0624 13:08:47.649924 17689 net.cpp:425] conv4_2 <- conv4_1
I0624 13:08:47.649929 17689 net.cpp:399] conv4_2 -> conv4_2
I0624 13:08:47.655494 17689 net.cpp:141] Setting up conv4_2
I0624 13:08:47.655508 17689 net.cpp:148] Top shape: 1 256 28 28 (200704)
I0624 13:08:47.655510 17689 net.cpp:156] Memory required for data: 100352000
I0624 13:08:47.655515 17689 layer_factory.hpp:77] Creating layer bn4_2
I0624 13:08:47.655522 17689 net.cpp:91] Creating Layer bn4_2
I0624 13:08:47.655525 17689 net.cpp:425] bn4_2 <- conv4_2
I0624 13:08:47.655530 17689 net.cpp:386] bn4_2 -> conv4_2 (in-place)
I0624 13:08:47.655699 17689 net.cpp:141] Setting up bn4_2
I0624 13:08:47.655705 17689 net.cpp:148] Top shape: 1 256 28 28 (200704)
I0624 13:08:47.655709 17689 net.cpp:156] Memory required for data: 101154816
I0624 13:08:47.655714 17689 layer_factory.hpp:77] Creating layer scale4_2
I0624 13:08:47.655719 17689 net.cpp:91] Creating Layer scale4_2
I0624 13:08:47.655722 17689 net.cpp:425] scale4_2 <- conv4_2
I0624 13:08:47.655725 17689 net.cpp:386] scale4_2 -> conv4_2 (in-place)
I0624 13:08:47.655760 17689 layer_factory.hpp:77] Creating layer scale4_2
I0624 13:08:47.655849 17689 net.cpp:141] Setting up scale4_2
I0624 13:08:47.655856 17689 net.cpp:148] Top shape: 1 256 28 28 (200704)
I0624 13:08:47.655858 17689 net.cpp:156] Memory required for data: 101957632
I0624 13:08:47.655863 17689 layer_factory.hpp:77] Creating layer relu4_2
I0624 13:08:47.655867 17689 net.cpp:91] Creating Layer relu4_2
I0624 13:08:47.655869 17689 net.cpp:425] relu4_2 <- conv4_2
I0624 13:08:47.655874 17689 net.cpp:386] relu4_2 -> conv4_2 (in-place)
I0624 13:08:47.656018 17689 net.cpp:141] Setting up relu4_2
I0624 13:08:47.656026 17689 net.cpp:148] Top shape: 1 256 28 28 (200704)
I0624 13:08:47.656028 17689 net.cpp:156] Memory required for data: 102760448
I0624 13:08:47.656031 17689 layer_factory.hpp:77] Creating layer pool4
I0624 13:08:47.656033 17689 layer_factory.cpp:90] cuDNN does not support multiple tops. Using Caffe's own pooling layer.
I0624 13:08:47.656039 17689 net.cpp:91] Creating Layer pool4
I0624 13:08:47.656041 17689 net.cpp:425] pool4 <- conv4_2
I0624 13:08:47.656045 17689 net.cpp:399] pool4 -> pool4
I0624 13:08:47.656052 17689 net.cpp:399] pool4 -> pool4_mask
I0624 13:08:47.656090 17689 net.cpp:141] Setting up pool4
I0624 13:08:47.656095 17689 net.cpp:148] Top shape: 1 256 14 14 (50176)
I0624 13:08:47.656098 17689 net.cpp:148] Top shape: 1 256 14 14 (50176)
I0624 13:08:47.656100 17689 net.cpp:156] Memory required for data: 103161856
I0624 13:08:47.656102 17689 layer_factory.hpp:77] Creating layer conv5_1
I0624 13:08:47.656111 17689 net.cpp:91] Creating Layer conv5_1
I0624 13:08:47.656113 17689 net.cpp:425] conv5_1 <- pool4
I0624 13:08:47.656118 17689 net.cpp:399] conv5_1 -> conv5_1
I0624 13:08:47.661506 17689 net.cpp:141] Setting up conv5_1
I0624 13:08:47.661520 17689 net.cpp:148] Top shape: 1 256 14 14 (50176)
I0624 13:08:47.661522 17689 net.cpp:156] Memory required for data: 103362560
I0624 13:08:47.661526 17689 layer_factory.hpp:77] Creating layer bn5_1
I0624 13:08:47.661533 17689 net.cpp:91] Creating Layer bn5_1
I0624 13:08:47.661536 17689 net.cpp:425] bn5_1 <- conv5_1
I0624 13:08:47.661540 17689 net.cpp:386] bn5_1 -> conv5_1 (in-place)
I0624 13:08:47.661705 17689 net.cpp:141] Setting up bn5_1
I0624 13:08:47.661722 17689 net.cpp:148] Top shape: 1 256 14 14 (50176)
I0624 13:08:47.661725 17689 net.cpp:156] Memory required for data: 103563264
I0624 13:08:47.661731 17689 layer_factory.hpp:77] Creating layer scale5_1
I0624 13:08:47.661737 17689 net.cpp:91] Creating Layer scale5_1
I0624 13:08:47.661741 17689 net.cpp:425] scale5_1 <- conv5_1
I0624 13:08:47.661744 17689 net.cpp:386] scale5_1 -> conv5_1 (in-place)
I0624 13:08:47.661782 17689 layer_factory.hpp:77] Creating layer scale5_1
I0624 13:08:47.661875 17689 net.cpp:141] Setting up scale5_1
I0624 13:08:47.661881 17689 net.cpp:148] Top shape: 1 256 14 14 (50176)
I0624 13:08:47.661885 17689 net.cpp:156] Memory required for data: 103763968
I0624 13:08:47.661888 17689 layer_factory.hpp:77] Creating layer relu5_1
I0624 13:08:47.661893 17689 net.cpp:91] Creating Layer relu5_1
I0624 13:08:47.661896 17689 net.cpp:425] relu5_1 <- conv5_1
I0624 13:08:47.661900 17689 net.cpp:386] relu5_1 -> conv5_1 (in-place)
I0624 13:08:47.662173 17689 net.cpp:141] Setting up relu5_1
I0624 13:08:47.662184 17689 net.cpp:148] Top shape: 1 256 14 14 (50176)
I0624 13:08:47.662185 17689 net.cpp:156] Memory required for data: 103964672
I0624 13:08:47.662189 17689 layer_factory.hpp:77] Creating layer conv5_2
I0624 13:08:47.662199 17689 net.cpp:91] Creating Layer conv5_2
I0624 13:08:47.662202 17689 net.cpp:425] conv5_2 <- conv5_1
I0624 13:08:47.662207 17689 net.cpp:399] conv5_2 -> conv5_2
I0624 13:08:47.667582 17689 net.cpp:141] Setting up conv5_2
I0624 13:08:47.667596 17689 net.cpp:148] Top shape: 1 256 14 14 (50176)
I0624 13:08:47.667599 17689 net.cpp:156] Memory required for data: 104165376
I0624 13:08:47.667603 17689 layer_factory.hpp:77] Creating layer bn5_2
I0624 13:08:47.667610 17689 net.cpp:91] Creating Layer bn5_2
I0624 13:08:47.667613 17689 net.cpp:425] bn5_2 <- conv5_2
I0624 13:08:47.667619 17689 net.cpp:386] bn5_2 -> conv5_2 (in-place)
I0624 13:08:47.667783 17689 net.cpp:141] Setting up bn5_2
I0624 13:08:47.667789 17689 net.cpp:148] Top shape: 1 256 14 14 (50176)
I0624 13:08:47.667793 17689 net.cpp:156] Memory required for data: 104366080
I0624 13:08:47.667798 17689 layer_factory.hpp:77] Creating layer scale5_2
I0624 13:08:47.667804 17689 net.cpp:91] Creating Layer scale5_2
I0624 13:08:47.667805 17689 net.cpp:425] scale5_2 <- conv5_2
I0624 13:08:47.667810 17689 net.cpp:386] scale5_2 -> conv5_2 (in-place)
I0624 13:08:47.667845 17689 layer_factory.hpp:77] Creating layer scale5_2
I0624 13:08:47.667937 17689 net.cpp:141] Setting up scale5_2
I0624 13:08:47.667943 17689 net.cpp:148] Top shape: 1 256 14 14 (50176)
I0624 13:08:47.667945 17689 net.cpp:156] Memory required for data: 104566784
I0624 13:08:47.667950 17689 layer_factory.hpp:77] Creating layer relu5_2
I0624 13:08:47.667954 17689 net.cpp:91] Creating Layer relu5_2
I0624 13:08:47.667958 17689 net.cpp:425] relu5_2 <- conv5_2
I0624 13:08:47.667960 17689 net.cpp:386] relu5_2 -> conv5_2 (in-place)
I0624 13:08:47.668242 17689 net.cpp:141] Setting up relu5_2
I0624 13:08:47.668254 17689 net.cpp:148] Top shape: 1 256 14 14 (50176)
I0624 13:08:47.668257 17689 net.cpp:156] Memory required for data: 104767488
I0624 13:08:47.668261 17689 layer_factory.hpp:77] Creating layer pool5
I0624 13:08:47.668263 17689 layer_factory.cpp:90] cuDNN does not support multiple tops. Using Caffe's own pooling layer.
I0624 13:08:47.668267 17689 net.cpp:91] Creating Layer pool5
I0624 13:08:47.668270 17689 net.cpp:425] pool5 <- conv5_2
I0624 13:08:47.668274 17689 net.cpp:399] pool5 -> pool5
I0624 13:08:47.668282 17689 net.cpp:399] pool5 -> pool5_mask
I0624 13:08:47.668323 17689 net.cpp:141] Setting up pool5
I0624 13:08:47.668329 17689 net.cpp:148] Top shape: 1 256 7 7 (12544)
I0624 13:08:47.668331 17689 net.cpp:148] Top shape: 1 256 7 7 (12544)
I0624 13:08:47.668334 17689 net.cpp:156] Memory required for data: 104867840
I0624 13:08:47.668336 17689 layer_factory.hpp:77] Creating layer upsample5
I0624 13:08:47.668342 17689 net.cpp:91] Creating Layer upsample5
I0624 13:08:47.668345 17689 net.cpp:425] upsample5 <- pool5
I0624 13:08:47.668349 17689 net.cpp:425] upsample5 <- pool5_mask
I0624 13:08:47.668365 17689 net.cpp:399] upsample5 -> pool5_D
I0624 13:08:47.668416 17689 net.cpp:141] Setting up upsample5
I0624 13:08:47.668421 17689 net.cpp:148] Top shape: 1 256 14 14 (50176)
I0624 13:08:47.668424 17689 net.cpp:156] Memory required for data: 105068544
I0624 13:08:47.668426 17689 layer_factory.hpp:77] Creating layer conv5_2_D
I0624 13:08:47.668434 17689 net.cpp:91] Creating Layer conv5_2_D
I0624 13:08:47.668437 17689 net.cpp:425] conv5_2_D <- pool5_D
I0624 13:08:47.668442 17689 net.cpp:399] conv5_2_D -> conv5_2_D
I0624 13:08:47.673892 17689 net.cpp:141] Setting up conv5_2_D
I0624 13:08:47.673904 17689 net.cpp:148] Top shape: 1 256 14 14 (50176)
I0624 13:08:47.673907 17689 net.cpp:156] Memory required for data: 105269248
I0624 13:08:47.673912 17689 layer_factory.hpp:77] Creating layer bn5_2_D
I0624 13:08:47.673918 17689 net.cpp:91] Creating Layer bn5_2_D
I0624 13:08:47.673921 17689 net.cpp:425] bn5_2_D <- conv5_2_D
I0624 13:08:47.673926 17689 net.cpp:386] bn5_2_D -> conv5_2_D (in-place)
I0624 13:08:47.674094 17689 net.cpp:141] Setting up bn5_2_D
I0624 13:08:47.674103 17689 net.cpp:148] Top shape: 1 256 14 14 (50176)
I0624 13:08:47.674104 17689 net.cpp:156] Memory required for data: 105469952
I0624 13:08:47.674110 17689 layer_factory.hpp:77] Creating layer scale5_2_D
I0624 13:08:47.674118 17689 net.cpp:91] Creating Layer scale5_2_D
I0624 13:08:47.674120 17689 net.cpp:425] scale5_2_D <- conv5_2_D
I0624 13:08:47.674124 17689 net.cpp:386] scale5_2_D -> conv5_2_D (in-place)
I0624 13:08:47.674160 17689 layer_factory.hpp:77] Creating layer scale5_2_D
I0624 13:08:47.674252 17689 net.cpp:141] Setting up scale5_2_D
I0624 13:08:47.674260 17689 net.cpp:148] Top shape: 1 256 14 14 (50176)
I0624 13:08:47.674263 17689 net.cpp:156] Memory required for data: 105670656
I0624 13:08:47.674276 17689 layer_factory.hpp:77] Creating layer relu5_2_D
I0624 13:08:47.674281 17689 net.cpp:91] Creating Layer relu5_2_D
I0624 13:08:47.674283 17689 net.cpp:425] relu5_2_D <- conv5_2_D
I0624 13:08:47.674288 17689 net.cpp:386] relu5_2_D -> conv5_2_D (in-place)
I0624 13:08:47.674435 17689 net.cpp:141] Setting up relu5_2_D
I0624 13:08:47.674444 17689 net.cpp:148] Top shape: 1 256 14 14 (50176)
I0624 13:08:47.674446 17689 net.cpp:156] Memory required for data: 105871360
I0624 13:08:47.674449 17689 layer_factory.hpp:77] Creating layer conv5_1_D
I0624 13:08:47.674458 17689 net.cpp:91] Creating Layer conv5_1_D
I0624 13:08:47.674460 17689 net.cpp:425] conv5_1_D <- conv5_2_D
I0624 13:08:47.674465 17689 net.cpp:399] conv5_1_D -> conv5_1_D
I0624 13:08:47.679868 17689 net.cpp:141] Setting up conv5_1_D
I0624 13:08:47.679883 17689 net.cpp:148] Top shape: 1 256 14 14 (50176)
I0624 13:08:47.679885 17689 net.cpp:156] Memory required for data: 106072064
I0624 13:08:47.679890 17689 layer_factory.hpp:77] Creating layer bn5_1_D
I0624 13:08:47.679896 17689 net.cpp:91] Creating Layer bn5_1_D
I0624 13:08:47.679899 17689 net.cpp:425] bn5_1_D <- conv5_1_D
I0624 13:08:47.679903 17689 net.cpp:386] bn5_1_D -> conv5_1_D (in-place)
I0624 13:08:47.680073 17689 net.cpp:141] Setting up bn5_1_D
I0624 13:08:47.680080 17689 net.cpp:148] Top shape: 1 256 14 14 (50176)
I0624 13:08:47.680083 17689 net.cpp:156] Memory required for data: 106272768
I0624 13:08:47.680088 17689 layer_factory.hpp:77] Creating layer scale5_1_D
I0624 13:08:47.680095 17689 net.cpp:91] Creating Layer scale5_1_D
I0624 13:08:47.680097 17689 net.cpp:425] scale5_1_D <- conv5_1_D
I0624 13:08:47.680101 17689 net.cpp:386] scale5_1_D -> conv5_1_D (in-place)
I0624 13:08:47.680140 17689 layer_factory.hpp:77] Creating layer scale5_1_D
I0624 13:08:47.680235 17689 net.cpp:141] Setting up scale5_1_D
I0624 13:08:47.680243 17689 net.cpp:148] Top shape: 1 256 14 14 (50176)
I0624 13:08:47.680244 17689 net.cpp:156] Memory required for data: 106473472
I0624 13:08:47.680249 17689 layer_factory.hpp:77] Creating layer relu5_1_D
I0624 13:08:47.680254 17689 net.cpp:91] Creating Layer relu5_1_D
I0624 13:08:47.680258 17689 net.cpp:425] relu5_1_D <- conv5_1_D
I0624 13:08:47.680260 17689 net.cpp:386] relu5_1_D -> conv5_1_D (in-place)
I0624 13:08:47.680557 17689 net.cpp:141] Setting up relu5_1_D
I0624 13:08:47.680567 17689 net.cpp:148] Top shape: 1 256 14 14 (50176)
I0624 13:08:47.680570 17689 net.cpp:156] Memory required for data: 106674176
I0624 13:08:47.680573 17689 layer_factory.hpp:77] Creating layer upsample4
I0624 13:08:47.680579 17689 net.cpp:91] Creating Layer upsample4
I0624 13:08:47.680583 17689 net.cpp:425] upsample4 <- conv5_1_D
I0624 13:08:47.680586 17689 net.cpp:425] upsample4 <- pool4_mask
I0624 13:08:47.680590 17689 net.cpp:399] upsample4 -> pool4_D
I0624 13:08:47.680621 17689 net.cpp:141] Setting up upsample4
I0624 13:08:47.680626 17689 net.cpp:148] Top shape: 1 256 28 28 (200704)
I0624 13:08:47.680629 17689 net.cpp:156] Memory required for data: 107476992
I0624 13:08:47.680630 17689 layer_factory.hpp:77] Creating layer conv4_2_D
I0624 13:08:47.680639 17689 net.cpp:91] Creating Layer conv4_2_D
I0624 13:08:47.680642 17689 net.cpp:425] conv4_2_D <- pool4_D
I0624 13:08:47.680649 17689 net.cpp:399] conv4_2_D -> conv4_2_D
I0624 13:08:47.685900 17689 net.cpp:141] Setting up conv4_2_D
I0624 13:08:47.685914 17689 net.cpp:148] Top shape: 1 256 28 28 (200704)
I0624 13:08:47.685916 17689 net.cpp:156] Memory required for data: 108279808
I0624 13:08:47.685921 17689 layer_factory.hpp:77] Creating layer bn4_2_D
I0624 13:08:47.685926 17689 net.cpp:91] Creating Layer bn4_2_D
I0624 13:08:47.685930 17689 net.cpp:425] bn4_2_D <- conv4_2_D
I0624 13:08:47.685935 17689 net.cpp:386] bn4_2_D -> conv4_2_D (in-place)
I0624 13:08:47.686120 17689 net.cpp:141] Setting up bn4_2_D
I0624 13:08:47.686128 17689 net.cpp:148] Top shape: 1 256 28 28 (200704)
I0624 13:08:47.686131 17689 net.cpp:156] Memory required for data: 109082624
I0624 13:08:47.686136 17689 layer_factory.hpp:77] Creating layer scale4_2_D
I0624 13:08:47.686141 17689 net.cpp:91] Creating Layer scale4_2_D
I0624 13:08:47.686146 17689 net.cpp:425] scale4_2_D <- conv4_2_D
I0624 13:08:47.686149 17689 net.cpp:386] scale4_2_D -> conv4_2_D (in-place)
I0624 13:08:47.686184 17689 layer_factory.hpp:77] Creating layer scale4_2_D
I0624 13:08:47.686298 17689 net.cpp:141] Setting up scale4_2_D
I0624 13:08:47.686307 17689 net.cpp:148] Top shape: 1 256 28 28 (200704)
I0624 13:08:47.686311 17689 net.cpp:156] Memory required for data: 109885440
I0624 13:08:47.686314 17689 layer_factory.hpp:77] Creating layer relu4_2_D
I0624 13:08:47.686319 17689 net.cpp:91] Creating Layer relu4_2_D
I0624 13:08:47.686321 17689 net.cpp:425] relu4_2_D <- conv4_2_D
I0624 13:08:47.686326 17689 net.cpp:386] relu4_2_D -> conv4_2_D (in-place)
I0624 13:08:47.686609 17689 net.cpp:141] Setting up relu4_2_D
I0624 13:08:47.686619 17689 net.cpp:148] Top shape: 1 256 28 28 (200704)
I0624 13:08:47.686621 17689 net.cpp:156] Memory required for data: 110688256
I0624 13:08:47.686625 17689 layer_factory.hpp:77] Creating layer conv4_1_D
I0624 13:08:47.686632 17689 net.cpp:91] Creating Layer conv4_1_D
I0624 13:08:47.686635 17689 net.cpp:425] conv4_1_D <- conv4_2_D
I0624 13:08:47.686641 17689 net.cpp:399] conv4_1_D -> conv4_1_D
I0624 13:08:47.689909 17689 net.cpp:141] Setting up conv4_1_D
I0624 13:08:47.689923 17689 net.cpp:148] Top shape: 1 128 28 28 (100352)
I0624 13:08:47.689924 17689 net.cpp:156] Memory required for data: 111089664
I0624 13:08:47.689929 17689 layer_factory.hpp:77] Creating layer bn4_1_D
I0624 13:08:47.689935 17689 net.cpp:91] Creating Layer bn4_1_D
I0624 13:08:47.689939 17689 net.cpp:425] bn4_1_D <- conv4_1_D
I0624 13:08:47.689944 17689 net.cpp:386] bn4_1_D -> conv4_1_D (in-place)
I0624 13:08:47.690120 17689 net.cpp:141] Setting up bn4_1_D
I0624 13:08:47.690129 17689 net.cpp:148] Top shape: 1 128 28 28 (100352)
I0624 13:08:47.690130 17689 net.cpp:156] Memory required for data: 111491072
I0624 13:08:47.690136 17689 layer_factory.hpp:77] Creating layer scale4_1_D
I0624 13:08:47.690141 17689 net.cpp:91] Creating Layer scale4_1_D
I0624 13:08:47.690145 17689 net.cpp:425] scale4_1_D <- conv4_1_D
I0624 13:08:47.690148 17689 net.cpp:386] scale4_1_D -> conv4_1_D (in-place)
I0624 13:08:47.690184 17689 layer_factory.hpp:77] Creating layer scale4_1_D
I0624 13:08:47.690297 17689 net.cpp:141] Setting up scale4_1_D
I0624 13:08:47.690305 17689 net.cpp:148] Top shape: 1 128 28 28 (100352)
I0624 13:08:47.690307 17689 net.cpp:156] Memory required for data: 111892480
I0624 13:08:47.690312 17689 layer_factory.hpp:77] Creating layer relu4_1_D
I0624 13:08:47.690325 17689 net.cpp:91] Creating Layer relu4_1_D
I0624 13:08:47.690327 17689 net.cpp:425] relu4_1_D <- conv4_1_D
I0624 13:08:47.690331 17689 net.cpp:386] relu4_1_D -> conv4_1_D (in-place)
I0624 13:08:47.690484 17689 net.cpp:141] Setting up relu4_1_D
I0624 13:08:47.690492 17689 net.cpp:148] Top shape: 1 128 28 28 (100352)
I0624 13:08:47.690495 17689 net.cpp:156] Memory required for data: 112293888
I0624 13:08:47.690498 17689 layer_factory.hpp:77] Creating layer upsample3
I0624 13:08:47.690503 17689 net.cpp:91] Creating Layer upsample3
I0624 13:08:47.690505 17689 net.cpp:425] upsample3 <- conv4_1_D
I0624 13:08:47.690510 17689 net.cpp:425] upsample3 <- pool3_mask
I0624 13:08:47.690515 17689 net.cpp:399] upsample3 -> pool3_D
I0624 13:08:47.690541 17689 net.cpp:141] Setting up upsample3
I0624 13:08:47.690546 17689 net.cpp:148] Top shape: 1 128 56 56 (401408)
I0624 13:08:47.690548 17689 net.cpp:156] Memory required for data: 113899520
I0624 13:08:47.690551 17689 layer_factory.hpp:77] Creating layer conv3_2_D
I0624 13:08:47.690562 17689 net.cpp:91] Creating Layer conv3_2_D
I0624 13:08:47.690564 17689 net.cpp:425] conv3_2_D <- pool3_D
I0624 13:08:47.690569 17689 net.cpp:399] conv3_2_D -> conv3_2_D
I0624 13:08:47.693086 17689 net.cpp:141] Setting up conv3_2_D
I0624 13:08:47.693099 17689 net.cpp:148] Top shape: 1 128 56 56 (401408)
I0624 13:08:47.693101 17689 net.cpp:156] Memory required for data: 115505152
I0624 13:08:47.693107 17689 layer_factory.hpp:77] Creating layer bn3_2_D
I0624 13:08:47.693114 17689 net.cpp:91] Creating Layer bn3_2_D
I0624 13:08:47.693116 17689 net.cpp:425] bn3_2_D <- conv3_2_D
I0624 13:08:47.693121 17689 net.cpp:386] bn3_2_D -> conv3_2_D (in-place)
I0624 13:08:47.693302 17689 net.cpp:141] Setting up bn3_2_D
I0624 13:08:47.693310 17689 net.cpp:148] Top shape: 1 128 56 56 (401408)
I0624 13:08:47.693312 17689 net.cpp:156] Memory required for data: 117110784
I0624 13:08:47.693318 17689 layer_factory.hpp:77] Creating layer scale3_2_D
I0624 13:08:47.693325 17689 net.cpp:91] Creating Layer scale3_2_D
I0624 13:08:47.693327 17689 net.cpp:425] scale3_2_D <- conv3_2_D
I0624 13:08:47.693331 17689 net.cpp:386] scale3_2_D -> conv3_2_D (in-place)
I0624 13:08:47.693368 17689 layer_factory.hpp:77] Creating layer scale3_2_D
I0624 13:08:47.693473 17689 net.cpp:141] Setting up scale3_2_D
I0624 13:08:47.693480 17689 net.cpp:148] Top shape: 1 128 56 56 (401408)
I0624 13:08:47.693482 17689 net.cpp:156] Memory required for data: 118716416
I0624 13:08:47.693486 17689 layer_factory.hpp:77] Creating layer relu3_2_D
I0624 13:08:47.693491 17689 net.cpp:91] Creating Layer relu3_2_D
I0624 13:08:47.693493 17689 net.cpp:425] relu3_2_D <- conv3_2_D
I0624 13:08:47.693497 17689 net.cpp:386] relu3_2_D -> conv3_2_D (in-place)
I0624 13:08:47.693781 17689 net.cpp:141] Setting up relu3_2_D
I0624 13:08:47.693792 17689 net.cpp:148] Top shape: 1 128 56 56 (401408)
I0624 13:08:47.693795 17689 net.cpp:156] Memory required for data: 120322048
I0624 13:08:47.693799 17689 layer_factory.hpp:77] Creating layer conv3_1_D
I0624 13:08:47.693806 17689 net.cpp:91] Creating Layer conv3_1_D
I0624 13:08:47.693809 17689 net.cpp:425] conv3_1_D <- conv3_2_D
I0624 13:08:47.693815 17689 net.cpp:399] conv3_1_D -> conv3_1_D
I0624 13:08:47.695235 17689 net.cpp:141] Setting up conv3_1_D
I0624 13:08:47.695247 17689 net.cpp:148] Top shape: 1 64 56 56 (200704)
I0624 13:08:47.695250 17689 net.cpp:156] Memory required for data: 121124864
I0624 13:08:47.695255 17689 layer_factory.hpp:77] Creating layer bn3_1_D
I0624 13:08:47.695261 17689 net.cpp:91] Creating Layer bn3_1_D
I0624 13:08:47.695264 17689 net.cpp:425] bn3_1_D <- conv3_1_D
I0624 13:08:47.695269 17689 net.cpp:386] bn3_1_D -> conv3_1_D (in-place)
I0624 13:08:47.695459 17689 net.cpp:141] Setting up bn3_1_D
I0624 13:08:47.695477 17689 net.cpp:148] Top shape: 1 64 56 56 (200704)
I0624 13:08:47.695479 17689 net.cpp:156] Memory required for data: 121927680
I0624 13:08:47.695485 17689 layer_factory.hpp:77] Creating layer scale3_1_D
I0624 13:08:47.695492 17689 net.cpp:91] Creating Layer scale3_1_D
I0624 13:08:47.695494 17689 net.cpp:425] scale3_1_D <- conv3_1_D
I0624 13:08:47.695498 17689 net.cpp:386] scale3_1_D -> conv3_1_D (in-place)
I0624 13:08:47.695538 17689 layer_factory.hpp:77] Creating layer scale3_1_D
I0624 13:08:47.695652 17689 net.cpp:141] Setting up scale3_1_D
I0624 13:08:47.695659 17689 net.cpp:148] Top shape: 1 64 56 56 (200704)
I0624 13:08:47.695662 17689 net.cpp:156] Memory required for data: 122730496
I0624 13:08:47.695667 17689 layer_factory.hpp:77] Creating layer relu3_1_D
I0624 13:08:47.695672 17689 net.cpp:91] Creating Layer relu3_1_D
I0624 13:08:47.695673 17689 net.cpp:425] relu3_1_D <- conv3_1_D
I0624 13:08:47.695677 17689 net.cpp:386] relu3_1_D -> conv3_1_D (in-place)
I0624 13:08:47.695961 17689 net.cpp:141] Setting up relu3_1_D
I0624 13:08:47.695972 17689 net.cpp:148] Top shape: 1 64 56 56 (200704)
I0624 13:08:47.695974 17689 net.cpp:156] Memory required for data: 123533312
I0624 13:08:47.695977 17689 layer_factory.hpp:77] Creating layer upsample2
I0624 13:08:47.695983 17689 net.cpp:91] Creating Layer upsample2
I0624 13:08:47.695987 17689 net.cpp:425] upsample2 <- conv3_1_D
I0624 13:08:47.695991 17689 net.cpp:425] upsample2 <- pool2_mask
I0624 13:08:47.695994 17689 net.cpp:399] upsample2 -> pool2_D
I0624 13:08:47.696023 17689 net.cpp:141] Setting up upsample2
I0624 13:08:47.696028 17689 net.cpp:148] Top shape: 1 64 112 112 (802816)
I0624 13:08:47.696030 17689 net.cpp:156] Memory required for data: 126744576
I0624 13:08:47.696033 17689 layer_factory.hpp:77] Creating layer conv2_2_D
I0624 13:08:47.696041 17689 net.cpp:91] Creating Layer conv2_2_D
I0624 13:08:47.696044 17689 net.cpp:425] conv2_2_D <- pool2_D
I0624 13:08:47.696048 17689 net.cpp:399] conv2_2_D -> conv2_2_D
I0624 13:08:47.697263 17689 net.cpp:141] Setting up conv2_2_D
I0624 13:08:47.697274 17689 net.cpp:148] Top shape: 1 64 112 112 (802816)
I0624 13:08:47.697278 17689 net.cpp:156] Memory required for data: 129955840
I0624 13:08:47.697281 17689 layer_factory.hpp:77] Creating layer bn2_2_D
I0624 13:08:47.697288 17689 net.cpp:91] Creating Layer bn2_2_D
I0624 13:08:47.697290 17689 net.cpp:425] bn2_2_D <- conv2_2_D
I0624 13:08:47.697299 17689 net.cpp:386] bn2_2_D -> conv2_2_D (in-place)
I0624 13:08:47.700553 17689 net.cpp:141] Setting up bn2_2_D
I0624 13:08:47.700567 17689 net.cpp:148] Top shape: 1 64 112 112 (802816)
I0624 13:08:47.700569 17689 net.cpp:156] Memory required for data: 133167104
I0624 13:08:47.700575 17689 layer_factory.hpp:77] Creating layer scale2_2_D
I0624 13:08:47.700583 17689 net.cpp:91] Creating Layer scale2_2_D
I0624 13:08:47.700587 17689 net.cpp:425] scale2_2_D <- conv2_2_D
I0624 13:08:47.700592 17689 net.cpp:386] scale2_2_D -> conv2_2_D (in-place)
I0624 13:08:47.700634 17689 layer_factory.hpp:77] Creating layer scale2_2_D
I0624 13:08:47.700825 17689 net.cpp:141] Setting up scale2_2_D
I0624 13:08:47.700834 17689 net.cpp:148] Top shape: 1 64 112 112 (802816)
I0624 13:08:47.700836 17689 net.cpp:156] Memory required for data: 136378368
I0624 13:08:47.700841 17689 layer_factory.hpp:77] Creating layer relu2_2_D
I0624 13:08:47.700846 17689 net.cpp:91] Creating Layer relu2_2_D
I0624 13:08:47.700848 17689 net.cpp:425] relu2_2_D <- conv2_2_D
I0624 13:08:47.700855 17689 net.cpp:386] relu2_2_D -> conv2_2_D (in-place)
I0624 13:08:47.704270 17689 net.cpp:141] Setting up relu2_2_D
I0624 13:08:47.704288 17689 net.cpp:148] Top shape: 1 64 112 112 (802816)
I0624 13:08:47.704291 17689 net.cpp:156] Memory required for data: 139589632
I0624 13:08:47.704293 17689 layer_factory.hpp:77] Creating layer conv2_1_D
I0624 13:08:47.704304 17689 net.cpp:91] Creating Layer conv2_1_D
I0624 13:08:47.704308 17689 net.cpp:425] conv2_1_D <- conv2_2_D
I0624 13:08:47.704313 17689 net.cpp:399] conv2_1_D -> conv2_1_D
I0624 13:08:47.705392 17689 net.cpp:141] Setting up conv2_1_D
I0624 13:08:47.705417 17689 net.cpp:148] Top shape: 1 32 112 112 (401408)
I0624 13:08:47.705420 17689 net.cpp:156] Memory required for data: 141195264
I0624 13:08:47.705425 17689 layer_factory.hpp:77] Creating layer bn2_1_D
I0624 13:08:47.705432 17689 net.cpp:91] Creating Layer bn2_1_D
I0624 13:08:47.705435 17689 net.cpp:425] bn2_1_D <- conv2_1_D
I0624 13:08:47.705441 17689 net.cpp:386] bn2_1_D -> conv2_1_D (in-place)
I0624 13:08:47.705638 17689 net.cpp:141] Setting up bn2_1_D
I0624 13:08:47.705646 17689 net.cpp:148] Top shape: 1 32 112 112 (401408)
I0624 13:08:47.705648 17689 net.cpp:156] Memory required for data: 142800896
I0624 13:08:47.705653 17689 layer_factory.hpp:77] Creating layer scale2_1_D
I0624 13:08:47.705662 17689 net.cpp:91] Creating Layer scale2_1_D
I0624 13:08:47.705664 17689 net.cpp:425] scale2_1_D <- conv2_1_D
I0624 13:08:47.705667 17689 net.cpp:386] scale2_1_D -> conv2_1_D (in-place)
I0624 13:08:47.705708 17689 layer_factory.hpp:77] Creating layer scale2_1_D
I0624 13:08:47.705833 17689 net.cpp:141] Setting up scale2_1_D
I0624 13:08:47.705840 17689 net.cpp:148] Top shape: 1 32 112 112 (401408)
I0624 13:08:47.705843 17689 net.cpp:156] Memory required for data: 144406528
I0624 13:08:47.705847 17689 layer_factory.hpp:77] Creating layer relu2_1_D
I0624 13:08:47.705852 17689 net.cpp:91] Creating Layer relu2_1_D
I0624 13:08:47.705855 17689 net.cpp:425] relu2_1_D <- conv2_1_D
I0624 13:08:47.705860 17689 net.cpp:386] relu2_1_D -> conv2_1_D (in-place)
I0624 13:08:47.706162 17689 net.cpp:141] Setting up relu2_1_D
I0624 13:08:47.706173 17689 net.cpp:148] Top shape: 1 32 112 112 (401408)
I0624 13:08:47.706176 17689 net.cpp:156] Memory required for data: 146012160
I0624 13:08:47.706178 17689 layer_factory.hpp:77] Creating layer upsample1
I0624 13:08:47.706184 17689 net.cpp:91] Creating Layer upsample1
I0624 13:08:47.706187 17689 net.cpp:425] upsample1 <- conv2_1_D
I0624 13:08:47.706192 17689 net.cpp:425] upsample1 <- pool1_mask
I0624 13:08:47.706197 17689 net.cpp:399] upsample1 -> pool1_D
I0624 13:08:47.706228 17689 net.cpp:141] Setting up upsample1
I0624 13:08:47.706233 17689 net.cpp:148] Top shape: 1 32 224 224 (1605632)
I0624 13:08:47.706234 17689 net.cpp:156] Memory required for data: 152434688
I0624 13:08:47.706238 17689 layer_factory.hpp:77] Creating layer conv1_2_D
I0624 13:08:47.706245 17689 net.cpp:91] Creating Layer conv1_2_D
I0624 13:08:47.706248 17689 net.cpp:425] conv1_2_D <- pool1_D
I0624 13:08:47.706254 17689 net.cpp:399] conv1_2_D -> conv1_2_D
I0624 13:08:47.707227 17689 net.cpp:141] Setting up conv1_2_D
I0624 13:08:47.707240 17689 net.cpp:148] Top shape: 1 32 224 224 (1605632)
I0624 13:08:47.707243 17689 net.cpp:156] Memory required for data: 158857216
I0624 13:08:47.707248 17689 layer_factory.hpp:77] Creating layer bn1_2_D
I0624 13:08:47.707254 17689 net.cpp:91] Creating Layer bn1_2_D
I0624 13:08:47.707259 17689 net.cpp:425] bn1_2_D <- conv1_2_D
I0624 13:08:47.707263 17689 net.cpp:386] bn1_2_D -> conv1_2_D (in-place)
I0624 13:08:47.707491 17689 net.cpp:141] Setting up bn1_2_D
I0624 13:08:47.707499 17689 net.cpp:148] Top shape: 1 32 224 224 (1605632)
I0624 13:08:47.707501 17689 net.cpp:156] Memory required for data: 165279744
I0624 13:08:47.707507 17689 layer_factory.hpp:77] Creating layer scale1_2_D
I0624 13:08:47.707514 17689 net.cpp:91] Creating Layer scale1_2_D
I0624 13:08:47.707516 17689 net.cpp:425] scale1_2_D <- conv1_2_D
I0624 13:08:47.707520 17689 net.cpp:386] scale1_2_D -> conv1_2_D (in-place)
I0624 13:08:47.707561 17689 layer_factory.hpp:77] Creating layer scale1_2_D
I0624 13:08:47.707746 17689 net.cpp:141] Setting up scale1_2_D
I0624 13:08:47.707754 17689 net.cpp:148] Top shape: 1 32 224 224 (1605632)
I0624 13:08:47.707757 17689 net.cpp:156] Memory required for data: 171702272
I0624 13:08:47.707762 17689 layer_factory.hpp:77] Creating layer relu1_2_D
I0624 13:08:47.707767 17689 net.cpp:91] Creating Layer relu1_2_D
I0624 13:08:47.707770 17689 net.cpp:425] relu1_2_D <- conv1_2_D
I0624 13:08:47.707774 17689 net.cpp:386] relu1_2_D -> conv1_2_D (in-place)
I0624 13:08:47.708075 17689 net.cpp:141] Setting up relu1_2_D
I0624 13:08:47.708086 17689 net.cpp:148] Top shape: 1 32 224 224 (1605632)
I0624 13:08:47.708088 17689 net.cpp:156] Memory required for data: 178124800
I0624 13:08:47.708091 17689 layer_factory.hpp:77] Creating layer conv1_1_D
I0624 13:08:47.708103 17689 net.cpp:91] Creating Layer conv1_1_D
I0624 13:08:47.708106 17689 net.cpp:425] conv1_1_D <- conv1_2_D
I0624 13:08:47.708112 17689 net.cpp:399] conv1_1_D -> conv1_1_D
I0624 13:08:47.709251 17689 net.cpp:141] Setting up conv1_1_D
I0624 13:08:47.709264 17689 net.cpp:148] Top shape: 1 2 224 224 (100352)
I0624 13:08:47.709265 17689 net.cpp:156] Memory required for data: 178526208
I0624 13:08:47.709272 17689 layer_factory.hpp:77] Creating layer conv1_1_D_conv1_1_D_0_split
I0624 13:08:47.709278 17689 net.cpp:91] Creating Layer conv1_1_D_conv1_1_D_0_split
I0624 13:08:47.709280 17689 net.cpp:425] conv1_1_D_conv1_1_D_0_split <- conv1_1_D
I0624 13:08:47.709285 17689 net.cpp:399] conv1_1_D_conv1_1_D_0_split -> conv1_1_D_conv1_1_D_0_split_0
I0624 13:08:47.709290 17689 net.cpp:399] conv1_1_D_conv1_1_D_0_split -> conv1_1_D_conv1_1_D_0_split_1
I0624 13:08:47.709336 17689 net.cpp:141] Setting up conv1_1_D_conv1_1_D_0_split
I0624 13:08:47.709341 17689 net.cpp:148] Top shape: 1 2 224 224 (100352)
I0624 13:08:47.709343 17689 net.cpp:148] Top shape: 1 2 224 224 (100352)
I0624 13:08:47.709345 17689 net.cpp:156] Memory required for data: 179329024
I0624 13:08:47.709348 17689 layer_factory.hpp:77] Creating layer loss
I0624 13:08:47.709352 17689 net.cpp:91] Creating Layer loss
I0624 13:08:47.709355 17689 net.cpp:425] loss <- conv1_1_D_conv1_1_D_0_split_0
I0624 13:08:47.709358 17689 net.cpp:425] loss <- label_data_1_split_0
I0624 13:08:47.709362 17689 net.cpp:399] loss -> loss
…
