…
I0624 17:17:23.351296 21500 solver.cpp:91] Creating training net from net file: models/bpnet/train_val.prototxt
I0624 17:17:23.352105 21500 net.cpp:313] The NetState phase (0) differed from the phase (1) specified by a rule in layer data
I0624 17:17:23.352361 21500 net.cpp:49] Initializing net from parameters: 
name: "BPnet"
state {
  phase: TRAIN
}
layer {
  name: "data"
  type: "Data"
  top: "data"
  top: "label"
  include {
    phase: TRAIN
  }
  transform_param {
    mirror: false
    crop_size: 224
    mean_value: 100
    contrast_jitter_range: 0.1
  }
  data_param {
    source: "data/train_lmdb"
    batch_size: 32
    backend: LMDB
  }
}
layer {
  name: "conv1_1"
  type: "Convolution"
  bottom: "data"
  top: "conv1_1"
  param {
    lr_mult: 1
    decay_mult: 1
  }
  convolution_param {
    num_output: 16
    bias_term: false
    pad: 3
    kernel_size: 7
    stride: 2
    weight_filler {
      type: "xavier"
    }
  }
}
layer {
  name: "bn1_1"
  type: "BatchNorm"
  bottom: "conv1_1"
  top: "conv1_1"
  param {
    lr_mult: 0
  }
  param {
    lr_mult: 0
  }
  param {
    lr_mult: 0
  }
  batch_norm_param {
    use_global_stats: false
  }
}
layer {
  name: "scale1_1"
  type: "Scale"
  bottom: "conv1_1"
  top: "conv1_1"
  param {
    lr_mult: 1
    decay_mult: 1
  }
  param {
    lr_mult: 1
    decay_mult: 1
  }
  scale_param {
    bias_term: true
    bias_filler {
      type: "constant"
      value: 0
    }
  }
}
layer {
  name: "relu1_1"
  type: "ReLU"
  bottom: "conv1_1"
  top: "conv1_1"
}
layer {
  name: "conv1_2"
  type: "Convolution"
  bottom: "conv1_1"
  top: "conv1_2"
  param {
    lr_mult: 1
    decay_mult: 1
  }
  convolution_param {
    num_output: 16
    bias_term: false
    pad: 1
    kernel_size: 3
    weight_filler {
      type: "xavier"
    }
  }
}
layer {
  name: "bn1_2"
  type: "BatchNorm"
  bottom: "conv1_2"
  top: "conv1_2"
  param {
    lr_mult: 0
  }
  param {
    lr_mult: 0
  }
  param {
    lr_mult: 0
  }
  batch_norm_param {
    use_global_stats: false
  }
}
layer {
  name: "scale1_2"
  type: "Scale"
  bottom: "conv1_2"
  top: "conv1_2"
  param {
    lr_mult: 1
    decay_mult: 1
  }
  param {
    lr_mult: 1
    decay_mult: 1
  }
  scale_param {
    bias_term: true
    bias_filler {
      type: "constant"
      value: 0
    }
  }
}
layer {
  name: "relu1_2"
  type: "ReLU"
  bottom: "conv1_2"
  top: "conv1_2"
}
layer {
  name: "pool1"
  type: "Pooling"
  bottom: "conv1_2"
  top: "pool1"
  pooling_param {
    pool: MAX
    kernel_size: 2
    stride: 2
  }
}
layer {
  name: "conv2_1"
  type: "Convolution"
  bottom: "pool1"
  top: "conv2_1"
  param {
    lr_mult: 1
    decay_mult: 1
  }
  convolution_param {
    num_output: 32
    bias_term: false
    pad: 1
    kernel_size: 3
    weight_filler {
      type: "xavier"
    }
  }
}
layer {
  name: "bn2_1"
  type: "BatchNorm"
  bottom: "conv2_1"
  top: "conv2_1"
  param {
    lr_mult: 0
  }
  param {
    lr_mult: 0
  }
  param {
    lr_mult: 0
  }
  batch_norm_param {
    use_global_stats: false
  }
}
layer {
  name: "scale2_1"
  type: "Scale"
  bottom: "conv2_1"
  top: "conv2_1"
  param {
    lr_mult: 1
    decay_mult: 1
  }
  param {
    lr_mult: 1
    decay_mult: 1
  }
  scale_param {
    bias_term: true
    bias_filler {
      type: "constant"
      value: 0
    }
  }
}
layer {
  name: "relu2_1"
  type: "ReLU"
  bottom: "conv2_1"
  top: "conv2_1"
}
layer {
  name: "conv2_2"
  type: "Convolution"
  bottom: "conv2_1"
  top: "conv2_2"
  param {
    lr_mult: 1
    decay_mult: 1
  }
  convolution_param {
    num_output: 32
    bias_term: false
    pad: 1
    kernel_size: 3
    weight_filler {
      type: "xavier"
    }
  }
}
layer {
  name: "bn2_2"
  type: "BatchNorm"
  bottom: "conv2_2"
  top: "conv2_2"
  param {
    lr_mult: 0
  }
  param {
    lr_mult: 0
  }
  param {
    lr_mult: 0
  }
  batch_norm_param {
    use_global_stats: false
  }
}
layer {
  name: "scale2_2"
  type: "Scale"
  bottom: "conv2_2"
  top: "conv2_2"
  param {
    lr_mult: 1
    decay_mult: 1
  }
  param {
    lr_mult: 1
    decay_mult: 1
  }
  scale_param {
    bias_term: true
    bias_filler {
      type: "constant"
      value: 0
    }
  }
}
layer {
  name: "relu2_2"
  type: "ReLU"
  bottom: "conv2_2"
  top: "conv2_2"
}
layer {
  name: "pool2"
  type: "Pooling"
  bottom: "conv2_2"
  top: "pool2"
  pooling_param {
    pool: MAX
    kernel_size: 2
    stride: 2
  }
}
layer {
  name: "conv3_1"
  type: "Convolution"
  bottom: "pool2"
  top: "conv3_1"
  param {
    lr_mult: 1
    decay_mult: 1
  }
  convolution_param {
    num_output: 64
    bias_term: false
    pad: 1
    kernel_size: 3
    weight_filler {
      type: "xavier"
    }
  }
}
layer {
  name: "bn3_1"
  type: "BatchNorm"
  bottom: "conv3_1"
  top: "conv3_1"
  param {
    lr_mult: 0
  }
  param {
    lr_mult: 0
  }
  param {
    lr_mult: 0
  }
  batch_norm_param {
    use_global_stats: false
  }
}
layer {
  name: "scale3_1"
  type: "Scale"
  bottom: "conv3_1"
  top: "conv3_1"
  param {
    lr_mult: 1
    decay_mult: 1
  }
  param {
    lr_mult: 1
    decay_mult: 1
  }
  scale_param {
    bias_term: true
    bias_filler {
      type: "constant"
      value: 0
    }
  }
}
layer {
  name: "relu3_1"
  type: "ReLU"
  bottom: "conv3_1"
  top: "conv3_1"
}
layer {
  name: "conv3_2"
  type: "Convolution"
  bottom: "conv3_1"
  top: "conv3_2"
  param {
    lr_mult: 1
    decay_mult: 1
  }
  convolution_param {
    num_output: 64
    bias_term: false
    pad: 1
    kernel_size: 3
    weight_filler {
      type: "xavier"
    }
  }
}
layer {
  name: "bn3_2"
  type: "BatchNorm"
  bottom: "conv3_2"
  top: "conv3_2"
  param {
    lr_mult: 0
  }
  param {
    lr_mult: 0
  }
  param {
    lr_mult: 0
  }
  batch_norm_param {
    use_global_stats: false
  }
}
layer {
  name: "scale3_2"
  type: "Scale"
  bottom: "conv3_2"
  top: "conv3_2"
  param {
    lr_mult: 1
    decay_mult: 1
  }
  param {
    lr_mult: 1
    decay_mult: 1
  }
  scale_param {
    bias_term: true
    bias_filler {
      type: "constant"
      value: 0
    }
  }
}
layer {
  name: "relu3_2"
  type: "ReLU"
  bottom: "conv3_2"
  top: "conv3_2"
}
layer {
  name: "pool3"
  type: "Pooling"
  bottom: "conv3_2"
  top: "pool3"
  pooling_param {
    pool: MAX
    kernel_size: 2
    stride: 2
  }
}
layer {
  name: "conv4_1"
  type: "Convolution"
  bottom: "pool3"
  top: "conv4_1"
  param {
    lr_mult: 1
    decay_mult: 1
  }
  convolution_param {
    num_output: 128
    bias_term: false
    pad: 1
    kernel_size: 3
    weight_filler {
      type: "xavier"
    }
  }
}
layer {
  name: "bn4_1"
  type: "BatchNorm"
  bottom: "conv4_1"
  top: "conv4_1"
  param {
    lr_mult: 0
  }
  param {
    lr_mult: 0
  }
  param {
    lr_mult: 0
  }
  batch_norm_param {
    use_global_stats: false
  }
}
layer {
  name: "scale4_1"
  type: "Scale"
  bottom: "conv4_1"
  top: "conv4_1"
  param {
    lr_mult: 1
    decay_mult: 1
  }
  param {
    lr_mult: 1
    decay_mult: 1
  }
  scale_param {
    bias_term: true
    bias_filler {
      type: "constant"
      value: 0
    }
  }
}
layer {
  name: "relu4_1"
  type: "ReLU"
  bottom: "conv4_1"
  top: "conv4_1"
}
layer {
  name: "conv4_2"
  type: "Convolution"
  bottom: "conv4_1"
  top: "conv4_2"
  param {
    lr_mult: 1
    decay_mult: 1
  }
  convolution_param {
    num_output: 128
    bias_term: false
    pad: 1
    kernel_size: 3
    weight_filler {
      type: "xavier"
    }
  }
}
layer {
  name: "bn4_2"
  type: "BatchNorm"
  bottom: "conv4_2"
  top: "conv4_2"
  param {
    lr_mult: 0
  }
  param {
    lr_mult: 0
  }
  param {
    lr_mult: 0
  }
  batch_norm_param {
    use_global_stats: false
  }
}
layer {
  name: "scale4_2"
  type: "Scale"
  bottom: "conv4_2"
  top: "conv4_2"
  param {
    lr_mult: 1
    decay_mult: 1
  }
  param {
    lr_mult: 1
    decay_mult: 1
  }
  scale_param {
    bias_term: true
    bias_filler {
      type: "constant"
      value: 0
    }
  }
}
layer {
  name: "relu4_2"
  type: "ReLU"
  bottom: "conv4_2"
  top: "conv4_2"
}
layer {
  name: "pool4"
  type: "Pooling"
  bottom: "conv4_2"
  top: "pool4"
  pooling_param {
    pool: MAX
    kernel_size: 2
    stride: 2
  }
}
layer {
  name: "conv5_1"
  type: "Convolution"
  bottom: "pool4"
  top: "conv5_1"
  param {
    lr_mult: 1
    decay_mult: 1
  }
  convolution_param {
    num_output: 128
    bias_term: false
    pad: 1
    kernel_size: 3
    weight_filler {
      type: "xavier"
    }
  }
}
layer {
  name: "bn5_1"
  type: "BatchNorm"
  bottom: "conv5_1"
  top: "conv5_1"
  param {
    lr_mult: 0
  }
  param {
    lr_mult: 0
  }
  param {
    lr_mult: 0
  }
  batch_norm_param {
    use_global_stats: false
  }
}
layer {
  name: "scale5_1"
  type: "Scale"
  bottom: "conv5_1"
  top: "conv5_1"
  param {
    lr_mult: 1
    decay_mult: 1
  }
  param {
    lr_mult: 1
    decay_mult: 1
  }
  scale_param {
    bias_term: true
    bias_filler {
      type: "constant"
      value: 0
    }
  }
}
layer {
  name: "relu5_1"
  type: "ReLU"
  bottom: "conv5_1"
  top: "conv5_1"
}
layer {
  name: "conv5_2"
  type: "Convolution"
  bottom: "conv5_1"
  top: "conv5_2"
  param {
    lr_mult: 1
    decay_mult: 1
  }
  convolution_param {
    num_output: 128
    bias_term: false
    pad: 1
    kernel_size: 3
    weight_filler {
      type: "xavier"
    }
  }
}
layer {
  name: "bn5_2"
  type: "BatchNorm"
  bottom: "conv5_2"
  top: "conv5_2"
  param {
    lr_mult: 0
  }
  param {
    lr_mult: 0
  }
  param {
    lr_mult: 0
  }
  batch_norm_param {
    use_global_stats: false
  }
}
layer {
  name: "scale5_2"
  type: "Scale"
  bottom: "conv5_2"
  top: "conv5_2"
  param {
    lr_mult: 1
    decay_mult: 1
  }
  param {
    lr_mult: 1
    decay_mult: 1
  }
  scale_param {
    bias_term: true
    bias_filler {
      type: "constant"
      value: 0
    }
  }
}
layer {
  name: "relu5_2"
  type: "ReLU"
  bottom: "conv5_2"
  top: "conv5_2"
}
layer {
  name: "pool5"
  type: "Pooling"
  bottom: "conv5_2"
  top: "pool5"
  pooling_param {
    pool: AVE
    kernel_size: 7
    stride: 1
  }
}
layer {
  name: "fc2"
  type: "InnerProduct"
  bottom: "pool5"
  top: "fc2"
  inner_product_param {
    num_output: 2
  }
}
layer {
  name: "loss"
  type: "SoftmaxWithLoss"
  bottom: "fc2"
  bottom: "label"
  top: "loss"
}
layer {
  name: "accuracy"
  type: "Accuracy"
  bottom: "fc2"
  bottom: "label"
  top: "accuracy"
}
I0624 17:17:23.352617 21500 layer_factory.hpp:77] Creating layer data
I0624 17:17:23.353014 21500 net.cpp:91] Creating Layer data
I0624 17:17:23.353026 21500 net.cpp:399] data -> data
I0624 17:17:23.353065 21500 net.cpp:399] data -> label
I0624 17:17:23.354378 21504 db_lmdb.cpp:35] Opened lmdb data/train_lmdb
I0624 17:17:23.379194 21500 data_layer.cpp:42] output data size: 32,3,224,224
I0624 17:17:23.419132 21500 net.cpp:141] Setting up data
I0624 17:17:23.419172 21500 net.cpp:148] Top shape: 32 3 224 224 (4816896)
I0624 17:17:23.419179 21500 net.cpp:148] Top shape: 32 (32)
I0624 17:17:23.419183 21500 net.cpp:156] Memory required for data: 19267712
I0624 17:17:23.419194 21500 layer_factory.hpp:77] Creating layer label_data_1_split
I0624 17:17:23.419216 21500 net.cpp:91] Creating Layer label_data_1_split
I0624 17:17:23.419221 21500 net.cpp:425] label_data_1_split <- label
I0624 17:17:23.419231 21500 net.cpp:399] label_data_1_split -> label_data_1_split_0
I0624 17:17:23.419240 21500 net.cpp:399] label_data_1_split -> label_data_1_split_1
I0624 17:17:23.419314 21500 net.cpp:141] Setting up label_data_1_split
I0624 17:17:23.419322 21500 net.cpp:148] Top shape: 32 (32)
I0624 17:17:23.419325 21500 net.cpp:148] Top shape: 32 (32)
I0624 17:17:23.419327 21500 net.cpp:156] Memory required for data: 19267968
I0624 17:17:23.419329 21500 layer_factory.hpp:77] Creating layer conv1_1
I0624 17:17:23.419344 21500 net.cpp:91] Creating Layer conv1_1
I0624 17:17:23.419349 21500 net.cpp:425] conv1_1 <- data
I0624 17:17:23.419353 21500 net.cpp:399] conv1_1 -> conv1_1
I0624 17:17:23.603634 21500 net.cpp:141] Setting up conv1_1
I0624 17:17:23.603659 21500 net.cpp:148] Top shape: 32 16 112 112 (6422528)
I0624 17:17:23.603662 21500 net.cpp:156] Memory required for data: 44958080
I0624 17:17:23.603673 21500 layer_factory.hpp:77] Creating layer bn1_1
I0624 17:17:23.603689 21500 net.cpp:91] Creating Layer bn1_1
I0624 17:17:23.603693 21500 net.cpp:425] bn1_1 <- conv1_1
I0624 17:17:23.603698 21500 net.cpp:386] bn1_1 -> conv1_1 (in-place)
I0624 17:17:23.604987 21500 net.cpp:141] Setting up bn1_1
I0624 17:17:23.605000 21500 net.cpp:148] Top shape: 32 16 112 112 (6422528)
I0624 17:17:23.605002 21500 net.cpp:156] Memory required for data: 70648192
I0624 17:17:23.605012 21500 layer_factory.hpp:77] Creating layer scale1_1
I0624 17:17:23.605021 21500 net.cpp:91] Creating Layer scale1_1
I0624 17:17:23.605023 21500 net.cpp:425] scale1_1 <- conv1_1
I0624 17:17:23.605029 21500 net.cpp:386] scale1_1 -> conv1_1 (in-place)
I0624 17:17:23.605068 21500 layer_factory.hpp:77] Creating layer scale1_1
I0624 17:17:23.605162 21500 net.cpp:141] Setting up scale1_1
I0624 17:17:23.605170 21500 net.cpp:148] Top shape: 32 16 112 112 (6422528)
I0624 17:17:23.605171 21500 net.cpp:156] Memory required for data: 96338304
I0624 17:17:23.605177 21500 layer_factory.hpp:77] Creating layer relu1_1
I0624 17:17:23.605183 21500 net.cpp:91] Creating Layer relu1_1
I0624 17:17:23.605188 21500 net.cpp:425] relu1_1 <- conv1_1
I0624 17:17:23.605192 21500 net.cpp:386] relu1_1 -> conv1_1 (in-place)
I0624 17:17:23.605322 21500 net.cpp:141] Setting up relu1_1
I0624 17:17:23.605330 21500 net.cpp:148] Top shape: 32 16 112 112 (6422528)
I0624 17:17:23.605332 21500 net.cpp:156] Memory required for data: 122028416
I0624 17:17:23.605335 21500 layer_factory.hpp:77] Creating layer conv1_2
I0624 17:17:23.605345 21500 net.cpp:91] Creating Layer conv1_2
I0624 17:17:23.605348 21500 net.cpp:425] conv1_2 <- conv1_1
I0624 17:17:23.605353 21500 net.cpp:399] conv1_2 -> conv1_2
I0624 17:17:23.606077 21500 net.cpp:141] Setting up conv1_2
I0624 17:17:23.606091 21500 net.cpp:148] Top shape: 32 16 112 112 (6422528)
I0624 17:17:23.606093 21500 net.cpp:156] Memory required for data: 147718528
I0624 17:17:23.606097 21500 layer_factory.hpp:77] Creating layer bn1_2
I0624 17:17:23.606103 21500 net.cpp:91] Creating Layer bn1_2
I0624 17:17:23.606106 21500 net.cpp:425] bn1_2 <- conv1_2
I0624 17:17:23.606111 21500 net.cpp:386] bn1_2 -> conv1_2 (in-place)
I0624 17:17:23.606243 21500 net.cpp:141] Setting up bn1_2
I0624 17:17:23.606250 21500 net.cpp:148] Top shape: 32 16 112 112 (6422528)
I0624 17:17:23.606252 21500 net.cpp:156] Memory required for data: 173408640
I0624 17:17:23.606261 21500 layer_factory.hpp:77] Creating layer scale1_2
I0624 17:17:23.606267 21500 net.cpp:91] Creating Layer scale1_2
I0624 17:17:23.606269 21500 net.cpp:425] scale1_2 <- conv1_2
I0624 17:17:23.606273 21500 net.cpp:386] scale1_2 -> conv1_2 (in-place)
I0624 17:17:23.606302 21500 layer_factory.hpp:77] Creating layer scale1_2
I0624 17:17:23.606384 21500 net.cpp:141] Setting up scale1_2
I0624 17:17:23.606390 21500 net.cpp:148] Top shape: 32 16 112 112 (6422528)
I0624 17:17:23.606394 21500 net.cpp:156] Memory required for data: 199098752
I0624 17:17:23.606397 21500 layer_factory.hpp:77] Creating layer relu1_2
I0624 17:17:23.606401 21500 net.cpp:91] Creating Layer relu1_2
I0624 17:17:23.606405 21500 net.cpp:425] relu1_2 <- conv1_2
I0624 17:17:23.606407 21500 net.cpp:386] relu1_2 -> conv1_2 (in-place)
I0624 17:17:23.606528 21500 net.cpp:141] Setting up relu1_2
I0624 17:17:23.606535 21500 net.cpp:148] Top shape: 32 16 112 112 (6422528)
I0624 17:17:23.606539 21500 net.cpp:156] Memory required for data: 224788864
I0624 17:17:23.606546 21500 layer_factory.hpp:77] Creating layer pool1
I0624 17:17:23.606551 21500 net.cpp:91] Creating Layer pool1
I0624 17:17:23.606554 21500 net.cpp:425] pool1 <- conv1_2
I0624 17:17:23.606559 21500 net.cpp:399] pool1 -> pool1
I0624 17:17:23.606600 21500 net.cpp:141] Setting up pool1
I0624 17:17:23.606604 21500 net.cpp:148] Top shape: 32 16 56 56 (1605632)
I0624 17:17:23.606621 21500 net.cpp:156] Memory required for data: 231211392
I0624 17:17:23.606622 21500 layer_factory.hpp:77] Creating layer conv2_1
I0624 17:17:23.606629 21500 net.cpp:91] Creating Layer conv2_1
I0624 17:17:23.606631 21500 net.cpp:425] conv2_1 <- pool1
I0624 17:17:23.606636 21500 net.cpp:399] conv2_1 -> conv2_1
I0624 17:17:23.607362 21500 net.cpp:141] Setting up conv2_1
I0624 17:17:23.607374 21500 net.cpp:148] Top shape: 32 32 56 56 (3211264)
I0624 17:17:23.607378 21500 net.cpp:156] Memory required for data: 244056448
I0624 17:17:23.607381 21500 layer_factory.hpp:77] Creating layer bn2_1
I0624 17:17:23.607388 21500 net.cpp:91] Creating Layer bn2_1
I0624 17:17:23.607390 21500 net.cpp:425] bn2_1 <- conv2_1
I0624 17:17:23.607394 21500 net.cpp:386] bn2_1 -> conv2_1 (in-place)
I0624 17:17:23.607522 21500 net.cpp:141] Setting up bn2_1
I0624 17:17:23.607527 21500 net.cpp:148] Top shape: 32 32 56 56 (3211264)
I0624 17:17:23.607530 21500 net.cpp:156] Memory required for data: 256901504
I0624 17:17:23.607535 21500 layer_factory.hpp:77] Creating layer scale2_1
I0624 17:17:23.607542 21500 net.cpp:91] Creating Layer scale2_1
I0624 17:17:23.607544 21500 net.cpp:425] scale2_1 <- conv2_1
I0624 17:17:23.607547 21500 net.cpp:386] scale2_1 -> conv2_1 (in-place)
I0624 17:17:23.607574 21500 layer_factory.hpp:77] Creating layer scale2_1
I0624 17:17:23.607653 21500 net.cpp:141] Setting up scale2_1
I0624 17:17:23.607659 21500 net.cpp:148] Top shape: 32 32 56 56 (3211264)
I0624 17:17:23.607661 21500 net.cpp:156] Memory required for data: 269746560
I0624 17:17:23.607668 21500 layer_factory.hpp:77] Creating layer relu2_1
I0624 17:17:23.607672 21500 net.cpp:91] Creating Layer relu2_1
I0624 17:17:23.607676 21500 net.cpp:425] relu2_1 <- conv2_1
I0624 17:17:23.607678 21500 net.cpp:386] relu2_1 -> conv2_1 (in-place)
I0624 17:17:23.608014 21500 net.cpp:141] Setting up relu2_1
I0624 17:17:23.608026 21500 net.cpp:148] Top shape: 32 32 56 56 (3211264)
I0624 17:17:23.608028 21500 net.cpp:156] Memory required for data: 282591616
I0624 17:17:23.608031 21500 layer_factory.hpp:77] Creating layer conv2_2
I0624 17:17:23.608039 21500 net.cpp:91] Creating Layer conv2_2
I0624 17:17:23.608042 21500 net.cpp:425] conv2_2 <- conv2_1
I0624 17:17:23.608047 21500 net.cpp:399] conv2_2 -> conv2_2
I0624 17:17:23.608577 21500 net.cpp:141] Setting up conv2_2
I0624 17:17:23.608587 21500 net.cpp:148] Top shape: 32 32 56 56 (3211264)
I0624 17:17:23.608589 21500 net.cpp:156] Memory required for data: 295436672
I0624 17:17:23.608593 21500 layer_factory.hpp:77] Creating layer bn2_2
I0624 17:17:23.608600 21500 net.cpp:91] Creating Layer bn2_2
I0624 17:17:23.608603 21500 net.cpp:425] bn2_2 <- conv2_2
I0624 17:17:23.608606 21500 net.cpp:386] bn2_2 -> conv2_2 (in-place)
I0624 17:17:23.608737 21500 net.cpp:141] Setting up bn2_2
I0624 17:17:23.608743 21500 net.cpp:148] Top shape: 32 32 56 56 (3211264)
I0624 17:17:23.608747 21500 net.cpp:156] Memory required for data: 308281728
I0624 17:17:23.608752 21500 layer_factory.hpp:77] Creating layer scale2_2
I0624 17:17:23.608757 21500 net.cpp:91] Creating Layer scale2_2
I0624 17:17:23.608760 21500 net.cpp:425] scale2_2 <- conv2_2
I0624 17:17:23.608764 21500 net.cpp:386] scale2_2 -> conv2_2 (in-place)
I0624 17:17:23.608791 21500 layer_factory.hpp:77] Creating layer scale2_2
I0624 17:17:23.608875 21500 net.cpp:141] Setting up scale2_2
I0624 17:17:23.608881 21500 net.cpp:148] Top shape: 32 32 56 56 (3211264)
I0624 17:17:23.608883 21500 net.cpp:156] Memory required for data: 321126784
I0624 17:17:23.608887 21500 layer_factory.hpp:77] Creating layer relu2_2
I0624 17:17:23.608891 21500 net.cpp:91] Creating Layer relu2_2
I0624 17:17:23.608894 21500 net.cpp:425] relu2_2 <- conv2_2
I0624 17:17:23.608897 21500 net.cpp:386] relu2_2 -> conv2_2 (in-place)
I0624 17:17:23.609230 21500 net.cpp:141] Setting up relu2_2
I0624 17:17:23.609241 21500 net.cpp:148] Top shape: 32 32 56 56 (3211264)
I0624 17:17:23.609244 21500 net.cpp:156] Memory required for data: 333971840
I0624 17:17:23.609247 21500 layer_factory.hpp:77] Creating layer pool2
I0624 17:17:23.609262 21500 net.cpp:91] Creating Layer pool2
I0624 17:17:23.609266 21500 net.cpp:425] pool2 <- conv2_2
I0624 17:17:23.609271 21500 net.cpp:399] pool2 -> pool2
I0624 17:17:23.609303 21500 net.cpp:141] Setting up pool2
I0624 17:17:23.609308 21500 net.cpp:148] Top shape: 32 32 28 28 (802816)
I0624 17:17:23.609310 21500 net.cpp:156] Memory required for data: 337183104
I0624 17:17:23.609313 21500 layer_factory.hpp:77] Creating layer conv3_1
I0624 17:17:23.609319 21500 net.cpp:91] Creating Layer conv3_1
I0624 17:17:23.609323 21500 net.cpp:425] conv3_1 <- pool2
I0624 17:17:23.609326 21500 net.cpp:399] conv3_1 -> conv3_1
I0624 17:17:23.611178 21500 net.cpp:141] Setting up conv3_1
I0624 17:17:23.611191 21500 net.cpp:148] Top shape: 32 64 28 28 (1605632)
I0624 17:17:23.611193 21500 net.cpp:156] Memory required for data: 343605632
I0624 17:17:23.611197 21500 layer_factory.hpp:77] Creating layer bn3_1
I0624 17:17:23.611203 21500 net.cpp:91] Creating Layer bn3_1
I0624 17:17:23.611207 21500 net.cpp:425] bn3_1 <- conv3_1
I0624 17:17:23.611210 21500 net.cpp:386] bn3_1 -> conv3_1 (in-place)
I0624 17:17:23.612442 21500 net.cpp:141] Setting up bn3_1
I0624 17:17:23.612452 21500 net.cpp:148] Top shape: 32 64 28 28 (1605632)
I0624 17:17:23.612455 21500 net.cpp:156] Memory required for data: 350028160
I0624 17:17:23.612462 21500 layer_factory.hpp:77] Creating layer scale3_1
I0624 17:17:23.612468 21500 net.cpp:91] Creating Layer scale3_1
I0624 17:17:23.612471 21500 net.cpp:425] scale3_1 <- conv3_1
I0624 17:17:23.612475 21500 net.cpp:386] scale3_1 -> conv3_1 (in-place)
I0624 17:17:23.612507 21500 layer_factory.hpp:77] Creating layer scale3_1
I0624 17:17:23.612586 21500 net.cpp:141] Setting up scale3_1
I0624 17:17:23.612596 21500 net.cpp:148] Top shape: 32 64 28 28 (1605632)
I0624 17:17:23.612598 21500 net.cpp:156] Memory required for data: 356450688
I0624 17:17:23.612602 21500 layer_factory.hpp:77] Creating layer relu3_1
I0624 17:17:23.612607 21500 net.cpp:91] Creating Layer relu3_1
I0624 17:17:23.612609 21500 net.cpp:425] relu3_1 <- conv3_1
I0624 17:17:23.612612 21500 net.cpp:386] relu3_1 -> conv3_1 (in-place)
I0624 17:17:23.612735 21500 net.cpp:141] Setting up relu3_1
I0624 17:17:23.612743 21500 net.cpp:148] Top shape: 32 64 28 28 (1605632)
I0624 17:17:23.612746 21500 net.cpp:156] Memory required for data: 362873216
I0624 17:17:23.612748 21500 layer_factory.hpp:77] Creating layer conv3_2
I0624 17:17:23.612756 21500 net.cpp:91] Creating Layer conv3_2
I0624 17:17:23.612757 21500 net.cpp:425] conv3_2 <- conv3_1
I0624 17:17:23.612761 21500 net.cpp:399] conv3_2 -> conv3_2
I0624 17:17:23.613665 21500 net.cpp:141] Setting up conv3_2
I0624 17:17:23.613678 21500 net.cpp:148] Top shape: 32 64 28 28 (1605632)
I0624 17:17:23.613680 21500 net.cpp:156] Memory required for data: 369295744
I0624 17:17:23.613684 21500 layer_factory.hpp:77] Creating layer bn3_2
I0624 17:17:23.613690 21500 net.cpp:91] Creating Layer bn3_2
I0624 17:17:23.613698 21500 net.cpp:425] bn3_2 <- conv3_2
I0624 17:17:23.613701 21500 net.cpp:386] bn3_2 -> conv3_2 (in-place)
I0624 17:17:23.613831 21500 net.cpp:141] Setting up bn3_2
I0624 17:17:23.613839 21500 net.cpp:148] Top shape: 32 64 28 28 (1605632)
I0624 17:17:23.613842 21500 net.cpp:156] Memory required for data: 375718272
I0624 17:17:23.613850 21500 layer_factory.hpp:77] Creating layer scale3_2
I0624 17:17:23.613857 21500 net.cpp:91] Creating Layer scale3_2
I0624 17:17:23.613858 21500 net.cpp:425] scale3_2 <- conv3_2
I0624 17:17:23.613862 21500 net.cpp:386] scale3_2 -> conv3_2 (in-place)
I0624 17:17:23.613891 21500 layer_factory.hpp:77] Creating layer scale3_2
I0624 17:17:23.613970 21500 net.cpp:141] Setting up scale3_2
I0624 17:17:23.613976 21500 net.cpp:148] Top shape: 32 64 28 28 (1605632)
I0624 17:17:23.613977 21500 net.cpp:156] Memory required for data: 382140800
I0624 17:17:23.613982 21500 layer_factory.hpp:77] Creating layer relu3_2
I0624 17:17:23.613986 21500 net.cpp:91] Creating Layer relu3_2
I0624 17:17:23.613989 21500 net.cpp:425] relu3_2 <- conv3_2
I0624 17:17:23.613992 21500 net.cpp:386] relu3_2 -> conv3_2 (in-place)
I0624 17:17:23.614125 21500 net.cpp:141] Setting up relu3_2
I0624 17:17:23.614132 21500 net.cpp:148] Top shape: 32 64 28 28 (1605632)
I0624 17:17:23.614135 21500 net.cpp:156] Memory required for data: 388563328
I0624 17:17:23.614137 21500 layer_factory.hpp:77] Creating layer pool3
I0624 17:17:23.614142 21500 net.cpp:91] Creating Layer pool3
I0624 17:17:23.614145 21500 net.cpp:425] pool3 <- conv3_2
I0624 17:17:23.614150 21500 net.cpp:399] pool3 -> pool3
I0624 17:17:23.614179 21500 net.cpp:141] Setting up pool3
I0624 17:17:23.614186 21500 net.cpp:148] Top shape: 32 64 14 14 (401408)
I0624 17:17:23.614187 21500 net.cpp:156] Memory required for data: 390168960
I0624 17:17:23.614190 21500 layer_factory.hpp:77] Creating layer conv4_1
I0624 17:17:23.614197 21500 net.cpp:91] Creating Layer conv4_1
I0624 17:17:23.614202 21500 net.cpp:425] conv4_1 <- pool3
I0624 17:17:23.614204 21500 net.cpp:399] conv4_1 -> conv4_1
I0624 17:17:23.616374 21500 net.cpp:141] Setting up conv4_1
I0624 17:17:23.616387 21500 net.cpp:148] Top shape: 32 128 14 14 (802816)
I0624 17:17:23.616390 21500 net.cpp:156] Memory required for data: 393380224
I0624 17:17:23.616394 21500 layer_factory.hpp:77] Creating layer bn4_1
I0624 17:17:23.616400 21500 net.cpp:91] Creating Layer bn4_1
I0624 17:17:23.616402 21500 net.cpp:425] bn4_1 <- conv4_1
I0624 17:17:23.616406 21500 net.cpp:386] bn4_1 -> conv4_1 (in-place)
I0624 17:17:23.616539 21500 net.cpp:141] Setting up bn4_1
I0624 17:17:23.616546 21500 net.cpp:148] Top shape: 32 128 14 14 (802816)
I0624 17:17:23.616549 21500 net.cpp:156] Memory required for data: 396591488
I0624 17:17:23.616554 21500 layer_factory.hpp:77] Creating layer scale4_1
I0624 17:17:23.616559 21500 net.cpp:91] Creating Layer scale4_1
I0624 17:17:23.616562 21500 net.cpp:425] scale4_1 <- conv4_1
I0624 17:17:23.616565 21500 net.cpp:386] scale4_1 -> conv4_1 (in-place)
I0624 17:17:23.616595 21500 layer_factory.hpp:77] Creating layer scale4_1
I0624 17:17:23.616665 21500 net.cpp:141] Setting up scale4_1
I0624 17:17:23.616672 21500 net.cpp:148] Top shape: 32 128 14 14 (802816)
I0624 17:17:23.616674 21500 net.cpp:156] Memory required for data: 399802752
I0624 17:17:23.616678 21500 layer_factory.hpp:77] Creating layer relu4_1
I0624 17:17:23.616684 21500 net.cpp:91] Creating Layer relu4_1
I0624 17:17:23.616688 21500 net.cpp:425] relu4_1 <- conv4_1
I0624 17:17:23.616690 21500 net.cpp:386] relu4_1 -> conv4_1 (in-place)
I0624 17:17:23.616812 21500 net.cpp:141] Setting up relu4_1
I0624 17:17:23.616821 21500 net.cpp:148] Top shape: 32 128 14 14 (802816)
I0624 17:17:23.616822 21500 net.cpp:156] Memory required for data: 403014016
I0624 17:17:23.616825 21500 layer_factory.hpp:77] Creating layer conv4_2
I0624 17:17:23.616832 21500 net.cpp:91] Creating Layer conv4_2
I0624 17:17:23.616835 21500 net.cpp:425] conv4_2 <- conv4_1
I0624 17:17:23.616839 21500 net.cpp:399] conv4_2 -> conv4_2
I0624 17:17:23.618557 21500 net.cpp:141] Setting up conv4_2
I0624 17:17:23.618569 21500 net.cpp:148] Top shape: 32 128 14 14 (802816)
I0624 17:17:23.618572 21500 net.cpp:156] Memory required for data: 406225280
I0624 17:17:23.618577 21500 layer_factory.hpp:77] Creating layer bn4_2
I0624 17:17:23.618583 21500 net.cpp:91] Creating Layer bn4_2
I0624 17:17:23.618587 21500 net.cpp:425] bn4_2 <- conv4_2
I0624 17:17:23.618590 21500 net.cpp:386] bn4_2 -> conv4_2 (in-place)
I0624 17:17:23.618721 21500 net.cpp:141] Setting up bn4_2
I0624 17:17:23.618728 21500 net.cpp:148] Top shape: 32 128 14 14 (802816)
I0624 17:17:23.618731 21500 net.cpp:156] Memory required for data: 409436544
I0624 17:17:23.618736 21500 layer_factory.hpp:77] Creating layer scale4_2
I0624 17:17:23.618741 21500 net.cpp:91] Creating Layer scale4_2
I0624 17:17:23.618744 21500 net.cpp:425] scale4_2 <- conv4_2
I0624 17:17:23.618747 21500 net.cpp:386] scale4_2 -> conv4_2 (in-place)
I0624 17:17:23.618777 21500 layer_factory.hpp:77] Creating layer scale4_2
I0624 17:17:23.618852 21500 net.cpp:141] Setting up scale4_2
I0624 17:17:23.618859 21500 net.cpp:148] Top shape: 32 128 14 14 (802816)
I0624 17:17:23.618860 21500 net.cpp:156] Memory required for data: 412647808
I0624 17:17:23.618875 21500 layer_factory.hpp:77] Creating layer relu4_2
I0624 17:17:23.618880 21500 net.cpp:91] Creating Layer relu4_2
I0624 17:17:23.618882 21500 net.cpp:425] relu4_2 <- conv4_2
I0624 17:17:23.618885 21500 net.cpp:386] relu4_2 -> conv4_2 (in-place)
I0624 17:17:23.619014 21500 net.cpp:141] Setting up relu4_2
I0624 17:17:23.619021 21500 net.cpp:148] Top shape: 32 128 14 14 (802816)
I0624 17:17:23.619024 21500 net.cpp:156] Memory required for data: 415859072
I0624 17:17:23.619026 21500 layer_factory.hpp:77] Creating layer pool4
I0624 17:17:23.619031 21500 net.cpp:91] Creating Layer pool4
I0624 17:17:23.619035 21500 net.cpp:425] pool4 <- conv4_2
I0624 17:17:23.619038 21500 net.cpp:399] pool4 -> pool4
I0624 17:17:23.619069 21500 net.cpp:141] Setting up pool4
I0624 17:17:23.619076 21500 net.cpp:148] Top shape: 32 128 7 7 (200704)
I0624 17:17:23.619078 21500 net.cpp:156] Memory required for data: 416661888
I0624 17:17:23.619081 21500 layer_factory.hpp:77] Creating layer conv5_1
I0624 17:17:23.619087 21500 net.cpp:91] Creating Layer conv5_1
I0624 17:17:23.619091 21500 net.cpp:425] conv5_1 <- pool4
I0624 17:17:23.619094 21500 net.cpp:399] conv5_1 -> conv5_1
I0624 17:17:23.620877 21500 net.cpp:141] Setting up conv5_1
I0624 17:17:23.620889 21500 net.cpp:148] Top shape: 32 128 7 7 (200704)
I0624 17:17:23.620892 21500 net.cpp:156] Memory required for data: 417464704
I0624 17:17:23.620896 21500 layer_factory.hpp:77] Creating layer bn5_1
I0624 17:17:23.620903 21500 net.cpp:91] Creating Layer bn5_1
I0624 17:17:23.620905 21500 net.cpp:425] bn5_1 <- conv5_1
I0624 17:17:23.620909 21500 net.cpp:386] bn5_1 -> conv5_1 (in-place)
I0624 17:17:23.621048 21500 net.cpp:141] Setting up bn5_1
I0624 17:17:23.621054 21500 net.cpp:148] Top shape: 32 128 7 7 (200704)
I0624 17:17:23.621057 21500 net.cpp:156] Memory required for data: 418267520
I0624 17:17:23.621062 21500 layer_factory.hpp:77] Creating layer scale5_1
I0624 17:17:23.621068 21500 net.cpp:91] Creating Layer scale5_1
I0624 17:17:23.621071 21500 net.cpp:425] scale5_1 <- conv5_1
I0624 17:17:23.621074 21500 net.cpp:386] scale5_1 -> conv5_1 (in-place)
I0624 17:17:23.621104 21500 layer_factory.hpp:77] Creating layer scale5_1
I0624 17:17:23.621177 21500 net.cpp:141] Setting up scale5_1
I0624 17:17:23.621183 21500 net.cpp:148] Top shape: 32 128 7 7 (200704)
I0624 17:17:23.621186 21500 net.cpp:156] Memory required for data: 419070336
I0624 17:17:23.621189 21500 layer_factory.hpp:77] Creating layer relu5_1
I0624 17:17:23.621193 21500 net.cpp:91] Creating Layer relu5_1
I0624 17:17:23.621197 21500 net.cpp:425] relu5_1 <- conv5_1
I0624 17:17:23.621201 21500 net.cpp:386] relu5_1 -> conv5_1 (in-place)
I0624 17:17:23.621543 21500 net.cpp:141] Setting up relu5_1
I0624 17:17:23.621554 21500 net.cpp:148] Top shape: 32 128 7 7 (200704)
I0624 17:17:23.621557 21500 net.cpp:156] Memory required for data: 419873152
I0624 17:17:23.621561 21500 layer_factory.hpp:77] Creating layer conv5_2
I0624 17:17:23.621567 21500 net.cpp:91] Creating Layer conv5_2
I0624 17:17:23.621570 21500 net.cpp:425] conv5_2 <- conv5_1
I0624 17:17:23.621575 21500 net.cpp:399] conv5_2 -> conv5_2
I0624 17:17:23.623131 21500 net.cpp:141] Setting up conv5_2
I0624 17:17:23.623143 21500 net.cpp:148] Top shape: 32 128 7 7 (200704)
I0624 17:17:23.623147 21500 net.cpp:156] Memory required for data: 420675968
I0624 17:17:23.623157 21500 layer_factory.hpp:77] Creating layer bn5_2
I0624 17:17:23.623163 21500 net.cpp:91] Creating Layer bn5_2
I0624 17:17:23.623167 21500 net.cpp:425] bn5_2 <- conv5_2
I0624 17:17:23.623170 21500 net.cpp:386] bn5_2 -> conv5_2 (in-place)
I0624 17:17:23.623325 21500 net.cpp:141] Setting up bn5_2
I0624 17:17:23.623334 21500 net.cpp:148] Top shape: 32 128 7 7 (200704)
I0624 17:17:23.623337 21500 net.cpp:156] Memory required for data: 421478784
I0624 17:17:23.623342 21500 layer_factory.hpp:77] Creating layer scale5_2
I0624 17:17:23.623348 21500 net.cpp:91] Creating Layer scale5_2
I0624 17:17:23.623352 21500 net.cpp:425] scale5_2 <- conv5_2
I0624 17:17:23.623355 21500 net.cpp:386] scale5_2 -> conv5_2 (in-place)
I0624 17:17:23.623399 21500 layer_factory.hpp:77] Creating layer scale5_2
I0624 17:17:23.623483 21500 net.cpp:141] Setting up scale5_2
I0624 17:17:23.623491 21500 net.cpp:148] Top shape: 32 128 7 7 (200704)
I0624 17:17:23.623492 21500 net.cpp:156] Memory required for data: 422281600
I0624 17:17:23.623497 21500 layer_factory.hpp:77] Creating layer relu5_2
I0624 17:17:23.623500 21500 net.cpp:91] Creating Layer relu5_2
I0624 17:17:23.623503 21500 net.cpp:425] relu5_2 <- conv5_2
I0624 17:17:23.623507 21500 net.cpp:386] relu5_2 -> conv5_2 (in-place)
I0624 17:17:23.623874 21500 net.cpp:141] Setting up relu5_2
I0624 17:17:23.623886 21500 net.cpp:148] Top shape: 32 128 7 7 (200704)
I0624 17:17:23.623889 21500 net.cpp:156] Memory required for data: 423084416
I0624 17:17:23.623893 21500 layer_factory.hpp:77] Creating layer pool5
I0624 17:17:23.623898 21500 net.cpp:91] Creating Layer pool5
I0624 17:17:23.623903 21500 net.cpp:425] pool5 <- conv5_2
I0624 17:17:23.623906 21500 net.cpp:399] pool5 -> pool5
I0624 17:17:23.624076 21500 net.cpp:141] Setting up pool5
I0624 17:17:23.624088 21500 net.cpp:148] Top shape: 32 128 1 1 (4096)
I0624 17:17:23.624089 21500 net.cpp:156] Memory required for data: 423100800
I0624 17:17:23.624092 21500 layer_factory.hpp:77] Creating layer fc2
I0624 17:17:23.624099 21500 net.cpp:91] Creating Layer fc2
I0624 17:17:23.624101 21500 net.cpp:425] fc2 <- pool5
I0624 17:17:23.624105 21500 net.cpp:399] fc2 -> fc2
I0624 17:17:23.624183 21500 net.cpp:141] Setting up fc2
I0624 17:17:23.624191 21500 net.cpp:148] Top shape: 32 2 (64)
I0624 17:17:23.624192 21500 net.cpp:156] Memory required for data: 423101056
I0624 17:17:23.624197 21500 layer_factory.hpp:77] Creating layer fc2_fc2_0_split
I0624 17:17:23.624202 21500 net.cpp:91] Creating Layer fc2_fc2_0_split
I0624 17:17:23.624204 21500 net.cpp:425] fc2_fc2_0_split <- fc2
I0624 17:17:23.624208 21500 net.cpp:399] fc2_fc2_0_split -> fc2_fc2_0_split_0
I0624 17:17:23.624212 21500 net.cpp:399] fc2_fc2_0_split -> fc2_fc2_0_split_1
I0624 17:17:23.624240 21500 net.cpp:141] Setting up fc2_fc2_0_split
I0624 17:17:23.624243 21500 net.cpp:148] Top shape: 32 2 (64)
I0624 17:17:23.624246 21500 net.cpp:148] Top shape: 32 2 (64)
I0624 17:17:23.624248 21500 net.cpp:156] Memory required for data: 423101568
I0624 17:17:23.624250 21500 layer_factory.hpp:77] Creating layer loss
I0624 17:17:23.624260 21500 net.cpp:91] Creating Layer loss
I0624 17:17:23.624263 21500 net.cpp:425] loss <- fc2_fc2_0_split_0
I0624 17:17:23.624265 21500 net.cpp:425] loss <- label_data_1_split_0
I0624 17:17:23.624269 21500 net.cpp:399] loss -> loss
…
