…
I0624 21:43:39.192831 24300 net.cpp:313] The NetState phase (0) differed from the phase (1) specified by a rule in layer data
I0624 21:43:39.193423 24300 net.cpp:49] Initializing net from parameters: 
name: "BPnet"
state {
  phase: TRAIN
}
layer {
  name: "data"
  type: "Data"
  top: "data"
  top: "label"
  include {
    phase: TRAIN
  }
  transform_param {
    mirror: false
    mean_value: 100
    crop_h: 224
    crop_w: 288
    scale_jitter_range: 0.1
    contrast_jitter_range: 0.1
  }
  data_param {
    source: "data/train_lmdb"
    batch_size: 32
    backend: LMDB
  }
}
layer {
  name: "conv1_1"
  type: "Convolution"
  bottom: "data"
  top: "conv1_1"
  param {
    lr_mult: 1
    decay_mult: 1
  }
  convolution_param {
    num_output: 32
    bias_term: false
    pad: 3
    kernel_size: 7
    stride: 2
    weight_filler {
      type: "xavier"
    }
  }
}
layer {
  name: "bn1_1"
  type: "BatchNorm"
  bottom: "conv1_1"
  top: "conv1_1"
  param {
    lr_mult: 0
  }
  param {
    lr_mult: 0
  }
  param {
    lr_mult: 0
  }
  batch_norm_param {
    use_global_stats: false
  }
}
layer {
  name: "scale1_1"
  type: "Scale"
  bottom: "conv1_1"
  top: "conv1_1"
  param {
    lr_mult: 1
    decay_mult: 1
  }
  param {
    lr_mult: 1
    decay_mult: 1
  }
  scale_param {
    bias_term: true
    bias_filler {
      type: "constant"
      value: 0
    }
  }
}
layer {
  name: "relu1_1"
  type: "ReLU"
  bottom: "conv1_1"
  top: "conv1_1"
}
layer {
  name: "conv1_2"
  type: "Convolution"
  bottom: "conv1_1"
  top: "conv1_2"
  param {
    lr_mult: 1
    decay_mult: 1
  }
  convolution_param {
    num_output: 32
    bias_term: false
    pad: 1
    kernel_size: 3
    weight_filler {
      type: "xavier"
    }
  }
}
layer {
  name: "bn1_2"
  type: "BatchNorm"
  bottom: "conv1_2"
  top: "conv1_2"
  param {
    lr_mult: 0
  }
  param {
    lr_mult: 0
  }
  param {
    lr_mult: 0
  }
  batch_norm_param {
    use_global_stats: false
  }
}
layer {
  name: "scale1_2"
  type: "Scale"
  bottom: "conv1_2"
  top: "conv1_2"
  param {
    lr_mult: 1
    decay_mult: 1
  }
  param {
    lr_mult: 1
    decay_mult: 1
  }
  scale_param {
    bias_term: true
    bias_filler {
      type: "constant"
      value: 0
    }
  }
}
layer {
  name: "relu1_2"
  type: "ReLU"
  bottom: "conv1_2"
  top: "conv1_2"
}
layer {
  name: "pool1"
  type: "Pooling"
  bottom: "conv1_2"
  top: "pool1"
  pooling_param {
    pool: MAX
    kernel_size: 2
    stride: 2
  }
}
layer {
  name: "conv2_1"
  type: "Convolution"
  bottom: "pool1"
  top: "conv2_1"
  param {
    lr_mult: 1
    decay_mult: 1
  }
  convolution_param {
    num_output: 64
    bias_term: false
    pad: 1
    kernel_size: 3
    weight_filler {
      type: "xavier"
    }
  }
}
layer {
  name: "bn2_1"
  type: "BatchNorm"
  bottom: "conv2_1"
  top: "conv2_1"
  param {
    lr_mult: 0
  }
  param {
    lr_mult: 0
  }
  param {
    lr_mult: 0
  }
  batch_norm_param {
    use_global_stats: false
  }
}
layer {
  name: "scale2_1"
  type: "Scale"
  bottom: "conv2_1"
  top: "conv2_1"
  param {
    lr_mult: 1
    decay_mult: 1
  }
  param {
    lr_mult: 1
    decay_mult: 1
  }
  scale_param {
    bias_term: true
    bias_filler {
      type: "constant"
      value: 0
    }
  }
}
layer {
  name: "relu2_1"
  type: "ReLU"
  bottom: "conv2_1"
  top: "conv2_1"
}
layer {
  name: "conv2_2"
  type: "Convolution"
  bottom: "conv2_1"
  top: "conv2_2"
  param {
    lr_mult: 1
    decay_mult: 1
  }
  convolution_param {
    num_output: 64
    bias_term: false
    pad: 1
    kernel_size: 3
    weight_filler {
      type: "xavier"
    }
  }
}
layer {
  name: "bn2_2"
  type: "BatchNorm"
  bottom: "conv2_2"
  top: "conv2_2"
  param {
    lr_mult: 0
  }
  param {
    lr_mult: 0
  }
  param {
    lr_mult: 0
  }
  batch_norm_param {
    use_global_stats: false
  }
}
layer {
  name: "scale2_2"
  type: "Scale"
  bottom: "conv2_2"
  top: "conv2_2"
  param {
    lr_mult: 1
    decay_mult: 1
  }
  param {
    lr_mult: 1
    decay_mult: 1
  }
  scale_param {
    bias_term: true
    bias_filler {
      type: "constant"
      value: 0
    }
  }
}
layer {
  name: "relu2_2"
  type: "ReLU"
  bottom: "conv2_2"
  top: "conv2_2"
}
layer {
  name: "pool2"
  type: "Pooling"
  bottom: "conv2_2"
  top: "pool2"
  pooling_param {
    pool: MAX
    kernel_size: 2
    stride: 2
  }
}
layer {
  name: "conv3_1"
  type: "Convolution"
  bottom: "pool2"
  top: "conv3_1"
  param {
    lr_mult: 1
    decay_mult: 1
  }
  convolution_param {
    num_output: 128
    bias_term: false
    pad: 1
    kernel_size: 3
    weight_filler {
      type: "xavier"
    }
  }
}
layer {
  name: "bn3_1"
  type: "BatchNorm"
  bottom: "conv3_1"
  top: "conv3_1"
  param {
    lr_mult: 0
  }
  param {
    lr_mult: 0
  }
  param {
    lr_mult: 0
  }
  batch_norm_param {
    use_global_stats: false
  }
}
layer {
  name: "scale3_1"
  type: "Scale"
  bottom: "conv3_1"
  top: "conv3_1"
  param {
    lr_mult: 1
    decay_mult: 1
  }
  param {
    lr_mult: 1
    decay_mult: 1
  }
  scale_param {
    bias_term: true
    bias_filler {
      type: "constant"
      value: 0
    }
  }
}
layer {
  name: "relu3_1"
  type: "ReLU"
  bottom: "conv3_1"
  top: "conv3_1"
}
layer {
  name: "conv3_2"
  type: "Convolution"
  bottom: "conv3_1"
  top: "conv3_2"
  param {
    lr_mult: 1
    decay_mult: 1
  }
  convolution_param {
    num_output: 128
    bias_term: false
    pad: 1
    kernel_size: 3
    weight_filler {
      type: "xavier"
    }
  }
}
layer {
  name: "bn3_2"
  type: "BatchNorm"
  bottom: "conv3_2"
  top: "conv3_2"
  param {
    lr_mult: 0
  }
  param {
    lr_mult: 0
  }
  param {
    lr_mult: 0
  }
  batch_norm_param {
    use_global_stats: false
  }
}
layer {
  name: "scale3_2"
  type: "Scale"
  bottom: "conv3_2"
  top: "conv3_2"
  param {
    lr_mult: 1
    decay_mult: 1
  }
  param {
    lr_mult: 1
    decay_mult: 1
  }
  scale_param {
    bias_term: true
    bias_filler {
      type: "constant"
      value: 0
    }
  }
}
layer {
  name: "relu3_2"
  type: "ReLU"
  bottom: "conv3_2"
  top: "conv3_2"
}
layer {
  name: "pool3"
  type: "Pooling"
  bottom: "conv3_2"
  top: "pool3"
  pooling_param {
    pool: MAX
    kernel_size: 2
    stride: 2
  }
}
layer {
  name: "conv4_1"
  type: "Convolution"
  bottom: "pool3"
  top: "conv4_1"
  param {
    lr_mult: 1
    decay_mult: 1
  }
  convolution_param {
    num_output: 256
    bias_term: false
    pad: 1
    kernel_size: 3
    weight_filler {
      type: "xavier"
    }
  }
}
layer {
  name: "bn4_1"
  type: "BatchNorm"
  bottom: "conv4_1"
  top: "conv4_1"
  param {
    lr_mult: 0
  }
  param {
    lr_mult: 0
  }
  param {
    lr_mult: 0
  }
  batch_norm_param {
    use_global_stats: false
  }
}
layer {
  name: "scale4_1"
  type: "Scale"
  bottom: "conv4_1"
  top: "conv4_1"
  param {
    lr_mult: 1
    decay_mult: 1
  }
  param {
    lr_mult: 1
    decay_mult: 1
  }
  scale_param {
    bias_term: true
    bias_filler {
      type: "constant"
      value: 0
    }
  }
}
layer {
  name: "relu4_1"
  type: "ReLU"
  bottom: "conv4_1"
  top: "conv4_1"
}
layer {
  name: "conv4_2"
  type: "Convolution"
  bottom: "conv4_1"
  top: "conv4_2"
  param {
    lr_mult: 1
    decay_mult: 1
  }
  convolution_param {
    num_output: 256
    bias_term: false
    pad: 1
    kernel_size: 3
    weight_filler {
      type: "xavier"
    }
  }
}
layer {
  name: "bn4_2"
  type: "BatchNorm"
  bottom: "conv4_2"
  top: "conv4_2"
  param {
    lr_mult: 0
  }
  param {
    lr_mult: 0
  }
  param {
    lr_mult: 0
  }
  batch_norm_param {
    use_global_stats: false
  }
}
layer {
  name: "scale4_2"
  type: "Scale"
  bottom: "conv4_2"
  top: "conv4_2"
  param {
    lr_mult: 1
    decay_mult: 1
  }
  param {
    lr_mult: 1
    decay_mult: 1
  }
  scale_param {
    bias_term: true
    bias_filler {
      type: "constant"
      value: 0
    }
  }
}
layer {
  name: "relu4_2"
  type: "ReLU"
  bottom: "conv4_2"
  top: "conv4_2"
}
layer {
  name: "pool4"
  type: "Pooling"
  bottom: "conv4_2"
  top: "pool4"
  pooling_param {
    pool: MAX
    kernel_size: 2
    stride: 2
  }
}
layer {
  name: "conv5_1"
  type: "Convolution"
  bottom: "pool4"
  top: "conv5_1"
  param {
    lr_mult: 1
    decay_mult: 1
  }
  convolution_param {
    num_output: 256
    bias_term: false
    pad: 1
    kernel_size: 3
    weight_filler {
      type: "xavier"
    }
  }
}
layer {
  name: "bn5_1"
  type: "BatchNorm"
  bottom: "conv5_1"
  top: "conv5_1"
  param {
    lr_mult: 0
  }
  param {
    lr_mult: 0
  }
  param {
    lr_mult: 0
  }
  batch_norm_param {
    use_global_stats: false
  }
}
layer {
  name: "scale5_1"
  type: "Scale"
  bottom: "conv5_1"
  top: "conv5_1"
  param {
    lr_mult: 1
    decay_mult: 1
  }
  param {
    lr_mult: 1
    decay_mult: 1
  }
  scale_param {
    bias_term: true
    bias_filler {
      type: "constant"
      value: 0
    }
  }
}
layer {
  name: "relu5_1"
  type: "ReLU"
  bottom: "conv5_1"
  top: "conv5_1"
}
layer {
  name: "conv5_2"
  type: "Convolution"
  bottom: "conv5_1"
  top: "conv5_2"
  param {
    lr_mult: 1
    decay_mult: 1
  }
  convolution_param {
    num_output: 256
    bias_term: false
    pad: 1
    kernel_size: 3
    weight_filler {
      type: "xavier"
    }
  }
}
layer {
  name: "bn5_2"
  type: "BatchNorm"
  bottom: "conv5_2"
  top: "conv5_2"
  param {
    lr_mult: 0
  }
  param {
    lr_mult: 0
  }
  param {
    lr_mult: 0
  }
  batch_norm_param {
    use_global_stats: false
  }
}
layer {
  name: "scale5_2"
  type: "Scale"
  bottom: "conv5_2"
  top: "conv5_2"
  param {
    lr_mult: 1
    decay_mult: 1
  }
  param {
    lr_mult: 1
    decay_mult: 1
  }
  scale_param {
    bias_term: true
    bias_filler {
      type: "constant"
      value: 0
    }
  }
}
layer {
  name: "relu5_2"
  type: "ReLU"
  bottom: "conv5_2"
  top: "conv5_2"
}
layer {
  name: "pool5"
  type: "Pooling"
  bottom: "conv5_2"
  top: "pool5"
  pooling_param {
    pool: AVE
    stride: 1
    kernel_h: 7
    kernel_w: 9
  }
}
layer {
  name: "fc2"
  type: "InnerProduct"
  bottom: "pool5"
  top: "fc2"
  inner_product_param {
    num_output: 2
  }
}
layer {
  name: "loss"
  type: "SoftmaxWithLoss"
  bottom: "fc2"
  bottom: "label"
  top: "loss"
}
layer {
  name: "accuracy"
  type: "Accuracy"
  bottom: "fc2"
  bottom: "label"
  top: "accuracy"
}
I0624 21:43:39.193812 24300 layer_factory.hpp:77] Creating layer data
I0624 21:43:39.194653 24300 net.cpp:91] Creating Layer data
I0624 21:43:39.194676 24300 net.cpp:399] data -> data
I0624 21:43:39.194716 24300 net.cpp:399] data -> label
I0624 21:43:39.195991 24304 db_lmdb.cpp:35] Opened lmdb data/train_lmdb
I0624 21:43:39.246143 24300 data_layer.cpp:42] output data size: 32,3,224,288
I0624 21:43:39.314628 24300 net.cpp:141] Setting up data
I0624 21:43:39.314664 24300 net.cpp:148] Top shape: 32 3 224 288 (6193152)
I0624 21:43:39.314671 24300 net.cpp:148] Top shape: 32 (32)
I0624 21:43:39.314674 24300 net.cpp:156] Memory required for data: 24772736
I0624 21:43:39.314685 24300 layer_factory.hpp:77] Creating layer label_data_1_split
I0624 21:43:39.314707 24300 net.cpp:91] Creating Layer label_data_1_split
I0624 21:43:39.314713 24300 net.cpp:425] label_data_1_split <- label
I0624 21:43:39.314724 24300 net.cpp:399] label_data_1_split -> label_data_1_split_0
I0624 21:43:39.314735 24300 net.cpp:399] label_data_1_split -> label_data_1_split_1
I0624 21:43:39.314790 24300 net.cpp:141] Setting up label_data_1_split
I0624 21:43:39.314797 24300 net.cpp:148] Top shape: 32 (32)
I0624 21:43:39.314802 24300 net.cpp:148] Top shape: 32 (32)
I0624 21:43:39.314805 24300 net.cpp:156] Memory required for data: 24772992
I0624 21:43:39.314810 24300 layer_factory.hpp:77] Creating layer conv1_1
I0624 21:43:39.314827 24300 net.cpp:91] Creating Layer conv1_1
I0624 21:43:39.314831 24300 net.cpp:425] conv1_1 <- data
I0624 21:43:39.314857 24300 net.cpp:399] conv1_1 -> conv1_1
I0624 21:43:39.673661 24300 net.cpp:141] Setting up conv1_1
I0624 21:43:39.673686 24300 net.cpp:148] Top shape: 32 32 112 144 (16515072)
I0624 21:43:39.673691 24300 net.cpp:156] Memory required for data: 90833280
I0624 21:43:39.673703 24300 layer_factory.hpp:77] Creating layer bn1_1
I0624 21:43:39.673722 24300 net.cpp:91] Creating Layer bn1_1
I0624 21:43:39.673727 24300 net.cpp:425] bn1_1 <- conv1_1
I0624 21:43:39.673732 24300 net.cpp:386] bn1_1 -> conv1_1 (in-place)
I0624 21:43:39.673921 24300 net.cpp:141] Setting up bn1_1
I0624 21:43:39.673929 24300 net.cpp:148] Top shape: 32 32 112 144 (16515072)
I0624 21:43:39.673933 24300 net.cpp:156] Memory required for data: 156893568
I0624 21:43:39.673944 24300 layer_factory.hpp:77] Creating layer scale1_1
I0624 21:43:39.673956 24300 net.cpp:91] Creating Layer scale1_1
I0624 21:43:39.673960 24300 net.cpp:425] scale1_1 <- conv1_1
I0624 21:43:39.673965 24300 net.cpp:386] scale1_1 -> conv1_1 (in-place)
I0624 21:43:39.674007 24300 layer_factory.hpp:77] Creating layer scale1_1
I0624 21:43:39.674125 24300 net.cpp:141] Setting up scale1_1
I0624 21:43:39.674134 24300 net.cpp:148] Top shape: 32 32 112 144 (16515072)
I0624 21:43:39.674139 24300 net.cpp:156] Memory required for data: 222953856
I0624 21:43:39.674147 24300 layer_factory.hpp:77] Creating layer relu1_1
I0624 21:43:39.674154 24300 net.cpp:91] Creating Layer relu1_1
I0624 21:43:39.674160 24300 net.cpp:425] relu1_1 <- conv1_1
I0624 21:43:39.674167 24300 net.cpp:386] relu1_1 -> conv1_1 (in-place)
I0624 21:43:39.674341 24300 net.cpp:141] Setting up relu1_1
I0624 21:43:39.674355 24300 net.cpp:148] Top shape: 32 32 112 144 (16515072)
I0624 21:43:39.674360 24300 net.cpp:156] Memory required for data: 289014144
I0624 21:43:39.674366 24300 layer_factory.hpp:77] Creating layer conv1_2
I0624 21:43:39.674381 24300 net.cpp:91] Creating Layer conv1_2
I0624 21:43:39.674388 24300 net.cpp:425] conv1_2 <- conv1_1
I0624 21:43:39.674396 24300 net.cpp:399] conv1_2 -> conv1_2
I0624 21:43:39.675402 24300 net.cpp:141] Setting up conv1_2
I0624 21:43:39.675417 24300 net.cpp:148] Top shape: 32 32 112 144 (16515072)
I0624 21:43:39.675421 24300 net.cpp:156] Memory required for data: 355074432
I0624 21:43:39.675426 24300 layer_factory.hpp:77] Creating layer bn1_2
I0624 21:43:39.675433 24300 net.cpp:91] Creating Layer bn1_2
I0624 21:43:39.675437 24300 net.cpp:425] bn1_2 <- conv1_2
I0624 21:43:39.675442 24300 net.cpp:386] bn1_2 -> conv1_2 (in-place)
I0624 21:43:39.675612 24300 net.cpp:141] Setting up bn1_2
I0624 21:43:39.675621 24300 net.cpp:148] Top shape: 32 32 112 144 (16515072)
I0624 21:43:39.675623 24300 net.cpp:156] Memory required for data: 421134720
I0624 21:43:39.675633 24300 layer_factory.hpp:77] Creating layer scale1_2
I0624 21:43:39.675643 24300 net.cpp:91] Creating Layer scale1_2
I0624 21:43:39.675647 24300 net.cpp:425] scale1_2 <- conv1_2
I0624 21:43:39.675652 24300 net.cpp:386] scale1_2 -> conv1_2 (in-place)
I0624 21:43:39.675688 24300 layer_factory.hpp:77] Creating layer scale1_2
I0624 21:43:39.675806 24300 net.cpp:141] Setting up scale1_2
I0624 21:43:39.675814 24300 net.cpp:148] Top shape: 32 32 112 144 (16515072)
I0624 21:43:39.675820 24300 net.cpp:156] Memory required for data: 487195008
I0624 21:43:39.675827 24300 layer_factory.hpp:77] Creating layer relu1_2
I0624 21:43:39.675832 24300 net.cpp:91] Creating Layer relu1_2
I0624 21:43:39.675834 24300 net.cpp:425] relu1_2 <- conv1_2
I0624 21:43:39.675838 24300 net.cpp:386] relu1_2 -> conv1_2 (in-place)
I0624 21:43:39.675990 24300 net.cpp:141] Setting up relu1_2
I0624 21:43:39.676000 24300 net.cpp:148] Top shape: 32 32 112 144 (16515072)
I0624 21:43:39.676003 24300 net.cpp:156] Memory required for data: 553255296
I0624 21:43:39.676007 24300 layer_factory.hpp:77] Creating layer pool1
I0624 21:43:39.676013 24300 net.cpp:91] Creating Layer pool1
I0624 21:43:39.676017 24300 net.cpp:425] pool1 <- conv1_2
I0624 21:43:39.676022 24300 net.cpp:399] pool1 -> pool1
I0624 21:43:39.676074 24300 net.cpp:141] Setting up pool1
I0624 21:43:39.676096 24300 net.cpp:148] Top shape: 32 32 56 72 (4128768)
I0624 21:43:39.676100 24300 net.cpp:156] Memory required for data: 569770368
I0624 21:43:39.676103 24300 layer_factory.hpp:77] Creating layer conv2_1
I0624 21:43:39.676111 24300 net.cpp:91] Creating Layer conv2_1
I0624 21:43:39.676115 24300 net.cpp:425] conv2_1 <- pool1
I0624 21:43:39.676120 24300 net.cpp:399] conv2_1 -> conv2_1
I0624 21:43:39.678345 24300 net.cpp:141] Setting up conv2_1
I0624 21:43:39.678360 24300 net.cpp:148] Top shape: 32 64 56 72 (8257536)
I0624 21:43:39.678364 24300 net.cpp:156] Memory required for data: 602800512
I0624 21:43:39.678369 24300 layer_factory.hpp:77] Creating layer bn2_1
I0624 21:43:39.678376 24300 net.cpp:91] Creating Layer bn2_1
I0624 21:43:39.678380 24300 net.cpp:425] bn2_1 <- conv2_1
I0624 21:43:39.678385 24300 net.cpp:386] bn2_1 -> conv2_1 (in-place)
I0624 21:43:39.679766 24300 net.cpp:141] Setting up bn2_1
I0624 21:43:39.679780 24300 net.cpp:148] Top shape: 32 64 56 72 (8257536)
I0624 21:43:39.679783 24300 net.cpp:156] Memory required for data: 635830656
I0624 21:43:39.679790 24300 layer_factory.hpp:77] Creating layer scale2_1
I0624 21:43:39.679798 24300 net.cpp:91] Creating Layer scale2_1
I0624 21:43:39.679802 24300 net.cpp:425] scale2_1 <- conv2_1
I0624 21:43:39.679808 24300 net.cpp:386] scale2_1 -> conv2_1 (in-place)
I0624 21:43:39.679847 24300 layer_factory.hpp:77] Creating layer scale2_1
I0624 21:43:39.679945 24300 net.cpp:141] Setting up scale2_1
I0624 21:43:39.679954 24300 net.cpp:148] Top shape: 32 64 56 72 (8257536)
I0624 21:43:39.679955 24300 net.cpp:156] Memory required for data: 668860800
I0624 21:43:39.679965 24300 layer_factory.hpp:77] Creating layer relu2_1
I0624 21:43:39.679971 24300 net.cpp:91] Creating Layer relu2_1
I0624 21:43:39.679975 24300 net.cpp:425] relu2_1 <- conv2_1
I0624 21:43:39.679981 24300 net.cpp:386] relu2_1 -> conv2_1 (in-place)
I0624 21:43:39.680443 24300 net.cpp:141] Setting up relu2_1
I0624 21:43:39.680454 24300 net.cpp:148] Top shape: 32 64 56 72 (8257536)
I0624 21:43:39.680459 24300 net.cpp:156] Memory required for data: 701890944
I0624 21:43:39.680461 24300 layer_factory.hpp:77] Creating layer conv2_2
I0624 21:43:39.680471 24300 net.cpp:91] Creating Layer conv2_2
I0624 21:43:39.680474 24300 net.cpp:425] conv2_2 <- conv2_1
I0624 21:43:39.680485 24300 net.cpp:399] conv2_2 -> conv2_2
I0624 21:43:39.681632 24300 net.cpp:141] Setting up conv2_2
I0624 21:43:39.681645 24300 net.cpp:148] Top shape: 32 64 56 72 (8257536)
I0624 21:43:39.681649 24300 net.cpp:156] Memory required for data: 734921088
I0624 21:43:39.681654 24300 layer_factory.hpp:77] Creating layer bn2_2
I0624 21:43:39.681663 24300 net.cpp:91] Creating Layer bn2_2
I0624 21:43:39.681668 24300 net.cpp:425] bn2_2 <- conv2_2
I0624 21:43:39.681673 24300 net.cpp:386] bn2_2 -> conv2_2 (in-place)
I0624 21:43:39.681838 24300 net.cpp:141] Setting up bn2_2
I0624 21:43:39.681845 24300 net.cpp:148] Top shape: 32 64 56 72 (8257536)
I0624 21:43:39.681849 24300 net.cpp:156] Memory required for data: 767951232
I0624 21:43:39.681855 24300 layer_factory.hpp:77] Creating layer scale2_2
I0624 21:43:39.681862 24300 net.cpp:91] Creating Layer scale2_2
I0624 21:43:39.681865 24300 net.cpp:425] scale2_2 <- conv2_2
I0624 21:43:39.681870 24300 net.cpp:386] scale2_2 -> conv2_2 (in-place)
I0624 21:43:39.681905 24300 layer_factory.hpp:77] Creating layer scale2_2
I0624 21:43:39.682003 24300 net.cpp:141] Setting up scale2_2
I0624 21:43:39.682011 24300 net.cpp:148] Top shape: 32 64 56 72 (8257536)
I0624 21:43:39.682014 24300 net.cpp:156] Memory required for data: 800981376
I0624 21:43:39.682019 24300 layer_factory.hpp:77] Creating layer relu2_2
I0624 21:43:39.682024 24300 net.cpp:91] Creating Layer relu2_2
I0624 21:43:39.682027 24300 net.cpp:425] relu2_2 <- conv2_2
I0624 21:43:39.682031 24300 net.cpp:386] relu2_2 -> conv2_2 (in-place)
I0624 21:43:39.682502 24300 net.cpp:141] Setting up relu2_2
I0624 21:43:39.682518 24300 net.cpp:148] Top shape: 32 64 56 72 (8257536)
I0624 21:43:39.682521 24300 net.cpp:156] Memory required for data: 834011520
I0624 21:43:39.682538 24300 layer_factory.hpp:77] Creating layer pool2
I0624 21:43:39.682545 24300 net.cpp:91] Creating Layer pool2
I0624 21:43:39.682549 24300 net.cpp:425] pool2 <- conv2_2
I0624 21:43:39.682554 24300 net.cpp:399] pool2 -> pool2
I0624 21:43:39.682600 24300 net.cpp:141] Setting up pool2
I0624 21:43:39.682606 24300 net.cpp:148] Top shape: 32 64 28 36 (2064384)
I0624 21:43:39.682610 24300 net.cpp:156] Memory required for data: 842269056
I0624 21:43:39.682612 24300 layer_factory.hpp:77] Creating layer conv3_1
I0624 21:43:39.682621 24300 net.cpp:91] Creating Layer conv3_1
I0624 21:43:39.682624 24300 net.cpp:425] conv3_1 <- pool2
I0624 21:43:39.682628 24300 net.cpp:399] conv3_1 -> conv3_1
I0624 21:43:39.685647 24300 net.cpp:141] Setting up conv3_1
I0624 21:43:39.685664 24300 net.cpp:148] Top shape: 32 128 28 36 (4128768)
I0624 21:43:39.685668 24300 net.cpp:156] Memory required for data: 858784128
I0624 21:43:39.685674 24300 layer_factory.hpp:77] Creating layer bn3_1
I0624 21:43:39.685683 24300 net.cpp:91] Creating Layer bn3_1
I0624 21:43:39.685688 24300 net.cpp:425] bn3_1 <- conv3_1
I0624 21:43:39.685696 24300 net.cpp:386] bn3_1 -> conv3_1 (in-place)
I0624 21:43:39.687270 24300 net.cpp:141] Setting up bn3_1
I0624 21:43:39.687286 24300 net.cpp:148] Top shape: 32 128 28 36 (4128768)
I0624 21:43:39.687289 24300 net.cpp:156] Memory required for data: 875299200
I0624 21:43:39.687297 24300 layer_factory.hpp:77] Creating layer scale3_1
I0624 21:43:39.687306 24300 net.cpp:91] Creating Layer scale3_1
I0624 21:43:39.687314 24300 net.cpp:425] scale3_1 <- conv3_1
I0624 21:43:39.687321 24300 net.cpp:386] scale3_1 -> conv3_1 (in-place)
I0624 21:43:39.687377 24300 layer_factory.hpp:77] Creating layer scale3_1
I0624 21:43:39.687479 24300 net.cpp:141] Setting up scale3_1
I0624 21:43:39.687500 24300 net.cpp:148] Top shape: 32 128 28 36 (4128768)
I0624 21:43:39.687501 24300 net.cpp:156] Memory required for data: 891814272
I0624 21:43:39.687506 24300 layer_factory.hpp:77] Creating layer relu3_1
I0624 21:43:39.687515 24300 net.cpp:91] Creating Layer relu3_1
I0624 21:43:39.687520 24300 net.cpp:425] relu3_1 <- conv3_1
I0624 21:43:39.687526 24300 net.cpp:386] relu3_1 -> conv3_1 (in-place)
I0624 21:43:39.687690 24300 net.cpp:141] Setting up relu3_1
I0624 21:43:39.687700 24300 net.cpp:148] Top shape: 32 128 28 36 (4128768)
I0624 21:43:39.687702 24300 net.cpp:156] Memory required for data: 908329344
I0624 21:43:39.687706 24300 layer_factory.hpp:77] Creating layer conv3_2
I0624 21:43:39.687719 24300 net.cpp:91] Creating Layer conv3_2
I0624 21:43:39.687726 24300 net.cpp:425] conv3_2 <- conv3_1
I0624 21:43:39.687734 24300 net.cpp:399] conv3_2 -> conv3_2
I0624 21:43:39.689729 24300 net.cpp:141] Setting up conv3_2
I0624 21:43:39.689743 24300 net.cpp:148] Top shape: 32 128 28 36 (4128768)
I0624 21:43:39.689745 24300 net.cpp:156] Memory required for data: 924844416
I0624 21:43:39.689750 24300 layer_factory.hpp:77] Creating layer bn3_2
I0624 21:43:39.689756 24300 net.cpp:91] Creating Layer bn3_2
I0624 21:43:39.689759 24300 net.cpp:425] bn3_2 <- conv3_2
I0624 21:43:39.689764 24300 net.cpp:386] bn3_2 -> conv3_2 (in-place)
I0624 21:43:39.689939 24300 net.cpp:141] Setting up bn3_2
I0624 21:43:39.689949 24300 net.cpp:148] Top shape: 32 128 28 36 (4128768)
I0624 21:43:39.689951 24300 net.cpp:156] Memory required for data: 941359488
I0624 21:43:39.689966 24300 layer_factory.hpp:77] Creating layer scale3_2
I0624 21:43:39.689977 24300 net.cpp:91] Creating Layer scale3_2
I0624 21:43:39.689981 24300 net.cpp:425] scale3_2 <- conv3_2
I0624 21:43:39.689988 24300 net.cpp:386] scale3_2 -> conv3_2 (in-place)
I0624 21:43:39.690040 24300 layer_factory.hpp:77] Creating layer scale3_2
I0624 21:43:39.690160 24300 net.cpp:141] Setting up scale3_2
I0624 21:43:39.690170 24300 net.cpp:148] Top shape: 32 128 28 36 (4128768)
I0624 21:43:39.690173 24300 net.cpp:156] Memory required for data: 957874560
I0624 21:43:39.690181 24300 layer_factory.hpp:77] Creating layer relu3_2
I0624 21:43:39.690189 24300 net.cpp:91] Creating Layer relu3_2
I0624 21:43:39.690196 24300 net.cpp:425] relu3_2 <- conv3_2
I0624 21:43:39.690217 24300 net.cpp:386] relu3_2 -> conv3_2 (in-place)
I0624 21:43:39.690357 24300 net.cpp:141] Setting up relu3_2
I0624 21:43:39.690366 24300 net.cpp:148] Top shape: 32 128 28 36 (4128768)
I0624 21:43:39.690368 24300 net.cpp:156] Memory required for data: 974389632
I0624 21:43:39.690371 24300 layer_factory.hpp:77] Creating layer pool3
I0624 21:43:39.690377 24300 net.cpp:91] Creating Layer pool3
I0624 21:43:39.690381 24300 net.cpp:425] pool3 <- conv3_2
I0624 21:43:39.690384 24300 net.cpp:399] pool3 -> pool3
I0624 21:43:39.690418 24300 net.cpp:141] Setting up pool3
I0624 21:43:39.690424 24300 net.cpp:148] Top shape: 32 128 14 18 (1032192)
I0624 21:43:39.690426 24300 net.cpp:156] Memory required for data: 978518400
I0624 21:43:39.690429 24300 layer_factory.hpp:77] Creating layer conv4_1
I0624 21:43:39.690436 24300 net.cpp:91] Creating Layer conv4_1
I0624 21:43:39.690438 24300 net.cpp:425] conv4_1 <- pool3
I0624 21:43:39.690443 24300 net.cpp:399] conv4_1 -> conv4_1
I0624 21:43:39.693305 24300 net.cpp:141] Setting up conv4_1
I0624 21:43:39.693320 24300 net.cpp:148] Top shape: 32 256 14 18 (2064384)
I0624 21:43:39.693322 24300 net.cpp:156] Memory required for data: 986775936
I0624 21:43:39.693326 24300 layer_factory.hpp:77] Creating layer bn4_1
I0624 21:43:39.693333 24300 net.cpp:91] Creating Layer bn4_1
I0624 21:43:39.693336 24300 net.cpp:425] bn4_1 <- conv4_1
I0624 21:43:39.693341 24300 net.cpp:386] bn4_1 -> conv4_1 (in-place)
I0624 21:43:39.693486 24300 net.cpp:141] Setting up bn4_1
I0624 21:43:39.693493 24300 net.cpp:148] Top shape: 32 256 14 18 (2064384)
I0624 21:43:39.693495 24300 net.cpp:156] Memory required for data: 995033472
I0624 21:43:39.693501 24300 layer_factory.hpp:77] Creating layer scale4_1
I0624 21:43:39.693507 24300 net.cpp:91] Creating Layer scale4_1
I0624 21:43:39.693511 24300 net.cpp:425] scale4_1 <- conv4_1
I0624 21:43:39.693513 24300 net.cpp:386] scale4_1 -> conv4_1 (in-place)
I0624 21:43:39.693544 24300 layer_factory.hpp:77] Creating layer scale4_1
I0624 21:43:39.693620 24300 net.cpp:141] Setting up scale4_1
I0624 21:43:39.693626 24300 net.cpp:148] Top shape: 32 256 14 18 (2064384)
I0624 21:43:39.693629 24300 net.cpp:156] Memory required for data: 1003291008
I0624 21:43:39.693634 24300 layer_factory.hpp:77] Creating layer relu4_1
I0624 21:43:39.693641 24300 net.cpp:91] Creating Layer relu4_1
I0624 21:43:39.693645 24300 net.cpp:425] relu4_1 <- conv4_1
I0624 21:43:39.693647 24300 net.cpp:386] relu4_1 -> conv4_1 (in-place)
I0624 21:43:39.693788 24300 net.cpp:141] Setting up relu4_1
I0624 21:43:39.693796 24300 net.cpp:148] Top shape: 32 256 14 18 (2064384)
I0624 21:43:39.693799 24300 net.cpp:156] Memory required for data: 1011548544
I0624 21:43:39.693802 24300 layer_factory.hpp:77] Creating layer conv4_2
I0624 21:43:39.693810 24300 net.cpp:91] Creating Layer conv4_2
I0624 21:43:39.693814 24300 net.cpp:425] conv4_2 <- conv4_1
I0624 21:43:39.693819 24300 net.cpp:399] conv4_2 -> conv4_2
I0624 21:43:39.699669 24300 net.cpp:141] Setting up conv4_2
I0624 21:43:39.699687 24300 net.cpp:148] Top shape: 32 256 14 18 (2064384)
I0624 21:43:39.699689 24300 net.cpp:156] Memory required for data: 1019806080
I0624 21:43:39.699695 24300 layer_factory.hpp:77] Creating layer bn4_2
I0624 21:43:39.699704 24300 net.cpp:91] Creating Layer bn4_2
I0624 21:43:39.699708 24300 net.cpp:425] bn4_2 <- conv4_2
I0624 21:43:39.699713 24300 net.cpp:386] bn4_2 -> conv4_2 (in-place)
I0624 21:43:39.699865 24300 net.cpp:141] Setting up bn4_2
I0624 21:43:39.699872 24300 net.cpp:148] Top shape: 32 256 14 18 (2064384)
I0624 21:43:39.699874 24300 net.cpp:156] Memory required for data: 1028063616
I0624 21:43:39.699880 24300 layer_factory.hpp:77] Creating layer scale4_2
I0624 21:43:39.699889 24300 net.cpp:91] Creating Layer scale4_2
I0624 21:43:39.699893 24300 net.cpp:425] scale4_2 <- conv4_2
I0624 21:43:39.699897 24300 net.cpp:386] scale4_2 -> conv4_2 (in-place)
I0624 21:43:39.699933 24300 layer_factory.hpp:77] Creating layer scale4_2
I0624 21:43:39.700014 24300 net.cpp:141] Setting up scale4_2
I0624 21:43:39.700021 24300 net.cpp:148] Top shape: 32 256 14 18 (2064384)
I0624 21:43:39.700037 24300 net.cpp:156] Memory required for data: 1036321152
I0624 21:43:39.700042 24300 layer_factory.hpp:77] Creating layer relu4_2
I0624 21:43:39.700048 24300 net.cpp:91] Creating Layer relu4_2
I0624 21:43:39.700052 24300 net.cpp:425] relu4_2 <- conv4_2
I0624 21:43:39.700058 24300 net.cpp:386] relu4_2 -> conv4_2 (in-place)
I0624 21:43:39.700265 24300 net.cpp:141] Setting up relu4_2
I0624 21:43:39.700280 24300 net.cpp:148] Top shape: 32 256 14 18 (2064384)
I0624 21:43:39.700284 24300 net.cpp:156] Memory required for data: 1044578688
I0624 21:43:39.700289 24300 layer_factory.hpp:77] Creating layer pool4
I0624 21:43:39.700297 24300 net.cpp:91] Creating Layer pool4
I0624 21:43:39.700302 24300 net.cpp:425] pool4 <- conv4_2
I0624 21:43:39.700310 24300 net.cpp:399] pool4 -> pool4
I0624 21:43:39.700358 24300 net.cpp:141] Setting up pool4
I0624 21:43:39.700368 24300 net.cpp:148] Top shape: 32 256 7 9 (516096)
I0624 21:43:39.700371 24300 net.cpp:156] Memory required for data: 1046643072
I0624 21:43:39.700376 24300 layer_factory.hpp:77] Creating layer conv5_1
I0624 21:43:39.700388 24300 net.cpp:91] Creating Layer conv5_1
I0624 21:43:39.700397 24300 net.cpp:425] conv5_1 <- pool4
I0624 21:43:39.700404 24300 net.cpp:399] conv5_1 -> conv5_1
I0624 21:43:39.707182 24300 net.cpp:141] Setting up conv5_1
I0624 21:43:39.707201 24300 net.cpp:148] Top shape: 32 256 7 9 (516096)
I0624 21:43:39.707204 24300 net.cpp:156] Memory required for data: 1048707456
I0624 21:43:39.707211 24300 layer_factory.hpp:77] Creating layer bn5_1
I0624 21:43:39.707218 24300 net.cpp:91] Creating Layer bn5_1
I0624 21:43:39.707222 24300 net.cpp:425] bn5_1 <- conv5_1
I0624 21:43:39.707227 24300 net.cpp:386] bn5_1 -> conv5_1 (in-place)
I0624 21:43:39.707419 24300 net.cpp:141] Setting up bn5_1
I0624 21:43:39.707429 24300 net.cpp:148] Top shape: 32 256 7 9 (516096)
I0624 21:43:39.707442 24300 net.cpp:156] Memory required for data: 1050771840
I0624 21:43:39.707448 24300 layer_factory.hpp:77] Creating layer scale5_1
I0624 21:43:39.707455 24300 net.cpp:91] Creating Layer scale5_1
I0624 21:43:39.707461 24300 net.cpp:425] scale5_1 <- conv5_1
I0624 21:43:39.707468 24300 net.cpp:386] scale5_1 -> conv5_1 (in-place)
I0624 21:43:39.707520 24300 layer_factory.hpp:77] Creating layer scale5_1
I0624 21:43:39.707626 24300 net.cpp:141] Setting up scale5_1
I0624 21:43:39.707634 24300 net.cpp:148] Top shape: 32 256 7 9 (516096)
I0624 21:43:39.707638 24300 net.cpp:156] Memory required for data: 1052836224
I0624 21:43:39.707641 24300 layer_factory.hpp:77] Creating layer relu5_1
I0624 21:43:39.707648 24300 net.cpp:91] Creating Layer relu5_1
I0624 21:43:39.707653 24300 net.cpp:425] relu5_1 <- conv5_1
I0624 21:43:39.707659 24300 net.cpp:386] relu5_1 -> conv5_1 (in-place)
I0624 21:43:39.708099 24300 net.cpp:141] Setting up relu5_1
I0624 21:43:39.708115 24300 net.cpp:148] Top shape: 32 256 7 9 (516096)
I0624 21:43:39.708120 24300 net.cpp:156] Memory required for data: 1054900608
I0624 21:43:39.708124 24300 layer_factory.hpp:77] Creating layer conv5_2
I0624 21:43:39.708133 24300 net.cpp:91] Creating Layer conv5_2
I0624 21:43:39.708137 24300 net.cpp:425] conv5_2 <- conv5_1
I0624 21:43:39.708142 24300 net.cpp:399] conv5_2 -> conv5_2
I0624 21:43:39.713654 24300 net.cpp:141] Setting up conv5_2
I0624 21:43:39.713667 24300 net.cpp:148] Top shape: 32 256 7 9 (516096)
I0624 21:43:39.713670 24300 net.cpp:156] Memory required for data: 1056964992
I0624 21:43:39.713675 24300 layer_factory.hpp:77] Creating layer bn5_2
I0624 21:43:39.713682 24300 net.cpp:91] Creating Layer bn5_2
I0624 21:43:39.713685 24300 net.cpp:425] bn5_2 <- conv5_2
I0624 21:43:39.713690 24300 net.cpp:386] bn5_2 -> conv5_2 (in-place)
I0624 21:43:39.713862 24300 net.cpp:141] Setting up bn5_2
I0624 21:43:39.713874 24300 net.cpp:148] Top shape: 32 256 7 9 (516096)
I0624 21:43:39.713876 24300 net.cpp:156] Memory required for data: 1059029376
I0624 21:43:39.713886 24300 layer_factory.hpp:77] Creating layer scale5_2
I0624 21:43:39.713896 24300 net.cpp:91] Creating Layer scale5_2
I0624 21:43:39.713917 24300 net.cpp:425] scale5_2 <- conv5_2
I0624 21:43:39.713928 24300 net.cpp:386] scale5_2 -> conv5_2 (in-place)
I0624 21:43:39.713968 24300 layer_factory.hpp:77] Creating layer scale5_2
I0624 21:43:39.714057 24300 net.cpp:141] Setting up scale5_2
I0624 21:43:39.714063 24300 net.cpp:148] Top shape: 32 256 7 9 (516096)
I0624 21:43:39.714066 24300 net.cpp:156] Memory required for data: 1061093760
I0624 21:43:39.714071 24300 layer_factory.hpp:77] Creating layer relu5_2
I0624 21:43:39.714074 24300 net.cpp:91] Creating Layer relu5_2
I0624 21:43:39.714077 24300 net.cpp:425] relu5_2 <- conv5_2
I0624 21:43:39.714082 24300 net.cpp:386] relu5_2 -> conv5_2 (in-place)
I0624 21:43:39.714581 24300 net.cpp:141] Setting up relu5_2
I0624 21:43:39.714592 24300 net.cpp:148] Top shape: 32 256 7 9 (516096)
I0624 21:43:39.714596 24300 net.cpp:156] Memory required for data: 1063158144
I0624 21:43:39.714598 24300 layer_factory.hpp:77] Creating layer pool5
I0624 21:43:39.714607 24300 net.cpp:91] Creating Layer pool5
I0624 21:43:39.714609 24300 net.cpp:425] pool5 <- conv5_2
I0624 21:43:39.714613 24300 net.cpp:399] pool5 -> pool5
I0624 21:43:39.714774 24300 net.cpp:141] Setting up pool5
I0624 21:43:39.714783 24300 net.cpp:148] Top shape: 32 256 1 1 (8192)
I0624 21:43:39.714787 24300 net.cpp:156] Memory required for data: 1063190912
I0624 21:43:39.714788 24300 layer_factory.hpp:77] Creating layer fc2
I0624 21:43:39.714794 24300 net.cpp:91] Creating Layer fc2
I0624 21:43:39.714797 24300 net.cpp:425] fc2 <- pool5
I0624 21:43:39.714803 24300 net.cpp:399] fc2 -> fc2
I0624 21:43:39.714902 24300 net.cpp:141] Setting up fc2
I0624 21:43:39.714910 24300 net.cpp:148] Top shape: 32 2 (64)
I0624 21:43:39.714911 24300 net.cpp:156] Memory required for data: 1063191168
I0624 21:43:39.714915 24300 layer_factory.hpp:77] Creating layer fc2_fc2_0_split
I0624 21:43:39.714921 24300 net.cpp:91] Creating Layer fc2_fc2_0_split
I0624 21:43:39.714923 24300 net.cpp:425] fc2_fc2_0_split <- fc2
I0624 21:43:39.714928 24300 net.cpp:399] fc2_fc2_0_split -> fc2_fc2_0_split_0
I0624 21:43:39.714932 24300 net.cpp:399] fc2_fc2_0_split -> fc2_fc2_0_split_1
I0624 21:43:39.714961 24300 net.cpp:141] Setting up fc2_fc2_0_split
I0624 21:43:39.714964 24300 net.cpp:148] Top shape: 32 2 (64)
I0624 21:43:39.714967 24300 net.cpp:148] Top shape: 32 2 (64)
I0624 21:43:39.714969 24300 net.cpp:156] Memory required for data: 1063191680
I0624 21:43:39.714972 24300 layer_factory.hpp:77] Creating layer loss
I0624 21:43:39.714982 24300 net.cpp:91] Creating Layer loss
I0624 21:43:39.714984 24300 net.cpp:425] loss <- fc2_fc2_0_split_0
I0624 21:43:39.714987 24300 net.cpp:425] loss <- label_data_1_split_0
I0624 21:43:39.714998 24300 net.cpp:399] loss -> loss
…
I0624 21:43:39.716356 24300 solver.cpp:181] Creating test net (#0) specified by net file: models/bpnet/train_val.prototxt
I0624 21:43:39.716413 24300 net.cpp:313] The NetState phase (1) differed from the phase (0) specified by a rule in layer data
I0624 21:43:39.716642 24300 net.cpp:49] Initializing net from parameters: 
name: "BPnet"
state {
  phase: TEST
}
layer {
  name: "data"
  type: "Data"
  top: "data"
  top: "label"
  include {
    phase: TEST
  }
  transform_param {
    mirror: false
    mean_value: 100
    crop_h: 224
    crop_w: 288
    contrast_jitter_range: 0.1
  }
  data_param {
    source: "data/val_lmdb"
    batch_size: 64
    backend: LMDB
  }
}
layer {
  name: "conv1_1"
  type: "Convolution"
  bottom: "data"
  top: "conv1_1"
  param {
    lr_mult: 1
    decay_mult: 1
  }
  convolution_param {
    num_output: 32
    bias_term: false
    pad: 3
    kernel_size: 7
    stride: 2
    weight_filler {
      type: "xavier"
    }
  }
}
layer {
  name: "bn1_1"
  type: "BatchNorm"
  bottom: "conv1_1"
  top: "conv1_1"
  param {
    lr_mult: 0
  }
  param {
    lr_mult: 0
  }
  param {
    lr_mult: 0
  }
  batch_norm_param {
    use_global_stats: false
  }
}
layer {
  name: "scale1_1"
  type: "Scale"
  bottom: "conv1_1"
  top: "conv1_1"
  param {
    lr_mult: 1
    decay_mult: 1
  }
  param {
    lr_mult: 1
    decay_mult: 1
  }
  scale_param {
    bias_term: true
    bias_filler {
      type: "constant"
      value: 0
    }
  }
}
layer {
  name: "relu1_1"
  type: "ReLU"
  bottom: "conv1_1"
  top: "conv1_1"
}
layer {
  name: "conv1_2"
  type: "Convolution"
  bottom: "conv1_1"
  top: "conv1_2"
  param {
    lr_mult: 1
    decay_mult: 1
  }
  convolution_param {
    num_output: 32
    bias_term: false
    pad: 1
    kernel_size: 3
    weight_filler {
      type: "xavier"
    }
  }
}
layer {
  name: "bn1_2"
  type: "BatchNorm"
  bottom: "conv1_2"
  top: "conv1_2"
  param {
    lr_mult: 0
  }
  param {
    lr_mult: 0
  }
  param {
    lr_mult: 0
  }
  batch_norm_param {
    use_global_stats: false
  }
}
layer {
  name: "scale1_2"
  type: "Scale"
  bottom: "conv1_2"
  top: "conv1_2"
  param {
    lr_mult: 1
    decay_mult: 1
  }
  param {
    lr_mult: 1
    decay_mult: 1
  }
  scale_param {
    bias_term: true
    bias_filler {
      type: "constant"
      value: 0
    }
  }
}
layer {
  name: "relu1_2"
  type: "ReLU"
  bottom: "conv1_2"
  top: "conv1_2"
}
layer {
  name: "pool1"
  type: "Pooling"
  bottom: "conv1_2"
  top: "pool1"
  pooling_param {
    pool: MAX
    kernel_size: 2
    stride: 2
  }
}
layer {
  name: "conv2_1"
  type: "Convolution"
  bottom: "pool1"
  top: "conv2_1"
  param {
    lr_mult: 1
    decay_mult: 1
  }
  convolution_param {
    num_output: 64
    bias_term: false
    pad: 1
    kernel_size: 3
    weight_filler {
      type: "xavier"
    }
  }
}
layer {
  name: "bn2_1"
  type: "BatchNorm"
  bottom: "conv2_1"
  top: "conv2_1"
  param {
    lr_mult: 0
  }
  param {
    lr_mult: 0
  }
  param {
    lr_mult: 0
  }
  batch_norm_param {
    use_global_stats: false
  }
}
layer {
  name: "scale2_1"
  type: "Scale"
  bottom: "conv2_1"
  top: "conv2_1"
  param {
    lr_mult: 1
    decay_mult: 1
  }
  param {
    lr_mult: 1
    decay_mult: 1
  }
  scale_param {
    bias_term: true
    bias_filler {
      type: "constant"
      value: 0
    }
  }
}
layer {
  name: "relu2_1"
  type: "ReLU"
  bottom: "conv2_1"
  top: "conv2_1"
}
layer {
  name: "conv2_2"
  type: "Convolution"
  bottom: "conv2_1"
  top: "conv2_2"
  param {
    lr_mult: 1
    decay_mult: 1
  }
  convolution_param {
    num_output: 64
    bias_term: false
    pad: 1
    kernel_size: 3
    weight_filler {
      type: "xavier"
    }
  }
}
layer {
  name: "bn2_2"
  type: "BatchNorm"
  bottom: "conv2_2"
  top: "conv2_2"
  param {
    lr_mult: 0
  }
  param {
    lr_mult: 0
  }
  param {
    lr_mult: 0
  }
  batch_norm_param {
    use_global_stats: false
  }
}
layer {
  name: "scale2_2"
  type: "Scale"
  bottom: "conv2_2"
  top: "conv2_2"
  param {
    lr_mult: 1
    decay_mult: 1
  }
  param {
    lr_mult: 1
    decay_mult: 1
  }
  scale_param {
    bias_term: true
    bias_filler {
      type: "constant"
      value: 0
    }
  }
}
layer {
  name: "relu2_2"
  type: "ReLU"
  bottom: "conv2_2"
  top: "conv2_2"
}
layer {
  name: "pool2"
  type: "Pooling"
  bottom: "conv2_2"
  top: "pool2"
  pooling_param {
    pool: MAX
    kernel_size: 2
    stride: 2
  }
}
layer {
  name: "conv3_1"
  type: "Convolution"
  bottom: "pool2"
  top: "conv3_1"
  param {
    lr_mult: 1
    decay_mult: 1
  }
  convolution_param {
    num_output: 128
    bias_term: false
    pad: 1
    kernel_size: 3
    weight_filler {
      type: "xavier"
    }
  }
}
layer {
  name: "bn3_1"
  type: "BatchNorm"
  bottom: "conv3_1"
  top: "conv3_1"
  param {
    lr_mult: 0
  }
  param {
    lr_mult: 0
  }
  param {
    lr_mult: 0
  }
  batch_norm_param {
    use_global_stats: false
  }
}
layer {
  name: "scale3_1"
  type: "Scale"
  bottom: "conv3_1"
  top: "conv3_1"
  param {
    lr_mult: 1
    decay_mult: 1
  }
  param {
    lr_mult: 1
    decay_mult: 1
  }
  scale_param {
    bias_term: true
    bias_filler {
      type: "constant"
      value: 0
    }
  }
}
layer {
  name: "relu3_1"
  type: "ReLU"
  bottom: "conv3_1"
  top: "conv3_1"
}
layer {
  name: "conv3_2"
  type: "Convolution"
  bottom: "conv3_1"
  top: "conv3_2"
  param {
    lr_mult: 1
    decay_mult: 1
  }
  convolution_param {
    num_output: 128
    bias_term: false
    pad: 1
    kernel_size: 3
    weight_filler {
      type: "xavier"
    }
  }
}
layer {
  name: "bn3_2"
  type: "BatchNorm"
  bottom: "conv3_2"
  top: "conv3_2"
  param {
    lr_mult: 0
  }
  param {
    lr_mult: 0
  }
  param {
    lr_mult: 0
  }
  batch_norm_param {
    use_global_stats: false
  }
}
layer {
  name: "scale3_2"
  type: "Scale"
  bottom: "conv3_2"
  top: "conv3_2"
  param {
    lr_mult: 1
    decay_mult: 1
  }
  param {
    lr_mult: 1
    decay_mult: 1
  }
  scale_param {
    bias_term: true
    bias_filler {
      type: "constant"
      value: 0
    }
  }
}
layer {
  name: "relu3_2"
  type: "ReLU"
  bottom: "conv3_2"
  top: "conv3_2"
}
layer {
  name: "pool3"
  type: "Pooling"
  bottom: "conv3_2"
  top: "pool3"
  pooling_param {
    pool: MAX
    kernel_size: 2
    stride: 2
  }
}
layer {
  name: "conv4_1"
  type: "Convolution"
  bottom: "pool3"
  top: "conv4_1"
  param {
    lr_mult: 1
    decay_mult: 1
  }
  convolution_param {
    num_output: 256
    bias_term: false
    pad: 1
    kernel_size: 3
    weight_filler {
      type: "xavier"
    }
  }
}
layer {
  name: "bn4_1"
  type: "BatchNorm"
  bottom: "conv4_1"
  top: "conv4_1"
  param {
    lr_mult: 0
  }
  param {
    lr_mult: 0
  }
  param {
    lr_mult: 0
  }
  batch_norm_param {
    use_global_stats: false
  }
}
layer {
  name: "scale4_1"
  type: "Scale"
  bottom: "conv4_1"
  top: "conv4_1"
  param {
    lr_mult: 1
    decay_mult: 1
  }
  param {
    lr_mult: 1
    decay_mult: 1
  }
  scale_param {
    bias_term: true
    bias_filler {
      type: "constant"
      value: 0
    }
  }
}
layer {
  name: "relu4_1"
  type: "ReLU"
  bottom: "conv4_1"
  top: "conv4_1"
}
layer {
  name: "conv4_2"
  type: "Convolution"
  bottom: "conv4_1"
  top: "conv4_2"
  param {
    lr_mult: 1
    decay_mult: 1
  }
  convolution_param {
    num_output: 256
    bias_term: false
    pad: 1
    kernel_size: 3
    weight_filler {
      type: "xavier"
    }
  }
}
layer {
  name: "bn4_2"
  type: "BatchNorm"
  bottom: "conv4_2"
  top: "conv4_2"
  param {
    lr_mult: 0
  }
  param {
    lr_mult: 0
  }
  param {
    lr_mult: 0
  }
  batch_norm_param {
    use_global_stats: false
  }
}
layer {
  name: "scale4_2"
  type: "Scale"
  bottom: "conv4_2"
  top: "conv4_2"
  param {
    lr_mult: 1
    decay_mult: 1
  }
  param {
    lr_mult: 1
    decay_mult: 1
  }
  scale_param {
    bias_term: true
    bias_filler {
      type: "constant"
      value: 0
    }
  }
}
layer {
  name: "relu4_2"
  type: "ReLU"
  bottom: "conv4_2"
  top: "conv4_2"
}
layer {
  name: "pool4"
  type: "Pooling"
  bottom: "conv4_2"
  top: "pool4"
  pooling_param {
    pool: MAX
    kernel_size: 2
    stride: 2
  }
}
layer {
  name: "conv5_1"
  type: "Convolution"
  bottom: "pool4"
  top: "conv5_1"
  param {
    lr_mult: 1
    decay_mult: 1
  }
  convolution_param {
    num_output: 256
    bias_term: false
    pad: 1
    kernel_size: 3
    weight_filler {
      type: "xavier"
    }
  }
}
layer {
  name: "bn5_1"
  type: "BatchNorm"
  bottom: "conv5_1"
  top: "conv5_1"
  param {
    lr_mult: 0
  }
  param {
    lr_mult: 0
  }
  param {
    lr_mult: 0
  }
  batch_norm_param {
    use_global_stats: false
  }
}
layer {
  name: "scale5_1"
  type: "Scale"
  bottom: "conv5_1"
  top: "conv5_1"
  param {
    lr_mult: 1
    decay_mult: 1
  }
  param {
    lr_mult: 1
    decay_mult: 1
  }
  scale_param {
    bias_term: true
    bias_filler {
      type: "constant"
      value: 0
    }
  }
}
layer {
  name: "relu5_1"
  type: "ReLU"
  bottom: "conv5_1"
  top: "conv5_1"
}
layer {
  name: "conv5_2"
  type: "Convolution"
  bottom: "conv5_1"
  top: "conv5_2"
  param {
    lr_mult: 1
    decay_mult: 1
  }
  convolution_param {
    num_output: 256
    bias_term: false
    pad: 1
    kernel_size: 3
    weight_filler {
      type: "xavier"
    }
  }
}
layer {
  name: "bn5_2"
  type: "BatchNorm"
  bottom: "conv5_2"
  top: "conv5_2"
  param {
    lr_mult: 0
  }
  param {
    lr_mult: 0
  }
  param {
    lr_mult: 0
  }
  batch_norm_param {
    use_global_stats: false
  }
}
layer {
  name: "scale5_2"
  type: "Scale"
  bottom: "conv5_2"
  top: "conv5_2"
  param {
    lr_mult: 1
    decay_mult: 1
  }
  param {
    lr_mult: 1
    decay_mult: 1
  }
  scale_param {
    bias_term: true
    bias_filler {
      type: "constant"
      value: 0
    }
  }
}
layer {
  name: "relu5_2"
  type: "ReLU"
  bottom: "conv5_2"
  top: "conv5_2"
}
layer {
  name: "pool5"
  type: "Pooling"
  bottom: "conv5_2"
  top: "pool5"
  pooling_param {
    pool: AVE
    stride: 1
    kernel_h: 7
    kernel_w: 9
  }
}
layer {
  name: "fc2"
  type: "InnerProduct"
  bottom: "pool5"
  top: "fc2"
  inner_product_param {
    num_output: 2
  }
}
layer {
  name: "loss"
  type: "SoftmaxWithLoss"
  bottom: "fc2"
  bottom: "label"
  top: "loss"
}
layer {
  name: "accuracy"
  type: "Accuracy"
  bottom: "fc2"
  bottom: "label"
  top: "accuracy"
}
I0624 21:43:39.716789 24300 layer_factory.hpp:77] Creating layer data
I0624 21:43:39.717036 24300 net.cpp:91] Creating Layer data
I0624 21:43:39.717046 24300 net.cpp:399] data -> data
I0624 21:43:39.717072 24300 net.cpp:399] data -> label
I0624 21:43:39.717965 24313 db_lmdb.cpp:35] Opened lmdb data/val_lmdb
I0624 21:43:39.718272 24300 data_layer.cpp:42] output data size: 64,3,224,288
I0624 21:43:39.824208 24300 net.cpp:141] Setting up data
I0624 21:43:39.824232 24300 net.cpp:148] Top shape: 64 3 224 288 (12386304)
I0624 21:43:39.824236 24300 net.cpp:148] Top shape: 64 (64)
I0624 21:43:39.824239 24300 net.cpp:156] Memory required for data: 49545472
I0624 21:43:39.824244 24300 layer_factory.hpp:77] Creating layer label_data_1_split
I0624 21:43:39.824255 24300 net.cpp:91] Creating Layer label_data_1_split
I0624 21:43:39.824259 24300 net.cpp:425] label_data_1_split <- label
I0624 21:43:39.824265 24300 net.cpp:399] label_data_1_split -> label_data_1_split_0
I0624 21:43:39.824273 24300 net.cpp:399] label_data_1_split -> label_data_1_split_1
I0624 21:43:39.824424 24300 net.cpp:141] Setting up label_data_1_split
I0624 21:43:39.824431 24300 net.cpp:148] Top shape: 64 (64)
I0624 21:43:39.824434 24300 net.cpp:148] Top shape: 64 (64)
I0624 21:43:39.824436 24300 net.cpp:156] Memory required for data: 49545984
I0624 21:43:39.824439 24300 layer_factory.hpp:77] Creating layer conv1_1
I0624 21:43:39.824450 24300 net.cpp:91] Creating Layer conv1_1
I0624 21:43:39.824453 24300 net.cpp:425] conv1_1 <- data
I0624 21:43:39.824457 24300 net.cpp:399] conv1_1 -> conv1_1
I0624 21:43:39.825573 24300 net.cpp:141] Setting up conv1_1
I0624 21:43:39.825587 24300 net.cpp:148] Top shape: 64 32 112 144 (33030144)
I0624 21:43:39.825589 24300 net.cpp:156] Memory required for data: 181666560
I0624 21:43:39.825597 24300 layer_factory.hpp:77] Creating layer bn1_1
I0624 21:43:39.825604 24300 net.cpp:91] Creating Layer bn1_1
I0624 21:43:39.825608 24300 net.cpp:425] bn1_1 <- conv1_1
I0624 21:43:39.825611 24300 net.cpp:386] bn1_1 -> conv1_1 (in-place)
I0624 21:43:39.825867 24300 net.cpp:141] Setting up bn1_1
I0624 21:43:39.825875 24300 net.cpp:148] Top shape: 64 32 112 144 (33030144)
I0624 21:43:39.825877 24300 net.cpp:156] Memory required for data: 313787136
I0624 21:43:39.825886 24300 layer_factory.hpp:77] Creating layer scale1_1
I0624 21:43:39.825893 24300 net.cpp:91] Creating Layer scale1_1
I0624 21:43:39.825911 24300 net.cpp:425] scale1_1 <- conv1_1
I0624 21:43:39.825917 24300 net.cpp:386] scale1_1 -> conv1_1 (in-place)
I0624 21:43:39.829716 24300 layer_factory.hpp:77] Creating layer scale1_1
I0624 21:43:39.829838 24300 net.cpp:141] Setting up scale1_1
I0624 21:43:39.829844 24300 net.cpp:148] Top shape: 64 32 112 144 (33030144)
I0624 21:43:39.829848 24300 net.cpp:156] Memory required for data: 445907712
I0624 21:43:39.829854 24300 layer_factory.hpp:77] Creating layer relu1_1
I0624 21:43:39.829859 24300 net.cpp:91] Creating Layer relu1_1
I0624 21:43:39.829861 24300 net.cpp:425] relu1_1 <- conv1_1
I0624 21:43:39.829865 24300 net.cpp:386] relu1_1 -> conv1_1 (in-place)
I0624 21:43:39.830016 24300 net.cpp:141] Setting up relu1_1
I0624 21:43:39.830024 24300 net.cpp:148] Top shape: 64 32 112 144 (33030144)
I0624 21:43:39.830026 24300 net.cpp:156] Memory required for data: 578028288
I0624 21:43:39.830029 24300 layer_factory.hpp:77] Creating layer conv1_2
I0624 21:43:39.830037 24300 net.cpp:91] Creating Layer conv1_2
I0624 21:43:39.830039 24300 net.cpp:425] conv1_2 <- conv1_1
I0624 21:43:39.830044 24300 net.cpp:399] conv1_2 -> conv1_2
I0624 21:43:39.830941 24300 net.cpp:141] Setting up conv1_2
I0624 21:43:39.830955 24300 net.cpp:148] Top shape: 64 32 112 144 (33030144)
I0624 21:43:39.830958 24300 net.cpp:156] Memory required for data: 710148864
I0624 21:43:39.830962 24300 layer_factory.hpp:77] Creating layer bn1_2
I0624 21:43:39.830970 24300 net.cpp:91] Creating Layer bn1_2
I0624 21:43:39.830971 24300 net.cpp:425] bn1_2 <- conv1_2
I0624 21:43:39.830976 24300 net.cpp:386] bn1_2 -> conv1_2 (in-place)
I0624 21:43:39.831143 24300 net.cpp:141] Setting up bn1_2
I0624 21:43:39.831161 24300 net.cpp:148] Top shape: 64 32 112 144 (33030144)
I0624 21:43:39.831163 24300 net.cpp:156] Memory required for data: 842269440
I0624 21:43:39.831171 24300 layer_factory.hpp:77] Creating layer scale1_2
I0624 21:43:39.831177 24300 net.cpp:91] Creating Layer scale1_2
I0624 21:43:39.831181 24300 net.cpp:425] scale1_2 <- conv1_2
I0624 21:43:39.831184 24300 net.cpp:386] scale1_2 -> conv1_2 (in-place)
I0624 21:43:39.831218 24300 layer_factory.hpp:77] Creating layer scale1_2
I0624 21:43:39.831326 24300 net.cpp:141] Setting up scale1_2
I0624 21:43:39.831332 24300 net.cpp:148] Top shape: 64 32 112 144 (33030144)
I0624 21:43:39.831334 24300 net.cpp:156] Memory required for data: 974390016
I0624 21:43:39.831338 24300 layer_factory.hpp:77] Creating layer relu1_2
I0624 21:43:39.831342 24300 net.cpp:91] Creating Layer relu1_2
I0624 21:43:39.831344 24300 net.cpp:425] relu1_2 <- conv1_2
I0624 21:43:39.831348 24300 net.cpp:386] relu1_2 -> conv1_2 (in-place)
I0624 21:43:39.831760 24300 net.cpp:141] Setting up relu1_2
I0624 21:43:39.831771 24300 net.cpp:148] Top shape: 64 32 112 144 (33030144)
I0624 21:43:39.831773 24300 net.cpp:156] Memory required for data: 1106510592
I0624 21:43:39.831776 24300 layer_factory.hpp:77] Creating layer pool1
I0624 21:43:39.831782 24300 net.cpp:91] Creating Layer pool1
I0624 21:43:39.831784 24300 net.cpp:425] pool1 <- conv1_2
I0624 21:43:39.831789 24300 net.cpp:399] pool1 -> pool1
I0624 21:43:39.831828 24300 net.cpp:141] Setting up pool1
I0624 21:43:39.831832 24300 net.cpp:148] Top shape: 64 32 56 72 (8257536)
I0624 21:43:39.831835 24300 net.cpp:156] Memory required for data: 1139540736
I0624 21:43:39.831837 24300 layer_factory.hpp:77] Creating layer conv2_1
I0624 21:43:39.831845 24300 net.cpp:91] Creating Layer conv2_1
I0624 21:43:39.831846 24300 net.cpp:425] conv2_1 <- pool1
I0624 21:43:39.831851 24300 net.cpp:399] conv2_1 -> conv2_1
I0624 21:43:39.832789 24300 net.cpp:141] Setting up conv2_1
I0624 21:43:39.832801 24300 net.cpp:148] Top shape: 64 64 56 72 (16515072)
I0624 21:43:39.832803 24300 net.cpp:156] Memory required for data: 1205601024
I0624 21:43:39.832808 24300 layer_factory.hpp:77] Creating layer bn2_1
I0624 21:43:39.832814 24300 net.cpp:91] Creating Layer bn2_1
I0624 21:43:39.832818 24300 net.cpp:425] bn2_1 <- conv2_1
I0624 21:43:39.832821 24300 net.cpp:386] bn2_1 -> conv2_1 (in-place)
I0624 21:43:39.832993 24300 net.cpp:141] Setting up bn2_1
I0624 21:43:39.833001 24300 net.cpp:148] Top shape: 64 64 56 72 (16515072)
I0624 21:43:39.833003 24300 net.cpp:156] Memory required for data: 1271661312
I0624 21:43:39.833009 24300 layer_factory.hpp:77] Creating layer scale2_1
I0624 21:43:39.833014 24300 net.cpp:91] Creating Layer scale2_1
I0624 21:43:39.833016 24300 net.cpp:425] scale2_1 <- conv2_1
I0624 21:43:39.833020 24300 net.cpp:386] scale2_1 -> conv2_1 (in-place)
I0624 21:43:39.833052 24300 layer_factory.hpp:77] Creating layer scale2_1
I0624 21:43:39.833151 24300 net.cpp:141] Setting up scale2_1
I0624 21:43:39.833158 24300 net.cpp:148] Top shape: 64 64 56 72 (16515072)
I0624 21:43:39.833159 24300 net.cpp:156] Memory required for data: 1337721600
I0624 21:43:39.833166 24300 layer_factory.hpp:77] Creating layer relu2_1
I0624 21:43:39.833176 24300 net.cpp:91] Creating Layer relu2_1
I0624 21:43:39.833178 24300 net.cpp:425] relu2_1 <- conv2_1
I0624 21:43:39.833181 24300 net.cpp:386] relu2_1 -> conv2_1 (in-place)
I0624 21:43:39.833319 24300 net.cpp:141] Setting up relu2_1
I0624 21:43:39.833328 24300 net.cpp:148] Top shape: 64 64 56 72 (16515072)
I0624 21:43:39.833330 24300 net.cpp:156] Memory required for data: 1403781888
I0624 21:43:39.833333 24300 layer_factory.hpp:77] Creating layer conv2_2
I0624 21:43:39.833343 24300 net.cpp:91] Creating Layer conv2_2
I0624 21:43:39.833345 24300 net.cpp:425] conv2_2 <- conv2_1
I0624 21:43:39.833348 24300 net.cpp:399] conv2_2 -> conv2_2
I0624 21:43:39.834403 24300 net.cpp:141] Setting up conv2_2
I0624 21:43:39.834416 24300 net.cpp:148] Top shape: 64 64 56 72 (16515072)
I0624 21:43:39.834419 24300 net.cpp:156] Memory required for data: 1469842176
I0624 21:43:39.834424 24300 layer_factory.hpp:77] Creating layer bn2_2
I0624 21:43:39.834429 24300 net.cpp:91] Creating Layer bn2_2
I0624 21:43:39.834432 24300 net.cpp:425] bn2_2 <- conv2_2
I0624 21:43:39.834437 24300 net.cpp:386] bn2_2 -> conv2_2 (in-place)
I0624 21:43:39.834594 24300 net.cpp:141] Setting up bn2_2
I0624 21:43:39.834600 24300 net.cpp:148] Top shape: 64 64 56 72 (16515072)
I0624 21:43:39.834602 24300 net.cpp:156] Memory required for data: 1535902464
I0624 21:43:39.834609 24300 layer_factory.hpp:77] Creating layer scale2_2
I0624 21:43:39.834614 24300 net.cpp:91] Creating Layer scale2_2
I0624 21:43:39.834616 24300 net.cpp:425] scale2_2 <- conv2_2
I0624 21:43:39.834620 24300 net.cpp:386] scale2_2 -> conv2_2 (in-place)
I0624 21:43:39.834651 24300 layer_factory.hpp:77] Creating layer scale2_2
I0624 21:43:39.834746 24300 net.cpp:141] Setting up scale2_2
I0624 21:43:39.834753 24300 net.cpp:148] Top shape: 64 64 56 72 (16515072)
I0624 21:43:39.834755 24300 net.cpp:156] Memory required for data: 1601962752
I0624 21:43:39.834759 24300 layer_factory.hpp:77] Creating layer relu2_2
I0624 21:43:39.834764 24300 net.cpp:91] Creating Layer relu2_2
I0624 21:43:39.834766 24300 net.cpp:425] relu2_2 <- conv2_2
I0624 21:43:39.834776 24300 net.cpp:386] relu2_2 -> conv2_2 (in-place)
I0624 21:43:39.834926 24300 net.cpp:141] Setting up relu2_2
I0624 21:43:39.834935 24300 net.cpp:148] Top shape: 64 64 56 72 (16515072)
I0624 21:43:39.834938 24300 net.cpp:156] Memory required for data: 1668023040
I0624 21:43:39.834940 24300 layer_factory.hpp:77] Creating layer pool2
I0624 21:43:39.834945 24300 net.cpp:91] Creating Layer pool2
I0624 21:43:39.834947 24300 net.cpp:425] pool2 <- conv2_2
I0624 21:43:39.834952 24300 net.cpp:399] pool2 -> pool2
I0624 21:43:39.834987 24300 net.cpp:141] Setting up pool2
I0624 21:43:39.834992 24300 net.cpp:148] Top shape: 64 64 28 36 (4128768)
I0624 21:43:39.834995 24300 net.cpp:156] Memory required for data: 1684538112
I0624 21:43:39.834997 24300 layer_factory.hpp:77] Creating layer conv3_1
I0624 21:43:39.835007 24300 net.cpp:91] Creating Layer conv3_1
I0624 21:43:39.835010 24300 net.cpp:425] conv3_1 <- pool2
I0624 21:43:39.835013 24300 net.cpp:399] conv3_1 -> conv3_1
I0624 21:43:39.838232 24300 net.cpp:141] Setting up conv3_1
I0624 21:43:39.838248 24300 net.cpp:148] Top shape: 64 128 28 36 (8257536)
I0624 21:43:39.838251 24300 net.cpp:156] Memory required for data: 1717568256
I0624 21:43:39.838269 24300 layer_factory.hpp:77] Creating layer bn3_1
I0624 21:43:39.838277 24300 net.cpp:91] Creating Layer bn3_1
I0624 21:43:39.838280 24300 net.cpp:425] bn3_1 <- conv3_1
I0624 21:43:39.838286 24300 net.cpp:386] bn3_1 -> conv3_1 (in-place)
I0624 21:43:39.838449 24300 net.cpp:141] Setting up bn3_1
I0624 21:43:39.838455 24300 net.cpp:148] Top shape: 64 128 28 36 (8257536)
I0624 21:43:39.838457 24300 net.cpp:156] Memory required for data: 1750598400
I0624 21:43:39.838464 24300 layer_factory.hpp:77] Creating layer scale3_1
I0624 21:43:39.838469 24300 net.cpp:91] Creating Layer scale3_1
I0624 21:43:39.838472 24300 net.cpp:425] scale3_1 <- conv3_1
I0624 21:43:39.838476 24300 net.cpp:386] scale3_1 -> conv3_1 (in-place)
I0624 21:43:39.838508 24300 layer_factory.hpp:77] Creating layer scale3_1
I0624 21:43:39.838608 24300 net.cpp:141] Setting up scale3_1
I0624 21:43:39.838614 24300 net.cpp:148] Top shape: 64 128 28 36 (8257536)
I0624 21:43:39.838616 24300 net.cpp:156] Memory required for data: 1783628544
I0624 21:43:39.838620 24300 layer_factory.hpp:77] Creating layer relu3_1
I0624 21:43:39.838624 24300 net.cpp:91] Creating Layer relu3_1
I0624 21:43:39.838627 24300 net.cpp:425] relu3_1 <- conv3_1
I0624 21:43:39.838630 24300 net.cpp:386] relu3_1 -> conv3_1 (in-place)
I0624 21:43:39.838778 24300 net.cpp:141] Setting up relu3_1
I0624 21:43:39.838786 24300 net.cpp:148] Top shape: 64 128 28 36 (8257536)
I0624 21:43:39.838788 24300 net.cpp:156] Memory required for data: 1816658688
I0624 21:43:39.838791 24300 layer_factory.hpp:77] Creating layer conv3_2
I0624 21:43:39.838799 24300 net.cpp:91] Creating Layer conv3_2
I0624 21:43:39.838802 24300 net.cpp:425] conv3_2 <- conv3_1
I0624 21:43:39.838807 24300 net.cpp:399] conv3_2 -> conv3_2
I0624 21:43:39.840823 24300 net.cpp:141] Setting up conv3_2
I0624 21:43:39.840836 24300 net.cpp:148] Top shape: 64 128 28 36 (8257536)
I0624 21:43:39.840838 24300 net.cpp:156] Memory required for data: 1849688832
I0624 21:43:39.840842 24300 layer_factory.hpp:77] Creating layer bn3_2
I0624 21:43:39.840850 24300 net.cpp:91] Creating Layer bn3_2
I0624 21:43:39.840852 24300 net.cpp:425] bn3_2 <- conv3_2
I0624 21:43:39.840857 24300 net.cpp:386] bn3_2 -> conv3_2 (in-place)
I0624 21:43:39.841015 24300 net.cpp:141] Setting up bn3_2
I0624 21:43:39.841022 24300 net.cpp:148] Top shape: 64 128 28 36 (8257536)
I0624 21:43:39.841024 24300 net.cpp:156] Memory required for data: 1882718976
I0624 21:43:39.841037 24300 layer_factory.hpp:77] Creating layer scale3_2
I0624 21:43:39.841042 24300 net.cpp:91] Creating Layer scale3_2
I0624 21:43:39.841044 24300 net.cpp:425] scale3_2 <- conv3_2
I0624 21:43:39.841048 24300 net.cpp:386] scale3_2 -> conv3_2 (in-place)
I0624 21:43:39.841083 24300 layer_factory.hpp:77] Creating layer scale3_2
I0624 21:43:39.841172 24300 net.cpp:141] Setting up scale3_2
I0624 21:43:39.841178 24300 net.cpp:148] Top shape: 64 128 28 36 (8257536)
I0624 21:43:39.841181 24300 net.cpp:156] Memory required for data: 1915749120
I0624 21:43:39.841184 24300 layer_factory.hpp:77] Creating layer relu3_2
I0624 21:43:39.841188 24300 net.cpp:91] Creating Layer relu3_2
I0624 21:43:39.841192 24300 net.cpp:425] relu3_2 <- conv3_2
I0624 21:43:39.841195 24300 net.cpp:386] relu3_2 -> conv3_2 (in-place)
I0624 21:43:39.841339 24300 net.cpp:141] Setting up relu3_2
I0624 21:43:39.841347 24300 net.cpp:148] Top shape: 64 128 28 36 (8257536)
I0624 21:43:39.841351 24300 net.cpp:156] Memory required for data: 1948779264
I0624 21:43:39.841353 24300 layer_factory.hpp:77] Creating layer pool3
I0624 21:43:39.841359 24300 net.cpp:91] Creating Layer pool3
I0624 21:43:39.841361 24300 net.cpp:425] pool3 <- conv3_2
I0624 21:43:39.841366 24300 net.cpp:399] pool3 -> pool3
I0624 21:43:39.841403 24300 net.cpp:141] Setting up pool3
I0624 21:43:39.841409 24300 net.cpp:148] Top shape: 64 128 14 18 (2064384)
I0624 21:43:39.841411 24300 net.cpp:156] Memory required for data: 1957036800
I0624 21:43:39.841413 24300 layer_factory.hpp:77] Creating layer conv4_1
I0624 21:43:39.841421 24300 net.cpp:91] Creating Layer conv4_1
I0624 21:43:39.841434 24300 net.cpp:425] conv4_1 <- pool3
I0624 21:43:39.841439 24300 net.cpp:399] conv4_1 -> conv4_1
I0624 21:43:39.844240 24300 net.cpp:141] Setting up conv4_1
I0624 21:43:39.844254 24300 net.cpp:148] Top shape: 64 256 14 18 (4128768)
I0624 21:43:39.844256 24300 net.cpp:156] Memory required for data: 1973551872
I0624 21:43:39.844260 24300 layer_factory.hpp:77] Creating layer bn4_1
I0624 21:43:39.844267 24300 net.cpp:91] Creating Layer bn4_1
I0624 21:43:39.844270 24300 net.cpp:425] bn4_1 <- conv4_1
I0624 21:43:39.844274 24300 net.cpp:386] bn4_1 -> conv4_1 (in-place)
I0624 21:43:39.844429 24300 net.cpp:141] Setting up bn4_1
I0624 21:43:39.844435 24300 net.cpp:148] Top shape: 64 256 14 18 (4128768)
I0624 21:43:39.844439 24300 net.cpp:156] Memory required for data: 1990066944
I0624 21:43:39.844444 24300 layer_factory.hpp:77] Creating layer scale4_1
I0624 21:43:39.844449 24300 net.cpp:91] Creating Layer scale4_1
I0624 21:43:39.844451 24300 net.cpp:425] scale4_1 <- conv4_1
I0624 21:43:39.844458 24300 net.cpp:386] scale4_1 -> conv4_1 (in-place)
I0624 21:43:39.844491 24300 layer_factory.hpp:77] Creating layer scale4_1
I0624 21:43:39.844576 24300 net.cpp:141] Setting up scale4_1
I0624 21:43:39.844583 24300 net.cpp:148] Top shape: 64 256 14 18 (4128768)
I0624 21:43:39.844584 24300 net.cpp:156] Memory required for data: 2006582016
I0624 21:43:39.844588 24300 layer_factory.hpp:77] Creating layer relu4_1
I0624 21:43:39.844601 24300 net.cpp:91] Creating Layer relu4_1
I0624 21:43:39.844604 24300 net.cpp:425] relu4_1 <- conv4_1
I0624 21:43:39.844607 24300 net.cpp:386] relu4_1 -> conv4_1 (in-place)
I0624 21:43:39.844755 24300 net.cpp:141] Setting up relu4_1
I0624 21:43:39.844763 24300 net.cpp:148] Top shape: 64 256 14 18 (4128768)
I0624 21:43:39.844766 24300 net.cpp:156] Memory required for data: 2023097088
I0624 21:43:39.844769 24300 layer_factory.hpp:77] Creating layer conv4_2
I0624 21:43:39.844776 24300 net.cpp:91] Creating Layer conv4_2
I0624 21:43:39.844779 24300 net.cpp:425] conv4_2 <- conv4_1
I0624 21:43:39.844784 24300 net.cpp:399] conv4_2 -> conv4_2
I0624 21:43:39.850320 24300 net.cpp:141] Setting up conv4_2
I0624 21:43:39.850334 24300 net.cpp:148] Top shape: 64 256 14 18 (4128768)
I0624 21:43:39.850338 24300 net.cpp:156] Memory required for data: 2039612160
I0624 21:43:39.850342 24300 layer_factory.hpp:77] Creating layer bn4_2
I0624 21:43:39.850350 24300 net.cpp:91] Creating Layer bn4_2
I0624 21:43:39.850353 24300 net.cpp:425] bn4_2 <- conv4_2
I0624 21:43:39.850358 24300 net.cpp:386] bn4_2 -> conv4_2 (in-place)
I0624 21:43:39.850518 24300 net.cpp:141] Setting up bn4_2
I0624 21:43:39.850525 24300 net.cpp:148] Top shape: 64 256 14 18 (4128768)
I0624 21:43:39.850528 24300 net.cpp:156] Memory required for data: 2056127232
I0624 21:43:39.850533 24300 layer_factory.hpp:77] Creating layer scale4_2
I0624 21:43:39.850539 24300 net.cpp:91] Creating Layer scale4_2
I0624 21:43:39.850541 24300 net.cpp:425] scale4_2 <- conv4_2
I0624 21:43:39.850545 24300 net.cpp:386] scale4_2 -> conv4_2 (in-place)
I0624 21:43:39.850581 24300 layer_factory.hpp:77] Creating layer scale4_2
I0624 21:43:39.850669 24300 net.cpp:141] Setting up scale4_2
I0624 21:43:39.850675 24300 net.cpp:148] Top shape: 64 256 14 18 (4128768)
I0624 21:43:39.850677 24300 net.cpp:156] Memory required for data: 2072642304
I0624 21:43:39.850682 24300 layer_factory.hpp:77] Creating layer relu4_2
I0624 21:43:39.850687 24300 net.cpp:91] Creating Layer relu4_2
I0624 21:43:39.850688 24300 net.cpp:425] relu4_2 <- conv4_2
I0624 21:43:39.850692 24300 net.cpp:386] relu4_2 -> conv4_2 (in-place)
I0624 21:43:39.851117 24300 net.cpp:141] Setting up relu4_2
I0624 21:43:39.851128 24300 net.cpp:148] Top shape: 64 256 14 18 (4128768)
I0624 21:43:39.851130 24300 net.cpp:156] Memory required for data: 2089157376
I0624 21:43:39.851133 24300 layer_factory.hpp:77] Creating layer pool4
I0624 21:43:39.851140 24300 net.cpp:91] Creating Layer pool4
I0624 21:43:39.851142 24300 net.cpp:425] pool4 <- conv4_2
I0624 21:43:39.851153 24300 net.cpp:399] pool4 -> pool4
I0624 21:43:39.851208 24300 net.cpp:141] Setting up pool4
I0624 21:43:39.851213 24300 net.cpp:148] Top shape: 64 256 7 9 (1032192)
I0624 21:43:39.851217 24300 net.cpp:156] Memory required for data: 2093286144
I0624 21:43:39.851218 24300 layer_factory.hpp:77] Creating layer conv5_1
I0624 21:43:39.851227 24300 net.cpp:91] Creating Layer conv5_1
I0624 21:43:39.851230 24300 net.cpp:425] conv5_1 <- pool4
I0624 21:43:39.851233 24300 net.cpp:399] conv5_1 -> conv5_1
I0624 21:43:39.857182 24300 net.cpp:141] Setting up conv5_1
I0624 21:43:39.857200 24300 net.cpp:148] Top shape: 64 256 7 9 (1032192)
I0624 21:43:39.857203 24300 net.cpp:156] Memory required for data: 2097414912
I0624 21:43:39.857208 24300 layer_factory.hpp:77] Creating layer bn5_1
I0624 21:43:39.857218 24300 net.cpp:91] Creating Layer bn5_1
I0624 21:43:39.857221 24300 net.cpp:425] bn5_1 <- conv5_1
I0624 21:43:39.857228 24300 net.cpp:386] bn5_1 -> conv5_1 (in-place)
I0624 21:43:39.857400 24300 net.cpp:141] Setting up bn5_1
I0624 21:43:39.857408 24300 net.cpp:148] Top shape: 64 256 7 9 (1032192)
I0624 21:43:39.857410 24300 net.cpp:156] Memory required for data: 2101543680
I0624 21:43:39.857416 24300 layer_factory.hpp:77] Creating layer scale5_1
I0624 21:43:39.857424 24300 net.cpp:91] Creating Layer scale5_1
I0624 21:43:39.857425 24300 net.cpp:425] scale5_1 <- conv5_1
I0624 21:43:39.857429 24300 net.cpp:386] scale5_1 -> conv5_1 (in-place)
I0624 21:43:39.857465 24300 layer_factory.hpp:77] Creating layer scale5_1
I0624 21:43:39.857560 24300 net.cpp:141] Setting up scale5_1
I0624 21:43:39.857566 24300 net.cpp:148] Top shape: 64 256 7 9 (1032192)
I0624 21:43:39.857569 24300 net.cpp:156] Memory required for data: 2105672448
I0624 21:43:39.857573 24300 layer_factory.hpp:77] Creating layer relu5_1
I0624 21:43:39.857579 24300 net.cpp:91] Creating Layer relu5_1
I0624 21:43:39.857581 24300 net.cpp:425] relu5_1 <- conv5_1
I0624 21:43:39.857584 24300 net.cpp:386] relu5_1 -> conv5_1 (in-place)
I0624 21:43:39.857728 24300 net.cpp:141] Setting up relu5_1
I0624 21:43:39.857736 24300 net.cpp:148] Top shape: 64 256 7 9 (1032192)
I0624 21:43:39.857738 24300 net.cpp:156] Memory required for data: 2109801216
I0624 21:43:39.857741 24300 layer_factory.hpp:77] Creating layer conv5_2
I0624 21:43:39.857749 24300 net.cpp:91] Creating Layer conv5_2
I0624 21:43:39.857753 24300 net.cpp:425] conv5_2 <- conv5_1
I0624 21:43:39.857758 24300 net.cpp:399] conv5_2 -> conv5_2
I0624 21:43:39.863422 24300 net.cpp:141] Setting up conv5_2
I0624 21:43:39.863438 24300 net.cpp:148] Top shape: 64 256 7 9 (1032192)
I0624 21:43:39.863441 24300 net.cpp:156] Memory required for data: 2113929984
I0624 21:43:39.863446 24300 layer_factory.hpp:77] Creating layer bn5_2
I0624 21:43:39.863454 24300 net.cpp:91] Creating Layer bn5_2
I0624 21:43:39.863457 24300 net.cpp:425] bn5_2 <- conv5_2
I0624 21:43:39.863462 24300 net.cpp:386] bn5_2 -> conv5_2 (in-place)
I0624 21:43:39.863627 24300 net.cpp:141] Setting up bn5_2
I0624 21:43:39.863634 24300 net.cpp:148] Top shape: 64 256 7 9 (1032192)
I0624 21:43:39.863636 24300 net.cpp:156] Memory required for data: 2118058752
I0624 21:43:39.863642 24300 layer_factory.hpp:77] Creating layer scale5_2
I0624 21:43:39.863649 24300 net.cpp:91] Creating Layer scale5_2
I0624 21:43:39.863651 24300 net.cpp:425] scale5_2 <- conv5_2
I0624 21:43:39.863656 24300 net.cpp:386] scale5_2 -> conv5_2 (in-place)
I0624 21:43:39.863689 24300 layer_factory.hpp:77] Creating layer scale5_2
I0624 21:43:39.863781 24300 net.cpp:141] Setting up scale5_2
I0624 21:43:39.863788 24300 net.cpp:148] Top shape: 64 256 7 9 (1032192)
I0624 21:43:39.863790 24300 net.cpp:156] Memory required for data: 2122187520
I0624 21:43:39.863795 24300 layer_factory.hpp:77] Creating layer relu5_2
I0624 21:43:39.863800 24300 net.cpp:91] Creating Layer relu5_2
I0624 21:43:39.863802 24300 net.cpp:425] relu5_2 <- conv5_2
I0624 21:43:39.863806 24300 net.cpp:386] relu5_2 -> conv5_2 (in-place)
I0624 21:43:39.863953 24300 net.cpp:141] Setting up relu5_2
I0624 21:43:39.863963 24300 net.cpp:148] Top shape: 64 256 7 9 (1032192)
I0624 21:43:39.863965 24300 net.cpp:156] Memory required for data: 2126316288
I0624 21:43:39.863983 24300 layer_factory.hpp:77] Creating layer pool5
I0624 21:43:39.863988 24300 net.cpp:91] Creating Layer pool5
I0624 21:43:39.863991 24300 net.cpp:425] pool5 <- conv5_2
I0624 21:43:39.863996 24300 net.cpp:399] pool5 -> pool5
I0624 21:43:39.864164 24300 net.cpp:141] Setting up pool5
I0624 21:43:39.864173 24300 net.cpp:148] Top shape: 64 256 1 1 (16384)
I0624 21:43:39.864176 24300 net.cpp:156] Memory required for data: 2126381824
I0624 21:43:39.864178 24300 layer_factory.hpp:77] Creating layer fc2
I0624 21:43:39.864184 24300 net.cpp:91] Creating Layer fc2
I0624 21:43:39.864187 24300 net.cpp:425] fc2 <- pool5
I0624 21:43:39.864192 24300 net.cpp:399] fc2 -> fc2
I0624 21:43:39.864295 24300 net.cpp:141] Setting up fc2
I0624 21:43:39.864302 24300 net.cpp:148] Top shape: 64 2 (128)
I0624 21:43:39.864305 24300 net.cpp:156] Memory required for data: 2126382336
I0624 21:43:39.864310 24300 layer_factory.hpp:77] Creating layer fc2_fc2_0_split
I0624 21:43:39.864313 24300 net.cpp:91] Creating Layer fc2_fc2_0_split
I0624 21:43:39.864316 24300 net.cpp:425] fc2_fc2_0_split <- fc2
I0624 21:43:39.864321 24300 net.cpp:399] fc2_fc2_0_split -> fc2_fc2_0_split_0
I0624 21:43:39.864326 24300 net.cpp:399] fc2_fc2_0_split -> fc2_fc2_0_split_1
I0624 21:43:39.864356 24300 net.cpp:141] Setting up fc2_fc2_0_split
I0624 21:43:39.864359 24300 net.cpp:148] Top shape: 64 2 (128)
I0624 21:43:39.864362 24300 net.cpp:148] Top shape: 64 2 (128)
I0624 21:43:39.864364 24300 net.cpp:156] Memory required for data: 2126383360
I0624 21:43:39.864367 24300 layer_factory.hpp:77] Creating layer loss
I0624 21:43:39.864372 24300 net.cpp:91] Creating Layer loss
I0624 21:43:39.864373 24300 net.cpp:425] loss <- fc2_fc2_0_split_0
I0624 21:43:39.864377 24300 net.cpp:425] loss <- label_data_1_split_0
I0624 21:43:39.864379 24300 net.cpp:399] loss -> loss
…
