…
I0624 19:33:47.872498 22124 solver.cpp:91] Creating training net from net file: models/bpnet/train_val.prototxt
I0624 19:33:47.873306 22124 net.cpp:313] The NetState phase (0) differed from the phase (1) specified by a rule in layer data
I0624 19:33:47.873535 22124 net.cpp:49] Initializing net from parameters: 
name: "BPnet"
state {
  phase: TRAIN
}
layer {
  name: "data"
  type: "Data"
  top: "data"
  top: "label"
  include {
    phase: TRAIN
  }
  transform_param {
    mirror: false
    crop_size: 224
    mean_value: 100
    contrast_jitter_range: 0.1
  }
  data_param {
    source: "data/train_lmdb"
    batch_size: 32
    backend: LMDB
  }
}
layer {
  name: "conv1_1"
  type: "Convolution"
  bottom: "data"
  top: "conv1_1"
  param {
    lr_mult: 1
    decay_mult: 1
  }
  convolution_param {
    num_output: 32
    bias_term: false
    pad: 3
    kernel_size: 7
    stride: 2
    weight_filler {
      type: "xavier"
    }
  }
}
layer {
  name: "bn1_1"
  type: "BatchNorm"
  bottom: "conv1_1"
  top: "conv1_1"
  param {
    lr_mult: 0
  }
  param {
    lr_mult: 0
  }
  param {
    lr_mult: 0
  }
  batch_norm_param {
    use_global_stats: false
  }
}
layer {
  name: "scale1_1"
  type: "Scale"
  bottom: "conv1_1"
  top: "conv1_1"
  param {
    lr_mult: 1
    decay_mult: 1
  }
  param {
    lr_mult: 1
    decay_mult: 1
  }
  scale_param {
    bias_term: true
    bias_filler {
      type: "constant"
      value: 0
    }
  }
}
layer {
  name: "relu1_1"
  type: "ReLU"
  bottom: "conv1_1"
  top: "conv1_1"
}
layer {
  name: "conv1_2"
  type: "Convolution"
  bottom: "conv1_1"
  top: "conv1_2"
  param {
    lr_mult: 1
    decay_mult: 1
  }
  convolution_param {
    num_output: 32
    bias_term: false
    pad: 1
    kernel_size: 3
    weight_filler {
      type: "xavier"
    }
  }
}
layer {
  name: "bn1_2"
  type: "BatchNorm"
  bottom: "conv1_2"
  top: "conv1_2"
  param {
    lr_mult: 0
  }
  param {
    lr_mult: 0
  }
  param {
    lr_mult: 0
  }
  batch_norm_param {
    use_global_stats: false
  }
}
layer {
  name: "scale1_2"
  type: "Scale"
  bottom: "conv1_2"
  top: "conv1_2"
  param {
    lr_mult: 1
    decay_mult: 1
  }
  param {
    lr_mult: 1
    decay_mult: 1
  }
  scale_param {
    bias_term: true
    bias_filler {
      type: "constant"
      value: 0
    }
  }
}
layer {
  name: "relu1_2"
  type: "ReLU"
  bottom: "conv1_2"
  top: "conv1_2"
}
layer {
  name: "pool1"
  type: "Pooling"
  bottom: "conv1_2"
  top: "pool1"
  pooling_param {
    pool: MAX
    kernel_size: 2
    stride: 2
  }
}
layer {
  name: "conv2_1"
  type: "Convolution"
  bottom: "pool1"
  top: "conv2_1"
  param {
    lr_mult: 1
    decay_mult: 1
  }
  convolution_param {
    num_output: 64
    bias_term: false
    pad: 1
    kernel_size: 3
    weight_filler {
      type: "xavier"
    }
  }
}
layer {
  name: "bn2_1"
  type: "BatchNorm"
  bottom: "conv2_1"
  top: "conv2_1"
  param {
    lr_mult: 0
  }
  param {
    lr_mult: 0
  }
  param {
    lr_mult: 0
  }
  batch_norm_param {
    use_global_stats: false
  }
}
layer {
  name: "scale2_1"
  type: "Scale"
  bottom: "conv2_1"
  top: "conv2_1"
  param {
    lr_mult: 1
    decay_mult: 1
  }
  param {
    lr_mult: 1
    decay_mult: 1
  }
  scale_param {
    bias_term: true
    bias_filler {
      type: "constant"
      value: 0
    }
  }
}
layer {
  name: "relu2_1"
  type: "ReLU"
  bottom: "conv2_1"
  top: "conv2_1"
}
layer {
  name: "conv2_2"
  type: "Convolution"
  bottom: "conv2_1"
  top: "conv2_2"
  param {
    lr_mult: 1
    decay_mult: 1
  }
  convolution_param {
    num_output: 64
    bias_term: false
    pad: 1
    kernel_size: 3
    weight_filler {
      type: "xavier"
    }
  }
}
layer {
  name: "bn2_2"
  type: "BatchNorm"
  bottom: "conv2_2"
  top: "conv2_2"
  param {
    lr_mult: 0
  }
  param {
    lr_mult: 0
  }
  param {
    lr_mult: 0
  }
  batch_norm_param {
    use_global_stats: false
  }
}
layer {
  name: "scale2_2"
  type: "Scale"
  bottom: "conv2_2"
  top: "conv2_2"
  param {
    lr_mult: 1
    decay_mult: 1
  }
  param {
    lr_mult: 1
    decay_mult: 1
  }
  scale_param {
    bias_term: true
    bias_filler {
      type: "constant"
      value: 0
    }
  }
}
layer {
  name: "relu2_2"
  type: "ReLU"
  bottom: "conv2_2"
  top: "conv2_2"
}
layer {
  name: "pool2"
  type: "Pooling"
  bottom: "conv2_2"
  top: "pool2"
  pooling_param {
    pool: MAX
    kernel_size: 2
    stride: 2
  }
}
layer {
  name: "conv3_1"
  type: "Convolution"
  bottom: "pool2"
  top: "conv3_1"
  param {
    lr_mult: 1
    decay_mult: 1
  }
  convolution_param {
    num_output: 128
    bias_term: false
    pad: 1
    kernel_size: 3
    weight_filler {
      type: "xavier"
    }
  }
}
layer {
  name: "bn3_1"
  type: "BatchNorm"
  bottom: "conv3_1"
  top: "conv3_1"
  param {
    lr_mult: 0
  }
  param {
    lr_mult: 0
  }
  param {
    lr_mult: 0
  }
  batch_norm_param {
    use_global_stats: false
  }
}
layer {
  name: "scale3_1"
  type: "Scale"
  bottom: "conv3_1"
  top: "conv3_1"
  param {
    lr_mult: 1
    decay_mult: 1
  }
  param {
    lr_mult: 1
    decay_mult: 1
  }
  scale_param {
    bias_term: true
    bias_filler {
      type: "constant"
      value: 0
    }
  }
}
layer {
  name: "relu3_1"
  type: "ReLU"
  bottom: "conv3_1"
  top: "conv3_1"
}
layer {
  name: "conv3_2"
  type: "Convolution"
  bottom: "conv3_1"
  top: "conv3_2"
  param {
    lr_mult: 1
    decay_mult: 1
  }
  convolution_param {
    num_output: 128
    bias_term: false
    pad: 1
    kernel_size: 3
    weight_filler {
      type: "xavier"
    }
  }
}
layer {
  name: "bn3_2"
  type: "BatchNorm"
  bottom: "conv3_2"
  top: "conv3_2"
  param {
    lr_mult: 0
  }
  param {
    lr_mult: 0
  }
  param {
    lr_mult: 0
  }
  batch_norm_param {
    use_global_stats: false
  }
}
layer {
  name: "scale3_2"
  type: "Scale"
  bottom: "conv3_2"
  top: "conv3_2"
  param {
    lr_mult: 1
    decay_mult: 1
  }
  param {
    lr_mult: 1
    decay_mult: 1
  }
  scale_param {
    bias_term: true
    bias_filler {
      type: "constant"
      value: 0
    }
  }
}
layer {
  name: "relu3_2"
  type: "ReLU"
  bottom: "conv3_2"
  top: "conv3_2"
}
layer {
  name: "pool3"
  type: "Pooling"
  bottom: "conv3_2"
  top: "pool3"
  pooling_param {
    pool: MAX
    kernel_size: 2
    stride: 2
  }
}
layer {
  name: "conv4_1"
  type: "Convolution"
  bottom: "pool3"
  top: "conv4_1"
  param {
    lr_mult: 1
    decay_mult: 1
  }
  convolution_param {
    num_output: 256
    bias_term: false
    pad: 1
    kernel_size: 3
    weight_filler {
      type: "xavier"
    }
  }
}
layer {
  name: "bn4_1"
  type: "BatchNorm"
  bottom: "conv4_1"
  top: "conv4_1"
  param {
    lr_mult: 0
  }
  param {
    lr_mult: 0
  }
  param {
    lr_mult: 0
  }
  batch_norm_param {
    use_global_stats: false
  }
}
layer {
  name: "scale4_1"
  type: "Scale"
  bottom: "conv4_1"
  top: "conv4_1"
  param {
    lr_mult: 1
    decay_mult: 1
  }
  param {
    lr_mult: 1
    decay_mult: 1
  }
  scale_param {
    bias_term: true
    bias_filler {
      type: "constant"
      value: 0
    }
  }
}
layer {
  name: "relu4_1"
  type: "ReLU"
  bottom: "conv4_1"
  top: "conv4_1"
}
layer {
  name: "conv4_2"
  type: "Convolution"
  bottom: "conv4_1"
  top: "conv4_2"
  param {
    lr_mult: 1
    decay_mult: 1
  }
  convolution_param {
    num_output: 256
    bias_term: false
    pad: 1
    kernel_size: 3
    weight_filler {
      type: "xavier"
    }
  }
}
layer {
  name: "bn4_2"
  type: "BatchNorm"
  bottom: "conv4_2"
  top: "conv4_2"
  param {
    lr_mult: 0
  }
  param {
    lr_mult: 0
  }
  param {
    lr_mult: 0
  }
  batch_norm_param {
    use_global_stats: false
  }
}
layer {
  name: "scale4_2"
  type: "Scale"
  bottom: "conv4_2"
  top: "conv4_2"
  param {
    lr_mult: 1
    decay_mult: 1
  }
  param {
    lr_mult: 1
    decay_mult: 1
  }
  scale_param {
    bias_term: true
    bias_filler {
      type: "constant"
      value: 0
    }
  }
}
layer {
  name: "relu4_2"
  type: "ReLU"
  bottom: "conv4_2"
  top: "conv4_2"
}
layer {
  name: "pool4"
  type: "Pooling"
  bottom: "conv4_2"
  top: "pool4"
  pooling_param {
    pool: MAX
    kernel_size: 2
    stride: 2
  }
}
layer {
  name: "conv5_1"
  type: "Convolution"
  bottom: "pool4"
  top: "conv5_1"
  param {
    lr_mult: 1
    decay_mult: 1
  }
  convolution_param {
    num_output: 256
    bias_term: false
    pad: 1
    kernel_size: 3
    weight_filler {
      type: "xavier"
    }
  }
}
layer {
  name: "bn5_1"
  type: "BatchNorm"
  bottom: "conv5_1"
  top: "conv5_1"
  param {
    lr_mult: 0
  }
  param {
    lr_mult: 0
  }
  param {
    lr_mult: 0
  }
  batch_norm_param {
    use_global_stats: false
  }
}
layer {
  name: "scale5_1"
  type: "Scale"
  bottom: "conv5_1"
  top: "conv5_1"
  param {
    lr_mult: 1
    decay_mult: 1
  }
  param {
    lr_mult: 1
    decay_mult: 1
  }
  scale_param {
    bias_term: true
    bias_filler {
      type: "constant"
      value: 0
    }
  }
}
layer {
  name: "relu5_1"
  type: "ReLU"
  bottom: "conv5_1"
  top: "conv5_1"
}
layer {
  name: "conv5_2"
  type: "Convolution"
  bottom: "conv5_1"
  top: "conv5_2"
  param {
    lr_mult: 1
    decay_mult: 1
  }
  convolution_param {
    num_output: 256
    bias_term: false
    pad: 1
    kernel_size: 3
    weight_filler {
      type: "xavier"
    }
  }
}
layer {
  name: "bn5_2"
  type: "BatchNorm"
  bottom: "conv5_2"
  top: "conv5_2"
  param {
    lr_mult: 0
  }
  param {
    lr_mult: 0
  }
  param {
    lr_mult: 0
  }
  batch_norm_param {
    use_global_stats: false
  }
}
layer {
  name: "scale5_2"
  type: "Scale"
  bottom: "conv5_2"
  top: "conv5_2"
  param {
    lr_mult: 1
    decay_mult: 1
  }
  param {
    lr_mult: 1
    decay_mult: 1
  }
  scale_param {
    bias_term: true
    bias_filler {
      type: "constant"
      value: 0
    }
  }
}
layer {
  name: "relu5_2"
  type: "ReLU"
  bottom: "conv5_2"
  top: "conv5_2"
}
layer {
  name: "pool5"
  type: "Pooling"
  bottom: "conv5_2"
  top: "pool5"
  pooling_param {
    pool: AVE
    kernel_size: 7
    stride: 1
  }
}
layer {
  name: "fc2"
  type: "InnerProduct"
  bottom: "pool5"
  top: "fc2"
  inner_product_param {
    num_output: 2
  }
}
layer {
  name: "loss"
  type: "SoftmaxWithLoss"
  bottom: "fc2"
  bottom: "label"
  top: "loss"
}
layer {
  name: "accuracy"
  type: "Accuracy"
  bottom: "fc2"
  bottom: "label"
  top: "accuracy"
}
I0624 19:33:47.873759 22124 layer_factory.hpp:77] Creating layer data
I0624 19:33:47.874158 22124 net.cpp:91] Creating Layer data
I0624 19:33:47.874171 22124 net.cpp:399] data -> data
I0624 19:33:47.874199 22124 net.cpp:399] data -> label
I0624 19:33:47.875526 22128 db_lmdb.cpp:35] Opened lmdb data/train_lmdb
I0624 19:33:47.900075 22124 data_layer.cpp:42] output data size: 32,3,224,224
I0624 19:33:47.940675 22124 net.cpp:141] Setting up data
I0624 19:33:47.940708 22124 net.cpp:148] Top shape: 32 3 224 224 (4816896)
I0624 19:33:47.940716 22124 net.cpp:148] Top shape: 32 (32)
I0624 19:33:47.940719 22124 net.cpp:156] Memory required for data: 19267712
I0624 19:33:47.940733 22124 layer_factory.hpp:77] Creating layer label_data_1_split
I0624 19:33:47.940755 22124 net.cpp:91] Creating Layer label_data_1_split
I0624 19:33:47.940765 22124 net.cpp:425] label_data_1_split <- label
I0624 19:33:47.940783 22124 net.cpp:399] label_data_1_split -> label_data_1_split_0
I0624 19:33:47.940793 22124 net.cpp:399] label_data_1_split -> label_data_1_split_1
I0624 19:33:47.940852 22124 net.cpp:141] Setting up label_data_1_split
I0624 19:33:47.940860 22124 net.cpp:148] Top shape: 32 (32)
I0624 19:33:47.940863 22124 net.cpp:148] Top shape: 32 (32)
I0624 19:33:47.940865 22124 net.cpp:156] Memory required for data: 19267968
I0624 19:33:47.940868 22124 layer_factory.hpp:77] Creating layer conv1_1
I0624 19:33:47.940882 22124 net.cpp:91] Creating Layer conv1_1
I0624 19:33:47.940887 22124 net.cpp:425] conv1_1 <- data
I0624 19:33:47.940892 22124 net.cpp:399] conv1_1 -> conv1_1
I0624 19:33:48.128168 22124 net.cpp:141] Setting up conv1_1
I0624 19:33:48.128196 22124 net.cpp:148] Top shape: 32 32 112 112 (12845056)
I0624 19:33:48.128198 22124 net.cpp:156] Memory required for data: 70648192
I0624 19:33:48.128211 22124 layer_factory.hpp:77] Creating layer bn1_1
I0624 19:33:48.128221 22124 net.cpp:91] Creating Layer bn1_1
I0624 19:33:48.128224 22124 net.cpp:425] bn1_1 <- conv1_1
I0624 19:33:48.128229 22124 net.cpp:386] bn1_1 -> conv1_1 (in-place)
I0624 19:33:48.128386 22124 net.cpp:141] Setting up bn1_1
I0624 19:33:48.128393 22124 net.cpp:148] Top shape: 32 32 112 112 (12845056)
I0624 19:33:48.128396 22124 net.cpp:156] Memory required for data: 122028416
I0624 19:33:48.128406 22124 layer_factory.hpp:77] Creating layer scale1_1
I0624 19:33:48.128414 22124 net.cpp:91] Creating Layer scale1_1
I0624 19:33:48.128417 22124 net.cpp:425] scale1_1 <- conv1_1
I0624 19:33:48.128420 22124 net.cpp:386] scale1_1 -> conv1_1 (in-place)
I0624 19:33:48.128454 22124 layer_factory.hpp:77] Creating layer scale1_1
I0624 19:33:48.128545 22124 net.cpp:141] Setting up scale1_1
I0624 19:33:48.128552 22124 net.cpp:148] Top shape: 32 32 112 112 (12845056)
I0624 19:33:48.128556 22124 net.cpp:156] Memory required for data: 173408640
I0624 19:33:48.128561 22124 layer_factory.hpp:77] Creating layer relu1_1
I0624 19:33:48.128566 22124 net.cpp:91] Creating Layer relu1_1
I0624 19:33:48.128569 22124 net.cpp:425] relu1_1 <- conv1_1
I0624 19:33:48.128572 22124 net.cpp:386] relu1_1 -> conv1_1 (in-place)
I0624 19:33:48.128705 22124 net.cpp:141] Setting up relu1_1
I0624 19:33:48.128713 22124 net.cpp:148] Top shape: 32 32 112 112 (12845056)
I0624 19:33:48.128716 22124 net.cpp:156] Memory required for data: 224788864
I0624 19:33:48.128720 22124 layer_factory.hpp:77] Creating layer conv1_2
I0624 19:33:48.128727 22124 net.cpp:91] Creating Layer conv1_2
I0624 19:33:48.128731 22124 net.cpp:425] conv1_2 <- conv1_1
I0624 19:33:48.128736 22124 net.cpp:399] conv1_2 -> conv1_2
I0624 19:33:48.129498 22124 net.cpp:141] Setting up conv1_2
I0624 19:33:48.129510 22124 net.cpp:148] Top shape: 32 32 112 112 (12845056)
I0624 19:33:48.129513 22124 net.cpp:156] Memory required for data: 276169088
I0624 19:33:48.129518 22124 layer_factory.hpp:77] Creating layer bn1_2
I0624 19:33:48.129523 22124 net.cpp:91] Creating Layer bn1_2
I0624 19:33:48.129525 22124 net.cpp:425] bn1_2 <- conv1_2
I0624 19:33:48.129529 22124 net.cpp:386] bn1_2 -> conv1_2 (in-place)
I0624 19:33:48.129662 22124 net.cpp:141] Setting up bn1_2
I0624 19:33:48.129668 22124 net.cpp:148] Top shape: 32 32 112 112 (12845056)
I0624 19:33:48.129672 22124 net.cpp:156] Memory required for data: 327549312
I0624 19:33:48.129679 22124 layer_factory.hpp:77] Creating layer scale1_2
I0624 19:33:48.129685 22124 net.cpp:91] Creating Layer scale1_2
I0624 19:33:48.129688 22124 net.cpp:425] scale1_2 <- conv1_2
I0624 19:33:48.129693 22124 net.cpp:386] scale1_2 -> conv1_2 (in-place)
I0624 19:33:48.129719 22124 layer_factory.hpp:77] Creating layer scale1_2
I0624 19:33:48.129887 22124 net.cpp:141] Setting up scale1_2
I0624 19:33:48.129897 22124 net.cpp:148] Top shape: 32 32 112 112 (12845056)
I0624 19:33:48.129899 22124 net.cpp:156] Memory required for data: 378929536
I0624 19:33:48.129904 22124 layer_factory.hpp:77] Creating layer relu1_2
I0624 19:33:48.129909 22124 net.cpp:91] Creating Layer relu1_2
I0624 19:33:48.129911 22124 net.cpp:425] relu1_2 <- conv1_2
I0624 19:33:48.129915 22124 net.cpp:386] relu1_2 -> conv1_2 (in-place)
I0624 19:33:48.130041 22124 net.cpp:141] Setting up relu1_2
I0624 19:33:48.130049 22124 net.cpp:148] Top shape: 32 32 112 112 (12845056)
I0624 19:33:48.130053 22124 net.cpp:156] Memory required for data: 430309760
I0624 19:33:48.130055 22124 layer_factory.hpp:77] Creating layer pool1
I0624 19:33:48.130060 22124 net.cpp:91] Creating Layer pool1
I0624 19:33:48.130064 22124 net.cpp:425] pool1 <- conv1_2
I0624 19:33:48.130067 22124 net.cpp:399] pool1 -> pool1
I0624 19:33:48.130110 22124 net.cpp:141] Setting up pool1
I0624 19:33:48.130115 22124 net.cpp:148] Top shape: 32 32 56 56 (3211264)
I0624 19:33:48.130132 22124 net.cpp:156] Memory required for data: 443154816
I0624 19:33:48.130136 22124 layer_factory.hpp:77] Creating layer conv2_1
I0624 19:33:48.130142 22124 net.cpp:91] Creating Layer conv2_1
I0624 19:33:48.130146 22124 net.cpp:425] conv2_1 <- pool1
I0624 19:33:48.130149 22124 net.cpp:399] conv2_1 -> conv2_1
I0624 19:33:48.131999 22124 net.cpp:141] Setting up conv2_1
I0624 19:33:48.132011 22124 net.cpp:148] Top shape: 32 64 56 56 (6422528)
I0624 19:33:48.132014 22124 net.cpp:156] Memory required for data: 468844928
I0624 19:33:48.132019 22124 layer_factory.hpp:77] Creating layer bn2_1
I0624 19:33:48.132025 22124 net.cpp:91] Creating Layer bn2_1
I0624 19:33:48.132027 22124 net.cpp:425] bn2_1 <- conv2_1
I0624 19:33:48.132031 22124 net.cpp:386] bn2_1 -> conv2_1 (in-place)
I0624 19:33:48.133199 22124 net.cpp:141] Setting up bn2_1
I0624 19:33:48.133211 22124 net.cpp:148] Top shape: 32 64 56 56 (6422528)
I0624 19:33:48.133214 22124 net.cpp:156] Memory required for data: 494535040
I0624 19:33:48.133220 22124 layer_factory.hpp:77] Creating layer scale2_1
I0624 19:33:48.133226 22124 net.cpp:91] Creating Layer scale2_1
I0624 19:33:48.133229 22124 net.cpp:425] scale2_1 <- conv2_1
I0624 19:33:48.133234 22124 net.cpp:386] scale2_1 -> conv2_1 (in-place)
I0624 19:33:48.133265 22124 layer_factory.hpp:77] Creating layer scale2_1
I0624 19:33:48.133343 22124 net.cpp:141] Setting up scale2_1
I0624 19:33:48.133350 22124 net.cpp:148] Top shape: 32 64 56 56 (6422528)
I0624 19:33:48.133353 22124 net.cpp:156] Memory required for data: 520225152
I0624 19:33:48.133360 22124 layer_factory.hpp:77] Creating layer relu2_1
I0624 19:33:48.133364 22124 net.cpp:91] Creating Layer relu2_1
I0624 19:33:48.133368 22124 net.cpp:425] relu2_1 <- conv2_1
I0624 19:33:48.133371 22124 net.cpp:386] relu2_1 -> conv2_1 (in-place)
I0624 19:33:48.133715 22124 net.cpp:141] Setting up relu2_1
I0624 19:33:48.133728 22124 net.cpp:148] Top shape: 32 64 56 56 (6422528)
I0624 19:33:48.133730 22124 net.cpp:156] Memory required for data: 545915264
I0624 19:33:48.133733 22124 layer_factory.hpp:77] Creating layer conv2_2
I0624 19:33:48.133741 22124 net.cpp:91] Creating Layer conv2_2
I0624 19:33:48.133744 22124 net.cpp:425] conv2_2 <- conv2_1
I0624 19:33:48.133749 22124 net.cpp:399] conv2_2 -> conv2_2
I0624 19:33:48.134482 22124 net.cpp:141] Setting up conv2_2
I0624 19:33:48.134493 22124 net.cpp:148] Top shape: 32 64 56 56 (6422528)
I0624 19:33:48.134496 22124 net.cpp:156] Memory required for data: 571605376
I0624 19:33:48.134500 22124 layer_factory.hpp:77] Creating layer bn2_2
I0624 19:33:48.134507 22124 net.cpp:91] Creating Layer bn2_2
I0624 19:33:48.134510 22124 net.cpp:425] bn2_2 <- conv2_2
I0624 19:33:48.134516 22124 net.cpp:386] bn2_2 -> conv2_2 (in-place)
I0624 19:33:48.134657 22124 net.cpp:141] Setting up bn2_2
I0624 19:33:48.134665 22124 net.cpp:148] Top shape: 32 64 56 56 (6422528)
I0624 19:33:48.134667 22124 net.cpp:156] Memory required for data: 597295488
I0624 19:33:48.134672 22124 layer_factory.hpp:77] Creating layer scale2_2
I0624 19:33:48.134678 22124 net.cpp:91] Creating Layer scale2_2
I0624 19:33:48.134680 22124 net.cpp:425] scale2_2 <- conv2_2
I0624 19:33:48.134685 22124 net.cpp:386] scale2_2 -> conv2_2 (in-place)
I0624 19:33:48.134713 22124 layer_factory.hpp:77] Creating layer scale2_2
I0624 19:33:48.134798 22124 net.cpp:141] Setting up scale2_2
I0624 19:33:48.134805 22124 net.cpp:148] Top shape: 32 64 56 56 (6422528)
I0624 19:33:48.134807 22124 net.cpp:156] Memory required for data: 622985600
I0624 19:33:48.134811 22124 layer_factory.hpp:77] Creating layer relu2_2
I0624 19:33:48.134815 22124 net.cpp:91] Creating Layer relu2_2
I0624 19:33:48.134819 22124 net.cpp:425] relu2_2 <- conv2_2
I0624 19:33:48.134822 22124 net.cpp:386] relu2_2 -> conv2_2 (in-place)
I0624 19:33:48.135172 22124 net.cpp:141] Setting up relu2_2
I0624 19:33:48.135185 22124 net.cpp:148] Top shape: 32 64 56 56 (6422528)
I0624 19:33:48.135187 22124 net.cpp:156] Memory required for data: 648675712
I0624 19:33:48.135190 22124 layer_factory.hpp:77] Creating layer pool2
I0624 19:33:48.135205 22124 net.cpp:91] Creating Layer pool2
I0624 19:33:48.135210 22124 net.cpp:425] pool2 <- conv2_2
I0624 19:33:48.135213 22124 net.cpp:399] pool2 -> pool2
I0624 19:33:48.135249 22124 net.cpp:141] Setting up pool2
I0624 19:33:48.135254 22124 net.cpp:148] Top shape: 32 64 28 28 (1605632)
I0624 19:33:48.135257 22124 net.cpp:156] Memory required for data: 655098240
I0624 19:33:48.135258 22124 layer_factory.hpp:77] Creating layer conv3_1
I0624 19:33:48.135265 22124 net.cpp:91] Creating Layer conv3_1
I0624 19:33:48.135268 22124 net.cpp:425] conv3_1 <- pool2
I0624 19:33:48.135273 22124 net.cpp:399] conv3_1 -> conv3_1
I0624 19:33:48.137687 22124 net.cpp:141] Setting up conv3_1
I0624 19:33:48.137701 22124 net.cpp:148] Top shape: 32 128 28 28 (3211264)
I0624 19:33:48.137703 22124 net.cpp:156] Memory required for data: 667943296
I0624 19:33:48.137708 22124 layer_factory.hpp:77] Creating layer bn3_1
I0624 19:33:48.137717 22124 net.cpp:91] Creating Layer bn3_1
I0624 19:33:48.137719 22124 net.cpp:425] bn3_1 <- conv3_1
I0624 19:33:48.137723 22124 net.cpp:386] bn3_1 -> conv3_1 (in-place)
I0624 19:33:48.139001 22124 net.cpp:141] Setting up bn3_1
I0624 19:33:48.139014 22124 net.cpp:148] Top shape: 32 128 28 28 (3211264)
I0624 19:33:48.139015 22124 net.cpp:156] Memory required for data: 680788352
I0624 19:33:48.139021 22124 layer_factory.hpp:77] Creating layer scale3_1
I0624 19:33:48.139029 22124 net.cpp:91] Creating Layer scale3_1
I0624 19:33:48.139031 22124 net.cpp:425] scale3_1 <- conv3_1
I0624 19:33:48.139035 22124 net.cpp:386] scale3_1 -> conv3_1 (in-place)
I0624 19:33:48.139070 22124 layer_factory.hpp:77] Creating layer scale3_1
I0624 19:33:48.139158 22124 net.cpp:141] Setting up scale3_1
I0624 19:33:48.139168 22124 net.cpp:148] Top shape: 32 128 28 28 (3211264)
I0624 19:33:48.139170 22124 net.cpp:156] Memory required for data: 693633408
I0624 19:33:48.139174 22124 layer_factory.hpp:77] Creating layer relu3_1
I0624 19:33:48.139180 22124 net.cpp:91] Creating Layer relu3_1
I0624 19:33:48.139183 22124 net.cpp:425] relu3_1 <- conv3_1
I0624 19:33:48.139186 22124 net.cpp:386] relu3_1 -> conv3_1 (in-place)
I0624 19:33:48.139325 22124 net.cpp:141] Setting up relu3_1
I0624 19:33:48.139335 22124 net.cpp:148] Top shape: 32 128 28 28 (3211264)
I0624 19:33:48.139338 22124 net.cpp:156] Memory required for data: 706478464
I0624 19:33:48.139340 22124 layer_factory.hpp:77] Creating layer conv3_2
I0624 19:33:48.139349 22124 net.cpp:91] Creating Layer conv3_2
I0624 19:33:48.139353 22124 net.cpp:425] conv3_2 <- conv3_1
I0624 19:33:48.139356 22124 net.cpp:399] conv3_2 -> conv3_2
I0624 19:33:48.141149 22124 net.cpp:141] Setting up conv3_2
I0624 19:33:48.141163 22124 net.cpp:148] Top shape: 32 128 28 28 (3211264)
I0624 19:33:48.141165 22124 net.cpp:156] Memory required for data: 719323520
I0624 19:33:48.141170 22124 layer_factory.hpp:77] Creating layer bn3_2
I0624 19:33:48.141175 22124 net.cpp:91] Creating Layer bn3_2
I0624 19:33:48.141178 22124 net.cpp:425] bn3_2 <- conv3_2
I0624 19:33:48.141183 22124 net.cpp:386] bn3_2 -> conv3_2 (in-place)
I0624 19:33:48.141327 22124 net.cpp:141] Setting up bn3_2
I0624 19:33:48.141335 22124 net.cpp:148] Top shape: 32 128 28 28 (3211264)
I0624 19:33:48.141337 22124 net.cpp:156] Memory required for data: 732168576
I0624 19:33:48.141346 22124 layer_factory.hpp:77] Creating layer scale3_2
I0624 19:33:48.141353 22124 net.cpp:91] Creating Layer scale3_2
I0624 19:33:48.141356 22124 net.cpp:425] scale3_2 <- conv3_2
I0624 19:33:48.141360 22124 net.cpp:386] scale3_2 -> conv3_2 (in-place)
I0624 19:33:48.141391 22124 layer_factory.hpp:77] Creating layer scale3_2
I0624 19:33:48.141470 22124 net.cpp:141] Setting up scale3_2
I0624 19:33:48.141477 22124 net.cpp:148] Top shape: 32 128 28 28 (3211264)
I0624 19:33:48.141479 22124 net.cpp:156] Memory required for data: 745013632
I0624 19:33:48.141484 22124 layer_factory.hpp:77] Creating layer relu3_2
I0624 19:33:48.141489 22124 net.cpp:91] Creating Layer relu3_2
I0624 19:33:48.141490 22124 net.cpp:425] relu3_2 <- conv3_2
I0624 19:33:48.141495 22124 net.cpp:386] relu3_2 -> conv3_2 (in-place)
I0624 19:33:48.141646 22124 net.cpp:141] Setting up relu3_2
I0624 19:33:48.141656 22124 net.cpp:148] Top shape: 32 128 28 28 (3211264)
I0624 19:33:48.141659 22124 net.cpp:156] Memory required for data: 757858688
I0624 19:33:48.141661 22124 layer_factory.hpp:77] Creating layer pool3
I0624 19:33:48.141667 22124 net.cpp:91] Creating Layer pool3
I0624 19:33:48.141669 22124 net.cpp:425] pool3 <- conv3_2
I0624 19:33:48.141674 22124 net.cpp:399] pool3 -> pool3
I0624 19:33:48.141707 22124 net.cpp:141] Setting up pool3
I0624 19:33:48.141711 22124 net.cpp:148] Top shape: 32 128 14 14 (802816)
I0624 19:33:48.141713 22124 net.cpp:156] Memory required for data: 761069952
I0624 19:33:48.141716 22124 layer_factory.hpp:77] Creating layer conv4_1
I0624 19:33:48.141723 22124 net.cpp:91] Creating Layer conv4_1
I0624 19:33:48.141726 22124 net.cpp:425] conv4_1 <- pool3
I0624 19:33:48.141731 22124 net.cpp:399] conv4_1 -> conv4_1
I0624 19:33:48.144548 22124 net.cpp:141] Setting up conv4_1
I0624 19:33:48.144562 22124 net.cpp:148] Top shape: 32 256 14 14 (1605632)
I0624 19:33:48.144567 22124 net.cpp:156] Memory required for data: 767492480
I0624 19:33:48.144570 22124 layer_factory.hpp:77] Creating layer bn4_1
I0624 19:33:48.144577 22124 net.cpp:91] Creating Layer bn4_1
I0624 19:33:48.144579 22124 net.cpp:425] bn4_1 <- conv4_1
I0624 19:33:48.144584 22124 net.cpp:386] bn4_1 -> conv4_1 (in-place)
I0624 19:33:48.144733 22124 net.cpp:141] Setting up bn4_1
I0624 19:33:48.144740 22124 net.cpp:148] Top shape: 32 256 14 14 (1605632)
I0624 19:33:48.144743 22124 net.cpp:156] Memory required for data: 773915008
I0624 19:33:48.144749 22124 layer_factory.hpp:77] Creating layer scale4_1
I0624 19:33:48.144754 22124 net.cpp:91] Creating Layer scale4_1
I0624 19:33:48.144757 22124 net.cpp:425] scale4_1 <- conv4_1
I0624 19:33:48.144760 22124 net.cpp:386] scale4_1 -> conv4_1 (in-place)
I0624 19:33:48.144791 22124 layer_factory.hpp:77] Creating layer scale4_1
I0624 19:33:48.144872 22124 net.cpp:141] Setting up scale4_1
I0624 19:33:48.144879 22124 net.cpp:148] Top shape: 32 256 14 14 (1605632)
I0624 19:33:48.144882 22124 net.cpp:156] Memory required for data: 780337536
I0624 19:33:48.144886 22124 layer_factory.hpp:77] Creating layer relu4_1
I0624 19:33:48.144894 22124 net.cpp:91] Creating Layer relu4_1
I0624 19:33:48.144897 22124 net.cpp:425] relu4_1 <- conv4_1
I0624 19:33:48.144901 22124 net.cpp:386] relu4_1 -> conv4_1 (in-place)
I0624 19:33:48.145041 22124 net.cpp:141] Setting up relu4_1
I0624 19:33:48.145051 22124 net.cpp:148] Top shape: 32 256 14 14 (1605632)
I0624 19:33:48.145053 22124 net.cpp:156] Memory required for data: 786760064
I0624 19:33:48.145056 22124 layer_factory.hpp:77] Creating layer conv4_2
I0624 19:33:48.145064 22124 net.cpp:91] Creating Layer conv4_2
I0624 19:33:48.145066 22124 net.cpp:425] conv4_2 <- conv4_1
I0624 19:33:48.145071 22124 net.cpp:399] conv4_2 -> conv4_2
I0624 19:33:48.150451 22124 net.cpp:141] Setting up conv4_2
I0624 19:33:48.150465 22124 net.cpp:148] Top shape: 32 256 14 14 (1605632)
I0624 19:33:48.150468 22124 net.cpp:156] Memory required for data: 793182592
I0624 19:33:48.150472 22124 layer_factory.hpp:77] Creating layer bn4_2
I0624 19:33:48.150478 22124 net.cpp:91] Creating Layer bn4_2
I0624 19:33:48.150481 22124 net.cpp:425] bn4_2 <- conv4_2
I0624 19:33:48.150486 22124 net.cpp:386] bn4_2 -> conv4_2 (in-place)
I0624 19:33:48.150631 22124 net.cpp:141] Setting up bn4_2
I0624 19:33:48.150640 22124 net.cpp:148] Top shape: 32 256 14 14 (1605632)
I0624 19:33:48.150641 22124 net.cpp:156] Memory required for data: 799605120
I0624 19:33:48.150647 22124 layer_factory.hpp:77] Creating layer scale4_2
I0624 19:33:48.150652 22124 net.cpp:91] Creating Layer scale4_2
I0624 19:33:48.150655 22124 net.cpp:425] scale4_2 <- conv4_2
I0624 19:33:48.150658 22124 net.cpp:386] scale4_2 -> conv4_2 (in-place)
I0624 19:33:48.150691 22124 layer_factory.hpp:77] Creating layer scale4_2
I0624 19:33:48.150769 22124 net.cpp:141] Setting up scale4_2
I0624 19:33:48.150776 22124 net.cpp:148] Top shape: 32 256 14 14 (1605632)
I0624 19:33:48.150789 22124 net.cpp:156] Memory required for data: 806027648
I0624 19:33:48.150794 22124 layer_factory.hpp:77] Creating layer relu4_2
I0624 19:33:48.150799 22124 net.cpp:91] Creating Layer relu4_2
I0624 19:33:48.150802 22124 net.cpp:425] relu4_2 <- conv4_2
I0624 19:33:48.150806 22124 net.cpp:386] relu4_2 -> conv4_2 (in-place)
I0624 19:33:48.150952 22124 net.cpp:141] Setting up relu4_2
I0624 19:33:48.150961 22124 net.cpp:148] Top shape: 32 256 14 14 (1605632)
I0624 19:33:48.150964 22124 net.cpp:156] Memory required for data: 812450176
I0624 19:33:48.150966 22124 layer_factory.hpp:77] Creating layer pool4
I0624 19:33:48.150972 22124 net.cpp:91] Creating Layer pool4
I0624 19:33:48.150975 22124 net.cpp:425] pool4 <- conv4_2
I0624 19:33:48.150980 22124 net.cpp:399] pool4 -> pool4
I0624 19:33:48.151015 22124 net.cpp:141] Setting up pool4
I0624 19:33:48.151020 22124 net.cpp:148] Top shape: 32 256 7 7 (401408)
I0624 19:33:48.151021 22124 net.cpp:156] Memory required for data: 814055808
I0624 19:33:48.151023 22124 layer_factory.hpp:77] Creating layer conv5_1
I0624 19:33:48.151032 22124 net.cpp:91] Creating Layer conv5_1
I0624 19:33:48.151034 22124 net.cpp:425] conv5_1 <- pool4
I0624 19:33:48.151039 22124 net.cpp:399] conv5_1 -> conv5_1
I0624 19:33:48.156688 22124 net.cpp:141] Setting up conv5_1
I0624 19:33:48.156707 22124 net.cpp:148] Top shape: 32 256 7 7 (401408)
I0624 19:33:48.156709 22124 net.cpp:156] Memory required for data: 815661440
I0624 19:33:48.156714 22124 layer_factory.hpp:77] Creating layer bn5_1
I0624 19:33:48.156721 22124 net.cpp:91] Creating Layer bn5_1
I0624 19:33:48.156724 22124 net.cpp:425] bn5_1 <- conv5_1
I0624 19:33:48.156729 22124 net.cpp:386] bn5_1 -> conv5_1 (in-place)
I0624 19:33:48.156882 22124 net.cpp:141] Setting up bn5_1
I0624 19:33:48.156888 22124 net.cpp:148] Top shape: 32 256 7 7 (401408)
I0624 19:33:48.156891 22124 net.cpp:156] Memory required for data: 817267072
I0624 19:33:48.156898 22124 layer_factory.hpp:77] Creating layer scale5_1
I0624 19:33:48.156903 22124 net.cpp:91] Creating Layer scale5_1
I0624 19:33:48.156905 22124 net.cpp:425] scale5_1 <- conv5_1
I0624 19:33:48.156909 22124 net.cpp:386] scale5_1 -> conv5_1 (in-place)
I0624 19:33:48.156941 22124 layer_factory.hpp:77] Creating layer scale5_1
I0624 19:33:48.157023 22124 net.cpp:141] Setting up scale5_1
I0624 19:33:48.157030 22124 net.cpp:148] Top shape: 32 256 7 7 (401408)
I0624 19:33:48.157032 22124 net.cpp:156] Memory required for data: 818872704
I0624 19:33:48.157037 22124 layer_factory.hpp:77] Creating layer relu5_1
I0624 19:33:48.157042 22124 net.cpp:91] Creating Layer relu5_1
I0624 19:33:48.157044 22124 net.cpp:425] relu5_1 <- conv5_1
I0624 19:33:48.157048 22124 net.cpp:386] relu5_1 -> conv5_1 (in-place)
I0624 19:33:48.157418 22124 net.cpp:141] Setting up relu5_1
I0624 19:33:48.157431 22124 net.cpp:148] Top shape: 32 256 7 7 (401408)
I0624 19:33:48.157434 22124 net.cpp:156] Memory required for data: 820478336
I0624 19:33:48.157438 22124 layer_factory.hpp:77] Creating layer conv5_2
I0624 19:33:48.157445 22124 net.cpp:91] Creating Layer conv5_2
I0624 19:33:48.157449 22124 net.cpp:425] conv5_2 <- conv5_1
I0624 19:33:48.157454 22124 net.cpp:399] conv5_2 -> conv5_2
I0624 19:33:48.162799 22124 net.cpp:141] Setting up conv5_2
I0624 19:33:48.162812 22124 net.cpp:148] Top shape: 32 256 7 7 (401408)
I0624 19:33:48.162816 22124 net.cpp:156] Memory required for data: 822083968
I0624 19:33:48.162819 22124 layer_factory.hpp:77] Creating layer bn5_2
I0624 19:33:48.162828 22124 net.cpp:91] Creating Layer bn5_2
I0624 19:33:48.162832 22124 net.cpp:425] bn5_2 <- conv5_2
I0624 19:33:48.162837 22124 net.cpp:386] bn5_2 -> conv5_2 (in-place)
I0624 19:33:48.162989 22124 net.cpp:141] Setting up bn5_2
I0624 19:33:48.162997 22124 net.cpp:148] Top shape: 32 256 7 7 (401408)
I0624 19:33:48.162999 22124 net.cpp:156] Memory required for data: 823689600
I0624 19:33:48.163005 22124 layer_factory.hpp:77] Creating layer scale5_2
I0624 19:33:48.163013 22124 net.cpp:91] Creating Layer scale5_2
I0624 19:33:48.163015 22124 net.cpp:425] scale5_2 <- conv5_2
I0624 19:33:48.163030 22124 net.cpp:386] scale5_2 -> conv5_2 (in-place)
I0624 19:33:48.163071 22124 layer_factory.hpp:77] Creating layer scale5_2
I0624 19:33:48.163163 22124 net.cpp:141] Setting up scale5_2
I0624 19:33:48.163172 22124 net.cpp:148] Top shape: 32 256 7 7 (401408)
I0624 19:33:48.163175 22124 net.cpp:156] Memory required for data: 825295232
I0624 19:33:48.163179 22124 layer_factory.hpp:77] Creating layer relu5_2
I0624 19:33:48.163184 22124 net.cpp:91] Creating Layer relu5_2
I0624 19:33:48.163187 22124 net.cpp:425] relu5_2 <- conv5_2
I0624 19:33:48.163192 22124 net.cpp:386] relu5_2 -> conv5_2 (in-place)
I0624 19:33:48.163552 22124 net.cpp:141] Setting up relu5_2
I0624 19:33:48.163563 22124 net.cpp:148] Top shape: 32 256 7 7 (401408)
I0624 19:33:48.163565 22124 net.cpp:156] Memory required for data: 826900864
I0624 19:33:48.163568 22124 layer_factory.hpp:77] Creating layer pool5
I0624 19:33:48.163575 22124 net.cpp:91] Creating Layer pool5
I0624 19:33:48.163578 22124 net.cpp:425] pool5 <- conv5_2
I0624 19:33:48.163583 22124 net.cpp:399] pool5 -> pool5
I0624 19:33:48.163743 22124 net.cpp:141] Setting up pool5
I0624 19:33:48.163753 22124 net.cpp:148] Top shape: 32 256 1 1 (8192)
I0624 19:33:48.163755 22124 net.cpp:156] Memory required for data: 826933632
I0624 19:33:48.163758 22124 layer_factory.hpp:77] Creating layer fc2
I0624 19:33:48.163763 22124 net.cpp:91] Creating Layer fc2
I0624 19:33:48.163766 22124 net.cpp:425] fc2 <- pool5
I0624 19:33:48.163769 22124 net.cpp:399] fc2 -> fc2
I0624 19:33:48.163866 22124 net.cpp:141] Setting up fc2
I0624 19:33:48.163873 22124 net.cpp:148] Top shape: 32 2 (64)
I0624 19:33:48.163875 22124 net.cpp:156] Memory required for data: 826933888
I0624 19:33:48.163880 22124 layer_factory.hpp:77] Creating layer fc2_fc2_0_split
I0624 19:33:48.163887 22124 net.cpp:91] Creating Layer fc2_fc2_0_split
I0624 19:33:48.163889 22124 net.cpp:425] fc2_fc2_0_split <- fc2
I0624 19:33:48.163892 22124 net.cpp:399] fc2_fc2_0_split -> fc2_fc2_0_split_0
I0624 19:33:48.163898 22124 net.cpp:399] fc2_fc2_0_split -> fc2_fc2_0_split_1
I0624 19:33:48.163926 22124 net.cpp:141] Setting up fc2_fc2_0_split
I0624 19:33:48.163930 22124 net.cpp:148] Top shape: 32 2 (64)
I0624 19:33:48.163933 22124 net.cpp:148] Top shape: 32 2 (64)
I0624 19:33:48.163935 22124 net.cpp:156] Memory required for data: 826934400
I0624 19:33:48.163938 22124 layer_factory.hpp:77] Creating layer loss
I0624 19:33:48.163947 22124 net.cpp:91] Creating Layer loss
I0624 19:33:48.163949 22124 net.cpp:425] loss <- fc2_fc2_0_split_0
I0624 19:33:48.163952 22124 net.cpp:425] loss <- label_data_1_split_0
I0624 19:33:48.163956 22124 net.cpp:399] loss -> loss
…
I0624 19:33:48.165206 22124 solver.cpp:181] Creating test net (#0) specified by net file: models/bpnet/train_val.prototxt
I0624 19:33:48.165259 22124 net.cpp:313] The NetState phase (1) differed from the phase (0) specified by a rule in layer data
I0624 19:33:48.165473 22124 net.cpp:49] Initializing net from parameters: 
name: "BPnet"
state {
  phase: TEST
}
layer {
  name: "data"
  type: "Data"
  top: "data"
  top: "label"
  include {
    phase: TEST
  }
  transform_param {
    mirror: false
    crop_size: 224
    mean_value: 100
    contrast_jitter_range: 0.1
  }
  data_param {
    source: "data/val_lmdb"
    batch_size: 64
    backend: LMDB
  }
}
layer {
  name: "conv1_1"
  type: "Convolution"
  bottom: "data"
  top: "conv1_1"
  param {
    lr_mult: 1
    decay_mult: 1
  }
  convolution_param {
    num_output: 32
    bias_term: false
    pad: 3
    kernel_size: 7
    stride: 2
    weight_filler {
      type: "xavier"
    }
  }
}
layer {
  name: "bn1_1"
  type: "BatchNorm"
  bottom: "conv1_1"
  top: "conv1_1"
  param {
    lr_mult: 0
  }
  param {
    lr_mult: 0
  }
  param {
    lr_mult: 0
  }
  batch_norm_param {
    use_global_stats: false
  }
}
layer {
  name: "scale1_1"
  type: "Scale"
  bottom: "conv1_1"
  top: "conv1_1"
  param {
    lr_mult: 1
    decay_mult: 1
  }
  param {
    lr_mult: 1
    decay_mult: 1
  }
  scale_param {
    bias_term: true
    bias_filler {
      type: "constant"
      value: 0
    }
  }
}
layer {
  name: "relu1_1"
  type: "ReLU"
  bottom: "conv1_1"
  top: "conv1_1"
}
layer {
  name: "conv1_2"
  type: "Convolution"
  bottom: "conv1_1"
  top: "conv1_2"
  param {
    lr_mult: 1
    decay_mult: 1
  }
  convolution_param {
    num_output: 32
    bias_term: false
    pad: 1
    kernel_size: 3
    weight_filler {
      type: "xavier"
    }
  }
}
layer {
  name: "bn1_2"
  type: "BatchNorm"
  bottom: "conv1_2"
  top: "conv1_2"
  param {
    lr_mult: 0
  }
  param {
    lr_mult: 0
  }
  param {
    lr_mult: 0
  }
  batch_norm_param {
    use_global_stats: false
  }
}
layer {
  name: "scale1_2"
  type: "Scale"
  bottom: "conv1_2"
  top: "conv1_2"
  param {
    lr_mult: 1
    decay_mult: 1
  }
  param {
    lr_mult: 1
    decay_mult: 1
  }
  scale_param {
    bias_term: true
    bias_filler {
      type: "constant"
      value: 0
    }
  }
}
layer {
  name: "relu1_2"
  type: "ReLU"
  bottom: "conv1_2"
  top: "conv1_2"
}
layer {
  name: "pool1"
  type: "Pooling"
  bottom: "conv1_2"
  top: "pool1"
  pooling_param {
    pool: MAX
    kernel_size: 2
    stride: 2
  }
}
layer {
  name: "conv2_1"
  type: "Convolution"
  bottom: "pool1"
  top: "conv2_1"
  param {
    lr_mult: 1
    decay_mult: 1
  }
  convolution_param {
    num_output: 64
    bias_term: false
    pad: 1
    kernel_size: 3
    weight_filler {
      type: "xavier"
    }
  }
}
layer {
  name: "bn2_1"
  type: "BatchNorm"
  bottom: "conv2_1"
  top: "conv2_1"
  param {
    lr_mult: 0
  }
  param {
    lr_mult: 0
  }
  param {
    lr_mult: 0
  }
  batch_norm_param {
    use_global_stats: false
  }
}
layer {
  name: "scale2_1"
  type: "Scale"
  bottom: "conv2_1"
  top: "conv2_1"
  param {
    lr_mult: 1
    decay_mult: 1
  }
  param {
    lr_mult: 1
    decay_mult: 1
  }
  scale_param {
    bias_term: true
    bias_filler {
      type: "constant"
      value: 0
    }
  }
}
layer {
  name: "relu2_1"
  type: "ReLU"
  bottom: "conv2_1"
  top: "conv2_1"
}
layer {
  name: "conv2_2"
  type: "Convolution"
  bottom: "conv2_1"
  top: "conv2_2"
  param {
    lr_mult: 1
    decay_mult: 1
  }
  convolution_param {
    num_output: 64
    bias_term: false
    pad: 1
    kernel_size: 3
    weight_filler {
      type: "xavier"
    }
  }
}
layer {
  name: "bn2_2"
  type: "BatchNorm"
  bottom: "conv2_2"
  top: "conv2_2"
  param {
    lr_mult: 0
  }
  param {
    lr_mult: 0
  }
  param {
    lr_mult: 0
  }
  batch_norm_param {
    use_global_stats: false
  }
}
layer {
  name: "scale2_2"
  type: "Scale"
  bottom: "conv2_2"
  top: "conv2_2"
  param {
    lr_mult: 1
    decay_mult: 1
  }
  param {
    lr_mult: 1
    decay_mult: 1
  }
  scale_param {
    bias_term: true
    bias_filler {
      type: "constant"
      value: 0
    }
  }
}
layer {
  name: "relu2_2"
  type: "ReLU"
  bottom: "conv2_2"
  top: "conv2_2"
}
layer {
  name: "pool2"
  type: "Pooling"
  bottom: "conv2_2"
  top: "pool2"
  pooling_param {
    pool: MAX
    kernel_size: 2
    stride: 2
  }
}
layer {
  name: "conv3_1"
  type: "Convolution"
  bottom: "pool2"
  top: "conv3_1"
  param {
    lr_mult: 1
    decay_mult: 1
  }
  convolution_param {
    num_output: 128
    bias_term: false
    pad: 1
    kernel_size: 3
    weight_filler {
      type: "xavier"
    }
  }
}
layer {
  name: "bn3_1"
  type: "BatchNorm"
  bottom: "conv3_1"
  top: "conv3_1"
  param {
    lr_mult: 0
  }
  param {
    lr_mult: 0
  }
  param {
    lr_mult: 0
  }
  batch_norm_param {
    use_global_stats: false
  }
}
layer {
  name: "scale3_1"
  type: "Scale"
  bottom: "conv3_1"
  top: "conv3_1"
  param {
    lr_mult: 1
    decay_mult: 1
  }
  param {
    lr_mult: 1
    decay_mult: 1
  }
  scale_param {
    bias_term: true
    bias_filler {
      type: "constant"
      value: 0
    }
  }
}
layer {
  name: "relu3_1"
  type: "ReLU"
  bottom: "conv3_1"
  top: "conv3_1"
}
layer {
  name: "conv3_2"
  type: "Convolution"
  bottom: "conv3_1"
  top: "conv3_2"
  param {
    lr_mult: 1
    decay_mult: 1
  }
  convolution_param {
    num_output: 128
    bias_term: false
    pad: 1
    kernel_size: 3
    weight_filler {
      type: "xavier"
    }
  }
}
layer {
  name: "bn3_2"
  type: "BatchNorm"
  bottom: "conv3_2"
  top: "conv3_2"
  param {
    lr_mult: 0
  }
  param {
    lr_mult: 0
  }
  param {
    lr_mult: 0
  }
  batch_norm_param {
    use_global_stats: false
  }
}
layer {
  name: "scale3_2"
  type: "Scale"
  bottom: "conv3_2"
  top: "conv3_2"
  param {
    lr_mult: 1
    decay_mult: 1
  }
  param {
    lr_mult: 1
    decay_mult: 1
  }
  scale_param {
    bias_term: true
    bias_filler {
      type: "constant"
      value: 0
    }
  }
}
layer {
  name: "relu3_2"
  type: "ReLU"
  bottom: "conv3_2"
  top: "conv3_2"
}
layer {
  name: "pool3"
  type: "Pooling"
  bottom: "conv3_2"
  top: "pool3"
  pooling_param {
    pool: MAX
    kernel_size: 2
    stride: 2
  }
}
layer {
  name: "conv4_1"
  type: "Convolution"
  bottom: "pool3"
  top: "conv4_1"
  param {
    lr_mult: 1
    decay_mult: 1
  }
  convolution_param {
    num_output: 256
    bias_term: false
    pad: 1
    kernel_size: 3
    weight_filler {
      type: "xavier"
    }
  }
}
layer {
  name: "bn4_1"
  type: "BatchNorm"
  bottom: "conv4_1"
  top: "conv4_1"
  param {
    lr_mult: 0
  }
  param {
    lr_mult: 0
  }
  param {
    lr_mult: 0
  }
  batch_norm_param {
    use_global_stats: false
  }
}
layer {
  name: "scale4_1"
  type: "Scale"
  bottom: "conv4_1"
  top: "conv4_1"
  param {
    lr_mult: 1
    decay_mult: 1
  }
  param {
    lr_mult: 1
    decay_mult: 1
  }
  scale_param {
    bias_term: true
    bias_filler {
      type: "constant"
      value: 0
    }
  }
}
layer {
  name: "relu4_1"
  type: "ReLU"
  bottom: "conv4_1"
  top: "conv4_1"
}
layer {
  name: "conv4_2"
  type: "Convolution"
  bottom: "conv4_1"
  top: "conv4_2"
  param {
    lr_mult: 1
    decay_mult: 1
  }
  convolution_param {
    num_output: 256
    bias_term: false
    pad: 1
    kernel_size: 3
    weight_filler {
      type: "xavier"
    }
  }
}
layer {
  name: "bn4_2"
  type: "BatchNorm"
  bottom: "conv4_2"
  top: "conv4_2"
  param {
    lr_mult: 0
  }
  param {
    lr_mult: 0
  }
  param {
    lr_mult: 0
  }
  batch_norm_param {
    use_global_stats: false
  }
}
layer {
  name: "scale4_2"
  type: "Scale"
  bottom: "conv4_2"
  top: "conv4_2"
  param {
    lr_mult: 1
    decay_mult: 1
  }
  param {
    lr_mult: 1
    decay_mult: 1
  }
  scale_param {
    bias_term: true
    bias_filler {
      type: "constant"
      value: 0
    }
  }
}
layer {
  name: "relu4_2"
  type: "ReLU"
  bottom: "conv4_2"
  top: "conv4_2"
}
layer {
  name: "pool4"
  type: "Pooling"
  bottom: "conv4_2"
  top: "pool4"
  pooling_param {
    pool: MAX
    kernel_size: 2
    stride: 2
  }
}
layer {
  name: "conv5_1"
  type: "Convolution"
  bottom: "pool4"
  top: "conv5_1"
  param {
    lr_mult: 1
    decay_mult: 1
  }
  convolution_param {
    num_output: 256
    bias_term: false
    pad: 1
    kernel_size: 3
    weight_filler {
      type: "xavier"
    }
  }
}
layer {
  name: "bn5_1"
  type: "BatchNorm"
  bottom: "conv5_1"
  top: "conv5_1"
  param {
    lr_mult: 0
  }
  param {
    lr_mult: 0
  }
  param {
    lr_mult: 0
  }
  batch_norm_param {
    use_global_stats: false
  }
}
layer {
  name: "scale5_1"
  type: "Scale"
  bottom: "conv5_1"
  top: "conv5_1"
  param {
    lr_mult: 1
    decay_mult: 1
  }
  param {
    lr_mult: 1
    decay_mult: 1
  }
  scale_param {
    bias_term: true
    bias_filler {
      type: "constant"
      value: 0
    }
  }
}
layer {
  name: "relu5_1"
  type: "ReLU"
  bottom: "conv5_1"
  top: "conv5_1"
}
layer {
  name: "conv5_2"
  type: "Convolution"
  bottom: "conv5_1"
  top: "conv5_2"
  param {
    lr_mult: 1
    decay_mult: 1
  }
  convolution_param {
    num_output: 256
    bias_term: false
    pad: 1
    kernel_size: 3
    weight_filler {
      type: "xavier"
    }
  }
}
layer {
  name: "bn5_2"
  type: "BatchNorm"
  bottom: "conv5_2"
  top: "conv5_2"
  param {
    lr_mult: 0
  }
  param {
    lr_mult: 0
  }
  param {
    lr_mult: 0
  }
  batch_norm_param {
    use_global_stats: false
  }
}
layer {
  name: "scale5_2"
  type: "Scale"
  bottom: "conv5_2"
  top: "conv5_2"
  param {
    lr_mult: 1
    decay_mult: 1
  }
  param {
    lr_mult: 1
    decay_mult: 1
  }
  scale_param {
    bias_term: true
    bias_filler {
      type: "constant"
      value: 0
    }
  }
}
layer {
  name: "relu5_2"
  type: "ReLU"
  bottom: "conv5_2"
  top: "conv5_2"
}
layer {
  name: "pool5"
  type: "Pooling"
  bottom: "conv5_2"
  top: "pool5"
  pooling_param {
    pool: AVE
    kernel_size: 7
    stride: 1
  }
}
layer {
  name: "fc2"
  type: "InnerProduct"
  bottom: "pool5"
  top: "fc2"
  inner_product_param {
    num_output: 2
  }
}
layer {
  name: "loss"
  type: "SoftmaxWithLoss"
  bottom: "fc2"
  bottom: "label"
  top: "loss"
}
layer {
  name: "accuracy"
  type: "Accuracy"
  bottom: "fc2"
  bottom: "label"
  top: "accuracy"
}
I0624 19:33:48.165616 22124 layer_factory.hpp:77] Creating layer data
I0624 19:33:48.165691 22124 net.cpp:91] Creating Layer data
I0624 19:33:48.165699 22124 net.cpp:399] data -> data
I0624 19:33:48.165704 22124 net.cpp:399] data -> label
I0624 19:33:48.166975 22130 db_lmdb.cpp:35] Opened lmdb data/val_lmdb
I0624 19:33:48.167397 22124 data_layer.cpp:42] output data size: 64,3,224,224
I0624 19:33:48.247478 22124 net.cpp:141] Setting up data
I0624 19:33:48.247501 22124 net.cpp:148] Top shape: 64 3 224 224 (9633792)
I0624 19:33:48.247506 22124 net.cpp:148] Top shape: 64 (64)
I0624 19:33:48.247509 22124 net.cpp:156] Memory required for data: 38535424
I0624 19:33:48.247514 22124 layer_factory.hpp:77] Creating layer label_data_1_split
I0624 19:33:48.247525 22124 net.cpp:91] Creating Layer label_data_1_split
I0624 19:33:48.247529 22124 net.cpp:425] label_data_1_split <- label
I0624 19:33:48.247535 22124 net.cpp:399] label_data_1_split -> label_data_1_split_0
I0624 19:33:48.247542 22124 net.cpp:399] label_data_1_split -> label_data_1_split_1
I0624 19:33:48.247661 22124 net.cpp:141] Setting up label_data_1_split
I0624 19:33:48.247671 22124 net.cpp:148] Top shape: 64 (64)
I0624 19:33:48.247674 22124 net.cpp:148] Top shape: 64 (64)
I0624 19:33:48.247676 22124 net.cpp:156] Memory required for data: 38535936
I0624 19:33:48.247678 22124 layer_factory.hpp:77] Creating layer conv1_1
I0624 19:33:48.247689 22124 net.cpp:91] Creating Layer conv1_1
I0624 19:33:48.247691 22124 net.cpp:425] conv1_1 <- data
I0624 19:33:48.247696 22124 net.cpp:399] conv1_1 -> conv1_1
I0624 19:33:48.248713 22124 net.cpp:141] Setting up conv1_1
I0624 19:33:48.248725 22124 net.cpp:148] Top shape: 64 32 112 112 (25690112)
I0624 19:33:48.248728 22124 net.cpp:156] Memory required for data: 141296384
I0624 19:33:48.248735 22124 layer_factory.hpp:77] Creating layer bn1_1
I0624 19:33:48.248751 22124 net.cpp:91] Creating Layer bn1_1
I0624 19:33:48.248755 22124 net.cpp:425] bn1_1 <- conv1_1
I0624 19:33:48.248760 22124 net.cpp:386] bn1_1 -> conv1_1 (in-place)
I0624 19:33:48.248941 22124 net.cpp:141] Setting up bn1_1
I0624 19:33:48.248950 22124 net.cpp:148] Top shape: 64 32 112 112 (25690112)
I0624 19:33:48.248951 22124 net.cpp:156] Memory required for data: 244056832
I0624 19:33:48.248960 22124 layer_factory.hpp:77] Creating layer scale1_1
I0624 19:33:48.248968 22124 net.cpp:91] Creating Layer scale1_1
I0624 19:33:48.248971 22124 net.cpp:425] scale1_1 <- conv1_1
I0624 19:33:48.248975 22124 net.cpp:386] scale1_1 -> conv1_1 (in-place)
I0624 19:33:48.249027 22124 layer_factory.hpp:77] Creating layer scale1_1
I0624 19:33:48.249182 22124 net.cpp:141] Setting up scale1_1
I0624 19:33:48.249191 22124 net.cpp:148] Top shape: 64 32 112 112 (25690112)
I0624 19:33:48.249194 22124 net.cpp:156] Memory required for data: 346817280
I0624 19:33:48.249200 22124 layer_factory.hpp:77] Creating layer relu1_1
I0624 19:33:48.249208 22124 net.cpp:91] Creating Layer relu1_1
I0624 19:33:48.249212 22124 net.cpp:425] relu1_1 <- conv1_1
I0624 19:33:48.249217 22124 net.cpp:386] relu1_1 -> conv1_1 (in-place)
I0624 19:33:48.249438 22124 net.cpp:141] Setting up relu1_1
I0624 19:33:48.249447 22124 net.cpp:148] Top shape: 64 32 112 112 (25690112)
I0624 19:33:48.249449 22124 net.cpp:156] Memory required for data: 449577728
I0624 19:33:48.249452 22124 layer_factory.hpp:77] Creating layer conv1_2
I0624 19:33:48.249460 22124 net.cpp:91] Creating Layer conv1_2
I0624 19:33:48.249464 22124 net.cpp:425] conv1_2 <- conv1_1
I0624 19:33:48.249469 22124 net.cpp:399] conv1_2 -> conv1_2
I0624 19:33:48.253337 22124 net.cpp:141] Setting up conv1_2
I0624 19:33:48.253351 22124 net.cpp:148] Top shape: 64 32 112 112 (25690112)
I0624 19:33:48.253355 22124 net.cpp:156] Memory required for data: 552338176
I0624 19:33:48.253360 22124 layer_factory.hpp:77] Creating layer bn1_2
I0624 19:33:48.253368 22124 net.cpp:91] Creating Layer bn1_2
I0624 19:33:48.253371 22124 net.cpp:425] bn1_2 <- conv1_2
I0624 19:33:48.253376 22124 net.cpp:386] bn1_2 -> conv1_2 (in-place)
I0624 19:33:48.253546 22124 net.cpp:141] Setting up bn1_2
I0624 19:33:48.253554 22124 net.cpp:148] Top shape: 64 32 112 112 (25690112)
I0624 19:33:48.253556 22124 net.cpp:156] Memory required for data: 655098624
I0624 19:33:48.253564 22124 layer_factory.hpp:77] Creating layer scale1_2
I0624 19:33:48.253572 22124 net.cpp:91] Creating Layer scale1_2
I0624 19:33:48.253576 22124 net.cpp:425] scale1_2 <- conv1_2
I0624 19:33:48.253578 22124 net.cpp:386] scale1_2 -> conv1_2 (in-place)
I0624 19:33:48.253612 22124 layer_factory.hpp:77] Creating layer scale1_2
I0624 19:33:48.253741 22124 net.cpp:141] Setting up scale1_2
I0624 19:33:48.253752 22124 net.cpp:148] Top shape: 64 32 112 112 (25690112)
I0624 19:33:48.253756 22124 net.cpp:156] Memory required for data: 757859072
I0624 19:33:48.253764 22124 layer_factory.hpp:77] Creating layer relu1_2
I0624 19:33:48.253793 22124 net.cpp:91] Creating Layer relu1_2
I0624 19:33:48.253799 22124 net.cpp:425] relu1_2 <- conv1_2
I0624 19:33:48.253805 22124 net.cpp:386] relu1_2 -> conv1_2 (in-place)
I0624 19:33:48.254251 22124 net.cpp:141] Setting up relu1_2
I0624 19:33:48.254266 22124 net.cpp:148] Top shape: 64 32 112 112 (25690112)
I0624 19:33:48.254271 22124 net.cpp:156] Memory required for data: 860619520
I0624 19:33:48.254274 22124 layer_factory.hpp:77] Creating layer pool1
I0624 19:33:48.254286 22124 net.cpp:91] Creating Layer pool1
I0624 19:33:48.254307 22124 net.cpp:425] pool1 <- conv1_2
I0624 19:33:48.254317 22124 net.cpp:399] pool1 -> pool1
I0624 19:33:48.254366 22124 net.cpp:141] Setting up pool1
I0624 19:33:48.254376 22124 net.cpp:148] Top shape: 64 32 56 56 (6422528)
I0624 19:33:48.254380 22124 net.cpp:156] Memory required for data: 886309632
I0624 19:33:48.254384 22124 layer_factory.hpp:77] Creating layer conv2_1
I0624 19:33:48.254396 22124 net.cpp:91] Creating Layer conv2_1
I0624 19:33:48.254402 22124 net.cpp:425] conv2_1 <- pool1
I0624 19:33:48.254410 22124 net.cpp:399] conv2_1 -> conv2_1
I0624 19:33:48.255345 22124 net.cpp:141] Setting up conv2_1
I0624 19:33:48.255360 22124 net.cpp:148] Top shape: 64 64 56 56 (12845056)
I0624 19:33:48.255364 22124 net.cpp:156] Memory required for data: 937689856
I0624 19:33:48.255372 22124 layer_factory.hpp:77] Creating layer bn2_1
I0624 19:33:48.255383 22124 net.cpp:91] Creating Layer bn2_1
I0624 19:33:48.255389 22124 net.cpp:425] bn2_1 <- conv2_1
I0624 19:33:48.255398 22124 net.cpp:386] bn2_1 -> conv2_1 (in-place)
I0624 19:33:48.255573 22124 net.cpp:141] Setting up bn2_1
I0624 19:33:48.255584 22124 net.cpp:148] Top shape: 64 64 56 56 (12845056)
I0624 19:33:48.255604 22124 net.cpp:156] Memory required for data: 989070080
I0624 19:33:48.255615 22124 layer_factory.hpp:77] Creating layer scale2_1
I0624 19:33:48.255627 22124 net.cpp:91] Creating Layer scale2_1
I0624 19:33:48.255635 22124 net.cpp:425] scale2_1 <- conv2_1
I0624 19:33:48.255641 22124 net.cpp:386] scale2_1 -> conv2_1 (in-place)
I0624 19:33:48.255686 22124 layer_factory.hpp:77] Creating layer scale2_1
I0624 19:33:48.255798 22124 net.cpp:141] Setting up scale2_1
I0624 19:33:48.255808 22124 net.cpp:148] Top shape: 64 64 56 56 (12845056)
I0624 19:33:48.255812 22124 net.cpp:156] Memory required for data: 1040450304
I0624 19:33:48.255823 22124 layer_factory.hpp:77] Creating layer relu2_1
I0624 19:33:48.255834 22124 net.cpp:91] Creating Layer relu2_1
I0624 19:33:48.255839 22124 net.cpp:425] relu2_1 <- conv2_1
I0624 19:33:48.255847 22124 net.cpp:386] relu2_1 -> conv2_1 (in-place)
I0624 19:33:48.255987 22124 net.cpp:141] Setting up relu2_1
I0624 19:33:48.255996 22124 net.cpp:148] Top shape: 64 64 56 56 (12845056)
I0624 19:33:48.256000 22124 net.cpp:156] Memory required for data: 1091830528
I0624 19:33:48.256001 22124 layer_factory.hpp:77] Creating layer conv2_2
I0624 19:33:48.256011 22124 net.cpp:91] Creating Layer conv2_2
I0624 19:33:48.256012 22124 net.cpp:425] conv2_2 <- conv2_1
I0624 19:33:48.256016 22124 net.cpp:399] conv2_2 -> conv2_2
I0624 19:33:48.257036 22124 net.cpp:141] Setting up conv2_2
I0624 19:33:48.257048 22124 net.cpp:148] Top shape: 64 64 56 56 (12845056)
I0624 19:33:48.257051 22124 net.cpp:156] Memory required for data: 1143210752
I0624 19:33:48.257055 22124 layer_factory.hpp:77] Creating layer bn2_2
I0624 19:33:48.257063 22124 net.cpp:91] Creating Layer bn2_2
I0624 19:33:48.257066 22124 net.cpp:425] bn2_2 <- conv2_2
I0624 19:33:48.257071 22124 net.cpp:386] bn2_2 -> conv2_2 (in-place)
I0624 19:33:48.257228 22124 net.cpp:141] Setting up bn2_2
I0624 19:33:48.257236 22124 net.cpp:148] Top shape: 64 64 56 56 (12845056)
I0624 19:33:48.257238 22124 net.cpp:156] Memory required for data: 1194590976
I0624 19:33:48.257244 22124 layer_factory.hpp:77] Creating layer scale2_2
I0624 19:33:48.257251 22124 net.cpp:91] Creating Layer scale2_2
I0624 19:33:48.257253 22124 net.cpp:425] scale2_2 <- conv2_2
I0624 19:33:48.257256 22124 net.cpp:386] scale2_2 -> conv2_2 (in-place)
I0624 19:33:48.257295 22124 layer_factory.hpp:77] Creating layer scale2_2
I0624 19:33:48.257393 22124 net.cpp:141] Setting up scale2_2
I0624 19:33:48.257402 22124 net.cpp:148] Top shape: 64 64 56 56 (12845056)
I0624 19:33:48.257405 22124 net.cpp:156] Memory required for data: 1245971200
I0624 19:33:48.257408 22124 layer_factory.hpp:77] Creating layer relu2_2
I0624 19:33:48.257412 22124 net.cpp:91] Creating Layer relu2_2
I0624 19:33:48.257416 22124 net.cpp:425] relu2_2 <- conv2_2
I0624 19:33:48.257418 22124 net.cpp:386] relu2_2 -> conv2_2 (in-place)
I0624 19:33:48.257570 22124 net.cpp:141] Setting up relu2_2
I0624 19:33:48.257578 22124 net.cpp:148] Top shape: 64 64 56 56 (12845056)
I0624 19:33:48.257581 22124 net.cpp:156] Memory required for data: 1297351424
I0624 19:33:48.257583 22124 layer_factory.hpp:77] Creating layer pool2
I0624 19:33:48.257588 22124 net.cpp:91] Creating Layer pool2
I0624 19:33:48.257591 22124 net.cpp:425] pool2 <- conv2_2
I0624 19:33:48.257596 22124 net.cpp:399] pool2 -> pool2
I0624 19:33:48.257630 22124 net.cpp:141] Setting up pool2
I0624 19:33:48.257637 22124 net.cpp:148] Top shape: 64 64 28 28 (3211264)
I0624 19:33:48.257639 22124 net.cpp:156] Memory required for data: 1310196480
I0624 19:33:48.257642 22124 layer_factory.hpp:77] Creating layer conv3_1
I0624 19:33:48.257648 22124 net.cpp:91] Creating Layer conv3_1
I0624 19:33:48.257652 22124 net.cpp:425] conv3_1 <- pool2
I0624 19:33:48.257657 22124 net.cpp:399] conv3_1 -> conv3_1
I0624 19:33:48.260170 22124 net.cpp:141] Setting up conv3_1
I0624 19:33:48.260186 22124 net.cpp:148] Top shape: 64 128 28 28 (6422528)
I0624 19:33:48.260190 22124 net.cpp:156] Memory required for data: 1335886592
I0624 19:33:48.260193 22124 layer_factory.hpp:77] Creating layer bn3_1
I0624 19:33:48.260213 22124 net.cpp:91] Creating Layer bn3_1
I0624 19:33:48.260216 22124 net.cpp:425] bn3_1 <- conv3_1
I0624 19:33:48.260221 22124 net.cpp:386] bn3_1 -> conv3_1 (in-place)
I0624 19:33:48.260372 22124 net.cpp:141] Setting up bn3_1
I0624 19:33:48.260380 22124 net.cpp:148] Top shape: 64 128 28 28 (6422528)
I0624 19:33:48.260382 22124 net.cpp:156] Memory required for data: 1361576704
I0624 19:33:48.260388 22124 layer_factory.hpp:77] Creating layer scale3_1
I0624 19:33:48.260395 22124 net.cpp:91] Creating Layer scale3_1
I0624 19:33:48.260396 22124 net.cpp:425] scale3_1 <- conv3_1
I0624 19:33:48.260401 22124 net.cpp:386] scale3_1 -> conv3_1 (in-place)
I0624 19:33:48.260432 22124 layer_factory.hpp:77] Creating layer scale3_1
I0624 19:33:48.260520 22124 net.cpp:141] Setting up scale3_1
I0624 19:33:48.260529 22124 net.cpp:148] Top shape: 64 128 28 28 (6422528)
I0624 19:33:48.260531 22124 net.cpp:156] Memory required for data: 1387266816
I0624 19:33:48.260536 22124 layer_factory.hpp:77] Creating layer relu3_1
I0624 19:33:48.260540 22124 net.cpp:91] Creating Layer relu3_1
I0624 19:33:48.260542 22124 net.cpp:425] relu3_1 <- conv3_1
I0624 19:33:48.260545 22124 net.cpp:386] relu3_1 -> conv3_1 (in-place)
I0624 19:33:48.260690 22124 net.cpp:141] Setting up relu3_1
I0624 19:33:48.260699 22124 net.cpp:148] Top shape: 64 128 28 28 (6422528)
I0624 19:33:48.260701 22124 net.cpp:156] Memory required for data: 1412956928
I0624 19:33:48.260704 22124 layer_factory.hpp:77] Creating layer conv3_2
I0624 19:33:48.260713 22124 net.cpp:91] Creating Layer conv3_2
I0624 19:33:48.260715 22124 net.cpp:425] conv3_2 <- conv3_1
I0624 19:33:48.260720 22124 net.cpp:399] conv3_2 -> conv3_2
I0624 19:33:48.262691 22124 net.cpp:141] Setting up conv3_2
I0624 19:33:48.262706 22124 net.cpp:148] Top shape: 64 128 28 28 (6422528)
I0624 19:33:48.262712 22124 net.cpp:156] Memory required for data: 1438647040
I0624 19:33:48.262717 22124 layer_factory.hpp:77] Creating layer bn3_2
I0624 19:33:48.262727 22124 net.cpp:91] Creating Layer bn3_2
I0624 19:33:48.262753 22124 net.cpp:425] bn3_2 <- conv3_2
I0624 19:33:48.262766 22124 net.cpp:386] bn3_2 -> conv3_2 (in-place)
I0624 19:33:48.263010 22124 net.cpp:141] Setting up bn3_2
I0624 19:33:48.263020 22124 net.cpp:148] Top shape: 64 128 28 28 (6422528)
I0624 19:33:48.263022 22124 net.cpp:156] Memory required for data: 1464337152
I0624 19:33:48.263034 22124 layer_factory.hpp:77] Creating layer scale3_2
I0624 19:33:48.263041 22124 net.cpp:91] Creating Layer scale3_2
I0624 19:33:48.263043 22124 net.cpp:425] scale3_2 <- conv3_2
I0624 19:33:48.263047 22124 net.cpp:386] scale3_2 -> conv3_2 (in-place)
I0624 19:33:48.263083 22124 layer_factory.hpp:77] Creating layer scale3_2
I0624 19:33:48.263183 22124 net.cpp:141] Setting up scale3_2
I0624 19:33:48.263192 22124 net.cpp:148] Top shape: 64 128 28 28 (6422528)
I0624 19:33:48.263195 22124 net.cpp:156] Memory required for data: 1490027264
I0624 19:33:48.263198 22124 layer_factory.hpp:77] Creating layer relu3_2
I0624 19:33:48.263203 22124 net.cpp:91] Creating Layer relu3_2
I0624 19:33:48.263206 22124 net.cpp:425] relu3_2 <- conv3_2
I0624 19:33:48.263211 22124 net.cpp:386] relu3_2 -> conv3_2 (in-place)
I0624 19:33:48.263351 22124 net.cpp:141] Setting up relu3_2
I0624 19:33:48.263360 22124 net.cpp:148] Top shape: 64 128 28 28 (6422528)
I0624 19:33:48.263362 22124 net.cpp:156] Memory required for data: 1515717376
I0624 19:33:48.263365 22124 layer_factory.hpp:77] Creating layer pool3
I0624 19:33:48.263370 22124 net.cpp:91] Creating Layer pool3
I0624 19:33:48.263372 22124 net.cpp:425] pool3 <- conv3_2
I0624 19:33:48.263378 22124 net.cpp:399] pool3 -> pool3
I0624 19:33:48.263416 22124 net.cpp:141] Setting up pool3
I0624 19:33:48.263422 22124 net.cpp:148] Top shape: 64 128 14 14 (1605632)
I0624 19:33:48.263424 22124 net.cpp:156] Memory required for data: 1522139904
I0624 19:33:48.263427 22124 layer_factory.hpp:77] Creating layer conv4_1
I0624 19:33:48.263435 22124 net.cpp:91] Creating Layer conv4_1
I0624 19:33:48.263438 22124 net.cpp:425] conv4_1 <- pool3
I0624 19:33:48.263453 22124 net.cpp:399] conv4_1 -> conv4_1
I0624 19:33:48.266202 22124 net.cpp:141] Setting up conv4_1
I0624 19:33:48.266216 22124 net.cpp:148] Top shape: 64 256 14 14 (3211264)
I0624 19:33:48.266218 22124 net.cpp:156] Memory required for data: 1534984960
I0624 19:33:48.266222 22124 layer_factory.hpp:77] Creating layer bn4_1
I0624 19:33:48.266228 22124 net.cpp:91] Creating Layer bn4_1
I0624 19:33:48.266232 22124 net.cpp:425] bn4_1 <- conv4_1
I0624 19:33:48.266237 22124 net.cpp:386] bn4_1 -> conv4_1 (in-place)
I0624 19:33:48.266401 22124 net.cpp:141] Setting up bn4_1
I0624 19:33:48.266408 22124 net.cpp:148] Top shape: 64 256 14 14 (3211264)
I0624 19:33:48.266412 22124 net.cpp:156] Memory required for data: 1547830016
I0624 19:33:48.266417 22124 layer_factory.hpp:77] Creating layer scale4_1
I0624 19:33:48.266422 22124 net.cpp:91] Creating Layer scale4_1
I0624 19:33:48.266425 22124 net.cpp:425] scale4_1 <- conv4_1
I0624 19:33:48.266429 22124 net.cpp:386] scale4_1 -> conv4_1 (in-place)
I0624 19:33:48.266463 22124 layer_factory.hpp:77] Creating layer scale4_1
I0624 19:33:48.266551 22124 net.cpp:141] Setting up scale4_1
I0624 19:33:48.266559 22124 net.cpp:148] Top shape: 64 256 14 14 (3211264)
I0624 19:33:48.266561 22124 net.cpp:156] Memory required for data: 1560675072
I0624 19:33:48.266566 22124 layer_factory.hpp:77] Creating layer relu4_1
I0624 19:33:48.266573 22124 net.cpp:91] Creating Layer relu4_1
I0624 19:33:48.266577 22124 net.cpp:425] relu4_1 <- conv4_1
I0624 19:33:48.266579 22124 net.cpp:386] relu4_1 -> conv4_1 (in-place)
I0624 19:33:48.266724 22124 net.cpp:141] Setting up relu4_1
I0624 19:33:48.266732 22124 net.cpp:148] Top shape: 64 256 14 14 (3211264)
I0624 19:33:48.266734 22124 net.cpp:156] Memory required for data: 1573520128
I0624 19:33:48.266737 22124 layer_factory.hpp:77] Creating layer conv4_2
I0624 19:33:48.266746 22124 net.cpp:91] Creating Layer conv4_2
I0624 19:33:48.266748 22124 net.cpp:425] conv4_2 <- conv4_1
I0624 19:33:48.266753 22124 net.cpp:399] conv4_2 -> conv4_2
I0624 19:33:48.272547 22124 net.cpp:141] Setting up conv4_2
I0624 19:33:48.272567 22124 net.cpp:148] Top shape: 64 256 14 14 (3211264)
I0624 19:33:48.272569 22124 net.cpp:156] Memory required for data: 1586365184
I0624 19:33:48.272574 22124 layer_factory.hpp:77] Creating layer bn4_2
I0624 19:33:48.272583 22124 net.cpp:91] Creating Layer bn4_2
I0624 19:33:48.272586 22124 net.cpp:425] bn4_2 <- conv4_2
I0624 19:33:48.272593 22124 net.cpp:386] bn4_2 -> conv4_2 (in-place)
I0624 19:33:48.272763 22124 net.cpp:141] Setting up bn4_2
I0624 19:33:48.272770 22124 net.cpp:148] Top shape: 64 256 14 14 (3211264)
I0624 19:33:48.272773 22124 net.cpp:156] Memory required for data: 1599210240
I0624 19:33:48.272778 22124 layer_factory.hpp:77] Creating layer scale4_2
I0624 19:33:48.272785 22124 net.cpp:91] Creating Layer scale4_2
I0624 19:33:48.272788 22124 net.cpp:425] scale4_2 <- conv4_2
I0624 19:33:48.272791 22124 net.cpp:386] scale4_2 -> conv4_2 (in-place)
I0624 19:33:48.272827 22124 layer_factory.hpp:77] Creating layer scale4_2
I0624 19:33:48.272918 22124 net.cpp:141] Setting up scale4_2
I0624 19:33:48.272927 22124 net.cpp:148] Top shape: 64 256 14 14 (3211264)
I0624 19:33:48.272929 22124 net.cpp:156] Memory required for data: 1612055296
I0624 19:33:48.272933 22124 layer_factory.hpp:77] Creating layer relu4_2
I0624 19:33:48.272938 22124 net.cpp:91] Creating Layer relu4_2
I0624 19:33:48.272940 22124 net.cpp:425] relu4_2 <- conv4_2
I0624 19:33:48.272944 22124 net.cpp:386] relu4_2 -> conv4_2 (in-place)
I0624 19:33:48.273327 22124 net.cpp:141] Setting up relu4_2
I0624 19:33:48.273339 22124 net.cpp:148] Top shape: 64 256 14 14 (3211264)
I0624 19:33:48.273341 22124 net.cpp:156] Memory required for data: 1624900352
I0624 19:33:48.273344 22124 layer_factory.hpp:77] Creating layer pool4
I0624 19:33:48.273350 22124 net.cpp:91] Creating Layer pool4
I0624 19:33:48.273352 22124 net.cpp:425] pool4 <- conv4_2
I0624 19:33:48.273360 22124 net.cpp:399] pool4 -> pool4
I0624 19:33:48.273403 22124 net.cpp:141] Setting up pool4
I0624 19:33:48.273408 22124 net.cpp:148] Top shape: 64 256 7 7 (802816)
I0624 19:33:48.273423 22124 net.cpp:156] Memory required for data: 1628111616
I0624 19:33:48.273425 22124 layer_factory.hpp:77] Creating layer conv5_1
I0624 19:33:48.273434 22124 net.cpp:91] Creating Layer conv5_1
I0624 19:33:48.273437 22124 net.cpp:425] conv5_1 <- pool4
I0624 19:33:48.273442 22124 net.cpp:399] conv5_1 -> conv5_1
I0624 19:33:48.278909 22124 net.cpp:141] Setting up conv5_1
I0624 19:33:48.278924 22124 net.cpp:148] Top shape: 64 256 7 7 (802816)
I0624 19:33:48.278928 22124 net.cpp:156] Memory required for data: 1631322880
I0624 19:33:48.278931 22124 layer_factory.hpp:77] Creating layer bn5_1
I0624 19:33:48.278940 22124 net.cpp:91] Creating Layer bn5_1
I0624 19:33:48.278944 22124 net.cpp:425] bn5_1 <- conv5_1
I0624 19:33:48.278947 22124 net.cpp:386] bn5_1 -> conv5_1 (in-place)
I0624 19:33:48.279192 22124 net.cpp:141] Setting up bn5_1
I0624 19:33:48.279202 22124 net.cpp:148] Top shape: 64 256 7 7 (802816)
I0624 19:33:48.279206 22124 net.cpp:156] Memory required for data: 1634534144
I0624 19:33:48.279211 22124 layer_factory.hpp:77] Creating layer scale5_1
I0624 19:33:48.279219 22124 net.cpp:91] Creating Layer scale5_1
I0624 19:33:48.279222 22124 net.cpp:425] scale5_1 <- conv5_1
I0624 19:33:48.279227 22124 net.cpp:386] scale5_1 -> conv5_1 (in-place)
I0624 19:33:48.279263 22124 layer_factory.hpp:77] Creating layer scale5_1
I0624 19:33:48.279356 22124 net.cpp:141] Setting up scale5_1
I0624 19:33:48.279363 22124 net.cpp:148] Top shape: 64 256 7 7 (802816)
I0624 19:33:48.279366 22124 net.cpp:156] Memory required for data: 1637745408
I0624 19:33:48.279369 22124 layer_factory.hpp:77] Creating layer relu5_1
I0624 19:33:48.279376 22124 net.cpp:91] Creating Layer relu5_1
I0624 19:33:48.279378 22124 net.cpp:425] relu5_1 <- conv5_1
I0624 19:33:48.279381 22124 net.cpp:386] relu5_1 -> conv5_1 (in-place)
I0624 19:33:48.279533 22124 net.cpp:141] Setting up relu5_1
I0624 19:33:48.279542 22124 net.cpp:148] Top shape: 64 256 7 7 (802816)
I0624 19:33:48.279544 22124 net.cpp:156] Memory required for data: 1640956672
I0624 19:33:48.279547 22124 layer_factory.hpp:77] Creating layer conv5_2
I0624 19:33:48.279556 22124 net.cpp:91] Creating Layer conv5_2
I0624 19:33:48.279558 22124 net.cpp:425] conv5_2 <- conv5_1
I0624 19:33:48.279562 22124 net.cpp:399] conv5_2 -> conv5_2
I0624 19:33:48.285295 22124 net.cpp:141] Setting up conv5_2
I0624 19:33:48.285311 22124 net.cpp:148] Top shape: 64 256 7 7 (802816)
I0624 19:33:48.285315 22124 net.cpp:156] Memory required for data: 1644167936
I0624 19:33:48.285320 22124 layer_factory.hpp:77] Creating layer bn5_2
I0624 19:33:48.285328 22124 net.cpp:91] Creating Layer bn5_2
I0624 19:33:48.285331 22124 net.cpp:425] bn5_2 <- conv5_2
I0624 19:33:48.285337 22124 net.cpp:386] bn5_2 -> conv5_2 (in-place)
I0624 19:33:48.285516 22124 net.cpp:141] Setting up bn5_2
I0624 19:33:48.285523 22124 net.cpp:148] Top shape: 64 256 7 7 (802816)
I0624 19:33:48.285526 22124 net.cpp:156] Memory required for data: 1647379200
I0624 19:33:48.285531 22124 layer_factory.hpp:77] Creating layer scale5_2
I0624 19:33:48.285538 22124 net.cpp:91] Creating Layer scale5_2
I0624 19:33:48.285540 22124 net.cpp:425] scale5_2 <- conv5_2
I0624 19:33:48.285545 22124 net.cpp:386] scale5_2 -> conv5_2 (in-place)
I0624 19:33:48.285580 22124 layer_factory.hpp:77] Creating layer scale5_2
I0624 19:33:48.285677 22124 net.cpp:141] Setting up scale5_2
I0624 19:33:48.285684 22124 net.cpp:148] Top shape: 64 256 7 7 (802816)
I0624 19:33:48.285686 22124 net.cpp:156] Memory required for data: 1650590464
I0624 19:33:48.285691 22124 layer_factory.hpp:77] Creating layer relu5_2
I0624 19:33:48.285696 22124 net.cpp:91] Creating Layer relu5_2
I0624 19:33:48.285698 22124 net.cpp:425] relu5_2 <- conv5_2
I0624 19:33:48.285702 22124 net.cpp:386] relu5_2 -> conv5_2 (in-place)
I0624 19:33:48.285853 22124 net.cpp:141] Setting up relu5_2
I0624 19:33:48.285861 22124 net.cpp:148] Top shape: 64 256 7 7 (802816)
I0624 19:33:48.285864 22124 net.cpp:156] Memory required for data: 1653801728
I0624 19:33:48.285867 22124 layer_factory.hpp:77] Creating layer pool5
I0624 19:33:48.285887 22124 net.cpp:91] Creating Layer pool5
I0624 19:33:48.285889 22124 net.cpp:425] pool5 <- conv5_2
I0624 19:33:48.285893 22124 net.cpp:399] pool5 -> pool5
I0624 19:33:48.286056 22124 net.cpp:141] Setting up pool5
I0624 19:33:48.286065 22124 net.cpp:148] Top shape: 64 256 1 1 (16384)
I0624 19:33:48.286068 22124 net.cpp:156] Memory required for data: 1653867264
I0624 19:33:48.286072 22124 layer_factory.hpp:77] Creating layer fc2
I0624 19:33:48.286077 22124 net.cpp:91] Creating Layer fc2
I0624 19:33:48.286079 22124 net.cpp:425] fc2 <- pool5
I0624 19:33:48.286084 22124 net.cpp:399] fc2 -> fc2
I0624 19:33:48.286187 22124 net.cpp:141] Setting up fc2
I0624 19:33:48.286195 22124 net.cpp:148] Top shape: 64 2 (128)
I0624 19:33:48.286196 22124 net.cpp:156] Memory required for data: 1653867776
I0624 19:33:48.286201 22124 layer_factory.hpp:77] Creating layer fc2_fc2_0_split
I0624 19:33:48.286206 22124 net.cpp:91] Creating Layer fc2_fc2_0_split
I0624 19:33:48.286211 22124 net.cpp:425] fc2_fc2_0_split <- fc2
I0624 19:33:48.286216 22124 net.cpp:399] fc2_fc2_0_split -> fc2_fc2_0_split_0
I0624 19:33:48.286221 22124 net.cpp:399] fc2_fc2_0_split -> fc2_fc2_0_split_1
I0624 19:33:48.286250 22124 net.cpp:141] Setting up fc2_fc2_0_split
I0624 19:33:48.286254 22124 net.cpp:148] Top shape: 64 2 (128)
I0624 19:33:48.286257 22124 net.cpp:148] Top shape: 64 2 (128)
I0624 19:33:48.286259 22124 net.cpp:156] Memory required for data: 1653868800
I0624 19:33:48.286262 22124 layer_factory.hpp:77] Creating layer loss
I0624 19:33:48.286267 22124 net.cpp:91] Creating Layer loss
I0624 19:33:48.286269 22124 net.cpp:425] loss <- fc2_fc2_0_split_0
I0624 19:33:48.286273 22124 net.cpp:425] loss <- label_data_1_split_0
I0624 19:33:48.286275 22124 net.cpp:399] loss -> loss
…
