…
I0624 16:39:49.381454 21152 solver.cpp:91] Creating training net from net file: models/bpnet/train_val.prototxt
I0624 16:39:49.382294 21152 net.cpp:313] The NetState phase (0) differed from the phase (1) specified by a rule in layer data
I0624 16:39:49.382525 21152 net.cpp:49] Initializing net from parameters: 
name: "BPnet"
state {
  phase: TRAIN
}
layer {
  name: "data"
  type: "Data"
  top: "data"
  top: "label"
  include {
    phase: TRAIN
  }
  transform_param {
    mirror: false
    crop_size: 224
    mean_value: 100
    contrast_jitter_range: 0.1
  }
  data_param {
    source: "data/train_lmdb"
    batch_size: 64
    backend: LMDB
  }
}
layer {
  name: "conv1_1"
  type: "Convolution"
  bottom: "data"
  top: "conv1_1"
  param {
    lr_mult: 1
    decay_mult: 1
  }
  convolution_param {
    num_output: 32
    bias_term: false
    pad: 3
    kernel_size: 7
    stride: 2
    weight_filler {
      type: "xavier"
    }
  }
}
layer {
  name: "bn1_1"
  type: "BatchNorm"
  bottom: "conv1_1"
  top: "conv1_1"
  param {
    lr_mult: 0
  }
  param {
    lr_mult: 0
  }
  param {
    lr_mult: 0
  }
  batch_norm_param {
    use_global_stats: false
  }
}
layer {
  name: "scale1_1"
  type: "Scale"
  bottom: "conv1_1"
  top: "conv1_1"
  param {
    lr_mult: 1
    decay_mult: 1
  }
  param {
    lr_mult: 1
    decay_mult: 1
  }
  scale_param {
    bias_term: true
    bias_filler {
      type: "constant"
      value: 0
    }
  }
}
layer {
  name: "relu1_1"
  type: "ReLU"
  bottom: "conv1_1"
  top: "conv1_1"
}
layer {
  name: "conv1_2"
  type: "Convolution"
  bottom: "conv1_1"
  top: "conv1_2"
  param {
    lr_mult: 1
    decay_mult: 1
  }
  convolution_param {
    num_output: 32
    bias_term: false
    pad: 1
    kernel_size: 3
    weight_filler {
      type: "xavier"
    }
  }
}
layer {
  name: "bn1_2"
  type: "BatchNorm"
  bottom: "conv1_2"
  top: "conv1_2"
  param {
    lr_mult: 0
  }
  param {
    lr_mult: 0
  }
  param {
    lr_mult: 0
  }
  batch_norm_param {
    use_global_stats: false
  }
}
layer {
  name: "scale1_2"
  type: "Scale"
  bottom: "conv1_2"
  top: "conv1_2"
  param {
    lr_mult: 1
    decay_mult: 1
  }
  param {
    lr_mult: 1
    decay_mult: 1
  }
  scale_param {
    bias_term: true
    bias_filler {
      type: "constant"
      value: 0
    }
  }
}
layer {
  name: "relu1_2"
  type: "ReLU"
  bottom: "conv1_2"
  top: "conv1_2"
}
layer {
  name: "pool1"
  type: "Pooling"
  bottom: "conv1_2"
  top: "pool1"
  pooling_param {
    pool: MAX
    kernel_size: 2
    stride: 2
  }
}
layer {
  name: "conv2_1"
  type: "Convolution"
  bottom: "pool1"
  top: "conv2_1"
  param {
    lr_mult: 1
    decay_mult: 1
  }
  convolution_param {
    num_output: 64
    bias_term: false
    pad: 1
    kernel_size: 3
    weight_filler {
      type: "xavier"
    }
  }
}
layer {
  name: "bn2_1"
  type: "BatchNorm"
  bottom: "conv2_1"
  top: "conv2_1"
  param {
    lr_mult: 0
  }
  param {
    lr_mult: 0
  }
  param {
    lr_mult: 0
  }
  batch_norm_param {
    use_global_stats: false
  }
}
layer {
  name: "scale2_1"
  type: "Scale"
  bottom: "conv2_1"
  top: "conv2_1"
  param {
    lr_mult: 1
    decay_mult: 1
  }
  param {
    lr_mult: 1
    decay_mult: 1
  }
  scale_param {
    bias_term: true
    bias_filler {
      type: "constant"
      value: 0
    }
  }
}
layer {
  name: "relu2_1"
  type: "ReLU"
  bottom: "conv2_1"
  top: "conv2_1"
}
layer {
  name: "conv2_2"
  type: "Convolution"
  bottom: "conv2_1"
  top: "conv2_2"
  param {
    lr_mult: 1
    decay_mult: 1
  }
  convolution_param {
    num_output: 64
    bias_term: false
    pad: 1
    kernel_size: 3
    weight_filler {
      type: "xavier"
    }
  }
}
layer {
  name: "bn2_2"
  type: "BatchNorm"
  bottom: "conv2_2"
  top: "conv2_2"
  param {
    lr_mult: 0
  }
  param {
    lr_mult: 0
  }
  param {
    lr_mult: 0
  }
  batch_norm_param {
    use_global_stats: false
  }
}
layer {
  name: "scale2_2"
  type: "Scale"
  bottom: "conv2_2"
  top: "conv2_2"
  param {
    lr_mult: 1
    decay_mult: 1
  }
  param {
    lr_mult: 1
    decay_mult: 1
  }
  scale_param {
    bias_term: true
    bias_filler {
      type: "constant"
      value: 0
    }
  }
}
layer {
  name: "relu2_2"
  type: "ReLU"
  bottom: "conv2_2"
  top: "conv2_2"
}
layer {
  name: "pool2"
  type: "Pooling"
  bottom: "conv2_2"
  top: "pool2"
  pooling_param {
    pool: MAX
    kernel_size: 2
    stride: 2
  }
}
layer {
  name: "conv3_1"
  type: "Convolution"
  bottom: "pool2"
  top: "conv3_1"
  param {
    lr_mult: 1
    decay_mult: 1
  }
  convolution_param {
    num_output: 128
    bias_term: false
    pad: 1
    kernel_size: 3
    weight_filler {
      type: "xavier"
    }
  }
}
layer {
  name: "bn3_1"
  type: "BatchNorm"
  bottom: "conv3_1"
  top: "conv3_1"
  param {
    lr_mult: 0
  }
  param {
    lr_mult: 0
  }
  param {
    lr_mult: 0
  }
  batch_norm_param {
    use_global_stats: false
  }
}
layer {
  name: "scale3_1"
  type: "Scale"
  bottom: "conv3_1"
  top: "conv3_1"
  param {
    lr_mult: 1
    decay_mult: 1
  }
  param {
    lr_mult: 1
    decay_mult: 1
  }
  scale_param {
    bias_term: true
    bias_filler {
      type: "constant"
      value: 0
    }
  }
}
layer {
  name: "relu3_1"
  type: "ReLU"
  bottom: "conv3_1"
  top: "conv3_1"
}
layer {
  name: "conv3_2"
  type: "Convolution"
  bottom: "conv3_1"
  top: "conv3_2"
  param {
    lr_mult: 1
    decay_mult: 1
  }
  convolution_param {
    num_output: 128
    bias_term: false
    pad: 1
    kernel_size: 3
    weight_filler {
      type: "xavier"
    }
  }
}
layer {
  name: "bn3_2"
  type: "BatchNorm"
  bottom: "conv3_2"
  top: "conv3_2"
  param {
    lr_mult: 0
  }
  param {
    lr_mult: 0
  }
  param {
    lr_mult: 0
  }
  batch_norm_param {
    use_global_stats: false
  }
}
layer {
  name: "scale3_2"
  type: "Scale"
  bottom: "conv3_2"
  top: "conv3_2"
  param {
    lr_mult: 1
    decay_mult: 1
  }
  param {
    lr_mult: 1
    decay_mult: 1
  }
  scale_param {
    bias_term: true
    bias_filler {
      type: "constant"
      value: 0
    }
  }
}
layer {
  name: "relu3_2"
  type: "ReLU"
  bottom: "conv3_2"
  top: "conv3_2"
}
layer {
  name: "pool3"
  type: "Pooling"
  bottom: "conv3_2"
  top: "pool3"
  pooling_param {
    pool: MAX
    kernel_size: 2
    stride: 2
  }
}
layer {
  name: "conv4_1"
  type: "Convolution"
  bottom: "pool3"
  top: "conv4_1"
  param {
    lr_mult: 1
    decay_mult: 1
  }
  convolution_param {
    num_output: 256
    bias_term: false
    pad: 1
    kernel_size: 3
    weight_filler {
      type: "xavier"
    }
  }
}
layer {
  name: "bn4_1"
  type: "BatchNorm"
  bottom: "conv4_1"
  top: "conv4_1"
  param {
    lr_mult: 0
  }
  param {
    lr_mult: 0
  }
  param {
    lr_mult: 0
  }
  batch_norm_param {
    use_global_stats: false
  }
}
layer {
  name: "scale4_1"
  type: "Scale"
  bottom: "conv4_1"
  top: "conv4_1"
  param {
    lr_mult: 1
    decay_mult: 1
  }
  param {
    lr_mult: 1
    decay_mult: 1
  }
  scale_param {
    bias_term: true
    bias_filler {
      type: "constant"
      value: 0
    }
  }
}
layer {
  name: "relu4_1"
  type: "ReLU"
  bottom: "conv4_1"
  top: "conv4_1"
}
layer {
  name: "conv4_2"
  type: "Convolution"
  bottom: "conv4_1"
  top: "conv4_2"
  param {
    lr_mult: 1
    decay_mult: 1
  }
  convolution_param {
    num_output: 256
    bias_term: false
    pad: 1
    kernel_size: 3
    weight_filler {
      type: "xavier"
    }
  }
}
layer {
  name: "bn4_2"
  type: "BatchNorm"
  bottom: "conv4_2"
  top: "conv4_2"
  param {
    lr_mult: 0
  }
  param {
    lr_mult: 0
  }
  param {
    lr_mult: 0
  }
  batch_norm_param {
    use_global_stats: false
  }
}
layer {
  name: "scale4_2"
  type: "Scale"
  bottom: "conv4_2"
  top: "conv4_2"
  param {
    lr_mult: 1
    decay_mult: 1
  }
  param {
    lr_mult: 1
    decay_mult: 1
  }
  scale_param {
    bias_term: true
    bias_filler {
      type: "constant"
      value: 0
    }
  }
}
layer {
  name: "relu4_2"
  type: "ReLU"
  bottom: "conv4_2"
  top: "conv4_2"
}
layer {
  name: "pool4"
  type: "Pooling"
  bottom: "conv4_2"
  top: "pool4"
  pooling_param {
    pool: MAX
    kernel_size: 2
    stride: 2
  }
}
layer {
  name: "conv5_1"
  type: "Convolution"
  bottom: "pool4"
  top: "conv5_1"
  param {
    lr_mult: 1
    decay_mult: 1
  }
  convolution_param {
    num_output: 256
    bias_term: false
    pad: 1
    kernel_size: 3
    weight_filler {
      type: "xavier"
    }
  }
}
layer {
  name: "bn5_1"
  type: "BatchNorm"
  bottom: "conv5_1"
  top: "conv5_1"
  param {
    lr_mult: 0
  }
  param {
    lr_mult: 0
  }
  param {
    lr_mult: 0
  }
  batch_norm_param {
    use_global_stats: false
  }
}
layer {
  name: "scale5_1"
  type: "Scale"
  bottom: "conv5_1"
  top: "conv5_1"
  param {
    lr_mult: 1
    decay_mult: 1
  }
  param {
    lr_mult: 1
    decay_mult: 1
  }
  scale_param {
    bias_term: true
    bias_filler {
      type: "constant"
      value: 0
    }
  }
}
layer {
  name: "relu5_1"
  type: "ReLU"
  bottom: "conv5_1"
  top: "conv5_1"
}
layer {
  name: "conv5_2"
  type: "Convolution"
  bottom: "conv5_1"
  top: "conv5_2"
  param {
    lr_mult: 1
    decay_mult: 1
  }
  convolution_param {
    num_output: 256
    bias_term: false
    pad: 1
    kernel_size: 3
    weight_filler {
      type: "xavier"
    }
  }
}
layer {
  name: "bn5_2"
  type: "BatchNorm"
  bottom: "conv5_2"
  top: "conv5_2"
  param {
    lr_mult: 0
  }
  param {
    lr_mult: 0
  }
  param {
    lr_mult: 0
  }
  batch_norm_param {
    use_global_stats: false
  }
}
layer {
  name: "scale5_2"
  type: "Scale"
  bottom: "conv5_2"
  top: "conv5_2"
  param {
    lr_mult: 1
    decay_mult: 1
  }
  param {
    lr_mult: 1
    decay_mult: 1
  }
  scale_param {
    bias_term: true
    bias_filler {
      type: "constant"
      value: 0
    }
  }
}
layer {
  name: "relu5_2"
  type: "ReLU"
  bottom: "conv5_2"
  top: "conv5_2"
}
layer {
  name: "pool5"
  type: "Pooling"
  bottom: "conv5_2"
  top: "pool5"
  pooling_param {
    pool: AVE
    kernel_size: 7
    stride: 1
  }
}
layer {
  name: "fc2"
  type: "InnerProduct"
  bottom: "pool5"
  top: "fc2"
  inner_product_param {
    num_output: 2
  }
}
layer {
  name: "loss"
  type: "SoftmaxWithLoss"
  bottom: "fc2"
  bottom: "label"
  top: "loss"
}
layer {
  name: "accuracy"
  type: "Accuracy"
  bottom: "fc2"
  bottom: "label"
  top: "accuracy"
}
I0624 16:39:49.382694 21152 layer_factory.hpp:77] Creating layer data
I0624 16:39:49.383116 21152 net.cpp:91] Creating Layer data
I0624 16:39:49.383126 21152 net.cpp:399] data -> data
I0624 16:39:49.383154 21152 net.cpp:399] data -> label
I0624 16:39:49.384496 21156 db_lmdb.cpp:35] Opened lmdb data/train_lmdb
I0624 16:39:49.409174 21152 data_layer.cpp:42] output data size: 64,3,224,224
I0624 16:39:49.487058 21152 net.cpp:141] Setting up data
I0624 16:39:49.487088 21152 net.cpp:148] Top shape: 64 3 224 224 (9633792)
I0624 16:39:49.487093 21152 net.cpp:148] Top shape: 64 (64)
I0624 16:39:49.487095 21152 net.cpp:156] Memory required for data: 38535424
I0624 16:39:49.487104 21152 layer_factory.hpp:77] Creating layer label_data_1_split
I0624 16:39:49.487120 21152 net.cpp:91] Creating Layer label_data_1_split
I0624 16:39:49.487125 21152 net.cpp:425] label_data_1_split <- label
I0624 16:39:49.487135 21152 net.cpp:399] label_data_1_split -> label_data_1_split_0
I0624 16:39:49.487143 21152 net.cpp:399] label_data_1_split -> label_data_1_split_1
I0624 16:39:49.487206 21152 net.cpp:141] Setting up label_data_1_split
I0624 16:39:49.487213 21152 net.cpp:148] Top shape: 64 (64)
I0624 16:39:49.487216 21152 net.cpp:148] Top shape: 64 (64)
I0624 16:39:49.487218 21152 net.cpp:156] Memory required for data: 38535936
I0624 16:39:49.487221 21152 layer_factory.hpp:77] Creating layer conv1_1
I0624 16:39:49.487236 21152 net.cpp:91] Creating Layer conv1_1
I0624 16:39:49.487239 21152 net.cpp:425] conv1_1 <- data
I0624 16:39:49.487244 21152 net.cpp:399] conv1_1 -> conv1_1
I0624 16:39:49.738100 21152 net.cpp:141] Setting up conv1_1
I0624 16:39:49.738127 21152 net.cpp:148] Top shape: 64 32 112 112 (25690112)
I0624 16:39:49.738132 21152 net.cpp:156] Memory required for data: 141296384
I0624 16:39:49.738144 21152 layer_factory.hpp:77] Creating layer bn1_1
I0624 16:39:49.738157 21152 net.cpp:91] Creating Layer bn1_1
I0624 16:39:49.738162 21152 net.cpp:425] bn1_1 <- conv1_1
I0624 16:39:49.738167 21152 net.cpp:386] bn1_1 -> conv1_1 (in-place)
I0624 16:39:49.738343 21152 net.cpp:141] Setting up bn1_1
I0624 16:39:49.738353 21152 net.cpp:148] Top shape: 64 32 112 112 (25690112)
I0624 16:39:49.738355 21152 net.cpp:156] Memory required for data: 244056832
I0624 16:39:49.738365 21152 layer_factory.hpp:77] Creating layer scale1_1
I0624 16:39:49.738375 21152 net.cpp:91] Creating Layer scale1_1
I0624 16:39:49.738379 21152 net.cpp:425] scale1_1 <- conv1_1
I0624 16:39:49.738382 21152 net.cpp:386] scale1_1 -> conv1_1 (in-place)
I0624 16:39:49.738423 21152 layer_factory.hpp:77] Creating layer scale1_1
I0624 16:39:49.738529 21152 net.cpp:141] Setting up scale1_1
I0624 16:39:49.738538 21152 net.cpp:148] Top shape: 64 32 112 112 (25690112)
I0624 16:39:49.738540 21152 net.cpp:156] Memory required for data: 346817280
I0624 16:39:49.738548 21152 layer_factory.hpp:77] Creating layer relu1_1
I0624 16:39:49.738554 21152 net.cpp:91] Creating Layer relu1_1
I0624 16:39:49.738557 21152 net.cpp:425] relu1_1 <- conv1_1
I0624 16:39:49.738561 21152 net.cpp:386] relu1_1 -> conv1_1 (in-place)
I0624 16:39:49.738708 21152 net.cpp:141] Setting up relu1_1
I0624 16:39:49.738718 21152 net.cpp:148] Top shape: 64 32 112 112 (25690112)
I0624 16:39:49.738721 21152 net.cpp:156] Memory required for data: 449577728
I0624 16:39:49.738724 21152 layer_factory.hpp:77] Creating layer conv1_2
I0624 16:39:49.738734 21152 net.cpp:91] Creating Layer conv1_2
I0624 16:39:49.738735 21152 net.cpp:425] conv1_2 <- conv1_1
I0624 16:39:49.738741 21152 net.cpp:399] conv1_2 -> conv1_2
I0624 16:39:49.739609 21152 net.cpp:141] Setting up conv1_2
I0624 16:39:49.739624 21152 net.cpp:148] Top shape: 64 32 112 112 (25690112)
I0624 16:39:49.739626 21152 net.cpp:156] Memory required for data: 552338176
I0624 16:39:49.739631 21152 layer_factory.hpp:77] Creating layer bn1_2
I0624 16:39:49.739639 21152 net.cpp:91] Creating Layer bn1_2
I0624 16:39:49.739641 21152 net.cpp:425] bn1_2 <- conv1_2
I0624 16:39:49.739646 21152 net.cpp:386] bn1_2 -> conv1_2 (in-place)
I0624 16:39:49.739805 21152 net.cpp:141] Setting up bn1_2
I0624 16:39:49.739814 21152 net.cpp:148] Top shape: 64 32 112 112 (25690112)
I0624 16:39:49.739816 21152 net.cpp:156] Memory required for data: 655098624
I0624 16:39:49.739825 21152 layer_factory.hpp:77] Creating layer scale1_2
I0624 16:39:49.739833 21152 net.cpp:91] Creating Layer scale1_2
I0624 16:39:49.739836 21152 net.cpp:425] scale1_2 <- conv1_2
I0624 16:39:49.739840 21152 net.cpp:386] scale1_2 -> conv1_2 (in-place)
I0624 16:39:49.739872 21152 layer_factory.hpp:77] Creating layer scale1_2
I0624 16:39:49.739976 21152 net.cpp:141] Setting up scale1_2
I0624 16:39:49.739984 21152 net.cpp:148] Top shape: 64 32 112 112 (25690112)
I0624 16:39:49.739987 21152 net.cpp:156] Memory required for data: 757859072
I0624 16:39:49.739992 21152 layer_factory.hpp:77] Creating layer relu1_2
I0624 16:39:49.739997 21152 net.cpp:91] Creating Layer relu1_2
I0624 16:39:49.740000 21152 net.cpp:425] relu1_2 <- conv1_2
I0624 16:39:49.740005 21152 net.cpp:386] relu1_2 -> conv1_2 (in-place)
I0624 16:39:49.740144 21152 net.cpp:141] Setting up relu1_2
I0624 16:39:49.740152 21152 net.cpp:148] Top shape: 64 32 112 112 (25690112)
I0624 16:39:49.740155 21152 net.cpp:156] Memory required for data: 860619520
I0624 16:39:49.740159 21152 layer_factory.hpp:77] Creating layer pool1
I0624 16:39:49.740164 21152 net.cpp:91] Creating Layer pool1
I0624 16:39:49.740167 21152 net.cpp:425] pool1 <- conv1_2
I0624 16:39:49.740171 21152 net.cpp:399] pool1 -> pool1
I0624 16:39:49.740221 21152 net.cpp:141] Setting up pool1
I0624 16:39:49.740226 21152 net.cpp:148] Top shape: 64 32 56 56 (6422528)
I0624 16:39:49.740247 21152 net.cpp:156] Memory required for data: 886309632
I0624 16:39:49.740249 21152 layer_factory.hpp:77] Creating layer conv2_1
I0624 16:39:49.740257 21152 net.cpp:91] Creating Layer conv2_1
I0624 16:39:49.740260 21152 net.cpp:425] conv2_1 <- pool1
I0624 16:39:49.740265 21152 net.cpp:399] conv2_1 -> conv2_1
I0624 16:39:49.742383 21152 net.cpp:141] Setting up conv2_1
I0624 16:39:49.742398 21152 net.cpp:148] Top shape: 64 64 56 56 (12845056)
I0624 16:39:49.742400 21152 net.cpp:156] Memory required for data: 937689856
I0624 16:39:49.742405 21152 layer_factory.hpp:77] Creating layer bn2_1
I0624 16:39:49.742413 21152 net.cpp:91] Creating Layer bn2_1
I0624 16:39:49.742415 21152 net.cpp:425] bn2_1 <- conv2_1
I0624 16:39:49.742420 21152 net.cpp:386] bn2_1 -> conv2_1 (in-place)
I0624 16:39:49.743772 21152 net.cpp:141] Setting up bn2_1
I0624 16:39:49.743784 21152 net.cpp:148] Top shape: 64 64 56 56 (12845056)
I0624 16:39:49.743788 21152 net.cpp:156] Memory required for data: 989070080
I0624 16:39:49.743794 21152 layer_factory.hpp:77] Creating layer scale2_1
I0624 16:39:49.743801 21152 net.cpp:91] Creating Layer scale2_1
I0624 16:39:49.743804 21152 net.cpp:425] scale2_1 <- conv2_1
I0624 16:39:49.743809 21152 net.cpp:386] scale2_1 -> conv2_1 (in-place)
I0624 16:39:49.743844 21152 layer_factory.hpp:77] Creating layer scale2_1
I0624 16:39:49.743935 21152 net.cpp:141] Setting up scale2_1
I0624 16:39:49.743942 21152 net.cpp:148] Top shape: 64 64 56 56 (12845056)
I0624 16:39:49.743945 21152 net.cpp:156] Memory required for data: 1040450304
I0624 16:39:49.743952 21152 layer_factory.hpp:77] Creating layer relu2_1
I0624 16:39:49.743957 21152 net.cpp:91] Creating Layer relu2_1
I0624 16:39:49.743960 21152 net.cpp:425] relu2_1 <- conv2_1
I0624 16:39:49.743964 21152 net.cpp:386] relu2_1 -> conv2_1 (in-place)
I0624 16:39:49.744338 21152 net.cpp:141] Setting up relu2_1
I0624 16:39:49.744351 21152 net.cpp:148] Top shape: 64 64 56 56 (12845056)
I0624 16:39:49.744354 21152 net.cpp:156] Memory required for data: 1091830528
I0624 16:39:49.744359 21152 layer_factory.hpp:77] Creating layer conv2_2
I0624 16:39:49.744366 21152 net.cpp:91] Creating Layer conv2_2
I0624 16:39:49.744369 21152 net.cpp:425] conv2_2 <- conv2_1
I0624 16:39:49.744374 21152 net.cpp:399] conv2_2 -> conv2_2
I0624 16:39:49.745136 21152 net.cpp:141] Setting up conv2_2
I0624 16:39:49.745147 21152 net.cpp:148] Top shape: 64 64 56 56 (12845056)
I0624 16:39:49.745151 21152 net.cpp:156] Memory required for data: 1143210752
I0624 16:39:49.745154 21152 layer_factory.hpp:77] Creating layer bn2_2
I0624 16:39:49.745162 21152 net.cpp:91] Creating Layer bn2_2
I0624 16:39:49.745167 21152 net.cpp:425] bn2_2 <- conv2_2
I0624 16:39:49.745170 21152 net.cpp:386] bn2_2 -> conv2_2 (in-place)
I0624 16:39:49.745316 21152 net.cpp:141] Setting up bn2_2
I0624 16:39:49.745324 21152 net.cpp:148] Top shape: 64 64 56 56 (12845056)
I0624 16:39:49.745326 21152 net.cpp:156] Memory required for data: 1194590976
I0624 16:39:49.745332 21152 layer_factory.hpp:77] Creating layer scale2_2
I0624 16:39:49.745338 21152 net.cpp:91] Creating Layer scale2_2
I0624 16:39:49.745342 21152 net.cpp:425] scale2_2 <- conv2_2
I0624 16:39:49.745345 21152 net.cpp:386] scale2_2 -> conv2_2 (in-place)
I0624 16:39:49.745376 21152 layer_factory.hpp:77] Creating layer scale2_2
I0624 16:39:49.745465 21152 net.cpp:141] Setting up scale2_2
I0624 16:39:49.745471 21152 net.cpp:148] Top shape: 64 64 56 56 (12845056)
I0624 16:39:49.745474 21152 net.cpp:156] Memory required for data: 1245971200
I0624 16:39:49.745479 21152 layer_factory.hpp:77] Creating layer relu2_2
I0624 16:39:49.745483 21152 net.cpp:91] Creating Layer relu2_2
I0624 16:39:49.745486 21152 net.cpp:425] relu2_2 <- conv2_2
I0624 16:39:49.745491 21152 net.cpp:386] relu2_2 -> conv2_2 (in-place)
I0624 16:39:49.745857 21152 net.cpp:141] Setting up relu2_2
I0624 16:39:49.745870 21152 net.cpp:148] Top shape: 64 64 56 56 (12845056)
I0624 16:39:49.745873 21152 net.cpp:156] Memory required for data: 1297351424
I0624 16:39:49.745877 21152 layer_factory.hpp:77] Creating layer pool2
I0624 16:39:49.745893 21152 net.cpp:91] Creating Layer pool2
I0624 16:39:49.745898 21152 net.cpp:425] pool2 <- conv2_2
I0624 16:39:49.745903 21152 net.cpp:399] pool2 -> pool2
I0624 16:39:49.745940 21152 net.cpp:141] Setting up pool2
I0624 16:39:49.745949 21152 net.cpp:148] Top shape: 64 64 28 28 (3211264)
I0624 16:39:49.745951 21152 net.cpp:156] Memory required for data: 1310196480
I0624 16:39:49.745954 21152 layer_factory.hpp:77] Creating layer conv3_1
I0624 16:39:49.745960 21152 net.cpp:91] Creating Layer conv3_1
I0624 16:39:49.745964 21152 net.cpp:425] conv3_1 <- pool2
I0624 16:39:49.745968 21152 net.cpp:399] conv3_1 -> conv3_1
I0624 16:39:49.748580 21152 net.cpp:141] Setting up conv3_1
I0624 16:39:49.748595 21152 net.cpp:148] Top shape: 64 128 28 28 (6422528)
I0624 16:39:49.748599 21152 net.cpp:156] Memory required for data: 1335886592
I0624 16:39:49.748603 21152 layer_factory.hpp:77] Creating layer bn3_1
I0624 16:39:49.748610 21152 net.cpp:91] Creating Layer bn3_1
I0624 16:39:49.748613 21152 net.cpp:425] bn3_1 <- conv3_1
I0624 16:39:49.748618 21152 net.cpp:386] bn3_1 -> conv3_1 (in-place)
I0624 16:39:49.749933 21152 net.cpp:141] Setting up bn3_1
I0624 16:39:49.749945 21152 net.cpp:148] Top shape: 64 128 28 28 (6422528)
I0624 16:39:49.749948 21152 net.cpp:156] Memory required for data: 1361576704
I0624 16:39:49.749955 21152 layer_factory.hpp:77] Creating layer scale3_1
I0624 16:39:49.749963 21152 net.cpp:91] Creating Layer scale3_1
I0624 16:39:49.749965 21152 net.cpp:425] scale3_1 <- conv3_1
I0624 16:39:49.749969 21152 net.cpp:386] scale3_1 -> conv3_1 (in-place)
I0624 16:39:49.750005 21152 layer_factory.hpp:77] Creating layer scale3_1
I0624 16:39:49.750089 21152 net.cpp:141] Setting up scale3_1
I0624 16:39:49.750097 21152 net.cpp:148] Top shape: 64 128 28 28 (6422528)
I0624 16:39:49.750098 21152 net.cpp:156] Memory required for data: 1387266816
I0624 16:39:49.750103 21152 layer_factory.hpp:77] Creating layer relu3_1
I0624 16:39:49.750108 21152 net.cpp:91] Creating Layer relu3_1
I0624 16:39:49.750111 21152 net.cpp:425] relu3_1 <- conv3_1
I0624 16:39:49.750115 21152 net.cpp:386] relu3_1 -> conv3_1 (in-place)
I0624 16:39:49.750260 21152 net.cpp:141] Setting up relu3_1
I0624 16:39:49.750269 21152 net.cpp:148] Top shape: 64 128 28 28 (6422528)
I0624 16:39:49.750272 21152 net.cpp:156] Memory required for data: 1412956928
I0624 16:39:49.750275 21152 layer_factory.hpp:77] Creating layer conv3_2
I0624 16:39:49.750283 21152 net.cpp:91] Creating Layer conv3_2
I0624 16:39:49.750286 21152 net.cpp:425] conv3_2 <- conv3_1
I0624 16:39:49.750290 21152 net.cpp:399] conv3_2 -> conv3_2
I0624 16:39:49.752231 21152 net.cpp:141] Setting up conv3_2
I0624 16:39:49.752245 21152 net.cpp:148] Top shape: 64 128 28 28 (6422528)
I0624 16:39:49.752249 21152 net.cpp:156] Memory required for data: 1438647040
I0624 16:39:49.752254 21152 layer_factory.hpp:77] Creating layer bn3_2
I0624 16:39:49.752260 21152 net.cpp:91] Creating Layer bn3_2
I0624 16:39:49.752264 21152 net.cpp:425] bn3_2 <- conv3_2
I0624 16:39:49.752269 21152 net.cpp:386] bn3_2 -> conv3_2 (in-place)
I0624 16:39:49.752565 21152 net.cpp:141] Setting up bn3_2
I0624 16:39:49.752579 21152 net.cpp:148] Top shape: 64 128 28 28 (6422528)
I0624 16:39:49.752583 21152 net.cpp:156] Memory required for data: 1464337152
I0624 16:39:49.752601 21152 layer_factory.hpp:77] Creating layer scale3_2
I0624 16:39:49.752614 21152 net.cpp:91] Creating Layer scale3_2
I0624 16:39:49.752624 21152 net.cpp:425] scale3_2 <- conv3_2
I0624 16:39:49.752630 21152 net.cpp:386] scale3_2 -> conv3_2 (in-place)
I0624 16:39:49.752691 21152 layer_factory.hpp:77] Creating layer scale3_2
I0624 16:39:49.752820 21152 net.cpp:141] Setting up scale3_2
I0624 16:39:49.752833 21152 net.cpp:148] Top shape: 64 128 28 28 (6422528)
I0624 16:39:49.752836 21152 net.cpp:156] Memory required for data: 1490027264
I0624 16:39:49.752843 21152 layer_factory.hpp:77] Creating layer relu3_2
I0624 16:39:49.752851 21152 net.cpp:91] Creating Layer relu3_2
I0624 16:39:49.752854 21152 net.cpp:425] relu3_2 <- conv3_2
I0624 16:39:49.752864 21152 net.cpp:386] relu3_2 -> conv3_2 (in-place)
I0624 16:39:49.753105 21152 net.cpp:141] Setting up relu3_2
I0624 16:39:49.753123 21152 net.cpp:148] Top shape: 64 128 28 28 (6422528)
I0624 16:39:49.753129 21152 net.cpp:156] Memory required for data: 1515717376
I0624 16:39:49.753134 21152 layer_factory.hpp:77] Creating layer pool3
I0624 16:39:49.753145 21152 net.cpp:91] Creating Layer pool3
I0624 16:39:49.753151 21152 net.cpp:425] pool3 <- conv3_2
I0624 16:39:49.753159 21152 net.cpp:399] pool3 -> pool3
I0624 16:39:49.753228 21152 net.cpp:141] Setting up pool3
I0624 16:39:49.753242 21152 net.cpp:148] Top shape: 64 128 14 14 (1605632)
I0624 16:39:49.753247 21152 net.cpp:156] Memory required for data: 1522139904
I0624 16:39:49.753252 21152 layer_factory.hpp:77] Creating layer conv4_1
I0624 16:39:49.753265 21152 net.cpp:91] Creating Layer conv4_1
I0624 16:39:49.753270 21152 net.cpp:425] conv4_1 <- pool3
I0624 16:39:49.753278 21152 net.cpp:399] conv4_1 -> conv4_1
I0624 16:39:49.756510 21152 net.cpp:141] Setting up conv4_1
I0624 16:39:49.756523 21152 net.cpp:148] Top shape: 64 256 14 14 (3211264)
I0624 16:39:49.756526 21152 net.cpp:156] Memory required for data: 1534984960
I0624 16:39:49.756531 21152 layer_factory.hpp:77] Creating layer bn4_1
I0624 16:39:49.756539 21152 net.cpp:91] Creating Layer bn4_1
I0624 16:39:49.756542 21152 net.cpp:425] bn4_1 <- conv4_1
I0624 16:39:49.756547 21152 net.cpp:386] bn4_1 -> conv4_1 (in-place)
I0624 16:39:49.756712 21152 net.cpp:141] Setting up bn4_1
I0624 16:39:49.756721 21152 net.cpp:148] Top shape: 64 256 14 14 (3211264)
I0624 16:39:49.756722 21152 net.cpp:156] Memory required for data: 1547830016
I0624 16:39:49.756728 21152 layer_factory.hpp:77] Creating layer scale4_1
I0624 16:39:49.756734 21152 net.cpp:91] Creating Layer scale4_1
I0624 16:39:49.756737 21152 net.cpp:425] scale4_1 <- conv4_1
I0624 16:39:49.756742 21152 net.cpp:386] scale4_1 -> conv4_1 (in-place)
I0624 16:39:49.756775 21152 layer_factory.hpp:77] Creating layer scale4_1
I0624 16:39:49.756862 21152 net.cpp:141] Setting up scale4_1
I0624 16:39:49.756870 21152 net.cpp:148] Top shape: 64 256 14 14 (3211264)
I0624 16:39:49.756871 21152 net.cpp:156] Memory required for data: 1560675072
I0624 16:39:49.756876 21152 layer_factory.hpp:77] Creating layer relu4_1
I0624 16:39:49.756885 21152 net.cpp:91] Creating Layer relu4_1
I0624 16:39:49.756887 21152 net.cpp:425] relu4_1 <- conv4_1
I0624 16:39:49.756891 21152 net.cpp:386] relu4_1 -> conv4_1 (in-place)
I0624 16:39:49.757041 21152 net.cpp:141] Setting up relu4_1
I0624 16:39:49.757050 21152 net.cpp:148] Top shape: 64 256 14 14 (3211264)
I0624 16:39:49.757053 21152 net.cpp:156] Memory required for data: 1573520128
I0624 16:39:49.757055 21152 layer_factory.hpp:77] Creating layer conv4_2
I0624 16:39:49.757064 21152 net.cpp:91] Creating Layer conv4_2
I0624 16:39:49.757067 21152 net.cpp:425] conv4_2 <- conv4_1
I0624 16:39:49.757071 21152 net.cpp:399] conv4_2 -> conv4_2
I0624 16:39:49.762789 21152 net.cpp:141] Setting up conv4_2
I0624 16:39:49.762804 21152 net.cpp:148] Top shape: 64 256 14 14 (3211264)
I0624 16:39:49.762809 21152 net.cpp:156] Memory required for data: 1586365184
I0624 16:39:49.762814 21152 layer_factory.hpp:77] Creating layer bn4_2
I0624 16:39:49.762820 21152 net.cpp:91] Creating Layer bn4_2
I0624 16:39:49.762825 21152 net.cpp:425] bn4_2 <- conv4_2
I0624 16:39:49.762830 21152 net.cpp:386] bn4_2 -> conv4_2 (in-place)
I0624 16:39:49.762984 21152 net.cpp:141] Setting up bn4_2
I0624 16:39:49.762992 21152 net.cpp:148] Top shape: 64 256 14 14 (3211264)
I0624 16:39:49.762995 21152 net.cpp:156] Memory required for data: 1599210240
I0624 16:39:49.763001 21152 layer_factory.hpp:77] Creating layer scale4_2
I0624 16:39:49.763007 21152 net.cpp:91] Creating Layer scale4_2
I0624 16:39:49.763010 21152 net.cpp:425] scale4_2 <- conv4_2
I0624 16:39:49.763017 21152 net.cpp:386] scale4_2 -> conv4_2 (in-place)
I0624 16:39:49.763052 21152 layer_factory.hpp:77] Creating layer scale4_2
I0624 16:39:49.763144 21152 net.cpp:141] Setting up scale4_2
I0624 16:39:49.763157 21152 net.cpp:148] Top shape: 64 256 14 14 (3211264)
I0624 16:39:49.763170 21152 net.cpp:156] Memory required for data: 1612055296
I0624 16:39:49.763176 21152 layer_factory.hpp:77] Creating layer relu4_2
I0624 16:39:49.763181 21152 net.cpp:91] Creating Layer relu4_2
I0624 16:39:49.763183 21152 net.cpp:425] relu4_2 <- conv4_2
I0624 16:39:49.763190 21152 net.cpp:386] relu4_2 -> conv4_2 (in-place)
I0624 16:39:49.763339 21152 net.cpp:141] Setting up relu4_2
I0624 16:39:49.763350 21152 net.cpp:148] Top shape: 64 256 14 14 (3211264)
I0624 16:39:49.763351 21152 net.cpp:156] Memory required for data: 1624900352
I0624 16:39:49.763355 21152 layer_factory.hpp:77] Creating layer pool4
I0624 16:39:49.763360 21152 net.cpp:91] Creating Layer pool4
I0624 16:39:49.763365 21152 net.cpp:425] pool4 <- conv4_2
I0624 16:39:49.763368 21152 net.cpp:399] pool4 -> pool4
I0624 16:39:49.763406 21152 net.cpp:141] Setting up pool4
I0624 16:39:49.763414 21152 net.cpp:148] Top shape: 64 256 7 7 (802816)
I0624 16:39:49.763417 21152 net.cpp:156] Memory required for data: 1628111616
I0624 16:39:49.763419 21152 layer_factory.hpp:77] Creating layer conv5_1
I0624 16:39:49.763427 21152 net.cpp:91] Creating Layer conv5_1
I0624 16:39:49.763430 21152 net.cpp:425] conv5_1 <- pool4
I0624 16:39:49.763435 21152 net.cpp:399] conv5_1 -> conv5_1
I0624 16:39:49.769278 21152 net.cpp:141] Setting up conv5_1
I0624 16:39:49.769294 21152 net.cpp:148] Top shape: 64 256 7 7 (802816)
I0624 16:39:49.769297 21152 net.cpp:156] Memory required for data: 1631322880
I0624 16:39:49.769302 21152 layer_factory.hpp:77] Creating layer bn5_1
I0624 16:39:49.769310 21152 net.cpp:91] Creating Layer bn5_1
I0624 16:39:49.769314 21152 net.cpp:425] bn5_1 <- conv5_1
I0624 16:39:49.769320 21152 net.cpp:386] bn5_1 -> conv5_1 (in-place)
I0624 16:39:49.769474 21152 net.cpp:141] Setting up bn5_1
I0624 16:39:49.769481 21152 net.cpp:148] Top shape: 64 256 7 7 (802816)
I0624 16:39:49.769484 21152 net.cpp:156] Memory required for data: 1634534144
I0624 16:39:49.769490 21152 layer_factory.hpp:77] Creating layer scale5_1
I0624 16:39:49.769495 21152 net.cpp:91] Creating Layer scale5_1
I0624 16:39:49.769498 21152 net.cpp:425] scale5_1 <- conv5_1
I0624 16:39:49.769503 21152 net.cpp:386] scale5_1 -> conv5_1 (in-place)
I0624 16:39:49.769536 21152 layer_factory.hpp:77] Creating layer scale5_1
I0624 16:39:49.769625 21152 net.cpp:141] Setting up scale5_1
I0624 16:39:49.769632 21152 net.cpp:148] Top shape: 64 256 7 7 (802816)
I0624 16:39:49.769635 21152 net.cpp:156] Memory required for data: 1637745408
I0624 16:39:49.769639 21152 layer_factory.hpp:77] Creating layer relu5_1
I0624 16:39:49.769644 21152 net.cpp:91] Creating Layer relu5_1
I0624 16:39:49.769646 21152 net.cpp:425] relu5_1 <- conv5_1
I0624 16:39:49.769651 21152 net.cpp:386] relu5_1 -> conv5_1 (in-place)
I0624 16:39:49.770141 21152 net.cpp:141] Setting up relu5_1
I0624 16:39:49.770158 21152 net.cpp:148] Top shape: 64 256 7 7 (802816)
I0624 16:39:49.770161 21152 net.cpp:156] Memory required for data: 1640956672
I0624 16:39:49.770165 21152 layer_factory.hpp:77] Creating layer conv5_2
I0624 16:39:49.770179 21152 net.cpp:91] Creating Layer conv5_2
I0624 16:39:49.770184 21152 net.cpp:425] conv5_2 <- conv5_1
I0624 16:39:49.770191 21152 net.cpp:399] conv5_2 -> conv5_2
I0624 16:39:49.775955 21152 net.cpp:141] Setting up conv5_2
I0624 16:39:49.775969 21152 net.cpp:148] Top shape: 64 256 7 7 (802816)
I0624 16:39:49.775972 21152 net.cpp:156] Memory required for data: 1644167936
I0624 16:39:49.775976 21152 layer_factory.hpp:77] Creating layer bn5_2
I0624 16:39:49.775982 21152 net.cpp:91] Creating Layer bn5_2
I0624 16:39:49.775985 21152 net.cpp:425] bn5_2 <- conv5_2
I0624 16:39:49.775990 21152 net.cpp:386] bn5_2 -> conv5_2 (in-place)
I0624 16:39:49.776149 21152 net.cpp:141] Setting up bn5_2
I0624 16:39:49.776156 21152 net.cpp:148] Top shape: 64 256 7 7 (802816)
I0624 16:39:49.776160 21152 net.cpp:156] Memory required for data: 1647379200
I0624 16:39:49.776165 21152 layer_factory.hpp:77] Creating layer scale5_2
I0624 16:39:49.776170 21152 net.cpp:91] Creating Layer scale5_2
I0624 16:39:49.776173 21152 net.cpp:425] scale5_2 <- conv5_2
I0624 16:39:49.776191 21152 net.cpp:386] scale5_2 -> conv5_2 (in-place)
I0624 16:39:49.776226 21152 layer_factory.hpp:77] Creating layer scale5_2
I0624 16:39:49.776310 21152 net.cpp:141] Setting up scale5_2
I0624 16:39:49.776319 21152 net.cpp:148] Top shape: 64 256 7 7 (802816)
I0624 16:39:49.776321 21152 net.cpp:156] Memory required for data: 1650590464
I0624 16:39:49.776325 21152 layer_factory.hpp:77] Creating layer relu5_2
I0624 16:39:49.776330 21152 net.cpp:91] Creating Layer relu5_2
I0624 16:39:49.776332 21152 net.cpp:425] relu5_2 <- conv5_2
I0624 16:39:49.776335 21152 net.cpp:386] relu5_2 -> conv5_2 (in-place)
I0624 16:39:49.776701 21152 net.cpp:141] Setting up relu5_2
I0624 16:39:49.776713 21152 net.cpp:148] Top shape: 64 256 7 7 (802816)
I0624 16:39:49.776715 21152 net.cpp:156] Memory required for data: 1653801728
I0624 16:39:49.776718 21152 layer_factory.hpp:77] Creating layer pool5
I0624 16:39:49.776724 21152 net.cpp:91] Creating Layer pool5
I0624 16:39:49.776726 21152 net.cpp:425] pool5 <- conv5_2
I0624 16:39:49.776732 21152 net.cpp:399] pool5 -> pool5
I0624 16:39:49.776893 21152 net.cpp:141] Setting up pool5
I0624 16:39:49.776903 21152 net.cpp:148] Top shape: 64 256 1 1 (16384)
I0624 16:39:49.776906 21152 net.cpp:156] Memory required for data: 1653867264
I0624 16:39:49.776908 21152 layer_factory.hpp:77] Creating layer fc2
I0624 16:39:49.776916 21152 net.cpp:91] Creating Layer fc2
I0624 16:39:49.776918 21152 net.cpp:425] fc2 <- pool5
I0624 16:39:49.776922 21152 net.cpp:399] fc2 -> fc2
I0624 16:39:49.777017 21152 net.cpp:141] Setting up fc2
I0624 16:39:49.777024 21152 net.cpp:148] Top shape: 64 2 (128)
I0624 16:39:49.777026 21152 net.cpp:156] Memory required for data: 1653867776
I0624 16:39:49.777031 21152 layer_factory.hpp:77] Creating layer fc2_fc2_0_split
I0624 16:39:49.777037 21152 net.cpp:91] Creating Layer fc2_fc2_0_split
I0624 16:39:49.777040 21152 net.cpp:425] fc2_fc2_0_split <- fc2
I0624 16:39:49.777043 21152 net.cpp:399] fc2_fc2_0_split -> fc2_fc2_0_split_0
I0624 16:39:49.777048 21152 net.cpp:399] fc2_fc2_0_split -> fc2_fc2_0_split_1
I0624 16:39:49.777077 21152 net.cpp:141] Setting up fc2_fc2_0_split
I0624 16:39:49.777081 21152 net.cpp:148] Top shape: 64 2 (128)
I0624 16:39:49.777084 21152 net.cpp:148] Top shape: 64 2 (128)
I0624 16:39:49.777086 21152 net.cpp:156] Memory required for data: 1653868800
I0624 16:39:49.777088 21152 layer_factory.hpp:77] Creating layer loss
I0624 16:39:49.777097 21152 net.cpp:91] Creating Layer loss
I0624 16:39:49.777099 21152 net.cpp:425] loss <- fc2_fc2_0_split_0
I0624 16:39:49.777102 21152 net.cpp:425] loss <- label_data_1_split_0
I0624 16:39:49.777107 21152 net.cpp:399] loss -> loss
…
I0624 16:39:49.778357 21152 solver.cpp:181] Creating test net (#0) specified by net file: models/bpnet/train_val.prototxt
I0624 16:39:49.778409 21152 net.cpp:313] The NetState phase (1) differed from the phase (0) specified by a rule in layer data
I0624 16:39:49.778625 21152 net.cpp:49] Initializing net from parameters: 
name: "BPnet"
state {
  phase: TEST
}
layer {
  name: "data"
  type: "Data"
  top: "data"
  top: "label"
  include {
    phase: TEST
  }
  transform_param {
    mirror: false
    crop_size: 224
    mean_value: 100
    contrast_jitter_range: 0.1
  }
  data_param {
    source: "data/val_lmdb"
    batch_size: 16
    backend: LMDB
  }
}
layer {
  name: "conv1_1"
  type: "Convolution"
  bottom: "data"
  top: "conv1_1"
  param {
    lr_mult: 1
    decay_mult: 1
  }
  convolution_param {
    num_output: 32
    bias_term: false
    pad: 3
    kernel_size: 7
    stride: 2
    weight_filler {
      type: "xavier"
    }
  }
}
layer {
  name: "bn1_1"
  type: "BatchNorm"
  bottom: "conv1_1"
  top: "conv1_1"
  param {
    lr_mult: 0
  }
  param {
    lr_mult: 0
  }
  param {
    lr_mult: 0
  }
  batch_norm_param {
    use_global_stats: false
  }
}
layer {
  name: "scale1_1"
  type: "Scale"
  bottom: "conv1_1"
  top: "conv1_1"
  param {
    lr_mult: 1
    decay_mult: 1
  }
  param {
    lr_mult: 1
    decay_mult: 1
  }
  scale_param {
    bias_term: true
    bias_filler {
      type: "constant"
      value: 0
    }
  }
}
layer {
  name: "relu1_1"
  type: "ReLU"
  bottom: "conv1_1"
  top: "conv1_1"
}
layer {
  name: "conv1_2"
  type: "Convolution"
  bottom: "conv1_1"
  top: "conv1_2"
  param {
    lr_mult: 1
    decay_mult: 1
  }
  convolution_param {
    num_output: 32
    bias_term: false
    pad: 1
    kernel_size: 3
    weight_filler {
      type: "xavier"
    }
  }
}
layer {
  name: "bn1_2"
  type: "BatchNorm"
  bottom: "conv1_2"
  top: "conv1_2"
  param {
    lr_mult: 0
  }
  param {
    lr_mult: 0
  }
  param {
    lr_mult: 0
  }
  batch_norm_param {
    use_global_stats: false
  }
}
layer {
  name: "scale1_2"
  type: "Scale"
  bottom: "conv1_2"
  top: "conv1_2"
  param {
    lr_mult: 1
    decay_mult: 1
  }
  param {
    lr_mult: 1
    decay_mult: 1
  }
  scale_param {
    bias_term: true
    bias_filler {
      type: "constant"
      value: 0
    }
  }
}
layer {
  name: "relu1_2"
  type: "ReLU"
  bottom: "conv1_2"
  top: "conv1_2"
}
layer {
  name: "pool1"
  type: "Pooling"
  bottom: "conv1_2"
  top: "pool1"
  pooling_param {
    pool: MAX
    kernel_size: 2
    stride: 2
  }
}
layer {
  name: "conv2_1"
  type: "Convolution"
  bottom: "pool1"
  top: "conv2_1"
  param {
    lr_mult: 1
    decay_mult: 1
  }
  convolution_param {
    num_output: 64
    bias_term: false
    pad: 1
    kernel_size: 3
    weight_filler {
      type: "xavier"
    }
  }
}
layer {
  name: "bn2_1"
  type: "BatchNorm"
  bottom: "conv2_1"
  top: "conv2_1"
  param {
    lr_mult: 0
  }
  param {
    lr_mult: 0
  }
  param {
    lr_mult: 0
  }
  batch_norm_param {
    use_global_stats: false
  }
}
layer {
  name: "scale2_1"
  type: "Scale"
  bottom: "conv2_1"
  top: "conv2_1"
  param {
    lr_mult: 1
    decay_mult: 1
  }
  param {
    lr_mult: 1
    decay_mult: 1
  }
  scale_param {
    bias_term: true
    bias_filler {
      type: "constant"
      value: 0
    }
  }
}
layer {
  name: "relu2_1"
  type: "ReLU"
  bottom: "conv2_1"
  top: "conv2_1"
}
layer {
  name: "conv2_2"
  type: "Convolution"
  bottom: "conv2_1"
  top: "conv2_2"
  param {
    lr_mult: 1
    decay_mult: 1
  }
  convolution_param {
    num_output: 64
    bias_term: false
    pad: 1
    kernel_size: 3
    weight_filler {
      type: "xavier"
    }
  }
}
layer {
  name: "bn2_2"
  type: "BatchNorm"
  bottom: "conv2_2"
  top: "conv2_2"
  param {
    lr_mult: 0
  }
  param {
    lr_mult: 0
  }
  param {
    lr_mult: 0
  }
  batch_norm_param {
    use_global_stats: false
  }
}
layer {
  name: "scale2_2"
  type: "Scale"
  bottom: "conv2_2"
  top: "conv2_2"
  param {
    lr_mult: 1
    decay_mult: 1
  }
  param {
    lr_mult: 1
    decay_mult: 1
  }
  scale_param {
    bias_term: true
    bias_filler {
      type: "constant"
      value: 0
    }
  }
}
layer {
  name: "relu2_2"
  type: "ReLU"
  bottom: "conv2_2"
  top: "conv2_2"
}
layer {
  name: "pool2"
  type: "Pooling"
  bottom: "conv2_2"
  top: "pool2"
  pooling_param {
    pool: MAX
    kernel_size: 2
    stride: 2
  }
}
layer {
  name: "conv3_1"
  type: "Convolution"
  bottom: "pool2"
  top: "conv3_1"
  param {
    lr_mult: 1
    decay_mult: 1
  }
  convolution_param {
    num_output: 128
    bias_term: false
    pad: 1
    kernel_size: 3
    weight_filler {
      type: "xavier"
    }
  }
}
layer {
  name: "bn3_1"
  type: "BatchNorm"
  bottom: "conv3_1"
  top: "conv3_1"
  param {
    lr_mult: 0
  }
  param {
    lr_mult: 0
  }
  param {
    lr_mult: 0
  }
  batch_norm_param {
    use_global_stats: false
  }
}
layer {
  name: "scale3_1"
  type: "Scale"
  bottom: "conv3_1"
  top: "conv3_1"
  param {
    lr_mult: 1
    decay_mult: 1
  }
  param {
    lr_mult: 1
    decay_mult: 1
  }
  scale_param {
    bias_term: true
    bias_filler {
      type: "constant"
      value: 0
    }
  }
}
layer {
  name: "relu3_1"
  type: "ReLU"
  bottom: "conv3_1"
  top: "conv3_1"
}
layer {
  name: "conv3_2"
  type: "Convolution"
  bottom: "conv3_1"
  top: "conv3_2"
  param {
    lr_mult: 1
    decay_mult: 1
  }
  convolution_param {
    num_output: 128
    bias_term: false
    pad: 1
    kernel_size: 3
    weight_filler {
      type: "xavier"
    }
  }
}
layer {
  name: "bn3_2"
  type: "BatchNorm"
  bottom: "conv3_2"
  top: "conv3_2"
  param {
    lr_mult: 0
  }
  param {
    lr_mult: 0
  }
  param {
    lr_mult: 0
  }
  batch_norm_param {
    use_global_stats: false
  }
}
layer {
  name: "scale3_2"
  type: "Scale"
  bottom: "conv3_2"
  top: "conv3_2"
  param {
    lr_mult: 1
    decay_mult: 1
  }
  param {
    lr_mult: 1
    decay_mult: 1
  }
  scale_param {
    bias_term: true
    bias_filler {
      type: "constant"
      value: 0
    }
  }
}
layer {
  name: "relu3_2"
  type: "ReLU"
  bottom: "conv3_2"
  top: "conv3_2"
}
layer {
  name: "pool3"
  type: "Pooling"
  bottom: "conv3_2"
  top: "pool3"
  pooling_param {
    pool: MAX
    kernel_size: 2
    stride: 2
  }
}
layer {
  name: "conv4_1"
  type: "Convolution"
  bottom: "pool3"
  top: "conv4_1"
  param {
    lr_mult: 1
    decay_mult: 1
  }
  convolution_param {
    num_output: 256
    bias_term: false
    pad: 1
    kernel_size: 3
    weight_filler {
      type: "xavier"
    }
  }
}
layer {
  name: "bn4_1"
  type: "BatchNorm"
  bottom: "conv4_1"
  top: "conv4_1"
  param {
    lr_mult: 0
  }
  param {
    lr_mult: 0
  }
  param {
    lr_mult: 0
  }
  batch_norm_param {
    use_global_stats: false
  }
}
layer {
  name: "scale4_1"
  type: "Scale"
  bottom: "conv4_1"
  top: "conv4_1"
  param {
    lr_mult: 1
    decay_mult: 1
  }
  param {
    lr_mult: 1
    decay_mult: 1
  }
  scale_param {
    bias_term: true
    bias_filler {
      type: "constant"
      value: 0
    }
  }
}
layer {
  name: "relu4_1"
  type: "ReLU"
  bottom: "conv4_1"
  top: "conv4_1"
}
layer {
  name: "conv4_2"
  type: "Convolution"
  bottom: "conv4_1"
  top: "conv4_2"
  param {
    lr_mult: 1
    decay_mult: 1
  }
  convolution_param {
    num_output: 256
    bias_term: false
    pad: 1
    kernel_size: 3
    weight_filler {
      type: "xavier"
    }
  }
}
layer {
  name: "bn4_2"
  type: "BatchNorm"
  bottom: "conv4_2"
  top: "conv4_2"
  param {
    lr_mult: 0
  }
  param {
    lr_mult: 0
  }
  param {
    lr_mult: 0
  }
  batch_norm_param {
    use_global_stats: false
  }
}
layer {
  name: "scale4_2"
  type: "Scale"
  bottom: "conv4_2"
  top: "conv4_2"
  param {
    lr_mult: 1
    decay_mult: 1
  }
  param {
    lr_mult: 1
    decay_mult: 1
  }
  scale_param {
    bias_term: true
    bias_filler {
      type: "constant"
      value: 0
    }
  }
}
layer {
  name: "relu4_2"
  type: "ReLU"
  bottom: "conv4_2"
  top: "conv4_2"
}
layer {
  name: "pool4"
  type: "Pooling"
  bottom: "conv4_2"
  top: "pool4"
  pooling_param {
    pool: MAX
    kernel_size: 2
    stride: 2
  }
}
layer {
  name: "conv5_1"
  type: "Convolution"
  bottom: "pool4"
  top: "conv5_1"
  param {
    lr_mult: 1
    decay_mult: 1
  }
  convolution_param {
    num_output: 256
    bias_term: false
    pad: 1
    kernel_size: 3
    weight_filler {
      type: "xavier"
    }
  }
}
layer {
  name: "bn5_1"
  type: "BatchNorm"
  bottom: "conv5_1"
  top: "conv5_1"
  param {
    lr_mult: 0
  }
  param {
    lr_mult: 0
  }
  param {
    lr_mult: 0
  }
  batch_norm_param {
    use_global_stats: false
  }
}
layer {
  name: "scale5_1"
  type: "Scale"
  bottom: "conv5_1"
  top: "conv5_1"
  param {
    lr_mult: 1
    decay_mult: 1
  }
  param {
    lr_mult: 1
    decay_mult: 1
  }
  scale_param {
    bias_term: true
    bias_filler {
      type: "constant"
      value: 0
    }
  }
}
layer {
  name: "relu5_1"
  type: "ReLU"
  bottom: "conv5_1"
  top: "conv5_1"
}
layer {
  name: "conv5_2"
  type: "Convolution"
  bottom: "conv5_1"
  top: "conv5_2"
  param {
    lr_mult: 1
    decay_mult: 1
  }
  convolution_param {
    num_output: 256
    bias_term: false
    pad: 1
    kernel_size: 3
    weight_filler {
      type: "xavier"
    }
  }
}
layer {
  name: "bn5_2"
  type: "BatchNorm"
  bottom: "conv5_2"
  top: "conv5_2"
  param {
    lr_mult: 0
  }
  param {
    lr_mult: 0
  }
  param {
    lr_mult: 0
  }
  batch_norm_param {
    use_global_stats: false
  }
}
layer {
  name: "scale5_2"
  type: "Scale"
  bottom: "conv5_2"
  top: "conv5_2"
  param {
    lr_mult: 1
    decay_mult: 1
  }
  param {
    lr_mult: 1
    decay_mult: 1
  }
  scale_param {
    bias_term: true
    bias_filler {
      type: "constant"
      value: 0
    }
  }
}
layer {
  name: "relu5_2"
  type: "ReLU"
  bottom: "conv5_2"
  top: "conv5_2"
}
layer {
  name: "pool5"
  type: "Pooling"
  bottom: "conv5_2"
  top: "pool5"
  pooling_param {
    pool: AVE
    kernel_size: 7
    stride: 1
  }
}
layer {
  name: "fc2"
  type: "InnerProduct"
  bottom: "pool5"
  top: "fc2"
  inner_product_param {
    num_output: 2
  }
}
layer {
  name: "loss"
  type: "SoftmaxWithLoss"
  bottom: "fc2"
  bottom: "label"
  top: "loss"
}
layer {
  name: "accuracy"
  type: "Accuracy"
  bottom: "fc2"
  bottom: "label"
  top: "accuracy"
}
I0624 16:39:49.778765 21152 layer_factory.hpp:77] Creating layer data
I0624 16:39:49.779000 21152 net.cpp:91] Creating Layer data
I0624 16:39:49.779006 21152 net.cpp:399] data -> data
I0624 16:39:49.779012 21152 net.cpp:399] data -> label
I0624 16:39:49.780164 21158 db_lmdb.cpp:35] Opened lmdb data/val_lmdb
I0624 16:39:49.780614 21152 data_layer.cpp:42] output data size: 16,3,224,224
I0624 16:39:49.801203 21152 net.cpp:141] Setting up data
I0624 16:39:49.801225 21152 net.cpp:148] Top shape: 16 3 224 224 (2408448)
I0624 16:39:49.801231 21152 net.cpp:148] Top shape: 16 (16)
I0624 16:39:49.801234 21152 net.cpp:156] Memory required for data: 9633856
I0624 16:39:49.801239 21152 layer_factory.hpp:77] Creating layer label_data_1_split
I0624 16:39:49.801250 21152 net.cpp:91] Creating Layer label_data_1_split
I0624 16:39:49.801254 21152 net.cpp:425] label_data_1_split <- label
I0624 16:39:49.801260 21152 net.cpp:399] label_data_1_split -> label_data_1_split_0
I0624 16:39:49.801268 21152 net.cpp:399] label_data_1_split -> label_data_1_split_1
I0624 16:39:49.801321 21152 net.cpp:141] Setting up label_data_1_split
I0624 16:39:49.801326 21152 net.cpp:148] Top shape: 16 (16)
I0624 16:39:49.801328 21152 net.cpp:148] Top shape: 16 (16)
I0624 16:39:49.801331 21152 net.cpp:156] Memory required for data: 9633984
I0624 16:39:49.801333 21152 layer_factory.hpp:77] Creating layer conv1_1
I0624 16:39:49.801345 21152 net.cpp:91] Creating Layer conv1_1
I0624 16:39:49.801348 21152 net.cpp:425] conv1_1 <- data
I0624 16:39:49.801352 21152 net.cpp:399] conv1_1 -> conv1_1
I0624 16:39:49.802521 21152 net.cpp:141] Setting up conv1_1
I0624 16:39:49.802536 21152 net.cpp:148] Top shape: 16 32 112 112 (6422528)
I0624 16:39:49.802538 21152 net.cpp:156] Memory required for data: 35324096
I0624 16:39:49.802544 21152 layer_factory.hpp:77] Creating layer bn1_1
I0624 16:39:49.802553 21152 net.cpp:91] Creating Layer bn1_1
I0624 16:39:49.802556 21152 net.cpp:425] bn1_1 <- conv1_1
I0624 16:39:49.802561 21152 net.cpp:386] bn1_1 -> conv1_1 (in-place)
I0624 16:39:49.802736 21152 net.cpp:141] Setting up bn1_1
I0624 16:39:49.802744 21152 net.cpp:148] Top shape: 16 32 112 112 (6422528)
I0624 16:39:49.802747 21152 net.cpp:156] Memory required for data: 61014208
I0624 16:39:49.802754 21152 layer_factory.hpp:77] Creating layer scale1_1
I0624 16:39:49.802762 21152 net.cpp:91] Creating Layer scale1_1
I0624 16:39:49.802765 21152 net.cpp:425] scale1_1 <- conv1_1
I0624 16:39:49.802783 21152 net.cpp:386] scale1_1 -> conv1_1 (in-place)
I0624 16:39:49.802820 21152 layer_factory.hpp:77] Creating layer scale1_1
I0624 16:39:49.802932 21152 net.cpp:141] Setting up scale1_1
I0624 16:39:49.802938 21152 net.cpp:148] Top shape: 16 32 112 112 (6422528)
I0624 16:39:49.802940 21152 net.cpp:156] Memory required for data: 86704320
I0624 16:39:49.802947 21152 layer_factory.hpp:77] Creating layer relu1_1
I0624 16:39:49.802953 21152 net.cpp:91] Creating Layer relu1_1
I0624 16:39:49.802954 21152 net.cpp:425] relu1_1 <- conv1_1
I0624 16:39:49.802958 21152 net.cpp:386] relu1_1 -> conv1_1 (in-place)
I0624 16:39:49.803169 21152 net.cpp:141] Setting up relu1_1
I0624 16:39:49.803179 21152 net.cpp:148] Top shape: 16 32 112 112 (6422528)
I0624 16:39:49.803181 21152 net.cpp:156] Memory required for data: 112394432
I0624 16:39:49.803184 21152 layer_factory.hpp:77] Creating layer conv1_2
I0624 16:39:49.803194 21152 net.cpp:91] Creating Layer conv1_2
I0624 16:39:49.803196 21152 net.cpp:425] conv1_2 <- conv1_1
I0624 16:39:49.803201 21152 net.cpp:399] conv1_2 -> conv1_2
I0624 16:39:49.805011 21152 net.cpp:141] Setting up conv1_2
I0624 16:39:49.805025 21152 net.cpp:148] Top shape: 16 32 112 112 (6422528)
I0624 16:39:49.805030 21152 net.cpp:156] Memory required for data: 138084544
I0624 16:39:49.805035 21152 layer_factory.hpp:77] Creating layer bn1_2
I0624 16:39:49.805044 21152 net.cpp:91] Creating Layer bn1_2
I0624 16:39:49.805048 21152 net.cpp:425] bn1_2 <- conv1_2
I0624 16:39:49.805058 21152 net.cpp:386] bn1_2 -> conv1_2 (in-place)
I0624 16:39:49.805361 21152 net.cpp:141] Setting up bn1_2
I0624 16:39:49.805374 21152 net.cpp:148] Top shape: 16 32 112 112 (6422528)
I0624 16:39:49.805377 21152 net.cpp:156] Memory required for data: 163774656
I0624 16:39:49.805389 21152 layer_factory.hpp:77] Creating layer scale1_2
I0624 16:39:49.805399 21152 net.cpp:91] Creating Layer scale1_2
I0624 16:39:49.805403 21152 net.cpp:425] scale1_2 <- conv1_2
I0624 16:39:49.805410 21152 net.cpp:386] scale1_2 -> conv1_2 (in-place)
I0624 16:39:49.805459 21152 layer_factory.hpp:77] Creating layer scale1_2
I0624 16:39:49.805629 21152 net.cpp:141] Setting up scale1_2
I0624 16:39:49.805641 21152 net.cpp:148] Top shape: 16 32 112 112 (6422528)
I0624 16:39:49.805645 21152 net.cpp:156] Memory required for data: 189464768
I0624 16:39:49.805651 21152 layer_factory.hpp:77] Creating layer relu1_2
I0624 16:39:49.805658 21152 net.cpp:91] Creating Layer relu1_2
I0624 16:39:49.805662 21152 net.cpp:425] relu1_2 <- conv1_2
I0624 16:39:49.805667 21152 net.cpp:386] relu1_2 -> conv1_2 (in-place)
I0624 16:39:49.806242 21152 net.cpp:141] Setting up relu1_2
I0624 16:39:49.806259 21152 net.cpp:148] Top shape: 16 32 112 112 (6422528)
I0624 16:39:49.806265 21152 net.cpp:156] Memory required for data: 215154880
I0624 16:39:49.806270 21152 layer_factory.hpp:77] Creating layer pool1
I0624 16:39:49.806279 21152 net.cpp:91] Creating Layer pool1
I0624 16:39:49.806285 21152 net.cpp:425] pool1 <- conv1_2
I0624 16:39:49.806294 21152 net.cpp:399] pool1 -> pool1
I0624 16:39:49.806355 21152 net.cpp:141] Setting up pool1
I0624 16:39:49.806366 21152 net.cpp:148] Top shape: 16 32 56 56 (1605632)
I0624 16:39:49.806370 21152 net.cpp:156] Memory required for data: 221577408
I0624 16:39:49.806375 21152 layer_factory.hpp:77] Creating layer conv2_1
I0624 16:39:49.806388 21152 net.cpp:91] Creating Layer conv2_1
I0624 16:39:49.806392 21152 net.cpp:425] conv2_1 <- pool1
I0624 16:39:49.806398 21152 net.cpp:399] conv2_1 -> conv2_1
I0624 16:39:49.807729 21152 net.cpp:141] Setting up conv2_1
I0624 16:39:49.807747 21152 net.cpp:148] Top shape: 16 64 56 56 (3211264)
I0624 16:39:49.807754 21152 net.cpp:156] Memory required for data: 234422464
I0624 16:39:49.807761 21152 layer_factory.hpp:77] Creating layer bn2_1
I0624 16:39:49.807773 21152 net.cpp:91] Creating Layer bn2_1
I0624 16:39:49.807780 21152 net.cpp:425] bn2_1 <- conv2_1
I0624 16:39:49.807786 21152 net.cpp:386] bn2_1 -> conv2_1 (in-place)
I0624 16:39:49.808104 21152 net.cpp:141] Setting up bn2_1
I0624 16:39:49.808131 21152 net.cpp:148] Top shape: 16 64 56 56 (3211264)
I0624 16:39:49.808136 21152 net.cpp:156] Memory required for data: 247267520
I0624 16:39:49.808146 21152 layer_factory.hpp:77] Creating layer scale2_1
I0624 16:39:49.808157 21152 net.cpp:91] Creating Layer scale2_1
I0624 16:39:49.808163 21152 net.cpp:425] scale2_1 <- conv2_1
I0624 16:39:49.808169 21152 net.cpp:386] scale2_1 -> conv2_1 (in-place)
I0624 16:39:49.808234 21152 layer_factory.hpp:77] Creating layer scale2_1
I0624 16:39:49.808439 21152 net.cpp:141] Setting up scale2_1
I0624 16:39:49.808455 21152 net.cpp:148] Top shape: 16 64 56 56 (3211264)
I0624 16:39:49.808459 21152 net.cpp:156] Memory required for data: 260112576
I0624 16:39:49.808471 21152 layer_factory.hpp:77] Creating layer relu2_1
I0624 16:39:49.808480 21152 net.cpp:91] Creating Layer relu2_1
I0624 16:39:49.808483 21152 net.cpp:425] relu2_1 <- conv2_1
I0624 16:39:49.808488 21152 net.cpp:386] relu2_1 -> conv2_1 (in-place)
I0624 16:39:49.808640 21152 net.cpp:141] Setting up relu2_1
I0624 16:39:49.808650 21152 net.cpp:148] Top shape: 16 64 56 56 (3211264)
I0624 16:39:49.808652 21152 net.cpp:156] Memory required for data: 272957632
I0624 16:39:49.808655 21152 layer_factory.hpp:77] Creating layer conv2_2
I0624 16:39:49.808662 21152 net.cpp:91] Creating Layer conv2_2
I0624 16:39:49.808665 21152 net.cpp:425] conv2_2 <- conv2_1
I0624 16:39:49.808670 21152 net.cpp:399] conv2_2 -> conv2_2
I0624 16:39:49.809708 21152 net.cpp:141] Setting up conv2_2
I0624 16:39:49.809721 21152 net.cpp:148] Top shape: 16 64 56 56 (3211264)
I0624 16:39:49.809725 21152 net.cpp:156] Memory required for data: 285802688
I0624 16:39:49.809729 21152 layer_factory.hpp:77] Creating layer bn2_2
I0624 16:39:49.809736 21152 net.cpp:91] Creating Layer bn2_2
I0624 16:39:49.809739 21152 net.cpp:425] bn2_2 <- conv2_2
I0624 16:39:49.809744 21152 net.cpp:386] bn2_2 -> conv2_2 (in-place)
I0624 16:39:49.809906 21152 net.cpp:141] Setting up bn2_2
I0624 16:39:49.809913 21152 net.cpp:148] Top shape: 16 64 56 56 (3211264)
I0624 16:39:49.809916 21152 net.cpp:156] Memory required for data: 298647744
I0624 16:39:49.809921 21152 layer_factory.hpp:77] Creating layer scale2_2
I0624 16:39:49.809926 21152 net.cpp:91] Creating Layer scale2_2
I0624 16:39:49.809929 21152 net.cpp:425] scale2_2 <- conv2_2
I0624 16:39:49.809933 21152 net.cpp:386] scale2_2 -> conv2_2 (in-place)
I0624 16:39:49.809968 21152 layer_factory.hpp:77] Creating layer scale2_2
I0624 16:39:49.810070 21152 net.cpp:141] Setting up scale2_2
I0624 16:39:49.810077 21152 net.cpp:148] Top shape: 16 64 56 56 (3211264)
I0624 16:39:49.810080 21152 net.cpp:156] Memory required for data: 311492800
I0624 16:39:49.810083 21152 layer_factory.hpp:77] Creating layer relu2_2
I0624 16:39:49.810089 21152 net.cpp:91] Creating Layer relu2_2
I0624 16:39:49.810091 21152 net.cpp:425] relu2_2 <- conv2_2
I0624 16:39:49.810094 21152 net.cpp:386] relu2_2 -> conv2_2 (in-place)
I0624 16:39:49.810250 21152 net.cpp:141] Setting up relu2_2
I0624 16:39:49.810259 21152 net.cpp:148] Top shape: 16 64 56 56 (3211264)
I0624 16:39:49.810261 21152 net.cpp:156] Memory required for data: 324337856
I0624 16:39:49.810264 21152 layer_factory.hpp:77] Creating layer pool2
I0624 16:39:49.810269 21152 net.cpp:91] Creating Layer pool2
I0624 16:39:49.810272 21152 net.cpp:425] pool2 <- conv2_2
I0624 16:39:49.810277 21152 net.cpp:399] pool2 -> pool2
I0624 16:39:49.810314 21152 net.cpp:141] Setting up pool2
I0624 16:39:49.810318 21152 net.cpp:148] Top shape: 16 64 28 28 (802816)
I0624 16:39:49.810320 21152 net.cpp:156] Memory required for data: 327549120
I0624 16:39:49.810323 21152 layer_factory.hpp:77] Creating layer conv3_1
I0624 16:39:49.810330 21152 net.cpp:91] Creating Layer conv3_1
I0624 16:39:49.810333 21152 net.cpp:425] conv3_1 <- pool2
I0624 16:39:49.810338 21152 net.cpp:399] conv3_1 -> conv3_1
I0624 16:39:49.813619 21152 net.cpp:141] Setting up conv3_1
I0624 16:39:49.813632 21152 net.cpp:148] Top shape: 16 128 28 28 (1605632)
I0624 16:39:49.813635 21152 net.cpp:156] Memory required for data: 333971648
I0624 16:39:49.813640 21152 layer_factory.hpp:77] Creating layer bn3_1
I0624 16:39:49.813657 21152 net.cpp:91] Creating Layer bn3_1
I0624 16:39:49.813662 21152 net.cpp:425] bn3_1 <- conv3_1
I0624 16:39:49.813668 21152 net.cpp:386] bn3_1 -> conv3_1 (in-place)
I0624 16:39:49.813829 21152 net.cpp:141] Setting up bn3_1
I0624 16:39:49.813838 21152 net.cpp:148] Top shape: 16 128 28 28 (1605632)
I0624 16:39:49.813840 21152 net.cpp:156] Memory required for data: 340394176
I0624 16:39:49.813846 21152 layer_factory.hpp:77] Creating layer scale3_1
I0624 16:39:49.813853 21152 net.cpp:91] Creating Layer scale3_1
I0624 16:39:49.813855 21152 net.cpp:425] scale3_1 <- conv3_1
I0624 16:39:49.813859 21152 net.cpp:386] scale3_1 -> conv3_1 (in-place)
I0624 16:39:49.813892 21152 layer_factory.hpp:77] Creating layer scale3_1
I0624 16:39:49.813982 21152 net.cpp:141] Setting up scale3_1
I0624 16:39:49.813989 21152 net.cpp:148] Top shape: 16 128 28 28 (1605632)
I0624 16:39:49.813992 21152 net.cpp:156] Memory required for data: 346816704
I0624 16:39:49.813997 21152 layer_factory.hpp:77] Creating layer relu3_1
I0624 16:39:49.814000 21152 net.cpp:91] Creating Layer relu3_1
I0624 16:39:49.814003 21152 net.cpp:425] relu3_1 <- conv3_1
I0624 16:39:49.814007 21152 net.cpp:386] relu3_1 -> conv3_1 (in-place)
I0624 16:39:49.814157 21152 net.cpp:141] Setting up relu3_1
I0624 16:39:49.814165 21152 net.cpp:148] Top shape: 16 128 28 28 (1605632)
I0624 16:39:49.814168 21152 net.cpp:156] Memory required for data: 353239232
I0624 16:39:49.814170 21152 layer_factory.hpp:77] Creating layer conv3_2
I0624 16:39:49.814178 21152 net.cpp:91] Creating Layer conv3_2
I0624 16:39:49.814182 21152 net.cpp:425] conv3_2 <- conv3_1
I0624 16:39:49.814187 21152 net.cpp:399] conv3_2 -> conv3_2
I0624 16:39:49.816043 21152 net.cpp:141] Setting up conv3_2
I0624 16:39:49.816056 21152 net.cpp:148] Top shape: 16 128 28 28 (1605632)
I0624 16:39:49.816058 21152 net.cpp:156] Memory required for data: 359661760
I0624 16:39:49.816062 21152 layer_factory.hpp:77] Creating layer bn3_2
I0624 16:39:49.816069 21152 net.cpp:91] Creating Layer bn3_2
I0624 16:39:49.816072 21152 net.cpp:425] bn3_2 <- conv3_2
I0624 16:39:49.816077 21152 net.cpp:386] bn3_2 -> conv3_2 (in-place)
I0624 16:39:49.816237 21152 net.cpp:141] Setting up bn3_2
I0624 16:39:49.816246 21152 net.cpp:148] Top shape: 16 128 28 28 (1605632)
I0624 16:39:49.816247 21152 net.cpp:156] Memory required for data: 366084288
I0624 16:39:49.816259 21152 layer_factory.hpp:77] Creating layer scale3_2
I0624 16:39:49.816265 21152 net.cpp:91] Creating Layer scale3_2
I0624 16:39:49.816267 21152 net.cpp:425] scale3_2 <- conv3_2
I0624 16:39:49.816272 21152 net.cpp:386] scale3_2 -> conv3_2 (in-place)
I0624 16:39:49.816308 21152 layer_factory.hpp:77] Creating layer scale3_2
I0624 16:39:49.816401 21152 net.cpp:141] Setting up scale3_2
I0624 16:39:49.816407 21152 net.cpp:148] Top shape: 16 128 28 28 (1605632)
I0624 16:39:49.816409 21152 net.cpp:156] Memory required for data: 372506816
I0624 16:39:49.816414 21152 layer_factory.hpp:77] Creating layer relu3_2
I0624 16:39:49.816424 21152 net.cpp:91] Creating Layer relu3_2
I0624 16:39:49.816426 21152 net.cpp:425] relu3_2 <- conv3_2
I0624 16:39:49.816431 21152 net.cpp:386] relu3_2 -> conv3_2 (in-place)
I0624 16:39:49.816579 21152 net.cpp:141] Setting up relu3_2
I0624 16:39:49.816587 21152 net.cpp:148] Top shape: 16 128 28 28 (1605632)
I0624 16:39:49.816591 21152 net.cpp:156] Memory required for data: 378929344
I0624 16:39:49.816592 21152 layer_factory.hpp:77] Creating layer pool3
I0624 16:39:49.816598 21152 net.cpp:91] Creating Layer pool3
I0624 16:39:49.816601 21152 net.cpp:425] pool3 <- conv3_2
I0624 16:39:49.816606 21152 net.cpp:399] pool3 -> pool3
I0624 16:39:49.816643 21152 net.cpp:141] Setting up pool3
I0624 16:39:49.816648 21152 net.cpp:148] Top shape: 16 128 14 14 (401408)
I0624 16:39:49.816650 21152 net.cpp:156] Memory required for data: 380534976
I0624 16:39:49.816653 21152 layer_factory.hpp:77] Creating layer conv4_1
I0624 16:39:49.816660 21152 net.cpp:91] Creating Layer conv4_1
I0624 16:39:49.816663 21152 net.cpp:425] conv4_1 <- pool3
I0624 16:39:49.816676 21152 net.cpp:399] conv4_1 -> conv4_1
I0624 16:39:49.819334 21152 net.cpp:141] Setting up conv4_1
I0624 16:39:49.819347 21152 net.cpp:148] Top shape: 16 256 14 14 (802816)
I0624 16:39:49.819350 21152 net.cpp:156] Memory required for data: 383746240
I0624 16:39:49.819355 21152 layer_factory.hpp:77] Creating layer bn4_1
I0624 16:39:49.819362 21152 net.cpp:91] Creating Layer bn4_1
I0624 16:39:49.819365 21152 net.cpp:425] bn4_1 <- conv4_1
I0624 16:39:49.819370 21152 net.cpp:386] bn4_1 -> conv4_1 (in-place)
I0624 16:39:49.819535 21152 net.cpp:141] Setting up bn4_1
I0624 16:39:49.819542 21152 net.cpp:148] Top shape: 16 256 14 14 (802816)
I0624 16:39:49.819545 21152 net.cpp:156] Memory required for data: 386957504
I0624 16:39:49.819550 21152 layer_factory.hpp:77] Creating layer scale4_1
I0624 16:39:49.819555 21152 net.cpp:91] Creating Layer scale4_1
I0624 16:39:49.819558 21152 net.cpp:425] scale4_1 <- conv4_1
I0624 16:39:49.819562 21152 net.cpp:386] scale4_1 -> conv4_1 (in-place)
I0624 16:39:49.819597 21152 layer_factory.hpp:77] Creating layer scale4_1
I0624 16:39:49.819690 21152 net.cpp:141] Setting up scale4_1
I0624 16:39:49.819697 21152 net.cpp:148] Top shape: 16 256 14 14 (802816)
I0624 16:39:49.819700 21152 net.cpp:156] Memory required for data: 390168768
I0624 16:39:49.819703 21152 layer_factory.hpp:77] Creating layer relu4_1
I0624 16:39:49.819710 21152 net.cpp:91] Creating Layer relu4_1
I0624 16:39:49.819713 21152 net.cpp:425] relu4_1 <- conv4_1
I0624 16:39:49.819717 21152 net.cpp:386] relu4_1 -> conv4_1 (in-place)
I0624 16:39:49.819866 21152 net.cpp:141] Setting up relu4_1
I0624 16:39:49.819875 21152 net.cpp:148] Top shape: 16 256 14 14 (802816)
I0624 16:39:49.819877 21152 net.cpp:156] Memory required for data: 393380032
I0624 16:39:49.819880 21152 layer_factory.hpp:77] Creating layer conv4_2
I0624 16:39:49.819888 21152 net.cpp:91] Creating Layer conv4_2
I0624 16:39:49.819891 21152 net.cpp:425] conv4_2 <- conv4_1
I0624 16:39:49.819896 21152 net.cpp:399] conv4_2 -> conv4_2
I0624 16:39:49.825527 21152 net.cpp:141] Setting up conv4_2
I0624 16:39:49.825541 21152 net.cpp:148] Top shape: 16 256 14 14 (802816)
I0624 16:39:49.825543 21152 net.cpp:156] Memory required for data: 396591296
I0624 16:39:49.825547 21152 layer_factory.hpp:77] Creating layer bn4_2
I0624 16:39:49.825556 21152 net.cpp:91] Creating Layer bn4_2
I0624 16:39:49.825558 21152 net.cpp:425] bn4_2 <- conv4_2
I0624 16:39:49.825562 21152 net.cpp:386] bn4_2 -> conv4_2 (in-place)
I0624 16:39:49.825727 21152 net.cpp:141] Setting up bn4_2
I0624 16:39:49.825734 21152 net.cpp:148] Top shape: 16 256 14 14 (802816)
I0624 16:39:49.825737 21152 net.cpp:156] Memory required for data: 399802560
I0624 16:39:49.825742 21152 layer_factory.hpp:77] Creating layer scale4_2
I0624 16:39:49.825748 21152 net.cpp:91] Creating Layer scale4_2
I0624 16:39:49.825750 21152 net.cpp:425] scale4_2 <- conv4_2
I0624 16:39:49.825755 21152 net.cpp:386] scale4_2 -> conv4_2 (in-place)
I0624 16:39:49.825790 21152 layer_factory.hpp:77] Creating layer scale4_2
I0624 16:39:49.825886 21152 net.cpp:141] Setting up scale4_2
I0624 16:39:49.825893 21152 net.cpp:148] Top shape: 16 256 14 14 (802816)
I0624 16:39:49.825896 21152 net.cpp:156] Memory required for data: 403013824
I0624 16:39:49.825899 21152 layer_factory.hpp:77] Creating layer relu4_2
I0624 16:39:49.825904 21152 net.cpp:91] Creating Layer relu4_2
I0624 16:39:49.825906 21152 net.cpp:425] relu4_2 <- conv4_2
I0624 16:39:49.825911 21152 net.cpp:386] relu4_2 -> conv4_2 (in-place)
I0624 16:39:49.826303 21152 net.cpp:141] Setting up relu4_2
I0624 16:39:49.826314 21152 net.cpp:148] Top shape: 16 256 14 14 (802816)
I0624 16:39:49.826316 21152 net.cpp:156] Memory required for data: 406225088
I0624 16:39:49.826319 21152 layer_factory.hpp:77] Creating layer pool4
I0624 16:39:49.826325 21152 net.cpp:91] Creating Layer pool4
I0624 16:39:49.826328 21152 net.cpp:425] pool4 <- conv4_2
I0624 16:39:49.826333 21152 net.cpp:399] pool4 -> pool4
I0624 16:39:49.826375 21152 net.cpp:141] Setting up pool4
I0624 16:39:49.826382 21152 net.cpp:148] Top shape: 16 256 7 7 (200704)
I0624 16:39:49.826395 21152 net.cpp:156] Memory required for data: 407027904
I0624 16:39:49.826398 21152 layer_factory.hpp:77] Creating layer conv5_1
I0624 16:39:49.826407 21152 net.cpp:91] Creating Layer conv5_1
I0624 16:39:49.826411 21152 net.cpp:425] conv5_1 <- pool4
I0624 16:39:49.826414 21152 net.cpp:399] conv5_1 -> conv5_1
I0624 16:39:49.831885 21152 net.cpp:141] Setting up conv5_1
I0624 16:39:49.831900 21152 net.cpp:148] Top shape: 16 256 7 7 (200704)
I0624 16:39:49.831903 21152 net.cpp:156] Memory required for data: 407830720
I0624 16:39:49.831907 21152 layer_factory.hpp:77] Creating layer bn5_1
I0624 16:39:49.831914 21152 net.cpp:91] Creating Layer bn5_1
I0624 16:39:49.831918 21152 net.cpp:425] bn5_1 <- conv5_1
I0624 16:39:49.831921 21152 net.cpp:386] bn5_1 -> conv5_1 (in-place)
I0624 16:39:49.832098 21152 net.cpp:141] Setting up bn5_1
I0624 16:39:49.832105 21152 net.cpp:148] Top shape: 16 256 7 7 (200704)
I0624 16:39:49.832108 21152 net.cpp:156] Memory required for data: 408633536
I0624 16:39:49.832113 21152 layer_factory.hpp:77] Creating layer scale5_1
I0624 16:39:49.832120 21152 net.cpp:91] Creating Layer scale5_1
I0624 16:39:49.832123 21152 net.cpp:425] scale5_1 <- conv5_1
I0624 16:39:49.832126 21152 net.cpp:386] scale5_1 -> conv5_1 (in-place)
I0624 16:39:49.832162 21152 layer_factory.hpp:77] Creating layer scale5_1
I0624 16:39:49.832252 21152 net.cpp:141] Setting up scale5_1
I0624 16:39:49.832259 21152 net.cpp:148] Top shape: 16 256 7 7 (200704)
I0624 16:39:49.832262 21152 net.cpp:156] Memory required for data: 409436352
I0624 16:39:49.832267 21152 layer_factory.hpp:77] Creating layer relu5_1
I0624 16:39:49.832273 21152 net.cpp:91] Creating Layer relu5_1
I0624 16:39:49.832274 21152 net.cpp:425] relu5_1 <- conv5_1
I0624 16:39:49.832278 21152 net.cpp:386] relu5_1 -> conv5_1 (in-place)
I0624 16:39:49.832428 21152 net.cpp:141] Setting up relu5_1
I0624 16:39:49.832437 21152 net.cpp:148] Top shape: 16 256 7 7 (200704)
I0624 16:39:49.832439 21152 net.cpp:156] Memory required for data: 410239168
I0624 16:39:49.832442 21152 layer_factory.hpp:77] Creating layer conv5_2
I0624 16:39:49.832450 21152 net.cpp:91] Creating Layer conv5_2
I0624 16:39:49.832453 21152 net.cpp:425] conv5_2 <- conv5_1
I0624 16:39:49.832458 21152 net.cpp:399] conv5_2 -> conv5_2
I0624 16:39:49.838826 21152 net.cpp:141] Setting up conv5_2
I0624 16:39:49.838845 21152 net.cpp:148] Top shape: 16 256 7 7 (200704)
I0624 16:39:49.838848 21152 net.cpp:156] Memory required for data: 411041984
I0624 16:39:49.838855 21152 layer_factory.hpp:77] Creating layer bn5_2
I0624 16:39:49.838863 21152 net.cpp:91] Creating Layer bn5_2
I0624 16:39:49.838867 21152 net.cpp:425] bn5_2 <- conv5_2
I0624 16:39:49.838873 21152 net.cpp:386] bn5_2 -> conv5_2 (in-place)
I0624 16:39:49.839051 21152 net.cpp:141] Setting up bn5_2
I0624 16:39:49.839061 21152 net.cpp:148] Top shape: 16 256 7 7 (200704)
I0624 16:39:49.839064 21152 net.cpp:156] Memory required for data: 411844800
I0624 16:39:49.839073 21152 layer_factory.hpp:77] Creating layer scale5_2
I0624 16:39:49.839089 21152 net.cpp:91] Creating Layer scale5_2
I0624 16:39:49.839094 21152 net.cpp:425] scale5_2 <- conv5_2
I0624 16:39:49.839100 21152 net.cpp:386] scale5_2 -> conv5_2 (in-place)
I0624 16:39:49.839161 21152 layer_factory.hpp:77] Creating layer scale5_2
I0624 16:39:49.839274 21152 net.cpp:141] Setting up scale5_2
I0624 16:39:49.839284 21152 net.cpp:148] Top shape: 16 256 7 7 (200704)
I0624 16:39:49.839288 21152 net.cpp:156] Memory required for data: 412647616
I0624 16:39:49.839295 21152 layer_factory.hpp:77] Creating layer relu5_2
I0624 16:39:49.839308 21152 net.cpp:91] Creating Layer relu5_2
I0624 16:39:49.839310 21152 net.cpp:425] relu5_2 <- conv5_2
I0624 16:39:49.839316 21152 net.cpp:386] relu5_2 -> conv5_2 (in-place)
I0624 16:39:49.839470 21152 net.cpp:141] Setting up relu5_2
I0624 16:39:49.839479 21152 net.cpp:148] Top shape: 16 256 7 7 (200704)
I0624 16:39:49.839483 21152 net.cpp:156] Memory required for data: 413450432
I0624 16:39:49.839485 21152 layer_factory.hpp:77] Creating layer pool5
I0624 16:39:49.839504 21152 net.cpp:91] Creating Layer pool5
I0624 16:39:49.839506 21152 net.cpp:425] pool5 <- conv5_2
I0624 16:39:49.839510 21152 net.cpp:399] pool5 -> pool5
I0624 16:39:49.839685 21152 net.cpp:141] Setting up pool5
I0624 16:39:49.839694 21152 net.cpp:148] Top shape: 16 256 1 1 (4096)
I0624 16:39:49.839697 21152 net.cpp:156] Memory required for data: 413466816
I0624 16:39:49.839700 21152 layer_factory.hpp:77] Creating layer fc2
I0624 16:39:49.839706 21152 net.cpp:91] Creating Layer fc2
I0624 16:39:49.839709 21152 net.cpp:425] fc2 <- pool5
I0624 16:39:49.839714 21152 net.cpp:399] fc2 -> fc2
I0624 16:39:49.839823 21152 net.cpp:141] Setting up fc2
I0624 16:39:49.839829 21152 net.cpp:148] Top shape: 16 2 (32)
I0624 16:39:49.839831 21152 net.cpp:156] Memory required for data: 413466944
I0624 16:39:49.839836 21152 layer_factory.hpp:77] Creating layer fc2_fc2_0_split
I0624 16:39:49.839841 21152 net.cpp:91] Creating Layer fc2_fc2_0_split
I0624 16:39:49.839843 21152 net.cpp:425] fc2_fc2_0_split <- fc2
I0624 16:39:49.839848 21152 net.cpp:399] fc2_fc2_0_split -> fc2_fc2_0_split_0
I0624 16:39:49.839853 21152 net.cpp:399] fc2_fc2_0_split -> fc2_fc2_0_split_1
I0624 16:39:49.839885 21152 net.cpp:141] Setting up fc2_fc2_0_split
I0624 16:39:49.839890 21152 net.cpp:148] Top shape: 16 2 (32)
I0624 16:39:49.839893 21152 net.cpp:148] Top shape: 16 2 (32)
I0624 16:39:49.839895 21152 net.cpp:156] Memory required for data: 413467200
I0624 16:39:49.839897 21152 layer_factory.hpp:77] Creating layer loss
I0624 16:39:49.839901 21152 net.cpp:91] Creating Layer loss
I0624 16:39:49.839905 21152 net.cpp:425] loss <- fc2_fc2_0_split_0
I0624 16:39:49.839907 21152 net.cpp:425] loss <- label_data_1_split_0
I0624 16:39:49.839911 21152 net.cpp:399] loss -> loss
…
